…
I0411 19:08:31.677175  8167 net.cpp:313] The NetState phase (0) differed from the phase (1) specified by a rule in layer data
I0411 19:08:31.677368  8167 net.cpp:49] Initializing net from parameters: 
name: "CifarResNet0"
state {
  phase: TRAIN
}
layer {
  name: "data"
  type: "Data"
  top: "data"
  top: "label"
  include {
    phase: TRAIN
  }
  transform_param {
    mean_file: "/home/liangjiang/code/residual_network/data/cifar10/mean.binaryproto"
  }
  data_param {
    source: "/home/liangjiang/code/residual_network/data/cifar10/cifar10_train_lmdb"
    batch_size: 256
    backend: LMDB
  }
}
layer {
  name: "conv1"
  type: "Convolution"
  bottom: "data"
  top: "conv1"
  param {
    lr_mult: 1
  }
  param {
    lr_mult: 2
  }
  convolution_param {
    num_output: 8
    pad: 1
    kernel_size: 3
    stride: 1
    weight_filler {
      type: "msra"
    }
    bias_filler {
      type: "constant"
      value: 0
    }
  }
}
layer {
  name: "bn_conv1"
  type: "BatchNorm"
  bottom: "conv1"
  top: "conv1"
  param {
    lr_mult: 0
  }
  param {
    lr_mult: 0
  }
  param {
    lr_mult: 0
  }
}
layer {
  name: "scale_conv1"
  type: "Scale"
  bottom: "conv1"
  top: "conv1"
  param {
    lr_mult: 1
  }
  param {
    lr_mult: 2
  }
  scale_param {
    bias_term: true
  }
}
layer {
  name: "conv1_relu"
  type: "ReLU"
  bottom: "conv1"
  top: "conv1"
}
layer {
  name: "conv1_down"
  type: "Convolution"
  bottom: "conv1"
  top: "conv1_down"
  param {
    lr_mult: 0
  }
  convolution_param {
    num_output: 128
    bias_term: false
    pad: 0
    kernel_size: 4
    stride: 4
    weight_filler {
      type: "downsample"
      value: 1
    }
  }
}
layer {
  name: "scale_conv1_down"
  type: "Scale"
  bottom: "conv1_down"
  top: "conv1_down"
  param {
    lr_mult: 1
  }
  param {
    lr_mult: 2
  }
  scale_param {
    filler {
      type: "constant"
      value: 1
    }
    bias_term: true
  }
}
layer {
  name: "scale_conv1_down_c"
  type: "Scale"
  bottom: "conv1_down"
  top: "conv1_down"
  param {
    lr_mult: 0
  }
  scale_param {
    filler {
      type: "constant"
      value: 1
    }
    bias_term: false
  }
}
layer {
  name: "conv2_1a"
  type: "Convolution"
  bottom: "conv1"
  top: "conv2_1a"
  param {
    lr_mult: 1
  }
  param {
    lr_mult: 2
  }
  convolution_param {
    num_output: 8
    pad: 1
    kernel_size: 3
    stride: 1
    weight_filler {
      type: "msra"
    }
    bias_filler {
      type: "constant"
      value: 0
    }
  }
}
layer {
  name: "bn_conv2_1a"
  type: "BatchNorm"
  bottom: "conv2_1a"
  top: "conv2_1a"
  param {
    lr_mult: 0
  }
  param {
    lr_mult: 0
  }
  param {
    lr_mult: 0
  }
}
layer {
  name: "scale_conv2_1a"
  type: "Scale"
  bottom: "conv2_1a"
  top: "conv2_1a"
  param {
    lr_mult: 1
  }
  param {
    lr_mult: 2
  }
  scale_param {
    bias_term: true
  }
}
layer {
  name: "conv2_1a_relu"
  type: "ReLU"
  bottom: "conv2_1a"
  top: "conv2_1a"
}
layer {
  name: "conv2_1b"
  type: "Convolution"
  bottom: "conv2_1a"
  top: "conv2_1b"
  param {
    lr_mult: 1
  }
  param {
    lr_mult: 2
  }
  convolution_param {
    num_output: 8
    pad: 1
    kernel_size: 3
    stride: 1
    weight_filler {
      type: "msra"
    }
    bias_filler {
      type: "constant"
      value: 0
    }
  }
}
layer {
  name: "bn_conv2_1b"
  type: "BatchNorm"
  bottom: "conv2_1b"
  top: "conv2_1b"
  param {
    lr_mult: 0
  }
  param {
    lr_mult: 0
  }
  param {
    lr_mult: 0
  }
}
layer {
  name: "scale_conv2_1b"
  type: "Scale"
  bottom: "conv2_1b"
  top: "conv2_1b"
  param {
    lr_mult: 1
  }
  param {
    lr_mult: 2
  }
  scale_param {
    bias_term: true
  }
}
layer {
  name: "conv2_1b_relu"
  type: "ReLU"
  bottom: "conv2_1b"
  top: "conv2_1b"
}
layer {
  name: "conv2_down"
  type: "Convolution"
  bottom: "conv2_1b"
  top: "conv2_down"
  param {
    lr_mult: 0
  }
  convolution_param {
    num_output: 128
    bias_term: false
    pad: 0
    kernel_size: 4
    stride: 4
    weight_filler {
      type: "downsample"
      value: 1
    }
  }
}
layer {
  name: "scale_conv2_down"
  type: "Scale"
  bottom: "conv2_down"
  top: "conv2_down"
  param {
    lr_mult: 1
  }
  param {
    lr_mult: 2
  }
  scale_param {
    filler {
      type: "constant"
      value: 1
    }
    bias_term: true
  }
}
layer {
  name: "scale_conv2_down_c"
  type: "Scale"
  bottom: "conv2_down"
  top: "conv2_down"
  param {
    lr_mult: 0
  }
  scale_param {
    filler {
      type: "constant"
      value: 1
    }
    bias_term: false
  }
}
layer {
  name: "global_in"
  type: "Eltwise"
  bottom: "conv1_down"
  bottom: "conv2_down"
  top: "global_in"
}
layer {
  name: "global_pool"
  type: "Pooling"
  bottom: "global_in"
  top: "global_pool"
  pooling_param {
    pool: AVE
    kernel_size: 8
  }
}
layer {
  name: "ip"
  type: "InnerProduct"
  bottom: "global_pool"
  top: "ip"
  param {
    lr_mult: 1
  }
  param {
    lr_mult: 2
  }
  inner_product_param {
    num_output: 10
  }
}
layer {
  name: "accuracy"
  type: "Accuracy"
  bottom: "ip"
  bottom: "label"
  top: "accuracy"
}
layer {
  name: "loss"
  type: "SoftmaxWithLoss"
  bottom: "ip"
  bottom: "label"
  top: "loss"
}
I0411 19:08:31.677520  8167 layer_factory.hpp:77] Creating layer data
I0411 19:08:31.678194  8167 net.cpp:91] Creating Layer data
I0411 19:08:31.678213  8167 net.cpp:399] data -> data
I0411 19:08:31.678231  8167 net.cpp:399] data -> label
I0411 19:08:31.678247  8167 data_transformer.cpp:25] Loading mean file from: /home/liangjiang/code/residual_network/data/cifar10/mean.binaryproto
I0411 19:08:31.680891  8225 db_lmdb.cpp:38] Opened lmdb /home/liangjiang/code/residual_network/data/cifar10/cifar10_train_lmdb
I0411 19:08:31.695080  8167 data_layer.cpp:41] output data size: 256,3,32,32
I0411 19:08:31.702061  8167 net.cpp:141] Setting up data
I0411 19:08:31.702090  8167 net.cpp:148] Top shape: 256 3 32 32 (786432)
I0411 19:08:31.702098  8167 net.cpp:148] Top shape: 256 (256)
I0411 19:08:31.702111  8167 net.cpp:156] Memory required for data: 3146752
I0411 19:08:31.702118  8167 layer_factory.hpp:77] Creating layer label_data_1_split
I0411 19:08:31.702137  8167 net.cpp:91] Creating Layer label_data_1_split
I0411 19:08:31.702145  8167 net.cpp:425] label_data_1_split <- label
I0411 19:08:31.702157  8167 net.cpp:399] label_data_1_split -> label_data_1_split_0
I0411 19:08:31.702170  8167 net.cpp:399] label_data_1_split -> label_data_1_split_1
I0411 19:08:31.702225  8167 net.cpp:141] Setting up label_data_1_split
I0411 19:08:31.702236  8167 net.cpp:148] Top shape: 256 (256)
I0411 19:08:31.702244  8167 net.cpp:148] Top shape: 256 (256)
I0411 19:08:31.702247  8167 net.cpp:156] Memory required for data: 3148800
I0411 19:08:31.702253  8167 layer_factory.hpp:77] Creating layer conv1
I0411 19:08:31.702272  8167 net.cpp:91] Creating Layer conv1
I0411 19:08:31.702278  8167 net.cpp:425] conv1 <- data
I0411 19:08:31.702296  8167 net.cpp:399] conv1 -> conv1
I0411 19:08:31.909000  8167 net.cpp:141] Setting up conv1
I0411 19:08:31.909047  8167 net.cpp:148] Top shape: 256 8 32 32 (2097152)
I0411 19:08:31.909054  8167 net.cpp:156] Memory required for data: 11537408
I0411 19:08:31.909077  8167 layer_factory.hpp:77] Creating layer bn_conv1
I0411 19:08:31.909096  8167 net.cpp:91] Creating Layer bn_conv1
I0411 19:08:31.909103  8167 net.cpp:425] bn_conv1 <- conv1
I0411 19:08:31.909121  8167 net.cpp:386] bn_conv1 -> conv1 (in-place)
I0411 19:08:31.909320  8167 net.cpp:141] Setting up bn_conv1
I0411 19:08:31.909332  8167 net.cpp:148] Top shape: 256 8 32 32 (2097152)
I0411 19:08:31.909338  8167 net.cpp:156] Memory required for data: 19926016
I0411 19:08:31.909353  8167 layer_factory.hpp:77] Creating layer scale_conv1
I0411 19:08:31.909368  8167 net.cpp:91] Creating Layer scale_conv1
I0411 19:08:31.909374  8167 net.cpp:425] scale_conv1 <- conv1
I0411 19:08:31.909384  8167 net.cpp:386] scale_conv1 -> conv1 (in-place)
I0411 19:08:31.909430  8167 layer_factory.hpp:77] Creating layer scale_conv1
I0411 19:08:31.909548  8167 net.cpp:141] Setting up scale_conv1
I0411 19:08:31.909559  8167 net.cpp:148] Top shape: 256 8 32 32 (2097152)
I0411 19:08:31.909564  8167 net.cpp:156] Memory required for data: 28314624
I0411 19:08:31.909574  8167 layer_factory.hpp:77] Creating layer conv1_relu
I0411 19:08:31.909584  8167 net.cpp:91] Creating Layer conv1_relu
I0411 19:08:31.909590  8167 net.cpp:425] conv1_relu <- conv1
I0411 19:08:31.909597  8167 net.cpp:386] conv1_relu -> conv1 (in-place)
I0411 19:08:31.909953  8167 net.cpp:141] Setting up conv1_relu
I0411 19:08:31.909972  8167 net.cpp:148] Top shape: 256 8 32 32 (2097152)
I0411 19:08:31.909978  8167 net.cpp:156] Memory required for data: 36703232
I0411 19:08:31.909984  8167 layer_factory.hpp:77] Creating layer conv1_conv1_relu_0_split
I0411 19:08:31.909994  8167 net.cpp:91] Creating Layer conv1_conv1_relu_0_split
I0411 19:08:31.910001  8167 net.cpp:425] conv1_conv1_relu_0_split <- conv1
I0411 19:08:31.910008  8167 net.cpp:399] conv1_conv1_relu_0_split -> conv1_conv1_relu_0_split_0
I0411 19:08:31.910020  8167 net.cpp:399] conv1_conv1_relu_0_split -> conv1_conv1_relu_0_split_1
I0411 19:08:31.910065  8167 net.cpp:141] Setting up conv1_conv1_relu_0_split
I0411 19:08:31.910075  8167 net.cpp:148] Top shape: 256 8 32 32 (2097152)
I0411 19:08:31.910082  8167 net.cpp:148] Top shape: 256 8 32 32 (2097152)
I0411 19:08:31.910087  8167 net.cpp:156] Memory required for data: 53480448
I0411 19:08:31.910094  8167 layer_factory.hpp:77] Creating layer conv1_down
I0411 19:08:31.910109  8167 net.cpp:91] Creating Layer conv1_down
I0411 19:08:31.910115  8167 net.cpp:425] conv1_down <- conv1_conv1_relu_0_split_0
I0411 19:08:31.910123  8167 net.cpp:399] conv1_down -> conv1_down
I0411 19:08:31.911619  8167 net.cpp:141] Setting up conv1_down
I0411 19:08:31.911639  8167 net.cpp:148] Top shape: 256 128 8 8 (2097152)
I0411 19:08:31.911646  8167 net.cpp:156] Memory required for data: 61869056
I0411 19:08:31.911655  8167 layer_factory.hpp:77] Creating layer scale_conv1_down
I0411 19:08:31.911669  8167 net.cpp:91] Creating Layer scale_conv1_down
I0411 19:08:31.911684  8167 net.cpp:425] scale_conv1_down <- conv1_down
I0411 19:08:31.911694  8167 net.cpp:386] scale_conv1_down -> conv1_down (in-place)
I0411 19:08:31.911744  8167 layer_factory.hpp:77] Creating layer scale_conv1_down
I0411 19:08:31.911854  8167 net.cpp:141] Setting up scale_conv1_down
I0411 19:08:31.911865  8167 net.cpp:148] Top shape: 256 128 8 8 (2097152)
I0411 19:08:31.911870  8167 net.cpp:156] Memory required for data: 70257664
I0411 19:08:31.911883  8167 layer_factory.hpp:77] Creating layer scale_conv1_down_c
I0411 19:08:31.911893  8167 net.cpp:91] Creating Layer scale_conv1_down_c
I0411 19:08:31.911900  8167 net.cpp:425] scale_conv1_down_c <- conv1_down
I0411 19:08:31.911907  8167 net.cpp:386] scale_conv1_down_c -> conv1_down (in-place)
I0411 19:08:31.911985  8167 net.cpp:141] Setting up scale_conv1_down_c
I0411 19:08:31.911995  8167 net.cpp:148] Top shape: 256 128 8 8 (2097152)
I0411 19:08:31.912001  8167 net.cpp:156] Memory required for data: 78646272
I0411 19:08:31.912009  8167 layer_factory.hpp:77] Creating layer conv2_1a
I0411 19:08:31.912021  8167 net.cpp:91] Creating Layer conv2_1a
I0411 19:08:31.912027  8167 net.cpp:425] conv2_1a <- conv1_conv1_relu_0_split_1
I0411 19:08:31.912037  8167 net.cpp:399] conv2_1a -> conv2_1a
I0411 19:08:31.913061  8167 net.cpp:141] Setting up conv2_1a
I0411 19:08:31.913081  8167 net.cpp:148] Top shape: 256 8 32 32 (2097152)
I0411 19:08:31.913087  8167 net.cpp:156] Memory required for data: 87034880
I0411 19:08:31.913097  8167 layer_factory.hpp:77] Creating layer bn_conv2_1a
I0411 19:08:31.913107  8167 net.cpp:91] Creating Layer bn_conv2_1a
I0411 19:08:31.913120  8167 net.cpp:425] bn_conv2_1a <- conv2_1a
I0411 19:08:31.913130  8167 net.cpp:386] bn_conv2_1a -> conv2_1a (in-place)
I0411 19:08:31.913321  8167 net.cpp:141] Setting up bn_conv2_1a
I0411 19:08:31.913334  8167 net.cpp:148] Top shape: 256 8 32 32 (2097152)
I0411 19:08:31.913339  8167 net.cpp:156] Memory required for data: 95423488
I0411 19:08:31.913350  8167 layer_factory.hpp:77] Creating layer scale_conv2_1a
I0411 19:08:31.913359  8167 net.cpp:91] Creating Layer scale_conv2_1a
I0411 19:08:31.913365  8167 net.cpp:425] scale_conv2_1a <- conv2_1a
I0411 19:08:31.913373  8167 net.cpp:386] scale_conv2_1a -> conv2_1a (in-place)
I0411 19:08:31.913414  8167 layer_factory.hpp:77] Creating layer scale_conv2_1a
I0411 19:08:31.913522  8167 net.cpp:141] Setting up scale_conv2_1a
I0411 19:08:31.913532  8167 net.cpp:148] Top shape: 256 8 32 32 (2097152)
I0411 19:08:31.913537  8167 net.cpp:156] Memory required for data: 103812096
I0411 19:08:31.913550  8167 layer_factory.hpp:77] Creating layer conv2_1a_relu
I0411 19:08:31.913559  8167 net.cpp:91] Creating Layer conv2_1a_relu
I0411 19:08:31.913564  8167 net.cpp:425] conv2_1a_relu <- conv2_1a
I0411 19:08:31.913573  8167 net.cpp:386] conv2_1a_relu -> conv2_1a (in-place)
I0411 19:08:31.913929  8167 net.cpp:141] Setting up conv2_1a_relu
I0411 19:08:31.913949  8167 net.cpp:148] Top shape: 256 8 32 32 (2097152)
I0411 19:08:31.913954  8167 net.cpp:156] Memory required for data: 112200704
I0411 19:08:31.913960  8167 layer_factory.hpp:77] Creating layer conv2_1b
I0411 19:08:31.913975  8167 net.cpp:91] Creating Layer conv2_1b
I0411 19:08:31.913980  8167 net.cpp:425] conv2_1b <- conv2_1a
I0411 19:08:31.913990  8167 net.cpp:399] conv2_1b -> conv2_1b
I0411 19:08:31.915042  8167 net.cpp:141] Setting up conv2_1b
I0411 19:08:31.915061  8167 net.cpp:148] Top shape: 256 8 32 32 (2097152)
I0411 19:08:31.915067  8167 net.cpp:156] Memory required for data: 120589312
I0411 19:08:31.915077  8167 layer_factory.hpp:77] Creating layer bn_conv2_1b
I0411 19:08:31.915087  8167 net.cpp:91] Creating Layer bn_conv2_1b
I0411 19:08:31.915093  8167 net.cpp:425] bn_conv2_1b <- conv2_1b
I0411 19:08:31.915102  8167 net.cpp:386] bn_conv2_1b -> conv2_1b (in-place)
I0411 19:08:31.915295  8167 net.cpp:141] Setting up bn_conv2_1b
I0411 19:08:31.915307  8167 net.cpp:148] Top shape: 256 8 32 32 (2097152)
I0411 19:08:31.915312  8167 net.cpp:156] Memory required for data: 128977920
I0411 19:08:31.915328  8167 layer_factory.hpp:77] Creating layer scale_conv2_1b
I0411 19:08:31.915339  8167 net.cpp:91] Creating Layer scale_conv2_1b
I0411 19:08:31.915345  8167 net.cpp:425] scale_conv2_1b <- conv2_1b
I0411 19:08:31.915354  8167 net.cpp:386] scale_conv2_1b -> conv2_1b (in-place)
I0411 19:08:31.915397  8167 layer_factory.hpp:77] Creating layer scale_conv2_1b
I0411 19:08:31.915509  8167 net.cpp:141] Setting up scale_conv2_1b
I0411 19:08:31.915520  8167 net.cpp:148] Top shape: 256 8 32 32 (2097152)
I0411 19:08:31.915525  8167 net.cpp:156] Memory required for data: 137366528
I0411 19:08:31.915534  8167 layer_factory.hpp:77] Creating layer conv2_1b_relu
I0411 19:08:31.915542  8167 net.cpp:91] Creating Layer conv2_1b_relu
I0411 19:08:31.915549  8167 net.cpp:425] conv2_1b_relu <- conv2_1b
I0411 19:08:31.915555  8167 net.cpp:386] conv2_1b_relu -> conv2_1b (in-place)
I0411 19:08:31.915747  8167 net.cpp:141] Setting up conv2_1b_relu
I0411 19:08:31.915761  8167 net.cpp:148] Top shape: 256 8 32 32 (2097152)
I0411 19:08:31.915766  8167 net.cpp:156] Memory required for data: 145755136
I0411 19:08:31.915772  8167 layer_factory.hpp:77] Creating layer conv2_down
I0411 19:08:31.915786  8167 net.cpp:91] Creating Layer conv2_down
I0411 19:08:31.915792  8167 net.cpp:425] conv2_down <- conv2_1b
I0411 19:08:31.915802  8167 net.cpp:399] conv2_down -> conv2_down
I0411 19:08:31.916790  8167 net.cpp:141] Setting up conv2_down
I0411 19:08:31.916810  8167 net.cpp:148] Top shape: 256 128 8 8 (2097152)
I0411 19:08:31.916815  8167 net.cpp:156] Memory required for data: 154143744
I0411 19:08:31.916824  8167 layer_factory.hpp:77] Creating layer scale_conv2_down
I0411 19:08:31.916836  8167 net.cpp:91] Creating Layer scale_conv2_down
I0411 19:08:31.916841  8167 net.cpp:425] scale_conv2_down <- conv2_down
I0411 19:08:31.916851  8167 net.cpp:386] scale_conv2_down -> conv2_down (in-place)
I0411 19:08:31.916903  8167 layer_factory.hpp:77] Creating layer scale_conv2_down
I0411 19:08:31.917017  8167 net.cpp:141] Setting up scale_conv2_down
I0411 19:08:31.917027  8167 net.cpp:148] Top shape: 256 128 8 8 (2097152)
I0411 19:08:31.917033  8167 net.cpp:156] Memory required for data: 162532352
I0411 19:08:31.917042  8167 layer_factory.hpp:77] Creating layer scale_conv2_down_c
I0411 19:08:31.917052  8167 net.cpp:91] Creating Layer scale_conv2_down_c
I0411 19:08:31.917057  8167 net.cpp:425] scale_conv2_down_c <- conv2_down
I0411 19:08:31.917065  8167 net.cpp:386] scale_conv2_down_c -> conv2_down (in-place)
I0411 19:08:31.917158  8167 net.cpp:141] Setting up scale_conv2_down_c
I0411 19:08:31.917172  8167 net.cpp:148] Top shape: 256 128 8 8 (2097152)
I0411 19:08:31.917177  8167 net.cpp:156] Memory required for data: 170920960
I0411 19:08:31.917186  8167 layer_factory.hpp:77] Creating layer global_in
I0411 19:08:31.917194  8167 net.cpp:91] Creating Layer global_in
I0411 19:08:31.917199  8167 net.cpp:425] global_in <- conv1_down
I0411 19:08:31.917207  8167 net.cpp:425] global_in <- conv2_down
I0411 19:08:31.917214  8167 net.cpp:399] global_in -> global_in
I0411 19:08:31.917250  8167 net.cpp:141] Setting up global_in
I0411 19:08:31.917260  8167 net.cpp:148] Top shape: 256 128 8 8 (2097152)
I0411 19:08:31.917265  8167 net.cpp:156] Memory required for data: 179309568
I0411 19:08:31.917271  8167 layer_factory.hpp:77] Creating layer global_pool
I0411 19:08:31.917280  8167 net.cpp:91] Creating Layer global_pool
I0411 19:08:31.917286  8167 net.cpp:425] global_pool <- global_in
I0411 19:08:31.917295  8167 net.cpp:399] global_pool -> global_pool
I0411 19:08:31.917531  8167 net.cpp:141] Setting up global_pool
I0411 19:08:31.917548  8167 net.cpp:148] Top shape: 256 128 1 1 (32768)
I0411 19:08:31.917554  8167 net.cpp:156] Memory required for data: 179440640
I0411 19:08:31.917559  8167 layer_factory.hpp:77] Creating layer ip
I0411 19:08:31.917570  8167 net.cpp:91] Creating Layer ip
I0411 19:08:31.917577  8167 net.cpp:425] ip <- global_pool
I0411 19:08:31.917584  8167 net.cpp:399] ip -> ip
I0411 19:08:31.917706  8167 net.cpp:141] Setting up ip
I0411 19:08:31.917718  8167 net.cpp:148] Top shape: 256 10 (2560)
I0411 19:08:31.917728  8167 net.cpp:156] Memory required for data: 179450880
I0411 19:08:31.917737  8167 layer_factory.hpp:77] Creating layer ip_ip_0_split
I0411 19:08:31.917747  8167 net.cpp:91] Creating Layer ip_ip_0_split
I0411 19:08:31.917752  8167 net.cpp:425] ip_ip_0_split <- ip
I0411 19:08:31.917762  8167 net.cpp:399] ip_ip_0_split -> ip_ip_0_split_0
I0411 19:08:31.917771  8167 net.cpp:399] ip_ip_0_split -> ip_ip_0_split_1
I0411 19:08:31.917809  8167 net.cpp:141] Setting up ip_ip_0_split
I0411 19:08:31.917819  8167 net.cpp:148] Top shape: 256 10 (2560)
I0411 19:08:31.917825  8167 net.cpp:148] Top shape: 256 10 (2560)
I0411 19:08:31.917830  8167 net.cpp:156] Memory required for data: 179471360
I0411 19:08:31.917835  8167 layer_factory.hpp:77] Creating layer accuracy
I0411 19:08:31.917850  8167 net.cpp:91] Creating Layer accuracy
I0411 19:08:31.917856  8167 net.cpp:425] accuracy <- ip_ip_0_split_0
I0411 19:08:31.917863  8167 net.cpp:425] accuracy <- label_data_1_split_0
I0411 19:08:31.917871  8167 net.cpp:399] accuracy -> accuracy
…
I0411 19:08:31.919466  8167 net.cpp:313] The NetState phase (1) differed from the phase (0) specified by a rule in layer data
I0411 19:08:31.919668  8167 net.cpp:49] Initializing net from parameters: 
name: "CifarResNet0"
state {
  phase: TEST
}
layer {
  name: "data"
  type: "Data"
  top: "data"
  top: "label"
  include {
    phase: TEST
  }
  transform_param {
    mean_file: "/home/liangjiang/code/residual_network/data/cifar10/mean.binaryproto"
  }
  data_param {
    source: "/home/liangjiang/code/residual_network/data/cifar10/cifar10_test_lmdb"
    batch_size: 32
    backend: LMDB
  }
}
layer {
  name: "conv1"
  type: "Convolution"
  bottom: "data"
  top: "conv1"
  param {
    lr_mult: 1
  }
  param {
    lr_mult: 2
  }
  convolution_param {
    num_output: 8
    pad: 1
    kernel_size: 3
    stride: 1
    weight_filler {
      type: "msra"
    }
    bias_filler {
      type: "constant"
      value: 0
    }
  }
}
layer {
  name: "bn_conv1"
  type: "BatchNorm"
  bottom: "conv1"
  top: "conv1"
  param {
    lr_mult: 0
  }
  param {
    lr_mult: 0
  }
  param {
    lr_mult: 0
  }
}
layer {
  name: "scale_conv1"
  type: "Scale"
  bottom: "conv1"
  top: "conv1"
  param {
    lr_mult: 1
  }
  param {
    lr_mult: 2
  }
  scale_param {
    bias_term: true
  }
}
layer {
  name: "conv1_relu"
  type: "ReLU"
  bottom: "conv1"
  top: "conv1"
}
layer {
  name: "conv1_down"
  type: "Convolution"
  bottom: "conv1"
  top: "conv1_down"
  param {
    lr_mult: 0
  }
  convolution_param {
    num_output: 128
    bias_term: false
    pad: 0
    kernel_size: 4
    stride: 4
    weight_filler {
      type: "downsample"
      value: 1
    }
  }
}
layer {
  name: "scale_conv1_down"
  type: "Scale"
  bottom: "conv1_down"
  top: "conv1_down"
  param {
    lr_mult: 1
  }
  param {
    lr_mult: 2
  }
  scale_param {
    filler {
      type: "constant"
      value: 1
    }
    bias_term: true
  }
}
layer {
  name: "scale_conv1_down_c"
  type: "Scale"
  bottom: "conv1_down"
  top: "conv1_down"
  param {
    lr_mult: 0
  }
  scale_param {
    filler {
      type: "constant"
      value: 1
    }
    bias_term: false
  }
}
layer {
  name: "conv2_1a"
  type: "Convolution"
  bottom: "conv1"
  top: "conv2_1a"
  param {
    lr_mult: 1
  }
  param {
    lr_mult: 2
  }
  convolution_param {
    num_output: 8
    pad: 1
    kernel_size: 3
    stride: 1
    weight_filler {
      type: "msra"
    }
    bias_filler {
      type: "constant"
      value: 0
    }
  }
}
layer {
  name: "bn_conv2_1a"
  type: "BatchNorm"
  bottom: "conv2_1a"
  top: "conv2_1a"
  param {
    lr_mult: 0
  }
  param {
    lr_mult: 0
  }
  param {
    lr_mult: 0
  }
}
layer {
  name: "scale_conv2_1a"
  type: "Scale"
  bottom: "conv2_1a"
  top: "conv2_1a"
  param {
    lr_mult: 1
  }
  param {
    lr_mult: 2
  }
  scale_param {
    bias_term: true
  }
}
layer {
  name: "conv2_1a_relu"
  type: "ReLU"
  bottom: "conv2_1a"
  top: "conv2_1a"
}
layer {
  name: "conv2_1b"
  type: "Convolution"
  bottom: "conv2_1a"
  top: "conv2_1b"
  param {
    lr_mult: 1
  }
  param {
    lr_mult: 2
  }
  convolution_param {
    num_output: 8
    pad: 1
    kernel_size: 3
    stride: 1
    weight_filler {
      type: "msra"
    }
    bias_filler {
      type: "constant"
      value: 0
    }
  }
}
layer {
  name: "bn_conv2_1b"
  type: "BatchNorm"
  bottom: "conv2_1b"
  top: "conv2_1b"
  param {
    lr_mult: 0
  }
  param {
    lr_mult: 0
  }
  param {
    lr_mult: 0
  }
}
layer {
  name: "scale_conv2_1b"
  type: "Scale"
  bottom: "conv2_1b"
  top: "conv2_1b"
  param {
    lr_mult: 1
  }
  param {
    lr_mult: 2
  }
  scale_param {
    bias_term: true
  }
}
layer {
  name: "conv2_1b_relu"
  type: "ReLU"
  bottom: "conv2_1b"
  top: "conv2_1b"
}
layer {
  name: "conv2_down"
  type: "Convolution"
  bottom: "conv2_1b"
  top: "conv2_down"
  param {
    lr_mult: 0
  }
  convolution_param {
    num_output: 128
    bias_term: false
    pad: 0
    kernel_size: 4
    stride: 4
    weight_filler {
      type: "downsample"
      value: 1
    }
  }
}
layer {
  name: "scale_conv2_down"
  type: "Scale"
  bottom: "conv2_down"
  top: "conv2_down"
  param {
    lr_mult: 1
  }
  param {
    lr_mult: 2
  }
  scale_param {
    filler {
      type: "constant"
      value: 1
    }
    bias_term: true
  }
}
layer {
  name: "scale_conv2_down_c"
  type: "Scale"
  bottom: "conv2_down"
  top: "conv2_down"
  param {
    lr_mult: 0
  }
  scale_param {
    filler {
      type: "constant"
      value: 1
    }
    bias_term: false
  }
}
layer {
  name: "global_in"
  type: "Eltwise"
  bottom: "conv1_down"
  bottom: "conv2_down"
  top: "global_in"
}
layer {
  name: "global_pool"
  type: "Pooling"
  bottom: "global_in"
  top: "global_pool"
  pooling_param {
    pool: AVE
    kernel_size: 8
  }
}
layer {
  name: "ip"
  type: "InnerProduct"
  bottom: "global_pool"
  top: "ip"
  param {
    lr_mult: 1
  }
  param {
    lr_mult: 2
  }
  inner_product_param {
    num_output: 10
  }
}
layer {
  name: "accuracy"
  type: "Accuracy"
  bottom: "ip"
  bottom: "label"
  top: "accuracy"
}
layer {
  name: "loss"
  type: "SoftmaxWithLoss"
  bottom: "ip"
  bottom: "label"
  top: "loss"
}
I0411 19:08:31.919824  8167 layer_factory.hpp:77] Creating layer data
I0411 19:08:31.919926  8167 net.cpp:91] Creating Layer data
I0411 19:08:31.919940  8167 net.cpp:399] data -> data
I0411 19:08:31.919955  8167 net.cpp:399] data -> label
I0411 19:08:31.919967  8167 data_transformer.cpp:25] Loading mean file from: /home/liangjiang/code/residual_network/data/cifar10/mean.binaryproto
I0411 19:08:31.920981  8241 db_lmdb.cpp:38] Opened lmdb /home/liangjiang/code/residual_network/data/cifar10/cifar10_test_lmdb
I0411 19:08:31.921123  8167 data_layer.cpp:41] output data size: 32,3,32,32
I0411 19:08:31.923075  8167 net.cpp:141] Setting up data
I0411 19:08:31.923095  8167 net.cpp:148] Top shape: 32 3 32 32 (98304)
I0411 19:08:31.923104  8167 net.cpp:148] Top shape: 32 (32)
I0411 19:08:31.923110  8167 net.cpp:156] Memory required for data: 393344
I0411 19:08:31.923116  8167 layer_factory.hpp:77] Creating layer label_data_1_split
I0411 19:08:31.923126  8167 net.cpp:91] Creating Layer label_data_1_split
I0411 19:08:31.923133  8167 net.cpp:425] label_data_1_split <- label
I0411 19:08:31.923141  8167 net.cpp:399] label_data_1_split -> label_data_1_split_0
I0411 19:08:31.923152  8167 net.cpp:399] label_data_1_split -> label_data_1_split_1
I0411 19:08:31.923264  8167 net.cpp:141] Setting up label_data_1_split
I0411 19:08:31.923280  8167 net.cpp:148] Top shape: 32 (32)
I0411 19:08:31.923286  8167 net.cpp:148] Top shape: 32 (32)
I0411 19:08:31.923291  8167 net.cpp:156] Memory required for data: 393600
I0411 19:08:31.923297  8167 layer_factory.hpp:77] Creating layer conv1
I0411 19:08:31.923313  8167 net.cpp:91] Creating Layer conv1
I0411 19:08:31.923319  8167 net.cpp:425] conv1 <- data
I0411 19:08:31.923331  8167 net.cpp:399] conv1 -> conv1
I0411 19:08:31.924715  8167 net.cpp:141] Setting up conv1
I0411 19:08:31.924737  8167 net.cpp:148] Top shape: 32 8 32 32 (262144)
I0411 19:08:31.924743  8167 net.cpp:156] Memory required for data: 1442176
I0411 19:08:31.924757  8167 layer_factory.hpp:77] Creating layer bn_conv1
I0411 19:08:31.924770  8167 net.cpp:91] Creating Layer bn_conv1
I0411 19:08:31.924777  8167 net.cpp:425] bn_conv1 <- conv1
I0411 19:08:31.924787  8167 net.cpp:386] bn_conv1 -> conv1 (in-place)
I0411 19:08:31.925001  8167 net.cpp:141] Setting up bn_conv1
I0411 19:08:31.925014  8167 net.cpp:148] Top shape: 32 8 32 32 (262144)
I0411 19:08:31.925019  8167 net.cpp:156] Memory required for data: 2490752
I0411 19:08:31.925034  8167 layer_factory.hpp:77] Creating layer scale_conv1
I0411 19:08:31.925046  8167 net.cpp:91] Creating Layer scale_conv1
I0411 19:08:31.925052  8167 net.cpp:425] scale_conv1 <- conv1
I0411 19:08:31.925065  8167 net.cpp:386] scale_conv1 -> conv1 (in-place)
I0411 19:08:31.925137  8167 layer_factory.hpp:77] Creating layer scale_conv1
I0411 19:08:31.925267  8167 net.cpp:141] Setting up scale_conv1
I0411 19:08:31.925279  8167 net.cpp:148] Top shape: 32 8 32 32 (262144)
I0411 19:08:31.925284  8167 net.cpp:156] Memory required for data: 3539328
I0411 19:08:31.925293  8167 layer_factory.hpp:77] Creating layer conv1_relu
I0411 19:08:31.925303  8167 net.cpp:91] Creating Layer conv1_relu
I0411 19:08:31.925318  8167 net.cpp:425] conv1_relu <- conv1
I0411 19:08:31.925325  8167 net.cpp:386] conv1_relu -> conv1 (in-place)
I0411 19:08:31.925671  8167 net.cpp:141] Setting up conv1_relu
I0411 19:08:31.925693  8167 net.cpp:148] Top shape: 32 8 32 32 (262144)
I0411 19:08:31.925698  8167 net.cpp:156] Memory required for data: 4587904
I0411 19:08:31.925704  8167 layer_factory.hpp:77] Creating layer conv1_conv1_relu_0_split
I0411 19:08:31.925714  8167 net.cpp:91] Creating Layer conv1_conv1_relu_0_split
I0411 19:08:31.925719  8167 net.cpp:425] conv1_conv1_relu_0_split <- conv1
I0411 19:08:31.925729  8167 net.cpp:399] conv1_conv1_relu_0_split -> conv1_conv1_relu_0_split_0
I0411 19:08:31.925740  8167 net.cpp:399] conv1_conv1_relu_0_split -> conv1_conv1_relu_0_split_1
I0411 19:08:31.925876  8167 net.cpp:141] Setting up conv1_conv1_relu_0_split
I0411 19:08:31.925891  8167 net.cpp:148] Top shape: 32 8 32 32 (262144)
I0411 19:08:31.925899  8167 net.cpp:148] Top shape: 32 8 32 32 (262144)
I0411 19:08:31.925904  8167 net.cpp:156] Memory required for data: 6685056
I0411 19:08:31.925910  8167 layer_factory.hpp:77] Creating layer conv1_down
I0411 19:08:31.925922  8167 net.cpp:91] Creating Layer conv1_down
I0411 19:08:31.925928  8167 net.cpp:425] conv1_down <- conv1_conv1_relu_0_split_0
I0411 19:08:31.925940  8167 net.cpp:399] conv1_down -> conv1_down
I0411 19:08:31.927155  8167 net.cpp:141] Setting up conv1_down
I0411 19:08:31.927175  8167 net.cpp:148] Top shape: 32 128 8 8 (262144)
I0411 19:08:31.927189  8167 net.cpp:156] Memory required for data: 7733632
I0411 19:08:31.927198  8167 layer_factory.hpp:77] Creating layer scale_conv1_down
I0411 19:08:31.927213  8167 net.cpp:91] Creating Layer scale_conv1_down
I0411 19:08:31.927220  8167 net.cpp:425] scale_conv1_down <- conv1_down
I0411 19:08:31.927230  8167 net.cpp:386] scale_conv1_down -> conv1_down (in-place)
I0411 19:08:31.927287  8167 layer_factory.hpp:77] Creating layer scale_conv1_down
I0411 19:08:31.927420  8167 net.cpp:141] Setting up scale_conv1_down
I0411 19:08:31.927431  8167 net.cpp:148] Top shape: 32 128 8 8 (262144)
I0411 19:08:31.927438  8167 net.cpp:156] Memory required for data: 8782208
I0411 19:08:31.927450  8167 layer_factory.hpp:77] Creating layer scale_conv1_down_c
I0411 19:08:31.927464  8167 net.cpp:91] Creating Layer scale_conv1_down_c
I0411 19:08:31.927479  8167 net.cpp:425] scale_conv1_down_c <- conv1_down
I0411 19:08:31.927489  8167 net.cpp:386] scale_conv1_down_c -> conv1_down (in-place)
I0411 19:08:31.927583  8167 net.cpp:141] Setting up scale_conv1_down_c
I0411 19:08:31.927594  8167 net.cpp:148] Top shape: 32 128 8 8 (262144)
I0411 19:08:31.927599  8167 net.cpp:156] Memory required for data: 9830784
I0411 19:08:31.927606  8167 layer_factory.hpp:77] Creating layer conv2_1a
I0411 19:08:31.927628  8167 net.cpp:91] Creating Layer conv2_1a
I0411 19:08:31.927634  8167 net.cpp:425] conv2_1a <- conv1_conv1_relu_0_split_1
I0411 19:08:31.927644  8167 net.cpp:399] conv2_1a -> conv2_1a
I0411 19:08:31.929523  8167 net.cpp:141] Setting up conv2_1a
I0411 19:08:31.929587  8167 net.cpp:148] Top shape: 32 8 32 32 (262144)
I0411 19:08:31.929600  8167 net.cpp:156] Memory required for data: 10879360
I0411 19:08:31.929625  8167 layer_factory.hpp:77] Creating layer bn_conv2_1a
I0411 19:08:31.929651  8167 net.cpp:91] Creating Layer bn_conv2_1a
I0411 19:08:31.929662  8167 net.cpp:425] bn_conv2_1a <- conv2_1a
I0411 19:08:31.929684  8167 net.cpp:386] bn_conv2_1a -> conv2_1a (in-place)
I0411 19:08:31.930116  8167 net.cpp:141] Setting up bn_conv2_1a
I0411 19:08:31.930135  8167 net.cpp:148] Top shape: 32 8 32 32 (262144)
I0411 19:08:31.930156  8167 net.cpp:156] Memory required for data: 11927936
I0411 19:08:31.930177  8167 layer_factory.hpp:77] Creating layer scale_conv2_1a
I0411 19:08:31.930196  8167 net.cpp:91] Creating Layer scale_conv2_1a
I0411 19:08:31.930207  8167 net.cpp:425] scale_conv2_1a <- conv2_1a
I0411 19:08:31.930222  8167 net.cpp:386] scale_conv2_1a -> conv2_1a (in-place)
I0411 19:08:31.930317  8167 layer_factory.hpp:77] Creating layer scale_conv2_1a
I0411 19:08:31.930562  8167 net.cpp:141] Setting up scale_conv2_1a
I0411 19:08:31.930583  8167 net.cpp:148] Top shape: 32 8 32 32 (262144)
I0411 19:08:31.930593  8167 net.cpp:156] Memory required for data: 12976512
I0411 19:08:31.930621  8167 layer_factory.hpp:77] Creating layer conv2_1a_relu
I0411 19:08:31.930637  8167 net.cpp:91] Creating Layer conv2_1a_relu
I0411 19:08:31.930647  8167 net.cpp:425] conv2_1a_relu <- conv2_1a
I0411 19:08:31.930660  8167 net.cpp:386] conv2_1a_relu -> conv2_1a (in-place)
I0411 19:08:31.931320  8167 net.cpp:141] Setting up conv2_1a_relu
I0411 19:08:31.931354  8167 net.cpp:148] Top shape: 32 8 32 32 (262144)
I0411 19:08:31.931365  8167 net.cpp:156] Memory required for data: 14025088
I0411 19:08:31.931376  8167 layer_factory.hpp:77] Creating layer conv2_1b
I0411 19:08:31.931406  8167 net.cpp:91] Creating Layer conv2_1b
I0411 19:08:31.931417  8167 net.cpp:425] conv2_1b <- conv2_1a
I0411 19:08:31.931438  8167 net.cpp:399] conv2_1b -> conv2_1b
I0411 19:08:31.947692  8167 net.cpp:141] Setting up conv2_1b
I0411 19:08:31.947736  8167 net.cpp:148] Top shape: 32 8 32 32 (262144)
I0411 19:08:31.947748  8167 net.cpp:156] Memory required for data: 15073664
I0411 19:08:31.947767  8167 layer_factory.hpp:77] Creating layer bn_conv2_1b
I0411 19:08:31.947785  8167 net.cpp:91] Creating Layer bn_conv2_1b
I0411 19:08:31.947798  8167 net.cpp:425] bn_conv2_1b <- conv2_1b
I0411 19:08:31.947818  8167 net.cpp:386] bn_conv2_1b -> conv2_1b (in-place)
I0411 19:08:31.948243  8167 net.cpp:141] Setting up bn_conv2_1b
I0411 19:08:31.948263  8167 net.cpp:148] Top shape: 32 8 32 32 (262144)
I0411 19:08:31.948273  8167 net.cpp:156] Memory required for data: 16122240
I0411 19:08:31.948293  8167 layer_factory.hpp:77] Creating layer scale_conv2_1b
I0411 19:08:31.948314  8167 net.cpp:91] Creating Layer scale_conv2_1b
I0411 19:08:31.948325  8167 net.cpp:425] scale_conv2_1b <- conv2_1b
I0411 19:08:31.948343  8167 net.cpp:386] scale_conv2_1b -> conv2_1b (in-place)
I0411 19:08:31.948436  8167 layer_factory.hpp:77] Creating layer scale_conv2_1b
I0411 19:08:31.948678  8167 net.cpp:141] Setting up scale_conv2_1b
I0411 19:08:31.948696  8167 net.cpp:148] Top shape: 32 8 32 32 (262144)
I0411 19:08:31.948706  8167 net.cpp:156] Memory required for data: 17170816
I0411 19:08:31.948721  8167 layer_factory.hpp:77] Creating layer conv2_1b_relu
I0411 19:08:31.948736  8167 net.cpp:91] Creating Layer conv2_1b_relu
I0411 19:08:31.948746  8167 net.cpp:425] conv2_1b_relu <- conv2_1b
I0411 19:08:31.948760  8167 net.cpp:386] conv2_1b_relu -> conv2_1b (in-place)
I0411 19:08:31.958019  8167 net.cpp:141] Setting up conv2_1b_relu
I0411 19:08:31.958060  8167 net.cpp:148] Top shape: 32 8 32 32 (262144)
I0411 19:08:31.958072  8167 net.cpp:156] Memory required for data: 18219392
I0411 19:08:31.958086  8167 layer_factory.hpp:77] Creating layer conv2_down
I0411 19:08:31.958113  8167 net.cpp:91] Creating Layer conv2_down
I0411 19:08:31.958127  8167 net.cpp:425] conv2_down <- conv2_1b
I0411 19:08:31.958148  8167 net.cpp:399] conv2_down -> conv2_down
I0411 19:08:31.965899  8167 net.cpp:141] Setting up conv2_down
I0411 19:08:31.965961  8167 net.cpp:148] Top shape: 32 128 8 8 (262144)
I0411 19:08:31.965967  8167 net.cpp:156] Memory required for data: 19267968
I0411 19:08:31.965982  8167 layer_factory.hpp:77] Creating layer scale_conv2_down
I0411 19:08:31.966003  8167 net.cpp:91] Creating Layer scale_conv2_down
I0411 19:08:31.966012  8167 net.cpp:425] scale_conv2_down <- conv2_down
I0411 19:08:31.966027  8167 net.cpp:386] scale_conv2_down -> conv2_down (in-place)
I0411 19:08:31.966137  8167 layer_factory.hpp:77] Creating layer scale_conv2_down
I0411 19:08:31.966500  8167 net.cpp:141] Setting up scale_conv2_down
I0411 19:08:31.966555  8167 net.cpp:148] Top shape: 32 128 8 8 (262144)
I0411 19:08:31.966585  8167 net.cpp:156] Memory required for data: 20316544
I0411 19:08:31.966630  8167 layer_factory.hpp:77] Creating layer scale_conv2_down_c
I0411 19:08:31.966660  8167 net.cpp:91] Creating Layer scale_conv2_down_c
I0411 19:08:31.966673  8167 net.cpp:425] scale_conv2_down_c <- conv2_down
I0411 19:08:31.966698  8167 net.cpp:386] scale_conv2_down_c -> conv2_down (in-place)
I0411 19:08:31.967016  8167 net.cpp:141] Setting up scale_conv2_down_c
I0411 19:08:31.967057  8167 net.cpp:148] Top shape: 32 128 8 8 (262144)
I0411 19:08:31.967067  8167 net.cpp:156] Memory required for data: 21365120
I0411 19:08:31.967084  8167 layer_factory.hpp:77] Creating layer global_in
I0411 19:08:31.967104  8167 net.cpp:91] Creating Layer global_in
I0411 19:08:31.967115  8167 net.cpp:425] global_in <- conv1_down
I0411 19:08:31.967130  8167 net.cpp:425] global_in <- conv2_down
I0411 19:08:31.967145  8167 net.cpp:399] global_in -> global_in
I0411 19:08:31.967213  8167 net.cpp:141] Setting up global_in
I0411 19:08:31.967231  8167 net.cpp:148] Top shape: 32 128 8 8 (262144)
I0411 19:08:31.967239  8167 net.cpp:156] Memory required for data: 22413696
I0411 19:08:31.967249  8167 layer_factory.hpp:77] Creating layer global_pool
I0411 19:08:31.967268  8167 net.cpp:91] Creating Layer global_pool
I0411 19:08:31.967278  8167 net.cpp:425] global_pool <- global_in
I0411 19:08:31.967290  8167 net.cpp:399] global_pool -> global_pool
I0411 19:08:31.967788  8167 net.cpp:141] Setting up global_pool
I0411 19:08:31.967862  8167 net.cpp:148] Top shape: 32 128 1 1 (4096)
I0411 19:08:31.967880  8167 net.cpp:156] Memory required for data: 22430080
I0411 19:08:31.967893  8167 layer_factory.hpp:77] Creating layer ip
I0411 19:08:31.967919  8167 net.cpp:91] Creating Layer ip
I0411 19:08:31.967931  8167 net.cpp:425] ip <- global_pool
I0411 19:08:31.967967  8167 net.cpp:399] ip -> ip
I0411 19:08:31.968277  8167 net.cpp:141] Setting up ip
I0411 19:08:31.968297  8167 net.cpp:148] Top shape: 32 10 (320)
I0411 19:08:31.968304  8167 net.cpp:156] Memory required for data: 22431360
I0411 19:08:31.968322  8167 layer_factory.hpp:77] Creating layer ip_ip_0_split
I0411 19:08:31.968340  8167 net.cpp:91] Creating Layer ip_ip_0_split
I0411 19:08:31.968350  8167 net.cpp:425] ip_ip_0_split <- ip
I0411 19:08:31.968364  8167 net.cpp:399] ip_ip_0_split -> ip_ip_0_split_0
I0411 19:08:31.968382  8167 net.cpp:399] ip_ip_0_split -> ip_ip_0_split_1
I0411 19:08:31.968463  8167 net.cpp:141] Setting up ip_ip_0_split
I0411 19:08:31.968478  8167 net.cpp:148] Top shape: 32 10 (320)
I0411 19:08:31.968489  8167 net.cpp:148] Top shape: 32 10 (320)
I0411 19:08:31.968497  8167 net.cpp:156] Memory required for data: 22433920
I0411 19:08:31.968507  8167 layer_factory.hpp:77] Creating layer accuracy
I0411 19:08:31.968523  8167 net.cpp:91] Creating Layer accuracy
I0411 19:08:31.968533  8167 net.cpp:425] accuracy <- ip_ip_0_split_0
I0411 19:08:31.968544  8167 net.cpp:425] accuracy <- label_data_1_split_0
I0411 19:08:31.968557  8167 net.cpp:399] accuracy -> accuracy
…
I0411 19:21:08.843613 12649 net.cpp:313] The NetState phase (0) differed from the phase (1) specified by a rule in layer data
I0411 19:21:08.843899 12649 net.cpp:49] Initializing net from parameters: 
name: "CifarResNet0"
state {
  phase: TRAIN
}
layer {
  name: "data"
  type: "Data"
  top: "data"
  top: "label"
  include {
    phase: TRAIN
  }
  transform_param {
    mean_file: "/home/liangjiang/code/residual_network/data/cifar10/mean.binaryproto"
  }
  data_param {
    source: "/home/liangjiang/code/residual_network/data/cifar10/cifar10_train_lmdb"
    batch_size: 256
    backend: LMDB
  }
}
layer {
  name: "conv1"
  type: "Convolution"
  bottom: "data"
  top: "conv1"
  param {
    lr_mult: 1
  }
  param {
    lr_mult: 2
  }
  convolution_param {
    num_output: 8
    pad: 1
    kernel_size: 3
    stride: 1
    weight_filler {
      type: "msra"
    }
    bias_filler {
      type: "constant"
      value: 0
    }
  }
}
layer {
  name: "bn_conv1"
  type: "BatchNorm"
  bottom: "conv1"
  top: "conv1"
  param {
    lr_mult: 0
  }
  param {
    lr_mult: 0
  }
  param {
    lr_mult: 0
  }
}
layer {
  name: "scale_conv1"
  type: "Scale"
  bottom: "conv1"
  top: "conv1"
  param {
    lr_mult: 1
  }
  param {
    lr_mult: 2
  }
  scale_param {
    bias_term: true
  }
}
layer {
  name: "conv1_relu"
  type: "ReLU"
  bottom: "conv1"
  top: "conv1"
}
layer {
  name: "conv1_down"
  type: "Convolution"
  bottom: "conv1"
  top: "conv1_down"
  param {
    lr_mult: 0
  }
  convolution_param {
    num_output: 128
    bias_term: false
    pad: 0
    kernel_size: 4
    stride: 4
    weight_filler {
      type: "downsample"
      value: 1
    }
  }
}
layer {
  name: "scale_conv1_down"
  type: "Scale"
  bottom: "conv1_down"
  top: "conv1_down"
  param {
    lr_mult: 1
  }
  param {
    lr_mult: 2
  }
  scale_param {
    filler {
      type: "constant"
      value: 1
    }
    bias_term: true
  }
}
layer {
  name: "scale_conv1_down_c"
  type: "Scale"
  bottom: "conv1_down"
  top: "conv1_down"
  param {
    lr_mult: 0
  }
  scale_param {
    filler {
      type: "constant"
      value: 0.4
    }
    bias_term: false
  }
}
layer {
  name: "conv2_1a"
  type: "Convolution"
  bottom: "conv1"
  top: "conv2_1a"
  param {
    lr_mult: 1
  }
  param {
    lr_mult: 2
  }
  convolution_param {
    num_output: 8
    pad: 1
    kernel_size: 3
    stride: 1
    weight_filler {
      type: "msra"
    }
    bias_filler {
      type: "constant"
      value: 0
    }
  }
}
layer {
  name: "bn_conv2_1a"
  type: "BatchNorm"
  bottom: "conv2_1a"
  top: "conv2_1a"
  param {
    lr_mult: 0
  }
  param {
    lr_mult: 0
  }
  param {
    lr_mult: 0
  }
}
layer {
  name: "scale_conv2_1a"
  type: "Scale"
  bottom: "conv2_1a"
  top: "conv2_1a"
  param {
    lr_mult: 1
  }
  param {
    lr_mult: 2
  }
  scale_param {
    bias_term: true
  }
}
layer {
  name: "conv2_1a_relu"
  type: "ReLU"
  bottom: "conv2_1a"
  top: "conv2_1a"
}
layer {
  name: "conv2_1b"
  type: "Convolution"
  bottom: "conv2_1a"
  top: "conv2_1b"
  param {
    lr_mult: 1
  }
  param {
    lr_mult: 2
  }
  convolution_param {
    num_output: 8
    pad: 1
    kernel_size: 3
    stride: 1
    weight_filler {
      type: "msra"
    }
    bias_filler {
      type: "constant"
      value: 0
    }
  }
}
layer {
  name: "bn_conv2_1b"
  type: "BatchNorm"
  bottom: "conv2_1b"
  top: "conv2_1b"
  param {
    lr_mult: 0
  }
  param {
    lr_mult: 0
  }
  param {
    lr_mult: 0
  }
}
layer {
  name: "scale_conv2_1b"
  type: "Scale"
  bottom: "conv2_1b"
  top: "conv2_1b"
  param {
    lr_mult: 1
  }
  param {
    lr_mult: 2
  }
  scale_param {
    bias_term: true
  }
}
layer {
  name: "conv2_1b_relu"
  type: "ReLU"
  bottom: "conv2_1b"
  top: "conv2_1b"
}
layer {
  name: "conv2_down"
  type: "Convolution"
  bottom: "conv2_1b"
  top: "conv2_down"
  param {
    lr_mult: 0
  }
  convolution_param {
    num_output: 128
    bias_term: false
    pad: 0
    kernel_size: 4
    stride: 4
    weight_filler {
      type: "downsample"
      value: 1
    }
  }
}
layer {
  name: "scale_conv2_down"
  type: "Scale"
  bottom: "conv2_down"
  top: "conv2_down"
  param {
    lr_mult: 1
  }
  param {
    lr_mult: 2
  }
  scale_param {
    filler {
      type: "constant"
      value: 1
    }
    bias_term: true
  }
}
layer {
  name: "scale_conv2_down_c"
  type: "Scale"
  bottom: "conv2_down"
  top: "conv2_down"
  param {
    lr_mult: 0
  }
  scale_param {
    filler {
      type: "constant"
      value: 0.4
    }
    bias_term: false
  }
}
layer {
  name: "conv3_1a"
  type: "Convolution"
  bottom: "conv2_1b"
  top: "conv3_1a"
  param {
    lr_mult: 1
  }
  param {
    lr_mult: 2
  }
  convolution_param {
    num_output: 32
    pad: 0
    kernel_size: 1
    stride: 2
    weight_filler {
      type: "msra"
    }
    bias_filler {
      type: "constant"
      value: 0
    }
  }
}
layer {
  name: "bn_conv3_1a"
  type: "BatchNorm"
  bottom: "conv3_1a"
  top: "conv3_1a"
  param {
    lr_mult: 0
  }
  param {
    lr_mult: 0
  }
  param {
    lr_mult: 0
  }
}
layer {
  name: "scale_conv3_1a"
  type: "Scale"
  bottom: "conv3_1a"
  top: "conv3_1a"
  param {
    lr_mult: 1
  }
  param {
    lr_mult: 2
  }
  scale_param {
    bias_term: true
  }
}
layer {
  name: "conv3_1a_relu"
  type: "ReLU"
  bottom: "conv3_1a"
  top: "conv3_1a"
}
layer {
  name: "conv3_1b"
  type: "Convolution"
  bottom: "conv3_1a"
  top: "conv3_1b"
  param {
    lr_mult: 1
  }
  param {
    lr_mult: 2
  }
  convolution_param {
    num_output: 32
    pad: 1
    kernel_size: 3
    stride: 1
    weight_filler {
      type: "msra"
    }
    bias_filler {
      type: "constant"
      value: 0
    }
  }
}
layer {
  name: "bn_conv3_1b"
  type: "BatchNorm"
  bottom: "conv3_1b"
  top: "conv3_1b"
  param {
    lr_mult: 0
  }
  param {
    lr_mult: 0
  }
  param {
    lr_mult: 0
  }
}
layer {
  name: "scale_conv3_1b"
  type: "Scale"
  bottom: "conv3_1b"
  top: "conv3_1b"
  param {
    lr_mult: 1
  }
  param {
    lr_mult: 2
  }
  scale_param {
    bias_term: true
  }
}
layer {
  name: "conv3_1b_relu"
  type: "ReLU"
  bottom: "conv3_1b"
  top: "conv3_1b"
}
layer {
  name: "conv3_down"
  type: "Convolution"
  bottom: "conv3_1b"
  top: "conv3_down"
  param {
    lr_mult: 0
  }
  convolution_param {
    num_output: 128
    bias_term: false
    pad: 0
    kernel_size: 2
    stride: 2
    weight_filler {
      type: "downsample"
      value: 1
    }
  }
}
layer {
  name: "scale_conv3_down"
  type: "Scale"
  bottom: "conv3_down"
  top: "conv3_down"
  param {
    lr_mult: 1
  }
  param {
    lr_mult: 2
  }
  scale_param {
    filler {
      type: "constant"
      value: 0.2
    }
    bias_term: true
  }
}
layer {
  name: "scale_conv3_down_c"
  type: "Scale"
  bottom: "conv3_down"
  top: "conv3_down"
  param {
    lr_mult: 0
  }
  scale_param {
    filler {
      type: "constant"
      value: 1
    }
    bias_term: false
  }
}
layer {
  name: "global_in"
  type: "Eltwise"
  bottom: "conv1_down"
  bottom: "conv2_down"
  bottom: "conv3_down"
  top: "global_in"
}
layer {
  name: "global_pool"
  type: "Pooling"
  bottom: "global_in"
  top: "global_pool"
  pooling_param {
    pool: AVE
    kernel_size: 8
  }
}
layer {
  name: "ip"
  type: "InnerProduct"
  bottom: "global_pool"
  top: "ip"
  param {
    lr_mult: 1
  }
  param {
    lr_mult: 2
  }
  inner_product_param {
    num_output: 10
  }
}
layer {
  name: "accuracy"
  type: "Accuracy"
  bottom: "ip"
  bottom: "label"
  top: "accuracy"
}
layer {
  name: "loss"
  type: "SoftmaxWithLoss"
  bottom: "ip"
  bottom: "label"
  top: "loss"
}
I0411 19:21:08.844127 12649 layer_factory.hpp:77] Creating layer data
I0411 19:21:08.844831 12649 net.cpp:91] Creating Layer data
I0411 19:21:08.844851 12649 net.cpp:399] data -> data
I0411 19:21:08.844876 12649 net.cpp:399] data -> label
I0411 19:21:08.844900 12649 data_transformer.cpp:25] Loading mean file from: /home/liangjiang/code/residual_network/data/cifar10/mean.binaryproto
I0411 19:21:08.846535 12697 db_lmdb.cpp:38] Opened lmdb /home/liangjiang/code/residual_network/data/cifar10/cifar10_train_lmdb
I0411 19:21:08.859107 12649 data_layer.cpp:41] output data size: 256,3,32,32
I0411 19:21:08.865911 12649 net.cpp:141] Setting up data
I0411 19:21:08.865938 12649 net.cpp:148] Top shape: 256 3 32 32 (786432)
I0411 19:21:08.865947 12649 net.cpp:148] Top shape: 256 (256)
I0411 19:21:08.865952 12649 net.cpp:156] Memory required for data: 3146752
I0411 19:21:08.865962 12649 layer_factory.hpp:77] Creating layer label_data_1_split
I0411 19:21:08.865993 12649 net.cpp:91] Creating Layer label_data_1_split
I0411 19:21:08.866003 12649 net.cpp:425] label_data_1_split <- label
I0411 19:21:08.866014 12649 net.cpp:399] label_data_1_split -> label_data_1_split_0
I0411 19:21:08.866027 12649 net.cpp:399] label_data_1_split -> label_data_1_split_1
I0411 19:21:08.866147 12649 net.cpp:141] Setting up label_data_1_split
I0411 19:21:08.866163 12649 net.cpp:148] Top shape: 256 (256)
I0411 19:21:08.866170 12649 net.cpp:148] Top shape: 256 (256)
I0411 19:21:08.866175 12649 net.cpp:156] Memory required for data: 3148800
I0411 19:21:08.866181 12649 layer_factory.hpp:77] Creating layer conv1
I0411 19:21:08.866204 12649 net.cpp:91] Creating Layer conv1
I0411 19:21:08.866209 12649 net.cpp:425] conv1 <- data
I0411 19:21:08.866219 12649 net.cpp:399] conv1 -> conv1
I0411 19:21:09.164273 12649 net.cpp:141] Setting up conv1
I0411 19:21:09.164331 12649 net.cpp:148] Top shape: 256 8 32 32 (2097152)
I0411 19:21:09.164340 12649 net.cpp:156] Memory required for data: 11537408
I0411 19:21:09.164371 12649 layer_factory.hpp:77] Creating layer bn_conv1
I0411 19:21:09.164392 12649 net.cpp:91] Creating Layer bn_conv1
I0411 19:21:09.164402 12649 net.cpp:425] bn_conv1 <- conv1
I0411 19:21:09.164414 12649 net.cpp:386] bn_conv1 -> conv1 (in-place)
I0411 19:21:09.164667 12649 net.cpp:141] Setting up bn_conv1
I0411 19:21:09.164680 12649 net.cpp:148] Top shape: 256 8 32 32 (2097152)
I0411 19:21:09.164687 12649 net.cpp:156] Memory required for data: 19926016
I0411 19:21:09.164723 12649 layer_factory.hpp:77] Creating layer scale_conv1
I0411 19:21:09.164741 12649 net.cpp:91] Creating Layer scale_conv1
I0411 19:21:09.164748 12649 net.cpp:425] scale_conv1 <- conv1
I0411 19:21:09.164757 12649 net.cpp:386] scale_conv1 -> conv1 (in-place)
I0411 19:21:09.164810 12649 layer_factory.hpp:77] Creating layer scale_conv1
I0411 19:21:09.164950 12649 net.cpp:141] Setting up scale_conv1
I0411 19:21:09.164973 12649 net.cpp:148] Top shape: 256 8 32 32 (2097152)
I0411 19:21:09.164979 12649 net.cpp:156] Memory required for data: 28314624
I0411 19:21:09.164990 12649 layer_factory.hpp:77] Creating layer conv1_relu
I0411 19:21:09.165002 12649 net.cpp:91] Creating Layer conv1_relu
I0411 19:21:09.165009 12649 net.cpp:425] conv1_relu <- conv1
I0411 19:21:09.165017 12649 net.cpp:386] conv1_relu -> conv1 (in-place)
I0411 19:21:09.165426 12649 net.cpp:141] Setting up conv1_relu
I0411 19:21:09.165448 12649 net.cpp:148] Top shape: 256 8 32 32 (2097152)
I0411 19:21:09.165455 12649 net.cpp:156] Memory required for data: 36703232
I0411 19:21:09.165463 12649 layer_factory.hpp:77] Creating layer conv1_conv1_relu_0_split
I0411 19:21:09.165474 12649 net.cpp:91] Creating Layer conv1_conv1_relu_0_split
I0411 19:21:09.165482 12649 net.cpp:425] conv1_conv1_relu_0_split <- conv1
I0411 19:21:09.165490 12649 net.cpp:399] conv1_conv1_relu_0_split -> conv1_conv1_relu_0_split_0
I0411 19:21:09.165503 12649 net.cpp:399] conv1_conv1_relu_0_split -> conv1_conv1_relu_0_split_1
I0411 19:21:09.165560 12649 net.cpp:141] Setting up conv1_conv1_relu_0_split
I0411 19:21:09.165571 12649 net.cpp:148] Top shape: 256 8 32 32 (2097152)
I0411 19:21:09.165578 12649 net.cpp:148] Top shape: 256 8 32 32 (2097152)
I0411 19:21:09.165585 12649 net.cpp:156] Memory required for data: 53480448
I0411 19:21:09.165591 12649 layer_factory.hpp:77] Creating layer conv1_down
I0411 19:21:09.165609 12649 net.cpp:91] Creating Layer conv1_down
I0411 19:21:09.165616 12649 net.cpp:425] conv1_down <- conv1_conv1_relu_0_split_0
I0411 19:21:09.165627 12649 net.cpp:399] conv1_down -> conv1_down
I0411 19:21:09.167436 12649 net.cpp:141] Setting up conv1_down
I0411 19:21:09.167461 12649 net.cpp:148] Top shape: 256 128 8 8 (2097152)
I0411 19:21:09.167469 12649 net.cpp:156] Memory required for data: 61869056
I0411 19:21:09.167479 12649 layer_factory.hpp:77] Creating layer scale_conv1_down
I0411 19:21:09.167495 12649 net.cpp:91] Creating Layer scale_conv1_down
I0411 19:21:09.167502 12649 net.cpp:425] scale_conv1_down <- conv1_down
I0411 19:21:09.167512 12649 net.cpp:386] scale_conv1_down -> conv1_down (in-place)
I0411 19:21:09.167574 12649 layer_factory.hpp:77] Creating layer scale_conv1_down
I0411 19:21:09.167716 12649 net.cpp:141] Setting up scale_conv1_down
I0411 19:21:09.167727 12649 net.cpp:148] Top shape: 256 128 8 8 (2097152)
I0411 19:21:09.167734 12649 net.cpp:156] Memory required for data: 70257664
I0411 19:21:09.167748 12649 layer_factory.hpp:77] Creating layer scale_conv1_down_c
I0411 19:21:09.167760 12649 net.cpp:91] Creating Layer scale_conv1_down_c
I0411 19:21:09.167768 12649 net.cpp:425] scale_conv1_down_c <- conv1_down
I0411 19:21:09.167776 12649 net.cpp:386] scale_conv1_down_c -> conv1_down (in-place)
I0411 19:21:09.167876 12649 net.cpp:141] Setting up scale_conv1_down_c
I0411 19:21:09.167887 12649 net.cpp:148] Top shape: 256 128 8 8 (2097152)
I0411 19:21:09.167893 12649 net.cpp:156] Memory required for data: 78646272
I0411 19:21:09.167901 12649 layer_factory.hpp:77] Creating layer conv2_1a
I0411 19:21:09.167917 12649 net.cpp:91] Creating Layer conv2_1a
I0411 19:21:09.167924 12649 net.cpp:425] conv2_1a <- conv1_conv1_relu_0_split_1
I0411 19:21:09.167934 12649 net.cpp:399] conv2_1a -> conv2_1a
I0411 19:21:09.169293 12649 net.cpp:141] Setting up conv2_1a
I0411 19:21:09.169318 12649 net.cpp:148] Top shape: 256 8 32 32 (2097152)
I0411 19:21:09.169325 12649 net.cpp:156] Memory required for data: 87034880
I0411 19:21:09.169337 12649 layer_factory.hpp:77] Creating layer bn_conv2_1a
I0411 19:21:09.169353 12649 net.cpp:91] Creating Layer bn_conv2_1a
I0411 19:21:09.169360 12649 net.cpp:425] bn_conv2_1a <- conv2_1a
I0411 19:21:09.169370 12649 net.cpp:386] bn_conv2_1a -> conv2_1a (in-place)
I0411 19:21:09.169628 12649 net.cpp:141] Setting up bn_conv2_1a
I0411 19:21:09.169641 12649 net.cpp:148] Top shape: 256 8 32 32 (2097152)
I0411 19:21:09.169646 12649 net.cpp:156] Memory required for data: 95423488
I0411 19:21:09.169659 12649 layer_factory.hpp:77] Creating layer scale_conv2_1a
I0411 19:21:09.169677 12649 net.cpp:91] Creating Layer scale_conv2_1a
I0411 19:21:09.169684 12649 net.cpp:425] scale_conv2_1a <- conv2_1a
I0411 19:21:09.169693 12649 net.cpp:386] scale_conv2_1a -> conv2_1a (in-place)
I0411 19:21:09.169747 12649 layer_factory.hpp:77] Creating layer scale_conv2_1a
I0411 19:21:09.169893 12649 net.cpp:141] Setting up scale_conv2_1a
I0411 19:21:09.169906 12649 net.cpp:148] Top shape: 256 8 32 32 (2097152)
I0411 19:21:09.169912 12649 net.cpp:156] Memory required for data: 103812096
I0411 19:21:09.169929 12649 layer_factory.hpp:77] Creating layer conv2_1a_relu
I0411 19:21:09.169940 12649 net.cpp:91] Creating Layer conv2_1a_relu
I0411 19:21:09.169946 12649 net.cpp:425] conv2_1a_relu <- conv2_1a
I0411 19:21:09.169955 12649 net.cpp:386] conv2_1a_relu -> conv2_1a (in-place)
I0411 19:21:09.170397 12649 net.cpp:141] Setting up conv2_1a_relu
I0411 19:21:09.170423 12649 net.cpp:148] Top shape: 256 8 32 32 (2097152)
I0411 19:21:09.170429 12649 net.cpp:156] Memory required for data: 112200704
I0411 19:21:09.170436 12649 layer_factory.hpp:77] Creating layer conv2_1b
I0411 19:21:09.170456 12649 net.cpp:91] Creating Layer conv2_1b
I0411 19:21:09.170464 12649 net.cpp:425] conv2_1b <- conv2_1a
I0411 19:21:09.170475 12649 net.cpp:399] conv2_1b -> conv2_1b
I0411 19:21:09.171869 12649 net.cpp:141] Setting up conv2_1b
I0411 19:21:09.171892 12649 net.cpp:148] Top shape: 256 8 32 32 (2097152)
I0411 19:21:09.171900 12649 net.cpp:156] Memory required for data: 120589312
I0411 19:21:09.171911 12649 layer_factory.hpp:77] Creating layer bn_conv2_1b
I0411 19:21:09.171926 12649 net.cpp:91] Creating Layer bn_conv2_1b
I0411 19:21:09.171933 12649 net.cpp:425] bn_conv2_1b <- conv2_1b
I0411 19:21:09.171942 12649 net.cpp:386] bn_conv2_1b -> conv2_1b (in-place)
I0411 19:21:09.172204 12649 net.cpp:141] Setting up bn_conv2_1b
I0411 19:21:09.172217 12649 net.cpp:148] Top shape: 256 8 32 32 (2097152)
I0411 19:21:09.172224 12649 net.cpp:156] Memory required for data: 128977920
I0411 19:21:09.172235 12649 layer_factory.hpp:77] Creating layer scale_conv2_1b
I0411 19:21:09.172252 12649 net.cpp:91] Creating Layer scale_conv2_1b
I0411 19:21:09.172260 12649 net.cpp:425] scale_conv2_1b <- conv2_1b
I0411 19:21:09.172268 12649 net.cpp:386] scale_conv2_1b -> conv2_1b (in-place)
I0411 19:21:09.172317 12649 layer_factory.hpp:77] Creating layer scale_conv2_1b
I0411 19:21:09.172466 12649 net.cpp:141] Setting up scale_conv2_1b
I0411 19:21:09.172477 12649 net.cpp:148] Top shape: 256 8 32 32 (2097152)
I0411 19:21:09.172483 12649 net.cpp:156] Memory required for data: 137366528
I0411 19:21:09.172492 12649 layer_factory.hpp:77] Creating layer conv2_1b_relu
I0411 19:21:09.172502 12649 net.cpp:91] Creating Layer conv2_1b_relu
I0411 19:21:09.172508 12649 net.cpp:425] conv2_1b_relu <- conv2_1b
I0411 19:21:09.172516 12649 net.cpp:386] conv2_1b_relu -> conv2_1b (in-place)
I0411 19:21:09.172766 12649 net.cpp:141] Setting up conv2_1b_relu
I0411 19:21:09.172782 12649 net.cpp:148] Top shape: 256 8 32 32 (2097152)
I0411 19:21:09.172788 12649 net.cpp:156] Memory required for data: 145755136
I0411 19:21:09.172796 12649 layer_factory.hpp:77] Creating layer conv2_1b_conv2_1b_relu_0_split
I0411 19:21:09.172807 12649 net.cpp:91] Creating Layer conv2_1b_conv2_1b_relu_0_split
I0411 19:21:09.172814 12649 net.cpp:425] conv2_1b_conv2_1b_relu_0_split <- conv2_1b
I0411 19:21:09.172822 12649 net.cpp:399] conv2_1b_conv2_1b_relu_0_split -> conv2_1b_conv2_1b_relu_0_split_0
I0411 19:21:09.172833 12649 net.cpp:399] conv2_1b_conv2_1b_relu_0_split -> conv2_1b_conv2_1b_relu_0_split_1
I0411 19:21:09.172894 12649 net.cpp:141] Setting up conv2_1b_conv2_1b_relu_0_split
I0411 19:21:09.172904 12649 net.cpp:148] Top shape: 256 8 32 32 (2097152)
I0411 19:21:09.172911 12649 net.cpp:148] Top shape: 256 8 32 32 (2097152)
I0411 19:21:09.172917 12649 net.cpp:156] Memory required for data: 162532352
I0411 19:21:09.172924 12649 layer_factory.hpp:77] Creating layer conv2_down
I0411 19:21:09.172938 12649 net.cpp:91] Creating Layer conv2_down
I0411 19:21:09.172945 12649 net.cpp:425] conv2_down <- conv2_1b_conv2_1b_relu_0_split_0
I0411 19:21:09.172966 12649 net.cpp:399] conv2_down -> conv2_down
I0411 19:21:09.174247 12649 net.cpp:141] Setting up conv2_down
I0411 19:21:09.174270 12649 net.cpp:148] Top shape: 256 128 8 8 (2097152)
I0411 19:21:09.174278 12649 net.cpp:156] Memory required for data: 170920960
I0411 19:21:09.174288 12649 layer_factory.hpp:77] Creating layer scale_conv2_down
I0411 19:21:09.174306 12649 net.cpp:91] Creating Layer scale_conv2_down
I0411 19:21:09.174314 12649 net.cpp:425] scale_conv2_down <- conv2_down
I0411 19:21:09.174324 12649 net.cpp:386] scale_conv2_down -> conv2_down (in-place)
I0411 19:21:09.174387 12649 layer_factory.hpp:77] Creating layer scale_conv2_down
I0411 19:21:09.174535 12649 net.cpp:141] Setting up scale_conv2_down
I0411 19:21:09.174549 12649 net.cpp:148] Top shape: 256 128 8 8 (2097152)
I0411 19:21:09.174554 12649 net.cpp:156] Memory required for data: 179309568
I0411 19:21:09.174564 12649 layer_factory.hpp:77] Creating layer scale_conv2_down_c
I0411 19:21:09.174574 12649 net.cpp:91] Creating Layer scale_conv2_down_c
I0411 19:21:09.174582 12649 net.cpp:425] scale_conv2_down_c <- conv2_down
I0411 19:21:09.174589 12649 net.cpp:386] scale_conv2_down_c -> conv2_down (in-place)
I0411 19:21:09.174690 12649 net.cpp:141] Setting up scale_conv2_down_c
I0411 19:21:09.174700 12649 net.cpp:148] Top shape: 256 128 8 8 (2097152)
I0411 19:21:09.174705 12649 net.cpp:156] Memory required for data: 187698176
I0411 19:21:09.174712 12649 layer_factory.hpp:77] Creating layer conv3_1a
I0411 19:21:09.174727 12649 net.cpp:91] Creating Layer conv3_1a
I0411 19:21:09.174734 12649 net.cpp:425] conv3_1a <- conv2_1b_conv2_1b_relu_0_split_1
I0411 19:21:09.174751 12649 net.cpp:399] conv3_1a -> conv3_1a
I0411 19:21:09.176046 12649 net.cpp:141] Setting up conv3_1a
I0411 19:21:09.176069 12649 net.cpp:148] Top shape: 256 32 16 16 (2097152)
I0411 19:21:09.176076 12649 net.cpp:156] Memory required for data: 196086784
I0411 19:21:09.176086 12649 layer_factory.hpp:77] Creating layer bn_conv3_1a
I0411 19:21:09.176101 12649 net.cpp:91] Creating Layer bn_conv3_1a
I0411 19:21:09.176108 12649 net.cpp:425] bn_conv3_1a <- conv3_1a
I0411 19:21:09.176117 12649 net.cpp:386] bn_conv3_1a -> conv3_1a (in-place)
I0411 19:21:09.176367 12649 net.cpp:141] Setting up bn_conv3_1a
I0411 19:21:09.176379 12649 net.cpp:148] Top shape: 256 32 16 16 (2097152)
I0411 19:21:09.176385 12649 net.cpp:156] Memory required for data: 204475392
I0411 19:21:09.176403 12649 layer_factory.hpp:77] Creating layer scale_conv3_1a
I0411 19:21:09.176415 12649 net.cpp:91] Creating Layer scale_conv3_1a
I0411 19:21:09.176421 12649 net.cpp:425] scale_conv3_1a <- conv3_1a
I0411 19:21:09.176434 12649 net.cpp:386] scale_conv3_1a -> conv3_1a (in-place)
I0411 19:21:09.176484 12649 layer_factory.hpp:77] Creating layer scale_conv3_1a
I0411 19:21:09.176635 12649 net.cpp:141] Setting up scale_conv3_1a
I0411 19:21:09.176646 12649 net.cpp:148] Top shape: 256 32 16 16 (2097152)
I0411 19:21:09.176652 12649 net.cpp:156] Memory required for data: 212864000
I0411 19:21:09.176661 12649 layer_factory.hpp:77] Creating layer conv3_1a_relu
I0411 19:21:09.176671 12649 net.cpp:91] Creating Layer conv3_1a_relu
I0411 19:21:09.176676 12649 net.cpp:425] conv3_1a_relu <- conv3_1a
I0411 19:21:09.176684 12649 net.cpp:386] conv3_1a_relu -> conv3_1a (in-place)
I0411 19:21:09.176921 12649 net.cpp:141] Setting up conv3_1a_relu
I0411 19:21:09.176937 12649 net.cpp:148] Top shape: 256 32 16 16 (2097152)
I0411 19:21:09.176942 12649 net.cpp:156] Memory required for data: 221252608
I0411 19:21:09.176949 12649 layer_factory.hpp:77] Creating layer conv3_1b
I0411 19:21:09.176966 12649 net.cpp:91] Creating Layer conv3_1b
I0411 19:21:09.176973 12649 net.cpp:425] conv3_1b <- conv3_1a
I0411 19:21:09.176985 12649 net.cpp:399] conv3_1b -> conv3_1b
I0411 19:21:09.178680 12649 net.cpp:141] Setting up conv3_1b
I0411 19:21:09.178704 12649 net.cpp:148] Top shape: 256 32 16 16 (2097152)
I0411 19:21:09.178711 12649 net.cpp:156] Memory required for data: 229641216
I0411 19:21:09.178722 12649 layer_factory.hpp:77] Creating layer bn_conv3_1b
I0411 19:21:09.178745 12649 net.cpp:91] Creating Layer bn_conv3_1b
I0411 19:21:09.178752 12649 net.cpp:425] bn_conv3_1b <- conv3_1b
I0411 19:21:09.178761 12649 net.cpp:386] bn_conv3_1b -> conv3_1b (in-place)
I0411 19:21:09.179016 12649 net.cpp:141] Setting up bn_conv3_1b
I0411 19:21:09.179028 12649 net.cpp:148] Top shape: 256 32 16 16 (2097152)
I0411 19:21:09.179034 12649 net.cpp:156] Memory required for data: 238029824
I0411 19:21:09.179045 12649 layer_factory.hpp:77] Creating layer scale_conv3_1b
I0411 19:21:09.179056 12649 net.cpp:91] Creating Layer scale_conv3_1b
I0411 19:21:09.179062 12649 net.cpp:425] scale_conv3_1b <- conv3_1b
I0411 19:21:09.179072 12649 net.cpp:386] scale_conv3_1b -> conv3_1b (in-place)
I0411 19:21:09.179119 12649 layer_factory.hpp:77] Creating layer scale_conv3_1b
I0411 19:21:09.179271 12649 net.cpp:141] Setting up scale_conv3_1b
I0411 19:21:09.179286 12649 net.cpp:148] Top shape: 256 32 16 16 (2097152)
I0411 19:21:09.179291 12649 net.cpp:156] Memory required for data: 246418432
I0411 19:21:09.179301 12649 layer_factory.hpp:77] Creating layer conv3_1b_relu
I0411 19:21:09.179311 12649 net.cpp:91] Creating Layer conv3_1b_relu
I0411 19:21:09.179316 12649 net.cpp:425] conv3_1b_relu <- conv3_1b
I0411 19:21:09.179324 12649 net.cpp:386] conv3_1b_relu -> conv3_1b (in-place)
I0411 19:21:09.179708 12649 net.cpp:141] Setting up conv3_1b_relu
I0411 19:21:09.179730 12649 net.cpp:148] Top shape: 256 32 16 16 (2097152)
I0411 19:21:09.179738 12649 net.cpp:156] Memory required for data: 254807040
I0411 19:21:09.179744 12649 layer_factory.hpp:77] Creating layer conv3_down
I0411 19:21:09.179761 12649 net.cpp:91] Creating Layer conv3_down
I0411 19:21:09.179769 12649 net.cpp:425] conv3_down <- conv3_1b
I0411 19:21:09.179780 12649 net.cpp:399] conv3_down -> conv3_down
I0411 19:21:09.181032 12649 net.cpp:141] Setting up conv3_down
I0411 19:21:09.181054 12649 net.cpp:148] Top shape: 256 128 8 8 (2097152)
I0411 19:21:09.181062 12649 net.cpp:156] Memory required for data: 263195648
I0411 19:21:09.181072 12649 layer_factory.hpp:77] Creating layer scale_conv3_down
I0411 19:21:09.181087 12649 net.cpp:91] Creating Layer scale_conv3_down
I0411 19:21:09.181094 12649 net.cpp:425] scale_conv3_down <- conv3_down
I0411 19:21:09.181104 12649 net.cpp:386] scale_conv3_down -> conv3_down (in-place)
I0411 19:21:09.181176 12649 layer_factory.hpp:77] Creating layer scale_conv3_down
I0411 19:21:09.181327 12649 net.cpp:141] Setting up scale_conv3_down
I0411 19:21:09.181339 12649 net.cpp:148] Top shape: 256 128 8 8 (2097152)
I0411 19:21:09.181345 12649 net.cpp:156] Memory required for data: 271584256
I0411 19:21:09.181355 12649 layer_factory.hpp:77] Creating layer scale_conv3_down_c
I0411 19:21:09.181371 12649 net.cpp:91] Creating Layer scale_conv3_down_c
I0411 19:21:09.181378 12649 net.cpp:425] scale_conv3_down_c <- conv3_down
I0411 19:21:09.181387 12649 net.cpp:386] scale_conv3_down_c -> conv3_down (in-place)
I0411 19:21:09.181488 12649 net.cpp:141] Setting up scale_conv3_down_c
I0411 19:21:09.181499 12649 net.cpp:148] Top shape: 256 128 8 8 (2097152)
I0411 19:21:09.181504 12649 net.cpp:156] Memory required for data: 279972864
I0411 19:21:09.181512 12649 layer_factory.hpp:77] Creating layer global_in
I0411 19:21:09.181524 12649 net.cpp:91] Creating Layer global_in
I0411 19:21:09.181529 12649 net.cpp:425] global_in <- conv1_down
I0411 19:21:09.181536 12649 net.cpp:425] global_in <- conv2_down
I0411 19:21:09.181543 12649 net.cpp:425] global_in <- conv3_down
I0411 19:21:09.181551 12649 net.cpp:399] global_in -> global_in
I0411 19:21:09.181589 12649 net.cpp:141] Setting up global_in
I0411 19:21:09.181601 12649 net.cpp:148] Top shape: 256 128 8 8 (2097152)
I0411 19:21:09.181607 12649 net.cpp:156] Memory required for data: 288361472
I0411 19:21:09.181612 12649 layer_factory.hpp:77] Creating layer global_pool
I0411 19:21:09.181627 12649 net.cpp:91] Creating Layer global_pool
I0411 19:21:09.181632 12649 net.cpp:425] global_pool <- global_in
I0411 19:21:09.181643 12649 net.cpp:399] global_pool -> global_pool
I0411 19:21:09.182066 12649 net.cpp:141] Setting up global_pool
I0411 19:21:09.182087 12649 net.cpp:148] Top shape: 256 128 1 1 (32768)
I0411 19:21:09.182093 12649 net.cpp:156] Memory required for data: 288492544
I0411 19:21:09.182101 12649 layer_factory.hpp:77] Creating layer ip
I0411 19:21:09.182113 12649 net.cpp:91] Creating Layer ip
I0411 19:21:09.182121 12649 net.cpp:425] ip <- global_pool
I0411 19:21:09.182132 12649 net.cpp:399] ip -> ip
I0411 19:21:09.182296 12649 net.cpp:141] Setting up ip
I0411 19:21:09.182308 12649 net.cpp:148] Top shape: 256 10 (2560)
I0411 19:21:09.182313 12649 net.cpp:156] Memory required for data: 288502784
I0411 19:21:09.182323 12649 layer_factory.hpp:77] Creating layer ip_ip_0_split
I0411 19:21:09.182335 12649 net.cpp:91] Creating Layer ip_ip_0_split
I0411 19:21:09.182342 12649 net.cpp:425] ip_ip_0_split <- ip
I0411 19:21:09.182350 12649 net.cpp:399] ip_ip_0_split -> ip_ip_0_split_0
I0411 19:21:09.182364 12649 net.cpp:399] ip_ip_0_split -> ip_ip_0_split_1
I0411 19:21:09.182410 12649 net.cpp:141] Setting up ip_ip_0_split
I0411 19:21:09.182420 12649 net.cpp:148] Top shape: 256 10 (2560)
I0411 19:21:09.182427 12649 net.cpp:148] Top shape: 256 10 (2560)
I0411 19:21:09.182433 12649 net.cpp:156] Memory required for data: 288523264
I0411 19:21:09.182438 12649 layer_factory.hpp:77] Creating layer accuracy
I0411 19:21:09.182453 12649 net.cpp:91] Creating Layer accuracy
I0411 19:21:09.182459 12649 net.cpp:425] accuracy <- ip_ip_0_split_0
I0411 19:21:09.182467 12649 net.cpp:425] accuracy <- label_data_1_split_0
I0411 19:21:09.182477 12649 net.cpp:399] accuracy -> accuracy
…
I0411 19:21:09.184706 12649 net.cpp:313] The NetState phase (1) differed from the phase (0) specified by a rule in layer data
I0411 19:21:09.185034 12649 net.cpp:49] Initializing net from parameters: 
name: "CifarResNet0"
state {
  phase: TEST
}
layer {
  name: "data"
  type: "Data"
  top: "data"
  top: "label"
  include {
    phase: TEST
  }
  transform_param {
    mean_file: "/home/liangjiang/code/residual_network/data/cifar10/mean.binaryproto"
  }
  data_param {
    source: "/home/liangjiang/code/residual_network/data/cifar10/cifar10_test_lmdb"
    batch_size: 32
    backend: LMDB
  }
}
layer {
  name: "conv1"
  type: "Convolution"
  bottom: "data"
  top: "conv1"
  param {
    lr_mult: 1
  }
  param {
    lr_mult: 2
  }
  convolution_param {
    num_output: 8
    pad: 1
    kernel_size: 3
    stride: 1
    weight_filler {
      type: "msra"
    }
    bias_filler {
      type: "constant"
      value: 0
    }
  }
}
layer {
  name: "bn_conv1"
  type: "BatchNorm"
  bottom: "conv1"
  top: "conv1"
  param {
    lr_mult: 0
  }
  param {
    lr_mult: 0
  }
  param {
    lr_mult: 0
  }
}
layer {
  name: "scale_conv1"
  type: "Scale"
  bottom: "conv1"
  top: "conv1"
  param {
    lr_mult: 1
  }
  param {
    lr_mult: 2
  }
  scale_param {
    bias_term: true
  }
}
layer {
  name: "conv1_relu"
  type: "ReLU"
  bottom: "conv1"
  top: "conv1"
}
layer {
  name: "conv1_down"
  type: "Convolution"
  bottom: "conv1"
  top: "conv1_down"
  param {
    lr_mult: 0
  }
  convolution_param {
    num_output: 128
    bias_term: false
    pad: 0
    kernel_size: 4
    stride: 4
    weight_filler {
      type: "downsample"
      value: 1
    }
  }
}
layer {
  name: "scale_conv1_down"
  type: "Scale"
  bottom: "conv1_down"
  top: "conv1_down"
  param {
    lr_mult: 1
  }
  param {
    lr_mult: 2
  }
  scale_param {
    filler {
      type: "constant"
      value: 1
    }
    bias_term: true
  }
}
layer {
  name: "scale_conv1_down_c"
  type: "Scale"
  bottom: "conv1_down"
  top: "conv1_down"
  param {
    lr_mult: 0
  }
  scale_param {
    filler {
      type: "constant"
      value: 0.4
    }
    bias_term: false
  }
}
layer {
  name: "conv2_1a"
  type: "Convolution"
  bottom: "conv1"
  top: "conv2_1a"
  param {
    lr_mult: 1
  }
  param {
    lr_mult: 2
  }
  convolution_param {
    num_output: 8
    pad: 1
    kernel_size: 3
    stride: 1
    weight_filler {
      type: "msra"
    }
    bias_filler {
      type: "constant"
      value: 0
    }
  }
}
layer {
  name: "bn_conv2_1a"
  type: "BatchNorm"
  bottom: "conv2_1a"
  top: "conv2_1a"
  param {
    lr_mult: 0
  }
  param {
    lr_mult: 0
  }
  param {
    lr_mult: 0
  }
}
layer {
  name: "scale_conv2_1a"
  type: "Scale"
  bottom: "conv2_1a"
  top: "conv2_1a"
  param {
    lr_mult: 1
  }
  param {
    lr_mult: 2
  }
  scale_param {
    bias_term: true
  }
}
layer {
  name: "conv2_1a_relu"
  type: "ReLU"
  bottom: "conv2_1a"
  top: "conv2_1a"
}
layer {
  name: "conv2_1b"
  type: "Convolution"
  bottom: "conv2_1a"
  top: "conv2_1b"
  param {
    lr_mult: 1
  }
  param {
    lr_mult: 2
  }
  convolution_param {
    num_output: 8
    pad: 1
    kernel_size: 3
    stride: 1
    weight_filler {
      type: "msra"
    }
    bias_filler {
      type: "constant"
      value: 0
    }
  }
}
layer {
  name: "bn_conv2_1b"
  type: "BatchNorm"
  bottom: "conv2_1b"
  top: "conv2_1b"
  param {
    lr_mult: 0
  }
  param {
    lr_mult: 0
  }
  param {
    lr_mult: 0
  }
}
layer {
  name: "scale_conv2_1b"
  type: "Scale"
  bottom: "conv2_1b"
  top: "conv2_1b"
  param {
    lr_mult: 1
  }
  param {
    lr_mult: 2
  }
  scale_param {
    bias_term: true
  }
}
layer {
  name: "conv2_1b_relu"
  type: "ReLU"
  bottom: "conv2_1b"
  top: "conv2_1b"
}
layer {
  name: "conv2_down"
  type: "Convolution"
  bottom: "conv2_1b"
  top: "conv2_down"
  param {
    lr_mult: 0
  }
  convolution_param {
    num_output: 128
    bias_term: false
    pad: 0
    kernel_size: 4
    stride: 4
    weight_filler {
      type: "downsample"
      value: 1
    }
  }
}
layer {
  name: "scale_conv2_down"
  type: "Scale"
  bottom: "conv2_down"
  top: "conv2_down"
  param {
    lr_mult: 1
  }
  param {
    lr_mult: 2
  }
  scale_param {
    filler {
      type: "constant"
      value: 1
    }
    bias_term: true
  }
}
layer {
  name: "scale_conv2_down_c"
  type: "Scale"
  bottom: "conv2_down"
  top: "conv2_down"
  param {
    lr_mult: 0
  }
  scale_param {
    filler {
      type: "constant"
      value: 0.4
    }
    bias_term: false
  }
}
layer {
  name: "conv3_1a"
  type: "Convolution"
  bottom: "conv2_1b"
  top: "conv3_1a"
  param {
    lr_mult: 1
  }
  param {
    lr_mult: 2
  }
  convolution_param {
    num_output: 32
    pad: 0
    kernel_size: 1
    stride: 2
    weight_filler {
      type: "msra"
    }
    bias_filler {
      type: "constant"
      value: 0
    }
  }
}
layer {
  name: "bn_conv3_1a"
  type: "BatchNorm"
  bottom: "conv3_1a"
  top: "conv3_1a"
  param {
    lr_mult: 0
  }
  param {
    lr_mult: 0
  }
  param {
    lr_mult: 0
  }
}
layer {
  name: "scale_conv3_1a"
  type: "Scale"
  bottom: "conv3_1a"
  top: "conv3_1a"
  param {
    lr_mult: 1
  }
  param {
    lr_mult: 2
  }
  scale_param {
    bias_term: true
  }
}
layer {
  name: "conv3_1a_relu"
  type: "ReLU"
  bottom: "conv3_1a"
  top: "conv3_1a"
}
layer {
  name: "conv3_1b"
  type: "Convolution"
  bottom: "conv3_1a"
  top: "conv3_1b"
  param {
    lr_mult: 1
  }
  param {
    lr_mult: 2
  }
  convolution_param {
    num_output: 32
    pad: 1
    kernel_size: 3
    stride: 1
    weight_filler {
      type: "msra"
    }
    bias_filler {
      type: "constant"
      value: 0
    }
  }
}
layer {
  name: "bn_conv3_1b"
  type: "BatchNorm"
  bottom: "conv3_1b"
  top: "conv3_1b"
  param {
    lr_mult: 0
  }
  param {
    lr_mult: 0
  }
  param {
    lr_mult: 0
  }
}
layer {
  name: "scale_conv3_1b"
  type: "Scale"
  bottom: "conv3_1b"
  top: "conv3_1b"
  param {
    lr_mult: 1
  }
  param {
    lr_mult: 2
  }
  scale_param {
    bias_term: true
  }
}
layer {
  name: "conv3_1b_relu"
  type: "ReLU"
  bottom: "conv3_1b"
  top: "conv3_1b"
}
layer {
  name: "conv3_down"
  type: "Convolution"
  bottom: "conv3_1b"
  top: "conv3_down"
  param {
    lr_mult: 0
  }
  convolution_param {
    num_output: 128
    bias_term: false
    pad: 0
    kernel_size: 2
    stride: 2
    weight_filler {
      type: "downsample"
      value: 1
    }
  }
}
layer {
  name: "scale_conv3_down"
  type: "Scale"
  bottom: "conv3_down"
  top: "conv3_down"
  param {
    lr_mult: 1
  }
  param {
    lr_mult: 2
  }
  scale_param {
    filler {
      type: "constant"
      value: 0.2
    }
    bias_term: true
  }
}
layer {
  name: "scale_conv3_down_c"
  type: "Scale"
  bottom: "conv3_down"
  top: "conv3_down"
  param {
    lr_mult: 0
  }
  scale_param {
    filler {
      type: "constant"
      value: 1
    }
    bias_term: false
  }
}
layer {
  name: "global_in"
  type: "Eltwise"
  bottom: "conv1_down"
  bottom: "conv2_down"
  bottom: "conv3_down"
  top: "global_in"
}
layer {
  name: "global_pool"
  type: "Pooling"
  bottom: "global_in"
  top: "global_pool"
  pooling_param {
    pool: AVE
    kernel_size: 8
  }
}
layer {
  name: "ip"
  type: "InnerProduct"
  bottom: "global_pool"
  top: "ip"
  param {
    lr_mult: 1
  }
  param {
    lr_mult: 2
  }
  inner_product_param {
    num_output: 10
  }
}
layer {
  name: "accuracy"
  type: "Accuracy"
  bottom: "ip"
  bottom: "label"
  top: "accuracy"
}
layer {
  name: "loss"
  type: "SoftmaxWithLoss"
  bottom: "ip"
  bottom: "label"
  top: "loss"
}
I0411 19:21:09.185279 12649 layer_factory.hpp:77] Creating layer data
I0411 19:21:09.185401 12649 net.cpp:91] Creating Layer data
I0411 19:21:09.185418 12649 net.cpp:399] data -> data
I0411 19:21:09.185432 12649 net.cpp:399] data -> label
I0411 19:21:09.185444 12649 data_transformer.cpp:25] Loading mean file from: /home/liangjiang/code/residual_network/data/cifar10/mean.binaryproto
I0411 19:21:09.186823 12721 db_lmdb.cpp:38] Opened lmdb /home/liangjiang/code/residual_network/data/cifar10/cifar10_test_lmdb
I0411 19:21:09.187046 12649 data_layer.cpp:41] output data size: 32,3,32,32
I0411 19:21:09.189141 12649 net.cpp:141] Setting up data
I0411 19:21:09.189167 12649 net.cpp:148] Top shape: 32 3 32 32 (98304)
I0411 19:21:09.189175 12649 net.cpp:148] Top shape: 32 (32)
I0411 19:21:09.189182 12649 net.cpp:156] Memory required for data: 393344
I0411 19:21:09.189188 12649 layer_factory.hpp:77] Creating layer label_data_1_split
I0411 19:21:09.189203 12649 net.cpp:91] Creating Layer label_data_1_split
I0411 19:21:09.189209 12649 net.cpp:425] label_data_1_split <- label
I0411 19:21:09.189218 12649 net.cpp:399] label_data_1_split -> label_data_1_split_0
I0411 19:21:09.189229 12649 net.cpp:399] label_data_1_split -> label_data_1_split_1
I0411 19:21:09.189343 12649 net.cpp:141] Setting up label_data_1_split
I0411 19:21:09.189359 12649 net.cpp:148] Top shape: 32 (32)
I0411 19:21:09.189366 12649 net.cpp:148] Top shape: 32 (32)
I0411 19:21:09.189371 12649 net.cpp:156] Memory required for data: 393600
I0411 19:21:09.189378 12649 layer_factory.hpp:77] Creating layer conv1
I0411 19:21:09.189395 12649 net.cpp:91] Creating Layer conv1
I0411 19:21:09.189404 12649 net.cpp:425] conv1 <- data
I0411 19:21:09.189415 12649 net.cpp:399] conv1 -> conv1
I0411 19:21:09.190976 12649 net.cpp:141] Setting up conv1
I0411 19:21:09.190999 12649 net.cpp:148] Top shape: 32 8 32 32 (262144)
I0411 19:21:09.191007 12649 net.cpp:156] Memory required for data: 1442176
I0411 19:21:09.191027 12649 layer_factory.hpp:77] Creating layer bn_conv1
I0411 19:21:09.191045 12649 net.cpp:91] Creating Layer bn_conv1
I0411 19:21:09.191051 12649 net.cpp:425] bn_conv1 <- conv1
I0411 19:21:09.191059 12649 net.cpp:386] bn_conv1 -> conv1 (in-place)
I0411 19:21:09.191330 12649 net.cpp:141] Setting up bn_conv1
I0411 19:21:09.191342 12649 net.cpp:148] Top shape: 32 8 32 32 (262144)
I0411 19:21:09.191349 12649 net.cpp:156] Memory required for data: 2490752
I0411 19:21:09.191366 12649 layer_factory.hpp:77] Creating layer scale_conv1
I0411 19:21:09.191377 12649 net.cpp:91] Creating Layer scale_conv1
I0411 19:21:09.191383 12649 net.cpp:425] scale_conv1 <- conv1
I0411 19:21:09.191391 12649 net.cpp:386] scale_conv1 -> conv1 (in-place)
I0411 19:21:09.191459 12649 layer_factory.hpp:77] Creating layer scale_conv1
I0411 19:21:09.191661 12649 net.cpp:141] Setting up scale_conv1
I0411 19:21:09.191678 12649 net.cpp:148] Top shape: 32 8 32 32 (262144)
I0411 19:21:09.191684 12649 net.cpp:156] Memory required for data: 3539328
I0411 19:21:09.191694 12649 layer_factory.hpp:77] Creating layer conv1_relu
I0411 19:21:09.191702 12649 net.cpp:91] Creating Layer conv1_relu
I0411 19:21:09.191709 12649 net.cpp:425] conv1_relu <- conv1
I0411 19:21:09.191718 12649 net.cpp:386] conv1_relu -> conv1 (in-place)
I0411 19:21:09.192101 12649 net.cpp:141] Setting up conv1_relu
I0411 19:21:09.192124 12649 net.cpp:148] Top shape: 32 8 32 32 (262144)
I0411 19:21:09.192131 12649 net.cpp:156] Memory required for data: 4587904
I0411 19:21:09.192138 12649 layer_factory.hpp:77] Creating layer conv1_conv1_relu_0_split
I0411 19:21:09.192153 12649 net.cpp:91] Creating Layer conv1_conv1_relu_0_split
I0411 19:21:09.192160 12649 net.cpp:425] conv1_conv1_relu_0_split <- conv1
I0411 19:21:09.192173 12649 net.cpp:399] conv1_conv1_relu_0_split -> conv1_conv1_relu_0_split_0
I0411 19:21:09.192184 12649 net.cpp:399] conv1_conv1_relu_0_split -> conv1_conv1_relu_0_split_1
I0411 19:21:09.192261 12649 net.cpp:141] Setting up conv1_conv1_relu_0_split
I0411 19:21:09.192275 12649 net.cpp:148] Top shape: 32 8 32 32 (262144)
I0411 19:21:09.192281 12649 net.cpp:148] Top shape: 32 8 32 32 (262144)
I0411 19:21:09.192286 12649 net.cpp:156] Memory required for data: 6685056
I0411 19:21:09.192292 12649 layer_factory.hpp:77] Creating layer conv1_down
I0411 19:21:09.192308 12649 net.cpp:91] Creating Layer conv1_down
I0411 19:21:09.192314 12649 net.cpp:425] conv1_down <- conv1_conv1_relu_0_split_0
I0411 19:21:09.192327 12649 net.cpp:399] conv1_down -> conv1_down
I0411 19:21:09.193651 12649 net.cpp:141] Setting up conv1_down
I0411 19:21:09.193675 12649 net.cpp:148] Top shape: 32 128 8 8 (262144)
I0411 19:21:09.193681 12649 net.cpp:156] Memory required for data: 7733632
I0411 19:21:09.193691 12649 layer_factory.hpp:77] Creating layer scale_conv1_down
I0411 19:21:09.193711 12649 net.cpp:91] Creating Layer scale_conv1_down
I0411 19:21:09.193718 12649 net.cpp:425] scale_conv1_down <- conv1_down
I0411 19:21:09.193727 12649 net.cpp:386] scale_conv1_down -> conv1_down (in-place)
I0411 19:21:09.193792 12649 layer_factory.hpp:77] Creating layer scale_conv1_down
I0411 19:21:09.193938 12649 net.cpp:141] Setting up scale_conv1_down
I0411 19:21:09.193950 12649 net.cpp:148] Top shape: 32 128 8 8 (262144)
I0411 19:21:09.193955 12649 net.cpp:156] Memory required for data: 8782208
I0411 19:21:09.193969 12649 layer_factory.hpp:77] Creating layer scale_conv1_down_c
I0411 19:21:09.193979 12649 net.cpp:91] Creating Layer scale_conv1_down_c
I0411 19:21:09.193985 12649 net.cpp:425] scale_conv1_down_c <- conv1_down
I0411 19:21:09.193994 12649 net.cpp:386] scale_conv1_down_c -> conv1_down (in-place)
I0411 19:21:09.194103 12649 net.cpp:141] Setting up scale_conv1_down_c
I0411 19:21:09.194115 12649 net.cpp:148] Top shape: 32 128 8 8 (262144)
I0411 19:21:09.194120 12649 net.cpp:156] Memory required for data: 9830784
I0411 19:21:09.194128 12649 layer_factory.hpp:77] Creating layer conv2_1a
I0411 19:21:09.194140 12649 net.cpp:91] Creating Layer conv2_1a
I0411 19:21:09.194146 12649 net.cpp:425] conv2_1a <- conv1_conv1_relu_0_split_1
I0411 19:21:09.194159 12649 net.cpp:399] conv2_1a -> conv2_1a
I0411 19:21:09.195338 12649 net.cpp:141] Setting up conv2_1a
I0411 19:21:09.195359 12649 net.cpp:148] Top shape: 32 8 32 32 (262144)
I0411 19:21:09.195366 12649 net.cpp:156] Memory required for data: 10879360
I0411 19:21:09.195376 12649 layer_factory.hpp:77] Creating layer bn_conv2_1a
I0411 19:21:09.195390 12649 net.cpp:91] Creating Layer bn_conv2_1a
I0411 19:21:09.195397 12649 net.cpp:425] bn_conv2_1a <- conv2_1a
I0411 19:21:09.195406 12649 net.cpp:386] bn_conv2_1a -> conv2_1a (in-place)
I0411 19:21:09.195659 12649 net.cpp:141] Setting up bn_conv2_1a
I0411 19:21:09.195670 12649 net.cpp:148] Top shape: 32 8 32 32 (262144)
I0411 19:21:09.195675 12649 net.cpp:156] Memory required for data: 11927936
I0411 19:21:09.195686 12649 layer_factory.hpp:77] Creating layer scale_conv2_1a
I0411 19:21:09.195704 12649 net.cpp:91] Creating Layer scale_conv2_1a
I0411 19:21:09.195711 12649 net.cpp:425] scale_conv2_1a <- conv2_1a
I0411 19:21:09.195719 12649 net.cpp:386] scale_conv2_1a -> conv2_1a (in-place)
I0411 19:21:09.195777 12649 layer_factory.hpp:77] Creating layer scale_conv2_1a
I0411 19:21:09.195924 12649 net.cpp:141] Setting up scale_conv2_1a
I0411 19:21:09.195935 12649 net.cpp:148] Top shape: 32 8 32 32 (262144)
I0411 19:21:09.195940 12649 net.cpp:156] Memory required for data: 12976512
I0411 19:21:09.195955 12649 layer_factory.hpp:77] Creating layer conv2_1a_relu
I0411 19:21:09.195966 12649 net.cpp:91] Creating Layer conv2_1a_relu
I0411 19:21:09.195971 12649 net.cpp:425] conv2_1a_relu <- conv2_1a
I0411 19:21:09.195979 12649 net.cpp:386] conv2_1a_relu -> conv2_1a (in-place)
I0411 19:21:09.196357 12649 net.cpp:141] Setting up conv2_1a_relu
I0411 19:21:09.196377 12649 net.cpp:148] Top shape: 32 8 32 32 (262144)
I0411 19:21:09.196383 12649 net.cpp:156] Memory required for data: 14025088
I0411 19:21:09.196389 12649 layer_factory.hpp:77] Creating layer conv2_1b
I0411 19:21:09.196405 12649 net.cpp:91] Creating Layer conv2_1b
I0411 19:21:09.196413 12649 net.cpp:425] conv2_1b <- conv2_1a
I0411 19:21:09.196424 12649 net.cpp:399] conv2_1b -> conv2_1b
I0411 19:21:09.197751 12649 net.cpp:141] Setting up conv2_1b
I0411 19:21:09.197774 12649 net.cpp:148] Top shape: 32 8 32 32 (262144)
I0411 19:21:09.197780 12649 net.cpp:156] Memory required for data: 15073664
I0411 19:21:09.197790 12649 layer_factory.hpp:77] Creating layer bn_conv2_1b
I0411 19:21:09.197803 12649 net.cpp:91] Creating Layer bn_conv2_1b
I0411 19:21:09.197809 12649 net.cpp:425] bn_conv2_1b <- conv2_1b
I0411 19:21:09.197818 12649 net.cpp:386] bn_conv2_1b -> conv2_1b (in-place)
I0411 19:21:09.198062 12649 net.cpp:141] Setting up bn_conv2_1b
I0411 19:21:09.198073 12649 net.cpp:148] Top shape: 32 8 32 32 (262144)
I0411 19:21:09.198078 12649 net.cpp:156] Memory required for data: 16122240
I0411 19:21:09.198089 12649 layer_factory.hpp:77] Creating layer scale_conv2_1b
I0411 19:21:09.198106 12649 net.cpp:91] Creating Layer scale_conv2_1b
I0411 19:21:09.198112 12649 net.cpp:425] scale_conv2_1b <- conv2_1b
I0411 19:21:09.198120 12649 net.cpp:386] scale_conv2_1b -> conv2_1b (in-place)
I0411 19:21:09.198176 12649 layer_factory.hpp:77] Creating layer scale_conv2_1b
I0411 19:21:09.198314 12649 net.cpp:141] Setting up scale_conv2_1b
I0411 19:21:09.198325 12649 net.cpp:148] Top shape: 32 8 32 32 (262144)
I0411 19:21:09.198330 12649 net.cpp:156] Memory required for data: 17170816
I0411 19:21:09.198338 12649 layer_factory.hpp:77] Creating layer conv2_1b_relu
I0411 19:21:09.198346 12649 net.cpp:91] Creating Layer conv2_1b_relu
I0411 19:21:09.198351 12649 net.cpp:425] conv2_1b_relu <- conv2_1b
I0411 19:21:09.198362 12649 net.cpp:386] conv2_1b_relu -> conv2_1b (in-place)
I0411 19:21:09.198588 12649 net.cpp:141] Setting up conv2_1b_relu
I0411 19:21:09.198602 12649 net.cpp:148] Top shape: 32 8 32 32 (262144)
I0411 19:21:09.198608 12649 net.cpp:156] Memory required for data: 18219392
I0411 19:21:09.198613 12649 layer_factory.hpp:77] Creating layer conv2_1b_conv2_1b_relu_0_split
I0411 19:21:09.198621 12649 net.cpp:91] Creating Layer conv2_1b_conv2_1b_relu_0_split
I0411 19:21:09.198627 12649 net.cpp:425] conv2_1b_conv2_1b_relu_0_split <- conv2_1b
I0411 19:21:09.198637 12649 net.cpp:399] conv2_1b_conv2_1b_relu_0_split -> conv2_1b_conv2_1b_relu_0_split_0
I0411 19:21:09.198647 12649 net.cpp:399] conv2_1b_conv2_1b_relu_0_split -> conv2_1b_conv2_1b_relu_0_split_1
I0411 19:21:09.198701 12649 net.cpp:141] Setting up conv2_1b_conv2_1b_relu_0_split
I0411 19:21:09.198711 12649 net.cpp:148] Top shape: 32 8 32 32 (262144)
I0411 19:21:09.198717 12649 net.cpp:148] Top shape: 32 8 32 32 (262144)
I0411 19:21:09.198722 12649 net.cpp:156] Memory required for data: 20316544
I0411 19:21:09.198727 12649 layer_factory.hpp:77] Creating layer conv2_down
I0411 19:21:09.198743 12649 net.cpp:91] Creating Layer conv2_down
I0411 19:21:09.198750 12649 net.cpp:425] conv2_down <- conv2_1b_conv2_1b_relu_0_split_0
I0411 19:21:09.198765 12649 net.cpp:399] conv2_down -> conv2_down
I0411 19:21:09.199944 12649 net.cpp:141] Setting up conv2_down
I0411 19:21:09.199966 12649 net.cpp:148] Top shape: 32 128 8 8 (262144)
I0411 19:21:09.199972 12649 net.cpp:156] Memory required for data: 21365120
I0411 19:21:09.199980 12649 layer_factory.hpp:77] Creating layer scale_conv2_down
I0411 19:21:09.199990 12649 net.cpp:91] Creating Layer scale_conv2_down
I0411 19:21:09.199997 12649 net.cpp:425] scale_conv2_down <- conv2_down
I0411 19:21:09.200008 12649 net.cpp:386] scale_conv2_down -> conv2_down (in-place)
I0411 19:21:09.200072 12649 layer_factory.hpp:77] Creating layer scale_conv2_down
I0411 19:21:09.200215 12649 net.cpp:141] Setting up scale_conv2_down
I0411 19:21:09.200227 12649 net.cpp:148] Top shape: 32 128 8 8 (262144)
I0411 19:21:09.200232 12649 net.cpp:156] Memory required for data: 22413696
I0411 19:21:09.200239 12649 layer_factory.hpp:77] Creating layer scale_conv2_down_c
I0411 19:21:09.200248 12649 net.cpp:91] Creating Layer scale_conv2_down_c
I0411 19:21:09.200253 12649 net.cpp:425] scale_conv2_down_c <- conv2_down
I0411 19:21:09.200263 12649 net.cpp:386] scale_conv2_down_c -> conv2_down (in-place)
I0411 19:21:09.200367 12649 net.cpp:141] Setting up scale_conv2_down_c
I0411 19:21:09.200376 12649 net.cpp:148] Top shape: 32 128 8 8 (262144)
I0411 19:21:09.200382 12649 net.cpp:156] Memory required for data: 23462272
I0411 19:21:09.200388 12649 layer_factory.hpp:77] Creating layer conv3_1a
I0411 19:21:09.200402 12649 net.cpp:91] Creating Layer conv3_1a
I0411 19:21:09.200408 12649 net.cpp:425] conv3_1a <- conv2_1b_conv2_1b_relu_0_split_1
I0411 19:21:09.200417 12649 net.cpp:399] conv3_1a -> conv3_1a
I0411 19:21:09.201679 12649 net.cpp:141] Setting up conv3_1a
I0411 19:21:09.201700 12649 net.cpp:148] Top shape: 32 32 16 16 (262144)
I0411 19:21:09.201707 12649 net.cpp:156] Memory required for data: 24510848
I0411 19:21:09.201717 12649 layer_factory.hpp:77] Creating layer bn_conv3_1a
I0411 19:21:09.201728 12649 net.cpp:91] Creating Layer bn_conv3_1a
I0411 19:21:09.201735 12649 net.cpp:425] bn_conv3_1a <- conv3_1a
I0411 19:21:09.201750 12649 net.cpp:386] bn_conv3_1a -> conv3_1a (in-place)
I0411 19:21:09.202011 12649 net.cpp:141] Setting up bn_conv3_1a
I0411 19:21:09.202023 12649 net.cpp:148] Top shape: 32 32 16 16 (262144)
I0411 19:21:09.202028 12649 net.cpp:156] Memory required for data: 25559424
I0411 19:21:09.202045 12649 layer_factory.hpp:77] Creating layer scale_conv3_1a
I0411 19:21:09.202055 12649 net.cpp:91] Creating Layer scale_conv3_1a
I0411 19:21:09.202061 12649 net.cpp:425] scale_conv3_1a <- conv3_1a
I0411 19:21:09.202069 12649 net.cpp:386] scale_conv3_1a -> conv3_1a (in-place)
I0411 19:21:09.202128 12649 layer_factory.hpp:77] Creating layer scale_conv3_1a
I0411 19:21:09.202268 12649 net.cpp:141] Setting up scale_conv3_1a
I0411 19:21:09.202278 12649 net.cpp:148] Top shape: 32 32 16 16 (262144)
I0411 19:21:09.202285 12649 net.cpp:156] Memory required for data: 26608000
I0411 19:21:09.202292 12649 layer_factory.hpp:77] Creating layer conv3_1a_relu
I0411 19:21:09.202299 12649 net.cpp:91] Creating Layer conv3_1a_relu
I0411 19:21:09.202307 12649 net.cpp:425] conv3_1a_relu <- conv3_1a
I0411 19:21:09.202314 12649 net.cpp:386] conv3_1a_relu -> conv3_1a (in-place)
I0411 19:21:09.202533 12649 net.cpp:141] Setting up conv3_1a_relu
I0411 19:21:09.202545 12649 net.cpp:148] Top shape: 32 32 16 16 (262144)
I0411 19:21:09.202551 12649 net.cpp:156] Memory required for data: 27656576
I0411 19:21:09.202556 12649 layer_factory.hpp:77] Creating layer conv3_1b
I0411 19:21:09.202572 12649 net.cpp:91] Creating Layer conv3_1b
I0411 19:21:09.202579 12649 net.cpp:425] conv3_1b <- conv3_1a
I0411 19:21:09.202589 12649 net.cpp:399] conv3_1b -> conv3_1b
I0411 19:21:09.204311 12649 net.cpp:141] Setting up conv3_1b
I0411 19:21:09.204331 12649 net.cpp:148] Top shape: 32 32 16 16 (262144)
I0411 19:21:09.204339 12649 net.cpp:156] Memory required for data: 28705152
I0411 19:21:09.204347 12649 layer_factory.hpp:77] Creating layer bn_conv3_1b
I0411 19:21:09.204365 12649 net.cpp:91] Creating Layer bn_conv3_1b
I0411 19:21:09.204372 12649 net.cpp:425] bn_conv3_1b <- conv3_1b
I0411 19:21:09.204381 12649 net.cpp:386] bn_conv3_1b -> conv3_1b (in-place)
I0411 19:21:09.204622 12649 net.cpp:141] Setting up bn_conv3_1b
I0411 19:21:09.204633 12649 net.cpp:148] Top shape: 32 32 16 16 (262144)
I0411 19:21:09.204638 12649 net.cpp:156] Memory required for data: 29753728
I0411 19:21:09.204648 12649 layer_factory.hpp:77] Creating layer scale_conv3_1b
I0411 19:21:09.204658 12649 net.cpp:91] Creating Layer scale_conv3_1b
I0411 19:21:09.204663 12649 net.cpp:425] scale_conv3_1b <- conv3_1b
I0411 19:21:09.204673 12649 net.cpp:386] scale_conv3_1b -> conv3_1b (in-place)
I0411 19:21:09.204723 12649 layer_factory.hpp:77] Creating layer scale_conv3_1b
I0411 19:21:09.204865 12649 net.cpp:141] Setting up scale_conv3_1b
I0411 19:21:09.204876 12649 net.cpp:148] Top shape: 32 32 16 16 (262144)
I0411 19:21:09.204881 12649 net.cpp:156] Memory required for data: 30802304
I0411 19:21:09.204890 12649 layer_factory.hpp:77] Creating layer conv3_1b_relu
I0411 19:21:09.204897 12649 net.cpp:91] Creating Layer conv3_1b_relu
I0411 19:21:09.204902 12649 net.cpp:425] conv3_1b_relu <- conv3_1b
I0411 19:21:09.204911 12649 net.cpp:386] conv3_1b_relu -> conv3_1b (in-place)
I0411 19:21:09.205279 12649 net.cpp:141] Setting up conv3_1b_relu
I0411 19:21:09.205299 12649 net.cpp:148] Top shape: 32 32 16 16 (262144)
I0411 19:21:09.205305 12649 net.cpp:156] Memory required for data: 31850880
I0411 19:21:09.205310 12649 layer_factory.hpp:77] Creating layer conv3_down
I0411 19:21:09.205325 12649 net.cpp:91] Creating Layer conv3_down
I0411 19:21:09.205332 12649 net.cpp:425] conv3_down <- conv3_1b
I0411 19:21:09.205343 12649 net.cpp:399] conv3_down -> conv3_down
I0411 19:21:09.206547 12649 net.cpp:141] Setting up conv3_down
I0411 19:21:09.206568 12649 net.cpp:148] Top shape: 32 128 8 8 (262144)
I0411 19:21:09.206573 12649 net.cpp:156] Memory required for data: 32899456
I0411 19:21:09.206581 12649 layer_factory.hpp:77] Creating layer scale_conv3_down
I0411 19:21:09.206594 12649 net.cpp:91] Creating Layer scale_conv3_down
I0411 19:21:09.206600 12649 net.cpp:425] scale_conv3_down <- conv3_down
I0411 19:21:09.206609 12649 net.cpp:386] scale_conv3_down -> conv3_down (in-place)
I0411 19:21:09.206672 12649 layer_factory.hpp:77] Creating layer scale_conv3_down
I0411 19:21:09.206817 12649 net.cpp:141] Setting up scale_conv3_down
I0411 19:21:09.206828 12649 net.cpp:148] Top shape: 32 128 8 8 (262144)
I0411 19:21:09.206833 12649 net.cpp:156] Memory required for data: 33948032
I0411 19:21:09.206841 12649 layer_factory.hpp:77] Creating layer scale_conv3_down_c
I0411 19:21:09.206856 12649 net.cpp:91] Creating Layer scale_conv3_down_c
I0411 19:21:09.206861 12649 net.cpp:425] scale_conv3_down_c <- conv3_down
I0411 19:21:09.206871 12649 net.cpp:386] scale_conv3_down_c -> conv3_down (in-place)
I0411 19:21:09.206979 12649 net.cpp:141] Setting up scale_conv3_down_c
I0411 19:21:09.206990 12649 net.cpp:148] Top shape: 32 128 8 8 (262144)
I0411 19:21:09.206995 12649 net.cpp:156] Memory required for data: 34996608
I0411 19:21:09.207001 12649 layer_factory.hpp:77] Creating layer global_in
I0411 19:21:09.207010 12649 net.cpp:91] Creating Layer global_in
I0411 19:21:09.207015 12649 net.cpp:425] global_in <- conv1_down
I0411 19:21:09.207021 12649 net.cpp:425] global_in <- conv2_down
I0411 19:21:09.207027 12649 net.cpp:425] global_in <- conv3_down
I0411 19:21:09.207034 12649 net.cpp:399] global_in -> global_in
I0411 19:21:09.207069 12649 net.cpp:141] Setting up global_in
I0411 19:21:09.207082 12649 net.cpp:148] Top shape: 32 128 8 8 (262144)
I0411 19:21:09.207087 12649 net.cpp:156] Memory required for data: 36045184
I0411 19:21:09.207093 12649 layer_factory.hpp:77] Creating layer global_pool
I0411 19:21:09.207100 12649 net.cpp:91] Creating Layer global_pool
I0411 19:21:09.207105 12649 net.cpp:425] global_pool <- global_in
I0411 19:21:09.207113 12649 net.cpp:399] global_pool -> global_pool
I0411 19:21:09.207356 12649 net.cpp:141] Setting up global_pool
I0411 19:21:09.207376 12649 net.cpp:148] Top shape: 32 128 1 1 (4096)
I0411 19:21:09.207381 12649 net.cpp:156] Memory required for data: 36061568
I0411 19:21:09.207387 12649 layer_factory.hpp:77] Creating layer ip
I0411 19:21:09.207396 12649 net.cpp:91] Creating Layer ip
I0411 19:21:09.207402 12649 net.cpp:425] ip <- global_pool
I0411 19:21:09.207412 12649 net.cpp:399] ip -> ip
I0411 19:21:09.207554 12649 net.cpp:141] Setting up ip
I0411 19:21:09.207566 12649 net.cpp:148] Top shape: 32 10 (320)
I0411 19:21:09.207571 12649 net.cpp:156] Memory required for data: 36062848
I0411 19:21:09.207579 12649 layer_factory.hpp:77] Creating layer ip_ip_0_split
I0411 19:21:09.207587 12649 net.cpp:91] Creating Layer ip_ip_0_split
I0411 19:21:09.207592 12649 net.cpp:425] ip_ip_0_split <- ip
I0411 19:21:09.207602 12649 net.cpp:399] ip_ip_0_split -> ip_ip_0_split_0
I0411 19:21:09.207612 12649 net.cpp:399] ip_ip_0_split -> ip_ip_0_split_1
I0411 19:21:09.207660 12649 net.cpp:141] Setting up ip_ip_0_split
I0411 19:21:09.207671 12649 net.cpp:148] Top shape: 32 10 (320)
I0411 19:21:09.207677 12649 net.cpp:148] Top shape: 32 10 (320)
I0411 19:21:09.207682 12649 net.cpp:156] Memory required for data: 36065408
I0411 19:21:09.207687 12649 layer_factory.hpp:77] Creating layer accuracy
I0411 19:21:09.207695 12649 net.cpp:91] Creating Layer accuracy
I0411 19:21:09.207700 12649 net.cpp:425] accuracy <- ip_ip_0_split_0
I0411 19:21:09.207707 12649 net.cpp:425] accuracy <- label_data_1_split_0
I0411 19:21:09.207715 12649 net.cpp:399] accuracy -> accuracy
…
I0411 19:41:01.361704  6434 net.cpp:313] The NetState phase (0) differed from the phase (1) specified by a rule in layer data
I0411 19:41:01.362306  6434 net.cpp:49] Initializing net from parameters: 
name: "CifarResNet0"
state {
  phase: TRAIN
}
layer {
  name: "data"
  type: "Data"
  top: "data"
  top: "label"
  include {
    phase: TRAIN
  }
  transform_param {
    mean_file: "/home/liangjiang/code/residual_network/data/cifar10/mean.binaryproto"
  }
  data_param {
    source: "/home/liangjiang/code/residual_network/data/cifar10/cifar10_train_lmdb"
    batch_size: 128
    backend: LMDB
  }
}
layer {
  name: "conv1"
  type: "Convolution"
  bottom: "data"
  top: "conv1"
  param {
    lr_mult: 1
  }
  param {
    lr_mult: 2
  }
  convolution_param {
    num_output: 8
    pad: 1
    kernel_size: 3
    stride: 1
    weight_filler {
      type: "msra"
    }
    bias_filler {
      type: "constant"
      value: 0
    }
  }
}
layer {
  name: "bn_conv1"
  type: "BatchNorm"
  bottom: "conv1"
  top: "conv1"
  param {
    lr_mult: 0
  }
  param {
    lr_mult: 0
  }
  param {
    lr_mult: 0
  }
}
layer {
  name: "scale_conv1"
  type: "Scale"
  bottom: "conv1"
  top: "conv1"
  param {
    lr_mult: 1
  }
  param {
    lr_mult: 2
  }
  scale_param {
    bias_term: true
  }
}
layer {
  name: "conv1_relu"
  type: "ReLU"
  bottom: "conv1"
  top: "conv1"
}
layer {
  name: "conv1_down"
  type: "Convolution"
  bottom: "conv1"
  top: "conv1_down"
  param {
    lr_mult: 0
  }
  convolution_param {
    num_output: 128
    bias_term: false
    pad: 0
    kernel_size: 4
    stride: 4
    weight_filler {
      type: "downsample"
      value: 1
    }
  }
}
layer {
  name: "scale_conv1_down"
  type: "Scale"
  bottom: "conv1_down"
  top: "conv1_down"
  param {
    lr_mult: 1
  }
  param {
    lr_mult: 2
  }
  scale_param {
    filler {
      type: "constant"
      value: 1
    }
    bias_term: true
  }
}
layer {
  name: "scale_conv1_down_c"
  type: "Scale"
  bottom: "conv1_down"
  top: "conv1_down"
  param {
    lr_mult: 0
  }
  scale_param {
    filler {
      type: "constant"
      value: 0.16
    }
    bias_term: false
  }
}
layer {
  name: "conv2_1a"
  type: "Convolution"
  bottom: "conv1"
  top: "conv2_1a"
  param {
    lr_mult: 1
  }
  param {
    lr_mult: 2
  }
  convolution_param {
    num_output: 8
    pad: 1
    kernel_size: 3
    stride: 1
    weight_filler {
      type: "msra"
    }
    bias_filler {
      type: "constant"
      value: 0
    }
  }
}
layer {
  name: "bn_conv2_1a"
  type: "BatchNorm"
  bottom: "conv2_1a"
  top: "conv2_1a"
  param {
    lr_mult: 0
  }
  param {
    lr_mult: 0
  }
  param {
    lr_mult: 0
  }
}
layer {
  name: "scale_conv2_1a"
  type: "Scale"
  bottom: "conv2_1a"
  top: "conv2_1a"
  param {
    lr_mult: 1
  }
  param {
    lr_mult: 2
  }
  scale_param {
    bias_term: true
  }
}
layer {
  name: "conv2_1a_relu"
  type: "ReLU"
  bottom: "conv2_1a"
  top: "conv2_1a"
}
layer {
  name: "conv2_1b"
  type: "Convolution"
  bottom: "conv2_1a"
  top: "conv2_1b"
  param {
    lr_mult: 1
  }
  param {
    lr_mult: 2
  }
  convolution_param {
    num_output: 8
    pad: 1
    kernel_size: 3
    stride: 1
    weight_filler {
      type: "msra"
    }
    bias_filler {
      type: "constant"
      value: 0
    }
  }
}
layer {
  name: "bn_conv2_1b"
  type: "BatchNorm"
  bottom: "conv2_1b"
  top: "conv2_1b"
  param {
    lr_mult: 0
  }
  param {
    lr_mult: 0
  }
  param {
    lr_mult: 0
  }
}
layer {
  name: "scale_conv2_1b"
  type: "Scale"
  bottom: "conv2_1b"
  top: "conv2_1b"
  param {
    lr_mult: 1
  }
  param {
    lr_mult: 2
  }
  scale_param {
    bias_term: true
  }
}
layer {
  name: "conv2_1b_relu"
  type: "ReLU"
  bottom: "conv2_1b"
  top: "conv2_1b"
}
layer {
  name: "conv2_down"
  type: "Convolution"
  bottom: "conv2_1b"
  top: "conv2_down"
  param {
    lr_mult: 0
  }
  convolution_param {
    num_output: 128
    bias_term: false
    pad: 0
    kernel_size: 4
    stride: 4
    weight_filler {
      type: "downsample"
      value: 1
    }
  }
}
layer {
  name: "scale_conv2_down"
  type: "Scale"
  bottom: "conv2_down"
  top: "conv2_down"
  param {
    lr_mult: 1
  }
  param {
    lr_mult: 2
  }
  scale_param {
    filler {
      type: "constant"
      value: 1
    }
    bias_term: true
  }
}
layer {
  name: "scale_conv2_down_c"
  type: "Scale"
  bottom: "conv2_down"
  top: "conv2_down"
  param {
    lr_mult: 0
  }
  scale_param {
    filler {
      type: "constant"
      value: 0.16
    }
    bias_term: false
  }
}
layer {
  name: "conv3_1a"
  type: "Convolution"
  bottom: "conv2_1b"
  top: "conv3_1a"
  param {
    lr_mult: 1
  }
  param {
    lr_mult: 2
  }
  convolution_param {
    num_output: 32
    pad: 0
    kernel_size: 1
    stride: 2
    weight_filler {
      type: "msra"
    }
    bias_filler {
      type: "constant"
      value: 0
    }
  }
}
layer {
  name: "bn_conv3_1a"
  type: "BatchNorm"
  bottom: "conv3_1a"
  top: "conv3_1a"
  param {
    lr_mult: 0
  }
  param {
    lr_mult: 0
  }
  param {
    lr_mult: 0
  }
}
layer {
  name: "scale_conv3_1a"
  type: "Scale"
  bottom: "conv3_1a"
  top: "conv3_1a"
  param {
    lr_mult: 1
  }
  param {
    lr_mult: 2
  }
  scale_param {
    bias_term: true
  }
}
layer {
  name: "conv3_1a_relu"
  type: "ReLU"
  bottom: "conv3_1a"
  top: "conv3_1a"
}
layer {
  name: "conv3_1b"
  type: "Convolution"
  bottom: "conv3_1a"
  top: "conv3_1b"
  param {
    lr_mult: 2
  }
  param {
    lr_mult: 2
  }
  convolution_param {
    num_output: 32
    pad: 1
    kernel_size: 3
    stride: 1
    weight_filler {
      type: "msra"
    }
    bias_filler {
      type: "constant"
      value: 0
    }
  }
}
layer {
  name: "bn_conv3_1b"
  type: "BatchNorm"
  bottom: "conv3_1b"
  top: "conv3_1b"
  param {
    lr_mult: 0
  }
  param {
    lr_mult: 0
  }
  param {
    lr_mult: 0
  }
}
layer {
  name: "scale_conv3_1b"
  type: "Scale"
  bottom: "conv3_1b"
  top: "conv3_1b"
  param {
    lr_mult: 1
  }
  param {
    lr_mult: 2
  }
  scale_param {
    bias_term: true
  }
}
layer {
  name: "conv3_1b_relu"
  type: "ReLU"
  bottom: "conv3_1b"
  top: "conv3_1b"
}
layer {
  name: "conv3_down"
  type: "Convolution"
  bottom: "conv3_1b"
  top: "conv3_down"
  param {
    lr_mult: 0
  }
  convolution_param {
    num_output: 128
    bias_term: false
    pad: 0
    kernel_size: 2
    stride: 2
    weight_filler {
      type: "downsample"
      value: 1
    }
  }
}
layer {
  name: "scale_conv3_down"
  type: "Scale"
  bottom: "conv3_down"
  top: "conv3_down"
  param {
    lr_mult: 1
  }
  param {
    lr_mult: 2
  }
  scale_param {
    filler {
      type: "constant"
      value: 1
    }
    bias_term: true
  }
}
layer {
  name: "scale_conv3_down_c"
  type: "Scale"
  bottom: "conv3_down"
  top: "conv3_down"
  param {
    lr_mult: 0
  }
  scale_param {
    filler {
      type: "constant"
      value: 0.4
    }
    bias_term: false
  }
}
layer {
  name: "conv4_1a"
  type: "Convolution"
  bottom: "conv3_1b"
  top: "conv4_1a"
  param {
    lr_mult: 1
  }
  param {
    lr_mult: 2
  }
  convolution_param {
    num_output: 128
    pad: 0
    kernel_size: 1
    stride: 2
    weight_filler {
      type: "msra"
    }
    bias_filler {
      type: "constant"
      value: 0
    }
  }
}
layer {
  name: "bn_conv4_1a"
  type: "BatchNorm"
  bottom: "conv4_1a"
  top: "conv4_1a"
  param {
    lr_mult: 0
  }
  param {
    lr_mult: 0
  }
  param {
    lr_mult: 0
  }
}
layer {
  name: "scale_conv4_1a"
  type: "Scale"
  bottom: "conv4_1a"
  top: "conv4_1a"
  param {
    lr_mult: 1
  }
  param {
    lr_mult: 2
  }
  scale_param {
    bias_term: true
  }
}
layer {
  name: "conv4_1a_relu"
  type: "ReLU"
  bottom: "conv4_1a"
  top: "conv4_1a"
}
layer {
  name: "conv4_1b"
  type: "Convolution"
  bottom: "conv4_1a"
  top: "conv4_1b"
  param {
    lr_mult: 1
  }
  param {
    lr_mult: 2
  }
  convolution_param {
    num_output: 128
    pad: 1
    kernel_size: 3
    stride: 1
    weight_filler {
      type: "msra"
    }
    bias_filler {
      type: "constant"
      value: 0
    }
  }
}
layer {
  name: "bn_conv4_1b"
  type: "BatchNorm"
  bottom: "conv4_1b"
  top: "conv4_1b"
  param {
    lr_mult: 0
  }
  param {
    lr_mult: 0
  }
  param {
    lr_mult: 0
  }
}
layer {
  name: "scale_conv4_1b"
  type: "Scale"
  bottom: "conv4_1b"
  top: "conv4_1b"
  param {
    lr_mult: 1
  }
  param {
    lr_mult: 2
  }
  scale_param {
    bias_term: true
  }
}
layer {
  name: "conv4_1b_relu"
  type: "ReLU"
  bottom: "conv4_1b"
  top: "conv4_1b"
}
layer {
  name: "conv4_down"
  type: "Convolution"
  bottom: "conv4_1b"
  top: "conv4_down"
  param {
    lr_mult: 0
  }
  convolution_param {
    num_output: 128
    bias_term: false
    pad: 0
    kernel_size: 1
    stride: 1
    weight_filler {
      type: "downsample"
      value: 0
    }
  }
}
layer {
  name: "scale_conv4_down"
  type: "Scale"
  bottom: "conv4_down"
  top: "conv4_down"
  param {
    lr_mult: 1
  }
  param {
    lr_mult: 2
  }
  scale_param {
    filler {
      type: "constant"
      value: 0.2
    }
    bias_term: true
  }
}
layer {
  name: "scale_conv4_down_c"
  type: "Scale"
  bottom: "conv4_down"
  top: "conv4_down"
  param {
    lr_mult: 0
  }
  scale_param {
    filler {
      type: "constant"
      value: 1
    }
    bias_term: false
  }
}
layer {
  name: "global_in"
  type: "Eltwise"
  bottom: "conv1_down"
  bottom: "conv2_down"
  bottom: "conv3_down"
  bottom: "conv4_down"
  top: "global_in"
}
layer {
  name: "global_pool"
  type: "Pooling"
  bottom: "global_in"
  top: "global_pool"
  pooling_param {
    pool: AVE
    kernel_size: 8
  }
}
layer {
  name: "ip"
  type: "InnerProduct"
  bottom: "global_pool"
  top: "ip"
  param {
    lr_mult: 1
  }
  param {
    lr_mult: 2
  }
  inner_product_param {
    num_output: 10
  }
}
layer {
  name: "accuracy"
  type: "Accuracy"
  bottom: "ip"
  bottom: "label"
  top: "accuracy"
}
layer {
  name: "loss"
  type: "SoftmaxWithLoss"
  bottom: "ip"
  bottom: "label"
  top: "loss"
}
I0411 19:41:01.362730  6434 layer_factory.hpp:77] Creating layer data
I0411 19:41:01.363622  6434 net.cpp:91] Creating Layer data
I0411 19:41:01.363651  6434 net.cpp:399] data -> data
I0411 19:41:01.363677  6434 net.cpp:399] data -> label
I0411 19:41:01.363721  6434 data_transformer.cpp:25] Loading mean file from: /home/liangjiang/code/residual_network/data/cifar10/mean.binaryproto
I0411 19:41:01.365062  6497 db_lmdb.cpp:38] Opened lmdb /home/liangjiang/code/residual_network/data/cifar10/cifar10_train_lmdb
I0411 19:41:01.384901  6434 data_layer.cpp:41] output data size: 128,3,32,32
I0411 19:41:01.388979  6434 net.cpp:141] Setting up data
I0411 19:41:01.389010  6434 net.cpp:148] Top shape: 128 3 32 32 (393216)
I0411 19:41:01.389022  6434 net.cpp:148] Top shape: 128 (128)
I0411 19:41:01.389029  6434 net.cpp:156] Memory required for data: 1573376
I0411 19:41:01.389039  6434 layer_factory.hpp:77] Creating layer label_data_1_split
I0411 19:41:01.389066  6434 net.cpp:91] Creating Layer label_data_1_split
I0411 19:41:01.389075  6434 net.cpp:425] label_data_1_split <- label
I0411 19:41:01.389089  6434 net.cpp:399] label_data_1_split -> label_data_1_split_0
I0411 19:41:01.389103  6434 net.cpp:399] label_data_1_split -> label_data_1_split_1
I0411 19:41:01.389191  6434 net.cpp:141] Setting up label_data_1_split
I0411 19:41:01.389207  6434 net.cpp:148] Top shape: 128 (128)
I0411 19:41:01.389215  6434 net.cpp:148] Top shape: 128 (128)
I0411 19:41:01.389221  6434 net.cpp:156] Memory required for data: 1574400
I0411 19:41:01.389228  6434 layer_factory.hpp:77] Creating layer conv1
I0411 19:41:01.389250  6434 net.cpp:91] Creating Layer conv1
I0411 19:41:01.389257  6434 net.cpp:425] conv1 <- data
I0411 19:41:01.389268  6434 net.cpp:399] conv1 -> conv1
I0411 19:41:01.599486  6434 net.cpp:141] Setting up conv1
I0411 19:41:01.599536  6434 net.cpp:148] Top shape: 128 8 32 32 (1048576)
I0411 19:41:01.599544  6434 net.cpp:156] Memory required for data: 5768704
I0411 19:41:01.599565  6434 layer_factory.hpp:77] Creating layer bn_conv1
I0411 19:41:01.599582  6434 net.cpp:91] Creating Layer bn_conv1
I0411 19:41:01.599589  6434 net.cpp:425] bn_conv1 <- conv1
I0411 19:41:01.599599  6434 net.cpp:386] bn_conv1 -> conv1 (in-place)
I0411 19:41:01.599797  6434 net.cpp:141] Setting up bn_conv1
I0411 19:41:01.599808  6434 net.cpp:148] Top shape: 128 8 32 32 (1048576)
I0411 19:41:01.599814  6434 net.cpp:156] Memory required for data: 9963008
I0411 19:41:01.599829  6434 layer_factory.hpp:77] Creating layer scale_conv1
I0411 19:41:01.599843  6434 net.cpp:91] Creating Layer scale_conv1
I0411 19:41:01.599848  6434 net.cpp:425] scale_conv1 <- conv1
I0411 19:41:01.599855  6434 net.cpp:386] scale_conv1 -> conv1 (in-place)
I0411 19:41:01.599900  6434 layer_factory.hpp:77] Creating layer scale_conv1
I0411 19:41:01.600010  6434 net.cpp:141] Setting up scale_conv1
I0411 19:41:01.600021  6434 net.cpp:148] Top shape: 128 8 32 32 (1048576)
I0411 19:41:01.600028  6434 net.cpp:156] Memory required for data: 14157312
I0411 19:41:01.600035  6434 layer_factory.hpp:77] Creating layer conv1_relu
I0411 19:41:01.600045  6434 net.cpp:91] Creating Layer conv1_relu
I0411 19:41:01.600051  6434 net.cpp:425] conv1_relu <- conv1
I0411 19:41:01.600059  6434 net.cpp:386] conv1_relu -> conv1 (in-place)
I0411 19:41:01.614598  6434 net.cpp:141] Setting up conv1_relu
I0411 19:41:01.614617  6434 net.cpp:148] Top shape: 128 8 32 32 (1048576)
I0411 19:41:01.614624  6434 net.cpp:156] Memory required for data: 18351616
I0411 19:41:01.614630  6434 layer_factory.hpp:77] Creating layer conv1_conv1_relu_0_split
I0411 19:41:01.614639  6434 net.cpp:91] Creating Layer conv1_conv1_relu_0_split
I0411 19:41:01.614645  6434 net.cpp:425] conv1_conv1_relu_0_split <- conv1
I0411 19:41:01.614653  6434 net.cpp:399] conv1_conv1_relu_0_split -> conv1_conv1_relu_0_split_0
I0411 19:41:01.614665  6434 net.cpp:399] conv1_conv1_relu_0_split -> conv1_conv1_relu_0_split_1
I0411 19:41:01.614709  6434 net.cpp:141] Setting up conv1_conv1_relu_0_split
I0411 19:41:01.614719  6434 net.cpp:148] Top shape: 128 8 32 32 (1048576)
I0411 19:41:01.614727  6434 net.cpp:148] Top shape: 128 8 32 32 (1048576)
I0411 19:41:01.614732  6434 net.cpp:156] Memory required for data: 26740224
I0411 19:41:01.614737  6434 layer_factory.hpp:77] Creating layer conv1_down
I0411 19:41:01.614750  6434 net.cpp:91] Creating Layer conv1_down
I0411 19:41:01.614756  6434 net.cpp:425] conv1_down <- conv1_conv1_relu_0_split_0
I0411 19:41:01.614764  6434 net.cpp:399] conv1_down -> conv1_down
I0411 19:41:01.629762  6434 net.cpp:141] Setting up conv1_down
I0411 19:41:01.629844  6434 net.cpp:148] Top shape: 128 128 8 8 (1048576)
I0411 19:41:01.629858  6434 net.cpp:156] Memory required for data: 30934528
I0411 19:41:01.629894  6434 layer_factory.hpp:77] Creating layer scale_conv1_down
I0411 19:41:01.632748  6434 net.cpp:91] Creating Layer scale_conv1_down
I0411 19:41:01.632794  6434 net.cpp:425] scale_conv1_down <- conv1_down
I0411 19:41:01.632838  6434 net.cpp:386] scale_conv1_down -> conv1_down (in-place)
I0411 19:41:01.633025  6434 layer_factory.hpp:77] Creating layer scale_conv1_down
I0411 19:41:01.633291  6434 net.cpp:141] Setting up scale_conv1_down
I0411 19:41:01.633321  6434 net.cpp:148] Top shape: 128 128 8 8 (1048576)
I0411 19:41:01.633332  6434 net.cpp:156] Memory required for data: 35128832
I0411 19:41:01.633361  6434 layer_factory.hpp:77] Creating layer scale_conv1_down_c
I0411 19:41:01.633383  6434 net.cpp:91] Creating Layer scale_conv1_down_c
I0411 19:41:01.633395  6434 net.cpp:425] scale_conv1_down_c <- conv1_down
I0411 19:41:01.633411  6434 net.cpp:386] scale_conv1_down_c -> conv1_down (in-place)
I0411 19:41:01.633568  6434 net.cpp:141] Setting up scale_conv1_down_c
I0411 19:41:01.633585  6434 net.cpp:148] Top shape: 128 128 8 8 (1048576)
I0411 19:41:01.633596  6434 net.cpp:156] Memory required for data: 39323136
I0411 19:41:01.633610  6434 layer_factory.hpp:77] Creating layer conv2_1a
I0411 19:41:01.633637  6434 net.cpp:91] Creating Layer conv2_1a
I0411 19:41:01.633649  6434 net.cpp:425] conv2_1a <- conv1_conv1_relu_0_split_1
I0411 19:41:01.633666  6434 net.cpp:399] conv2_1a -> conv2_1a
I0411 19:41:01.635924  6434 net.cpp:141] Setting up conv2_1a
I0411 19:41:01.635962  6434 net.cpp:148] Top shape: 128 8 32 32 (1048576)
I0411 19:41:01.635973  6434 net.cpp:156] Memory required for data: 43517440
I0411 19:41:01.635993  6434 layer_factory.hpp:77] Creating layer bn_conv2_1a
I0411 19:41:01.636015  6434 net.cpp:91] Creating Layer bn_conv2_1a
I0411 19:41:01.636028  6434 net.cpp:425] bn_conv2_1a <- conv2_1a
I0411 19:41:01.636044  6434 net.cpp:386] bn_conv2_1a -> conv2_1a (in-place)
I0411 19:41:01.636448  6434 net.cpp:141] Setting up bn_conv2_1a
I0411 19:41:01.636468  6434 net.cpp:148] Top shape: 128 8 32 32 (1048576)
I0411 19:41:01.636478  6434 net.cpp:156] Memory required for data: 47711744
I0411 19:41:01.636497  6434 layer_factory.hpp:77] Creating layer scale_conv2_1a
I0411 19:41:01.636526  6434 net.cpp:91] Creating Layer scale_conv2_1a
I0411 19:41:01.636538  6434 net.cpp:425] scale_conv2_1a <- conv2_1a
I0411 19:41:01.636554  6434 net.cpp:386] scale_conv2_1a -> conv2_1a (in-place)
I0411 19:41:01.636627  6434 layer_factory.hpp:77] Creating layer scale_conv2_1a
I0411 19:41:01.636862  6434 net.cpp:141] Setting up scale_conv2_1a
I0411 19:41:01.636883  6434 net.cpp:148] Top shape: 128 8 32 32 (1048576)
I0411 19:41:01.636893  6434 net.cpp:156] Memory required for data: 51906048
I0411 19:41:01.636916  6434 layer_factory.hpp:77] Creating layer conv2_1a_relu
I0411 19:41:01.636936  6434 net.cpp:91] Creating Layer conv2_1a_relu
I0411 19:41:01.636948  6434 net.cpp:425] conv2_1a_relu <- conv2_1a
I0411 19:41:01.636961  6434 net.cpp:386] conv2_1a_relu -> conv2_1a (in-place)
I0411 19:41:01.637603  6434 net.cpp:141] Setting up conv2_1a_relu
I0411 19:41:01.637634  6434 net.cpp:148] Top shape: 128 8 32 32 (1048576)
I0411 19:41:01.637645  6434 net.cpp:156] Memory required for data: 56100352
I0411 19:41:01.637655  6434 layer_factory.hpp:77] Creating layer conv2_1b
I0411 19:41:01.637682  6434 net.cpp:91] Creating Layer conv2_1b
I0411 19:41:01.637694  6434 net.cpp:425] conv2_1b <- conv2_1a
I0411 19:41:01.637712  6434 net.cpp:399] conv2_1b -> conv2_1b
I0411 19:41:01.644909  6434 net.cpp:141] Setting up conv2_1b
I0411 19:41:01.644948  6434 net.cpp:148] Top shape: 128 8 32 32 (1048576)
I0411 19:41:01.644961  6434 net.cpp:156] Memory required for data: 60294656
I0411 19:41:01.644979  6434 layer_factory.hpp:77] Creating layer bn_conv2_1b
I0411 19:41:01.644999  6434 net.cpp:91] Creating Layer bn_conv2_1b
I0411 19:41:01.645010  6434 net.cpp:425] bn_conv2_1b <- conv2_1b
I0411 19:41:01.645025  6434 net.cpp:386] bn_conv2_1b -> conv2_1b (in-place)
I0411 19:41:01.645426  6434 net.cpp:141] Setting up bn_conv2_1b
I0411 19:41:01.645453  6434 net.cpp:148] Top shape: 128 8 32 32 (1048576)
I0411 19:41:01.645462  6434 net.cpp:156] Memory required for data: 64488960
I0411 19:41:01.645484  6434 layer_factory.hpp:77] Creating layer scale_conv2_1b
I0411 19:41:01.645505  6434 net.cpp:91] Creating Layer scale_conv2_1b
I0411 19:41:01.645524  6434 net.cpp:425] scale_conv2_1b <- conv2_1b
I0411 19:41:01.645539  6434 net.cpp:386] scale_conv2_1b -> conv2_1b (in-place)
I0411 19:41:01.645618  6434 layer_factory.hpp:77] Creating layer scale_conv2_1b
I0411 19:41:01.645838  6434 net.cpp:141] Setting up scale_conv2_1b
I0411 19:41:01.645858  6434 net.cpp:148] Top shape: 128 8 32 32 (1048576)
I0411 19:41:01.645866  6434 net.cpp:156] Memory required for data: 68683264
I0411 19:41:01.645881  6434 layer_factory.hpp:77] Creating layer conv2_1b_relu
I0411 19:41:01.645900  6434 net.cpp:91] Creating Layer conv2_1b_relu
I0411 19:41:01.645910  6434 net.cpp:425] conv2_1b_relu <- conv2_1b
I0411 19:41:01.645921  6434 net.cpp:386] conv2_1b_relu -> conv2_1b (in-place)
I0411 19:41:01.646265  6434 net.cpp:141] Setting up conv2_1b_relu
I0411 19:41:01.646287  6434 net.cpp:148] Top shape: 128 8 32 32 (1048576)
I0411 19:41:01.646297  6434 net.cpp:156] Memory required for data: 72877568
I0411 19:41:01.646307  6434 layer_factory.hpp:77] Creating layer conv2_1b_conv2_1b_relu_0_split
I0411 19:41:01.646324  6434 net.cpp:91] Creating Layer conv2_1b_conv2_1b_relu_0_split
I0411 19:41:01.646334  6434 net.cpp:425] conv2_1b_conv2_1b_relu_0_split <- conv2_1b
I0411 19:41:01.646348  6434 net.cpp:399] conv2_1b_conv2_1b_relu_0_split -> conv2_1b_conv2_1b_relu_0_split_0
I0411 19:41:01.646365  6434 net.cpp:399] conv2_1b_conv2_1b_relu_0_split -> conv2_1b_conv2_1b_relu_0_split_1
I0411 19:41:01.646450  6434 net.cpp:141] Setting up conv2_1b_conv2_1b_relu_0_split
I0411 19:41:01.646466  6434 net.cpp:148] Top shape: 128 8 32 32 (1048576)
I0411 19:41:01.646477  6434 net.cpp:148] Top shape: 128 8 32 32 (1048576)
I0411 19:41:01.646487  6434 net.cpp:156] Memory required for data: 81266176
I0411 19:41:01.646497  6434 layer_factory.hpp:77] Creating layer conv2_down
I0411 19:41:01.646519  6434 net.cpp:91] Creating Layer conv2_down
I0411 19:41:01.646530  6434 net.cpp:425] conv2_down <- conv2_1b_conv2_1b_relu_0_split_0
I0411 19:41:01.646545  6434 net.cpp:399] conv2_down -> conv2_down
I0411 19:41:01.655169  6434 net.cpp:141] Setting up conv2_down
I0411 19:41:01.655237  6434 net.cpp:148] Top shape: 128 128 8 8 (1048576)
I0411 19:41:01.655249  6434 net.cpp:156] Memory required for data: 85460480
I0411 19:41:01.655270  6434 layer_factory.hpp:77] Creating layer scale_conv2_down
I0411 19:41:01.655300  6434 net.cpp:91] Creating Layer scale_conv2_down
I0411 19:41:01.655313  6434 net.cpp:425] scale_conv2_down <- conv2_down
I0411 19:41:01.655333  6434 net.cpp:386] scale_conv2_down -> conv2_down (in-place)
I0411 19:41:01.655432  6434 layer_factory.hpp:77] Creating layer scale_conv2_down
I0411 19:41:01.655655  6434 net.cpp:141] Setting up scale_conv2_down
I0411 19:41:01.655674  6434 net.cpp:148] Top shape: 128 128 8 8 (1048576)
I0411 19:41:01.655683  6434 net.cpp:156] Memory required for data: 89654784
I0411 19:41:01.655699  6434 layer_factory.hpp:77] Creating layer scale_conv2_down_c
I0411 19:41:01.655735  6434 net.cpp:91] Creating Layer scale_conv2_down_c
I0411 19:41:01.655745  6434 net.cpp:425] scale_conv2_down_c <- conv2_down
I0411 19:41:01.655761  6434 net.cpp:386] scale_conv2_down_c -> conv2_down (in-place)
I0411 19:41:01.655906  6434 net.cpp:141] Setting up scale_conv2_down_c
I0411 19:41:01.655923  6434 net.cpp:148] Top shape: 128 128 8 8 (1048576)
I0411 19:41:01.655932  6434 net.cpp:156] Memory required for data: 93849088
I0411 19:41:01.655946  6434 layer_factory.hpp:77] Creating layer conv3_1a
I0411 19:41:01.655972  6434 net.cpp:91] Creating Layer conv3_1a
I0411 19:41:01.655982  6434 net.cpp:425] conv3_1a <- conv2_1b_conv2_1b_relu_0_split_1
I0411 19:41:01.655998  6434 net.cpp:399] conv3_1a -> conv3_1a
I0411 19:41:01.658041  6434 net.cpp:141] Setting up conv3_1a
I0411 19:41:01.658074  6434 net.cpp:148] Top shape: 128 32 16 16 (1048576)
I0411 19:41:01.658087  6434 net.cpp:156] Memory required for data: 98043392
I0411 19:41:01.658103  6434 layer_factory.hpp:77] Creating layer bn_conv3_1a
I0411 19:41:01.658123  6434 net.cpp:91] Creating Layer bn_conv3_1a
I0411 19:41:01.658135  6434 net.cpp:425] bn_conv3_1a <- conv3_1a
I0411 19:41:01.658164  6434 net.cpp:386] bn_conv3_1a -> conv3_1a (in-place)
I0411 19:41:01.658538  6434 net.cpp:141] Setting up bn_conv3_1a
I0411 19:41:01.658557  6434 net.cpp:148] Top shape: 128 32 16 16 (1048576)
I0411 19:41:01.658567  6434 net.cpp:156] Memory required for data: 102237696
I0411 19:41:01.658601  6434 layer_factory.hpp:77] Creating layer scale_conv3_1a
I0411 19:41:01.658619  6434 net.cpp:91] Creating Layer scale_conv3_1a
I0411 19:41:01.658629  6434 net.cpp:425] scale_conv3_1a <- conv3_1a
I0411 19:41:01.658643  6434 net.cpp:386] scale_conv3_1a -> conv3_1a (in-place)
I0411 19:41:01.658717  6434 layer_factory.hpp:77] Creating layer scale_conv3_1a
I0411 19:41:01.658936  6434 net.cpp:141] Setting up scale_conv3_1a
I0411 19:41:01.658954  6434 net.cpp:148] Top shape: 128 32 16 16 (1048576)
I0411 19:41:01.658964  6434 net.cpp:156] Memory required for data: 106432000
I0411 19:41:01.658979  6434 layer_factory.hpp:77] Creating layer conv3_1a_relu
I0411 19:41:01.658996  6434 net.cpp:91] Creating Layer conv3_1a_relu
I0411 19:41:01.659006  6434 net.cpp:425] conv3_1a_relu <- conv3_1a
I0411 19:41:01.659018  6434 net.cpp:386] conv3_1a_relu -> conv3_1a (in-place)
I0411 19:41:01.659358  6434 net.cpp:141] Setting up conv3_1a_relu
I0411 19:41:01.659379  6434 net.cpp:148] Top shape: 128 32 16 16 (1048576)
I0411 19:41:01.659390  6434 net.cpp:156] Memory required for data: 110626304
I0411 19:41:01.659399  6434 layer_factory.hpp:77] Creating layer conv3_1b
I0411 19:41:01.659425  6434 net.cpp:91] Creating Layer conv3_1b
I0411 19:41:01.659436  6434 net.cpp:425] conv3_1b <- conv3_1a
I0411 19:41:01.659456  6434 net.cpp:399] conv3_1b -> conv3_1b
I0411 19:41:01.661895  6434 net.cpp:141] Setting up conv3_1b
I0411 19:41:01.661926  6434 net.cpp:148] Top shape: 128 32 16 16 (1048576)
I0411 19:41:01.661936  6434 net.cpp:156] Memory required for data: 114820608
I0411 19:41:01.661952  6434 layer_factory.hpp:77] Creating layer bn_conv3_1b
I0411 19:41:01.661970  6434 net.cpp:91] Creating Layer bn_conv3_1b
I0411 19:41:01.661980  6434 net.cpp:425] bn_conv3_1b <- conv3_1b
I0411 19:41:01.661993  6434 net.cpp:386] bn_conv3_1b -> conv3_1b (in-place)
I0411 19:41:01.662343  6434 net.cpp:141] Setting up bn_conv3_1b
I0411 19:41:01.662359  6434 net.cpp:148] Top shape: 128 32 16 16 (1048576)
I0411 19:41:01.662369  6434 net.cpp:156] Memory required for data: 119014912
I0411 19:41:01.662385  6434 layer_factory.hpp:77] Creating layer scale_conv3_1b
I0411 19:41:01.662403  6434 net.cpp:91] Creating Layer scale_conv3_1b
I0411 19:41:01.662413  6434 net.cpp:425] scale_conv3_1b <- conv3_1b
I0411 19:41:01.662425  6434 net.cpp:386] scale_conv3_1b -> conv3_1b (in-place)
I0411 19:41:01.662493  6434 layer_factory.hpp:77] Creating layer scale_conv3_1b
I0411 19:41:01.662700  6434 net.cpp:141] Setting up scale_conv3_1b
I0411 19:41:01.662716  6434 net.cpp:148] Top shape: 128 32 16 16 (1048576)
I0411 19:41:01.662725  6434 net.cpp:156] Memory required for data: 123209216
I0411 19:41:01.662739  6434 layer_factory.hpp:77] Creating layer conv3_1b_relu
I0411 19:41:01.662755  6434 net.cpp:91] Creating Layer conv3_1b_relu
I0411 19:41:01.662765  6434 net.cpp:425] conv3_1b_relu <- conv3_1b
I0411 19:41:01.662775  6434 net.cpp:386] conv3_1b_relu -> conv3_1b (in-place)
I0411 19:41:01.663331  6434 net.cpp:141] Setting up conv3_1b_relu
I0411 19:41:01.663357  6434 net.cpp:148] Top shape: 128 32 16 16 (1048576)
I0411 19:41:01.663367  6434 net.cpp:156] Memory required for data: 127403520
I0411 19:41:01.663377  6434 layer_factory.hpp:77] Creating layer conv3_1b_conv3_1b_relu_0_split
I0411 19:41:01.663393  6434 net.cpp:91] Creating Layer conv3_1b_conv3_1b_relu_0_split
I0411 19:41:01.663404  6434 net.cpp:425] conv3_1b_conv3_1b_relu_0_split <- conv3_1b
I0411 19:41:01.663417  6434 net.cpp:399] conv3_1b_conv3_1b_relu_0_split -> conv3_1b_conv3_1b_relu_0_split_0
I0411 19:41:01.663436  6434 net.cpp:399] conv3_1b_conv3_1b_relu_0_split -> conv3_1b_conv3_1b_relu_0_split_1
I0411 19:41:01.663511  6434 net.cpp:141] Setting up conv3_1b_conv3_1b_relu_0_split
I0411 19:41:01.663534  6434 net.cpp:148] Top shape: 128 32 16 16 (1048576)
I0411 19:41:01.663547  6434 net.cpp:148] Top shape: 128 32 16 16 (1048576)
I0411 19:41:01.663557  6434 net.cpp:156] Memory required for data: 135792128
I0411 19:41:01.663565  6434 layer_factory.hpp:77] Creating layer conv3_down
I0411 19:41:01.663586  6434 net.cpp:91] Creating Layer conv3_down
I0411 19:41:01.663596  6434 net.cpp:425] conv3_down <- conv3_1b_conv3_1b_relu_0_split_0
I0411 19:41:01.663614  6434 net.cpp:399] conv3_down -> conv3_down
I0411 19:41:01.665412  6434 net.cpp:141] Setting up conv3_down
I0411 19:41:01.665442  6434 net.cpp:148] Top shape: 128 128 8 8 (1048576)
I0411 19:41:01.665453  6434 net.cpp:156] Memory required for data: 139986432
I0411 19:41:01.665467  6434 layer_factory.hpp:77] Creating layer scale_conv3_down
I0411 19:41:01.665495  6434 net.cpp:91] Creating Layer scale_conv3_down
I0411 19:41:01.665506  6434 net.cpp:425] scale_conv3_down <- conv3_down
I0411 19:41:01.665521  6434 net.cpp:386] scale_conv3_down -> conv3_down (in-place)
I0411 19:41:01.665607  6434 layer_factory.hpp:77] Creating layer scale_conv3_down
I0411 19:41:01.665812  6434 net.cpp:141] Setting up scale_conv3_down
I0411 19:41:01.665829  6434 net.cpp:148] Top shape: 128 128 8 8 (1048576)
I0411 19:41:01.665839  6434 net.cpp:156] Memory required for data: 144180736
I0411 19:41:01.665853  6434 layer_factory.hpp:77] Creating layer scale_conv3_down_c
I0411 19:41:01.665874  6434 net.cpp:91] Creating Layer scale_conv3_down_c
I0411 19:41:01.665884  6434 net.cpp:425] scale_conv3_down_c <- conv3_down
I0411 19:41:01.665896  6434 net.cpp:386] scale_conv3_down_c -> conv3_down (in-place)
I0411 19:41:01.666056  6434 net.cpp:141] Setting up scale_conv3_down_c
I0411 19:41:01.666072  6434 net.cpp:148] Top shape: 128 128 8 8 (1048576)
I0411 19:41:01.666081  6434 net.cpp:156] Memory required for data: 148375040
I0411 19:41:01.666093  6434 layer_factory.hpp:77] Creating layer conv4_1a
I0411 19:41:01.666112  6434 net.cpp:91] Creating Layer conv4_1a
I0411 19:41:01.666122  6434 net.cpp:425] conv4_1a <- conv3_1b_conv3_1b_relu_0_split_1
I0411 19:41:01.666136  6434 net.cpp:399] conv4_1a -> conv4_1a
I0411 19:41:01.668193  6434 net.cpp:141] Setting up conv4_1a
I0411 19:41:01.668222  6434 net.cpp:148] Top shape: 128 128 8 8 (1048576)
I0411 19:41:01.668233  6434 net.cpp:156] Memory required for data: 152569344
I0411 19:41:01.668248  6434 layer_factory.hpp:77] Creating layer bn_conv4_1a
I0411 19:41:01.668268  6434 net.cpp:91] Creating Layer bn_conv4_1a
I0411 19:41:01.668279  6434 net.cpp:425] bn_conv4_1a <- conv4_1a
I0411 19:41:01.668292  6434 net.cpp:386] bn_conv4_1a -> conv4_1a (in-place)
I0411 19:41:01.668628  6434 net.cpp:141] Setting up bn_conv4_1a
I0411 19:41:01.668647  6434 net.cpp:148] Top shape: 128 128 8 8 (1048576)
I0411 19:41:01.668655  6434 net.cpp:156] Memory required for data: 156763648
I0411 19:41:01.668673  6434 layer_factory.hpp:77] Creating layer scale_conv4_1a
I0411 19:41:01.668689  6434 net.cpp:91] Creating Layer scale_conv4_1a
I0411 19:41:01.668699  6434 net.cpp:425] scale_conv4_1a <- conv4_1a
I0411 19:41:01.668712  6434 net.cpp:386] scale_conv4_1a -> conv4_1a (in-place)
I0411 19:41:01.668779  6434 layer_factory.hpp:77] Creating layer scale_conv4_1a
I0411 19:41:01.668980  6434 net.cpp:141] Setting up scale_conv4_1a
I0411 19:41:01.668997  6434 net.cpp:148] Top shape: 128 128 8 8 (1048576)
I0411 19:41:01.669005  6434 net.cpp:156] Memory required for data: 160957952
I0411 19:41:01.669019  6434 layer_factory.hpp:77] Creating layer conv4_1a_relu
I0411 19:41:01.669033  6434 net.cpp:91] Creating Layer conv4_1a_relu
I0411 19:41:01.669040  6434 net.cpp:425] conv4_1a_relu <- conv4_1a
I0411 19:41:01.669054  6434 net.cpp:386] conv4_1a_relu -> conv4_1a (in-place)
I0411 19:41:01.669600  6434 net.cpp:141] Setting up conv4_1a_relu
I0411 19:41:01.669627  6434 net.cpp:148] Top shape: 128 128 8 8 (1048576)
I0411 19:41:01.669636  6434 net.cpp:156] Memory required for data: 165152256
I0411 19:41:01.669646  6434 layer_factory.hpp:77] Creating layer conv4_1b
I0411 19:41:01.669670  6434 net.cpp:91] Creating Layer conv4_1b
I0411 19:41:01.669688  6434 net.cpp:425] conv4_1b <- conv4_1a
I0411 19:41:01.669708  6434 net.cpp:399] conv4_1b -> conv4_1b
I0411 19:41:01.680668  6434 net.cpp:141] Setting up conv4_1b
I0411 19:41:01.680701  6434 net.cpp:148] Top shape: 128 128 8 8 (1048576)
I0411 19:41:01.680711  6434 net.cpp:156] Memory required for data: 169346560
I0411 19:41:01.680724  6434 layer_factory.hpp:77] Creating layer bn_conv4_1b
I0411 19:41:01.680738  6434 net.cpp:91] Creating Layer bn_conv4_1b
I0411 19:41:01.680748  6434 net.cpp:425] bn_conv4_1b <- conv4_1b
I0411 19:41:01.680763  6434 net.cpp:386] bn_conv4_1b -> conv4_1b (in-place)
I0411 19:41:01.681088  6434 net.cpp:141] Setting up bn_conv4_1b
I0411 19:41:01.681104  6434 net.cpp:148] Top shape: 128 128 8 8 (1048576)
I0411 19:41:01.681120  6434 net.cpp:156] Memory required for data: 173540864
I0411 19:41:01.681138  6434 layer_factory.hpp:77] Creating layer scale_conv4_1b
I0411 19:41:01.681151  6434 net.cpp:91] Creating Layer scale_conv4_1b
I0411 19:41:01.681160  6434 net.cpp:425] scale_conv4_1b <- conv4_1b
I0411 19:41:01.681171  6434 net.cpp:386] scale_conv4_1b -> conv4_1b (in-place)
I0411 19:41:01.681237  6434 layer_factory.hpp:77] Creating layer scale_conv4_1b
I0411 19:41:01.681432  6434 net.cpp:141] Setting up scale_conv4_1b
I0411 19:41:01.681447  6434 net.cpp:148] Top shape: 128 128 8 8 (1048576)
I0411 19:41:01.681455  6434 net.cpp:156] Memory required for data: 177735168
I0411 19:41:01.681469  6434 layer_factory.hpp:77] Creating layer conv4_1b_relu
I0411 19:41:01.681481  6434 net.cpp:91] Creating Layer conv4_1b_relu
I0411 19:41:01.681489  6434 net.cpp:425] conv4_1b_relu <- conv4_1b
I0411 19:41:01.681506  6434 net.cpp:386] conv4_1b_relu -> conv4_1b (in-place)
I0411 19:41:01.681802  6434 net.cpp:141] Setting up conv4_1b_relu
I0411 19:41:01.681821  6434 net.cpp:148] Top shape: 128 128 8 8 (1048576)
I0411 19:41:01.681830  6434 net.cpp:156] Memory required for data: 181929472
I0411 19:41:01.681839  6434 layer_factory.hpp:77] Creating layer conv4_down
I0411 19:41:01.681860  6434 net.cpp:91] Creating Layer conv4_down
I0411 19:41:01.681870  6434 net.cpp:425] conv4_down <- conv4_1b
I0411 19:41:01.681886  6434 net.cpp:399] conv4_down -> conv4_down
I0411 19:41:01.683429  6434 net.cpp:141] Setting up conv4_down
I0411 19:41:01.683456  6434 net.cpp:148] Top shape: 128 128 8 8 (1048576)
I0411 19:41:01.683468  6434 net.cpp:156] Memory required for data: 186123776
I0411 19:41:01.683481  6434 layer_factory.hpp:77] Creating layer scale_conv4_down
I0411 19:41:01.683496  6434 net.cpp:91] Creating Layer scale_conv4_down
I0411 19:41:01.683506  6434 net.cpp:425] scale_conv4_down <- conv4_down
I0411 19:41:01.683521  6434 net.cpp:386] scale_conv4_down -> conv4_down (in-place)
I0411 19:41:01.683601  6434 layer_factory.hpp:77] Creating layer scale_conv4_down
I0411 19:41:01.683795  6434 net.cpp:141] Setting up scale_conv4_down
I0411 19:41:01.683815  6434 net.cpp:148] Top shape: 128 128 8 8 (1048576)
I0411 19:41:01.683822  6434 net.cpp:156] Memory required for data: 190318080
I0411 19:41:01.683835  6434 layer_factory.hpp:77] Creating layer scale_conv4_down_c
I0411 19:41:01.683848  6434 net.cpp:91] Creating Layer scale_conv4_down_c
I0411 19:41:01.683857  6434 net.cpp:425] scale_conv4_down_c <- conv4_down
I0411 19:41:01.683869  6434 net.cpp:386] scale_conv4_down_c -> conv4_down (in-place)
I0411 19:41:01.684005  6434 net.cpp:141] Setting up scale_conv4_down_c
I0411 19:41:01.684020  6434 net.cpp:148] Top shape: 128 128 8 8 (1048576)
I0411 19:41:01.684027  6434 net.cpp:156] Memory required for data: 194512384
I0411 19:41:01.684053  6434 layer_factory.hpp:77] Creating layer global_in
I0411 19:41:01.684078  6434 net.cpp:91] Creating Layer global_in
I0411 19:41:01.684087  6434 net.cpp:425] global_in <- conv1_down
I0411 19:41:01.684098  6434 net.cpp:425] global_in <- conv2_down
I0411 19:41:01.684108  6434 net.cpp:425] global_in <- conv3_down
I0411 19:41:01.684116  6434 net.cpp:425] global_in <- conv4_down
I0411 19:41:01.684128  6434 net.cpp:399] global_in -> global_in
I0411 19:41:01.684171  6434 net.cpp:141] Setting up global_in
I0411 19:41:01.684193  6434 net.cpp:148] Top shape: 128 128 8 8 (1048576)
I0411 19:41:01.684202  6434 net.cpp:156] Memory required for data: 198706688
I0411 19:41:01.684211  6434 layer_factory.hpp:77] Creating layer global_pool
I0411 19:41:01.684227  6434 net.cpp:91] Creating Layer global_pool
I0411 19:41:01.684237  6434 net.cpp:425] global_pool <- global_in
I0411 19:41:01.684247  6434 net.cpp:399] global_pool -> global_pool
I0411 19:41:01.684587  6434 net.cpp:141] Setting up global_pool
I0411 19:41:01.684608  6434 net.cpp:148] Top shape: 128 128 1 1 (16384)
I0411 19:41:01.684617  6434 net.cpp:156] Memory required for data: 198772224
I0411 19:41:01.684625  6434 layer_factory.hpp:77] Creating layer ip
I0411 19:41:01.684645  6434 net.cpp:91] Creating Layer ip
I0411 19:41:01.684654  6434 net.cpp:425] ip <- global_pool
I0411 19:41:01.684669  6434 net.cpp:399] ip -> ip
I0411 19:41:01.684862  6434 net.cpp:141] Setting up ip
I0411 19:41:01.684878  6434 net.cpp:148] Top shape: 128 10 (1280)
I0411 19:41:01.684886  6434 net.cpp:156] Memory required for data: 198777344
I0411 19:41:01.684900  6434 layer_factory.hpp:77] Creating layer ip_ip_0_split
I0411 19:41:01.684913  6434 net.cpp:91] Creating Layer ip_ip_0_split
I0411 19:41:01.684921  6434 net.cpp:425] ip_ip_0_split <- ip
I0411 19:41:01.684932  6434 net.cpp:399] ip_ip_0_split -> ip_ip_0_split_0
I0411 19:41:01.684947  6434 net.cpp:399] ip_ip_0_split -> ip_ip_0_split_1
I0411 19:41:01.685006  6434 net.cpp:141] Setting up ip_ip_0_split
I0411 19:41:01.685020  6434 net.cpp:148] Top shape: 128 10 (1280)
I0411 19:41:01.685030  6434 net.cpp:148] Top shape: 128 10 (1280)
I0411 19:41:01.685039  6434 net.cpp:156] Memory required for data: 198787584
I0411 19:41:01.685046  6434 layer_factory.hpp:77] Creating layer accuracy
I0411 19:41:01.685062  6434 net.cpp:91] Creating Layer accuracy
I0411 19:41:01.685071  6434 net.cpp:425] accuracy <- ip_ip_0_split_0
I0411 19:41:01.685081  6434 net.cpp:425] accuracy <- label_data_1_split_0
I0411 19:41:01.685096  6434 net.cpp:399] accuracy -> accuracy
…
I0411 19:41:01.688596  6434 net.cpp:313] The NetState phase (1) differed from the phase (0) specified by a rule in layer data
I0411 19:41:01.689097  6434 net.cpp:49] Initializing net from parameters: 
name: "CifarResNet0"
state {
  phase: TEST
}
layer {
  name: "data"
  type: "Data"
  top: "data"
  top: "label"
  include {
    phase: TEST
  }
  transform_param {
    mean_file: "/home/liangjiang/code/residual_network/data/cifar10/mean.binaryproto"
  }
  data_param {
    source: "/home/liangjiang/code/residual_network/data/cifar10/cifar10_test_lmdb"
    batch_size: 32
    backend: LMDB
  }
}
layer {
  name: "conv1"
  type: "Convolution"
  bottom: "data"
  top: "conv1"
  param {
    lr_mult: 1
  }
  param {
    lr_mult: 2
  }
  convolution_param {
    num_output: 8
    pad: 1
    kernel_size: 3
    stride: 1
    weight_filler {
      type: "msra"
    }
    bias_filler {
      type: "constant"
      value: 0
    }
  }
}
layer {
  name: "bn_conv1"
  type: "BatchNorm"
  bottom: "conv1"
  top: "conv1"
  param {
    lr_mult: 0
  }
  param {
    lr_mult: 0
  }
  param {
    lr_mult: 0
  }
}
layer {
  name: "scale_conv1"
  type: "Scale"
  bottom: "conv1"
  top: "conv1"
  param {
    lr_mult: 1
  }
  param {
    lr_mult: 2
  }
  scale_param {
    bias_term: true
  }
}
layer {
  name: "conv1_relu"
  type: "ReLU"
  bottom: "conv1"
  top: "conv1"
}
layer {
  name: "conv1_down"
  type: "Convolution"
  bottom: "conv1"
  top: "conv1_down"
  param {
    lr_mult: 0
  }
  convolution_param {
    num_output: 128
    bias_term: false
    pad: 0
    kernel_size: 4
    stride: 4
    weight_filler {
      type: "downsample"
      value: 1
    }
  }
}
layer {
  name: "scale_conv1_down"
  type: "Scale"
  bottom: "conv1_down"
  top: "conv1_down"
  param {
    lr_mult: 1
  }
  param {
    lr_mult: 2
  }
  scale_param {
    filler {
      type: "constant"
      value: 1
    }
    bias_term: true
  }
}
layer {
  name: "scale_conv1_down_c"
  type: "Scale"
  bottom: "conv1_down"
  top: "conv1_down"
  param {
    lr_mult: 0
  }
  scale_param {
    filler {
      type: "constant"
      value: 0.16
    }
    bias_term: false
  }
}
layer {
  name: "conv2_1a"
  type: "Convolution"
  bottom: "conv1"
  top: "conv2_1a"
  param {
    lr_mult: 1
  }
  param {
    lr_mult: 2
  }
  convolution_param {
    num_output: 8
    pad: 1
    kernel_size: 3
    stride: 1
    weight_filler {
      type: "msra"
    }
    bias_filler {
      type: "constant"
      value: 0
    }
  }
}
layer {
  name: "bn_conv2_1a"
  type: "BatchNorm"
  bottom: "conv2_1a"
  top: "conv2_1a"
  param {
    lr_mult: 0
  }
  param {
    lr_mult: 0
  }
  param {
    lr_mult: 0
  }
}
layer {
  name: "scale_conv2_1a"
  type: "Scale"
  bottom: "conv2_1a"
  top: "conv2_1a"
  param {
    lr_mult: 1
  }
  param {
    lr_mult: 2
  }
  scale_param {
    bias_term: true
  }
}
layer {
  name: "conv2_1a_relu"
  type: "ReLU"
  bottom: "conv2_1a"
  top: "conv2_1a"
}
layer {
  name: "conv2_1b"
  type: "Convolution"
  bottom: "conv2_1a"
  top: "conv2_1b"
  param {
    lr_mult: 1
  }
  param {
    lr_mult: 2
  }
  convolution_param {
    num_output: 8
    pad: 1
    kernel_size: 3
    stride: 1
    weight_filler {
      type: "msra"
    }
    bias_filler {
      type: "constant"
      value: 0
    }
  }
}
layer {
  name: "bn_conv2_1b"
  type: "BatchNorm"
  bottom: "conv2_1b"
  top: "conv2_1b"
  param {
    lr_mult: 0
  }
  param {
    lr_mult: 0
  }
  param {
    lr_mult: 0
  }
}
layer {
  name: "scale_conv2_1b"
  type: "Scale"
  bottom: "conv2_1b"
  top: "conv2_1b"
  param {
    lr_mult: 1
  }
  param {
    lr_mult: 2
  }
  scale_param {
    bias_term: true
  }
}
layer {
  name: "conv2_1b_relu"
  type: "ReLU"
  bottom: "conv2_1b"
  top: "conv2_1b"
}
layer {
  name: "conv2_down"
  type: "Convolution"
  bottom: "conv2_1b"
  top: "conv2_down"
  param {
    lr_mult: 0
  }
  convolution_param {
    num_output: 128
    bias_term: false
    pad: 0
    kernel_size: 4
    stride: 4
    weight_filler {
      type: "downsample"
      value: 1
    }
  }
}
layer {
  name: "scale_conv2_down"
  type: "Scale"
  bottom: "conv2_down"
  top: "conv2_down"
  param {
    lr_mult: 1
  }
  param {
    lr_mult: 2
  }
  scale_param {
    filler {
      type: "constant"
      value: 1
    }
    bias_term: true
  }
}
layer {
  name: "scale_conv2_down_c"
  type: "Scale"
  bottom: "conv2_down"
  top: "conv2_down"
  param {
    lr_mult: 0
  }
  scale_param {
    filler {
      type: "constant"
      value: 0.16
    }
    bias_term: false
  }
}
layer {
  name: "conv3_1a"
  type: "Convolution"
  bottom: "conv2_1b"
  top: "conv3_1a"
  param {
    lr_mult: 1
  }
  param {
    lr_mult: 2
  }
  convolution_param {
    num_output: 32
    pad: 0
    kernel_size: 1
    stride: 2
    weight_filler {
      type: "msra"
    }
    bias_filler {
      type: "constant"
      value: 0
    }
  }
}
layer {
  name: "bn_conv3_1a"
  type: "BatchNorm"
  bottom: "conv3_1a"
  top: "conv3_1a"
  param {
    lr_mult: 0
  }
  param {
    lr_mult: 0
  }
  param {
    lr_mult: 0
  }
}
layer {
  name: "scale_conv3_1a"
  type: "Scale"
  bottom: "conv3_1a"
  top: "conv3_1a"
  param {
    lr_mult: 1
  }
  param {
    lr_mult: 2
  }
  scale_param {
    bias_term: true
  }
}
layer {
  name: "conv3_1a_relu"
  type: "ReLU"
  bottom: "conv3_1a"
  top: "conv3_1a"
}
layer {
  name: "conv3_1b"
  type: "Convolution"
  bottom: "conv3_1a"
  top: "conv3_1b"
  param {
    lr_mult: 2
  }
  param {
    lr_mult: 2
  }
  convolution_param {
    num_output: 32
    pad: 1
    kernel_size: 3
    stride: 1
    weight_filler {
      type: "msra"
    }
    bias_filler {
      type: "constant"
      value: 0
    }
  }
}
layer {
  name: "bn_conv3_1b"
  type: "BatchNorm"
  bottom: "conv3_1b"
  top: "conv3_1b"
  param {
    lr_mult: 0
  }
  param {
    lr_mult: 0
  }
  param {
    lr_mult: 0
  }
}
layer {
  name: "scale_conv3_1b"
  type: "Scale"
  bottom: "conv3_1b"
  top: "conv3_1b"
  param {
    lr_mult: 1
  }
  param {
    lr_mult: 2
  }
  scale_param {
    bias_term: true
  }
}
layer {
  name: "conv3_1b_relu"
  type: "ReLU"
  bottom: "conv3_1b"
  top: "conv3_1b"
}
layer {
  name: "conv3_down"
  type: "Convolution"
  bottom: "conv3_1b"
  top: "conv3_down"
  param {
    lr_mult: 0
  }
  convolution_param {
    num_output: 128
    bias_term: false
    pad: 0
    kernel_size: 2
    stride: 2
    weight_filler {
      type: "downsample"
      value: 1
    }
  }
}
layer {
  name: "scale_conv3_down"
  type: "Scale"
  bottom: "conv3_down"
  top: "conv3_down"
  param {
    lr_mult: 1
  }
  param {
    lr_mult: 2
  }
  scale_param {
    filler {
      type: "constant"
      value: 1
    }
    bias_term: true
  }
}
layer {
  name: "scale_conv3_down_c"
  type: "Scale"
  bottom: "conv3_down"
  top: "conv3_down"
  param {
    lr_mult: 0
  }
  scale_param {
    filler {
      type: "constant"
      value: 0.4
    }
    bias_term: false
  }
}
layer {
  name: "conv4_1a"
  type: "Convolution"
  bottom: "conv3_1b"
  top: "conv4_1a"
  param {
    lr_mult: 1
  }
  param {
    lr_mult: 2
  }
  convolution_param {
    num_output: 128
    pad: 0
    kernel_size: 1
    stride: 2
    weight_filler {
      type: "msra"
    }
    bias_filler {
      type: "constant"
      value: 0
    }
  }
}
layer {
  name: "bn_conv4_1a"
  type: "BatchNorm"
  bottom: "conv4_1a"
  top: "conv4_1a"
  param {
    lr_mult: 0
  }
  param {
    lr_mult: 0
  }
  param {
    lr_mult: 0
  }
}
layer {
  name: "scale_conv4_1a"
  type: "Scale"
  bottom: "conv4_1a"
  top: "conv4_1a"
  param {
    lr_mult: 1
  }
  param {
    lr_mult: 2
  }
  scale_param {
    bias_term: true
  }
}
layer {
  name: "conv4_1a_relu"
  type: "ReLU"
  bottom: "conv4_1a"
  top: "conv4_1a"
}
layer {
  name: "conv4_1b"
  type: "Convolution"
  bottom: "conv4_1a"
  top: "conv4_1b"
  param {
    lr_mult: 1
  }
  param {
    lr_mult: 2
  }
  convolution_param {
    num_output: 128
    pad: 1
    kernel_size: 3
    stride: 1
    weight_filler {
      type: "msra"
    }
    bias_filler {
      type: "constant"
      value: 0
    }
  }
}
layer {
  name: "bn_conv4_1b"
  type: "BatchNorm"
  bottom: "conv4_1b"
  top: "conv4_1b"
  param {
    lr_mult: 0
  }
  param {
    lr_mult: 0
  }
  param {
    lr_mult: 0
  }
}
layer {
  name: "scale_conv4_1b"
  type: "Scale"
  bottom: "conv4_1b"
  top: "conv4_1b"
  param {
    lr_mult: 1
  }
  param {
    lr_mult: 2
  }
  scale_param {
    bias_term: true
  }
}
layer {
  name: "conv4_1b_relu"
  type: "ReLU"
  bottom: "conv4_1b"
  top: "conv4_1b"
}
layer {
  name: "conv4_down"
  type: "Convolution"
  bottom: "conv4_1b"
  top: "conv4_down"
  param {
    lr_mult: 0
  }
  convolution_param {
    num_output: 128
    bias_term: false
    pad: 0
    kernel_size: 1
    stride: 1
    weight_filler {
      type: "downsample"
      value: 0
    }
  }
}
layer {
  name: "scale_conv4_down"
  type: "Scale"
  bottom: "conv4_down"
  top: "conv4_down"
  param {
    lr_mult: 1
  }
  param {
    lr_mult: 2
  }
  scale_param {
    filler {
      type: "constant"
      value: 0.2
    }
    bias_term: true
  }
}
layer {
  name: "scale_conv4_down_c"
  type: "Scale"
  bottom: "conv4_down"
  top: "conv4_down"
  param {
    lr_mult: 0
  }
  scale_param {
    filler {
      type: "constant"
      value: 1
    }
    bias_term: false
  }
}
layer {
  name: "global_in"
  type: "Eltwise"
  bottom: "conv1_down"
  bottom: "conv2_down"
  bottom: "conv3_down"
  bottom: "conv4_down"
  top: "global_in"
}
layer {
  name: "global_pool"
  type: "Pooling"
  bottom: "global_in"
  top: "global_pool"
  pooling_param {
    pool: AVE
    kernel_size: 8
  }
}
layer {
  name: "ip"
  type: "InnerProduct"
  bottom: "global_pool"
  top: "ip"
  param {
    lr_mult: 1
  }
  param {
    lr_mult: 2
  }
  inner_product_param {
    num_output: 10
  }
}
layer {
  name: "accuracy"
  type: "Accuracy"
  bottom: "ip"
  bottom: "label"
  top: "accuracy"
}
layer {
  name: "loss"
  type: "SoftmaxWithLoss"
  bottom: "ip"
  bottom: "label"
  top: "loss"
}
I0411 19:41:01.689446  6434 layer_factory.hpp:77] Creating layer data
I0411 19:41:01.689981  6434 net.cpp:91] Creating Layer data
I0411 19:41:01.689999  6434 net.cpp:399] data -> data
I0411 19:41:01.690016  6434 net.cpp:399] data -> label
I0411 19:41:01.690032  6434 data_transformer.cpp:25] Loading mean file from: /home/liangjiang/code/residual_network/data/cifar10/mean.binaryproto
I0411 19:41:01.691581  6511 db_lmdb.cpp:38] Opened lmdb /home/liangjiang/code/residual_network/data/cifar10/cifar10_test_lmdb
I0411 19:41:01.691764  6434 data_layer.cpp:41] output data size: 32,3,32,32
I0411 19:41:01.693325  6434 net.cpp:141] Setting up data
I0411 19:41:01.693353  6434 net.cpp:148] Top shape: 32 3 32 32 (98304)
I0411 19:41:01.693366  6434 net.cpp:148] Top shape: 32 (32)
I0411 19:41:01.693372  6434 net.cpp:156] Memory required for data: 393344
I0411 19:41:01.693382  6434 layer_factory.hpp:77] Creating layer label_data_1_split
I0411 19:41:01.693397  6434 net.cpp:91] Creating Layer label_data_1_split
I0411 19:41:01.693405  6434 net.cpp:425] label_data_1_split <- label
I0411 19:41:01.693418  6434 net.cpp:399] label_data_1_split -> label_data_1_split_0
I0411 19:41:01.693434  6434 net.cpp:399] label_data_1_split -> label_data_1_split_1
I0411 19:41:01.693581  6434 net.cpp:141] Setting up label_data_1_split
I0411 19:41:01.693600  6434 net.cpp:148] Top shape: 32 (32)
I0411 19:41:01.693609  6434 net.cpp:148] Top shape: 32 (32)
I0411 19:41:01.693617  6434 net.cpp:156] Memory required for data: 393600
I0411 19:41:01.693625  6434 layer_factory.hpp:77] Creating layer conv1
I0411 19:41:01.693646  6434 net.cpp:91] Creating Layer conv1
I0411 19:41:01.693655  6434 net.cpp:425] conv1 <- data
I0411 19:41:01.693671  6434 net.cpp:399] conv1 -> conv1
I0411 19:41:01.695576  6434 net.cpp:141] Setting up conv1
I0411 19:41:01.695605  6434 net.cpp:148] Top shape: 32 8 32 32 (262144)
I0411 19:41:01.695613  6434 net.cpp:156] Memory required for data: 1442176
I0411 19:41:01.695634  6434 layer_factory.hpp:77] Creating layer bn_conv1
I0411 19:41:01.695652  6434 net.cpp:91] Creating Layer bn_conv1
I0411 19:41:01.695665  6434 net.cpp:425] bn_conv1 <- conv1
I0411 19:41:01.695679  6434 net.cpp:386] bn_conv1 -> conv1 (in-place)
I0411 19:41:01.696015  6434 net.cpp:141] Setting up bn_conv1
I0411 19:41:01.696032  6434 net.cpp:148] Top shape: 32 8 32 32 (262144)
I0411 19:41:01.696040  6434 net.cpp:156] Memory required for data: 2490752
I0411 19:41:01.696060  6434 layer_factory.hpp:77] Creating layer scale_conv1
I0411 19:41:01.696081  6434 net.cpp:91] Creating Layer scale_conv1
I0411 19:41:01.696090  6434 net.cpp:425] scale_conv1 <- conv1
I0411 19:41:01.696105  6434 net.cpp:386] scale_conv1 -> conv1 (in-place)
I0411 19:41:01.696177  6434 layer_factory.hpp:77] Creating layer scale_conv1
I0411 19:41:01.696400  6434 net.cpp:141] Setting up scale_conv1
I0411 19:41:01.696416  6434 net.cpp:148] Top shape: 32 8 32 32 (262144)
I0411 19:41:01.696424  6434 net.cpp:156] Memory required for data: 3539328
I0411 19:41:01.696444  6434 layer_factory.hpp:77] Creating layer conv1_relu
I0411 19:41:01.696456  6434 net.cpp:91] Creating Layer conv1_relu
I0411 19:41:01.696465  6434 net.cpp:425] conv1_relu <- conv1
I0411 19:41:01.696477  6434 net.cpp:386] conv1_relu -> conv1 (in-place)
I0411 19:41:01.696779  6434 net.cpp:141] Setting up conv1_relu
I0411 19:41:01.696804  6434 net.cpp:148] Top shape: 32 8 32 32 (262144)
I0411 19:41:01.696811  6434 net.cpp:156] Memory required for data: 4587904
I0411 19:41:01.696822  6434 layer_factory.hpp:77] Creating layer conv1_conv1_relu_0_split
I0411 19:41:01.696833  6434 net.cpp:91] Creating Layer conv1_conv1_relu_0_split
I0411 19:41:01.696846  6434 net.cpp:425] conv1_conv1_relu_0_split <- conv1
I0411 19:41:01.696871  6434 net.cpp:399] conv1_conv1_relu_0_split -> conv1_conv1_relu_0_split_0
I0411 19:41:01.696884  6434 net.cpp:399] conv1_conv1_relu_0_split -> conv1_conv1_relu_0_split_1
I0411 19:41:01.696959  6434 net.cpp:141] Setting up conv1_conv1_relu_0_split
I0411 19:41:01.696974  6434 net.cpp:148] Top shape: 32 8 32 32 (262144)
I0411 19:41:01.696985  6434 net.cpp:148] Top shape: 32 8 32 32 (262144)
I0411 19:41:01.696992  6434 net.cpp:156] Memory required for data: 6685056
I0411 19:41:01.697000  6434 layer_factory.hpp:77] Creating layer conv1_down
I0411 19:41:01.697019  6434 net.cpp:91] Creating Layer conv1_down
I0411 19:41:01.697028  6434 net.cpp:425] conv1_down <- conv1_conv1_relu_0_split_0
I0411 19:41:01.697047  6434 net.cpp:399] conv1_down -> conv1_down
I0411 19:41:01.698528  6434 net.cpp:141] Setting up conv1_down
I0411 19:41:01.698556  6434 net.cpp:148] Top shape: 32 128 8 8 (262144)
I0411 19:41:01.698565  6434 net.cpp:156] Memory required for data: 7733632
I0411 19:41:01.698576  6434 layer_factory.hpp:77] Creating layer scale_conv1_down
I0411 19:41:01.698591  6434 net.cpp:91] Creating Layer scale_conv1_down
I0411 19:41:01.698601  6434 net.cpp:425] scale_conv1_down <- conv1_down
I0411 19:41:01.698614  6434 net.cpp:386] scale_conv1_down -> conv1_down (in-place)
I0411 19:41:01.698688  6434 layer_factory.hpp:77] Creating layer scale_conv1_down
I0411 19:41:01.698869  6434 net.cpp:141] Setting up scale_conv1_down
I0411 19:41:01.698884  6434 net.cpp:148] Top shape: 32 128 8 8 (262144)
I0411 19:41:01.698891  6434 net.cpp:156] Memory required for data: 8782208
I0411 19:41:01.698907  6434 layer_factory.hpp:77] Creating layer scale_conv1_down_c
I0411 19:41:01.698920  6434 net.cpp:91] Creating Layer scale_conv1_down_c
I0411 19:41:01.698926  6434 net.cpp:425] scale_conv1_down_c <- conv1_down
I0411 19:41:01.698940  6434 net.cpp:386] scale_conv1_down_c -> conv1_down (in-place)
I0411 19:41:01.699074  6434 net.cpp:141] Setting up scale_conv1_down_c
I0411 19:41:01.699086  6434 net.cpp:148] Top shape: 32 128 8 8 (262144)
I0411 19:41:01.699093  6434 net.cpp:156] Memory required for data: 9830784
I0411 19:41:01.699103  6434 layer_factory.hpp:77] Creating layer conv2_1a
I0411 19:41:01.699121  6434 net.cpp:91] Creating Layer conv2_1a
I0411 19:41:01.699129  6434 net.cpp:425] conv2_1a <- conv1_conv1_relu_0_split_1
I0411 19:41:01.699143  6434 net.cpp:399] conv2_1a -> conv2_1a
I0411 19:41:01.700649  6434 net.cpp:141] Setting up conv2_1a
I0411 19:41:01.700673  6434 net.cpp:148] Top shape: 32 8 32 32 (262144)
I0411 19:41:01.700682  6434 net.cpp:156] Memory required for data: 10879360
I0411 19:41:01.700695  6434 layer_factory.hpp:77] Creating layer bn_conv2_1a
I0411 19:41:01.700709  6434 net.cpp:91] Creating Layer bn_conv2_1a
I0411 19:41:01.700718  6434 net.cpp:425] bn_conv2_1a <- conv2_1a
I0411 19:41:01.700731  6434 net.cpp:386] bn_conv2_1a -> conv2_1a (in-place)
I0411 19:41:01.701043  6434 net.cpp:141] Setting up bn_conv2_1a
I0411 19:41:01.701058  6434 net.cpp:148] Top shape: 32 8 32 32 (262144)
I0411 19:41:01.701066  6434 net.cpp:156] Memory required for data: 11927936
I0411 19:41:01.701078  6434 layer_factory.hpp:77] Creating layer scale_conv2_1a
I0411 19:41:01.701093  6434 net.cpp:91] Creating Layer scale_conv2_1a
I0411 19:41:01.701102  6434 net.cpp:425] scale_conv2_1a <- conv2_1a
I0411 19:41:01.701120  6434 net.cpp:386] scale_conv2_1a -> conv2_1a (in-place)
I0411 19:41:01.701197  6434 layer_factory.hpp:77] Creating layer scale_conv2_1a
I0411 19:41:01.701376  6434 net.cpp:141] Setting up scale_conv2_1a
I0411 19:41:01.701391  6434 net.cpp:148] Top shape: 32 8 32 32 (262144)
I0411 19:41:01.701398  6434 net.cpp:156] Memory required for data: 12976512
I0411 19:41:01.701418  6434 layer_factory.hpp:77] Creating layer conv2_1a_relu
I0411 19:41:01.701429  6434 net.cpp:91] Creating Layer conv2_1a_relu
I0411 19:41:01.701436  6434 net.cpp:425] conv2_1a_relu <- conv2_1a
I0411 19:41:01.701447  6434 net.cpp:386] conv2_1a_relu -> conv2_1a (in-place)
I0411 19:41:01.701735  6434 net.cpp:141] Setting up conv2_1a_relu
I0411 19:41:01.701753  6434 net.cpp:148] Top shape: 32 8 32 32 (262144)
I0411 19:41:01.701761  6434 net.cpp:156] Memory required for data: 14025088
I0411 19:41:01.701769  6434 layer_factory.hpp:77] Creating layer conv2_1b
I0411 19:41:01.701792  6434 net.cpp:91] Creating Layer conv2_1b
I0411 19:41:01.701802  6434 net.cpp:425] conv2_1b <- conv2_1a
I0411 19:41:01.701813  6434 net.cpp:399] conv2_1b -> conv2_1b
I0411 19:41:01.703465  6434 net.cpp:141] Setting up conv2_1b
I0411 19:41:01.703490  6434 net.cpp:148] Top shape: 32 8 32 32 (262144)
I0411 19:41:01.703497  6434 net.cpp:156] Memory required for data: 15073664
I0411 19:41:01.703510  6434 layer_factory.hpp:77] Creating layer bn_conv2_1b
I0411 19:41:01.703526  6434 net.cpp:91] Creating Layer bn_conv2_1b
I0411 19:41:01.703534  6434 net.cpp:425] bn_conv2_1b <- conv2_1b
I0411 19:41:01.703546  6434 net.cpp:386] bn_conv2_1b -> conv2_1b (in-place)
I0411 19:41:01.703856  6434 net.cpp:141] Setting up bn_conv2_1b
I0411 19:41:01.703872  6434 net.cpp:148] Top shape: 32 8 32 32 (262144)
I0411 19:41:01.703879  6434 net.cpp:156] Memory required for data: 16122240
I0411 19:41:01.703893  6434 layer_factory.hpp:77] Creating layer scale_conv2_1b
I0411 19:41:01.703909  6434 net.cpp:91] Creating Layer scale_conv2_1b
I0411 19:41:01.703917  6434 net.cpp:425] scale_conv2_1b <- conv2_1b
I0411 19:41:01.703928  6434 net.cpp:386] scale_conv2_1b -> conv2_1b (in-place)
I0411 19:41:01.703995  6434 layer_factory.hpp:77] Creating layer scale_conv2_1b
I0411 19:41:01.704175  6434 net.cpp:141] Setting up scale_conv2_1b
I0411 19:41:01.704190  6434 net.cpp:148] Top shape: 32 8 32 32 (262144)
I0411 19:41:01.704196  6434 net.cpp:156] Memory required for data: 17170816
I0411 19:41:01.704208  6434 layer_factory.hpp:77] Creating layer conv2_1b_relu
I0411 19:41:01.704218  6434 net.cpp:91] Creating Layer conv2_1b_relu
I0411 19:41:01.704226  6434 net.cpp:425] conv2_1b_relu <- conv2_1b
I0411 19:41:01.704238  6434 net.cpp:386] conv2_1b_relu -> conv2_1b (in-place)
I0411 19:41:01.704666  6434 net.cpp:141] Setting up conv2_1b_relu
I0411 19:41:01.704689  6434 net.cpp:148] Top shape: 32 8 32 32 (262144)
I0411 19:41:01.704695  6434 net.cpp:156] Memory required for data: 18219392
I0411 19:41:01.704704  6434 layer_factory.hpp:77] Creating layer conv2_1b_conv2_1b_relu_0_split
I0411 19:41:01.704716  6434 net.cpp:91] Creating Layer conv2_1b_conv2_1b_relu_0_split
I0411 19:41:01.704725  6434 net.cpp:425] conv2_1b_conv2_1b_relu_0_split <- conv2_1b
I0411 19:41:01.704735  6434 net.cpp:399] conv2_1b_conv2_1b_relu_0_split -> conv2_1b_conv2_1b_relu_0_split_0
I0411 19:41:01.704749  6434 net.cpp:399] conv2_1b_conv2_1b_relu_0_split -> conv2_1b_conv2_1b_relu_0_split_1
I0411 19:41:01.704820  6434 net.cpp:141] Setting up conv2_1b_conv2_1b_relu_0_split
I0411 19:41:01.704833  6434 net.cpp:148] Top shape: 32 8 32 32 (262144)
I0411 19:41:01.704843  6434 net.cpp:148] Top shape: 32 8 32 32 (262144)
I0411 19:41:01.704849  6434 net.cpp:156] Memory required for data: 20316544
I0411 19:41:01.704857  6434 layer_factory.hpp:77] Creating layer conv2_down
I0411 19:41:01.704874  6434 net.cpp:91] Creating Layer conv2_down
I0411 19:41:01.704882  6434 net.cpp:425] conv2_down <- conv2_1b_conv2_1b_relu_0_split_0
I0411 19:41:01.704895  6434 net.cpp:399] conv2_down -> conv2_down
I0411 19:41:01.706348  6434 net.cpp:141] Setting up conv2_down
I0411 19:41:01.706373  6434 net.cpp:148] Top shape: 32 128 8 8 (262144)
I0411 19:41:01.706387  6434 net.cpp:156] Memory required for data: 21365120
I0411 19:41:01.706399  6434 layer_factory.hpp:77] Creating layer scale_conv2_down
I0411 19:41:01.706415  6434 net.cpp:91] Creating Layer scale_conv2_down
I0411 19:41:01.706424  6434 net.cpp:425] scale_conv2_down <- conv2_down
I0411 19:41:01.706439  6434 net.cpp:386] scale_conv2_down -> conv2_down (in-place)
I0411 19:41:01.706511  6434 layer_factory.hpp:77] Creating layer scale_conv2_down
I0411 19:41:01.706696  6434 net.cpp:141] Setting up scale_conv2_down
I0411 19:41:01.706710  6434 net.cpp:148] Top shape: 32 128 8 8 (262144)
I0411 19:41:01.706717  6434 net.cpp:156] Memory required for data: 22413696
I0411 19:41:01.706729  6434 layer_factory.hpp:77] Creating layer scale_conv2_down_c
I0411 19:41:01.706743  6434 net.cpp:91] Creating Layer scale_conv2_down_c
I0411 19:41:01.706751  6434 net.cpp:425] scale_conv2_down_c <- conv2_down
I0411 19:41:01.706765  6434 net.cpp:386] scale_conv2_down_c -> conv2_down (in-place)
I0411 19:41:01.706897  6434 net.cpp:141] Setting up scale_conv2_down_c
I0411 19:41:01.706909  6434 net.cpp:148] Top shape: 32 128 8 8 (262144)
I0411 19:41:01.706917  6434 net.cpp:156] Memory required for data: 23462272
I0411 19:41:01.706926  6434 layer_factory.hpp:77] Creating layer conv3_1a
I0411 19:41:01.706944  6434 net.cpp:91] Creating Layer conv3_1a
I0411 19:41:01.706953  6434 net.cpp:425] conv3_1a <- conv2_1b_conv2_1b_relu_0_split_1
I0411 19:41:01.706965  6434 net.cpp:399] conv3_1a -> conv3_1a
I0411 19:41:01.708333  6434 net.cpp:141] Setting up conv3_1a
I0411 19:41:01.708358  6434 net.cpp:148] Top shape: 32 32 16 16 (262144)
I0411 19:41:01.708365  6434 net.cpp:156] Memory required for data: 24510848
I0411 19:41:01.708379  6434 layer_factory.hpp:77] Creating layer bn_conv3_1a
I0411 19:41:01.708394  6434 net.cpp:91] Creating Layer bn_conv3_1a
I0411 19:41:01.708402  6434 net.cpp:425] bn_conv3_1a <- conv3_1a
I0411 19:41:01.708413  6434 net.cpp:386] bn_conv3_1a -> conv3_1a (in-place)
I0411 19:41:01.708722  6434 net.cpp:141] Setting up bn_conv3_1a
I0411 19:41:01.708736  6434 net.cpp:148] Top shape: 32 32 16 16 (262144)
I0411 19:41:01.708745  6434 net.cpp:156] Memory required for data: 25559424
I0411 19:41:01.708767  6434 layer_factory.hpp:77] Creating layer scale_conv3_1a
I0411 19:41:01.708781  6434 net.cpp:91] Creating Layer scale_conv3_1a
I0411 19:41:01.708788  6434 net.cpp:425] scale_conv3_1a <- conv3_1a
I0411 19:41:01.708798  6434 net.cpp:386] scale_conv3_1a -> conv3_1a (in-place)
I0411 19:41:01.708868  6434 layer_factory.hpp:77] Creating layer scale_conv3_1a
I0411 19:41:01.709062  6434 net.cpp:141] Setting up scale_conv3_1a
I0411 19:41:01.709076  6434 net.cpp:148] Top shape: 32 32 16 16 (262144)
I0411 19:41:01.709084  6434 net.cpp:156] Memory required for data: 26608000
I0411 19:41:01.709095  6434 layer_factory.hpp:77] Creating layer conv3_1a_relu
I0411 19:41:01.709105  6434 net.cpp:91] Creating Layer conv3_1a_relu
I0411 19:41:01.709123  6434 net.cpp:425] conv3_1a_relu <- conv3_1a
I0411 19:41:01.709136  6434 net.cpp:386] conv3_1a_relu -> conv3_1a (in-place)
I0411 19:41:01.709563  6434 net.cpp:141] Setting up conv3_1a_relu
I0411 19:41:01.709584  6434 net.cpp:148] Top shape: 32 32 16 16 (262144)
I0411 19:41:01.709591  6434 net.cpp:156] Memory required for data: 27656576
I0411 19:41:01.709599  6434 layer_factory.hpp:77] Creating layer conv3_1b
I0411 19:41:01.709616  6434 net.cpp:91] Creating Layer conv3_1b
I0411 19:41:01.709625  6434 net.cpp:425] conv3_1b <- conv3_1a
I0411 19:41:01.709640  6434 net.cpp:399] conv3_1b -> conv3_1b
I0411 19:41:01.711519  6434 net.cpp:141] Setting up conv3_1b
I0411 19:41:01.711542  6434 net.cpp:148] Top shape: 32 32 16 16 (262144)
I0411 19:41:01.711550  6434 net.cpp:156] Memory required for data: 28705152
I0411 19:41:01.711562  6434 layer_factory.hpp:77] Creating layer bn_conv3_1b
I0411 19:41:01.711575  6434 net.cpp:91] Creating Layer bn_conv3_1b
I0411 19:41:01.711582  6434 net.cpp:425] bn_conv3_1b <- conv3_1b
I0411 19:41:01.711598  6434 net.cpp:386] bn_conv3_1b -> conv3_1b (in-place)
I0411 19:41:01.711900  6434 net.cpp:141] Setting up bn_conv3_1b
I0411 19:41:01.711915  6434 net.cpp:148] Top shape: 32 32 16 16 (262144)
I0411 19:41:01.711921  6434 net.cpp:156] Memory required for data: 29753728
I0411 19:41:01.711935  6434 layer_factory.hpp:77] Creating layer scale_conv3_1b
I0411 19:41:01.711946  6434 net.cpp:91] Creating Layer scale_conv3_1b
I0411 19:41:01.711954  6434 net.cpp:425] scale_conv3_1b <- conv3_1b
I0411 19:41:01.711963  6434 net.cpp:386] scale_conv3_1b -> conv3_1b (in-place)
I0411 19:41:01.712028  6434 layer_factory.hpp:77] Creating layer scale_conv3_1b
I0411 19:41:01.712209  6434 net.cpp:141] Setting up scale_conv3_1b
I0411 19:41:01.712224  6434 net.cpp:148] Top shape: 32 32 16 16 (262144)
I0411 19:41:01.712230  6434 net.cpp:156] Memory required for data: 30802304
I0411 19:41:01.712241  6434 layer_factory.hpp:77] Creating layer conv3_1b_relu
I0411 19:41:01.712251  6434 net.cpp:91] Creating Layer conv3_1b_relu
I0411 19:41:01.712258  6434 net.cpp:425] conv3_1b_relu <- conv3_1b
I0411 19:41:01.712267  6434 net.cpp:386] conv3_1b_relu -> conv3_1b (in-place)
I0411 19:41:01.712529  6434 net.cpp:141] Setting up conv3_1b_relu
I0411 19:41:01.712546  6434 net.cpp:148] Top shape: 32 32 16 16 (262144)
I0411 19:41:01.712554  6434 net.cpp:156] Memory required for data: 31850880
I0411 19:41:01.712561  6434 layer_factory.hpp:77] Creating layer conv3_1b_conv3_1b_relu_0_split
I0411 19:41:01.712571  6434 net.cpp:91] Creating Layer conv3_1b_conv3_1b_relu_0_split
I0411 19:41:01.712579  6434 net.cpp:425] conv3_1b_conv3_1b_relu_0_split <- conv3_1b
I0411 19:41:01.712591  6434 net.cpp:399] conv3_1b_conv3_1b_relu_0_split -> conv3_1b_conv3_1b_relu_0_split_0
I0411 19:41:01.712604  6434 net.cpp:399] conv3_1b_conv3_1b_relu_0_split -> conv3_1b_conv3_1b_relu_0_split_1
I0411 19:41:01.712664  6434 net.cpp:141] Setting up conv3_1b_conv3_1b_relu_0_split
I0411 19:41:01.712679  6434 net.cpp:148] Top shape: 32 32 16 16 (262144)
I0411 19:41:01.712689  6434 net.cpp:148] Top shape: 32 32 16 16 (262144)
I0411 19:41:01.712697  6434 net.cpp:156] Memory required for data: 33948032
I0411 19:41:01.712704  6434 layer_factory.hpp:77] Creating layer conv3_down
I0411 19:41:01.712720  6434 net.cpp:91] Creating Layer conv3_down
I0411 19:41:01.712728  6434 net.cpp:425] conv3_down <- conv3_1b_conv3_1b_relu_0_split_0
I0411 19:41:01.712739  6434 net.cpp:399] conv3_down -> conv3_down
I0411 19:41:01.714117  6434 net.cpp:141] Setting up conv3_down
I0411 19:41:01.714140  6434 net.cpp:148] Top shape: 32 128 8 8 (262144)
I0411 19:41:01.714148  6434 net.cpp:156] Memory required for data: 34996608
I0411 19:41:01.714159  6434 layer_factory.hpp:77] Creating layer scale_conv3_down
I0411 19:41:01.714180  6434 net.cpp:91] Creating Layer scale_conv3_down
I0411 19:41:01.714190  6434 net.cpp:425] scale_conv3_down <- conv3_down
I0411 19:41:01.714200  6434 net.cpp:386] scale_conv3_down -> conv3_down (in-place)
I0411 19:41:01.714275  6434 layer_factory.hpp:77] Creating layer scale_conv3_down
I0411 19:41:01.714452  6434 net.cpp:141] Setting up scale_conv3_down
I0411 19:41:01.714465  6434 net.cpp:148] Top shape: 32 128 8 8 (262144)
I0411 19:41:01.714473  6434 net.cpp:156] Memory required for data: 36045184
I0411 19:41:01.714483  6434 layer_factory.hpp:77] Creating layer scale_conv3_down_c
I0411 19:41:01.714496  6434 net.cpp:91] Creating Layer scale_conv3_down_c
I0411 19:41:01.714504  6434 net.cpp:425] scale_conv3_down_c <- conv3_down
I0411 19:41:01.714514  6434 net.cpp:386] scale_conv3_down_c -> conv3_down (in-place)
I0411 19:41:01.714646  6434 net.cpp:141] Setting up scale_conv3_down_c
I0411 19:41:01.714659  6434 net.cpp:148] Top shape: 32 128 8 8 (262144)
I0411 19:41:01.714666  6434 net.cpp:156] Memory required for data: 37093760
I0411 19:41:01.714675  6434 layer_factory.hpp:77] Creating layer conv4_1a
I0411 19:41:01.714689  6434 net.cpp:91] Creating Layer conv4_1a
I0411 19:41:01.714697  6434 net.cpp:425] conv4_1a <- conv3_1b_conv3_1b_relu_0_split_1
I0411 19:41:01.714715  6434 net.cpp:399] conv4_1a -> conv4_1a
I0411 19:41:01.716351  6434 net.cpp:141] Setting up conv4_1a
I0411 19:41:01.716382  6434 net.cpp:148] Top shape: 32 128 8 8 (262144)
I0411 19:41:01.716389  6434 net.cpp:156] Memory required for data: 38142336
I0411 19:41:01.716403  6434 layer_factory.hpp:77] Creating layer bn_conv4_1a
I0411 19:41:01.716414  6434 net.cpp:91] Creating Layer bn_conv4_1a
I0411 19:41:01.716423  6434 net.cpp:425] bn_conv4_1a <- conv4_1a
I0411 19:41:01.716434  6434 net.cpp:386] bn_conv4_1a -> conv4_1a (in-place)
I0411 19:41:01.716735  6434 net.cpp:141] Setting up bn_conv4_1a
I0411 19:41:01.716749  6434 net.cpp:148] Top shape: 32 128 8 8 (262144)
I0411 19:41:01.716756  6434 net.cpp:156] Memory required for data: 39190912
I0411 19:41:01.716769  6434 layer_factory.hpp:77] Creating layer scale_conv4_1a
I0411 19:41:01.716780  6434 net.cpp:91] Creating Layer scale_conv4_1a
I0411 19:41:01.716787  6434 net.cpp:425] scale_conv4_1a <- conv4_1a
I0411 19:41:01.716797  6434 net.cpp:386] scale_conv4_1a -> conv4_1a (in-place)
I0411 19:41:01.716863  6434 layer_factory.hpp:77] Creating layer scale_conv4_1a
I0411 19:41:01.717036  6434 net.cpp:141] Setting up scale_conv4_1a
I0411 19:41:01.717049  6434 net.cpp:148] Top shape: 32 128 8 8 (262144)
I0411 19:41:01.717056  6434 net.cpp:156] Memory required for data: 40239488
I0411 19:41:01.717067  6434 layer_factory.hpp:77] Creating layer conv4_1a_relu
I0411 19:41:01.717077  6434 net.cpp:91] Creating Layer conv4_1a_relu
I0411 19:41:01.717087  6434 net.cpp:425] conv4_1a_relu <- conv4_1a
I0411 19:41:01.717094  6434 net.cpp:386] conv4_1a_relu -> conv4_1a (in-place)
I0411 19:41:01.717373  6434 net.cpp:141] Setting up conv4_1a_relu
I0411 19:41:01.717392  6434 net.cpp:148] Top shape: 32 128 8 8 (262144)
I0411 19:41:01.717399  6434 net.cpp:156] Memory required for data: 41288064
I0411 19:41:01.717407  6434 layer_factory.hpp:77] Creating layer conv4_1b
I0411 19:41:01.717427  6434 net.cpp:91] Creating Layer conv4_1b
I0411 19:41:01.717434  6434 net.cpp:425] conv4_1b <- conv4_1a
I0411 19:41:01.717447  6434 net.cpp:399] conv4_1b -> conv4_1b
I0411 19:41:01.726196  6434 net.cpp:141] Setting up conv4_1b
I0411 19:41:01.726220  6434 net.cpp:148] Top shape: 32 128 8 8 (262144)
I0411 19:41:01.726228  6434 net.cpp:156] Memory required for data: 42336640
I0411 19:41:01.726239  6434 layer_factory.hpp:77] Creating layer bn_conv4_1b
I0411 19:41:01.726253  6434 net.cpp:91] Creating Layer bn_conv4_1b
I0411 19:41:01.726261  6434 net.cpp:425] bn_conv4_1b <- conv4_1b
I0411 19:41:01.726274  6434 net.cpp:386] bn_conv4_1b -> conv4_1b (in-place)
I0411 19:41:01.726557  6434 net.cpp:141] Setting up bn_conv4_1b
I0411 19:41:01.726570  6434 net.cpp:148] Top shape: 32 128 8 8 (262144)
I0411 19:41:01.726577  6434 net.cpp:156] Memory required for data: 43385216
I0411 19:41:01.726589  6434 layer_factory.hpp:77] Creating layer scale_conv4_1b
I0411 19:41:01.726600  6434 net.cpp:91] Creating Layer scale_conv4_1b
I0411 19:41:01.726606  6434 net.cpp:425] scale_conv4_1b <- conv4_1b
I0411 19:41:01.726619  6434 net.cpp:386] scale_conv4_1b -> conv4_1b (in-place)
I0411 19:41:01.726685  6434 layer_factory.hpp:77] Creating layer scale_conv4_1b
I0411 19:41:01.726851  6434 net.cpp:141] Setting up scale_conv4_1b
I0411 19:41:01.726866  6434 net.cpp:148] Top shape: 32 128 8 8 (262144)
I0411 19:41:01.726871  6434 net.cpp:156] Memory required for data: 44433792
I0411 19:41:01.726882  6434 layer_factory.hpp:77] Creating layer conv4_1b_relu
I0411 19:41:01.726891  6434 net.cpp:91] Creating Layer conv4_1b_relu
I0411 19:41:01.726898  6434 net.cpp:425] conv4_1b_relu <- conv4_1b
I0411 19:41:01.726907  6434 net.cpp:386] conv4_1b_relu -> conv4_1b (in-place)
I0411 19:41:01.727298  6434 net.cpp:141] Setting up conv4_1b_relu
I0411 19:41:01.727319  6434 net.cpp:148] Top shape: 32 128 8 8 (262144)
I0411 19:41:01.727326  6434 net.cpp:156] Memory required for data: 45482368
I0411 19:41:01.727334  6434 layer_factory.hpp:77] Creating layer conv4_down
I0411 19:41:01.727350  6434 net.cpp:91] Creating Layer conv4_down
I0411 19:41:01.727358  6434 net.cpp:425] conv4_down <- conv4_1b
I0411 19:41:01.727371  6434 net.cpp:399] conv4_down -> conv4_down
I0411 19:41:01.728710  6434 net.cpp:141] Setting up conv4_down
I0411 19:41:01.728732  6434 net.cpp:148] Top shape: 32 128 8 8 (262144)
I0411 19:41:01.728739  6434 net.cpp:156] Memory required for data: 46530944
I0411 19:41:01.728749  6434 layer_factory.hpp:77] Creating layer scale_conv4_down
I0411 19:41:01.728765  6434 net.cpp:91] Creating Layer scale_conv4_down
I0411 19:41:01.728772  6434 net.cpp:425] scale_conv4_down <- conv4_down
I0411 19:41:01.728783  6434 net.cpp:386] scale_conv4_down -> conv4_down (in-place)
I0411 19:41:01.728857  6434 layer_factory.hpp:77] Creating layer scale_conv4_down
I0411 19:41:01.729029  6434 net.cpp:141] Setting up scale_conv4_down
I0411 19:41:01.729043  6434 net.cpp:148] Top shape: 32 128 8 8 (262144)
I0411 19:41:01.729049  6434 net.cpp:156] Memory required for data: 47579520
I0411 19:41:01.729059  6434 layer_factory.hpp:77] Creating layer scale_conv4_down_c
I0411 19:41:01.729073  6434 net.cpp:91] Creating Layer scale_conv4_down_c
I0411 19:41:01.729079  6434 net.cpp:425] scale_conv4_down_c <- conv4_down
I0411 19:41:01.729089  6434 net.cpp:386] scale_conv4_down_c -> conv4_down (in-place)
I0411 19:41:01.729223  6434 net.cpp:141] Setting up scale_conv4_down_c
I0411 19:41:01.729238  6434 net.cpp:148] Top shape: 32 128 8 8 (262144)
I0411 19:41:01.729244  6434 net.cpp:156] Memory required for data: 48628096
I0411 19:41:01.729264  6434 layer_factory.hpp:77] Creating layer global_in
I0411 19:41:01.729276  6434 net.cpp:91] Creating Layer global_in
I0411 19:41:01.729284  6434 net.cpp:425] global_in <- conv1_down
I0411 19:41:01.729291  6434 net.cpp:425] global_in <- conv2_down
I0411 19:41:01.729300  6434 net.cpp:425] global_in <- conv3_down
I0411 19:41:01.729306  6434 net.cpp:425] global_in <- conv4_down
I0411 19:41:01.729317  6434 net.cpp:399] global_in -> global_in
I0411 19:41:01.729357  6434 net.cpp:141] Setting up global_in
I0411 19:41:01.729368  6434 net.cpp:148] Top shape: 32 128 8 8 (262144)
I0411 19:41:01.729375  6434 net.cpp:156] Memory required for data: 49676672
I0411 19:41:01.729382  6434 layer_factory.hpp:77] Creating layer global_pool
I0411 19:41:01.729394  6434 net.cpp:91] Creating Layer global_pool
I0411 19:41:01.729401  6434 net.cpp:425] global_pool <- global_in
I0411 19:41:01.729410  6434 net.cpp:399] global_pool -> global_pool
I0411 19:41:01.729692  6434 net.cpp:141] Setting up global_pool
I0411 19:41:01.729710  6434 net.cpp:148] Top shape: 32 128 1 1 (4096)
I0411 19:41:01.729717  6434 net.cpp:156] Memory required for data: 49693056
I0411 19:41:01.729724  6434 layer_factory.hpp:77] Creating layer ip
I0411 19:41:01.729734  6434 net.cpp:91] Creating Layer ip
I0411 19:41:01.729742  6434 net.cpp:425] ip <- global_pool
I0411 19:41:01.729753  6434 net.cpp:399] ip -> ip
I0411 19:41:01.729918  6434 net.cpp:141] Setting up ip
I0411 19:41:01.729931  6434 net.cpp:148] Top shape: 32 10 (320)
I0411 19:41:01.729938  6434 net.cpp:156] Memory required for data: 49694336
I0411 19:41:01.729948  6434 layer_factory.hpp:77] Creating layer ip_ip_0_split
I0411 19:41:01.729959  6434 net.cpp:91] Creating Layer ip_ip_0_split
I0411 19:41:01.729964  6434 net.cpp:425] ip_ip_0_split <- ip
I0411 19:41:01.729974  6434 net.cpp:399] ip_ip_0_split -> ip_ip_0_split_0
I0411 19:41:01.729984  6434 net.cpp:399] ip_ip_0_split -> ip_ip_0_split_1
I0411 19:41:01.730043  6434 net.cpp:141] Setting up ip_ip_0_split
I0411 19:41:01.730054  6434 net.cpp:148] Top shape: 32 10 (320)
I0411 19:41:01.730062  6434 net.cpp:148] Top shape: 32 10 (320)
I0411 19:41:01.730068  6434 net.cpp:156] Memory required for data: 49696896
I0411 19:41:01.730075  6434 layer_factory.hpp:77] Creating layer accuracy
I0411 19:41:01.730087  6434 net.cpp:91] Creating Layer accuracy
I0411 19:41:01.730094  6434 net.cpp:425] accuracy <- ip_ip_0_split_0
I0411 19:41:01.730103  6434 net.cpp:425] accuracy <- label_data_1_split_0
I0411 19:41:01.730111  6434 net.cpp:399] accuracy -> accuracy
…
