…
I0411 13:05:54.589306 15915 net.cpp:313] The NetState phase (0) differed from the phase (1) specified by a rule in layer data
I0411 13:05:54.589522 15915 net.cpp:49] Initializing net from parameters: 
name: "CifarResNet0"
state {
  phase: TRAIN
}
layer {
  name: "data"
  type: "Data"
  top: "data"
  top: "label"
  include {
    phase: TRAIN
  }
  transform_param {
    mean_file: "/home/liangjiang/code/residual_network/data/cifar10/mean.binaryproto"
  }
  data_param {
    source: "/home/liangjiang/code/residual_network/data/cifar10/cifar10_train_lmdb"
    batch_size: 256
    backend: LMDB
  }
}
layer {
  name: "conv1"
  type: "Convolution"
  bottom: "data"
  top: "conv1"
  param {
    lr_mult: 1
  }
  param {
    lr_mult: 2
  }
  convolution_param {
    num_output: 8
    pad: 1
    kernel_size: 3
    stride: 1
    weight_filler {
      type: "msra"
    }
    bias_filler {
      type: "constant"
      value: 0
    }
  }
}
layer {
  name: "bn_conv1"
  type: "BatchNorm"
  bottom: "conv1"
  top: "conv1"
  param {
    lr_mult: 0
  }
  param {
    lr_mult: 0
  }
  param {
    lr_mult: 0
  }
}
layer {
  name: "scale_conv1"
  type: "Scale"
  bottom: "conv1"
  top: "conv1"
  param {
    lr_mult: 1
  }
  param {
    lr_mult: 2
  }
  scale_param {
    bias_term: true
  }
}
layer {
  name: "conv1_relu"
  type: "ReLU"
  bottom: "conv1"
  top: "conv1"
}
layer {
  name: "conv1_down"
  type: "Convolution"
  bottom: "conv1"
  top: "conv1_down"
  param {
    lr_mult: 0
  }
  convolution_param {
    num_output: 128
    bias_term: false
    pad: 0
    kernel_size: 4
    stride: 4
    weight_filler {
      type: "downsample"
      value: 1
    }
  }
}
layer {
  name: "scale_conv1_down"
  type: "Scale"
  bottom: "conv1_down"
  top: "conv1_down"
  param {
    lr_mult: 1
  }
  param {
    lr_mult: 2
  }
  scale_param {
    filler {
      type: "constant"
      value: 1
    }
    bias_term: true
  }
}
layer {
  name: "conv2_1a"
  type: "Convolution"
  bottom: "conv1"
  top: "conv2_1a"
  param {
    lr_mult: 1
  }
  param {
    lr_mult: 2
  }
  convolution_param {
    num_output: 8
    pad: 1
    kernel_size: 3
    stride: 1
    weight_filler {
      type: "msra"
    }
    bias_filler {
      type: "constant"
      value: 0
    }
  }
}
layer {
  name: "bn_conv2_1a"
  type: "BatchNorm"
  bottom: "conv2_1a"
  top: "conv2_1a"
  param {
    lr_mult: 0
  }
  param {
    lr_mult: 0
  }
  param {
    lr_mult: 0
  }
}
layer {
  name: "scale_conv2_1a"
  type: "Scale"
  bottom: "conv2_1a"
  top: "conv2_1a"
  param {
    lr_mult: 1
  }
  param {
    lr_mult: 2
  }
  scale_param {
    bias_term: true
  }
}
layer {
  name: "conv2_1a_relu"
  type: "ReLU"
  bottom: "conv2_1a"
  top: "conv2_1a"
}
layer {
  name: "conv2_1b"
  type: "Convolution"
  bottom: "conv2_1a"
  top: "conv2_1b"
  param {
    lr_mult: 1
  }
  param {
    lr_mult: 2
  }
  convolution_param {
    num_output: 8
    pad: 1
    kernel_size: 3
    stride: 1
    weight_filler {
      type: "msra"
    }
    bias_filler {
      type: "constant"
      value: 0
    }
  }
}
layer {
  name: "bn_conv2_1b"
  type: "BatchNorm"
  bottom: "conv2_1b"
  top: "conv2_1b"
  param {
    lr_mult: 0
  }
  param {
    lr_mult: 0
  }
  param {
    lr_mult: 0
  }
}
layer {
  name: "scale_conv2_1b"
  type: "Scale"
  bottom: "conv2_1b"
  top: "conv2_1b"
  param {
    lr_mult: 1
  }
  param {
    lr_mult: 2
  }
  scale_param {
    bias_term: true
  }
}
layer {
  name: "conv2_1b_relu"
  type: "ReLU"
  bottom: "conv2_1b"
  top: "conv2_1b"
}
layer {
  name: "conv2_down"
  type: "Convolution"
  bottom: "conv2_1b"
  top: "conv2_down"
  param {
    lr_mult: 0
  }
  convolution_param {
    num_output: 128
    bias_term: false
    pad: 0
    kernel_size: 4
    stride: 4
    weight_filler {
      type: "downsample"
      value: 1
    }
  }
}
layer {
  name: "scale_conv2_down"
  type: "Scale"
  bottom: "conv2_down"
  top: "conv2_down"
  param {
    lr_mult: 1
  }
  param {
    lr_mult: 2
  }
  scale_param {
    filler {
      type: "constant"
      value: 1
    }
    bias_term: true
  }
}
layer {
  name: "global_in"
  type: "Eltwise"
  bottom: "conv1_down"
  bottom: "conv2_down"
  top: "global_in"
}
layer {
  name: "global_pool"
  type: "Pooling"
  bottom: "global_in"
  top: "global_pool"
  pooling_param {
    pool: AVE
    kernel_size: 8
  }
}
layer {
  name: "ip"
  type: "InnerProduct"
  bottom: "global_pool"
  top: "ip"
  param {
    lr_mult: 1
  }
  param {
    lr_mult: 2
  }
  inner_product_param {
    num_output: 10
  }
}
layer {
  name: "accuracy"
  type: "Accuracy"
  bottom: "ip"
  bottom: "label"
  top: "accuracy"
}
layer {
  name: "loss"
  type: "SoftmaxWithLoss"
  bottom: "ip"
  bottom: "label"
  top: "loss"
}
I0411 13:05:54.589661 15915 layer_factory.hpp:77] Creating layer data
I0411 13:05:54.590850 15915 net.cpp:91] Creating Layer data
I0411 13:05:54.590912 15915 net.cpp:399] data -> data
I0411 13:05:54.590970 15915 net.cpp:399] data -> label
I0411 13:05:54.590992 15915 data_transformer.cpp:25] Loading mean file from: /home/liangjiang/code/residual_network/data/cifar10/mean.binaryproto
I0411 13:05:54.596734 15983 db_lmdb.cpp:38] Opened lmdb /home/liangjiang/code/residual_network/data/cifar10/cifar10_train_lmdb
I0411 13:05:54.603409 15915 data_layer.cpp:41] output data size: 256,3,32,32
I0411 13:05:54.608774 15915 net.cpp:141] Setting up data
I0411 13:05:54.608798 15915 net.cpp:148] Top shape: 256 3 32 32 (786432)
I0411 13:05:54.608804 15915 net.cpp:148] Top shape: 256 (256)
I0411 13:05:54.608808 15915 net.cpp:156] Memory required for data: 3146752
I0411 13:05:54.608815 15915 layer_factory.hpp:77] Creating layer label_data_1_split
I0411 13:05:54.608840 15915 net.cpp:91] Creating Layer label_data_1_split
I0411 13:05:54.608846 15915 net.cpp:425] label_data_1_split <- label
I0411 13:05:54.608857 15915 net.cpp:399] label_data_1_split -> label_data_1_split_0
I0411 13:05:54.608870 15915 net.cpp:399] label_data_1_split -> label_data_1_split_1
I0411 13:05:54.608944 15915 net.cpp:141] Setting up label_data_1_split
I0411 13:05:54.608955 15915 net.cpp:148] Top shape: 256 (256)
I0411 13:05:54.608960 15915 net.cpp:148] Top shape: 256 (256)
I0411 13:05:54.608963 15915 net.cpp:156] Memory required for data: 3148800
I0411 13:05:54.608968 15915 layer_factory.hpp:77] Creating layer conv1
I0411 13:05:54.608984 15915 net.cpp:91] Creating Layer conv1
I0411 13:05:54.608989 15915 net.cpp:425] conv1 <- data
I0411 13:05:54.608996 15915 net.cpp:399] conv1 -> conv1
I0411 13:05:54.770495 15915 net.cpp:141] Setting up conv1
I0411 13:05:54.770542 15915 net.cpp:148] Top shape: 256 8 32 32 (2097152)
I0411 13:05:54.770547 15915 net.cpp:156] Memory required for data: 11537408
I0411 13:05:54.770567 15915 layer_factory.hpp:77] Creating layer bn_conv1
I0411 13:05:54.770581 15915 net.cpp:91] Creating Layer bn_conv1
I0411 13:05:54.770586 15915 net.cpp:425] bn_conv1 <- conv1
I0411 13:05:54.770593 15915 net.cpp:386] bn_conv1 -> conv1 (in-place)
I0411 13:05:54.770743 15915 net.cpp:141] Setting up bn_conv1
I0411 13:05:54.770751 15915 net.cpp:148] Top shape: 256 8 32 32 (2097152)
I0411 13:05:54.770756 15915 net.cpp:156] Memory required for data: 19926016
I0411 13:05:54.770766 15915 layer_factory.hpp:77] Creating layer scale_conv1
I0411 13:05:54.770776 15915 net.cpp:91] Creating Layer scale_conv1
I0411 13:05:54.770781 15915 net.cpp:425] scale_conv1 <- conv1
I0411 13:05:54.770787 15915 net.cpp:386] scale_conv1 -> conv1 (in-place)
I0411 13:05:54.770819 15915 layer_factory.hpp:77] Creating layer scale_conv1
I0411 13:05:54.770926 15915 net.cpp:141] Setting up scale_conv1
I0411 13:05:54.770934 15915 net.cpp:148] Top shape: 256 8 32 32 (2097152)
I0411 13:05:54.770938 15915 net.cpp:156] Memory required for data: 28314624
I0411 13:05:54.770946 15915 layer_factory.hpp:77] Creating layer conv1_relu
I0411 13:05:54.770964 15915 net.cpp:91] Creating Layer conv1_relu
I0411 13:05:54.770968 15915 net.cpp:425] conv1_relu <- conv1
I0411 13:05:54.770974 15915 net.cpp:386] conv1_relu -> conv1 (in-place)
I0411 13:05:54.771241 15915 net.cpp:141] Setting up conv1_relu
I0411 13:05:54.771267 15915 net.cpp:148] Top shape: 256 8 32 32 (2097152)
I0411 13:05:54.771272 15915 net.cpp:156] Memory required for data: 36703232
I0411 13:05:54.771276 15915 layer_factory.hpp:77] Creating layer conv1_conv1_relu_0_split
I0411 13:05:54.771283 15915 net.cpp:91] Creating Layer conv1_conv1_relu_0_split
I0411 13:05:54.771288 15915 net.cpp:425] conv1_conv1_relu_0_split <- conv1
I0411 13:05:54.771304 15915 net.cpp:399] conv1_conv1_relu_0_split -> conv1_conv1_relu_0_split_0
I0411 13:05:54.771312 15915 net.cpp:399] conv1_conv1_relu_0_split -> conv1_conv1_relu_0_split_1
I0411 13:05:54.771345 15915 net.cpp:141] Setting up conv1_conv1_relu_0_split
I0411 13:05:54.771353 15915 net.cpp:148] Top shape: 256 8 32 32 (2097152)
I0411 13:05:54.771356 15915 net.cpp:148] Top shape: 256 8 32 32 (2097152)
I0411 13:05:54.771360 15915 net.cpp:156] Memory required for data: 53480448
I0411 13:05:54.771364 15915 layer_factory.hpp:77] Creating layer conv1_down
I0411 13:05:54.771373 15915 net.cpp:91] Creating Layer conv1_down
I0411 13:05:54.771378 15915 net.cpp:425] conv1_down <- conv1_conv1_relu_0_split_0
I0411 13:05:54.771384 15915 net.cpp:399] conv1_down -> conv1_down
I0411 13:05:54.772426 15915 net.cpp:141] Setting up conv1_down
I0411 13:05:54.772440 15915 net.cpp:148] Top shape: 256 128 8 8 (2097152)
I0411 13:05:54.772445 15915 net.cpp:156] Memory required for data: 61869056
I0411 13:05:54.772451 15915 layer_factory.hpp:77] Creating layer scale_conv1_down
I0411 13:05:54.772461 15915 net.cpp:91] Creating Layer scale_conv1_down
I0411 13:05:54.772465 15915 net.cpp:425] scale_conv1_down <- conv1_down
I0411 13:05:54.772472 15915 net.cpp:386] scale_conv1_down -> conv1_down (in-place)
I0411 13:05:54.772508 15915 layer_factory.hpp:77] Creating layer scale_conv1_down
I0411 13:05:54.772590 15915 net.cpp:141] Setting up scale_conv1_down
I0411 13:05:54.772598 15915 net.cpp:148] Top shape: 256 128 8 8 (2097152)
I0411 13:05:54.772601 15915 net.cpp:156] Memory required for data: 70257664
I0411 13:05:54.772616 15915 layer_factory.hpp:77] Creating layer conv2_1a
I0411 13:05:54.772626 15915 net.cpp:91] Creating Layer conv2_1a
I0411 13:05:54.772630 15915 net.cpp:425] conv2_1a <- conv1_conv1_relu_0_split_1
I0411 13:05:54.772637 15915 net.cpp:399] conv2_1a -> conv2_1a
I0411 13:05:54.773484 15915 net.cpp:141] Setting up conv2_1a
I0411 13:05:54.773499 15915 net.cpp:148] Top shape: 256 8 32 32 (2097152)
I0411 13:05:54.773504 15915 net.cpp:156] Memory required for data: 78646272
I0411 13:05:54.773511 15915 layer_factory.hpp:77] Creating layer bn_conv2_1a
I0411 13:05:54.773519 15915 net.cpp:91] Creating Layer bn_conv2_1a
I0411 13:05:54.773524 15915 net.cpp:425] bn_conv2_1a <- conv2_1a
I0411 13:05:54.773530 15915 net.cpp:386] bn_conv2_1a -> conv2_1a (in-place)
I0411 13:05:54.773671 15915 net.cpp:141] Setting up bn_conv2_1a
I0411 13:05:54.773679 15915 net.cpp:148] Top shape: 256 8 32 32 (2097152)
I0411 13:05:54.773682 15915 net.cpp:156] Memory required for data: 87034880
I0411 13:05:54.773689 15915 layer_factory.hpp:77] Creating layer scale_conv2_1a
I0411 13:05:54.773696 15915 net.cpp:91] Creating Layer scale_conv2_1a
I0411 13:05:54.773700 15915 net.cpp:425] scale_conv2_1a <- conv2_1a
I0411 13:05:54.773705 15915 net.cpp:386] scale_conv2_1a -> conv2_1a (in-place)
I0411 13:05:54.773735 15915 layer_factory.hpp:77] Creating layer scale_conv2_1a
I0411 13:05:54.773814 15915 net.cpp:141] Setting up scale_conv2_1a
I0411 13:05:54.773821 15915 net.cpp:148] Top shape: 256 8 32 32 (2097152)
I0411 13:05:54.773824 15915 net.cpp:156] Memory required for data: 95423488
I0411 13:05:54.773833 15915 layer_factory.hpp:77] Creating layer conv2_1a_relu
I0411 13:05:54.773839 15915 net.cpp:91] Creating Layer conv2_1a_relu
I0411 13:05:54.773844 15915 net.cpp:425] conv2_1a_relu <- conv2_1a
I0411 13:05:54.773849 15915 net.cpp:386] conv2_1a_relu -> conv2_1a (in-place)
I0411 13:05:54.774107 15915 net.cpp:141] Setting up conv2_1a_relu
I0411 13:05:54.774121 15915 net.cpp:148] Top shape: 256 8 32 32 (2097152)
I0411 13:05:54.774124 15915 net.cpp:156] Memory required for data: 103812096
I0411 13:05:54.774129 15915 layer_factory.hpp:77] Creating layer conv2_1b
I0411 13:05:54.774139 15915 net.cpp:91] Creating Layer conv2_1b
I0411 13:05:54.774155 15915 net.cpp:425] conv2_1b <- conv2_1a
I0411 13:05:54.774163 15915 net.cpp:399] conv2_1b -> conv2_1b
I0411 13:05:54.774997 15915 net.cpp:141] Setting up conv2_1b
I0411 13:05:54.775012 15915 net.cpp:148] Top shape: 256 8 32 32 (2097152)
I0411 13:05:54.775015 15915 net.cpp:156] Memory required for data: 112200704
I0411 13:05:54.775022 15915 layer_factory.hpp:77] Creating layer bn_conv2_1b
I0411 13:05:54.775030 15915 net.cpp:91] Creating Layer bn_conv2_1b
I0411 13:05:54.775034 15915 net.cpp:425] bn_conv2_1b <- conv2_1b
I0411 13:05:54.775040 15915 net.cpp:386] bn_conv2_1b -> conv2_1b (in-place)
I0411 13:05:54.775198 15915 net.cpp:141] Setting up bn_conv2_1b
I0411 13:05:54.775207 15915 net.cpp:148] Top shape: 256 8 32 32 (2097152)
I0411 13:05:54.775210 15915 net.cpp:156] Memory required for data: 120589312
I0411 13:05:54.775218 15915 layer_factory.hpp:77] Creating layer scale_conv2_1b
I0411 13:05:54.775224 15915 net.cpp:91] Creating Layer scale_conv2_1b
I0411 13:05:54.775228 15915 net.cpp:425] scale_conv2_1b <- conv2_1b
I0411 13:05:54.775233 15915 net.cpp:386] scale_conv2_1b -> conv2_1b (in-place)
I0411 13:05:54.775265 15915 layer_factory.hpp:77] Creating layer scale_conv2_1b
I0411 13:05:54.775355 15915 net.cpp:141] Setting up scale_conv2_1b
I0411 13:05:54.775362 15915 net.cpp:148] Top shape: 256 8 32 32 (2097152)
I0411 13:05:54.775367 15915 net.cpp:156] Memory required for data: 128977920
I0411 13:05:54.775372 15915 layer_factory.hpp:77] Creating layer conv2_1b_relu
I0411 13:05:54.775382 15915 net.cpp:91] Creating Layer conv2_1b_relu
I0411 13:05:54.775385 15915 net.cpp:425] conv2_1b_relu <- conv2_1b
I0411 13:05:54.775390 15915 net.cpp:386] conv2_1b_relu -> conv2_1b (in-place)
I0411 13:05:54.775537 15915 net.cpp:141] Setting up conv2_1b_relu
I0411 13:05:54.775547 15915 net.cpp:148] Top shape: 256 8 32 32 (2097152)
I0411 13:05:54.775555 15915 net.cpp:156] Memory required for data: 137366528
I0411 13:05:54.775559 15915 layer_factory.hpp:77] Creating layer conv2_down
I0411 13:05:54.775570 15915 net.cpp:91] Creating Layer conv2_down
I0411 13:05:54.775575 15915 net.cpp:425] conv2_down <- conv2_1b
I0411 13:05:54.775581 15915 net.cpp:399] conv2_down -> conv2_down
I0411 13:05:54.776386 15915 net.cpp:141] Setting up conv2_down
I0411 13:05:54.776399 15915 net.cpp:148] Top shape: 256 128 8 8 (2097152)
I0411 13:05:54.776403 15915 net.cpp:156] Memory required for data: 145755136
I0411 13:05:54.776409 15915 layer_factory.hpp:77] Creating layer scale_conv2_down
I0411 13:05:54.776418 15915 net.cpp:91] Creating Layer scale_conv2_down
I0411 13:05:54.776422 15915 net.cpp:425] scale_conv2_down <- conv2_down
I0411 13:05:54.776428 15915 net.cpp:386] scale_conv2_down -> conv2_down (in-place)
I0411 13:05:54.776468 15915 layer_factory.hpp:77] Creating layer scale_conv2_down
I0411 13:05:54.776561 15915 net.cpp:141] Setting up scale_conv2_down
I0411 13:05:54.776567 15915 net.cpp:148] Top shape: 256 128 8 8 (2097152)
I0411 13:05:54.776571 15915 net.cpp:156] Memory required for data: 154143744
I0411 13:05:54.776577 15915 layer_factory.hpp:77] Creating layer global_in
I0411 13:05:54.776583 15915 net.cpp:91] Creating Layer global_in
I0411 13:05:54.776587 15915 net.cpp:425] global_in <- conv1_down
I0411 13:05:54.776594 15915 net.cpp:425] global_in <- conv2_down
I0411 13:05:54.776599 15915 net.cpp:399] global_in -> global_in
I0411 13:05:54.776623 15915 net.cpp:141] Setting up global_in
I0411 13:05:54.776631 15915 net.cpp:148] Top shape: 256 128 8 8 (2097152)
I0411 13:05:54.776635 15915 net.cpp:156] Memory required for data: 162532352
I0411 13:05:54.776639 15915 layer_factory.hpp:77] Creating layer global_pool
I0411 13:05:54.776646 15915 net.cpp:91] Creating Layer global_pool
I0411 13:05:54.776650 15915 net.cpp:425] global_pool <- global_in
I0411 13:05:54.776655 15915 net.cpp:399] global_pool -> global_pool
I0411 13:05:54.776818 15915 net.cpp:141] Setting up global_pool
I0411 13:05:54.776828 15915 net.cpp:148] Top shape: 256 128 1 1 (32768)
I0411 13:05:54.776830 15915 net.cpp:156] Memory required for data: 162663424
I0411 13:05:54.776834 15915 layer_factory.hpp:77] Creating layer ip
I0411 13:05:54.776844 15915 net.cpp:91] Creating Layer ip
I0411 13:05:54.776849 15915 net.cpp:425] ip <- global_pool
I0411 13:05:54.776854 15915 net.cpp:399] ip -> ip
I0411 13:05:54.776954 15915 net.cpp:141] Setting up ip
I0411 13:05:54.776962 15915 net.cpp:148] Top shape: 256 10 (2560)
I0411 13:05:54.776967 15915 net.cpp:156] Memory required for data: 162673664
I0411 13:05:54.776973 15915 layer_factory.hpp:77] Creating layer ip_ip_0_split
I0411 13:05:54.776978 15915 net.cpp:91] Creating Layer ip_ip_0_split
I0411 13:05:54.776983 15915 net.cpp:425] ip_ip_0_split <- ip
I0411 13:05:54.776988 15915 net.cpp:399] ip_ip_0_split -> ip_ip_0_split_0
I0411 13:05:54.776995 15915 net.cpp:399] ip_ip_0_split -> ip_ip_0_split_1
I0411 13:05:54.777022 15915 net.cpp:141] Setting up ip_ip_0_split
I0411 13:05:54.777029 15915 net.cpp:148] Top shape: 256 10 (2560)
I0411 13:05:54.777032 15915 net.cpp:148] Top shape: 256 10 (2560)
I0411 13:05:54.777036 15915 net.cpp:156] Memory required for data: 162694144
I0411 13:05:54.777040 15915 layer_factory.hpp:77] Creating layer accuracy
I0411 13:05:54.777048 15915 net.cpp:91] Creating Layer accuracy
I0411 13:05:54.777052 15915 net.cpp:425] accuracy <- ip_ip_0_split_0
I0411 13:05:54.777057 15915 net.cpp:425] accuracy <- label_data_1_split_0
I0411 13:05:54.777062 15915 net.cpp:399] accuracy -> accuracy
…
I0411 13:05:54.778282 15915 net.cpp:313] The NetState phase (1) differed from the phase (0) specified by a rule in layer data
I0411 13:05:54.778425 15915 net.cpp:49] Initializing net from parameters: 
name: "CifarResNet0"
state {
  phase: TEST
}
layer {
  name: "data"
  type: "Data"
  top: "data"
  top: "label"
  include {
    phase: TEST
  }
  transform_param {
    mean_file: "/home/liangjiang/code/residual_network/data/cifar10/mean.binaryproto"
  }
  data_param {
    source: "/home/liangjiang/code/residual_network/data/cifar10/cifar10_test_lmdb"
    batch_size: 32
    backend: LMDB
  }
}
layer {
  name: "conv1"
  type: "Convolution"
  bottom: "data"
  top: "conv1"
  param {
    lr_mult: 1
  }
  param {
    lr_mult: 2
  }
  convolution_param {
    num_output: 8
    pad: 1
    kernel_size: 3
    stride: 1
    weight_filler {
      type: "msra"
    }
    bias_filler {
      type: "constant"
      value: 0
    }
  }
}
layer {
  name: "bn_conv1"
  type: "BatchNorm"
  bottom: "conv1"
  top: "conv1"
  param {
    lr_mult: 0
  }
  param {
    lr_mult: 0
  }
  param {
    lr_mult: 0
  }
}
layer {
  name: "scale_conv1"
  type: "Scale"
  bottom: "conv1"
  top: "conv1"
  param {
    lr_mult: 1
  }
  param {
    lr_mult: 2
  }
  scale_param {
    bias_term: true
  }
}
layer {
  name: "conv1_relu"
  type: "ReLU"
  bottom: "conv1"
  top: "conv1"
}
layer {
  name: "conv1_down"
  type: "Convolution"
  bottom: "conv1"
  top: "conv1_down"
  param {
    lr_mult: 0
  }
  convolution_param {
    num_output: 128
    bias_term: false
    pad: 0
    kernel_size: 4
    stride: 4
    weight_filler {
      type: "downsample"
      value: 1
    }
  }
}
layer {
  name: "scale_conv1_down"
  type: "Scale"
  bottom: "conv1_down"
  top: "conv1_down"
  param {
    lr_mult: 1
  }
  param {
    lr_mult: 2
  }
  scale_param {
    filler {
      type: "constant"
      value: 1
    }
    bias_term: true
  }
}
layer {
  name: "conv2_1a"
  type: "Convolution"
  bottom: "conv1"
  top: "conv2_1a"
  param {
    lr_mult: 1
  }
  param {
    lr_mult: 2
  }
  convolution_param {
    num_output: 8
    pad: 1
    kernel_size: 3
    stride: 1
    weight_filler {
      type: "msra"
    }
    bias_filler {
      type: "constant"
      value: 0
    }
  }
}
layer {
  name: "bn_conv2_1a"
  type: "BatchNorm"
  bottom: "conv2_1a"
  top: "conv2_1a"
  param {
    lr_mult: 0
  }
  param {
    lr_mult: 0
  }
  param {
    lr_mult: 0
  }
}
layer {
  name: "scale_conv2_1a"
  type: "Scale"
  bottom: "conv2_1a"
  top: "conv2_1a"
  param {
    lr_mult: 1
  }
  param {
    lr_mult: 2
  }
  scale_param {
    bias_term: true
  }
}
layer {
  name: "conv2_1a_relu"
  type: "ReLU"
  bottom: "conv2_1a"
  top: "conv2_1a"
}
layer {
  name: "conv2_1b"
  type: "Convolution"
  bottom: "conv2_1a"
  top: "conv2_1b"
  param {
    lr_mult: 1
  }
  param {
    lr_mult: 2
  }
  convolution_param {
    num_output: 8
    pad: 1
    kernel_size: 3
    stride: 1
    weight_filler {
      type: "msra"
    }
    bias_filler {
      type: "constant"
      value: 0
    }
  }
}
layer {
  name: "bn_conv2_1b"
  type: "BatchNorm"
  bottom: "conv2_1b"
  top: "conv2_1b"
  param {
    lr_mult: 0
  }
  param {
    lr_mult: 0
  }
  param {
    lr_mult: 0
  }
}
layer {
  name: "scale_conv2_1b"
  type: "Scale"
  bottom: "conv2_1b"
  top: "conv2_1b"
  param {
    lr_mult: 1
  }
  param {
    lr_mult: 2
  }
  scale_param {
    bias_term: true
  }
}
layer {
  name: "conv2_1b_relu"
  type: "ReLU"
  bottom: "conv2_1b"
  top: "conv2_1b"
}
layer {
  name: "conv2_down"
  type: "Convolution"
  bottom: "conv2_1b"
  top: "conv2_down"
  param {
    lr_mult: 0
  }
  convolution_param {
    num_output: 128
    bias_term: false
    pad: 0
    kernel_size: 4
    stride: 4
    weight_filler {
      type: "downsample"
      value: 1
    }
  }
}
layer {
  name: "scale_conv2_down"
  type: "Scale"
  bottom: "conv2_down"
  top: "conv2_down"
  param {
    lr_mult: 1
  }
  param {
    lr_mult: 2
  }
  scale_param {
    filler {
      type: "constant"
      value: 1
    }
    bias_term: true
  }
}
layer {
  name: "global_in"
  type: "Eltwise"
  bottom: "conv1_down"
  bottom: "conv2_down"
  top: "global_in"
}
layer {
  name: "global_pool"
  type: "Pooling"
  bottom: "global_in"
  top: "global_pool"
  pooling_param {
    pool: AVE
    kernel_size: 8
  }
}
layer {
  name: "ip"
  type: "InnerProduct"
  bottom: "global_pool"
  top: "ip"
  param {
    lr_mult: 1
  }
  param {
    lr_mult: 2
  }
  inner_product_param {
    num_output: 10
  }
}
layer {
  name: "accuracy"
  type: "Accuracy"
  bottom: "ip"
  bottom: "label"
  top: "accuracy"
}
layer {
  name: "loss"
  type: "SoftmaxWithLoss"
  bottom: "ip"
  bottom: "label"
  top: "loss"
}
I0411 13:05:54.778527 15915 layer_factory.hpp:77] Creating layer data
I0411 13:05:54.778604 15915 net.cpp:91] Creating Layer data
I0411 13:05:54.778612 15915 net.cpp:399] data -> data
I0411 13:05:54.778623 15915 net.cpp:399] data -> label
I0411 13:05:54.778632 15915 data_transformer.cpp:25] Loading mean file from: /home/liangjiang/code/residual_network/data/cifar10/mean.binaryproto
I0411 13:05:54.779505 15987 db_lmdb.cpp:38] Opened lmdb /home/liangjiang/code/residual_network/data/cifar10/cifar10_test_lmdb
I0411 13:05:54.779611 15915 data_layer.cpp:41] output data size: 32,3,32,32
I0411 13:05:54.781038 15915 net.cpp:141] Setting up data
I0411 13:05:54.781052 15915 net.cpp:148] Top shape: 32 3 32 32 (98304)
I0411 13:05:54.781064 15915 net.cpp:148] Top shape: 32 (32)
I0411 13:05:54.781067 15915 net.cpp:156] Memory required for data: 393344
I0411 13:05:54.781071 15915 layer_factory.hpp:77] Creating layer label_data_1_split
I0411 13:05:54.781080 15915 net.cpp:91] Creating Layer label_data_1_split
I0411 13:05:54.781085 15915 net.cpp:425] label_data_1_split <- label
I0411 13:05:54.781090 15915 net.cpp:399] label_data_1_split -> label_data_1_split_0
I0411 13:05:54.781100 15915 net.cpp:399] label_data_1_split -> label_data_1_split_1
I0411 13:05:54.781303 15915 net.cpp:141] Setting up label_data_1_split
I0411 13:05:54.781316 15915 net.cpp:148] Top shape: 32 (32)
I0411 13:05:54.781322 15915 net.cpp:148] Top shape: 32 (32)
I0411 13:05:54.781325 15915 net.cpp:156] Memory required for data: 393600
I0411 13:05:54.781329 15915 layer_factory.hpp:77] Creating layer conv1
I0411 13:05:54.781345 15915 net.cpp:91] Creating Layer conv1
I0411 13:05:54.781349 15915 net.cpp:425] conv1 <- data
I0411 13:05:54.781360 15915 net.cpp:399] conv1 -> conv1
I0411 13:05:54.782269 15915 net.cpp:141] Setting up conv1
I0411 13:05:54.782285 15915 net.cpp:148] Top shape: 32 8 32 32 (262144)
I0411 13:05:54.782290 15915 net.cpp:156] Memory required for data: 1442176
I0411 13:05:54.782300 15915 layer_factory.hpp:77] Creating layer bn_conv1
I0411 13:05:54.782310 15915 net.cpp:91] Creating Layer bn_conv1
I0411 13:05:54.782315 15915 net.cpp:425] bn_conv1 <- conv1
I0411 13:05:54.782321 15915 net.cpp:386] bn_conv1 -> conv1 (in-place)
I0411 13:05:54.782552 15915 net.cpp:141] Setting up bn_conv1
I0411 13:05:54.782562 15915 net.cpp:148] Top shape: 32 8 32 32 (262144)
I0411 13:05:54.782578 15915 net.cpp:156] Memory required for data: 2490752
I0411 13:05:54.782591 15915 layer_factory.hpp:77] Creating layer scale_conv1
I0411 13:05:54.782598 15915 net.cpp:91] Creating Layer scale_conv1
I0411 13:05:54.782603 15915 net.cpp:425] scale_conv1 <- conv1
I0411 13:05:54.782608 15915 net.cpp:386] scale_conv1 -> conv1 (in-place)
I0411 13:05:54.782677 15915 layer_factory.hpp:77] Creating layer scale_conv1
I0411 13:05:54.782776 15915 net.cpp:141] Setting up scale_conv1
I0411 13:05:54.782807 15915 net.cpp:148] Top shape: 32 8 32 32 (262144)
I0411 13:05:54.782810 15915 net.cpp:156] Memory required for data: 3539328
I0411 13:05:54.782817 15915 layer_factory.hpp:77] Creating layer conv1_relu
I0411 13:05:54.782824 15915 net.cpp:91] Creating Layer conv1_relu
I0411 13:05:54.782827 15915 net.cpp:425] conv1_relu <- conv1
I0411 13:05:54.782831 15915 net.cpp:386] conv1_relu -> conv1 (in-place)
I0411 13:05:54.783083 15915 net.cpp:141] Setting up conv1_relu
I0411 13:05:54.783097 15915 net.cpp:148] Top shape: 32 8 32 32 (262144)
I0411 13:05:54.783110 15915 net.cpp:156] Memory required for data: 4587904
I0411 13:05:54.783114 15915 layer_factory.hpp:77] Creating layer conv1_conv1_relu_0_split
I0411 13:05:54.783120 15915 net.cpp:91] Creating Layer conv1_conv1_relu_0_split
I0411 13:05:54.783124 15915 net.cpp:425] conv1_conv1_relu_0_split <- conv1
I0411 13:05:54.783131 15915 net.cpp:399] conv1_conv1_relu_0_split -> conv1_conv1_relu_0_split_0
I0411 13:05:54.783160 15915 net.cpp:399] conv1_conv1_relu_0_split -> conv1_conv1_relu_0_split_1
I0411 13:05:54.783200 15915 net.cpp:141] Setting up conv1_conv1_relu_0_split
I0411 13:05:54.783207 15915 net.cpp:148] Top shape: 32 8 32 32 (262144)
I0411 13:05:54.783212 15915 net.cpp:148] Top shape: 32 8 32 32 (262144)
I0411 13:05:54.783215 15915 net.cpp:156] Memory required for data: 6685056
I0411 13:05:54.783220 15915 layer_factory.hpp:77] Creating layer conv1_down
I0411 13:05:54.783229 15915 net.cpp:91] Creating Layer conv1_down
I0411 13:05:54.783242 15915 net.cpp:425] conv1_down <- conv1_conv1_relu_0_split_0
I0411 13:05:54.783257 15915 net.cpp:399] conv1_down -> conv1_down
I0411 13:05:54.784210 15915 net.cpp:141] Setting up conv1_down
I0411 13:05:54.784229 15915 net.cpp:148] Top shape: 32 128 8 8 (262144)
I0411 13:05:54.784232 15915 net.cpp:156] Memory required for data: 7733632
I0411 13:05:54.784238 15915 layer_factory.hpp:77] Creating layer scale_conv1_down
I0411 13:05:54.784255 15915 net.cpp:91] Creating Layer scale_conv1_down
I0411 13:05:54.784260 15915 net.cpp:425] scale_conv1_down <- conv1_down
I0411 13:05:54.784265 15915 net.cpp:386] scale_conv1_down -> conv1_down (in-place)
I0411 13:05:54.784318 15915 layer_factory.hpp:77] Creating layer scale_conv1_down
I0411 13:05:54.784415 15915 net.cpp:141] Setting up scale_conv1_down
I0411 13:05:54.784435 15915 net.cpp:148] Top shape: 32 128 8 8 (262144)
I0411 13:05:54.784438 15915 net.cpp:156] Memory required for data: 8782208
I0411 13:05:54.784449 15915 layer_factory.hpp:77] Creating layer conv2_1a
I0411 13:05:54.784468 15915 net.cpp:91] Creating Layer conv2_1a
I0411 13:05:54.784472 15915 net.cpp:425] conv2_1a <- conv1_conv1_relu_0_split_1
I0411 13:05:54.784482 15915 net.cpp:399] conv2_1a -> conv2_1a
I0411 13:05:54.785536 15915 net.cpp:141] Setting up conv2_1a
I0411 13:05:54.785555 15915 net.cpp:148] Top shape: 32 8 32 32 (262144)
I0411 13:05:54.785560 15915 net.cpp:156] Memory required for data: 9830784
I0411 13:05:54.785567 15915 layer_factory.hpp:77] Creating layer bn_conv2_1a
I0411 13:05:54.785575 15915 net.cpp:91] Creating Layer bn_conv2_1a
I0411 13:05:54.785580 15915 net.cpp:425] bn_conv2_1a <- conv2_1a
I0411 13:05:54.785588 15915 net.cpp:386] bn_conv2_1a -> conv2_1a (in-place)
I0411 13:05:54.785755 15915 net.cpp:141] Setting up bn_conv2_1a
I0411 13:05:54.785766 15915 net.cpp:148] Top shape: 32 8 32 32 (262144)
I0411 13:05:54.785779 15915 net.cpp:156] Memory required for data: 10879360
I0411 13:05:54.785787 15915 layer_factory.hpp:77] Creating layer scale_conv2_1a
I0411 13:05:54.785794 15915 net.cpp:91] Creating Layer scale_conv2_1a
I0411 13:05:54.785799 15915 net.cpp:425] scale_conv2_1a <- conv2_1a
I0411 13:05:54.785806 15915 net.cpp:386] scale_conv2_1a -> conv2_1a (in-place)
I0411 13:05:54.785842 15915 layer_factory.hpp:77] Creating layer scale_conv2_1a
I0411 13:05:54.785951 15915 net.cpp:141] Setting up scale_conv2_1a
I0411 13:05:54.785959 15915 net.cpp:148] Top shape: 32 8 32 32 (262144)
I0411 13:05:54.785962 15915 net.cpp:156] Memory required for data: 11927936
I0411 13:05:54.785971 15915 layer_factory.hpp:77] Creating layer conv2_1a_relu
I0411 13:05:54.785977 15915 net.cpp:91] Creating Layer conv2_1a_relu
I0411 13:05:54.785980 15915 net.cpp:425] conv2_1a_relu <- conv2_1a
I0411 13:05:54.785987 15915 net.cpp:386] conv2_1a_relu -> conv2_1a (in-place)
I0411 13:05:54.786236 15915 net.cpp:141] Setting up conv2_1a_relu
I0411 13:05:54.786248 15915 net.cpp:148] Top shape: 32 8 32 32 (262144)
I0411 13:05:54.786252 15915 net.cpp:156] Memory required for data: 12976512
I0411 13:05:54.786257 15915 layer_factory.hpp:77] Creating layer conv2_1b
I0411 13:05:54.786268 15915 net.cpp:91] Creating Layer conv2_1b
I0411 13:05:54.786273 15915 net.cpp:425] conv2_1b <- conv2_1a
I0411 13:05:54.786279 15915 net.cpp:399] conv2_1b -> conv2_1b
I0411 13:05:54.787039 15915 net.cpp:141] Setting up conv2_1b
I0411 13:05:54.787052 15915 net.cpp:148] Top shape: 32 8 32 32 (262144)
I0411 13:05:54.787056 15915 net.cpp:156] Memory required for data: 14025088
I0411 13:05:54.787062 15915 layer_factory.hpp:77] Creating layer bn_conv2_1b
I0411 13:05:54.787071 15915 net.cpp:91] Creating Layer bn_conv2_1b
I0411 13:05:54.787075 15915 net.cpp:425] bn_conv2_1b <- conv2_1b
I0411 13:05:54.787081 15915 net.cpp:386] bn_conv2_1b -> conv2_1b (in-place)
I0411 13:05:54.787246 15915 net.cpp:141] Setting up bn_conv2_1b
I0411 13:05:54.787253 15915 net.cpp:148] Top shape: 32 8 32 32 (262144)
I0411 13:05:54.787257 15915 net.cpp:156] Memory required for data: 15073664
I0411 13:05:54.787263 15915 layer_factory.hpp:77] Creating layer scale_conv2_1b
I0411 13:05:54.787273 15915 net.cpp:91] Creating Layer scale_conv2_1b
I0411 13:05:54.787278 15915 net.cpp:425] scale_conv2_1b <- conv2_1b
I0411 13:05:54.787283 15915 net.cpp:386] scale_conv2_1b -> conv2_1b (in-place)
I0411 13:05:54.787319 15915 layer_factory.hpp:77] Creating layer scale_conv2_1b
I0411 13:05:54.787413 15915 net.cpp:141] Setting up scale_conv2_1b
I0411 13:05:54.787420 15915 net.cpp:148] Top shape: 32 8 32 32 (262144)
I0411 13:05:54.787427 15915 net.cpp:156] Memory required for data: 16122240
I0411 13:05:54.787433 15915 layer_factory.hpp:77] Creating layer conv2_1b_relu
I0411 13:05:54.787441 15915 net.cpp:91] Creating Layer conv2_1b_relu
I0411 13:05:54.787444 15915 net.cpp:425] conv2_1b_relu <- conv2_1b
I0411 13:05:54.787451 15915 net.cpp:386] conv2_1b_relu -> conv2_1b (in-place)
I0411 13:05:54.787698 15915 net.cpp:141] Setting up conv2_1b_relu
I0411 13:05:54.787710 15915 net.cpp:148] Top shape: 32 8 32 32 (262144)
I0411 13:05:54.787714 15915 net.cpp:156] Memory required for data: 17170816
I0411 13:05:54.787719 15915 layer_factory.hpp:77] Creating layer conv2_down
I0411 13:05:54.787729 15915 net.cpp:91] Creating Layer conv2_down
I0411 13:05:54.787734 15915 net.cpp:425] conv2_down <- conv2_1b
I0411 13:05:54.787740 15915 net.cpp:399] conv2_down -> conv2_down
I0411 13:05:54.788542 15915 net.cpp:141] Setting up conv2_down
I0411 13:05:54.788557 15915 net.cpp:148] Top shape: 32 128 8 8 (262144)
I0411 13:05:54.788560 15915 net.cpp:156] Memory required for data: 18219392
I0411 13:05:54.788566 15915 layer_factory.hpp:77] Creating layer scale_conv2_down
I0411 13:05:54.788573 15915 net.cpp:91] Creating Layer scale_conv2_down
I0411 13:05:54.788578 15915 net.cpp:425] scale_conv2_down <- conv2_down
I0411 13:05:54.788584 15915 net.cpp:386] scale_conv2_down -> conv2_down (in-place)
I0411 13:05:54.788626 15915 layer_factory.hpp:77] Creating layer scale_conv2_down
I0411 13:05:54.788728 15915 net.cpp:141] Setting up scale_conv2_down
I0411 13:05:54.788736 15915 net.cpp:148] Top shape: 32 128 8 8 (262144)
I0411 13:05:54.788740 15915 net.cpp:156] Memory required for data: 19267968
I0411 13:05:54.788746 15915 layer_factory.hpp:77] Creating layer global_in
I0411 13:05:54.788751 15915 net.cpp:91] Creating Layer global_in
I0411 13:05:54.788755 15915 net.cpp:425] global_in <- conv1_down
I0411 13:05:54.788760 15915 net.cpp:425] global_in <- conv2_down
I0411 13:05:54.788768 15915 net.cpp:399] global_in -> global_in
I0411 13:05:54.788787 15915 net.cpp:141] Setting up global_in
I0411 13:05:54.788795 15915 net.cpp:148] Top shape: 32 128 8 8 (262144)
I0411 13:05:54.788800 15915 net.cpp:156] Memory required for data: 20316544
I0411 13:05:54.788802 15915 layer_factory.hpp:77] Creating layer global_pool
I0411 13:05:54.788808 15915 net.cpp:91] Creating Layer global_pool
I0411 13:05:54.788812 15915 net.cpp:425] global_pool <- global_in
I0411 13:05:54.788817 15915 net.cpp:399] global_pool -> global_pool
I0411 13:05:54.788980 15915 net.cpp:141] Setting up global_pool
I0411 13:05:54.788990 15915 net.cpp:148] Top shape: 32 128 1 1 (4096)
I0411 13:05:54.788993 15915 net.cpp:156] Memory required for data: 20332928
I0411 13:05:54.788997 15915 layer_factory.hpp:77] Creating layer ip
I0411 13:05:54.789005 15915 net.cpp:91] Creating Layer ip
I0411 13:05:54.789010 15915 net.cpp:425] ip <- global_pool
I0411 13:05:54.789016 15915 net.cpp:399] ip -> ip
I0411 13:05:54.789130 15915 net.cpp:141] Setting up ip
I0411 13:05:54.789152 15915 net.cpp:148] Top shape: 32 10 (320)
I0411 13:05:54.789156 15915 net.cpp:156] Memory required for data: 20334208
I0411 13:05:54.789163 15915 layer_factory.hpp:77] Creating layer ip_ip_0_split
I0411 13:05:54.789180 15915 net.cpp:91] Creating Layer ip_ip_0_split
I0411 13:05:54.789185 15915 net.cpp:425] ip_ip_0_split <- ip
I0411 13:05:54.789203 15915 net.cpp:399] ip_ip_0_split -> ip_ip_0_split_0
I0411 13:05:54.789211 15915 net.cpp:399] ip_ip_0_split -> ip_ip_0_split_1
I0411 13:05:54.789268 15915 net.cpp:141] Setting up ip_ip_0_split
I0411 13:05:54.789276 15915 net.cpp:148] Top shape: 32 10 (320)
I0411 13:05:54.789283 15915 net.cpp:148] Top shape: 32 10 (320)
I0411 13:05:54.789286 15915 net.cpp:156] Memory required for data: 20336768
I0411 13:05:54.789290 15915 layer_factory.hpp:77] Creating layer accuracy
I0411 13:05:54.789296 15915 net.cpp:91] Creating Layer accuracy
I0411 13:05:54.789301 15915 net.cpp:425] accuracy <- ip_ip_0_split_0
I0411 13:05:54.789307 15915 net.cpp:425] accuracy <- label_data_1_split_0
I0411 13:05:54.789314 15915 net.cpp:399] accuracy -> accuracy
…
I0411 13:18:29.155272 21047 net.cpp:313] The NetState phase (0) differed from the phase (1) specified by a rule in layer data
I0411 13:18:29.155513 21047 net.cpp:49] Initializing net from parameters: 
name: "CifarResNet0"
state {
  phase: TRAIN
}
layer {
  name: "data"
  type: "Data"
  top: "data"
  top: "label"
  include {
    phase: TRAIN
  }
  transform_param {
    mean_file: "/home/liangjiang/code/residual_network/data/cifar10/mean.binaryproto"
  }
  data_param {
    source: "/home/liangjiang/code/residual_network/data/cifar10/cifar10_train_lmdb"
    batch_size: 256
    backend: LMDB
  }
}
layer {
  name: "conv1"
  type: "Convolution"
  bottom: "data"
  top: "conv1"
  param {
    lr_mult: 1
  }
  param {
    lr_mult: 2
  }
  convolution_param {
    num_output: 8
    pad: 1
    kernel_size: 3
    stride: 1
    weight_filler {
      type: "msra"
    }
    bias_filler {
      type: "constant"
      value: 0
    }
  }
}
layer {
  name: "bn_conv1"
  type: "BatchNorm"
  bottom: "conv1"
  top: "conv1"
  param {
    lr_mult: 0
  }
  param {
    lr_mult: 0
  }
  param {
    lr_mult: 0
  }
}
layer {
  name: "scale_conv1"
  type: "Scale"
  bottom: "conv1"
  top: "conv1"
  param {
    lr_mult: 1
  }
  param {
    lr_mult: 2
  }
  scale_param {
    bias_term: true
  }
}
layer {
  name: "conv1_relu"
  type: "ReLU"
  bottom: "conv1"
  top: "conv1"
}
layer {
  name: "conv1_down"
  type: "Convolution"
  bottom: "conv1"
  top: "conv1_down"
  param {
    lr_mult: 0
  }
  convolution_param {
    num_output: 128
    bias_term: false
    pad: 0
    kernel_size: 4
    stride: 4
    weight_filler {
      type: "downsample"
      value: 1
    }
  }
}
layer {
  name: "scale_conv1_down"
  type: "Scale"
  bottom: "conv1_down"
  top: "conv1_down"
  param {
    lr_mult: 1
  }
  param {
    lr_mult: 2
  }
  scale_param {
    filler {
      type: "constant"
      value: 1
    }
    bias_term: true
  }
}
layer {
  name: "conv2_1a"
  type: "Convolution"
  bottom: "conv1"
  top: "conv2_1a"
  param {
    lr_mult: 1
  }
  param {
    lr_mult: 2
  }
  convolution_param {
    num_output: 8
    pad: 1
    kernel_size: 3
    stride: 1
    weight_filler {
      type: "msra"
    }
    bias_filler {
      type: "constant"
      value: 0
    }
  }
}
layer {
  name: "bn_conv2_1a"
  type: "BatchNorm"
  bottom: "conv2_1a"
  top: "conv2_1a"
  param {
    lr_mult: 0
  }
  param {
    lr_mult: 0
  }
  param {
    lr_mult: 0
  }
}
layer {
  name: "scale_conv2_1a"
  type: "Scale"
  bottom: "conv2_1a"
  top: "conv2_1a"
  param {
    lr_mult: 1
  }
  param {
    lr_mult: 2
  }
  scale_param {
    bias_term: true
  }
}
layer {
  name: "conv2_1a_relu"
  type: "ReLU"
  bottom: "conv2_1a"
  top: "conv2_1a"
}
layer {
  name: "conv2_1b"
  type: "Convolution"
  bottom: "conv2_1a"
  top: "conv2_1b"
  param {
    lr_mult: 1
  }
  param {
    lr_mult: 2
  }
  convolution_param {
    num_output: 8
    pad: 1
    kernel_size: 3
    stride: 1
    weight_filler {
      type: "msra"
    }
    bias_filler {
      type: "constant"
      value: 0
    }
  }
}
layer {
  name: "bn_conv2_1b"
  type: "BatchNorm"
  bottom: "conv2_1b"
  top: "conv2_1b"
  param {
    lr_mult: 0
  }
  param {
    lr_mult: 0
  }
  param {
    lr_mult: 0
  }
}
layer {
  name: "scale_conv2_1b"
  type: "Scale"
  bottom: "conv2_1b"
  top: "conv2_1b"
  param {
    lr_mult: 1
  }
  param {
    lr_mult: 2
  }
  scale_param {
    bias_term: true
  }
}
layer {
  name: "conv2_1b_relu"
  type: "ReLU"
  bottom: "conv2_1b"
  top: "conv2_1b"
}
layer {
  name: "conv2_down"
  type: "Convolution"
  bottom: "conv2_1b"
  top: "conv2_down"
  param {
    lr_mult: 0
  }
  convolution_param {
    num_output: 128
    bias_term: false
    pad: 0
    kernel_size: 4
    stride: 4
    weight_filler {
      type: "downsample"
      value: 1
    }
  }
}
layer {
  name: "scale_conv2_down"
  type: "Scale"
  bottom: "conv2_down"
  top: "conv2_down"
  param {
    lr_mult: 1
  }
  param {
    lr_mult: 2
  }
  scale_param {
    filler {
      type: "constant"
      value: 1
    }
    bias_term: true
  }
}
layer {
  name: "conv3_1a"
  type: "Convolution"
  bottom: "conv2_1b"
  top: "conv3_1a"
  param {
    lr_mult: 1
  }
  param {
    lr_mult: 2
  }
  convolution_param {
    num_output: 32
    pad: 0
    kernel_size: 1
    stride: 2
    weight_filler {
      type: "msra"
    }
    bias_filler {
      type: "constant"
      value: 0
    }
  }
}
layer {
  name: "bn_conv3_1a"
  type: "BatchNorm"
  bottom: "conv3_1a"
  top: "conv3_1a"
  param {
    lr_mult: 0
  }
  param {
    lr_mult: 0
  }
  param {
    lr_mult: 0
  }
}
layer {
  name: "scale_conv3_1a"
  type: "Scale"
  bottom: "conv3_1a"
  top: "conv3_1a"
  param {
    lr_mult: 1
  }
  param {
    lr_mult: 2
  }
  scale_param {
    bias_term: true
  }
}
layer {
  name: "conv3_1a_relu"
  type: "ReLU"
  bottom: "conv3_1a"
  top: "conv3_1a"
}
layer {
  name: "conv3_1b"
  type: "Convolution"
  bottom: "conv3_1a"
  top: "conv3_1b"
  param {
    lr_mult: 1
  }
  param {
    lr_mult: 2
  }
  convolution_param {
    num_output: 32
    pad: 1
    kernel_size: 3
    stride: 1
    weight_filler {
      type: "msra"
    }
    bias_filler {
      type: "constant"
      value: 0
    }
  }
}
layer {
  name: "bn_conv3_1b"
  type: "BatchNorm"
  bottom: "conv3_1b"
  top: "conv3_1b"
  param {
    lr_mult: 0
  }
  param {
    lr_mult: 0
  }
  param {
    lr_mult: 0
  }
}
layer {
  name: "scale_conv3_1b"
  type: "Scale"
  bottom: "conv3_1b"
  top: "conv3_1b"
  param {
    lr_mult: 1
  }
  param {
    lr_mult: 2
  }
  scale_param {
    bias_term: true
  }
}
layer {
  name: "conv3_1b_relu"
  type: "ReLU"
  bottom: "conv3_1b"
  top: "conv3_1b"
}
layer {
  name: "conv3_down"
  type: "Convolution"
  bottom: "conv3_1b"
  top: "conv3_down"
  param {
    lr_mult: 0
  }
  convolution_param {
    num_output: 128
    bias_term: false
    pad: 0
    kernel_size: 2
    stride: 2
    weight_filler {
      type: "downsample"
      value: 1
    }
  }
}
layer {
  name: "scale_conv3_down"
  type: "Scale"
  bottom: "conv3_down"
  top: "conv3_down"
  param {
    lr_mult: 1
  }
  param {
    lr_mult: 2
  }
  scale_param {
    filler {
      type: "constant"
      value: 0
    }
    bias_term: true
  }
}
layer {
  name: "global_in"
  type: "Eltwise"
  bottom: "conv1_down"
  bottom: "conv2_down"
  bottom: "conv3_down"
  top: "global_in"
}
layer {
  name: "global_pool"
  type: "Pooling"
  bottom: "global_in"
  top: "global_pool"
  pooling_param {
    pool: AVE
    kernel_size: 8
  }
}
layer {
  name: "ip"
  type: "InnerProduct"
  bottom: "global_pool"
  top: "ip"
  param {
    lr_mult: 1
  }
  param {
    lr_mult: 2
  }
  inner_product_param {
    num_output: 10
  }
}
layer {
  name: "accuracy"
  type: "Accuracy"
  bottom: "ip"
  bottom: "label"
  top: "accuracy"
}
layer {
  name: "loss"
  type: "SoftmaxWithLoss"
  bottom: "ip"
  bottom: "label"
  top: "loss"
}
I0411 13:18:29.155696 21047 layer_factory.hpp:77] Creating layer data
I0411 13:18:29.156339 21047 net.cpp:91] Creating Layer data
I0411 13:18:29.156358 21047 net.cpp:399] data -> data
I0411 13:18:29.156373 21047 net.cpp:399] data -> label
I0411 13:18:29.156419 21047 data_transformer.cpp:25] Loading mean file from: /home/liangjiang/code/residual_network/data/cifar10/mean.binaryproto
I0411 13:18:29.158593 21093 db_lmdb.cpp:38] Opened lmdb /home/liangjiang/code/residual_network/data/cifar10/cifar10_train_lmdb
I0411 13:18:29.170495 21047 data_layer.cpp:41] output data size: 256,3,32,32
I0411 13:18:29.176522 21047 net.cpp:141] Setting up data
I0411 13:18:29.176568 21047 net.cpp:148] Top shape: 256 3 32 32 (786432)
I0411 13:18:29.176578 21047 net.cpp:148] Top shape: 256 (256)
I0411 13:18:29.176584 21047 net.cpp:156] Memory required for data: 3146752
I0411 13:18:29.176594 21047 layer_factory.hpp:77] Creating layer label_data_1_split
I0411 13:18:29.176614 21047 net.cpp:91] Creating Layer label_data_1_split
I0411 13:18:29.176621 21047 net.cpp:425] label_data_1_split <- label
I0411 13:18:29.176633 21047 net.cpp:399] label_data_1_split -> label_data_1_split_0
I0411 13:18:29.176646 21047 net.cpp:399] label_data_1_split -> label_data_1_split_1
I0411 13:18:29.176728 21047 net.cpp:141] Setting up label_data_1_split
I0411 13:18:29.176740 21047 net.cpp:148] Top shape: 256 (256)
I0411 13:18:29.176748 21047 net.cpp:148] Top shape: 256 (256)
I0411 13:18:29.176751 21047 net.cpp:156] Memory required for data: 3148800
I0411 13:18:29.176758 21047 layer_factory.hpp:77] Creating layer conv1
I0411 13:18:29.176777 21047 net.cpp:91] Creating Layer conv1
I0411 13:18:29.176784 21047 net.cpp:425] conv1 <- data
I0411 13:18:29.176795 21047 net.cpp:399] conv1 -> conv1
I0411 13:18:29.469769 21047 net.cpp:141] Setting up conv1
I0411 13:18:29.469823 21047 net.cpp:148] Top shape: 256 8 32 32 (2097152)
I0411 13:18:29.469833 21047 net.cpp:156] Memory required for data: 11537408
I0411 13:18:29.469863 21047 layer_factory.hpp:77] Creating layer bn_conv1
I0411 13:18:29.469885 21047 net.cpp:91] Creating Layer bn_conv1
I0411 13:18:29.469895 21047 net.cpp:425] bn_conv1 <- conv1
I0411 13:18:29.469909 21047 net.cpp:386] bn_conv1 -> conv1 (in-place)
I0411 13:18:29.470219 21047 net.cpp:141] Setting up bn_conv1
I0411 13:18:29.470235 21047 net.cpp:148] Top shape: 256 8 32 32 (2097152)
I0411 13:18:29.470243 21047 net.cpp:156] Memory required for data: 19926016
I0411 13:18:29.470265 21047 layer_factory.hpp:77] Creating layer scale_conv1
I0411 13:18:29.470284 21047 net.cpp:91] Creating Layer scale_conv1
I0411 13:18:29.470293 21047 net.cpp:425] scale_conv1 <- conv1
I0411 13:18:29.470304 21047 net.cpp:386] scale_conv1 -> conv1 (in-place)
I0411 13:18:29.470369 21047 layer_factory.hpp:77] Creating layer scale_conv1
I0411 13:18:29.470554 21047 net.cpp:141] Setting up scale_conv1
I0411 13:18:29.470571 21047 net.cpp:148] Top shape: 256 8 32 32 (2097152)
I0411 13:18:29.470578 21047 net.cpp:156] Memory required for data: 28314624
I0411 13:18:29.470592 21047 layer_factory.hpp:77] Creating layer conv1_relu
I0411 13:18:29.470604 21047 net.cpp:91] Creating Layer conv1_relu
I0411 13:18:29.470613 21047 net.cpp:425] conv1_relu <- conv1
I0411 13:18:29.470623 21047 net.cpp:386] conv1_relu -> conv1 (in-place)
I0411 13:18:29.471074 21047 net.cpp:141] Setting up conv1_relu
I0411 13:18:29.471098 21047 net.cpp:148] Top shape: 256 8 32 32 (2097152)
I0411 13:18:29.471107 21047 net.cpp:156] Memory required for data: 36703232
I0411 13:18:29.471115 21047 layer_factory.hpp:77] Creating layer conv1_conv1_relu_0_split
I0411 13:18:29.471128 21047 net.cpp:91] Creating Layer conv1_conv1_relu_0_split
I0411 13:18:29.471137 21047 net.cpp:425] conv1_conv1_relu_0_split <- conv1
I0411 13:18:29.471148 21047 net.cpp:399] conv1_conv1_relu_0_split -> conv1_conv1_relu_0_split_0
I0411 13:18:29.471163 21047 net.cpp:399] conv1_conv1_relu_0_split -> conv1_conv1_relu_0_split_1
I0411 13:18:29.471228 21047 net.cpp:141] Setting up conv1_conv1_relu_0_split
I0411 13:18:29.471242 21047 net.cpp:148] Top shape: 256 8 32 32 (2097152)
I0411 13:18:29.471251 21047 net.cpp:148] Top shape: 256 8 32 32 (2097152)
I0411 13:18:29.471259 21047 net.cpp:156] Memory required for data: 53480448
I0411 13:18:29.471267 21047 layer_factory.hpp:77] Creating layer conv1_down
I0411 13:18:29.471287 21047 net.cpp:91] Creating Layer conv1_down
I0411 13:18:29.471294 21047 net.cpp:425] conv1_down <- conv1_conv1_relu_0_split_0
I0411 13:18:29.471307 21047 net.cpp:399] conv1_down -> conv1_down
I0411 13:18:29.473472 21047 net.cpp:141] Setting up conv1_down
I0411 13:18:29.473501 21047 net.cpp:148] Top shape: 256 128 8 8 (2097152)
I0411 13:18:29.473510 21047 net.cpp:156] Memory required for data: 61869056
I0411 13:18:29.473522 21047 layer_factory.hpp:77] Creating layer scale_conv1_down
I0411 13:18:29.473543 21047 net.cpp:91] Creating Layer scale_conv1_down
I0411 13:18:29.473552 21047 net.cpp:425] scale_conv1_down <- conv1_down
I0411 13:18:29.473567 21047 net.cpp:386] scale_conv1_down -> conv1_down (in-place)
I0411 13:18:29.473639 21047 layer_factory.hpp:77] Creating layer scale_conv1_down
I0411 13:18:29.473815 21047 net.cpp:141] Setting up scale_conv1_down
I0411 13:18:29.473831 21047 net.cpp:148] Top shape: 256 128 8 8 (2097152)
I0411 13:18:29.473839 21047 net.cpp:156] Memory required for data: 70257664
I0411 13:18:29.473857 21047 layer_factory.hpp:77] Creating layer conv2_1a
I0411 13:18:29.473880 21047 net.cpp:91] Creating Layer conv2_1a
I0411 13:18:29.473887 21047 net.cpp:425] conv2_1a <- conv1_conv1_relu_0_split_1
I0411 13:18:29.473901 21047 net.cpp:399] conv2_1a -> conv2_1a
I0411 13:18:29.475426 21047 net.cpp:141] Setting up conv2_1a
I0411 13:18:29.475453 21047 net.cpp:148] Top shape: 256 8 32 32 (2097152)
I0411 13:18:29.475461 21047 net.cpp:156] Memory required for data: 78646272
I0411 13:18:29.475474 21047 layer_factory.hpp:77] Creating layer bn_conv2_1a
I0411 13:18:29.475492 21047 net.cpp:91] Creating Layer bn_conv2_1a
I0411 13:18:29.475500 21047 net.cpp:425] bn_conv2_1a <- conv2_1a
I0411 13:18:29.475512 21047 net.cpp:386] bn_conv2_1a -> conv2_1a (in-place)
I0411 13:18:29.475795 21047 net.cpp:141] Setting up bn_conv2_1a
I0411 13:18:29.475810 21047 net.cpp:148] Top shape: 256 8 32 32 (2097152)
I0411 13:18:29.475816 21047 net.cpp:156] Memory required for data: 87034880
I0411 13:18:29.475831 21047 layer_factory.hpp:77] Creating layer scale_conv2_1a
I0411 13:18:29.475844 21047 net.cpp:91] Creating Layer scale_conv2_1a
I0411 13:18:29.475852 21047 net.cpp:425] scale_conv2_1a <- conv2_1a
I0411 13:18:29.475862 21047 net.cpp:386] scale_conv2_1a -> conv2_1a (in-place)
I0411 13:18:29.475924 21047 layer_factory.hpp:77] Creating layer scale_conv2_1a
I0411 13:18:29.476089 21047 net.cpp:141] Setting up scale_conv2_1a
I0411 13:18:29.476104 21047 net.cpp:148] Top shape: 256 8 32 32 (2097152)
I0411 13:18:29.476110 21047 net.cpp:156] Memory required for data: 95423488
I0411 13:18:29.476136 21047 layer_factory.hpp:77] Creating layer conv2_1a_relu
I0411 13:18:29.476150 21047 net.cpp:91] Creating Layer conv2_1a_relu
I0411 13:18:29.476157 21047 net.cpp:425] conv2_1a_relu <- conv2_1a
I0411 13:18:29.476167 21047 net.cpp:386] conv2_1a_relu -> conv2_1a (in-place)
I0411 13:18:29.476658 21047 net.cpp:141] Setting up conv2_1a_relu
I0411 13:18:29.476682 21047 net.cpp:148] Top shape: 256 8 32 32 (2097152)
I0411 13:18:29.476691 21047 net.cpp:156] Memory required for data: 103812096
I0411 13:18:29.476698 21047 layer_factory.hpp:77] Creating layer conv2_1b
I0411 13:18:29.476721 21047 net.cpp:91] Creating Layer conv2_1b
I0411 13:18:29.476729 21047 net.cpp:425] conv2_1b <- conv2_1a
I0411 13:18:29.476747 21047 net.cpp:399] conv2_1b -> conv2_1b
I0411 13:18:29.478340 21047 net.cpp:141] Setting up conv2_1b
I0411 13:18:29.478368 21047 net.cpp:148] Top shape: 256 8 32 32 (2097152)
I0411 13:18:29.478376 21047 net.cpp:156] Memory required for data: 112200704
I0411 13:18:29.478389 21047 layer_factory.hpp:77] Creating layer bn_conv2_1b
I0411 13:18:29.478406 21047 net.cpp:91] Creating Layer bn_conv2_1b
I0411 13:18:29.478415 21047 net.cpp:425] bn_conv2_1b <- conv2_1b
I0411 13:18:29.478426 21047 net.cpp:386] bn_conv2_1b -> conv2_1b (in-place)
I0411 13:18:29.478719 21047 net.cpp:141] Setting up bn_conv2_1b
I0411 13:18:29.478734 21047 net.cpp:148] Top shape: 256 8 32 32 (2097152)
I0411 13:18:29.478741 21047 net.cpp:156] Memory required for data: 120589312
I0411 13:18:29.478756 21047 layer_factory.hpp:77] Creating layer scale_conv2_1b
I0411 13:18:29.478772 21047 net.cpp:91] Creating Layer scale_conv2_1b
I0411 13:18:29.478780 21047 net.cpp:425] scale_conv2_1b <- conv2_1b
I0411 13:18:29.478791 21047 net.cpp:386] scale_conv2_1b -> conv2_1b (in-place)
I0411 13:18:29.478848 21047 layer_factory.hpp:77] Creating layer scale_conv2_1b
I0411 13:18:29.479018 21047 net.cpp:141] Setting up scale_conv2_1b
I0411 13:18:29.479032 21047 net.cpp:148] Top shape: 256 8 32 32 (2097152)
I0411 13:18:29.479039 21047 net.cpp:156] Memory required for data: 128977920
I0411 13:18:29.479053 21047 layer_factory.hpp:77] Creating layer conv2_1b_relu
I0411 13:18:29.479066 21047 net.cpp:91] Creating Layer conv2_1b_relu
I0411 13:18:29.479074 21047 net.cpp:425] conv2_1b_relu <- conv2_1b
I0411 13:18:29.479084 21047 net.cpp:386] conv2_1b_relu -> conv2_1b (in-place)
I0411 13:18:29.479369 21047 net.cpp:141] Setting up conv2_1b_relu
I0411 13:18:29.479390 21047 net.cpp:148] Top shape: 256 8 32 32 (2097152)
I0411 13:18:29.479398 21047 net.cpp:156] Memory required for data: 137366528
I0411 13:18:29.479405 21047 layer_factory.hpp:77] Creating layer conv2_1b_conv2_1b_relu_0_split
I0411 13:18:29.479416 21047 net.cpp:91] Creating Layer conv2_1b_conv2_1b_relu_0_split
I0411 13:18:29.479423 21047 net.cpp:425] conv2_1b_conv2_1b_relu_0_split <- conv2_1b
I0411 13:18:29.479434 21047 net.cpp:399] conv2_1b_conv2_1b_relu_0_split -> conv2_1b_conv2_1b_relu_0_split_0
I0411 13:18:29.479446 21047 net.cpp:399] conv2_1b_conv2_1b_relu_0_split -> conv2_1b_conv2_1b_relu_0_split_1
I0411 13:18:29.479516 21047 net.cpp:141] Setting up conv2_1b_conv2_1b_relu_0_split
I0411 13:18:29.479528 21047 net.cpp:148] Top shape: 256 8 32 32 (2097152)
I0411 13:18:29.479537 21047 net.cpp:148] Top shape: 256 8 32 32 (2097152)
I0411 13:18:29.479543 21047 net.cpp:156] Memory required for data: 154143744
I0411 13:18:29.479550 21047 layer_factory.hpp:77] Creating layer conv2_down
I0411 13:18:29.479574 21047 net.cpp:91] Creating Layer conv2_down
I0411 13:18:29.479583 21047 net.cpp:425] conv2_down <- conv2_1b_conv2_1b_relu_0_split_0
I0411 13:18:29.479601 21047 net.cpp:399] conv2_down -> conv2_down
I0411 13:18:29.481053 21047 net.cpp:141] Setting up conv2_down
I0411 13:18:29.481081 21047 net.cpp:148] Top shape: 256 128 8 8 (2097152)
I0411 13:18:29.481091 21047 net.cpp:156] Memory required for data: 162532352
I0411 13:18:29.481102 21047 layer_factory.hpp:77] Creating layer scale_conv2_down
I0411 13:18:29.481129 21047 net.cpp:91] Creating Layer scale_conv2_down
I0411 13:18:29.481148 21047 net.cpp:425] scale_conv2_down <- conv2_down
I0411 13:18:29.481163 21047 net.cpp:386] scale_conv2_down -> conv2_down (in-place)
I0411 13:18:29.481240 21047 layer_factory.hpp:77] Creating layer scale_conv2_down
I0411 13:18:29.481415 21047 net.cpp:141] Setting up scale_conv2_down
I0411 13:18:29.481442 21047 net.cpp:148] Top shape: 256 128 8 8 (2097152)
I0411 13:18:29.481448 21047 net.cpp:156] Memory required for data: 170920960
I0411 13:18:29.481461 21047 layer_factory.hpp:77] Creating layer conv3_1a
I0411 13:18:29.481482 21047 net.cpp:91] Creating Layer conv3_1a
I0411 13:18:29.481489 21047 net.cpp:425] conv3_1a <- conv2_1b_conv2_1b_relu_0_split_1
I0411 13:18:29.481501 21047 net.cpp:399] conv3_1a -> conv3_1a
I0411 13:18:29.482972 21047 net.cpp:141] Setting up conv3_1a
I0411 13:18:29.482996 21047 net.cpp:148] Top shape: 256 32 16 16 (2097152)
I0411 13:18:29.483003 21047 net.cpp:156] Memory required for data: 179309568
I0411 13:18:29.483016 21047 layer_factory.hpp:77] Creating layer bn_conv3_1a
I0411 13:18:29.483029 21047 net.cpp:91] Creating Layer bn_conv3_1a
I0411 13:18:29.483037 21047 net.cpp:425] bn_conv3_1a <- conv3_1a
I0411 13:18:29.483052 21047 net.cpp:386] bn_conv3_1a -> conv3_1a (in-place)
I0411 13:18:29.483327 21047 net.cpp:141] Setting up bn_conv3_1a
I0411 13:18:29.483342 21047 net.cpp:148] Top shape: 256 32 16 16 (2097152)
I0411 13:18:29.483348 21047 net.cpp:156] Memory required for data: 187698176
I0411 13:18:29.483362 21047 layer_factory.hpp:77] Creating layer scale_conv3_1a
I0411 13:18:29.483376 21047 net.cpp:91] Creating Layer scale_conv3_1a
I0411 13:18:29.483382 21047 net.cpp:425] scale_conv3_1a <- conv3_1a
I0411 13:18:29.483392 21047 net.cpp:386] scale_conv3_1a -> conv3_1a (in-place)
I0411 13:18:29.483450 21047 layer_factory.hpp:77] Creating layer scale_conv3_1a
I0411 13:18:29.483615 21047 net.cpp:141] Setting up scale_conv3_1a
I0411 13:18:29.483631 21047 net.cpp:148] Top shape: 256 32 16 16 (2097152)
I0411 13:18:29.483638 21047 net.cpp:156] Memory required for data: 196086784
I0411 13:18:29.483655 21047 layer_factory.hpp:77] Creating layer conv3_1a_relu
I0411 13:18:29.483670 21047 net.cpp:91] Creating Layer conv3_1a_relu
I0411 13:18:29.483676 21047 net.cpp:425] conv3_1a_relu <- conv3_1a
I0411 13:18:29.483685 21047 net.cpp:386] conv3_1a_relu -> conv3_1a (in-place)
I0411 13:18:29.483955 21047 net.cpp:141] Setting up conv3_1a_relu
I0411 13:18:29.483973 21047 net.cpp:148] Top shape: 256 32 16 16 (2097152)
I0411 13:18:29.483980 21047 net.cpp:156] Memory required for data: 204475392
I0411 13:18:29.483988 21047 layer_factory.hpp:77] Creating layer conv3_1b
I0411 13:18:29.484009 21047 net.cpp:91] Creating Layer conv3_1b
I0411 13:18:29.484016 21047 net.cpp:425] conv3_1b <- conv3_1a
I0411 13:18:29.484030 21047 net.cpp:399] conv3_1b -> conv3_1b
I0411 13:18:29.485949 21047 net.cpp:141] Setting up conv3_1b
I0411 13:18:29.485975 21047 net.cpp:148] Top shape: 256 32 16 16 (2097152)
I0411 13:18:29.485982 21047 net.cpp:156] Memory required for data: 212864000
I0411 13:18:29.485996 21047 layer_factory.hpp:77] Creating layer bn_conv3_1b
I0411 13:18:29.486012 21047 net.cpp:91] Creating Layer bn_conv3_1b
I0411 13:18:29.486021 21047 net.cpp:425] bn_conv3_1b <- conv3_1b
I0411 13:18:29.486033 21047 net.cpp:386] bn_conv3_1b -> conv3_1b (in-place)
I0411 13:18:29.486307 21047 net.cpp:141] Setting up bn_conv3_1b
I0411 13:18:29.486321 21047 net.cpp:148] Top shape: 256 32 16 16 (2097152)
I0411 13:18:29.486328 21047 net.cpp:156] Memory required for data: 221252608
I0411 13:18:29.486342 21047 layer_factory.hpp:77] Creating layer scale_conv3_1b
I0411 13:18:29.486358 21047 net.cpp:91] Creating Layer scale_conv3_1b
I0411 13:18:29.486366 21047 net.cpp:425] scale_conv3_1b <- conv3_1b
I0411 13:18:29.486376 21047 net.cpp:386] scale_conv3_1b -> conv3_1b (in-place)
I0411 13:18:29.486431 21047 layer_factory.hpp:77] Creating layer scale_conv3_1b
I0411 13:18:29.486604 21047 net.cpp:141] Setting up scale_conv3_1b
I0411 13:18:29.486618 21047 net.cpp:148] Top shape: 256 32 16 16 (2097152)
I0411 13:18:29.486624 21047 net.cpp:156] Memory required for data: 229641216
I0411 13:18:29.486642 21047 layer_factory.hpp:77] Creating layer conv3_1b_relu
I0411 13:18:29.486654 21047 net.cpp:91] Creating Layer conv3_1b_relu
I0411 13:18:29.486661 21047 net.cpp:425] conv3_1b_relu <- conv3_1b
I0411 13:18:29.486673 21047 net.cpp:386] conv3_1b_relu -> conv3_1b (in-place)
I0411 13:18:29.487104 21047 net.cpp:141] Setting up conv3_1b_relu
I0411 13:18:29.487128 21047 net.cpp:148] Top shape: 256 32 16 16 (2097152)
I0411 13:18:29.487134 21047 net.cpp:156] Memory required for data: 238029824
I0411 13:18:29.487141 21047 layer_factory.hpp:77] Creating layer conv3_down
I0411 13:18:29.487160 21047 net.cpp:91] Creating Layer conv3_down
I0411 13:18:29.487169 21047 net.cpp:425] conv3_down <- conv3_1b
I0411 13:18:29.487184 21047 net.cpp:399] conv3_down -> conv3_down
I0411 13:18:29.488616 21047 net.cpp:141] Setting up conv3_down
I0411 13:18:29.488641 21047 net.cpp:148] Top shape: 256 128 8 8 (2097152)
I0411 13:18:29.488653 21047 net.cpp:156] Memory required for data: 246418432
I0411 13:18:29.488664 21047 layer_factory.hpp:77] Creating layer scale_conv3_down
I0411 13:18:29.488678 21047 net.cpp:91] Creating Layer scale_conv3_down
I0411 13:18:29.488687 21047 net.cpp:425] scale_conv3_down <- conv3_down
I0411 13:18:29.488701 21047 net.cpp:386] scale_conv3_down -> conv3_down (in-place)
I0411 13:18:29.488773 21047 layer_factory.hpp:77] Creating layer scale_conv3_down
I0411 13:18:29.488940 21047 net.cpp:141] Setting up scale_conv3_down
I0411 13:18:29.488955 21047 net.cpp:148] Top shape: 256 128 8 8 (2097152)
I0411 13:18:29.488962 21047 net.cpp:156] Memory required for data: 254807040
I0411 13:18:29.488975 21047 layer_factory.hpp:77] Creating layer global_in
I0411 13:18:29.488986 21047 net.cpp:91] Creating Layer global_in
I0411 13:18:29.488993 21047 net.cpp:425] global_in <- conv1_down
I0411 13:18:29.489002 21047 net.cpp:425] global_in <- conv2_down
I0411 13:18:29.489011 21047 net.cpp:425] global_in <- conv3_down
I0411 13:18:29.489019 21047 net.cpp:399] global_in -> global_in
I0411 13:18:29.489074 21047 net.cpp:141] Setting up global_in
I0411 13:18:29.489089 21047 net.cpp:148] Top shape: 256 128 8 8 (2097152)
I0411 13:18:29.489094 21047 net.cpp:156] Memory required for data: 263195648
I0411 13:18:29.489101 21047 layer_factory.hpp:77] Creating layer global_pool
I0411 13:18:29.489125 21047 net.cpp:91] Creating Layer global_pool
I0411 13:18:29.489132 21047 net.cpp:425] global_pool <- global_in
I0411 13:18:29.489143 21047 net.cpp:399] global_pool -> global_pool
I0411 13:18:29.489617 21047 net.cpp:141] Setting up global_pool
I0411 13:18:29.489639 21047 net.cpp:148] Top shape: 256 128 1 1 (32768)
I0411 13:18:29.489646 21047 net.cpp:156] Memory required for data: 263326720
I0411 13:18:29.489655 21047 layer_factory.hpp:77] Creating layer ip
I0411 13:18:29.489682 21047 net.cpp:91] Creating Layer ip
I0411 13:18:29.489692 21047 net.cpp:425] ip <- global_pool
I0411 13:18:29.489706 21047 net.cpp:399] ip -> ip
I0411 13:18:29.489873 21047 net.cpp:141] Setting up ip
I0411 13:18:29.489889 21047 net.cpp:148] Top shape: 256 10 (2560)
I0411 13:18:29.489897 21047 net.cpp:156] Memory required for data: 263336960
I0411 13:18:29.489908 21047 layer_factory.hpp:77] Creating layer ip_ip_0_split
I0411 13:18:29.489919 21047 net.cpp:91] Creating Layer ip_ip_0_split
I0411 13:18:29.489926 21047 net.cpp:425] ip_ip_0_split <- ip
I0411 13:18:29.489936 21047 net.cpp:399] ip_ip_0_split -> ip_ip_0_split_0
I0411 13:18:29.489948 21047 net.cpp:399] ip_ip_0_split -> ip_ip_0_split_1
I0411 13:18:29.490007 21047 net.cpp:141] Setting up ip_ip_0_split
I0411 13:18:29.490020 21047 net.cpp:148] Top shape: 256 10 (2560)
I0411 13:18:29.490028 21047 net.cpp:148] Top shape: 256 10 (2560)
I0411 13:18:29.490034 21047 net.cpp:156] Memory required for data: 263357440
I0411 13:18:29.490041 21047 layer_factory.hpp:77] Creating layer accuracy
I0411 13:18:29.490057 21047 net.cpp:91] Creating Layer accuracy
I0411 13:18:29.490064 21047 net.cpp:425] accuracy <- ip_ip_0_split_0
I0411 13:18:29.490073 21047 net.cpp:425] accuracy <- label_data_1_split_0
I0411 13:18:29.490095 21047 net.cpp:399] accuracy -> accuracy
…
I0411 13:18:29.492403 21047 net.cpp:313] The NetState phase (1) differed from the phase (0) specified by a rule in layer data
I0411 13:18:29.492733 21047 net.cpp:49] Initializing net from parameters: 
name: "CifarResNet0"
state {
  phase: TEST
}
layer {
  name: "data"
  type: "Data"
  top: "data"
  top: "label"
  include {
    phase: TEST
  }
  transform_param {
    mean_file: "/home/liangjiang/code/residual_network/data/cifar10/mean.binaryproto"
  }
  data_param {
    source: "/home/liangjiang/code/residual_network/data/cifar10/cifar10_test_lmdb"
    batch_size: 32
    backend: LMDB
  }
}
layer {
  name: "conv1"
  type: "Convolution"
  bottom: "data"
  top: "conv1"
  param {
    lr_mult: 1
  }
  param {
    lr_mult: 2
  }
  convolution_param {
    num_output: 8
    pad: 1
    kernel_size: 3
    stride: 1
    weight_filler {
      type: "msra"
    }
    bias_filler {
      type: "constant"
      value: 0
    }
  }
}
layer {
  name: "bn_conv1"
  type: "BatchNorm"
  bottom: "conv1"
  top: "conv1"
  param {
    lr_mult: 0
  }
  param {
    lr_mult: 0
  }
  param {
    lr_mult: 0
  }
}
layer {
  name: "scale_conv1"
  type: "Scale"
  bottom: "conv1"
  top: "conv1"
  param {
    lr_mult: 1
  }
  param {
    lr_mult: 2
  }
  scale_param {
    bias_term: true
  }
}
layer {
  name: "conv1_relu"
  type: "ReLU"
  bottom: "conv1"
  top: "conv1"
}
layer {
  name: "conv1_down"
  type: "Convolution"
  bottom: "conv1"
  top: "conv1_down"
  param {
    lr_mult: 0
  }
  convolution_param {
    num_output: 128
    bias_term: false
    pad: 0
    kernel_size: 4
    stride: 4
    weight_filler {
      type: "downsample"
      value: 1
    }
  }
}
layer {
  name: "scale_conv1_down"
  type: "Scale"
  bottom: "conv1_down"
  top: "conv1_down"
  param {
    lr_mult: 1
  }
  param {
    lr_mult: 2
  }
  scale_param {
    filler {
      type: "constant"
      value: 1
    }
    bias_term: true
  }
}
layer {
  name: "conv2_1a"
  type: "Convolution"
  bottom: "conv1"
  top: "conv2_1a"
  param {
    lr_mult: 1
  }
  param {
    lr_mult: 2
  }
  convolution_param {
    num_output: 8
    pad: 1
    kernel_size: 3
    stride: 1
    weight_filler {
      type: "msra"
    }
    bias_filler {
      type: "constant"
      value: 0
    }
  }
}
layer {
  name: "bn_conv2_1a"
  type: "BatchNorm"
  bottom: "conv2_1a"
  top: "conv2_1a"
  param {
    lr_mult: 0
  }
  param {
    lr_mult: 0
  }
  param {
    lr_mult: 0
  }
}
layer {
  name: "scale_conv2_1a"
  type: "Scale"
  bottom: "conv2_1a"
  top: "conv2_1a"
  param {
    lr_mult: 1
  }
  param {
    lr_mult: 2
  }
  scale_param {
    bias_term: true
  }
}
layer {
  name: "conv2_1a_relu"
  type: "ReLU"
  bottom: "conv2_1a"
  top: "conv2_1a"
}
layer {
  name: "conv2_1b"
  type: "Convolution"
  bottom: "conv2_1a"
  top: "conv2_1b"
  param {
    lr_mult: 1
  }
  param {
    lr_mult: 2
  }
  convolution_param {
    num_output: 8
    pad: 1
    kernel_size: 3
    stride: 1
    weight_filler {
      type: "msra"
    }
    bias_filler {
      type: "constant"
      value: 0
    }
  }
}
layer {
  name: "bn_conv2_1b"
  type: "BatchNorm"
  bottom: "conv2_1b"
  top: "conv2_1b"
  param {
    lr_mult: 0
  }
  param {
    lr_mult: 0
  }
  param {
    lr_mult: 0
  }
}
layer {
  name: "scale_conv2_1b"
  type: "Scale"
  bottom: "conv2_1b"
  top: "conv2_1b"
  param {
    lr_mult: 1
  }
  param {
    lr_mult: 2
  }
  scale_param {
    bias_term: true
  }
}
layer {
  name: "conv2_1b_relu"
  type: "ReLU"
  bottom: "conv2_1b"
  top: "conv2_1b"
}
layer {
  name: "conv2_down"
  type: "Convolution"
  bottom: "conv2_1b"
  top: "conv2_down"
  param {
    lr_mult: 0
  }
  convolution_param {
    num_output: 128
    bias_term: false
    pad: 0
    kernel_size: 4
    stride: 4
    weight_filler {
      type: "downsample"
      value: 1
    }
  }
}
layer {
  name: "scale_conv2_down"
  type: "Scale"
  bottom: "conv2_down"
  top: "conv2_down"
  param {
    lr_mult: 1
  }
  param {
    lr_mult: 2
  }
  scale_param {
    filler {
      type: "constant"
      value: 1
    }
    bias_term: true
  }
}
layer {
  name: "conv3_1a"
  type: "Convolution"
  bottom: "conv2_1b"
  top: "conv3_1a"
  param {
    lr_mult: 1
  }
  param {
    lr_mult: 2
  }
  convolution_param {
    num_output: 32
    pad: 0
    kernel_size: 1
    stride: 2
    weight_filler {
      type: "msra"
    }
    bias_filler {
      type: "constant"
      value: 0
    }
  }
}
layer {
  name: "bn_conv3_1a"
  type: "BatchNorm"
  bottom: "conv3_1a"
  top: "conv3_1a"
  param {
    lr_mult: 0
  }
  param {
    lr_mult: 0
  }
  param {
    lr_mult: 0
  }
}
layer {
  name: "scale_conv3_1a"
  type: "Scale"
  bottom: "conv3_1a"
  top: "conv3_1a"
  param {
    lr_mult: 1
  }
  param {
    lr_mult: 2
  }
  scale_param {
    bias_term: true
  }
}
layer {
  name: "conv3_1a_relu"
  type: "ReLU"
  bottom: "conv3_1a"
  top: "conv3_1a"
}
layer {
  name: "conv3_1b"
  type: "Convolution"
  bottom: "conv3_1a"
  top: "conv3_1b"
  param {
    lr_mult: 1
  }
  param {
    lr_mult: 2
  }
  convolution_param {
    num_output: 32
    pad: 1
    kernel_size: 3
    stride: 1
    weight_filler {
      type: "msra"
    }
    bias_filler {
      type: "constant"
      value: 0
    }
  }
}
layer {
  name: "bn_conv3_1b"
  type: "BatchNorm"
  bottom: "conv3_1b"
  top: "conv3_1b"
  param {
    lr_mult: 0
  }
  param {
    lr_mult: 0
  }
  param {
    lr_mult: 0
  }
}
layer {
  name: "scale_conv3_1b"
  type: "Scale"
  bottom: "conv3_1b"
  top: "conv3_1b"
  param {
    lr_mult: 1
  }
  param {
    lr_mult: 2
  }
  scale_param {
    bias_term: true
  }
}
layer {
  name: "conv3_1b_relu"
  type: "ReLU"
  bottom: "conv3_1b"
  top: "conv3_1b"
}
layer {
  name: "conv3_down"
  type: "Convolution"
  bottom: "conv3_1b"
  top: "conv3_down"
  param {
    lr_mult: 0
  }
  convolution_param {
    num_output: 128
    bias_term: false
    pad: 0
    kernel_size: 2
    stride: 2
    weight_filler {
      type: "downsample"
      value: 1
    }
  }
}
layer {
  name: "scale_conv3_down"
  type: "Scale"
  bottom: "conv3_down"
  top: "conv3_down"
  param {
    lr_mult: 1
  }
  param {
    lr_mult: 2
  }
  scale_param {
    filler {
      type: "constant"
      value: 0
    }
    bias_term: true
  }
}
layer {
  name: "global_in"
  type: "Eltwise"
  bottom: "conv1_down"
  bottom: "conv2_down"
  bottom: "conv3_down"
  top: "global_in"
}
layer {
  name: "global_pool"
  type: "Pooling"
  bottom: "global_in"
  top: "global_pool"
  pooling_param {
    pool: AVE
    kernel_size: 8
  }
}
layer {
  name: "ip"
  type: "InnerProduct"
  bottom: "global_pool"
  top: "ip"
  param {
    lr_mult: 1
  }
  param {
    lr_mult: 2
  }
  inner_product_param {
    num_output: 10
  }
}
layer {
  name: "accuracy"
  type: "Accuracy"
  bottom: "ip"
  bottom: "label"
  top: "accuracy"
}
layer {
  name: "loss"
  type: "SoftmaxWithLoss"
  bottom: "ip"
  bottom: "label"
  top: "loss"
}
I0411 13:18:29.492980 21047 layer_factory.hpp:77] Creating layer data
I0411 13:18:29.493098 21047 net.cpp:91] Creating Layer data
I0411 13:18:29.493129 21047 net.cpp:399] data -> data
I0411 13:18:29.493160 21047 net.cpp:399] data -> label
I0411 13:18:29.493178 21047 data_transformer.cpp:25] Loading mean file from: /home/liangjiang/code/residual_network/data/cifar10/mean.binaryproto
I0411 13:18:29.494550 21119 db_lmdb.cpp:38] Opened lmdb /home/liangjiang/code/residual_network/data/cifar10/cifar10_test_lmdb
I0411 13:18:29.494757 21047 data_layer.cpp:41] output data size: 32,3,32,32
I0411 13:18:29.497051 21047 net.cpp:141] Setting up data
I0411 13:18:29.497077 21047 net.cpp:148] Top shape: 32 3 32 32 (98304)
I0411 13:18:29.497087 21047 net.cpp:148] Top shape: 32 (32)
I0411 13:18:29.497093 21047 net.cpp:156] Memory required for data: 393344
I0411 13:18:29.497102 21047 layer_factory.hpp:77] Creating layer label_data_1_split
I0411 13:18:29.497124 21047 net.cpp:91] Creating Layer label_data_1_split
I0411 13:18:29.497133 21047 net.cpp:425] label_data_1_split <- label
I0411 13:18:29.497144 21047 net.cpp:399] label_data_1_split -> label_data_1_split_0
I0411 13:18:29.497190 21047 net.cpp:399] label_data_1_split -> label_data_1_split_1
I0411 13:18:29.497328 21047 net.cpp:141] Setting up label_data_1_split
I0411 13:18:29.497354 21047 net.cpp:148] Top shape: 32 (32)
I0411 13:18:29.497361 21047 net.cpp:148] Top shape: 32 (32)
I0411 13:18:29.497367 21047 net.cpp:156] Memory required for data: 393600
I0411 13:18:29.497375 21047 layer_factory.hpp:77] Creating layer conv1
I0411 13:18:29.497398 21047 net.cpp:91] Creating Layer conv1
I0411 13:18:29.497406 21047 net.cpp:425] conv1 <- data
I0411 13:18:29.497418 21047 net.cpp:399] conv1 -> conv1
I0411 13:18:29.499161 21047 net.cpp:141] Setting up conv1
I0411 13:18:29.499189 21047 net.cpp:148] Top shape: 32 8 32 32 (262144)
I0411 13:18:29.499197 21047 net.cpp:156] Memory required for data: 1442176
I0411 13:18:29.499215 21047 layer_factory.hpp:77] Creating layer bn_conv1
I0411 13:18:29.499233 21047 net.cpp:91] Creating Layer bn_conv1
I0411 13:18:29.499239 21047 net.cpp:425] bn_conv1 <- conv1
I0411 13:18:29.499249 21047 net.cpp:386] bn_conv1 -> conv1 (in-place)
I0411 13:18:29.499531 21047 net.cpp:141] Setting up bn_conv1
I0411 13:18:29.499544 21047 net.cpp:148] Top shape: 32 8 32 32 (262144)
I0411 13:18:29.499550 21047 net.cpp:156] Memory required for data: 2490752
I0411 13:18:29.499570 21047 layer_factory.hpp:77] Creating layer scale_conv1
I0411 13:18:29.499583 21047 net.cpp:91] Creating Layer scale_conv1
I0411 13:18:29.499590 21047 net.cpp:425] scale_conv1 <- conv1
I0411 13:18:29.499600 21047 net.cpp:386] scale_conv1 -> conv1 (in-place)
I0411 13:18:29.499687 21047 layer_factory.hpp:77] Creating layer scale_conv1
I0411 13:18:29.499857 21047 net.cpp:141] Setting up scale_conv1
I0411 13:18:29.499876 21047 net.cpp:148] Top shape: 32 8 32 32 (262144)
I0411 13:18:29.499883 21047 net.cpp:156] Memory required for data: 3539328
I0411 13:18:29.499894 21047 layer_factory.hpp:77] Creating layer conv1_relu
I0411 13:18:29.499904 21047 net.cpp:91] Creating Layer conv1_relu
I0411 13:18:29.499913 21047 net.cpp:425] conv1_relu <- conv1
I0411 13:18:29.499928 21047 net.cpp:386] conv1_relu -> conv1 (in-place)
I0411 13:18:29.500429 21047 net.cpp:141] Setting up conv1_relu
I0411 13:18:29.500453 21047 net.cpp:148] Top shape: 32 8 32 32 (262144)
I0411 13:18:29.500463 21047 net.cpp:156] Memory required for data: 4587904
I0411 13:18:29.500469 21047 layer_factory.hpp:77] Creating layer conv1_conv1_relu_0_split
I0411 13:18:29.500480 21047 net.cpp:91] Creating Layer conv1_conv1_relu_0_split
I0411 13:18:29.500488 21047 net.cpp:425] conv1_conv1_relu_0_split <- conv1
I0411 13:18:29.500497 21047 net.cpp:399] conv1_conv1_relu_0_split -> conv1_conv1_relu_0_split_0
I0411 13:18:29.500509 21047 net.cpp:399] conv1_conv1_relu_0_split -> conv1_conv1_relu_0_split_1
I0411 13:18:29.500581 21047 net.cpp:141] Setting up conv1_conv1_relu_0_split
I0411 13:18:29.500593 21047 net.cpp:148] Top shape: 32 8 32 32 (262144)
I0411 13:18:29.500612 21047 net.cpp:148] Top shape: 32 8 32 32 (262144)
I0411 13:18:29.500617 21047 net.cpp:156] Memory required for data: 6685056
I0411 13:18:29.500623 21047 layer_factory.hpp:77] Creating layer conv1_down
I0411 13:18:29.500640 21047 net.cpp:91] Creating Layer conv1_down
I0411 13:18:29.500648 21047 net.cpp:425] conv1_down <- conv1_conv1_relu_0_split_0
I0411 13:18:29.500661 21047 net.cpp:399] conv1_down -> conv1_down
I0411 13:18:29.502135 21047 net.cpp:141] Setting up conv1_down
I0411 13:18:29.502162 21047 net.cpp:148] Top shape: 32 128 8 8 (262144)
I0411 13:18:29.502171 21047 net.cpp:156] Memory required for data: 7733632
I0411 13:18:29.502180 21047 layer_factory.hpp:77] Creating layer scale_conv1_down
I0411 13:18:29.502198 21047 net.cpp:91] Creating Layer scale_conv1_down
I0411 13:18:29.502207 21047 net.cpp:425] scale_conv1_down <- conv1_down
I0411 13:18:29.502218 21047 net.cpp:386] scale_conv1_down -> conv1_down (in-place)
I0411 13:18:29.502293 21047 layer_factory.hpp:77] Creating layer scale_conv1_down
I0411 13:18:29.502486 21047 net.cpp:141] Setting up scale_conv1_down
I0411 13:18:29.502501 21047 net.cpp:148] Top shape: 32 128 8 8 (262144)
I0411 13:18:29.502507 21047 net.cpp:156] Memory required for data: 8782208
I0411 13:18:29.502531 21047 layer_factory.hpp:77] Creating layer conv2_1a
I0411 13:18:29.502548 21047 net.cpp:91] Creating Layer conv2_1a
I0411 13:18:29.502557 21047 net.cpp:425] conv2_1a <- conv1_conv1_relu_0_split_1
I0411 13:18:29.502571 21047 net.cpp:399] conv2_1a -> conv2_1a
I0411 13:18:29.503958 21047 net.cpp:141] Setting up conv2_1a
I0411 13:18:29.503984 21047 net.cpp:148] Top shape: 32 8 32 32 (262144)
I0411 13:18:29.503993 21047 net.cpp:156] Memory required for data: 9830784
I0411 13:18:29.504004 21047 layer_factory.hpp:77] Creating layer bn_conv2_1a
I0411 13:18:29.504019 21047 net.cpp:91] Creating Layer bn_conv2_1a
I0411 13:18:29.504026 21047 net.cpp:425] bn_conv2_1a <- conv2_1a
I0411 13:18:29.504036 21047 net.cpp:386] bn_conv2_1a -> conv2_1a (in-place)
I0411 13:18:29.504338 21047 net.cpp:141] Setting up bn_conv2_1a
I0411 13:18:29.504354 21047 net.cpp:148] Top shape: 32 8 32 32 (262144)
I0411 13:18:29.504360 21047 net.cpp:156] Memory required for data: 10879360
I0411 13:18:29.504374 21047 layer_factory.hpp:77] Creating layer scale_conv2_1a
I0411 13:18:29.504384 21047 net.cpp:91] Creating Layer scale_conv2_1a
I0411 13:18:29.504391 21047 net.cpp:425] scale_conv2_1a <- conv2_1a
I0411 13:18:29.504401 21047 net.cpp:386] scale_conv2_1a -> conv2_1a (in-place)
I0411 13:18:29.504470 21047 layer_factory.hpp:77] Creating layer scale_conv2_1a
I0411 13:18:29.504634 21047 net.cpp:141] Setting up scale_conv2_1a
I0411 13:18:29.504647 21047 net.cpp:148] Top shape: 32 8 32 32 (262144)
I0411 13:18:29.504654 21047 net.cpp:156] Memory required for data: 11927936
I0411 13:18:29.504670 21047 layer_factory.hpp:77] Creating layer conv2_1a_relu
I0411 13:18:29.504684 21047 net.cpp:91] Creating Layer conv2_1a_relu
I0411 13:18:29.504691 21047 net.cpp:425] conv2_1a_relu <- conv2_1a
I0411 13:18:29.504700 21047 net.cpp:386] conv2_1a_relu -> conv2_1a (in-place)
I0411 13:18:29.505134 21047 net.cpp:141] Setting up conv2_1a_relu
I0411 13:18:29.505159 21047 net.cpp:148] Top shape: 32 8 32 32 (262144)
I0411 13:18:29.505167 21047 net.cpp:156] Memory required for data: 12976512
I0411 13:18:29.505173 21047 layer_factory.hpp:77] Creating layer conv2_1b
I0411 13:18:29.505193 21047 net.cpp:91] Creating Layer conv2_1b
I0411 13:18:29.505201 21047 net.cpp:425] conv2_1b <- conv2_1a
I0411 13:18:29.505223 21047 net.cpp:399] conv2_1b -> conv2_1b
I0411 13:18:29.506700 21047 net.cpp:141] Setting up conv2_1b
I0411 13:18:29.506724 21047 net.cpp:148] Top shape: 32 8 32 32 (262144)
I0411 13:18:29.506732 21047 net.cpp:156] Memory required for data: 14025088
I0411 13:18:29.506744 21047 layer_factory.hpp:77] Creating layer bn_conv2_1b
I0411 13:18:29.506759 21047 net.cpp:91] Creating Layer bn_conv2_1b
I0411 13:18:29.506767 21047 net.cpp:425] bn_conv2_1b <- conv2_1b
I0411 13:18:29.506779 21047 net.cpp:386] bn_conv2_1b -> conv2_1b (in-place)
I0411 13:18:29.507066 21047 net.cpp:141] Setting up bn_conv2_1b
I0411 13:18:29.507081 21047 net.cpp:148] Top shape: 32 8 32 32 (262144)
I0411 13:18:29.507086 21047 net.cpp:156] Memory required for data: 15073664
I0411 13:18:29.507100 21047 layer_factory.hpp:77] Creating layer scale_conv2_1b
I0411 13:18:29.507114 21047 net.cpp:91] Creating Layer scale_conv2_1b
I0411 13:18:29.507122 21047 net.cpp:425] scale_conv2_1b <- conv2_1b
I0411 13:18:29.507131 21047 net.cpp:386] scale_conv2_1b -> conv2_1b (in-place)
I0411 13:18:29.507200 21047 layer_factory.hpp:77] Creating layer scale_conv2_1b
I0411 13:18:29.507369 21047 net.cpp:141] Setting up scale_conv2_1b
I0411 13:18:29.507383 21047 net.cpp:148] Top shape: 32 8 32 32 (262144)
I0411 13:18:29.507390 21047 net.cpp:156] Memory required for data: 16122240
I0411 13:18:29.507400 21047 layer_factory.hpp:77] Creating layer conv2_1b_relu
I0411 13:18:29.507414 21047 net.cpp:91] Creating Layer conv2_1b_relu
I0411 13:18:29.507421 21047 net.cpp:425] conv2_1b_relu <- conv2_1b
I0411 13:18:29.507431 21047 net.cpp:386] conv2_1b_relu -> conv2_1b (in-place)
I0411 13:18:29.507695 21047 net.cpp:141] Setting up conv2_1b_relu
I0411 13:18:29.507714 21047 net.cpp:148] Top shape: 32 8 32 32 (262144)
I0411 13:18:29.507726 21047 net.cpp:156] Memory required for data: 17170816
I0411 13:18:29.507733 21047 layer_factory.hpp:77] Creating layer conv2_1b_conv2_1b_relu_0_split
I0411 13:18:29.507743 21047 net.cpp:91] Creating Layer conv2_1b_conv2_1b_relu_0_split
I0411 13:18:29.507750 21047 net.cpp:425] conv2_1b_conv2_1b_relu_0_split <- conv2_1b
I0411 13:18:29.507762 21047 net.cpp:399] conv2_1b_conv2_1b_relu_0_split -> conv2_1b_conv2_1b_relu_0_split_0
I0411 13:18:29.507774 21047 net.cpp:399] conv2_1b_conv2_1b_relu_0_split -> conv2_1b_conv2_1b_relu_0_split_1
I0411 13:18:29.507840 21047 net.cpp:141] Setting up conv2_1b_conv2_1b_relu_0_split
I0411 13:18:29.507854 21047 net.cpp:148] Top shape: 32 8 32 32 (262144)
I0411 13:18:29.507863 21047 net.cpp:148] Top shape: 32 8 32 32 (262144)
I0411 13:18:29.507869 21047 net.cpp:156] Memory required for data: 19267968
I0411 13:18:29.507874 21047 layer_factory.hpp:77] Creating layer conv2_down
I0411 13:18:29.507890 21047 net.cpp:91] Creating Layer conv2_down
I0411 13:18:29.507897 21047 net.cpp:425] conv2_down <- conv2_1b_conv2_1b_relu_0_split_0
I0411 13:18:29.507908 21047 net.cpp:399] conv2_down -> conv2_down
I0411 13:18:29.509321 21047 net.cpp:141] Setting up conv2_down
I0411 13:18:29.509347 21047 net.cpp:148] Top shape: 32 128 8 8 (262144)
I0411 13:18:29.509354 21047 net.cpp:156] Memory required for data: 20316544
I0411 13:18:29.509364 21047 layer_factory.hpp:77] Creating layer scale_conv2_down
I0411 13:18:29.509380 21047 net.cpp:91] Creating Layer scale_conv2_down
I0411 13:18:29.509388 21047 net.cpp:425] scale_conv2_down <- conv2_down
I0411 13:18:29.509399 21047 net.cpp:386] scale_conv2_down -> conv2_down (in-place)
I0411 13:18:29.509474 21047 layer_factory.hpp:77] Creating layer scale_conv2_down
I0411 13:18:29.509640 21047 net.cpp:141] Setting up scale_conv2_down
I0411 13:18:29.509654 21047 net.cpp:148] Top shape: 32 128 8 8 (262144)
I0411 13:18:29.509660 21047 net.cpp:156] Memory required for data: 21365120
I0411 13:18:29.509671 21047 layer_factory.hpp:77] Creating layer conv3_1a
I0411 13:18:29.509688 21047 net.cpp:91] Creating Layer conv3_1a
I0411 13:18:29.509696 21047 net.cpp:425] conv3_1a <- conv2_1b_conv2_1b_relu_0_split_1
I0411 13:18:29.509712 21047 net.cpp:399] conv3_1a -> conv3_1a
I0411 13:18:29.512086 21047 net.cpp:141] Setting up conv3_1a
I0411 13:18:29.512140 21047 net.cpp:148] Top shape: 32 32 16 16 (262144)
I0411 13:18:29.512151 21047 net.cpp:156] Memory required for data: 22413696
I0411 13:18:29.512173 21047 layer_factory.hpp:77] Creating layer bn_conv3_1a
I0411 13:18:29.512202 21047 net.cpp:91] Creating Layer bn_conv3_1a
I0411 13:18:29.512214 21047 net.cpp:425] bn_conv3_1a <- conv3_1a
I0411 13:18:29.512231 21047 net.cpp:386] bn_conv3_1a -> conv3_1a (in-place)
I0411 13:18:29.512644 21047 net.cpp:141] Setting up bn_conv3_1a
I0411 13:18:29.512661 21047 net.cpp:148] Top shape: 32 32 16 16 (262144)
I0411 13:18:29.512670 21047 net.cpp:156] Memory required for data: 23462272
I0411 13:18:29.512689 21047 layer_factory.hpp:77] Creating layer scale_conv3_1a
I0411 13:18:29.512709 21047 net.cpp:91] Creating Layer scale_conv3_1a
I0411 13:18:29.512719 21047 net.cpp:425] scale_conv3_1a <- conv3_1a
I0411 13:18:29.512732 21047 net.cpp:386] scale_conv3_1a -> conv3_1a (in-place)
I0411 13:18:29.512831 21047 layer_factory.hpp:77] Creating layer scale_conv3_1a
I0411 13:18:29.513072 21047 net.cpp:141] Setting up scale_conv3_1a
I0411 13:18:29.513089 21047 net.cpp:148] Top shape: 32 32 16 16 (262144)
I0411 13:18:29.513098 21047 net.cpp:156] Memory required for data: 24510848
I0411 13:18:29.513150 21047 layer_factory.hpp:77] Creating layer conv3_1a_relu
I0411 13:18:29.513171 21047 net.cpp:91] Creating Layer conv3_1a_relu
I0411 13:18:29.513181 21047 net.cpp:425] conv3_1a_relu <- conv3_1a
I0411 13:18:29.513193 21047 net.cpp:386] conv3_1a_relu -> conv3_1a (in-place)
I0411 13:18:29.513567 21047 net.cpp:141] Setting up conv3_1a_relu
I0411 13:18:29.513591 21047 net.cpp:148] Top shape: 32 32 16 16 (262144)
I0411 13:18:29.513599 21047 net.cpp:156] Memory required for data: 25559424
I0411 13:18:29.513619 21047 layer_factory.hpp:77] Creating layer conv3_1b
I0411 13:18:29.513646 21047 net.cpp:91] Creating Layer conv3_1b
I0411 13:18:29.513658 21047 net.cpp:425] conv3_1b <- conv3_1a
I0411 13:18:29.513677 21047 net.cpp:399] conv3_1b -> conv3_1b
I0411 13:18:29.516476 21047 net.cpp:141] Setting up conv3_1b
I0411 13:18:29.516508 21047 net.cpp:148] Top shape: 32 32 16 16 (262144)
I0411 13:18:29.516518 21047 net.cpp:156] Memory required for data: 26608000
I0411 13:18:29.516535 21047 layer_factory.hpp:77] Creating layer bn_conv3_1b
I0411 13:18:29.516556 21047 net.cpp:91] Creating Layer bn_conv3_1b
I0411 13:18:29.516566 21047 net.cpp:425] bn_conv3_1b <- conv3_1b
I0411 13:18:29.516583 21047 net.cpp:386] bn_conv3_1b -> conv3_1b (in-place)
I0411 13:18:29.516981 21047 net.cpp:141] Setting up bn_conv3_1b
I0411 13:18:29.516999 21047 net.cpp:148] Top shape: 32 32 16 16 (262144)
I0411 13:18:29.517007 21047 net.cpp:156] Memory required for data: 27656576
I0411 13:18:29.517025 21047 layer_factory.hpp:77] Creating layer scale_conv3_1b
I0411 13:18:29.517045 21047 net.cpp:91] Creating Layer scale_conv3_1b
I0411 13:18:29.517053 21047 net.cpp:425] scale_conv3_1b <- conv3_1b
I0411 13:18:29.517066 21047 net.cpp:386] scale_conv3_1b -> conv3_1b (in-place)
I0411 13:18:29.517180 21047 layer_factory.hpp:77] Creating layer scale_conv3_1b
I0411 13:18:29.517419 21047 net.cpp:141] Setting up scale_conv3_1b
I0411 13:18:29.517434 21047 net.cpp:148] Top shape: 32 32 16 16 (262144)
I0411 13:18:29.517443 21047 net.cpp:156] Memory required for data: 28705152
I0411 13:18:29.517457 21047 layer_factory.hpp:77] Creating layer conv3_1b_relu
I0411 13:18:29.517473 21047 net.cpp:91] Creating Layer conv3_1b_relu
I0411 13:18:29.517482 21047 net.cpp:425] conv3_1b_relu <- conv3_1b
I0411 13:18:29.517493 21047 net.cpp:386] conv3_1b_relu -> conv3_1b (in-place)
I0411 13:18:29.518018 21047 net.cpp:141] Setting up conv3_1b_relu
I0411 13:18:29.518044 21047 net.cpp:148] Top shape: 32 32 16 16 (262144)
I0411 13:18:29.518054 21047 net.cpp:156] Memory required for data: 29753728
I0411 13:18:29.518062 21047 layer_factory.hpp:77] Creating layer conv3_down
I0411 13:18:29.518087 21047 net.cpp:91] Creating Layer conv3_down
I0411 13:18:29.518098 21047 net.cpp:425] conv3_down <- conv3_1b
I0411 13:18:29.518112 21047 net.cpp:399] conv3_down -> conv3_down
I0411 13:18:29.519920 21047 net.cpp:141] Setting up conv3_down
I0411 13:18:29.519953 21047 net.cpp:148] Top shape: 32 128 8 8 (262144)
I0411 13:18:29.519963 21047 net.cpp:156] Memory required for data: 30802304
I0411 13:18:29.519976 21047 layer_factory.hpp:77] Creating layer scale_conv3_down
I0411 13:18:29.519992 21047 net.cpp:91] Creating Layer scale_conv3_down
I0411 13:18:29.520004 21047 net.cpp:425] scale_conv3_down <- conv3_down
I0411 13:18:29.520020 21047 net.cpp:386] scale_conv3_down -> conv3_down (in-place)
I0411 13:18:29.520113 21047 layer_factory.hpp:77] Creating layer scale_conv3_down
I0411 13:18:29.520336 21047 net.cpp:141] Setting up scale_conv3_down
I0411 13:18:29.520352 21047 net.cpp:148] Top shape: 32 128 8 8 (262144)
I0411 13:18:29.520360 21047 net.cpp:156] Memory required for data: 31850880
I0411 13:18:29.520375 21047 layer_factory.hpp:77] Creating layer global_in
I0411 13:18:29.520387 21047 net.cpp:91] Creating Layer global_in
I0411 13:18:29.520396 21047 net.cpp:425] global_in <- conv1_down
I0411 13:18:29.520407 21047 net.cpp:425] global_in <- conv2_down
I0411 13:18:29.520417 21047 net.cpp:425] global_in <- conv3_down
I0411 13:18:29.520428 21047 net.cpp:399] global_in -> global_in
I0411 13:18:29.520490 21047 net.cpp:141] Setting up global_in
I0411 13:18:29.520509 21047 net.cpp:148] Top shape: 32 128 8 8 (262144)
I0411 13:18:29.520517 21047 net.cpp:156] Memory required for data: 32899456
I0411 13:18:29.520526 21047 layer_factory.hpp:77] Creating layer global_pool
I0411 13:18:29.520540 21047 net.cpp:91] Creating Layer global_pool
I0411 13:18:29.520548 21047 net.cpp:425] global_pool <- global_in
I0411 13:18:29.520560 21047 net.cpp:399] global_pool -> global_pool
I0411 13:18:29.520933 21047 net.cpp:141] Setting up global_pool
I0411 13:18:29.520964 21047 net.cpp:148] Top shape: 32 128 1 1 (4096)
I0411 13:18:29.520973 21047 net.cpp:156] Memory required for data: 32915840
I0411 13:18:29.520982 21047 layer_factory.hpp:77] Creating layer ip
I0411 13:18:29.521008 21047 net.cpp:91] Creating Layer ip
I0411 13:18:29.521018 21047 net.cpp:425] ip <- global_pool
I0411 13:18:29.521034 21047 net.cpp:399] ip -> ip
I0411 13:18:29.521265 21047 net.cpp:141] Setting up ip
I0411 13:18:29.521283 21047 net.cpp:148] Top shape: 32 10 (320)
I0411 13:18:29.521291 21047 net.cpp:156] Memory required for data: 32917120
I0411 13:18:29.521306 21047 layer_factory.hpp:77] Creating layer ip_ip_0_split
I0411 13:18:29.521322 21047 net.cpp:91] Creating Layer ip_ip_0_split
I0411 13:18:29.521332 21047 net.cpp:425] ip_ip_0_split <- ip
I0411 13:18:29.521343 21047 net.cpp:399] ip_ip_0_split -> ip_ip_0_split_0
I0411 13:18:29.521358 21047 net.cpp:399] ip_ip_0_split -> ip_ip_0_split_1
I0411 13:18:29.521432 21047 net.cpp:141] Setting up ip_ip_0_split
I0411 13:18:29.521446 21047 net.cpp:148] Top shape: 32 10 (320)
I0411 13:18:29.521456 21047 net.cpp:148] Top shape: 32 10 (320)
I0411 13:18:29.521464 21047 net.cpp:156] Memory required for data: 32919680
I0411 13:18:29.521472 21047 layer_factory.hpp:77] Creating layer accuracy
I0411 13:18:29.521486 21047 net.cpp:91] Creating Layer accuracy
I0411 13:18:29.521493 21047 net.cpp:425] accuracy <- ip_ip_0_split_0
I0411 13:18:29.521504 21047 net.cpp:425] accuracy <- label_data_1_split_0
I0411 13:18:29.521518 21047 net.cpp:399] accuracy -> accuracy
…
I0411 13:37:45.341030 13056 net.cpp:313] The NetState phase (0) differed from the phase (1) specified by a rule in layer data
I0411 13:37:45.341328 13056 net.cpp:49] Initializing net from parameters: 
name: "CifarResNet0"
state {
  phase: TRAIN
}
layer {
  name: "data"
  type: "Data"
  top: "data"
  top: "label"
  include {
    phase: TRAIN
  }
  transform_param {
    mean_file: "/home/liangjiang/code/residual_network/data/cifar10/mean.binaryproto"
  }
  data_param {
    source: "/home/liangjiang/code/residual_network/data/cifar10/cifar10_train_lmdb"
    batch_size: 128
    backend: LMDB
  }
}
layer {
  name: "conv1"
  type: "Convolution"
  bottom: "data"
  top: "conv1"
  param {
    lr_mult: 1
  }
  param {
    lr_mult: 2
  }
  convolution_param {
    num_output: 8
    pad: 1
    kernel_size: 3
    stride: 1
    weight_filler {
      type: "msra"
    }
    bias_filler {
      type: "constant"
      value: 0
    }
  }
}
layer {
  name: "bn_conv1"
  type: "BatchNorm"
  bottom: "conv1"
  top: "conv1"
  param {
    lr_mult: 0
  }
  param {
    lr_mult: 0
  }
  param {
    lr_mult: 0
  }
}
layer {
  name: "scale_conv1"
  type: "Scale"
  bottom: "conv1"
  top: "conv1"
  param {
    lr_mult: 1
  }
  param {
    lr_mult: 2
  }
  scale_param {
    bias_term: true
  }
}
layer {
  name: "conv1_relu"
  type: "ReLU"
  bottom: "conv1"
  top: "conv1"
}
layer {
  name: "conv1_down"
  type: "Convolution"
  bottom: "conv1"
  top: "conv1_down"
  param {
    lr_mult: 0
  }
  convolution_param {
    num_output: 128
    bias_term: false
    pad: 0
    kernel_size: 4
    stride: 4
    weight_filler {
      type: "downsample"
      value: 1
    }
  }
}
layer {
  name: "scale_conv1_down"
  type: "Scale"
  bottom: "conv1_down"
  top: "conv1_down"
  param {
    lr_mult: 1
  }
  param {
    lr_mult: 2
  }
  scale_param {
    filler {
      type: "constant"
      value: 1
    }
    bias_term: true
  }
}
layer {
  name: "conv2_1a"
  type: "Convolution"
  bottom: "conv1"
  top: "conv2_1a"
  param {
    lr_mult: 1
  }
  param {
    lr_mult: 2
  }
  convolution_param {
    num_output: 8
    pad: 1
    kernel_size: 3
    stride: 1
    weight_filler {
      type: "msra"
    }
    bias_filler {
      type: "constant"
      value: 0
    }
  }
}
layer {
  name: "bn_conv2_1a"
  type: "BatchNorm"
  bottom: "conv2_1a"
  top: "conv2_1a"
  param {
    lr_mult: 0
  }
  param {
    lr_mult: 0
  }
  param {
    lr_mult: 0
  }
}
layer {
  name: "scale_conv2_1a"
  type: "Scale"
  bottom: "conv2_1a"
  top: "conv2_1a"
  param {
    lr_mult: 1
  }
  param {
    lr_mult: 2
  }
  scale_param {
    bias_term: true
  }
}
layer {
  name: "conv2_1a_relu"
  type: "ReLU"
  bottom: "conv2_1a"
  top: "conv2_1a"
}
layer {
  name: "conv2_1b"
  type: "Convolution"
  bottom: "conv2_1a"
  top: "conv2_1b"
  param {
    lr_mult: 1
  }
  param {
    lr_mult: 2
  }
  convolution_param {
    num_output: 8
    pad: 1
    kernel_size: 3
    stride: 1
    weight_filler {
      type: "msra"
    }
    bias_filler {
      type: "constant"
      value: 0
    }
  }
}
layer {
  name: "bn_conv2_1b"
  type: "BatchNorm"
  bottom: "conv2_1b"
  top: "conv2_1b"
  param {
    lr_mult: 0
  }
  param {
    lr_mult: 0
  }
  param {
    lr_mult: 0
  }
}
layer {
  name: "scale_conv2_1b"
  type: "Scale"
  bottom: "conv2_1b"
  top: "conv2_1b"
  param {
    lr_mult: 1
  }
  param {
    lr_mult: 2
  }
  scale_param {
    bias_term: true
  }
}
layer {
  name: "conv2_1b_relu"
  type: "ReLU"
  bottom: "conv2_1b"
  top: "conv2_1b"
}
layer {
  name: "conv2_down"
  type: "Convolution"
  bottom: "conv2_1b"
  top: "conv2_down"
  param {
    lr_mult: 0
  }
  convolution_param {
    num_output: 128
    bias_term: false
    pad: 0
    kernel_size: 4
    stride: 4
    weight_filler {
      type: "downsample"
      value: 1
    }
  }
}
layer {
  name: "scale_conv2_down"
  type: "Scale"
  bottom: "conv2_down"
  top: "conv2_down"
  param {
    lr_mult: 1
  }
  param {
    lr_mult: 2
  }
  scale_param {
    filler {
      type: "constant"
      value: 1
    }
    bias_term: true
  }
}
layer {
  name: "conv3_1a"
  type: "Convolution"
  bottom: "conv2_1b"
  top: "conv3_1a"
  param {
    lr_mult: 1
  }
  param {
    lr_mult: 2
  }
  convolution_param {
    num_output: 32
    pad: 0
    kernel_size: 1
    stride: 2
    weight_filler {
      type: "msra"
    }
    bias_filler {
      type: "constant"
      value: 0
    }
  }
}
layer {
  name: "bn_conv3_1a"
  type: "BatchNorm"
  bottom: "conv3_1a"
  top: "conv3_1a"
  param {
    lr_mult: 0
  }
  param {
    lr_mult: 0
  }
  param {
    lr_mult: 0
  }
}
layer {
  name: "scale_conv3_1a"
  type: "Scale"
  bottom: "conv3_1a"
  top: "conv3_1a"
  param {
    lr_mult: 1
  }
  param {
    lr_mult: 2
  }
  scale_param {
    bias_term: true
  }
}
layer {
  name: "conv3_1a_relu"
  type: "ReLU"
  bottom: "conv3_1a"
  top: "conv3_1a"
}
layer {
  name: "conv3_1b"
  type: "Convolution"
  bottom: "conv3_1a"
  top: "conv3_1b"
  param {
    lr_mult: 2
  }
  param {
    lr_mult: 2
  }
  convolution_param {
    num_output: 32
    pad: 1
    kernel_size: 3
    stride: 1
    weight_filler {
      type: "msra"
    }
    bias_filler {
      type: "constant"
      value: 0
    }
  }
}
layer {
  name: "bn_conv3_1b"
  type: "BatchNorm"
  bottom: "conv3_1b"
  top: "conv3_1b"
  param {
    lr_mult: 0
  }
  param {
    lr_mult: 0
  }
  param {
    lr_mult: 0
  }
}
layer {
  name: "scale_conv3_1b"
  type: "Scale"
  bottom: "conv3_1b"
  top: "conv3_1b"
  param {
    lr_mult: 1
  }
  param {
    lr_mult: 2
  }
  scale_param {
    bias_term: true
  }
}
layer {
  name: "conv3_1b_relu"
  type: "ReLU"
  bottom: "conv3_1b"
  top: "conv3_1b"
}
layer {
  name: "conv3_down"
  type: "Convolution"
  bottom: "conv3_1b"
  top: "conv3_down"
  param {
    lr_mult: 0
  }
  convolution_param {
    num_output: 128
    bias_term: false
    pad: 0
    kernel_size: 2
    stride: 2
    weight_filler {
      type: "downsample"
      value: 1
    }
  }
}
layer {
  name: "scale_conv3_down"
  type: "Scale"
  bottom: "conv3_down"
  top: "conv3_down"
  param {
    lr_mult: 1
  }
  param {
    lr_mult: 2
  }
  scale_param {
    filler {
      type: "constant"
      value: 1
    }
    bias_term: true
  }
}
layer {
  name: "conv4_1a"
  type: "Convolution"
  bottom: "conv3_1b"
  top: "conv4_1a"
  param {
    lr_mult: 1
  }
  param {
    lr_mult: 2
  }
  convolution_param {
    num_output: 128
    pad: 0
    kernel_size: 1
    stride: 2
    weight_filler {
      type: "msra"
    }
    bias_filler {
      type: "constant"
      value: 0
    }
  }
}
layer {
  name: "bn_conv4_1a"
  type: "BatchNorm"
  bottom: "conv4_1a"
  top: "conv4_1a"
  param {
    lr_mult: 0
  }
  param {
    lr_mult: 0
  }
  param {
    lr_mult: 0
  }
}
layer {
  name: "scale_conv4_1a"
  type: "Scale"
  bottom: "conv4_1a"
  top: "conv4_1a"
  param {
    lr_mult: 1
  }
  param {
    lr_mult: 2
  }
  scale_param {
    bias_term: true
  }
}
layer {
  name: "conv4_1a_relu"
  type: "ReLU"
  bottom: "conv4_1a"
  top: "conv4_1a"
}
layer {
  name: "conv4_1b"
  type: "Convolution"
  bottom: "conv4_1a"
  top: "conv4_1b"
  param {
    lr_mult: 1
  }
  param {
    lr_mult: 2
  }
  convolution_param {
    num_output: 128
    pad: 1
    kernel_size: 3
    stride: 1
    weight_filler {
      type: "msra"
    }
    bias_filler {
      type: "constant"
      value: 0
    }
  }
}
layer {
  name: "bn_conv4_1b"
  type: "BatchNorm"
  bottom: "conv4_1b"
  top: "conv4_1b"
  param {
    lr_mult: 0
  }
  param {
    lr_mult: 0
  }
  param {
    lr_mult: 0
  }
}
layer {
  name: "scale_conv4_1b"
  type: "Scale"
  bottom: "conv4_1b"
  top: "conv4_1b"
  param {
    lr_mult: 1
  }
  param {
    lr_mult: 2
  }
  scale_param {
    bias_term: true
  }
}
layer {
  name: "conv4_1b_relu"
  type: "ReLU"
  bottom: "conv4_1b"
  top: "conv4_1b"
}
layer {
  name: "conv4_down"
  type: "Convolution"
  bottom: "conv4_1b"
  top: "conv4_down"
  param {
    lr_mult: 0
  }
  convolution_param {
    num_output: 128
    bias_term: false
    pad: 0
    kernel_size: 1
    stride: 1
    weight_filler {
      type: "downsample"
      value: 0
    }
  }
}
layer {
  name: "scale_conv4_down"
  type: "Scale"
  bottom: "conv4_down"
  top: "conv4_down"
  param {
    lr_mult: 1
  }
  param {
    lr_mult: 2
  }
  scale_param {
    filler {
      type: "constant"
      value: 0
    }
    bias_term: true
  }
}
layer {
  name: "global_in"
  type: "Eltwise"
  bottom: "conv1_down"
  bottom: "conv2_down"
  bottom: "conv3_down"
  bottom: "conv4_down"
  top: "global_in"
}
layer {
  name: "global_pool"
  type: "Pooling"
  bottom: "global_in"
  top: "global_pool"
  pooling_param {
    pool: AVE
    kernel_size: 8
  }
}
layer {
  name: "ip"
  type: "InnerProduct"
  bottom: "global_pool"
  top: "ip"
  param {
    lr_mult: 1
  }
  param {
    lr_mult: 2
  }
  inner_product_param {
    num_output: 10
  }
}
layer {
  name: "accuracy"
  type: "Accuracy"
  bottom: "ip"
  bottom: "label"
  top: "accuracy"
}
layer {
  name: "loss"
  type: "SoftmaxWithLoss"
  bottom: "ip"
  bottom: "label"
  top: "loss"
}
I0411 13:37:45.341553 13056 layer_factory.hpp:77] Creating layer data
I0411 13:37:45.341990 13056 net.cpp:91] Creating Layer data
I0411 13:37:45.342003 13056 net.cpp:399] data -> data
I0411 13:37:45.342016 13056 net.cpp:399] data -> label
I0411 13:37:45.342063 13056 data_transformer.cpp:25] Loading mean file from: /home/liangjiang/code/residual_network/data/cifar10/mean.binaryproto
I0411 13:37:45.343981 13103 db_lmdb.cpp:38] Opened lmdb /home/liangjiang/code/residual_network/data/cifar10/cifar10_train_lmdb
I0411 13:37:45.352087 13056 data_layer.cpp:41] output data size: 128,3,32,32
I0411 13:37:45.355027 13056 net.cpp:141] Setting up data
I0411 13:37:45.355046 13056 net.cpp:148] Top shape: 128 3 32 32 (393216)
I0411 13:37:45.355053 13056 net.cpp:148] Top shape: 128 (128)
I0411 13:37:45.355058 13056 net.cpp:156] Memory required for data: 1573376
I0411 13:37:45.355064 13056 layer_factory.hpp:77] Creating layer label_data_1_split
I0411 13:37:45.355080 13056 net.cpp:91] Creating Layer label_data_1_split
I0411 13:37:45.355087 13056 net.cpp:425] label_data_1_split <- label
I0411 13:37:45.355095 13056 net.cpp:399] label_data_1_split -> label_data_1_split_0
I0411 13:37:45.355106 13056 net.cpp:399] label_data_1_split -> label_data_1_split_1
I0411 13:37:45.355176 13056 net.cpp:141] Setting up label_data_1_split
I0411 13:37:45.355186 13056 net.cpp:148] Top shape: 128 (128)
I0411 13:37:45.355192 13056 net.cpp:148] Top shape: 128 (128)
I0411 13:37:45.355196 13056 net.cpp:156] Memory required for data: 1574400
I0411 13:37:45.355201 13056 layer_factory.hpp:77] Creating layer conv1
I0411 13:37:45.355219 13056 net.cpp:91] Creating Layer conv1
I0411 13:37:45.355226 13056 net.cpp:425] conv1 <- data
I0411 13:37:45.355234 13056 net.cpp:399] conv1 -> conv1
I0411 13:37:45.585636 13056 net.cpp:141] Setting up conv1
I0411 13:37:45.585690 13056 net.cpp:148] Top shape: 128 8 32 32 (1048576)
I0411 13:37:45.585700 13056 net.cpp:156] Memory required for data: 5768704
I0411 13:37:45.585726 13056 layer_factory.hpp:77] Creating layer bn_conv1
I0411 13:37:45.585755 13056 net.cpp:91] Creating Layer bn_conv1
I0411 13:37:45.585764 13056 net.cpp:425] bn_conv1 <- conv1
I0411 13:37:45.585775 13056 net.cpp:386] bn_conv1 -> conv1 (in-place)
I0411 13:37:45.585994 13056 net.cpp:141] Setting up bn_conv1
I0411 13:37:45.586005 13056 net.cpp:148] Top shape: 128 8 32 32 (1048576)
I0411 13:37:45.586012 13056 net.cpp:156] Memory required for data: 9963008
I0411 13:37:45.586030 13056 layer_factory.hpp:77] Creating layer scale_conv1
I0411 13:37:45.586046 13056 net.cpp:91] Creating Layer scale_conv1
I0411 13:37:45.586052 13056 net.cpp:425] scale_conv1 <- conv1
I0411 13:37:45.586061 13056 net.cpp:386] scale_conv1 -> conv1 (in-place)
I0411 13:37:45.586109 13056 layer_factory.hpp:77] Creating layer scale_conv1
I0411 13:37:45.586230 13056 net.cpp:141] Setting up scale_conv1
I0411 13:37:45.586241 13056 net.cpp:148] Top shape: 128 8 32 32 (1048576)
I0411 13:37:45.586247 13056 net.cpp:156] Memory required for data: 14157312
I0411 13:37:45.586258 13056 layer_factory.hpp:77] Creating layer conv1_relu
I0411 13:37:45.586269 13056 net.cpp:91] Creating Layer conv1_relu
I0411 13:37:45.586275 13056 net.cpp:425] conv1_relu <- conv1
I0411 13:37:45.586283 13056 net.cpp:386] conv1_relu -> conv1 (in-place)
I0411 13:37:45.586613 13056 net.cpp:141] Setting up conv1_relu
I0411 13:37:45.586632 13056 net.cpp:148] Top shape: 128 8 32 32 (1048576)
I0411 13:37:45.586638 13056 net.cpp:156] Memory required for data: 18351616
I0411 13:37:45.586645 13056 layer_factory.hpp:77] Creating layer conv1_conv1_relu_0_split
I0411 13:37:45.586657 13056 net.cpp:91] Creating Layer conv1_conv1_relu_0_split
I0411 13:37:45.586663 13056 net.cpp:425] conv1_conv1_relu_0_split <- conv1
I0411 13:37:45.586673 13056 net.cpp:399] conv1_conv1_relu_0_split -> conv1_conv1_relu_0_split_0
I0411 13:37:45.586684 13056 net.cpp:399] conv1_conv1_relu_0_split -> conv1_conv1_relu_0_split_1
I0411 13:37:45.586732 13056 net.cpp:141] Setting up conv1_conv1_relu_0_split
I0411 13:37:45.586742 13056 net.cpp:148] Top shape: 128 8 32 32 (1048576)
I0411 13:37:45.586750 13056 net.cpp:148] Top shape: 128 8 32 32 (1048576)
I0411 13:37:45.586755 13056 net.cpp:156] Memory required for data: 26740224
I0411 13:37:45.586761 13056 layer_factory.hpp:77] Creating layer conv1_down
I0411 13:37:45.586777 13056 net.cpp:91] Creating Layer conv1_down
I0411 13:37:45.586784 13056 net.cpp:425] conv1_down <- conv1_conv1_relu_0_split_0
I0411 13:37:45.586793 13056 net.cpp:399] conv1_down -> conv1_down
I0411 13:37:45.588371 13056 net.cpp:141] Setting up conv1_down
I0411 13:37:45.588392 13056 net.cpp:148] Top shape: 128 128 8 8 (1048576)
I0411 13:37:45.588399 13056 net.cpp:156] Memory required for data: 30934528
I0411 13:37:45.588409 13056 layer_factory.hpp:77] Creating layer scale_conv1_down
I0411 13:37:45.588423 13056 net.cpp:91] Creating Layer scale_conv1_down
I0411 13:37:45.588431 13056 net.cpp:425] scale_conv1_down <- conv1_down
I0411 13:37:45.588440 13056 net.cpp:386] scale_conv1_down -> conv1_down (in-place)
I0411 13:37:45.588495 13056 layer_factory.hpp:77] Creating layer scale_conv1_down
I0411 13:37:45.588614 13056 net.cpp:141] Setting up scale_conv1_down
I0411 13:37:45.588626 13056 net.cpp:148] Top shape: 128 128 8 8 (1048576)
I0411 13:37:45.588632 13056 net.cpp:156] Memory required for data: 35128832
I0411 13:37:45.588646 13056 layer_factory.hpp:77] Creating layer conv2_1a
I0411 13:37:45.588661 13056 net.cpp:91] Creating Layer conv2_1a
I0411 13:37:45.588668 13056 net.cpp:425] conv2_1a <- conv1_conv1_relu_0_split_1
I0411 13:37:45.588678 13056 net.cpp:399] conv2_1a -> conv2_1a
I0411 13:37:45.589761 13056 net.cpp:141] Setting up conv2_1a
I0411 13:37:45.589781 13056 net.cpp:148] Top shape: 128 8 32 32 (1048576)
I0411 13:37:45.589788 13056 net.cpp:156] Memory required for data: 39323136
I0411 13:37:45.589799 13056 layer_factory.hpp:77] Creating layer bn_conv2_1a
I0411 13:37:45.589812 13056 net.cpp:91] Creating Layer bn_conv2_1a
I0411 13:37:45.589818 13056 net.cpp:425] bn_conv2_1a <- conv2_1a
I0411 13:37:45.589828 13056 net.cpp:386] bn_conv2_1a -> conv2_1a (in-place)
I0411 13:37:45.590032 13056 net.cpp:141] Setting up bn_conv2_1a
I0411 13:37:45.590044 13056 net.cpp:148] Top shape: 128 8 32 32 (1048576)
I0411 13:37:45.590050 13056 net.cpp:156] Memory required for data: 43517440
I0411 13:37:45.590062 13056 layer_factory.hpp:77] Creating layer scale_conv2_1a
I0411 13:37:45.590073 13056 net.cpp:91] Creating Layer scale_conv2_1a
I0411 13:37:45.590080 13056 net.cpp:425] scale_conv2_1a <- conv2_1a
I0411 13:37:45.590087 13056 net.cpp:386] scale_conv2_1a -> conv2_1a (in-place)
I0411 13:37:45.590128 13056 layer_factory.hpp:77] Creating layer scale_conv2_1a
I0411 13:37:45.590240 13056 net.cpp:141] Setting up scale_conv2_1a
I0411 13:37:45.590251 13056 net.cpp:148] Top shape: 128 8 32 32 (1048576)
I0411 13:37:45.590256 13056 net.cpp:156] Memory required for data: 47711744
I0411 13:37:45.590270 13056 layer_factory.hpp:77] Creating layer conv2_1a_relu
I0411 13:37:45.590279 13056 net.cpp:91] Creating Layer conv2_1a_relu
I0411 13:37:45.590286 13056 net.cpp:425] conv2_1a_relu <- conv2_1a
I0411 13:37:45.590292 13056 net.cpp:386] conv2_1a_relu -> conv2_1a (in-place)
I0411 13:37:45.590610 13056 net.cpp:141] Setting up conv2_1a_relu
I0411 13:37:45.590627 13056 net.cpp:148] Top shape: 128 8 32 32 (1048576)
I0411 13:37:45.590633 13056 net.cpp:156] Memory required for data: 51906048
I0411 13:37:45.590639 13056 layer_factory.hpp:77] Creating layer conv2_1b
I0411 13:37:45.590654 13056 net.cpp:91] Creating Layer conv2_1b
I0411 13:37:45.590662 13056 net.cpp:425] conv2_1b <- conv2_1a
I0411 13:37:45.590672 13056 net.cpp:399] conv2_1b -> conv2_1b
I0411 13:37:45.591783 13056 net.cpp:141] Setting up conv2_1b
I0411 13:37:45.591802 13056 net.cpp:148] Top shape: 128 8 32 32 (1048576)
I0411 13:37:45.591809 13056 net.cpp:156] Memory required for data: 56100352
I0411 13:37:45.591820 13056 layer_factory.hpp:77] Creating layer bn_conv2_1b
I0411 13:37:45.591832 13056 net.cpp:91] Creating Layer bn_conv2_1b
I0411 13:37:45.591840 13056 net.cpp:425] bn_conv2_1b <- conv2_1b
I0411 13:37:45.591850 13056 net.cpp:386] bn_conv2_1b -> conv2_1b (in-place)
I0411 13:37:45.592062 13056 net.cpp:141] Setting up bn_conv2_1b
I0411 13:37:45.592073 13056 net.cpp:148] Top shape: 128 8 32 32 (1048576)
I0411 13:37:45.592078 13056 net.cpp:156] Memory required for data: 60294656
I0411 13:37:45.592089 13056 layer_factory.hpp:77] Creating layer scale_conv2_1b
I0411 13:37:45.592103 13056 net.cpp:91] Creating Layer scale_conv2_1b
I0411 13:37:45.592109 13056 net.cpp:425] scale_conv2_1b <- conv2_1b
I0411 13:37:45.592118 13056 net.cpp:386] scale_conv2_1b -> conv2_1b (in-place)
I0411 13:37:45.592164 13056 layer_factory.hpp:77] Creating layer scale_conv2_1b
I0411 13:37:45.592291 13056 net.cpp:141] Setting up scale_conv2_1b
I0411 13:37:45.592303 13056 net.cpp:148] Top shape: 128 8 32 32 (1048576)
I0411 13:37:45.592308 13056 net.cpp:156] Memory required for data: 64488960
I0411 13:37:45.592317 13056 layer_factory.hpp:77] Creating layer conv2_1b_relu
I0411 13:37:45.592330 13056 net.cpp:91] Creating Layer conv2_1b_relu
I0411 13:37:45.592336 13056 net.cpp:425] conv2_1b_relu <- conv2_1b
I0411 13:37:45.592344 13056 net.cpp:386] conv2_1b_relu -> conv2_1b (in-place)
I0411 13:37:45.592548 13056 net.cpp:141] Setting up conv2_1b_relu
I0411 13:37:45.592562 13056 net.cpp:148] Top shape: 128 8 32 32 (1048576)
I0411 13:37:45.592567 13056 net.cpp:156] Memory required for data: 68683264
I0411 13:37:45.592573 13056 layer_factory.hpp:77] Creating layer conv2_1b_conv2_1b_relu_0_split
I0411 13:37:45.592582 13056 net.cpp:91] Creating Layer conv2_1b_conv2_1b_relu_0_split
I0411 13:37:45.592588 13056 net.cpp:425] conv2_1b_conv2_1b_relu_0_split <- conv2_1b
I0411 13:37:45.592598 13056 net.cpp:399] conv2_1b_conv2_1b_relu_0_split -> conv2_1b_conv2_1b_relu_0_split_0
I0411 13:37:45.592608 13056 net.cpp:399] conv2_1b_conv2_1b_relu_0_split -> conv2_1b_conv2_1b_relu_0_split_1
I0411 13:37:45.592658 13056 net.cpp:141] Setting up conv2_1b_conv2_1b_relu_0_split
I0411 13:37:45.592667 13056 net.cpp:148] Top shape: 128 8 32 32 (1048576)
I0411 13:37:45.592674 13056 net.cpp:148] Top shape: 128 8 32 32 (1048576)
I0411 13:37:45.592684 13056 net.cpp:156] Memory required for data: 77071872
I0411 13:37:45.592690 13056 layer_factory.hpp:77] Creating layer conv2_down
I0411 13:37:45.592706 13056 net.cpp:91] Creating Layer conv2_down
I0411 13:37:45.592712 13056 net.cpp:425] conv2_down <- conv2_1b_conv2_1b_relu_0_split_0
I0411 13:37:45.592721 13056 net.cpp:399] conv2_down -> conv2_down
I0411 13:37:45.593794 13056 net.cpp:141] Setting up conv2_down
I0411 13:37:45.593814 13056 net.cpp:148] Top shape: 128 128 8 8 (1048576)
I0411 13:37:45.593821 13056 net.cpp:156] Memory required for data: 81266176
I0411 13:37:45.593829 13056 layer_factory.hpp:77] Creating layer scale_conv2_down
I0411 13:37:45.593844 13056 net.cpp:91] Creating Layer scale_conv2_down
I0411 13:37:45.593852 13056 net.cpp:425] scale_conv2_down <- conv2_down
I0411 13:37:45.593859 13056 net.cpp:386] scale_conv2_down -> conv2_down (in-place)
I0411 13:37:45.593915 13056 layer_factory.hpp:77] Creating layer scale_conv2_down
I0411 13:37:45.594041 13056 net.cpp:141] Setting up scale_conv2_down
I0411 13:37:45.594053 13056 net.cpp:148] Top shape: 128 128 8 8 (1048576)
I0411 13:37:45.594058 13056 net.cpp:156] Memory required for data: 85460480
I0411 13:37:45.594068 13056 layer_factory.hpp:77] Creating layer conv3_1a
I0411 13:37:45.594084 13056 net.cpp:91] Creating Layer conv3_1a
I0411 13:37:45.594090 13056 net.cpp:425] conv3_1a <- conv2_1b_conv2_1b_relu_0_split_1
I0411 13:37:45.594101 13056 net.cpp:399] conv3_1a -> conv3_1a
I0411 13:37:45.595248 13056 net.cpp:141] Setting up conv3_1a
I0411 13:37:45.595268 13056 net.cpp:148] Top shape: 128 32 16 16 (1048576)
I0411 13:37:45.595273 13056 net.cpp:156] Memory required for data: 89654784
I0411 13:37:45.595283 13056 layer_factory.hpp:77] Creating layer bn_conv3_1a
I0411 13:37:45.595296 13056 net.cpp:91] Creating Layer bn_conv3_1a
I0411 13:37:45.595304 13056 net.cpp:425] bn_conv3_1a <- conv3_1a
I0411 13:37:45.595314 13056 net.cpp:386] bn_conv3_1a -> conv3_1a (in-place)
I0411 13:37:45.595523 13056 net.cpp:141] Setting up bn_conv3_1a
I0411 13:37:45.595535 13056 net.cpp:148] Top shape: 128 32 16 16 (1048576)
I0411 13:37:45.595541 13056 net.cpp:156] Memory required for data: 93849088
I0411 13:37:45.595551 13056 layer_factory.hpp:77] Creating layer scale_conv3_1a
I0411 13:37:45.595564 13056 net.cpp:91] Creating Layer scale_conv3_1a
I0411 13:37:45.595571 13056 net.cpp:425] scale_conv3_1a <- conv3_1a
I0411 13:37:45.595578 13056 net.cpp:386] scale_conv3_1a -> conv3_1a (in-place)
I0411 13:37:45.595618 13056 layer_factory.hpp:77] Creating layer scale_conv3_1a
I0411 13:37:45.595749 13056 net.cpp:141] Setting up scale_conv3_1a
I0411 13:37:45.595760 13056 net.cpp:148] Top shape: 128 32 16 16 (1048576)
I0411 13:37:45.595765 13056 net.cpp:156] Memory required for data: 98043392
I0411 13:37:45.595782 13056 layer_factory.hpp:77] Creating layer conv3_1a_relu
I0411 13:37:45.595793 13056 net.cpp:91] Creating Layer conv3_1a_relu
I0411 13:37:45.595798 13056 net.cpp:425] conv3_1a_relu <- conv3_1a
I0411 13:37:45.595808 13056 net.cpp:386] conv3_1a_relu -> conv3_1a (in-place)
I0411 13:37:45.596006 13056 net.cpp:141] Setting up conv3_1a_relu
I0411 13:37:45.596019 13056 net.cpp:148] Top shape: 128 32 16 16 (1048576)
I0411 13:37:45.596025 13056 net.cpp:156] Memory required for data: 102237696
I0411 13:37:45.596031 13056 layer_factory.hpp:77] Creating layer conv3_1b
I0411 13:37:45.596048 13056 net.cpp:91] Creating Layer conv3_1b
I0411 13:37:45.596055 13056 net.cpp:425] conv3_1b <- conv3_1a
I0411 13:37:45.596065 13056 net.cpp:399] conv3_1b -> conv3_1b
I0411 13:37:45.597533 13056 net.cpp:141] Setting up conv3_1b
I0411 13:37:45.597553 13056 net.cpp:148] Top shape: 128 32 16 16 (1048576)
I0411 13:37:45.597560 13056 net.cpp:156] Memory required for data: 106432000
I0411 13:37:45.597570 13056 layer_factory.hpp:77] Creating layer bn_conv3_1b
I0411 13:37:45.597584 13056 net.cpp:91] Creating Layer bn_conv3_1b
I0411 13:37:45.597590 13056 net.cpp:425] bn_conv3_1b <- conv3_1b
I0411 13:37:45.597599 13056 net.cpp:386] bn_conv3_1b -> conv3_1b (in-place)
I0411 13:37:45.597816 13056 net.cpp:141] Setting up bn_conv3_1b
I0411 13:37:45.597828 13056 net.cpp:148] Top shape: 128 32 16 16 (1048576)
I0411 13:37:45.597834 13056 net.cpp:156] Memory required for data: 110626304
I0411 13:37:45.597846 13056 layer_factory.hpp:77] Creating layer scale_conv3_1b
I0411 13:37:45.597857 13056 net.cpp:91] Creating Layer scale_conv3_1b
I0411 13:37:45.597864 13056 net.cpp:425] scale_conv3_1b <- conv3_1b
I0411 13:37:45.597872 13056 net.cpp:386] scale_conv3_1b -> conv3_1b (in-place)
I0411 13:37:45.597915 13056 layer_factory.hpp:77] Creating layer scale_conv3_1b
I0411 13:37:45.598047 13056 net.cpp:141] Setting up scale_conv3_1b
I0411 13:37:45.598057 13056 net.cpp:148] Top shape: 128 32 16 16 (1048576)
I0411 13:37:45.598062 13056 net.cpp:156] Memory required for data: 114820608
I0411 13:37:45.598072 13056 layer_factory.hpp:77] Creating layer conv3_1b_relu
I0411 13:37:45.598084 13056 net.cpp:91] Creating Layer conv3_1b_relu
I0411 13:37:45.598091 13056 net.cpp:425] conv3_1b_relu <- conv3_1b
I0411 13:37:45.598098 13056 net.cpp:386] conv3_1b_relu -> conv3_1b (in-place)
I0411 13:37:45.598425 13056 net.cpp:141] Setting up conv3_1b_relu
I0411 13:37:45.598443 13056 net.cpp:148] Top shape: 128 32 16 16 (1048576)
I0411 13:37:45.598448 13056 net.cpp:156] Memory required for data: 119014912
I0411 13:37:45.598454 13056 layer_factory.hpp:77] Creating layer conv3_1b_conv3_1b_relu_0_split
I0411 13:37:45.598466 13056 net.cpp:91] Creating Layer conv3_1b_conv3_1b_relu_0_split
I0411 13:37:45.598472 13056 net.cpp:425] conv3_1b_conv3_1b_relu_0_split <- conv3_1b
I0411 13:37:45.598481 13056 net.cpp:399] conv3_1b_conv3_1b_relu_0_split -> conv3_1b_conv3_1b_relu_0_split_0
I0411 13:37:45.598494 13056 net.cpp:399] conv3_1b_conv3_1b_relu_0_split -> conv3_1b_conv3_1b_relu_0_split_1
I0411 13:37:45.598541 13056 net.cpp:141] Setting up conv3_1b_conv3_1b_relu_0_split
I0411 13:37:45.598551 13056 net.cpp:148] Top shape: 128 32 16 16 (1048576)
I0411 13:37:45.598561 13056 net.cpp:148] Top shape: 128 32 16 16 (1048576)
I0411 13:37:45.598567 13056 net.cpp:156] Memory required for data: 127403520
I0411 13:37:45.598572 13056 layer_factory.hpp:77] Creating layer conv3_down
I0411 13:37:45.598584 13056 net.cpp:91] Creating Layer conv3_down
I0411 13:37:45.598592 13056 net.cpp:425] conv3_down <- conv3_1b_conv3_1b_relu_0_split_0
I0411 13:37:45.598603 13056 net.cpp:399] conv3_down -> conv3_down
I0411 13:37:45.599678 13056 net.cpp:141] Setting up conv3_down
I0411 13:37:45.599696 13056 net.cpp:148] Top shape: 128 128 8 8 (1048576)
I0411 13:37:45.599704 13056 net.cpp:156] Memory required for data: 131597824
I0411 13:37:45.599711 13056 layer_factory.hpp:77] Creating layer scale_conv3_down
I0411 13:37:45.599725 13056 net.cpp:91] Creating Layer scale_conv3_down
I0411 13:37:45.599732 13056 net.cpp:425] scale_conv3_down <- conv3_down
I0411 13:37:45.599740 13056 net.cpp:386] scale_conv3_down -> conv3_down (in-place)
I0411 13:37:45.599795 13056 layer_factory.hpp:77] Creating layer scale_conv3_down
I0411 13:37:45.599922 13056 net.cpp:141] Setting up scale_conv3_down
I0411 13:37:45.599933 13056 net.cpp:148] Top shape: 128 128 8 8 (1048576)
I0411 13:37:45.599939 13056 net.cpp:156] Memory required for data: 135792128
I0411 13:37:45.599948 13056 layer_factory.hpp:77] Creating layer conv4_1a
I0411 13:37:45.599964 13056 net.cpp:91] Creating Layer conv4_1a
I0411 13:37:45.599970 13056 net.cpp:425] conv4_1a <- conv3_1b_conv3_1b_relu_0_split_1
I0411 13:37:45.599984 13056 net.cpp:399] conv4_1a -> conv4_1a
I0411 13:37:45.601305 13056 net.cpp:141] Setting up conv4_1a
I0411 13:37:45.601325 13056 net.cpp:148] Top shape: 128 128 8 8 (1048576)
I0411 13:37:45.601331 13056 net.cpp:156] Memory required for data: 139986432
I0411 13:37:45.601342 13056 layer_factory.hpp:77] Creating layer bn_conv4_1a
I0411 13:37:45.601358 13056 net.cpp:91] Creating Layer bn_conv4_1a
I0411 13:37:45.601366 13056 net.cpp:425] bn_conv4_1a <- conv4_1a
I0411 13:37:45.601374 13056 net.cpp:386] bn_conv4_1a -> conv4_1a (in-place)
I0411 13:37:45.601593 13056 net.cpp:141] Setting up bn_conv4_1a
I0411 13:37:45.601603 13056 net.cpp:148] Top shape: 128 128 8 8 (1048576)
I0411 13:37:45.601625 13056 net.cpp:156] Memory required for data: 144180736
I0411 13:37:45.601636 13056 layer_factory.hpp:77] Creating layer scale_conv4_1a
I0411 13:37:45.601646 13056 net.cpp:91] Creating Layer scale_conv4_1a
I0411 13:37:45.601652 13056 net.cpp:425] scale_conv4_1a <- conv4_1a
I0411 13:37:45.601660 13056 net.cpp:386] scale_conv4_1a -> conv4_1a (in-place)
I0411 13:37:45.601704 13056 layer_factory.hpp:77] Creating layer scale_conv4_1a
I0411 13:37:45.601827 13056 net.cpp:141] Setting up scale_conv4_1a
I0411 13:37:45.601840 13056 net.cpp:148] Top shape: 128 128 8 8 (1048576)
I0411 13:37:45.601845 13056 net.cpp:156] Memory required for data: 148375040
I0411 13:37:45.601852 13056 layer_factory.hpp:77] Creating layer conv4_1a_relu
I0411 13:37:45.601862 13056 net.cpp:91] Creating Layer conv4_1a_relu
I0411 13:37:45.601868 13056 net.cpp:425] conv4_1a_relu <- conv4_1a
I0411 13:37:45.601876 13056 net.cpp:386] conv4_1a_relu -> conv4_1a (in-place)
I0411 13:37:45.602200 13056 net.cpp:141] Setting up conv4_1a_relu
I0411 13:37:45.602217 13056 net.cpp:148] Top shape: 128 128 8 8 (1048576)
I0411 13:37:45.602222 13056 net.cpp:156] Memory required for data: 152569344
I0411 13:37:45.602228 13056 layer_factory.hpp:77] Creating layer conv4_1b
I0411 13:37:45.602246 13056 net.cpp:91] Creating Layer conv4_1b
I0411 13:37:45.602253 13056 net.cpp:425] conv4_1b <- conv4_1a
I0411 13:37:45.602263 13056 net.cpp:399] conv4_1b -> conv4_1b
I0411 13:37:45.609134 13056 net.cpp:141] Setting up conv4_1b
I0411 13:37:45.609154 13056 net.cpp:148] Top shape: 128 128 8 8 (1048576)
I0411 13:37:45.609161 13056 net.cpp:156] Memory required for data: 156763648
I0411 13:37:45.609171 13056 layer_factory.hpp:77] Creating layer bn_conv4_1b
I0411 13:37:45.609184 13056 net.cpp:91] Creating Layer bn_conv4_1b
I0411 13:37:45.609191 13056 net.cpp:425] bn_conv4_1b <- conv4_1b
I0411 13:37:45.609200 13056 net.cpp:386] bn_conv4_1b -> conv4_1b (in-place)
I0411 13:37:45.609412 13056 net.cpp:141] Setting up bn_conv4_1b
I0411 13:37:45.609424 13056 net.cpp:148] Top shape: 128 128 8 8 (1048576)
I0411 13:37:45.609429 13056 net.cpp:156] Memory required for data: 160957952
I0411 13:37:45.609441 13056 layer_factory.hpp:77] Creating layer scale_conv4_1b
I0411 13:37:45.609450 13056 net.cpp:91] Creating Layer scale_conv4_1b
I0411 13:37:45.609457 13056 net.cpp:425] scale_conv4_1b <- conv4_1b
I0411 13:37:45.609469 13056 net.cpp:386] scale_conv4_1b -> conv4_1b (in-place)
I0411 13:37:45.609513 13056 layer_factory.hpp:77] Creating layer scale_conv4_1b
I0411 13:37:45.609635 13056 net.cpp:141] Setting up scale_conv4_1b
I0411 13:37:45.609647 13056 net.cpp:148] Top shape: 128 128 8 8 (1048576)
I0411 13:37:45.609652 13056 net.cpp:156] Memory required for data: 165152256
I0411 13:37:45.609660 13056 layer_factory.hpp:77] Creating layer conv4_1b_relu
I0411 13:37:45.609671 13056 net.cpp:91] Creating Layer conv4_1b_relu
I0411 13:37:45.609678 13056 net.cpp:425] conv4_1b_relu <- conv4_1b
I0411 13:37:45.609684 13056 net.cpp:386] conv4_1b_relu -> conv4_1b (in-place)
I0411 13:37:45.609876 13056 net.cpp:141] Setting up conv4_1b_relu
I0411 13:37:45.609890 13056 net.cpp:148] Top shape: 128 128 8 8 (1048576)
I0411 13:37:45.609895 13056 net.cpp:156] Memory required for data: 169346560
I0411 13:37:45.609901 13056 layer_factory.hpp:77] Creating layer conv4_down
I0411 13:37:45.609918 13056 net.cpp:91] Creating Layer conv4_down
I0411 13:37:45.609925 13056 net.cpp:425] conv4_down <- conv4_1b
I0411 13:37:45.609935 13056 net.cpp:399] conv4_down -> conv4_down
I0411 13:37:45.610985 13056 net.cpp:141] Setting up conv4_down
I0411 13:37:45.611004 13056 net.cpp:148] Top shape: 128 128 8 8 (1048576)
I0411 13:37:45.611011 13056 net.cpp:156] Memory required for data: 173540864
I0411 13:37:45.611018 13056 layer_factory.hpp:77] Creating layer scale_conv4_down
I0411 13:37:45.611029 13056 net.cpp:91] Creating Layer scale_conv4_down
I0411 13:37:45.611037 13056 net.cpp:425] scale_conv4_down <- conv4_down
I0411 13:37:45.611047 13056 net.cpp:386] scale_conv4_down -> conv4_down (in-place)
I0411 13:37:45.611109 13056 layer_factory.hpp:77] Creating layer scale_conv4_down
I0411 13:37:45.611240 13056 net.cpp:141] Setting up scale_conv4_down
I0411 13:37:45.611251 13056 net.cpp:148] Top shape: 128 128 8 8 (1048576)
I0411 13:37:45.611258 13056 net.cpp:156] Memory required for data: 177735168
I0411 13:37:45.611265 13056 layer_factory.hpp:77] Creating layer global_in
I0411 13:37:45.611284 13056 net.cpp:91] Creating Layer global_in
I0411 13:37:45.611290 13056 net.cpp:425] global_in <- conv1_down
I0411 13:37:45.611297 13056 net.cpp:425] global_in <- conv2_down
I0411 13:37:45.611304 13056 net.cpp:425] global_in <- conv3_down
I0411 13:37:45.611310 13056 net.cpp:425] global_in <- conv4_down
I0411 13:37:45.611318 13056 net.cpp:399] global_in -> global_in
I0411 13:37:45.611349 13056 net.cpp:141] Setting up global_in
I0411 13:37:45.611359 13056 net.cpp:148] Top shape: 128 128 8 8 (1048576)
I0411 13:37:45.611364 13056 net.cpp:156] Memory required for data: 181929472
I0411 13:37:45.611371 13056 layer_factory.hpp:77] Creating layer global_pool
I0411 13:37:45.611383 13056 net.cpp:91] Creating Layer global_pool
I0411 13:37:45.611388 13056 net.cpp:425] global_pool <- global_in
I0411 13:37:45.611397 13056 net.cpp:399] global_pool -> global_pool
I0411 13:37:45.611615 13056 net.cpp:141] Setting up global_pool
I0411 13:37:45.611629 13056 net.cpp:148] Top shape: 128 128 1 1 (16384)
I0411 13:37:45.611635 13056 net.cpp:156] Memory required for data: 181995008
I0411 13:37:45.611640 13056 layer_factory.hpp:77] Creating layer ip
I0411 13:37:45.611656 13056 net.cpp:91] Creating Layer ip
I0411 13:37:45.611662 13056 net.cpp:425] ip <- global_pool
I0411 13:37:45.611673 13056 net.cpp:399] ip -> ip
I0411 13:37:45.611804 13056 net.cpp:141] Setting up ip
I0411 13:37:45.611814 13056 net.cpp:148] Top shape: 128 10 (1280)
I0411 13:37:45.611820 13056 net.cpp:156] Memory required for data: 182000128
I0411 13:37:45.611829 13056 layer_factory.hpp:77] Creating layer ip_ip_0_split
I0411 13:37:45.611840 13056 net.cpp:91] Creating Layer ip_ip_0_split
I0411 13:37:45.611846 13056 net.cpp:425] ip_ip_0_split <- ip
I0411 13:37:45.611855 13056 net.cpp:399] ip_ip_0_split -> ip_ip_0_split_0
I0411 13:37:45.611865 13056 net.cpp:399] ip_ip_0_split -> ip_ip_0_split_1
I0411 13:37:45.611906 13056 net.cpp:141] Setting up ip_ip_0_split
I0411 13:37:45.611915 13056 net.cpp:148] Top shape: 128 10 (1280)
I0411 13:37:45.611922 13056 net.cpp:148] Top shape: 128 10 (1280)
I0411 13:37:45.611927 13056 net.cpp:156] Memory required for data: 182010368
I0411 13:37:45.611932 13056 layer_factory.hpp:77] Creating layer accuracy
I0411 13:37:45.611944 13056 net.cpp:91] Creating Layer accuracy
I0411 13:37:45.611950 13056 net.cpp:425] accuracy <- ip_ip_0_split_0
I0411 13:37:45.611958 13056 net.cpp:425] accuracy <- label_data_1_split_0
I0411 13:37:45.611968 13056 net.cpp:399] accuracy -> accuracy
…
I0411 13:37:45.614255 13056 net.cpp:313] The NetState phase (1) differed from the phase (0) specified by a rule in layer data
I0411 13:37:45.614583 13056 net.cpp:49] Initializing net from parameters: 
name: "CifarResNet0"
state {
  phase: TEST
}
layer {
  name: "data"
  type: "Data"
  top: "data"
  top: "label"
  include {
    phase: TEST
  }
  transform_param {
    mean_file: "/home/liangjiang/code/residual_network/data/cifar10/mean.binaryproto"
  }
  data_param {
    source: "/home/liangjiang/code/residual_network/data/cifar10/cifar10_test_lmdb"
    batch_size: 32
    backend: LMDB
  }
}
layer {
  name: "conv1"
  type: "Convolution"
  bottom: "data"
  top: "conv1"
  param {
    lr_mult: 1
  }
  param {
    lr_mult: 2
  }
  convolution_param {
    num_output: 8
    pad: 1
    kernel_size: 3
    stride: 1
    weight_filler {
      type: "msra"
    }
    bias_filler {
      type: "constant"
      value: 0
    }
  }
}
layer {
  name: "bn_conv1"
  type: "BatchNorm"
  bottom: "conv1"
  top: "conv1"
  param {
    lr_mult: 0
  }
  param {
    lr_mult: 0
  }
  param {
    lr_mult: 0
  }
}
layer {
  name: "scale_conv1"
  type: "Scale"
  bottom: "conv1"
  top: "conv1"
  param {
    lr_mult: 1
  }
  param {
    lr_mult: 2
  }
  scale_param {
    bias_term: true
  }
}
layer {
  name: "conv1_relu"
  type: "ReLU"
  bottom: "conv1"
  top: "conv1"
}
layer {
  name: "conv1_down"
  type: "Convolution"
  bottom: "conv1"
  top: "conv1_down"
  param {
    lr_mult: 0
  }
  convolution_param {
    num_output: 128
    bias_term: false
    pad: 0
    kernel_size: 4
    stride: 4
    weight_filler {
      type: "downsample"
      value: 1
    }
  }
}
layer {
  name: "scale_conv1_down"
  type: "Scale"
  bottom: "conv1_down"
  top: "conv1_down"
  param {
    lr_mult: 1
  }
  param {
    lr_mult: 2
  }
  scale_param {
    filler {
      type: "constant"
      value: 1
    }
    bias_term: true
  }
}
layer {
  name: "conv2_1a"
  type: "Convolution"
  bottom: "conv1"
  top: "conv2_1a"
  param {
    lr_mult: 1
  }
  param {
    lr_mult: 2
  }
  convolution_param {
    num_output: 8
    pad: 1
    kernel_size: 3
    stride: 1
    weight_filler {
      type: "msra"
    }
    bias_filler {
      type: "constant"
      value: 0
    }
  }
}
layer {
  name: "bn_conv2_1a"
  type: "BatchNorm"
  bottom: "conv2_1a"
  top: "conv2_1a"
  param {
    lr_mult: 0
  }
  param {
    lr_mult: 0
  }
  param {
    lr_mult: 0
  }
}
layer {
  name: "scale_conv2_1a"
  type: "Scale"
  bottom: "conv2_1a"
  top: "conv2_1a"
  param {
    lr_mult: 1
  }
  param {
    lr_mult: 2
  }
  scale_param {
    bias_term: true
  }
}
layer {
  name: "conv2_1a_relu"
  type: "ReLU"
  bottom: "conv2_1a"
  top: "conv2_1a"
}
layer {
  name: "conv2_1b"
  type: "Convolution"
  bottom: "conv2_1a"
  top: "conv2_1b"
  param {
    lr_mult: 1
  }
  param {
    lr_mult: 2
  }
  convolution_param {
    num_output: 8
    pad: 1
    kernel_size: 3
    stride: 1
    weight_filler {
      type: "msra"
    }
    bias_filler {
      type: "constant"
      value: 0
    }
  }
}
layer {
  name: "bn_conv2_1b"
  type: "BatchNorm"
  bottom: "conv2_1b"
  top: "conv2_1b"
  param {
    lr_mult: 0
  }
  param {
    lr_mult: 0
  }
  param {
    lr_mult: 0
  }
}
layer {
  name: "scale_conv2_1b"
  type: "Scale"
  bottom: "conv2_1b"
  top: "conv2_1b"
  param {
    lr_mult: 1
  }
  param {
    lr_mult: 2
  }
  scale_param {
    bias_term: true
  }
}
layer {
  name: "conv2_1b_relu"
  type: "ReLU"
  bottom: "conv2_1b"
  top: "conv2_1b"
}
layer {
  name: "conv2_down"
  type: "Convolution"
  bottom: "conv2_1b"
  top: "conv2_down"
  param {
    lr_mult: 0
  }
  convolution_param {
    num_output: 128
    bias_term: false
    pad: 0
    kernel_size: 4
    stride: 4
    weight_filler {
      type: "downsample"
      value: 1
    }
  }
}
layer {
  name: "scale_conv2_down"
  type: "Scale"
  bottom: "conv2_down"
  top: "conv2_down"
  param {
    lr_mult: 1
  }
  param {
    lr_mult: 2
  }
  scale_param {
    filler {
      type: "constant"
      value: 1
    }
    bias_term: true
  }
}
layer {
  name: "conv3_1a"
  type: "Convolution"
  bottom: "conv2_1b"
  top: "conv3_1a"
  param {
    lr_mult: 1
  }
  param {
    lr_mult: 2
  }
  convolution_param {
    num_output: 32
    pad: 0
    kernel_size: 1
    stride: 2
    weight_filler {
      type: "msra"
    }
    bias_filler {
      type: "constant"
      value: 0
    }
  }
}
layer {
  name: "bn_conv3_1a"
  type: "BatchNorm"
  bottom: "conv3_1a"
  top: "conv3_1a"
  param {
    lr_mult: 0
  }
  param {
    lr_mult: 0
  }
  param {
    lr_mult: 0
  }
}
layer {
  name: "scale_conv3_1a"
  type: "Scale"
  bottom: "conv3_1a"
  top: "conv3_1a"
  param {
    lr_mult: 1
  }
  param {
    lr_mult: 2
  }
  scale_param {
    bias_term: true
  }
}
layer {
  name: "conv3_1a_relu"
  type: "ReLU"
  bottom: "conv3_1a"
  top: "conv3_1a"
}
layer {
  name: "conv3_1b"
  type: "Convolution"
  bottom: "conv3_1a"
  top: "conv3_1b"
  param {
    lr_mult: 2
  }
  param {
    lr_mult: 2
  }
  convolution_param {
    num_output: 32
    pad: 1
    kernel_size: 3
    stride: 1
    weight_filler {
      type: "msra"
    }
    bias_filler {
      type: "constant"
      value: 0
    }
  }
}
layer {
  name: "bn_conv3_1b"
  type: "BatchNorm"
  bottom: "conv3_1b"
  top: "conv3_1b"
  param {
    lr_mult: 0
  }
  param {
    lr_mult: 0
  }
  param {
    lr_mult: 0
  }
}
layer {
  name: "scale_conv3_1b"
  type: "Scale"
  bottom: "conv3_1b"
  top: "conv3_1b"
  param {
    lr_mult: 1
  }
  param {
    lr_mult: 2
  }
  scale_param {
    bias_term: true
  }
}
layer {
  name: "conv3_1b_relu"
  type: "ReLU"
  bottom: "conv3_1b"
  top: "conv3_1b"
}
layer {
  name: "conv3_down"
  type: "Convolution"
  bottom: "conv3_1b"
  top: "conv3_down"
  param {
    lr_mult: 0
  }
  convolution_param {
    num_output: 128
    bias_term: false
    pad: 0
    kernel_size: 2
    stride: 2
    weight_filler {
      type: "downsample"
      value: 1
    }
  }
}
layer {
  name: "scale_conv3_down"
  type: "Scale"
  bottom: "conv3_down"
  top: "conv3_down"
  param {
    lr_mult: 1
  }
  param {
    lr_mult: 2
  }
  scale_param {
    filler {
      type: "constant"
      value: 1
    }
    bias_term: true
  }
}
layer {
  name: "conv4_1a"
  type: "Convolution"
  bottom: "conv3_1b"
  top: "conv4_1a"
  param {
    lr_mult: 1
  }
  param {
    lr_mult: 2
  }
  convolution_param {
    num_output: 128
    pad: 0
    kernel_size: 1
    stride: 2
    weight_filler {
      type: "msra"
    }
    bias_filler {
      type: "constant"
      value: 0
    }
  }
}
layer {
  name: "bn_conv4_1a"
  type: "BatchNorm"
  bottom: "conv4_1a"
  top: "conv4_1a"
  param {
    lr_mult: 0
  }
  param {
    lr_mult: 0
  }
  param {
    lr_mult: 0
  }
}
layer {
  name: "scale_conv4_1a"
  type: "Scale"
  bottom: "conv4_1a"
  top: "conv4_1a"
  param {
    lr_mult: 1
  }
  param {
    lr_mult: 2
  }
  scale_param {
    bias_term: true
  }
}
layer {
  name: "conv4_1a_relu"
  type: "ReLU"
  bottom: "conv4_1a"
  top: "conv4_1a"
}
layer {
  name: "conv4_1b"
  type: "Convolution"
  bottom: "conv4_1a"
  top: "conv4_1b"
  param {
    lr_mult: 1
  }
  param {
    lr_mult: 2
  }
  convolution_param {
    num_output: 128
    pad: 1
    kernel_size: 3
    stride: 1
    weight_filler {
      type: "msra"
    }
    bias_filler {
      type: "constant"
      value: 0
    }
  }
}
layer {
  name: "bn_conv4_1b"
  type: "BatchNorm"
  bottom: "conv4_1b"
  top: "conv4_1b"
  param {
    lr_mult: 0
  }
  param {
    lr_mult: 0
  }
  param {
    lr_mult: 0
  }
}
layer {
  name: "scale_conv4_1b"
  type: "Scale"
  bottom: "conv4_1b"
  top: "conv4_1b"
  param {
    lr_mult: 1
  }
  param {
    lr_mult: 2
  }
  scale_param {
    bias_term: true
  }
}
layer {
  name: "conv4_1b_relu"
  type: "ReLU"
  bottom: "conv4_1b"
  top: "conv4_1b"
}
layer {
  name: "conv4_down"
  type: "Convolution"
  bottom: "conv4_1b"
  top: "conv4_down"
  param {
    lr_mult: 0
  }
  convolution_param {
    num_output: 128
    bias_term: false
    pad: 0
    kernel_size: 1
    stride: 1
    weight_filler {
      type: "downsample"
      value: 0
    }
  }
}
layer {
  name: "scale_conv4_down"
  type: "Scale"
  bottom: "conv4_down"
  top: "conv4_down"
  param {
    lr_mult: 1
  }
  param {
    lr_mult: 2
  }
  scale_param {
    filler {
      type: "constant"
      value: 0
    }
    bias_term: true
  }
}
layer {
  name: "global_in"
  type: "Eltwise"
  bottom: "conv1_down"
  bottom: "conv2_down"
  bottom: "conv3_down"
  bottom: "conv4_down"
  top: "global_in"
}
layer {
  name: "global_pool"
  type: "Pooling"
  bottom: "global_in"
  top: "global_pool"
  pooling_param {
    pool: AVE
    kernel_size: 8
  }
}
layer {
  name: "ip"
  type: "InnerProduct"
  bottom: "global_pool"
  top: "ip"
  param {
    lr_mult: 1
  }
  param {
    lr_mult: 2
  }
  inner_product_param {
    num_output: 10
  }
}
layer {
  name: "accuracy"
  type: "Accuracy"
  bottom: "ip"
  bottom: "label"
  top: "accuracy"
}
layer {
  name: "loss"
  type: "SoftmaxWithLoss"
  bottom: "ip"
  bottom: "label"
  top: "loss"
}
I0411 13:37:45.614823 13056 layer_factory.hpp:77] Creating layer data
I0411 13:37:45.614923 13056 net.cpp:91] Creating Layer data
I0411 13:37:45.614936 13056 net.cpp:399] data -> data
I0411 13:37:45.614948 13056 net.cpp:399] data -> label
I0411 13:37:45.614960 13056 data_transformer.cpp:25] Loading mean file from: /home/liangjiang/code/residual_network/data/cifar10/mean.binaryproto
I0411 13:37:45.616281 13126 db_lmdb.cpp:38] Opened lmdb /home/liangjiang/code/residual_network/data/cifar10/cifar10_test_lmdb
I0411 13:37:45.616452 13056 data_layer.cpp:41] output data size: 32,3,32,32
I0411 13:37:45.617867 13056 net.cpp:141] Setting up data
I0411 13:37:45.617888 13056 net.cpp:148] Top shape: 32 3 32 32 (98304)
I0411 13:37:45.617897 13056 net.cpp:148] Top shape: 32 (32)
I0411 13:37:45.617902 13056 net.cpp:156] Memory required for data: 393344
I0411 13:37:45.617910 13056 layer_factory.hpp:77] Creating layer label_data_1_split
I0411 13:37:45.617921 13056 net.cpp:91] Creating Layer label_data_1_split
I0411 13:37:45.617928 13056 net.cpp:425] label_data_1_split <- label
I0411 13:37:45.617935 13056 net.cpp:399] label_data_1_split -> label_data_1_split_0
I0411 13:37:45.617946 13056 net.cpp:399] label_data_1_split -> label_data_1_split_1
I0411 13:37:45.618091 13056 net.cpp:141] Setting up label_data_1_split
I0411 13:37:45.618104 13056 net.cpp:148] Top shape: 32 (32)
I0411 13:37:45.618111 13056 net.cpp:148] Top shape: 32 (32)
I0411 13:37:45.618116 13056 net.cpp:156] Memory required for data: 393600
I0411 13:37:45.618122 13056 layer_factory.hpp:77] Creating layer conv1
I0411 13:37:45.618137 13056 net.cpp:91] Creating Layer conv1
I0411 13:37:45.618144 13056 net.cpp:425] conv1 <- data
I0411 13:37:45.618154 13056 net.cpp:399] conv1 -> conv1
I0411 13:37:45.619570 13056 net.cpp:141] Setting up conv1
I0411 13:37:45.619590 13056 net.cpp:148] Top shape: 32 8 32 32 (262144)
I0411 13:37:45.619596 13056 net.cpp:156] Memory required for data: 1442176
I0411 13:37:45.619611 13056 layer_factory.hpp:77] Creating layer bn_conv1
I0411 13:37:45.619624 13056 net.cpp:91] Creating Layer bn_conv1
I0411 13:37:45.619632 13056 net.cpp:425] bn_conv1 <- conv1
I0411 13:37:45.619642 13056 net.cpp:386] bn_conv1 -> conv1 (in-place)
I0411 13:37:45.619870 13056 net.cpp:141] Setting up bn_conv1
I0411 13:37:45.619894 13056 net.cpp:148] Top shape: 32 8 32 32 (262144)
I0411 13:37:45.619904 13056 net.cpp:156] Memory required for data: 2490752
I0411 13:37:45.619925 13056 layer_factory.hpp:77] Creating layer scale_conv1
I0411 13:37:45.619938 13056 net.cpp:91] Creating Layer scale_conv1
I0411 13:37:45.619945 13056 net.cpp:425] scale_conv1 <- conv1
I0411 13:37:45.619952 13056 net.cpp:386] scale_conv1 -> conv1 (in-place)
I0411 13:37:45.620010 13056 layer_factory.hpp:77] Creating layer scale_conv1
I0411 13:37:45.620214 13056 net.cpp:141] Setting up scale_conv1
I0411 13:37:45.620228 13056 net.cpp:148] Top shape: 32 8 32 32 (262144)
I0411 13:37:45.620234 13056 net.cpp:156] Memory required for data: 3539328
I0411 13:37:45.620244 13056 layer_factory.hpp:77] Creating layer conv1_relu
I0411 13:37:45.620263 13056 net.cpp:91] Creating Layer conv1_relu
I0411 13:37:45.620270 13056 net.cpp:425] conv1_relu <- conv1
I0411 13:37:45.620278 13056 net.cpp:386] conv1_relu -> conv1 (in-place)
I0411 13:37:45.620486 13056 net.cpp:141] Setting up conv1_relu
I0411 13:37:45.620502 13056 net.cpp:148] Top shape: 32 8 32 32 (262144)
I0411 13:37:45.620508 13056 net.cpp:156] Memory required for data: 4587904
I0411 13:37:45.620519 13056 layer_factory.hpp:77] Creating layer conv1_conv1_relu_0_split
I0411 13:37:45.620527 13056 net.cpp:91] Creating Layer conv1_conv1_relu_0_split
I0411 13:37:45.620535 13056 net.cpp:425] conv1_conv1_relu_0_split <- conv1
I0411 13:37:45.620546 13056 net.cpp:399] conv1_conv1_relu_0_split -> conv1_conv1_relu_0_split_0
I0411 13:37:45.620556 13056 net.cpp:399] conv1_conv1_relu_0_split -> conv1_conv1_relu_0_split_1
I0411 13:37:45.620615 13056 net.cpp:141] Setting up conv1_conv1_relu_0_split
I0411 13:37:45.620628 13056 net.cpp:148] Top shape: 32 8 32 32 (262144)
I0411 13:37:45.620635 13056 net.cpp:148] Top shape: 32 8 32 32 (262144)
I0411 13:37:45.620640 13056 net.cpp:156] Memory required for data: 6685056
I0411 13:37:45.620646 13056 layer_factory.hpp:77] Creating layer conv1_down
I0411 13:37:45.620661 13056 net.cpp:91] Creating Layer conv1_down
I0411 13:37:45.620666 13056 net.cpp:425] conv1_down <- conv1_conv1_relu_0_split_0
I0411 13:37:45.620678 13056 net.cpp:399] conv1_down -> conv1_down
I0411 13:37:45.621914 13056 net.cpp:141] Setting up conv1_down
I0411 13:37:45.621935 13056 net.cpp:148] Top shape: 32 128 8 8 (262144)
I0411 13:37:45.621942 13056 net.cpp:156] Memory required for data: 7733632
I0411 13:37:45.621950 13056 layer_factory.hpp:77] Creating layer scale_conv1_down
I0411 13:37:45.621963 13056 net.cpp:91] Creating Layer scale_conv1_down
I0411 13:37:45.621968 13056 net.cpp:425] scale_conv1_down <- conv1_down
I0411 13:37:45.621980 13056 net.cpp:386] scale_conv1_down -> conv1_down (in-place)
I0411 13:37:45.622037 13056 layer_factory.hpp:77] Creating layer scale_conv1_down
I0411 13:37:45.622169 13056 net.cpp:141] Setting up scale_conv1_down
I0411 13:37:45.622179 13056 net.cpp:148] Top shape: 32 128 8 8 (262144)
I0411 13:37:45.622184 13056 net.cpp:156] Memory required for data: 8782208
I0411 13:37:45.622197 13056 layer_factory.hpp:77] Creating layer conv2_1a
I0411 13:37:45.622211 13056 net.cpp:91] Creating Layer conv2_1a
I0411 13:37:45.622218 13056 net.cpp:425] conv2_1a <- conv1_conv1_relu_0_split_1
I0411 13:37:45.622228 13056 net.cpp:399] conv2_1a -> conv2_1a
I0411 13:37:45.623366 13056 net.cpp:141] Setting up conv2_1a
I0411 13:37:45.623385 13056 net.cpp:148] Top shape: 32 8 32 32 (262144)
I0411 13:37:45.623391 13056 net.cpp:156] Memory required for data: 9830784
I0411 13:37:45.623401 13056 layer_factory.hpp:77] Creating layer bn_conv2_1a
I0411 13:37:45.623412 13056 net.cpp:91] Creating Layer bn_conv2_1a
I0411 13:37:45.623420 13056 net.cpp:425] bn_conv2_1a <- conv2_1a
I0411 13:37:45.623430 13056 net.cpp:386] bn_conv2_1a -> conv2_1a (in-place)
I0411 13:37:45.623651 13056 net.cpp:141] Setting up bn_conv2_1a
I0411 13:37:45.623663 13056 net.cpp:148] Top shape: 32 8 32 32 (262144)
I0411 13:37:45.623668 13056 net.cpp:156] Memory required for data: 10879360
I0411 13:37:45.623679 13056 layer_factory.hpp:77] Creating layer scale_conv2_1a
I0411 13:37:45.623692 13056 net.cpp:91] Creating Layer scale_conv2_1a
I0411 13:37:45.623697 13056 net.cpp:425] scale_conv2_1a <- conv2_1a
I0411 13:37:45.623704 13056 net.cpp:386] scale_conv2_1a -> conv2_1a (in-place)
I0411 13:37:45.623755 13056 layer_factory.hpp:77] Creating layer scale_conv2_1a
I0411 13:37:45.623886 13056 net.cpp:141] Setting up scale_conv2_1a
I0411 13:37:45.623898 13056 net.cpp:148] Top shape: 32 8 32 32 (262144)
I0411 13:37:45.623903 13056 net.cpp:156] Memory required for data: 11927936
I0411 13:37:45.623920 13056 layer_factory.hpp:77] Creating layer conv2_1a_relu
I0411 13:37:45.623929 13056 net.cpp:91] Creating Layer conv2_1a_relu
I0411 13:37:45.623934 13056 net.cpp:425] conv2_1a_relu <- conv2_1a
I0411 13:37:45.623942 13056 net.cpp:386] conv2_1a_relu -> conv2_1a (in-place)
I0411 13:37:45.624138 13056 net.cpp:141] Setting up conv2_1a_relu
I0411 13:37:45.624152 13056 net.cpp:148] Top shape: 32 8 32 32 (262144)
I0411 13:37:45.624157 13056 net.cpp:156] Memory required for data: 12976512
I0411 13:37:45.624162 13056 layer_factory.hpp:77] Creating layer conv2_1b
I0411 13:37:45.624179 13056 net.cpp:91] Creating Layer conv2_1b
I0411 13:37:45.624191 13056 net.cpp:425] conv2_1b <- conv2_1a
I0411 13:37:45.624202 13056 net.cpp:399] conv2_1b -> conv2_1b
I0411 13:37:45.625480 13056 net.cpp:141] Setting up conv2_1b
I0411 13:37:45.625500 13056 net.cpp:148] Top shape: 32 8 32 32 (262144)
I0411 13:37:45.625506 13056 net.cpp:156] Memory required for data: 14025088
I0411 13:37:45.625515 13056 layer_factory.hpp:77] Creating layer bn_conv2_1b
I0411 13:37:45.625527 13056 net.cpp:91] Creating Layer bn_conv2_1b
I0411 13:37:45.625533 13056 net.cpp:425] bn_conv2_1b <- conv2_1b
I0411 13:37:45.625542 13056 net.cpp:386] bn_conv2_1b -> conv2_1b (in-place)
I0411 13:37:45.625767 13056 net.cpp:141] Setting up bn_conv2_1b
I0411 13:37:45.625778 13056 net.cpp:148] Top shape: 32 8 32 32 (262144)
I0411 13:37:45.625784 13056 net.cpp:156] Memory required for data: 15073664
I0411 13:37:45.625794 13056 layer_factory.hpp:77] Creating layer scale_conv2_1b
I0411 13:37:45.625809 13056 net.cpp:91] Creating Layer scale_conv2_1b
I0411 13:37:45.625816 13056 net.cpp:425] scale_conv2_1b <- conv2_1b
I0411 13:37:45.625824 13056 net.cpp:386] scale_conv2_1b -> conv2_1b (in-place)
I0411 13:37:45.625876 13056 layer_factory.hpp:77] Creating layer scale_conv2_1b
I0411 13:37:45.626009 13056 net.cpp:141] Setting up scale_conv2_1b
I0411 13:37:45.626021 13056 net.cpp:148] Top shape: 32 8 32 32 (262144)
I0411 13:37:45.626026 13056 net.cpp:156] Memory required for data: 16122240
I0411 13:37:45.626034 13056 layer_factory.hpp:77] Creating layer conv2_1b_relu
I0411 13:37:45.626044 13056 net.cpp:91] Creating Layer conv2_1b_relu
I0411 13:37:45.626050 13056 net.cpp:425] conv2_1b_relu <- conv2_1b
I0411 13:37:45.626060 13056 net.cpp:386] conv2_1b_relu -> conv2_1b (in-place)
I0411 13:37:45.626396 13056 net.cpp:141] Setting up conv2_1b_relu
I0411 13:37:45.626413 13056 net.cpp:148] Top shape: 32 8 32 32 (262144)
I0411 13:37:45.626420 13056 net.cpp:156] Memory required for data: 17170816
I0411 13:37:45.626425 13056 layer_factory.hpp:77] Creating layer conv2_1b_conv2_1b_relu_0_split
I0411 13:37:45.626440 13056 net.cpp:91] Creating Layer conv2_1b_conv2_1b_relu_0_split
I0411 13:37:45.626446 13056 net.cpp:425] conv2_1b_conv2_1b_relu_0_split <- conv2_1b
I0411 13:37:45.626453 13056 net.cpp:399] conv2_1b_conv2_1b_relu_0_split -> conv2_1b_conv2_1b_relu_0_split_0
I0411 13:37:45.626463 13056 net.cpp:399] conv2_1b_conv2_1b_relu_0_split -> conv2_1b_conv2_1b_relu_0_split_1
I0411 13:37:45.626518 13056 net.cpp:141] Setting up conv2_1b_conv2_1b_relu_0_split
I0411 13:37:45.626528 13056 net.cpp:148] Top shape: 32 8 32 32 (262144)
I0411 13:37:45.626534 13056 net.cpp:148] Top shape: 32 8 32 32 (262144)
I0411 13:37:45.626539 13056 net.cpp:156] Memory required for data: 19267968
I0411 13:37:45.626545 13056 layer_factory.hpp:77] Creating layer conv2_down
I0411 13:37:45.626559 13056 net.cpp:91] Creating Layer conv2_down
I0411 13:37:45.626564 13056 net.cpp:425] conv2_down <- conv2_1b_conv2_1b_relu_0_split_0
I0411 13:37:45.626574 13056 net.cpp:399] conv2_down -> conv2_down
I0411 13:37:45.627674 13056 net.cpp:141] Setting up conv2_down
I0411 13:37:45.627692 13056 net.cpp:148] Top shape: 32 128 8 8 (262144)
I0411 13:37:45.627699 13056 net.cpp:156] Memory required for data: 20316544
I0411 13:37:45.627707 13056 layer_factory.hpp:77] Creating layer scale_conv2_down
I0411 13:37:45.627719 13056 net.cpp:91] Creating Layer scale_conv2_down
I0411 13:37:45.627727 13056 net.cpp:425] scale_conv2_down <- conv2_down
I0411 13:37:45.627735 13056 net.cpp:386] scale_conv2_down -> conv2_down (in-place)
I0411 13:37:45.627792 13056 layer_factory.hpp:77] Creating layer scale_conv2_down
I0411 13:37:45.627925 13056 net.cpp:141] Setting up scale_conv2_down
I0411 13:37:45.627936 13056 net.cpp:148] Top shape: 32 128 8 8 (262144)
I0411 13:37:45.627941 13056 net.cpp:156] Memory required for data: 21365120
I0411 13:37:45.627950 13056 layer_factory.hpp:77] Creating layer conv3_1a
I0411 13:37:45.627965 13056 net.cpp:91] Creating Layer conv3_1a
I0411 13:37:45.627972 13056 net.cpp:425] conv3_1a <- conv2_1b_conv2_1b_relu_0_split_1
I0411 13:37:45.627981 13056 net.cpp:399] conv3_1a -> conv3_1a
I0411 13:37:45.628998 13056 net.cpp:141] Setting up conv3_1a
I0411 13:37:45.629016 13056 net.cpp:148] Top shape: 32 32 16 16 (262144)
I0411 13:37:45.629022 13056 net.cpp:156] Memory required for data: 22413696
I0411 13:37:45.629032 13056 layer_factory.hpp:77] Creating layer bn_conv3_1a
I0411 13:37:45.629045 13056 net.cpp:91] Creating Layer bn_conv3_1a
I0411 13:37:45.629050 13056 net.cpp:425] bn_conv3_1a <- conv3_1a
I0411 13:37:45.629060 13056 net.cpp:386] bn_conv3_1a -> conv3_1a (in-place)
I0411 13:37:45.629294 13056 net.cpp:141] Setting up bn_conv3_1a
I0411 13:37:45.629307 13056 net.cpp:148] Top shape: 32 32 16 16 (262144)
I0411 13:37:45.629313 13056 net.cpp:156] Memory required for data: 23462272
I0411 13:37:45.629324 13056 layer_factory.hpp:77] Creating layer scale_conv3_1a
I0411 13:37:45.629335 13056 net.cpp:91] Creating Layer scale_conv3_1a
I0411 13:37:45.629341 13056 net.cpp:425] scale_conv3_1a <- conv3_1a
I0411 13:37:45.629349 13056 net.cpp:386] scale_conv3_1a -> conv3_1a (in-place)
I0411 13:37:45.629402 13056 layer_factory.hpp:77] Creating layer scale_conv3_1a
I0411 13:37:45.629537 13056 net.cpp:141] Setting up scale_conv3_1a
I0411 13:37:45.629549 13056 net.cpp:148] Top shape: 32 32 16 16 (262144)
I0411 13:37:45.629554 13056 net.cpp:156] Memory required for data: 24510848
I0411 13:37:45.629571 13056 layer_factory.hpp:77] Creating layer conv3_1a_relu
I0411 13:37:45.629580 13056 net.cpp:91] Creating Layer conv3_1a_relu
I0411 13:37:45.629585 13056 net.cpp:425] conv3_1a_relu <- conv3_1a
I0411 13:37:45.629592 13056 net.cpp:386] conv3_1a_relu -> conv3_1a (in-place)
I0411 13:37:45.629914 13056 net.cpp:141] Setting up conv3_1a_relu
I0411 13:37:45.629932 13056 net.cpp:148] Top shape: 32 32 16 16 (262144)
I0411 13:37:45.629937 13056 net.cpp:156] Memory required for data: 25559424
I0411 13:37:45.629943 13056 layer_factory.hpp:77] Creating layer conv3_1b
I0411 13:37:45.629957 13056 net.cpp:91] Creating Layer conv3_1b
I0411 13:37:45.629966 13056 net.cpp:425] conv3_1b <- conv3_1a
I0411 13:37:45.629976 13056 net.cpp:399] conv3_1b -> conv3_1b
I0411 13:37:45.631458 13056 net.cpp:141] Setting up conv3_1b
I0411 13:37:45.631477 13056 net.cpp:148] Top shape: 32 32 16 16 (262144)
I0411 13:37:45.631484 13056 net.cpp:156] Memory required for data: 26608000
I0411 13:37:45.631494 13056 layer_factory.hpp:77] Creating layer bn_conv3_1b
I0411 13:37:45.631505 13056 net.cpp:91] Creating Layer bn_conv3_1b
I0411 13:37:45.631511 13056 net.cpp:425] bn_conv3_1b <- conv3_1b
I0411 13:37:45.631520 13056 net.cpp:386] bn_conv3_1b -> conv3_1b (in-place)
I0411 13:37:45.631745 13056 net.cpp:141] Setting up bn_conv3_1b
I0411 13:37:45.631757 13056 net.cpp:148] Top shape: 32 32 16 16 (262144)
I0411 13:37:45.631762 13056 net.cpp:156] Memory required for data: 27656576
I0411 13:37:45.631772 13056 layer_factory.hpp:77] Creating layer scale_conv3_1b
I0411 13:37:45.631781 13056 net.cpp:91] Creating Layer scale_conv3_1b
I0411 13:37:45.631786 13056 net.cpp:425] scale_conv3_1b <- conv3_1b
I0411 13:37:45.631796 13056 net.cpp:386] scale_conv3_1b -> conv3_1b (in-place)
I0411 13:37:45.631847 13056 layer_factory.hpp:77] Creating layer scale_conv3_1b
I0411 13:37:45.631989 13056 net.cpp:141] Setting up scale_conv3_1b
I0411 13:37:45.632000 13056 net.cpp:148] Top shape: 32 32 16 16 (262144)
I0411 13:37:45.632005 13056 net.cpp:156] Memory required for data: 28705152
I0411 13:37:45.632014 13056 layer_factory.hpp:77] Creating layer conv3_1b_relu
I0411 13:37:45.632022 13056 net.cpp:91] Creating Layer conv3_1b_relu
I0411 13:37:45.632027 13056 net.cpp:425] conv3_1b_relu <- conv3_1b
I0411 13:37:45.632035 13056 net.cpp:386] conv3_1b_relu -> conv3_1b (in-place)
I0411 13:37:45.632238 13056 net.cpp:141] Setting up conv3_1b_relu
I0411 13:37:45.632252 13056 net.cpp:148] Top shape: 32 32 16 16 (262144)
I0411 13:37:45.632257 13056 net.cpp:156] Memory required for data: 29753728
I0411 13:37:45.632263 13056 layer_factory.hpp:77] Creating layer conv3_1b_conv3_1b_relu_0_split
I0411 13:37:45.632272 13056 net.cpp:91] Creating Layer conv3_1b_conv3_1b_relu_0_split
I0411 13:37:45.632278 13056 net.cpp:425] conv3_1b_conv3_1b_relu_0_split <- conv3_1b
I0411 13:37:45.632292 13056 net.cpp:399] conv3_1b_conv3_1b_relu_0_split -> conv3_1b_conv3_1b_relu_0_split_0
I0411 13:37:45.632302 13056 net.cpp:399] conv3_1b_conv3_1b_relu_0_split -> conv3_1b_conv3_1b_relu_0_split_1
I0411 13:37:45.632354 13056 net.cpp:141] Setting up conv3_1b_conv3_1b_relu_0_split
I0411 13:37:45.632364 13056 net.cpp:148] Top shape: 32 32 16 16 (262144)
I0411 13:37:45.632371 13056 net.cpp:148] Top shape: 32 32 16 16 (262144)
I0411 13:37:45.632376 13056 net.cpp:156] Memory required for data: 31850880
I0411 13:37:45.632382 13056 layer_factory.hpp:77] Creating layer conv3_down
I0411 13:37:45.632395 13056 net.cpp:91] Creating Layer conv3_down
I0411 13:37:45.632401 13056 net.cpp:425] conv3_down <- conv3_1b_conv3_1b_relu_0_split_0
I0411 13:37:45.632411 13056 net.cpp:399] conv3_down -> conv3_down
I0411 13:37:45.633514 13056 net.cpp:141] Setting up conv3_down
I0411 13:37:45.633534 13056 net.cpp:148] Top shape: 32 128 8 8 (262144)
I0411 13:37:45.633540 13056 net.cpp:156] Memory required for data: 32899456
I0411 13:37:45.633548 13056 layer_factory.hpp:77] Creating layer scale_conv3_down
I0411 13:37:45.633561 13056 net.cpp:91] Creating Layer scale_conv3_down
I0411 13:37:45.633569 13056 net.cpp:425] scale_conv3_down <- conv3_down
I0411 13:37:45.633579 13056 net.cpp:386] scale_conv3_down -> conv3_down (in-place)
I0411 13:37:45.633638 13056 layer_factory.hpp:77] Creating layer scale_conv3_down
I0411 13:37:45.633777 13056 net.cpp:141] Setting up scale_conv3_down
I0411 13:37:45.633790 13056 net.cpp:148] Top shape: 32 128 8 8 (262144)
I0411 13:37:45.633795 13056 net.cpp:156] Memory required for data: 33948032
I0411 13:37:45.633803 13056 layer_factory.hpp:77] Creating layer conv4_1a
I0411 13:37:45.633816 13056 net.cpp:91] Creating Layer conv4_1a
I0411 13:37:45.633823 13056 net.cpp:425] conv4_1a <- conv3_1b_conv3_1b_relu_0_split_1
I0411 13:37:45.633831 13056 net.cpp:399] conv4_1a -> conv4_1a
I0411 13:37:45.635125 13056 net.cpp:141] Setting up conv4_1a
I0411 13:37:45.635146 13056 net.cpp:148] Top shape: 32 128 8 8 (262144)
I0411 13:37:45.635152 13056 net.cpp:156] Memory required for data: 34996608
I0411 13:37:45.635162 13056 layer_factory.hpp:77] Creating layer bn_conv4_1a
I0411 13:37:45.635176 13056 net.cpp:91] Creating Layer bn_conv4_1a
I0411 13:37:45.635184 13056 net.cpp:425] bn_conv4_1a <- conv4_1a
I0411 13:37:45.635192 13056 net.cpp:386] bn_conv4_1a -> conv4_1a (in-place)
I0411 13:37:45.635423 13056 net.cpp:141] Setting up bn_conv4_1a
I0411 13:37:45.635434 13056 net.cpp:148] Top shape: 32 128 8 8 (262144)
I0411 13:37:45.635439 13056 net.cpp:156] Memory required for data: 36045184
I0411 13:37:45.635450 13056 layer_factory.hpp:77] Creating layer scale_conv4_1a
I0411 13:37:45.635459 13056 net.cpp:91] Creating Layer scale_conv4_1a
I0411 13:37:45.635465 13056 net.cpp:425] scale_conv4_1a <- conv4_1a
I0411 13:37:45.635475 13056 net.cpp:386] scale_conv4_1a -> conv4_1a (in-place)
I0411 13:37:45.635525 13056 layer_factory.hpp:77] Creating layer scale_conv4_1a
I0411 13:37:45.635658 13056 net.cpp:141] Setting up scale_conv4_1a
I0411 13:37:45.635670 13056 net.cpp:148] Top shape: 32 128 8 8 (262144)
I0411 13:37:45.635675 13056 net.cpp:156] Memory required for data: 37093760
I0411 13:37:45.635684 13056 layer_factory.hpp:77] Creating layer conv4_1a_relu
I0411 13:37:45.635691 13056 net.cpp:91] Creating Layer conv4_1a_relu
I0411 13:37:45.635697 13056 net.cpp:425] conv4_1a_relu <- conv4_1a
I0411 13:37:45.635704 13056 net.cpp:386] conv4_1a_relu -> conv4_1a (in-place)
I0411 13:37:45.635912 13056 net.cpp:141] Setting up conv4_1a_relu
I0411 13:37:45.635926 13056 net.cpp:148] Top shape: 32 128 8 8 (262144)
I0411 13:37:45.635931 13056 net.cpp:156] Memory required for data: 38142336
I0411 13:37:45.635937 13056 layer_factory.hpp:77] Creating layer conv4_1b
I0411 13:37:45.635951 13056 net.cpp:91] Creating Layer conv4_1b
I0411 13:37:45.635957 13056 net.cpp:425] conv4_1b <- conv4_1a
I0411 13:37:45.635968 13056 net.cpp:399] conv4_1b -> conv4_1b
I0411 13:37:45.642910 13056 net.cpp:141] Setting up conv4_1b
I0411 13:37:45.642935 13056 net.cpp:148] Top shape: 32 128 8 8 (262144)
I0411 13:37:45.642941 13056 net.cpp:156] Memory required for data: 39190912
I0411 13:37:45.642951 13056 layer_factory.hpp:77] Creating layer bn_conv4_1b
I0411 13:37:45.642963 13056 net.cpp:91] Creating Layer bn_conv4_1b
I0411 13:37:45.642971 13056 net.cpp:425] bn_conv4_1b <- conv4_1b
I0411 13:37:45.642982 13056 net.cpp:386] bn_conv4_1b -> conv4_1b (in-place)
I0411 13:37:45.643210 13056 net.cpp:141] Setting up bn_conv4_1b
I0411 13:37:45.643221 13056 net.cpp:148] Top shape: 32 128 8 8 (262144)
I0411 13:37:45.643227 13056 net.cpp:156] Memory required for data: 40239488
I0411 13:37:45.643237 13056 layer_factory.hpp:77] Creating layer scale_conv4_1b
I0411 13:37:45.643249 13056 net.cpp:91] Creating Layer scale_conv4_1b
I0411 13:37:45.643255 13056 net.cpp:425] scale_conv4_1b <- conv4_1b
I0411 13:37:45.643262 13056 net.cpp:386] scale_conv4_1b -> conv4_1b (in-place)
I0411 13:37:45.643316 13056 layer_factory.hpp:77] Creating layer scale_conv4_1b
I0411 13:37:45.643452 13056 net.cpp:141] Setting up scale_conv4_1b
I0411 13:37:45.643463 13056 net.cpp:148] Top shape: 32 128 8 8 (262144)
I0411 13:37:45.643468 13056 net.cpp:156] Memory required for data: 41288064
I0411 13:37:45.643477 13056 layer_factory.hpp:77] Creating layer conv4_1b_relu
I0411 13:37:45.643484 13056 net.cpp:91] Creating Layer conv4_1b_relu
I0411 13:37:45.643491 13056 net.cpp:425] conv4_1b_relu <- conv4_1b
I0411 13:37:45.643499 13056 net.cpp:386] conv4_1b_relu -> conv4_1b (in-place)
I0411 13:37:45.643834 13056 net.cpp:141] Setting up conv4_1b_relu
I0411 13:37:45.643851 13056 net.cpp:148] Top shape: 32 128 8 8 (262144)
I0411 13:37:45.643857 13056 net.cpp:156] Memory required for data: 42336640
I0411 13:37:45.643863 13056 layer_factory.hpp:77] Creating layer conv4_down
I0411 13:37:45.643878 13056 net.cpp:91] Creating Layer conv4_down
I0411 13:37:45.643885 13056 net.cpp:425] conv4_down <- conv4_1b
I0411 13:37:45.643896 13056 net.cpp:399] conv4_down -> conv4_down
I0411 13:37:45.645010 13056 net.cpp:141] Setting up conv4_down
I0411 13:37:45.645030 13056 net.cpp:148] Top shape: 32 128 8 8 (262144)
I0411 13:37:45.645035 13056 net.cpp:156] Memory required for data: 43385216
I0411 13:37:45.645045 13056 layer_factory.hpp:77] Creating layer scale_conv4_down
I0411 13:37:45.645056 13056 net.cpp:91] Creating Layer scale_conv4_down
I0411 13:37:45.645063 13056 net.cpp:425] scale_conv4_down <- conv4_down
I0411 13:37:45.645071 13056 net.cpp:386] scale_conv4_down -> conv4_down (in-place)
I0411 13:37:45.645139 13056 layer_factory.hpp:77] Creating layer scale_conv4_down
I0411 13:37:45.645283 13056 net.cpp:141] Setting up scale_conv4_down
I0411 13:37:45.645295 13056 net.cpp:148] Top shape: 32 128 8 8 (262144)
I0411 13:37:45.645300 13056 net.cpp:156] Memory required for data: 44433792
I0411 13:37:45.645309 13056 layer_factory.hpp:77] Creating layer global_in
I0411 13:37:45.645321 13056 net.cpp:91] Creating Layer global_in
I0411 13:37:45.645328 13056 net.cpp:425] global_in <- conv1_down
I0411 13:37:45.645334 13056 net.cpp:425] global_in <- conv2_down
I0411 13:37:45.645340 13056 net.cpp:425] global_in <- conv3_down
I0411 13:37:45.645346 13056 net.cpp:425] global_in <- conv4_down
I0411 13:37:45.645354 13056 net.cpp:399] global_in -> global_in
I0411 13:37:45.645387 13056 net.cpp:141] Setting up global_in
I0411 13:37:45.645397 13056 net.cpp:148] Top shape: 32 128 8 8 (262144)
I0411 13:37:45.645402 13056 net.cpp:156] Memory required for data: 45482368
I0411 13:37:45.645408 13056 layer_factory.hpp:77] Creating layer global_pool
I0411 13:37:45.645416 13056 net.cpp:91] Creating Layer global_pool
I0411 13:37:45.645421 13056 net.cpp:425] global_pool <- global_in
I0411 13:37:45.645431 13056 net.cpp:399] global_pool -> global_pool
I0411 13:37:45.645658 13056 net.cpp:141] Setting up global_pool
I0411 13:37:45.645674 13056 net.cpp:148] Top shape: 32 128 1 1 (4096)
I0411 13:37:45.645680 13056 net.cpp:156] Memory required for data: 45498752
I0411 13:37:45.645686 13056 layer_factory.hpp:77] Creating layer ip
I0411 13:37:45.645700 13056 net.cpp:91] Creating Layer ip
I0411 13:37:45.645707 13056 net.cpp:425] ip <- global_pool
I0411 13:37:45.645715 13056 net.cpp:399] ip -> ip
I0411 13:37:45.645853 13056 net.cpp:141] Setting up ip
I0411 13:37:45.645864 13056 net.cpp:148] Top shape: 32 10 (320)
I0411 13:37:45.645869 13056 net.cpp:156] Memory required for data: 45500032
I0411 13:37:45.645877 13056 layer_factory.hpp:77] Creating layer ip_ip_0_split
I0411 13:37:45.645885 13056 net.cpp:91] Creating Layer ip_ip_0_split
I0411 13:37:45.645891 13056 net.cpp:425] ip_ip_0_split <- ip
I0411 13:37:45.645901 13056 net.cpp:399] ip_ip_0_split -> ip_ip_0_split_0
I0411 13:37:45.645911 13056 net.cpp:399] ip_ip_0_split -> ip_ip_0_split_1
I0411 13:37:45.645961 13056 net.cpp:141] Setting up ip_ip_0_split
I0411 13:37:45.645970 13056 net.cpp:148] Top shape: 32 10 (320)
I0411 13:37:45.645977 13056 net.cpp:148] Top shape: 32 10 (320)
I0411 13:37:45.645982 13056 net.cpp:156] Memory required for data: 45502592
I0411 13:37:45.645987 13056 layer_factory.hpp:77] Creating layer accuracy
I0411 13:37:45.645994 13056 net.cpp:91] Creating Layer accuracy
I0411 13:37:45.645999 13056 net.cpp:425] accuracy <- ip_ip_0_split_0
I0411 13:37:45.646006 13056 net.cpp:425] accuracy <- label_data_1_split_0
I0411 13:37:45.646015 13056 net.cpp:399] accuracy -> accuracy
…
