…
I0410 21:11:22.737653 14807 net.cpp:313] The NetState phase (0) differed from the phase (1) specified by a rule in layer data
I0410 21:11:22.737787 14807 net.cpp:49] Initializing net from parameters: 
name: "CifarResNet0"
state {
  phase: TRAIN
}
layer {
  name: "data"
  type: "Data"
  top: "data"
  top: "label"
  include {
    phase: TRAIN
  }
  transform_param {
    mean_file: "/home/liangjiang/code/residual_network/data/cifar10/mean.binaryproto"
  }
  data_param {
    source: "/home/liangjiang/code/residual_network/data/cifar10/cifar10_train_lmdb"
    batch_size: 256
    backend: LMDB
  }
}
layer {
  name: "conv1"
  type: "Convolution"
  bottom: "data"
  top: "conv1"
  param {
    lr_mult: 1
  }
  param {
    lr_mult: 2
  }
  convolution_param {
    num_output: 8
    pad: 1
    kernel_size: 3
    stride: 1
    weight_filler {
      type: "msra"
    }
    bias_filler {
      type: "constant"
      value: 0
    }
  }
}
layer {
  name: "bn_conv1"
  type: "BatchNorm"
  bottom: "conv1"
  top: "conv1"
  param {
    lr_mult: 0
  }
  param {
    lr_mult: 0
  }
  param {
    lr_mult: 0
  }
}
layer {
  name: "scale_conv1"
  type: "Scale"
  bottom: "conv1"
  top: "conv1"
  param {
    lr_mult: 1
  }
  param {
    lr_mult: 2
  }
  scale_param {
    bias_term: true
  }
}
layer {
  name: "conv1_relu"
  type: "ReLU"
  bottom: "conv1"
  top: "conv1"
}
layer {
  name: "conv1_down"
  type: "Convolution"
  bottom: "conv1"
  top: "conv1_down"
  param {
    lr_mult: 0
  }
  convolution_param {
    num_output: 128
    bias_term: false
    pad: 0
    kernel_size: 4
    stride: 4
    weight_filler {
      type: "downsample"
      value: 1
    }
  }
}
layer {
  name: "scale_conv1_down"
  type: "Scale"
  bottom: "conv1_down"
  top: "conv1_down"
  param {
    lr_mult: 1
  }
  param {
    lr_mult: 2
  }
  scale_param {
    filler {
      type: "constant"
      value: 1
    }
    bias_term: true
  }
}
layer {
  name: "conv2_1a"
  type: "Convolution"
  bottom: "conv1"
  top: "conv2_1a"
  param {
    lr_mult: 1
  }
  param {
    lr_mult: 2
  }
  convolution_param {
    num_output: 8
    pad: 1
    kernel_size: 3
    stride: 1
    weight_filler {
      type: "msra"
    }
    bias_filler {
      type: "constant"
      value: 0
    }
  }
}
layer {
  name: "bn_conv2_1a"
  type: "BatchNorm"
  bottom: "conv2_1a"
  top: "conv2_1a"
  param {
    lr_mult: 0
  }
  param {
    lr_mult: 0
  }
  param {
    lr_mult: 0
  }
}
layer {
  name: "scale_conv2_1a"
  type: "Scale"
  bottom: "conv2_1a"
  top: "conv2_1a"
  param {
    lr_mult: 1
  }
  param {
    lr_mult: 2
  }
  scale_param {
    bias_term: true
  }
}
layer {
  name: "conv2_1a_relu"
  type: "ReLU"
  bottom: "conv2_1a"
  top: "conv2_1a"
}
layer {
  name: "conv2_1b"
  type: "Convolution"
  bottom: "conv2_1a"
  top: "conv2_1b"
  param {
    lr_mult: 1
  }
  param {
    lr_mult: 2
  }
  convolution_param {
    num_output: 8
    pad: 1
    kernel_size: 3
    stride: 1
    weight_filler {
      type: "msra"
    }
    bias_filler {
      type: "constant"
      value: 0
    }
  }
}
layer {
  name: "bn_conv2_1b"
  type: "BatchNorm"
  bottom: "conv2_1b"
  top: "conv2_1b"
  param {
    lr_mult: 0
  }
  param {
    lr_mult: 0
  }
  param {
    lr_mult: 0
  }
}
layer {
  name: "scale_conv2_1b"
  type: "Scale"
  bottom: "conv2_1b"
  top: "conv2_1b"
  param {
    lr_mult: 1
  }
  param {
    lr_mult: 2
  }
  scale_param {
    bias_term: true
  }
}
layer {
  name: "conv2_1b_relu"
  type: "ReLU"
  bottom: "conv2_1b"
  top: "conv2_1b"
}
layer {
  name: "conv2_down"
  type: "Convolution"
  bottom: "conv2_1b"
  top: "conv2_down"
  param {
    lr_mult: 0
  }
  convolution_param {
    num_output: 128
    bias_term: false
    pad: 0
    kernel_size: 4
    stride: 4
    weight_filler {
      type: "downsample"
      value: 1
    }
  }
}
layer {
  name: "scale_conv2_down"
  type: "Scale"
  bottom: "conv2_down"
  top: "conv2_down"
  param {
    lr_mult: 1
  }
  param {
    lr_mult: 2
  }
  scale_param {
    filler {
      type: "constant"
      value: 1
    }
    bias_term: true
  }
}
layer {
  name: "global_in"
  type: "Eltwise"
  bottom: "conv1_down"
  bottom: "conv2_down"
  top: "global_in"
}
layer {
  name: "global_pool"
  type: "Pooling"
  bottom: "global_in"
  top: "global_pool"
  pooling_param {
    pool: MAX
    kernel_size: 8
  }
}
layer {
  name: "ip"
  type: "InnerProduct"
  bottom: "global_pool"
  top: "ip"
  param {
    lr_mult: 1
  }
  param {
    lr_mult: 2
  }
  inner_product_param {
    num_output: 10
  }
}
layer {
  name: "accuracy"
  type: "Accuracy"
  bottom: "ip"
  bottom: "label"
  top: "accuracy"
}
layer {
  name: "loss"
  type: "SoftmaxWithLoss"
  bottom: "ip"
  bottom: "label"
  top: "loss"
}
I0410 21:11:22.737886 14807 layer_factory.hpp:77] Creating layer data
I0410 21:11:22.738366 14807 net.cpp:91] Creating Layer data
I0410 21:11:22.738380 14807 net.cpp:399] data -> data
I0410 21:11:22.738399 14807 net.cpp:399] data -> label
I0410 21:11:22.738409 14807 data_transformer.cpp:25] Loading mean file from: /home/liangjiang/code/residual_network/data/cifar10/mean.binaryproto
I0410 21:11:22.740952 14864 db_lmdb.cpp:38] Opened lmdb /home/liangjiang/code/residual_network/data/cifar10/cifar10_train_lmdb
I0410 21:11:22.749043 14807 data_layer.cpp:41] output data size: 256,3,32,32
I0410 21:11:22.754019 14807 net.cpp:141] Setting up data
I0410 21:11:22.754040 14807 net.cpp:148] Top shape: 256 3 32 32 (786432)
I0410 21:11:22.754050 14807 net.cpp:148] Top shape: 256 (256)
I0410 21:11:22.754053 14807 net.cpp:156] Memory required for data: 3146752
I0410 21:11:22.754060 14807 layer_factory.hpp:77] Creating layer label_data_1_split
I0410 21:11:22.754076 14807 net.cpp:91] Creating Layer label_data_1_split
I0410 21:11:22.754081 14807 net.cpp:425] label_data_1_split <- label
I0410 21:11:22.754088 14807 net.cpp:399] label_data_1_split -> label_data_1_split_0
I0410 21:11:22.754098 14807 net.cpp:399] label_data_1_split -> label_data_1_split_1
I0410 21:11:22.754189 14807 net.cpp:141] Setting up label_data_1_split
I0410 21:11:22.754200 14807 net.cpp:148] Top shape: 256 (256)
I0410 21:11:22.754205 14807 net.cpp:148] Top shape: 256 (256)
I0410 21:11:22.754209 14807 net.cpp:156] Memory required for data: 3148800
I0410 21:11:22.754214 14807 layer_factory.hpp:77] Creating layer conv1
I0410 21:11:22.754227 14807 net.cpp:91] Creating Layer conv1
I0410 21:11:22.754232 14807 net.cpp:425] conv1 <- data
I0410 21:11:22.754240 14807 net.cpp:399] conv1 -> conv1
I0410 21:11:23.027895 14807 net.cpp:141] Setting up conv1
I0410 21:11:23.027954 14807 net.cpp:148] Top shape: 256 8 32 32 (2097152)
I0410 21:11:23.027963 14807 net.cpp:156] Memory required for data: 11537408
I0410 21:11:23.027992 14807 layer_factory.hpp:77] Creating layer bn_conv1
I0410 21:11:23.028012 14807 net.cpp:91] Creating Layer bn_conv1
I0410 21:11:23.028023 14807 net.cpp:425] bn_conv1 <- conv1
I0410 21:11:23.028033 14807 net.cpp:386] bn_conv1 -> conv1 (in-place)
I0410 21:11:23.028252 14807 net.cpp:141] Setting up bn_conv1
I0410 21:11:23.028265 14807 net.cpp:148] Top shape: 256 8 32 32 (2097152)
I0410 21:11:23.028272 14807 net.cpp:156] Memory required for data: 19926016
I0410 21:11:23.028290 14807 layer_factory.hpp:77] Creating layer scale_conv1
I0410 21:11:23.028306 14807 net.cpp:91] Creating Layer scale_conv1
I0410 21:11:23.028313 14807 net.cpp:425] scale_conv1 <- conv1
I0410 21:11:23.028322 14807 net.cpp:386] scale_conv1 -> conv1 (in-place)
I0410 21:11:23.028373 14807 layer_factory.hpp:77] Creating layer scale_conv1
I0410 21:11:23.028494 14807 net.cpp:141] Setting up scale_conv1
I0410 21:11:23.028506 14807 net.cpp:148] Top shape: 256 8 32 32 (2097152)
I0410 21:11:23.028512 14807 net.cpp:156] Memory required for data: 28314624
I0410 21:11:23.028522 14807 layer_factory.hpp:77] Creating layer conv1_relu
I0410 21:11:23.028543 14807 net.cpp:91] Creating Layer conv1_relu
I0410 21:11:23.028549 14807 net.cpp:425] conv1_relu <- conv1
I0410 21:11:23.028558 14807 net.cpp:386] conv1_relu -> conv1 (in-place)
I0410 21:11:23.028903 14807 net.cpp:141] Setting up conv1_relu
I0410 21:11:23.028924 14807 net.cpp:148] Top shape: 256 8 32 32 (2097152)
I0410 21:11:23.028930 14807 net.cpp:156] Memory required for data: 36703232
I0410 21:11:23.028937 14807 layer_factory.hpp:77] Creating layer conv1_conv1_relu_0_split
I0410 21:11:23.028949 14807 net.cpp:91] Creating Layer conv1_conv1_relu_0_split
I0410 21:11:23.028955 14807 net.cpp:425] conv1_conv1_relu_0_split <- conv1
I0410 21:11:23.028964 14807 net.cpp:399] conv1_conv1_relu_0_split -> conv1_conv1_relu_0_split_0
I0410 21:11:23.028977 14807 net.cpp:399] conv1_conv1_relu_0_split -> conv1_conv1_relu_0_split_1
I0410 21:11:23.029026 14807 net.cpp:141] Setting up conv1_conv1_relu_0_split
I0410 21:11:23.029038 14807 net.cpp:148] Top shape: 256 8 32 32 (2097152)
I0410 21:11:23.029045 14807 net.cpp:148] Top shape: 256 8 32 32 (2097152)
I0410 21:11:23.029050 14807 net.cpp:156] Memory required for data: 53480448
I0410 21:11:23.029057 14807 layer_factory.hpp:77] Creating layer conv1_down
I0410 21:11:23.029075 14807 net.cpp:91] Creating Layer conv1_down
I0410 21:11:23.029083 14807 net.cpp:425] conv1_down <- conv1_conv1_relu_0_split_0
I0410 21:11:23.029091 14807 net.cpp:399] conv1_down -> conv1_down
I0410 21:11:23.030710 14807 net.cpp:141] Setting up conv1_down
I0410 21:11:23.030733 14807 net.cpp:148] Top shape: 256 128 8 8 (2097152)
I0410 21:11:23.030740 14807 net.cpp:156] Memory required for data: 61869056
I0410 21:11:23.030750 14807 layer_factory.hpp:77] Creating layer scale_conv1_down
I0410 21:11:23.030766 14807 net.cpp:91] Creating Layer scale_conv1_down
I0410 21:11:23.030772 14807 net.cpp:425] scale_conv1_down <- conv1_down
I0410 21:11:23.030782 14807 net.cpp:386] scale_conv1_down -> conv1_down (in-place)
I0410 21:11:23.030838 14807 layer_factory.hpp:77] Creating layer scale_conv1_down
I0410 21:11:23.030957 14807 net.cpp:141] Setting up scale_conv1_down
I0410 21:11:23.030969 14807 net.cpp:148] Top shape: 256 128 8 8 (2097152)
I0410 21:11:23.030975 14807 net.cpp:156] Memory required for data: 70257664
I0410 21:11:23.030999 14807 layer_factory.hpp:77] Creating layer conv2_1a
I0410 21:11:23.031015 14807 net.cpp:91] Creating Layer conv2_1a
I0410 21:11:23.031023 14807 net.cpp:425] conv2_1a <- conv1_conv1_relu_0_split_1
I0410 21:11:23.031033 14807 net.cpp:399] conv2_1a -> conv2_1a
I0410 21:11:23.032110 14807 net.cpp:141] Setting up conv2_1a
I0410 21:11:23.032132 14807 net.cpp:148] Top shape: 256 8 32 32 (2097152)
I0410 21:11:23.032138 14807 net.cpp:156] Memory required for data: 78646272
I0410 21:11:23.032150 14807 layer_factory.hpp:77] Creating layer bn_conv2_1a
I0410 21:11:23.032161 14807 net.cpp:91] Creating Layer bn_conv2_1a
I0410 21:11:23.032167 14807 net.cpp:425] bn_conv2_1a <- conv2_1a
I0410 21:11:23.032176 14807 net.cpp:386] bn_conv2_1a -> conv2_1a (in-place)
I0410 21:11:23.032378 14807 net.cpp:141] Setting up bn_conv2_1a
I0410 21:11:23.032390 14807 net.cpp:148] Top shape: 256 8 32 32 (2097152)
I0410 21:11:23.032397 14807 net.cpp:156] Memory required for data: 87034880
I0410 21:11:23.032407 14807 layer_factory.hpp:77] Creating layer scale_conv2_1a
I0410 21:11:23.032418 14807 net.cpp:91] Creating Layer scale_conv2_1a
I0410 21:11:23.032424 14807 net.cpp:425] scale_conv2_1a <- conv2_1a
I0410 21:11:23.032433 14807 net.cpp:386] scale_conv2_1a -> conv2_1a (in-place)
I0410 21:11:23.032475 14807 layer_factory.hpp:77] Creating layer scale_conv2_1a
I0410 21:11:23.032589 14807 net.cpp:141] Setting up scale_conv2_1a
I0410 21:11:23.032601 14807 net.cpp:148] Top shape: 256 8 32 32 (2097152)
I0410 21:11:23.032606 14807 net.cpp:156] Memory required for data: 95423488
I0410 21:11:23.032620 14807 layer_factory.hpp:77] Creating layer conv2_1a_relu
I0410 21:11:23.032630 14807 net.cpp:91] Creating Layer conv2_1a_relu
I0410 21:11:23.032636 14807 net.cpp:425] conv2_1a_relu <- conv2_1a
I0410 21:11:23.032644 14807 net.cpp:386] conv2_1a_relu -> conv2_1a (in-place)
I0410 21:11:23.033012 14807 net.cpp:141] Setting up conv2_1a_relu
I0410 21:11:23.033032 14807 net.cpp:148] Top shape: 256 8 32 32 (2097152)
I0410 21:11:23.033038 14807 net.cpp:156] Memory required for data: 103812096
I0410 21:11:23.033046 14807 layer_factory.hpp:77] Creating layer conv2_1b
I0410 21:11:23.033061 14807 net.cpp:91] Creating Layer conv2_1b
I0410 21:11:23.033068 14807 net.cpp:425] conv2_1b <- conv2_1a
I0410 21:11:23.033078 14807 net.cpp:399] conv2_1b -> conv2_1b
I0410 21:11:23.034194 14807 net.cpp:141] Setting up conv2_1b
I0410 21:11:23.034215 14807 net.cpp:148] Top shape: 256 8 32 32 (2097152)
I0410 21:11:23.034222 14807 net.cpp:156] Memory required for data: 112200704
I0410 21:11:23.034234 14807 layer_factory.hpp:77] Creating layer bn_conv2_1b
I0410 21:11:23.034245 14807 net.cpp:91] Creating Layer bn_conv2_1b
I0410 21:11:23.034251 14807 net.cpp:425] bn_conv2_1b <- conv2_1b
I0410 21:11:23.034260 14807 net.cpp:386] bn_conv2_1b -> conv2_1b (in-place)
I0410 21:11:23.034466 14807 net.cpp:141] Setting up bn_conv2_1b
I0410 21:11:23.034476 14807 net.cpp:148] Top shape: 256 8 32 32 (2097152)
I0410 21:11:23.034482 14807 net.cpp:156] Memory required for data: 120589312
I0410 21:11:23.034493 14807 layer_factory.hpp:77] Creating layer scale_conv2_1b
I0410 21:11:23.034505 14807 net.cpp:91] Creating Layer scale_conv2_1b
I0410 21:11:23.034512 14807 net.cpp:425] scale_conv2_1b <- conv2_1b
I0410 21:11:23.034520 14807 net.cpp:386] scale_conv2_1b -> conv2_1b (in-place)
I0410 21:11:23.034564 14807 layer_factory.hpp:77] Creating layer scale_conv2_1b
I0410 21:11:23.034683 14807 net.cpp:141] Setting up scale_conv2_1b
I0410 21:11:23.034694 14807 net.cpp:148] Top shape: 256 8 32 32 (2097152)
I0410 21:11:23.034700 14807 net.cpp:156] Memory required for data: 128977920
I0410 21:11:23.034710 14807 layer_factory.hpp:77] Creating layer conv2_1b_relu
I0410 21:11:23.034721 14807 net.cpp:91] Creating Layer conv2_1b_relu
I0410 21:11:23.034728 14807 net.cpp:425] conv2_1b_relu <- conv2_1b
I0410 21:11:23.034735 14807 net.cpp:386] conv2_1b_relu -> conv2_1b (in-place)
I0410 21:11:23.034934 14807 net.cpp:141] Setting up conv2_1b_relu
I0410 21:11:23.034950 14807 net.cpp:148] Top shape: 256 8 32 32 (2097152)
I0410 21:11:23.034961 14807 net.cpp:156] Memory required for data: 137366528
I0410 21:11:23.034968 14807 layer_factory.hpp:77] Creating layer conv2_down
I0410 21:11:23.034982 14807 net.cpp:91] Creating Layer conv2_down
I0410 21:11:23.034989 14807 net.cpp:425] conv2_down <- conv2_1b
I0410 21:11:23.034998 14807 net.cpp:399] conv2_down -> conv2_down
I0410 21:11:23.036028 14807 net.cpp:141] Setting up conv2_down
I0410 21:11:23.036049 14807 net.cpp:148] Top shape: 256 128 8 8 (2097152)
I0410 21:11:23.036056 14807 net.cpp:156] Memory required for data: 145755136
I0410 21:11:23.036065 14807 layer_factory.hpp:77] Creating layer scale_conv2_down
I0410 21:11:23.036078 14807 net.cpp:91] Creating Layer scale_conv2_down
I0410 21:11:23.036084 14807 net.cpp:425] scale_conv2_down <- conv2_down
I0410 21:11:23.036094 14807 net.cpp:386] scale_conv2_down -> conv2_down (in-place)
I0410 21:11:23.036147 14807 layer_factory.hpp:77] Creating layer scale_conv2_down
I0410 21:11:23.036272 14807 net.cpp:141] Setting up scale_conv2_down
I0410 21:11:23.036283 14807 net.cpp:148] Top shape: 256 128 8 8 (2097152)
I0410 21:11:23.036289 14807 net.cpp:156] Memory required for data: 154143744
I0410 21:11:23.036298 14807 layer_factory.hpp:77] Creating layer global_in
I0410 21:11:23.036309 14807 net.cpp:91] Creating Layer global_in
I0410 21:11:23.036315 14807 net.cpp:425] global_in <- conv1_down
I0410 21:11:23.036322 14807 net.cpp:425] global_in <- conv2_down
I0410 21:11:23.036331 14807 net.cpp:399] global_in -> global_in
I0410 21:11:23.036370 14807 net.cpp:141] Setting up global_in
I0410 21:11:23.036381 14807 net.cpp:148] Top shape: 256 128 8 8 (2097152)
I0410 21:11:23.036386 14807 net.cpp:156] Memory required for data: 162532352
I0410 21:11:23.036392 14807 layer_factory.hpp:77] Creating layer global_pool
I0410 21:11:23.036403 14807 net.cpp:91] Creating Layer global_pool
I0410 21:11:23.036411 14807 net.cpp:425] global_pool <- global_in
I0410 21:11:23.036418 14807 net.cpp:399] global_pool -> global_pool
I0410 21:11:23.036464 14807 net.cpp:141] Setting up global_pool
I0410 21:11:23.036474 14807 net.cpp:148] Top shape: 256 128 1 1 (32768)
I0410 21:11:23.036479 14807 net.cpp:156] Memory required for data: 162663424
I0410 21:11:23.036485 14807 layer_factory.hpp:77] Creating layer ip
I0410 21:11:23.036497 14807 net.cpp:91] Creating Layer ip
I0410 21:11:23.036504 14807 net.cpp:425] ip <- global_pool
I0410 21:11:23.036512 14807 net.cpp:399] ip -> ip
I0410 21:11:23.036626 14807 net.cpp:141] Setting up ip
I0410 21:11:23.036638 14807 net.cpp:148] Top shape: 256 10 (2560)
I0410 21:11:23.036643 14807 net.cpp:156] Memory required for data: 162673664
I0410 21:11:23.036653 14807 layer_factory.hpp:77] Creating layer ip_ip_0_split
I0410 21:11:23.036662 14807 net.cpp:91] Creating Layer ip_ip_0_split
I0410 21:11:23.036669 14807 net.cpp:425] ip_ip_0_split <- ip
I0410 21:11:23.036676 14807 net.cpp:399] ip_ip_0_split -> ip_ip_0_split_0
I0410 21:11:23.036686 14807 net.cpp:399] ip_ip_0_split -> ip_ip_0_split_1
I0410 21:11:23.036722 14807 net.cpp:141] Setting up ip_ip_0_split
I0410 21:11:23.036732 14807 net.cpp:148] Top shape: 256 10 (2560)
I0410 21:11:23.036739 14807 net.cpp:148] Top shape: 256 10 (2560)
I0410 21:11:23.036744 14807 net.cpp:156] Memory required for data: 162694144
I0410 21:11:23.036751 14807 layer_factory.hpp:77] Creating layer accuracy
I0410 21:11:23.036766 14807 net.cpp:91] Creating Layer accuracy
I0410 21:11:23.036772 14807 net.cpp:425] accuracy <- ip_ip_0_split_0
I0410 21:11:23.036778 14807 net.cpp:425] accuracy <- label_data_1_split_0
I0410 21:11:23.036787 14807 net.cpp:399] accuracy -> accuracy
…
I0410 21:11:23.038281 14807 net.cpp:313] The NetState phase (1) differed from the phase (0) specified by a rule in layer data
I0410 21:11:23.038477 14807 net.cpp:49] Initializing net from parameters: 
name: "CifarResNet0"
state {
  phase: TEST
}
layer {
  name: "data"
  type: "Data"
  top: "data"
  top: "label"
  include {
    phase: TEST
  }
  transform_param {
    mean_file: "/home/liangjiang/code/residual_network/data/cifar10/mean.binaryproto"
  }
  data_param {
    source: "/home/liangjiang/code/residual_network/data/cifar10/cifar10_test_lmdb"
    batch_size: 32
    backend: LMDB
  }
}
layer {
  name: "conv1"
  type: "Convolution"
  bottom: "data"
  top: "conv1"
  param {
    lr_mult: 1
  }
  param {
    lr_mult: 2
  }
  convolution_param {
    num_output: 8
    pad: 1
    kernel_size: 3
    stride: 1
    weight_filler {
      type: "msra"
    }
    bias_filler {
      type: "constant"
      value: 0
    }
  }
}
layer {
  name: "bn_conv1"
  type: "BatchNorm"
  bottom: "conv1"
  top: "conv1"
  param {
    lr_mult: 0
  }
  param {
    lr_mult: 0
  }
  param {
    lr_mult: 0
  }
}
layer {
  name: "scale_conv1"
  type: "Scale"
  bottom: "conv1"
  top: "conv1"
  param {
    lr_mult: 1
  }
  param {
    lr_mult: 2
  }
  scale_param {
    bias_term: true
  }
}
layer {
  name: "conv1_relu"
  type: "ReLU"
  bottom: "conv1"
  top: "conv1"
}
layer {
  name: "conv1_down"
  type: "Convolution"
  bottom: "conv1"
  top: "conv1_down"
  param {
    lr_mult: 0
  }
  convolution_param {
    num_output: 128
    bias_term: false
    pad: 0
    kernel_size: 4
    stride: 4
    weight_filler {
      type: "downsample"
      value: 1
    }
  }
}
layer {
  name: "scale_conv1_down"
  type: "Scale"
  bottom: "conv1_down"
  top: "conv1_down"
  param {
    lr_mult: 1
  }
  param {
    lr_mult: 2
  }
  scale_param {
    filler {
      type: "constant"
      value: 1
    }
    bias_term: true
  }
}
layer {
  name: "conv2_1a"
  type: "Convolution"
  bottom: "conv1"
  top: "conv2_1a"
  param {
    lr_mult: 1
  }
  param {
    lr_mult: 2
  }
  convolution_param {
    num_output: 8
    pad: 1
    kernel_size: 3
    stride: 1
    weight_filler {
      type: "msra"
    }
    bias_filler {
      type: "constant"
      value: 0
    }
  }
}
layer {
  name: "bn_conv2_1a"
  type: "BatchNorm"
  bottom: "conv2_1a"
  top: "conv2_1a"
  param {
    lr_mult: 0
  }
  param {
    lr_mult: 0
  }
  param {
    lr_mult: 0
  }
}
layer {
  name: "scale_conv2_1a"
  type: "Scale"
  bottom: "conv2_1a"
  top: "conv2_1a"
  param {
    lr_mult: 1
  }
  param {
    lr_mult: 2
  }
  scale_param {
    bias_term: true
  }
}
layer {
  name: "conv2_1a_relu"
  type: "ReLU"
  bottom: "conv2_1a"
  top: "conv2_1a"
}
layer {
  name: "conv2_1b"
  type: "Convolution"
  bottom: "conv2_1a"
  top: "conv2_1b"
  param {
    lr_mult: 1
  }
  param {
    lr_mult: 2
  }
  convolution_param {
    num_output: 8
    pad: 1
    kernel_size: 3
    stride: 1
    weight_filler {
      type: "msra"
    }
    bias_filler {
      type: "constant"
      value: 0
    }
  }
}
layer {
  name: "bn_conv2_1b"
  type: "BatchNorm"
  bottom: "conv2_1b"
  top: "conv2_1b"
  param {
    lr_mult: 0
  }
  param {
    lr_mult: 0
  }
  param {
    lr_mult: 0
  }
}
layer {
  name: "scale_conv2_1b"
  type: "Scale"
  bottom: "conv2_1b"
  top: "conv2_1b"
  param {
    lr_mult: 1
  }
  param {
    lr_mult: 2
  }
  scale_param {
    bias_term: true
  }
}
layer {
  name: "conv2_1b_relu"
  type: "ReLU"
  bottom: "conv2_1b"
  top: "conv2_1b"
}
layer {
  name: "conv2_down"
  type: "Convolution"
  bottom: "conv2_1b"
  top: "conv2_down"
  param {
    lr_mult: 0
  }
  convolution_param {
    num_output: 128
    bias_term: false
    pad: 0
    kernel_size: 4
    stride: 4
    weight_filler {
      type: "downsample"
      value: 1
    }
  }
}
layer {
  name: "scale_conv2_down"
  type: "Scale"
  bottom: "conv2_down"
  top: "conv2_down"
  param {
    lr_mult: 1
  }
  param {
    lr_mult: 2
  }
  scale_param {
    filler {
      type: "constant"
      value: 1
    }
    bias_term: true
  }
}
layer {
  name: "global_in"
  type: "Eltwise"
  bottom: "conv1_down"
  bottom: "conv2_down"
  top: "global_in"
}
layer {
  name: "global_pool"
  type: "Pooling"
  bottom: "global_in"
  top: "global_pool"
  pooling_param {
    pool: MAX
    kernel_size: 8
  }
}
layer {
  name: "ip"
  type: "InnerProduct"
  bottom: "global_pool"
  top: "ip"
  param {
    lr_mult: 1
  }
  param {
    lr_mult: 2
  }
  inner_product_param {
    num_output: 10
  }
}
layer {
  name: "accuracy"
  type: "Accuracy"
  bottom: "ip"
  bottom: "label"
  top: "accuracy"
}
layer {
  name: "loss"
  type: "SoftmaxWithLoss"
  bottom: "ip"
  bottom: "label"
  top: "loss"
}
I0410 21:11:23.038617 14807 layer_factory.hpp:77] Creating layer data
I0410 21:11:23.039189 14807 net.cpp:91] Creating Layer data
I0410 21:11:23.039204 14807 net.cpp:399] data -> data
I0410 21:11:23.039218 14807 net.cpp:399] data -> label
I0410 21:11:23.039232 14807 data_transformer.cpp:25] Loading mean file from: /home/liangjiang/code/residual_network/data/cifar10/mean.binaryproto
I0410 21:11:23.040627 14872 db_lmdb.cpp:38] Opened lmdb /home/liangjiang/code/residual_network/data/cifar10/cifar10_test_lmdb
I0410 21:11:23.040807 14807 data_layer.cpp:41] output data size: 32,3,32,32
I0410 21:11:23.042821 14807 net.cpp:141] Setting up data
I0410 21:11:23.042843 14807 net.cpp:148] Top shape: 32 3 32 32 (98304)
I0410 21:11:23.042857 14807 net.cpp:148] Top shape: 32 (32)
I0410 21:11:23.042863 14807 net.cpp:156] Memory required for data: 393344
I0410 21:11:23.042870 14807 layer_factory.hpp:77] Creating layer label_data_1_split
I0410 21:11:23.042882 14807 net.cpp:91] Creating Layer label_data_1_split
I0410 21:11:23.042889 14807 net.cpp:425] label_data_1_split <- label
I0410 21:11:23.042897 14807 net.cpp:399] label_data_1_split -> label_data_1_split_0
I0410 21:11:23.042912 14807 net.cpp:399] label_data_1_split -> label_data_1_split_1
I0410 21:11:23.043072 14807 net.cpp:141] Setting up label_data_1_split
I0410 21:11:23.043087 14807 net.cpp:148] Top shape: 32 (32)
I0410 21:11:23.043094 14807 net.cpp:148] Top shape: 32 (32)
I0410 21:11:23.043099 14807 net.cpp:156] Memory required for data: 393600
I0410 21:11:23.043105 14807 layer_factory.hpp:77] Creating layer conv1
I0410 21:11:23.043120 14807 net.cpp:91] Creating Layer conv1
I0410 21:11:23.043128 14807 net.cpp:425] conv1 <- data
I0410 21:11:23.043136 14807 net.cpp:399] conv1 -> conv1
I0410 21:11:23.044261 14807 net.cpp:141] Setting up conv1
I0410 21:11:23.044286 14807 net.cpp:148] Top shape: 32 8 32 32 (262144)
I0410 21:11:23.044291 14807 net.cpp:156] Memory required for data: 1442176
I0410 21:11:23.044306 14807 layer_factory.hpp:77] Creating layer bn_conv1
I0410 21:11:23.044317 14807 net.cpp:91] Creating Layer bn_conv1
I0410 21:11:23.044323 14807 net.cpp:425] bn_conv1 <- conv1
I0410 21:11:23.044332 14807 net.cpp:386] bn_conv1 -> conv1 (in-place)
I0410 21:11:23.044571 14807 net.cpp:141] Setting up bn_conv1
I0410 21:11:23.044584 14807 net.cpp:148] Top shape: 32 8 32 32 (262144)
I0410 21:11:23.044589 14807 net.cpp:156] Memory required for data: 2490752
I0410 21:11:23.044605 14807 layer_factory.hpp:77] Creating layer scale_conv1
I0410 21:11:23.044615 14807 net.cpp:91] Creating Layer scale_conv1
I0410 21:11:23.044621 14807 net.cpp:425] scale_conv1 <- conv1
I0410 21:11:23.044630 14807 net.cpp:386] scale_conv1 -> conv1 (in-place)
I0410 21:11:23.044719 14807 layer_factory.hpp:77] Creating layer scale_conv1
I0410 21:11:23.044843 14807 net.cpp:141] Setting up scale_conv1
I0410 21:11:23.044855 14807 net.cpp:148] Top shape: 32 8 32 32 (262144)
I0410 21:11:23.044862 14807 net.cpp:156] Memory required for data: 3539328
I0410 21:11:23.044870 14807 layer_factory.hpp:77] Creating layer conv1_relu
I0410 21:11:23.044879 14807 net.cpp:91] Creating Layer conv1_relu
I0410 21:11:23.044889 14807 net.cpp:425] conv1_relu <- conv1
I0410 21:11:23.044905 14807 net.cpp:386] conv1_relu -> conv1 (in-place)
I0410 21:11:23.045248 14807 net.cpp:141] Setting up conv1_relu
I0410 21:11:23.045269 14807 net.cpp:148] Top shape: 32 8 32 32 (262144)
I0410 21:11:23.045275 14807 net.cpp:156] Memory required for data: 4587904
I0410 21:11:23.045282 14807 layer_factory.hpp:77] Creating layer conv1_conv1_relu_0_split
I0410 21:11:23.045291 14807 net.cpp:91] Creating Layer conv1_conv1_relu_0_split
I0410 21:11:23.045298 14807 net.cpp:425] conv1_conv1_relu_0_split <- conv1
I0410 21:11:23.045307 14807 net.cpp:399] conv1_conv1_relu_0_split -> conv1_conv1_relu_0_split_0
I0410 21:11:23.045318 14807 net.cpp:399] conv1_conv1_relu_0_split -> conv1_conv1_relu_0_split_1
I0410 21:11:23.045370 14807 net.cpp:141] Setting up conv1_conv1_relu_0_split
I0410 21:11:23.045403 14807 net.cpp:148] Top shape: 32 8 32 32 (262144)
I0410 21:11:23.045408 14807 net.cpp:148] Top shape: 32 8 32 32 (262144)
I0410 21:11:23.045413 14807 net.cpp:156] Memory required for data: 6685056
I0410 21:11:23.045419 14807 layer_factory.hpp:77] Creating layer conv1_down
I0410 21:11:23.045438 14807 net.cpp:91] Creating Layer conv1_down
I0410 21:11:23.045444 14807 net.cpp:425] conv1_down <- conv1_conv1_relu_0_split_0
I0410 21:11:23.045454 14807 net.cpp:399] conv1_down -> conv1_down
I0410 21:11:23.046752 14807 net.cpp:141] Setting up conv1_down
I0410 21:11:23.046773 14807 net.cpp:148] Top shape: 32 128 8 8 (262144)
I0410 21:11:23.046787 14807 net.cpp:156] Memory required for data: 7733632
I0410 21:11:23.046797 14807 layer_factory.hpp:77] Creating layer scale_conv1_down
I0410 21:11:23.046815 14807 net.cpp:91] Creating Layer scale_conv1_down
I0410 21:11:23.046835 14807 net.cpp:425] scale_conv1_down <- conv1_down
I0410 21:11:23.046845 14807 net.cpp:386] scale_conv1_down -> conv1_down (in-place)
I0410 21:11:23.046902 14807 layer_factory.hpp:77] Creating layer scale_conv1_down
I0410 21:11:23.047027 14807 net.cpp:141] Setting up scale_conv1_down
I0410 21:11:23.047042 14807 net.cpp:148] Top shape: 32 128 8 8 (262144)
I0410 21:11:23.047060 14807 net.cpp:156] Memory required for data: 8782208
I0410 21:11:23.047073 14807 layer_factory.hpp:77] Creating layer conv2_1a
I0410 21:11:23.047086 14807 net.cpp:91] Creating Layer conv2_1a
I0410 21:11:23.047108 14807 net.cpp:425] conv2_1a <- conv1_conv1_relu_0_split_1
I0410 21:11:23.047118 14807 net.cpp:399] conv2_1a -> conv2_1a
I0410 21:11:23.048101 14807 net.cpp:141] Setting up conv2_1a
I0410 21:11:23.048122 14807 net.cpp:148] Top shape: 32 8 32 32 (262144)
I0410 21:11:23.048128 14807 net.cpp:156] Memory required for data: 9830784
I0410 21:11:23.048140 14807 layer_factory.hpp:77] Creating layer bn_conv2_1a
I0410 21:11:23.048149 14807 net.cpp:91] Creating Layer bn_conv2_1a
I0410 21:11:23.048156 14807 net.cpp:425] bn_conv2_1a <- conv2_1a
I0410 21:11:23.048164 14807 net.cpp:386] bn_conv2_1a -> conv2_1a (in-place)
I0410 21:11:23.048410 14807 net.cpp:141] Setting up bn_conv2_1a
I0410 21:11:23.048424 14807 net.cpp:148] Top shape: 32 8 32 32 (262144)
I0410 21:11:23.048429 14807 net.cpp:156] Memory required for data: 10879360
I0410 21:11:23.048440 14807 layer_factory.hpp:77] Creating layer scale_conv2_1a
I0410 21:11:23.048449 14807 net.cpp:91] Creating Layer scale_conv2_1a
I0410 21:11:23.048455 14807 net.cpp:425] scale_conv2_1a <- conv2_1a
I0410 21:11:23.048465 14807 net.cpp:386] scale_conv2_1a -> conv2_1a (in-place)
I0410 21:11:23.048565 14807 layer_factory.hpp:77] Creating layer scale_conv2_1a
I0410 21:11:23.048691 14807 net.cpp:141] Setting up scale_conv2_1a
I0410 21:11:23.048714 14807 net.cpp:148] Top shape: 32 8 32 32 (262144)
I0410 21:11:23.048719 14807 net.cpp:156] Memory required for data: 11927936
I0410 21:11:23.048733 14807 layer_factory.hpp:77] Creating layer conv2_1a_relu
I0410 21:11:23.048743 14807 net.cpp:91] Creating Layer conv2_1a_relu
I0410 21:11:23.048748 14807 net.cpp:425] conv2_1a_relu <- conv2_1a
I0410 21:11:23.048756 14807 net.cpp:386] conv2_1a_relu -> conv2_1a (in-place)
I0410 21:11:23.049079 14807 net.cpp:141] Setting up conv2_1a_relu
I0410 21:11:23.049098 14807 net.cpp:148] Top shape: 32 8 32 32 (262144)
I0410 21:11:23.049104 14807 net.cpp:156] Memory required for data: 12976512
I0410 21:11:23.049127 14807 layer_factory.hpp:77] Creating layer conv2_1b
I0410 21:11:23.049147 14807 net.cpp:91] Creating Layer conv2_1b
I0410 21:11:23.049154 14807 net.cpp:425] conv2_1b <- conv2_1a
I0410 21:11:23.049165 14807 net.cpp:399] conv2_1b -> conv2_1b
I0410 21:11:23.050324 14807 net.cpp:141] Setting up conv2_1b
I0410 21:11:23.050345 14807 net.cpp:148] Top shape: 32 8 32 32 (262144)
I0410 21:11:23.050351 14807 net.cpp:156] Memory required for data: 14025088
I0410 21:11:23.050361 14807 layer_factory.hpp:77] Creating layer bn_conv2_1b
I0410 21:11:23.050371 14807 net.cpp:91] Creating Layer bn_conv2_1b
I0410 21:11:23.050377 14807 net.cpp:425] bn_conv2_1b <- conv2_1b
I0410 21:11:23.050386 14807 net.cpp:386] bn_conv2_1b -> conv2_1b (in-place)
I0410 21:11:23.050595 14807 net.cpp:141] Setting up bn_conv2_1b
I0410 21:11:23.050607 14807 net.cpp:148] Top shape: 32 8 32 32 (262144)
I0410 21:11:23.050612 14807 net.cpp:156] Memory required for data: 15073664
I0410 21:11:23.050623 14807 layer_factory.hpp:77] Creating layer scale_conv2_1b
I0410 21:11:23.050632 14807 net.cpp:91] Creating Layer scale_conv2_1b
I0410 21:11:23.050638 14807 net.cpp:425] scale_conv2_1b <- conv2_1b
I0410 21:11:23.050647 14807 net.cpp:386] scale_conv2_1b -> conv2_1b (in-place)
I0410 21:11:23.050694 14807 layer_factory.hpp:77] Creating layer scale_conv2_1b
I0410 21:11:23.050813 14807 net.cpp:141] Setting up scale_conv2_1b
I0410 21:11:23.050825 14807 net.cpp:148] Top shape: 32 8 32 32 (262144)
I0410 21:11:23.050837 14807 net.cpp:156] Memory required for data: 16122240
I0410 21:11:23.050846 14807 layer_factory.hpp:77] Creating layer conv2_1b_relu
I0410 21:11:23.050856 14807 net.cpp:91] Creating Layer conv2_1b_relu
I0410 21:11:23.050863 14807 net.cpp:425] conv2_1b_relu <- conv2_1b
I0410 21:11:23.050870 14807 net.cpp:386] conv2_1b_relu -> conv2_1b (in-place)
I0410 21:11:23.051065 14807 net.cpp:141] Setting up conv2_1b_relu
I0410 21:11:23.051080 14807 net.cpp:148] Top shape: 32 8 32 32 (262144)
I0410 21:11:23.051085 14807 net.cpp:156] Memory required for data: 17170816
I0410 21:11:23.051091 14807 layer_factory.hpp:77] Creating layer conv2_down
I0410 21:11:23.051103 14807 net.cpp:91] Creating Layer conv2_down
I0410 21:11:23.051110 14807 net.cpp:425] conv2_down <- conv2_1b
I0410 21:11:23.051120 14807 net.cpp:399] conv2_down -> conv2_down
I0410 21:11:23.052139 14807 net.cpp:141] Setting up conv2_down
I0410 21:11:23.052158 14807 net.cpp:148] Top shape: 32 128 8 8 (262144)
I0410 21:11:23.052165 14807 net.cpp:156] Memory required for data: 18219392
I0410 21:11:23.052175 14807 layer_factory.hpp:77] Creating layer scale_conv2_down
I0410 21:11:23.052184 14807 net.cpp:91] Creating Layer scale_conv2_down
I0410 21:11:23.052191 14807 net.cpp:425] scale_conv2_down <- conv2_down
I0410 21:11:23.052201 14807 net.cpp:386] scale_conv2_down -> conv2_down (in-place)
I0410 21:11:23.052254 14807 layer_factory.hpp:77] Creating layer scale_conv2_down
I0410 21:11:23.052376 14807 net.cpp:141] Setting up scale_conv2_down
I0410 21:11:23.052388 14807 net.cpp:148] Top shape: 32 128 8 8 (262144)
I0410 21:11:23.052393 14807 net.cpp:156] Memory required for data: 19267968
I0410 21:11:23.052402 14807 layer_factory.hpp:77] Creating layer global_in
I0410 21:11:23.052410 14807 net.cpp:91] Creating Layer global_in
I0410 21:11:23.052417 14807 net.cpp:425] global_in <- conv1_down
I0410 21:11:23.052423 14807 net.cpp:425] global_in <- conv2_down
I0410 21:11:23.052431 14807 net.cpp:399] global_in -> global_in
I0410 21:11:23.052461 14807 net.cpp:141] Setting up global_in
I0410 21:11:23.052471 14807 net.cpp:148] Top shape: 32 128 8 8 (262144)
I0410 21:11:23.052476 14807 net.cpp:156] Memory required for data: 20316544
I0410 21:11:23.052482 14807 layer_factory.hpp:77] Creating layer global_pool
I0410 21:11:23.052490 14807 net.cpp:91] Creating Layer global_pool
I0410 21:11:23.052496 14807 net.cpp:425] global_pool <- global_in
I0410 21:11:23.052503 14807 net.cpp:399] global_pool -> global_pool
I0410 21:11:23.052547 14807 net.cpp:141] Setting up global_pool
I0410 21:11:23.052557 14807 net.cpp:148] Top shape: 32 128 1 1 (4096)
I0410 21:11:23.052561 14807 net.cpp:156] Memory required for data: 20332928
I0410 21:11:23.052567 14807 layer_factory.hpp:77] Creating layer ip
I0410 21:11:23.052575 14807 net.cpp:91] Creating Layer ip
I0410 21:11:23.052582 14807 net.cpp:425] ip <- global_pool
I0410 21:11:23.052589 14807 net.cpp:399] ip -> ip
I0410 21:11:23.052705 14807 net.cpp:141] Setting up ip
I0410 21:11:23.052714 14807 net.cpp:148] Top shape: 32 10 (320)
I0410 21:11:23.052719 14807 net.cpp:156] Memory required for data: 20334208
I0410 21:11:23.052728 14807 layer_factory.hpp:77] Creating layer ip_ip_0_split
I0410 21:11:23.052736 14807 net.cpp:91] Creating Layer ip_ip_0_split
I0410 21:11:23.052742 14807 net.cpp:425] ip_ip_0_split <- ip
I0410 21:11:23.052750 14807 net.cpp:399] ip_ip_0_split -> ip_ip_0_split_0
I0410 21:11:23.052759 14807 net.cpp:399] ip_ip_0_split -> ip_ip_0_split_1
I0410 21:11:23.052801 14807 net.cpp:141] Setting up ip_ip_0_split
I0410 21:11:23.052811 14807 net.cpp:148] Top shape: 32 10 (320)
I0410 21:11:23.052817 14807 net.cpp:148] Top shape: 32 10 (320)
I0410 21:11:23.052822 14807 net.cpp:156] Memory required for data: 20336768
I0410 21:11:23.052827 14807 layer_factory.hpp:77] Creating layer accuracy
I0410 21:11:23.052835 14807 net.cpp:91] Creating Layer accuracy
I0410 21:11:23.052841 14807 net.cpp:425] accuracy <- ip_ip_0_split_0
I0410 21:11:23.052848 14807 net.cpp:425] accuracy <- label_data_1_split_0
I0410 21:11:23.052856 14807 net.cpp:399] accuracy -> accuracy
…
I0410 21:23:38.067785 18472 net.cpp:313] The NetState phase (0) differed from the phase (1) specified by a rule in layer data
I0410 21:23:38.067967 18472 net.cpp:49] Initializing net from parameters: 
name: "CifarResNet0"
state {
  phase: TRAIN
}
layer {
  name: "data"
  type: "Data"
  top: "data"
  top: "label"
  include {
    phase: TRAIN
  }
  transform_param {
    mean_file: "/home/liangjiang/code/residual_network/data/cifar10/mean.binaryproto"
  }
  data_param {
    source: "/home/liangjiang/code/residual_network/data/cifar10/cifar10_train_lmdb"
    batch_size: 256
    backend: LMDB
  }
}
layer {
  name: "conv1"
  type: "Convolution"
  bottom: "data"
  top: "conv1"
  param {
    lr_mult: 0.8
  }
  param {
    lr_mult: 1.6
  }
  convolution_param {
    num_output: 8
    pad: 1
    kernel_size: 3
    stride: 1
    weight_filler {
      type: "msra"
    }
    bias_filler {
      type: "constant"
      value: 0
    }
  }
}
layer {
  name: "bn_conv1"
  type: "BatchNorm"
  bottom: "conv1"
  top: "conv1"
  param {
    lr_mult: 0
  }
  param {
    lr_mult: 0
  }
  param {
    lr_mult: 0
  }
}
layer {
  name: "scale_conv1"
  type: "Scale"
  bottom: "conv1"
  top: "conv1"
  param {
    lr_mult: 1
  }
  param {
    lr_mult: 2
  }
  scale_param {
    bias_term: true
  }
}
layer {
  name: "conv1_relu"
  type: "ReLU"
  bottom: "conv1"
  top: "conv1"
}
layer {
  name: "conv1_down"
  type: "Convolution"
  bottom: "conv1"
  top: "conv1_down"
  param {
    lr_mult: 0
  }
  convolution_param {
    num_output: 128
    bias_term: false
    pad: 0
    kernel_size: 4
    stride: 4
    weight_filler {
      type: "downsample"
      value: 1
    }
  }
}
layer {
  name: "scale_conv1_down"
  type: "Scale"
  bottom: "conv1_down"
  top: "conv1_down"
  param {
    lr_mult: 1
  }
  param {
    lr_mult: 2
  }
  scale_param {
    filler {
      type: "constant"
      value: 0
    }
    bias_term: true
  }
}
layer {
  name: "conv2_1a"
  type: "Convolution"
  bottom: "conv1"
  top: "conv2_1a"
  param {
    lr_mult: 0.8
  }
  param {
    lr_mult: 1.6
  }
  convolution_param {
    num_output: 8
    pad: 1
    kernel_size: 3
    stride: 1
    weight_filler {
      type: "msra"
    }
    bias_filler {
      type: "constant"
      value: 0
    }
  }
}
layer {
  name: "bn_conv2_1a"
  type: "BatchNorm"
  bottom: "conv2_1a"
  top: "conv2_1a"
  param {
    lr_mult: 0
  }
  param {
    lr_mult: 0
  }
  param {
    lr_mult: 0
  }
}
layer {
  name: "scale_conv2_1a"
  type: "Scale"
  bottom: "conv2_1a"
  top: "conv2_1a"
  param {
    lr_mult: 1
  }
  param {
    lr_mult: 2
  }
  scale_param {
    bias_term: true
  }
}
layer {
  name: "conv2_1a_relu"
  type: "ReLU"
  bottom: "conv2_1a"
  top: "conv2_1a"
}
layer {
  name: "conv2_1b"
  type: "Convolution"
  bottom: "conv2_1a"
  top: "conv2_1b"
  param {
    lr_mult: 0.8
  }
  param {
    lr_mult: 1.6
  }
  convolution_param {
    num_output: 8
    pad: 1
    kernel_size: 3
    stride: 1
    weight_filler {
      type: "msra"
    }
    bias_filler {
      type: "constant"
      value: 0
    }
  }
}
layer {
  name: "bn_conv2_1b"
  type: "BatchNorm"
  bottom: "conv2_1b"
  top: "conv2_1b"
  param {
    lr_mult: 0
  }
  param {
    lr_mult: 0
  }
  param {
    lr_mult: 0
  }
}
layer {
  name: "scale_conv2_1b"
  type: "Scale"
  bottom: "conv2_1b"
  top: "conv2_1b"
  param {
    lr_mult: 1
  }
  param {
    lr_mult: 2
  }
  scale_param {
    bias_term: true
  }
}
layer {
  name: "conv2_1b_relu"
  type: "ReLU"
  bottom: "conv2_1b"
  top: "conv2_1b"
}
layer {
  name: "conv2_down"
  type: "Convolution"
  bottom: "conv2_1b"
  top: "conv2_down"
  param {
    lr_mult: 0
  }
  convolution_param {
    num_output: 128
    bias_term: false
    pad: 0
    kernel_size: 4
    stride: 4
    weight_filler {
      type: "downsample"
      value: 1
    }
  }
}
layer {
  name: "scale_conv2_down"
  type: "Scale"
  bottom: "conv2_down"
  top: "conv2_down"
  param {
    lr_mult: 1
  }
  param {
    lr_mult: 2
  }
  scale_param {
    filler {
      type: "constant"
      value: 0
    }
    bias_term: true
  }
}
layer {
  name: "conv3_1a"
  type: "Convolution"
  bottom: "conv2_1b"
  top: "conv3_1a"
  param {
    lr_mult: 1
  }
  param {
    lr_mult: 2
  }
  convolution_param {
    num_output: 32
    pad: 0
    kernel_size: 1
    stride: 2
    weight_filler {
      type: "msra"
    }
    bias_filler {
      type: "constant"
      value: 0
    }
  }
}
layer {
  name: "bn_conv3_1a"
  type: "BatchNorm"
  bottom: "conv3_1a"
  top: "conv3_1a"
  param {
    lr_mult: 0
  }
  param {
    lr_mult: 0
  }
  param {
    lr_mult: 0
  }
}
layer {
  name: "scale_conv3_1a"
  type: "Scale"
  bottom: "conv3_1a"
  top: "conv3_1a"
  param {
    lr_mult: 1
  }
  param {
    lr_mult: 2
  }
  scale_param {
    bias_term: true
  }
}
layer {
  name: "conv3_1a_relu"
  type: "ReLU"
  bottom: "conv3_1a"
  top: "conv3_1a"
}
layer {
  name: "conv3_1b"
  type: "Convolution"
  bottom: "conv3_1a"
  top: "conv3_1b"
  param {
    lr_mult: 1
  }
  param {
    lr_mult: 2
  }
  convolution_param {
    num_output: 32
    pad: 1
    kernel_size: 3
    stride: 1
    weight_filler {
      type: "msra"
    }
    bias_filler {
      type: "constant"
      value: 0
    }
  }
}
layer {
  name: "bn_conv3_1b"
  type: "BatchNorm"
  bottom: "conv3_1b"
  top: "conv3_1b"
  param {
    lr_mult: 0
  }
  param {
    lr_mult: 0
  }
  param {
    lr_mult: 0
  }
}
layer {
  name: "scale_conv3_1b"
  type: "Scale"
  bottom: "conv3_1b"
  top: "conv3_1b"
  param {
    lr_mult: 1
  }
  param {
    lr_mult: 2
  }
  scale_param {
    bias_term: true
  }
}
layer {
  name: "conv3_1b_relu"
  type: "ReLU"
  bottom: "conv3_1b"
  top: "conv3_1b"
}
layer {
  name: "conv3_down"
  type: "Convolution"
  bottom: "conv3_1b"
  top: "conv3_down"
  param {
    lr_mult: 0
  }
  convolution_param {
    num_output: 128
    bias_term: false
    pad: 0
    kernel_size: 2
    stride: 2
    weight_filler {
      type: "downsample"
      value: 1
    }
  }
}
layer {
  name: "scale_conv3_down"
  type: "Scale"
  bottom: "conv3_down"
  top: "conv3_down"
  param {
    lr_mult: 1
  }
  param {
    lr_mult: 2
  }
  scale_param {
    filler {
      type: "constant"
      value: 0
    }
    bias_term: true
  }
}
layer {
  name: "global_in"
  type: "Eltwise"
  bottom: "conv1_down"
  bottom: "conv2_down"
  bottom: "conv3_down"
  top: "global_in"
}
layer {
  name: "global_pool"
  type: "Pooling"
  bottom: "global_in"
  top: "global_pool"
  pooling_param {
    pool: MAX
    kernel_size: 8
  }
}
layer {
  name: "ip"
  type: "InnerProduct"
  bottom: "global_pool"
  top: "ip"
  param {
    lr_mult: 1
  }
  param {
    lr_mult: 2
  }
  inner_product_param {
    num_output: 10
  }
}
layer {
  name: "accuracy"
  type: "Accuracy"
  bottom: "ip"
  bottom: "label"
  top: "accuracy"
}
layer {
  name: "loss"
  type: "SoftmaxWithLoss"
  bottom: "ip"
  bottom: "label"
  top: "loss"
}
I0410 21:23:38.068105 18472 layer_factory.hpp:77] Creating layer data
I0410 21:23:38.068598 18472 net.cpp:91] Creating Layer data
I0410 21:23:38.068610 18472 net.cpp:399] data -> data
I0410 21:23:38.068629 18472 net.cpp:399] data -> label
I0410 21:23:38.068656 18472 data_transformer.cpp:25] Loading mean file from: /home/liangjiang/code/residual_network/data/cifar10/mean.binaryproto
I0410 21:23:38.070210 18533 db_lmdb.cpp:38] Opened lmdb /home/liangjiang/code/residual_network/data/cifar10/cifar10_train_lmdb
I0410 21:23:38.079578 18472 data_layer.cpp:41] output data size: 256,3,32,32
I0410 21:23:38.084573 18472 net.cpp:141] Setting up data
I0410 21:23:38.084595 18472 net.cpp:148] Top shape: 256 3 32 32 (786432)
I0410 21:23:38.084601 18472 net.cpp:148] Top shape: 256 (256)
I0410 21:23:38.084605 18472 net.cpp:156] Memory required for data: 3146752
I0410 21:23:38.084619 18472 layer_factory.hpp:77] Creating layer label_data_1_split
I0410 21:23:38.084635 18472 net.cpp:91] Creating Layer label_data_1_split
I0410 21:23:38.084640 18472 net.cpp:425] label_data_1_split <- label
I0410 21:23:38.084650 18472 net.cpp:399] label_data_1_split -> label_data_1_split_0
I0410 21:23:38.084661 18472 net.cpp:399] label_data_1_split -> label_data_1_split_1
I0410 21:23:38.084748 18472 net.cpp:141] Setting up label_data_1_split
I0410 21:23:38.084758 18472 net.cpp:148] Top shape: 256 (256)
I0410 21:23:38.084763 18472 net.cpp:148] Top shape: 256 (256)
I0410 21:23:38.084766 18472 net.cpp:156] Memory required for data: 3148800
I0410 21:23:38.084771 18472 layer_factory.hpp:77] Creating layer conv1
I0410 21:23:38.084789 18472 net.cpp:91] Creating Layer conv1
I0410 21:23:38.084794 18472 net.cpp:425] conv1 <- data
I0410 21:23:38.084800 18472 net.cpp:399] conv1 -> conv1
I0410 21:23:38.327069 18472 net.cpp:141] Setting up conv1
I0410 21:23:38.327126 18472 net.cpp:148] Top shape: 256 8 32 32 (2097152)
I0410 21:23:38.327133 18472 net.cpp:156] Memory required for data: 11537408
I0410 21:23:38.327162 18472 layer_factory.hpp:77] Creating layer bn_conv1
I0410 21:23:38.327181 18472 net.cpp:91] Creating Layer bn_conv1
I0410 21:23:38.327190 18472 net.cpp:425] bn_conv1 <- conv1
I0410 21:23:38.327203 18472 net.cpp:386] bn_conv1 -> conv1 (in-place)
I0410 21:23:38.327424 18472 net.cpp:141] Setting up bn_conv1
I0410 21:23:38.327437 18472 net.cpp:148] Top shape: 256 8 32 32 (2097152)
I0410 21:23:38.327443 18472 net.cpp:156] Memory required for data: 19926016
I0410 21:23:38.327461 18472 layer_factory.hpp:77] Creating layer scale_conv1
I0410 21:23:38.327479 18472 net.cpp:91] Creating Layer scale_conv1
I0410 21:23:38.327487 18472 net.cpp:425] scale_conv1 <- conv1
I0410 21:23:38.327497 18472 net.cpp:386] scale_conv1 -> conv1 (in-place)
I0410 21:23:38.327548 18472 layer_factory.hpp:77] Creating layer scale_conv1
I0410 21:23:38.327672 18472 net.cpp:141] Setting up scale_conv1
I0410 21:23:38.327684 18472 net.cpp:148] Top shape: 256 8 32 32 (2097152)
I0410 21:23:38.327690 18472 net.cpp:156] Memory required for data: 28314624
I0410 21:23:38.327702 18472 layer_factory.hpp:77] Creating layer conv1_relu
I0410 21:23:38.327713 18472 net.cpp:91] Creating Layer conv1_relu
I0410 21:23:38.327720 18472 net.cpp:425] conv1_relu <- conv1
I0410 21:23:38.327729 18472 net.cpp:386] conv1_relu -> conv1 (in-place)
I0410 21:23:38.328151 18472 net.cpp:141] Setting up conv1_relu
I0410 21:23:38.328172 18472 net.cpp:148] Top shape: 256 8 32 32 (2097152)
I0410 21:23:38.328179 18472 net.cpp:156] Memory required for data: 36703232
I0410 21:23:38.328187 18472 layer_factory.hpp:77] Creating layer conv1_conv1_relu_0_split
I0410 21:23:38.328199 18472 net.cpp:91] Creating Layer conv1_conv1_relu_0_split
I0410 21:23:38.328207 18472 net.cpp:425] conv1_conv1_relu_0_split <- conv1
I0410 21:23:38.328217 18472 net.cpp:399] conv1_conv1_relu_0_split -> conv1_conv1_relu_0_split_0
I0410 21:23:38.328232 18472 net.cpp:399] conv1_conv1_relu_0_split -> conv1_conv1_relu_0_split_1
I0410 21:23:38.328282 18472 net.cpp:141] Setting up conv1_conv1_relu_0_split
I0410 21:23:38.328294 18472 net.cpp:148] Top shape: 256 8 32 32 (2097152)
I0410 21:23:38.328301 18472 net.cpp:148] Top shape: 256 8 32 32 (2097152)
I0410 21:23:38.328308 18472 net.cpp:156] Memory required for data: 53480448
I0410 21:23:38.328315 18472 layer_factory.hpp:77] Creating layer conv1_down
I0410 21:23:38.328332 18472 net.cpp:91] Creating Layer conv1_down
I0410 21:23:38.328341 18472 net.cpp:425] conv1_down <- conv1_conv1_relu_0_split_0
I0410 21:23:38.328351 18472 net.cpp:399] conv1_down -> conv1_down
I0410 21:23:38.337980 18472 net.cpp:141] Setting up conv1_down
I0410 21:23:38.338037 18472 net.cpp:148] Top shape: 256 128 8 8 (2097152)
I0410 21:23:38.338045 18472 net.cpp:156] Memory required for data: 61869056
I0410 21:23:38.338063 18472 layer_factory.hpp:77] Creating layer scale_conv1_down
I0410 21:23:38.338089 18472 net.cpp:91] Creating Layer scale_conv1_down
I0410 21:23:38.338099 18472 net.cpp:425] scale_conv1_down <- conv1_down
I0410 21:23:38.338129 18472 net.cpp:386] scale_conv1_down -> conv1_down (in-place)
I0410 21:23:38.338201 18472 layer_factory.hpp:77] Creating layer scale_conv1_down
I0410 21:23:38.338335 18472 net.cpp:141] Setting up scale_conv1_down
I0410 21:23:38.338347 18472 net.cpp:148] Top shape: 256 128 8 8 (2097152)
I0410 21:23:38.338353 18472 net.cpp:156] Memory required for data: 70257664
I0410 21:23:38.338371 18472 layer_factory.hpp:77] Creating layer conv2_1a
I0410 21:23:38.338390 18472 net.cpp:91] Creating Layer conv2_1a
I0410 21:23:38.338398 18472 net.cpp:425] conv2_1a <- conv1_conv1_relu_0_split_1
I0410 21:23:38.338410 18472 net.cpp:399] conv2_1a -> conv2_1a
I0410 21:23:38.339565 18472 net.cpp:141] Setting up conv2_1a
I0410 21:23:38.339586 18472 net.cpp:148] Top shape: 256 8 32 32 (2097152)
I0410 21:23:38.339593 18472 net.cpp:156] Memory required for data: 78646272
I0410 21:23:38.339606 18472 layer_factory.hpp:77] Creating layer bn_conv2_1a
I0410 21:23:38.339619 18472 net.cpp:91] Creating Layer bn_conv2_1a
I0410 21:23:38.339627 18472 net.cpp:425] bn_conv2_1a <- conv2_1a
I0410 21:23:38.339638 18472 net.cpp:386] bn_conv2_1a -> conv2_1a (in-place)
I0410 21:23:38.339849 18472 net.cpp:141] Setting up bn_conv2_1a
I0410 21:23:38.339862 18472 net.cpp:148] Top shape: 256 8 32 32 (2097152)
I0410 21:23:38.339869 18472 net.cpp:156] Memory required for data: 87034880
I0410 21:23:38.339880 18472 layer_factory.hpp:77] Creating layer scale_conv2_1a
I0410 21:23:38.339892 18472 net.cpp:91] Creating Layer scale_conv2_1a
I0410 21:23:38.339900 18472 net.cpp:425] scale_conv2_1a <- conv2_1a
I0410 21:23:38.339908 18472 net.cpp:386] scale_conv2_1a -> conv2_1a (in-place)
I0410 21:23:38.339953 18472 layer_factory.hpp:77] Creating layer scale_conv2_1a
I0410 21:23:38.340078 18472 net.cpp:141] Setting up scale_conv2_1a
I0410 21:23:38.340090 18472 net.cpp:148] Top shape: 256 8 32 32 (2097152)
I0410 21:23:38.340096 18472 net.cpp:156] Memory required for data: 95423488
I0410 21:23:38.340112 18472 layer_factory.hpp:77] Creating layer conv2_1a_relu
I0410 21:23:38.340123 18472 net.cpp:91] Creating Layer conv2_1a_relu
I0410 21:23:38.340131 18472 net.cpp:425] conv2_1a_relu <- conv2_1a
I0410 21:23:38.340139 18472 net.cpp:386] conv2_1a_relu -> conv2_1a (in-place)
I0410 21:23:38.340520 18472 net.cpp:141] Setting up conv2_1a_relu
I0410 21:23:38.340541 18472 net.cpp:148] Top shape: 256 8 32 32 (2097152)
I0410 21:23:38.340548 18472 net.cpp:156] Memory required for data: 103812096
I0410 21:23:38.340555 18472 layer_factory.hpp:77] Creating layer conv2_1b
I0410 21:23:38.340572 18472 net.cpp:91] Creating Layer conv2_1b
I0410 21:23:38.340580 18472 net.cpp:425] conv2_1b <- conv2_1a
I0410 21:23:38.340591 18472 net.cpp:399] conv2_1b -> conv2_1b
I0410 21:23:38.341763 18472 net.cpp:141] Setting up conv2_1b
I0410 21:23:38.341785 18472 net.cpp:148] Top shape: 256 8 32 32 (2097152)
I0410 21:23:38.341792 18472 net.cpp:156] Memory required for data: 112200704
I0410 21:23:38.341804 18472 layer_factory.hpp:77] Creating layer bn_conv2_1b
I0410 21:23:38.341817 18472 net.cpp:91] Creating Layer bn_conv2_1b
I0410 21:23:38.341825 18472 net.cpp:425] bn_conv2_1b <- conv2_1b
I0410 21:23:38.341835 18472 net.cpp:386] bn_conv2_1b -> conv2_1b (in-place)
I0410 21:23:38.342046 18472 net.cpp:141] Setting up bn_conv2_1b
I0410 21:23:38.342061 18472 net.cpp:148] Top shape: 256 8 32 32 (2097152)
I0410 21:23:38.342067 18472 net.cpp:156] Memory required for data: 120589312
I0410 21:23:38.342078 18472 layer_factory.hpp:77] Creating layer scale_conv2_1b
I0410 21:23:38.342090 18472 net.cpp:91] Creating Layer scale_conv2_1b
I0410 21:23:38.342097 18472 net.cpp:425] scale_conv2_1b <- conv2_1b
I0410 21:23:38.342108 18472 net.cpp:386] scale_conv2_1b -> conv2_1b (in-place)
I0410 21:23:38.342154 18472 layer_factory.hpp:77] Creating layer scale_conv2_1b
I0410 21:23:38.342277 18472 net.cpp:141] Setting up scale_conv2_1b
I0410 21:23:38.342288 18472 net.cpp:148] Top shape: 256 8 32 32 (2097152)
I0410 21:23:38.342293 18472 net.cpp:156] Memory required for data: 128977920
I0410 21:23:38.342310 18472 layer_factory.hpp:77] Creating layer conv2_1b_relu
I0410 21:23:38.342325 18472 net.cpp:91] Creating Layer conv2_1b_relu
I0410 21:23:38.342331 18472 net.cpp:425] conv2_1b_relu <- conv2_1b
I0410 21:23:38.342341 18472 net.cpp:386] conv2_1b_relu -> conv2_1b (in-place)
I0410 21:23:38.342550 18472 net.cpp:141] Setting up conv2_1b_relu
I0410 21:23:38.342566 18472 net.cpp:148] Top shape: 256 8 32 32 (2097152)
I0410 21:23:38.342572 18472 net.cpp:156] Memory required for data: 137366528
I0410 21:23:38.342579 18472 layer_factory.hpp:77] Creating layer conv2_1b_conv2_1b_relu_0_split
I0410 21:23:38.342591 18472 net.cpp:91] Creating Layer conv2_1b_conv2_1b_relu_0_split
I0410 21:23:38.342597 18472 net.cpp:425] conv2_1b_conv2_1b_relu_0_split <- conv2_1b
I0410 21:23:38.342607 18472 net.cpp:399] conv2_1b_conv2_1b_relu_0_split -> conv2_1b_conv2_1b_relu_0_split_0
I0410 21:23:38.342618 18472 net.cpp:399] conv2_1b_conv2_1b_relu_0_split -> conv2_1b_conv2_1b_relu_0_split_1
I0410 21:23:38.342670 18472 net.cpp:141] Setting up conv2_1b_conv2_1b_relu_0_split
I0410 21:23:38.342681 18472 net.cpp:148] Top shape: 256 8 32 32 (2097152)
I0410 21:23:38.342689 18472 net.cpp:148] Top shape: 256 8 32 32 (2097152)
I0410 21:23:38.342694 18472 net.cpp:156] Memory required for data: 154143744
I0410 21:23:38.342700 18472 layer_factory.hpp:77] Creating layer conv2_down
I0410 21:23:38.342716 18472 net.cpp:91] Creating Layer conv2_down
I0410 21:23:38.342723 18472 net.cpp:425] conv2_down <- conv2_1b_conv2_1b_relu_0_split_0
I0410 21:23:38.342735 18472 net.cpp:399] conv2_down -> conv2_down
I0410 21:23:38.343811 18472 net.cpp:141] Setting up conv2_down
I0410 21:23:38.343832 18472 net.cpp:148] Top shape: 256 128 8 8 (2097152)
I0410 21:23:38.343838 18472 net.cpp:156] Memory required for data: 162532352
I0410 21:23:38.343848 18472 layer_factory.hpp:77] Creating layer scale_conv2_down
I0410 21:23:38.343863 18472 net.cpp:91] Creating Layer scale_conv2_down
I0410 21:23:38.343869 18472 net.cpp:425] scale_conv2_down <- conv2_down
I0410 21:23:38.343880 18472 net.cpp:386] scale_conv2_down -> conv2_down (in-place)
I0410 21:23:38.343940 18472 layer_factory.hpp:77] Creating layer scale_conv2_down
I0410 21:23:38.344069 18472 net.cpp:141] Setting up scale_conv2_down
I0410 21:23:38.344080 18472 net.cpp:148] Top shape: 256 128 8 8 (2097152)
I0410 21:23:38.344086 18472 net.cpp:156] Memory required for data: 170920960
I0410 21:23:38.344096 18472 layer_factory.hpp:77] Creating layer conv3_1a
I0410 21:23:38.344113 18472 net.cpp:91] Creating Layer conv3_1a
I0410 21:23:38.344120 18472 net.cpp:425] conv3_1a <- conv2_1b_conv2_1b_relu_0_split_1
I0410 21:23:38.344131 18472 net.cpp:399] conv3_1a -> conv3_1a
I0410 21:23:38.345396 18472 net.cpp:141] Setting up conv3_1a
I0410 21:23:38.345417 18472 net.cpp:148] Top shape: 256 32 16 16 (2097152)
I0410 21:23:38.345424 18472 net.cpp:156] Memory required for data: 179309568
I0410 21:23:38.345437 18472 layer_factory.hpp:77] Creating layer bn_conv3_1a
I0410 21:23:38.345449 18472 net.cpp:91] Creating Layer bn_conv3_1a
I0410 21:23:38.345458 18472 net.cpp:425] bn_conv3_1a <- conv3_1a
I0410 21:23:38.345468 18472 net.cpp:386] bn_conv3_1a -> conv3_1a (in-place)
I0410 21:23:38.345679 18472 net.cpp:141] Setting up bn_conv3_1a
I0410 21:23:38.345692 18472 net.cpp:148] Top shape: 256 32 16 16 (2097152)
I0410 21:23:38.345700 18472 net.cpp:156] Memory required for data: 187698176
I0410 21:23:38.345711 18472 layer_factory.hpp:77] Creating layer scale_conv3_1a
I0410 21:23:38.345724 18472 net.cpp:91] Creating Layer scale_conv3_1a
I0410 21:23:38.345731 18472 net.cpp:425] scale_conv3_1a <- conv3_1a
I0410 21:23:38.345753 18472 net.cpp:386] scale_conv3_1a -> conv3_1a (in-place)
I0410 21:23:38.345803 18472 layer_factory.hpp:77] Creating layer scale_conv3_1a
I0410 21:23:38.345935 18472 net.cpp:141] Setting up scale_conv3_1a
I0410 21:23:38.345947 18472 net.cpp:148] Top shape: 256 32 16 16 (2097152)
I0410 21:23:38.345953 18472 net.cpp:156] Memory required for data: 196086784
I0410 21:23:38.345970 18472 layer_factory.hpp:77] Creating layer conv3_1a_relu
I0410 21:23:38.345988 18472 net.cpp:91] Creating Layer conv3_1a_relu
I0410 21:23:38.345995 18472 net.cpp:425] conv3_1a_relu <- conv3_1a
I0410 21:23:38.346004 18472 net.cpp:386] conv3_1a_relu -> conv3_1a (in-place)
I0410 21:23:38.346238 18472 net.cpp:141] Setting up conv3_1a_relu
I0410 21:23:38.346254 18472 net.cpp:148] Top shape: 256 32 16 16 (2097152)
I0410 21:23:38.346261 18472 net.cpp:156] Memory required for data: 204475392
I0410 21:23:38.346267 18472 layer_factory.hpp:77] Creating layer conv3_1b
I0410 21:23:38.346283 18472 net.cpp:91] Creating Layer conv3_1b
I0410 21:23:38.346290 18472 net.cpp:425] conv3_1b <- conv3_1a
I0410 21:23:38.346310 18472 net.cpp:399] conv3_1b -> conv3_1b
I0410 21:23:38.348145 18472 net.cpp:141] Setting up conv3_1b
I0410 21:23:38.348165 18472 net.cpp:148] Top shape: 256 32 16 16 (2097152)
I0410 21:23:38.348171 18472 net.cpp:156] Memory required for data: 212864000
I0410 21:23:38.348183 18472 layer_factory.hpp:77] Creating layer bn_conv3_1b
I0410 21:23:38.348197 18472 net.cpp:91] Creating Layer bn_conv3_1b
I0410 21:23:38.348206 18472 net.cpp:425] bn_conv3_1b <- conv3_1b
I0410 21:23:38.348214 18472 net.cpp:386] bn_conv3_1b -> conv3_1b (in-place)
I0410 21:23:38.348430 18472 net.cpp:141] Setting up bn_conv3_1b
I0410 21:23:38.348443 18472 net.cpp:148] Top shape: 256 32 16 16 (2097152)
I0410 21:23:38.348449 18472 net.cpp:156] Memory required for data: 221252608
I0410 21:23:38.348461 18472 layer_factory.hpp:77] Creating layer scale_conv3_1b
I0410 21:23:38.348472 18472 net.cpp:91] Creating Layer scale_conv3_1b
I0410 21:23:38.348479 18472 net.cpp:425] scale_conv3_1b <- conv3_1b
I0410 21:23:38.348490 18472 net.cpp:386] scale_conv3_1b -> conv3_1b (in-place)
I0410 21:23:38.348537 18472 layer_factory.hpp:77] Creating layer scale_conv3_1b
I0410 21:23:38.348673 18472 net.cpp:141] Setting up scale_conv3_1b
I0410 21:23:38.348685 18472 net.cpp:148] Top shape: 256 32 16 16 (2097152)
I0410 21:23:38.348691 18472 net.cpp:156] Memory required for data: 229641216
I0410 21:23:38.348701 18472 layer_factory.hpp:77] Creating layer conv3_1b_relu
I0410 21:23:38.348711 18472 net.cpp:91] Creating Layer conv3_1b_relu
I0410 21:23:38.348717 18472 net.cpp:425] conv3_1b_relu <- conv3_1b
I0410 21:23:38.348726 18472 net.cpp:386] conv3_1b_relu -> conv3_1b (in-place)
I0410 21:23:38.349248 18472 net.cpp:141] Setting up conv3_1b_relu
I0410 21:23:38.349269 18472 net.cpp:148] Top shape: 256 32 16 16 (2097152)
I0410 21:23:38.349275 18472 net.cpp:156] Memory required for data: 238029824
I0410 21:23:38.349282 18472 layer_factory.hpp:77] Creating layer conv3_down
I0410 21:23:38.349300 18472 net.cpp:91] Creating Layer conv3_down
I0410 21:23:38.349308 18472 net.cpp:425] conv3_down <- conv3_1b
I0410 21:23:38.349319 18472 net.cpp:399] conv3_down -> conv3_down
I0410 21:23:38.350736 18472 net.cpp:141] Setting up conv3_down
I0410 21:23:38.350757 18472 net.cpp:148] Top shape: 256 128 8 8 (2097152)
I0410 21:23:38.350764 18472 net.cpp:156] Memory required for data: 246418432
I0410 21:23:38.350775 18472 layer_factory.hpp:77] Creating layer scale_conv3_down
I0410 21:23:38.350792 18472 net.cpp:91] Creating Layer scale_conv3_down
I0410 21:23:38.350800 18472 net.cpp:425] scale_conv3_down <- conv3_down
I0410 21:23:38.350811 18472 net.cpp:386] scale_conv3_down -> conv3_down (in-place)
I0410 21:23:38.350870 18472 layer_factory.hpp:77] Creating layer scale_conv3_down
I0410 21:23:38.351002 18472 net.cpp:141] Setting up scale_conv3_down
I0410 21:23:38.351014 18472 net.cpp:148] Top shape: 256 128 8 8 (2097152)
I0410 21:23:38.351021 18472 net.cpp:156] Memory required for data: 254807040
I0410 21:23:38.351032 18472 layer_factory.hpp:77] Creating layer global_in
I0410 21:23:38.351044 18472 net.cpp:91] Creating Layer global_in
I0410 21:23:38.351052 18472 net.cpp:425] global_in <- conv1_down
I0410 21:23:38.351059 18472 net.cpp:425] global_in <- conv2_down
I0410 21:23:38.351066 18472 net.cpp:425] global_in <- conv3_down
I0410 21:23:38.351075 18472 net.cpp:399] global_in -> global_in
I0410 21:23:38.351117 18472 net.cpp:141] Setting up global_in
I0410 21:23:38.351130 18472 net.cpp:148] Top shape: 256 128 8 8 (2097152)
I0410 21:23:38.351140 18472 net.cpp:156] Memory required for data: 263195648
I0410 21:23:38.351146 18472 layer_factory.hpp:77] Creating layer global_pool
I0410 21:23:38.351161 18472 net.cpp:91] Creating Layer global_pool
I0410 21:23:38.351167 18472 net.cpp:425] global_pool <- global_in
I0410 21:23:38.351178 18472 net.cpp:399] global_pool -> global_pool
I0410 21:23:38.351228 18472 net.cpp:141] Setting up global_pool
I0410 21:23:38.351239 18472 net.cpp:148] Top shape: 256 128 1 1 (32768)
I0410 21:23:38.351245 18472 net.cpp:156] Memory required for data: 263326720
I0410 21:23:38.351251 18472 layer_factory.hpp:77] Creating layer ip
I0410 21:23:38.351268 18472 net.cpp:91] Creating Layer ip
I0410 21:23:38.351274 18472 net.cpp:425] ip <- global_pool
I0410 21:23:38.351289 18472 net.cpp:399] ip -> ip
I0410 21:23:38.351418 18472 net.cpp:141] Setting up ip
I0410 21:23:38.351429 18472 net.cpp:148] Top shape: 256 10 (2560)
I0410 21:23:38.351434 18472 net.cpp:156] Memory required for data: 263336960
I0410 21:23:38.351444 18472 layer_factory.hpp:77] Creating layer ip_ip_0_split
I0410 21:23:38.351457 18472 net.cpp:91] Creating Layer ip_ip_0_split
I0410 21:23:38.351464 18472 net.cpp:425] ip_ip_0_split <- ip
I0410 21:23:38.351472 18472 net.cpp:399] ip_ip_0_split -> ip_ip_0_split_0
I0410 21:23:38.351483 18472 net.cpp:399] ip_ip_0_split -> ip_ip_0_split_1
I0410 21:23:38.351524 18472 net.cpp:141] Setting up ip_ip_0_split
I0410 21:23:38.351537 18472 net.cpp:148] Top shape: 256 10 (2560)
I0410 21:23:38.351544 18472 net.cpp:148] Top shape: 256 10 (2560)
I0410 21:23:38.351550 18472 net.cpp:156] Memory required for data: 263357440
I0410 21:23:38.351557 18472 layer_factory.hpp:77] Creating layer accuracy
I0410 21:23:38.351572 18472 net.cpp:91] Creating Layer accuracy
I0410 21:23:38.351578 18472 net.cpp:425] accuracy <- ip_ip_0_split_0
I0410 21:23:38.351586 18472 net.cpp:425] accuracy <- label_data_1_split_0
I0410 21:23:38.351594 18472 net.cpp:399] accuracy -> accuracy
…
I0410 21:23:38.353821 18472 net.cpp:313] The NetState phase (1) differed from the phase (0) specified by a rule in layer data
I0410 21:23:38.354080 18472 net.cpp:49] Initializing net from parameters: 
name: "CifarResNet0"
state {
  phase: TEST
}
layer {
  name: "data"
  type: "Data"
  top: "data"
  top: "label"
  include {
    phase: TEST
  }
  transform_param {
    mean_file: "/home/liangjiang/code/residual_network/data/cifar10/mean.binaryproto"
  }
  data_param {
    source: "/home/liangjiang/code/residual_network/data/cifar10/cifar10_test_lmdb"
    batch_size: 32
    backend: LMDB
  }
}
layer {
  name: "conv1"
  type: "Convolution"
  bottom: "data"
  top: "conv1"
  param {
    lr_mult: 0.8
  }
  param {
    lr_mult: 1.6
  }
  convolution_param {
    num_output: 8
    pad: 1
    kernel_size: 3
    stride: 1
    weight_filler {
      type: "msra"
    }
    bias_filler {
      type: "constant"
      value: 0
    }
  }
}
layer {
  name: "bn_conv1"
  type: "BatchNorm"
  bottom: "conv1"
  top: "conv1"
  param {
    lr_mult: 0
  }
  param {
    lr_mult: 0
  }
  param {
    lr_mult: 0
  }
}
layer {
  name: "scale_conv1"
  type: "Scale"
  bottom: "conv1"
  top: "conv1"
  param {
    lr_mult: 1
  }
  param {
    lr_mult: 2
  }
  scale_param {
    bias_term: true
  }
}
layer {
  name: "conv1_relu"
  type: "ReLU"
  bottom: "conv1"
  top: "conv1"
}
layer {
  name: "conv1_down"
  type: "Convolution"
  bottom: "conv1"
  top: "conv1_down"
  param {
    lr_mult: 0
  }
  convolution_param {
    num_output: 128
    bias_term: false
    pad: 0
    kernel_size: 4
    stride: 4
    weight_filler {
      type: "downsample"
      value: 1
    }
  }
}
layer {
  name: "scale_conv1_down"
  type: "Scale"
  bottom: "conv1_down"
  top: "conv1_down"
  param {
    lr_mult: 1
  }
  param {
    lr_mult: 2
  }
  scale_param {
    filler {
      type: "constant"
      value: 0
    }
    bias_term: true
  }
}
layer {
  name: "conv2_1a"
  type: "Convolution"
  bottom: "conv1"
  top: "conv2_1a"
  param {
    lr_mult: 0.8
  }
  param {
    lr_mult: 1.6
  }
  convolution_param {
    num_output: 8
    pad: 1
    kernel_size: 3
    stride: 1
    weight_filler {
      type: "msra"
    }
    bias_filler {
      type: "constant"
      value: 0
    }
  }
}
layer {
  name: "bn_conv2_1a"
  type: "BatchNorm"
  bottom: "conv2_1a"
  top: "conv2_1a"
  param {
    lr_mult: 0
  }
  param {
    lr_mult: 0
  }
  param {
    lr_mult: 0
  }
}
layer {
  name: "scale_conv2_1a"
  type: "Scale"
  bottom: "conv2_1a"
  top: "conv2_1a"
  param {
    lr_mult: 1
  }
  param {
    lr_mult: 2
  }
  scale_param {
    bias_term: true
  }
}
layer {
  name: "conv2_1a_relu"
  type: "ReLU"
  bottom: "conv2_1a"
  top: "conv2_1a"
}
layer {
  name: "conv2_1b"
  type: "Convolution"
  bottom: "conv2_1a"
  top: "conv2_1b"
  param {
    lr_mult: 0.8
  }
  param {
    lr_mult: 1.6
  }
  convolution_param {
    num_output: 8
    pad: 1
    kernel_size: 3
    stride: 1
    weight_filler {
      type: "msra"
    }
    bias_filler {
      type: "constant"
      value: 0
    }
  }
}
layer {
  name: "bn_conv2_1b"
  type: "BatchNorm"
  bottom: "conv2_1b"
  top: "conv2_1b"
  param {
    lr_mult: 0
  }
  param {
    lr_mult: 0
  }
  param {
    lr_mult: 0
  }
}
layer {
  name: "scale_conv2_1b"
  type: "Scale"
  bottom: "conv2_1b"
  top: "conv2_1b"
  param {
    lr_mult: 1
  }
  param {
    lr_mult: 2
  }
  scale_param {
    bias_term: true
  }
}
layer {
  name: "conv2_1b_relu"
  type: "ReLU"
  bottom: "conv2_1b"
  top: "conv2_1b"
}
layer {
  name: "conv2_down"
  type: "Convolution"
  bottom: "conv2_1b"
  top: "conv2_down"
  param {
    lr_mult: 0
  }
  convolution_param {
    num_output: 128
    bias_term: false
    pad: 0
    kernel_size: 4
    stride: 4
    weight_filler {
      type: "downsample"
      value: 1
    }
  }
}
layer {
  name: "scale_conv2_down"
  type: "Scale"
  bottom: "conv2_down"
  top: "conv2_down"
  param {
    lr_mult: 1
  }
  param {
    lr_mult: 2
  }
  scale_param {
    filler {
      type: "constant"
      value: 0
    }
    bias_term: true
  }
}
layer {
  name: "conv3_1a"
  type: "Convolution"
  bottom: "conv2_1b"
  top: "conv3_1a"
  param {
    lr_mult: 1
  }
  param {
    lr_mult: 2
  }
  convolution_param {
    num_output: 32
    pad: 0
    kernel_size: 1
    stride: 2
    weight_filler {
      type: "msra"
    }
    bias_filler {
      type: "constant"
      value: 0
    }
  }
}
layer {
  name: "bn_conv3_1a"
  type: "BatchNorm"
  bottom: "conv3_1a"
  top: "conv3_1a"
  param {
    lr_mult: 0
  }
  param {
    lr_mult: 0
  }
  param {
    lr_mult: 0
  }
}
layer {
  name: "scale_conv3_1a"
  type: "Scale"
  bottom: "conv3_1a"
  top: "conv3_1a"
  param {
    lr_mult: 1
  }
  param {
    lr_mult: 2
  }
  scale_param {
    bias_term: true
  }
}
layer {
  name: "conv3_1a_relu"
  type: "ReLU"
  bottom: "conv3_1a"
  top: "conv3_1a"
}
layer {
  name: "conv3_1b"
  type: "Convolution"
  bottom: "conv3_1a"
  top: "conv3_1b"
  param {
    lr_mult: 1
  }
  param {
    lr_mult: 2
  }
  convolution_param {
    num_output: 32
    pad: 1
    kernel_size: 3
    stride: 1
    weight_filler {
      type: "msra"
    }
    bias_filler {
      type: "constant"
      value: 0
    }
  }
}
layer {
  name: "bn_conv3_1b"
  type: "BatchNorm"
  bottom: "conv3_1b"
  top: "conv3_1b"
  param {
    lr_mult: 0
  }
  param {
    lr_mult: 0
  }
  param {
    lr_mult: 0
  }
}
layer {
  name: "scale_conv3_1b"
  type: "Scale"
  bottom: "conv3_1b"
  top: "conv3_1b"
  param {
    lr_mult: 1
  }
  param {
    lr_mult: 2
  }
  scale_param {
    bias_term: true
  }
}
layer {
  name: "conv3_1b_relu"
  type: "ReLU"
  bottom: "conv3_1b"
  top: "conv3_1b"
}
layer {
  name: "conv3_down"
  type: "Convolution"
  bottom: "conv3_1b"
  top: "conv3_down"
  param {
    lr_mult: 0
  }
  convolution_param {
    num_output: 128
    bias_term: false
    pad: 0
    kernel_size: 2
    stride: 2
    weight_filler {
      type: "downsample"
      value: 1
    }
  }
}
layer {
  name: "scale_conv3_down"
  type: "Scale"
  bottom: "conv3_down"
  top: "conv3_down"
  param {
    lr_mult: 1
  }
  param {
    lr_mult: 2
  }
  scale_param {
    filler {
      type: "constant"
      value: 0
    }
    bias_term: true
  }
}
layer {
  name: "global_in"
  type: "Eltwise"
  bottom: "conv1_down"
  bottom: "conv2_down"
  bottom: "conv3_down"
  top: "global_in"
}
layer {
  name: "global_pool"
  type: "Pooling"
  bottom: "global_in"
  top: "global_pool"
  pooling_param {
    pool: MAX
    kernel_size: 8
  }
}
layer {
  name: "ip"
  type: "InnerProduct"
  bottom: "global_pool"
  top: "ip"
  param {
    lr_mult: 1
  }
  param {
    lr_mult: 2
  }
  inner_product_param {
    num_output: 10
  }
}
layer {
  name: "accuracy"
  type: "Accuracy"
  bottom: "ip"
  bottom: "label"
  top: "accuracy"
}
layer {
  name: "loss"
  type: "SoftmaxWithLoss"
  bottom: "ip"
  bottom: "label"
  top: "loss"
}
I0410 21:23:38.354277 18472 layer_factory.hpp:77] Creating layer data
I0410 21:23:38.354388 18472 net.cpp:91] Creating Layer data
I0410 21:23:38.354403 18472 net.cpp:399] data -> data
I0410 21:23:38.354436 18472 net.cpp:399] data -> label
I0410 21:23:38.354455 18472 data_transformer.cpp:25] Loading mean file from: /home/liangjiang/code/residual_network/data/cifar10/mean.binaryproto
I0410 21:23:38.356243 18541 db_lmdb.cpp:38] Opened lmdb /home/liangjiang/code/residual_network/data/cifar10/cifar10_test_lmdb
I0410 21:23:38.356391 18472 data_layer.cpp:41] output data size: 32,3,32,32
I0410 21:23:38.358965 18472 net.cpp:141] Setting up data
I0410 21:23:38.358988 18472 net.cpp:148] Top shape: 32 3 32 32 (98304)
I0410 21:23:38.358996 18472 net.cpp:148] Top shape: 32 (32)
I0410 21:23:38.359002 18472 net.cpp:156] Memory required for data: 393344
I0410 21:23:38.359009 18472 layer_factory.hpp:77] Creating layer label_data_1_split
I0410 21:23:38.359020 18472 net.cpp:91] Creating Layer label_data_1_split
I0410 21:23:38.359026 18472 net.cpp:425] label_data_1_split <- label
I0410 21:23:38.359035 18472 net.cpp:399] label_data_1_split -> label_data_1_split_0
I0410 21:23:38.359047 18472 net.cpp:399] label_data_1_split -> label_data_1_split_1
I0410 21:23:38.359189 18472 net.cpp:141] Setting up label_data_1_split
I0410 21:23:38.359203 18472 net.cpp:148] Top shape: 32 (32)
I0410 21:23:38.359210 18472 net.cpp:148] Top shape: 32 (32)
I0410 21:23:38.359215 18472 net.cpp:156] Memory required for data: 393600
I0410 21:23:38.359222 18472 layer_factory.hpp:77] Creating layer conv1
I0410 21:23:38.359238 18472 net.cpp:91] Creating Layer conv1
I0410 21:23:38.359246 18472 net.cpp:425] conv1 <- data
I0410 21:23:38.359257 18472 net.cpp:399] conv1 -> conv1
I0410 21:23:38.360855 18472 net.cpp:141] Setting up conv1
I0410 21:23:38.360877 18472 net.cpp:148] Top shape: 32 8 32 32 (262144)
I0410 21:23:38.360883 18472 net.cpp:156] Memory required for data: 1442176
I0410 21:23:38.360899 18472 layer_factory.hpp:77] Creating layer bn_conv1
I0410 21:23:38.360913 18472 net.cpp:91] Creating Layer bn_conv1
I0410 21:23:38.360919 18472 net.cpp:425] bn_conv1 <- conv1
I0410 21:23:38.360929 18472 net.cpp:386] bn_conv1 -> conv1 (in-place)
I0410 21:23:38.361287 18472 net.cpp:141] Setting up bn_conv1
I0410 21:23:38.361306 18472 net.cpp:148] Top shape: 32 8 32 32 (262144)
I0410 21:23:38.361312 18472 net.cpp:156] Memory required for data: 2490752
I0410 21:23:38.361328 18472 layer_factory.hpp:77] Creating layer scale_conv1
I0410 21:23:38.361343 18472 net.cpp:91] Creating Layer scale_conv1
I0410 21:23:38.361351 18472 net.cpp:425] scale_conv1 <- conv1
I0410 21:23:38.361359 18472 net.cpp:386] scale_conv1 -> conv1 (in-place)
I0410 21:23:38.361414 18472 layer_factory.hpp:77] Creating layer scale_conv1
I0410 21:23:38.361551 18472 net.cpp:141] Setting up scale_conv1
I0410 21:23:38.361562 18472 net.cpp:148] Top shape: 32 8 32 32 (262144)
I0410 21:23:38.361568 18472 net.cpp:156] Memory required for data: 3539328
I0410 21:23:38.361578 18472 layer_factory.hpp:77] Creating layer conv1_relu
I0410 21:23:38.361598 18472 net.cpp:91] Creating Layer conv1_relu
I0410 21:23:38.361603 18472 net.cpp:425] conv1_relu <- conv1
I0410 21:23:38.361613 18472 net.cpp:386] conv1_relu -> conv1 (in-place)
I0410 21:23:38.361838 18472 net.cpp:141] Setting up conv1_relu
I0410 21:23:38.361860 18472 net.cpp:148] Top shape: 32 8 32 32 (262144)
I0410 21:23:38.361866 18472 net.cpp:156] Memory required for data: 4587904
I0410 21:23:38.361872 18472 layer_factory.hpp:77] Creating layer conv1_conv1_relu_0_split
I0410 21:23:38.361881 18472 net.cpp:91] Creating Layer conv1_conv1_relu_0_split
I0410 21:23:38.361908 18472 net.cpp:425] conv1_conv1_relu_0_split <- conv1
I0410 21:23:38.361920 18472 net.cpp:399] conv1_conv1_relu_0_split -> conv1_conv1_relu_0_split_0
I0410 21:23:38.361932 18472 net.cpp:399] conv1_conv1_relu_0_split -> conv1_conv1_relu_0_split_1
I0410 21:23:38.361989 18472 net.cpp:141] Setting up conv1_conv1_relu_0_split
I0410 21:23:38.361999 18472 net.cpp:148] Top shape: 32 8 32 32 (262144)
I0410 21:23:38.362006 18472 net.cpp:148] Top shape: 32 8 32 32 (262144)
I0410 21:23:38.362013 18472 net.cpp:156] Memory required for data: 6685056
I0410 21:23:38.362031 18472 layer_factory.hpp:77] Creating layer conv1_down
I0410 21:23:38.362047 18472 net.cpp:91] Creating Layer conv1_down
I0410 21:23:38.362054 18472 net.cpp:425] conv1_down <- conv1_conv1_relu_0_split_0
I0410 21:23:38.362064 18472 net.cpp:399] conv1_down -> conv1_down
I0410 21:23:38.363626 18472 net.cpp:141] Setting up conv1_down
I0410 21:23:38.363647 18472 net.cpp:148] Top shape: 32 128 8 8 (262144)
I0410 21:23:38.363654 18472 net.cpp:156] Memory required for data: 7733632
I0410 21:23:38.363664 18472 layer_factory.hpp:77] Creating layer scale_conv1_down
I0410 21:23:38.363687 18472 net.cpp:91] Creating Layer scale_conv1_down
I0410 21:23:38.363695 18472 net.cpp:425] scale_conv1_down <- conv1_down
I0410 21:23:38.363706 18472 net.cpp:386] scale_conv1_down -> conv1_down (in-place)
I0410 21:23:38.363765 18472 layer_factory.hpp:77] Creating layer scale_conv1_down
I0410 21:23:38.363896 18472 net.cpp:141] Setting up scale_conv1_down
I0410 21:23:38.363914 18472 net.cpp:148] Top shape: 32 128 8 8 (262144)
I0410 21:23:38.363919 18472 net.cpp:156] Memory required for data: 8782208
I0410 21:23:38.363932 18472 layer_factory.hpp:77] Creating layer conv2_1a
I0410 21:23:38.363950 18472 net.cpp:91] Creating Layer conv2_1a
I0410 21:23:38.363957 18472 net.cpp:425] conv2_1a <- conv1_conv1_relu_0_split_1
I0410 21:23:38.363967 18472 net.cpp:399] conv2_1a -> conv2_1a
I0410 21:23:38.365340 18472 net.cpp:141] Setting up conv2_1a
I0410 21:23:38.365365 18472 net.cpp:148] Top shape: 32 8 32 32 (262144)
I0410 21:23:38.365372 18472 net.cpp:156] Memory required for data: 9830784
I0410 21:23:38.365383 18472 layer_factory.hpp:77] Creating layer bn_conv2_1a
I0410 21:23:38.365397 18472 net.cpp:91] Creating Layer bn_conv2_1a
I0410 21:23:38.365404 18472 net.cpp:425] bn_conv2_1a <- conv2_1a
I0410 21:23:38.365416 18472 net.cpp:386] bn_conv2_1a -> conv2_1a (in-place)
I0410 21:23:38.365639 18472 net.cpp:141] Setting up bn_conv2_1a
I0410 21:23:38.365659 18472 net.cpp:148] Top shape: 32 8 32 32 (262144)
I0410 21:23:38.365665 18472 net.cpp:156] Memory required for data: 10879360
I0410 21:23:38.365676 18472 layer_factory.hpp:77] Creating layer scale_conv2_1a
I0410 21:23:38.365690 18472 net.cpp:91] Creating Layer scale_conv2_1a
I0410 21:23:38.365697 18472 net.cpp:425] scale_conv2_1a <- conv2_1a
I0410 21:23:38.365706 18472 net.cpp:386] scale_conv2_1a -> conv2_1a (in-place)
I0410 21:23:38.365764 18472 layer_factory.hpp:77] Creating layer scale_conv2_1a
I0410 21:23:38.365905 18472 net.cpp:141] Setting up scale_conv2_1a
I0410 21:23:38.365916 18472 net.cpp:148] Top shape: 32 8 32 32 (262144)
I0410 21:23:38.365922 18472 net.cpp:156] Memory required for data: 11927936
I0410 21:23:38.365937 18472 layer_factory.hpp:77] Creating layer conv2_1a_relu
I0410 21:23:38.365952 18472 net.cpp:91] Creating Layer conv2_1a_relu
I0410 21:23:38.365957 18472 net.cpp:425] conv2_1a_relu <- conv2_1a
I0410 21:23:38.365967 18472 net.cpp:386] conv2_1a_relu -> conv2_1a (in-place)
I0410 21:23:38.366178 18472 net.cpp:141] Setting up conv2_1a_relu
I0410 21:23:38.366192 18472 net.cpp:148] Top shape: 32 8 32 32 (262144)
I0410 21:23:38.366204 18472 net.cpp:156] Memory required for data: 12976512
I0410 21:23:38.366219 18472 layer_factory.hpp:77] Creating layer conv2_1b
I0410 21:23:38.366236 18472 net.cpp:91] Creating Layer conv2_1b
I0410 21:23:38.366243 18472 net.cpp:425] conv2_1b <- conv2_1a
I0410 21:23:38.366271 18472 net.cpp:399] conv2_1b -> conv2_1b
I0410 21:23:38.367506 18472 net.cpp:141] Setting up conv2_1b
I0410 21:23:38.367527 18472 net.cpp:148] Top shape: 32 8 32 32 (262144)
I0410 21:23:38.367534 18472 net.cpp:156] Memory required for data: 14025088
I0410 21:23:38.367544 18472 layer_factory.hpp:77] Creating layer bn_conv2_1b
I0410 21:23:38.367558 18472 net.cpp:91] Creating Layer bn_conv2_1b
I0410 21:23:38.367564 18472 net.cpp:425] bn_conv2_1b <- conv2_1b
I0410 21:23:38.367573 18472 net.cpp:386] bn_conv2_1b -> conv2_1b (in-place)
I0410 21:23:38.367807 18472 net.cpp:141] Setting up bn_conv2_1b
I0410 21:23:38.367820 18472 net.cpp:148] Top shape: 32 8 32 32 (262144)
I0410 21:23:38.367826 18472 net.cpp:156] Memory required for data: 15073664
I0410 21:23:38.367837 18472 layer_factory.hpp:77] Creating layer scale_conv2_1b
I0410 21:23:38.367847 18472 net.cpp:91] Creating Layer scale_conv2_1b
I0410 21:23:38.367853 18472 net.cpp:425] scale_conv2_1b <- conv2_1b
I0410 21:23:38.367861 18472 net.cpp:386] scale_conv2_1b -> conv2_1b (in-place)
I0410 21:23:38.367921 18472 layer_factory.hpp:77] Creating layer scale_conv2_1b
I0410 21:23:38.368058 18472 net.cpp:141] Setting up scale_conv2_1b
I0410 21:23:38.368070 18472 net.cpp:148] Top shape: 32 8 32 32 (262144)
I0410 21:23:38.368075 18472 net.cpp:156] Memory required for data: 16122240
I0410 21:23:38.368084 18472 layer_factory.hpp:77] Creating layer conv2_1b_relu
I0410 21:23:38.368098 18472 net.cpp:91] Creating Layer conv2_1b_relu
I0410 21:23:38.368103 18472 net.cpp:425] conv2_1b_relu <- conv2_1b
I0410 21:23:38.368111 18472 net.cpp:386] conv2_1b_relu -> conv2_1b (in-place)
I0410 21:23:38.368455 18472 net.cpp:141] Setting up conv2_1b_relu
I0410 21:23:38.368474 18472 net.cpp:148] Top shape: 32 8 32 32 (262144)
I0410 21:23:38.368480 18472 net.cpp:156] Memory required for data: 17170816
I0410 21:23:38.368487 18472 layer_factory.hpp:77] Creating layer conv2_1b_conv2_1b_relu_0_split
I0410 21:23:38.368495 18472 net.cpp:91] Creating Layer conv2_1b_conv2_1b_relu_0_split
I0410 21:23:38.368502 18472 net.cpp:425] conv2_1b_conv2_1b_relu_0_split <- conv2_1b
I0410 21:23:38.368510 18472 net.cpp:399] conv2_1b_conv2_1b_relu_0_split -> conv2_1b_conv2_1b_relu_0_split_0
I0410 21:23:38.368521 18472 net.cpp:399] conv2_1b_conv2_1b_relu_0_split -> conv2_1b_conv2_1b_relu_0_split_1
I0410 21:23:38.368578 18472 net.cpp:141] Setting up conv2_1b_conv2_1b_relu_0_split
I0410 21:23:38.368589 18472 net.cpp:148] Top shape: 32 8 32 32 (262144)
I0410 21:23:38.368597 18472 net.cpp:148] Top shape: 32 8 32 32 (262144)
I0410 21:23:38.368602 18472 net.cpp:156] Memory required for data: 19267968
I0410 21:23:38.368608 18472 layer_factory.hpp:77] Creating layer conv2_down
I0410 21:23:38.368623 18472 net.cpp:91] Creating Layer conv2_down
I0410 21:23:38.368629 18472 net.cpp:425] conv2_down <- conv2_1b_conv2_1b_relu_0_split_0
I0410 21:23:38.368640 18472 net.cpp:399] conv2_down -> conv2_down
I0410 21:23:38.369760 18472 net.cpp:141] Setting up conv2_down
I0410 21:23:38.369781 18472 net.cpp:148] Top shape: 32 128 8 8 (262144)
I0410 21:23:38.369787 18472 net.cpp:156] Memory required for data: 20316544
I0410 21:23:38.369796 18472 layer_factory.hpp:77] Creating layer scale_conv2_down
I0410 21:23:38.369808 18472 net.cpp:91] Creating Layer scale_conv2_down
I0410 21:23:38.369815 18472 net.cpp:425] scale_conv2_down <- conv2_down
I0410 21:23:38.369827 18472 net.cpp:386] scale_conv2_down -> conv2_down (in-place)
I0410 21:23:38.369885 18472 layer_factory.hpp:77] Creating layer scale_conv2_down
I0410 21:23:38.370020 18472 net.cpp:141] Setting up scale_conv2_down
I0410 21:23:38.370033 18472 net.cpp:148] Top shape: 32 128 8 8 (262144)
I0410 21:23:38.370038 18472 net.cpp:156] Memory required for data: 21365120
I0410 21:23:38.370048 18472 layer_factory.hpp:77] Creating layer conv3_1a
I0410 21:23:38.370062 18472 net.cpp:91] Creating Layer conv3_1a
I0410 21:23:38.370077 18472 net.cpp:425] conv3_1a <- conv2_1b_conv2_1b_relu_0_split_1
I0410 21:23:38.370090 18472 net.cpp:399] conv3_1a -> conv3_1a
I0410 21:23:38.371130 18472 net.cpp:141] Setting up conv3_1a
I0410 21:23:38.371152 18472 net.cpp:148] Top shape: 32 32 16 16 (262144)
I0410 21:23:38.371160 18472 net.cpp:156] Memory required for data: 22413696
I0410 21:23:38.371170 18472 layer_factory.hpp:77] Creating layer bn_conv3_1a
I0410 21:23:38.371181 18472 net.cpp:91] Creating Layer bn_conv3_1a
I0410 21:23:38.371187 18472 net.cpp:425] bn_conv3_1a <- conv3_1a
I0410 21:23:38.371198 18472 net.cpp:386] bn_conv3_1a -> conv3_1a (in-place)
I0410 21:23:38.371425 18472 net.cpp:141] Setting up bn_conv3_1a
I0410 21:23:38.371438 18472 net.cpp:148] Top shape: 32 32 16 16 (262144)
I0410 21:23:38.371443 18472 net.cpp:156] Memory required for data: 23462272
I0410 21:23:38.371454 18472 layer_factory.hpp:77] Creating layer scale_conv3_1a
I0410 21:23:38.371464 18472 net.cpp:91] Creating Layer scale_conv3_1a
I0410 21:23:38.371470 18472 net.cpp:425] scale_conv3_1a <- conv3_1a
I0410 21:23:38.371479 18472 net.cpp:386] scale_conv3_1a -> conv3_1a (in-place)
I0410 21:23:38.371536 18472 layer_factory.hpp:77] Creating layer scale_conv3_1a
I0410 21:23:38.371672 18472 net.cpp:141] Setting up scale_conv3_1a
I0410 21:23:38.371686 18472 net.cpp:148] Top shape: 32 32 16 16 (262144)
I0410 21:23:38.371692 18472 net.cpp:156] Memory required for data: 24510848
I0410 21:23:38.371706 18472 layer_factory.hpp:77] Creating layer conv3_1a_relu
I0410 21:23:38.371717 18472 net.cpp:91] Creating Layer conv3_1a_relu
I0410 21:23:38.371724 18472 net.cpp:425] conv3_1a_relu <- conv3_1a
I0410 21:23:38.371732 18472 net.cpp:386] conv3_1a_relu -> conv3_1a (in-place)
I0410 21:23:38.372087 18472 net.cpp:141] Setting up conv3_1a_relu
I0410 21:23:38.372105 18472 net.cpp:148] Top shape: 32 32 16 16 (262144)
I0410 21:23:38.372112 18472 net.cpp:156] Memory required for data: 25559424
I0410 21:23:38.372118 18472 layer_factory.hpp:77] Creating layer conv3_1b
I0410 21:23:38.372135 18472 net.cpp:91] Creating Layer conv3_1b
I0410 21:23:38.372143 18472 net.cpp:425] conv3_1b <- conv3_1a
I0410 21:23:38.372153 18472 net.cpp:399] conv3_1b -> conv3_1b
I0410 21:23:38.373801 18472 net.cpp:141] Setting up conv3_1b
I0410 21:23:38.373822 18472 net.cpp:148] Top shape: 32 32 16 16 (262144)
I0410 21:23:38.373828 18472 net.cpp:156] Memory required for data: 26608000
I0410 21:23:38.373839 18472 layer_factory.hpp:77] Creating layer bn_conv3_1b
I0410 21:23:38.373852 18472 net.cpp:91] Creating Layer bn_conv3_1b
I0410 21:23:38.373858 18472 net.cpp:425] bn_conv3_1b <- conv3_1b
I0410 21:23:38.373867 18472 net.cpp:386] bn_conv3_1b -> conv3_1b (in-place)
I0410 21:23:38.374094 18472 net.cpp:141] Setting up bn_conv3_1b
I0410 21:23:38.374106 18472 net.cpp:148] Top shape: 32 32 16 16 (262144)
I0410 21:23:38.374112 18472 net.cpp:156] Memory required for data: 27656576
I0410 21:23:38.374124 18472 layer_factory.hpp:77] Creating layer scale_conv3_1b
I0410 21:23:38.374132 18472 net.cpp:91] Creating Layer scale_conv3_1b
I0410 21:23:38.374140 18472 net.cpp:425] scale_conv3_1b <- conv3_1b
I0410 21:23:38.374150 18472 net.cpp:386] scale_conv3_1b -> conv3_1b (in-place)
I0410 21:23:38.374202 18472 layer_factory.hpp:77] Creating layer scale_conv3_1b
I0410 21:23:38.374338 18472 net.cpp:141] Setting up scale_conv3_1b
I0410 21:23:38.374349 18472 net.cpp:148] Top shape: 32 32 16 16 (262144)
I0410 21:23:38.374356 18472 net.cpp:156] Memory required for data: 28705152
I0410 21:23:38.374364 18472 layer_factory.hpp:77] Creating layer conv3_1b_relu
I0410 21:23:38.374372 18472 net.cpp:91] Creating Layer conv3_1b_relu
I0410 21:23:38.374378 18472 net.cpp:425] conv3_1b_relu <- conv3_1b
I0410 21:23:38.374388 18472 net.cpp:386] conv3_1b_relu -> conv3_1b (in-place)
I0410 21:23:38.374595 18472 net.cpp:141] Setting up conv3_1b_relu
I0410 21:23:38.374609 18472 net.cpp:148] Top shape: 32 32 16 16 (262144)
I0410 21:23:38.374615 18472 net.cpp:156] Memory required for data: 29753728
I0410 21:23:38.374621 18472 layer_factory.hpp:77] Creating layer conv3_down
I0410 21:23:38.374641 18472 net.cpp:91] Creating Layer conv3_down
I0410 21:23:38.374650 18472 net.cpp:425] conv3_down <- conv3_1b
I0410 21:23:38.374660 18472 net.cpp:399] conv3_down -> conv3_down
I0410 21:23:38.375782 18472 net.cpp:141] Setting up conv3_down
I0410 21:23:38.375800 18472 net.cpp:148] Top shape: 32 128 8 8 (262144)
I0410 21:23:38.375807 18472 net.cpp:156] Memory required for data: 30802304
I0410 21:23:38.375815 18472 layer_factory.hpp:77] Creating layer scale_conv3_down
I0410 21:23:38.375828 18472 net.cpp:91] Creating Layer scale_conv3_down
I0410 21:23:38.375836 18472 net.cpp:425] scale_conv3_down <- conv3_down
I0410 21:23:38.375847 18472 net.cpp:386] scale_conv3_down -> conv3_down (in-place)
I0410 21:23:38.375907 18472 layer_factory.hpp:77] Creating layer scale_conv3_down
I0410 21:23:38.376046 18472 net.cpp:141] Setting up scale_conv3_down
I0410 21:23:38.376057 18472 net.cpp:148] Top shape: 32 128 8 8 (262144)
I0410 21:23:38.376063 18472 net.cpp:156] Memory required for data: 31850880
I0410 21:23:38.376072 18472 layer_factory.hpp:77] Creating layer global_in
I0410 21:23:38.376083 18472 net.cpp:91] Creating Layer global_in
I0410 21:23:38.376091 18472 net.cpp:425] global_in <- conv1_down
I0410 21:23:38.376097 18472 net.cpp:425] global_in <- conv2_down
I0410 21:23:38.376104 18472 net.cpp:425] global_in <- conv3_down
I0410 21:23:38.376112 18472 net.cpp:399] global_in -> global_in
I0410 21:23:38.376153 18472 net.cpp:141] Setting up global_in
I0410 21:23:38.376165 18472 net.cpp:148] Top shape: 32 128 8 8 (262144)
I0410 21:23:38.376170 18472 net.cpp:156] Memory required for data: 32899456
I0410 21:23:38.376176 18472 layer_factory.hpp:77] Creating layer global_pool
I0410 21:23:38.376188 18472 net.cpp:91] Creating Layer global_pool
I0410 21:23:38.376194 18472 net.cpp:425] global_pool <- global_in
I0410 21:23:38.376202 18472 net.cpp:399] global_pool -> global_pool
I0410 21:23:38.376251 18472 net.cpp:141] Setting up global_pool
I0410 21:23:38.376261 18472 net.cpp:148] Top shape: 32 128 1 1 (4096)
I0410 21:23:38.376266 18472 net.cpp:156] Memory required for data: 32915840
I0410 21:23:38.376272 18472 layer_factory.hpp:77] Creating layer ip
I0410 21:23:38.376284 18472 net.cpp:91] Creating Layer ip
I0410 21:23:38.376291 18472 net.cpp:425] ip <- global_pool
I0410 21:23:38.376299 18472 net.cpp:399] ip -> ip
I0410 21:23:38.376423 18472 net.cpp:141] Setting up ip
I0410 21:23:38.376435 18472 net.cpp:148] Top shape: 32 10 (320)
I0410 21:23:38.376441 18472 net.cpp:156] Memory required for data: 32917120
I0410 21:23:38.376449 18472 layer_factory.hpp:77] Creating layer ip_ip_0_split
I0410 21:23:38.376458 18472 net.cpp:91] Creating Layer ip_ip_0_split
I0410 21:23:38.376464 18472 net.cpp:425] ip_ip_0_split <- ip
I0410 21:23:38.376474 18472 net.cpp:399] ip_ip_0_split -> ip_ip_0_split_0
I0410 21:23:38.376484 18472 net.cpp:399] ip_ip_0_split -> ip_ip_0_split_1
I0410 21:23:38.376529 18472 net.cpp:141] Setting up ip_ip_0_split
I0410 21:23:38.376539 18472 net.cpp:148] Top shape: 32 10 (320)
I0410 21:23:38.376545 18472 net.cpp:148] Top shape: 32 10 (320)
I0410 21:23:38.376551 18472 net.cpp:156] Memory required for data: 32919680
I0410 21:23:38.376556 18472 layer_factory.hpp:77] Creating layer accuracy
I0410 21:23:38.376567 18472 net.cpp:91] Creating Layer accuracy
I0410 21:23:38.376574 18472 net.cpp:425] accuracy <- ip_ip_0_split_0
I0410 21:23:38.376580 18472 net.cpp:425] accuracy <- label_data_1_split_0
I0410 21:23:38.376588 18472 net.cpp:399] accuracy -> accuracy
…
I0410 21:41:38.865864  7005 net.cpp:313] The NetState phase (0) differed from the phase (1) specified by a rule in layer data
I0410 21:41:38.866108  7005 net.cpp:49] Initializing net from parameters: 
name: "CifarResNet0"
state {
  phase: TRAIN
}
layer {
  name: "data"
  type: "Data"
  top: "data"
  top: "label"
  include {
    phase: TRAIN
  }
  transform_param {
    mean_file: "/home/liangjiang/code/residual_network/data/cifar10/mean.binaryproto"
  }
  data_param {
    source: "/home/liangjiang/code/residual_network/data/cifar10/cifar10_train_lmdb"
    batch_size: 128
    backend: LMDB
  }
}
layer {
  name: "conv1"
  type: "Convolution"
  bottom: "data"
  top: "conv1"
  param {
    lr_mult: 1
  }
  param {
    lr_mult: 2
  }
  convolution_param {
    num_output: 8
    pad: 1
    kernel_size: 3
    stride: 1
    weight_filler {
      type: "msra"
    }
    bias_filler {
      type: "constant"
      value: 0
    }
  }
}
layer {
  name: "bn_conv1"
  type: "BatchNorm"
  bottom: "conv1"
  top: "conv1"
  param {
    lr_mult: 0
  }
  param {
    lr_mult: 0
  }
  param {
    lr_mult: 0
  }
}
layer {
  name: "scale_conv1"
  type: "Scale"
  bottom: "conv1"
  top: "conv1"
  param {
    lr_mult: 1
  }
  param {
    lr_mult: 2
  }
  scale_param {
    bias_term: true
  }
}
layer {
  name: "conv1_relu"
  type: "ReLU"
  bottom: "conv1"
  top: "conv1"
}
layer {
  name: "conv1_down"
  type: "Convolution"
  bottom: "conv1"
  top: "conv1_down"
  param {
    lr_mult: 0
  }
  convolution_param {
    num_output: 128
    bias_term: false
    pad: 0
    kernel_size: 4
    stride: 4
    weight_filler {
      type: "downsample"
      value: 0.4
    }
  }
}
layer {
  name: "scale_conv1_down"
  type: "Scale"
  bottom: "conv1_down"
  top: "conv1_down"
  param {
    lr_mult: 1
  }
  param {
    lr_mult: 2
  }
  scale_param {
    filler {
      type: "constant"
      value: 0
    }
    bias_term: true
  }
}
layer {
  name: "conv2_1a"
  type: "Convolution"
  bottom: "conv1"
  top: "conv2_1a"
  param {
    lr_mult: 1
  }
  param {
    lr_mult: 2
  }
  convolution_param {
    num_output: 8
    pad: 1
    kernel_size: 3
    stride: 1
    weight_filler {
      type: "msra"
    }
    bias_filler {
      type: "constant"
      value: 0
    }
  }
}
layer {
  name: "bn_conv2_1a"
  type: "BatchNorm"
  bottom: "conv2_1a"
  top: "conv2_1a"
  param {
    lr_mult: 0
  }
  param {
    lr_mult: 0
  }
  param {
    lr_mult: 0
  }
}
layer {
  name: "scale_conv2_1a"
  type: "Scale"
  bottom: "conv2_1a"
  top: "conv2_1a"
  param {
    lr_mult: 1
  }
  param {
    lr_mult: 2
  }
  scale_param {
    bias_term: true
  }
}
layer {
  name: "conv2_1a_relu"
  type: "ReLU"
  bottom: "conv2_1a"
  top: "conv2_1a"
}
layer {
  name: "conv2_1b"
  type: "Convolution"
  bottom: "conv2_1a"
  top: "conv2_1b"
  param {
    lr_mult: 1
  }
  param {
    lr_mult: 2
  }
  convolution_param {
    num_output: 8
    pad: 1
    kernel_size: 3
    stride: 1
    weight_filler {
      type: "msra"
    }
    bias_filler {
      type: "constant"
      value: 0
    }
  }
}
layer {
  name: "bn_conv2_1b"
  type: "BatchNorm"
  bottom: "conv2_1b"
  top: "conv2_1b"
  param {
    lr_mult: 0
  }
  param {
    lr_mult: 0
  }
  param {
    lr_mult: 0
  }
}
layer {
  name: "scale_conv2_1b"
  type: "Scale"
  bottom: "conv2_1b"
  top: "conv2_1b"
  param {
    lr_mult: 1
  }
  param {
    lr_mult: 2
  }
  scale_param {
    bias_term: true
  }
}
layer {
  name: "conv2_1b_relu"
  type: "ReLU"
  bottom: "conv2_1b"
  top: "conv2_1b"
}
layer {
  name: "conv2_down"
  type: "Convolution"
  bottom: "conv2_1b"
  top: "conv2_down"
  param {
    lr_mult: 0
  }
  convolution_param {
    num_output: 128
    bias_term: false
    pad: 0
    kernel_size: 4
    stride: 4
    weight_filler {
      type: "downsample"
      value: 0.4
    }
  }
}
layer {
  name: "scale_conv2_down"
  type: "Scale"
  bottom: "conv2_down"
  top: "conv2_down"
  param {
    lr_mult: 1
  }
  param {
    lr_mult: 2
  }
  scale_param {
    filler {
      type: "constant"
      value: 0
    }
    bias_term: true
  }
}
layer {
  name: "conv3_1a"
  type: "Convolution"
  bottom: "conv2_1b"
  top: "conv3_1a"
  param {
    lr_mult: 1
  }
  param {
    lr_mult: 2
  }
  convolution_param {
    num_output: 32
    pad: 0
    kernel_size: 1
    stride: 2
    weight_filler {
      type: "msra"
    }
    bias_filler {
      type: "constant"
      value: 0
    }
  }
}
layer {
  name: "bn_conv3_1a"
  type: "BatchNorm"
  bottom: "conv3_1a"
  top: "conv3_1a"
  param {
    lr_mult: 0
  }
  param {
    lr_mult: 0
  }
  param {
    lr_mult: 0
  }
}
layer {
  name: "scale_conv3_1a"
  type: "Scale"
  bottom: "conv3_1a"
  top: "conv3_1a"
  param {
    lr_mult: 1
  }
  param {
    lr_mult: 2
  }
  scale_param {
    bias_term: true
  }
}
layer {
  name: "conv3_1a_relu"
  type: "ReLU"
  bottom: "conv3_1a"
  top: "conv3_1a"
}
layer {
  name: "conv3_1b"
  type: "Convolution"
  bottom: "conv3_1a"
  top: "conv3_1b"
  param {
    lr_mult: 2
  }
  param {
    lr_mult: 2
  }
  convolution_param {
    num_output: 32
    pad: 1
    kernel_size: 3
    stride: 1
    weight_filler {
      type: "msra"
    }
    bias_filler {
      type: "constant"
      value: 0
    }
  }
}
layer {
  name: "bn_conv3_1b"
  type: "BatchNorm"
  bottom: "conv3_1b"
  top: "conv3_1b"
  param {
    lr_mult: 0
  }
  param {
    lr_mult: 0
  }
  param {
    lr_mult: 0
  }
}
layer {
  name: "scale_conv3_1b"
  type: "Scale"
  bottom: "conv3_1b"
  top: "conv3_1b"
  param {
    lr_mult: 1
  }
  param {
    lr_mult: 2
  }
  scale_param {
    bias_term: true
  }
}
layer {
  name: "conv3_1b_relu"
  type: "ReLU"
  bottom: "conv3_1b"
  top: "conv3_1b"
}
layer {
  name: "conv3_down"
  type: "Convolution"
  bottom: "conv3_1b"
  top: "conv3_down"
  param {
    lr_mult: 0
  }
  convolution_param {
    num_output: 128
    bias_term: false
    pad: 0
    kernel_size: 2
    stride: 2
    weight_filler {
      type: "downsample"
      value: 0.4
    }
  }
}
layer {
  name: "scale_conv3_down"
  type: "Scale"
  bottom: "conv3_down"
  top: "conv3_down"
  param {
    lr_mult: 1
  }
  param {
    lr_mult: 2
  }
  scale_param {
    filler {
      type: "constant"
      value: 0
    }
    bias_term: true
  }
}
layer {
  name: "conv4_1a"
  type: "Convolution"
  bottom: "conv3_1b"
  top: "conv4_1a"
  param {
    lr_mult: 1
  }
  param {
    lr_mult: 2
  }
  convolution_param {
    num_output: 128
    pad: 0
    kernel_size: 1
    stride: 2
    weight_filler {
      type: "msra"
    }
    bias_filler {
      type: "constant"
      value: 0
    }
  }
}
layer {
  name: "bn_conv4_1a"
  type: "BatchNorm"
  bottom: "conv4_1a"
  top: "conv4_1a"
  param {
    lr_mult: 0
  }
  param {
    lr_mult: 0
  }
  param {
    lr_mult: 0
  }
}
layer {
  name: "scale_conv4_1a"
  type: "Scale"
  bottom: "conv4_1a"
  top: "conv4_1a"
  param {
    lr_mult: 1
  }
  param {
    lr_mult: 2
  }
  scale_param {
    bias_term: true
  }
}
layer {
  name: "conv4_1a_relu"
  type: "ReLU"
  bottom: "conv4_1a"
  top: "conv4_1a"
}
layer {
  name: "conv4_1b"
  type: "Convolution"
  bottom: "conv4_1a"
  top: "conv4_1b"
  param {
    lr_mult: 1
  }
  param {
    lr_mult: 2
  }
  convolution_param {
    num_output: 128
    pad: 1
    kernel_size: 3
    stride: 1
    weight_filler {
      type: "msra"
    }
    bias_filler {
      type: "constant"
      value: 0
    }
  }
}
layer {
  name: "bn_conv4_1b"
  type: "BatchNorm"
  bottom: "conv4_1b"
  top: "conv4_1b"
  param {
    lr_mult: 0
  }
  param {
    lr_mult: 0
  }
  param {
    lr_mult: 0
  }
}
layer {
  name: "scale_conv4_1b"
  type: "Scale"
  bottom: "conv4_1b"
  top: "conv4_1b"
  param {
    lr_mult: 1
  }
  param {
    lr_mult: 2
  }
  scale_param {
    bias_term: true
  }
}
layer {
  name: "conv4_1b_relu"
  type: "ReLU"
  bottom: "conv4_1b"
  top: "conv4_1b"
}
layer {
  name: "global_in"
  type: "Eltwise"
  bottom: "conv1_down"
  bottom: "conv2_down"
  bottom: "conv3_down"
  bottom: "conv4_1b"
  top: "global_in"
}
layer {
  name: "global_pool"
  type: "Pooling"
  bottom: "global_in"
  top: "global_pool"
  pooling_param {
    pool: MAX
    kernel_size: 8
  }
}
layer {
  name: "ip"
  type: "InnerProduct"
  bottom: "global_pool"
  top: "ip"
  param {
    lr_mult: 1
  }
  param {
    lr_mult: 2
  }
  inner_product_param {
    num_output: 10
  }
}
layer {
  name: "accuracy"
  type: "Accuracy"
  bottom: "ip"
  bottom: "label"
  top: "accuracy"
}
layer {
  name: "loss"
  type: "SoftmaxWithLoss"
  bottom: "ip"
  bottom: "label"
  top: "loss"
}
I0410 21:41:38.866291  7005 layer_factory.hpp:77] Creating layer data
I0410 21:41:38.866720  7005 net.cpp:91] Creating Layer data
I0410 21:41:38.866734  7005 net.cpp:399] data -> data
I0410 21:41:38.866746  7005 net.cpp:399] data -> label
I0410 21:41:38.866757  7005 data_transformer.cpp:25] Loading mean file from: /home/liangjiang/code/residual_network/data/cifar10/mean.binaryproto
I0410 21:41:38.869629  7087 db_lmdb.cpp:38] Opened lmdb /home/liangjiang/code/residual_network/data/cifar10/cifar10_train_lmdb
I0410 21:41:38.876863  7005 data_layer.cpp:41] output data size: 128,3,32,32
I0410 21:41:38.879678  7005 net.cpp:141] Setting up data
I0410 21:41:38.879698  7005 net.cpp:148] Top shape: 128 3 32 32 (393216)
I0410 21:41:38.879705  7005 net.cpp:148] Top shape: 128 (128)
I0410 21:41:38.879709  7005 net.cpp:156] Memory required for data: 1573376
I0410 21:41:38.879715  7005 layer_factory.hpp:77] Creating layer label_data_1_split
I0410 21:41:38.879729  7005 net.cpp:91] Creating Layer label_data_1_split
I0410 21:41:38.879734  7005 net.cpp:425] label_data_1_split <- label
I0410 21:41:38.879741  7005 net.cpp:399] label_data_1_split -> label_data_1_split_0
I0410 21:41:38.879751  7005 net.cpp:399] label_data_1_split -> label_data_1_split_1
I0410 21:41:38.879842  7005 net.cpp:141] Setting up label_data_1_split
I0410 21:41:38.879853  7005 net.cpp:148] Top shape: 128 (128)
I0410 21:41:38.879858  7005 net.cpp:148] Top shape: 128 (128)
I0410 21:41:38.879861  7005 net.cpp:156] Memory required for data: 1574400
I0410 21:41:38.879865  7005 layer_factory.hpp:77] Creating layer conv1
I0410 21:41:38.879879  7005 net.cpp:91] Creating Layer conv1
I0410 21:41:38.879884  7005 net.cpp:425] conv1 <- data
I0410 21:41:38.879892  7005 net.cpp:399] conv1 -> conv1
I0410 21:41:39.084306  7005 net.cpp:141] Setting up conv1
I0410 21:41:39.084362  7005 net.cpp:148] Top shape: 128 8 32 32 (1048576)
I0410 21:41:39.084369  7005 net.cpp:156] Memory required for data: 5768704
I0410 21:41:39.084408  7005 layer_factory.hpp:77] Creating layer bn_conv1
I0410 21:41:39.084427  7005 net.cpp:91] Creating Layer bn_conv1
I0410 21:41:39.084435  7005 net.cpp:425] bn_conv1 <- conv1
I0410 21:41:39.084444  7005 net.cpp:386] bn_conv1 -> conv1 (in-place)
I0410 21:41:39.084683  7005 net.cpp:141] Setting up bn_conv1
I0410 21:41:39.084707  7005 net.cpp:148] Top shape: 128 8 32 32 (1048576)
I0410 21:41:39.084725  7005 net.cpp:156] Memory required for data: 9963008
I0410 21:41:39.084745  7005 layer_factory.hpp:77] Creating layer scale_conv1
I0410 21:41:39.084764  7005 net.cpp:91] Creating Layer scale_conv1
I0410 21:41:39.084769  7005 net.cpp:425] scale_conv1 <- conv1
I0410 21:41:39.084777  7005 net.cpp:386] scale_conv1 -> conv1 (in-place)
I0410 21:41:39.084823  7005 layer_factory.hpp:77] Creating layer scale_conv1
I0410 21:41:39.084972  7005 net.cpp:141] Setting up scale_conv1
I0410 21:41:39.084982  7005 net.cpp:148] Top shape: 128 8 32 32 (1048576)
I0410 21:41:39.084987  7005 net.cpp:156] Memory required for data: 14157312
I0410 21:41:39.085000  7005 layer_factory.hpp:77] Creating layer conv1_relu
I0410 21:41:39.085010  7005 net.cpp:91] Creating Layer conv1_relu
I0410 21:41:39.085019  7005 net.cpp:425] conv1_relu <- conv1
I0410 21:41:39.085027  7005 net.cpp:386] conv1_relu -> conv1 (in-place)
I0410 21:41:39.085656  7005 net.cpp:141] Setting up conv1_relu
I0410 21:41:39.085685  7005 net.cpp:148] Top shape: 128 8 32 32 (1048576)
I0410 21:41:39.085690  7005 net.cpp:156] Memory required for data: 18351616
I0410 21:41:39.085696  7005 layer_factory.hpp:77] Creating layer conv1_conv1_relu_0_split
I0410 21:41:39.085711  7005 net.cpp:91] Creating Layer conv1_conv1_relu_0_split
I0410 21:41:39.085716  7005 net.cpp:425] conv1_conv1_relu_0_split <- conv1
I0410 21:41:39.085734  7005 net.cpp:399] conv1_conv1_relu_0_split -> conv1_conv1_relu_0_split_0
I0410 21:41:39.085752  7005 net.cpp:399] conv1_conv1_relu_0_split -> conv1_conv1_relu_0_split_1
I0410 21:41:39.085824  7005 net.cpp:141] Setting up conv1_conv1_relu_0_split
I0410 21:41:39.085837  7005 net.cpp:148] Top shape: 128 8 32 32 (1048576)
I0410 21:41:39.085844  7005 net.cpp:148] Top shape: 128 8 32 32 (1048576)
I0410 21:41:39.085850  7005 net.cpp:156] Memory required for data: 26740224
I0410 21:41:39.085860  7005 layer_factory.hpp:77] Creating layer conv1_down
I0410 21:41:39.085871  7005 net.cpp:91] Creating Layer conv1_down
I0410 21:41:39.085883  7005 net.cpp:425] conv1_down <- conv1_conv1_relu_0_split_0
I0410 21:41:39.085891  7005 net.cpp:399] conv1_down -> conv1_down
I0410 21:41:39.088520  7005 net.cpp:141] Setting up conv1_down
I0410 21:41:39.088544  7005 net.cpp:148] Top shape: 128 128 8 8 (1048576)
I0410 21:41:39.088557  7005 net.cpp:156] Memory required for data: 30934528
I0410 21:41:39.088567  7005 layer_factory.hpp:77] Creating layer scale_conv1_down
I0410 21:41:39.088582  7005 net.cpp:91] Creating Layer scale_conv1_down
I0410 21:41:39.088589  7005 net.cpp:425] scale_conv1_down <- conv1_down
I0410 21:41:39.088603  7005 net.cpp:386] scale_conv1_down -> conv1_down (in-place)
I0410 21:41:39.088668  7005 layer_factory.hpp:77] Creating layer scale_conv1_down
I0410 21:41:39.088815  7005 net.cpp:141] Setting up scale_conv1_down
I0410 21:41:39.088825  7005 net.cpp:148] Top shape: 128 128 8 8 (1048576)
I0410 21:41:39.088830  7005 net.cpp:156] Memory required for data: 35128832
I0410 21:41:39.088842  7005 layer_factory.hpp:77] Creating layer conv2_1a
I0410 21:41:39.088860  7005 net.cpp:91] Creating Layer conv2_1a
I0410 21:41:39.088866  7005 net.cpp:425] conv2_1a <- conv1_conv1_relu_0_split_1
I0410 21:41:39.088881  7005 net.cpp:399] conv2_1a -> conv2_1a
I0410 21:41:39.090783  7005 net.cpp:141] Setting up conv2_1a
I0410 21:41:39.090808  7005 net.cpp:148] Top shape: 128 8 32 32 (1048576)
I0410 21:41:39.090821  7005 net.cpp:156] Memory required for data: 39323136
I0410 21:41:39.090831  7005 layer_factory.hpp:77] Creating layer bn_conv2_1a
I0410 21:41:39.090848  7005 net.cpp:91] Creating Layer bn_conv2_1a
I0410 21:41:39.090857  7005 net.cpp:425] bn_conv2_1a <- conv2_1a
I0410 21:41:39.090874  7005 net.cpp:386] bn_conv2_1a -> conv2_1a (in-place)
I0410 21:41:39.091130  7005 net.cpp:141] Setting up bn_conv2_1a
I0410 21:41:39.091145  7005 net.cpp:148] Top shape: 128 8 32 32 (1048576)
I0410 21:41:39.091151  7005 net.cpp:156] Memory required for data: 43517440
I0410 21:41:39.091171  7005 layer_factory.hpp:77] Creating layer scale_conv2_1a
I0410 21:41:39.091188  7005 net.cpp:91] Creating Layer scale_conv2_1a
I0410 21:41:39.091194  7005 net.cpp:425] scale_conv2_1a <- conv2_1a
I0410 21:41:39.091207  7005 net.cpp:386] scale_conv2_1a -> conv2_1a (in-place)
I0410 21:41:39.091259  7005 layer_factory.hpp:77] Creating layer scale_conv2_1a
I0410 21:41:39.091404  7005 net.cpp:141] Setting up scale_conv2_1a
I0410 21:41:39.091420  7005 net.cpp:148] Top shape: 128 8 32 32 (1048576)
I0410 21:41:39.091425  7005 net.cpp:156] Memory required for data: 47711744
I0410 21:41:39.091444  7005 layer_factory.hpp:77] Creating layer conv2_1a_relu
I0410 21:41:39.091457  7005 net.cpp:91] Creating Layer conv2_1a_relu
I0410 21:41:39.091464  7005 net.cpp:425] conv2_1a_relu <- conv2_1a
I0410 21:41:39.091477  7005 net.cpp:386] conv2_1a_relu -> conv2_1a (in-place)
I0410 21:41:39.092250  7005 net.cpp:141] Setting up conv2_1a_relu
I0410 21:41:39.092272  7005 net.cpp:148] Top shape: 128 8 32 32 (1048576)
I0410 21:41:39.092278  7005 net.cpp:156] Memory required for data: 51906048
I0410 21:41:39.092291  7005 layer_factory.hpp:77] Creating layer conv2_1b
I0410 21:41:39.092320  7005 net.cpp:91] Creating Layer conv2_1b
I0410 21:41:39.092331  7005 net.cpp:425] conv2_1b <- conv2_1a
I0410 21:41:39.092353  7005 net.cpp:399] conv2_1b -> conv2_1b
I0410 21:41:39.094249  7005 net.cpp:141] Setting up conv2_1b
I0410 21:41:39.094274  7005 net.cpp:148] Top shape: 128 8 32 32 (1048576)
I0410 21:41:39.094279  7005 net.cpp:156] Memory required for data: 56100352
I0410 21:41:39.094286  7005 layer_factory.hpp:77] Creating layer bn_conv2_1b
I0410 21:41:39.094295  7005 net.cpp:91] Creating Layer bn_conv2_1b
I0410 21:41:39.094300  7005 net.cpp:425] bn_conv2_1b <- conv2_1b
I0410 21:41:39.094308  7005 net.cpp:386] bn_conv2_1b -> conv2_1b (in-place)
I0410 21:41:39.094521  7005 net.cpp:141] Setting up bn_conv2_1b
I0410 21:41:39.094529  7005 net.cpp:148] Top shape: 128 8 32 32 (1048576)
I0410 21:41:39.094533  7005 net.cpp:156] Memory required for data: 60294656
I0410 21:41:39.094548  7005 layer_factory.hpp:77] Creating layer scale_conv2_1b
I0410 21:41:39.094555  7005 net.cpp:91] Creating Layer scale_conv2_1b
I0410 21:41:39.094573  7005 net.cpp:425] scale_conv2_1b <- conv2_1b
I0410 21:41:39.094578  7005 net.cpp:386] scale_conv2_1b -> conv2_1b (in-place)
I0410 21:41:39.094619  7005 layer_factory.hpp:77] Creating layer scale_conv2_1b
I0410 21:41:39.094732  7005 net.cpp:141] Setting up scale_conv2_1b
I0410 21:41:39.094740  7005 net.cpp:148] Top shape: 128 8 32 32 (1048576)
I0410 21:41:39.094744  7005 net.cpp:156] Memory required for data: 64488960
I0410 21:41:39.094755  7005 layer_factory.hpp:77] Creating layer conv2_1b_relu
I0410 21:41:39.094764  7005 net.cpp:91] Creating Layer conv2_1b_relu
I0410 21:41:39.094774  7005 net.cpp:425] conv2_1b_relu <- conv2_1b
I0410 21:41:39.094779  7005 net.cpp:386] conv2_1b_relu -> conv2_1b (in-place)
I0410 21:41:39.095017  7005 net.cpp:141] Setting up conv2_1b_relu
I0410 21:41:39.095027  7005 net.cpp:148] Top shape: 128 8 32 32 (1048576)
I0410 21:41:39.095031  7005 net.cpp:156] Memory required for data: 68683264
I0410 21:41:39.095036  7005 layer_factory.hpp:77] Creating layer conv2_1b_conv2_1b_relu_0_split
I0410 21:41:39.095042  7005 net.cpp:91] Creating Layer conv2_1b_conv2_1b_relu_0_split
I0410 21:41:39.095046  7005 net.cpp:425] conv2_1b_conv2_1b_relu_0_split <- conv2_1b
I0410 21:41:39.095057  7005 net.cpp:399] conv2_1b_conv2_1b_relu_0_split -> conv2_1b_conv2_1b_relu_0_split_0
I0410 21:41:39.095063  7005 net.cpp:399] conv2_1b_conv2_1b_relu_0_split -> conv2_1b_conv2_1b_relu_0_split_1
I0410 21:41:39.095099  7005 net.cpp:141] Setting up conv2_1b_conv2_1b_relu_0_split
I0410 21:41:39.095108  7005 net.cpp:148] Top shape: 128 8 32 32 (1048576)
I0410 21:41:39.095113  7005 net.cpp:148] Top shape: 128 8 32 32 (1048576)
I0410 21:41:39.095116  7005 net.cpp:156] Memory required for data: 77071872
I0410 21:41:39.095121  7005 layer_factory.hpp:77] Creating layer conv2_down
I0410 21:41:39.095129  7005 net.cpp:91] Creating Layer conv2_down
I0410 21:41:39.095139  7005 net.cpp:425] conv2_down <- conv2_1b_conv2_1b_relu_0_split_0
I0410 21:41:39.095147  7005 net.cpp:399] conv2_down -> conv2_down
I0410 21:41:39.095939  7005 net.cpp:141] Setting up conv2_down
I0410 21:41:39.095952  7005 net.cpp:148] Top shape: 128 128 8 8 (1048576)
I0410 21:41:39.095957  7005 net.cpp:156] Memory required for data: 81266176
I0410 21:41:39.095964  7005 layer_factory.hpp:77] Creating layer scale_conv2_down
I0410 21:41:39.095973  7005 net.cpp:91] Creating Layer scale_conv2_down
I0410 21:41:39.095978  7005 net.cpp:425] scale_conv2_down <- conv2_down
I0410 21:41:39.095985  7005 net.cpp:386] scale_conv2_down -> conv2_down (in-place)
I0410 21:41:39.096026  7005 layer_factory.hpp:77] Creating layer scale_conv2_down
I0410 21:41:39.096119  7005 net.cpp:141] Setting up scale_conv2_down
I0410 21:41:39.096127  7005 net.cpp:148] Top shape: 128 128 8 8 (1048576)
I0410 21:41:39.096132  7005 net.cpp:156] Memory required for data: 85460480
I0410 21:41:39.096138  7005 layer_factory.hpp:77] Creating layer conv3_1a
I0410 21:41:39.096149  7005 net.cpp:91] Creating Layer conv3_1a
I0410 21:41:39.096154  7005 net.cpp:425] conv3_1a <- conv2_1b_conv2_1b_relu_0_split_1
I0410 21:41:39.096163  7005 net.cpp:399] conv3_1a -> conv3_1a
I0410 21:41:39.097020  7005 net.cpp:141] Setting up conv3_1a
I0410 21:41:39.097034  7005 net.cpp:148] Top shape: 128 32 16 16 (1048576)
I0410 21:41:39.097039  7005 net.cpp:156] Memory required for data: 89654784
I0410 21:41:39.097046  7005 layer_factory.hpp:77] Creating layer bn_conv3_1a
I0410 21:41:39.097055  7005 net.cpp:91] Creating Layer bn_conv3_1a
I0410 21:41:39.097060  7005 net.cpp:425] bn_conv3_1a <- conv3_1a
I0410 21:41:39.097066  7005 net.cpp:386] bn_conv3_1a -> conv3_1a (in-place)
I0410 21:41:39.097249  7005 net.cpp:141] Setting up bn_conv3_1a
I0410 21:41:39.097259  7005 net.cpp:148] Top shape: 128 32 16 16 (1048576)
I0410 21:41:39.097262  7005 net.cpp:156] Memory required for data: 93849088
I0410 21:41:39.097272  7005 layer_factory.hpp:77] Creating layer scale_conv3_1a
I0410 21:41:39.097280  7005 net.cpp:91] Creating Layer scale_conv3_1a
I0410 21:41:39.097285  7005 net.cpp:425] scale_conv3_1a <- conv3_1a
I0410 21:41:39.097291  7005 net.cpp:386] scale_conv3_1a -> conv3_1a (in-place)
I0410 21:41:39.097326  7005 layer_factory.hpp:77] Creating layer scale_conv3_1a
I0410 21:41:39.097429  7005 net.cpp:141] Setting up scale_conv3_1a
I0410 21:41:39.097439  7005 net.cpp:148] Top shape: 128 32 16 16 (1048576)
I0410 21:41:39.097442  7005 net.cpp:156] Memory required for data: 98043392
I0410 21:41:39.097465  7005 layer_factory.hpp:77] Creating layer conv3_1a_relu
I0410 21:41:39.097472  7005 net.cpp:91] Creating Layer conv3_1a_relu
I0410 21:41:39.097476  7005 net.cpp:425] conv3_1a_relu <- conv3_1a
I0410 21:41:39.097482  7005 net.cpp:386] conv3_1a_relu -> conv3_1a (in-place)
I0410 21:41:39.097630  7005 net.cpp:141] Setting up conv3_1a_relu
I0410 21:41:39.097640  7005 net.cpp:148] Top shape: 128 32 16 16 (1048576)
I0410 21:41:39.097645  7005 net.cpp:156] Memory required for data: 102237696
I0410 21:41:39.097648  7005 layer_factory.hpp:77] Creating layer conv3_1b
I0410 21:41:39.097659  7005 net.cpp:91] Creating Layer conv3_1b
I0410 21:41:39.097664  7005 net.cpp:425] conv3_1b <- conv3_1a
I0410 21:41:39.097672  7005 net.cpp:399] conv3_1b -> conv3_1b
I0410 21:41:39.098824  7005 net.cpp:141] Setting up conv3_1b
I0410 21:41:39.098839  7005 net.cpp:148] Top shape: 128 32 16 16 (1048576)
I0410 21:41:39.098844  7005 net.cpp:156] Memory required for data: 106432000
I0410 21:41:39.098851  7005 layer_factory.hpp:77] Creating layer bn_conv3_1b
I0410 21:41:39.098860  7005 net.cpp:91] Creating Layer bn_conv3_1b
I0410 21:41:39.098865  7005 net.cpp:425] bn_conv3_1b <- conv3_1b
I0410 21:41:39.098872  7005 net.cpp:386] bn_conv3_1b -> conv3_1b (in-place)
I0410 21:41:39.099050  7005 net.cpp:141] Setting up bn_conv3_1b
I0410 21:41:39.099058  7005 net.cpp:148] Top shape: 128 32 16 16 (1048576)
I0410 21:41:39.099062  7005 net.cpp:156] Memory required for data: 110626304
I0410 21:41:39.099069  7005 layer_factory.hpp:77] Creating layer scale_conv3_1b
I0410 21:41:39.099081  7005 net.cpp:91] Creating Layer scale_conv3_1b
I0410 21:41:39.099086  7005 net.cpp:425] scale_conv3_1b <- conv3_1b
I0410 21:41:39.099092  7005 net.cpp:386] scale_conv3_1b -> conv3_1b (in-place)
I0410 21:41:39.099128  7005 layer_factory.hpp:77] Creating layer scale_conv3_1b
I0410 21:41:39.099225  7005 net.cpp:141] Setting up scale_conv3_1b
I0410 21:41:39.099233  7005 net.cpp:148] Top shape: 128 32 16 16 (1048576)
I0410 21:41:39.099237  7005 net.cpp:156] Memory required for data: 114820608
I0410 21:41:39.099243  7005 layer_factory.hpp:77] Creating layer conv3_1b_relu
I0410 21:41:39.099251  7005 net.cpp:91] Creating Layer conv3_1b_relu
I0410 21:41:39.099256  7005 net.cpp:425] conv3_1b_relu <- conv3_1b
I0410 21:41:39.099261  7005 net.cpp:386] conv3_1b_relu -> conv3_1b (in-place)
I0410 21:41:39.099512  7005 net.cpp:141] Setting up conv3_1b_relu
I0410 21:41:39.099526  7005 net.cpp:148] Top shape: 128 32 16 16 (1048576)
I0410 21:41:39.099531  7005 net.cpp:156] Memory required for data: 119014912
I0410 21:41:39.099536  7005 layer_factory.hpp:77] Creating layer conv3_1b_conv3_1b_relu_0_split
I0410 21:41:39.099542  7005 net.cpp:91] Creating Layer conv3_1b_conv3_1b_relu_0_split
I0410 21:41:39.099547  7005 net.cpp:425] conv3_1b_conv3_1b_relu_0_split <- conv3_1b
I0410 21:41:39.099553  7005 net.cpp:399] conv3_1b_conv3_1b_relu_0_split -> conv3_1b_conv3_1b_relu_0_split_0
I0410 21:41:39.099561  7005 net.cpp:399] conv3_1b_conv3_1b_relu_0_split -> conv3_1b_conv3_1b_relu_0_split_1
I0410 21:41:39.099598  7005 net.cpp:141] Setting up conv3_1b_conv3_1b_relu_0_split
I0410 21:41:39.099606  7005 net.cpp:148] Top shape: 128 32 16 16 (1048576)
I0410 21:41:39.099611  7005 net.cpp:148] Top shape: 128 32 16 16 (1048576)
I0410 21:41:39.099616  7005 net.cpp:156] Memory required for data: 127403520
I0410 21:41:39.099619  7005 layer_factory.hpp:77] Creating layer conv3_down
I0410 21:41:39.099630  7005 net.cpp:91] Creating Layer conv3_down
I0410 21:41:39.099635  7005 net.cpp:425] conv3_down <- conv3_1b_conv3_1b_relu_0_split_0
I0410 21:41:39.099643  7005 net.cpp:399] conv3_down -> conv3_down
I0410 21:41:39.100456  7005 net.cpp:141] Setting up conv3_down
I0410 21:41:39.100471  7005 net.cpp:148] Top shape: 128 128 8 8 (1048576)
I0410 21:41:39.100476  7005 net.cpp:156] Memory required for data: 131597824
I0410 21:41:39.100482  7005 layer_factory.hpp:77] Creating layer scale_conv3_down
I0410 21:41:39.100491  7005 net.cpp:91] Creating Layer scale_conv3_down
I0410 21:41:39.100495  7005 net.cpp:425] scale_conv3_down <- conv3_down
I0410 21:41:39.100503  7005 net.cpp:386] scale_conv3_down -> conv3_down (in-place)
I0410 21:41:39.100543  7005 layer_factory.hpp:77] Creating layer scale_conv3_down
I0410 21:41:39.100638  7005 net.cpp:141] Setting up scale_conv3_down
I0410 21:41:39.100646  7005 net.cpp:148] Top shape: 128 128 8 8 (1048576)
I0410 21:41:39.100651  7005 net.cpp:156] Memory required for data: 135792128
I0410 21:41:39.100657  7005 layer_factory.hpp:77] Creating layer conv4_1a
I0410 21:41:39.100668  7005 net.cpp:91] Creating Layer conv4_1a
I0410 21:41:39.100673  7005 net.cpp:425] conv4_1a <- conv3_1b_conv3_1b_relu_0_split_1
I0410 21:41:39.100682  7005 net.cpp:399] conv4_1a -> conv4_1a
I0410 21:41:39.101685  7005 net.cpp:141] Setting up conv4_1a
I0410 21:41:39.101701  7005 net.cpp:148] Top shape: 128 128 8 8 (1048576)
I0410 21:41:39.101706  7005 net.cpp:156] Memory required for data: 139986432
I0410 21:41:39.101713  7005 layer_factory.hpp:77] Creating layer bn_conv4_1a
I0410 21:41:39.101724  7005 net.cpp:91] Creating Layer bn_conv4_1a
I0410 21:41:39.101729  7005 net.cpp:425] bn_conv4_1a <- conv4_1a
I0410 21:41:39.101737  7005 net.cpp:386] bn_conv4_1a -> conv4_1a (in-place)
I0410 21:41:39.101893  7005 net.cpp:141] Setting up bn_conv4_1a
I0410 21:41:39.101902  7005 net.cpp:148] Top shape: 128 128 8 8 (1048576)
I0410 21:41:39.101905  7005 net.cpp:156] Memory required for data: 144180736
I0410 21:41:39.101912  7005 layer_factory.hpp:77] Creating layer scale_conv4_1a
I0410 21:41:39.101919  7005 net.cpp:91] Creating Layer scale_conv4_1a
I0410 21:41:39.101930  7005 net.cpp:425] scale_conv4_1a <- conv4_1a
I0410 21:41:39.101938  7005 net.cpp:386] scale_conv4_1a -> conv4_1a (in-place)
I0410 21:41:39.101971  7005 layer_factory.hpp:77] Creating layer scale_conv4_1a
I0410 21:41:39.102064  7005 net.cpp:141] Setting up scale_conv4_1a
I0410 21:41:39.102072  7005 net.cpp:148] Top shape: 128 128 8 8 (1048576)
I0410 21:41:39.102077  7005 net.cpp:156] Memory required for data: 148375040
I0410 21:41:39.102083  7005 layer_factory.hpp:77] Creating layer conv4_1a_relu
I0410 21:41:39.102090  7005 net.cpp:91] Creating Layer conv4_1a_relu
I0410 21:41:39.102095  7005 net.cpp:425] conv4_1a_relu <- conv4_1a
I0410 21:41:39.102100  7005 net.cpp:386] conv4_1a_relu -> conv4_1a (in-place)
I0410 21:41:39.102350  7005 net.cpp:141] Setting up conv4_1a_relu
I0410 21:41:39.102365  7005 net.cpp:148] Top shape: 128 128 8 8 (1048576)
I0410 21:41:39.102370  7005 net.cpp:156] Memory required for data: 152569344
I0410 21:41:39.102375  7005 layer_factory.hpp:77] Creating layer conv4_1b
I0410 21:41:39.102385  7005 net.cpp:91] Creating Layer conv4_1b
I0410 21:41:39.102391  7005 net.cpp:425] conv4_1b <- conv4_1a
I0410 21:41:39.102397  7005 net.cpp:399] conv4_1b -> conv4_1b
I0410 21:41:39.107646  7005 net.cpp:141] Setting up conv4_1b
I0410 21:41:39.107661  7005 net.cpp:148] Top shape: 128 128 8 8 (1048576)
I0410 21:41:39.107666  7005 net.cpp:156] Memory required for data: 156763648
I0410 21:41:39.107676  7005 layer_factory.hpp:77] Creating layer bn_conv4_1b
I0410 21:41:39.107684  7005 net.cpp:91] Creating Layer bn_conv4_1b
I0410 21:41:39.107689  7005 net.cpp:425] bn_conv4_1b <- conv4_1b
I0410 21:41:39.107695  7005 net.cpp:386] bn_conv4_1b -> conv4_1b (in-place)
I0410 21:41:39.107859  7005 net.cpp:141] Setting up bn_conv4_1b
I0410 21:41:39.107867  7005 net.cpp:148] Top shape: 128 128 8 8 (1048576)
I0410 21:41:39.107872  7005 net.cpp:156] Memory required for data: 160957952
I0410 21:41:39.107878  7005 layer_factory.hpp:77] Creating layer scale_conv4_1b
I0410 21:41:39.107887  7005 net.cpp:91] Creating Layer scale_conv4_1b
I0410 21:41:39.107892  7005 net.cpp:425] scale_conv4_1b <- conv4_1b
I0410 21:41:39.107898  7005 net.cpp:386] scale_conv4_1b -> conv4_1b (in-place)
I0410 21:41:39.107931  7005 layer_factory.hpp:77] Creating layer scale_conv4_1b
I0410 21:41:39.108026  7005 net.cpp:141] Setting up scale_conv4_1b
I0410 21:41:39.108033  7005 net.cpp:148] Top shape: 128 128 8 8 (1048576)
I0410 21:41:39.108037  7005 net.cpp:156] Memory required for data: 165152256
I0410 21:41:39.108044  7005 layer_factory.hpp:77] Creating layer conv4_1b_relu
I0410 21:41:39.108050  7005 net.cpp:91] Creating Layer conv4_1b_relu
I0410 21:41:39.108054  7005 net.cpp:425] conv4_1b_relu <- conv4_1b
I0410 21:41:39.108062  7005 net.cpp:386] conv4_1b_relu -> conv4_1b (in-place)
I0410 21:41:39.108213  7005 net.cpp:141] Setting up conv4_1b_relu
I0410 21:41:39.108227  7005 net.cpp:148] Top shape: 128 128 8 8 (1048576)
I0410 21:41:39.108230  7005 net.cpp:156] Memory required for data: 169346560
I0410 21:41:39.108234  7005 layer_factory.hpp:77] Creating layer global_in
I0410 21:41:39.108242  7005 net.cpp:91] Creating Layer global_in
I0410 21:41:39.108247  7005 net.cpp:425] global_in <- conv1_down
I0410 21:41:39.108253  7005 net.cpp:425] global_in <- conv2_down
I0410 21:41:39.108258  7005 net.cpp:425] global_in <- conv3_down
I0410 21:41:39.108261  7005 net.cpp:425] global_in <- conv4_1b
I0410 21:41:39.108266  7005 net.cpp:399] global_in -> global_in
I0410 21:41:39.108295  7005 net.cpp:141] Setting up global_in
I0410 21:41:39.108304  7005 net.cpp:148] Top shape: 128 128 8 8 (1048576)
I0410 21:41:39.108307  7005 net.cpp:156] Memory required for data: 173540864
I0410 21:41:39.108311  7005 layer_factory.hpp:77] Creating layer global_pool
I0410 21:41:39.108319  7005 net.cpp:91] Creating Layer global_pool
I0410 21:41:39.108322  7005 net.cpp:425] global_pool <- global_in
I0410 21:41:39.108330  7005 net.cpp:399] global_pool -> global_pool
I0410 21:41:39.108369  7005 net.cpp:141] Setting up global_pool
I0410 21:41:39.108382  7005 net.cpp:148] Top shape: 128 128 1 1 (16384)
I0410 21:41:39.108386  7005 net.cpp:156] Memory required for data: 173606400
I0410 21:41:39.108392  7005 layer_factory.hpp:77] Creating layer ip
I0410 21:41:39.108398  7005 net.cpp:91] Creating Layer ip
I0410 21:41:39.108403  7005 net.cpp:425] ip <- global_pool
I0410 21:41:39.108408  7005 net.cpp:399] ip -> ip
I0410 21:41:39.108503  7005 net.cpp:141] Setting up ip
I0410 21:41:39.108511  7005 net.cpp:148] Top shape: 128 10 (1280)
I0410 21:41:39.108515  7005 net.cpp:156] Memory required for data: 173611520
I0410 21:41:39.108521  7005 layer_factory.hpp:77] Creating layer ip_ip_0_split
I0410 21:41:39.108527  7005 net.cpp:91] Creating Layer ip_ip_0_split
I0410 21:41:39.108532  7005 net.cpp:425] ip_ip_0_split <- ip
I0410 21:41:39.108539  7005 net.cpp:399] ip_ip_0_split -> ip_ip_0_split_0
I0410 21:41:39.108546  7005 net.cpp:399] ip_ip_0_split -> ip_ip_0_split_1
I0410 21:41:39.108575  7005 net.cpp:141] Setting up ip_ip_0_split
I0410 21:41:39.108582  7005 net.cpp:148] Top shape: 128 10 (1280)
I0410 21:41:39.108587  7005 net.cpp:148] Top shape: 128 10 (1280)
I0410 21:41:39.108592  7005 net.cpp:156] Memory required for data: 173621760
I0410 21:41:39.108595  7005 layer_factory.hpp:77] Creating layer accuracy
I0410 21:41:39.108606  7005 net.cpp:91] Creating Layer accuracy
I0410 21:41:39.108610  7005 net.cpp:425] accuracy <- ip_ip_0_split_0
I0410 21:41:39.108616  7005 net.cpp:425] accuracy <- label_data_1_split_0
I0410 21:41:39.108621  7005 net.cpp:399] accuracy -> accuracy
…
I0410 21:41:39.110383  7005 net.cpp:313] The NetState phase (1) differed from the phase (0) specified by a rule in layer data
I0410 21:41:39.110615  7005 net.cpp:49] Initializing net from parameters: 
name: "CifarResNet0"
state {
  phase: TEST
}
layer {
  name: "data"
  type: "Data"
  top: "data"
  top: "label"
  include {
    phase: TEST
  }
  transform_param {
    mean_file: "/home/liangjiang/code/residual_network/data/cifar10/mean.binaryproto"
  }
  data_param {
    source: "/home/liangjiang/code/residual_network/data/cifar10/cifar10_test_lmdb"
    batch_size: 32
    backend: LMDB
  }
}
layer {
  name: "conv1"
  type: "Convolution"
  bottom: "data"
  top: "conv1"
  param {
    lr_mult: 1
  }
  param {
    lr_mult: 2
  }
  convolution_param {
    num_output: 8
    pad: 1
    kernel_size: 3
    stride: 1
    weight_filler {
      type: "msra"
    }
    bias_filler {
      type: "constant"
      value: 0
    }
  }
}
layer {
  name: "bn_conv1"
  type: "BatchNorm"
  bottom: "conv1"
  top: "conv1"
  param {
    lr_mult: 0
  }
  param {
    lr_mult: 0
  }
  param {
    lr_mult: 0
  }
}
layer {
  name: "scale_conv1"
  type: "Scale"
  bottom: "conv1"
  top: "conv1"
  param {
    lr_mult: 1
  }
  param {
    lr_mult: 2
  }
  scale_param {
    bias_term: true
  }
}
layer {
  name: "conv1_relu"
  type: "ReLU"
  bottom: "conv1"
  top: "conv1"
}
layer {
  name: "conv1_down"
  type: "Convolution"
  bottom: "conv1"
  top: "conv1_down"
  param {
    lr_mult: 0
  }
  convolution_param {
    num_output: 128
    bias_term: false
    pad: 0
    kernel_size: 4
    stride: 4
    weight_filler {
      type: "downsample"
      value: 0.4
    }
  }
}
layer {
  name: "scale_conv1_down"
  type: "Scale"
  bottom: "conv1_down"
  top: "conv1_down"
  param {
    lr_mult: 1
  }
  param {
    lr_mult: 2
  }
  scale_param {
    filler {
      type: "constant"
      value: 0
    }
    bias_term: true
  }
}
layer {
  name: "conv2_1a"
  type: "Convolution"
  bottom: "conv1"
  top: "conv2_1a"
  param {
    lr_mult: 1
  }
  param {
    lr_mult: 2
  }
  convolution_param {
    num_output: 8
    pad: 1
    kernel_size: 3
    stride: 1
    weight_filler {
      type: "msra"
    }
    bias_filler {
      type: "constant"
      value: 0
    }
  }
}
layer {
  name: "bn_conv2_1a"
  type: "BatchNorm"
  bottom: "conv2_1a"
  top: "conv2_1a"
  param {
    lr_mult: 0
  }
  param {
    lr_mult: 0
  }
  param {
    lr_mult: 0
  }
}
layer {
  name: "scale_conv2_1a"
  type: "Scale"
  bottom: "conv2_1a"
  top: "conv2_1a"
  param {
    lr_mult: 1
  }
  param {
    lr_mult: 2
  }
  scale_param {
    bias_term: true
  }
}
layer {
  name: "conv2_1a_relu"
  type: "ReLU"
  bottom: "conv2_1a"
  top: "conv2_1a"
}
layer {
  name: "conv2_1b"
  type: "Convolution"
  bottom: "conv2_1a"
  top: "conv2_1b"
  param {
    lr_mult: 1
  }
  param {
    lr_mult: 2
  }
  convolution_param {
    num_output: 8
    pad: 1
    kernel_size: 3
    stride: 1
    weight_filler {
      type: "msra"
    }
    bias_filler {
      type: "constant"
      value: 0
    }
  }
}
layer {
  name: "bn_conv2_1b"
  type: "BatchNorm"
  bottom: "conv2_1b"
  top: "conv2_1b"
  param {
    lr_mult: 0
  }
  param {
    lr_mult: 0
  }
  param {
    lr_mult: 0
  }
}
layer {
  name: "scale_conv2_1b"
  type: "Scale"
  bottom: "conv2_1b"
  top: "conv2_1b"
  param {
    lr_mult: 1
  }
  param {
    lr_mult: 2
  }
  scale_param {
    bias_term: true
  }
}
layer {
  name: "conv2_1b_relu"
  type: "ReLU"
  bottom: "conv2_1b"
  top: "conv2_1b"
}
layer {
  name: "conv2_down"
  type: "Convolution"
  bottom: "conv2_1b"
  top: "conv2_down"
  param {
    lr_mult: 0
  }
  convolution_param {
    num_output: 128
    bias_term: false
    pad: 0
    kernel_size: 4
    stride: 4
    weight_filler {
      type: "downsample"
      value: 0.4
    }
  }
}
layer {
  name: "scale_conv2_down"
  type: "Scale"
  bottom: "conv2_down"
  top: "conv2_down"
  param {
    lr_mult: 1
  }
  param {
    lr_mult: 2
  }
  scale_param {
    filler {
      type: "constant"
      value: 0
    }
    bias_term: true
  }
}
layer {
  name: "conv3_1a"
  type: "Convolution"
  bottom: "conv2_1b"
  top: "conv3_1a"
  param {
    lr_mult: 1
  }
  param {
    lr_mult: 2
  }
  convolution_param {
    num_output: 32
    pad: 0
    kernel_size: 1
    stride: 2
    weight_filler {
      type: "msra"
    }
    bias_filler {
      type: "constant"
      value: 0
    }
  }
}
layer {
  name: "bn_conv3_1a"
  type: "BatchNorm"
  bottom: "conv3_1a"
  top: "conv3_1a"
  param {
    lr_mult: 0
  }
  param {
    lr_mult: 0
  }
  param {
    lr_mult: 0
  }
}
layer {
  name: "scale_conv3_1a"
  type: "Scale"
  bottom: "conv3_1a"
  top: "conv3_1a"
  param {
    lr_mult: 1
  }
  param {
    lr_mult: 2
  }
  scale_param {
    bias_term: true
  }
}
layer {
  name: "conv3_1a_relu"
  type: "ReLU"
  bottom: "conv3_1a"
  top: "conv3_1a"
}
layer {
  name: "conv3_1b"
  type: "Convolution"
  bottom: "conv3_1a"
  top: "conv3_1b"
  param {
    lr_mult: 2
  }
  param {
    lr_mult: 2
  }
  convolution_param {
    num_output: 32
    pad: 1
    kernel_size: 3
    stride: 1
    weight_filler {
      type: "msra"
    }
    bias_filler {
      type: "constant"
      value: 0
    }
  }
}
layer {
  name: "bn_conv3_1b"
  type: "BatchNorm"
  bottom: "conv3_1b"
  top: "conv3_1b"
  param {
    lr_mult: 0
  }
  param {
    lr_mult: 0
  }
  param {
    lr_mult: 0
  }
}
layer {
  name: "scale_conv3_1b"
  type: "Scale"
  bottom: "conv3_1b"
  top: "conv3_1b"
  param {
    lr_mult: 1
  }
  param {
    lr_mult: 2
  }
  scale_param {
    bias_term: true
  }
}
layer {
  name: "conv3_1b_relu"
  type: "ReLU"
  bottom: "conv3_1b"
  top: "conv3_1b"
}
layer {
  name: "conv3_down"
  type: "Convolution"
  bottom: "conv3_1b"
  top: "conv3_down"
  param {
    lr_mult: 0
  }
  convolution_param {
    num_output: 128
    bias_term: false
    pad: 0
    kernel_size: 2
    stride: 2
    weight_filler {
      type: "downsample"
      value: 0.4
    }
  }
}
layer {
  name: "scale_conv3_down"
  type: "Scale"
  bottom: "conv3_down"
  top: "conv3_down"
  param {
    lr_mult: 1
  }
  param {
    lr_mult: 2
  }
  scale_param {
    filler {
      type: "constant"
      value: 0
    }
    bias_term: true
  }
}
layer {
  name: "conv4_1a"
  type: "Convolution"
  bottom: "conv3_1b"
  top: "conv4_1a"
  param {
    lr_mult: 1
  }
  param {
    lr_mult: 2
  }
  convolution_param {
    num_output: 128
    pad: 0
    kernel_size: 1
    stride: 2
    weight_filler {
      type: "msra"
    }
    bias_filler {
      type: "constant"
      value: 0
    }
  }
}
layer {
  name: "bn_conv4_1a"
  type: "BatchNorm"
  bottom: "conv4_1a"
  top: "conv4_1a"
  param {
    lr_mult: 0
  }
  param {
    lr_mult: 0
  }
  param {
    lr_mult: 0
  }
}
layer {
  name: "scale_conv4_1a"
  type: "Scale"
  bottom: "conv4_1a"
  top: "conv4_1a"
  param {
    lr_mult: 1
  }
  param {
    lr_mult: 2
  }
  scale_param {
    bias_term: true
  }
}
layer {
  name: "conv4_1a_relu"
  type: "ReLU"
  bottom: "conv4_1a"
  top: "conv4_1a"
}
layer {
  name: "conv4_1b"
  type: "Convolution"
  bottom: "conv4_1a"
  top: "conv4_1b"
  param {
    lr_mult: 1
  }
  param {
    lr_mult: 2
  }
  convolution_param {
    num_output: 128
    pad: 1
    kernel_size: 3
    stride: 1
    weight_filler {
      type: "msra"
    }
    bias_filler {
      type: "constant"
      value: 0
    }
  }
}
layer {
  name: "bn_conv4_1b"
  type: "BatchNorm"
  bottom: "conv4_1b"
  top: "conv4_1b"
  param {
    lr_mult: 0
  }
  param {
    lr_mult: 0
  }
  param {
    lr_mult: 0
  }
}
layer {
  name: "scale_conv4_1b"
  type: "Scale"
  bottom: "conv4_1b"
  top: "conv4_1b"
  param {
    lr_mult: 1
  }
  param {
    lr_mult: 2
  }
  scale_param {
    bias_term: true
  }
}
layer {
  name: "conv4_1b_relu"
  type: "ReLU"
  bottom: "conv4_1b"
  top: "conv4_1b"
}
layer {
  name: "global_in"
  type: "Eltwise"
  bottom: "conv1_down"
  bottom: "conv2_down"
  bottom: "conv3_down"
  bottom: "conv4_1b"
  top: "global_in"
}
layer {
  name: "global_pool"
  type: "Pooling"
  bottom: "global_in"
  top: "global_pool"
  pooling_param {
    pool: MAX
    kernel_size: 8
  }
}
layer {
  name: "ip"
  type: "InnerProduct"
  bottom: "global_pool"
  top: "ip"
  param {
    lr_mult: 1
  }
  param {
    lr_mult: 2
  }
  inner_product_param {
    num_output: 10
  }
}
layer {
  name: "accuracy"
  type: "Accuracy"
  bottom: "ip"
  bottom: "label"
  top: "accuracy"
}
layer {
  name: "loss"
  type: "SoftmaxWithLoss"
  bottom: "ip"
  bottom: "label"
  top: "loss"
}
I0410 21:41:39.110780  7005 layer_factory.hpp:77] Creating layer data
I0410 21:41:39.111213  7005 net.cpp:91] Creating Layer data
I0410 21:41:39.111224  7005 net.cpp:399] data -> data
I0410 21:41:39.111235  7005 net.cpp:399] data -> label
I0410 21:41:39.111244  7005 data_transformer.cpp:25] Loading mean file from: /home/liangjiang/code/residual_network/data/cifar10/mean.binaryproto
I0410 21:41:39.112668  7093 db_lmdb.cpp:38] Opened lmdb /home/liangjiang/code/residual_network/data/cifar10/cifar10_test_lmdb
I0410 21:41:39.112859  7005 data_layer.cpp:41] output data size: 32,3,32,32
I0410 21:41:39.114003  7005 net.cpp:141] Setting up data
I0410 21:41:39.114022  7005 net.cpp:148] Top shape: 32 3 32 32 (98304)
I0410 21:41:39.114028  7005 net.cpp:148] Top shape: 32 (32)
I0410 21:41:39.114032  7005 net.cpp:156] Memory required for data: 393344
I0410 21:41:39.114038  7005 layer_factory.hpp:77] Creating layer label_data_1_split
I0410 21:41:39.114090  7005 net.cpp:91] Creating Layer label_data_1_split
I0410 21:41:39.114117  7005 net.cpp:425] label_data_1_split <- label
I0410 21:41:39.114137  7005 net.cpp:399] label_data_1_split -> label_data_1_split_0
I0410 21:41:39.114154  7005 net.cpp:399] label_data_1_split -> label_data_1_split_1
I0410 21:41:39.114321  7005 net.cpp:141] Setting up label_data_1_split
I0410 21:41:39.114338  7005 net.cpp:148] Top shape: 32 (32)
I0410 21:41:39.114346  7005 net.cpp:148] Top shape: 32 (32)
I0410 21:41:39.114361  7005 net.cpp:156] Memory required for data: 393600
I0410 21:41:39.114368  7005 layer_factory.hpp:77] Creating layer conv1
I0410 21:41:39.114390  7005 net.cpp:91] Creating Layer conv1
I0410 21:41:39.114398  7005 net.cpp:425] conv1 <- data
I0410 21:41:39.114410  7005 net.cpp:399] conv1 -> conv1
I0410 21:41:39.116657  7005 net.cpp:141] Setting up conv1
I0410 21:41:39.116703  7005 net.cpp:148] Top shape: 32 8 32 32 (262144)
I0410 21:41:39.116716  7005 net.cpp:156] Memory required for data: 1442176
I0410 21:41:39.116744  7005 layer_factory.hpp:77] Creating layer bn_conv1
I0410 21:41:39.116768  7005 net.cpp:91] Creating Layer bn_conv1
I0410 21:41:39.116780  7005 net.cpp:425] bn_conv1 <- conv1
I0410 21:41:39.116799  7005 net.cpp:386] bn_conv1 -> conv1 (in-place)
I0410 21:41:39.117296  7005 net.cpp:141] Setting up bn_conv1
I0410 21:41:39.117326  7005 net.cpp:148] Top shape: 32 8 32 32 (262144)
I0410 21:41:39.117337  7005 net.cpp:156] Memory required for data: 2490752
I0410 21:41:39.117367  7005 layer_factory.hpp:77] Creating layer scale_conv1
I0410 21:41:39.117390  7005 net.cpp:91] Creating Layer scale_conv1
I0410 21:41:39.117403  7005 net.cpp:425] scale_conv1 <- conv1
I0410 21:41:39.117421  7005 net.cpp:386] scale_conv1 -> conv1 (in-place)
I0410 21:41:39.117533  7005 layer_factory.hpp:77] Creating layer scale_conv1
I0410 21:41:39.117785  7005 net.cpp:141] Setting up scale_conv1
I0410 21:41:39.117806  7005 net.cpp:148] Top shape: 32 8 32 32 (262144)
I0410 21:41:39.117816  7005 net.cpp:156] Memory required for data: 3539328
I0410 21:41:39.117833  7005 layer_factory.hpp:77] Creating layer conv1_relu
I0410 21:41:39.117851  7005 net.cpp:91] Creating Layer conv1_relu
I0410 21:41:39.117862  7005 net.cpp:425] conv1_relu <- conv1
I0410 21:41:39.117879  7005 net.cpp:386] conv1_relu -> conv1 (in-place)
I0410 21:41:39.118510  7005 net.cpp:141] Setting up conv1_relu
I0410 21:41:39.118541  7005 net.cpp:148] Top shape: 32 8 32 32 (262144)
I0410 21:41:39.118552  7005 net.cpp:156] Memory required for data: 4587904
I0410 21:41:39.118566  7005 layer_factory.hpp:77] Creating layer conv1_conv1_relu_0_split
I0410 21:41:39.118583  7005 net.cpp:91] Creating Layer conv1_conv1_relu_0_split
I0410 21:41:39.118597  7005 net.cpp:425] conv1_conv1_relu_0_split <- conv1
I0410 21:41:39.118621  7005 net.cpp:399] conv1_conv1_relu_0_split -> conv1_conv1_relu_0_split_0
I0410 21:41:39.118643  7005 net.cpp:399] conv1_conv1_relu_0_split -> conv1_conv1_relu_0_split_1
I0410 21:41:39.118762  7005 net.cpp:141] Setting up conv1_conv1_relu_0_split
I0410 21:41:39.118785  7005 net.cpp:148] Top shape: 32 8 32 32 (262144)
I0410 21:41:39.118798  7005 net.cpp:148] Top shape: 32 8 32 32 (262144)
I0410 21:41:39.118809  7005 net.cpp:156] Memory required for data: 6685056
I0410 21:41:39.118829  7005 layer_factory.hpp:77] Creating layer conv1_down
I0410 21:41:39.118854  7005 net.cpp:91] Creating Layer conv1_down
I0410 21:41:39.118871  7005 net.cpp:425] conv1_down <- conv1_conv1_relu_0_split_0
I0410 21:41:39.118892  7005 net.cpp:399] conv1_down -> conv1_down
I0410 21:41:39.120954  7005 net.cpp:141] Setting up conv1_down
I0410 21:41:39.120986  7005 net.cpp:148] Top shape: 32 128 8 8 (262144)
I0410 21:41:39.120998  7005 net.cpp:156] Memory required for data: 7733632
I0410 21:41:39.121014  7005 layer_factory.hpp:77] Creating layer scale_conv1_down
I0410 21:41:39.121042  7005 net.cpp:91] Creating Layer scale_conv1_down
I0410 21:41:39.121054  7005 net.cpp:425] scale_conv1_down <- conv1_down
I0410 21:41:39.121073  7005 net.cpp:386] scale_conv1_down -> conv1_down (in-place)
I0410 21:41:39.121206  7005 layer_factory.hpp:77] Creating layer scale_conv1_down
I0410 21:41:39.121461  7005 net.cpp:141] Setting up scale_conv1_down
I0410 21:41:39.121481  7005 net.cpp:148] Top shape: 32 128 8 8 (262144)
I0410 21:41:39.121491  7005 net.cpp:156] Memory required for data: 8782208
I0410 21:41:39.121515  7005 layer_factory.hpp:77] Creating layer conv2_1a
I0410 21:41:39.121541  7005 net.cpp:91] Creating Layer conv2_1a
I0410 21:41:39.121553  7005 net.cpp:425] conv2_1a <- conv1_conv1_relu_0_split_1
I0410 21:41:39.121585  7005 net.cpp:399] conv2_1a -> conv2_1a
I0410 21:41:39.123720  7005 net.cpp:141] Setting up conv2_1a
I0410 21:41:39.123754  7005 net.cpp:148] Top shape: 32 8 32 32 (262144)
I0410 21:41:39.123766  7005 net.cpp:156] Memory required for data: 9830784
I0410 21:41:39.123785  7005 layer_factory.hpp:77] Creating layer bn_conv2_1a
I0410 21:41:39.123806  7005 net.cpp:91] Creating Layer bn_conv2_1a
I0410 21:41:39.123819  7005 net.cpp:425] bn_conv2_1a <- conv2_1a
I0410 21:41:39.123836  7005 net.cpp:386] bn_conv2_1a -> conv2_1a (in-place)
I0410 21:41:39.124270  7005 net.cpp:141] Setting up bn_conv2_1a
I0410 21:41:39.124290  7005 net.cpp:148] Top shape: 32 8 32 32 (262144)
I0410 21:41:39.124300  7005 net.cpp:156] Memory required for data: 10879360
I0410 21:41:39.124320  7005 layer_factory.hpp:77] Creating layer scale_conv2_1a
I0410 21:41:39.124341  7005 net.cpp:91] Creating Layer scale_conv2_1a
I0410 21:41:39.124353  7005 net.cpp:425] scale_conv2_1a <- conv2_1a
I0410 21:41:39.124368  7005 net.cpp:386] scale_conv2_1a -> conv2_1a (in-place)
I0410 21:41:39.124459  7005 layer_factory.hpp:77] Creating layer scale_conv2_1a
I0410 21:41:39.124708  7005 net.cpp:141] Setting up scale_conv2_1a
I0410 21:41:39.124727  7005 net.cpp:148] Top shape: 32 8 32 32 (262144)
I0410 21:41:39.124737  7005 net.cpp:156] Memory required for data: 11927936
I0410 21:41:39.124760  7005 layer_factory.hpp:77] Creating layer conv2_1a_relu
I0410 21:41:39.124779  7005 net.cpp:91] Creating Layer conv2_1a_relu
I0410 21:41:39.124790  7005 net.cpp:425] conv2_1a_relu <- conv2_1a
I0410 21:41:39.124805  7005 net.cpp:386] conv2_1a_relu -> conv2_1a (in-place)
I0410 21:41:39.125216  7005 net.cpp:141] Setting up conv2_1a_relu
I0410 21:41:39.125243  7005 net.cpp:148] Top shape: 32 8 32 32 (262144)
I0410 21:41:39.125254  7005 net.cpp:156] Memory required for data: 12976512
I0410 21:41:39.125265  7005 layer_factory.hpp:77] Creating layer conv2_1b
I0410 21:41:39.125293  7005 net.cpp:91] Creating Layer conv2_1b
I0410 21:41:39.125304  7005 net.cpp:425] conv2_1b <- conv2_1a
I0410 21:41:39.125325  7005 net.cpp:399] conv2_1b -> conv2_1b
I0410 21:41:39.127485  7005 net.cpp:141] Setting up conv2_1b
I0410 21:41:39.127516  7005 net.cpp:148] Top shape: 32 8 32 32 (262144)
I0410 21:41:39.127528  7005 net.cpp:156] Memory required for data: 14025088
I0410 21:41:39.127547  7005 layer_factory.hpp:77] Creating layer bn_conv2_1b
I0410 21:41:39.127568  7005 net.cpp:91] Creating Layer bn_conv2_1b
I0410 21:41:39.127580  7005 net.cpp:425] bn_conv2_1b <- conv2_1b
I0410 21:41:39.127599  7005 net.cpp:386] bn_conv2_1b -> conv2_1b (in-place)
I0410 21:41:39.128034  7005 net.cpp:141] Setting up bn_conv2_1b
I0410 21:41:39.128054  7005 net.cpp:148] Top shape: 32 8 32 32 (262144)
I0410 21:41:39.128065  7005 net.cpp:156] Memory required for data: 15073664
I0410 21:41:39.128084  7005 layer_factory.hpp:77] Creating layer scale_conv2_1b
I0410 21:41:39.128105  7005 net.cpp:91] Creating Layer scale_conv2_1b
I0410 21:41:39.128116  7005 net.cpp:425] scale_conv2_1b <- conv2_1b
I0410 21:41:39.128131  7005 net.cpp:386] scale_conv2_1b -> conv2_1b (in-place)
I0410 21:41:39.128227  7005 layer_factory.hpp:77] Creating layer scale_conv2_1b
I0410 21:41:39.128475  7005 net.cpp:141] Setting up scale_conv2_1b
I0410 21:41:39.128494  7005 net.cpp:148] Top shape: 32 8 32 32 (262144)
I0410 21:41:39.128504  7005 net.cpp:156] Memory required for data: 16122240
I0410 21:41:39.128520  7005 layer_factory.hpp:77] Creating layer conv2_1b_relu
I0410 21:41:39.128541  7005 net.cpp:91] Creating Layer conv2_1b_relu
I0410 21:41:39.128553  7005 net.cpp:425] conv2_1b_relu <- conv2_1b
I0410 21:41:39.128567  7005 net.cpp:386] conv2_1b_relu -> conv2_1b (in-place)
I0410 21:41:39.128962  7005 net.cpp:141] Setting up conv2_1b_relu
I0410 21:41:39.128985  7005 net.cpp:148] Top shape: 32 8 32 32 (262144)
I0410 21:41:39.128996  7005 net.cpp:156] Memory required for data: 17170816
I0410 21:41:39.129007  7005 layer_factory.hpp:77] Creating layer conv2_1b_conv2_1b_relu_0_split
I0410 21:41:39.129022  7005 net.cpp:91] Creating Layer conv2_1b_conv2_1b_relu_0_split
I0410 21:41:39.129042  7005 net.cpp:425] conv2_1b_conv2_1b_relu_0_split <- conv2_1b
I0410 21:41:39.129062  7005 net.cpp:399] conv2_1b_conv2_1b_relu_0_split -> conv2_1b_conv2_1b_relu_0_split_0
I0410 21:41:39.129082  7005 net.cpp:399] conv2_1b_conv2_1b_relu_0_split -> conv2_1b_conv2_1b_relu_0_split_1
I0410 21:41:39.129197  7005 net.cpp:141] Setting up conv2_1b_conv2_1b_relu_0_split
I0410 21:41:39.129218  7005 net.cpp:148] Top shape: 32 8 32 32 (262144)
I0410 21:41:39.129231  7005 net.cpp:148] Top shape: 32 8 32 32 (262144)
I0410 21:41:39.129241  7005 net.cpp:156] Memory required for data: 19267968
I0410 21:41:39.129252  7005 layer_factory.hpp:77] Creating layer conv2_down
I0410 21:41:39.129281  7005 net.cpp:91] Creating Layer conv2_down
I0410 21:41:39.129293  7005 net.cpp:425] conv2_down <- conv2_1b_conv2_1b_relu_0_split_0
I0410 21:41:39.129310  7005 net.cpp:399] conv2_down -> conv2_down
I0410 21:41:39.131379  7005 net.cpp:141] Setting up conv2_down
I0410 21:41:39.131409  7005 net.cpp:148] Top shape: 32 128 8 8 (262144)
I0410 21:41:39.131420  7005 net.cpp:156] Memory required for data: 20316544
I0410 21:41:39.131435  7005 layer_factory.hpp:77] Creating layer scale_conv2_down
I0410 21:41:39.131456  7005 net.cpp:91] Creating Layer scale_conv2_down
I0410 21:41:39.131467  7005 net.cpp:425] scale_conv2_down <- conv2_down
I0410 21:41:39.131484  7005 net.cpp:386] scale_conv2_down -> conv2_down (in-place)
I0410 21:41:39.131580  7005 layer_factory.hpp:77] Creating layer scale_conv2_down
I0410 21:41:39.131815  7005 net.cpp:141] Setting up scale_conv2_down
I0410 21:41:39.131832  7005 net.cpp:148] Top shape: 32 128 8 8 (262144)
I0410 21:41:39.131842  7005 net.cpp:156] Memory required for data: 21365120
I0410 21:41:39.131858  7005 layer_factory.hpp:77] Creating layer conv3_1a
I0410 21:41:39.131882  7005 net.cpp:91] Creating Layer conv3_1a
I0410 21:41:39.131894  7005 net.cpp:425] conv3_1a <- conv2_1b_conv2_1b_relu_0_split_1
I0410 21:41:39.131913  7005 net.cpp:399] conv3_1a -> conv3_1a
I0410 21:41:39.133937  7005 net.cpp:141] Setting up conv3_1a
I0410 21:41:39.133968  7005 net.cpp:148] Top shape: 32 32 16 16 (262144)
I0410 21:41:39.133980  7005 net.cpp:156] Memory required for data: 22413696
I0410 21:41:39.133997  7005 layer_factory.hpp:77] Creating layer bn_conv3_1a
I0410 21:41:39.134023  7005 net.cpp:91] Creating Layer bn_conv3_1a
I0410 21:41:39.134035  7005 net.cpp:425] bn_conv3_1a <- conv3_1a
I0410 21:41:39.134050  7005 net.cpp:386] bn_conv3_1a -> conv3_1a (in-place)
I0410 21:41:39.134451  7005 net.cpp:141] Setting up bn_conv3_1a
I0410 21:41:39.134469  7005 net.cpp:148] Top shape: 32 32 16 16 (262144)
I0410 21:41:39.134479  7005 net.cpp:156] Memory required for data: 23462272
I0410 21:41:39.134497  7005 layer_factory.hpp:77] Creating layer scale_conv3_1a
I0410 21:41:39.134515  7005 net.cpp:91] Creating Layer scale_conv3_1a
I0410 21:41:39.134524  7005 net.cpp:425] scale_conv3_1a <- conv3_1a
I0410 21:41:39.134541  7005 net.cpp:386] scale_conv3_1a -> conv3_1a (in-place)
I0410 21:41:39.134625  7005 layer_factory.hpp:77] Creating layer scale_conv3_1a
I0410 21:41:39.134861  7005 net.cpp:141] Setting up scale_conv3_1a
I0410 21:41:39.134879  7005 net.cpp:148] Top shape: 32 32 16 16 (262144)
I0410 21:41:39.134888  7005 net.cpp:156] Memory required for data: 24510848
I0410 21:41:39.134915  7005 layer_factory.hpp:77] Creating layer conv3_1a_relu
I0410 21:41:39.134932  7005 net.cpp:91] Creating Layer conv3_1a_relu
I0410 21:41:39.134941  7005 net.cpp:425] conv3_1a_relu <- conv3_1a
I0410 21:41:39.134958  7005 net.cpp:386] conv3_1a_relu -> conv3_1a (in-place)
I0410 21:41:39.135501  7005 net.cpp:141] Setting up conv3_1a_relu
I0410 21:41:39.135529  7005 net.cpp:148] Top shape: 32 32 16 16 (262144)
I0410 21:41:39.135540  7005 net.cpp:156] Memory required for data: 25559424
I0410 21:41:39.135550  7005 layer_factory.hpp:77] Creating layer conv3_1b
I0410 21:41:39.135576  7005 net.cpp:91] Creating Layer conv3_1b
I0410 21:41:39.135587  7005 net.cpp:425] conv3_1b <- conv3_1a
I0410 21:41:39.135607  7005 net.cpp:399] conv3_1b -> conv3_1b
I0410 21:41:39.138030  7005 net.cpp:141] Setting up conv3_1b
I0410 21:41:39.138061  7005 net.cpp:148] Top shape: 32 32 16 16 (262144)
I0410 21:41:39.138072  7005 net.cpp:156] Memory required for data: 26608000
I0410 21:41:39.138088  7005 layer_factory.hpp:77] Creating layer bn_conv3_1b
I0410 21:41:39.138113  7005 net.cpp:91] Creating Layer bn_conv3_1b
I0410 21:41:39.138124  7005 net.cpp:425] bn_conv3_1b <- conv3_1b
I0410 21:41:39.138142  7005 net.cpp:386] bn_conv3_1b -> conv3_1b (in-place)
I0410 21:41:39.138563  7005 net.cpp:141] Setting up bn_conv3_1b
I0410 21:41:39.138581  7005 net.cpp:148] Top shape: 32 32 16 16 (262144)
I0410 21:41:39.138591  7005 net.cpp:156] Memory required for data: 27656576
I0410 21:41:39.138608  7005 layer_factory.hpp:77] Creating layer scale_conv3_1b
I0410 21:41:39.138633  7005 net.cpp:91] Creating Layer scale_conv3_1b
I0410 21:41:39.138643  7005 net.cpp:425] scale_conv3_1b <- conv3_1b
I0410 21:41:39.138658  7005 net.cpp:386] scale_conv3_1b -> conv3_1b (in-place)
I0410 21:41:39.138746  7005 layer_factory.hpp:77] Creating layer scale_conv3_1b
I0410 21:41:39.138985  7005 net.cpp:141] Setting up scale_conv3_1b
I0410 21:41:39.139003  7005 net.cpp:148] Top shape: 32 32 16 16 (262144)
I0410 21:41:39.139013  7005 net.cpp:156] Memory required for data: 28705152
I0410 21:41:39.139027  7005 layer_factory.hpp:77] Creating layer conv3_1b_relu
I0410 21:41:39.139045  7005 net.cpp:91] Creating Layer conv3_1b_relu
I0410 21:41:39.139056  7005 net.cpp:425] conv3_1b_relu <- conv3_1b
I0410 21:41:39.139070  7005 net.cpp:386] conv3_1b_relu -> conv3_1b (in-place)
I0410 21:41:39.139616  7005 net.cpp:141] Setting up conv3_1b_relu
I0410 21:41:39.139643  7005 net.cpp:148] Top shape: 32 32 16 16 (262144)
I0410 21:41:39.139653  7005 net.cpp:156] Memory required for data: 29753728
I0410 21:41:39.139664  7005 layer_factory.hpp:77] Creating layer conv3_1b_conv3_1b_relu_0_split
I0410 21:41:39.139684  7005 net.cpp:91] Creating Layer conv3_1b_conv3_1b_relu_0_split
I0410 21:41:39.139696  7005 net.cpp:425] conv3_1b_conv3_1b_relu_0_split <- conv3_1b
I0410 21:41:39.139710  7005 net.cpp:399] conv3_1b_conv3_1b_relu_0_split -> conv3_1b_conv3_1b_relu_0_split_0
I0410 21:41:39.139729  7005 net.cpp:399] conv3_1b_conv3_1b_relu_0_split -> conv3_1b_conv3_1b_relu_0_split_1
I0410 21:41:39.139816  7005 net.cpp:141] Setting up conv3_1b_conv3_1b_relu_0_split
I0410 21:41:39.139832  7005 net.cpp:148] Top shape: 32 32 16 16 (262144)
I0410 21:41:39.139845  7005 net.cpp:148] Top shape: 32 32 16 16 (262144)
I0410 21:41:39.139855  7005 net.cpp:156] Memory required for data: 31850880
I0410 21:41:39.139865  7005 layer_factory.hpp:77] Creating layer conv3_down
I0410 21:41:39.139888  7005 net.cpp:91] Creating Layer conv3_down
I0410 21:41:39.139899  7005 net.cpp:425] conv3_down <- conv3_1b_conv3_1b_relu_0_split_0
I0410 21:41:39.139917  7005 net.cpp:399] conv3_down -> conv3_down
I0410 21:41:39.141814  7005 net.cpp:141] Setting up conv3_down
I0410 21:41:39.141844  7005 net.cpp:148] Top shape: 32 128 8 8 (262144)
I0410 21:41:39.141855  7005 net.cpp:156] Memory required for data: 32899456
I0410 21:41:39.141868  7005 layer_factory.hpp:77] Creating layer scale_conv3_down
I0410 21:41:39.141888  7005 net.cpp:91] Creating Layer scale_conv3_down
I0410 21:41:39.141899  7005 net.cpp:425] scale_conv3_down <- conv3_down
I0410 21:41:39.141916  7005 net.cpp:386] scale_conv3_down -> conv3_down (in-place)
I0410 21:41:39.142009  7005 layer_factory.hpp:77] Creating layer scale_conv3_down
I0410 21:41:39.142235  7005 net.cpp:141] Setting up scale_conv3_down
I0410 21:41:39.142252  7005 net.cpp:148] Top shape: 32 128 8 8 (262144)
I0410 21:41:39.142261  7005 net.cpp:156] Memory required for data: 33948032
I0410 21:41:39.142277  7005 layer_factory.hpp:77] Creating layer conv4_1a
I0410 21:41:39.142302  7005 net.cpp:91] Creating Layer conv4_1a
I0410 21:41:39.142313  7005 net.cpp:425] conv4_1a <- conv3_1b_conv3_1b_relu_0_split_1
I0410 21:41:39.142328  7005 net.cpp:399] conv4_1a -> conv4_1a
I0410 21:41:39.144421  7005 net.cpp:141] Setting up conv4_1a
I0410 21:41:39.144456  7005 net.cpp:148] Top shape: 32 128 8 8 (262144)
I0410 21:41:39.144467  7005 net.cpp:156] Memory required for data: 34996608
I0410 21:41:39.144484  7005 layer_factory.hpp:77] Creating layer bn_conv4_1a
I0410 21:41:39.144510  7005 net.cpp:91] Creating Layer bn_conv4_1a
I0410 21:41:39.144520  7005 net.cpp:425] bn_conv4_1a <- conv4_1a
I0410 21:41:39.144536  7005 net.cpp:386] bn_conv4_1a -> conv4_1a (in-place)
I0410 21:41:39.144912  7005 net.cpp:141] Setting up bn_conv4_1a
I0410 21:41:39.144928  7005 net.cpp:148] Top shape: 32 128 8 8 (262144)
I0410 21:41:39.144937  7005 net.cpp:156] Memory required for data: 36045184
I0410 21:41:39.144954  7005 layer_factory.hpp:77] Creating layer scale_conv4_1a
I0410 21:41:39.144975  7005 net.cpp:91] Creating Layer scale_conv4_1a
I0410 21:41:39.144986  7005 net.cpp:425] scale_conv4_1a <- conv4_1a
I0410 21:41:39.144999  7005 net.cpp:386] scale_conv4_1a -> conv4_1a (in-place)
I0410 21:41:39.145083  7005 layer_factory.hpp:77] Creating layer scale_conv4_1a
I0410 21:41:39.145311  7005 net.cpp:141] Setting up scale_conv4_1a
I0410 21:41:39.145330  7005 net.cpp:148] Top shape: 32 128 8 8 (262144)
I0410 21:41:39.145339  7005 net.cpp:156] Memory required for data: 37093760
I0410 21:41:39.145354  7005 layer_factory.hpp:77] Creating layer conv4_1a_relu
I0410 21:41:39.145370  7005 net.cpp:91] Creating Layer conv4_1a_relu
I0410 21:41:39.145380  7005 net.cpp:425] conv4_1a_relu <- conv4_1a
I0410 21:41:39.145391  7005 net.cpp:386] conv4_1a_relu -> conv4_1a (in-place)
I0410 21:41:39.145731  7005 net.cpp:141] Setting up conv4_1a_relu
I0410 21:41:39.145752  7005 net.cpp:148] Top shape: 32 128 8 8 (262144)
I0410 21:41:39.145761  7005 net.cpp:156] Memory required for data: 38142336
I0410 21:41:39.145771  7005 layer_factory.hpp:77] Creating layer conv4_1b
I0410 21:41:39.145794  7005 net.cpp:91] Creating Layer conv4_1b
I0410 21:41:39.145805  7005 net.cpp:425] conv4_1b <- conv4_1a
I0410 21:41:39.145823  7005 net.cpp:399] conv4_1b -> conv4_1b
I0410 21:41:39.157042  7005 net.cpp:141] Setting up conv4_1b
I0410 21:41:39.157073  7005 net.cpp:148] Top shape: 32 128 8 8 (262144)
I0410 21:41:39.157083  7005 net.cpp:156] Memory required for data: 39190912
I0410 21:41:39.157097  7005 layer_factory.hpp:77] Creating layer bn_conv4_1b
I0410 21:41:39.157122  7005 net.cpp:91] Creating Layer bn_conv4_1b
I0410 21:41:39.157135  7005 net.cpp:425] bn_conv4_1b <- conv4_1b
I0410 21:41:39.157151  7005 net.cpp:386] bn_conv4_1b -> conv4_1b (in-place)
I0410 21:41:39.157513  7005 net.cpp:141] Setting up bn_conv4_1b
I0410 21:41:39.157529  7005 net.cpp:148] Top shape: 32 128 8 8 (262144)
I0410 21:41:39.157538  7005 net.cpp:156] Memory required for data: 40239488
I0410 21:41:39.157554  7005 layer_factory.hpp:77] Creating layer scale_conv4_1b
I0410 21:41:39.157569  7005 net.cpp:91] Creating Layer scale_conv4_1b
I0410 21:41:39.157578  7005 net.cpp:425] scale_conv4_1b <- conv4_1b
I0410 21:41:39.157590  7005 net.cpp:386] scale_conv4_1b -> conv4_1b (in-place)
I0410 21:41:39.157670  7005 layer_factory.hpp:77] Creating layer scale_conv4_1b
I0410 21:41:39.157872  7005 net.cpp:141] Setting up scale_conv4_1b
I0410 21:41:39.157887  7005 net.cpp:148] Top shape: 32 128 8 8 (262144)
I0410 21:41:39.157896  7005 net.cpp:156] Memory required for data: 41288064
I0410 21:41:39.157909  7005 layer_factory.hpp:77] Creating layer conv4_1b_relu
I0410 21:41:39.157923  7005 net.cpp:91] Creating Layer conv4_1b_relu
I0410 21:41:39.157932  7005 net.cpp:425] conv4_1b_relu <- conv4_1b
I0410 21:41:39.157943  7005 net.cpp:386] conv4_1b_relu -> conv4_1b (in-place)
I0410 21:41:39.158268  7005 net.cpp:141] Setting up conv4_1b_relu
I0410 21:41:39.158290  7005 net.cpp:148] Top shape: 32 128 8 8 (262144)
I0410 21:41:39.158300  7005 net.cpp:156] Memory required for data: 42336640
I0410 21:41:39.158309  7005 layer_factory.hpp:77] Creating layer global_in
I0410 21:41:39.158324  7005 net.cpp:91] Creating Layer global_in
I0410 21:41:39.158334  7005 net.cpp:425] global_in <- conv1_down
I0410 21:41:39.158344  7005 net.cpp:425] global_in <- conv2_down
I0410 21:41:39.158354  7005 net.cpp:425] global_in <- conv3_down
I0410 21:41:39.158373  7005 net.cpp:425] global_in <- conv4_1b
I0410 21:41:39.158388  7005 net.cpp:399] global_in -> global_in
I0410 21:41:39.158447  7005 net.cpp:141] Setting up global_in
I0410 21:41:39.158460  7005 net.cpp:148] Top shape: 32 128 8 8 (262144)
I0410 21:41:39.158469  7005 net.cpp:156] Memory required for data: 43385216
I0410 21:41:39.158478  7005 layer_factory.hpp:77] Creating layer global_pool
I0410 21:41:39.158495  7005 net.cpp:91] Creating Layer global_pool
I0410 21:41:39.158504  7005 net.cpp:425] global_pool <- global_in
I0410 21:41:39.158516  7005 net.cpp:399] global_pool -> global_pool
I0410 21:41:39.158594  7005 net.cpp:141] Setting up global_pool
I0410 21:41:39.158608  7005 net.cpp:148] Top shape: 32 128 1 1 (4096)
I0410 21:41:39.158617  7005 net.cpp:156] Memory required for data: 43401600
I0410 21:41:39.158641  7005 layer_factory.hpp:77] Creating layer ip
I0410 21:41:39.158659  7005 net.cpp:91] Creating Layer ip
I0410 21:41:39.158668  7005 net.cpp:425] ip <- global_pool
I0410 21:41:39.158680  7005 net.cpp:399] ip -> ip
I0410 21:41:39.158888  7005 net.cpp:141] Setting up ip
I0410 21:41:39.158903  7005 net.cpp:148] Top shape: 32 10 (320)
I0410 21:41:39.158911  7005 net.cpp:156] Memory required for data: 43402880
I0410 21:41:39.158924  7005 layer_factory.hpp:77] Creating layer ip_ip_0_split
I0410 21:41:39.158937  7005 net.cpp:91] Creating Layer ip_ip_0_split
I0410 21:41:39.158946  7005 net.cpp:425] ip_ip_0_split <- ip
I0410 21:41:39.158958  7005 net.cpp:399] ip_ip_0_split -> ip_ip_0_split_0
I0410 21:41:39.158975  7005 net.cpp:399] ip_ip_0_split -> ip_ip_0_split_1
I0410 21:41:39.159042  7005 net.cpp:141] Setting up ip_ip_0_split
I0410 21:41:39.159055  7005 net.cpp:148] Top shape: 32 10 (320)
I0410 21:41:39.159065  7005 net.cpp:148] Top shape: 32 10 (320)
I0410 21:41:39.159075  7005 net.cpp:156] Memory required for data: 43405440
I0410 21:41:39.159082  7005 layer_factory.hpp:77] Creating layer accuracy
I0410 21:41:39.159098  7005 net.cpp:91] Creating Layer accuracy
I0410 21:41:39.159108  7005 net.cpp:425] accuracy <- ip_ip_0_split_0
I0410 21:41:39.159118  7005 net.cpp:425] accuracy <- label_data_1_split_0
I0410 21:41:39.159131  7005 net.cpp:399] accuracy -> accuracy
…
