…
I0411 16:41:04.746597 28406 net.cpp:313] The NetState phase (0) differed from the phase (1) specified by a rule in layer data
I0411 16:41:04.746789 28406 net.cpp:49] Initializing net from parameters: 
name: "CifarResNet0"
state {
  phase: TRAIN
}
layer {
  name: "data"
  type: "Data"
  top: "data"
  top: "label"
  include {
    phase: TRAIN
  }
  transform_param {
    mean_file: "/home/liangjiang/code/residual_network/data/cifar10/mean.binaryproto"
  }
  data_param {
    source: "/home/liangjiang/code/residual_network/data/cifar10/cifar10_train_lmdb"
    batch_size: 256
    backend: LMDB
  }
}
layer {
  name: "conv1"
  type: "Convolution"
  bottom: "data"
  top: "conv1"
  param {
    lr_mult: 1
  }
  param {
    lr_mult: 2
  }
  convolution_param {
    num_output: 8
    pad: 1
    kernel_size: 3
    stride: 1
    weight_filler {
      type: "msra"
    }
    bias_filler {
      type: "constant"
      value: 0
    }
  }
}
layer {
  name: "bn_conv1"
  type: "BatchNorm"
  bottom: "conv1"
  top: "conv1"
  param {
    lr_mult: 0
  }
  param {
    lr_mult: 0
  }
  param {
    lr_mult: 0
  }
}
layer {
  name: "scale_conv1"
  type: "Scale"
  bottom: "conv1"
  top: "conv1"
  param {
    lr_mult: 1
  }
  param {
    lr_mult: 2
  }
  scale_param {
    bias_term: true
  }
}
layer {
  name: "conv1_relu"
  type: "ReLU"
  bottom: "conv1"
  top: "conv1"
}
layer {
  name: "conv1_down"
  type: "Convolution"
  bottom: "conv1"
  top: "conv1_down"
  param {
    lr_mult: 0
  }
  convolution_param {
    num_output: 128
    bias_term: false
    pad: 0
    kernel_size: 4
    stride: 4
    weight_filler {
      type: "downsample"
      value: 1
    }
  }
}
layer {
  name: "scale_conv1_down"
  type: "Scale"
  bottom: "conv1_down"
  top: "conv1_down"
  param {
    lr_mult: 1
  }
  param {
    lr_mult: 2
  }
  scale_param {
    filler {
      type: "constant"
      value: 1
    }
    bias_term: true
  }
}
layer {
  name: "conv2_1a"
  type: "Convolution"
  bottom: "conv1"
  top: "conv2_1a"
  param {
    lr_mult: 1
  }
  param {
    lr_mult: 2
  }
  convolution_param {
    num_output: 8
    pad: 1
    kernel_size: 3
    stride: 1
    weight_filler {
      type: "msra"
    }
    bias_filler {
      type: "constant"
      value: 0
    }
  }
}
layer {
  name: "bn_conv2_1a"
  type: "BatchNorm"
  bottom: "conv2_1a"
  top: "conv2_1a"
  param {
    lr_mult: 0
  }
  param {
    lr_mult: 0
  }
  param {
    lr_mult: 0
  }
}
layer {
  name: "scale_conv2_1a"
  type: "Scale"
  bottom: "conv2_1a"
  top: "conv2_1a"
  param {
    lr_mult: 1
  }
  param {
    lr_mult: 2
  }
  scale_param {
    bias_term: true
  }
}
layer {
  name: "conv2_1a_relu"
  type: "ReLU"
  bottom: "conv2_1a"
  top: "conv2_1a"
}
layer {
  name: "conv2_1b"
  type: "Convolution"
  bottom: "conv2_1a"
  top: "conv2_1b"
  param {
    lr_mult: 1
  }
  param {
    lr_mult: 2
  }
  convolution_param {
    num_output: 8
    pad: 1
    kernel_size: 3
    stride: 1
    weight_filler {
      type: "msra"
    }
    bias_filler {
      type: "constant"
      value: 0
    }
  }
}
layer {
  name: "bn_conv2_1b"
  type: "BatchNorm"
  bottom: "conv2_1b"
  top: "conv2_1b"
  param {
    lr_mult: 0
  }
  param {
    lr_mult: 0
  }
  param {
    lr_mult: 0
  }
}
layer {
  name: "scale_conv2_1b"
  type: "Scale"
  bottom: "conv2_1b"
  top: "conv2_1b"
  param {
    lr_mult: 1
  }
  param {
    lr_mult: 2
  }
  scale_param {
    bias_term: true
  }
}
layer {
  name: "conv2_1b_relu"
  type: "ReLU"
  bottom: "conv2_1b"
  top: "conv2_1b"
}
layer {
  name: "conv2_down"
  type: "Convolution"
  bottom: "conv2_1b"
  top: "conv2_down"
  param {
    lr_mult: 0
  }
  convolution_param {
    num_output: 128
    bias_term: false
    pad: 0
    kernel_size: 4
    stride: 4
    weight_filler {
      type: "downsample"
      value: 1
    }
  }
}
layer {
  name: "scale_conv2_down"
  type: "Scale"
  bottom: "conv2_down"
  top: "conv2_down"
  param {
    lr_mult: 1
  }
  param {
    lr_mult: 2
  }
  scale_param {
    filler {
      type: "constant"
      value: 1
    }
    bias_term: true
  }
}
layer {
  name: "global_in"
  type: "Eltwise"
  bottom: "conv1_down"
  bottom: "conv2_down"
  top: "global_in"
}
layer {
  name: "global_pool"
  type: "Pooling"
  bottom: "global_in"
  top: "global_pool"
  pooling_param {
    pool: AVE
    kernel_size: 8
  }
}
layer {
  name: "ip"
  type: "InnerProduct"
  bottom: "global_pool"
  top: "ip"
  param {
    lr_mult: 1
  }
  param {
    lr_mult: 2
  }
  inner_product_param {
    num_output: 10
  }
}
layer {
  name: "accuracy"
  type: "Accuracy"
  bottom: "ip"
  bottom: "label"
  top: "accuracy"
}
layer {
  name: "loss"
  type: "SoftmaxWithLoss"
  bottom: "ip"
  bottom: "label"
  top: "loss"
}
I0411 16:41:04.746963 28406 layer_factory.hpp:77] Creating layer data
I0411 16:41:04.748250 28406 net.cpp:91] Creating Layer data
I0411 16:41:04.748272 28406 net.cpp:399] data -> data
I0411 16:41:04.748292 28406 net.cpp:399] data -> label
I0411 16:41:04.748307 28406 data_transformer.cpp:25] Loading mean file from: /home/liangjiang/code/residual_network/data/cifar10/mean.binaryproto
I0411 16:41:04.752298 28472 db_lmdb.cpp:38] Opened lmdb /home/liangjiang/code/residual_network/data/cifar10/cifar10_train_lmdb
I0411 16:41:04.771783 28406 data_layer.cpp:41] output data size: 256,3,32,32
I0411 16:41:04.778352 28406 net.cpp:141] Setting up data
I0411 16:41:04.778380 28406 net.cpp:148] Top shape: 256 3 32 32 (786432)
I0411 16:41:04.778388 28406 net.cpp:148] Top shape: 256 (256)
I0411 16:41:04.778394 28406 net.cpp:156] Memory required for data: 3146752
I0411 16:41:04.778404 28406 layer_factory.hpp:77] Creating layer label_data_1_split
I0411 16:41:04.778434 28406 net.cpp:91] Creating Layer label_data_1_split
I0411 16:41:04.778441 28406 net.cpp:425] label_data_1_split <- label
I0411 16:41:04.778452 28406 net.cpp:399] label_data_1_split -> label_data_1_split_0
I0411 16:41:04.778467 28406 net.cpp:399] label_data_1_split -> label_data_1_split_1
I0411 16:41:04.778597 28406 net.cpp:141] Setting up label_data_1_split
I0411 16:41:04.778614 28406 net.cpp:148] Top shape: 256 (256)
I0411 16:41:04.778621 28406 net.cpp:148] Top shape: 256 (256)
I0411 16:41:04.778626 28406 net.cpp:156] Memory required for data: 3148800
I0411 16:41:04.778633 28406 layer_factory.hpp:77] Creating layer conv1
I0411 16:41:04.778655 28406 net.cpp:91] Creating Layer conv1
I0411 16:41:04.778661 28406 net.cpp:425] conv1 <- data
I0411 16:41:04.778671 28406 net.cpp:399] conv1 -> conv1
I0411 16:41:04.980718 28406 net.cpp:141] Setting up conv1
I0411 16:41:04.980768 28406 net.cpp:148] Top shape: 256 8 32 32 (2097152)
I0411 16:41:04.980775 28406 net.cpp:156] Memory required for data: 11537408
I0411 16:41:04.980798 28406 layer_factory.hpp:77] Creating layer bn_conv1
I0411 16:41:04.980816 28406 net.cpp:91] Creating Layer bn_conv1
I0411 16:41:04.980825 28406 net.cpp:425] bn_conv1 <- conv1
I0411 16:41:04.980836 28406 net.cpp:386] bn_conv1 -> conv1 (in-place)
I0411 16:41:04.981036 28406 net.cpp:141] Setting up bn_conv1
I0411 16:41:04.981048 28406 net.cpp:148] Top shape: 256 8 32 32 (2097152)
I0411 16:41:04.981055 28406 net.cpp:156] Memory required for data: 19926016
I0411 16:41:04.981070 28406 layer_factory.hpp:77] Creating layer scale_conv1
I0411 16:41:04.981086 28406 net.cpp:91] Creating Layer scale_conv1
I0411 16:41:04.981092 28406 net.cpp:425] scale_conv1 <- conv1
I0411 16:41:04.981101 28406 net.cpp:386] scale_conv1 -> conv1 (in-place)
I0411 16:41:04.981158 28406 layer_factory.hpp:77] Creating layer scale_conv1
I0411 16:41:04.981290 28406 net.cpp:141] Setting up scale_conv1
I0411 16:41:04.981302 28406 net.cpp:148] Top shape: 256 8 32 32 (2097152)
I0411 16:41:04.981308 28406 net.cpp:156] Memory required for data: 28314624
I0411 16:41:04.981317 28406 layer_factory.hpp:77] Creating layer conv1_relu
I0411 16:41:04.981328 28406 net.cpp:91] Creating Layer conv1_relu
I0411 16:41:04.981333 28406 net.cpp:425] conv1_relu <- conv1
I0411 16:41:04.981341 28406 net.cpp:386] conv1_relu -> conv1 (in-place)
I0411 16:41:04.981663 28406 net.cpp:141] Setting up conv1_relu
I0411 16:41:04.981681 28406 net.cpp:148] Top shape: 256 8 32 32 (2097152)
I0411 16:41:04.981688 28406 net.cpp:156] Memory required for data: 36703232
I0411 16:41:04.981694 28406 layer_factory.hpp:77] Creating layer conv1_conv1_relu_0_split
I0411 16:41:04.981704 28406 net.cpp:91] Creating Layer conv1_conv1_relu_0_split
I0411 16:41:04.981710 28406 net.cpp:425] conv1_conv1_relu_0_split <- conv1
I0411 16:41:04.981719 28406 net.cpp:399] conv1_conv1_relu_0_split -> conv1_conv1_relu_0_split_0
I0411 16:41:04.981730 28406 net.cpp:399] conv1_conv1_relu_0_split -> conv1_conv1_relu_0_split_1
I0411 16:41:04.981777 28406 net.cpp:141] Setting up conv1_conv1_relu_0_split
I0411 16:41:04.981787 28406 net.cpp:148] Top shape: 256 8 32 32 (2097152)
I0411 16:41:04.981794 28406 net.cpp:148] Top shape: 256 8 32 32 (2097152)
I0411 16:41:04.981799 28406 net.cpp:156] Memory required for data: 53480448
I0411 16:41:04.981806 28406 layer_factory.hpp:77] Creating layer conv1_down
I0411 16:41:04.981822 28406 net.cpp:91] Creating Layer conv1_down
I0411 16:41:04.981828 28406 net.cpp:425] conv1_down <- conv1_conv1_relu_0_split_0
I0411 16:41:04.981837 28406 net.cpp:399] conv1_down -> conv1_down
I0411 16:41:04.983584 28406 net.cpp:141] Setting up conv1_down
I0411 16:41:04.983644 28406 net.cpp:148] Top shape: 256 128 8 8 (2097152)
I0411 16:41:04.983659 28406 net.cpp:156] Memory required for data: 61869056
I0411 16:41:04.983680 28406 layer_factory.hpp:77] Creating layer scale_conv1_down
I0411 16:41:04.983717 28406 net.cpp:91] Creating Layer scale_conv1_down
I0411 16:41:04.983732 28406 net.cpp:425] scale_conv1_down <- conv1_down
I0411 16:41:04.983752 28406 net.cpp:386] scale_conv1_down -> conv1_down (in-place)
I0411 16:41:04.983908 28406 layer_factory.hpp:77] Creating layer scale_conv1_down
I0411 16:41:04.984150 28406 net.cpp:141] Setting up scale_conv1_down
I0411 16:41:04.984170 28406 net.cpp:148] Top shape: 256 128 8 8 (2097152)
I0411 16:41:04.984181 28406 net.cpp:156] Memory required for data: 70257664
I0411 16:41:04.984218 28406 layer_factory.hpp:77] Creating layer conv2_1a
I0411 16:41:04.984253 28406 net.cpp:91] Creating Layer conv2_1a
I0411 16:41:04.984266 28406 net.cpp:425] conv2_1a <- conv1_conv1_relu_0_split_1
I0411 16:41:04.984284 28406 net.cpp:399] conv2_1a -> conv2_1a
I0411 16:41:04.986562 28406 net.cpp:141] Setting up conv2_1a
I0411 16:41:04.986603 28406 net.cpp:148] Top shape: 256 8 32 32 (2097152)
I0411 16:41:04.986615 28406 net.cpp:156] Memory required for data: 78646272
I0411 16:41:04.986634 28406 layer_factory.hpp:77] Creating layer bn_conv2_1a
I0411 16:41:04.986659 28406 net.cpp:91] Creating Layer bn_conv2_1a
I0411 16:41:04.986670 28406 net.cpp:425] bn_conv2_1a <- conv2_1a
I0411 16:41:04.986687 28406 net.cpp:386] bn_conv2_1a -> conv2_1a (in-place)
I0411 16:41:04.987084 28406 net.cpp:141] Setting up bn_conv2_1a
I0411 16:41:04.987102 28406 net.cpp:148] Top shape: 256 8 32 32 (2097152)
I0411 16:41:04.987113 28406 net.cpp:156] Memory required for data: 87034880
I0411 16:41:04.987133 28406 layer_factory.hpp:77] Creating layer scale_conv2_1a
I0411 16:41:04.987157 28406 net.cpp:91] Creating Layer scale_conv2_1a
I0411 16:41:04.987169 28406 net.cpp:425] scale_conv2_1a <- conv2_1a
I0411 16:41:04.987185 28406 net.cpp:386] scale_conv2_1a -> conv2_1a (in-place)
I0411 16:41:04.987262 28406 layer_factory.hpp:77] Creating layer scale_conv2_1a
I0411 16:41:04.987491 28406 net.cpp:141] Setting up scale_conv2_1a
I0411 16:41:04.987510 28406 net.cpp:148] Top shape: 256 8 32 32 (2097152)
I0411 16:41:04.987520 28406 net.cpp:156] Memory required for data: 95423488
I0411 16:41:04.987548 28406 layer_factory.hpp:77] Creating layer conv2_1a_relu
I0411 16:41:04.987565 28406 net.cpp:91] Creating Layer conv2_1a_relu
I0411 16:41:04.987576 28406 net.cpp:425] conv2_1a_relu <- conv2_1a
I0411 16:41:04.987593 28406 net.cpp:386] conv2_1a_relu -> conv2_1a (in-place)
I0411 16:41:05.001024 28406 net.cpp:141] Setting up conv2_1a_relu
I0411 16:41:05.001066 28406 net.cpp:148] Top shape: 256 8 32 32 (2097152)
I0411 16:41:05.001080 28406 net.cpp:156] Memory required for data: 103812096
I0411 16:41:05.001092 28406 layer_factory.hpp:77] Creating layer conv2_1b
I0411 16:41:05.001139 28406 net.cpp:91] Creating Layer conv2_1b
I0411 16:41:05.001157 28406 net.cpp:425] conv2_1b <- conv2_1a
I0411 16:41:05.001179 28406 net.cpp:399] conv2_1b -> conv2_1b
I0411 16:41:05.011904 28406 net.cpp:141] Setting up conv2_1b
I0411 16:41:05.011945 28406 net.cpp:148] Top shape: 256 8 32 32 (2097152)
I0411 16:41:05.011958 28406 net.cpp:156] Memory required for data: 112200704
I0411 16:41:05.011977 28406 layer_factory.hpp:77] Creating layer bn_conv2_1b
I0411 16:41:05.011996 28406 net.cpp:91] Creating Layer bn_conv2_1b
I0411 16:41:05.012007 28406 net.cpp:425] bn_conv2_1b <- conv2_1b
I0411 16:41:05.012027 28406 net.cpp:386] bn_conv2_1b -> conv2_1b (in-place)
I0411 16:41:05.015252 28406 net.cpp:141] Setting up bn_conv2_1b
I0411 16:41:05.015314 28406 net.cpp:148] Top shape: 256 8 32 32 (2097152)
I0411 16:41:05.015324 28406 net.cpp:156] Memory required for data: 120589312
I0411 16:41:05.015352 28406 layer_factory.hpp:77] Creating layer scale_conv2_1b
I0411 16:41:05.015378 28406 net.cpp:91] Creating Layer scale_conv2_1b
I0411 16:41:05.015390 28406 net.cpp:425] scale_conv2_1b <- conv2_1b
I0411 16:41:05.015408 28406 net.cpp:386] scale_conv2_1b -> conv2_1b (in-place)
I0411 16:41:05.015501 28406 layer_factory.hpp:77] Creating layer scale_conv2_1b
I0411 16:41:05.015853 28406 net.cpp:141] Setting up scale_conv2_1b
I0411 16:41:05.015898 28406 net.cpp:148] Top shape: 256 8 32 32 (2097152)
I0411 16:41:05.015908 28406 net.cpp:156] Memory required for data: 128977920
I0411 16:41:05.015929 28406 layer_factory.hpp:77] Creating layer conv2_1b_relu
I0411 16:41:05.015974 28406 net.cpp:91] Creating Layer conv2_1b_relu
I0411 16:41:05.015996 28406 net.cpp:425] conv2_1b_relu <- conv2_1b
I0411 16:41:05.018638 28406 net.cpp:386] conv2_1b_relu -> conv2_1b (in-place)
I0411 16:41:05.019292 28406 net.cpp:141] Setting up conv2_1b_relu
I0411 16:41:05.019346 28406 net.cpp:148] Top shape: 256 8 32 32 (2097152)
I0411 16:41:05.019374 28406 net.cpp:156] Memory required for data: 137366528
I0411 16:41:05.019390 28406 layer_factory.hpp:77] Creating layer conv2_down
I0411 16:41:05.019438 28406 net.cpp:91] Creating Layer conv2_down
I0411 16:41:05.019474 28406 net.cpp:425] conv2_down <- conv2_1b
I0411 16:41:05.019536 28406 net.cpp:399] conv2_down -> conv2_down
I0411 16:41:05.021773 28406 net.cpp:141] Setting up conv2_down
I0411 16:41:05.021816 28406 net.cpp:148] Top shape: 256 128 8 8 (2097152)
I0411 16:41:05.021827 28406 net.cpp:156] Memory required for data: 145755136
I0411 16:41:05.021845 28406 layer_factory.hpp:77] Creating layer scale_conv2_down
I0411 16:41:05.021872 28406 net.cpp:91] Creating Layer scale_conv2_down
I0411 16:41:05.021883 28406 net.cpp:425] scale_conv2_down <- conv2_down
I0411 16:41:05.021901 28406 net.cpp:386] scale_conv2_down -> conv2_down (in-place)
I0411 16:41:05.021996 28406 layer_factory.hpp:77] Creating layer scale_conv2_down
I0411 16:41:05.022249 28406 net.cpp:141] Setting up scale_conv2_down
I0411 16:41:05.022270 28406 net.cpp:148] Top shape: 256 128 8 8 (2097152)
I0411 16:41:05.022280 28406 net.cpp:156] Memory required for data: 154143744
I0411 16:41:05.022296 28406 layer_factory.hpp:77] Creating layer global_in
I0411 16:41:05.022315 28406 net.cpp:91] Creating Layer global_in
I0411 16:41:05.022326 28406 net.cpp:425] global_in <- conv1_down
I0411 16:41:05.022339 28406 net.cpp:425] global_in <- conv2_down
I0411 16:41:05.022356 28406 net.cpp:399] global_in -> global_in
I0411 16:41:05.022413 28406 net.cpp:141] Setting up global_in
I0411 16:41:05.022429 28406 net.cpp:148] Top shape: 256 128 8 8 (2097152)
I0411 16:41:05.022439 28406 net.cpp:156] Memory required for data: 162532352
I0411 16:41:05.022449 28406 layer_factory.hpp:77] Creating layer global_pool
I0411 16:41:05.022467 28406 net.cpp:91] Creating Layer global_pool
I0411 16:41:05.022478 28406 net.cpp:425] global_pool <- global_in
I0411 16:41:05.022495 28406 net.cpp:399] global_pool -> global_pool
I0411 16:41:05.022896 28406 net.cpp:141] Setting up global_pool
I0411 16:41:05.022919 28406 net.cpp:148] Top shape: 256 128 1 1 (32768)
I0411 16:41:05.022929 28406 net.cpp:156] Memory required for data: 162663424
I0411 16:41:05.022939 28406 layer_factory.hpp:77] Creating layer ip
I0411 16:41:05.022964 28406 net.cpp:91] Creating Layer ip
I0411 16:41:05.022974 28406 net.cpp:425] ip <- global_pool
I0411 16:41:05.022989 28406 net.cpp:399] ip -> ip
I0411 16:41:05.023205 28406 net.cpp:141] Setting up ip
I0411 16:41:05.023221 28406 net.cpp:148] Top shape: 256 10 (2560)
I0411 16:41:05.023231 28406 net.cpp:156] Memory required for data: 162673664
I0411 16:41:05.023247 28406 layer_factory.hpp:77] Creating layer ip_ip_0_split
I0411 16:41:05.023267 28406 net.cpp:91] Creating Layer ip_ip_0_split
I0411 16:41:05.023277 28406 net.cpp:425] ip_ip_0_split <- ip
I0411 16:41:05.023290 28406 net.cpp:399] ip_ip_0_split -> ip_ip_0_split_0
I0411 16:41:05.023308 28406 net.cpp:399] ip_ip_0_split -> ip_ip_0_split_1
I0411 16:41:05.023373 28406 net.cpp:141] Setting up ip_ip_0_split
I0411 16:41:05.023391 28406 net.cpp:148] Top shape: 256 10 (2560)
I0411 16:41:05.023404 28406 net.cpp:148] Top shape: 256 10 (2560)
I0411 16:41:05.023413 28406 net.cpp:156] Memory required for data: 162694144
I0411 16:41:05.023423 28406 layer_factory.hpp:77] Creating layer accuracy
I0411 16:41:05.023444 28406 net.cpp:91] Creating Layer accuracy
I0411 16:41:05.023454 28406 net.cpp:425] accuracy <- ip_ip_0_split_0
I0411 16:41:05.023468 28406 net.cpp:425] accuracy <- label_data_1_split_0
I0411 16:41:05.023481 28406 net.cpp:399] accuracy -> accuracy
…
I0411 16:41:05.026224 28406 net.cpp:313] The NetState phase (1) differed from the phase (0) specified by a rule in layer data
I0411 16:41:05.026540 28406 net.cpp:49] Initializing net from parameters: 
name: "CifarResNet0"
state {
  phase: TEST
}
layer {
  name: "data"
  type: "Data"
  top: "data"
  top: "label"
  include {
    phase: TEST
  }
  transform_param {
    mean_file: "/home/liangjiang/code/residual_network/data/cifar10/mean.binaryproto"
  }
  data_param {
    source: "/home/liangjiang/code/residual_network/data/cifar10/cifar10_test_lmdb"
    batch_size: 32
    backend: LMDB
  }
}
layer {
  name: "conv1"
  type: "Convolution"
  bottom: "data"
  top: "conv1"
  param {
    lr_mult: 1
  }
  param {
    lr_mult: 2
  }
  convolution_param {
    num_output: 8
    pad: 1
    kernel_size: 3
    stride: 1
    weight_filler {
      type: "msra"
    }
    bias_filler {
      type: "constant"
      value: 0
    }
  }
}
layer {
  name: "bn_conv1"
  type: "BatchNorm"
  bottom: "conv1"
  top: "conv1"
  param {
    lr_mult: 0
  }
  param {
    lr_mult: 0
  }
  param {
    lr_mult: 0
  }
}
layer {
  name: "scale_conv1"
  type: "Scale"
  bottom: "conv1"
  top: "conv1"
  param {
    lr_mult: 1
  }
  param {
    lr_mult: 2
  }
  scale_param {
    bias_term: true
  }
}
layer {
  name: "conv1_relu"
  type: "ReLU"
  bottom: "conv1"
  top: "conv1"
}
layer {
  name: "conv1_down"
  type: "Convolution"
  bottom: "conv1"
  top: "conv1_down"
  param {
    lr_mult: 0
  }
  convolution_param {
    num_output: 128
    bias_term: false
    pad: 0
    kernel_size: 4
    stride: 4
    weight_filler {
      type: "downsample"
      value: 1
    }
  }
}
layer {
  name: "scale_conv1_down"
  type: "Scale"
  bottom: "conv1_down"
  top: "conv1_down"
  param {
    lr_mult: 1
  }
  param {
    lr_mult: 2
  }
  scale_param {
    filler {
      type: "constant"
      value: 1
    }
    bias_term: true
  }
}
layer {
  name: "conv2_1a"
  type: "Convolution"
  bottom: "conv1"
  top: "conv2_1a"
  param {
    lr_mult: 1
  }
  param {
    lr_mult: 2
  }
  convolution_param {
    num_output: 8
    pad: 1
    kernel_size: 3
    stride: 1
    weight_filler {
      type: "msra"
    }
    bias_filler {
      type: "constant"
      value: 0
    }
  }
}
layer {
  name: "bn_conv2_1a"
  type: "BatchNorm"
  bottom: "conv2_1a"
  top: "conv2_1a"
  param {
    lr_mult: 0
  }
  param {
    lr_mult: 0
  }
  param {
    lr_mult: 0
  }
}
layer {
  name: "scale_conv2_1a"
  type: "Scale"
  bottom: "conv2_1a"
  top: "conv2_1a"
  param {
    lr_mult: 1
  }
  param {
    lr_mult: 2
  }
  scale_param {
    bias_term: true
  }
}
layer {
  name: "conv2_1a_relu"
  type: "ReLU"
  bottom: "conv2_1a"
  top: "conv2_1a"
}
layer {
  name: "conv2_1b"
  type: "Convolution"
  bottom: "conv2_1a"
  top: "conv2_1b"
  param {
    lr_mult: 1
  }
  param {
    lr_mult: 2
  }
  convolution_param {
    num_output: 8
    pad: 1
    kernel_size: 3
    stride: 1
    weight_filler {
      type: "msra"
    }
    bias_filler {
      type: "constant"
      value: 0
    }
  }
}
layer {
  name: "bn_conv2_1b"
  type: "BatchNorm"
  bottom: "conv2_1b"
  top: "conv2_1b"
  param {
    lr_mult: 0
  }
  param {
    lr_mult: 0
  }
  param {
    lr_mult: 0
  }
}
layer {
  name: "scale_conv2_1b"
  type: "Scale"
  bottom: "conv2_1b"
  top: "conv2_1b"
  param {
    lr_mult: 1
  }
  param {
    lr_mult: 2
  }
  scale_param {
    bias_term: true
  }
}
layer {
  name: "conv2_1b_relu"
  type: "ReLU"
  bottom: "conv2_1b"
  top: "conv2_1b"
}
layer {
  name: "conv2_down"
  type: "Convolution"
  bottom: "conv2_1b"
  top: "conv2_down"
  param {
    lr_mult: 0
  }
  convolution_param {
    num_output: 128
    bias_term: false
    pad: 0
    kernel_size: 4
    stride: 4
    weight_filler {
      type: "downsample"
      value: 1
    }
  }
}
layer {
  name: "scale_conv2_down"
  type: "Scale"
  bottom: "conv2_down"
  top: "conv2_down"
  param {
    lr_mult: 1
  }
  param {
    lr_mult: 2
  }
  scale_param {
    filler {
      type: "constant"
      value: 1
    }
    bias_term: true
  }
}
layer {
  name: "global_in"
  type: "Eltwise"
  bottom: "conv1_down"
  bottom: "conv2_down"
  top: "global_in"
}
layer {
  name: "global_pool"
  type: "Pooling"
  bottom: "global_in"
  top: "global_pool"
  pooling_param {
    pool: AVE
    kernel_size: 8
  }
}
layer {
  name: "ip"
  type: "InnerProduct"
  bottom: "global_pool"
  top: "ip"
  param {
    lr_mult: 1
  }
  param {
    lr_mult: 2
  }
  inner_product_param {
    num_output: 10
  }
}
layer {
  name: "accuracy"
  type: "Accuracy"
  bottom: "ip"
  bottom: "label"
  top: "accuracy"
}
layer {
  name: "loss"
  type: "SoftmaxWithLoss"
  bottom: "ip"
  bottom: "label"
  top: "loss"
}
I0411 16:41:05.026767 28406 layer_factory.hpp:77] Creating layer data
I0411 16:41:05.026908 28406 net.cpp:91] Creating Layer data
I0411 16:41:05.026939 28406 net.cpp:399] data -> data
I0411 16:41:05.026962 28406 net.cpp:399] data -> label
I0411 16:41:05.026981 28406 data_transformer.cpp:25] Loading mean file from: /home/liangjiang/code/residual_network/data/cifar10/mean.binaryproto
I0411 16:41:05.030390 28479 db_lmdb.cpp:38] Opened lmdb /home/liangjiang/code/residual_network/data/cifar10/cifar10_test_lmdb
I0411 16:41:05.030580 28406 data_layer.cpp:41] output data size: 32,3,32,32
I0411 16:41:05.033967 28406 net.cpp:141] Setting up data
I0411 16:41:05.034023 28406 net.cpp:148] Top shape: 32 3 32 32 (98304)
I0411 16:41:05.034054 28406 net.cpp:148] Top shape: 32 (32)
I0411 16:41:05.034066 28406 net.cpp:156] Memory required for data: 393344
I0411 16:41:05.034083 28406 layer_factory.hpp:77] Creating layer label_data_1_split
I0411 16:41:05.034109 28406 net.cpp:91] Creating Layer label_data_1_split
I0411 16:41:05.034122 28406 net.cpp:425] label_data_1_split <- label
I0411 16:41:05.034140 28406 net.cpp:399] label_data_1_split -> label_data_1_split_0
I0411 16:41:05.034164 28406 net.cpp:399] label_data_1_split -> label_data_1_split_1
I0411 16:41:05.034307 28406 net.cpp:141] Setting up label_data_1_split
I0411 16:41:05.034329 28406 net.cpp:148] Top shape: 32 (32)
I0411 16:41:05.034343 28406 net.cpp:148] Top shape: 32 (32)
I0411 16:41:05.034354 28406 net.cpp:156] Memory required for data: 393600
I0411 16:41:05.034365 28406 layer_factory.hpp:77] Creating layer conv1
I0411 16:41:05.034400 28406 net.cpp:91] Creating Layer conv1
I0411 16:41:05.034414 28406 net.cpp:425] conv1 <- data
I0411 16:41:05.034430 28406 net.cpp:399] conv1 -> conv1
I0411 16:41:05.044077 28406 net.cpp:141] Setting up conv1
I0411 16:41:05.044168 28406 net.cpp:148] Top shape: 32 8 32 32 (262144)
I0411 16:41:05.044183 28406 net.cpp:156] Memory required for data: 1442176
I0411 16:41:05.044221 28406 layer_factory.hpp:77] Creating layer bn_conv1
I0411 16:41:05.044253 28406 net.cpp:91] Creating Layer bn_conv1
I0411 16:41:05.044267 28406 net.cpp:425] bn_conv1 <- conv1
I0411 16:41:05.044301 28406 net.cpp:386] bn_conv1 -> conv1 (in-place)
I0411 16:41:05.044751 28406 net.cpp:141] Setting up bn_conv1
I0411 16:41:05.044778 28406 net.cpp:148] Top shape: 32 8 32 32 (262144)
I0411 16:41:05.044790 28406 net.cpp:156] Memory required for data: 2490752
I0411 16:41:05.044819 28406 layer_factory.hpp:77] Creating layer scale_conv1
I0411 16:41:05.044843 28406 net.cpp:91] Creating Layer scale_conv1
I0411 16:41:05.044855 28406 net.cpp:425] scale_conv1 <- conv1
I0411 16:41:05.044870 28406 net.cpp:386] scale_conv1 -> conv1 (in-place)
I0411 16:41:05.044981 28406 layer_factory.hpp:77] Creating layer scale_conv1
I0411 16:41:05.045372 28406 net.cpp:141] Setting up scale_conv1
I0411 16:41:05.045398 28406 net.cpp:148] Top shape: 32 8 32 32 (262144)
I0411 16:41:05.045409 28406 net.cpp:156] Memory required for data: 3539328
I0411 16:41:05.045428 28406 layer_factory.hpp:77] Creating layer conv1_relu
I0411 16:41:05.045445 28406 net.cpp:91] Creating Layer conv1_relu
I0411 16:41:05.045461 28406 net.cpp:425] conv1_relu <- conv1
I0411 16:41:05.045478 28406 net.cpp:386] conv1_relu -> conv1 (in-place)
I0411 16:41:05.046186 28406 net.cpp:141] Setting up conv1_relu
I0411 16:41:05.046222 28406 net.cpp:148] Top shape: 32 8 32 32 (262144)
I0411 16:41:05.046234 28406 net.cpp:156] Memory required for data: 4587904
I0411 16:41:05.046247 28406 layer_factory.hpp:77] Creating layer conv1_conv1_relu_0_split
I0411 16:41:05.046267 28406 net.cpp:91] Creating Layer conv1_conv1_relu_0_split
I0411 16:41:05.046278 28406 net.cpp:425] conv1_conv1_relu_0_split <- conv1
I0411 16:41:05.046298 28406 net.cpp:399] conv1_conv1_relu_0_split -> conv1_conv1_relu_0_split_0
I0411 16:41:05.046319 28406 net.cpp:399] conv1_conv1_relu_0_split -> conv1_conv1_relu_0_split_1
I0411 16:41:05.046419 28406 net.cpp:141] Setting up conv1_conv1_relu_0_split
I0411 16:41:05.046445 28406 net.cpp:148] Top shape: 32 8 32 32 (262144)
I0411 16:41:05.046460 28406 net.cpp:148] Top shape: 32 8 32 32 (262144)
I0411 16:41:05.046470 28406 net.cpp:156] Memory required for data: 6685056
I0411 16:41:05.046483 28406 layer_factory.hpp:77] Creating layer conv1_down
I0411 16:41:05.046514 28406 net.cpp:91] Creating Layer conv1_down
I0411 16:41:05.046527 28406 net.cpp:425] conv1_down <- conv1_conv1_relu_0_split_0
I0411 16:41:05.046547 28406 net.cpp:399] conv1_down -> conv1_down
I0411 16:41:05.048591 28406 net.cpp:141] Setting up conv1_down
I0411 16:41:05.048625 28406 net.cpp:148] Top shape: 32 128 8 8 (262144)
I0411 16:41:05.048637 28406 net.cpp:156] Memory required for data: 7733632
I0411 16:41:05.048653 28406 layer_factory.hpp:77] Creating layer scale_conv1_down
I0411 16:41:05.048696 28406 net.cpp:91] Creating Layer scale_conv1_down
I0411 16:41:05.048709 28406 net.cpp:425] scale_conv1_down <- conv1_down
I0411 16:41:05.048727 28406 net.cpp:386] scale_conv1_down -> conv1_down (in-place)
I0411 16:41:05.048830 28406 layer_factory.hpp:77] Creating layer scale_conv1_down
I0411 16:41:05.049073 28406 net.cpp:141] Setting up scale_conv1_down
I0411 16:41:05.049093 28406 net.cpp:148] Top shape: 32 128 8 8 (262144)
I0411 16:41:05.049103 28406 net.cpp:156] Memory required for data: 8782208
I0411 16:41:05.049142 28406 layer_factory.hpp:77] Creating layer conv2_1a
I0411 16:41:05.049173 28406 net.cpp:91] Creating Layer conv2_1a
I0411 16:41:05.049186 28406 net.cpp:425] conv2_1a <- conv1_conv1_relu_0_split_1
I0411 16:41:05.049203 28406 net.cpp:399] conv2_1a -> conv2_1a
I0411 16:41:05.051300 28406 net.cpp:141] Setting up conv2_1a
I0411 16:41:05.051334 28406 net.cpp:148] Top shape: 32 8 32 32 (262144)
I0411 16:41:05.051347 28406 net.cpp:156] Memory required for data: 9830784
I0411 16:41:05.051370 28406 layer_factory.hpp:77] Creating layer bn_conv2_1a
I0411 16:41:05.051394 28406 net.cpp:91] Creating Layer bn_conv2_1a
I0411 16:41:05.051411 28406 net.cpp:425] bn_conv2_1a <- conv2_1a
I0411 16:41:05.051437 28406 net.cpp:386] bn_conv2_1a -> conv2_1a (in-place)
I0411 16:41:05.051952 28406 net.cpp:141] Setting up bn_conv2_1a
I0411 16:41:05.051975 28406 net.cpp:148] Top shape: 32 8 32 32 (262144)
I0411 16:41:05.051986 28406 net.cpp:156] Memory required for data: 10879360
I0411 16:41:05.052007 28406 layer_factory.hpp:77] Creating layer scale_conv2_1a
I0411 16:41:05.052049 28406 net.cpp:91] Creating Layer scale_conv2_1a
I0411 16:41:05.052060 28406 net.cpp:425] scale_conv2_1a <- conv2_1a
I0411 16:41:05.052074 28406 net.cpp:386] scale_conv2_1a -> conv2_1a (in-place)
I0411 16:41:05.052183 28406 layer_factory.hpp:77] Creating layer scale_conv2_1a
I0411 16:41:05.052516 28406 net.cpp:141] Setting up scale_conv2_1a
I0411 16:41:05.052541 28406 net.cpp:148] Top shape: 32 8 32 32 (262144)
I0411 16:41:05.052551 28406 net.cpp:156] Memory required for data: 11927936
I0411 16:41:05.052587 28406 layer_factory.hpp:77] Creating layer conv2_1a_relu
I0411 16:41:05.052608 28406 net.cpp:91] Creating Layer conv2_1a_relu
I0411 16:41:05.052618 28406 net.cpp:425] conv2_1a_relu <- conv2_1a
I0411 16:41:05.052636 28406 net.cpp:386] conv2_1a_relu -> conv2_1a (in-place)
I0411 16:41:05.053741 28406 net.cpp:141] Setting up conv2_1a_relu
I0411 16:41:05.053791 28406 net.cpp:148] Top shape: 32 8 32 32 (262144)
I0411 16:41:05.053807 28406 net.cpp:156] Memory required for data: 12976512
I0411 16:41:05.053817 28406 layer_factory.hpp:77] Creating layer conv2_1b
I0411 16:41:05.053855 28406 net.cpp:91] Creating Layer conv2_1b
I0411 16:41:05.053874 28406 net.cpp:425] conv2_1b <- conv2_1a
I0411 16:41:05.053899 28406 net.cpp:399] conv2_1b -> conv2_1b
I0411 16:41:05.056375 28406 net.cpp:141] Setting up conv2_1b
I0411 16:41:05.056414 28406 net.cpp:148] Top shape: 32 8 32 32 (262144)
I0411 16:41:05.056426 28406 net.cpp:156] Memory required for data: 14025088
I0411 16:41:05.056445 28406 layer_factory.hpp:77] Creating layer bn_conv2_1b
I0411 16:41:05.056483 28406 net.cpp:91] Creating Layer bn_conv2_1b
I0411 16:41:05.056494 28406 net.cpp:425] bn_conv2_1b <- conv2_1b
I0411 16:41:05.056509 28406 net.cpp:386] bn_conv2_1b -> conv2_1b (in-place)
I0411 16:41:05.056967 28406 net.cpp:141] Setting up bn_conv2_1b
I0411 16:41:05.056990 28406 net.cpp:148] Top shape: 32 8 32 32 (262144)
I0411 16:41:05.057004 28406 net.cpp:156] Memory required for data: 15073664
I0411 16:41:05.057029 28406 layer_factory.hpp:77] Creating layer scale_conv2_1b
I0411 16:41:05.057054 28406 net.cpp:91] Creating Layer scale_conv2_1b
I0411 16:41:05.057070 28406 net.cpp:425] scale_conv2_1b <- conv2_1b
I0411 16:41:05.057085 28406 net.cpp:386] scale_conv2_1b -> conv2_1b (in-place)
I0411 16:41:05.057210 28406 layer_factory.hpp:77] Creating layer scale_conv2_1b
I0411 16:41:05.057490 28406 net.cpp:141] Setting up scale_conv2_1b
I0411 16:41:05.057513 28406 net.cpp:148] Top shape: 32 8 32 32 (262144)
I0411 16:41:05.057536 28406 net.cpp:156] Memory required for data: 16122240
I0411 16:41:05.057556 28406 layer_factory.hpp:77] Creating layer conv2_1b_relu
I0411 16:41:05.057585 28406 net.cpp:91] Creating Layer conv2_1b_relu
I0411 16:41:05.057600 28406 net.cpp:425] conv2_1b_relu <- conv2_1b
I0411 16:41:05.057615 28406 net.cpp:386] conv2_1b_relu -> conv2_1b (in-place)
I0411 16:41:05.058682 28406 net.cpp:141] Setting up conv2_1b_relu
I0411 16:41:05.058720 28406 net.cpp:148] Top shape: 32 8 32 32 (262144)
I0411 16:41:05.058730 28406 net.cpp:156] Memory required for data: 17170816
I0411 16:41:05.058742 28406 layer_factory.hpp:77] Creating layer conv2_down
I0411 16:41:05.058773 28406 net.cpp:91] Creating Layer conv2_down
I0411 16:41:05.058789 28406 net.cpp:425] conv2_down <- conv2_1b
I0411 16:41:05.058815 28406 net.cpp:399] conv2_down -> conv2_down
I0411 16:41:05.061776 28406 net.cpp:141] Setting up conv2_down
I0411 16:41:05.061817 28406 net.cpp:148] Top shape: 32 128 8 8 (262144)
I0411 16:41:05.061828 28406 net.cpp:156] Memory required for data: 18219392
I0411 16:41:05.061846 28406 layer_factory.hpp:77] Creating layer scale_conv2_down
I0411 16:41:05.061875 28406 net.cpp:91] Creating Layer scale_conv2_down
I0411 16:41:05.061897 28406 net.cpp:425] scale_conv2_down <- conv2_down
I0411 16:41:05.061919 28406 net.cpp:386] scale_conv2_down -> conv2_down (in-place)
I0411 16:41:05.062055 28406 layer_factory.hpp:77] Creating layer scale_conv2_down
I0411 16:41:05.062331 28406 net.cpp:141] Setting up scale_conv2_down
I0411 16:41:05.062364 28406 net.cpp:148] Top shape: 32 128 8 8 (262144)
I0411 16:41:05.062374 28406 net.cpp:156] Memory required for data: 19267968
I0411 16:41:05.062405 28406 layer_factory.hpp:77] Creating layer global_in
I0411 16:41:05.062423 28406 net.cpp:91] Creating Layer global_in
I0411 16:41:05.062434 28406 net.cpp:425] global_in <- conv1_down
I0411 16:41:05.062446 28406 net.cpp:425] global_in <- conv2_down
I0411 16:41:05.062460 28406 net.cpp:399] global_in -> global_in
I0411 16:41:05.062530 28406 net.cpp:141] Setting up global_in
I0411 16:41:05.062551 28406 net.cpp:148] Top shape: 32 128 8 8 (262144)
I0411 16:41:05.062564 28406 net.cpp:156] Memory required for data: 20316544
I0411 16:41:05.062574 28406 layer_factory.hpp:77] Creating layer global_pool
I0411 16:41:05.062593 28406 net.cpp:91] Creating Layer global_pool
I0411 16:41:05.062603 28406 net.cpp:425] global_pool <- global_in
I0411 16:41:05.062628 28406 net.cpp:399] global_pool -> global_pool
I0411 16:41:05.063158 28406 net.cpp:141] Setting up global_pool
I0411 16:41:05.063180 28406 net.cpp:148] Top shape: 32 128 1 1 (4096)
I0411 16:41:05.063190 28406 net.cpp:156] Memory required for data: 20332928
I0411 16:41:05.063201 28406 layer_factory.hpp:77] Creating layer ip
I0411 16:41:05.063221 28406 net.cpp:91] Creating Layer ip
I0411 16:41:05.063235 28406 net.cpp:425] ip <- global_pool
I0411 16:41:05.063257 28406 net.cpp:399] ip -> ip
I0411 16:41:05.063582 28406 net.cpp:141] Setting up ip
I0411 16:41:05.063604 28406 net.cpp:148] Top shape: 32 10 (320)
I0411 16:41:05.063614 28406 net.cpp:156] Memory required for data: 20334208
I0411 16:41:05.063633 28406 layer_factory.hpp:77] Creating layer ip_ip_0_split
I0411 16:41:05.063652 28406 net.cpp:91] Creating Layer ip_ip_0_split
I0411 16:41:05.063662 28406 net.cpp:425] ip_ip_0_split <- ip
I0411 16:41:05.063678 28406 net.cpp:399] ip_ip_0_split -> ip_ip_0_split_0
I0411 16:41:05.063699 28406 net.cpp:399] ip_ip_0_split -> ip_ip_0_split_1
I0411 16:41:05.063804 28406 net.cpp:141] Setting up ip_ip_0_split
I0411 16:41:05.063829 28406 net.cpp:148] Top shape: 32 10 (320)
I0411 16:41:05.063845 28406 net.cpp:148] Top shape: 32 10 (320)
I0411 16:41:05.063854 28406 net.cpp:156] Memory required for data: 20336768
I0411 16:41:05.063870 28406 layer_factory.hpp:77] Creating layer accuracy
I0411 16:41:05.063889 28406 net.cpp:91] Creating Layer accuracy
I0411 16:41:05.063899 28406 net.cpp:425] accuracy <- ip_ip_0_split_0
I0411 16:41:05.063911 28406 net.cpp:425] accuracy <- label_data_1_split_0
I0411 16:41:05.063928 28406 net.cpp:399] accuracy -> accuracy
…
I0411 16:54:19.099978  2805 net.cpp:313] The NetState phase (0) differed from the phase (1) specified by a rule in layer data
I0411 16:54:19.100188  2805 net.cpp:49] Initializing net from parameters: 
name: "CifarResNet0"
state {
  phase: TRAIN
}
layer {
  name: "data"
  type: "Data"
  top: "data"
  top: "label"
  include {
    phase: TRAIN
  }
  transform_param {
    mean_file: "/home/liangjiang/code/residual_network/data/cifar10/mean.binaryproto"
  }
  data_param {
    source: "/home/liangjiang/code/residual_network/data/cifar10/cifar10_train_lmdb"
    batch_size: 256
    backend: LMDB
  }
}
layer {
  name: "conv1"
  type: "Convolution"
  bottom: "data"
  top: "conv1"
  param {
    lr_mult: 1
  }
  param {
    lr_mult: 2
  }
  convolution_param {
    num_output: 8
    pad: 1
    kernel_size: 3
    stride: 1
    weight_filler {
      type: "msra"
    }
    bias_filler {
      type: "constant"
      value: 0
    }
  }
}
layer {
  name: "bn_conv1"
  type: "BatchNorm"
  bottom: "conv1"
  top: "conv1"
  param {
    lr_mult: 0
  }
  param {
    lr_mult: 0
  }
  param {
    lr_mult: 0
  }
}
layer {
  name: "scale_conv1"
  type: "Scale"
  bottom: "conv1"
  top: "conv1"
  param {
    lr_mult: 1
  }
  param {
    lr_mult: 2
  }
  scale_param {
    bias_term: true
  }
}
layer {
  name: "conv1_relu"
  type: "ReLU"
  bottom: "conv1"
  top: "conv1"
}
layer {
  name: "conv1_down"
  type: "Convolution"
  bottom: "conv1"
  top: "conv1_down"
  param {
    lr_mult: 0
  }
  convolution_param {
    num_output: 128
    bias_term: false
    pad: 0
    kernel_size: 4
    stride: 4
    weight_filler {
      type: "downsample"
      value: 1
    }
  }
}
layer {
  name: "scale_conv1_down"
  type: "Scale"
  bottom: "conv1_down"
  top: "conv1_down"
  param {
    lr_mult: 1
  }
  param {
    lr_mult: 2
  }
  scale_param {
    filler {
      type: "constant"
      value: 1
    }
    bias_term: true
  }
}
layer {
  name: "conv2_1a"
  type: "Convolution"
  bottom: "conv1"
  top: "conv2_1a"
  param {
    lr_mult: 1
  }
  param {
    lr_mult: 2
  }
  convolution_param {
    num_output: 8
    pad: 1
    kernel_size: 3
    stride: 1
    weight_filler {
      type: "msra"
    }
    bias_filler {
      type: "constant"
      value: 0
    }
  }
}
layer {
  name: "bn_conv2_1a"
  type: "BatchNorm"
  bottom: "conv2_1a"
  top: "conv2_1a"
  param {
    lr_mult: 0
  }
  param {
    lr_mult: 0
  }
  param {
    lr_mult: 0
  }
}
layer {
  name: "scale_conv2_1a"
  type: "Scale"
  bottom: "conv2_1a"
  top: "conv2_1a"
  param {
    lr_mult: 1
  }
  param {
    lr_mult: 2
  }
  scale_param {
    bias_term: true
  }
}
layer {
  name: "conv2_1a_relu"
  type: "ReLU"
  bottom: "conv2_1a"
  top: "conv2_1a"
}
layer {
  name: "conv2_1b"
  type: "Convolution"
  bottom: "conv2_1a"
  top: "conv2_1b"
  param {
    lr_mult: 1
  }
  param {
    lr_mult: 2
  }
  convolution_param {
    num_output: 8
    pad: 1
    kernel_size: 3
    stride: 1
    weight_filler {
      type: "msra"
    }
    bias_filler {
      type: "constant"
      value: 0
    }
  }
}
layer {
  name: "bn_conv2_1b"
  type: "BatchNorm"
  bottom: "conv2_1b"
  top: "conv2_1b"
  param {
    lr_mult: 0
  }
  param {
    lr_mult: 0
  }
  param {
    lr_mult: 0
  }
}
layer {
  name: "scale_conv2_1b"
  type: "Scale"
  bottom: "conv2_1b"
  top: "conv2_1b"
  param {
    lr_mult: 1
  }
  param {
    lr_mult: 2
  }
  scale_param {
    bias_term: true
  }
}
layer {
  name: "conv2_1b_relu"
  type: "ReLU"
  bottom: "conv2_1b"
  top: "conv2_1b"
}
layer {
  name: "conv2_down"
  type: "Convolution"
  bottom: "conv2_1b"
  top: "conv2_down"
  param {
    lr_mult: 0
  }
  convolution_param {
    num_output: 128
    bias_term: false
    pad: 0
    kernel_size: 4
    stride: 4
    weight_filler {
      type: "downsample"
      value: 1
    }
  }
}
layer {
  name: "scale_conv2_down"
  type: "Scale"
  bottom: "conv2_down"
  top: "conv2_down"
  param {
    lr_mult: 1
  }
  param {
    lr_mult: 2
  }
  scale_param {
    filler {
      type: "constant"
      value: 1
    }
    bias_term: true
  }
}
layer {
  name: "conv3_1a"
  type: "Convolution"
  bottom: "conv2_1b"
  top: "conv3_1a"
  param {
    lr_mult: 1
  }
  param {
    lr_mult: 2
  }
  convolution_param {
    num_output: 32
    pad: 0
    kernel_size: 1
    stride: 2
    weight_filler {
      type: "msra"
    }
    bias_filler {
      type: "constant"
      value: 0
    }
  }
}
layer {
  name: "bn_conv3_1a"
  type: "BatchNorm"
  bottom: "conv3_1a"
  top: "conv3_1a"
  param {
    lr_mult: 0
  }
  param {
    lr_mult: 0
  }
  param {
    lr_mult: 0
  }
}
layer {
  name: "scale_conv3_1a"
  type: "Scale"
  bottom: "conv3_1a"
  top: "conv3_1a"
  param {
    lr_mult: 1
  }
  param {
    lr_mult: 2
  }
  scale_param {
    bias_term: true
  }
}
layer {
  name: "conv3_1a_relu"
  type: "ReLU"
  bottom: "conv3_1a"
  top: "conv3_1a"
}
layer {
  name: "conv3_1b"
  type: "Convolution"
  bottom: "conv3_1a"
  top: "conv3_1b"
  param {
    lr_mult: 1
  }
  param {
    lr_mult: 2
  }
  convolution_param {
    num_output: 32
    pad: 1
    kernel_size: 3
    stride: 1
    weight_filler {
      type: "msra"
    }
    bias_filler {
      type: "constant"
      value: 0
    }
  }
}
layer {
  name: "bn_conv3_1b"
  type: "BatchNorm"
  bottom: "conv3_1b"
  top: "conv3_1b"
  param {
    lr_mult: 0
  }
  param {
    lr_mult: 0
  }
  param {
    lr_mult: 0
  }
}
layer {
  name: "scale_conv3_1b"
  type: "Scale"
  bottom: "conv3_1b"
  top: "conv3_1b"
  param {
    lr_mult: 1
  }
  param {
    lr_mult: 2
  }
  scale_param {
    bias_term: true
  }
}
layer {
  name: "conv3_1b_relu"
  type: "ReLU"
  bottom: "conv3_1b"
  top: "conv3_1b"
}
layer {
  name: "conv3_down"
  type: "Convolution"
  bottom: "conv3_1b"
  top: "conv3_down"
  param {
    lr_mult: 0
  }
  convolution_param {
    num_output: 128
    bias_term: false
    pad: 0
    kernel_size: 2
    stride: 2
    weight_filler {
      type: "downsample"
      value: 1
    }
  }
}
layer {
  name: "scale_conv3_down"
  type: "Scale"
  bottom: "conv3_down"
  top: "conv3_down"
  param {
    lr_mult: 1
  }
  param {
    lr_mult: 2
  }
  scale_param {
    filler {
      type: "constant"
      value: 0.2
    }
    bias_term: true
  }
}
layer {
  name: "global_in"
  type: "Eltwise"
  bottom: "conv1_down"
  bottom: "conv2_down"
  bottom: "conv3_down"
  top: "global_in"
}
layer {
  name: "global_pool"
  type: "Pooling"
  bottom: "global_in"
  top: "global_pool"
  pooling_param {
    pool: AVE
    kernel_size: 8
  }
}
layer {
  name: "ip"
  type: "InnerProduct"
  bottom: "global_pool"
  top: "ip"
  param {
    lr_mult: 1
  }
  param {
    lr_mult: 2
  }
  inner_product_param {
    num_output: 10
  }
}
layer {
  name: "accuracy"
  type: "Accuracy"
  bottom: "ip"
  bottom: "label"
  top: "accuracy"
}
layer {
  name: "loss"
  type: "SoftmaxWithLoss"
  bottom: "ip"
  bottom: "label"
  top: "loss"
}
I0411 16:54:19.100347  2805 layer_factory.hpp:77] Creating layer data
I0411 16:54:19.100894  2805 net.cpp:91] Creating Layer data
I0411 16:54:19.100909  2805 net.cpp:399] data -> data
I0411 16:54:19.100922  2805 net.cpp:399] data -> label
I0411 16:54:19.100939  2805 data_transformer.cpp:25] Loading mean file from: /home/liangjiang/code/residual_network/data/cifar10/mean.binaryproto
I0411 16:54:19.103011  2920 db_lmdb.cpp:38] Opened lmdb /home/liangjiang/code/residual_network/data/cifar10/cifar10_train_lmdb
I0411 16:54:19.119995  2805 data_layer.cpp:41] output data size: 256,3,32,32
I0411 16:54:19.127748  2805 net.cpp:141] Setting up data
I0411 16:54:19.127801  2805 net.cpp:148] Top shape: 256 3 32 32 (786432)
I0411 16:54:19.127815  2805 net.cpp:148] Top shape: 256 (256)
I0411 16:54:19.127823  2805 net.cpp:156] Memory required for data: 3146752
I0411 16:54:19.127835  2805 layer_factory.hpp:77] Creating layer label_data_1_split
I0411 16:54:19.127862  2805 net.cpp:91] Creating Layer label_data_1_split
I0411 16:54:19.127873  2805 net.cpp:425] label_data_1_split <- label
I0411 16:54:19.127889  2805 net.cpp:399] label_data_1_split -> label_data_1_split_0
I0411 16:54:19.127910  2805 net.cpp:399] label_data_1_split -> label_data_1_split_1
I0411 16:54:19.127974  2805 net.cpp:141] Setting up label_data_1_split
I0411 16:54:19.127990  2805 net.cpp:148] Top shape: 256 (256)
I0411 16:54:19.128000  2805 net.cpp:148] Top shape: 256 (256)
I0411 16:54:19.128007  2805 net.cpp:156] Memory required for data: 3148800
I0411 16:54:19.128015  2805 layer_factory.hpp:77] Creating layer conv1
I0411 16:54:19.128041  2805 net.cpp:91] Creating Layer conv1
I0411 16:54:19.128051  2805 net.cpp:425] conv1 <- data
I0411 16:54:19.128067  2805 net.cpp:399] conv1 -> conv1
I0411 16:54:19.381538  2805 net.cpp:141] Setting up conv1
I0411 16:54:19.381582  2805 net.cpp:148] Top shape: 256 8 32 32 (2097152)
I0411 16:54:19.381588  2805 net.cpp:156] Memory required for data: 11537408
I0411 16:54:19.381608  2805 layer_factory.hpp:77] Creating layer bn_conv1
I0411 16:54:19.381624  2805 net.cpp:91] Creating Layer bn_conv1
I0411 16:54:19.381630  2805 net.cpp:425] bn_conv1 <- conv1
I0411 16:54:19.381639  2805 net.cpp:386] bn_conv1 -> conv1 (in-place)
I0411 16:54:19.381837  2805 net.cpp:141] Setting up bn_conv1
I0411 16:54:19.381847  2805 net.cpp:148] Top shape: 256 8 32 32 (2097152)
I0411 16:54:19.381852  2805 net.cpp:156] Memory required for data: 19926016
I0411 16:54:19.381866  2805 layer_factory.hpp:77] Creating layer scale_conv1
I0411 16:54:19.381878  2805 net.cpp:91] Creating Layer scale_conv1
I0411 16:54:19.381883  2805 net.cpp:425] scale_conv1 <- conv1
I0411 16:54:19.381891  2805 net.cpp:386] scale_conv1 -> conv1 (in-place)
I0411 16:54:19.381932  2805 layer_factory.hpp:77] Creating layer scale_conv1
I0411 16:54:19.382038  2805 net.cpp:141] Setting up scale_conv1
I0411 16:54:19.382056  2805 net.cpp:148] Top shape: 256 8 32 32 (2097152)
I0411 16:54:19.382062  2805 net.cpp:156] Memory required for data: 28314624
I0411 16:54:19.382071  2805 layer_factory.hpp:77] Creating layer conv1_relu
I0411 16:54:19.382078  2805 net.cpp:91] Creating Layer conv1_relu
I0411 16:54:19.382083  2805 net.cpp:425] conv1_relu <- conv1
I0411 16:54:19.382091  2805 net.cpp:386] conv1_relu -> conv1 (in-place)
I0411 16:54:19.382390  2805 net.cpp:141] Setting up conv1_relu
I0411 16:54:19.382405  2805 net.cpp:148] Top shape: 256 8 32 32 (2097152)
I0411 16:54:19.382411  2805 net.cpp:156] Memory required for data: 36703232
I0411 16:54:19.382416  2805 layer_factory.hpp:77] Creating layer conv1_conv1_relu_0_split
I0411 16:54:19.382426  2805 net.cpp:91] Creating Layer conv1_conv1_relu_0_split
I0411 16:54:19.382431  2805 net.cpp:425] conv1_conv1_relu_0_split <- conv1
I0411 16:54:19.382438  2805 net.cpp:399] conv1_conv1_relu_0_split -> conv1_conv1_relu_0_split_0
I0411 16:54:19.382449  2805 net.cpp:399] conv1_conv1_relu_0_split -> conv1_conv1_relu_0_split_1
I0411 16:54:19.382490  2805 net.cpp:141] Setting up conv1_conv1_relu_0_split
I0411 16:54:19.382499  2805 net.cpp:148] Top shape: 256 8 32 32 (2097152)
I0411 16:54:19.382505  2805 net.cpp:148] Top shape: 256 8 32 32 (2097152)
I0411 16:54:19.382510  2805 net.cpp:156] Memory required for data: 53480448
I0411 16:54:19.382515  2805 layer_factory.hpp:77] Creating layer conv1_down
I0411 16:54:19.382529  2805 net.cpp:91] Creating Layer conv1_down
I0411 16:54:19.382534  2805 net.cpp:425] conv1_down <- conv1_conv1_relu_0_split_0
I0411 16:54:19.382541  2805 net.cpp:399] conv1_down -> conv1_down
I0411 16:54:19.384002  2805 net.cpp:141] Setting up conv1_down
I0411 16:54:19.384021  2805 net.cpp:148] Top shape: 256 128 8 8 (2097152)
I0411 16:54:19.384027  2805 net.cpp:156] Memory required for data: 61869056
I0411 16:54:19.384035  2805 layer_factory.hpp:77] Creating layer scale_conv1_down
I0411 16:54:19.384047  2805 net.cpp:91] Creating Layer scale_conv1_down
I0411 16:54:19.384052  2805 net.cpp:425] scale_conv1_down <- conv1_down
I0411 16:54:19.384063  2805 net.cpp:386] scale_conv1_down -> conv1_down (in-place)
I0411 16:54:19.384115  2805 layer_factory.hpp:77] Creating layer scale_conv1_down
I0411 16:54:19.384233  2805 net.cpp:141] Setting up scale_conv1_down
I0411 16:54:19.384243  2805 net.cpp:148] Top shape: 256 128 8 8 (2097152)
I0411 16:54:19.384248  2805 net.cpp:156] Memory required for data: 70257664
I0411 16:54:19.384259  2805 layer_factory.hpp:77] Creating layer conv2_1a
I0411 16:54:19.384274  2805 net.cpp:91] Creating Layer conv2_1a
I0411 16:54:19.384279  2805 net.cpp:425] conv2_1a <- conv1_conv1_relu_0_split_1
I0411 16:54:19.384289  2805 net.cpp:399] conv2_1a -> conv2_1a
I0411 16:54:19.385341  2805 net.cpp:141] Setting up conv2_1a
I0411 16:54:19.385361  2805 net.cpp:148] Top shape: 256 8 32 32 (2097152)
I0411 16:54:19.385366  2805 net.cpp:156] Memory required for data: 78646272
I0411 16:54:19.385375  2805 layer_factory.hpp:77] Creating layer bn_conv2_1a
I0411 16:54:19.385388  2805 net.cpp:91] Creating Layer bn_conv2_1a
I0411 16:54:19.385395  2805 net.cpp:425] bn_conv2_1a <- conv2_1a
I0411 16:54:19.385402  2805 net.cpp:386] bn_conv2_1a -> conv2_1a (in-place)
I0411 16:54:19.385607  2805 net.cpp:141] Setting up bn_conv2_1a
I0411 16:54:19.385617  2805 net.cpp:148] Top shape: 256 8 32 32 (2097152)
I0411 16:54:19.385622  2805 net.cpp:156] Memory required for data: 87034880
I0411 16:54:19.385630  2805 layer_factory.hpp:77] Creating layer scale_conv2_1a
I0411 16:54:19.385642  2805 net.cpp:91] Creating Layer scale_conv2_1a
I0411 16:54:19.385646  2805 net.cpp:425] scale_conv2_1a <- conv2_1a
I0411 16:54:19.385653  2805 net.cpp:386] scale_conv2_1a -> conv2_1a (in-place)
I0411 16:54:19.385692  2805 layer_factory.hpp:77] Creating layer scale_conv2_1a
I0411 16:54:19.385807  2805 net.cpp:141] Setting up scale_conv2_1a
I0411 16:54:19.385817  2805 net.cpp:148] Top shape: 256 8 32 32 (2097152)
I0411 16:54:19.385821  2805 net.cpp:156] Memory required for data: 95423488
I0411 16:54:19.385839  2805 layer_factory.hpp:77] Creating layer conv2_1a_relu
I0411 16:54:19.385848  2805 net.cpp:91] Creating Layer conv2_1a_relu
I0411 16:54:19.385854  2805 net.cpp:425] conv2_1a_relu <- conv2_1a
I0411 16:54:19.385861  2805 net.cpp:386] conv2_1a_relu -> conv2_1a (in-place)
I0411 16:54:19.386198  2805 net.cpp:141] Setting up conv2_1a_relu
I0411 16:54:19.386214  2805 net.cpp:148] Top shape: 256 8 32 32 (2097152)
I0411 16:54:19.386219  2805 net.cpp:156] Memory required for data: 103812096
I0411 16:54:19.386225  2805 layer_factory.hpp:77] Creating layer conv2_1b
I0411 16:54:19.386239  2805 net.cpp:91] Creating Layer conv2_1b
I0411 16:54:19.386245  2805 net.cpp:425] conv2_1b <- conv2_1a
I0411 16:54:19.386255  2805 net.cpp:399] conv2_1b -> conv2_1b
I0411 16:54:19.387331  2805 net.cpp:141] Setting up conv2_1b
I0411 16:54:19.387351  2805 net.cpp:148] Top shape: 256 8 32 32 (2097152)
I0411 16:54:19.387357  2805 net.cpp:156] Memory required for data: 112200704
I0411 16:54:19.387367  2805 layer_factory.hpp:77] Creating layer bn_conv2_1b
I0411 16:54:19.387375  2805 net.cpp:91] Creating Layer bn_conv2_1b
I0411 16:54:19.387382  2805 net.cpp:425] bn_conv2_1b <- conv2_1b
I0411 16:54:19.387390  2805 net.cpp:386] bn_conv2_1b -> conv2_1b (in-place)
I0411 16:54:19.387593  2805 net.cpp:141] Setting up bn_conv2_1b
I0411 16:54:19.387603  2805 net.cpp:148] Top shape: 256 8 32 32 (2097152)
I0411 16:54:19.387608  2805 net.cpp:156] Memory required for data: 120589312
I0411 16:54:19.387616  2805 layer_factory.hpp:77] Creating layer scale_conv2_1b
I0411 16:54:19.387625  2805 net.cpp:91] Creating Layer scale_conv2_1b
I0411 16:54:19.387630  2805 net.cpp:425] scale_conv2_1b <- conv2_1b
I0411 16:54:19.387637  2805 net.cpp:386] scale_conv2_1b -> conv2_1b (in-place)
I0411 16:54:19.387677  2805 layer_factory.hpp:77] Creating layer scale_conv2_1b
I0411 16:54:19.387795  2805 net.cpp:141] Setting up scale_conv2_1b
I0411 16:54:19.387804  2805 net.cpp:148] Top shape: 256 8 32 32 (2097152)
I0411 16:54:19.387809  2805 net.cpp:156] Memory required for data: 128977920
I0411 16:54:19.387817  2805 layer_factory.hpp:77] Creating layer conv2_1b_relu
I0411 16:54:19.387828  2805 net.cpp:91] Creating Layer conv2_1b_relu
I0411 16:54:19.387833  2805 net.cpp:425] conv2_1b_relu <- conv2_1b
I0411 16:54:19.387840  2805 net.cpp:386] conv2_1b_relu -> conv2_1b (in-place)
I0411 16:54:19.388036  2805 net.cpp:141] Setting up conv2_1b_relu
I0411 16:54:19.388047  2805 net.cpp:148] Top shape: 256 8 32 32 (2097152)
I0411 16:54:19.388052  2805 net.cpp:156] Memory required for data: 137366528
I0411 16:54:19.388057  2805 layer_factory.hpp:77] Creating layer conv2_1b_conv2_1b_relu_0_split
I0411 16:54:19.388064  2805 net.cpp:91] Creating Layer conv2_1b_conv2_1b_relu_0_split
I0411 16:54:19.388069  2805 net.cpp:425] conv2_1b_conv2_1b_relu_0_split <- conv2_1b
I0411 16:54:19.388078  2805 net.cpp:399] conv2_1b_conv2_1b_relu_0_split -> conv2_1b_conv2_1b_relu_0_split_0
I0411 16:54:19.388087  2805 net.cpp:399] conv2_1b_conv2_1b_relu_0_split -> conv2_1b_conv2_1b_relu_0_split_1
I0411 16:54:19.388131  2805 net.cpp:141] Setting up conv2_1b_conv2_1b_relu_0_split
I0411 16:54:19.388141  2805 net.cpp:148] Top shape: 256 8 32 32 (2097152)
I0411 16:54:19.388147  2805 net.cpp:148] Top shape: 256 8 32 32 (2097152)
I0411 16:54:19.388151  2805 net.cpp:156] Memory required for data: 154143744
I0411 16:54:19.388156  2805 layer_factory.hpp:77] Creating layer conv2_down
I0411 16:54:19.388166  2805 net.cpp:91] Creating Layer conv2_down
I0411 16:54:19.388172  2805 net.cpp:425] conv2_down <- conv2_1b_conv2_1b_relu_0_split_0
I0411 16:54:19.388182  2805 net.cpp:399] conv2_down -> conv2_down
I0411 16:54:19.389185  2805 net.cpp:141] Setting up conv2_down
I0411 16:54:19.389204  2805 net.cpp:148] Top shape: 256 128 8 8 (2097152)
I0411 16:54:19.389209  2805 net.cpp:156] Memory required for data: 162532352
I0411 16:54:19.389217  2805 layer_factory.hpp:77] Creating layer scale_conv2_down
I0411 16:54:19.389230  2805 net.cpp:91] Creating Layer scale_conv2_down
I0411 16:54:19.389235  2805 net.cpp:425] scale_conv2_down <- conv2_down
I0411 16:54:19.389247  2805 net.cpp:386] scale_conv2_down -> conv2_down (in-place)
I0411 16:54:19.389299  2805 layer_factory.hpp:77] Creating layer scale_conv2_down
I0411 16:54:19.389420  2805 net.cpp:141] Setting up scale_conv2_down
I0411 16:54:19.389430  2805 net.cpp:148] Top shape: 256 128 8 8 (2097152)
I0411 16:54:19.389436  2805 net.cpp:156] Memory required for data: 170920960
I0411 16:54:19.389443  2805 layer_factory.hpp:77] Creating layer conv3_1a
I0411 16:54:19.389456  2805 net.cpp:91] Creating Layer conv3_1a
I0411 16:54:19.389462  2805 net.cpp:425] conv3_1a <- conv2_1b_conv2_1b_relu_0_split_1
I0411 16:54:19.389472  2805 net.cpp:399] conv3_1a -> conv3_1a
I0411 16:54:19.390537  2805 net.cpp:141] Setting up conv3_1a
I0411 16:54:19.390555  2805 net.cpp:148] Top shape: 256 32 16 16 (2097152)
I0411 16:54:19.390560  2805 net.cpp:156] Memory required for data: 179309568
I0411 16:54:19.390569  2805 layer_factory.hpp:77] Creating layer bn_conv3_1a
I0411 16:54:19.390580  2805 net.cpp:91] Creating Layer bn_conv3_1a
I0411 16:54:19.390586  2805 net.cpp:425] bn_conv3_1a <- conv3_1a
I0411 16:54:19.390594  2805 net.cpp:386] bn_conv3_1a -> conv3_1a (in-place)
I0411 16:54:19.390801  2805 net.cpp:141] Setting up bn_conv3_1a
I0411 16:54:19.390811  2805 net.cpp:148] Top shape: 256 32 16 16 (2097152)
I0411 16:54:19.390816  2805 net.cpp:156] Memory required for data: 187698176
I0411 16:54:19.390825  2805 layer_factory.hpp:77] Creating layer scale_conv3_1a
I0411 16:54:19.390841  2805 net.cpp:91] Creating Layer scale_conv3_1a
I0411 16:54:19.390846  2805 net.cpp:425] scale_conv3_1a <- conv3_1a
I0411 16:54:19.390852  2805 net.cpp:386] scale_conv3_1a -> conv3_1a (in-place)
I0411 16:54:19.390892  2805 layer_factory.hpp:77] Creating layer scale_conv3_1a
I0411 16:54:19.391010  2805 net.cpp:141] Setting up scale_conv3_1a
I0411 16:54:19.391021  2805 net.cpp:148] Top shape: 256 32 16 16 (2097152)
I0411 16:54:19.391024  2805 net.cpp:156] Memory required for data: 196086784
I0411 16:54:19.391038  2805 layer_factory.hpp:77] Creating layer conv3_1a_relu
I0411 16:54:19.391047  2805 net.cpp:91] Creating Layer conv3_1a_relu
I0411 16:54:19.391052  2805 net.cpp:425] conv3_1a_relu <- conv3_1a
I0411 16:54:19.391058  2805 net.cpp:386] conv3_1a_relu -> conv3_1a (in-place)
I0411 16:54:19.391247  2805 net.cpp:141] Setting up conv3_1a_relu
I0411 16:54:19.391259  2805 net.cpp:148] Top shape: 256 32 16 16 (2097152)
I0411 16:54:19.391264  2805 net.cpp:156] Memory required for data: 204475392
I0411 16:54:19.391269  2805 layer_factory.hpp:77] Creating layer conv3_1b
I0411 16:54:19.391283  2805 net.cpp:91] Creating Layer conv3_1b
I0411 16:54:19.391288  2805 net.cpp:425] conv3_1b <- conv3_1a
I0411 16:54:19.391299  2805 net.cpp:399] conv3_1b -> conv3_1b
I0411 16:54:19.392680  2805 net.cpp:141] Setting up conv3_1b
I0411 16:54:19.392699  2805 net.cpp:148] Top shape: 256 32 16 16 (2097152)
I0411 16:54:19.392704  2805 net.cpp:156] Memory required for data: 212864000
I0411 16:54:19.392714  2805 layer_factory.hpp:77] Creating layer bn_conv3_1b
I0411 16:54:19.392721  2805 net.cpp:91] Creating Layer bn_conv3_1b
I0411 16:54:19.392727  2805 net.cpp:425] bn_conv3_1b <- conv3_1b
I0411 16:54:19.392737  2805 net.cpp:386] bn_conv3_1b -> conv3_1b (in-place)
I0411 16:54:19.392945  2805 net.cpp:141] Setting up bn_conv3_1b
I0411 16:54:19.392953  2805 net.cpp:148] Top shape: 256 32 16 16 (2097152)
I0411 16:54:19.392958  2805 net.cpp:156] Memory required for data: 221252608
I0411 16:54:19.392967  2805 layer_factory.hpp:77] Creating layer scale_conv3_1b
I0411 16:54:19.392976  2805 net.cpp:91] Creating Layer scale_conv3_1b
I0411 16:54:19.392982  2805 net.cpp:425] scale_conv3_1b <- conv3_1b
I0411 16:54:19.392988  2805 net.cpp:386] scale_conv3_1b -> conv3_1b (in-place)
I0411 16:54:19.393028  2805 layer_factory.hpp:77] Creating layer scale_conv3_1b
I0411 16:54:19.393164  2805 net.cpp:141] Setting up scale_conv3_1b
I0411 16:54:19.393177  2805 net.cpp:148] Top shape: 256 32 16 16 (2097152)
I0411 16:54:19.393182  2805 net.cpp:156] Memory required for data: 229641216
I0411 16:54:19.393196  2805 layer_factory.hpp:77] Creating layer conv3_1b_relu
I0411 16:54:19.393209  2805 net.cpp:91] Creating Layer conv3_1b_relu
I0411 16:54:19.393214  2805 net.cpp:425] conv3_1b_relu <- conv3_1b
I0411 16:54:19.393221  2805 net.cpp:386] conv3_1b_relu -> conv3_1b (in-place)
I0411 16:54:19.393546  2805 net.cpp:141] Setting up conv3_1b_relu
I0411 16:54:19.393564  2805 net.cpp:148] Top shape: 256 32 16 16 (2097152)
I0411 16:54:19.393569  2805 net.cpp:156] Memory required for data: 238029824
I0411 16:54:19.393574  2805 layer_factory.hpp:77] Creating layer conv3_down
I0411 16:54:19.393586  2805 net.cpp:91] Creating Layer conv3_down
I0411 16:54:19.393592  2805 net.cpp:425] conv3_down <- conv3_1b
I0411 16:54:19.393602  2805 net.cpp:399] conv3_down -> conv3_down
I0411 16:54:19.394659  2805 net.cpp:141] Setting up conv3_down
I0411 16:54:19.394676  2805 net.cpp:148] Top shape: 256 128 8 8 (2097152)
I0411 16:54:19.394682  2805 net.cpp:156] Memory required for data: 246418432
I0411 16:54:19.394690  2805 layer_factory.hpp:77] Creating layer scale_conv3_down
I0411 16:54:19.394702  2805 net.cpp:91] Creating Layer scale_conv3_down
I0411 16:54:19.394708  2805 net.cpp:425] scale_conv3_down <- conv3_down
I0411 16:54:19.394716  2805 net.cpp:386] scale_conv3_down -> conv3_down (in-place)
I0411 16:54:19.394765  2805 layer_factory.hpp:77] Creating layer scale_conv3_down
I0411 16:54:19.394881  2805 net.cpp:141] Setting up scale_conv3_down
I0411 16:54:19.394891  2805 net.cpp:148] Top shape: 256 128 8 8 (2097152)
I0411 16:54:19.394896  2805 net.cpp:156] Memory required for data: 254807040
I0411 16:54:19.394903  2805 layer_factory.hpp:77] Creating layer global_in
I0411 16:54:19.394918  2805 net.cpp:91] Creating Layer global_in
I0411 16:54:19.394923  2805 net.cpp:425] global_in <- conv1_down
I0411 16:54:19.394929  2805 net.cpp:425] global_in <- conv2_down
I0411 16:54:19.394935  2805 net.cpp:425] global_in <- conv3_down
I0411 16:54:19.394943  2805 net.cpp:399] global_in -> global_in
I0411 16:54:19.394973  2805 net.cpp:141] Setting up global_in
I0411 16:54:19.394981  2805 net.cpp:148] Top shape: 256 128 8 8 (2097152)
I0411 16:54:19.394986  2805 net.cpp:156] Memory required for data: 263195648
I0411 16:54:19.394991  2805 layer_factory.hpp:77] Creating layer global_pool
I0411 16:54:19.395001  2805 net.cpp:91] Creating Layer global_pool
I0411 16:54:19.395007  2805 net.cpp:425] global_pool <- global_in
I0411 16:54:19.395014  2805 net.cpp:399] global_pool -> global_pool
I0411 16:54:19.395347  2805 net.cpp:141] Setting up global_pool
I0411 16:54:19.395364  2805 net.cpp:148] Top shape: 256 128 1 1 (32768)
I0411 16:54:19.395369  2805 net.cpp:156] Memory required for data: 263326720
I0411 16:54:19.395373  2805 layer_factory.hpp:77] Creating layer ip
I0411 16:54:19.395392  2805 net.cpp:91] Creating Layer ip
I0411 16:54:19.395400  2805 net.cpp:425] ip <- global_pool
I0411 16:54:19.395407  2805 net.cpp:399] ip -> ip
I0411 16:54:19.395534  2805 net.cpp:141] Setting up ip
I0411 16:54:19.395544  2805 net.cpp:148] Top shape: 256 10 (2560)
I0411 16:54:19.395548  2805 net.cpp:156] Memory required for data: 263336960
I0411 16:54:19.395556  2805 layer_factory.hpp:77] Creating layer ip_ip_0_split
I0411 16:54:19.395563  2805 net.cpp:91] Creating Layer ip_ip_0_split
I0411 16:54:19.395568  2805 net.cpp:425] ip_ip_0_split <- ip
I0411 16:54:19.395577  2805 net.cpp:399] ip_ip_0_split -> ip_ip_0_split_0
I0411 16:54:19.395586  2805 net.cpp:399] ip_ip_0_split -> ip_ip_0_split_1
I0411 16:54:19.395624  2805 net.cpp:141] Setting up ip_ip_0_split
I0411 16:54:19.395633  2805 net.cpp:148] Top shape: 256 10 (2560)
I0411 16:54:19.395639  2805 net.cpp:148] Top shape: 256 10 (2560)
I0411 16:54:19.395643  2805 net.cpp:156] Memory required for data: 263357440
I0411 16:54:19.395648  2805 layer_factory.hpp:77] Creating layer accuracy
I0411 16:54:19.395661  2805 net.cpp:91] Creating Layer accuracy
I0411 16:54:19.395668  2805 net.cpp:425] accuracy <- ip_ip_0_split_0
I0411 16:54:19.395673  2805 net.cpp:425] accuracy <- label_data_1_split_0
I0411 16:54:19.395680  2805 net.cpp:399] accuracy -> accuracy
…
I0411 16:54:19.397420  2805 net.cpp:313] The NetState phase (1) differed from the phase (0) specified by a rule in layer data
I0411 16:54:19.397677  2805 net.cpp:49] Initializing net from parameters: 
name: "CifarResNet0"
state {
  phase: TEST
}
layer {
  name: "data"
  type: "Data"
  top: "data"
  top: "label"
  include {
    phase: TEST
  }
  transform_param {
    mean_file: "/home/liangjiang/code/residual_network/data/cifar10/mean.binaryproto"
  }
  data_param {
    source: "/home/liangjiang/code/residual_network/data/cifar10/cifar10_test_lmdb"
    batch_size: 32
    backend: LMDB
  }
}
layer {
  name: "conv1"
  type: "Convolution"
  bottom: "data"
  top: "conv1"
  param {
    lr_mult: 1
  }
  param {
    lr_mult: 2
  }
  convolution_param {
    num_output: 8
    pad: 1
    kernel_size: 3
    stride: 1
    weight_filler {
      type: "msra"
    }
    bias_filler {
      type: "constant"
      value: 0
    }
  }
}
layer {
  name: "bn_conv1"
  type: "BatchNorm"
  bottom: "conv1"
  top: "conv1"
  param {
    lr_mult: 0
  }
  param {
    lr_mult: 0
  }
  param {
    lr_mult: 0
  }
}
layer {
  name: "scale_conv1"
  type: "Scale"
  bottom: "conv1"
  top: "conv1"
  param {
    lr_mult: 1
  }
  param {
    lr_mult: 2
  }
  scale_param {
    bias_term: true
  }
}
layer {
  name: "conv1_relu"
  type: "ReLU"
  bottom: "conv1"
  top: "conv1"
}
layer {
  name: "conv1_down"
  type: "Convolution"
  bottom: "conv1"
  top: "conv1_down"
  param {
    lr_mult: 0
  }
  convolution_param {
    num_output: 128
    bias_term: false
    pad: 0
    kernel_size: 4
    stride: 4
    weight_filler {
      type: "downsample"
      value: 1
    }
  }
}
layer {
  name: "scale_conv1_down"
  type: "Scale"
  bottom: "conv1_down"
  top: "conv1_down"
  param {
    lr_mult: 1
  }
  param {
    lr_mult: 2
  }
  scale_param {
    filler {
      type: "constant"
      value: 1
    }
    bias_term: true
  }
}
layer {
  name: "conv2_1a"
  type: "Convolution"
  bottom: "conv1"
  top: "conv2_1a"
  param {
    lr_mult: 1
  }
  param {
    lr_mult: 2
  }
  convolution_param {
    num_output: 8
    pad: 1
    kernel_size: 3
    stride: 1
    weight_filler {
      type: "msra"
    }
    bias_filler {
      type: "constant"
      value: 0
    }
  }
}
layer {
  name: "bn_conv2_1a"
  type: "BatchNorm"
  bottom: "conv2_1a"
  top: "conv2_1a"
  param {
    lr_mult: 0
  }
  param {
    lr_mult: 0
  }
  param {
    lr_mult: 0
  }
}
layer {
  name: "scale_conv2_1a"
  type: "Scale"
  bottom: "conv2_1a"
  top: "conv2_1a"
  param {
    lr_mult: 1
  }
  param {
    lr_mult: 2
  }
  scale_param {
    bias_term: true
  }
}
layer {
  name: "conv2_1a_relu"
  type: "ReLU"
  bottom: "conv2_1a"
  top: "conv2_1a"
}
layer {
  name: "conv2_1b"
  type: "Convolution"
  bottom: "conv2_1a"
  top: "conv2_1b"
  param {
    lr_mult: 1
  }
  param {
    lr_mult: 2
  }
  convolution_param {
    num_output: 8
    pad: 1
    kernel_size: 3
    stride: 1
    weight_filler {
      type: "msra"
    }
    bias_filler {
      type: "constant"
      value: 0
    }
  }
}
layer {
  name: "bn_conv2_1b"
  type: "BatchNorm"
  bottom: "conv2_1b"
  top: "conv2_1b"
  param {
    lr_mult: 0
  }
  param {
    lr_mult: 0
  }
  param {
    lr_mult: 0
  }
}
layer {
  name: "scale_conv2_1b"
  type: "Scale"
  bottom: "conv2_1b"
  top: "conv2_1b"
  param {
    lr_mult: 1
  }
  param {
    lr_mult: 2
  }
  scale_param {
    bias_term: true
  }
}
layer {
  name: "conv2_1b_relu"
  type: "ReLU"
  bottom: "conv2_1b"
  top: "conv2_1b"
}
layer {
  name: "conv2_down"
  type: "Convolution"
  bottom: "conv2_1b"
  top: "conv2_down"
  param {
    lr_mult: 0
  }
  convolution_param {
    num_output: 128
    bias_term: false
    pad: 0
    kernel_size: 4
    stride: 4
    weight_filler {
      type: "downsample"
      value: 1
    }
  }
}
layer {
  name: "scale_conv2_down"
  type: "Scale"
  bottom: "conv2_down"
  top: "conv2_down"
  param {
    lr_mult: 1
  }
  param {
    lr_mult: 2
  }
  scale_param {
    filler {
      type: "constant"
      value: 1
    }
    bias_term: true
  }
}
layer {
  name: "conv3_1a"
  type: "Convolution"
  bottom: "conv2_1b"
  top: "conv3_1a"
  param {
    lr_mult: 1
  }
  param {
    lr_mult: 2
  }
  convolution_param {
    num_output: 32
    pad: 0
    kernel_size: 1
    stride: 2
    weight_filler {
      type: "msra"
    }
    bias_filler {
      type: "constant"
      value: 0
    }
  }
}
layer {
  name: "bn_conv3_1a"
  type: "BatchNorm"
  bottom: "conv3_1a"
  top: "conv3_1a"
  param {
    lr_mult: 0
  }
  param {
    lr_mult: 0
  }
  param {
    lr_mult: 0
  }
}
layer {
  name: "scale_conv3_1a"
  type: "Scale"
  bottom: "conv3_1a"
  top: "conv3_1a"
  param {
    lr_mult: 1
  }
  param {
    lr_mult: 2
  }
  scale_param {
    bias_term: true
  }
}
layer {
  name: "conv3_1a_relu"
  type: "ReLU"
  bottom: "conv3_1a"
  top: "conv3_1a"
}
layer {
  name: "conv3_1b"
  type: "Convolution"
  bottom: "conv3_1a"
  top: "conv3_1b"
  param {
    lr_mult: 1
  }
  param {
    lr_mult: 2
  }
  convolution_param {
    num_output: 32
    pad: 1
    kernel_size: 3
    stride: 1
    weight_filler {
      type: "msra"
    }
    bias_filler {
      type: "constant"
      value: 0
    }
  }
}
layer {
  name: "bn_conv3_1b"
  type: "BatchNorm"
  bottom: "conv3_1b"
  top: "conv3_1b"
  param {
    lr_mult: 0
  }
  param {
    lr_mult: 0
  }
  param {
    lr_mult: 0
  }
}
layer {
  name: "scale_conv3_1b"
  type: "Scale"
  bottom: "conv3_1b"
  top: "conv3_1b"
  param {
    lr_mult: 1
  }
  param {
    lr_mult: 2
  }
  scale_param {
    bias_term: true
  }
}
layer {
  name: "conv3_1b_relu"
  type: "ReLU"
  bottom: "conv3_1b"
  top: "conv3_1b"
}
layer {
  name: "conv3_down"
  type: "Convolution"
  bottom: "conv3_1b"
  top: "conv3_down"
  param {
    lr_mult: 0
  }
  convolution_param {
    num_output: 128
    bias_term: false
    pad: 0
    kernel_size: 2
    stride: 2
    weight_filler {
      type: "downsample"
      value: 1
    }
  }
}
layer {
  name: "scale_conv3_down"
  type: "Scale"
  bottom: "conv3_down"
  top: "conv3_down"
  param {
    lr_mult: 1
  }
  param {
    lr_mult: 2
  }
  scale_param {
    filler {
      type: "constant"
      value: 0.2
    }
    bias_term: true
  }
}
layer {
  name: "global_in"
  type: "Eltwise"
  bottom: "conv1_down"
  bottom: "conv2_down"
  bottom: "conv3_down"
  top: "global_in"
}
layer {
  name: "global_pool"
  type: "Pooling"
  bottom: "global_in"
  top: "global_pool"
  pooling_param {
    pool: AVE
    kernel_size: 8
  }
}
layer {
  name: "ip"
  type: "InnerProduct"
  bottom: "global_pool"
  top: "ip"
  param {
    lr_mult: 1
  }
  param {
    lr_mult: 2
  }
  inner_product_param {
    num_output: 10
  }
}
layer {
  name: "accuracy"
  type: "Accuracy"
  bottom: "ip"
  bottom: "label"
  top: "accuracy"
}
layer {
  name: "loss"
  type: "SoftmaxWithLoss"
  bottom: "ip"
  bottom: "label"
  top: "loss"
}
I0411 16:54:19.397857  2805 layer_factory.hpp:77] Creating layer data
I0411 16:54:19.397950  2805 net.cpp:91] Creating Layer data
I0411 16:54:19.397964  2805 net.cpp:399] data -> data
I0411 16:54:19.397975  2805 net.cpp:399] data -> label
I0411 16:54:19.397985  2805 data_transformer.cpp:25] Loading mean file from: /home/liangjiang/code/residual_network/data/cifar10/mean.binaryproto
I0411 16:54:19.399417  2938 db_lmdb.cpp:38] Opened lmdb /home/liangjiang/code/residual_network/data/cifar10/cifar10_test_lmdb
I0411 16:54:19.399737  2805 data_layer.cpp:41] output data size: 32,3,32,32
I0411 16:54:19.401952  2805 net.cpp:141] Setting up data
I0411 16:54:19.401976  2805 net.cpp:148] Top shape: 32 3 32 32 (98304)
I0411 16:54:19.401983  2805 net.cpp:148] Top shape: 32 (32)
I0411 16:54:19.401988  2805 net.cpp:156] Memory required for data: 393344
I0411 16:54:19.401995  2805 layer_factory.hpp:77] Creating layer label_data_1_split
I0411 16:54:19.402006  2805 net.cpp:91] Creating Layer label_data_1_split
I0411 16:54:19.402011  2805 net.cpp:425] label_data_1_split <- label
I0411 16:54:19.402020  2805 net.cpp:399] label_data_1_split -> label_data_1_split_0
I0411 16:54:19.402032  2805 net.cpp:399] label_data_1_split -> label_data_1_split_1
I0411 16:54:19.402169  2805 net.cpp:141] Setting up label_data_1_split
I0411 16:54:19.402182  2805 net.cpp:148] Top shape: 32 (32)
I0411 16:54:19.402189  2805 net.cpp:148] Top shape: 32 (32)
I0411 16:54:19.402194  2805 net.cpp:156] Memory required for data: 393600
I0411 16:54:19.402199  2805 layer_factory.hpp:77] Creating layer conv1
I0411 16:54:19.402215  2805 net.cpp:91] Creating Layer conv1
I0411 16:54:19.402220  2805 net.cpp:425] conv1 <- data
I0411 16:54:19.402233  2805 net.cpp:399] conv1 -> conv1
I0411 16:54:19.403456  2805 net.cpp:141] Setting up conv1
I0411 16:54:19.403475  2805 net.cpp:148] Top shape: 32 8 32 32 (262144)
I0411 16:54:19.403481  2805 net.cpp:156] Memory required for data: 1442176
I0411 16:54:19.403494  2805 layer_factory.hpp:77] Creating layer bn_conv1
I0411 16:54:19.403508  2805 net.cpp:91] Creating Layer bn_conv1
I0411 16:54:19.403514  2805 net.cpp:425] bn_conv1 <- conv1
I0411 16:54:19.403524  2805 net.cpp:386] bn_conv1 -> conv1 (in-place)
I0411 16:54:19.403826  2805 net.cpp:141] Setting up bn_conv1
I0411 16:54:19.403838  2805 net.cpp:148] Top shape: 32 8 32 32 (262144)
I0411 16:54:19.403843  2805 net.cpp:156] Memory required for data: 2490752
I0411 16:54:19.403857  2805 layer_factory.hpp:77] Creating layer scale_conv1
I0411 16:54:19.403869  2805 net.cpp:91] Creating Layer scale_conv1
I0411 16:54:19.403874  2805 net.cpp:425] scale_conv1 <- conv1
I0411 16:54:19.403882  2805 net.cpp:386] scale_conv1 -> conv1 (in-place)
I0411 16:54:19.403955  2805 layer_factory.hpp:77] Creating layer scale_conv1
I0411 16:54:19.404086  2805 net.cpp:141] Setting up scale_conv1
I0411 16:54:19.404096  2805 net.cpp:148] Top shape: 32 8 32 32 (262144)
I0411 16:54:19.404101  2805 net.cpp:156] Memory required for data: 3539328
I0411 16:54:19.404115  2805 layer_factory.hpp:77] Creating layer conv1_relu
I0411 16:54:19.404126  2805 net.cpp:91] Creating Layer conv1_relu
I0411 16:54:19.404131  2805 net.cpp:425] conv1_relu <- conv1
I0411 16:54:19.404137  2805 net.cpp:386] conv1_relu -> conv1 (in-place)
I0411 16:54:19.404481  2805 net.cpp:141] Setting up conv1_relu
I0411 16:54:19.404498  2805 net.cpp:148] Top shape: 32 8 32 32 (262144)
I0411 16:54:19.404505  2805 net.cpp:156] Memory required for data: 4587904
I0411 16:54:19.404510  2805 layer_factory.hpp:77] Creating layer conv1_conv1_relu_0_split
I0411 16:54:19.404520  2805 net.cpp:91] Creating Layer conv1_conv1_relu_0_split
I0411 16:54:19.404525  2805 net.cpp:425] conv1_conv1_relu_0_split <- conv1
I0411 16:54:19.404536  2805 net.cpp:399] conv1_conv1_relu_0_split -> conv1_conv1_relu_0_split_0
I0411 16:54:19.404557  2805 net.cpp:399] conv1_conv1_relu_0_split -> conv1_conv1_relu_0_split_1
I0411 16:54:19.404608  2805 net.cpp:141] Setting up conv1_conv1_relu_0_split
I0411 16:54:19.404616  2805 net.cpp:148] Top shape: 32 8 32 32 (262144)
I0411 16:54:19.404625  2805 net.cpp:148] Top shape: 32 8 32 32 (262144)
I0411 16:54:19.404649  2805 net.cpp:156] Memory required for data: 6685056
I0411 16:54:19.404662  2805 layer_factory.hpp:77] Creating layer conv1_down
I0411 16:54:19.404673  2805 net.cpp:91] Creating Layer conv1_down
I0411 16:54:19.404678  2805 net.cpp:425] conv1_down <- conv1_conv1_relu_0_split_0
I0411 16:54:19.404690  2805 net.cpp:399] conv1_down -> conv1_down
I0411 16:54:19.405828  2805 net.cpp:141] Setting up conv1_down
I0411 16:54:19.405848  2805 net.cpp:148] Top shape: 32 128 8 8 (262144)
I0411 16:54:19.405853  2805 net.cpp:156] Memory required for data: 7733632
I0411 16:54:19.405863  2805 layer_factory.hpp:77] Creating layer scale_conv1_down
I0411 16:54:19.405877  2805 net.cpp:91] Creating Layer scale_conv1_down
I0411 16:54:19.405884  2805 net.cpp:425] scale_conv1_down <- conv1_down
I0411 16:54:19.405891  2805 net.cpp:386] scale_conv1_down -> conv1_down (in-place)
I0411 16:54:19.405962  2805 layer_factory.hpp:77] Creating layer scale_conv1_down
I0411 16:54:19.406087  2805 net.cpp:141] Setting up scale_conv1_down
I0411 16:54:19.406098  2805 net.cpp:148] Top shape: 32 128 8 8 (262144)
I0411 16:54:19.406106  2805 net.cpp:156] Memory required for data: 8782208
I0411 16:54:19.406132  2805 layer_factory.hpp:77] Creating layer conv2_1a
I0411 16:54:19.406147  2805 net.cpp:91] Creating Layer conv2_1a
I0411 16:54:19.406153  2805 net.cpp:425] conv2_1a <- conv1_conv1_relu_0_split_1
I0411 16:54:19.406164  2805 net.cpp:399] conv2_1a -> conv2_1a
I0411 16:54:19.407183  2805 net.cpp:141] Setting up conv2_1a
I0411 16:54:19.407202  2805 net.cpp:148] Top shape: 32 8 32 32 (262144)
I0411 16:54:19.407210  2805 net.cpp:156] Memory required for data: 9830784
I0411 16:54:19.407219  2805 layer_factory.hpp:77] Creating layer bn_conv2_1a
I0411 16:54:19.407229  2805 net.cpp:91] Creating Layer bn_conv2_1a
I0411 16:54:19.407234  2805 net.cpp:425] bn_conv2_1a <- conv2_1a
I0411 16:54:19.407244  2805 net.cpp:386] bn_conv2_1a -> conv2_1a (in-place)
I0411 16:54:19.407497  2805 net.cpp:141] Setting up bn_conv2_1a
I0411 16:54:19.407507  2805 net.cpp:148] Top shape: 32 8 32 32 (262144)
I0411 16:54:19.407511  2805 net.cpp:156] Memory required for data: 10879360
I0411 16:54:19.407521  2805 layer_factory.hpp:77] Creating layer scale_conv2_1a
I0411 16:54:19.407532  2805 net.cpp:91] Creating Layer scale_conv2_1a
I0411 16:54:19.407537  2805 net.cpp:425] scale_conv2_1a <- conv2_1a
I0411 16:54:19.407546  2805 net.cpp:386] scale_conv2_1a -> conv2_1a (in-place)
I0411 16:54:19.407609  2805 layer_factory.hpp:77] Creating layer scale_conv2_1a
I0411 16:54:19.407805  2805 net.cpp:141] Setting up scale_conv2_1a
I0411 16:54:19.407819  2805 net.cpp:148] Top shape: 32 8 32 32 (262144)
I0411 16:54:19.407822  2805 net.cpp:156] Memory required for data: 11927936
I0411 16:54:19.407840  2805 layer_factory.hpp:77] Creating layer conv2_1a_relu
I0411 16:54:19.407857  2805 net.cpp:91] Creating Layer conv2_1a_relu
I0411 16:54:19.407862  2805 net.cpp:425] conv2_1a_relu <- conv2_1a
I0411 16:54:19.407871  2805 net.cpp:386] conv2_1a_relu -> conv2_1a (in-place)
I0411 16:54:19.408190  2805 net.cpp:141] Setting up conv2_1a_relu
I0411 16:54:19.408205  2805 net.cpp:148] Top shape: 32 8 32 32 (262144)
I0411 16:54:19.408210  2805 net.cpp:156] Memory required for data: 12976512
I0411 16:54:19.408215  2805 layer_factory.hpp:77] Creating layer conv2_1b
I0411 16:54:19.408246  2805 net.cpp:91] Creating Layer conv2_1b
I0411 16:54:19.408253  2805 net.cpp:425] conv2_1b <- conv2_1a
I0411 16:54:19.408264  2805 net.cpp:399] conv2_1b -> conv2_1b
I0411 16:54:19.409471  2805 net.cpp:141] Setting up conv2_1b
I0411 16:54:19.409499  2805 net.cpp:148] Top shape: 32 8 32 32 (262144)
I0411 16:54:19.409504  2805 net.cpp:156] Memory required for data: 14025088
I0411 16:54:19.409513  2805 layer_factory.hpp:77] Creating layer bn_conv2_1b
I0411 16:54:19.409523  2805 net.cpp:91] Creating Layer bn_conv2_1b
I0411 16:54:19.409528  2805 net.cpp:425] bn_conv2_1b <- conv2_1b
I0411 16:54:19.409538  2805 net.cpp:386] bn_conv2_1b -> conv2_1b (in-place)
I0411 16:54:19.409764  2805 net.cpp:141] Setting up bn_conv2_1b
I0411 16:54:19.409773  2805 net.cpp:148] Top shape: 32 8 32 32 (262144)
I0411 16:54:19.409778  2805 net.cpp:156] Memory required for data: 15073664
I0411 16:54:19.409788  2805 layer_factory.hpp:77] Creating layer scale_conv2_1b
I0411 16:54:19.409796  2805 net.cpp:91] Creating Layer scale_conv2_1b
I0411 16:54:19.409801  2805 net.cpp:425] scale_conv2_1b <- conv2_1b
I0411 16:54:19.409813  2805 net.cpp:386] scale_conv2_1b -> conv2_1b (in-place)
I0411 16:54:19.409860  2805 layer_factory.hpp:77] Creating layer scale_conv2_1b
I0411 16:54:19.409986  2805 net.cpp:141] Setting up scale_conv2_1b
I0411 16:54:19.409996  2805 net.cpp:148] Top shape: 32 8 32 32 (262144)
I0411 16:54:19.410001  2805 net.cpp:156] Memory required for data: 16122240
I0411 16:54:19.410009  2805 layer_factory.hpp:77] Creating layer conv2_1b_relu
I0411 16:54:19.410018  2805 net.cpp:91] Creating Layer conv2_1b_relu
I0411 16:54:19.410023  2805 net.cpp:425] conv2_1b_relu <- conv2_1b
I0411 16:54:19.410029  2805 net.cpp:386] conv2_1b_relu -> conv2_1b (in-place)
I0411 16:54:19.410233  2805 net.cpp:141] Setting up conv2_1b_relu
I0411 16:54:19.410248  2805 net.cpp:148] Top shape: 32 8 32 32 (262144)
I0411 16:54:19.410253  2805 net.cpp:156] Memory required for data: 17170816
I0411 16:54:19.410262  2805 layer_factory.hpp:77] Creating layer conv2_1b_conv2_1b_relu_0_split
I0411 16:54:19.410270  2805 net.cpp:91] Creating Layer conv2_1b_conv2_1b_relu_0_split
I0411 16:54:19.410275  2805 net.cpp:425] conv2_1b_conv2_1b_relu_0_split <- conv2_1b
I0411 16:54:19.410282  2805 net.cpp:399] conv2_1b_conv2_1b_relu_0_split -> conv2_1b_conv2_1b_relu_0_split_0
I0411 16:54:19.410291  2805 net.cpp:399] conv2_1b_conv2_1b_relu_0_split -> conv2_1b_conv2_1b_relu_0_split_1
I0411 16:54:19.410341  2805 net.cpp:141] Setting up conv2_1b_conv2_1b_relu_0_split
I0411 16:54:19.410349  2805 net.cpp:148] Top shape: 32 8 32 32 (262144)
I0411 16:54:19.410354  2805 net.cpp:148] Top shape: 32 8 32 32 (262144)
I0411 16:54:19.410359  2805 net.cpp:156] Memory required for data: 19267968
I0411 16:54:19.410363  2805 layer_factory.hpp:77] Creating layer conv2_down
I0411 16:54:19.410377  2805 net.cpp:91] Creating Layer conv2_down
I0411 16:54:19.410382  2805 net.cpp:425] conv2_down <- conv2_1b_conv2_1b_relu_0_split_0
I0411 16:54:19.410392  2805 net.cpp:399] conv2_down -> conv2_down
I0411 16:54:19.411430  2805 net.cpp:141] Setting up conv2_down
I0411 16:54:19.411449  2805 net.cpp:148] Top shape: 32 128 8 8 (262144)
I0411 16:54:19.411455  2805 net.cpp:156] Memory required for data: 20316544
I0411 16:54:19.411463  2805 layer_factory.hpp:77] Creating layer scale_conv2_down
I0411 16:54:19.411473  2805 net.cpp:91] Creating Layer scale_conv2_down
I0411 16:54:19.411478  2805 net.cpp:425] scale_conv2_down <- conv2_down
I0411 16:54:19.411489  2805 net.cpp:386] scale_conv2_down -> conv2_down (in-place)
I0411 16:54:19.411540  2805 layer_factory.hpp:77] Creating layer scale_conv2_down
I0411 16:54:19.411667  2805 net.cpp:141] Setting up scale_conv2_down
I0411 16:54:19.411677  2805 net.cpp:148] Top shape: 32 128 8 8 (262144)
I0411 16:54:19.411682  2805 net.cpp:156] Memory required for data: 21365120
I0411 16:54:19.411690  2805 layer_factory.hpp:77] Creating layer conv3_1a
I0411 16:54:19.411705  2805 net.cpp:91] Creating Layer conv3_1a
I0411 16:54:19.411710  2805 net.cpp:425] conv3_1a <- conv2_1b_conv2_1b_relu_0_split_1
I0411 16:54:19.411718  2805 net.cpp:399] conv3_1a -> conv3_1a
I0411 16:54:19.412818  2805 net.cpp:141] Setting up conv3_1a
I0411 16:54:19.412837  2805 net.cpp:148] Top shape: 32 32 16 16 (262144)
I0411 16:54:19.412842  2805 net.cpp:156] Memory required for data: 22413696
I0411 16:54:19.412850  2805 layer_factory.hpp:77] Creating layer bn_conv3_1a
I0411 16:54:19.412861  2805 net.cpp:91] Creating Layer bn_conv3_1a
I0411 16:54:19.412868  2805 net.cpp:425] bn_conv3_1a <- conv3_1a
I0411 16:54:19.412875  2805 net.cpp:386] bn_conv3_1a -> conv3_1a (in-place)
I0411 16:54:19.413090  2805 net.cpp:141] Setting up bn_conv3_1a
I0411 16:54:19.413105  2805 net.cpp:148] Top shape: 32 32 16 16 (262144)
I0411 16:54:19.413115  2805 net.cpp:156] Memory required for data: 23462272
I0411 16:54:19.413132  2805 layer_factory.hpp:77] Creating layer scale_conv3_1a
I0411 16:54:19.413141  2805 net.cpp:91] Creating Layer scale_conv3_1a
I0411 16:54:19.413146  2805 net.cpp:425] scale_conv3_1a <- conv3_1a
I0411 16:54:19.413158  2805 net.cpp:386] scale_conv3_1a -> conv3_1a (in-place)
I0411 16:54:19.413206  2805 layer_factory.hpp:77] Creating layer scale_conv3_1a
I0411 16:54:19.413334  2805 net.cpp:141] Setting up scale_conv3_1a
I0411 16:54:19.413343  2805 net.cpp:148] Top shape: 32 32 16 16 (262144)
I0411 16:54:19.413348  2805 net.cpp:156] Memory required for data: 24510848
I0411 16:54:19.413362  2805 layer_factory.hpp:77] Creating layer conv3_1a_relu
I0411 16:54:19.413370  2805 net.cpp:91] Creating Layer conv3_1a_relu
I0411 16:54:19.413375  2805 net.cpp:425] conv3_1a_relu <- conv3_1a
I0411 16:54:19.413383  2805 net.cpp:386] conv3_1a_relu -> conv3_1a (in-place)
I0411 16:54:19.413594  2805 net.cpp:141] Setting up conv3_1a_relu
I0411 16:54:19.413606  2805 net.cpp:148] Top shape: 32 32 16 16 (262144)
I0411 16:54:19.413611  2805 net.cpp:156] Memory required for data: 25559424
I0411 16:54:19.413616  2805 layer_factory.hpp:77] Creating layer conv3_1b
I0411 16:54:19.413636  2805 net.cpp:91] Creating Layer conv3_1b
I0411 16:54:19.413642  2805 net.cpp:425] conv3_1b <- conv3_1a
I0411 16:54:19.413651  2805 net.cpp:399] conv3_1b -> conv3_1b
I0411 16:54:19.415297  2805 net.cpp:141] Setting up conv3_1b
I0411 16:54:19.415320  2805 net.cpp:148] Top shape: 32 32 16 16 (262144)
I0411 16:54:19.415326  2805 net.cpp:156] Memory required for data: 26608000
I0411 16:54:19.415335  2805 layer_factory.hpp:77] Creating layer bn_conv3_1b
I0411 16:54:19.415345  2805 net.cpp:91] Creating Layer bn_conv3_1b
I0411 16:54:19.415351  2805 net.cpp:425] bn_conv3_1b <- conv3_1b
I0411 16:54:19.415364  2805 net.cpp:386] bn_conv3_1b -> conv3_1b (in-place)
I0411 16:54:19.415580  2805 net.cpp:141] Setting up bn_conv3_1b
I0411 16:54:19.415590  2805 net.cpp:148] Top shape: 32 32 16 16 (262144)
I0411 16:54:19.415594  2805 net.cpp:156] Memory required for data: 27656576
I0411 16:54:19.415603  2805 layer_factory.hpp:77] Creating layer scale_conv3_1b
I0411 16:54:19.415612  2805 net.cpp:91] Creating Layer scale_conv3_1b
I0411 16:54:19.415617  2805 net.cpp:425] scale_conv3_1b <- conv3_1b
I0411 16:54:19.415627  2805 net.cpp:386] scale_conv3_1b -> conv3_1b (in-place)
I0411 16:54:19.415673  2805 layer_factory.hpp:77] Creating layer scale_conv3_1b
I0411 16:54:19.415804  2805 net.cpp:141] Setting up scale_conv3_1b
I0411 16:54:19.415814  2805 net.cpp:148] Top shape: 32 32 16 16 (262144)
I0411 16:54:19.415819  2805 net.cpp:156] Memory required for data: 28705152
I0411 16:54:19.415827  2805 layer_factory.hpp:77] Creating layer conv3_1b_relu
I0411 16:54:19.415834  2805 net.cpp:91] Creating Layer conv3_1b_relu
I0411 16:54:19.415839  2805 net.cpp:425] conv3_1b_relu <- conv3_1b
I0411 16:54:19.415846  2805 net.cpp:386] conv3_1b_relu -> conv3_1b (in-place)
I0411 16:54:19.416169  2805 net.cpp:141] Setting up conv3_1b_relu
I0411 16:54:19.416185  2805 net.cpp:148] Top shape: 32 32 16 16 (262144)
I0411 16:54:19.416191  2805 net.cpp:156] Memory required for data: 29753728
I0411 16:54:19.416196  2805 layer_factory.hpp:77] Creating layer conv3_down
I0411 16:54:19.416211  2805 net.cpp:91] Creating Layer conv3_down
I0411 16:54:19.416218  2805 net.cpp:425] conv3_down <- conv3_1b
I0411 16:54:19.416227  2805 net.cpp:399] conv3_down -> conv3_down
I0411 16:54:19.417341  2805 net.cpp:141] Setting up conv3_down
I0411 16:54:19.417361  2805 net.cpp:148] Top shape: 32 128 8 8 (262144)
I0411 16:54:19.417366  2805 net.cpp:156] Memory required for data: 30802304
I0411 16:54:19.417374  2805 layer_factory.hpp:77] Creating layer scale_conv3_down
I0411 16:54:19.417387  2805 net.cpp:91] Creating Layer scale_conv3_down
I0411 16:54:19.417392  2805 net.cpp:425] scale_conv3_down <- conv3_down
I0411 16:54:19.417400  2805 net.cpp:386] scale_conv3_down -> conv3_down (in-place)
I0411 16:54:19.417455  2805 layer_factory.hpp:77] Creating layer scale_conv3_down
I0411 16:54:19.417600  2805 net.cpp:141] Setting up scale_conv3_down
I0411 16:54:19.417610  2805 net.cpp:148] Top shape: 32 128 8 8 (262144)
I0411 16:54:19.417615  2805 net.cpp:156] Memory required for data: 31850880
I0411 16:54:19.417623  2805 layer_factory.hpp:77] Creating layer global_in
I0411 16:54:19.417631  2805 net.cpp:91] Creating Layer global_in
I0411 16:54:19.417636  2805 net.cpp:425] global_in <- conv1_down
I0411 16:54:19.417644  2805 net.cpp:425] global_in <- conv2_down
I0411 16:54:19.417652  2805 net.cpp:425] global_in <- conv3_down
I0411 16:54:19.417660  2805 net.cpp:399] global_in -> global_in
I0411 16:54:19.417695  2805 net.cpp:141] Setting up global_in
I0411 16:54:19.417706  2805 net.cpp:148] Top shape: 32 128 8 8 (262144)
I0411 16:54:19.417711  2805 net.cpp:156] Memory required for data: 32899456
I0411 16:54:19.417716  2805 layer_factory.hpp:77] Creating layer global_pool
I0411 16:54:19.417724  2805 net.cpp:91] Creating Layer global_pool
I0411 16:54:19.417729  2805 net.cpp:425] global_pool <- global_in
I0411 16:54:19.417737  2805 net.cpp:399] global_pool -> global_pool
I0411 16:54:19.417956  2805 net.cpp:141] Setting up global_pool
I0411 16:54:19.417970  2805 net.cpp:148] Top shape: 32 128 1 1 (4096)
I0411 16:54:19.417984  2805 net.cpp:156] Memory required for data: 32915840
I0411 16:54:19.417989  2805 layer_factory.hpp:77] Creating layer ip
I0411 16:54:19.418004  2805 net.cpp:91] Creating Layer ip
I0411 16:54:19.418009  2805 net.cpp:425] ip <- global_pool
I0411 16:54:19.418020  2805 net.cpp:399] ip -> ip
I0411 16:54:19.418153  2805 net.cpp:141] Setting up ip
I0411 16:54:19.418162  2805 net.cpp:148] Top shape: 32 10 (320)
I0411 16:54:19.418166  2805 net.cpp:156] Memory required for data: 32917120
I0411 16:54:19.418174  2805 layer_factory.hpp:77] Creating layer ip_ip_0_split
I0411 16:54:19.418184  2805 net.cpp:91] Creating Layer ip_ip_0_split
I0411 16:54:19.418190  2805 net.cpp:425] ip_ip_0_split <- ip
I0411 16:54:19.418196  2805 net.cpp:399] ip_ip_0_split -> ip_ip_0_split_0
I0411 16:54:19.418205  2805 net.cpp:399] ip_ip_0_split -> ip_ip_0_split_1
I0411 16:54:19.418249  2805 net.cpp:141] Setting up ip_ip_0_split
I0411 16:54:19.418257  2805 net.cpp:148] Top shape: 32 10 (320)
I0411 16:54:19.418263  2805 net.cpp:148] Top shape: 32 10 (320)
I0411 16:54:19.418267  2805 net.cpp:156] Memory required for data: 32919680
I0411 16:54:19.418272  2805 layer_factory.hpp:77] Creating layer accuracy
I0411 16:54:19.418282  2805 net.cpp:91] Creating Layer accuracy
I0411 16:54:19.418287  2805 net.cpp:425] accuracy <- ip_ip_0_split_0
I0411 16:54:19.418293  2805 net.cpp:425] accuracy <- label_data_1_split_0
I0411 16:54:19.418299  2805 net.cpp:399] accuracy -> accuracy
…
I0411 17:13:35.441102 27496 net.cpp:313] The NetState phase (0) differed from the phase (1) specified by a rule in layer data
I0411 17:13:35.441431 27496 net.cpp:49] Initializing net from parameters: 
name: "CifarResNet0"
state {
  phase: TRAIN
}
layer {
  name: "data"
  type: "Data"
  top: "data"
  top: "label"
  include {
    phase: TRAIN
  }
  transform_param {
    mean_file: "/home/liangjiang/code/residual_network/data/cifar10/mean.binaryproto"
  }
  data_param {
    source: "/home/liangjiang/code/residual_network/data/cifar10/cifar10_train_lmdb"
    batch_size: 128
    backend: LMDB
  }
}
layer {
  name: "conv1"
  type: "Convolution"
  bottom: "data"
  top: "conv1"
  param {
    lr_mult: 1
  }
  param {
    lr_mult: 2
  }
  convolution_param {
    num_output: 8
    pad: 1
    kernel_size: 3
    stride: 1
    weight_filler {
      type: "msra"
    }
    bias_filler {
      type: "constant"
      value: 0
    }
  }
}
layer {
  name: "bn_conv1"
  type: "BatchNorm"
  bottom: "conv1"
  top: "conv1"
  param {
    lr_mult: 0
  }
  param {
    lr_mult: 0
  }
  param {
    lr_mult: 0
  }
}
layer {
  name: "scale_conv1"
  type: "Scale"
  bottom: "conv1"
  top: "conv1"
  param {
    lr_mult: 1
  }
  param {
    lr_mult: 2
  }
  scale_param {
    bias_term: true
  }
}
layer {
  name: "conv1_relu"
  type: "ReLU"
  bottom: "conv1"
  top: "conv1"
}
layer {
  name: "conv1_down"
  type: "Convolution"
  bottom: "conv1"
  top: "conv1_down"
  param {
    lr_mult: 0
  }
  convolution_param {
    num_output: 128
    bias_term: false
    pad: 0
    kernel_size: 4
    stride: 4
    weight_filler {
      type: "downsample"
      value: 1
    }
  }
}
layer {
  name: "scale_conv1_down"
  type: "Scale"
  bottom: "conv1_down"
  top: "conv1_down"
  param {
    lr_mult: 1
  }
  param {
    lr_mult: 2
  }
  scale_param {
    filler {
      type: "constant"
      value: 1
    }
    bias_term: true
  }
}
layer {
  name: "conv2_1a"
  type: "Convolution"
  bottom: "conv1"
  top: "conv2_1a"
  param {
    lr_mult: 1
  }
  param {
    lr_mult: 2
  }
  convolution_param {
    num_output: 8
    pad: 1
    kernel_size: 3
    stride: 1
    weight_filler {
      type: "msra"
    }
    bias_filler {
      type: "constant"
      value: 0
    }
  }
}
layer {
  name: "bn_conv2_1a"
  type: "BatchNorm"
  bottom: "conv2_1a"
  top: "conv2_1a"
  param {
    lr_mult: 0
  }
  param {
    lr_mult: 0
  }
  param {
    lr_mult: 0
  }
}
layer {
  name: "scale_conv2_1a"
  type: "Scale"
  bottom: "conv2_1a"
  top: "conv2_1a"
  param {
    lr_mult: 1
  }
  param {
    lr_mult: 2
  }
  scale_param {
    bias_term: true
  }
}
layer {
  name: "conv2_1a_relu"
  type: "ReLU"
  bottom: "conv2_1a"
  top: "conv2_1a"
}
layer {
  name: "conv2_1b"
  type: "Convolution"
  bottom: "conv2_1a"
  top: "conv2_1b"
  param {
    lr_mult: 1
  }
  param {
    lr_mult: 2
  }
  convolution_param {
    num_output: 8
    pad: 1
    kernel_size: 3
    stride: 1
    weight_filler {
      type: "msra"
    }
    bias_filler {
      type: "constant"
      value: 0
    }
  }
}
layer {
  name: "bn_conv2_1b"
  type: "BatchNorm"
  bottom: "conv2_1b"
  top: "conv2_1b"
  param {
    lr_mult: 0
  }
  param {
    lr_mult: 0
  }
  param {
    lr_mult: 0
  }
}
layer {
  name: "scale_conv2_1b"
  type: "Scale"
  bottom: "conv2_1b"
  top: "conv2_1b"
  param {
    lr_mult: 1
  }
  param {
    lr_mult: 2
  }
  scale_param {
    bias_term: true
  }
}
layer {
  name: "conv2_1b_relu"
  type: "ReLU"
  bottom: "conv2_1b"
  top: "conv2_1b"
}
layer {
  name: "conv2_down"
  type: "Convolution"
  bottom: "conv2_1b"
  top: "conv2_down"
  param {
    lr_mult: 0
  }
  convolution_param {
    num_output: 128
    bias_term: false
    pad: 0
    kernel_size: 4
    stride: 4
    weight_filler {
      type: "downsample"
      value: 1
    }
  }
}
layer {
  name: "scale_conv2_down"
  type: "Scale"
  bottom: "conv2_down"
  top: "conv2_down"
  param {
    lr_mult: 1
  }
  param {
    lr_mult: 2
  }
  scale_param {
    filler {
      type: "constant"
      value: 1
    }
    bias_term: true
  }
}
layer {
  name: "conv3_1a"
  type: "Convolution"
  bottom: "conv2_1b"
  top: "conv3_1a"
  param {
    lr_mult: 1
  }
  param {
    lr_mult: 2
  }
  convolution_param {
    num_output: 32
    pad: 0
    kernel_size: 1
    stride: 2
    weight_filler {
      type: "msra"
    }
    bias_filler {
      type: "constant"
      value: 0
    }
  }
}
layer {
  name: "bn_conv3_1a"
  type: "BatchNorm"
  bottom: "conv3_1a"
  top: "conv3_1a"
  param {
    lr_mult: 0
  }
  param {
    lr_mult: 0
  }
  param {
    lr_mult: 0
  }
}
layer {
  name: "scale_conv3_1a"
  type: "Scale"
  bottom: "conv3_1a"
  top: "conv3_1a"
  param {
    lr_mult: 1
  }
  param {
    lr_mult: 2
  }
  scale_param {
    bias_term: true
  }
}
layer {
  name: "conv3_1a_relu"
  type: "ReLU"
  bottom: "conv3_1a"
  top: "conv3_1a"
}
layer {
  name: "conv3_1b"
  type: "Convolution"
  bottom: "conv3_1a"
  top: "conv3_1b"
  param {
    lr_mult: 2
  }
  param {
    lr_mult: 2
  }
  convolution_param {
    num_output: 32
    pad: 1
    kernel_size: 3
    stride: 1
    weight_filler {
      type: "msra"
    }
    bias_filler {
      type: "constant"
      value: 0
    }
  }
}
layer {
  name: "bn_conv3_1b"
  type: "BatchNorm"
  bottom: "conv3_1b"
  top: "conv3_1b"
  param {
    lr_mult: 0
  }
  param {
    lr_mult: 0
  }
  param {
    lr_mult: 0
  }
}
layer {
  name: "scale_conv3_1b"
  type: "Scale"
  bottom: "conv3_1b"
  top: "conv3_1b"
  param {
    lr_mult: 1
  }
  param {
    lr_mult: 2
  }
  scale_param {
    bias_term: true
  }
}
layer {
  name: "conv3_1b_relu"
  type: "ReLU"
  bottom: "conv3_1b"
  top: "conv3_1b"
}
layer {
  name: "conv3_down"
  type: "Convolution"
  bottom: "conv3_1b"
  top: "conv3_down"
  param {
    lr_mult: 0
  }
  convolution_param {
    num_output: 128
    bias_term: false
    pad: 0
    kernel_size: 2
    stride: 2
    weight_filler {
      type: "downsample"
      value: 1
    }
  }
}
layer {
  name: "scale_conv3_down"
  type: "Scale"
  bottom: "conv3_down"
  top: "conv3_down"
  param {
    lr_mult: 1
  }
  param {
    lr_mult: 2
  }
  scale_param {
    filler {
      type: "constant"
      value: 1
    }
    bias_term: true
  }
}
layer {
  name: "conv4_1a"
  type: "Convolution"
  bottom: "conv3_1b"
  top: "conv4_1a"
  param {
    lr_mult: 1
  }
  param {
    lr_mult: 2
  }
  convolution_param {
    num_output: 128
    pad: 0
    kernel_size: 1
    stride: 2
    weight_filler {
      type: "msra"
    }
    bias_filler {
      type: "constant"
      value: 0
    }
  }
}
layer {
  name: "bn_conv4_1a"
  type: "BatchNorm"
  bottom: "conv4_1a"
  top: "conv4_1a"
  param {
    lr_mult: 0
  }
  param {
    lr_mult: 0
  }
  param {
    lr_mult: 0
  }
}
layer {
  name: "scale_conv4_1a"
  type: "Scale"
  bottom: "conv4_1a"
  top: "conv4_1a"
  param {
    lr_mult: 1
  }
  param {
    lr_mult: 2
  }
  scale_param {
    bias_term: true
  }
}
layer {
  name: "conv4_1a_relu"
  type: "ReLU"
  bottom: "conv4_1a"
  top: "conv4_1a"
}
layer {
  name: "conv4_1b"
  type: "Convolution"
  bottom: "conv4_1a"
  top: "conv4_1b"
  param {
    lr_mult: 1
  }
  param {
    lr_mult: 2
  }
  convolution_param {
    num_output: 128
    pad: 1
    kernel_size: 3
    stride: 1
    weight_filler {
      type: "msra"
    }
    bias_filler {
      type: "constant"
      value: 0
    }
  }
}
layer {
  name: "bn_conv4_1b"
  type: "BatchNorm"
  bottom: "conv4_1b"
  top: "conv4_1b"
  param {
    lr_mult: 0
  }
  param {
    lr_mult: 0
  }
  param {
    lr_mult: 0
  }
}
layer {
  name: "scale_conv4_1b"
  type: "Scale"
  bottom: "conv4_1b"
  top: "conv4_1b"
  param {
    lr_mult: 1
  }
  param {
    lr_mult: 2
  }
  scale_param {
    bias_term: true
  }
}
layer {
  name: "conv4_1b_relu"
  type: "ReLU"
  bottom: "conv4_1b"
  top: "conv4_1b"
}
layer {
  name: "conv4_down"
  type: "Convolution"
  bottom: "conv4_1b"
  top: "conv4_down"
  param {
    lr_mult: 0
  }
  convolution_param {
    num_output: 128
    bias_term: false
    pad: 0
    kernel_size: 1
    stride: 1
    weight_filler {
      type: "downsample"
      value: 0
    }
  }
}
layer {
  name: "scale_conv4_down"
  type: "Scale"
  bottom: "conv4_down"
  top: "conv4_down"
  param {
    lr_mult: 1
  }
  param {
    lr_mult: 2
  }
  scale_param {
    filler {
      type: "constant"
      value: 0.2
    }
    bias_term: true
  }
}
layer {
  name: "global_in"
  type: "Eltwise"
  bottom: "conv1_down"
  bottom: "conv2_down"
  bottom: "conv3_down"
  bottom: "conv4_down"
  top: "global_in"
}
layer {
  name: "global_pool"
  type: "Pooling"
  bottom: "global_in"
  top: "global_pool"
  pooling_param {
    pool: AVE
    kernel_size: 8
  }
}
layer {
  name: "ip"
  type: "InnerProduct"
  bottom: "global_pool"
  top: "ip"
  param {
    lr_mult: 1
  }
  param {
    lr_mult: 2
  }
  inner_product_param {
    num_output: 10
  }
}
layer {
  name: "accuracy"
  type: "Accuracy"
  bottom: "ip"
  bottom: "label"
  top: "accuracy"
}
layer {
  name: "loss"
  type: "SoftmaxWithLoss"
  bottom: "ip"
  bottom: "label"
  top: "loss"
}
I0411 17:13:35.441668 27496 layer_factory.hpp:77] Creating layer data
I0411 17:13:35.442199 27496 net.cpp:91] Creating Layer data
I0411 17:13:35.442214 27496 net.cpp:399] data -> data
I0411 17:13:35.442245 27496 net.cpp:399] data -> label
I0411 17:13:35.442261 27496 data_transformer.cpp:25] Loading mean file from: /home/liangjiang/code/residual_network/data/cifar10/mean.binaryproto
I0411 17:13:35.444449 27630 db_lmdb.cpp:38] Opened lmdb /home/liangjiang/code/residual_network/data/cifar10/cifar10_train_lmdb
I0411 17:13:35.453696 27496 data_layer.cpp:41] output data size: 128,3,32,32
I0411 17:13:35.456878 27496 net.cpp:141] Setting up data
I0411 17:13:35.456903 27496 net.cpp:148] Top shape: 128 3 32 32 (393216)
I0411 17:13:35.456912 27496 net.cpp:148] Top shape: 128 (128)
I0411 17:13:35.456918 27496 net.cpp:156] Memory required for data: 1573376
I0411 17:13:35.456925 27496 layer_factory.hpp:77] Creating layer label_data_1_split
I0411 17:13:35.456960 27496 net.cpp:91] Creating Layer label_data_1_split
I0411 17:13:35.456969 27496 net.cpp:425] label_data_1_split <- label
I0411 17:13:35.456979 27496 net.cpp:399] label_data_1_split -> label_data_1_split_0
I0411 17:13:35.456991 27496 net.cpp:399] label_data_1_split -> label_data_1_split_1
I0411 17:13:35.457062 27496 net.cpp:141] Setting up label_data_1_split
I0411 17:13:35.457074 27496 net.cpp:148] Top shape: 128 (128)
I0411 17:13:35.457080 27496 net.cpp:148] Top shape: 128 (128)
I0411 17:13:35.457085 27496 net.cpp:156] Memory required for data: 1574400
I0411 17:13:35.457092 27496 layer_factory.hpp:77] Creating layer conv1
I0411 17:13:35.457123 27496 net.cpp:91] Creating Layer conv1
I0411 17:13:35.457131 27496 net.cpp:425] conv1 <- data
I0411 17:13:35.457141 27496 net.cpp:399] conv1 -> conv1
I0411 17:13:35.713086 27496 net.cpp:141] Setting up conv1
I0411 17:13:35.713189 27496 net.cpp:148] Top shape: 128 8 32 32 (1048576)
I0411 17:13:35.713217 27496 net.cpp:156] Memory required for data: 5768704
I0411 17:13:35.713263 27496 layer_factory.hpp:77] Creating layer bn_conv1
I0411 17:13:35.713289 27496 net.cpp:91] Creating Layer bn_conv1
I0411 17:13:35.713302 27496 net.cpp:425] bn_conv1 <- conv1
I0411 17:13:35.713320 27496 net.cpp:386] bn_conv1 -> conv1 (in-place)
I0411 17:13:35.713708 27496 net.cpp:141] Setting up bn_conv1
I0411 17:13:35.713727 27496 net.cpp:148] Top shape: 128 8 32 32 (1048576)
I0411 17:13:35.713738 27496 net.cpp:156] Memory required for data: 9963008
I0411 17:13:35.713768 27496 layer_factory.hpp:77] Creating layer scale_conv1
I0411 17:13:35.713788 27496 net.cpp:91] Creating Layer scale_conv1
I0411 17:13:35.713799 27496 net.cpp:425] scale_conv1 <- conv1
I0411 17:13:35.713814 27496 net.cpp:386] scale_conv1 -> conv1 (in-place)
I0411 17:13:35.713888 27496 layer_factory.hpp:77] Creating layer scale_conv1
I0411 17:13:35.714118 27496 net.cpp:141] Setting up scale_conv1
I0411 17:13:35.714136 27496 net.cpp:148] Top shape: 128 8 32 32 (1048576)
I0411 17:13:35.714146 27496 net.cpp:156] Memory required for data: 14157312
I0411 17:13:35.714162 27496 layer_factory.hpp:77] Creating layer conv1_relu
I0411 17:13:35.714177 27496 net.cpp:91] Creating Layer conv1_relu
I0411 17:13:35.714189 27496 net.cpp:425] conv1_relu <- conv1
I0411 17:13:35.714205 27496 net.cpp:386] conv1_relu -> conv1 (in-place)
I0411 17:13:35.714776 27496 net.cpp:141] Setting up conv1_relu
I0411 17:13:35.714805 27496 net.cpp:148] Top shape: 128 8 32 32 (1048576)
I0411 17:13:35.714817 27496 net.cpp:156] Memory required for data: 18351616
I0411 17:13:35.714828 27496 layer_factory.hpp:77] Creating layer conv1_conv1_relu_0_split
I0411 17:13:35.714846 27496 net.cpp:91] Creating Layer conv1_conv1_relu_0_split
I0411 17:13:35.714857 27496 net.cpp:425] conv1_conv1_relu_0_split <- conv1
I0411 17:13:35.714874 27496 net.cpp:399] conv1_conv1_relu_0_split -> conv1_conv1_relu_0_split_0
I0411 17:13:35.714892 27496 net.cpp:399] conv1_conv1_relu_0_split -> conv1_conv1_relu_0_split_1
I0411 17:13:35.714979 27496 net.cpp:141] Setting up conv1_conv1_relu_0_split
I0411 17:13:35.714996 27496 net.cpp:148] Top shape: 128 8 32 32 (1048576)
I0411 17:13:35.715008 27496 net.cpp:148] Top shape: 128 8 32 32 (1048576)
I0411 17:13:35.715018 27496 net.cpp:156] Memory required for data: 26740224
I0411 17:13:35.715029 27496 layer_factory.hpp:77] Creating layer conv1_down
I0411 17:13:35.715054 27496 net.cpp:91] Creating Layer conv1_down
I0411 17:13:35.715065 27496 net.cpp:425] conv1_down <- conv1_conv1_relu_0_split_0
I0411 17:13:35.715085 27496 net.cpp:399] conv1_down -> conv1_down
I0411 17:13:35.717681 27496 net.cpp:141] Setting up conv1_down
I0411 17:13:35.717716 27496 net.cpp:148] Top shape: 128 128 8 8 (1048576)
I0411 17:13:35.717730 27496 net.cpp:156] Memory required for data: 30934528
I0411 17:13:35.717744 27496 layer_factory.hpp:77] Creating layer scale_conv1_down
I0411 17:13:35.717770 27496 net.cpp:91] Creating Layer scale_conv1_down
I0411 17:13:35.717782 27496 net.cpp:425] scale_conv1_down <- conv1_down
I0411 17:13:35.717803 27496 net.cpp:386] scale_conv1_down -> conv1_down (in-place)
I0411 17:13:35.717895 27496 layer_factory.hpp:77] Creating layer scale_conv1_down
I0411 17:13:35.718122 27496 net.cpp:141] Setting up scale_conv1_down
I0411 17:13:35.718140 27496 net.cpp:148] Top shape: 128 128 8 8 (1048576)
I0411 17:13:35.718150 27496 net.cpp:156] Memory required for data: 35128832
I0411 17:13:35.718176 27496 layer_factory.hpp:77] Creating layer conv2_1a
I0411 17:13:35.718201 27496 net.cpp:91] Creating Layer conv2_1a
I0411 17:13:35.718214 27496 net.cpp:425] conv2_1a <- conv1_conv1_relu_0_split_1
I0411 17:13:35.718230 27496 net.cpp:399] conv2_1a -> conv2_1a
I0411 17:13:35.720162 27496 net.cpp:141] Setting up conv2_1a
I0411 17:13:35.720194 27496 net.cpp:148] Top shape: 128 8 32 32 (1048576)
I0411 17:13:35.720206 27496 net.cpp:156] Memory required for data: 39323136
I0411 17:13:35.720224 27496 layer_factory.hpp:77] Creating layer bn_conv2_1a
I0411 17:13:35.720255 27496 net.cpp:91] Creating Layer bn_conv2_1a
I0411 17:13:35.720268 27496 net.cpp:425] bn_conv2_1a <- conv2_1a
I0411 17:13:35.720293 27496 net.cpp:386] bn_conv2_1a -> conv2_1a (in-place)
I0411 17:13:35.720685 27496 net.cpp:141] Setting up bn_conv2_1a
I0411 17:13:35.720703 27496 net.cpp:148] Top shape: 128 8 32 32 (1048576)
I0411 17:13:35.720713 27496 net.cpp:156] Memory required for data: 43517440
I0411 17:13:35.720732 27496 layer_factory.hpp:77] Creating layer scale_conv2_1a
I0411 17:13:35.720748 27496 net.cpp:91] Creating Layer scale_conv2_1a
I0411 17:13:35.720759 27496 net.cpp:425] scale_conv2_1a <- conv2_1a
I0411 17:13:35.720773 27496 net.cpp:386] scale_conv2_1a -> conv2_1a (in-place)
I0411 17:13:35.720850 27496 layer_factory.hpp:77] Creating layer scale_conv2_1a
I0411 17:13:35.721074 27496 net.cpp:141] Setting up scale_conv2_1a
I0411 17:13:35.721091 27496 net.cpp:148] Top shape: 128 8 32 32 (1048576)
I0411 17:13:35.721101 27496 net.cpp:156] Memory required for data: 47711744
I0411 17:13:35.721148 27496 layer_factory.hpp:77] Creating layer conv2_1a_relu
I0411 17:13:35.721166 27496 net.cpp:91] Creating Layer conv2_1a_relu
I0411 17:13:35.721177 27496 net.cpp:425] conv2_1a_relu <- conv2_1a
I0411 17:13:35.721191 27496 net.cpp:386] conv2_1a_relu -> conv2_1a (in-place)
I0411 17:13:35.721735 27496 net.cpp:141] Setting up conv2_1a_relu
I0411 17:13:35.721762 27496 net.cpp:148] Top shape: 128 8 32 32 (1048576)
I0411 17:13:35.721772 27496 net.cpp:156] Memory required for data: 51906048
I0411 17:13:35.721782 27496 layer_factory.hpp:77] Creating layer conv2_1b
I0411 17:13:35.721807 27496 net.cpp:91] Creating Layer conv2_1b
I0411 17:13:35.721818 27496 net.cpp:425] conv2_1b <- conv2_1a
I0411 17:13:35.721839 27496 net.cpp:399] conv2_1b -> conv2_1b
I0411 17:13:35.723692 27496 net.cpp:141] Setting up conv2_1b
I0411 17:13:35.723721 27496 net.cpp:148] Top shape: 128 8 32 32 (1048576)
I0411 17:13:35.723732 27496 net.cpp:156] Memory required for data: 56100352
I0411 17:13:35.723748 27496 layer_factory.hpp:77] Creating layer bn_conv2_1b
I0411 17:13:35.723767 27496 net.cpp:91] Creating Layer bn_conv2_1b
I0411 17:13:35.723778 27496 net.cpp:425] bn_conv2_1b <- conv2_1b
I0411 17:13:35.723793 27496 net.cpp:386] bn_conv2_1b -> conv2_1b (in-place)
I0411 17:13:35.724160 27496 net.cpp:141] Setting up bn_conv2_1b
I0411 17:13:35.724176 27496 net.cpp:148] Top shape: 128 8 32 32 (1048576)
I0411 17:13:35.724185 27496 net.cpp:156] Memory required for data: 60294656
I0411 17:13:35.724203 27496 layer_factory.hpp:77] Creating layer scale_conv2_1b
I0411 17:13:35.724221 27496 net.cpp:91] Creating Layer scale_conv2_1b
I0411 17:13:35.724231 27496 net.cpp:425] scale_conv2_1b <- conv2_1b
I0411 17:13:35.724244 27496 net.cpp:386] scale_conv2_1b -> conv2_1b (in-place)
I0411 17:13:35.724311 27496 layer_factory.hpp:77] Creating layer scale_conv2_1b
I0411 17:13:35.724519 27496 net.cpp:141] Setting up scale_conv2_1b
I0411 17:13:35.724535 27496 net.cpp:148] Top shape: 128 8 32 32 (1048576)
I0411 17:13:35.724545 27496 net.cpp:156] Memory required for data: 64488960
I0411 17:13:35.724558 27496 layer_factory.hpp:77] Creating layer conv2_1b_relu
I0411 17:13:35.724575 27496 net.cpp:91] Creating Layer conv2_1b_relu
I0411 17:13:35.724584 27496 net.cpp:425] conv2_1b_relu <- conv2_1b
I0411 17:13:35.724596 27496 net.cpp:386] conv2_1b_relu -> conv2_1b (in-place)
I0411 17:13:35.724937 27496 net.cpp:141] Setting up conv2_1b_relu
I0411 17:13:35.724961 27496 net.cpp:148] Top shape: 128 8 32 32 (1048576)
I0411 17:13:35.724970 27496 net.cpp:156] Memory required for data: 68683264
I0411 17:13:35.724980 27496 layer_factory.hpp:77] Creating layer conv2_1b_conv2_1b_relu_0_split
I0411 17:13:35.724993 27496 net.cpp:91] Creating Layer conv2_1b_conv2_1b_relu_0_split
I0411 17:13:35.725003 27496 net.cpp:425] conv2_1b_conv2_1b_relu_0_split <- conv2_1b
I0411 17:13:35.725016 27496 net.cpp:399] conv2_1b_conv2_1b_relu_0_split -> conv2_1b_conv2_1b_relu_0_split_0
I0411 17:13:35.725033 27496 net.cpp:399] conv2_1b_conv2_1b_relu_0_split -> conv2_1b_conv2_1b_relu_0_split_1
I0411 17:13:35.725131 27496 net.cpp:141] Setting up conv2_1b_conv2_1b_relu_0_split
I0411 17:13:35.725149 27496 net.cpp:148] Top shape: 128 8 32 32 (1048576)
I0411 17:13:35.725162 27496 net.cpp:148] Top shape: 128 8 32 32 (1048576)
I0411 17:13:35.725169 27496 net.cpp:156] Memory required for data: 77071872
I0411 17:13:35.725179 27496 layer_factory.hpp:77] Creating layer conv2_down
I0411 17:13:35.725205 27496 net.cpp:91] Creating Layer conv2_down
I0411 17:13:35.725216 27496 net.cpp:425] conv2_down <- conv2_1b_conv2_1b_relu_0_split_0
I0411 17:13:35.725234 27496 net.cpp:399] conv2_down -> conv2_down
I0411 17:13:35.726958 27496 net.cpp:141] Setting up conv2_down
I0411 17:13:35.726989 27496 net.cpp:148] Top shape: 128 128 8 8 (1048576)
I0411 17:13:35.727000 27496 net.cpp:156] Memory required for data: 81266176
I0411 17:13:35.727015 27496 layer_factory.hpp:77] Creating layer scale_conv2_down
I0411 17:13:35.727032 27496 net.cpp:91] Creating Layer scale_conv2_down
I0411 17:13:35.727042 27496 net.cpp:425] scale_conv2_down <- conv2_down
I0411 17:13:35.727059 27496 net.cpp:386] scale_conv2_down -> conv2_down (in-place)
I0411 17:13:35.727145 27496 layer_factory.hpp:77] Creating layer scale_conv2_down
I0411 17:13:35.727356 27496 net.cpp:141] Setting up scale_conv2_down
I0411 17:13:35.727372 27496 net.cpp:148] Top shape: 128 128 8 8 (1048576)
I0411 17:13:35.727381 27496 net.cpp:156] Memory required for data: 85460480
I0411 17:13:35.727396 27496 layer_factory.hpp:77] Creating layer conv3_1a
I0411 17:13:35.727421 27496 net.cpp:91] Creating Layer conv3_1a
I0411 17:13:35.727432 27496 net.cpp:425] conv3_1a <- conv2_1b_conv2_1b_relu_0_split_1
I0411 17:13:35.727447 27496 net.cpp:399] conv3_1a -> conv3_1a
I0411 17:13:35.729323 27496 net.cpp:141] Setting up conv3_1a
I0411 17:13:35.729353 27496 net.cpp:148] Top shape: 128 32 16 16 (1048576)
I0411 17:13:35.729364 27496 net.cpp:156] Memory required for data: 89654784
I0411 17:13:35.729380 27496 layer_factory.hpp:77] Creating layer bn_conv3_1a
I0411 17:13:35.729398 27496 net.cpp:91] Creating Layer bn_conv3_1a
I0411 17:13:35.729408 27496 net.cpp:425] bn_conv3_1a <- conv3_1a
I0411 17:13:35.729424 27496 net.cpp:386] bn_conv3_1a -> conv3_1a (in-place)
I0411 17:13:35.729789 27496 net.cpp:141] Setting up bn_conv3_1a
I0411 17:13:35.729804 27496 net.cpp:148] Top shape: 128 32 16 16 (1048576)
I0411 17:13:35.729814 27496 net.cpp:156] Memory required for data: 93849088
I0411 17:13:35.729830 27496 layer_factory.hpp:77] Creating layer scale_conv3_1a
I0411 17:13:35.729846 27496 net.cpp:91] Creating Layer scale_conv3_1a
I0411 17:13:35.729856 27496 net.cpp:425] scale_conv3_1a <- conv3_1a
I0411 17:13:35.729868 27496 net.cpp:386] scale_conv3_1a -> conv3_1a (in-place)
I0411 17:13:35.729938 27496 layer_factory.hpp:77] Creating layer scale_conv3_1a
I0411 17:13:35.730149 27496 net.cpp:141] Setting up scale_conv3_1a
I0411 17:13:35.730168 27496 net.cpp:148] Top shape: 128 32 16 16 (1048576)
I0411 17:13:35.730178 27496 net.cpp:156] Memory required for data: 98043392
I0411 17:13:35.730201 27496 layer_factory.hpp:77] Creating layer conv3_1a_relu
I0411 17:13:35.730217 27496 net.cpp:91] Creating Layer conv3_1a_relu
I0411 17:13:35.730227 27496 net.cpp:425] conv3_1a_relu <- conv3_1a
I0411 17:13:35.730239 27496 net.cpp:386] conv3_1a_relu -> conv3_1a (in-place)
I0411 17:13:35.730578 27496 net.cpp:141] Setting up conv3_1a_relu
I0411 17:13:35.730598 27496 net.cpp:148] Top shape: 128 32 16 16 (1048576)
I0411 17:13:35.730608 27496 net.cpp:156] Memory required for data: 102237696
I0411 17:13:35.730618 27496 layer_factory.hpp:77] Creating layer conv3_1b
I0411 17:13:35.730640 27496 net.cpp:91] Creating Layer conv3_1b
I0411 17:13:35.730651 27496 net.cpp:425] conv3_1b <- conv3_1a
I0411 17:13:35.730672 27496 net.cpp:399] conv3_1b -> conv3_1b
I0411 17:13:35.733080 27496 net.cpp:141] Setting up conv3_1b
I0411 17:13:35.733127 27496 net.cpp:148] Top shape: 128 32 16 16 (1048576)
I0411 17:13:35.733141 27496 net.cpp:156] Memory required for data: 106432000
I0411 17:13:35.733158 27496 layer_factory.hpp:77] Creating layer bn_conv3_1b
I0411 17:13:35.733183 27496 net.cpp:91] Creating Layer bn_conv3_1b
I0411 17:13:35.733208 27496 net.cpp:425] bn_conv3_1b <- conv3_1b
I0411 17:13:35.733229 27496 net.cpp:386] bn_conv3_1b -> conv3_1b (in-place)
I0411 17:13:35.733602 27496 net.cpp:141] Setting up bn_conv3_1b
I0411 17:13:35.733618 27496 net.cpp:148] Top shape: 128 32 16 16 (1048576)
I0411 17:13:35.733625 27496 net.cpp:156] Memory required for data: 110626304
I0411 17:13:35.733642 27496 layer_factory.hpp:77] Creating layer scale_conv3_1b
I0411 17:13:35.733659 27496 net.cpp:91] Creating Layer scale_conv3_1b
I0411 17:13:35.733669 27496 net.cpp:425] scale_conv3_1b <- conv3_1b
I0411 17:13:35.733681 27496 net.cpp:386] scale_conv3_1b -> conv3_1b (in-place)
I0411 17:13:35.733743 27496 layer_factory.hpp:77] Creating layer scale_conv3_1b
I0411 17:13:35.733948 27496 net.cpp:141] Setting up scale_conv3_1b
I0411 17:13:35.733964 27496 net.cpp:148] Top shape: 128 32 16 16 (1048576)
I0411 17:13:35.733973 27496 net.cpp:156] Memory required for data: 114820608
I0411 17:13:35.733986 27496 layer_factory.hpp:77] Creating layer conv3_1b_relu
I0411 17:13:35.733999 27496 net.cpp:91] Creating Layer conv3_1b_relu
I0411 17:13:35.734007 27496 net.cpp:425] conv3_1b_relu <- conv3_1b
I0411 17:13:35.734022 27496 net.cpp:386] conv3_1b_relu -> conv3_1b (in-place)
I0411 17:13:35.734503 27496 net.cpp:141] Setting up conv3_1b_relu
I0411 17:13:35.734527 27496 net.cpp:148] Top shape: 128 32 16 16 (1048576)
I0411 17:13:35.734536 27496 net.cpp:156] Memory required for data: 119014912
I0411 17:13:35.734546 27496 layer_factory.hpp:77] Creating layer conv3_1b_conv3_1b_relu_0_split
I0411 17:13:35.734560 27496 net.cpp:91] Creating Layer conv3_1b_conv3_1b_relu_0_split
I0411 17:13:35.734570 27496 net.cpp:425] conv3_1b_conv3_1b_relu_0_split <- conv3_1b
I0411 17:13:35.734586 27496 net.cpp:399] conv3_1b_conv3_1b_relu_0_split -> conv3_1b_conv3_1b_relu_0_split_0
I0411 17:13:35.734602 27496 net.cpp:399] conv3_1b_conv3_1b_relu_0_split -> conv3_1b_conv3_1b_relu_0_split_1
I0411 17:13:35.734673 27496 net.cpp:141] Setting up conv3_1b_conv3_1b_relu_0_split
I0411 17:13:35.734688 27496 net.cpp:148] Top shape: 128 32 16 16 (1048576)
I0411 17:13:35.734702 27496 net.cpp:148] Top shape: 128 32 16 16 (1048576)
I0411 17:13:35.734710 27496 net.cpp:156] Memory required for data: 127403520
I0411 17:13:35.734719 27496 layer_factory.hpp:77] Creating layer conv3_down
I0411 17:13:35.734740 27496 net.cpp:91] Creating Layer conv3_down
I0411 17:13:35.734750 27496 net.cpp:425] conv3_down <- conv3_1b_conv3_1b_relu_0_split_0
I0411 17:13:35.734763 27496 net.cpp:399] conv3_down -> conv3_down
I0411 17:13:35.736397 27496 net.cpp:141] Setting up conv3_down
I0411 17:13:35.736424 27496 net.cpp:148] Top shape: 128 128 8 8 (1048576)
I0411 17:13:35.736433 27496 net.cpp:156] Memory required for data: 131597824
I0411 17:13:35.736446 27496 layer_factory.hpp:77] Creating layer scale_conv3_down
I0411 17:13:35.736465 27496 net.cpp:91] Creating Layer scale_conv3_down
I0411 17:13:35.736476 27496 net.cpp:425] scale_conv3_down <- conv3_down
I0411 17:13:35.736492 27496 net.cpp:386] scale_conv3_down -> conv3_down (in-place)
I0411 17:13:35.736577 27496 layer_factory.hpp:77] Creating layer scale_conv3_down
I0411 17:13:35.736779 27496 net.cpp:141] Setting up scale_conv3_down
I0411 17:13:35.736795 27496 net.cpp:148] Top shape: 128 128 8 8 (1048576)
I0411 17:13:35.736804 27496 net.cpp:156] Memory required for data: 135792128
I0411 17:13:35.736817 27496 layer_factory.hpp:77] Creating layer conv4_1a
I0411 17:13:35.736840 27496 net.cpp:91] Creating Layer conv4_1a
I0411 17:13:35.736850 27496 net.cpp:425] conv4_1a <- conv3_1b_conv3_1b_relu_0_split_1
I0411 17:13:35.736865 27496 net.cpp:399] conv4_1a -> conv4_1a
I0411 17:13:35.738806 27496 net.cpp:141] Setting up conv4_1a
I0411 17:13:35.738834 27496 net.cpp:148] Top shape: 128 128 8 8 (1048576)
I0411 17:13:35.738844 27496 net.cpp:156] Memory required for data: 139986432
I0411 17:13:35.738860 27496 layer_factory.hpp:77] Creating layer bn_conv4_1a
I0411 17:13:35.738884 27496 net.cpp:91] Creating Layer bn_conv4_1a
I0411 17:13:35.738895 27496 net.cpp:425] bn_conv4_1a <- conv4_1a
I0411 17:13:35.738916 27496 net.cpp:386] bn_conv4_1a -> conv4_1a (in-place)
I0411 17:13:35.739255 27496 net.cpp:141] Setting up bn_conv4_1a
I0411 17:13:35.739270 27496 net.cpp:148] Top shape: 128 128 8 8 (1048576)
I0411 17:13:35.739279 27496 net.cpp:156] Memory required for data: 144180736
I0411 17:13:35.739295 27496 layer_factory.hpp:77] Creating layer scale_conv4_1a
I0411 17:13:35.739315 27496 net.cpp:91] Creating Layer scale_conv4_1a
I0411 17:13:35.739326 27496 net.cpp:425] scale_conv4_1a <- conv4_1a
I0411 17:13:35.739337 27496 net.cpp:386] scale_conv4_1a -> conv4_1a (in-place)
I0411 17:13:35.739406 27496 layer_factory.hpp:77] Creating layer scale_conv4_1a
I0411 17:13:35.739605 27496 net.cpp:141] Setting up scale_conv4_1a
I0411 17:13:35.739620 27496 net.cpp:148] Top shape: 128 128 8 8 (1048576)
I0411 17:13:35.739629 27496 net.cpp:156] Memory required for data: 148375040
I0411 17:13:35.739642 27496 layer_factory.hpp:77] Creating layer conv4_1a_relu
I0411 17:13:35.739655 27496 net.cpp:91] Creating Layer conv4_1a_relu
I0411 17:13:35.739665 27496 net.cpp:425] conv4_1a_relu <- conv4_1a
I0411 17:13:35.739678 27496 net.cpp:386] conv4_1a_relu -> conv4_1a (in-place)
I0411 17:13:35.740155 27496 net.cpp:141] Setting up conv4_1a_relu
I0411 17:13:35.740180 27496 net.cpp:148] Top shape: 128 128 8 8 (1048576)
I0411 17:13:35.740190 27496 net.cpp:156] Memory required for data: 152569344
I0411 17:13:35.740200 27496 layer_factory.hpp:77] Creating layer conv4_1b
I0411 17:13:35.740226 27496 net.cpp:91] Creating Layer conv4_1b
I0411 17:13:35.740236 27496 net.cpp:425] conv4_1b <- conv4_1a
I0411 17:13:35.740254 27496 net.cpp:399] conv4_1b -> conv4_1b
I0411 17:13:35.751368 27496 net.cpp:141] Setting up conv4_1b
I0411 17:13:35.751404 27496 net.cpp:148] Top shape: 128 128 8 8 (1048576)
I0411 17:13:35.751413 27496 net.cpp:156] Memory required for data: 156763648
I0411 17:13:35.751430 27496 layer_factory.hpp:77] Creating layer bn_conv4_1b
I0411 17:13:35.751444 27496 net.cpp:91] Creating Layer bn_conv4_1b
I0411 17:13:35.751454 27496 net.cpp:425] bn_conv4_1b <- conv4_1b
I0411 17:13:35.751469 27496 net.cpp:386] bn_conv4_1b -> conv4_1b (in-place)
I0411 17:13:35.751797 27496 net.cpp:141] Setting up bn_conv4_1b
I0411 17:13:35.751812 27496 net.cpp:148] Top shape: 128 128 8 8 (1048576)
I0411 17:13:35.751821 27496 net.cpp:156] Memory required for data: 160957952
I0411 17:13:35.751837 27496 layer_factory.hpp:77] Creating layer scale_conv4_1b
I0411 17:13:35.751857 27496 net.cpp:91] Creating Layer scale_conv4_1b
I0411 17:13:35.751865 27496 net.cpp:425] scale_conv4_1b <- conv4_1b
I0411 17:13:35.751876 27496 net.cpp:386] scale_conv4_1b -> conv4_1b (in-place)
I0411 17:13:35.751960 27496 layer_factory.hpp:77] Creating layer scale_conv4_1b
I0411 17:13:35.752152 27496 net.cpp:141] Setting up scale_conv4_1b
I0411 17:13:35.752167 27496 net.cpp:148] Top shape: 128 128 8 8 (1048576)
I0411 17:13:35.752176 27496 net.cpp:156] Memory required for data: 165152256
I0411 17:13:35.752188 27496 layer_factory.hpp:77] Creating layer conv4_1b_relu
I0411 17:13:35.752200 27496 net.cpp:91] Creating Layer conv4_1b_relu
I0411 17:13:35.752209 27496 net.cpp:425] conv4_1b_relu <- conv4_1b
I0411 17:13:35.752226 27496 net.cpp:386] conv4_1b_relu -> conv4_1b (in-place)
I0411 17:13:35.752528 27496 net.cpp:141] Setting up conv4_1b_relu
I0411 17:13:35.752547 27496 net.cpp:148] Top shape: 128 128 8 8 (1048576)
I0411 17:13:35.752554 27496 net.cpp:156] Memory required for data: 169346560
I0411 17:13:35.752563 27496 layer_factory.hpp:77] Creating layer conv4_down
I0411 17:13:35.752583 27496 net.cpp:91] Creating Layer conv4_down
I0411 17:13:35.752593 27496 net.cpp:425] conv4_down <- conv4_1b
I0411 17:13:35.752609 27496 net.cpp:399] conv4_down -> conv4_down
I0411 17:13:35.754158 27496 net.cpp:141] Setting up conv4_down
I0411 17:13:35.754185 27496 net.cpp:148] Top shape: 128 128 8 8 (1048576)
I0411 17:13:35.754194 27496 net.cpp:156] Memory required for data: 173540864
I0411 17:13:35.754207 27496 layer_factory.hpp:77] Creating layer scale_conv4_down
I0411 17:13:35.754225 27496 net.cpp:91] Creating Layer scale_conv4_down
I0411 17:13:35.754242 27496 net.cpp:425] scale_conv4_down <- conv4_down
I0411 17:13:35.754256 27496 net.cpp:386] scale_conv4_down -> conv4_down (in-place)
I0411 17:13:35.754336 27496 layer_factory.hpp:77] Creating layer scale_conv4_down
I0411 17:13:35.754534 27496 net.cpp:141] Setting up scale_conv4_down
I0411 17:13:35.754551 27496 net.cpp:148] Top shape: 128 128 8 8 (1048576)
I0411 17:13:35.754559 27496 net.cpp:156] Memory required for data: 177735168
I0411 17:13:35.754573 27496 layer_factory.hpp:77] Creating layer global_in
I0411 17:13:35.754586 27496 net.cpp:91] Creating Layer global_in
I0411 17:13:35.754595 27496 net.cpp:425] global_in <- conv1_down
I0411 17:13:35.754606 27496 net.cpp:425] global_in <- conv2_down
I0411 17:13:35.754616 27496 net.cpp:425] global_in <- conv3_down
I0411 17:13:35.754626 27496 net.cpp:425] global_in <- conv4_down
I0411 17:13:35.754637 27496 net.cpp:399] global_in -> global_in
I0411 17:13:35.754686 27496 net.cpp:141] Setting up global_in
I0411 17:13:35.754699 27496 net.cpp:148] Top shape: 128 128 8 8 (1048576)
I0411 17:13:35.754708 27496 net.cpp:156] Memory required for data: 181929472
I0411 17:13:35.754715 27496 layer_factory.hpp:77] Creating layer global_pool
I0411 17:13:35.754732 27496 net.cpp:91] Creating Layer global_pool
I0411 17:13:35.754741 27496 net.cpp:425] global_pool <- global_in
I0411 17:13:35.754755 27496 net.cpp:399] global_pool -> global_pool
I0411 17:13:35.755090 27496 net.cpp:141] Setting up global_pool
I0411 17:13:35.755108 27496 net.cpp:148] Top shape: 128 128 1 1 (16384)
I0411 17:13:35.755120 27496 net.cpp:156] Memory required for data: 181995008
I0411 17:13:35.755127 27496 layer_factory.hpp:77] Creating layer ip
I0411 17:13:35.755141 27496 net.cpp:91] Creating Layer ip
I0411 17:13:35.755151 27496 net.cpp:425] ip <- global_pool
I0411 17:13:35.755162 27496 net.cpp:399] ip -> ip
I0411 17:13:35.755354 27496 net.cpp:141] Setting up ip
I0411 17:13:35.755368 27496 net.cpp:148] Top shape: 128 10 (1280)
I0411 17:13:35.755376 27496 net.cpp:156] Memory required for data: 182000128
I0411 17:13:35.755389 27496 layer_factory.hpp:77] Creating layer ip_ip_0_split
I0411 17:13:35.755401 27496 net.cpp:91] Creating Layer ip_ip_0_split
I0411 17:13:35.755409 27496 net.cpp:425] ip_ip_0_split <- ip
I0411 17:13:35.755424 27496 net.cpp:399] ip_ip_0_split -> ip_ip_0_split_0
I0411 17:13:35.755439 27496 net.cpp:399] ip_ip_0_split -> ip_ip_0_split_1
I0411 17:13:35.755494 27496 net.cpp:141] Setting up ip_ip_0_split
I0411 17:13:35.755506 27496 net.cpp:148] Top shape: 128 10 (1280)
I0411 17:13:35.755517 27496 net.cpp:148] Top shape: 128 10 (1280)
I0411 17:13:35.755524 27496 net.cpp:156] Memory required for data: 182010368
I0411 17:13:35.755532 27496 layer_factory.hpp:77] Creating layer accuracy
I0411 17:13:35.755550 27496 net.cpp:91] Creating Layer accuracy
I0411 17:13:35.755559 27496 net.cpp:425] accuracy <- ip_ip_0_split_0
I0411 17:13:35.755569 27496 net.cpp:425] accuracy <- label_data_1_split_0
I0411 17:13:35.755580 27496 net.cpp:399] accuracy -> accuracy
…
I0411 17:13:35.758976 27496 net.cpp:313] The NetState phase (1) differed from the phase (0) specified by a rule in layer data
I0411 17:13:35.759449 27496 net.cpp:49] Initializing net from parameters: 
name: "CifarResNet0"
state {
  phase: TEST
}
layer {
  name: "data"
  type: "Data"
  top: "data"
  top: "label"
  include {
    phase: TEST
  }
  transform_param {
    mean_file: "/home/liangjiang/code/residual_network/data/cifar10/mean.binaryproto"
  }
  data_param {
    source: "/home/liangjiang/code/residual_network/data/cifar10/cifar10_test_lmdb"
    batch_size: 32
    backend: LMDB
  }
}
layer {
  name: "conv1"
  type: "Convolution"
  bottom: "data"
  top: "conv1"
  param {
    lr_mult: 1
  }
  param {
    lr_mult: 2
  }
  convolution_param {
    num_output: 8
    pad: 1
    kernel_size: 3
    stride: 1
    weight_filler {
      type: "msra"
    }
    bias_filler {
      type: "constant"
      value: 0
    }
  }
}
layer {
  name: "bn_conv1"
  type: "BatchNorm"
  bottom: "conv1"
  top: "conv1"
  param {
    lr_mult: 0
  }
  param {
    lr_mult: 0
  }
  param {
    lr_mult: 0
  }
}
layer {
  name: "scale_conv1"
  type: "Scale"
  bottom: "conv1"
  top: "conv1"
  param {
    lr_mult: 1
  }
  param {
    lr_mult: 2
  }
  scale_param {
    bias_term: true
  }
}
layer {
  name: "conv1_relu"
  type: "ReLU"
  bottom: "conv1"
  top: "conv1"
}
layer {
  name: "conv1_down"
  type: "Convolution"
  bottom: "conv1"
  top: "conv1_down"
  param {
    lr_mult: 0
  }
  convolution_param {
    num_output: 128
    bias_term: false
    pad: 0
    kernel_size: 4
    stride: 4
    weight_filler {
      type: "downsample"
      value: 1
    }
  }
}
layer {
  name: "scale_conv1_down"
  type: "Scale"
  bottom: "conv1_down"
  top: "conv1_down"
  param {
    lr_mult: 1
  }
  param {
    lr_mult: 2
  }
  scale_param {
    filler {
      type: "constant"
      value: 1
    }
    bias_term: true
  }
}
layer {
  name: "conv2_1a"
  type: "Convolution"
  bottom: "conv1"
  top: "conv2_1a"
  param {
    lr_mult: 1
  }
  param {
    lr_mult: 2
  }
  convolution_param {
    num_output: 8
    pad: 1
    kernel_size: 3
    stride: 1
    weight_filler {
      type: "msra"
    }
    bias_filler {
      type: "constant"
      value: 0
    }
  }
}
layer {
  name: "bn_conv2_1a"
  type: "BatchNorm"
  bottom: "conv2_1a"
  top: "conv2_1a"
  param {
    lr_mult: 0
  }
  param {
    lr_mult: 0
  }
  param {
    lr_mult: 0
  }
}
layer {
  name: "scale_conv2_1a"
  type: "Scale"
  bottom: "conv2_1a"
  top: "conv2_1a"
  param {
    lr_mult: 1
  }
  param {
    lr_mult: 2
  }
  scale_param {
    bias_term: true
  }
}
layer {
  name: "conv2_1a_relu"
  type: "ReLU"
  bottom: "conv2_1a"
  top: "conv2_1a"
}
layer {
  name: "conv2_1b"
  type: "Convolution"
  bottom: "conv2_1a"
  top: "conv2_1b"
  param {
    lr_mult: 1
  }
  param {
    lr_mult: 2
  }
  convolution_param {
    num_output: 8
    pad: 1
    kernel_size: 3
    stride: 1
    weight_filler {
      type: "msra"
    }
    bias_filler {
      type: "constant"
      value: 0
    }
  }
}
layer {
  name: "bn_conv2_1b"
  type: "BatchNorm"
  bottom: "conv2_1b"
  top: "conv2_1b"
  param {
    lr_mult: 0
  }
  param {
    lr_mult: 0
  }
  param {
    lr_mult: 0
  }
}
layer {
  name: "scale_conv2_1b"
  type: "Scale"
  bottom: "conv2_1b"
  top: "conv2_1b"
  param {
    lr_mult: 1
  }
  param {
    lr_mult: 2
  }
  scale_param {
    bias_term: true
  }
}
layer {
  name: "conv2_1b_relu"
  type: "ReLU"
  bottom: "conv2_1b"
  top: "conv2_1b"
}
layer {
  name: "conv2_down"
  type: "Convolution"
  bottom: "conv2_1b"
  top: "conv2_down"
  param {
    lr_mult: 0
  }
  convolution_param {
    num_output: 128
    bias_term: false
    pad: 0
    kernel_size: 4
    stride: 4
    weight_filler {
      type: "downsample"
      value: 1
    }
  }
}
layer {
  name: "scale_conv2_down"
  type: "Scale"
  bottom: "conv2_down"
  top: "conv2_down"
  param {
    lr_mult: 1
  }
  param {
    lr_mult: 2
  }
  scale_param {
    filler {
      type: "constant"
      value: 1
    }
    bias_term: true
  }
}
layer {
  name: "conv3_1a"
  type: "Convolution"
  bottom: "conv2_1b"
  top: "conv3_1a"
  param {
    lr_mult: 1
  }
  param {
    lr_mult: 2
  }
  convolution_param {
    num_output: 32
    pad: 0
    kernel_size: 1
    stride: 2
    weight_filler {
      type: "msra"
    }
    bias_filler {
      type: "constant"
      value: 0
    }
  }
}
layer {
  name: "bn_conv3_1a"
  type: "BatchNorm"
  bottom: "conv3_1a"
  top: "conv3_1a"
  param {
    lr_mult: 0
  }
  param {
    lr_mult: 0
  }
  param {
    lr_mult: 0
  }
}
layer {
  name: "scale_conv3_1a"
  type: "Scale"
  bottom: "conv3_1a"
  top: "conv3_1a"
  param {
    lr_mult: 1
  }
  param {
    lr_mult: 2
  }
  scale_param {
    bias_term: true
  }
}
layer {
  name: "conv3_1a_relu"
  type: "ReLU"
  bottom: "conv3_1a"
  top: "conv3_1a"
}
layer {
  name: "conv3_1b"
  type: "Convolution"
  bottom: "conv3_1a"
  top: "conv3_1b"
  param {
    lr_mult: 2
  }
  param {
    lr_mult: 2
  }
  convolution_param {
    num_output: 32
    pad: 1
    kernel_size: 3
    stride: 1
    weight_filler {
      type: "msra"
    }
    bias_filler {
      type: "constant"
      value: 0
    }
  }
}
layer {
  name: "bn_conv3_1b"
  type: "BatchNorm"
  bottom: "conv3_1b"
  top: "conv3_1b"
  param {
    lr_mult: 0
  }
  param {
    lr_mult: 0
  }
  param {
    lr_mult: 0
  }
}
layer {
  name: "scale_conv3_1b"
  type: "Scale"
  bottom: "conv3_1b"
  top: "conv3_1b"
  param {
    lr_mult: 1
  }
  param {
    lr_mult: 2
  }
  scale_param {
    bias_term: true
  }
}
layer {
  name: "conv3_1b_relu"
  type: "ReLU"
  bottom: "conv3_1b"
  top: "conv3_1b"
}
layer {
  name: "conv3_down"
  type: "Convolution"
  bottom: "conv3_1b"
  top: "conv3_down"
  param {
    lr_mult: 0
  }
  convolution_param {
    num_output: 128
    bias_term: false
    pad: 0
    kernel_size: 2
    stride: 2
    weight_filler {
      type: "downsample"
      value: 1
    }
  }
}
layer {
  name: "scale_conv3_down"
  type: "Scale"
  bottom: "conv3_down"
  top: "conv3_down"
  param {
    lr_mult: 1
  }
  param {
    lr_mult: 2
  }
  scale_param {
    filler {
      type: "constant"
      value: 1
    }
    bias_term: true
  }
}
layer {
  name: "conv4_1a"
  type: "Convolution"
  bottom: "conv3_1b"
  top: "conv4_1a"
  param {
    lr_mult: 1
  }
  param {
    lr_mult: 2
  }
  convolution_param {
    num_output: 128
    pad: 0
    kernel_size: 1
    stride: 2
    weight_filler {
      type: "msra"
    }
    bias_filler {
      type: "constant"
      value: 0
    }
  }
}
layer {
  name: "bn_conv4_1a"
  type: "BatchNorm"
  bottom: "conv4_1a"
  top: "conv4_1a"
  param {
    lr_mult: 0
  }
  param {
    lr_mult: 0
  }
  param {
    lr_mult: 0
  }
}
layer {
  name: "scale_conv4_1a"
  type: "Scale"
  bottom: "conv4_1a"
  top: "conv4_1a"
  param {
    lr_mult: 1
  }
  param {
    lr_mult: 2
  }
  scale_param {
    bias_term: true
  }
}
layer {
  name: "conv4_1a_relu"
  type: "ReLU"
  bottom: "conv4_1a"
  top: "conv4_1a"
}
layer {
  name: "conv4_1b"
  type: "Convolution"
  bottom: "conv4_1a"
  top: "conv4_1b"
  param {
    lr_mult: 1
  }
  param {
    lr_mult: 2
  }
  convolution_param {
    num_output: 128
    pad: 1
    kernel_size: 3
    stride: 1
    weight_filler {
      type: "msra"
    }
    bias_filler {
      type: "constant"
      value: 0
    }
  }
}
layer {
  name: "bn_conv4_1b"
  type: "BatchNorm"
  bottom: "conv4_1b"
  top: "conv4_1b"
  param {
    lr_mult: 0
  }
  param {
    lr_mult: 0
  }
  param {
    lr_mult: 0
  }
}
layer {
  name: "scale_conv4_1b"
  type: "Scale"
  bottom: "conv4_1b"
  top: "conv4_1b"
  param {
    lr_mult: 1
  }
  param {
    lr_mult: 2
  }
  scale_param {
    bias_term: true
  }
}
layer {
  name: "conv4_1b_relu"
  type: "ReLU"
  bottom: "conv4_1b"
  top: "conv4_1b"
}
layer {
  name: "conv4_down"
  type: "Convolution"
  bottom: "conv4_1b"
  top: "conv4_down"
  param {
    lr_mult: 0
  }
  convolution_param {
    num_output: 128
    bias_term: false
    pad: 0
    kernel_size: 1
    stride: 1
    weight_filler {
      type: "downsample"
      value: 0
    }
  }
}
layer {
  name: "scale_conv4_down"
  type: "Scale"
  bottom: "conv4_down"
  top: "conv4_down"
  param {
    lr_mult: 1
  }
  param {
    lr_mult: 2
  }
  scale_param {
    filler {
      type: "constant"
      value: 0.2
    }
    bias_term: true
  }
}
layer {
  name: "global_in"
  type: "Eltwise"
  bottom: "conv1_down"
  bottom: "conv2_down"
  bottom: "conv3_down"
  bottom: "conv4_down"
  top: "global_in"
}
layer {
  name: "global_pool"
  type: "Pooling"
  bottom: "global_in"
  top: "global_pool"
  pooling_param {
    pool: AVE
    kernel_size: 8
  }
}
layer {
  name: "ip"
  type: "InnerProduct"
  bottom: "global_pool"
  top: "ip"
  param {
    lr_mult: 1
  }
  param {
    lr_mult: 2
  }
  inner_product_param {
    num_output: 10
  }
}
layer {
  name: "accuracy"
  type: "Accuracy"
  bottom: "ip"
  bottom: "label"
  top: "accuracy"
}
layer {
  name: "loss"
  type: "SoftmaxWithLoss"
  bottom: "ip"
  bottom: "label"
  top: "loss"
}
I0411 17:13:35.759774 27496 layer_factory.hpp:77] Creating layer data
I0411 17:13:35.759897 27496 net.cpp:91] Creating Layer data
I0411 17:13:35.759917 27496 net.cpp:399] data -> data
I0411 17:13:35.759937 27496 net.cpp:399] data -> label
I0411 17:13:35.759959 27496 data_transformer.cpp:25] Loading mean file from: /home/liangjiang/code/residual_network/data/cifar10/mean.binaryproto
I0411 17:13:35.761402 27701 db_lmdb.cpp:38] Opened lmdb /home/liangjiang/code/residual_network/data/cifar10/cifar10_test_lmdb
I0411 17:13:35.761677 27496 data_layer.cpp:41] output data size: 32,3,32,32
I0411 17:13:35.763304 27496 net.cpp:141] Setting up data
I0411 17:13:35.763331 27496 net.cpp:148] Top shape: 32 3 32 32 (98304)
I0411 17:13:35.763346 27496 net.cpp:148] Top shape: 32 (32)
I0411 17:13:35.763355 27496 net.cpp:156] Memory required for data: 393344
I0411 17:13:35.763363 27496 layer_factory.hpp:77] Creating layer label_data_1_split
I0411 17:13:35.763381 27496 net.cpp:91] Creating Layer label_data_1_split
I0411 17:13:35.763391 27496 net.cpp:425] label_data_1_split <- label
I0411 17:13:35.763403 27496 net.cpp:399] label_data_1_split -> label_data_1_split_0
I0411 17:13:35.763419 27496 net.cpp:399] label_data_1_split -> label_data_1_split_1
I0411 17:13:35.763556 27496 net.cpp:141] Setting up label_data_1_split
I0411 17:13:35.763573 27496 net.cpp:148] Top shape: 32 (32)
I0411 17:13:35.763588 27496 net.cpp:148] Top shape: 32 (32)
I0411 17:13:35.763597 27496 net.cpp:156] Memory required for data: 393600
I0411 17:13:35.763604 27496 layer_factory.hpp:77] Creating layer conv1
I0411 17:13:35.763625 27496 net.cpp:91] Creating Layer conv1
I0411 17:13:35.763634 27496 net.cpp:425] conv1 <- data
I0411 17:13:35.763649 27496 net.cpp:399] conv1 -> conv1
I0411 17:13:35.765583 27496 net.cpp:141] Setting up conv1
I0411 17:13:35.765612 27496 net.cpp:148] Top shape: 32 8 32 32 (262144)
I0411 17:13:35.765621 27496 net.cpp:156] Memory required for data: 1442176
I0411 17:13:35.765645 27496 layer_factory.hpp:77] Creating layer bn_conv1
I0411 17:13:35.765658 27496 net.cpp:91] Creating Layer bn_conv1
I0411 17:13:35.765667 27496 net.cpp:425] bn_conv1 <- conv1
I0411 17:13:35.765681 27496 net.cpp:386] bn_conv1 -> conv1 (in-place)
I0411 17:13:35.766013 27496 net.cpp:141] Setting up bn_conv1
I0411 17:13:35.766027 27496 net.cpp:148] Top shape: 32 8 32 32 (262144)
I0411 17:13:35.766036 27496 net.cpp:156] Memory required for data: 2490752
I0411 17:13:35.766057 27496 layer_factory.hpp:77] Creating layer scale_conv1
I0411 17:13:35.766077 27496 net.cpp:91] Creating Layer scale_conv1
I0411 17:13:35.766088 27496 net.cpp:425] scale_conv1 <- conv1
I0411 17:13:35.766098 27496 net.cpp:386] scale_conv1 -> conv1 (in-place)
I0411 17:13:35.766223 27496 layer_factory.hpp:77] Creating layer scale_conv1
I0411 17:13:35.766422 27496 net.cpp:141] Setting up scale_conv1
I0411 17:13:35.766449 27496 net.cpp:148] Top shape: 32 8 32 32 (262144)
I0411 17:13:35.766458 27496 net.cpp:156] Memory required for data: 3539328
I0411 17:13:35.766474 27496 layer_factory.hpp:77] Creating layer conv1_relu
I0411 17:13:35.766485 27496 net.cpp:91] Creating Layer conv1_relu
I0411 17:13:35.766494 27496 net.cpp:425] conv1_relu <- conv1
I0411 17:13:35.766506 27496 net.cpp:386] conv1_relu -> conv1 (in-place)
I0411 17:13:35.766819 27496 net.cpp:141] Setting up conv1_relu
I0411 17:13:35.766839 27496 net.cpp:148] Top shape: 32 8 32 32 (262144)
I0411 17:13:35.766846 27496 net.cpp:156] Memory required for data: 4587904
I0411 17:13:35.766860 27496 layer_factory.hpp:77] Creating layer conv1_conv1_relu_0_split
I0411 17:13:35.766872 27496 net.cpp:91] Creating Layer conv1_conv1_relu_0_split
I0411 17:13:35.766880 27496 net.cpp:425] conv1_conv1_relu_0_split <- conv1
I0411 17:13:35.766891 27496 net.cpp:399] conv1_conv1_relu_0_split -> conv1_conv1_relu_0_split_0
I0411 17:13:35.766907 27496 net.cpp:399] conv1_conv1_relu_0_split -> conv1_conv1_relu_0_split_1
I0411 17:13:35.766978 27496 net.cpp:141] Setting up conv1_conv1_relu_0_split
I0411 17:13:35.766991 27496 net.cpp:148] Top shape: 32 8 32 32 (262144)
I0411 17:13:35.767000 27496 net.cpp:148] Top shape: 32 8 32 32 (262144)
I0411 17:13:35.767007 27496 net.cpp:156] Memory required for data: 6685056
I0411 17:13:35.767019 27496 layer_factory.hpp:77] Creating layer conv1_down
I0411 17:13:35.767051 27496 net.cpp:91] Creating Layer conv1_down
I0411 17:13:35.767061 27496 net.cpp:425] conv1_down <- conv1_conv1_relu_0_split_0
I0411 17:13:35.767077 27496 net.cpp:399] conv1_down -> conv1_down
I0411 17:13:35.768749 27496 net.cpp:141] Setting up conv1_down
I0411 17:13:35.768774 27496 net.cpp:148] Top shape: 32 128 8 8 (262144)
I0411 17:13:35.768784 27496 net.cpp:156] Memory required for data: 7733632
I0411 17:13:35.768795 27496 layer_factory.hpp:77] Creating layer scale_conv1_down
I0411 17:13:35.768815 27496 net.cpp:91] Creating Layer scale_conv1_down
I0411 17:13:35.768826 27496 net.cpp:425] scale_conv1_down <- conv1_down
I0411 17:13:35.768837 27496 net.cpp:386] scale_conv1_down -> conv1_down (in-place)
I0411 17:13:35.768936 27496 layer_factory.hpp:77] Creating layer scale_conv1_down
I0411 17:13:35.769134 27496 net.cpp:141] Setting up scale_conv1_down
I0411 17:13:35.769151 27496 net.cpp:148] Top shape: 32 128 8 8 (262144)
I0411 17:13:35.769160 27496 net.cpp:156] Memory required for data: 8782208
I0411 17:13:35.769196 27496 layer_factory.hpp:77] Creating layer conv2_1a
I0411 17:13:35.769214 27496 net.cpp:91] Creating Layer conv2_1a
I0411 17:13:35.769237 27496 net.cpp:425] conv2_1a <- conv1_conv1_relu_0_split_1
I0411 17:13:35.769250 27496 net.cpp:399] conv2_1a -> conv2_1a
I0411 17:13:35.770817 27496 net.cpp:141] Setting up conv2_1a
I0411 17:13:35.770843 27496 net.cpp:148] Top shape: 32 8 32 32 (262144)
I0411 17:13:35.770851 27496 net.cpp:156] Memory required for data: 9830784
I0411 17:13:35.770864 27496 layer_factory.hpp:77] Creating layer bn_conv2_1a
I0411 17:13:35.770882 27496 net.cpp:91] Creating Layer bn_conv2_1a
I0411 17:13:35.770891 27496 net.cpp:425] bn_conv2_1a <- conv2_1a
I0411 17:13:35.770903 27496 net.cpp:386] bn_conv2_1a -> conv2_1a (in-place)
I0411 17:13:35.771214 27496 net.cpp:141] Setting up bn_conv2_1a
I0411 17:13:35.771227 27496 net.cpp:148] Top shape: 32 8 32 32 (262144)
I0411 17:13:35.771234 27496 net.cpp:156] Memory required for data: 10879360
I0411 17:13:35.771248 27496 layer_factory.hpp:77] Creating layer scale_conv2_1a
I0411 17:13:35.771260 27496 net.cpp:91] Creating Layer scale_conv2_1a
I0411 17:13:35.771267 27496 net.cpp:425] scale_conv2_1a <- conv2_1a
I0411 17:13:35.771286 27496 net.cpp:386] scale_conv2_1a -> conv2_1a (in-place)
I0411 17:13:35.771353 27496 layer_factory.hpp:77] Creating layer scale_conv2_1a
I0411 17:13:35.771533 27496 net.cpp:141] Setting up scale_conv2_1a
I0411 17:13:35.771545 27496 net.cpp:148] Top shape: 32 8 32 32 (262144)
I0411 17:13:35.771553 27496 net.cpp:156] Memory required for data: 11927936
I0411 17:13:35.771569 27496 layer_factory.hpp:77] Creating layer conv2_1a_relu
I0411 17:13:35.771582 27496 net.cpp:91] Creating Layer conv2_1a_relu
I0411 17:13:35.771590 27496 net.cpp:425] conv2_1a_relu <- conv2_1a
I0411 17:13:35.771600 27496 net.cpp:386] conv2_1a_relu -> conv2_1a (in-place)
I0411 17:13:35.771870 27496 net.cpp:141] Setting up conv2_1a_relu
I0411 17:13:35.771886 27496 net.cpp:148] Top shape: 32 8 32 32 (262144)
I0411 17:13:35.771893 27496 net.cpp:156] Memory required for data: 12976512
I0411 17:13:35.771908 27496 layer_factory.hpp:77] Creating layer conv2_1b
I0411 17:13:35.771939 27496 net.cpp:91] Creating Layer conv2_1b
I0411 17:13:35.771950 27496 net.cpp:425] conv2_1b <- conv2_1a
I0411 17:13:35.771965 27496 net.cpp:399] conv2_1b -> conv2_1b
I0411 17:13:35.773685 27496 net.cpp:141] Setting up conv2_1b
I0411 17:13:35.773712 27496 net.cpp:148] Top shape: 32 8 32 32 (262144)
I0411 17:13:35.773720 27496 net.cpp:156] Memory required for data: 14025088
I0411 17:13:35.773733 27496 layer_factory.hpp:77] Creating layer bn_conv2_1b
I0411 17:13:35.773746 27496 net.cpp:91] Creating Layer bn_conv2_1b
I0411 17:13:35.773754 27496 net.cpp:425] bn_conv2_1b <- conv2_1b
I0411 17:13:35.773767 27496 net.cpp:386] bn_conv2_1b -> conv2_1b (in-place)
I0411 17:13:35.774080 27496 net.cpp:141] Setting up bn_conv2_1b
I0411 17:13:35.774092 27496 net.cpp:148] Top shape: 32 8 32 32 (262144)
I0411 17:13:35.774099 27496 net.cpp:156] Memory required for data: 15073664
I0411 17:13:35.774112 27496 layer_factory.hpp:77] Creating layer scale_conv2_1b
I0411 17:13:35.774126 27496 net.cpp:91] Creating Layer scale_conv2_1b
I0411 17:13:35.774132 27496 net.cpp:425] scale_conv2_1b <- conv2_1b
I0411 17:13:35.774145 27496 net.cpp:386] scale_conv2_1b -> conv2_1b (in-place)
I0411 17:13:35.774209 27496 layer_factory.hpp:77] Creating layer scale_conv2_1b
I0411 17:13:35.774382 27496 net.cpp:141] Setting up scale_conv2_1b
I0411 17:13:35.774397 27496 net.cpp:148] Top shape: 32 8 32 32 (262144)
I0411 17:13:35.774405 27496 net.cpp:156] Memory required for data: 16122240
I0411 17:13:35.774417 27496 layer_factory.hpp:77] Creating layer conv2_1b_relu
I0411 17:13:35.774431 27496 net.cpp:91] Creating Layer conv2_1b_relu
I0411 17:13:35.774438 27496 net.cpp:425] conv2_1b_relu <- conv2_1b
I0411 17:13:35.774448 27496 net.cpp:386] conv2_1b_relu -> conv2_1b (in-place)
I0411 17:13:35.774884 27496 net.cpp:141] Setting up conv2_1b_relu
I0411 17:13:35.774905 27496 net.cpp:148] Top shape: 32 8 32 32 (262144)
I0411 17:13:35.774914 27496 net.cpp:156] Memory required for data: 17170816
I0411 17:13:35.774921 27496 layer_factory.hpp:77] Creating layer conv2_1b_conv2_1b_relu_0_split
I0411 17:13:35.774933 27496 net.cpp:91] Creating Layer conv2_1b_conv2_1b_relu_0_split
I0411 17:13:35.774941 27496 net.cpp:425] conv2_1b_conv2_1b_relu_0_split <- conv2_1b
I0411 17:13:35.774955 27496 net.cpp:399] conv2_1b_conv2_1b_relu_0_split -> conv2_1b_conv2_1b_relu_0_split_0
I0411 17:13:35.774968 27496 net.cpp:399] conv2_1b_conv2_1b_relu_0_split -> conv2_1b_conv2_1b_relu_0_split_1
I0411 17:13:35.775038 27496 net.cpp:141] Setting up conv2_1b_conv2_1b_relu_0_split
I0411 17:13:35.775049 27496 net.cpp:148] Top shape: 32 8 32 32 (262144)
I0411 17:13:35.775058 27496 net.cpp:148] Top shape: 32 8 32 32 (262144)
I0411 17:13:35.775064 27496 net.cpp:156] Memory required for data: 19267968
I0411 17:13:35.775073 27496 layer_factory.hpp:77] Creating layer conv2_down
I0411 17:13:35.775091 27496 net.cpp:91] Creating Layer conv2_down
I0411 17:13:35.775099 27496 net.cpp:425] conv2_down <- conv2_1b_conv2_1b_relu_0_split_0
I0411 17:13:35.775111 27496 net.cpp:399] conv2_down -> conv2_down
I0411 17:13:35.776557 27496 net.cpp:141] Setting up conv2_down
I0411 17:13:35.776582 27496 net.cpp:148] Top shape: 32 128 8 8 (262144)
I0411 17:13:35.776590 27496 net.cpp:156] Memory required for data: 20316544
I0411 17:13:35.776602 27496 layer_factory.hpp:77] Creating layer scale_conv2_down
I0411 17:13:35.776617 27496 net.cpp:91] Creating Layer scale_conv2_down
I0411 17:13:35.776624 27496 net.cpp:425] scale_conv2_down <- conv2_down
I0411 17:13:35.776638 27496 net.cpp:386] scale_conv2_down -> conv2_down (in-place)
I0411 17:13:35.776712 27496 layer_factory.hpp:77] Creating layer scale_conv2_down
I0411 17:13:35.776896 27496 net.cpp:141] Setting up scale_conv2_down
I0411 17:13:35.776911 27496 net.cpp:148] Top shape: 32 128 8 8 (262144)
I0411 17:13:35.776917 27496 net.cpp:156] Memory required for data: 21365120
I0411 17:13:35.776929 27496 layer_factory.hpp:77] Creating layer conv3_1a
I0411 17:13:35.776957 27496 net.cpp:91] Creating Layer conv3_1a
I0411 17:13:35.776967 27496 net.cpp:425] conv3_1a <- conv2_1b_conv2_1b_relu_0_split_1
I0411 17:13:35.776980 27496 net.cpp:399] conv3_1a -> conv3_1a
I0411 17:13:35.778401 27496 net.cpp:141] Setting up conv3_1a
I0411 17:13:35.778427 27496 net.cpp:148] Top shape: 32 32 16 16 (262144)
I0411 17:13:35.778435 27496 net.cpp:156] Memory required for data: 22413696
I0411 17:13:35.778448 27496 layer_factory.hpp:77] Creating layer bn_conv3_1a
I0411 17:13:35.778461 27496 net.cpp:91] Creating Layer bn_conv3_1a
I0411 17:13:35.778470 27496 net.cpp:425] bn_conv3_1a <- conv3_1a
I0411 17:13:35.778483 27496 net.cpp:386] bn_conv3_1a -> conv3_1a (in-place)
I0411 17:13:35.778789 27496 net.cpp:141] Setting up bn_conv3_1a
I0411 17:13:35.778802 27496 net.cpp:148] Top shape: 32 32 16 16 (262144)
I0411 17:13:35.778810 27496 net.cpp:156] Memory required for data: 23462272
I0411 17:13:35.778822 27496 layer_factory.hpp:77] Creating layer scale_conv3_1a
I0411 17:13:35.778834 27496 net.cpp:91] Creating Layer scale_conv3_1a
I0411 17:13:35.778842 27496 net.cpp:425] scale_conv3_1a <- conv3_1a
I0411 17:13:35.778854 27496 net.cpp:386] scale_conv3_1a -> conv3_1a (in-place)
I0411 17:13:35.778918 27496 layer_factory.hpp:77] Creating layer scale_conv3_1a
I0411 17:13:35.779098 27496 net.cpp:141] Setting up scale_conv3_1a
I0411 17:13:35.779110 27496 net.cpp:148] Top shape: 32 32 16 16 (262144)
I0411 17:13:35.779117 27496 net.cpp:156] Memory required for data: 24510848
I0411 17:13:35.779140 27496 layer_factory.hpp:77] Creating layer conv3_1a_relu
I0411 17:13:35.779152 27496 net.cpp:91] Creating Layer conv3_1a_relu
I0411 17:13:35.779160 27496 net.cpp:425] conv3_1a_relu <- conv3_1a
I0411 17:13:35.779170 27496 net.cpp:386] conv3_1a_relu -> conv3_1a (in-place)
I0411 17:13:35.779584 27496 net.cpp:141] Setting up conv3_1a_relu
I0411 17:13:35.779605 27496 net.cpp:148] Top shape: 32 32 16 16 (262144)
I0411 17:13:35.779613 27496 net.cpp:156] Memory required for data: 25559424
I0411 17:13:35.779621 27496 layer_factory.hpp:77] Creating layer conv3_1b
I0411 17:13:35.779646 27496 net.cpp:91] Creating Layer conv3_1b
I0411 17:13:35.779655 27496 net.cpp:425] conv3_1b <- conv3_1a
I0411 17:13:35.779667 27496 net.cpp:399] conv3_1b -> conv3_1b
I0411 17:13:35.781652 27496 net.cpp:141] Setting up conv3_1b
I0411 17:13:35.781675 27496 net.cpp:148] Top shape: 32 32 16 16 (262144)
I0411 17:13:35.781682 27496 net.cpp:156] Memory required for data: 26608000
I0411 17:13:35.781694 27496 layer_factory.hpp:77] Creating layer bn_conv3_1b
I0411 17:13:35.781709 27496 net.cpp:91] Creating Layer bn_conv3_1b
I0411 17:13:35.781718 27496 net.cpp:425] bn_conv3_1b <- conv3_1b
I0411 17:13:35.781729 27496 net.cpp:386] bn_conv3_1b -> conv3_1b (in-place)
I0411 17:13:35.782026 27496 net.cpp:141] Setting up bn_conv3_1b
I0411 17:13:35.782037 27496 net.cpp:148] Top shape: 32 32 16 16 (262144)
I0411 17:13:35.782043 27496 net.cpp:156] Memory required for data: 27656576
I0411 17:13:35.782057 27496 layer_factory.hpp:77] Creating layer scale_conv3_1b
I0411 17:13:35.782068 27496 net.cpp:91] Creating Layer scale_conv3_1b
I0411 17:13:35.782074 27496 net.cpp:425] scale_conv3_1b <- conv3_1b
I0411 17:13:35.782083 27496 net.cpp:386] scale_conv3_1b -> conv3_1b (in-place)
I0411 17:13:35.782146 27496 layer_factory.hpp:77] Creating layer scale_conv3_1b
I0411 17:13:35.782321 27496 net.cpp:141] Setting up scale_conv3_1b
I0411 17:13:35.782333 27496 net.cpp:148] Top shape: 32 32 16 16 (262144)
I0411 17:13:35.782340 27496 net.cpp:156] Memory required for data: 28705152
I0411 17:13:35.782351 27496 layer_factory.hpp:77] Creating layer conv3_1b_relu
I0411 17:13:35.782362 27496 net.cpp:91] Creating Layer conv3_1b_relu
I0411 17:13:35.782371 27496 net.cpp:425] conv3_1b_relu <- conv3_1b
I0411 17:13:35.782379 27496 net.cpp:386] conv3_1b_relu -> conv3_1b (in-place)
I0411 17:13:35.782635 27496 net.cpp:141] Setting up conv3_1b_relu
I0411 17:13:35.782650 27496 net.cpp:148] Top shape: 32 32 16 16 (262144)
I0411 17:13:35.782656 27496 net.cpp:156] Memory required for data: 29753728
I0411 17:13:35.782671 27496 layer_factory.hpp:77] Creating layer conv3_1b_conv3_1b_relu_0_split
I0411 17:13:35.782685 27496 net.cpp:91] Creating Layer conv3_1b_conv3_1b_relu_0_split
I0411 17:13:35.782692 27496 net.cpp:425] conv3_1b_conv3_1b_relu_0_split <- conv3_1b
I0411 17:13:35.782703 27496 net.cpp:399] conv3_1b_conv3_1b_relu_0_split -> conv3_1b_conv3_1b_relu_0_split_0
I0411 17:13:35.782716 27496 net.cpp:399] conv3_1b_conv3_1b_relu_0_split -> conv3_1b_conv3_1b_relu_0_split_1
I0411 17:13:35.782779 27496 net.cpp:141] Setting up conv3_1b_conv3_1b_relu_0_split
I0411 17:13:35.782791 27496 net.cpp:148] Top shape: 32 32 16 16 (262144)
I0411 17:13:35.782802 27496 net.cpp:148] Top shape: 32 32 16 16 (262144)
I0411 17:13:35.782809 27496 net.cpp:156] Memory required for data: 31850880
I0411 17:13:35.782815 27496 layer_factory.hpp:77] Creating layer conv3_down
I0411 17:13:35.782830 27496 net.cpp:91] Creating Layer conv3_down
I0411 17:13:35.782838 27496 net.cpp:425] conv3_down <- conv3_1b_conv3_1b_relu_0_split_0
I0411 17:13:35.782851 27496 net.cpp:399] conv3_down -> conv3_down
I0411 17:13:35.784211 27496 net.cpp:141] Setting up conv3_down
I0411 17:13:35.784234 27496 net.cpp:148] Top shape: 32 128 8 8 (262144)
I0411 17:13:35.784240 27496 net.cpp:156] Memory required for data: 32899456
I0411 17:13:35.784251 27496 layer_factory.hpp:77] Creating layer scale_conv3_down
I0411 17:13:35.784266 27496 net.cpp:91] Creating Layer scale_conv3_down
I0411 17:13:35.784276 27496 net.cpp:425] scale_conv3_down <- conv3_down
I0411 17:13:35.784287 27496 net.cpp:386] scale_conv3_down -> conv3_down (in-place)
I0411 17:13:35.784364 27496 layer_factory.hpp:77] Creating layer scale_conv3_down
I0411 17:13:35.784541 27496 net.cpp:141] Setting up scale_conv3_down
I0411 17:13:35.784554 27496 net.cpp:148] Top shape: 32 128 8 8 (262144)
I0411 17:13:35.784560 27496 net.cpp:156] Memory required for data: 33948032
I0411 17:13:35.784571 27496 layer_factory.hpp:77] Creating layer conv4_1a
I0411 17:13:35.784590 27496 net.cpp:91] Creating Layer conv4_1a
I0411 17:13:35.784598 27496 net.cpp:425] conv4_1a <- conv3_1b_conv3_1b_relu_0_split_1
I0411 17:13:35.784610 27496 net.cpp:399] conv4_1a -> conv4_1a
I0411 17:13:35.786248 27496 net.cpp:141] Setting up conv4_1a
I0411 17:13:35.786273 27496 net.cpp:148] Top shape: 32 128 8 8 (262144)
I0411 17:13:35.786279 27496 net.cpp:156] Memory required for data: 34996608
I0411 17:13:35.786293 27496 layer_factory.hpp:77] Creating layer bn_conv4_1a
I0411 17:13:35.786311 27496 net.cpp:91] Creating Layer bn_conv4_1a
I0411 17:13:35.786320 27496 net.cpp:425] bn_conv4_1a <- conv4_1a
I0411 17:13:35.786331 27496 net.cpp:386] bn_conv4_1a -> conv4_1a (in-place)
I0411 17:13:35.786629 27496 net.cpp:141] Setting up bn_conv4_1a
I0411 17:13:35.786641 27496 net.cpp:148] Top shape: 32 128 8 8 (262144)
I0411 17:13:35.786648 27496 net.cpp:156] Memory required for data: 36045184
I0411 17:13:35.786661 27496 layer_factory.hpp:77] Creating layer scale_conv4_1a
I0411 17:13:35.786672 27496 net.cpp:91] Creating Layer scale_conv4_1a
I0411 17:13:35.786679 27496 net.cpp:425] scale_conv4_1a <- conv4_1a
I0411 17:13:35.786689 27496 net.cpp:386] scale_conv4_1a -> conv4_1a (in-place)
I0411 17:13:35.786756 27496 layer_factory.hpp:77] Creating layer scale_conv4_1a
I0411 17:13:35.786927 27496 net.cpp:141] Setting up scale_conv4_1a
I0411 17:13:35.786939 27496 net.cpp:148] Top shape: 32 128 8 8 (262144)
I0411 17:13:35.786947 27496 net.cpp:156] Memory required for data: 37093760
I0411 17:13:35.786957 27496 layer_factory.hpp:77] Creating layer conv4_1a_relu
I0411 17:13:35.786967 27496 net.cpp:91] Creating Layer conv4_1a_relu
I0411 17:13:35.786973 27496 net.cpp:425] conv4_1a_relu <- conv4_1a
I0411 17:13:35.786984 27496 net.cpp:386] conv4_1a_relu -> conv4_1a (in-place)
I0411 17:13:35.787243 27496 net.cpp:141] Setting up conv4_1a_relu
I0411 17:13:35.787258 27496 net.cpp:148] Top shape: 32 128 8 8 (262144)
I0411 17:13:35.787266 27496 net.cpp:156] Memory required for data: 38142336
I0411 17:13:35.787272 27496 layer_factory.hpp:77] Creating layer conv4_1b
I0411 17:13:35.787292 27496 net.cpp:91] Creating Layer conv4_1b
I0411 17:13:35.787307 27496 net.cpp:425] conv4_1b <- conv4_1a
I0411 17:13:35.787318 27496 net.cpp:399] conv4_1b -> conv4_1b
I0411 17:13:35.796178 27496 net.cpp:141] Setting up conv4_1b
I0411 17:13:35.796203 27496 net.cpp:148] Top shape: 32 128 8 8 (262144)
I0411 17:13:35.796211 27496 net.cpp:156] Memory required for data: 39190912
I0411 17:13:35.796222 27496 layer_factory.hpp:77] Creating layer bn_conv4_1b
I0411 17:13:35.796236 27496 net.cpp:91] Creating Layer bn_conv4_1b
I0411 17:13:35.796244 27496 net.cpp:425] bn_conv4_1b <- conv4_1b
I0411 17:13:35.796254 27496 net.cpp:386] bn_conv4_1b -> conv4_1b (in-place)
I0411 17:13:35.796542 27496 net.cpp:141] Setting up bn_conv4_1b
I0411 17:13:35.796555 27496 net.cpp:148] Top shape: 32 128 8 8 (262144)
I0411 17:13:35.796561 27496 net.cpp:156] Memory required for data: 40239488
I0411 17:13:35.796573 27496 layer_factory.hpp:77] Creating layer scale_conv4_1b
I0411 17:13:35.796583 27496 net.cpp:91] Creating Layer scale_conv4_1b
I0411 17:13:35.796591 27496 net.cpp:425] scale_conv4_1b <- conv4_1b
I0411 17:13:35.796602 27496 net.cpp:386] scale_conv4_1b -> conv4_1b (in-place)
I0411 17:13:35.796660 27496 layer_factory.hpp:77] Creating layer scale_conv4_1b
I0411 17:13:35.796825 27496 net.cpp:141] Setting up scale_conv4_1b
I0411 17:13:35.796838 27496 net.cpp:148] Top shape: 32 128 8 8 (262144)
I0411 17:13:35.796844 27496 net.cpp:156] Memory required for data: 41288064
I0411 17:13:35.796854 27496 layer_factory.hpp:77] Creating layer conv4_1b_relu
I0411 17:13:35.796864 27496 net.cpp:91] Creating Layer conv4_1b_relu
I0411 17:13:35.796870 27496 net.cpp:425] conv4_1b_relu <- conv4_1b
I0411 17:13:35.796879 27496 net.cpp:386] conv4_1b_relu -> conv4_1b (in-place)
I0411 17:13:35.797287 27496 net.cpp:141] Setting up conv4_1b_relu
I0411 17:13:35.797307 27496 net.cpp:148] Top shape: 32 128 8 8 (262144)
I0411 17:13:35.797315 27496 net.cpp:156] Memory required for data: 42336640
I0411 17:13:35.797322 27496 layer_factory.hpp:77] Creating layer conv4_down
I0411 17:13:35.797340 27496 net.cpp:91] Creating Layer conv4_down
I0411 17:13:35.797349 27496 net.cpp:425] conv4_down <- conv4_1b
I0411 17:13:35.797360 27496 net.cpp:399] conv4_down -> conv4_down
I0411 17:13:35.798702 27496 net.cpp:141] Setting up conv4_down
I0411 17:13:35.798722 27496 net.cpp:148] Top shape: 32 128 8 8 (262144)
I0411 17:13:35.798729 27496 net.cpp:156] Memory required for data: 43385216
I0411 17:13:35.798739 27496 layer_factory.hpp:77] Creating layer scale_conv4_down
I0411 17:13:35.798753 27496 net.cpp:91] Creating Layer scale_conv4_down
I0411 17:13:35.798761 27496 net.cpp:425] scale_conv4_down <- conv4_down
I0411 17:13:35.798774 27496 net.cpp:386] scale_conv4_down -> conv4_down (in-place)
I0411 17:13:35.798848 27496 layer_factory.hpp:77] Creating layer scale_conv4_down
I0411 17:13:35.799026 27496 net.cpp:141] Setting up scale_conv4_down
I0411 17:13:35.799037 27496 net.cpp:148] Top shape: 32 128 8 8 (262144)
I0411 17:13:35.799043 27496 net.cpp:156] Memory required for data: 44433792
I0411 17:13:35.799054 27496 layer_factory.hpp:77] Creating layer global_in
I0411 17:13:35.799064 27496 net.cpp:91] Creating Layer global_in
I0411 17:13:35.799072 27496 net.cpp:425] global_in <- conv1_down
I0411 17:13:35.799080 27496 net.cpp:425] global_in <- conv2_down
I0411 17:13:35.799088 27496 net.cpp:425] global_in <- conv3_down
I0411 17:13:35.799095 27496 net.cpp:425] global_in <- conv4_down
I0411 17:13:35.799108 27496 net.cpp:399] global_in -> global_in
I0411 17:13:35.799146 27496 net.cpp:141] Setting up global_in
I0411 17:13:35.799156 27496 net.cpp:148] Top shape: 32 128 8 8 (262144)
I0411 17:13:35.799163 27496 net.cpp:156] Memory required for data: 45482368
I0411 17:13:35.799170 27496 layer_factory.hpp:77] Creating layer global_pool
I0411 17:13:35.799182 27496 net.cpp:91] Creating Layer global_pool
I0411 17:13:35.799190 27496 net.cpp:425] global_pool <- global_in
I0411 17:13:35.799198 27496 net.cpp:399] global_pool -> global_pool
I0411 17:13:35.799468 27496 net.cpp:141] Setting up global_pool
I0411 17:13:35.799484 27496 net.cpp:148] Top shape: 32 128 1 1 (4096)
I0411 17:13:35.799495 27496 net.cpp:156] Memory required for data: 45498752
I0411 17:13:35.799504 27496 layer_factory.hpp:77] Creating layer ip
I0411 17:13:35.799516 27496 net.cpp:91] Creating Layer ip
I0411 17:13:35.799525 27496 net.cpp:425] ip <- global_pool
I0411 17:13:35.799535 27496 net.cpp:399] ip -> ip
I0411 17:13:35.799702 27496 net.cpp:141] Setting up ip
I0411 17:13:35.799713 27496 net.cpp:148] Top shape: 32 10 (320)
I0411 17:13:35.799720 27496 net.cpp:156] Memory required for data: 45500032
I0411 17:13:35.799731 27496 layer_factory.hpp:77] Creating layer ip_ip_0_split
I0411 17:13:35.799741 27496 net.cpp:91] Creating Layer ip_ip_0_split
I0411 17:13:35.799747 27496 net.cpp:425] ip_ip_0_split <- ip
I0411 17:13:35.799757 27496 net.cpp:399] ip_ip_0_split -> ip_ip_0_split_0
I0411 17:13:35.799770 27496 net.cpp:399] ip_ip_0_split -> ip_ip_0_split_1
I0411 17:13:35.799825 27496 net.cpp:141] Setting up ip_ip_0_split
I0411 17:13:35.799836 27496 net.cpp:148] Top shape: 32 10 (320)
I0411 17:13:35.799844 27496 net.cpp:148] Top shape: 32 10 (320)
I0411 17:13:35.799849 27496 net.cpp:156] Memory required for data: 45502592
I0411 17:13:35.799856 27496 layer_factory.hpp:77] Creating layer accuracy
I0411 17:13:35.799867 27496 net.cpp:91] Creating Layer accuracy
I0411 17:13:35.799875 27496 net.cpp:425] accuracy <- ip_ip_0_split_0
I0411 17:13:35.799882 27496 net.cpp:425] accuracy <- label_data_1_split_0
I0411 17:13:35.799891 27496 net.cpp:399] accuracy -> accuracy
…
