…
I0418 20:10:13.807359 21671 net.cpp:313] The NetState phase (0) differed from the phase (1) specified by a rule in layer cifar
I0418 20:10:13.807579 21671 net.cpp:49] Initializing net from parameters: 
name: "PlainNet-cifar"
state {
  phase: TRAIN
}
layer {
  name: "cifar"
  type: "Data"
  top: "data"
  top: "label"
  include {
    phase: TRAIN
  }
  transform_param {
    mean_file: "/home/liangjiang/code/residual_network/data/cifar10/mean.binaryproto"
  }
  data_param {
    source: "/home/liangjiang/code/residual_network/data/cifar10/cifar10_train_lmdb"
    batch_size: 128
    backend: LMDB
  }
}
layer {
  name: "conv1"
  type: "Convolution"
  bottom: "data"
  top: "conv1"
  param {
    lr_mult: 1
  }
  param {
    lr_mult: 2
  }
  convolution_param {
    num_output: 8
    pad: 1
    kernel_size: 3
    weight_filler {
      type: "msra"
    }
    bias_filler {
      type: "constant"
    }
  }
}
layer {
  name: "bn_conv1"
  type: "BatchNorm"
  bottom: "conv1"
  top: "conv1"
  param {
    lr_mult: 0
  }
  param {
    lr_mult: 0
  }
  param {
    lr_mult: 0
  }
}
layer {
  name: "scale_conv1"
  type: "Scale"
  bottom: "conv1"
  top: "conv1"
  scale_param {
    bias_term: true
  }
}
layer {
  name: "conv1_relu"
  type: "ReLU"
  bottom: "conv1"
  top: "conv1"
}
layer {
  name: "conv2_1a"
  type: "Convolution"
  bottom: "conv1"
  top: "conv2_1a"
  param {
    lr_mult: 1
  }
  param {
    lr_mult: 2
  }
  convolution_param {
    num_output: 8
    pad: 1
    kernel_size: 3
    stride: 1
    weight_filler {
      type: "msra"
    }
    bias_filler {
      type: "constant"
      value: 0
    }
  }
}
layer {
  name: "bn_conv2_1a"
  type: "BatchNorm"
  bottom: "conv2_1a"
  top: "conv2_1a"
  param {
    lr_mult: 0
  }
  param {
    lr_mult: 0
  }
  param {
    lr_mult: 0
  }
}
layer {
  name: "scale_conv2_1a"
  type: "Scale"
  bottom: "conv2_1a"
  top: "conv2_1a"
  scale_param {
    bias_term: true
  }
}
layer {
  name: "conv2_1a_relu"
  type: "ReLU"
  bottom: "conv2_1a"
  top: "conv2_1a"
}
layer {
  name: "conv2_1b"
  type: "Convolution"
  bottom: "conv2_1a"
  top: "conv2_1b"
  param {
    lr_mult: 1
  }
  param {
    lr_mult: 2
  }
  convolution_param {
    num_output: 8
    pad: 1
    kernel_size: 3
    stride: 1
    weight_filler {
      type: "msra"
    }
    bias_filler {
      type: "constant"
      value: 0
    }
  }
}
layer {
  name: "bn_conv2_1b"
  type: "BatchNorm"
  bottom: "conv2_1b"
  top: "conv2_1b"
  param {
    lr_mult: 0
  }
  param {
    lr_mult: 0
  }
  param {
    lr_mult: 0
  }
}
layer {
  name: "scale_conv2_1b"
  type: "Scale"
  bottom: "conv2_1b"
  top: "conv2_1b"
  scale_param {
    bias_term: true
  }
}
layer {
  name: "conv2_1b_relu"
  type: "ReLU"
  bottom: "conv2_1b"
  top: "conv2_1b"
}
layer {
  name: "conv3_1a"
  type: "Convolution"
  bottom: "conv2_1b"
  top: "conv3_1a"
  param {
    lr_mult: 1
  }
  param {
    lr_mult: 2
  }
  convolution_param {
    num_output: 32
    pad: 0
    kernel_size: 1
    stride: 2
    weight_filler {
      type: "msra"
    }
    bias_filler {
      type: "constant"
      value: 0
    }
  }
}
layer {
  name: "bn_conv3_1a"
  type: "BatchNorm"
  bottom: "conv3_1a"
  top: "conv3_1a"
  param {
    lr_mult: 0
  }
  param {
    lr_mult: 0
  }
  param {
    lr_mult: 0
  }
}
layer {
  name: "scale_conv3_1a"
  type: "Scale"
  bottom: "conv3_1a"
  top: "conv3_1a"
  scale_param {
    bias_term: true
  }
}
layer {
  name: "conv3_1a_relu"
  type: "ReLU"
  bottom: "conv3_1a"
  top: "conv3_1a"
}
layer {
  name: "conv3_1b"
  type: "Convolution"
  bottom: "conv3_1a"
  top: "conv3_1b"
  param {
    lr_mult: 1
  }
  param {
    lr_mult: 2
  }
  convolution_param {
    num_output: 32
    pad: 1
    kernel_size: 3
    stride: 1
    weight_filler {
      type: "msra"
    }
    bias_filler {
      type: "constant"
      value: 0
    }
  }
}
layer {
  name: "bn_conv3_1b"
  type: "BatchNorm"
  bottom: "conv3_1b"
  top: "conv3_1b"
  param {
    lr_mult: 0
  }
  param {
    lr_mult: 0
  }
  param {
    lr_mult: 0
  }
}
layer {
  name: "scale_conv3_1b"
  type: "Scale"
  bottom: "conv3_1b"
  top: "conv3_1b"
  scale_param {
    bias_term: true
  }
}
layer {
  name: "conv3_1b_relu"
  type: "ReLU"
  bottom: "conv3_1b"
  top: "conv3_1b"
}
layer {
  name: "conv4_1a"
  type: "Convolution"
  bottom: "conv3_1b"
  top: "conv4_1a"
  param {
    lr_mult: 1
  }
  param {
    lr_mult: 2
  }
  convolution_param {
    num_output: 128
    pad: 0
    kernel_size: 1
    stride: 2
    weight_filler {
      type: "msra"
    }
    bias_filler {
      type: "constant"
      value: 0
    }
  }
}
layer {
  name: "bn_conv4_1a"
  type: "BatchNorm"
  bottom: "conv4_1a"
  top: "conv4_1a"
  param {
    lr_mult: 0
  }
  param {
    lr_mult: 0
  }
  param {
    lr_mult: 0
  }
}
layer {
  name: "scale_conv4_1a"
  type: "Scale"
  bottom: "conv4_1a"
  top: "conv4_1a"
  scale_param {
    bias_term: true
  }
}
layer {
  name: "conv4_1a_relu"
  type: "ReLU"
  bottom: "conv4_1a"
  top: "conv4_1a"
}
layer {
  name: "conv4_1b"
  type: "Convolution"
  bottom: "conv4_1a"
  top: "conv4_1b"
  param {
    lr_mult: 1
  }
  param {
    lr_mult: 2
  }
  convolution_param {
    num_output: 128
    pad: 1
    kernel_size: 3
    stride: 1
    weight_filler {
      type: "msra"
    }
    bias_filler {
      type: "constant"
      value: 0
    }
  }
}
layer {
  name: "bn_conv4_1b"
  type: "BatchNorm"
  bottom: "conv4_1b"
  top: "conv4_1b"
  param {
    lr_mult: 0
  }
  param {
    lr_mult: 0
  }
  param {
    lr_mult: 0
  }
}
layer {
  name: "scale_conv4_1b"
  type: "Scale"
  bottom: "conv4_1b"
  top: "conv4_1b"
  scale_param {
    bias_term: true
  }
}
layer {
  name: "conv4_1b_relu"
  type: "ReLU"
  bottom: "conv4_1b"
  top: "conv4_1b"
}
layer {
  name: "global_pool"
  type: "Pooling"
  bottom: "conv4_1b"
  top: "global_pool"
  pooling_param {
    pool: AVE
    kernel_size: 8
    stride: 8
  }
}
layer {
  name: "ip"
  type: "InnerProduct"
  bottom: "global_pool"
  top: "ip"
  param {
    lr_mult: 1
  }
  param {
    lr_mult: 2
  }
  inner_product_param {
    num_output: 10
  }
}
layer {
  name: "accuracy"
  type: "Accuracy"
  bottom: "ip"
  bottom: "label"
  top: "accuracy"
}
layer {
  name: "loss"
  type: "SoftmaxWithLoss"
  bottom: "ip"
  bottom: "label"
  top: "loss"
}
I0418 20:10:13.807745 21671 layer_factory.hpp:77] Creating layer cifar
I0418 20:10:13.808275 21671 net.cpp:91] Creating Layer cifar
I0418 20:10:13.808290 21671 net.cpp:399] cifar -> data
I0418 20:10:13.808305 21671 net.cpp:399] cifar -> label
I0418 20:10:13.808322 21671 data_transformer.cpp:25] Loading mean file from: /home/liangjiang/code/residual_network/data/cifar10/mean.binaryproto
I0418 20:10:13.811471 21718 db_lmdb.cpp:38] Opened lmdb /home/liangjiang/code/residual_network/data/cifar10/cifar10_train_lmdb
I0418 20:10:13.819622 21671 data_layer.cpp:41] output data size: 128,3,32,32
I0418 20:10:13.823138 21671 net.cpp:141] Setting up cifar
I0418 20:10:13.823163 21671 net.cpp:148] Top shape: 128 3 32 32 (393216)
I0418 20:10:13.823170 21671 net.cpp:148] Top shape: 128 (128)
I0418 20:10:13.823175 21671 net.cpp:156] Memory required for data: 1573376
I0418 20:10:13.823184 21671 layer_factory.hpp:77] Creating layer label_cifar_1_split
I0418 20:10:13.823201 21671 net.cpp:91] Creating Layer label_cifar_1_split
I0418 20:10:13.823209 21671 net.cpp:425] label_cifar_1_split <- label
I0418 20:10:13.823220 21671 net.cpp:399] label_cifar_1_split -> label_cifar_1_split_0
I0418 20:10:13.823231 21671 net.cpp:399] label_cifar_1_split -> label_cifar_1_split_1
I0418 20:10:13.823323 21671 net.cpp:141] Setting up label_cifar_1_split
I0418 20:10:13.823335 21671 net.cpp:148] Top shape: 128 (128)
I0418 20:10:13.823341 21671 net.cpp:148] Top shape: 128 (128)
I0418 20:10:13.823346 21671 net.cpp:156] Memory required for data: 1574400
I0418 20:10:13.823351 21671 layer_factory.hpp:77] Creating layer conv1
I0418 20:10:13.823370 21671 net.cpp:91] Creating Layer conv1
I0418 20:10:13.823376 21671 net.cpp:425] conv1 <- data
I0418 20:10:13.823385 21671 net.cpp:399] conv1 -> conv1
I0418 20:10:14.055676 21671 net.cpp:141] Setting up conv1
I0418 20:10:14.055721 21671 net.cpp:148] Top shape: 128 8 32 32 (1048576)
I0418 20:10:14.055727 21671 net.cpp:156] Memory required for data: 5768704
I0418 20:10:14.055748 21671 layer_factory.hpp:77] Creating layer bn_conv1
I0418 20:10:14.055764 21671 net.cpp:91] Creating Layer bn_conv1
I0418 20:10:14.055771 21671 net.cpp:425] bn_conv1 <- conv1
I0418 20:10:14.055780 21671 net.cpp:386] bn_conv1 -> conv1 (in-place)
I0418 20:10:14.055973 21671 net.cpp:141] Setting up bn_conv1
I0418 20:10:14.055982 21671 net.cpp:148] Top shape: 128 8 32 32 (1048576)
I0418 20:10:14.055989 21671 net.cpp:156] Memory required for data: 9963008
I0418 20:10:14.056002 21671 layer_factory.hpp:77] Creating layer scale_conv1
I0418 20:10:14.056015 21671 net.cpp:91] Creating Layer scale_conv1
I0418 20:10:14.056020 21671 net.cpp:425] scale_conv1 <- conv1
I0418 20:10:14.056027 21671 net.cpp:386] scale_conv1 -> conv1 (in-place)
I0418 20:10:14.056066 21671 layer_factory.hpp:77] Creating layer scale_conv1
I0418 20:10:14.056175 21671 net.cpp:141] Setting up scale_conv1
I0418 20:10:14.056185 21671 net.cpp:148] Top shape: 128 8 32 32 (1048576)
I0418 20:10:14.056190 21671 net.cpp:156] Memory required for data: 14157312
I0418 20:10:14.056200 21671 layer_factory.hpp:77] Creating layer conv1_relu
I0418 20:10:14.056208 21671 net.cpp:91] Creating Layer conv1_relu
I0418 20:10:14.056213 21671 net.cpp:425] conv1_relu <- conv1
I0418 20:10:14.056221 21671 net.cpp:386] conv1_relu -> conv1 (in-place)
I0418 20:10:14.056524 21671 net.cpp:141] Setting up conv1_relu
I0418 20:10:14.056540 21671 net.cpp:148] Top shape: 128 8 32 32 (1048576)
I0418 20:10:14.056546 21671 net.cpp:156] Memory required for data: 18351616
I0418 20:10:14.056552 21671 layer_factory.hpp:77] Creating layer conv2_1a
I0418 20:10:14.056566 21671 net.cpp:91] Creating Layer conv2_1a
I0418 20:10:14.056571 21671 net.cpp:425] conv2_1a <- conv1
I0418 20:10:14.056581 21671 net.cpp:399] conv2_1a -> conv2_1a
I0418 20:10:14.057471 21671 net.cpp:141] Setting up conv2_1a
I0418 20:10:14.057490 21671 net.cpp:148] Top shape: 128 8 32 32 (1048576)
I0418 20:10:14.057497 21671 net.cpp:156] Memory required for data: 22545920
I0418 20:10:14.057508 21671 layer_factory.hpp:77] Creating layer bn_conv2_1a
I0418 20:10:14.057518 21671 net.cpp:91] Creating Layer bn_conv2_1a
I0418 20:10:14.057524 21671 net.cpp:425] bn_conv2_1a <- conv2_1a
I0418 20:10:14.057533 21671 net.cpp:386] bn_conv2_1a -> conv2_1a (in-place)
I0418 20:10:14.057714 21671 net.cpp:141] Setting up bn_conv2_1a
I0418 20:10:14.057724 21671 net.cpp:148] Top shape: 128 8 32 32 (1048576)
I0418 20:10:14.057729 21671 net.cpp:156] Memory required for data: 26740224
I0418 20:10:14.057739 21671 layer_factory.hpp:77] Creating layer scale_conv2_1a
I0418 20:10:14.057759 21671 net.cpp:91] Creating Layer scale_conv2_1a
I0418 20:10:14.057765 21671 net.cpp:425] scale_conv2_1a <- conv2_1a
I0418 20:10:14.057771 21671 net.cpp:386] scale_conv2_1a -> conv2_1a (in-place)
I0418 20:10:14.057811 21671 layer_factory.hpp:77] Creating layer scale_conv2_1a
I0418 20:10:14.057914 21671 net.cpp:141] Setting up scale_conv2_1a
I0418 20:10:14.057924 21671 net.cpp:148] Top shape: 128 8 32 32 (1048576)
I0418 20:10:14.057929 21671 net.cpp:156] Memory required for data: 30934528
I0418 20:10:14.057936 21671 layer_factory.hpp:77] Creating layer conv2_1a_relu
I0418 20:10:14.057945 21671 net.cpp:91] Creating Layer conv2_1a_relu
I0418 20:10:14.057950 21671 net.cpp:425] conv2_1a_relu <- conv2_1a
I0418 20:10:14.057956 21671 net.cpp:386] conv2_1a_relu -> conv2_1a (in-place)
I0418 20:10:14.058253 21671 net.cpp:141] Setting up conv2_1a_relu
I0418 20:10:14.058267 21671 net.cpp:148] Top shape: 128 8 32 32 (1048576)
I0418 20:10:14.058274 21671 net.cpp:156] Memory required for data: 35128832
I0418 20:10:14.058279 21671 layer_factory.hpp:77] Creating layer conv2_1b
I0418 20:10:14.058291 21671 net.cpp:91] Creating Layer conv2_1b
I0418 20:10:14.058296 21671 net.cpp:425] conv2_1b <- conv2_1a
I0418 20:10:14.058305 21671 net.cpp:399] conv2_1b -> conv2_1b
I0418 20:10:14.059345 21671 net.cpp:141] Setting up conv2_1b
I0418 20:10:14.059362 21671 net.cpp:148] Top shape: 128 8 32 32 (1048576)
I0418 20:10:14.059368 21671 net.cpp:156] Memory required for data: 39323136
I0418 20:10:14.059378 21671 layer_factory.hpp:77] Creating layer bn_conv2_1b
I0418 20:10:14.059387 21671 net.cpp:91] Creating Layer bn_conv2_1b
I0418 20:10:14.059392 21671 net.cpp:425] bn_conv2_1b <- conv2_1b
I0418 20:10:14.059402 21671 net.cpp:386] bn_conv2_1b -> conv2_1b (in-place)
I0418 20:10:14.059605 21671 net.cpp:141] Setting up bn_conv2_1b
I0418 20:10:14.059615 21671 net.cpp:148] Top shape: 128 8 32 32 (1048576)
I0418 20:10:14.059620 21671 net.cpp:156] Memory required for data: 43517440
I0418 20:10:14.059634 21671 layer_factory.hpp:77] Creating layer scale_conv2_1b
I0418 20:10:14.059643 21671 net.cpp:91] Creating Layer scale_conv2_1b
I0418 20:10:14.059648 21671 net.cpp:425] scale_conv2_1b <- conv2_1b
I0418 20:10:14.059656 21671 net.cpp:386] scale_conv2_1b -> conv2_1b (in-place)
I0418 20:10:14.059694 21671 layer_factory.hpp:77] Creating layer scale_conv2_1b
I0418 20:10:14.059811 21671 net.cpp:141] Setting up scale_conv2_1b
I0418 20:10:14.059823 21671 net.cpp:148] Top shape: 128 8 32 32 (1048576)
I0418 20:10:14.059828 21671 net.cpp:156] Memory required for data: 47711744
I0418 20:10:14.059836 21671 layer_factory.hpp:77] Creating layer conv2_1b_relu
I0418 20:10:14.059844 21671 net.cpp:91] Creating Layer conv2_1b_relu
I0418 20:10:14.059849 21671 net.cpp:425] conv2_1b_relu <- conv2_1b
I0418 20:10:14.059854 21671 net.cpp:386] conv2_1b_relu -> conv2_1b (in-place)
I0418 20:10:14.060053 21671 net.cpp:141] Setting up conv2_1b_relu
I0418 20:10:14.060065 21671 net.cpp:148] Top shape: 128 8 32 32 (1048576)
I0418 20:10:14.060071 21671 net.cpp:156] Memory required for data: 51906048
I0418 20:10:14.060076 21671 layer_factory.hpp:77] Creating layer conv3_1a
I0418 20:10:14.060091 21671 net.cpp:91] Creating Layer conv3_1a
I0418 20:10:14.060096 21671 net.cpp:425] conv3_1a <- conv2_1b
I0418 20:10:14.060106 21671 net.cpp:399] conv3_1a -> conv3_1a
I0418 20:10:14.061290 21671 net.cpp:141] Setting up conv3_1a
I0418 20:10:14.061310 21671 net.cpp:148] Top shape: 128 32 16 16 (1048576)
I0418 20:10:14.061316 21671 net.cpp:156] Memory required for data: 56100352
I0418 20:10:14.061326 21671 layer_factory.hpp:77] Creating layer bn_conv3_1a
I0418 20:10:14.061336 21671 net.cpp:91] Creating Layer bn_conv3_1a
I0418 20:10:14.061342 21671 net.cpp:425] bn_conv3_1a <- conv3_1a
I0418 20:10:14.061352 21671 net.cpp:386] bn_conv3_1a -> conv3_1a (in-place)
I0418 20:10:14.061552 21671 net.cpp:141] Setting up bn_conv3_1a
I0418 20:10:14.061561 21671 net.cpp:148] Top shape: 128 32 16 16 (1048576)
I0418 20:10:14.061566 21671 net.cpp:156] Memory required for data: 60294656
I0418 20:10:14.061581 21671 layer_factory.hpp:77] Creating layer scale_conv3_1a
I0418 20:10:14.061594 21671 net.cpp:91] Creating Layer scale_conv3_1a
I0418 20:10:14.061599 21671 net.cpp:425] scale_conv3_1a <- conv3_1a
I0418 20:10:14.061606 21671 net.cpp:386] scale_conv3_1a -> conv3_1a (in-place)
I0418 20:10:14.061645 21671 layer_factory.hpp:77] Creating layer scale_conv3_1a
I0418 20:10:14.061765 21671 net.cpp:141] Setting up scale_conv3_1a
I0418 20:10:14.061775 21671 net.cpp:148] Top shape: 128 32 16 16 (1048576)
I0418 20:10:14.061780 21671 net.cpp:156] Memory required for data: 64488960
I0418 20:10:14.061789 21671 layer_factory.hpp:77] Creating layer conv3_1a_relu
I0418 20:10:14.061795 21671 net.cpp:91] Creating Layer conv3_1a_relu
I0418 20:10:14.061800 21671 net.cpp:425] conv3_1a_relu <- conv3_1a
I0418 20:10:14.061808 21671 net.cpp:386] conv3_1a_relu -> conv3_1a (in-place)
I0418 20:10:14.062129 21671 net.cpp:141] Setting up conv3_1a_relu
I0418 20:10:14.062144 21671 net.cpp:148] Top shape: 128 32 16 16 (1048576)
I0418 20:10:14.062150 21671 net.cpp:156] Memory required for data: 68683264
I0418 20:10:14.062155 21671 layer_factory.hpp:77] Creating layer conv3_1b
I0418 20:10:14.062170 21671 net.cpp:91] Creating Layer conv3_1b
I0418 20:10:14.062175 21671 net.cpp:425] conv3_1b <- conv3_1a
I0418 20:10:14.062186 21671 net.cpp:399] conv3_1b -> conv3_1b
I0418 20:10:14.063979 21671 net.cpp:141] Setting up conv3_1b
I0418 20:10:14.063997 21671 net.cpp:148] Top shape: 128 32 16 16 (1048576)
I0418 20:10:14.064003 21671 net.cpp:156] Memory required for data: 72877568
I0418 20:10:14.064013 21671 layer_factory.hpp:77] Creating layer bn_conv3_1b
I0418 20:10:14.064023 21671 net.cpp:91] Creating Layer bn_conv3_1b
I0418 20:10:14.064029 21671 net.cpp:425] bn_conv3_1b <- conv3_1b
I0418 20:10:14.064036 21671 net.cpp:386] bn_conv3_1b -> conv3_1b (in-place)
I0418 20:10:14.064240 21671 net.cpp:141] Setting up bn_conv3_1b
I0418 20:10:14.064250 21671 net.cpp:148] Top shape: 128 32 16 16 (1048576)
I0418 20:10:14.064255 21671 net.cpp:156] Memory required for data: 77071872
I0418 20:10:14.064270 21671 layer_factory.hpp:77] Creating layer scale_conv3_1b
I0418 20:10:14.064277 21671 net.cpp:91] Creating Layer scale_conv3_1b
I0418 20:10:14.064282 21671 net.cpp:425] scale_conv3_1b <- conv3_1b
I0418 20:10:14.064296 21671 net.cpp:386] scale_conv3_1b -> conv3_1b (in-place)
I0418 20:10:14.064337 21671 layer_factory.hpp:77] Creating layer scale_conv3_1b
I0418 20:10:14.064453 21671 net.cpp:141] Setting up scale_conv3_1b
I0418 20:10:14.064465 21671 net.cpp:148] Top shape: 128 32 16 16 (1048576)
I0418 20:10:14.064470 21671 net.cpp:156] Memory required for data: 81266176
I0418 20:10:14.064477 21671 layer_factory.hpp:77] Creating layer conv3_1b_relu
I0418 20:10:14.064484 21671 net.cpp:91] Creating Layer conv3_1b_relu
I0418 20:10:14.064489 21671 net.cpp:425] conv3_1b_relu <- conv3_1b
I0418 20:10:14.064496 21671 net.cpp:386] conv3_1b_relu -> conv3_1b (in-place)
I0418 20:10:14.064833 21671 net.cpp:141] Setting up conv3_1b_relu
I0418 20:10:14.064849 21671 net.cpp:148] Top shape: 128 32 16 16 (1048576)
I0418 20:10:14.064856 21671 net.cpp:156] Memory required for data: 85460480
I0418 20:10:14.064860 21671 layer_factory.hpp:77] Creating layer conv4_1a
I0418 20:10:14.064875 21671 net.cpp:91] Creating Layer conv4_1a
I0418 20:10:14.064882 21671 net.cpp:425] conv4_1a <- conv3_1b
I0418 20:10:14.064890 21671 net.cpp:399] conv4_1a -> conv4_1a
I0418 20:10:14.066112 21671 net.cpp:141] Setting up conv4_1a
I0418 20:10:14.066131 21671 net.cpp:148] Top shape: 128 128 8 8 (1048576)
I0418 20:10:14.066138 21671 net.cpp:156] Memory required for data: 89654784
I0418 20:10:14.066146 21671 layer_factory.hpp:77] Creating layer bn_conv4_1a
I0418 20:10:14.066155 21671 net.cpp:91] Creating Layer bn_conv4_1a
I0418 20:10:14.066161 21671 net.cpp:425] bn_conv4_1a <- conv4_1a
I0418 20:10:14.066170 21671 net.cpp:386] bn_conv4_1a -> conv4_1a (in-place)
I0418 20:10:14.066367 21671 net.cpp:141] Setting up bn_conv4_1a
I0418 20:10:14.066377 21671 net.cpp:148] Top shape: 128 128 8 8 (1048576)
I0418 20:10:14.066382 21671 net.cpp:156] Memory required for data: 93849088
I0418 20:10:14.066397 21671 layer_factory.hpp:77] Creating layer scale_conv4_1a
I0418 20:10:14.066406 21671 net.cpp:91] Creating Layer scale_conv4_1a
I0418 20:10:14.066411 21671 net.cpp:425] scale_conv4_1a <- conv4_1a
I0418 20:10:14.066418 21671 net.cpp:386] scale_conv4_1a -> conv4_1a (in-place)
I0418 20:10:14.066459 21671 layer_factory.hpp:77] Creating layer scale_conv4_1a
I0418 20:10:14.066577 21671 net.cpp:141] Setting up scale_conv4_1a
I0418 20:10:14.066586 21671 net.cpp:148] Top shape: 128 128 8 8 (1048576)
I0418 20:10:14.066591 21671 net.cpp:156] Memory required for data: 98043392
I0418 20:10:14.066599 21671 layer_factory.hpp:77] Creating layer conv4_1a_relu
I0418 20:10:14.066608 21671 net.cpp:91] Creating Layer conv4_1a_relu
I0418 20:10:14.066614 21671 net.cpp:425] conv4_1a_relu <- conv4_1a
I0418 20:10:14.066622 21671 net.cpp:386] conv4_1a_relu -> conv4_1a (in-place)
I0418 20:10:14.066814 21671 net.cpp:141] Setting up conv4_1a_relu
I0418 20:10:14.066826 21671 net.cpp:148] Top shape: 128 128 8 8 (1048576)
I0418 20:10:14.066831 21671 net.cpp:156] Memory required for data: 102237696
I0418 20:10:14.066838 21671 layer_factory.hpp:77] Creating layer conv4_1b
I0418 20:10:14.066851 21671 net.cpp:91] Creating Layer conv4_1b
I0418 20:10:14.066856 21671 net.cpp:425] conv4_1b <- conv4_1a
I0418 20:10:14.066867 21671 net.cpp:399] conv4_1b -> conv4_1b
I0418 20:10:14.073755 21671 net.cpp:141] Setting up conv4_1b
I0418 20:10:14.073776 21671 net.cpp:148] Top shape: 128 128 8 8 (1048576)
I0418 20:10:14.073781 21671 net.cpp:156] Memory required for data: 106432000
I0418 20:10:14.073791 21671 layer_factory.hpp:77] Creating layer bn_conv4_1b
I0418 20:10:14.073801 21671 net.cpp:91] Creating Layer bn_conv4_1b
I0418 20:10:14.073807 21671 net.cpp:425] bn_conv4_1b <- conv4_1b
I0418 20:10:14.073817 21671 net.cpp:386] bn_conv4_1b -> conv4_1b (in-place)
I0418 20:10:14.074019 21671 net.cpp:141] Setting up bn_conv4_1b
I0418 20:10:14.074029 21671 net.cpp:148] Top shape: 128 128 8 8 (1048576)
I0418 20:10:14.074034 21671 net.cpp:156] Memory required for data: 110626304
I0418 20:10:14.074043 21671 layer_factory.hpp:77] Creating layer scale_conv4_1b
I0418 20:10:14.074054 21671 net.cpp:91] Creating Layer scale_conv4_1b
I0418 20:10:14.074059 21671 net.cpp:425] scale_conv4_1b <- conv4_1b
I0418 20:10:14.074066 21671 net.cpp:386] scale_conv4_1b -> conv4_1b (in-place)
I0418 20:10:14.074105 21671 layer_factory.hpp:77] Creating layer scale_conv4_1b
I0418 20:10:14.074221 21671 net.cpp:141] Setting up scale_conv4_1b
I0418 20:10:14.074232 21671 net.cpp:148] Top shape: 128 128 8 8 (1048576)
I0418 20:10:14.074237 21671 net.cpp:156] Memory required for data: 114820608
I0418 20:10:14.074245 21671 layer_factory.hpp:77] Creating layer conv4_1b_relu
I0418 20:10:14.074254 21671 net.cpp:91] Creating Layer conv4_1b_relu
I0418 20:10:14.074259 21671 net.cpp:425] conv4_1b_relu <- conv4_1b
I0418 20:10:14.074265 21671 net.cpp:386] conv4_1b_relu -> conv4_1b (in-place)
I0418 20:10:14.074594 21671 net.cpp:141] Setting up conv4_1b_relu
I0418 20:10:14.074610 21671 net.cpp:148] Top shape: 128 128 8 8 (1048576)
I0418 20:10:14.074615 21671 net.cpp:156] Memory required for data: 119014912
I0418 20:10:14.074621 21671 layer_factory.hpp:77] Creating layer global_pool
I0418 20:10:14.074631 21671 net.cpp:91] Creating Layer global_pool
I0418 20:10:14.074636 21671 net.cpp:425] global_pool <- conv4_1b
I0418 20:10:14.074645 21671 net.cpp:399] global_pool -> global_pool
I0418 20:10:14.074869 21671 net.cpp:141] Setting up global_pool
I0418 20:10:14.074883 21671 net.cpp:148] Top shape: 128 128 1 1 (16384)
I0418 20:10:14.074888 21671 net.cpp:156] Memory required for data: 119080448
I0418 20:10:14.074893 21671 layer_factory.hpp:77] Creating layer ip
I0418 20:10:14.074908 21671 net.cpp:91] Creating Layer ip
I0418 20:10:14.074914 21671 net.cpp:425] ip <- global_pool
I0418 20:10:14.074926 21671 net.cpp:399] ip -> ip
I0418 20:10:14.075052 21671 net.cpp:141] Setting up ip
I0418 20:10:14.075062 21671 net.cpp:148] Top shape: 128 10 (1280)
I0418 20:10:14.075074 21671 net.cpp:156] Memory required for data: 119085568
I0418 20:10:14.075083 21671 layer_factory.hpp:77] Creating layer ip_ip_0_split
I0418 20:10:14.075096 21671 net.cpp:91] Creating Layer ip_ip_0_split
I0418 20:10:14.075103 21671 net.cpp:425] ip_ip_0_split <- ip
I0418 20:10:14.075109 21671 net.cpp:399] ip_ip_0_split -> ip_ip_0_split_0
I0418 20:10:14.075119 21671 net.cpp:399] ip_ip_0_split -> ip_ip_0_split_1
I0418 20:10:14.075155 21671 net.cpp:141] Setting up ip_ip_0_split
I0418 20:10:14.075165 21671 net.cpp:148] Top shape: 128 10 (1280)
I0418 20:10:14.075171 21671 net.cpp:148] Top shape: 128 10 (1280)
I0418 20:10:14.075176 21671 net.cpp:156] Memory required for data: 119095808
I0418 20:10:14.075181 21671 layer_factory.hpp:77] Creating layer accuracy
I0418 20:10:14.075193 21671 net.cpp:91] Creating Layer accuracy
I0418 20:10:14.075198 21671 net.cpp:425] accuracy <- ip_ip_0_split_0
I0418 20:10:14.075204 21671 net.cpp:425] accuracy <- label_cifar_1_split_0
I0418 20:10:14.075212 21671 net.cpp:399] accuracy -> accuracy
…
I0418 20:10:14.076964 21671 net.cpp:313] The NetState phase (1) differed from the phase (0) specified by a rule in layer cifar
I0418 20:10:14.077201 21671 net.cpp:49] Initializing net from parameters: 
name: "PlainNet-cifar"
state {
  phase: TEST
}
layer {
  name: "cifar"
  type: "Data"
  top: "data"
  top: "label"
  include {
    phase: TEST
  }
  transform_param {
    mean_file: "/home/liangjiang/code/residual_network/data/cifar10/mean.binaryproto"
  }
  data_param {
    source: "/home/liangjiang/code/residual_network/data/cifar10/cifar10_test_lmdb"
    batch_size: 32
    backend: LMDB
  }
}
layer {
  name: "conv1"
  type: "Convolution"
  bottom: "data"
  top: "conv1"
  param {
    lr_mult: 1
  }
  param {
    lr_mult: 2
  }
  convolution_param {
    num_output: 8
    pad: 1
    kernel_size: 3
    weight_filler {
      type: "msra"
    }
    bias_filler {
      type: "constant"
    }
  }
}
layer {
  name: "bn_conv1"
  type: "BatchNorm"
  bottom: "conv1"
  top: "conv1"
  param {
    lr_mult: 0
  }
  param {
    lr_mult: 0
  }
  param {
    lr_mult: 0
  }
}
layer {
  name: "scale_conv1"
  type: "Scale"
  bottom: "conv1"
  top: "conv1"
  scale_param {
    bias_term: true
  }
}
layer {
  name: "conv1_relu"
  type: "ReLU"
  bottom: "conv1"
  top: "conv1"
}
layer {
  name: "conv2_1a"
  type: "Convolution"
  bottom: "conv1"
  top: "conv2_1a"
  param {
    lr_mult: 1
  }
  param {
    lr_mult: 2
  }
  convolution_param {
    num_output: 8
    pad: 1
    kernel_size: 3
    stride: 1
    weight_filler {
      type: "msra"
    }
    bias_filler {
      type: "constant"
      value: 0
    }
  }
}
layer {
  name: "bn_conv2_1a"
  type: "BatchNorm"
  bottom: "conv2_1a"
  top: "conv2_1a"
  param {
    lr_mult: 0
  }
  param {
    lr_mult: 0
  }
  param {
    lr_mult: 0
  }
}
layer {
  name: "scale_conv2_1a"
  type: "Scale"
  bottom: "conv2_1a"
  top: "conv2_1a"
  scale_param {
    bias_term: true
  }
}
layer {
  name: "conv2_1a_relu"
  type: "ReLU"
  bottom: "conv2_1a"
  top: "conv2_1a"
}
layer {
  name: "conv2_1b"
  type: "Convolution"
  bottom: "conv2_1a"
  top: "conv2_1b"
  param {
    lr_mult: 1
  }
  param {
    lr_mult: 2
  }
  convolution_param {
    num_output: 8
    pad: 1
    kernel_size: 3
    stride: 1
    weight_filler {
      type: "msra"
    }
    bias_filler {
      type: "constant"
      value: 0
    }
  }
}
layer {
  name: "bn_conv2_1b"
  type: "BatchNorm"
  bottom: "conv2_1b"
  top: "conv2_1b"
  param {
    lr_mult: 0
  }
  param {
    lr_mult: 0
  }
  param {
    lr_mult: 0
  }
}
layer {
  name: "scale_conv2_1b"
  type: "Scale"
  bottom: "conv2_1b"
  top: "conv2_1b"
  scale_param {
    bias_term: true
  }
}
layer {
  name: "conv2_1b_relu"
  type: "ReLU"
  bottom: "conv2_1b"
  top: "conv2_1b"
}
layer {
  name: "conv3_1a"
  type: "Convolution"
  bottom: "conv2_1b"
  top: "conv3_1a"
  param {
    lr_mult: 1
  }
  param {
    lr_mult: 2
  }
  convolution_param {
    num_output: 32
    pad: 0
    kernel_size: 1
    stride: 2
    weight_filler {
      type: "msra"
    }
    bias_filler {
      type: "constant"
      value: 0
    }
  }
}
layer {
  name: "bn_conv3_1a"
  type: "BatchNorm"
  bottom: "conv3_1a"
  top: "conv3_1a"
  param {
    lr_mult: 0
  }
  param {
    lr_mult: 0
  }
  param {
    lr_mult: 0
  }
}
layer {
  name: "scale_conv3_1a"
  type: "Scale"
  bottom: "conv3_1a"
  top: "conv3_1a"
  scale_param {
    bias_term: true
  }
}
layer {
  name: "conv3_1a_relu"
  type: "ReLU"
  bottom: "conv3_1a"
  top: "conv3_1a"
}
layer {
  name: "conv3_1b"
  type: "Convolution"
  bottom: "conv3_1a"
  top: "conv3_1b"
  param {
    lr_mult: 1
  }
  param {
    lr_mult: 2
  }
  convolution_param {
    num_output: 32
    pad: 1
    kernel_size: 3
    stride: 1
    weight_filler {
      type: "msra"
    }
    bias_filler {
      type: "constant"
      value: 0
    }
  }
}
layer {
  name: "bn_conv3_1b"
  type: "BatchNorm"
  bottom: "conv3_1b"
  top: "conv3_1b"
  param {
    lr_mult: 0
  }
  param {
    lr_mult: 0
  }
  param {
    lr_mult: 0
  }
}
layer {
  name: "scale_conv3_1b"
  type: "Scale"
  bottom: "conv3_1b"
  top: "conv3_1b"
  scale_param {
    bias_term: true
  }
}
layer {
  name: "conv3_1b_relu"
  type: "ReLU"
  bottom: "conv3_1b"
  top: "conv3_1b"
}
layer {
  name: "conv4_1a"
  type: "Convolution"
  bottom: "conv3_1b"
  top: "conv4_1a"
  param {
    lr_mult: 1
  }
  param {
    lr_mult: 2
  }
  convolution_param {
    num_output: 128
    pad: 0
    kernel_size: 1
    stride: 2
    weight_filler {
      type: "msra"
    }
    bias_filler {
      type: "constant"
      value: 0
    }
  }
}
layer {
  name: "bn_conv4_1a"
  type: "BatchNorm"
  bottom: "conv4_1a"
  top: "conv4_1a"
  param {
    lr_mult: 0
  }
  param {
    lr_mult: 0
  }
  param {
    lr_mult: 0
  }
}
layer {
  name: "scale_conv4_1a"
  type: "Scale"
  bottom: "conv4_1a"
  top: "conv4_1a"
  scale_param {
    bias_term: true
  }
}
layer {
  name: "conv4_1a_relu"
  type: "ReLU"
  bottom: "conv4_1a"
  top: "conv4_1a"
}
layer {
  name: "conv4_1b"
  type: "Convolution"
  bottom: "conv4_1a"
  top: "conv4_1b"
  param {
    lr_mult: 1
  }
  param {
    lr_mult: 2
  }
  convolution_param {
    num_output: 128
    pad: 1
    kernel_size: 3
    stride: 1
    weight_filler {
      type: "msra"
    }
    bias_filler {
      type: "constant"
      value: 0
    }
  }
}
layer {
  name: "bn_conv4_1b"
  type: "BatchNorm"
  bottom: "conv4_1b"
  top: "conv4_1b"
  param {
    lr_mult: 0
  }
  param {
    lr_mult: 0
  }
  param {
    lr_mult: 0
  }
}
layer {
  name: "scale_conv4_1b"
  type: "Scale"
  bottom: "conv4_1b"
  top: "conv4_1b"
  scale_param {
    bias_term: true
  }
}
layer {
  name: "conv4_1b_relu"
  type: "ReLU"
  bottom: "conv4_1b"
  top: "conv4_1b"
}
layer {
  name: "global_pool"
  type: "Pooling"
  bottom: "conv4_1b"
  top: "global_pool"
  pooling_param {
    pool: AVE
    kernel_size: 8
    stride: 8
  }
}
layer {
  name: "ip"
  type: "InnerProduct"
  bottom: "global_pool"
  top: "ip"
  param {
    lr_mult: 1
  }
  param {
    lr_mult: 2
  }
  inner_product_param {
    num_output: 10
  }
}
layer {
  name: "accuracy"
  type: "Accuracy"
  bottom: "ip"
  bottom: "label"
  top: "accuracy"
}
layer {
  name: "loss"
  type: "SoftmaxWithLoss"
  bottom: "ip"
  bottom: "label"
  top: "loss"
}
I0418 20:10:14.077370 21671 layer_factory.hpp:77] Creating layer cifar
I0418 20:10:14.077838 21671 net.cpp:91] Creating Layer cifar
I0418 20:10:14.077852 21671 net.cpp:399] cifar -> data
I0418 20:10:14.077864 21671 net.cpp:399] cifar -> label
I0418 20:10:14.077874 21671 data_transformer.cpp:25] Loading mean file from: /home/liangjiang/code/residual_network/data/cifar10/mean.binaryproto
I0418 20:10:14.079007 21721 db_lmdb.cpp:38] Opened lmdb /home/liangjiang/code/residual_network/data/cifar10/cifar10_test_lmdb
I0418 20:10:14.079136 21671 data_layer.cpp:41] output data size: 32,3,32,32
I0418 20:10:14.080394 21671 net.cpp:141] Setting up cifar
I0418 20:10:14.080413 21671 net.cpp:148] Top shape: 32 3 32 32 (98304)
I0418 20:10:14.080421 21671 net.cpp:148] Top shape: 32 (32)
I0418 20:10:14.080426 21671 net.cpp:156] Memory required for data: 393344
I0418 20:10:14.080431 21671 layer_factory.hpp:77] Creating layer label_cifar_1_split
I0418 20:10:14.080446 21671 net.cpp:91] Creating Layer label_cifar_1_split
I0418 20:10:14.080452 21671 net.cpp:425] label_cifar_1_split <- label
I0418 20:10:14.080461 21671 net.cpp:399] label_cifar_1_split -> label_cifar_1_split_0
I0418 20:10:14.080471 21671 net.cpp:399] label_cifar_1_split -> label_cifar_1_split_1
I0418 20:10:14.080577 21671 net.cpp:141] Setting up label_cifar_1_split
I0418 20:10:14.080592 21671 net.cpp:148] Top shape: 32 (32)
I0418 20:10:14.080600 21671 net.cpp:148] Top shape: 32 (32)
I0418 20:10:14.080603 21671 net.cpp:156] Memory required for data: 393600
I0418 20:10:14.080608 21671 layer_factory.hpp:77] Creating layer conv1
I0418 20:10:14.080622 21671 net.cpp:91] Creating Layer conv1
I0418 20:10:14.080628 21671 net.cpp:425] conv1 <- data
I0418 20:10:14.080636 21671 net.cpp:399] conv1 -> conv1
I0418 20:10:14.081909 21671 net.cpp:141] Setting up conv1
I0418 20:10:14.081934 21671 net.cpp:148] Top shape: 32 8 32 32 (262144)
I0418 20:10:14.081940 21671 net.cpp:156] Memory required for data: 1442176
I0418 20:10:14.081954 21671 layer_factory.hpp:77] Creating layer bn_conv1
I0418 20:10:14.081965 21671 net.cpp:91] Creating Layer bn_conv1
I0418 20:10:14.081970 21671 net.cpp:425] bn_conv1 <- conv1
I0418 20:10:14.081980 21671 net.cpp:386] bn_conv1 -> conv1 (in-place)
I0418 20:10:14.082231 21671 net.cpp:141] Setting up bn_conv1
I0418 20:10:14.082243 21671 net.cpp:148] Top shape: 32 8 32 32 (262144)
I0418 20:10:14.082247 21671 net.cpp:156] Memory required for data: 2490752
I0418 20:10:14.082262 21671 layer_factory.hpp:77] Creating layer scale_conv1
I0418 20:10:14.082273 21671 net.cpp:91] Creating Layer scale_conv1
I0418 20:10:14.082278 21671 net.cpp:425] scale_conv1 <- conv1
I0418 20:10:14.082301 21671 net.cpp:386] scale_conv1 -> conv1 (in-place)
I0418 20:10:14.082350 21671 layer_factory.hpp:77] Creating layer scale_conv1
I0418 20:10:14.082484 21671 net.cpp:141] Setting up scale_conv1
I0418 20:10:14.082494 21671 net.cpp:148] Top shape: 32 8 32 32 (262144)
I0418 20:10:14.082500 21671 net.cpp:156] Memory required for data: 3539328
I0418 20:10:14.082516 21671 layer_factory.hpp:77] Creating layer conv1_relu
I0418 20:10:14.082526 21671 net.cpp:91] Creating Layer conv1_relu
I0418 20:10:14.082531 21671 net.cpp:425] conv1_relu <- conv1
I0418 20:10:14.082538 21671 net.cpp:386] conv1_relu -> conv1 (in-place)
I0418 20:10:14.082743 21671 net.cpp:141] Setting up conv1_relu
I0418 20:10:14.082756 21671 net.cpp:148] Top shape: 32 8 32 32 (262144)
I0418 20:10:14.082762 21671 net.cpp:156] Memory required for data: 4587904
I0418 20:10:14.082767 21671 layer_factory.hpp:77] Creating layer conv2_1a
I0418 20:10:14.082779 21671 net.cpp:91] Creating Layer conv2_1a
I0418 20:10:14.082785 21671 net.cpp:425] conv2_1a <- conv1
I0418 20:10:14.082795 21671 net.cpp:399] conv2_1a -> conv2_1a
I0418 20:10:14.084098 21671 net.cpp:141] Setting up conv2_1a
I0418 20:10:14.084117 21671 net.cpp:148] Top shape: 32 8 32 32 (262144)
I0418 20:10:14.084122 21671 net.cpp:156] Memory required for data: 5636480
I0418 20:10:14.084136 21671 layer_factory.hpp:77] Creating layer bn_conv2_1a
I0418 20:10:14.084147 21671 net.cpp:91] Creating Layer bn_conv2_1a
I0418 20:10:14.084153 21671 net.cpp:425] bn_conv2_1a <- conv2_1a
I0418 20:10:14.084162 21671 net.cpp:386] bn_conv2_1a -> conv2_1a (in-place)
I0418 20:10:14.084383 21671 net.cpp:141] Setting up bn_conv2_1a
I0418 20:10:14.084393 21671 net.cpp:148] Top shape: 32 8 32 32 (262144)
I0418 20:10:14.084398 21671 net.cpp:156] Memory required for data: 6685056
I0418 20:10:14.084408 21671 layer_factory.hpp:77] Creating layer scale_conv2_1a
I0418 20:10:14.084424 21671 net.cpp:91] Creating Layer scale_conv2_1a
I0418 20:10:14.084429 21671 net.cpp:425] scale_conv2_1a <- conv2_1a
I0418 20:10:14.084437 21671 net.cpp:386] scale_conv2_1a -> conv2_1a (in-place)
I0418 20:10:14.084496 21671 layer_factory.hpp:77] Creating layer scale_conv2_1a
I0418 20:10:14.084622 21671 net.cpp:141] Setting up scale_conv2_1a
I0418 20:10:14.084632 21671 net.cpp:148] Top shape: 32 8 32 32 (262144)
I0418 20:10:14.084637 21671 net.cpp:156] Memory required for data: 7733632
I0418 20:10:14.084664 21671 layer_factory.hpp:77] Creating layer conv2_1a_relu
I0418 20:10:14.084674 21671 net.cpp:91] Creating Layer conv2_1a_relu
I0418 20:10:14.084679 21671 net.cpp:425] conv2_1a_relu <- conv2_1a
I0418 20:10:14.084697 21671 net.cpp:386] conv2_1a_relu -> conv2_1a (in-place)
I0418 20:10:14.084903 21671 net.cpp:141] Setting up conv2_1a_relu
I0418 20:10:14.084915 21671 net.cpp:148] Top shape: 32 8 32 32 (262144)
I0418 20:10:14.084920 21671 net.cpp:156] Memory required for data: 8782208
I0418 20:10:14.084926 21671 layer_factory.hpp:77] Creating layer conv2_1b
I0418 20:10:14.084940 21671 net.cpp:91] Creating Layer conv2_1b
I0418 20:10:14.084946 21671 net.cpp:425] conv2_1b <- conv2_1a
I0418 20:10:14.084956 21671 net.cpp:399] conv2_1b -> conv2_1b
I0418 20:10:14.086246 21671 net.cpp:141] Setting up conv2_1b
I0418 20:10:14.086269 21671 net.cpp:148] Top shape: 32 8 32 32 (262144)
I0418 20:10:14.086275 21671 net.cpp:156] Memory required for data: 9830784
I0418 20:10:14.086284 21671 layer_factory.hpp:77] Creating layer bn_conv2_1b
I0418 20:10:14.086297 21671 net.cpp:91] Creating Layer bn_conv2_1b
I0418 20:10:14.086302 21671 net.cpp:425] bn_conv2_1b <- conv2_1b
I0418 20:10:14.086311 21671 net.cpp:386] bn_conv2_1b -> conv2_1b (in-place)
I0418 20:10:14.086536 21671 net.cpp:141] Setting up bn_conv2_1b
I0418 20:10:14.086547 21671 net.cpp:148] Top shape: 32 8 32 32 (262144)
I0418 20:10:14.086552 21671 net.cpp:156] Memory required for data: 10879360
I0418 20:10:14.086568 21671 layer_factory.hpp:77] Creating layer scale_conv2_1b
I0418 20:10:14.086577 21671 net.cpp:91] Creating Layer scale_conv2_1b
I0418 20:10:14.086582 21671 net.cpp:425] scale_conv2_1b <- conv2_1b
I0418 20:10:14.086588 21671 net.cpp:386] scale_conv2_1b -> conv2_1b (in-place)
I0418 20:10:14.086637 21671 layer_factory.hpp:77] Creating layer scale_conv2_1b
I0418 20:10:14.086774 21671 net.cpp:141] Setting up scale_conv2_1b
I0418 20:10:14.086784 21671 net.cpp:148] Top shape: 32 8 32 32 (262144)
I0418 20:10:14.086789 21671 net.cpp:156] Memory required for data: 11927936
I0418 20:10:14.086797 21671 layer_factory.hpp:77] Creating layer conv2_1b_relu
I0418 20:10:14.086807 21671 net.cpp:91] Creating Layer conv2_1b_relu
I0418 20:10:14.086812 21671 net.cpp:425] conv2_1b_relu <- conv2_1b
I0418 20:10:14.086818 21671 net.cpp:386] conv2_1b_relu -> conv2_1b (in-place)
I0418 20:10:14.087152 21671 net.cpp:141] Setting up conv2_1b_relu
I0418 20:10:14.087169 21671 net.cpp:148] Top shape: 32 8 32 32 (262144)
I0418 20:10:14.087175 21671 net.cpp:156] Memory required for data: 12976512
I0418 20:10:14.087180 21671 layer_factory.hpp:77] Creating layer conv3_1a
I0418 20:10:14.087194 21671 net.cpp:91] Creating Layer conv3_1a
I0418 20:10:14.087200 21671 net.cpp:425] conv3_1a <- conv2_1b
I0418 20:10:14.087209 21671 net.cpp:399] conv3_1a -> conv3_1a
I0418 20:10:14.088330 21671 net.cpp:141] Setting up conv3_1a
I0418 20:10:14.088348 21671 net.cpp:148] Top shape: 32 32 16 16 (262144)
I0418 20:10:14.088353 21671 net.cpp:156] Memory required for data: 14025088
I0418 20:10:14.088362 21671 layer_factory.hpp:77] Creating layer bn_conv3_1a
I0418 20:10:14.088372 21671 net.cpp:91] Creating Layer bn_conv3_1a
I0418 20:10:14.088378 21671 net.cpp:425] bn_conv3_1a <- conv3_1a
I0418 20:10:14.088387 21671 net.cpp:386] bn_conv3_1a -> conv3_1a (in-place)
I0418 20:10:14.088601 21671 net.cpp:141] Setting up bn_conv3_1a
I0418 20:10:14.088610 21671 net.cpp:148] Top shape: 32 32 16 16 (262144)
I0418 20:10:14.088615 21671 net.cpp:156] Memory required for data: 15073664
I0418 20:10:14.088624 21671 layer_factory.hpp:77] Creating layer scale_conv3_1a
I0418 20:10:14.088634 21671 net.cpp:91] Creating Layer scale_conv3_1a
I0418 20:10:14.088639 21671 net.cpp:425] scale_conv3_1a <- conv3_1a
I0418 20:10:14.088645 21671 net.cpp:386] scale_conv3_1a -> conv3_1a (in-place)
I0418 20:10:14.088696 21671 layer_factory.hpp:77] Creating layer scale_conv3_1a
I0418 20:10:14.088821 21671 net.cpp:141] Setting up scale_conv3_1a
I0418 20:10:14.088831 21671 net.cpp:148] Top shape: 32 32 16 16 (262144)
I0418 20:10:14.088840 21671 net.cpp:156] Memory required for data: 16122240
I0418 20:10:14.088850 21671 layer_factory.hpp:77] Creating layer conv3_1a_relu
I0418 20:10:14.088858 21671 net.cpp:91] Creating Layer conv3_1a_relu
I0418 20:10:14.088863 21671 net.cpp:425] conv3_1a_relu <- conv3_1a
I0418 20:10:14.088870 21671 net.cpp:386] conv3_1a_relu -> conv3_1a (in-place)
I0418 20:10:14.089069 21671 net.cpp:141] Setting up conv3_1a_relu
I0418 20:10:14.089082 21671 net.cpp:148] Top shape: 32 32 16 16 (262144)
I0418 20:10:14.089087 21671 net.cpp:156] Memory required for data: 17170816
I0418 20:10:14.089092 21671 layer_factory.hpp:77] Creating layer conv3_1b
I0418 20:10:14.089105 21671 net.cpp:91] Creating Layer conv3_1b
I0418 20:10:14.089120 21671 net.cpp:425] conv3_1b <- conv3_1a
I0418 20:10:14.089130 21671 net.cpp:399] conv3_1b -> conv3_1b
I0418 20:10:14.090569 21671 net.cpp:141] Setting up conv3_1b
I0418 20:10:14.090587 21671 net.cpp:148] Top shape: 32 32 16 16 (262144)
I0418 20:10:14.090593 21671 net.cpp:156] Memory required for data: 18219392
I0418 20:10:14.090602 21671 layer_factory.hpp:77] Creating layer bn_conv3_1b
I0418 20:10:14.090611 21671 net.cpp:91] Creating Layer bn_conv3_1b
I0418 20:10:14.090616 21671 net.cpp:425] bn_conv3_1b <- conv3_1b
I0418 20:10:14.090627 21671 net.cpp:386] bn_conv3_1b -> conv3_1b (in-place)
I0418 20:10:14.090839 21671 net.cpp:141] Setting up bn_conv3_1b
I0418 20:10:14.090849 21671 net.cpp:148] Top shape: 32 32 16 16 (262144)
I0418 20:10:14.090854 21671 net.cpp:156] Memory required for data: 19267968
I0418 20:10:14.090867 21671 layer_factory.hpp:77] Creating layer scale_conv3_1b
I0418 20:10:14.090878 21671 net.cpp:91] Creating Layer scale_conv3_1b
I0418 20:10:14.090883 21671 net.cpp:425] scale_conv3_1b <- conv3_1b
I0418 20:10:14.090889 21671 net.cpp:386] scale_conv3_1b -> conv3_1b (in-place)
I0418 20:10:14.090941 21671 layer_factory.hpp:77] Creating layer scale_conv3_1b
I0418 20:10:14.091075 21671 net.cpp:141] Setting up scale_conv3_1b
I0418 20:10:14.091085 21671 net.cpp:148] Top shape: 32 32 16 16 (262144)
I0418 20:10:14.091090 21671 net.cpp:156] Memory required for data: 20316544
I0418 20:10:14.091099 21671 layer_factory.hpp:77] Creating layer conv3_1b_relu
I0418 20:10:14.091105 21671 net.cpp:91] Creating Layer conv3_1b_relu
I0418 20:10:14.091110 21671 net.cpp:425] conv3_1b_relu <- conv3_1b
I0418 20:10:14.091119 21671 net.cpp:386] conv3_1b_relu -> conv3_1b (in-place)
I0418 20:10:14.091317 21671 net.cpp:141] Setting up conv3_1b_relu
I0418 20:10:14.091332 21671 net.cpp:148] Top shape: 32 32 16 16 (262144)
I0418 20:10:14.091337 21671 net.cpp:156] Memory required for data: 21365120
I0418 20:10:14.091342 21671 layer_factory.hpp:77] Creating layer conv4_1a
I0418 20:10:14.091356 21671 net.cpp:91] Creating Layer conv4_1a
I0418 20:10:14.091361 21671 net.cpp:425] conv4_1a <- conv3_1b
I0418 20:10:14.091370 21671 net.cpp:399] conv4_1a -> conv4_1a
I0418 20:10:14.092620 21671 net.cpp:141] Setting up conv4_1a
I0418 20:10:14.092638 21671 net.cpp:148] Top shape: 32 128 8 8 (262144)
I0418 20:10:14.092643 21671 net.cpp:156] Memory required for data: 22413696
I0418 20:10:14.092653 21671 layer_factory.hpp:77] Creating layer bn_conv4_1a
I0418 20:10:14.092664 21671 net.cpp:91] Creating Layer bn_conv4_1a
I0418 20:10:14.092669 21671 net.cpp:425] bn_conv4_1a <- conv4_1a
I0418 20:10:14.092676 21671 net.cpp:386] bn_conv4_1a -> conv4_1a (in-place)
I0418 20:10:14.092890 21671 net.cpp:141] Setting up bn_conv4_1a
I0418 20:10:14.092900 21671 net.cpp:148] Top shape: 32 128 8 8 (262144)
I0418 20:10:14.092905 21671 net.cpp:156] Memory required for data: 23462272
I0418 20:10:14.092914 21671 layer_factory.hpp:77] Creating layer scale_conv4_1a
I0418 20:10:14.092922 21671 net.cpp:91] Creating Layer scale_conv4_1a
I0418 20:10:14.092927 21671 net.cpp:425] scale_conv4_1a <- conv4_1a
I0418 20:10:14.092934 21671 net.cpp:386] scale_conv4_1a -> conv4_1a (in-place)
I0418 20:10:14.092981 21671 layer_factory.hpp:77] Creating layer scale_conv4_1a
I0418 20:10:14.093102 21671 net.cpp:141] Setting up scale_conv4_1a
I0418 20:10:14.093118 21671 net.cpp:148] Top shape: 32 128 8 8 (262144)
I0418 20:10:14.093129 21671 net.cpp:156] Memory required for data: 24510848
I0418 20:10:14.093138 21671 layer_factory.hpp:77] Creating layer conv4_1a_relu
I0418 20:10:14.093148 21671 net.cpp:91] Creating Layer conv4_1a_relu
I0418 20:10:14.093153 21671 net.cpp:425] conv4_1a_relu <- conv4_1a
I0418 20:10:14.093159 21671 net.cpp:386] conv4_1a_relu -> conv4_1a (in-place)
I0418 20:10:14.093587 21671 net.cpp:141] Setting up conv4_1a_relu
I0418 20:10:14.093602 21671 net.cpp:148] Top shape: 32 128 8 8 (262144)
I0418 20:10:14.093608 21671 net.cpp:156] Memory required for data: 25559424
I0418 20:10:14.093613 21671 layer_factory.hpp:77] Creating layer conv4_1b
I0418 20:10:14.093628 21671 net.cpp:91] Creating Layer conv4_1b
I0418 20:10:14.093634 21671 net.cpp:425] conv4_1b <- conv4_1a
I0418 20:10:14.093643 21671 net.cpp:399] conv4_1b -> conv4_1b
I0418 20:10:14.100491 21671 net.cpp:141] Setting up conv4_1b
I0418 20:10:14.100512 21671 net.cpp:148] Top shape: 32 128 8 8 (262144)
I0418 20:10:14.100518 21671 net.cpp:156] Memory required for data: 26608000
I0418 20:10:14.100528 21671 layer_factory.hpp:77] Creating layer bn_conv4_1b
I0418 20:10:14.100536 21671 net.cpp:91] Creating Layer bn_conv4_1b
I0418 20:10:14.100543 21671 net.cpp:425] bn_conv4_1b <- conv4_1b
I0418 20:10:14.100553 21671 net.cpp:386] bn_conv4_1b -> conv4_1b (in-place)
I0418 20:10:14.100770 21671 net.cpp:141] Setting up bn_conv4_1b
I0418 20:10:14.100780 21671 net.cpp:148] Top shape: 32 128 8 8 (262144)
I0418 20:10:14.100785 21671 net.cpp:156] Memory required for data: 27656576
I0418 20:10:14.100795 21671 layer_factory.hpp:77] Creating layer scale_conv4_1b
I0418 20:10:14.100803 21671 net.cpp:91] Creating Layer scale_conv4_1b
I0418 20:10:14.100808 21671 net.cpp:425] scale_conv4_1b <- conv4_1b
I0418 20:10:14.100816 21671 net.cpp:386] scale_conv4_1b -> conv4_1b (in-place)
I0418 20:10:14.100863 21671 layer_factory.hpp:77] Creating layer scale_conv4_1b
I0418 20:10:14.100987 21671 net.cpp:141] Setting up scale_conv4_1b
I0418 20:10:14.100997 21671 net.cpp:148] Top shape: 32 128 8 8 (262144)
I0418 20:10:14.101002 21671 net.cpp:156] Memory required for data: 28705152
I0418 20:10:14.101011 21671 layer_factory.hpp:77] Creating layer conv4_1b_relu
I0418 20:10:14.101017 21671 net.cpp:91] Creating Layer conv4_1b_relu
I0418 20:10:14.101022 21671 net.cpp:425] conv4_1b_relu <- conv4_1b
I0418 20:10:14.101030 21671 net.cpp:386] conv4_1b_relu -> conv4_1b (in-place)
I0418 20:10:14.101258 21671 net.cpp:141] Setting up conv4_1b_relu
I0418 20:10:14.101274 21671 net.cpp:148] Top shape: 32 128 8 8 (262144)
I0418 20:10:14.101280 21671 net.cpp:156] Memory required for data: 29753728
I0418 20:10:14.101285 21671 layer_factory.hpp:77] Creating layer global_pool
I0418 20:10:14.101294 21671 net.cpp:91] Creating Layer global_pool
I0418 20:10:14.101300 21671 net.cpp:425] global_pool <- conv4_1b
I0418 20:10:14.101307 21671 net.cpp:399] global_pool -> global_pool
I0418 20:10:14.101660 21671 net.cpp:141] Setting up global_pool
I0418 20:10:14.101676 21671 net.cpp:148] Top shape: 32 128 1 1 (4096)
I0418 20:10:14.101681 21671 net.cpp:156] Memory required for data: 29770112
I0418 20:10:14.101686 21671 layer_factory.hpp:77] Creating layer ip
I0418 20:10:14.101697 21671 net.cpp:91] Creating Layer ip
I0418 20:10:14.101702 21671 net.cpp:425] ip <- global_pool
I0418 20:10:14.101712 21671 net.cpp:399] ip -> ip
I0418 20:10:14.101846 21671 net.cpp:141] Setting up ip
I0418 20:10:14.101856 21671 net.cpp:148] Top shape: 32 10 (320)
I0418 20:10:14.101861 21671 net.cpp:156] Memory required for data: 29771392
I0418 20:10:14.101869 21671 layer_factory.hpp:77] Creating layer ip_ip_0_split
I0418 20:10:14.101882 21671 net.cpp:91] Creating Layer ip_ip_0_split
I0418 20:10:14.101888 21671 net.cpp:425] ip_ip_0_split <- ip
I0418 20:10:14.101897 21671 net.cpp:399] ip_ip_0_split -> ip_ip_0_split_0
I0418 20:10:14.101905 21671 net.cpp:399] ip_ip_0_split -> ip_ip_0_split_1
I0418 20:10:14.101949 21671 net.cpp:141] Setting up ip_ip_0_split
I0418 20:10:14.101959 21671 net.cpp:148] Top shape: 32 10 (320)
I0418 20:10:14.101970 21671 net.cpp:148] Top shape: 32 10 (320)
I0418 20:10:14.101975 21671 net.cpp:156] Memory required for data: 29773952
I0418 20:10:14.101980 21671 layer_factory.hpp:77] Creating layer accuracy
I0418 20:10:14.101987 21671 net.cpp:91] Creating Layer accuracy
I0418 20:10:14.101992 21671 net.cpp:425] accuracy <- ip_ip_0_split_0
I0418 20:10:14.101999 21671 net.cpp:425] accuracy <- label_cifar_1_split_0
I0418 20:10:14.102005 21671 net.cpp:399] accuracy -> accuracy
…
