…
I0420 21:00:18.815160  7922 solver.cpp:91] Creating training net from net file: /home/liangjiang/code/residual_network/prototxt/PlainNet-cifar.prototxt
I0420 21:00:18.817206  7922 net.cpp:313] The NetState phase (0) differed from the phase (1) specified by a rule in layer cifar
I0420 21:00:18.817735  7922 net.cpp:49] Initializing net from parameters: 
name: "ResNet-cifar"
state {
  phase: TRAIN
}
layer {
  name: "cifar"
  type: "Data"
  top: "data"
  top: "label"
  include {
    phase: TRAIN
  }
  transform_param {
    mirror: true
    mean_file: "data/cifar10/mean.binaryproto"
  }
  data_param {
    source: "data/cifar10/cifar10_train_lmdb"
    batch_size: 256
    backend: LMDB
  }
}
layer {
  name: "conv1"
  type: "Convolution"
  bottom: "data"
  top: "conv1"
  param {
    lr_mult: 1
  }
  param {
    lr_mult: 2
  }
  convolution_param {
    num_output: 16
    pad: 1
    kernel_size: 3
    weight_filler {
      type: "res"
      std: 0.001
    }
    bias_filler {
      type: "constant"
    }
  }
}
layer {
  name: "bn_conv1"
  type: "BatchNorm"
  bottom: "conv1"
  top: "conv1"
  param {
    lr_mult: 0
  }
  param {
    lr_mult: 0
  }
  param {
    lr_mult: 0
  }
}
layer {
  name: "scale_conv1"
  type: "Scale"
  bottom: "conv1"
  top: "conv1"
  scale_param {
    bias_term: true
  }
}
layer {
  name: "conv1_relu"
  type: "ReLU"
  bottom: "conv1"
  top: "conv1"
}
layer {
  name: "conv2_1a"
  type: "Convolution"
  bottom: "conv1"
  top: "conv2_1a"
  param {
    lr_mult: 1
  }
  param {
    lr_mult: 2
  }
  convolution_param {
    num_output: 16
    pad: 1
    kernel_size: 3
    stride: 1
    weight_filler {
      type: "res"
      std: 0.001
    }
    bias_filler {
      type: "constant"
      value: 0
    }
  }
}
layer {
  name: "bn_conv2_1a"
  type: "BatchNorm"
  bottom: "conv2_1a"
  top: "conv2_1a"
  param {
    lr_mult: 0
  }
  param {
    lr_mult: 0
  }
  param {
    lr_mult: 0
  }
}
layer {
  name: "scale_conv2_1a"
  type: "Scale"
  bottom: "conv2_1a"
  top: "conv2_1a"
  scale_param {
    bias_term: true
  }
}
layer {
  name: "conv2_1a_relu"
  type: "ReLU"
  bottom: "conv2_1a"
  top: "conv2_1a"
}
layer {
  name: "conv2_1b"
  type: "Convolution"
  bottom: "conv2_1a"
  top: "conv2_1b"
  param {
    lr_mult: 1
  }
  param {
    lr_mult: 2
  }
  convolution_param {
    num_output: 16
    pad: 1
    kernel_size: 3
    stride: 1
    weight_filler {
      type: "res"
      std: 0.001
    }
    bias_filler {
      type: "constant"
      value: 0
    }
  }
}
layer {
  name: "bn_conv2_1b"
  type: "BatchNorm"
  bottom: "conv2_1b"
  top: "conv2_1b"
  param {
    lr_mult: 0
  }
  param {
    lr_mult: 0
  }
  param {
    lr_mult: 0
  }
}
layer {
  name: "scale_conv2_1b"
  type: "Scale"
  bottom: "conv2_1b"
  top: "conv2_1b"
  scale_param {
    bias_term: true
  }
}
layer {
  name: "conv2_1_relu"
  type: "ReLU"
  bottom: "conv2_1b"
  top: "conv2_1b"
}
layer {
  name: "conv2_2a"
  type: "Convolution"
  bottom: "conv2_1b"
  top: "conv2_2a"
  param {
    lr_mult: 1
  }
  param {
    lr_mult: 2
  }
  convolution_param {
    num_output: 16
    pad: 1
    kernel_size: 3
    stride: 1
    weight_filler {
      type: "res"
      std: 0.001
    }
    bias_filler {
      type: "constant"
      value: 0
    }
  }
}
layer {
  name: "bn_conv2_2a"
  type: "BatchNorm"
  bottom: "conv2_2a"
  top: "conv2_2a"
  param {
    lr_mult: 0
  }
  param {
    lr_mult: 0
  }
  param {
    lr_mult: 0
  }
}
layer {
  name: "scale_conv2_2a"
  type: "Scale"
  bottom: "conv2_2a"
  top: "conv2_2a"
  scale_param {
    bias_term: true
  }
}
layer {
  name: "conv2_2a_relu"
  type: "ReLU"
  bottom: "conv2_2a"
  top: "conv2_2a"
}
layer {
  name: "conv2_2b"
  type: "Convolution"
  bottom: "conv2_2a"
  top: "conv2_2b"
  param {
    lr_mult: 1
  }
  param {
    lr_mult: 2
  }
  convolution_param {
    num_output: 16
    pad: 1
    kernel_size: 3
    stride: 1
    weight_filler {
      type: "res"
      std: 0.001
    }
    bias_filler {
      type: "constant"
      value: 0
    }
  }
}
layer {
  name: "bn_conv2_2b"
  type: "BatchNorm"
  bottom: "conv2_2b"
  top: "conv2_2b"
  param {
    lr_mult: 0
  }
  param {
    lr_mult: 0
  }
  param {
    lr_mult: 0
  }
}
layer {
  name: "scale_conv2_2b"
  type: "Scale"
  bottom: "conv2_2b"
  top: "conv2_2b"
  scale_param {
    bias_term: true
  }
}
layer {
  name: "conv2_2_relu"
  type: "ReLU"
  bottom: "conv2_2b"
  top: "conv2_2b"
}
layer {
  name: "conv2_3a"
  type: "Convolution"
  bottom: "conv2_2b"
  top: "conv2_3a"
  param {
    lr_mult: 1
  }
  param {
    lr_mult: 2
  }
  convolution_param {
    num_output: 16
    pad: 1
    kernel_size: 3
    stride: 1
    weight_filler {
      type: "res"
      std: 0.001
    }
    bias_filler {
      type: "constant"
      value: 0
    }
  }
}
layer {
  name: "bn_conv2_3a"
  type: "BatchNorm"
  bottom: "conv2_3a"
  top: "conv2_3a"
  param {
    lr_mult: 0
  }
  param {
    lr_mult: 0
  }
  param {
    lr_mult: 0
  }
}
layer {
  name: "scale_conv2_3a"
  type: "Scale"
  bottom: "conv2_3a"
  top: "conv2_3a"
  scale_param {
    bias_term: true
  }
}
layer {
  name: "conv2_3a_relu"
  type: "ReLU"
  bottom: "conv2_3a"
  top: "conv2_3a"
}
layer {
  name: "conv2_3b"
  type: "Convolution"
  bottom: "conv2_3a"
  top: "conv2_3b"
  param {
    lr_mult: 1
  }
  param {
    lr_mult: 2
  }
  convolution_param {
    num_output: 16
    pad: 1
    kernel_size: 3
    stride: 1
    weight_filler {
      type: "res"
      std: 0.001
    }
    bias_filler {
      type: "constant"
      value: 0
    }
  }
}
layer {
  name: "bn_conv2_3b"
  type: "BatchNorm"
  bottom: "conv2_3b"
  top: "conv2_3b"
  param {
    lr_mult: 0
  }
  param {
    lr_mult: 0
  }
  param {
    lr_mult: 0
  }
}
layer {
  name: "scale_conv2_3b"
  type: "Scale"
  bottom: "conv2_3b"
  top: "conv2_3b"
  scale_param {
    bias_term: true
  }
}
layer {
  name: "conv2_3_relu"
  type: "ReLU"
  bottom: "conv2_3b"
  top: "conv2_3b"
}
layer {
  name: "conv3_1a"
  type: "Convolution"
  bottom: "conv2_3b"
  top: "conv3_1a"
  param {
    lr_mult: 1
  }
  param {
    lr_mult: 2
  }
  convolution_param {
    num_output: 32
    pad: 0
    kernel_size: 1
    stride: 2
    weight_filler {
      type: "res"
      std: 0.001
    }
    bias_filler {
      type: "constant"
      value: 0
    }
  }
}
layer {
  name: "bn_conv3_1a"
  type: "BatchNorm"
  bottom: "conv3_1a"
  top: "conv3_1a"
  param {
    lr_mult: 0
  }
  param {
    lr_mult: 0
  }
  param {
    lr_mult: 0
  }
}
layer {
  name: "scale_conv3_1a"
  type: "Scale"
  bottom: "conv3_1a"
  top: "conv3_1a"
  scale_param {
    bias_term: true
  }
}
layer {
  name: "conv3_1a_relu"
  type: "ReLU"
  bottom: "conv3_1a"
  top: "conv3_1a"
}
layer {
  name: "conv3_1b"
  type: "Convolution"
  bottom: "conv3_1a"
  top: "conv3_1b"
  param {
    lr_mult: 1
  }
  param {
    lr_mult: 2
  }
  convolution_param {
    num_output: 32
    pad: 1
    kernel_size: 3
    stride: 1
    weight_filler {
      type: "res"
      std: 0.001
    }
    bias_filler {
      type: "constant"
      value: 0
    }
  }
}
layer {
  name: "bn_conv3_1b"
  type: "BatchNorm"
  bottom: "conv3_1b"
  top: "conv3_1b"
  param {
    lr_mult: 0
  }
  param {
    lr_mult: 0
  }
  param {
    lr_mult: 0
  }
}
layer {
  name: "scale_conv3_1b"
  type: "Scale"
  bottom: "conv3_1b"
  top: "conv3_1b"
  scale_param {
    bias_term: true
  }
}
layer {
  name: "conv3_1_relu"
  type: "ReLU"
  bottom: "conv3_1b"
  top: "conv3_1b"
}
layer {
  name: "conv3_2a"
  type: "Convolution"
  bottom: "conv3_1b"
  top: "conv3_2a"
  param {
    lr_mult: 1
  }
  param {
    lr_mult: 2
  }
  convolution_param {
    num_output: 32
    pad: 1
    kernel_size: 3
    stride: 1
    weight_filler {
      type: "res"
      std: 0.001
    }
    bias_filler {
      type: "constant"
      value: 0
    }
  }
}
layer {
  name: "bn_conv3_2a"
  type: "BatchNorm"
  bottom: "conv3_2a"
  top: "conv3_2a"
  param {
    lr_mult: 0
  }
  param {
    lr_mult: 0
  }
  param {
    lr_mult: 0
  }
}
layer {
  name: "scale_conv3_2a"
  type: "Scale"
  bottom: "conv3_2a"
  top: "conv3_2a"
  scale_param {
    bias_term: true
  }
}
layer {
  name: "conv3_2a_relu"
  type: "ReLU"
  bottom: "conv3_2a"
  top: "conv3_2a"
}
layer {
  name: "conv3_2b"
  type: "Convolution"
  bottom: "conv3_2a"
  top: "conv3_2b"
  param {
    lr_mult: 1
  }
  param {
    lr_mult: 2
  }
  convolution_param {
    num_output: 32
    pad: 1
    kernel_size: 3
    stride: 1
    weight_filler {
      type: "res"
      std: 0.001
    }
    bias_filler {
      type: "constant"
      value: 0
    }
  }
}
layer {
  name: "bn_conv3_2b"
  type: "BatchNorm"
  bottom: "conv3_2b"
  top: "conv3_2b"
  param {
    lr_mult: 0
  }
  param {
    lr_mult: 0
  }
  param {
    lr_mult: 0
  }
}
layer {
  name: "scale_conv3_2b"
  type: "Scale"
  bottom: "conv3_2b"
  top: "conv3_2b"
  scale_param {
    bias_term: true
  }
}
layer {
  name: "conv3_2_relu"
  type: "ReLU"
  bottom: "conv3_2b"
  top: "conv3_2b"
}
layer {
  name: "conv3_3a"
  type: "Convolution"
  bottom: "conv3_2b"
  top: "conv3_3a"
  param {
    lr_mult: 1
  }
  param {
    lr_mult: 2
  }
  convolution_param {
    num_output: 32
    pad: 1
    kernel_size: 3
    stride: 1
    weight_filler {
      type: "res"
      std: 0.001
    }
    bias_filler {
      type: "constant"
      value: 0
    }
  }
}
layer {
  name: "bn_conv3_3a"
  type: "BatchNorm"
  bottom: "conv3_3a"
  top: "conv3_3a"
  param {
    lr_mult: 0
  }
  param {
    lr_mult: 0
  }
  param {
    lr_mult: 0
  }
}
layer {
  name: "scale_conv3_3a"
  type: "Scale"
  bottom: "conv3_3a"
  top: "conv3_3a"
  scale_param {
    bias_term: true
  }
}
layer {
  name: "conv3_3a_relu"
  type: "ReLU"
  bottom: "conv3_3a"
  top: "conv3_3a"
}
layer {
  name: "conv3_3b"
  type: "Convolution"
  bottom: "conv3_3a"
  top: "conv3_3b"
  param {
    lr_mult: 1
  }
  param {
    lr_mult: 2
  }
  convolution_param {
    num_output: 32
    pad: 1
    kernel_size: 3
    stride: 1
    weight_filler {
      type: "res"
      std: 0.001
    }
    bias_filler {
      type: "constant"
      value: 0
    }
  }
}
layer {
  name: "bn_conv3_3b"
  type: "BatchNorm"
  bottom: "conv3_3b"
  top: "conv3_3b"
  param {
    lr_mult: 0
  }
  param {
    lr_mult: 0
  }
  param {
    lr_mult: 0
  }
}
layer {
  name: "scale_conv3_3b"
  type: "Scale"
  bottom: "conv3_3b"
  top: "conv3_3b"
  scale_param {
    bias_term: true
  }
}
layer {
  name: "conv3_3_relu"
  type: "ReLU"
  bottom: "conv3_3b"
  top: "conv3_3b"
}
layer {
  name: "conv4_1a"
  type: "Convolution"
  bottom: "conv3_3b"
  top: "conv4_1a"
  param {
    lr_mult: 1
  }
  param {
    lr_mult: 2
  }
  convolution_param {
    num_output: 64
    pad: 0
    kernel_size: 1
    stride: 2
    weight_filler {
      type: "res"
      std: 0.001
    }
    bias_filler {
      type: "constant"
      value: 0
    }
  }
}
layer {
  name: "bn_conv4_1a"
  type: "BatchNorm"
  bottom: "conv4_1a"
  top: "conv4_1a"
  param {
    lr_mult: 0
  }
  param {
    lr_mult: 0
  }
  param {
    lr_mult: 0
  }
}
layer {
  name: "scale_conv4_1a"
  type: "Scale"
  bottom: "conv4_1a"
  top: "conv4_1a"
  scale_param {
    bias_term: true
  }
}
layer {
  name: "conv4_1a_relu"
  type: "ReLU"
  bottom: "conv4_1a"
  top: "conv4_1a"
}
layer {
  name: "conv4_1b"
  type: "Convolution"
  bottom: "conv4_1a"
  top: "conv4_1b"
  param {
    lr_mult: 1
  }
  param {
    lr_mult: 2
  }
  convolution_param {
    num_output: 64
    pad: 1
    kernel_size: 3
    stride: 1
    weight_filler {
      type: "res"
      std: 0.001
    }
    bias_filler {
      type: "constant"
      value: 0
    }
  }
}
layer {
  name: "bn_conv4_1b"
  type: "BatchNorm"
  bottom: "conv4_1b"
  top: "conv4_1b"
  param {
    lr_mult: 0
  }
  param {
    lr_mult: 0
  }
  param {
    lr_mult: 0
  }
}
layer {
  name: "scale_conv4_1b"
  type: "Scale"
  bottom: "conv4_1b"
  top: "conv4_1b"
  scale_param {
    bias_term: true
  }
}
layer {
  name: "conv4_1_relu"
  type: "ReLU"
  bottom: "conv4_1b"
  top: "conv4_1b"
}
layer {
  name: "conv4_2a"
  type: "Convolution"
  bottom: "conv4_1b"
  top: "conv4_2a"
  param {
    lr_mult: 1
  }
  param {
    lr_mult: 2
  }
  convolution_param {
    num_output: 64
    pad: 1
    kernel_size: 3
    stride: 1
    weight_filler {
      type: "res"
      std: 0.001
    }
    bias_filler {
      type: "constant"
      value: 0
    }
  }
}
layer {
  name: "bn_conv4_2a"
  type: "BatchNorm"
  bottom: "conv4_2a"
  top: "conv4_2a"
  param {
    lr_mult: 0
  }
  param {
    lr_mult: 0
  }
  param {
    lr_mult: 0
  }
}
layer {
  name: "scale_conv4_2a"
  type: "Scale"
  bottom: "conv4_2a"
  top: "conv4_2a"
  scale_param {
    bias_term: true
  }
}
layer {
  name: "conv4_2a_relu"
  type: "ReLU"
  bottom: "conv4_2a"
  top: "conv4_2a"
}
layer {
  name: "conv4_2b"
  type: "Convolution"
  bottom: "conv4_2a"
  top: "conv4_2b"
  param {
    lr_mult: 1
  }
  param {
    lr_mult: 2
  }
  convolution_param {
    num_output: 64
    pad: 1
    kernel_size: 3
    stride: 1
    weight_filler {
      type: "res"
      std: 0.001
    }
    bias_filler {
      type: "constant"
      value: 0
    }
  }
}
layer {
  name: "bn_conv4_2b"
  type: "BatchNorm"
  bottom: "conv4_2b"
  top: "conv4_2b"
  param {
    lr_mult: 0
  }
  param {
    lr_mult: 0
  }
  param {
    lr_mult: 0
  }
}
layer {
  name: "scale_conv4_2b"
  type: "Scale"
  bottom: "conv4_2b"
  top: "conv4_2b"
  scale_param {
    bias_term: true
  }
}
layer {
  name: "conv4_2_relu"
  type: "ReLU"
  bottom: "conv4_2b"
  top: "conv4_2b"
}
layer {
  name: "conv4_3a"
  type: "Convolution"
  bottom: "conv4_2b"
  top: "conv4_3a"
  param {
    lr_mult: 1
  }
  param {
    lr_mult: 2
  }
  convolution_param {
    num_output: 64
    pad: 1
    kernel_size: 3
    stride: 1
    weight_filler {
      type: "res"
      std: 0.001
    }
    bias_filler {
      type: "constant"
      value: 0
    }
  }
}
layer {
  name: "bn_conv4_3a"
  type: "BatchNorm"
  bottom: "conv4_3a"
  top: "conv4_3a"
  param {
    lr_mult: 0
  }
  param {
    lr_mult: 0
  }
  param {
    lr_mult: 0
  }
}
layer {
  name: "scale_conv4_3a"
  type: "Scale"
  bottom: "conv4_3a"
  top: "conv4_3a"
  scale_param {
    bias_term: true
  }
}
layer {
  name: "conv4_3a_relu"
  type: "ReLU"
  bottom: "conv4_3a"
  top: "conv4_3a"
}
layer {
  name: "conv4_3b"
  type: "Convolution"
  bottom: "conv4_3a"
  top: "conv4_3b"
  param {
    lr_mult: 1
  }
  param {
    lr_mult: 2
  }
  convolution_param {
    num_output: 64
    pad: 1
    kernel_size: 3
    stride: 1
    weight_filler {
      type: "res"
      std: 0.001
    }
    bias_filler {
      type: "constant"
      value: 0
    }
  }
}
layer {
  name: "bn_conv4_3b"
  type: "BatchNorm"
  bottom: "conv4_3b"
  top: "conv4_3b"
  param {
    lr_mult: 0
  }
  param {
    lr_mult: 0
  }
  param {
    lr_mult: 0
  }
}
layer {
  name: "scale_conv4_3b"
  type: "Scale"
  bottom: "conv4_3b"
  top: "conv4_3b"
  scale_param {
    bias_term: true
  }
}
layer {
  name: "conv4_3_relu"
  type: "ReLU"
  bottom: "conv4_3b"
  top: "conv4_3b"
}
layer {
  name: "global_pool"
  type: "Pooling"
  bottom: "conv4_3b"
  top: "global_pool"
  pooling_param {
    pool: AVE
    kernel_size: 8
    stride: 8
  }
}
layer {
  name: "ip"
  type: "InnerProduct"
  bottom: "global_pool"
  top: "ip"
  inner_product_param {
    num_output: 10
  }
}
layer {
  name: "accuracy"
  type: "Accuracy"
  bottom: "ip"
  bottom: "label"
  top: "accuracy"
}
layer {
  name: "loss"
  type: "SoftmaxWithLoss"
  bottom: "ip"
  bottom: "label"
  top: "loss"
}
I0420 21:00:18.818084  7922 layer_factory.hpp:77] Creating layer cifar
I0420 21:00:18.818699  7922 net.cpp:91] Creating Layer cifar
I0420 21:00:18.818717  7922 net.cpp:399] cifar -> data
I0420 21:00:18.818753  7922 net.cpp:399] cifar -> label
I0420 21:00:18.818768  7922 data_transformer.cpp:25] Loading mean file from: data/cifar10/mean.binaryproto
I0420 21:00:18.819536  7996 db_lmdb.cpp:38] Opened lmdb data/cifar10/cifar10_train_lmdb
I0420 21:00:18.872112  7922 data_layer.cpp:41] output data size: 256,3,32,32
I0420 21:00:18.883962  7922 net.cpp:141] Setting up cifar
I0420 21:00:18.883996  7922 net.cpp:148] Top shape: 256 3 32 32 (786432)
I0420 21:00:18.884004  7922 net.cpp:148] Top shape: 256 (256)
I0420 21:00:18.884011  7922 net.cpp:156] Memory required for data: 3146752
I0420 21:00:18.884021  7922 layer_factory.hpp:77] Creating layer label_cifar_1_split
I0420 21:00:18.884043  7922 net.cpp:91] Creating Layer label_cifar_1_split
I0420 21:00:18.884050  7922 net.cpp:425] label_cifar_1_split <- label
I0420 21:00:18.884062  7922 net.cpp:399] label_cifar_1_split -> label_cifar_1_split_0
I0420 21:00:18.884081  7922 net.cpp:399] label_cifar_1_split -> label_cifar_1_split_1
I0420 21:00:18.884160  7922 net.cpp:141] Setting up label_cifar_1_split
I0420 21:00:18.884171  7922 net.cpp:148] Top shape: 256 (256)
I0420 21:00:18.884178  7922 net.cpp:148] Top shape: 256 (256)
I0420 21:00:18.884183  7922 net.cpp:156] Memory required for data: 3148800
I0420 21:00:18.884188  7922 layer_factory.hpp:77] Creating layer conv1
I0420 21:00:18.884210  7922 net.cpp:91] Creating Layer conv1
I0420 21:00:18.884217  7922 net.cpp:425] conv1 <- data
I0420 21:00:18.884227  7922 net.cpp:399] conv1 -> conv1
I0420 21:00:19.194000  7922 net.cpp:141] Setting up conv1
I0420 21:00:19.194051  7922 net.cpp:148] Top shape: 256 16 32 32 (4194304)
I0420 21:00:19.194057  7922 net.cpp:156] Memory required for data: 19926016
I0420 21:00:19.194078  7922 layer_factory.hpp:77] Creating layer bn_conv1
I0420 21:00:19.194095  7922 net.cpp:91] Creating Layer bn_conv1
I0420 21:00:19.194103  7922 net.cpp:425] bn_conv1 <- conv1
I0420 21:00:19.194113  7922 net.cpp:386] bn_conv1 -> conv1 (in-place)
I0420 21:00:19.194314  7922 net.cpp:141] Setting up bn_conv1
I0420 21:00:19.194324  7922 net.cpp:148] Top shape: 256 16 32 32 (4194304)
I0420 21:00:19.194330  7922 net.cpp:156] Memory required for data: 36703232
I0420 21:00:19.194345  7922 layer_factory.hpp:77] Creating layer scale_conv1
I0420 21:00:19.194358  7922 net.cpp:91] Creating Layer scale_conv1
I0420 21:00:19.194365  7922 net.cpp:425] scale_conv1 <- conv1
I0420 21:00:19.194372  7922 net.cpp:386] scale_conv1 -> conv1 (in-place)
I0420 21:00:19.194413  7922 layer_factory.hpp:77] Creating layer scale_conv1
I0420 21:00:19.194522  7922 net.cpp:141] Setting up scale_conv1
I0420 21:00:19.194532  7922 net.cpp:148] Top shape: 256 16 32 32 (4194304)
I0420 21:00:19.194537  7922 net.cpp:156] Memory required for data: 53480448
I0420 21:00:19.194546  7922 layer_factory.hpp:77] Creating layer conv1_relu
I0420 21:00:19.194556  7922 net.cpp:91] Creating Layer conv1_relu
I0420 21:00:19.194561  7922 net.cpp:425] conv1_relu <- conv1
I0420 21:00:19.194569  7922 net.cpp:386] conv1_relu -> conv1 (in-place)
I0420 21:00:19.194872  7922 net.cpp:141] Setting up conv1_relu
I0420 21:00:19.194888  7922 net.cpp:148] Top shape: 256 16 32 32 (4194304)
I0420 21:00:19.194895  7922 net.cpp:156] Memory required for data: 70257664
I0420 21:00:19.194900  7922 layer_factory.hpp:77] Creating layer conv2_1a
I0420 21:00:19.194916  7922 net.cpp:91] Creating Layer conv2_1a
I0420 21:00:19.194922  7922 net.cpp:425] conv2_1a <- conv1
I0420 21:00:19.194931  7922 net.cpp:399] conv2_1a -> conv2_1a
I0420 21:00:19.196216  7922 net.cpp:141] Setting up conv2_1a
I0420 21:00:19.196235  7922 net.cpp:148] Top shape: 256 16 32 32 (4194304)
I0420 21:00:19.196241  7922 net.cpp:156] Memory required for data: 87034880
I0420 21:00:19.196254  7922 layer_factory.hpp:77] Creating layer bn_conv2_1a
I0420 21:00:19.196265  7922 net.cpp:91] Creating Layer bn_conv2_1a
I0420 21:00:19.196277  7922 net.cpp:425] bn_conv2_1a <- conv2_1a
I0420 21:00:19.196285  7922 net.cpp:386] bn_conv2_1a -> conv2_1a (in-place)
I0420 21:00:19.196470  7922 net.cpp:141] Setting up bn_conv2_1a
I0420 21:00:19.196480  7922 net.cpp:148] Top shape: 256 16 32 32 (4194304)
I0420 21:00:19.196485  7922 net.cpp:156] Memory required for data: 103812096
I0420 21:00:19.196496  7922 layer_factory.hpp:77] Creating layer scale_conv2_1a
I0420 21:00:19.196506  7922 net.cpp:91] Creating Layer scale_conv2_1a
I0420 21:00:19.196511  7922 net.cpp:425] scale_conv2_1a <- conv2_1a
I0420 21:00:19.196519  7922 net.cpp:386] scale_conv2_1a -> conv2_1a (in-place)
I0420 21:00:19.196555  7922 layer_factory.hpp:77] Creating layer scale_conv2_1a
I0420 21:00:19.196669  7922 net.cpp:141] Setting up scale_conv2_1a
I0420 21:00:19.196678  7922 net.cpp:148] Top shape: 256 16 32 32 (4194304)
I0420 21:00:19.196683  7922 net.cpp:156] Memory required for data: 120589312
I0420 21:00:19.196692  7922 layer_factory.hpp:77] Creating layer conv2_1a_relu
I0420 21:00:19.196701  7922 net.cpp:91] Creating Layer conv2_1a_relu
I0420 21:00:19.196705  7922 net.cpp:425] conv2_1a_relu <- conv2_1a
I0420 21:00:19.196712  7922 net.cpp:386] conv2_1a_relu -> conv2_1a (in-place)
I0420 21:00:19.197010  7922 net.cpp:141] Setting up conv2_1a_relu
I0420 21:00:19.197024  7922 net.cpp:148] Top shape: 256 16 32 32 (4194304)
I0420 21:00:19.197031  7922 net.cpp:156] Memory required for data: 137366528
I0420 21:00:19.197036  7922 layer_factory.hpp:77] Creating layer conv2_1b
I0420 21:00:19.197049  7922 net.cpp:91] Creating Layer conv2_1b
I0420 21:00:19.197055  7922 net.cpp:425] conv2_1b <- conv2_1a
I0420 21:00:19.197064  7922 net.cpp:399] conv2_1b -> conv2_1b
I0420 21:00:19.199784  7922 net.cpp:141] Setting up conv2_1b
I0420 21:00:19.199802  7922 net.cpp:148] Top shape: 256 16 32 32 (4194304)
I0420 21:00:19.199808  7922 net.cpp:156] Memory required for data: 154143744
I0420 21:00:19.199817  7922 layer_factory.hpp:77] Creating layer bn_conv2_1b
I0420 21:00:19.199828  7922 net.cpp:91] Creating Layer bn_conv2_1b
I0420 21:00:19.199834  7922 net.cpp:425] bn_conv2_1b <- conv2_1b
I0420 21:00:19.199842  7922 net.cpp:386] bn_conv2_1b -> conv2_1b (in-place)
I0420 21:00:19.200033  7922 net.cpp:141] Setting up bn_conv2_1b
I0420 21:00:19.200043  7922 net.cpp:148] Top shape: 256 16 32 32 (4194304)
I0420 21:00:19.200049  7922 net.cpp:156] Memory required for data: 170920960
I0420 21:00:19.200067  7922 layer_factory.hpp:77] Creating layer scale_conv2_1b
I0420 21:00:19.200078  7922 net.cpp:91] Creating Layer scale_conv2_1b
I0420 21:00:19.200083  7922 net.cpp:425] scale_conv2_1b <- conv2_1b
I0420 21:00:19.200090  7922 net.cpp:386] scale_conv2_1b -> conv2_1b (in-place)
I0420 21:00:19.200129  7922 layer_factory.hpp:77] Creating layer scale_conv2_1b
I0420 21:00:19.200240  7922 net.cpp:141] Setting up scale_conv2_1b
I0420 21:00:19.200250  7922 net.cpp:148] Top shape: 256 16 32 32 (4194304)
I0420 21:00:19.200256  7922 net.cpp:156] Memory required for data: 187698176
I0420 21:00:19.200264  7922 layer_factory.hpp:77] Creating layer conv2_1_relu
I0420 21:00:19.200273  7922 net.cpp:91] Creating Layer conv2_1_relu
I0420 21:00:19.200278  7922 net.cpp:425] conv2_1_relu <- conv2_1b
I0420 21:00:19.200287  7922 net.cpp:386] conv2_1_relu -> conv2_1b (in-place)
I0420 21:00:19.200489  7922 net.cpp:141] Setting up conv2_1_relu
I0420 21:00:19.200502  7922 net.cpp:148] Top shape: 256 16 32 32 (4194304)
I0420 21:00:19.200507  7922 net.cpp:156] Memory required for data: 204475392
I0420 21:00:19.200513  7922 layer_factory.hpp:77] Creating layer conv2_2a
I0420 21:00:19.200530  7922 net.cpp:91] Creating Layer conv2_2a
I0420 21:00:19.200536  7922 net.cpp:425] conv2_2a <- conv2_1b
I0420 21:00:19.200549  7922 net.cpp:399] conv2_2a -> conv2_2a
I0420 21:00:19.202599  7922 net.cpp:141] Setting up conv2_2a
I0420 21:00:19.202618  7922 net.cpp:148] Top shape: 256 16 32 32 (4194304)
I0420 21:00:19.202625  7922 net.cpp:156] Memory required for data: 221252608
I0420 21:00:19.202635  7922 layer_factory.hpp:77] Creating layer bn_conv2_2a
I0420 21:00:19.202647  7922 net.cpp:91] Creating Layer bn_conv2_2a
I0420 21:00:19.202653  7922 net.cpp:425] bn_conv2_2a <- conv2_2a
I0420 21:00:19.202663  7922 net.cpp:386] bn_conv2_2a -> conv2_2a (in-place)
I0420 21:00:19.202867  7922 net.cpp:141] Setting up bn_conv2_2a
I0420 21:00:19.202877  7922 net.cpp:148] Top shape: 256 16 32 32 (4194304)
I0420 21:00:19.202883  7922 net.cpp:156] Memory required for data: 238029824
I0420 21:00:19.202893  7922 layer_factory.hpp:77] Creating layer scale_conv2_2a
I0420 21:00:19.202908  7922 net.cpp:91] Creating Layer scale_conv2_2a
I0420 21:00:19.202913  7922 net.cpp:425] scale_conv2_2a <- conv2_2a
I0420 21:00:19.202921  7922 net.cpp:386] scale_conv2_2a -> conv2_2a (in-place)
I0420 21:00:19.202962  7922 layer_factory.hpp:77] Creating layer scale_conv2_2a
I0420 21:00:19.203088  7922 net.cpp:141] Setting up scale_conv2_2a
I0420 21:00:19.203099  7922 net.cpp:148] Top shape: 256 16 32 32 (4194304)
I0420 21:00:19.203104  7922 net.cpp:156] Memory required for data: 254807040
I0420 21:00:19.203111  7922 layer_factory.hpp:77] Creating layer conv2_2a_relu
I0420 21:00:19.203120  7922 net.cpp:91] Creating Layer conv2_2a_relu
I0420 21:00:19.203125  7922 net.cpp:425] conv2_2a_relu <- conv2_2a
I0420 21:00:19.203135  7922 net.cpp:386] conv2_2a_relu -> conv2_2a (in-place)
I0420 21:00:19.203635  7922 net.cpp:141] Setting up conv2_2a_relu
I0420 21:00:19.203651  7922 net.cpp:148] Top shape: 256 16 32 32 (4194304)
I0420 21:00:19.203657  7922 net.cpp:156] Memory required for data: 271584256
I0420 21:00:19.203662  7922 layer_factory.hpp:77] Creating layer conv2_2b
I0420 21:00:19.203680  7922 net.cpp:91] Creating Layer conv2_2b
I0420 21:00:19.203685  7922 net.cpp:425] conv2_2b <- conv2_2a
I0420 21:00:19.203694  7922 net.cpp:399] conv2_2b -> conv2_2b
I0420 21:00:19.208081  7922 net.cpp:141] Setting up conv2_2b
I0420 21:00:19.208098  7922 net.cpp:148] Top shape: 256 16 32 32 (4194304)
I0420 21:00:19.208104  7922 net.cpp:156] Memory required for data: 288361472
I0420 21:00:19.208113  7922 layer_factory.hpp:77] Creating layer bn_conv2_2b
I0420 21:00:19.208127  7922 net.cpp:91] Creating Layer bn_conv2_2b
I0420 21:00:19.208132  7922 net.cpp:425] bn_conv2_2b <- conv2_2b
I0420 21:00:19.208142  7922 net.cpp:386] bn_conv2_2b -> conv2_2b (in-place)
I0420 21:00:19.208348  7922 net.cpp:141] Setting up bn_conv2_2b
I0420 21:00:19.208359  7922 net.cpp:148] Top shape: 256 16 32 32 (4194304)
I0420 21:00:19.208364  7922 net.cpp:156] Memory required for data: 305138688
I0420 21:00:19.208380  7922 layer_factory.hpp:77] Creating layer scale_conv2_2b
I0420 21:00:19.208390  7922 net.cpp:91] Creating Layer scale_conv2_2b
I0420 21:00:19.208395  7922 net.cpp:425] scale_conv2_2b <- conv2_2b
I0420 21:00:19.208403  7922 net.cpp:386] scale_conv2_2b -> conv2_2b (in-place)
I0420 21:00:19.208444  7922 layer_factory.hpp:77] Creating layer scale_conv2_2b
I0420 21:00:19.208567  7922 net.cpp:141] Setting up scale_conv2_2b
I0420 21:00:19.208576  7922 net.cpp:148] Top shape: 256 16 32 32 (4194304)
I0420 21:00:19.208581  7922 net.cpp:156] Memory required for data: 321915904
I0420 21:00:19.208590  7922 layer_factory.hpp:77] Creating layer conv2_2_relu
I0420 21:00:19.208598  7922 net.cpp:91] Creating Layer conv2_2_relu
I0420 21:00:19.208603  7922 net.cpp:425] conv2_2_relu <- conv2_2b
I0420 21:00:19.208612  7922 net.cpp:386] conv2_2_relu -> conv2_2b (in-place)
I0420 21:00:19.209877  7922 net.cpp:141] Setting up conv2_2_relu
I0420 21:00:19.209894  7922 net.cpp:148] Top shape: 256 16 32 32 (4194304)
I0420 21:00:19.209899  7922 net.cpp:156] Memory required for data: 338693120
I0420 21:00:19.209905  7922 layer_factory.hpp:77] Creating layer conv2_3a
I0420 21:00:19.209921  7922 net.cpp:91] Creating Layer conv2_3a
I0420 21:00:19.209933  7922 net.cpp:425] conv2_3a <- conv2_2b
I0420 21:00:19.209944  7922 net.cpp:399] conv2_3a -> conv2_3a
I0420 21:00:19.212942  7922 net.cpp:141] Setting up conv2_3a
I0420 21:00:19.212960  7922 net.cpp:148] Top shape: 256 16 32 32 (4194304)
I0420 21:00:19.212966  7922 net.cpp:156] Memory required for data: 355470336
I0420 21:00:19.212975  7922 layer_factory.hpp:77] Creating layer bn_conv2_3a
I0420 21:00:19.212987  7922 net.cpp:91] Creating Layer bn_conv2_3a
I0420 21:00:19.212993  7922 net.cpp:425] bn_conv2_3a <- conv2_3a
I0420 21:00:19.213001  7922 net.cpp:386] bn_conv2_3a -> conv2_3a (in-place)
I0420 21:00:19.213222  7922 net.cpp:141] Setting up bn_conv2_3a
I0420 21:00:19.213233  7922 net.cpp:148] Top shape: 256 16 32 32 (4194304)
I0420 21:00:19.213238  7922 net.cpp:156] Memory required for data: 372247552
I0420 21:00:19.213249  7922 layer_factory.hpp:77] Creating layer scale_conv2_3a
I0420 21:00:19.213258  7922 net.cpp:91] Creating Layer scale_conv2_3a
I0420 21:00:19.213264  7922 net.cpp:425] scale_conv2_3a <- conv2_3a
I0420 21:00:19.213273  7922 net.cpp:386] scale_conv2_3a -> conv2_3a (in-place)
I0420 21:00:19.213315  7922 layer_factory.hpp:77] Creating layer scale_conv2_3a
I0420 21:00:19.213438  7922 net.cpp:141] Setting up scale_conv2_3a
I0420 21:00:19.213448  7922 net.cpp:148] Top shape: 256 16 32 32 (4194304)
I0420 21:00:19.213452  7922 net.cpp:156] Memory required for data: 389024768
I0420 21:00:19.213460  7922 layer_factory.hpp:77] Creating layer conv2_3a_relu
I0420 21:00:19.213470  7922 net.cpp:91] Creating Layer conv2_3a_relu
I0420 21:00:19.213476  7922 net.cpp:425] conv2_3a_relu <- conv2_3a
I0420 21:00:19.213484  7922 net.cpp:386] conv2_3a_relu -> conv2_3a (in-place)
I0420 21:00:19.213965  7922 net.cpp:141] Setting up conv2_3a_relu
I0420 21:00:19.213979  7922 net.cpp:148] Top shape: 256 16 32 32 (4194304)
I0420 21:00:19.213984  7922 net.cpp:156] Memory required for data: 405801984
I0420 21:00:19.213989  7922 layer_factory.hpp:77] Creating layer conv2_3b
I0420 21:00:19.214006  7922 net.cpp:91] Creating Layer conv2_3b
I0420 21:00:19.214012  7922 net.cpp:425] conv2_3b <- conv2_3a
I0420 21:00:19.214021  7922 net.cpp:399] conv2_3b -> conv2_3b
I0420 21:00:19.216567  7922 net.cpp:141] Setting up conv2_3b
I0420 21:00:19.216586  7922 net.cpp:148] Top shape: 256 16 32 32 (4194304)
I0420 21:00:19.216593  7922 net.cpp:156] Memory required for data: 422579200
I0420 21:00:19.216601  7922 layer_factory.hpp:77] Creating layer bn_conv2_3b
I0420 21:00:19.216612  7922 net.cpp:91] Creating Layer bn_conv2_3b
I0420 21:00:19.216619  7922 net.cpp:425] bn_conv2_3b <- conv2_3b
I0420 21:00:19.216629  7922 net.cpp:386] bn_conv2_3b -> conv2_3b (in-place)
I0420 21:00:19.216840  7922 net.cpp:141] Setting up bn_conv2_3b
I0420 21:00:19.216850  7922 net.cpp:148] Top shape: 256 16 32 32 (4194304)
I0420 21:00:19.216856  7922 net.cpp:156] Memory required for data: 439356416
I0420 21:00:19.216866  7922 layer_factory.hpp:77] Creating layer scale_conv2_3b
I0420 21:00:19.216874  7922 net.cpp:91] Creating Layer scale_conv2_3b
I0420 21:00:19.216879  7922 net.cpp:425] scale_conv2_3b <- conv2_3b
I0420 21:00:19.216887  7922 net.cpp:386] scale_conv2_3b -> conv2_3b (in-place)
I0420 21:00:19.216928  7922 layer_factory.hpp:77] Creating layer scale_conv2_3b
I0420 21:00:19.217049  7922 net.cpp:141] Setting up scale_conv2_3b
I0420 21:00:19.217059  7922 net.cpp:148] Top shape: 256 16 32 32 (4194304)
I0420 21:00:19.217064  7922 net.cpp:156] Memory required for data: 456133632
I0420 21:00:19.217073  7922 layer_factory.hpp:77] Creating layer conv2_3_relu
I0420 21:00:19.217082  7922 net.cpp:91] Creating Layer conv2_3_relu
I0420 21:00:19.217087  7922 net.cpp:425] conv2_3_relu <- conv2_3b
I0420 21:00:19.217094  7922 net.cpp:386] conv2_3_relu -> conv2_3b (in-place)
I0420 21:00:19.217434  7922 net.cpp:141] Setting up conv2_3_relu
I0420 21:00:19.217452  7922 net.cpp:148] Top shape: 256 16 32 32 (4194304)
I0420 21:00:19.217458  7922 net.cpp:156] Memory required for data: 472910848
I0420 21:00:19.217463  7922 layer_factory.hpp:77] Creating layer conv3_1a
I0420 21:00:19.217483  7922 net.cpp:91] Creating Layer conv3_1a
I0420 21:00:19.217489  7922 net.cpp:425] conv3_1a <- conv2_3b
I0420 21:00:19.217500  7922 net.cpp:399] conv3_1a -> conv3_1a
I0420 21:00:19.220057  7922 net.cpp:141] Setting up conv3_1a
I0420 21:00:19.220074  7922 net.cpp:148] Top shape: 256 32 16 16 (2097152)
I0420 21:00:19.220080  7922 net.cpp:156] Memory required for data: 481299456
I0420 21:00:19.220090  7922 layer_factory.hpp:77] Creating layer bn_conv3_1a
I0420 21:00:19.220103  7922 net.cpp:91] Creating Layer bn_conv3_1a
I0420 21:00:19.220108  7922 net.cpp:425] bn_conv3_1a <- conv3_1a
I0420 21:00:19.220119  7922 net.cpp:386] bn_conv3_1a -> conv3_1a (in-place)
I0420 21:00:19.220327  7922 net.cpp:141] Setting up bn_conv3_1a
I0420 21:00:19.220337  7922 net.cpp:148] Top shape: 256 32 16 16 (2097152)
I0420 21:00:19.220342  7922 net.cpp:156] Memory required for data: 489688064
I0420 21:00:19.220352  7922 layer_factory.hpp:77] Creating layer scale_conv3_1a
I0420 21:00:19.220367  7922 net.cpp:91] Creating Layer scale_conv3_1a
I0420 21:00:19.220373  7922 net.cpp:425] scale_conv3_1a <- conv3_1a
I0420 21:00:19.220381  7922 net.cpp:386] scale_conv3_1a -> conv3_1a (in-place)
I0420 21:00:19.220422  7922 layer_factory.hpp:77] Creating layer scale_conv3_1a
I0420 21:00:19.220544  7922 net.cpp:141] Setting up scale_conv3_1a
I0420 21:00:19.220553  7922 net.cpp:148] Top shape: 256 32 16 16 (2097152)
I0420 21:00:19.220558  7922 net.cpp:156] Memory required for data: 498076672
I0420 21:00:19.220567  7922 layer_factory.hpp:77] Creating layer conv3_1a_relu
I0420 21:00:19.220576  7922 net.cpp:91] Creating Layer conv3_1a_relu
I0420 21:00:19.220580  7922 net.cpp:425] conv3_1a_relu <- conv3_1a
I0420 21:00:19.220590  7922 net.cpp:386] conv3_1a_relu -> conv3_1a (in-place)
I0420 21:00:19.221030  7922 net.cpp:141] Setting up conv3_1a_relu
I0420 21:00:19.221046  7922 net.cpp:148] Top shape: 256 32 16 16 (2097152)
I0420 21:00:19.221051  7922 net.cpp:156] Memory required for data: 506465280
I0420 21:00:19.221057  7922 layer_factory.hpp:77] Creating layer conv3_1b
I0420 21:00:19.221074  7922 net.cpp:91] Creating Layer conv3_1b
I0420 21:00:19.221081  7922 net.cpp:425] conv3_1b <- conv3_1a
I0420 21:00:19.221089  7922 net.cpp:399] conv3_1b -> conv3_1b
I0420 21:00:19.222923  7922 net.cpp:141] Setting up conv3_1b
I0420 21:00:19.222944  7922 net.cpp:148] Top shape: 256 32 16 16 (2097152)
I0420 21:00:19.222949  7922 net.cpp:156] Memory required for data: 514853888
I0420 21:00:19.222959  7922 layer_factory.hpp:77] Creating layer bn_conv3_1b
I0420 21:00:19.222968  7922 net.cpp:91] Creating Layer bn_conv3_1b
I0420 21:00:19.222975  7922 net.cpp:425] bn_conv3_1b <- conv3_1b
I0420 21:00:19.222985  7922 net.cpp:386] bn_conv3_1b -> conv3_1b (in-place)
I0420 21:00:19.223193  7922 net.cpp:141] Setting up bn_conv3_1b
I0420 21:00:19.223203  7922 net.cpp:148] Top shape: 256 32 16 16 (2097152)
I0420 21:00:19.223208  7922 net.cpp:156] Memory required for data: 523242496
I0420 21:00:19.223218  7922 layer_factory.hpp:77] Creating layer scale_conv3_1b
I0420 21:00:19.223227  7922 net.cpp:91] Creating Layer scale_conv3_1b
I0420 21:00:19.223233  7922 net.cpp:425] scale_conv3_1b <- conv3_1b
I0420 21:00:19.223240  7922 net.cpp:386] scale_conv3_1b -> conv3_1b (in-place)
I0420 21:00:19.223281  7922 layer_factory.hpp:77] Creating layer scale_conv3_1b
I0420 21:00:19.223404  7922 net.cpp:141] Setting up scale_conv3_1b
I0420 21:00:19.223414  7922 net.cpp:148] Top shape: 256 32 16 16 (2097152)
I0420 21:00:19.223419  7922 net.cpp:156] Memory required for data: 531631104
I0420 21:00:19.223428  7922 layer_factory.hpp:77] Creating layer conv3_1_relu
I0420 21:00:19.223435  7922 net.cpp:91] Creating Layer conv3_1_relu
I0420 21:00:19.223441  7922 net.cpp:425] conv3_1_relu <- conv3_1b
I0420 21:00:19.223449  7922 net.cpp:386] conv3_1_relu -> conv3_1b (in-place)
I0420 21:00:19.223872  7922 net.cpp:141] Setting up conv3_1_relu
I0420 21:00:19.223886  7922 net.cpp:148] Top shape: 256 32 16 16 (2097152)
I0420 21:00:19.223891  7922 net.cpp:156] Memory required for data: 540019712
I0420 21:00:19.223901  7922 layer_factory.hpp:77] Creating layer conv3_2a
I0420 21:00:19.223918  7922 net.cpp:91] Creating Layer conv3_2a
I0420 21:00:19.223924  7922 net.cpp:425] conv3_2a <- conv3_1b
I0420 21:00:19.223932  7922 net.cpp:399] conv3_2a -> conv3_2a
I0420 21:00:19.225653  7922 net.cpp:141] Setting up conv3_2a
I0420 21:00:19.225672  7922 net.cpp:148] Top shape: 256 32 16 16 (2097152)
I0420 21:00:19.225678  7922 net.cpp:156] Memory required for data: 548408320
I0420 21:00:19.225698  7922 layer_factory.hpp:77] Creating layer bn_conv3_2a
I0420 21:00:19.225710  7922 net.cpp:91] Creating Layer bn_conv3_2a
I0420 21:00:19.225716  7922 net.cpp:425] bn_conv3_2a <- conv3_2a
I0420 21:00:19.225724  7922 net.cpp:386] bn_conv3_2a -> conv3_2a (in-place)
I0420 21:00:19.225934  7922 net.cpp:141] Setting up bn_conv3_2a
I0420 21:00:19.225945  7922 net.cpp:148] Top shape: 256 32 16 16 (2097152)
I0420 21:00:19.225950  7922 net.cpp:156] Memory required for data: 556796928
I0420 21:00:19.225960  7922 layer_factory.hpp:77] Creating layer scale_conv3_2a
I0420 21:00:19.225971  7922 net.cpp:91] Creating Layer scale_conv3_2a
I0420 21:00:19.225977  7922 net.cpp:425] scale_conv3_2a <- conv3_2a
I0420 21:00:19.225985  7922 net.cpp:386] scale_conv3_2a -> conv3_2a (in-place)
I0420 21:00:19.226028  7922 layer_factory.hpp:77] Creating layer scale_conv3_2a
I0420 21:00:19.226152  7922 net.cpp:141] Setting up scale_conv3_2a
I0420 21:00:19.226162  7922 net.cpp:148] Top shape: 256 32 16 16 (2097152)
I0420 21:00:19.226167  7922 net.cpp:156] Memory required for data: 565185536
I0420 21:00:19.226176  7922 layer_factory.hpp:77] Creating layer conv3_2a_relu
I0420 21:00:19.226183  7922 net.cpp:91] Creating Layer conv3_2a_relu
I0420 21:00:19.226188  7922 net.cpp:425] conv3_2a_relu <- conv3_2a
I0420 21:00:19.226197  7922 net.cpp:386] conv3_2a_relu -> conv3_2a (in-place)
I0420 21:00:19.226634  7922 net.cpp:141] Setting up conv3_2a_relu
I0420 21:00:19.226650  7922 net.cpp:148] Top shape: 256 32 16 16 (2097152)
I0420 21:00:19.226655  7922 net.cpp:156] Memory required for data: 573574144
I0420 21:00:19.226661  7922 layer_factory.hpp:77] Creating layer conv3_2b
I0420 21:00:19.226677  7922 net.cpp:91] Creating Layer conv3_2b
I0420 21:00:19.226685  7922 net.cpp:425] conv3_2b <- conv3_2a
I0420 21:00:19.226693  7922 net.cpp:399] conv3_2b -> conv3_2b
I0420 21:00:19.229179  7922 net.cpp:141] Setting up conv3_2b
I0420 21:00:19.229197  7922 net.cpp:148] Top shape: 256 32 16 16 (2097152)
I0420 21:00:19.229203  7922 net.cpp:156] Memory required for data: 581962752
I0420 21:00:19.229212  7922 layer_factory.hpp:77] Creating layer bn_conv3_2b
I0420 21:00:19.229225  7922 net.cpp:91] Creating Layer bn_conv3_2b
I0420 21:00:19.229231  7922 net.cpp:425] bn_conv3_2b <- conv3_2b
I0420 21:00:19.229241  7922 net.cpp:386] bn_conv3_2b -> conv3_2b (in-place)
I0420 21:00:19.229452  7922 net.cpp:141] Setting up bn_conv3_2b
I0420 21:00:19.229462  7922 net.cpp:148] Top shape: 256 32 16 16 (2097152)
I0420 21:00:19.229467  7922 net.cpp:156] Memory required for data: 590351360
I0420 21:00:19.229476  7922 layer_factory.hpp:77] Creating layer scale_conv3_2b
I0420 21:00:19.229485  7922 net.cpp:91] Creating Layer scale_conv3_2b
I0420 21:00:19.229491  7922 net.cpp:425] scale_conv3_2b <- conv3_2b
I0420 21:00:19.229501  7922 net.cpp:386] scale_conv3_2b -> conv3_2b (in-place)
I0420 21:00:19.229540  7922 layer_factory.hpp:77] Creating layer scale_conv3_2b
I0420 21:00:19.229666  7922 net.cpp:141] Setting up scale_conv3_2b
I0420 21:00:19.229676  7922 net.cpp:148] Top shape: 256 32 16 16 (2097152)
I0420 21:00:19.229681  7922 net.cpp:156] Memory required for data: 598739968
I0420 21:00:19.229688  7922 layer_factory.hpp:77] Creating layer conv3_2_relu
I0420 21:00:19.229696  7922 net.cpp:91] Creating Layer conv3_2_relu
I0420 21:00:19.229702  7922 net.cpp:425] conv3_2_relu <- conv3_2b
I0420 21:00:19.229708  7922 net.cpp:386] conv3_2_relu -> conv3_2b (in-place)
I0420 21:00:19.230026  7922 net.cpp:141] Setting up conv3_2_relu
I0420 21:00:19.230041  7922 net.cpp:148] Top shape: 256 32 16 16 (2097152)
I0420 21:00:19.230051  7922 net.cpp:156] Memory required for data: 607128576
I0420 21:00:19.230057  7922 layer_factory.hpp:77] Creating layer conv3_3a
I0420 21:00:19.230072  7922 net.cpp:91] Creating Layer conv3_3a
I0420 21:00:19.230079  7922 net.cpp:425] conv3_3a <- conv3_2b
I0420 21:00:19.230092  7922 net.cpp:399] conv3_3a -> conv3_3a
I0420 21:00:19.232409  7922 net.cpp:141] Setting up conv3_3a
I0420 21:00:19.232426  7922 net.cpp:148] Top shape: 256 32 16 16 (2097152)
I0420 21:00:19.232432  7922 net.cpp:156] Memory required for data: 615517184
I0420 21:00:19.232442  7922 layer_factory.hpp:77] Creating layer bn_conv3_3a
I0420 21:00:19.232453  7922 net.cpp:91] Creating Layer bn_conv3_3a
I0420 21:00:19.232460  7922 net.cpp:425] bn_conv3_3a <- conv3_3a
I0420 21:00:19.232468  7922 net.cpp:386] bn_conv3_3a -> conv3_3a (in-place)
I0420 21:00:19.232679  7922 net.cpp:141] Setting up bn_conv3_3a
I0420 21:00:19.232689  7922 net.cpp:148] Top shape: 256 32 16 16 (2097152)
I0420 21:00:19.232694  7922 net.cpp:156] Memory required for data: 623905792
I0420 21:00:19.232704  7922 layer_factory.hpp:77] Creating layer scale_conv3_3a
I0420 21:00:19.232713  7922 net.cpp:91] Creating Layer scale_conv3_3a
I0420 21:00:19.232719  7922 net.cpp:425] scale_conv3_3a <- conv3_3a
I0420 21:00:19.232728  7922 net.cpp:386] scale_conv3_3a -> conv3_3a (in-place)
I0420 21:00:19.232767  7922 layer_factory.hpp:77] Creating layer scale_conv3_3a
I0420 21:00:19.232892  7922 net.cpp:141] Setting up scale_conv3_3a
I0420 21:00:19.232903  7922 net.cpp:148] Top shape: 256 32 16 16 (2097152)
I0420 21:00:19.232908  7922 net.cpp:156] Memory required for data: 632294400
I0420 21:00:19.232916  7922 layer_factory.hpp:77] Creating layer conv3_3a_relu
I0420 21:00:19.232924  7922 net.cpp:91] Creating Layer conv3_3a_relu
I0420 21:00:19.232930  7922 net.cpp:425] conv3_3a_relu <- conv3_3a
I0420 21:00:19.232936  7922 net.cpp:386] conv3_3a_relu -> conv3_3a (in-place)
I0420 21:00:19.233134  7922 net.cpp:141] Setting up conv3_3a_relu
I0420 21:00:19.233149  7922 net.cpp:148] Top shape: 256 32 16 16 (2097152)
I0420 21:00:19.233153  7922 net.cpp:156] Memory required for data: 640683008
I0420 21:00:19.233160  7922 layer_factory.hpp:77] Creating layer conv3_3b
I0420 21:00:19.233172  7922 net.cpp:91] Creating Layer conv3_3b
I0420 21:00:19.233178  7922 net.cpp:425] conv3_3b <- conv3_3a
I0420 21:00:19.233188  7922 net.cpp:399] conv3_3b -> conv3_3b
I0420 21:00:19.236531  7922 net.cpp:141] Setting up conv3_3b
I0420 21:00:19.236548  7922 net.cpp:148] Top shape: 256 32 16 16 (2097152)
I0420 21:00:19.236554  7922 net.cpp:156] Memory required for data: 649071616
I0420 21:00:19.236563  7922 layer_factory.hpp:77] Creating layer bn_conv3_3b
I0420 21:00:19.236575  7922 net.cpp:91] Creating Layer bn_conv3_3b
I0420 21:00:19.236582  7922 net.cpp:425] bn_conv3_3b <- conv3_3b
I0420 21:00:19.236590  7922 net.cpp:386] bn_conv3_3b -> conv3_3b (in-place)
I0420 21:00:19.236802  7922 net.cpp:141] Setting up bn_conv3_3b
I0420 21:00:19.236812  7922 net.cpp:148] Top shape: 256 32 16 16 (2097152)
I0420 21:00:19.236817  7922 net.cpp:156] Memory required for data: 657460224
I0420 21:00:19.236827  7922 layer_factory.hpp:77] Creating layer scale_conv3_3b
I0420 21:00:19.236836  7922 net.cpp:91] Creating Layer scale_conv3_3b
I0420 21:00:19.236841  7922 net.cpp:425] scale_conv3_3b <- conv3_3b
I0420 21:00:19.236848  7922 net.cpp:386] scale_conv3_3b -> conv3_3b (in-place)
I0420 21:00:19.236891  7922 layer_factory.hpp:77] Creating layer scale_conv3_3b
I0420 21:00:19.237018  7922 net.cpp:141] Setting up scale_conv3_3b
I0420 21:00:19.237028  7922 net.cpp:148] Top shape: 256 32 16 16 (2097152)
I0420 21:00:19.237035  7922 net.cpp:156] Memory required for data: 665848832
I0420 21:00:19.237042  7922 layer_factory.hpp:77] Creating layer conv3_3_relu
I0420 21:00:19.237052  7922 net.cpp:91] Creating Layer conv3_3_relu
I0420 21:00:19.237057  7922 net.cpp:425] conv3_3_relu <- conv3_3b
I0420 21:00:19.237064  7922 net.cpp:386] conv3_3_relu -> conv3_3b (in-place)
I0420 21:00:19.237596  7922 net.cpp:141] Setting up conv3_3_relu
I0420 21:00:19.237618  7922 net.cpp:148] Top shape: 256 32 16 16 (2097152)
I0420 21:00:19.237624  7922 net.cpp:156] Memory required for data: 674237440
I0420 21:00:19.237630  7922 layer_factory.hpp:77] Creating layer conv4_1a
I0420 21:00:19.237645  7922 net.cpp:91] Creating Layer conv4_1a
I0420 21:00:19.237653  7922 net.cpp:425] conv4_1a <- conv3_3b
I0420 21:00:19.237661  7922 net.cpp:399] conv4_1a -> conv4_1a
I0420 21:00:19.241577  7922 net.cpp:141] Setting up conv4_1a
I0420 21:00:19.241595  7922 net.cpp:148] Top shape: 256 64 8 8 (1048576)
I0420 21:00:19.241601  7922 net.cpp:156] Memory required for data: 678431744
I0420 21:00:19.241611  7922 layer_factory.hpp:77] Creating layer bn_conv4_1a
I0420 21:00:19.241622  7922 net.cpp:91] Creating Layer bn_conv4_1a
I0420 21:00:19.241628  7922 net.cpp:425] bn_conv4_1a <- conv4_1a
I0420 21:00:19.241636  7922 net.cpp:386] bn_conv4_1a -> conv4_1a (in-place)
I0420 21:00:19.241857  7922 net.cpp:141] Setting up bn_conv4_1a
I0420 21:00:19.241868  7922 net.cpp:148] Top shape: 256 64 8 8 (1048576)
I0420 21:00:19.241873  7922 net.cpp:156] Memory required for data: 682626048
I0420 21:00:19.241883  7922 layer_factory.hpp:77] Creating layer scale_conv4_1a
I0420 21:00:19.241890  7922 net.cpp:91] Creating Layer scale_conv4_1a
I0420 21:00:19.241896  7922 net.cpp:425] scale_conv4_1a <- conv4_1a
I0420 21:00:19.241904  7922 net.cpp:386] scale_conv4_1a -> conv4_1a (in-place)
I0420 21:00:19.241948  7922 layer_factory.hpp:77] Creating layer scale_conv4_1a
I0420 21:00:19.242077  7922 net.cpp:141] Setting up scale_conv4_1a
I0420 21:00:19.242087  7922 net.cpp:148] Top shape: 256 64 8 8 (1048576)
I0420 21:00:19.242092  7922 net.cpp:156] Memory required for data: 686820352
I0420 21:00:19.242100  7922 layer_factory.hpp:77] Creating layer conv4_1a_relu
I0420 21:00:19.242110  7922 net.cpp:91] Creating Layer conv4_1a_relu
I0420 21:00:19.242115  7922 net.cpp:425] conv4_1a_relu <- conv4_1a
I0420 21:00:19.242122  7922 net.cpp:386] conv4_1a_relu -> conv4_1a (in-place)
I0420 21:00:19.242751  7922 net.cpp:141] Setting up conv4_1a_relu
I0420 21:00:19.242768  7922 net.cpp:148] Top shape: 256 64 8 8 (1048576)
I0420 21:00:19.242774  7922 net.cpp:156] Memory required for data: 691014656
I0420 21:00:19.242779  7922 layer_factory.hpp:77] Creating layer conv4_1b
I0420 21:00:19.242796  7922 net.cpp:91] Creating Layer conv4_1b
I0420 21:00:19.242804  7922 net.cpp:425] conv4_1b <- conv4_1a
I0420 21:00:19.242812  7922 net.cpp:399] conv4_1b -> conv4_1b
I0420 21:00:19.247419  7922 net.cpp:141] Setting up conv4_1b
I0420 21:00:19.247445  7922 net.cpp:148] Top shape: 256 64 8 8 (1048576)
I0420 21:00:19.247452  7922 net.cpp:156] Memory required for data: 695208960
I0420 21:00:19.247460  7922 layer_factory.hpp:77] Creating layer bn_conv4_1b
I0420 21:00:19.247473  7922 net.cpp:91] Creating Layer bn_conv4_1b
I0420 21:00:19.247479  7922 net.cpp:425] bn_conv4_1b <- conv4_1b
I0420 21:00:19.247488  7922 net.cpp:386] bn_conv4_1b -> conv4_1b (in-place)
I0420 21:00:19.247714  7922 net.cpp:141] Setting up bn_conv4_1b
I0420 21:00:19.247725  7922 net.cpp:148] Top shape: 256 64 8 8 (1048576)
I0420 21:00:19.247730  7922 net.cpp:156] Memory required for data: 699403264
I0420 21:00:19.247740  7922 layer_factory.hpp:77] Creating layer scale_conv4_1b
I0420 21:00:19.247750  7922 net.cpp:91] Creating Layer scale_conv4_1b
I0420 21:00:19.247756  7922 net.cpp:425] scale_conv4_1b <- conv4_1b
I0420 21:00:19.247762  7922 net.cpp:386] scale_conv4_1b -> conv4_1b (in-place)
I0420 21:00:19.247812  7922 layer_factory.hpp:77] Creating layer scale_conv4_1b
I0420 21:00:19.247943  7922 net.cpp:141] Setting up scale_conv4_1b
I0420 21:00:19.247952  7922 net.cpp:148] Top shape: 256 64 8 8 (1048576)
I0420 21:00:19.247957  7922 net.cpp:156] Memory required for data: 703597568
I0420 21:00:19.247966  7922 layer_factory.hpp:77] Creating layer conv4_1_relu
I0420 21:00:19.247973  7922 net.cpp:91] Creating Layer conv4_1_relu
I0420 21:00:19.247978  7922 net.cpp:425] conv4_1_relu <- conv4_1b
I0420 21:00:19.247987  7922 net.cpp:386] conv4_1_relu -> conv4_1b (in-place)
I0420 21:00:19.248466  7922 net.cpp:141] Setting up conv4_1_relu
I0420 21:00:19.248482  7922 net.cpp:148] Top shape: 256 64 8 8 (1048576)
I0420 21:00:19.248488  7922 net.cpp:156] Memory required for data: 707791872
I0420 21:00:19.248494  7922 layer_factory.hpp:77] Creating layer conv4_2a
I0420 21:00:19.248508  7922 net.cpp:91] Creating Layer conv4_2a
I0420 21:00:19.248514  7922 net.cpp:425] conv4_2a <- conv4_1b
I0420 21:00:19.248525  7922 net.cpp:399] conv4_2a -> conv4_2a
I0420 21:00:19.252262  7922 net.cpp:141] Setting up conv4_2a
I0420 21:00:19.252280  7922 net.cpp:148] Top shape: 256 64 8 8 (1048576)
I0420 21:00:19.252286  7922 net.cpp:156] Memory required for data: 711986176
I0420 21:00:19.252296  7922 layer_factory.hpp:77] Creating layer bn_conv4_2a
I0420 21:00:19.252312  7922 net.cpp:91] Creating Layer bn_conv4_2a
I0420 21:00:19.252320  7922 net.cpp:425] bn_conv4_2a <- conv4_2a
I0420 21:00:19.252329  7922 net.cpp:386] bn_conv4_2a -> conv4_2a (in-place)
I0420 21:00:19.252557  7922 net.cpp:141] Setting up bn_conv4_2a
I0420 21:00:19.252568  7922 net.cpp:148] Top shape: 256 64 8 8 (1048576)
I0420 21:00:19.252573  7922 net.cpp:156] Memory required for data: 716180480
I0420 21:00:19.252583  7922 layer_factory.hpp:77] Creating layer scale_conv4_2a
I0420 21:00:19.252599  7922 net.cpp:91] Creating Layer scale_conv4_2a
I0420 21:00:19.252605  7922 net.cpp:425] scale_conv4_2a <- conv4_2a
I0420 21:00:19.252612  7922 net.cpp:386] scale_conv4_2a -> conv4_2a (in-place)
I0420 21:00:19.252660  7922 layer_factory.hpp:77] Creating layer scale_conv4_2a
I0420 21:00:19.252794  7922 net.cpp:141] Setting up scale_conv4_2a
I0420 21:00:19.252804  7922 net.cpp:148] Top shape: 256 64 8 8 (1048576)
I0420 21:00:19.252809  7922 net.cpp:156] Memory required for data: 720374784
I0420 21:00:19.252817  7922 layer_factory.hpp:77] Creating layer conv4_2a_relu
I0420 21:00:19.252826  7922 net.cpp:91] Creating Layer conv4_2a_relu
I0420 21:00:19.252831  7922 net.cpp:425] conv4_2a_relu <- conv4_2a
I0420 21:00:19.252838  7922 net.cpp:386] conv4_2a_relu -> conv4_2a (in-place)
I0420 21:00:19.253322  7922 net.cpp:141] Setting up conv4_2a_relu
I0420 21:00:19.253341  7922 net.cpp:148] Top shape: 256 64 8 8 (1048576)
I0420 21:00:19.253346  7922 net.cpp:156] Memory required for data: 724569088
I0420 21:00:19.253352  7922 layer_factory.hpp:77] Creating layer conv4_2b
I0420 21:00:19.253367  7922 net.cpp:91] Creating Layer conv4_2b
I0420 21:00:19.253373  7922 net.cpp:425] conv4_2b <- conv4_2a
I0420 21:00:19.253383  7922 net.cpp:399] conv4_2b -> conv4_2b
I0420 21:00:19.256966  7922 net.cpp:141] Setting up conv4_2b
I0420 21:00:19.256983  7922 net.cpp:148] Top shape: 256 64 8 8 (1048576)
I0420 21:00:19.256990  7922 net.cpp:156] Memory required for data: 728763392
I0420 21:00:19.256999  7922 layer_factory.hpp:77] Creating layer bn_conv4_2b
I0420 21:00:19.257010  7922 net.cpp:91] Creating Layer bn_conv4_2b
I0420 21:00:19.257016  7922 net.cpp:425] bn_conv4_2b <- conv4_2b
I0420 21:00:19.257025  7922 net.cpp:386] bn_conv4_2b -> conv4_2b (in-place)
I0420 21:00:19.257264  7922 net.cpp:141] Setting up bn_conv4_2b
I0420 21:00:19.257275  7922 net.cpp:148] Top shape: 256 64 8 8 (1048576)
I0420 21:00:19.257280  7922 net.cpp:156] Memory required for data: 732957696
I0420 21:00:19.257290  7922 layer_factory.hpp:77] Creating layer scale_conv4_2b
I0420 21:00:19.257300  7922 net.cpp:91] Creating Layer scale_conv4_2b
I0420 21:00:19.257305  7922 net.cpp:425] scale_conv4_2b <- conv4_2b
I0420 21:00:19.257313  7922 net.cpp:386] scale_conv4_2b -> conv4_2b (in-place)
I0420 21:00:19.257361  7922 layer_factory.hpp:77] Creating layer scale_conv4_2b
I0420 21:00:19.257495  7922 net.cpp:141] Setting up scale_conv4_2b
I0420 21:00:19.257504  7922 net.cpp:148] Top shape: 256 64 8 8 (1048576)
I0420 21:00:19.257509  7922 net.cpp:156] Memory required for data: 737152000
I0420 21:00:19.257519  7922 layer_factory.hpp:77] Creating layer conv4_2_relu
I0420 21:00:19.257527  7922 net.cpp:91] Creating Layer conv4_2_relu
I0420 21:00:19.257532  7922 net.cpp:425] conv4_2_relu <- conv4_2b
I0420 21:00:19.257539  7922 net.cpp:386] conv4_2_relu -> conv4_2b (in-place)
I0420 21:00:19.258152  7922 net.cpp:141] Setting up conv4_2_relu
I0420 21:00:19.258168  7922 net.cpp:148] Top shape: 256 64 8 8 (1048576)
I0420 21:00:19.258174  7922 net.cpp:156] Memory required for data: 741346304
I0420 21:00:19.258180  7922 layer_factory.hpp:77] Creating layer conv4_3a
I0420 21:00:19.258194  7922 net.cpp:91] Creating Layer conv4_3a
I0420 21:00:19.258201  7922 net.cpp:425] conv4_3a <- conv4_2b
I0420 21:00:19.258210  7922 net.cpp:399] conv4_3a -> conv4_3a
I0420 21:00:19.261795  7922 net.cpp:141] Setting up conv4_3a
I0420 21:00:19.261813  7922 net.cpp:148] Top shape: 256 64 8 8 (1048576)
I0420 21:00:19.261819  7922 net.cpp:156] Memory required for data: 745540608
I0420 21:00:19.261828  7922 layer_factory.hpp:77] Creating layer bn_conv4_3a
I0420 21:00:19.261840  7922 net.cpp:91] Creating Layer bn_conv4_3a
I0420 21:00:19.261847  7922 net.cpp:425] bn_conv4_3a <- conv4_3a
I0420 21:00:19.261855  7922 net.cpp:386] bn_conv4_3a -> conv4_3a (in-place)
I0420 21:00:19.262085  7922 net.cpp:141] Setting up bn_conv4_3a
I0420 21:00:19.262095  7922 net.cpp:148] Top shape: 256 64 8 8 (1048576)
I0420 21:00:19.262100  7922 net.cpp:156] Memory required for data: 749734912
I0420 21:00:19.262110  7922 layer_factory.hpp:77] Creating layer scale_conv4_3a
I0420 21:00:19.262122  7922 net.cpp:91] Creating Layer scale_conv4_3a
I0420 21:00:19.262128  7922 net.cpp:425] scale_conv4_3a <- conv4_3a
I0420 21:00:19.262135  7922 net.cpp:386] scale_conv4_3a -> conv4_3a (in-place)
I0420 21:00:19.262181  7922 layer_factory.hpp:77] Creating layer scale_conv4_3a
I0420 21:00:19.262320  7922 net.cpp:141] Setting up scale_conv4_3a
I0420 21:00:19.262328  7922 net.cpp:148] Top shape: 256 64 8 8 (1048576)
I0420 21:00:19.262333  7922 net.cpp:156] Memory required for data: 753929216
I0420 21:00:19.262341  7922 layer_factory.hpp:77] Creating layer conv4_3a_relu
I0420 21:00:19.262351  7922 net.cpp:91] Creating Layer conv4_3a_relu
I0420 21:00:19.262356  7922 net.cpp:425] conv4_3a_relu <- conv4_3a
I0420 21:00:19.262363  7922 net.cpp:386] conv4_3a_relu -> conv4_3a (in-place)
I0420 21:00:19.262850  7922 net.cpp:141] Setting up conv4_3a_relu
I0420 21:00:19.262863  7922 net.cpp:148] Top shape: 256 64 8 8 (1048576)
I0420 21:00:19.262869  7922 net.cpp:156] Memory required for data: 758123520
I0420 21:00:19.262874  7922 layer_factory.hpp:77] Creating layer conv4_3b
I0420 21:00:19.262889  7922 net.cpp:91] Creating Layer conv4_3b
I0420 21:00:19.262894  7922 net.cpp:425] conv4_3b <- conv4_3a
I0420 21:00:19.262907  7922 net.cpp:399] conv4_3b -> conv4_3b
I0420 21:00:19.266491  7922 net.cpp:141] Setting up conv4_3b
I0420 21:00:19.266510  7922 net.cpp:148] Top shape: 256 64 8 8 (1048576)
I0420 21:00:19.266516  7922 net.cpp:156] Memory required for data: 762317824
I0420 21:00:19.266525  7922 layer_factory.hpp:77] Creating layer bn_conv4_3b
I0420 21:00:19.266537  7922 net.cpp:91] Creating Layer bn_conv4_3b
I0420 21:00:19.266543  7922 net.cpp:425] bn_conv4_3b <- conv4_3b
I0420 21:00:19.266553  7922 net.cpp:386] bn_conv4_3b -> conv4_3b (in-place)
I0420 21:00:19.266782  7922 net.cpp:141] Setting up bn_conv4_3b
I0420 21:00:19.266793  7922 net.cpp:148] Top shape: 256 64 8 8 (1048576)
I0420 21:00:19.266798  7922 net.cpp:156] Memory required for data: 766512128
I0420 21:00:19.266824  7922 layer_factory.hpp:77] Creating layer scale_conv4_3b
I0420 21:00:19.266836  7922 net.cpp:91] Creating Layer scale_conv4_3b
I0420 21:00:19.266842  7922 net.cpp:425] scale_conv4_3b <- conv4_3b
I0420 21:00:19.266849  7922 net.cpp:386] scale_conv4_3b -> conv4_3b (in-place)
I0420 21:00:19.266896  7922 layer_factory.hpp:77] Creating layer scale_conv4_3b
I0420 21:00:19.267030  7922 net.cpp:141] Setting up scale_conv4_3b
I0420 21:00:19.267040  7922 net.cpp:148] Top shape: 256 64 8 8 (1048576)
I0420 21:00:19.267045  7922 net.cpp:156] Memory required for data: 770706432
I0420 21:00:19.267053  7922 layer_factory.hpp:77] Creating layer conv4_3_relu
I0420 21:00:19.267063  7922 net.cpp:91] Creating Layer conv4_3_relu
I0420 21:00:19.267068  7922 net.cpp:425] conv4_3_relu <- conv4_3b
I0420 21:00:19.267081  7922 net.cpp:386] conv4_3_relu -> conv4_3b (in-place)
I0420 21:00:19.267546  7922 net.cpp:141] Setting up conv4_3_relu
I0420 21:00:19.267562  7922 net.cpp:148] Top shape: 256 64 8 8 (1048576)
I0420 21:00:19.267568  7922 net.cpp:156] Memory required for data: 774900736
I0420 21:00:19.267575  7922 layer_factory.hpp:77] Creating layer global_pool
I0420 21:00:19.267586  7922 net.cpp:91] Creating Layer global_pool
I0420 21:00:19.267592  7922 net.cpp:425] global_pool <- conv4_3b
I0420 21:00:19.267601  7922 net.cpp:399] global_pool -> global_pool
I0420 21:00:19.269016  7922 net.cpp:141] Setting up global_pool
I0420 21:00:19.269029  7922 net.cpp:148] Top shape: 256 64 1 1 (16384)
I0420 21:00:19.269035  7922 net.cpp:156] Memory required for data: 774966272
I0420 21:00:19.269040  7922 layer_factory.hpp:77] Creating layer ip
I0420 21:00:19.269050  7922 net.cpp:91] Creating Layer ip
I0420 21:00:19.269057  7922 net.cpp:425] ip <- global_pool
I0420 21:00:19.269068  7922 net.cpp:399] ip -> ip
I0420 21:00:19.269232  7922 net.cpp:141] Setting up ip
I0420 21:00:19.269245  7922 net.cpp:148] Top shape: 256 10 (2560)
I0420 21:00:19.269251  7922 net.cpp:156] Memory required for data: 774976512
I0420 21:00:19.269259  7922 layer_factory.hpp:77] Creating layer ip_ip_0_split
I0420 21:00:19.269268  7922 net.cpp:91] Creating Layer ip_ip_0_split
I0420 21:00:19.269274  7922 net.cpp:425] ip_ip_0_split <- ip
I0420 21:00:19.269281  7922 net.cpp:399] ip_ip_0_split -> ip_ip_0_split_0
I0420 21:00:19.269290  7922 net.cpp:399] ip_ip_0_split -> ip_ip_0_split_1
I0420 21:00:19.269340  7922 net.cpp:141] Setting up ip_ip_0_split
I0420 21:00:19.269350  7922 net.cpp:148] Top shape: 256 10 (2560)
I0420 21:00:19.269356  7922 net.cpp:148] Top shape: 256 10 (2560)
I0420 21:00:19.269361  7922 net.cpp:156] Memory required for data: 774996992
I0420 21:00:19.269366  7922 layer_factory.hpp:77] Creating layer accuracy
I0420 21:00:19.269373  7922 net.cpp:91] Creating Layer accuracy
I0420 21:00:19.269379  7922 net.cpp:425] accuracy <- ip_ip_0_split_0
I0420 21:00:19.269386  7922 net.cpp:425] accuracy <- label_cifar_1_split_0
I0420 21:00:19.269394  7922 net.cpp:399] accuracy -> accuracy
…
I0420 21:00:19.273032  7922 solver.cpp:181] Creating test net (#0) specified by net file: /home/liangjiang/code/residual_network/prototxt/PlainNet-cifar.prototxt
I0420 21:00:19.273162  7922 net.cpp:313] The NetState phase (1) differed from the phase (0) specified by a rule in layer cifar
I0420 21:00:19.273682  7922 net.cpp:49] Initializing net from parameters: 
name: "ResNet-cifar"
state {
  phase: TEST
}
layer {
  name: "cifar"
  type: "Data"
  top: "data"
  top: "label"
  include {
    phase: TEST
  }
  transform_param {
    mean_file: "data/cifar10/mean.binaryproto"
  }
  data_param {
    source: "data/cifar10/cifar10_test_lmdb"
    batch_size: 100
    backend: LMDB
  }
}
layer {
  name: "conv1"
  type: "Convolution"
  bottom: "data"
  top: "conv1"
  param {
    lr_mult: 1
  }
  param {
    lr_mult: 2
  }
  convolution_param {
    num_output: 16
    pad: 1
    kernel_size: 3
    weight_filler {
      type: "res"
      std: 0.001
    }
    bias_filler {
      type: "constant"
    }
  }
}
layer {
  name: "bn_conv1"
  type: "BatchNorm"
  bottom: "conv1"
  top: "conv1"
  param {
    lr_mult: 0
  }
  param {
    lr_mult: 0
  }
  param {
    lr_mult: 0
  }
}
layer {
  name: "scale_conv1"
  type: "Scale"
  bottom: "conv1"
  top: "conv1"
  scale_param {
    bias_term: true
  }
}
layer {
  name: "conv1_relu"
  type: "ReLU"
  bottom: "conv1"
  top: "conv1"
}
layer {
  name: "conv2_1a"
  type: "Convolution"
  bottom: "conv1"
  top: "conv2_1a"
  param {
    lr_mult: 1
  }
  param {
    lr_mult: 2
  }
  convolution_param {
    num_output: 16
    pad: 1
    kernel_size: 3
    stride: 1
    weight_filler {
      type: "res"
      std: 0.001
    }
    bias_filler {
      type: "constant"
      value: 0
    }
  }
}
layer {
  name: "bn_conv2_1a"
  type: "BatchNorm"
  bottom: "conv2_1a"
  top: "conv2_1a"
  param {
    lr_mult: 0
  }
  param {
    lr_mult: 0
  }
  param {
    lr_mult: 0
  }
}
layer {
  name: "scale_conv2_1a"
  type: "Scale"
  bottom: "conv2_1a"
  top: "conv2_1a"
  scale_param {
    bias_term: true
  }
}
layer {
  name: "conv2_1a_relu"
  type: "ReLU"
  bottom: "conv2_1a"
  top: "conv2_1a"
}
layer {
  name: "conv2_1b"
  type: "Convolution"
  bottom: "conv2_1a"
  top: "conv2_1b"
  param {
    lr_mult: 1
  }
  param {
    lr_mult: 2
  }
  convolution_param {
    num_output: 16
    pad: 1
    kernel_size: 3
    stride: 1
    weight_filler {
      type: "res"
      std: 0.001
    }
    bias_filler {
      type: "constant"
      value: 0
    }
  }
}
layer {
  name: "bn_conv2_1b"
  type: "BatchNorm"
  bottom: "conv2_1b"
  top: "conv2_1b"
  param {
    lr_mult: 0
  }
  param {
    lr_mult: 0
  }
  param {
    lr_mult: 0
  }
}
layer {
  name: "scale_conv2_1b"
  type: "Scale"
  bottom: "conv2_1b"
  top: "conv2_1b"
  scale_param {
    bias_term: true
  }
}
layer {
  name: "conv2_1_relu"
  type: "ReLU"
  bottom: "conv2_1b"
  top: "conv2_1b"
}
layer {
  name: "conv2_2a"
  type: "Convolution"
  bottom: "conv2_1b"
  top: "conv2_2a"
  param {
    lr_mult: 1
  }
  param {
    lr_mult: 2
  }
  convolution_param {
    num_output: 16
    pad: 1
    kernel_size: 3
    stride: 1
    weight_filler {
      type: "res"
      std: 0.001
    }
    bias_filler {
      type: "constant"
      value: 0
    }
  }
}
layer {
  name: "bn_conv2_2a"
  type: "BatchNorm"
  bottom: "conv2_2a"
  top: "conv2_2a"
  param {
    lr_mult: 0
  }
  param {
    lr_mult: 0
  }
  param {
    lr_mult: 0
  }
}
layer {
  name: "scale_conv2_2a"
  type: "Scale"
  bottom: "conv2_2a"
  top: "conv2_2a"
  scale_param {
    bias_term: true
  }
}
layer {
  name: "conv2_2a_relu"
  type: "ReLU"
  bottom: "conv2_2a"
  top: "conv2_2a"
}
layer {
  name: "conv2_2b"
  type: "Convolution"
  bottom: "conv2_2a"
  top: "conv2_2b"
  param {
    lr_mult: 1
  }
  param {
    lr_mult: 2
  }
  convolution_param {
    num_output: 16
    pad: 1
    kernel_size: 3
    stride: 1
    weight_filler {
      type: "res"
      std: 0.001
    }
    bias_filler {
      type: "constant"
      value: 0
    }
  }
}
layer {
  name: "bn_conv2_2b"
  type: "BatchNorm"
  bottom: "conv2_2b"
  top: "conv2_2b"
  param {
    lr_mult: 0
  }
  param {
    lr_mult: 0
  }
  param {
    lr_mult: 0
  }
}
layer {
  name: "scale_conv2_2b"
  type: "Scale"
  bottom: "conv2_2b"
  top: "conv2_2b"
  scale_param {
    bias_term: true
  }
}
layer {
  name: "conv2_2_relu"
  type: "ReLU"
  bottom: "conv2_2b"
  top: "conv2_2b"
}
layer {
  name: "conv2_3a"
  type: "Convolution"
  bottom: "conv2_2b"
  top: "conv2_3a"
  param {
    lr_mult: 1
  }
  param {
    lr_mult: 2
  }
  convolution_param {
    num_output: 16
    pad: 1
    kernel_size: 3
    stride: 1
    weight_filler {
      type: "res"
      std: 0.001
    }
    bias_filler {
      type: "constant"
      value: 0
    }
  }
}
layer {
  name: "bn_conv2_3a"
  type: "BatchNorm"
  bottom: "conv2_3a"
  top: "conv2_3a"
  param {
    lr_mult: 0
  }
  param {
    lr_mult: 0
  }
  param {
    lr_mult: 0
  }
}
layer {
  name: "scale_conv2_3a"
  type: "Scale"
  bottom: "conv2_3a"
  top: "conv2_3a"
  scale_param {
    bias_term: true
  }
}
layer {
  name: "conv2_3a_relu"
  type: "ReLU"
  bottom: "conv2_3a"
  top: "conv2_3a"
}
layer {
  name: "conv2_3b"
  type: "Convolution"
  bottom: "conv2_3a"
  top: "conv2_3b"
  param {
    lr_mult: 1
  }
  param {
    lr_mult: 2
  }
  convolution_param {
    num_output: 16
    pad: 1
    kernel_size: 3
    stride: 1
    weight_filler {
      type: "res"
      std: 0.001
    }
    bias_filler {
      type: "constant"
      value: 0
    }
  }
}
layer {
  name: "bn_conv2_3b"
  type: "BatchNorm"
  bottom: "conv2_3b"
  top: "conv2_3b"
  param {
    lr_mult: 0
  }
  param {
    lr_mult: 0
  }
  param {
    lr_mult: 0
  }
}
layer {
  name: "scale_conv2_3b"
  type: "Scale"
  bottom: "conv2_3b"
  top: "conv2_3b"
  scale_param {
    bias_term: true
  }
}
layer {
  name: "conv2_3_relu"
  type: "ReLU"
  bottom: "conv2_3b"
  top: "conv2_3b"
}
layer {
  name: "conv3_1a"
  type: "Convolution"
  bottom: "conv2_3b"
  top: "conv3_1a"
  param {
    lr_mult: 1
  }
  param {
    lr_mult: 2
  }
  convolution_param {
    num_output: 32
    pad: 0
    kernel_size: 1
    stride: 2
    weight_filler {
      type: "res"
      std: 0.001
    }
    bias_filler {
      type: "constant"
      value: 0
    }
  }
}
layer {
  name: "bn_conv3_1a"
  type: "BatchNorm"
  bottom: "conv3_1a"
  top: "conv3_1a"
  param {
    lr_mult: 0
  }
  param {
    lr_mult: 0
  }
  param {
    lr_mult: 0
  }
}
layer {
  name: "scale_conv3_1a"
  type: "Scale"
  bottom: "conv3_1a"
  top: "conv3_1a"
  scale_param {
    bias_term: true
  }
}
layer {
  name: "conv3_1a_relu"
  type: "ReLU"
  bottom: "conv3_1a"
  top: "conv3_1a"
}
layer {
  name: "conv3_1b"
  type: "Convolution"
  bottom: "conv3_1a"
  top: "conv3_1b"
  param {
    lr_mult: 1
  }
  param {
    lr_mult: 2
  }
  convolution_param {
    num_output: 32
    pad: 1
    kernel_size: 3
    stride: 1
    weight_filler {
      type: "res"
      std: 0.001
    }
    bias_filler {
      type: "constant"
      value: 0
    }
  }
}
layer {
  name: "bn_conv3_1b"
  type: "BatchNorm"
  bottom: "conv3_1b"
  top: "conv3_1b"
  param {
    lr_mult: 0
  }
  param {
    lr_mult: 0
  }
  param {
    lr_mult: 0
  }
}
layer {
  name: "scale_conv3_1b"
  type: "Scale"
  bottom: "conv3_1b"
  top: "conv3_1b"
  scale_param {
    bias_term: true
  }
}
layer {
  name: "conv3_1_relu"
  type: "ReLU"
  bottom: "conv3_1b"
  top: "conv3_1b"
}
layer {
  name: "conv3_2a"
  type: "Convolution"
  bottom: "conv3_1b"
  top: "conv3_2a"
  param {
    lr_mult: 1
  }
  param {
    lr_mult: 2
  }
  convolution_param {
    num_output: 32
    pad: 1
    kernel_size: 3
    stride: 1
    weight_filler {
      type: "res"
      std: 0.001
    }
    bias_filler {
      type: "constant"
      value: 0
    }
  }
}
layer {
  name: "bn_conv3_2a"
  type: "BatchNorm"
  bottom: "conv3_2a"
  top: "conv3_2a"
  param {
    lr_mult: 0
  }
  param {
    lr_mult: 0
  }
  param {
    lr_mult: 0
  }
}
layer {
  name: "scale_conv3_2a"
  type: "Scale"
  bottom: "conv3_2a"
  top: "conv3_2a"
  scale_param {
    bias_term: true
  }
}
layer {
  name: "conv3_2a_relu"
  type: "ReLU"
  bottom: "conv3_2a"
  top: "conv3_2a"
}
layer {
  name: "conv3_2b"
  type: "Convolution"
  bottom: "conv3_2a"
  top: "conv3_2b"
  param {
    lr_mult: 1
  }
  param {
    lr_mult: 2
  }
  convolution_param {
    num_output: 32
    pad: 1
    kernel_size: 3
    stride: 1
    weight_filler {
      type: "res"
      std: 0.001
    }
    bias_filler {
      type: "constant"
      value: 0
    }
  }
}
layer {
  name: "bn_conv3_2b"
  type: "BatchNorm"
  bottom: "conv3_2b"
  top: "conv3_2b"
  param {
    lr_mult: 0
  }
  param {
    lr_mult: 0
  }
  param {
    lr_mult: 0
  }
}
layer {
  name: "scale_conv3_2b"
  type: "Scale"
  bottom: "conv3_2b"
  top: "conv3_2b"
  scale_param {
    bias_term: true
  }
}
layer {
  name: "conv3_2_relu"
  type: "ReLU"
  bottom: "conv3_2b"
  top: "conv3_2b"
}
layer {
  name: "conv3_3a"
  type: "Convolution"
  bottom: "conv3_2b"
  top: "conv3_3a"
  param {
    lr_mult: 1
  }
  param {
    lr_mult: 2
  }
  convolution_param {
    num_output: 32
    pad: 1
    kernel_size: 3
    stride: 1
    weight_filler {
      type: "res"
      std: 0.001
    }
    bias_filler {
      type: "constant"
      value: 0
    }
  }
}
layer {
  name: "bn_conv3_3a"
  type: "BatchNorm"
  bottom: "conv3_3a"
  top: "conv3_3a"
  param {
    lr_mult: 0
  }
  param {
    lr_mult: 0
  }
  param {
    lr_mult: 0
  }
}
layer {
  name: "scale_conv3_3a"
  type: "Scale"
  bottom: "conv3_3a"
  top: "conv3_3a"
  scale_param {
    bias_term: true
  }
}
layer {
  name: "conv3_3a_relu"
  type: "ReLU"
  bottom: "conv3_3a"
  top: "conv3_3a"
}
layer {
  name: "conv3_3b"
  type: "Convolution"
  bottom: "conv3_3a"
  top: "conv3_3b"
  param {
    lr_mult: 1
  }
  param {
    lr_mult: 2
  }
  convolution_param {
    num_output: 32
    pad: 1
    kernel_size: 3
    stride: 1
    weight_filler {
      type: "res"
      std: 0.001
    }
    bias_filler {
      type: "constant"
      value: 0
    }
  }
}
layer {
  name: "bn_conv3_3b"
  type: "BatchNorm"
  bottom: "conv3_3b"
  top: "conv3_3b"
  param {
    lr_mult: 0
  }
  param {
    lr_mult: 0
  }
  param {
    lr_mult: 0
  }
}
layer {
  name: "scale_conv3_3b"
  type: "Scale"
  bottom: "conv3_3b"
  top: "conv3_3b"
  scale_param {
    bias_term: true
  }
}
layer {
  name: "conv3_3_relu"
  type: "ReLU"
  bottom: "conv3_3b"
  top: "conv3_3b"
}
layer {
  name: "conv4_1a"
  type: "Convolution"
  bottom: "conv3_3b"
  top: "conv4_1a"
  param {
    lr_mult: 1
  }
  param {
    lr_mult: 2
  }
  convolution_param {
    num_output: 64
    pad: 0
    kernel_size: 1
    stride: 2
    weight_filler {
      type: "res"
      std: 0.001
    }
    bias_filler {
      type: "constant"
      value: 0
    }
  }
}
layer {
  name: "bn_conv4_1a"
  type: "BatchNorm"
  bottom: "conv4_1a"
  top: "conv4_1a"
  param {
    lr_mult: 0
  }
  param {
    lr_mult: 0
  }
  param {
    lr_mult: 0
  }
}
layer {
  name: "scale_conv4_1a"
  type: "Scale"
  bottom: "conv4_1a"
  top: "conv4_1a"
  scale_param {
    bias_term: true
  }
}
layer {
  name: "conv4_1a_relu"
  type: "ReLU"
  bottom: "conv4_1a"
  top: "conv4_1a"
}
layer {
  name: "conv4_1b"
  type: "Convolution"
  bottom: "conv4_1a"
  top: "conv4_1b"
  param {
    lr_mult: 1
  }
  param {
    lr_mult: 2
  }
  convolution_param {
    num_output: 64
    pad: 1
    kernel_size: 3
    stride: 1
    weight_filler {
      type: "res"
      std: 0.001
    }
    bias_filler {
      type: "constant"
      value: 0
    }
  }
}
layer {
  name: "bn_conv4_1b"
  type: "BatchNorm"
  bottom: "conv4_1b"
  top: "conv4_1b"
  param {
    lr_mult: 0
  }
  param {
    lr_mult: 0
  }
  param {
    lr_mult: 0
  }
}
layer {
  name: "scale_conv4_1b"
  type: "Scale"
  bottom: "conv4_1b"
  top: "conv4_1b"
  scale_param {
    bias_term: true
  }
}
layer {
  name: "conv4_1_relu"
  type: "ReLU"
  bottom: "conv4_1b"
  top: "conv4_1b"
}
layer {
  name: "conv4_2a"
  type: "Convolution"
  bottom: "conv4_1b"
  top: "conv4_2a"
  param {
    lr_mult: 1
  }
  param {
    lr_mult: 2
  }
  convolution_param {
    num_output: 64
    pad: 1
    kernel_size: 3
    stride: 1
    weight_filler {
      type: "res"
      std: 0.001
    }
    bias_filler {
      type: "constant"
      value: 0
    }
  }
}
layer {
  name: "bn_conv4_2a"
  type: "BatchNorm"
  bottom: "conv4_2a"
  top: "conv4_2a"
  param {
    lr_mult: 0
  }
  param {
    lr_mult: 0
  }
  param {
    lr_mult: 0
  }
}
layer {
  name: "scale_conv4_2a"
  type: "Scale"
  bottom: "conv4_2a"
  top: "conv4_2a"
  scale_param {
    bias_term: true
  }
}
layer {
  name: "conv4_2a_relu"
  type: "ReLU"
  bottom: "conv4_2a"
  top: "conv4_2a"
}
layer {
  name: "conv4_2b"
  type: "Convolution"
  bottom: "conv4_2a"
  top: "conv4_2b"
  param {
    lr_mult: 1
  }
  param {
    lr_mult: 2
  }
  convolution_param {
    num_output: 64
    pad: 1
    kernel_size: 3
    stride: 1
    weight_filler {
      type: "res"
      std: 0.001
    }
    bias_filler {
      type: "constant"
      value: 0
    }
  }
}
layer {
  name: "bn_conv4_2b"
  type: "BatchNorm"
  bottom: "conv4_2b"
  top: "conv4_2b"
  param {
    lr_mult: 0
  }
  param {
    lr_mult: 0
  }
  param {
    lr_mult: 0
  }
}
layer {
  name: "scale_conv4_2b"
  type: "Scale"
  bottom: "conv4_2b"
  top: "conv4_2b"
  scale_param {
    bias_term: true
  }
}
layer {
  name: "conv4_2_relu"
  type: "ReLU"
  bottom: "conv4_2b"
  top: "conv4_2b"
}
layer {
  name: "conv4_3a"
  type: "Convolution"
  bottom: "conv4_2b"
  top: "conv4_3a"
  param {
    lr_mult: 1
  }
  param {
    lr_mult: 2
  }
  convolution_param {
    num_output: 64
    pad: 1
    kernel_size: 3
    stride: 1
    weight_filler {
      type: "res"
      std: 0.001
    }
    bias_filler {
      type: "constant"
      value: 0
    }
  }
}
layer {
  name: "bn_conv4_3a"
  type: "BatchNorm"
  bottom: "conv4_3a"
  top: "conv4_3a"
  param {
    lr_mult: 0
  }
  param {
    lr_mult: 0
  }
  param {
    lr_mult: 0
  }
}
layer {
  name: "scale_conv4_3a"
  type: "Scale"
  bottom: "conv4_3a"
  top: "conv4_3a"
  scale_param {
    bias_term: true
  }
}
layer {
  name: "conv4_3a_relu"
  type: "ReLU"
  bottom: "conv4_3a"
  top: "conv4_3a"
}
layer {
  name: "conv4_3b"
  type: "Convolution"
  bottom: "conv4_3a"
  top: "conv4_3b"
  param {
    lr_mult: 1
  }
  param {
    lr_mult: 2
  }
  convolution_param {
    num_output: 64
    pad: 1
    kernel_size: 3
    stride: 1
    weight_filler {
      type: "res"
      std: 0.001
    }
    bias_filler {
      type: "constant"
      value: 0
    }
  }
}
layer {
  name: "bn_conv4_3b"
  type: "BatchNorm"
  bottom: "conv4_3b"
  top: "conv4_3b"
  param {
    lr_mult: 0
  }
  param {
    lr_mult: 0
  }
  param {
    lr_mult: 0
  }
}
layer {
  name: "scale_conv4_3b"
  type: "Scale"
  bottom: "conv4_3b"
  top: "conv4_3b"
  scale_param {
    bias_term: true
  }
}
layer {
  name: "conv4_3_relu"
  type: "ReLU"
  bottom: "conv4_3b"
  top: "conv4_3b"
}
layer {
  name: "global_pool"
  type: "Pooling"
  bottom: "conv4_3b"
  top: "global_pool"
  pooling_param {
    pool: AVE
    kernel_size: 8
    stride: 8
  }
}
layer {
  name: "ip"
  type: "InnerProduct"
  bottom: "global_pool"
  top: "ip"
  inner_product_param {
    num_output: 10
  }
}
layer {
  name: "accuracy"
  type: "Accuracy"
  bottom: "ip"
  bottom: "label"
  top: "accuracy"
}
layer {
  name: "loss"
  type: "SoftmaxWithLoss"
  bottom: "ip"
  bottom: "label"
  top: "loss"
}
I0420 21:00:19.273995  7922 layer_factory.hpp:77] Creating layer cifar
I0420 21:00:19.274142  7922 net.cpp:91] Creating Layer cifar
I0420 21:00:19.274155  7922 net.cpp:399] cifar -> data
I0420 21:00:19.274169  7922 net.cpp:399] cifar -> label
I0420 21:00:19.274181  7922 data_transformer.cpp:25] Loading mean file from: data/cifar10/mean.binaryproto
I0420 21:00:19.275604  8005 db_lmdb.cpp:38] Opened lmdb data/cifar10/cifar10_test_lmdb
I0420 21:00:19.275820  7922 data_layer.cpp:41] output data size: 100,3,32,32
I0420 21:00:19.281683  7922 net.cpp:141] Setting up cifar
I0420 21:00:19.281704  7922 net.cpp:148] Top shape: 100 3 32 32 (307200)
I0420 21:00:19.281713  7922 net.cpp:148] Top shape: 100 (100)
I0420 21:00:19.281718  7922 net.cpp:156] Memory required for data: 1229200
I0420 21:00:19.281724  7922 layer_factory.hpp:77] Creating layer label_cifar_1_split
I0420 21:00:19.281736  7922 net.cpp:91] Creating Layer label_cifar_1_split
I0420 21:00:19.281743  7922 net.cpp:425] label_cifar_1_split <- label
I0420 21:00:19.281754  7922 net.cpp:399] label_cifar_1_split -> label_cifar_1_split_0
I0420 21:00:19.281765  7922 net.cpp:399] label_cifar_1_split -> label_cifar_1_split_1
I0420 21:00:19.281847  7922 net.cpp:141] Setting up label_cifar_1_split
I0420 21:00:19.281860  7922 net.cpp:148] Top shape: 100 (100)
I0420 21:00:19.281867  7922 net.cpp:148] Top shape: 100 (100)
I0420 21:00:19.281872  7922 net.cpp:156] Memory required for data: 1230000
I0420 21:00:19.281877  7922 layer_factory.hpp:77] Creating layer conv1
I0420 21:00:19.281893  7922 net.cpp:91] Creating Layer conv1
I0420 21:00:19.281899  7922 net.cpp:425] conv1 <- data
I0420 21:00:19.281908  7922 net.cpp:399] conv1 -> conv1
I0420 21:00:19.285832  7922 net.cpp:141] Setting up conv1
I0420 21:00:19.285859  7922 net.cpp:148] Top shape: 100 16 32 32 (1638400)
I0420 21:00:19.285866  7922 net.cpp:156] Memory required for data: 7783600
I0420 21:00:19.285881  7922 layer_factory.hpp:77] Creating layer bn_conv1
I0420 21:00:19.285894  7922 net.cpp:91] Creating Layer bn_conv1
I0420 21:00:19.285902  7922 net.cpp:425] bn_conv1 <- conv1
I0420 21:00:19.285909  7922 net.cpp:386] bn_conv1 -> conv1 (in-place)
I0420 21:00:19.286159  7922 net.cpp:141] Setting up bn_conv1
I0420 21:00:19.286170  7922 net.cpp:148] Top shape: 100 16 32 32 (1638400)
I0420 21:00:19.286175  7922 net.cpp:156] Memory required for data: 14337200
I0420 21:00:19.286191  7922 layer_factory.hpp:77] Creating layer scale_conv1
I0420 21:00:19.286206  7922 net.cpp:91] Creating Layer scale_conv1
I0420 21:00:19.286211  7922 net.cpp:425] scale_conv1 <- conv1
I0420 21:00:19.286218  7922 net.cpp:386] scale_conv1 -> conv1 (in-place)
I0420 21:00:19.286273  7922 layer_factory.hpp:77] Creating layer scale_conv1
I0420 21:00:19.286417  7922 net.cpp:141] Setting up scale_conv1
I0420 21:00:19.286427  7922 net.cpp:148] Top shape: 100 16 32 32 (1638400)
I0420 21:00:19.286432  7922 net.cpp:156] Memory required for data: 20890800
I0420 21:00:19.286442  7922 layer_factory.hpp:77] Creating layer conv1_relu
I0420 21:00:19.286456  7922 net.cpp:91] Creating Layer conv1_relu
I0420 21:00:19.286461  7922 net.cpp:425] conv1_relu <- conv1
I0420 21:00:19.286470  7922 net.cpp:386] conv1_relu -> conv1 (in-place)
I0420 21:00:19.286701  7922 net.cpp:141] Setting up conv1_relu
I0420 21:00:19.286718  7922 net.cpp:148] Top shape: 100 16 32 32 (1638400)
I0420 21:00:19.286736  7922 net.cpp:156] Memory required for data: 27444400
I0420 21:00:19.286741  7922 layer_factory.hpp:77] Creating layer conv2_1a
I0420 21:00:19.286756  7922 net.cpp:91] Creating Layer conv2_1a
I0420 21:00:19.286770  7922 net.cpp:425] conv2_1a <- conv1
I0420 21:00:19.286782  7922 net.cpp:399] conv2_1a -> conv2_1a
I0420 21:00:19.291752  7922 net.cpp:141] Setting up conv2_1a
I0420 21:00:19.291781  7922 net.cpp:148] Top shape: 100 16 32 32 (1638400)
I0420 21:00:19.291787  7922 net.cpp:156] Memory required for data: 33998000
I0420 21:00:19.291802  7922 layer_factory.hpp:77] Creating layer bn_conv2_1a
I0420 21:00:19.291815  7922 net.cpp:91] Creating Layer bn_conv2_1a
I0420 21:00:19.291822  7922 net.cpp:425] bn_conv2_1a <- conv2_1a
I0420 21:00:19.291831  7922 net.cpp:386] bn_conv2_1a -> conv2_1a (in-place)
I0420 21:00:19.292083  7922 net.cpp:141] Setting up bn_conv2_1a
I0420 21:00:19.292094  7922 net.cpp:148] Top shape: 100 16 32 32 (1638400)
I0420 21:00:19.292104  7922 net.cpp:156] Memory required for data: 40551600
I0420 21:00:19.292114  7922 layer_factory.hpp:77] Creating layer scale_conv2_1a
I0420 21:00:19.292127  7922 net.cpp:91] Creating Layer scale_conv2_1a
I0420 21:00:19.292134  7922 net.cpp:425] scale_conv2_1a <- conv2_1a
I0420 21:00:19.292141  7922 net.cpp:386] scale_conv2_1a -> conv2_1a (in-place)
I0420 21:00:19.292196  7922 layer_factory.hpp:77] Creating layer scale_conv2_1a
I0420 21:00:19.292338  7922 net.cpp:141] Setting up scale_conv2_1a
I0420 21:00:19.292348  7922 net.cpp:148] Top shape: 100 16 32 32 (1638400)
I0420 21:00:19.292353  7922 net.cpp:156] Memory required for data: 47105200
I0420 21:00:19.292361  7922 layer_factory.hpp:77] Creating layer conv2_1a_relu
I0420 21:00:19.292372  7922 net.cpp:91] Creating Layer conv2_1a_relu
I0420 21:00:19.292378  7922 net.cpp:425] conv2_1a_relu <- conv2_1a
I0420 21:00:19.292385  7922 net.cpp:386] conv2_1a_relu -> conv2_1a (in-place)
I0420 21:00:19.292608  7922 net.cpp:141] Setting up conv2_1a_relu
I0420 21:00:19.292620  7922 net.cpp:148] Top shape: 100 16 32 32 (1638400)
I0420 21:00:19.292630  7922 net.cpp:156] Memory required for data: 53658800
I0420 21:00:19.292636  7922 layer_factory.hpp:77] Creating layer conv2_1b
I0420 21:00:19.292652  7922 net.cpp:91] Creating Layer conv2_1b
I0420 21:00:19.292659  7922 net.cpp:425] conv2_1b <- conv2_1a
I0420 21:00:19.292667  7922 net.cpp:399] conv2_1b -> conv2_1b
I0420 21:00:19.296787  7922 net.cpp:141] Setting up conv2_1b
I0420 21:00:19.296807  7922 net.cpp:148] Top shape: 100 16 32 32 (1638400)
I0420 21:00:19.296813  7922 net.cpp:156] Memory required for data: 60212400
I0420 21:00:19.296823  7922 layer_factory.hpp:77] Creating layer bn_conv2_1b
I0420 21:00:19.296834  7922 net.cpp:91] Creating Layer bn_conv2_1b
I0420 21:00:19.296841  7922 net.cpp:425] bn_conv2_1b <- conv2_1b
I0420 21:00:19.296850  7922 net.cpp:386] bn_conv2_1b -> conv2_1b (in-place)
I0420 21:00:19.298226  7922 net.cpp:141] Setting up bn_conv2_1b
I0420 21:00:19.298239  7922 net.cpp:148] Top shape: 100 16 32 32 (1638400)
I0420 21:00:19.298248  7922 net.cpp:156] Memory required for data: 66766000
I0420 21:00:19.298269  7922 layer_factory.hpp:77] Creating layer scale_conv2_1b
I0420 21:00:19.298280  7922 net.cpp:91] Creating Layer scale_conv2_1b
I0420 21:00:19.298285  7922 net.cpp:425] scale_conv2_1b <- conv2_1b
I0420 21:00:19.298295  7922 net.cpp:386] scale_conv2_1b -> conv2_1b (in-place)
I0420 21:00:19.298351  7922 layer_factory.hpp:77] Creating layer scale_conv2_1b
I0420 21:00:19.298496  7922 net.cpp:141] Setting up scale_conv2_1b
I0420 21:00:19.298507  7922 net.cpp:148] Top shape: 100 16 32 32 (1638400)
I0420 21:00:19.298512  7922 net.cpp:156] Memory required for data: 73319600
I0420 21:00:19.298521  7922 layer_factory.hpp:77] Creating layer conv2_1_relu
I0420 21:00:19.298532  7922 net.cpp:91] Creating Layer conv2_1_relu
I0420 21:00:19.298537  7922 net.cpp:425] conv2_1_relu <- conv2_1b
I0420 21:00:19.298550  7922 net.cpp:386] conv2_1_relu -> conv2_1b (in-place)
I0420 21:00:19.298893  7922 net.cpp:141] Setting up conv2_1_relu
I0420 21:00:19.298910  7922 net.cpp:148] Top shape: 100 16 32 32 (1638400)
I0420 21:00:19.298916  7922 net.cpp:156] Memory required for data: 79873200
I0420 21:00:19.298923  7922 layer_factory.hpp:77] Creating layer conv2_2a
I0420 21:00:19.298939  7922 net.cpp:91] Creating Layer conv2_2a
I0420 21:00:19.298946  7922 net.cpp:425] conv2_2a <- conv2_1b
I0420 21:00:19.298955  7922 net.cpp:399] conv2_2a -> conv2_2a
I0420 21:00:19.301878  7922 net.cpp:141] Setting up conv2_2a
I0420 21:00:19.301898  7922 net.cpp:148] Top shape: 100 16 32 32 (1638400)
I0420 21:00:19.301903  7922 net.cpp:156] Memory required for data: 86426800
I0420 21:00:19.301913  7922 layer_factory.hpp:77] Creating layer bn_conv2_2a
I0420 21:00:19.301926  7922 net.cpp:91] Creating Layer bn_conv2_2a
I0420 21:00:19.301933  7922 net.cpp:425] bn_conv2_2a <- conv2_2a
I0420 21:00:19.301940  7922 net.cpp:386] bn_conv2_2a -> conv2_2a (in-place)
I0420 21:00:19.302186  7922 net.cpp:141] Setting up bn_conv2_2a
I0420 21:00:19.302196  7922 net.cpp:148] Top shape: 100 16 32 32 (1638400)
I0420 21:00:19.302201  7922 net.cpp:156] Memory required for data: 92980400
I0420 21:00:19.302211  7922 layer_factory.hpp:77] Creating layer scale_conv2_2a
I0420 21:00:19.302222  7922 net.cpp:91] Creating Layer scale_conv2_2a
I0420 21:00:19.302228  7922 net.cpp:425] scale_conv2_2a <- conv2_2a
I0420 21:00:19.302235  7922 net.cpp:386] scale_conv2_2a -> conv2_2a (in-place)
I0420 21:00:19.302289  7922 layer_factory.hpp:77] Creating layer scale_conv2_2a
I0420 21:00:19.302433  7922 net.cpp:141] Setting up scale_conv2_2a
I0420 21:00:19.302443  7922 net.cpp:148] Top shape: 100 16 32 32 (1638400)
I0420 21:00:19.302448  7922 net.cpp:156] Memory required for data: 99534000
I0420 21:00:19.302458  7922 layer_factory.hpp:77] Creating layer conv2_2a_relu
I0420 21:00:19.302465  7922 net.cpp:91] Creating Layer conv2_2a_relu
I0420 21:00:19.302472  7922 net.cpp:425] conv2_2a_relu <- conv2_2a
I0420 21:00:19.302479  7922 net.cpp:386] conv2_2a_relu -> conv2_2a (in-place)
I0420 21:00:19.302908  7922 net.cpp:141] Setting up conv2_2a_relu
I0420 21:00:19.302922  7922 net.cpp:148] Top shape: 100 16 32 32 (1638400)
I0420 21:00:19.302927  7922 net.cpp:156] Memory required for data: 106087600
I0420 21:00:19.302932  7922 layer_factory.hpp:77] Creating layer conv2_2b
I0420 21:00:19.302947  7922 net.cpp:91] Creating Layer conv2_2b
I0420 21:00:19.302953  7922 net.cpp:425] conv2_2b <- conv2_2a
I0420 21:00:19.302961  7922 net.cpp:399] conv2_2b -> conv2_2b
I0420 21:00:19.306610  7922 net.cpp:141] Setting up conv2_2b
I0420 21:00:19.306629  7922 net.cpp:148] Top shape: 100 16 32 32 (1638400)
I0420 21:00:19.306637  7922 net.cpp:156] Memory required for data: 112641200
I0420 21:00:19.306646  7922 layer_factory.hpp:77] Creating layer bn_conv2_2b
I0420 21:00:19.306656  7922 net.cpp:91] Creating Layer bn_conv2_2b
I0420 21:00:19.306663  7922 net.cpp:425] bn_conv2_2b <- conv2_2b
I0420 21:00:19.306673  7922 net.cpp:386] bn_conv2_2b -> conv2_2b (in-place)
I0420 21:00:19.306917  7922 net.cpp:141] Setting up bn_conv2_2b
I0420 21:00:19.306927  7922 net.cpp:148] Top shape: 100 16 32 32 (1638400)
I0420 21:00:19.306932  7922 net.cpp:156] Memory required for data: 119194800
I0420 21:00:19.306947  7922 layer_factory.hpp:77] Creating layer scale_conv2_2b
I0420 21:00:19.306958  7922 net.cpp:91] Creating Layer scale_conv2_2b
I0420 21:00:19.306964  7922 net.cpp:425] scale_conv2_2b <- conv2_2b
I0420 21:00:19.306972  7922 net.cpp:386] scale_conv2_2b -> conv2_2b (in-place)
I0420 21:00:19.307024  7922 layer_factory.hpp:77] Creating layer scale_conv2_2b
I0420 21:00:19.307166  7922 net.cpp:141] Setting up scale_conv2_2b
I0420 21:00:19.307176  7922 net.cpp:148] Top shape: 100 16 32 32 (1638400)
I0420 21:00:19.307181  7922 net.cpp:156] Memory required for data: 125748400
I0420 21:00:19.307189  7922 layer_factory.hpp:77] Creating layer conv2_2_relu
I0420 21:00:19.307198  7922 net.cpp:91] Creating Layer conv2_2_relu
I0420 21:00:19.307209  7922 net.cpp:425] conv2_2_relu <- conv2_2b
I0420 21:00:19.307217  7922 net.cpp:386] conv2_2_relu -> conv2_2b (in-place)
I0420 21:00:19.307668  7922 net.cpp:141] Setting up conv2_2_relu
I0420 21:00:19.307682  7922 net.cpp:148] Top shape: 100 16 32 32 (1638400)
I0420 21:00:19.307687  7922 net.cpp:156] Memory required for data: 132302000
I0420 21:00:19.307693  7922 layer_factory.hpp:77] Creating layer conv2_3a
I0420 21:00:19.307706  7922 net.cpp:91] Creating Layer conv2_3a
I0420 21:00:19.307713  7922 net.cpp:425] conv2_3a <- conv2_2b
I0420 21:00:19.307723  7922 net.cpp:399] conv2_3a -> conv2_3a
I0420 21:00:19.311352  7922 net.cpp:141] Setting up conv2_3a
I0420 21:00:19.311370  7922 net.cpp:148] Top shape: 100 16 32 32 (1638400)
I0420 21:00:19.311377  7922 net.cpp:156] Memory required for data: 138855600
I0420 21:00:19.311386  7922 layer_factory.hpp:77] Creating layer bn_conv2_3a
I0420 21:00:19.311396  7922 net.cpp:91] Creating Layer bn_conv2_3a
I0420 21:00:19.311403  7922 net.cpp:425] bn_conv2_3a <- conv2_3a
I0420 21:00:19.311413  7922 net.cpp:386] bn_conv2_3a -> conv2_3a (in-place)
I0420 21:00:19.311660  7922 net.cpp:141] Setting up bn_conv2_3a
I0420 21:00:19.311671  7922 net.cpp:148] Top shape: 100 16 32 32 (1638400)
I0420 21:00:19.311676  7922 net.cpp:156] Memory required for data: 145409200
I0420 21:00:19.311686  7922 layer_factory.hpp:77] Creating layer scale_conv2_3a
I0420 21:00:19.311694  7922 net.cpp:91] Creating Layer scale_conv2_3a
I0420 21:00:19.311699  7922 net.cpp:425] scale_conv2_3a <- conv2_3a
I0420 21:00:19.311707  7922 net.cpp:386] scale_conv2_3a -> conv2_3a (in-place)
I0420 21:00:19.311763  7922 layer_factory.hpp:77] Creating layer scale_conv2_3a
I0420 21:00:19.311904  7922 net.cpp:141] Setting up scale_conv2_3a
I0420 21:00:19.311914  7922 net.cpp:148] Top shape: 100 16 32 32 (1638400)
I0420 21:00:19.311919  7922 net.cpp:156] Memory required for data: 151962800
I0420 21:00:19.311928  7922 layer_factory.hpp:77] Creating layer conv2_3a_relu
I0420 21:00:19.311938  7922 net.cpp:91] Creating Layer conv2_3a_relu
I0420 21:00:19.311944  7922 net.cpp:425] conv2_3a_relu <- conv2_3a
I0420 21:00:19.311950  7922 net.cpp:386] conv2_3a_relu -> conv2_3a (in-place)
I0420 21:00:19.312415  7922 net.cpp:141] Setting up conv2_3a_relu
I0420 21:00:19.312432  7922 net.cpp:148] Top shape: 100 16 32 32 (1638400)
I0420 21:00:19.312438  7922 net.cpp:156] Memory required for data: 158516400
I0420 21:00:19.312443  7922 layer_factory.hpp:77] Creating layer conv2_3b
I0420 21:00:19.312458  7922 net.cpp:91] Creating Layer conv2_3b
I0420 21:00:19.312464  7922 net.cpp:425] conv2_3b <- conv2_3a
I0420 21:00:19.312476  7922 net.cpp:399] conv2_3b -> conv2_3b
I0420 21:00:19.316071  7922 net.cpp:141] Setting up conv2_3b
I0420 21:00:19.316090  7922 net.cpp:148] Top shape: 100 16 32 32 (1638400)
I0420 21:00:19.316097  7922 net.cpp:156] Memory required for data: 165070000
I0420 21:00:19.316105  7922 layer_factory.hpp:77] Creating layer bn_conv2_3b
I0420 21:00:19.316118  7922 net.cpp:91] Creating Layer bn_conv2_3b
I0420 21:00:19.316123  7922 net.cpp:425] bn_conv2_3b <- conv2_3b
I0420 21:00:19.316133  7922 net.cpp:386] bn_conv2_3b -> conv2_3b (in-place)
I0420 21:00:19.316381  7922 net.cpp:141] Setting up bn_conv2_3b
I0420 21:00:19.316391  7922 net.cpp:148] Top shape: 100 16 32 32 (1638400)
I0420 21:00:19.316396  7922 net.cpp:156] Memory required for data: 171623600
I0420 21:00:19.316406  7922 layer_factory.hpp:77] Creating layer scale_conv2_3b
I0420 21:00:19.316417  7922 net.cpp:91] Creating Layer scale_conv2_3b
I0420 21:00:19.316423  7922 net.cpp:425] scale_conv2_3b <- conv2_3b
I0420 21:00:19.316431  7922 net.cpp:386] scale_conv2_3b -> conv2_3b (in-place)
I0420 21:00:19.316484  7922 layer_factory.hpp:77] Creating layer scale_conv2_3b
I0420 21:00:19.316627  7922 net.cpp:141] Setting up scale_conv2_3b
I0420 21:00:19.316637  7922 net.cpp:148] Top shape: 100 16 32 32 (1638400)
I0420 21:00:19.316642  7922 net.cpp:156] Memory required for data: 178177200
I0420 21:00:19.316651  7922 layer_factory.hpp:77] Creating layer conv2_3_relu
I0420 21:00:19.316664  7922 net.cpp:91] Creating Layer conv2_3_relu
I0420 21:00:19.316669  7922 net.cpp:425] conv2_3_relu <- conv2_3b
I0420 21:00:19.316679  7922 net.cpp:386] conv2_3_relu -> conv2_3b (in-place)
I0420 21:00:19.317140  7922 net.cpp:141] Setting up conv2_3_relu
I0420 21:00:19.317158  7922 net.cpp:148] Top shape: 100 16 32 32 (1638400)
I0420 21:00:19.317164  7922 net.cpp:156] Memory required for data: 184730800
I0420 21:00:19.317169  7922 layer_factory.hpp:77] Creating layer conv3_1a
I0420 21:00:19.317185  7922 net.cpp:91] Creating Layer conv3_1a
I0420 21:00:19.317191  7922 net.cpp:425] conv3_1a <- conv2_3b
I0420 21:00:19.317200  7922 net.cpp:399] conv3_1a -> conv3_1a
I0420 21:00:19.320798  7922 net.cpp:141] Setting up conv3_1a
I0420 21:00:19.320816  7922 net.cpp:148] Top shape: 100 32 16 16 (819200)
I0420 21:00:19.320822  7922 net.cpp:156] Memory required for data: 188007600
I0420 21:00:19.320832  7922 layer_factory.hpp:77] Creating layer bn_conv3_1a
I0420 21:00:19.320843  7922 net.cpp:91] Creating Layer bn_conv3_1a
I0420 21:00:19.320849  7922 net.cpp:425] bn_conv3_1a <- conv3_1a
I0420 21:00:19.320858  7922 net.cpp:386] bn_conv3_1a -> conv3_1a (in-place)
I0420 21:00:19.321102  7922 net.cpp:141] Setting up bn_conv3_1a
I0420 21:00:19.321118  7922 net.cpp:148] Top shape: 100 32 16 16 (819200)
I0420 21:00:19.321125  7922 net.cpp:156] Memory required for data: 191284400
I0420 21:00:19.321135  7922 layer_factory.hpp:77] Creating layer scale_conv3_1a
I0420 21:00:19.321148  7922 net.cpp:91] Creating Layer scale_conv3_1a
I0420 21:00:19.321154  7922 net.cpp:425] scale_conv3_1a <- conv3_1a
I0420 21:00:19.321162  7922 net.cpp:386] scale_conv3_1a -> conv3_1a (in-place)
I0420 21:00:19.321216  7922 layer_factory.hpp:77] Creating layer scale_conv3_1a
I0420 21:00:19.321363  7922 net.cpp:141] Setting up scale_conv3_1a
I0420 21:00:19.321373  7922 net.cpp:148] Top shape: 100 32 16 16 (819200)
I0420 21:00:19.321378  7922 net.cpp:156] Memory required for data: 194561200
I0420 21:00:19.321388  7922 layer_factory.hpp:77] Creating layer conv3_1a_relu
I0420 21:00:19.321395  7922 net.cpp:91] Creating Layer conv3_1a_relu
I0420 21:00:19.321400  7922 net.cpp:425] conv3_1a_relu <- conv3_1a
I0420 21:00:19.321409  7922 net.cpp:386] conv3_1a_relu -> conv3_1a (in-place)
I0420 21:00:19.321835  7922 net.cpp:141] Setting up conv3_1a_relu
I0420 21:00:19.321848  7922 net.cpp:148] Top shape: 100 32 16 16 (819200)
I0420 21:00:19.321853  7922 net.cpp:156] Memory required for data: 197838000
I0420 21:00:19.321859  7922 layer_factory.hpp:77] Creating layer conv3_1b
I0420 21:00:19.321873  7922 net.cpp:91] Creating Layer conv3_1b
I0420 21:00:19.321879  7922 net.cpp:425] conv3_1b <- conv3_1a
I0420 21:00:19.321889  7922 net.cpp:399] conv3_1b -> conv3_1b
I0420 21:00:19.326194  7922 net.cpp:141] Setting up conv3_1b
I0420 21:00:19.326212  7922 net.cpp:148] Top shape: 100 32 16 16 (819200)
I0420 21:00:19.326218  7922 net.cpp:156] Memory required for data: 201114800
I0420 21:00:19.326227  7922 layer_factory.hpp:77] Creating layer bn_conv3_1b
I0420 21:00:19.326239  7922 net.cpp:91] Creating Layer bn_conv3_1b
I0420 21:00:19.326246  7922 net.cpp:425] bn_conv3_1b <- conv3_1b
I0420 21:00:19.326253  7922 net.cpp:386] bn_conv3_1b -> conv3_1b (in-place)
I0420 21:00:19.326499  7922 net.cpp:141] Setting up bn_conv3_1b
I0420 21:00:19.326509  7922 net.cpp:148] Top shape: 100 32 16 16 (819200)
I0420 21:00:19.326514  7922 net.cpp:156] Memory required for data: 204391600
I0420 21:00:19.326524  7922 layer_factory.hpp:77] Creating layer scale_conv3_1b
I0420 21:00:19.326534  7922 net.cpp:91] Creating Layer scale_conv3_1b
I0420 21:00:19.326539  7922 net.cpp:425] scale_conv3_1b <- conv3_1b
I0420 21:00:19.326546  7922 net.cpp:386] scale_conv3_1b -> conv3_1b (in-place)
I0420 21:00:19.326601  7922 layer_factory.hpp:77] Creating layer scale_conv3_1b
I0420 21:00:19.326748  7922 net.cpp:141] Setting up scale_conv3_1b
I0420 21:00:19.326758  7922 net.cpp:148] Top shape: 100 32 16 16 (819200)
I0420 21:00:19.326763  7922 net.cpp:156] Memory required for data: 207668400
I0420 21:00:19.326772  7922 layer_factory.hpp:77] Creating layer conv3_1_relu
I0420 21:00:19.326786  7922 net.cpp:91] Creating Layer conv3_1_relu
I0420 21:00:19.326792  7922 net.cpp:425] conv3_1_relu <- conv3_1b
I0420 21:00:19.326802  7922 net.cpp:386] conv3_1_relu -> conv3_1b (in-place)
I0420 21:00:19.327222  7922 net.cpp:141] Setting up conv3_1_relu
I0420 21:00:19.327239  7922 net.cpp:148] Top shape: 100 32 16 16 (819200)
I0420 21:00:19.327244  7922 net.cpp:156] Memory required for data: 210945200
I0420 21:00:19.327250  7922 layer_factory.hpp:77] Creating layer conv3_2a
I0420 21:00:19.327265  7922 net.cpp:91] Creating Layer conv3_2a
I0420 21:00:19.327270  7922 net.cpp:425] conv3_2a <- conv3_1b
I0420 21:00:19.327281  7922 net.cpp:399] conv3_2a -> conv3_2a
I0420 21:00:19.344050  7922 net.cpp:141] Setting up conv3_2a
I0420 21:00:19.344111  7922 net.cpp:148] Top shape: 100 32 16 16 (819200)
I0420 21:00:19.344125  7922 net.cpp:156] Memory required for data: 214222000
I0420 21:00:19.344173  7922 layer_factory.hpp:77] Creating layer bn_conv3_2a
I0420 21:00:19.344198  7922 net.cpp:91] Creating Layer bn_conv3_2a
I0420 21:00:19.344213  7922 net.cpp:425] bn_conv3_2a <- conv3_2a
I0420 21:00:19.344233  7922 net.cpp:386] bn_conv3_2a -> conv3_2a (in-place)
I0420 21:00:19.344727  7922 net.cpp:141] Setting up bn_conv3_2a
I0420 21:00:19.344748  7922 net.cpp:148] Top shape: 100 32 16 16 (819200)
I0420 21:00:19.344758  7922 net.cpp:156] Memory required for data: 217498800
I0420 21:00:19.344779  7922 layer_factory.hpp:77] Creating layer scale_conv3_2a
I0420 21:00:19.344796  7922 net.cpp:91] Creating Layer scale_conv3_2a
I0420 21:00:19.344807  7922 net.cpp:425] scale_conv3_2a <- conv3_2a
I0420 21:00:19.344821  7922 net.cpp:386] scale_conv3_2a -> conv3_2a (in-place)
I0420 21:00:19.344926  7922 layer_factory.hpp:77] Creating layer scale_conv3_2a
I0420 21:00:19.345232  7922 net.cpp:141] Setting up scale_conv3_2a
I0420 21:00:19.345254  7922 net.cpp:148] Top shape: 100 32 16 16 (819200)
I0420 21:00:19.345264  7922 net.cpp:156] Memory required for data: 220775600
I0420 21:00:19.345283  7922 layer_factory.hpp:77] Creating layer conv3_2a_relu
I0420 21:00:19.345300  7922 net.cpp:91] Creating Layer conv3_2a_relu
I0420 21:00:19.345312  7922 net.cpp:425] conv3_2a_relu <- conv3_2a
I0420 21:00:19.345326  7922 net.cpp:386] conv3_2a_relu -> conv3_2a (in-place)
I0420 21:00:19.345732  7922 net.cpp:141] Setting up conv3_2a_relu
I0420 21:00:19.345753  7922 net.cpp:148] Top shape: 100 32 16 16 (819200)
I0420 21:00:19.345762  7922 net.cpp:156] Memory required for data: 224052400
I0420 21:00:19.345772  7922 layer_factory.hpp:77] Creating layer conv3_2b
I0420 21:00:19.345799  7922 net.cpp:91] Creating Layer conv3_2b
I0420 21:00:19.345810  7922 net.cpp:425] conv3_2b <- conv3_2a
I0420 21:00:19.345826  7922 net.cpp:399] conv3_2b -> conv3_2b
I0420 21:00:19.357785  7922 net.cpp:141] Setting up conv3_2b
I0420 21:00:19.357851  7922 net.cpp:148] Top shape: 100 32 16 16 (819200)
I0420 21:00:19.357863  7922 net.cpp:156] Memory required for data: 227329200
I0420 21:00:19.357885  7922 layer_factory.hpp:77] Creating layer bn_conv3_2b
I0420 21:00:19.357910  7922 net.cpp:91] Creating Layer bn_conv3_2b
I0420 21:00:19.357923  7922 net.cpp:425] bn_conv3_2b <- conv3_2b
I0420 21:00:19.357940  7922 net.cpp:386] bn_conv3_2b -> conv3_2b (in-place)
I0420 21:00:19.360996  7922 net.cpp:141] Setting up bn_conv3_2b
I0420 21:00:19.361057  7922 net.cpp:148] Top shape: 100 32 16 16 (819200)
I0420 21:00:19.361096  7922 net.cpp:156] Memory required for data: 230606000
I0420 21:00:19.361147  7922 layer_factory.hpp:77] Creating layer scale_conv3_2b
I0420 21:00:19.361178  7922 net.cpp:91] Creating Layer scale_conv3_2b
I0420 21:00:19.361191  7922 net.cpp:425] scale_conv3_2b <- conv3_2b
I0420 21:00:19.361208  7922 net.cpp:386] scale_conv3_2b -> conv3_2b (in-place)
I0420 21:00:19.361407  7922 layer_factory.hpp:77] Creating layer scale_conv3_2b
I0420 21:00:19.361673  7922 net.cpp:141] Setting up scale_conv3_2b
I0420 21:00:19.361691  7922 net.cpp:148] Top shape: 100 32 16 16 (819200)
I0420 21:00:19.361701  7922 net.cpp:156] Memory required for data: 233882800
I0420 21:00:19.361726  7922 layer_factory.hpp:77] Creating layer conv3_2_relu
I0420 21:00:19.361744  7922 net.cpp:91] Creating Layer conv3_2_relu
I0420 21:00:19.361753  7922 net.cpp:425] conv3_2_relu <- conv3_2b
I0420 21:00:19.361765  7922 net.cpp:386] conv3_2_relu -> conv3_2b (in-place)
I0420 21:00:19.362334  7922 net.cpp:141] Setting up conv3_2_relu
I0420 21:00:19.362380  7922 net.cpp:148] Top shape: 100 32 16 16 (819200)
I0420 21:00:19.362390  7922 net.cpp:156] Memory required for data: 237159600
I0420 21:00:19.362402  7922 layer_factory.hpp:77] Creating layer conv3_3a
I0420 21:00:19.362434  7922 net.cpp:91] Creating Layer conv3_3a
I0420 21:00:19.362447  7922 net.cpp:425] conv3_3a <- conv3_2b
I0420 21:00:19.362468  7922 net.cpp:399] conv3_3a -> conv3_3a
I0420 21:00:19.365619  7922 net.cpp:141] Setting up conv3_3a
I0420 21:00:19.365653  7922 net.cpp:148] Top shape: 100 32 16 16 (819200)
I0420 21:00:19.365663  7922 net.cpp:156] Memory required for data: 240436400
I0420 21:00:19.365679  7922 layer_factory.hpp:77] Creating layer bn_conv3_3a
I0420 21:00:19.365701  7922 net.cpp:91] Creating Layer bn_conv3_3a
I0420 21:00:19.365712  7922 net.cpp:425] bn_conv3_3a <- conv3_3a
I0420 21:00:19.365726  7922 net.cpp:386] bn_conv3_3a -> conv3_3a (in-place)
I0420 21:00:19.366147  7922 net.cpp:141] Setting up bn_conv3_3a
I0420 21:00:19.366164  7922 net.cpp:148] Top shape: 100 32 16 16 (819200)
I0420 21:00:19.366173  7922 net.cpp:156] Memory required for data: 243713200
I0420 21:00:19.366190  7922 layer_factory.hpp:77] Creating layer scale_conv3_3a
I0420 21:00:19.366209  7922 net.cpp:91] Creating Layer scale_conv3_3a
I0420 21:00:19.366219  7922 net.cpp:425] scale_conv3_3a <- conv3_3a
I0420 21:00:19.366231  7922 net.cpp:386] scale_conv3_3a -> conv3_3a (in-place)
I0420 21:00:19.366328  7922 layer_factory.hpp:77] Creating layer scale_conv3_3a
I0420 21:00:19.366580  7922 net.cpp:141] Setting up scale_conv3_3a
I0420 21:00:19.366595  7922 net.cpp:148] Top shape: 100 32 16 16 (819200)
I0420 21:00:19.366605  7922 net.cpp:156] Memory required for data: 246990000
I0420 21:00:19.366618  7922 layer_factory.hpp:77] Creating layer conv3_3a_relu
I0420 21:00:19.366634  7922 net.cpp:91] Creating Layer conv3_3a_relu
I0420 21:00:19.366643  7922 net.cpp:425] conv3_3a_relu <- conv3_3a
I0420 21:00:19.366655  7922 net.cpp:386] conv3_3a_relu -> conv3_3a (in-place)
I0420 21:00:19.367223  7922 net.cpp:141] Setting up conv3_3a_relu
I0420 21:00:19.367250  7922 net.cpp:148] Top shape: 100 32 16 16 (819200)
I0420 21:00:19.367259  7922 net.cpp:156] Memory required for data: 250266800
I0420 21:00:19.367269  7922 layer_factory.hpp:77] Creating layer conv3_3b
I0420 21:00:19.367295  7922 net.cpp:91] Creating Layer conv3_3b
I0420 21:00:19.367306  7922 net.cpp:425] conv3_3b <- conv3_3a
I0420 21:00:19.367321  7922 net.cpp:399] conv3_3b -> conv3_3b
I0420 21:00:19.372995  7922 net.cpp:141] Setting up conv3_3b
I0420 21:00:19.373030  7922 net.cpp:148] Top shape: 100 32 16 16 (819200)
I0420 21:00:19.373040  7922 net.cpp:156] Memory required for data: 253543600
I0420 21:00:19.373057  7922 layer_factory.hpp:77] Creating layer bn_conv3_3b
I0420 21:00:19.373073  7922 net.cpp:91] Creating Layer bn_conv3_3b
I0420 21:00:19.373085  7922 net.cpp:425] bn_conv3_3b <- conv3_3b
I0420 21:00:19.373102  7922 net.cpp:386] bn_conv3_3b -> conv3_3b (in-place)
I0420 21:00:19.373543  7922 net.cpp:141] Setting up bn_conv3_3b
I0420 21:00:19.373561  7922 net.cpp:148] Top shape: 100 32 16 16 (819200)
I0420 21:00:19.373570  7922 net.cpp:156] Memory required for data: 256820400
I0420 21:00:19.373586  7922 layer_factory.hpp:77] Creating layer scale_conv3_3b
I0420 21:00:19.373600  7922 net.cpp:91] Creating Layer scale_conv3_3b
I0420 21:00:19.373608  7922 net.cpp:425] scale_conv3_3b <- conv3_3b
I0420 21:00:19.373620  7922 net.cpp:386] scale_conv3_3b -> conv3_3b (in-place)
I0420 21:00:19.373703  7922 layer_factory.hpp:77] Creating layer scale_conv3_3b
I0420 21:00:19.373929  7922 net.cpp:141] Setting up scale_conv3_3b
I0420 21:00:19.373944  7922 net.cpp:148] Top shape: 100 32 16 16 (819200)
I0420 21:00:19.373962  7922 net.cpp:156] Memory required for data: 260097200
I0420 21:00:19.373977  7922 layer_factory.hpp:77] Creating layer conv3_3_relu
I0420 21:00:19.373993  7922 net.cpp:91] Creating Layer conv3_3_relu
I0420 21:00:19.374002  7922 net.cpp:425] conv3_3_relu <- conv3_3b
I0420 21:00:19.374013  7922 net.cpp:386] conv3_3_relu -> conv3_3b (in-place)
I0420 21:00:19.374342  7922 net.cpp:141] Setting up conv3_3_relu
I0420 21:00:19.374361  7922 net.cpp:148] Top shape: 100 32 16 16 (819200)
I0420 21:00:19.374369  7922 net.cpp:156] Memory required for data: 263374000
I0420 21:00:19.374378  7922 layer_factory.hpp:77] Creating layer conv4_1a
I0420 21:00:19.374402  7922 net.cpp:91] Creating Layer conv4_1a
I0420 21:00:19.374410  7922 net.cpp:425] conv4_1a <- conv3_3b
I0420 21:00:19.374425  7922 net.cpp:399] conv4_1a -> conv4_1a
I0420 21:00:19.382767  7922 net.cpp:141] Setting up conv4_1a
I0420 21:00:19.382825  7922 net.cpp:148] Top shape: 100 64 8 8 (409600)
I0420 21:00:19.382836  7922 net.cpp:156] Memory required for data: 265012400
I0420 21:00:19.382856  7922 layer_factory.hpp:77] Creating layer bn_conv4_1a
I0420 21:00:19.382879  7922 net.cpp:91] Creating Layer bn_conv4_1a
I0420 21:00:19.382892  7922 net.cpp:425] bn_conv4_1a <- conv4_1a
I0420 21:00:19.382907  7922 net.cpp:386] bn_conv4_1a -> conv4_1a (in-place)
I0420 21:00:19.383451  7922 net.cpp:141] Setting up bn_conv4_1a
I0420 21:00:19.383491  7922 net.cpp:148] Top shape: 100 64 8 8 (409600)
I0420 21:00:19.383498  7922 net.cpp:156] Memory required for data: 266650800
I0420 21:00:19.383520  7922 layer_factory.hpp:77] Creating layer scale_conv4_1a
I0420 21:00:19.383541  7922 net.cpp:91] Creating Layer scale_conv4_1a
I0420 21:00:19.383553  7922 net.cpp:425] scale_conv4_1a <- conv4_1a
I0420 21:00:19.383566  7922 net.cpp:386] scale_conv4_1a -> conv4_1a (in-place)
I0420 21:00:19.383679  7922 layer_factory.hpp:77] Creating layer scale_conv4_1a
I0420 21:00:19.383929  7922 net.cpp:141] Setting up scale_conv4_1a
I0420 21:00:19.383946  7922 net.cpp:148] Top shape: 100 64 8 8 (409600)
I0420 21:00:19.383955  7922 net.cpp:156] Memory required for data: 268289200
I0420 21:00:19.383968  7922 layer_factory.hpp:77] Creating layer conv4_1a_relu
I0420 21:00:19.383981  7922 net.cpp:91] Creating Layer conv4_1a_relu
I0420 21:00:19.383990  7922 net.cpp:425] conv4_1a_relu <- conv4_1a
I0420 21:00:19.384001  7922 net.cpp:386] conv4_1a_relu -> conv4_1a (in-place)
I0420 21:00:19.384392  7922 net.cpp:141] Setting up conv4_1a_relu
I0420 21:00:19.384413  7922 net.cpp:148] Top shape: 100 64 8 8 (409600)
I0420 21:00:19.384423  7922 net.cpp:156] Memory required for data: 269927600
I0420 21:00:19.384431  7922 layer_factory.hpp:77] Creating layer conv4_1b
I0420 21:00:19.384454  7922 net.cpp:91] Creating Layer conv4_1b
I0420 21:00:19.384464  7922 net.cpp:425] conv4_1b <- conv4_1a
I0420 21:00:19.384481  7922 net.cpp:399] conv4_1b -> conv4_1b
I0420 21:00:19.389511  7922 net.cpp:141] Setting up conv4_1b
I0420 21:00:19.389539  7922 net.cpp:148] Top shape: 100 64 8 8 (409600)
I0420 21:00:19.389549  7922 net.cpp:156] Memory required for data: 271566000
I0420 21:00:19.389562  7922 layer_factory.hpp:77] Creating layer bn_conv4_1b
I0420 21:00:19.389577  7922 net.cpp:91] Creating Layer bn_conv4_1b
I0420 21:00:19.389586  7922 net.cpp:425] bn_conv4_1b <- conv4_1b
I0420 21:00:19.389601  7922 net.cpp:386] bn_conv4_1b -> conv4_1b (in-place)
I0420 21:00:19.389982  7922 net.cpp:141] Setting up bn_conv4_1b
I0420 21:00:19.389997  7922 net.cpp:148] Top shape: 100 64 8 8 (409600)
I0420 21:00:19.390004  7922 net.cpp:156] Memory required for data: 273204400
I0420 21:00:19.390019  7922 layer_factory.hpp:77] Creating layer scale_conv4_1b
I0420 21:00:19.390035  7922 net.cpp:91] Creating Layer scale_conv4_1b
I0420 21:00:19.390044  7922 net.cpp:425] scale_conv4_1b <- conv4_1b
I0420 21:00:19.390058  7922 net.cpp:386] scale_conv4_1b -> conv4_1b (in-place)
I0420 21:00:19.390141  7922 layer_factory.hpp:77] Creating layer scale_conv4_1b
I0420 21:00:19.390367  7922 net.cpp:141] Setting up scale_conv4_1b
I0420 21:00:19.390380  7922 net.cpp:148] Top shape: 100 64 8 8 (409600)
I0420 21:00:19.390396  7922 net.cpp:156] Memory required for data: 274842800
I0420 21:00:19.390410  7922 layer_factory.hpp:77] Creating layer conv4_1_relu
I0420 21:00:19.390424  7922 net.cpp:91] Creating Layer conv4_1_relu
I0420 21:00:19.390432  7922 net.cpp:425] conv4_1_relu <- conv4_1b
I0420 21:00:19.390442  7922 net.cpp:386] conv4_1_relu -> conv4_1b (in-place)
I0420 21:00:19.391329  7922 net.cpp:141] Setting up conv4_1_relu
I0420 21:00:19.391362  7922 net.cpp:148] Top shape: 100 64 8 8 (409600)
I0420 21:00:19.391371  7922 net.cpp:156] Memory required for data: 276481200
I0420 21:00:19.391382  7922 layer_factory.hpp:77] Creating layer conv4_2a
I0420 21:00:19.391412  7922 net.cpp:91] Creating Layer conv4_2a
I0420 21:00:19.391427  7922 net.cpp:425] conv4_2a <- conv4_1b
I0420 21:00:19.391451  7922 net.cpp:399] conv4_2a -> conv4_2a
I0420 21:00:19.396355  7922 net.cpp:141] Setting up conv4_2a
I0420 21:00:19.396397  7922 net.cpp:148] Top shape: 100 64 8 8 (409600)
I0420 21:00:19.396406  7922 net.cpp:156] Memory required for data: 278119600
I0420 21:00:19.396423  7922 layer_factory.hpp:77] Creating layer bn_conv4_2a
I0420 21:00:19.396450  7922 net.cpp:91] Creating Layer bn_conv4_2a
I0420 21:00:19.396459  7922 net.cpp:425] bn_conv4_2a <- conv4_2a
I0420 21:00:19.396471  7922 net.cpp:386] bn_conv4_2a -> conv4_2a (in-place)
I0420 21:00:19.396968  7922 net.cpp:141] Setting up bn_conv4_2a
I0420 21:00:19.396989  7922 net.cpp:148] Top shape: 100 64 8 8 (409600)
I0420 21:00:19.397002  7922 net.cpp:156] Memory required for data: 279758000
I0420 21:00:19.397019  7922 layer_factory.hpp:77] Creating layer scale_conv4_2a
I0420 21:00:19.397056  7922 net.cpp:91] Creating Layer scale_conv4_2a
I0420 21:00:19.397071  7922 net.cpp:425] scale_conv4_2a <- conv4_2a
I0420 21:00:19.397089  7922 net.cpp:386] scale_conv4_2a -> conv4_2a (in-place)
I0420 21:00:19.397217  7922 layer_factory.hpp:77] Creating layer scale_conv4_2a
I0420 21:00:19.397508  7922 net.cpp:141] Setting up scale_conv4_2a
I0420 21:00:19.397528  7922 net.cpp:148] Top shape: 100 64 8 8 (409600)
I0420 21:00:19.397536  7922 net.cpp:156] Memory required for data: 281396400
I0420 21:00:19.397553  7922 layer_factory.hpp:77] Creating layer conv4_2a_relu
I0420 21:00:19.397567  7922 net.cpp:91] Creating Layer conv4_2a_relu
I0420 21:00:19.397575  7922 net.cpp:425] conv4_2a_relu <- conv4_2a
I0420 21:00:19.397585  7922 net.cpp:386] conv4_2a_relu -> conv4_2a (in-place)
I0420 21:00:19.397995  7922 net.cpp:141] Setting up conv4_2a_relu
I0420 21:00:19.398021  7922 net.cpp:148] Top shape: 100 64 8 8 (409600)
I0420 21:00:19.398031  7922 net.cpp:156] Memory required for data: 283034800
I0420 21:00:19.398039  7922 layer_factory.hpp:77] Creating layer conv4_2b
I0420 21:00:19.398061  7922 net.cpp:91] Creating Layer conv4_2b
I0420 21:00:19.398073  7922 net.cpp:425] conv4_2b <- conv4_2a
I0420 21:00:19.398093  7922 net.cpp:399] conv4_2b -> conv4_2b
I0420 21:00:19.404450  7922 net.cpp:141] Setting up conv4_2b
I0420 21:00:19.404481  7922 net.cpp:148] Top shape: 100 64 8 8 (409600)
I0420 21:00:19.404496  7922 net.cpp:156] Memory required for data: 284673200
I0420 21:00:19.404517  7922 layer_factory.hpp:77] Creating layer bn_conv4_2b
I0420 21:00:19.404544  7922 net.cpp:91] Creating Layer bn_conv4_2b
I0420 21:00:19.404558  7922 net.cpp:425] bn_conv4_2b <- conv4_2b
I0420 21:00:19.404582  7922 net.cpp:386] bn_conv4_2b -> conv4_2b (in-place)
I0420 21:00:19.405042  7922 net.cpp:141] Setting up bn_conv4_2b
I0420 21:00:19.405061  7922 net.cpp:148] Top shape: 100 64 8 8 (409600)
I0420 21:00:19.405068  7922 net.cpp:156] Memory required for data: 286311600
I0420 21:00:19.405087  7922 layer_factory.hpp:77] Creating layer scale_conv4_2b
I0420 21:00:19.405107  7922 net.cpp:91] Creating Layer scale_conv4_2b
I0420 21:00:19.409662  7922 net.cpp:425] scale_conv4_2b <- conv4_2b
I0420 21:00:19.409678  7922 net.cpp:386] scale_conv4_2b -> conv4_2b (in-place)
I0420 21:00:19.411059  7922 layer_factory.hpp:77] Creating layer scale_conv4_2b
I0420 21:00:19.411286  7922 net.cpp:141] Setting up scale_conv4_2b
I0420 21:00:19.411306  7922 net.cpp:148] Top shape: 100 64 8 8 (409600)
I0420 21:00:19.411314  7922 net.cpp:156] Memory required for data: 287950000
I0420 21:00:19.411326  7922 layer_factory.hpp:77] Creating layer conv4_2_relu
I0420 21:00:19.411340  7922 net.cpp:91] Creating Layer conv4_2_relu
I0420 21:00:19.411348  7922 net.cpp:425] conv4_2_relu <- conv4_2b
I0420 21:00:19.411367  7922 net.cpp:386] conv4_2_relu -> conv4_2b (in-place)
I0420 21:00:19.411793  7922 net.cpp:141] Setting up conv4_2_relu
I0420 21:00:19.411810  7922 net.cpp:148] Top shape: 100 64 8 8 (409600)
I0420 21:00:19.411818  7922 net.cpp:156] Memory required for data: 289588400
I0420 21:00:19.411825  7922 layer_factory.hpp:77] Creating layer conv4_3a
I0420 21:00:19.411847  7922 net.cpp:91] Creating Layer conv4_3a
I0420 21:00:19.411856  7922 net.cpp:425] conv4_3a <- conv4_2b
I0420 21:00:19.411869  7922 net.cpp:399] conv4_3a -> conv4_3a
I0420 21:00:19.416898  7922 net.cpp:141] Setting up conv4_3a
I0420 21:00:19.416921  7922 net.cpp:148] Top shape: 100 64 8 8 (409600)
I0420 21:00:19.416930  7922 net.cpp:156] Memory required for data: 291226800
I0420 21:00:19.416942  7922 layer_factory.hpp:77] Creating layer bn_conv4_3a
I0420 21:00:19.416960  7922 net.cpp:91] Creating Layer bn_conv4_3a
I0420 21:00:19.416967  7922 net.cpp:425] bn_conv4_3a <- conv4_3a
I0420 21:00:19.416978  7922 net.cpp:386] bn_conv4_3a -> conv4_3a (in-place)
I0420 21:00:19.417340  7922 net.cpp:141] Setting up bn_conv4_3a
I0420 21:00:19.417356  7922 net.cpp:148] Top shape: 100 64 8 8 (409600)
I0420 21:00:19.417362  7922 net.cpp:156] Memory required for data: 292865200
I0420 21:00:19.417376  7922 layer_factory.hpp:77] Creating layer scale_conv4_3a
I0420 21:00:19.417387  7922 net.cpp:91] Creating Layer scale_conv4_3a
I0420 21:00:19.417395  7922 net.cpp:425] scale_conv4_3a <- conv4_3a
I0420 21:00:19.417405  7922 net.cpp:386] scale_conv4_3a -> conv4_3a (in-place)
I0420 21:00:19.417484  7922 layer_factory.hpp:77] Creating layer scale_conv4_3a
I0420 21:00:19.417687  7922 net.cpp:141] Setting up scale_conv4_3a
I0420 21:00:19.417701  7922 net.cpp:148] Top shape: 100 64 8 8 (409600)
I0420 21:00:19.417707  7922 net.cpp:156] Memory required for data: 294503600
I0420 21:00:19.417718  7922 layer_factory.hpp:77] Creating layer conv4_3a_relu
I0420 21:00:19.417728  7922 net.cpp:91] Creating Layer conv4_3a_relu
I0420 21:00:19.417735  7922 net.cpp:425] conv4_3a_relu <- conv4_3a
I0420 21:00:19.417744  7922 net.cpp:386] conv4_3a_relu -> conv4_3a (in-place)
I0420 21:00:19.418176  7922 net.cpp:141] Setting up conv4_3a_relu
I0420 21:00:19.418196  7922 net.cpp:148] Top shape: 100 64 8 8 (409600)
I0420 21:00:19.418203  7922 net.cpp:156] Memory required for data: 296142000
I0420 21:00:19.418212  7922 layer_factory.hpp:77] Creating layer conv4_3b
I0420 21:00:19.418232  7922 net.cpp:91] Creating Layer conv4_3b
I0420 21:00:19.418241  7922 net.cpp:425] conv4_3b <- conv4_3a
I0420 21:00:19.418256  7922 net.cpp:399] conv4_3b -> conv4_3b
I0420 21:00:19.421607  7922 net.cpp:141] Setting up conv4_3b
I0420 21:00:19.421630  7922 net.cpp:148] Top shape: 100 64 8 8 (409600)
I0420 21:00:19.421638  7922 net.cpp:156] Memory required for data: 297780400
I0420 21:00:19.421649  7922 layer_factory.hpp:77] Creating layer bn_conv4_3b
I0420 21:00:19.421665  7922 net.cpp:91] Creating Layer bn_conv4_3b
I0420 21:00:19.421674  7922 net.cpp:425] bn_conv4_3b <- conv4_3b
I0420 21:00:19.421689  7922 net.cpp:386] bn_conv4_3b -> conv4_3b (in-place)
I0420 21:00:19.422034  7922 net.cpp:141] Setting up bn_conv4_3b
I0420 21:00:19.422047  7922 net.cpp:148] Top shape: 100 64 8 8 (409600)
I0420 21:00:19.422055  7922 net.cpp:156] Memory required for data: 299418800
I0420 21:00:19.422097  7922 layer_factory.hpp:77] Creating layer scale_conv4_3b
I0420 21:00:19.422112  7922 net.cpp:91] Creating Layer scale_conv4_3b
I0420 21:00:19.422119  7922 net.cpp:425] scale_conv4_3b <- conv4_3b
I0420 21:00:19.422129  7922 net.cpp:386] scale_conv4_3b -> conv4_3b (in-place)
I0420 21:00:19.422204  7922 layer_factory.hpp:77] Creating layer scale_conv4_3b
I0420 21:00:19.422407  7922 net.cpp:141] Setting up scale_conv4_3b
I0420 21:00:19.422420  7922 net.cpp:148] Top shape: 100 64 8 8 (409600)
I0420 21:00:19.422426  7922 net.cpp:156] Memory required for data: 301057200
I0420 21:00:19.422437  7922 layer_factory.hpp:77] Creating layer conv4_3_relu
I0420 21:00:19.422449  7922 net.cpp:91] Creating Layer conv4_3_relu
I0420 21:00:19.422456  7922 net.cpp:425] conv4_3_relu <- conv4_3b
I0420 21:00:19.422466  7922 net.cpp:386] conv4_3_relu -> conv4_3b (in-place)
I0420 21:00:19.422734  7922 net.cpp:141] Setting up conv4_3_relu
I0420 21:00:19.422750  7922 net.cpp:148] Top shape: 100 64 8 8 (409600)
I0420 21:00:19.422757  7922 net.cpp:156] Memory required for data: 302695600
I0420 21:00:19.422765  7922 layer_factory.hpp:77] Creating layer global_pool
I0420 21:00:19.422776  7922 net.cpp:91] Creating Layer global_pool
I0420 21:00:19.422783  7922 net.cpp:425] global_pool <- conv4_3b
I0420 21:00:19.422796  7922 net.cpp:399] global_pool -> global_pool
I0420 21:00:19.423845  7922 net.cpp:141] Setting up global_pool
I0420 21:00:19.423864  7922 net.cpp:148] Top shape: 100 64 1 1 (6400)
I0420 21:00:19.423871  7922 net.cpp:156] Memory required for data: 302721200
I0420 21:00:19.423879  7922 layer_factory.hpp:77] Creating layer ip
I0420 21:00:19.423892  7922 net.cpp:91] Creating Layer ip
I0420 21:00:19.423900  7922 net.cpp:425] ip <- global_pool
I0420 21:00:19.423909  7922 net.cpp:399] ip -> ip
I0420 21:00:19.424156  7922 net.cpp:141] Setting up ip
I0420 21:00:19.424170  7922 net.cpp:148] Top shape: 100 10 (1000)
I0420 21:00:19.424177  7922 net.cpp:156] Memory required for data: 302725200
I0420 21:00:19.424187  7922 layer_factory.hpp:77] Creating layer ip_ip_0_split
I0420 21:00:19.424197  7922 net.cpp:91] Creating Layer ip_ip_0_split
I0420 21:00:19.424204  7922 net.cpp:425] ip_ip_0_split <- ip
I0420 21:00:19.424217  7922 net.cpp:399] ip_ip_0_split -> ip_ip_0_split_0
I0420 21:00:19.424229  7922 net.cpp:399] ip_ip_0_split -> ip_ip_0_split_1
I0420 21:00:19.424296  7922 net.cpp:141] Setting up ip_ip_0_split
I0420 21:00:19.424309  7922 net.cpp:148] Top shape: 100 10 (1000)
I0420 21:00:19.424315  7922 net.cpp:148] Top shape: 100 10 (1000)
I0420 21:00:19.424321  7922 net.cpp:156] Memory required for data: 302733200
I0420 21:00:19.424329  7922 layer_factory.hpp:77] Creating layer accuracy
I0420 21:00:19.424342  7922 net.cpp:91] Creating Layer accuracy
I0420 21:00:19.424350  7922 net.cpp:425] accuracy <- ip_ip_0_split_0
I0420 21:00:19.424357  7922 net.cpp:425] accuracy <- label_cifar_1_split_0
I0420 21:00:19.424368  7922 net.cpp:399] accuracy -> accuracy
…
