…
I0411 11:10:46.829973  2464 net.cpp:313] The NetState phase (0) differed from the phase (1) specified by a rule in layer cifar
I0411 11:10:46.830149  2464 net.cpp:49] Initializing net from parameters: 
name: "PlainNet-cifar"
state {
  phase: TRAIN
}
layer {
  name: "cifar"
  type: "Data"
  top: "data"
  top: "label"
  include {
    phase: TRAIN
  }
  transform_param {
    mean_file: "/home/liangjiang/code/residual_network/data/cifar10/mean.binaryproto"
  }
  data_param {
    source: "/home/liangjiang/code/residual_network/data/cifar10/cifar10_train_lmdb"
    batch_size: 128
    backend: LMDB
  }
}
layer {
  name: "conv1"
  type: "Convolution"
  bottom: "data"
  top: "conv1"
  param {
    lr_mult: 1
  }
  param {
    lr_mult: 2
  }
  convolution_param {
    num_output: 8
    pad: 1
    kernel_size: 3
    weight_filler {
      type: "msra"
    }
    bias_filler {
      type: "constant"
    }
  }
}
layer {
  name: "bn_conv1"
  type: "BatchNorm"
  bottom: "conv1"
  top: "conv1"
  param {
    lr_mult: 0
  }
  param {
    lr_mult: 0
  }
  param {
    lr_mult: 0
  }
}
layer {
  name: "scale_conv1"
  type: "Scale"
  bottom: "conv1"
  top: "conv1"
  scale_param {
    bias_term: true
  }
}
layer {
  name: "conv1_relu"
  type: "ReLU"
  bottom: "conv1"
  top: "conv1"
}
layer {
  name: "conv2_1a"
  type: "Convolution"
  bottom: "conv1"
  top: "conv2_1a"
  param {
    lr_mult: 1
  }
  param {
    lr_mult: 2
  }
  convolution_param {
    num_output: 8
    pad: 1
    kernel_size: 3
    stride: 1
    weight_filler {
      type: "msra"
    }
    bias_filler {
      type: "constant"
      value: 0
    }
  }
}
layer {
  name: "bn_conv2_1a"
  type: "BatchNorm"
  bottom: "conv2_1a"
  top: "conv2_1a"
  param {
    lr_mult: 0
  }
  param {
    lr_mult: 0
  }
  param {
    lr_mult: 0
  }
}
layer {
  name: "scale_conv2_1a"
  type: "Scale"
  bottom: "conv2_1a"
  top: "conv2_1a"
  scale_param {
    bias_term: true
  }
}
layer {
  name: "conv2_1a_relu"
  type: "ReLU"
  bottom: "conv2_1a"
  top: "conv2_1a"
}
layer {
  name: "conv2_1b"
  type: "Convolution"
  bottom: "conv2_1a"
  top: "conv2_1b"
  param {
    lr_mult: 1
  }
  param {
    lr_mult: 2
  }
  convolution_param {
    num_output: 8
    pad: 1
    kernel_size: 3
    stride: 1
    weight_filler {
      type: "msra"
    }
    bias_filler {
      type: "constant"
      value: 0
    }
  }
}
layer {
  name: "bn_conv2_1b"
  type: "BatchNorm"
  bottom: "conv2_1b"
  top: "conv2_1b"
  param {
    lr_mult: 0
  }
  param {
    lr_mult: 0
  }
  param {
    lr_mult: 0
  }
}
layer {
  name: "scale_conv2_1b"
  type: "Scale"
  bottom: "conv2_1b"
  top: "conv2_1b"
  scale_param {
    bias_term: true
  }
}
layer {
  name: "conv2_1b_relu"
  type: "ReLU"
  bottom: "conv2_1b"
  top: "conv2_1b"
}
layer {
  name: "conv3_1a"
  type: "Convolution"
  bottom: "conv2_1b"
  top: "conv3_1a"
  param {
    lr_mult: 1
  }
  param {
    lr_mult: 2
  }
  convolution_param {
    num_output: 32
    pad: 0
    kernel_size: 1
    stride: 2
    weight_filler {
      type: "msra"
    }
    bias_filler {
      type: "constant"
      value: 0
    }
  }
}
layer {
  name: "bn_conv3_1a"
  type: "BatchNorm"
  bottom: "conv3_1a"
  top: "conv3_1a"
  param {
    lr_mult: 0
  }
  param {
    lr_mult: 0
  }
  param {
    lr_mult: 0
  }
}
layer {
  name: "scale_conv3_1a"
  type: "Scale"
  bottom: "conv3_1a"
  top: "conv3_1a"
  scale_param {
    bias_term: true
  }
}
layer {
  name: "conv3_1a_relu"
  type: "ReLU"
  bottom: "conv3_1a"
  top: "conv3_1a"
}
layer {
  name: "conv3_1b"
  type: "Convolution"
  bottom: "conv3_1a"
  top: "conv3_1b"
  param {
    lr_mult: 1
  }
  param {
    lr_mult: 2
  }
  convolution_param {
    num_output: 32
    pad: 1
    kernel_size: 3
    stride: 1
    weight_filler {
      type: "msra"
    }
    bias_filler {
      type: "constant"
      value: 0
    }
  }
}
layer {
  name: "bn_conv3_1b"
  type: "BatchNorm"
  bottom: "conv3_1b"
  top: "conv3_1b"
  param {
    lr_mult: 0
  }
  param {
    lr_mult: 0
  }
  param {
    lr_mult: 0
  }
}
layer {
  name: "scale_conv3_1b"
  type: "Scale"
  bottom: "conv3_1b"
  top: "conv3_1b"
  scale_param {
    bias_term: true
  }
}
layer {
  name: "conv3_1b_relu"
  type: "ReLU"
  bottom: "conv3_1b"
  top: "conv3_1b"
}
layer {
  name: "conv4_1a"
  type: "Convolution"
  bottom: "conv3_1b"
  top: "conv4_1a"
  param {
    lr_mult: 1
  }
  param {
    lr_mult: 2
  }
  convolution_param {
    num_output: 128
    pad: 0
    kernel_size: 1
    stride: 2
    weight_filler {
      type: "msra"
    }
    bias_filler {
      type: "constant"
      value: 0
    }
  }
}
layer {
  name: "bn_conv4_1a"
  type: "BatchNorm"
  bottom: "conv4_1a"
  top: "conv4_1a"
  param {
    lr_mult: 0
  }
  param {
    lr_mult: 0
  }
  param {
    lr_mult: 0
  }
}
layer {
  name: "scale_conv4_1a"
  type: "Scale"
  bottom: "conv4_1a"
  top: "conv4_1a"
  scale_param {
    bias_term: true
  }
}
layer {
  name: "conv4_1a_relu"
  type: "ReLU"
  bottom: "conv4_1a"
  top: "conv4_1a"
}
layer {
  name: "conv4_1b"
  type: "Convolution"
  bottom: "conv4_1a"
  top: "conv4_1b"
  param {
    lr_mult: 1
  }
  param {
    lr_mult: 2
  }
  convolution_param {
    num_output: 128
    pad: 1
    kernel_size: 3
    stride: 1
    weight_filler {
      type: "msra"
    }
    bias_filler {
      type: "constant"
      value: 0
    }
  }
}
layer {
  name: "bn_conv4_1b"
  type: "BatchNorm"
  bottom: "conv4_1b"
  top: "conv4_1b"
  param {
    lr_mult: 0
  }
  param {
    lr_mult: 0
  }
  param {
    lr_mult: 0
  }
}
layer {
  name: "scale_conv4_1b"
  type: "Scale"
  bottom: "conv4_1b"
  top: "conv4_1b"
  scale_param {
    bias_term: true
  }
}
layer {
  name: "conv4_1b_relu"
  type: "ReLU"
  bottom: "conv4_1b"
  top: "conv4_1b"
}
layer {
  name: "global_pool"
  type: "Pooling"
  bottom: "conv4_1b"
  top: "global_pool"
  pooling_param {
    pool: AVE
    kernel_size: 8
    stride: 8
  }
}
layer {
  name: "ip"
  type: "InnerProduct"
  bottom: "global_pool"
  top: "ip"
  param {
    lr_mult: 1
  }
  param {
    lr_mult: 2
  }
  inner_product_param {
    num_output: 10
  }
}
layer {
  name: "accuracy"
  type: "Accuracy"
  bottom: "ip"
  bottom: "label"
  top: "accuracy"
}
layer {
  name: "loss"
  type: "SoftmaxWithLoss"
  bottom: "ip"
  bottom: "label"
  top: "loss"
}
I0411 11:10:46.830278  2464 layer_factory.hpp:77] Creating layer cifar
I0411 11:10:46.831336  2464 net.cpp:91] Creating Layer cifar
I0411 11:10:46.831349  2464 net.cpp:399] cifar -> data
I0411 11:10:46.831368  2464 net.cpp:399] cifar -> label
I0411 11:10:46.831379  2464 data_transformer.cpp:25] Loading mean file from: /home/liangjiang/code/residual_network/data/cifar10/mean.binaryproto
I0411 11:10:46.832058  2531 db_lmdb.cpp:38] Opened lmdb /home/liangjiang/code/residual_network/data/cifar10/cifar10_train_lmdb
I0411 11:10:46.874155  2464 data_layer.cpp:41] output data size: 128,3,32,32
I0411 11:10:46.884196  2464 net.cpp:141] Setting up cifar
I0411 11:10:46.884217  2464 net.cpp:148] Top shape: 128 3 32 32 (393216)
I0411 11:10:46.884224  2464 net.cpp:148] Top shape: 128 (128)
I0411 11:10:46.884228  2464 net.cpp:156] Memory required for data: 1573376
I0411 11:10:46.884234  2464 layer_factory.hpp:77] Creating layer label_cifar_1_split
I0411 11:10:46.884250  2464 net.cpp:91] Creating Layer label_cifar_1_split
I0411 11:10:46.884255  2464 net.cpp:425] label_cifar_1_split <- label
I0411 11:10:46.884279  2464 net.cpp:399] label_cifar_1_split -> label_cifar_1_split_0
I0411 11:10:46.884292  2464 net.cpp:399] label_cifar_1_split -> label_cifar_1_split_1
I0411 11:10:46.884357  2464 net.cpp:141] Setting up label_cifar_1_split
I0411 11:10:46.884366  2464 net.cpp:148] Top shape: 128 (128)
I0411 11:10:46.884371  2464 net.cpp:148] Top shape: 128 (128)
I0411 11:10:46.884376  2464 net.cpp:156] Memory required for data: 1574400
I0411 11:10:46.884380  2464 layer_factory.hpp:77] Creating layer conv1
I0411 11:10:46.884397  2464 net.cpp:91] Creating Layer conv1
I0411 11:10:46.884402  2464 net.cpp:425] conv1 <- data
I0411 11:10:46.884409  2464 net.cpp:399] conv1 -> conv1
I0411 11:10:47.136219  2464 net.cpp:141] Setting up conv1
I0411 11:10:47.136260  2464 net.cpp:148] Top shape: 128 8 32 32 (1048576)
I0411 11:10:47.136270  2464 net.cpp:156] Memory required for data: 5768704
I0411 11:10:47.136287  2464 layer_factory.hpp:77] Creating layer bn_conv1
I0411 11:10:47.136301  2464 net.cpp:91] Creating Layer bn_conv1
I0411 11:10:47.136307  2464 net.cpp:425] bn_conv1 <- conv1
I0411 11:10:47.136314  2464 net.cpp:386] bn_conv1 -> conv1 (in-place)
I0411 11:10:47.136483  2464 net.cpp:141] Setting up bn_conv1
I0411 11:10:47.136492  2464 net.cpp:148] Top shape: 128 8 32 32 (1048576)
I0411 11:10:47.136497  2464 net.cpp:156] Memory required for data: 9963008
I0411 11:10:47.136509  2464 layer_factory.hpp:77] Creating layer scale_conv1
I0411 11:10:47.136519  2464 net.cpp:91] Creating Layer scale_conv1
I0411 11:10:47.136523  2464 net.cpp:425] scale_conv1 <- conv1
I0411 11:10:47.136529  2464 net.cpp:386] scale_conv1 -> conv1 (in-place)
I0411 11:10:47.136564  2464 layer_factory.hpp:77] Creating layer scale_conv1
I0411 11:10:47.136654  2464 net.cpp:141] Setting up scale_conv1
I0411 11:10:47.136662  2464 net.cpp:148] Top shape: 128 8 32 32 (1048576)
I0411 11:10:47.136667  2464 net.cpp:156] Memory required for data: 14157312
I0411 11:10:47.136674  2464 layer_factory.hpp:77] Creating layer conv1_relu
I0411 11:10:47.136682  2464 net.cpp:91] Creating Layer conv1_relu
I0411 11:10:47.136685  2464 net.cpp:425] conv1_relu <- conv1
I0411 11:10:47.136692  2464 net.cpp:386] conv1_relu -> conv1 (in-place)
I0411 11:10:47.136956  2464 net.cpp:141] Setting up conv1_relu
I0411 11:10:47.136970  2464 net.cpp:148] Top shape: 128 8 32 32 (1048576)
I0411 11:10:47.136976  2464 net.cpp:156] Memory required for data: 18351616
I0411 11:10:47.136981  2464 layer_factory.hpp:77] Creating layer conv2_1a
I0411 11:10:47.136992  2464 net.cpp:91] Creating Layer conv2_1a
I0411 11:10:47.136996  2464 net.cpp:425] conv2_1a <- conv1
I0411 11:10:47.137004  2464 net.cpp:399] conv2_1a -> conv2_1a
I0411 11:10:47.138710  2464 net.cpp:141] Setting up conv2_1a
I0411 11:10:47.138727  2464 net.cpp:148] Top shape: 128 8 32 32 (1048576)
I0411 11:10:47.138732  2464 net.cpp:156] Memory required for data: 22545920
I0411 11:10:47.138743  2464 layer_factory.hpp:77] Creating layer bn_conv2_1a
I0411 11:10:47.138751  2464 net.cpp:91] Creating Layer bn_conv2_1a
I0411 11:10:47.138756  2464 net.cpp:425] bn_conv2_1a <- conv2_1a
I0411 11:10:47.138762  2464 net.cpp:386] bn_conv2_1a -> conv2_1a (in-place)
I0411 11:10:47.138922  2464 net.cpp:141] Setting up bn_conv2_1a
I0411 11:10:47.138931  2464 net.cpp:148] Top shape: 128 8 32 32 (1048576)
I0411 11:10:47.138936  2464 net.cpp:156] Memory required for data: 26740224
I0411 11:10:47.138943  2464 layer_factory.hpp:77] Creating layer scale_conv2_1a
I0411 11:10:47.138958  2464 net.cpp:91] Creating Layer scale_conv2_1a
I0411 11:10:47.138963  2464 net.cpp:425] scale_conv2_1a <- conv2_1a
I0411 11:10:47.138969  2464 net.cpp:386] scale_conv2_1a -> conv2_1a (in-place)
I0411 11:10:47.139001  2464 layer_factory.hpp:77] Creating layer scale_conv2_1a
I0411 11:10:47.139091  2464 net.cpp:141] Setting up scale_conv2_1a
I0411 11:10:47.139098  2464 net.cpp:148] Top shape: 128 8 32 32 (1048576)
I0411 11:10:47.139102  2464 net.cpp:156] Memory required for data: 30934528
I0411 11:10:47.139109  2464 layer_factory.hpp:77] Creating layer conv2_1a_relu
I0411 11:10:47.139116  2464 net.cpp:91] Creating Layer conv2_1a_relu
I0411 11:10:47.139119  2464 net.cpp:425] conv2_1a_relu <- conv2_1a
I0411 11:10:47.139125  2464 net.cpp:386] conv2_1a_relu -> conv2_1a (in-place)
I0411 11:10:47.139766  2464 net.cpp:141] Setting up conv2_1a_relu
I0411 11:10:47.139780  2464 net.cpp:148] Top shape: 128 8 32 32 (1048576)
I0411 11:10:47.139785  2464 net.cpp:156] Memory required for data: 35128832
I0411 11:10:47.139789  2464 layer_factory.hpp:77] Creating layer conv2_1b
I0411 11:10:47.139801  2464 net.cpp:91] Creating Layer conv2_1b
I0411 11:10:47.139806  2464 net.cpp:425] conv2_1b <- conv2_1a
I0411 11:10:47.139812  2464 net.cpp:399] conv2_1b -> conv2_1b
I0411 11:10:47.143244  2464 net.cpp:141] Setting up conv2_1b
I0411 11:10:47.143260  2464 net.cpp:148] Top shape: 128 8 32 32 (1048576)
I0411 11:10:47.143265  2464 net.cpp:156] Memory required for data: 39323136
I0411 11:10:47.143272  2464 layer_factory.hpp:77] Creating layer bn_conv2_1b
I0411 11:10:47.143280  2464 net.cpp:91] Creating Layer bn_conv2_1b
I0411 11:10:47.143285  2464 net.cpp:425] bn_conv2_1b <- conv2_1b
I0411 11:10:47.143291  2464 net.cpp:386] bn_conv2_1b -> conv2_1b (in-place)
I0411 11:10:47.143453  2464 net.cpp:141] Setting up bn_conv2_1b
I0411 11:10:47.143461  2464 net.cpp:148] Top shape: 128 8 32 32 (1048576)
I0411 11:10:47.143465  2464 net.cpp:156] Memory required for data: 43517440
I0411 11:10:47.143476  2464 layer_factory.hpp:77] Creating layer scale_conv2_1b
I0411 11:10:47.143484  2464 net.cpp:91] Creating Layer scale_conv2_1b
I0411 11:10:47.143488  2464 net.cpp:425] scale_conv2_1b <- conv2_1b
I0411 11:10:47.143494  2464 net.cpp:386] scale_conv2_1b -> conv2_1b (in-place)
I0411 11:10:47.143527  2464 layer_factory.hpp:77] Creating layer scale_conv2_1b
I0411 11:10:47.143618  2464 net.cpp:141] Setting up scale_conv2_1b
I0411 11:10:47.143626  2464 net.cpp:148] Top shape: 128 8 32 32 (1048576)
I0411 11:10:47.143630  2464 net.cpp:156] Memory required for data: 47711744
I0411 11:10:47.143636  2464 layer_factory.hpp:77] Creating layer conv2_1b_relu
I0411 11:10:47.143643  2464 net.cpp:91] Creating Layer conv2_1b_relu
I0411 11:10:47.143647  2464 net.cpp:425] conv2_1b_relu <- conv2_1b
I0411 11:10:47.143653  2464 net.cpp:386] conv2_1b_relu -> conv2_1b (in-place)
I0411 11:10:47.144291  2464 net.cpp:141] Setting up conv2_1b_relu
I0411 11:10:47.144301  2464 net.cpp:148] Top shape: 128 8 32 32 (1048576)
I0411 11:10:47.144305  2464 net.cpp:156] Memory required for data: 51906048
I0411 11:10:47.144310  2464 layer_factory.hpp:77] Creating layer conv3_1a
I0411 11:10:47.144321  2464 net.cpp:91] Creating Layer conv3_1a
I0411 11:10:47.144325  2464 net.cpp:425] conv3_1a <- conv2_1b
I0411 11:10:47.144332  2464 net.cpp:399] conv3_1a -> conv3_1a
I0411 11:10:47.148280  2464 net.cpp:141] Setting up conv3_1a
I0411 11:10:47.148298  2464 net.cpp:148] Top shape: 128 32 16 16 (1048576)
I0411 11:10:47.148303  2464 net.cpp:156] Memory required for data: 56100352
I0411 11:10:47.148310  2464 layer_factory.hpp:77] Creating layer bn_conv3_1a
I0411 11:10:47.148319  2464 net.cpp:91] Creating Layer bn_conv3_1a
I0411 11:10:47.148324  2464 net.cpp:425] bn_conv3_1a <- conv3_1a
I0411 11:10:47.148331  2464 net.cpp:386] bn_conv3_1a -> conv3_1a (in-place)
I0411 11:10:47.148511  2464 net.cpp:141] Setting up bn_conv3_1a
I0411 11:10:47.148519  2464 net.cpp:148] Top shape: 128 32 16 16 (1048576)
I0411 11:10:47.148524  2464 net.cpp:156] Memory required for data: 60294656
I0411 11:10:47.148536  2464 layer_factory.hpp:77] Creating layer scale_conv3_1a
I0411 11:10:47.148545  2464 net.cpp:91] Creating Layer scale_conv3_1a
I0411 11:10:47.148550  2464 net.cpp:425] scale_conv3_1a <- conv3_1a
I0411 11:10:47.148568  2464 net.cpp:386] scale_conv3_1a -> conv3_1a (in-place)
I0411 11:10:47.148602  2464 layer_factory.hpp:77] Creating layer scale_conv3_1a
I0411 11:10:47.148713  2464 net.cpp:141] Setting up scale_conv3_1a
I0411 11:10:47.148721  2464 net.cpp:148] Top shape: 128 32 16 16 (1048576)
I0411 11:10:47.148725  2464 net.cpp:156] Memory required for data: 64488960
I0411 11:10:47.148733  2464 layer_factory.hpp:77] Creating layer conv3_1a_relu
I0411 11:10:47.148739  2464 net.cpp:91] Creating Layer conv3_1a_relu
I0411 11:10:47.148744  2464 net.cpp:425] conv3_1a_relu <- conv3_1a
I0411 11:10:47.148751  2464 net.cpp:386] conv3_1a_relu -> conv3_1a (in-place)
I0411 11:10:47.149227  2464 net.cpp:141] Setting up conv3_1a_relu
I0411 11:10:47.149243  2464 net.cpp:148] Top shape: 128 32 16 16 (1048576)
I0411 11:10:47.149248  2464 net.cpp:156] Memory required for data: 68683264
I0411 11:10:47.149252  2464 layer_factory.hpp:77] Creating layer conv3_1b
I0411 11:10:47.149265  2464 net.cpp:91] Creating Layer conv3_1b
I0411 11:10:47.149269  2464 net.cpp:425] conv3_1b <- conv3_1a
I0411 11:10:47.149277  2464 net.cpp:399] conv3_1b -> conv3_1b
I0411 11:10:47.152758  2464 net.cpp:141] Setting up conv3_1b
I0411 11:10:47.152792  2464 net.cpp:148] Top shape: 128 32 16 16 (1048576)
I0411 11:10:47.152797  2464 net.cpp:156] Memory required for data: 72877568
I0411 11:10:47.152807  2464 layer_factory.hpp:77] Creating layer bn_conv3_1b
I0411 11:10:47.152819  2464 net.cpp:91] Creating Layer bn_conv3_1b
I0411 11:10:47.152825  2464 net.cpp:425] bn_conv3_1b <- conv3_1b
I0411 11:10:47.152834  2464 net.cpp:386] bn_conv3_1b -> conv3_1b (in-place)
I0411 11:10:47.153012  2464 net.cpp:141] Setting up bn_conv3_1b
I0411 11:10:47.153019  2464 net.cpp:148] Top shape: 128 32 16 16 (1048576)
I0411 11:10:47.153024  2464 net.cpp:156] Memory required for data: 77071872
I0411 11:10:47.153040  2464 layer_factory.hpp:77] Creating layer scale_conv3_1b
I0411 11:10:47.153051  2464 net.cpp:91] Creating Layer scale_conv3_1b
I0411 11:10:47.153056  2464 net.cpp:425] scale_conv3_1b <- conv3_1b
I0411 11:10:47.153062  2464 net.cpp:386] scale_conv3_1b -> conv3_1b (in-place)
I0411 11:10:47.153100  2464 layer_factory.hpp:77] Creating layer scale_conv3_1b
I0411 11:10:47.153228  2464 net.cpp:141] Setting up scale_conv3_1b
I0411 11:10:47.153239  2464 net.cpp:148] Top shape: 128 32 16 16 (1048576)
I0411 11:10:47.153244  2464 net.cpp:156] Memory required for data: 81266176
I0411 11:10:47.153251  2464 layer_factory.hpp:77] Creating layer conv3_1b_relu
I0411 11:10:47.153259  2464 net.cpp:91] Creating Layer conv3_1b_relu
I0411 11:10:47.153264  2464 net.cpp:425] conv3_1b_relu <- conv3_1b
I0411 11:10:47.153270  2464 net.cpp:386] conv3_1b_relu -> conv3_1b (in-place)
I0411 11:10:47.153764  2464 net.cpp:141] Setting up conv3_1b_relu
I0411 11:10:47.153780  2464 net.cpp:148] Top shape: 128 32 16 16 (1048576)
I0411 11:10:47.153785  2464 net.cpp:156] Memory required for data: 85460480
I0411 11:10:47.153790  2464 layer_factory.hpp:77] Creating layer conv4_1a
I0411 11:10:47.153805  2464 net.cpp:91] Creating Layer conv4_1a
I0411 11:10:47.153810  2464 net.cpp:425] conv4_1a <- conv3_1b
I0411 11:10:47.153820  2464 net.cpp:399] conv4_1a -> conv4_1a
I0411 11:10:47.157366  2464 net.cpp:141] Setting up conv4_1a
I0411 11:10:47.157416  2464 net.cpp:148] Top shape: 128 128 8 8 (1048576)
I0411 11:10:47.157423  2464 net.cpp:156] Memory required for data: 89654784
I0411 11:10:47.157435  2464 layer_factory.hpp:77] Creating layer bn_conv4_1a
I0411 11:10:47.157460  2464 net.cpp:91] Creating Layer bn_conv4_1a
I0411 11:10:47.157466  2464 net.cpp:425] bn_conv4_1a <- conv4_1a
I0411 11:10:47.157477  2464 net.cpp:386] bn_conv4_1a -> conv4_1a (in-place)
I0411 11:10:47.157658  2464 net.cpp:141] Setting up bn_conv4_1a
I0411 11:10:47.157666  2464 net.cpp:148] Top shape: 128 128 8 8 (1048576)
I0411 11:10:47.157670  2464 net.cpp:156] Memory required for data: 93849088
I0411 11:10:47.157688  2464 layer_factory.hpp:77] Creating layer scale_conv4_1a
I0411 11:10:47.157698  2464 net.cpp:91] Creating Layer scale_conv4_1a
I0411 11:10:47.157702  2464 net.cpp:425] scale_conv4_1a <- conv4_1a
I0411 11:10:47.157709  2464 net.cpp:386] scale_conv4_1a -> conv4_1a (in-place)
I0411 11:10:47.157749  2464 layer_factory.hpp:77] Creating layer scale_conv4_1a
I0411 11:10:47.157852  2464 net.cpp:141] Setting up scale_conv4_1a
I0411 11:10:47.157860  2464 net.cpp:148] Top shape: 128 128 8 8 (1048576)
I0411 11:10:47.157865  2464 net.cpp:156] Memory required for data: 98043392
I0411 11:10:47.157871  2464 layer_factory.hpp:77] Creating layer conv4_1a_relu
I0411 11:10:47.157879  2464 net.cpp:91] Creating Layer conv4_1a_relu
I0411 11:10:47.157883  2464 net.cpp:425] conv4_1a_relu <- conv4_1a
I0411 11:10:47.157889  2464 net.cpp:386] conv4_1a_relu -> conv4_1a (in-place)
I0411 11:10:47.158357  2464 net.cpp:141] Setting up conv4_1a_relu
I0411 11:10:47.158368  2464 net.cpp:148] Top shape: 128 128 8 8 (1048576)
I0411 11:10:47.158372  2464 net.cpp:156] Memory required for data: 102237696
I0411 11:10:47.158377  2464 layer_factory.hpp:77] Creating layer conv4_1b
I0411 11:10:47.158390  2464 net.cpp:91] Creating Layer conv4_1b
I0411 11:10:47.158396  2464 net.cpp:425] conv4_1b <- conv4_1a
I0411 11:10:47.158403  2464 net.cpp:399] conv4_1b -> conv4_1b
I0411 11:10:47.166976  2464 net.cpp:141] Setting up conv4_1b
I0411 11:10:47.166995  2464 net.cpp:148] Top shape: 128 128 8 8 (1048576)
I0411 11:10:47.167001  2464 net.cpp:156] Memory required for data: 106432000
I0411 11:10:47.167008  2464 layer_factory.hpp:77] Creating layer bn_conv4_1b
I0411 11:10:47.167018  2464 net.cpp:91] Creating Layer bn_conv4_1b
I0411 11:10:47.167023  2464 net.cpp:425] bn_conv4_1b <- conv4_1b
I0411 11:10:47.167032  2464 net.cpp:386] bn_conv4_1b -> conv4_1b (in-place)
I0411 11:10:47.167208  2464 net.cpp:141] Setting up bn_conv4_1b
I0411 11:10:47.167217  2464 net.cpp:148] Top shape: 128 128 8 8 (1048576)
I0411 11:10:47.167222  2464 net.cpp:156] Memory required for data: 110626304
I0411 11:10:47.167229  2464 layer_factory.hpp:77] Creating layer scale_conv4_1b
I0411 11:10:47.167237  2464 net.cpp:91] Creating Layer scale_conv4_1b
I0411 11:10:47.167243  2464 net.cpp:425] scale_conv4_1b <- conv4_1b
I0411 11:10:47.167248  2464 net.cpp:386] scale_conv4_1b -> conv4_1b (in-place)
I0411 11:10:47.167284  2464 layer_factory.hpp:77] Creating layer scale_conv4_1b
I0411 11:10:47.167397  2464 net.cpp:141] Setting up scale_conv4_1b
I0411 11:10:47.167405  2464 net.cpp:148] Top shape: 128 128 8 8 (1048576)
I0411 11:10:47.167409  2464 net.cpp:156] Memory required for data: 114820608
I0411 11:10:47.167417  2464 layer_factory.hpp:77] Creating layer conv4_1b_relu
I0411 11:10:47.167423  2464 net.cpp:91] Creating Layer conv4_1b_relu
I0411 11:10:47.167428  2464 net.cpp:425] conv4_1b_relu <- conv4_1b
I0411 11:10:47.167433  2464 net.cpp:386] conv4_1b_relu -> conv4_1b (in-place)
I0411 11:10:47.167913  2464 net.cpp:141] Setting up conv4_1b_relu
I0411 11:10:47.167927  2464 net.cpp:148] Top shape: 128 128 8 8 (1048576)
I0411 11:10:47.167932  2464 net.cpp:156] Memory required for data: 119014912
I0411 11:10:47.167937  2464 layer_factory.hpp:77] Creating layer global_pool
I0411 11:10:47.167945  2464 net.cpp:91] Creating Layer global_pool
I0411 11:10:47.167950  2464 net.cpp:425] global_pool <- conv4_1b
I0411 11:10:47.167958  2464 net.cpp:399] global_pool -> global_pool
I0411 11:10:47.169067  2464 net.cpp:141] Setting up global_pool
I0411 11:10:47.169080  2464 net.cpp:148] Top shape: 128 128 1 1 (16384)
I0411 11:10:47.169085  2464 net.cpp:156] Memory required for data: 119080448
I0411 11:10:47.169088  2464 layer_factory.hpp:77] Creating layer ip
I0411 11:10:47.169098  2464 net.cpp:91] Creating Layer ip
I0411 11:10:47.169103  2464 net.cpp:425] ip <- global_pool
I0411 11:10:47.169128  2464 net.cpp:399] ip -> ip
I0411 11:10:47.169250  2464 net.cpp:141] Setting up ip
I0411 11:10:47.169258  2464 net.cpp:148] Top shape: 128 10 (1280)
I0411 11:10:47.169270  2464 net.cpp:156] Memory required for data: 119085568
I0411 11:10:47.169278  2464 layer_factory.hpp:77] Creating layer ip_ip_0_split
I0411 11:10:47.169291  2464 net.cpp:91] Creating Layer ip_ip_0_split
I0411 11:10:47.169296  2464 net.cpp:425] ip_ip_0_split <- ip
I0411 11:10:47.169303  2464 net.cpp:399] ip_ip_0_split -> ip_ip_0_split_0
I0411 11:10:47.169312  2464 net.cpp:399] ip_ip_0_split -> ip_ip_0_split_1
I0411 11:10:47.169347  2464 net.cpp:141] Setting up ip_ip_0_split
I0411 11:10:47.169353  2464 net.cpp:148] Top shape: 128 10 (1280)
I0411 11:10:47.169358  2464 net.cpp:148] Top shape: 128 10 (1280)
I0411 11:10:47.169363  2464 net.cpp:156] Memory required for data: 119095808
I0411 11:10:47.169368  2464 layer_factory.hpp:77] Creating layer accuracy
I0411 11:10:47.169381  2464 net.cpp:91] Creating Layer accuracy
I0411 11:10:47.169385  2464 net.cpp:425] accuracy <- ip_ip_0_split_0
I0411 11:10:47.169391  2464 net.cpp:425] accuracy <- label_cifar_1_split_0
I0411 11:10:47.169399  2464 net.cpp:399] accuracy -> accuracy
…
I0411 11:10:47.171494  2464 net.cpp:313] The NetState phase (1) differed from the phase (0) specified by a rule in layer cifar
I0411 11:10:47.171697  2464 net.cpp:49] Initializing net from parameters: 
name: "PlainNet-cifar"
state {
  phase: TEST
}
layer {
  name: "cifar"
  type: "Data"
  top: "data"
  top: "label"
  include {
    phase: TEST
  }
  transform_param {
    mean_file: "/home/liangjiang/code/residual_network/data/cifar10/mean.binaryproto"
  }
  data_param {
    source: "/home/liangjiang/code/residual_network/data/cifar10/cifar10_test_lmdb"
    batch_size: 32
    backend: LMDB
  }
}
layer {
  name: "conv1"
  type: "Convolution"
  bottom: "data"
  top: "conv1"
  param {
    lr_mult: 1
  }
  param {
    lr_mult: 2
  }
  convolution_param {
    num_output: 8
    pad: 1
    kernel_size: 3
    weight_filler {
      type: "msra"
    }
    bias_filler {
      type: "constant"
    }
  }
}
layer {
  name: "bn_conv1"
  type: "BatchNorm"
  bottom: "conv1"
  top: "conv1"
  param {
    lr_mult: 0
  }
  param {
    lr_mult: 0
  }
  param {
    lr_mult: 0
  }
}
layer {
  name: "scale_conv1"
  type: "Scale"
  bottom: "conv1"
  top: "conv1"
  scale_param {
    bias_term: true
  }
}
layer {
  name: "conv1_relu"
  type: "ReLU"
  bottom: "conv1"
  top: "conv1"
}
layer {
  name: "conv2_1a"
  type: "Convolution"
  bottom: "conv1"
  top: "conv2_1a"
  param {
    lr_mult: 1
  }
  param {
    lr_mult: 2
  }
  convolution_param {
    num_output: 8
    pad: 1
    kernel_size: 3
    stride: 1
    weight_filler {
      type: "msra"
    }
    bias_filler {
      type: "constant"
      value: 0
    }
  }
}
layer {
  name: "bn_conv2_1a"
  type: "BatchNorm"
  bottom: "conv2_1a"
  top: "conv2_1a"
  param {
    lr_mult: 0
  }
  param {
    lr_mult: 0
  }
  param {
    lr_mult: 0
  }
}
layer {
  name: "scale_conv2_1a"
  type: "Scale"
  bottom: "conv2_1a"
  top: "conv2_1a"
  scale_param {
    bias_term: true
  }
}
layer {
  name: "conv2_1a_relu"
  type: "ReLU"
  bottom: "conv2_1a"
  top: "conv2_1a"
}
layer {
  name: "conv2_1b"
  type: "Convolution"
  bottom: "conv2_1a"
  top: "conv2_1b"
  param {
    lr_mult: 1
  }
  param {
    lr_mult: 2
  }
  convolution_param {
    num_output: 8
    pad: 1
    kernel_size: 3
    stride: 1
    weight_filler {
      type: "msra"
    }
    bias_filler {
      type: "constant"
      value: 0
    }
  }
}
layer {
  name: "bn_conv2_1b"
  type: "BatchNorm"
  bottom: "conv2_1b"
  top: "conv2_1b"
  param {
    lr_mult: 0
  }
  param {
    lr_mult: 0
  }
  param {
    lr_mult: 0
  }
}
layer {
  name: "scale_conv2_1b"
  type: "Scale"
  bottom: "conv2_1b"
  top: "conv2_1b"
  scale_param {
    bias_term: true
  }
}
layer {
  name: "conv2_1b_relu"
  type: "ReLU"
  bottom: "conv2_1b"
  top: "conv2_1b"
}
layer {
  name: "conv3_1a"
  type: "Convolution"
  bottom: "conv2_1b"
  top: "conv3_1a"
  param {
    lr_mult: 1
  }
  param {
    lr_mult: 2
  }
  convolution_param {
    num_output: 32
    pad: 0
    kernel_size: 1
    stride: 2
    weight_filler {
      type: "msra"
    }
    bias_filler {
      type: "constant"
      value: 0
    }
  }
}
layer {
  name: "bn_conv3_1a"
  type: "BatchNorm"
  bottom: "conv3_1a"
  top: "conv3_1a"
  param {
    lr_mult: 0
  }
  param {
    lr_mult: 0
  }
  param {
    lr_mult: 0
  }
}
layer {
  name: "scale_conv3_1a"
  type: "Scale"
  bottom: "conv3_1a"
  top: "conv3_1a"
  scale_param {
    bias_term: true
  }
}
layer {
  name: "conv3_1a_relu"
  type: "ReLU"
  bottom: "conv3_1a"
  top: "conv3_1a"
}
layer {
  name: "conv3_1b"
  type: "Convolution"
  bottom: "conv3_1a"
  top: "conv3_1b"
  param {
    lr_mult: 1
  }
  param {
    lr_mult: 2
  }
  convolution_param {
    num_output: 32
    pad: 1
    kernel_size: 3
    stride: 1
    weight_filler {
      type: "msra"
    }
    bias_filler {
      type: "constant"
      value: 0
    }
  }
}
layer {
  name: "bn_conv3_1b"
  type: "BatchNorm"
  bottom: "conv3_1b"
  top: "conv3_1b"
  param {
    lr_mult: 0
  }
  param {
    lr_mult: 0
  }
  param {
    lr_mult: 0
  }
}
layer {
  name: "scale_conv3_1b"
  type: "Scale"
  bottom: "conv3_1b"
  top: "conv3_1b"
  scale_param {
    bias_term: true
  }
}
layer {
  name: "conv3_1b_relu"
  type: "ReLU"
  bottom: "conv3_1b"
  top: "conv3_1b"
}
layer {
  name: "conv4_1a"
  type: "Convolution"
  bottom: "conv3_1b"
  top: "conv4_1a"
  param {
    lr_mult: 1
  }
  param {
    lr_mult: 2
  }
  convolution_param {
    num_output: 128
    pad: 0
    kernel_size: 1
    stride: 2
    weight_filler {
      type: "msra"
    }
    bias_filler {
      type: "constant"
      value: 0
    }
  }
}
layer {
  name: "bn_conv4_1a"
  type: "BatchNorm"
  bottom: "conv4_1a"
  top: "conv4_1a"
  param {
    lr_mult: 0
  }
  param {
    lr_mult: 0
  }
  param {
    lr_mult: 0
  }
}
layer {
  name: "scale_conv4_1a"
  type: "Scale"
  bottom: "conv4_1a"
  top: "conv4_1a"
  scale_param {
    bias_term: true
  }
}
layer {
  name: "conv4_1a_relu"
  type: "ReLU"
  bottom: "conv4_1a"
  top: "conv4_1a"
}
layer {
  name: "conv4_1b"
  type: "Convolution"
  bottom: "conv4_1a"
  top: "conv4_1b"
  param {
    lr_mult: 1
  }
  param {
    lr_mult: 2
  }
  convolution_param {
    num_output: 128
    pad: 1
    kernel_size: 3
    stride: 1
    weight_filler {
      type: "msra"
    }
    bias_filler {
      type: "constant"
      value: 0
    }
  }
}
layer {
  name: "bn_conv4_1b"
  type: "BatchNorm"
  bottom: "conv4_1b"
  top: "conv4_1b"
  param {
    lr_mult: 0
  }
  param {
    lr_mult: 0
  }
  param {
    lr_mult: 0
  }
}
layer {
  name: "scale_conv4_1b"
  type: "Scale"
  bottom: "conv4_1b"
  top: "conv4_1b"
  scale_param {
    bias_term: true
  }
}
layer {
  name: "conv4_1b_relu"
  type: "ReLU"
  bottom: "conv4_1b"
  top: "conv4_1b"
}
layer {
  name: "global_pool"
  type: "Pooling"
  bottom: "conv4_1b"
  top: "global_pool"
  pooling_param {
    pool: AVE
    kernel_size: 8
    stride: 8
  }
}
layer {
  name: "ip"
  type: "InnerProduct"
  bottom: "global_pool"
  top: "ip"
  param {
    lr_mult: 1
  }
  param {
    lr_mult: 2
  }
  inner_product_param {
    num_output: 10
  }
}
layer {
  name: "accuracy"
  type: "Accuracy"
  bottom: "ip"
  bottom: "label"
  top: "accuracy"
}
layer {
  name: "loss"
  type: "SoftmaxWithLoss"
  bottom: "ip"
  bottom: "label"
  top: "loss"
}
I0411 11:10:47.171831  2464 layer_factory.hpp:77] Creating layer cifar
I0411 11:10:47.171911  2464 net.cpp:91] Creating Layer cifar
I0411 11:10:47.171934  2464 net.cpp:399] cifar -> data
I0411 11:10:47.171948  2464 net.cpp:399] cifar -> label
I0411 11:10:47.171958  2464 data_transformer.cpp:25] Loading mean file from: /home/liangjiang/code/residual_network/data/cifar10/mean.binaryproto
I0411 11:10:47.172811  2567 db_lmdb.cpp:38] Opened lmdb /home/liangjiang/code/residual_network/data/cifar10/cifar10_test_lmdb
I0411 11:10:47.172973  2464 data_layer.cpp:41] output data size: 32,3,32,32
I0411 11:10:47.176972  2464 net.cpp:141] Setting up cifar
I0411 11:10:47.177002  2464 net.cpp:148] Top shape: 32 3 32 32 (98304)
I0411 11:10:47.177009  2464 net.cpp:148] Top shape: 32 (32)
I0411 11:10:47.177014  2464 net.cpp:156] Memory required for data: 393344
I0411 11:10:47.177019  2464 layer_factory.hpp:77] Creating layer label_cifar_1_split
I0411 11:10:47.177034  2464 net.cpp:91] Creating Layer label_cifar_1_split
I0411 11:10:47.177040  2464 net.cpp:425] label_cifar_1_split <- label
I0411 11:10:47.177048  2464 net.cpp:399] label_cifar_1_split -> label_cifar_1_split_0
I0411 11:10:47.177057  2464 net.cpp:399] label_cifar_1_split -> label_cifar_1_split_1
I0411 11:10:47.177139  2464 net.cpp:141] Setting up label_cifar_1_split
I0411 11:10:47.177151  2464 net.cpp:148] Top shape: 32 (32)
I0411 11:10:47.177157  2464 net.cpp:148] Top shape: 32 (32)
I0411 11:10:47.177161  2464 net.cpp:156] Memory required for data: 393600
I0411 11:10:47.177165  2464 layer_factory.hpp:77] Creating layer conv1
I0411 11:10:47.177178  2464 net.cpp:91] Creating Layer conv1
I0411 11:10:47.177183  2464 net.cpp:425] conv1 <- data
I0411 11:10:47.177191  2464 net.cpp:399] conv1 -> conv1
I0411 11:10:47.180492  2464 net.cpp:141] Setting up conv1
I0411 11:10:47.180516  2464 net.cpp:148] Top shape: 32 8 32 32 (262144)
I0411 11:10:47.180521  2464 net.cpp:156] Memory required for data: 1442176
I0411 11:10:47.180533  2464 layer_factory.hpp:77] Creating layer bn_conv1
I0411 11:10:47.180543  2464 net.cpp:91] Creating Layer bn_conv1
I0411 11:10:47.180548  2464 net.cpp:425] bn_conv1 <- conv1
I0411 11:10:47.180557  2464 net.cpp:386] bn_conv1 -> conv1 (in-place)
I0411 11:10:47.180763  2464 net.cpp:141] Setting up bn_conv1
I0411 11:10:47.180771  2464 net.cpp:148] Top shape: 32 8 32 32 (262144)
I0411 11:10:47.180776  2464 net.cpp:156] Memory required for data: 2490752
I0411 11:10:47.180788  2464 layer_factory.hpp:77] Creating layer scale_conv1
I0411 11:10:47.180796  2464 net.cpp:91] Creating Layer scale_conv1
I0411 11:10:47.180801  2464 net.cpp:425] scale_conv1 <- conv1
I0411 11:10:47.180807  2464 net.cpp:386] scale_conv1 -> conv1 (in-place)
I0411 11:10:47.180851  2464 layer_factory.hpp:77] Creating layer scale_conv1
I0411 11:10:47.181618  2464 net.cpp:141] Setting up scale_conv1
I0411 11:10:47.181643  2464 net.cpp:148] Top shape: 32 8 32 32 (262144)
I0411 11:10:47.181648  2464 net.cpp:156] Memory required for data: 3539328
I0411 11:10:47.181655  2464 layer_factory.hpp:77] Creating layer conv1_relu
I0411 11:10:47.181663  2464 net.cpp:91] Creating Layer conv1_relu
I0411 11:10:47.181668  2464 net.cpp:425] conv1_relu <- conv1
I0411 11:10:47.181676  2464 net.cpp:386] conv1_relu -> conv1 (in-place)
I0411 11:10:47.181877  2464 net.cpp:141] Setting up conv1_relu
I0411 11:10:47.181888  2464 net.cpp:148] Top shape: 32 8 32 32 (262144)
I0411 11:10:47.181898  2464 net.cpp:156] Memory required for data: 4587904
I0411 11:10:47.181903  2464 layer_factory.hpp:77] Creating layer conv2_1a
I0411 11:10:47.181922  2464 net.cpp:91] Creating Layer conv2_1a
I0411 11:10:47.181927  2464 net.cpp:425] conv2_1a <- conv1
I0411 11:10:47.181936  2464 net.cpp:399] conv2_1a -> conv2_1a
I0411 11:10:47.186130  2464 net.cpp:141] Setting up conv2_1a
I0411 11:10:47.186158  2464 net.cpp:148] Top shape: 32 8 32 32 (262144)
I0411 11:10:47.186195  2464 net.cpp:156] Memory required for data: 5636480
I0411 11:10:47.186214  2464 layer_factory.hpp:77] Creating layer bn_conv2_1a
I0411 11:10:47.186234  2464 net.cpp:91] Creating Layer bn_conv2_1a
I0411 11:10:47.186244  2464 net.cpp:425] bn_conv2_1a <- conv2_1a
I0411 11:10:47.186254  2464 net.cpp:386] bn_conv2_1a -> conv2_1a (in-place)
I0411 11:10:47.186486  2464 net.cpp:141] Setting up bn_conv2_1a
I0411 11:10:47.186496  2464 net.cpp:148] Top shape: 32 8 32 32 (262144)
I0411 11:10:47.186501  2464 net.cpp:156] Memory required for data: 6685056
I0411 11:10:47.186508  2464 layer_factory.hpp:77] Creating layer scale_conv2_1a
I0411 11:10:47.186517  2464 net.cpp:91] Creating Layer scale_conv2_1a
I0411 11:10:47.186522  2464 net.cpp:425] scale_conv2_1a <- conv2_1a
I0411 11:10:47.186528  2464 net.cpp:386] scale_conv2_1a -> conv2_1a (in-place)
I0411 11:10:47.186570  2464 layer_factory.hpp:77] Creating layer scale_conv2_1a
I0411 11:10:47.186681  2464 net.cpp:141] Setting up scale_conv2_1a
I0411 11:10:47.186688  2464 net.cpp:148] Top shape: 32 8 32 32 (262144)
I0411 11:10:47.186692  2464 net.cpp:156] Memory required for data: 7733632
I0411 11:10:47.186705  2464 layer_factory.hpp:77] Creating layer conv2_1a_relu
I0411 11:10:47.186713  2464 net.cpp:91] Creating Layer conv2_1a_relu
I0411 11:10:47.186717  2464 net.cpp:425] conv2_1a_relu <- conv2_1a
I0411 11:10:47.186724  2464 net.cpp:386] conv2_1a_relu -> conv2_1a (in-place)
I0411 11:10:47.186914  2464 net.cpp:141] Setting up conv2_1a_relu
I0411 11:10:47.186930  2464 net.cpp:148] Top shape: 32 8 32 32 (262144)
I0411 11:10:47.186934  2464 net.cpp:156] Memory required for data: 8782208
I0411 11:10:47.186939  2464 layer_factory.hpp:77] Creating layer conv2_1b
I0411 11:10:47.186951  2464 net.cpp:91] Creating Layer conv2_1b
I0411 11:10:47.186956  2464 net.cpp:425] conv2_1b <- conv2_1a
I0411 11:10:47.186964  2464 net.cpp:399] conv2_1b -> conv2_1b
I0411 11:10:47.189153  2464 net.cpp:141] Setting up conv2_1b
I0411 11:10:47.189170  2464 net.cpp:148] Top shape: 32 8 32 32 (262144)
I0411 11:10:47.189177  2464 net.cpp:156] Memory required for data: 9830784
I0411 11:10:47.189184  2464 layer_factory.hpp:77] Creating layer bn_conv2_1b
I0411 11:10:47.189193  2464 net.cpp:91] Creating Layer bn_conv2_1b
I0411 11:10:47.189198  2464 net.cpp:425] bn_conv2_1b <- conv2_1b
I0411 11:10:47.189206  2464 net.cpp:386] bn_conv2_1b -> conv2_1b (in-place)
I0411 11:10:47.189400  2464 net.cpp:141] Setting up bn_conv2_1b
I0411 11:10:47.189412  2464 net.cpp:148] Top shape: 32 8 32 32 (262144)
I0411 11:10:47.189417  2464 net.cpp:156] Memory required for data: 10879360
I0411 11:10:47.189429  2464 layer_factory.hpp:77] Creating layer scale_conv2_1b
I0411 11:10:47.189437  2464 net.cpp:91] Creating Layer scale_conv2_1b
I0411 11:10:47.189441  2464 net.cpp:425] scale_conv2_1b <- conv2_1b
I0411 11:10:47.189448  2464 net.cpp:386] scale_conv2_1b -> conv2_1b (in-place)
I0411 11:10:47.189487  2464 layer_factory.hpp:77] Creating layer scale_conv2_1b
I0411 11:10:47.189596  2464 net.cpp:141] Setting up scale_conv2_1b
I0411 11:10:47.189604  2464 net.cpp:148] Top shape: 32 8 32 32 (262144)
I0411 11:10:47.189609  2464 net.cpp:156] Memory required for data: 11927936
I0411 11:10:47.189615  2464 layer_factory.hpp:77] Creating layer conv2_1b_relu
I0411 11:10:47.189621  2464 net.cpp:91] Creating Layer conv2_1b_relu
I0411 11:10:47.189626  2464 net.cpp:425] conv2_1b_relu <- conv2_1b
I0411 11:10:47.189631  2464 net.cpp:386] conv2_1b_relu -> conv2_1b (in-place)
I0411 11:10:47.189930  2464 net.cpp:141] Setting up conv2_1b_relu
I0411 11:10:47.189944  2464 net.cpp:148] Top shape: 32 8 32 32 (262144)
I0411 11:10:47.189949  2464 net.cpp:156] Memory required for data: 12976512
I0411 11:10:47.189954  2464 layer_factory.hpp:77] Creating layer conv3_1a
I0411 11:10:47.189966  2464 net.cpp:91] Creating Layer conv3_1a
I0411 11:10:47.189971  2464 net.cpp:425] conv3_1a <- conv2_1b
I0411 11:10:47.189980  2464 net.cpp:399] conv3_1a -> conv3_1a
I0411 11:10:47.192201  2464 net.cpp:141] Setting up conv3_1a
I0411 11:10:47.192219  2464 net.cpp:148] Top shape: 32 32 16 16 (262144)
I0411 11:10:47.192224  2464 net.cpp:156] Memory required for data: 14025088
I0411 11:10:47.192232  2464 layer_factory.hpp:77] Creating layer bn_conv3_1a
I0411 11:10:47.192239  2464 net.cpp:91] Creating Layer bn_conv3_1a
I0411 11:10:47.192245  2464 net.cpp:425] bn_conv3_1a <- conv3_1a
I0411 11:10:47.192253  2464 net.cpp:386] bn_conv3_1a -> conv3_1a (in-place)
I0411 11:10:47.192445  2464 net.cpp:141] Setting up bn_conv3_1a
I0411 11:10:47.192453  2464 net.cpp:148] Top shape: 32 32 16 16 (262144)
I0411 11:10:47.192458  2464 net.cpp:156] Memory required for data: 15073664
I0411 11:10:47.192466  2464 layer_factory.hpp:77] Creating layer scale_conv3_1a
I0411 11:10:47.192474  2464 net.cpp:91] Creating Layer scale_conv3_1a
I0411 11:10:47.192478  2464 net.cpp:425] scale_conv3_1a <- conv3_1a
I0411 11:10:47.192486  2464 net.cpp:386] scale_conv3_1a -> conv3_1a (in-place)
I0411 11:10:47.192526  2464 layer_factory.hpp:77] Creating layer scale_conv3_1a
I0411 11:10:47.192644  2464 net.cpp:141] Setting up scale_conv3_1a
I0411 11:10:47.192654  2464 net.cpp:148] Top shape: 32 32 16 16 (262144)
I0411 11:10:47.192662  2464 net.cpp:156] Memory required for data: 16122240
I0411 11:10:47.192670  2464 layer_factory.hpp:77] Creating layer conv3_1a_relu
I0411 11:10:47.192677  2464 net.cpp:91] Creating Layer conv3_1a_relu
I0411 11:10:47.192682  2464 net.cpp:425] conv3_1a_relu <- conv3_1a
I0411 11:10:47.192687  2464 net.cpp:386] conv3_1a_relu -> conv3_1a (in-place)
I0411 11:10:47.192869  2464 net.cpp:141] Setting up conv3_1a_relu
I0411 11:10:47.192879  2464 net.cpp:148] Top shape: 32 32 16 16 (262144)
I0411 11:10:47.192884  2464 net.cpp:156] Memory required for data: 17170816
I0411 11:10:47.192888  2464 layer_factory.hpp:77] Creating layer conv3_1b
I0411 11:10:47.192899  2464 net.cpp:91] Creating Layer conv3_1b
I0411 11:10:47.192904  2464 net.cpp:425] conv3_1b <- conv3_1a
I0411 11:10:47.192914  2464 net.cpp:399] conv3_1b -> conv3_1b
I0411 11:10:47.195214  2464 net.cpp:141] Setting up conv3_1b
I0411 11:10:47.195232  2464 net.cpp:148] Top shape: 32 32 16 16 (262144)
I0411 11:10:47.195237  2464 net.cpp:156] Memory required for data: 18219392
I0411 11:10:47.195245  2464 layer_factory.hpp:77] Creating layer bn_conv3_1b
I0411 11:10:47.195253  2464 net.cpp:91] Creating Layer bn_conv3_1b
I0411 11:10:47.195258  2464 net.cpp:425] bn_conv3_1b <- conv3_1b
I0411 11:10:47.195268  2464 net.cpp:386] bn_conv3_1b -> conv3_1b (in-place)
I0411 11:10:47.195483  2464 net.cpp:141] Setting up bn_conv3_1b
I0411 11:10:47.195492  2464 net.cpp:148] Top shape: 32 32 16 16 (262144)
I0411 11:10:47.195497  2464 net.cpp:156] Memory required for data: 19267968
I0411 11:10:47.195508  2464 layer_factory.hpp:77] Creating layer scale_conv3_1b
I0411 11:10:47.195518  2464 net.cpp:91] Creating Layer scale_conv3_1b
I0411 11:10:47.195523  2464 net.cpp:425] scale_conv3_1b <- conv3_1b
I0411 11:10:47.195528  2464 net.cpp:386] scale_conv3_1b -> conv3_1b (in-place)
I0411 11:10:47.195570  2464 layer_factory.hpp:77] Creating layer scale_conv3_1b
I0411 11:10:47.195688  2464 net.cpp:141] Setting up scale_conv3_1b
I0411 11:10:47.195695  2464 net.cpp:148] Top shape: 32 32 16 16 (262144)
I0411 11:10:47.195699  2464 net.cpp:156] Memory required for data: 20316544
I0411 11:10:47.195706  2464 layer_factory.hpp:77] Creating layer conv3_1b_relu
I0411 11:10:47.195714  2464 net.cpp:91] Creating Layer conv3_1b_relu
I0411 11:10:47.195719  2464 net.cpp:425] conv3_1b_relu <- conv3_1b
I0411 11:10:47.195724  2464 net.cpp:386] conv3_1b_relu -> conv3_1b (in-place)
I0411 11:10:47.195906  2464 net.cpp:141] Setting up conv3_1b_relu
I0411 11:10:47.195916  2464 net.cpp:148] Top shape: 32 32 16 16 (262144)
I0411 11:10:47.195920  2464 net.cpp:156] Memory required for data: 21365120
I0411 11:10:47.195925  2464 layer_factory.hpp:77] Creating layer conv4_1a
I0411 11:10:47.195945  2464 net.cpp:91] Creating Layer conv4_1a
I0411 11:10:47.195950  2464 net.cpp:425] conv4_1a <- conv3_1b
I0411 11:10:47.195960  2464 net.cpp:399] conv4_1a -> conv4_1a
I0411 11:10:47.198963  2464 net.cpp:141] Setting up conv4_1a
I0411 11:10:47.198979  2464 net.cpp:148] Top shape: 32 128 8 8 (262144)
I0411 11:10:47.198984  2464 net.cpp:156] Memory required for data: 22413696
I0411 11:10:47.198992  2464 layer_factory.hpp:77] Creating layer bn_conv4_1a
I0411 11:10:47.199002  2464 net.cpp:91] Creating Layer bn_conv4_1a
I0411 11:10:47.199007  2464 net.cpp:425] bn_conv4_1a <- conv4_1a
I0411 11:10:47.199015  2464 net.cpp:386] bn_conv4_1a -> conv4_1a (in-place)
I0411 11:10:47.199200  2464 net.cpp:141] Setting up bn_conv4_1a
I0411 11:10:47.199208  2464 net.cpp:148] Top shape: 32 128 8 8 (262144)
I0411 11:10:47.199213  2464 net.cpp:156] Memory required for data: 23462272
I0411 11:10:47.199219  2464 layer_factory.hpp:77] Creating layer scale_conv4_1a
I0411 11:10:47.199226  2464 net.cpp:91] Creating Layer scale_conv4_1a
I0411 11:10:47.199231  2464 net.cpp:425] scale_conv4_1a <- conv4_1a
I0411 11:10:47.199239  2464 net.cpp:386] scale_conv4_1a -> conv4_1a (in-place)
I0411 11:10:47.199276  2464 layer_factory.hpp:77] Creating layer scale_conv4_1a
I0411 11:10:47.199381  2464 net.cpp:141] Setting up scale_conv4_1a
I0411 11:10:47.199388  2464 net.cpp:148] Top shape: 32 128 8 8 (262144)
I0411 11:10:47.199398  2464 net.cpp:156] Memory required for data: 24510848
I0411 11:10:47.199404  2464 layer_factory.hpp:77] Creating layer conv4_1a_relu
I0411 11:10:47.199410  2464 net.cpp:91] Creating Layer conv4_1a_relu
I0411 11:10:47.199414  2464 net.cpp:425] conv4_1a_relu <- conv4_1a
I0411 11:10:47.199419  2464 net.cpp:386] conv4_1a_relu -> conv4_1a (in-place)
I0411 11:10:47.200089  2464 net.cpp:141] Setting up conv4_1a_relu
I0411 11:10:47.200104  2464 net.cpp:148] Top shape: 32 128 8 8 (262144)
I0411 11:10:47.200109  2464 net.cpp:156] Memory required for data: 25559424
I0411 11:10:47.200114  2464 layer_factory.hpp:77] Creating layer conv4_1b
I0411 11:10:47.200126  2464 net.cpp:91] Creating Layer conv4_1b
I0411 11:10:47.200131  2464 net.cpp:425] conv4_1b <- conv4_1a
I0411 11:10:47.200139  2464 net.cpp:399] conv4_1b -> conv4_1b
I0411 11:10:47.207702  2464 net.cpp:141] Setting up conv4_1b
I0411 11:10:47.207727  2464 net.cpp:148] Top shape: 32 128 8 8 (262144)
I0411 11:10:47.207732  2464 net.cpp:156] Memory required for data: 26608000
I0411 11:10:47.207741  2464 layer_factory.hpp:77] Creating layer bn_conv4_1b
I0411 11:10:47.207748  2464 net.cpp:91] Creating Layer bn_conv4_1b
I0411 11:10:47.207753  2464 net.cpp:425] bn_conv4_1b <- conv4_1b
I0411 11:10:47.207763  2464 net.cpp:386] bn_conv4_1b -> conv4_1b (in-place)
I0411 11:10:47.207957  2464 net.cpp:141] Setting up bn_conv4_1b
I0411 11:10:47.207967  2464 net.cpp:148] Top shape: 32 128 8 8 (262144)
I0411 11:10:47.207970  2464 net.cpp:156] Memory required for data: 27656576
I0411 11:10:47.207978  2464 layer_factory.hpp:77] Creating layer scale_conv4_1b
I0411 11:10:47.207985  2464 net.cpp:91] Creating Layer scale_conv4_1b
I0411 11:10:47.207989  2464 net.cpp:425] scale_conv4_1b <- conv4_1b
I0411 11:10:47.207995  2464 net.cpp:386] scale_conv4_1b -> conv4_1b (in-place)
I0411 11:10:47.208037  2464 layer_factory.hpp:77] Creating layer scale_conv4_1b
I0411 11:10:47.208149  2464 net.cpp:141] Setting up scale_conv4_1b
I0411 11:10:47.208156  2464 net.cpp:148] Top shape: 32 128 8 8 (262144)
I0411 11:10:47.208160  2464 net.cpp:156] Memory required for data: 28705152
I0411 11:10:47.208168  2464 layer_factory.hpp:77] Creating layer conv4_1b_relu
I0411 11:10:47.208175  2464 net.cpp:91] Creating Layer conv4_1b_relu
I0411 11:10:47.208179  2464 net.cpp:425] conv4_1b_relu <- conv4_1b
I0411 11:10:47.208185  2464 net.cpp:386] conv4_1b_relu -> conv4_1b (in-place)
I0411 11:10:47.208720  2464 net.cpp:141] Setting up conv4_1b_relu
I0411 11:10:47.208744  2464 net.cpp:148] Top shape: 32 128 8 8 (262144)
I0411 11:10:47.208747  2464 net.cpp:156] Memory required for data: 29753728
I0411 11:10:47.208752  2464 layer_factory.hpp:77] Creating layer global_pool
I0411 11:10:47.208760  2464 net.cpp:91] Creating Layer global_pool
I0411 11:10:47.208765  2464 net.cpp:425] global_pool <- conv4_1b
I0411 11:10:47.208772  2464 net.cpp:399] global_pool -> global_pool
I0411 11:10:47.209931  2464 net.cpp:141] Setting up global_pool
I0411 11:10:47.209947  2464 net.cpp:148] Top shape: 32 128 1 1 (4096)
I0411 11:10:47.209951  2464 net.cpp:156] Memory required for data: 29770112
I0411 11:10:47.209956  2464 layer_factory.hpp:77] Creating layer ip
I0411 11:10:47.209965  2464 net.cpp:91] Creating Layer ip
I0411 11:10:47.209969  2464 net.cpp:425] ip <- global_pool
I0411 11:10:47.209978  2464 net.cpp:399] ip -> ip
I0411 11:10:47.210100  2464 net.cpp:141] Setting up ip
I0411 11:10:47.210108  2464 net.cpp:148] Top shape: 32 10 (320)
I0411 11:10:47.210114  2464 net.cpp:156] Memory required for data: 29771392
I0411 11:10:47.210120  2464 layer_factory.hpp:77] Creating layer ip_ip_0_split
I0411 11:10:47.210135  2464 net.cpp:91] Creating Layer ip_ip_0_split
I0411 11:10:47.210139  2464 net.cpp:425] ip_ip_0_split <- ip
I0411 11:10:47.210146  2464 net.cpp:399] ip_ip_0_split -> ip_ip_0_split_0
I0411 11:10:47.210153  2464 net.cpp:399] ip_ip_0_split -> ip_ip_0_split_1
I0411 11:10:47.210193  2464 net.cpp:141] Setting up ip_ip_0_split
I0411 11:10:47.210201  2464 net.cpp:148] Top shape: 32 10 (320)
I0411 11:10:47.210209  2464 net.cpp:148] Top shape: 32 10 (320)
I0411 11:10:47.210214  2464 net.cpp:156] Memory required for data: 29773952
I0411 11:10:47.210218  2464 layer_factory.hpp:77] Creating layer accuracy
I0411 11:10:47.210224  2464 net.cpp:91] Creating Layer accuracy
I0411 11:10:47.210229  2464 net.cpp:425] accuracy <- ip_ip_0_split_0
I0411 11:10:47.210234  2464 net.cpp:425] accuracy <- label_cifar_1_split_0
I0411 11:10:47.210243  2464 net.cpp:399] accuracy -> accuracy
…
