…
I0412 17:09:34.693485  8571 net.cpp:313] The NetState phase (0) differed from the phase (1) specified by a rule in layer cifar
I0412 17:09:34.694099  8571 net.cpp:49] Initializing net from parameters: 
name: "ResNet-cifar"
state {
  phase: TRAIN
}
layer {
  name: "cifar"
  type: "Data"
  top: "data"
  top: "label"
  include {
    phase: TRAIN
  }
  transform_param {
    mean_file: "/home/liangjiang/code/residual_network/data/cifar10/mean.binaryproto"
  }
  data_param {
    source: "/home/liangjiang/code/residual_network/data/cifar10/cifar10_train_lmdb"
    batch_size: 256
    backend: LMDB
  }
}
layer {
  name: "conv1"
  type: "Convolution"
  bottom: "data"
  top: "conv1"
  param {
    lr_mult: 1
  }
  param {
    lr_mult: 2
  }
  convolution_param {
    num_output: 16
    pad: 1
    kernel_size: 3
    weight_filler {
      type: "msra"
    }
    bias_filler {
      type: "constant"
    }
  }
}
layer {
  name: "bn_conv1"
  type: "BatchNorm"
  bottom: "conv1"
  top: "conv1"
  param {
    lr_mult: 0
  }
  param {
    lr_mult: 0
  }
  param {
    lr_mult: 0
  }
}
layer {
  name: "scale_conv1"
  type: "Scale"
  bottom: "conv1"
  top: "conv1"
  scale_param {
    bias_term: true
  }
}
layer {
  name: "conv1_relu"
  type: "ReLU"
  bottom: "conv1"
  top: "conv1"
}
layer {
  name: "conv2_1a"
  type: "Convolution"
  bottom: "conv1"
  top: "conv2_1a"
  param {
    lr_mult: 1
  }
  param {
    lr_mult: 2
  }
  convolution_param {
    num_output: 16
    pad: 1
    kernel_size: 3
    stride: 1
    weight_filler {
      type: "msra"
    }
    bias_filler {
      type: "constant"
      value: 0
    }
  }
}
layer {
  name: "bn_conv2_1a"
  type: "BatchNorm"
  bottom: "conv2_1a"
  top: "conv2_1a"
  param {
    lr_mult: 0
  }
  param {
    lr_mult: 0
  }
  param {
    lr_mult: 0
  }
}
layer {
  name: "scale_conv2_1a"
  type: "Scale"
  bottom: "conv2_1a"
  top: "conv2_1a"
  scale_param {
    bias_term: true
  }
}
layer {
  name: "conv2_1a_relu"
  type: "ReLU"
  bottom: "conv2_1a"
  top: "conv2_1a"
}
layer {
  name: "conv2_1b"
  type: "Convolution"
  bottom: "conv2_1a"
  top: "conv2_1b"
  param {
    lr_mult: 1
  }
  param {
    lr_mult: 2
  }
  convolution_param {
    num_output: 16
    pad: 1
    kernel_size: 3
    stride: 1
    weight_filler {
      type: "msra"
    }
    bias_filler {
      type: "constant"
      value: 0
    }
  }
}
layer {
  name: "bn_conv2_1b"
  type: "BatchNorm"
  bottom: "conv2_1b"
  top: "conv2_1b"
  param {
    lr_mult: 0
  }
  param {
    lr_mult: 0
  }
  param {
    lr_mult: 0
  }
}
layer {
  name: "scale_conv2_1b"
  type: "Scale"
  bottom: "conv2_1b"
  top: "conv2_1b"
  scale_param {
    bias_term: true
  }
}
layer {
  name: "conv2_1"
  type: "Eltwise"
  bottom: "conv2_1b"
  bottom: "conv1"
  top: "conv2_1"
}
layer {
  name: "conv2_1_relu"
  type: "ReLU"
  bottom: "conv2_1"
  top: "conv2_1"
}
layer {
  name: "conv2_2a"
  type: "Convolution"
  bottom: "conv2_1"
  top: "conv2_2a"
  param {
    lr_mult: 1
  }
  param {
    lr_mult: 2
  }
  convolution_param {
    num_output: 16
    pad: 1
    kernel_size: 3
    stride: 1
    weight_filler {
      type: "msra"
    }
    bias_filler {
      type: "constant"
      value: 0
    }
  }
}
layer {
  name: "bn_conv2_2a"
  type: "BatchNorm"
  bottom: "conv2_2a"
  top: "conv2_2a"
  param {
    lr_mult: 0
  }
  param {
    lr_mult: 0
  }
  param {
    lr_mult: 0
  }
}
layer {
  name: "scale_conv2_2a"
  type: "Scale"
  bottom: "conv2_2a"
  top: "conv2_2a"
  scale_param {
    bias_term: true
  }
}
layer {
  name: "conv2_2a_relu"
  type: "ReLU"
  bottom: "conv2_2a"
  top: "conv2_2a"
}
layer {
  name: "conv2_2b"
  type: "Convolution"
  bottom: "conv2_2a"
  top: "conv2_2b"
  param {
    lr_mult: 1
  }
  param {
    lr_mult: 2
  }
  convolution_param {
    num_output: 16
    pad: 1
    kernel_size: 3
    stride: 1
    weight_filler {
      type: "msra"
    }
    bias_filler {
      type: "constant"
      value: 0
    }
  }
}
layer {
  name: "bn_conv2_2b"
  type: "BatchNorm"
  bottom: "conv2_2b"
  top: "conv2_2b"
  param {
    lr_mult: 0
  }
  param {
    lr_mult: 0
  }
  param {
    lr_mult: 0
  }
}
layer {
  name: "scale_conv2_2b"
  type: "Scale"
  bottom: "conv2_2b"
  top: "conv2_2b"
  scale_param {
    bias_term: true
  }
}
layer {
  name: "conv2_2"
  type: "Eltwise"
  bottom: "conv2_2b"
  bottom: "conv2_1"
  top: "conv2_2"
}
layer {
  name: "conv2_2_relu"
  type: "ReLU"
  bottom: "conv2_2"
  top: "conv2_2"
}
layer {
  name: "conv2_3a"
  type: "Convolution"
  bottom: "conv2_2"
  top: "conv2_3a"
  param {
    lr_mult: 1
  }
  param {
    lr_mult: 2
  }
  convolution_param {
    num_output: 16
    pad: 1
    kernel_size: 3
    stride: 1
    weight_filler {
      type: "msra"
    }
    bias_filler {
      type: "constant"
      value: 0
    }
  }
}
layer {
  name: "bn_conv2_3a"
  type: "BatchNorm"
  bottom: "conv2_3a"
  top: "conv2_3a"
  param {
    lr_mult: 0
  }
  param {
    lr_mult: 0
  }
  param {
    lr_mult: 0
  }
}
layer {
  name: "scale_conv2_3a"
  type: "Scale"
  bottom: "conv2_3a"
  top: "conv2_3a"
  scale_param {
    bias_term: true
  }
}
layer {
  name: "conv2_3a_relu"
  type: "ReLU"
  bottom: "conv2_3a"
  top: "conv2_3a"
}
layer {
  name: "conv2_3b"
  type: "Convolution"
  bottom: "conv2_3a"
  top: "conv2_3b"
  param {
    lr_mult: 1
  }
  param {
    lr_mult: 2
  }
  convolution_param {
    num_output: 16
    pad: 1
    kernel_size: 3
    stride: 1
    weight_filler {
      type: "msra"
    }
    bias_filler {
      type: "constant"
      value: 0
    }
  }
}
layer {
  name: "bn_conv2_3b"
  type: "BatchNorm"
  bottom: "conv2_3b"
  top: "conv2_3b"
  param {
    lr_mult: 0
  }
  param {
    lr_mult: 0
  }
  param {
    lr_mult: 0
  }
}
layer {
  name: "scale_conv2_3b"
  type: "Scale"
  bottom: "conv2_3b"
  top: "conv2_3b"
  scale_param {
    bias_term: true
  }
}
layer {
  name: "conv2_3"
  type: "Eltwise"
  bottom: "conv2_3b"
  bottom: "conv2_2"
  top: "conv2_3"
}
layer {
  name: "conv2_3_relu"
  type: "ReLU"
  bottom: "conv2_3"
  top: "conv2_3"
}
layer {
  name: "conv2_sub"
  type: "Convolution"
  bottom: "conv2_3"
  top: "conv2_sub"
  param {
    lr_mult: 1
  }
  param {
    lr_mult: 2
  }
  convolution_param {
    num_output: 32
    kernel_size: 1
    stride: 2
    weight_filler {
      type: "msra"
    }
    bias_filler {
      type: "constant"
      value: 0
    }
  }
}
layer {
  name: "bn_conv2_sub"
  type: "BatchNorm"
  bottom: "conv2_sub"
  top: "conv2_sub"
  param {
    lr_mult: 0
  }
  param {
    lr_mult: 0
  }
  param {
    lr_mult: 0
  }
}
layer {
  name: "scale_conv2_sub"
  type: "Scale"
  bottom: "conv2_sub"
  top: "conv2_sub"
  scale_param {
    bias_term: true
  }
}
layer {
  name: "conv3_1a"
  type: "Convolution"
  bottom: "conv2_3"
  top: "conv3_1a"
  param {
    lr_mult: 1
  }
  param {
    lr_mult: 2
  }
  convolution_param {
    num_output: 32
    pad: 0
    kernel_size: 1
    stride: 2
    weight_filler {
      type: "msra"
    }
    bias_filler {
      type: "constant"
      value: 0
    }
  }
}
layer {
  name: "bn_conv3_1a"
  type: "BatchNorm"
  bottom: "conv3_1a"
  top: "conv3_1a"
  param {
    lr_mult: 0
  }
  param {
    lr_mult: 0
  }
  param {
    lr_mult: 0
  }
}
layer {
  name: "scale_conv3_1a"
  type: "Scale"
  bottom: "conv3_1a"
  top: "conv3_1a"
  scale_param {
    bias_term: true
  }
}
layer {
  name: "conv3_1a_relu"
  type: "ReLU"
  bottom: "conv3_1a"
  top: "conv3_1a"
}
layer {
  name: "conv3_1b"
  type: "Convolution"
  bottom: "conv3_1a"
  top: "conv3_1b"
  param {
    lr_mult: 1
  }
  param {
    lr_mult: 2
  }
  convolution_param {
    num_output: 32
    pad: 1
    kernel_size: 3
    stride: 1
    weight_filler {
      type: "msra"
    }
    bias_filler {
      type: "constant"
      value: 0
    }
  }
}
layer {
  name: "bn_conv3_1b"
  type: "BatchNorm"
  bottom: "conv3_1b"
  top: "conv3_1b"
  param {
    lr_mult: 0
  }
  param {
    lr_mult: 0
  }
  param {
    lr_mult: 0
  }
}
layer {
  name: "scale_conv3_1b"
  type: "Scale"
  bottom: "conv3_1b"
  top: "conv3_1b"
  scale_param {
    bias_term: true
  }
}
layer {
  name: "conv3_1"
  type: "Eltwise"
  bottom: "conv3_1b"
  bottom: "conv2_sub"
  top: "conv3_1"
}
layer {
  name: "conv3_1_relu"
  type: "ReLU"
  bottom: "conv3_1"
  top: "conv3_1"
}
layer {
  name: "conv3_2a"
  type: "Convolution"
  bottom: "conv3_1"
  top: "conv3_2a"
  param {
    lr_mult: 1
  }
  param {
    lr_mult: 2
  }
  convolution_param {
    num_output: 32
    pad: 1
    kernel_size: 3
    stride: 1
    weight_filler {
      type: "msra"
    }
    bias_filler {
      type: "constant"
      value: 0
    }
  }
}
layer {
  name: "bn_conv3_2a"
  type: "BatchNorm"
  bottom: "conv3_2a"
  top: "conv3_2a"
  param {
    lr_mult: 0
  }
  param {
    lr_mult: 0
  }
  param {
    lr_mult: 0
  }
}
layer {
  name: "scale_conv3_2a"
  type: "Scale"
  bottom: "conv3_2a"
  top: "conv3_2a"
  scale_param {
    bias_term: true
  }
}
layer {
  name: "conv3_2a_relu"
  type: "ReLU"
  bottom: "conv3_2a"
  top: "conv3_2a"
}
layer {
  name: "conv3_2b"
  type: "Convolution"
  bottom: "conv3_2a"
  top: "conv3_2b"
  param {
    lr_mult: 1
  }
  param {
    lr_mult: 2
  }
  convolution_param {
    num_output: 32
    pad: 1
    kernel_size: 3
    stride: 1
    weight_filler {
      type: "msra"
    }
    bias_filler {
      type: "constant"
      value: 0
    }
  }
}
layer {
  name: "bn_conv3_2b"
  type: "BatchNorm"
  bottom: "conv3_2b"
  top: "conv3_2b"
  param {
    lr_mult: 0
  }
  param {
    lr_mult: 0
  }
  param {
    lr_mult: 0
  }
}
layer {
  name: "scale_conv3_2b"
  type: "Scale"
  bottom: "conv3_2b"
  top: "conv3_2b"
  scale_param {
    bias_term: true
  }
}
layer {
  name: "conv3_2"
  type: "Eltwise"
  bottom: "conv3_2b"
  bottom: "conv3_1"
  top: "conv3_2"
}
layer {
  name: "conv3_2_relu"
  type: "ReLU"
  bottom: "conv3_2"
  top: "conv3_2"
}
layer {
  name: "conv3_3a"
  type: "Convolution"
  bottom: "conv3_2"
  top: "conv3_3a"
  param {
    lr_mult: 1
  }
  param {
    lr_mult: 2
  }
  convolution_param {
    num_output: 32
    pad: 1
    kernel_size: 3
    stride: 1
    weight_filler {
      type: "msra"
    }
    bias_filler {
      type: "constant"
      value: 0
    }
  }
}
layer {
  name: "bn_conv3_3a"
  type: "BatchNorm"
  bottom: "conv3_3a"
  top: "conv3_3a"
  param {
    lr_mult: 0
  }
  param {
    lr_mult: 0
  }
  param {
    lr_mult: 0
  }
}
layer {
  name: "scale_conv3_3a"
  type: "Scale"
  bottom: "conv3_3a"
  top: "conv3_3a"
  scale_param {
    bias_term: true
  }
}
layer {
  name: "conv3_3a_relu"
  type: "ReLU"
  bottom: "conv3_3a"
  top: "conv3_3a"
}
layer {
  name: "conv3_3b"
  type: "Convolution"
  bottom: "conv3_3a"
  top: "conv3_3b"
  param {
    lr_mult: 1
  }
  param {
    lr_mult: 2
  }
  convolution_param {
    num_output: 32
    pad: 1
    kernel_size: 3
    stride: 1
    weight_filler {
      type: "msra"
    }
    bias_filler {
      type: "constant"
      value: 0
    }
  }
}
layer {
  name: "bn_conv3_3b"
  type: "BatchNorm"
  bottom: "conv3_3b"
  top: "conv3_3b"
  param {
    lr_mult: 0
  }
  param {
    lr_mult: 0
  }
  param {
    lr_mult: 0
  }
}
layer {
  name: "scale_conv3_3b"
  type: "Scale"
  bottom: "conv3_3b"
  top: "conv3_3b"
  scale_param {
    bias_term: true
  }
}
layer {
  name: "conv3_3"
  type: "Eltwise"
  bottom: "conv3_3b"
  bottom: "conv3_2"
  top: "conv3_3"
}
layer {
  name: "conv3_3_relu"
  type: "ReLU"
  bottom: "conv3_3"
  top: "conv3_3"
}
layer {
  name: "conv3_sub"
  type: "Convolution"
  bottom: "conv3_3"
  top: "conv3_sub"
  param {
    lr_mult: 1
  }
  param {
    lr_mult: 2
  }
  convolution_param {
    num_output: 64
    kernel_size: 1
    stride: 2
    weight_filler {
      type: "msra"
    }
    bias_filler {
      type: "constant"
      value: 0
    }
  }
}
layer {
  name: "bn_conv3_sub"
  type: "BatchNorm"
  bottom: "conv3_sub"
  top: "conv3_sub"
  param {
    lr_mult: 0
  }
  param {
    lr_mult: 0
  }
  param {
    lr_mult: 0
  }
}
layer {
  name: "scale_conv3_sub"
  type: "Scale"
  bottom: "conv3_sub"
  top: "conv3_sub"
  scale_param {
    bias_term: true
  }
}
layer {
  name: "conv4_1a"
  type: "Convolution"
  bottom: "conv3_3"
  top: "conv4_1a"
  param {
    lr_mult: 1
  }
  param {
    lr_mult: 2
  }
  convolution_param {
    num_output: 64
    pad: 0
    kernel_size: 1
    stride: 2
    weight_filler {
      type: "msra"
    }
    bias_filler {
      type: "constant"
      value: 0
    }
  }
}
layer {
  name: "bn_conv4_1a"
  type: "BatchNorm"
  bottom: "conv4_1a"
  top: "conv4_1a"
  param {
    lr_mult: 0
  }
  param {
    lr_mult: 0
  }
  param {
    lr_mult: 0
  }
}
layer {
  name: "scale_conv4_1a"
  type: "Scale"
  bottom: "conv4_1a"
  top: "conv4_1a"
  scale_param {
    bias_term: true
  }
}
layer {
  name: "conv4_1a_relu"
  type: "ReLU"
  bottom: "conv4_1a"
  top: "conv4_1a"
}
layer {
  name: "conv4_1b"
  type: "Convolution"
  bottom: "conv4_1a"
  top: "conv4_1b"
  param {
    lr_mult: 1
  }
  param {
    lr_mult: 2
  }
  convolution_param {
    num_output: 64
    pad: 1
    kernel_size: 3
    stride: 1
    weight_filler {
      type: "msra"
    }
    bias_filler {
      type: "constant"
      value: 0
    }
  }
}
layer {
  name: "bn_conv4_1b"
  type: "BatchNorm"
  bottom: "conv4_1b"
  top: "conv4_1b"
  param {
    lr_mult: 0
  }
  param {
    lr_mult: 0
  }
  param {
    lr_mult: 0
  }
}
layer {
  name: "scale_conv4_1b"
  type: "Scale"
  bottom: "conv4_1b"
  top: "conv4_1b"
  scale_param {
    bias_term: true
  }
}
layer {
  name: "conv4_1"
  type: "Eltwise"
  bottom: "conv3_sub"
  bottom: "conv4_1b"
  top: "conv4_1"
}
layer {
  name: "conv4_1_relu"
  type: "ReLU"
  bottom: "conv4_1"
  top: "conv4_1"
}
layer {
  name: "conv4_2a"
  type: "Convolution"
  bottom: "conv4_1"
  top: "conv4_2a"
  param {
    lr_mult: 1
  }
  param {
    lr_mult: 2
  }
  convolution_param {
    num_output: 64
    pad: 1
    kernel_size: 3
    stride: 1
    weight_filler {
      type: "msra"
    }
    bias_filler {
      type: "constant"
      value: 0
    }
  }
}
layer {
  name: "bn_conv4_2a"
  type: "BatchNorm"
  bottom: "conv4_2a"
  top: "conv4_2a"
  param {
    lr_mult: 0
  }
  param {
    lr_mult: 0
  }
  param {
    lr_mult: 0
  }
}
layer {
  name: "scale_conv4_2a"
  type: "Scale"
  bottom: "conv4_2a"
  top: "conv4_2a"
  scale_param {
    bias_term: true
  }
}
layer {
  name: "conv4_2a_relu"
  type: "ReLU"
  bottom: "conv4_2a"
  top: "conv4_2a"
}
layer {
  name: "conv4_2b"
  type: "Convolution"
  bottom: "conv4_2a"
  top: "conv4_2b"
  param {
    lr_mult: 1
  }
  param {
    lr_mult: 2
  }
  convolution_param {
    num_output: 64
    pad: 1
    kernel_size: 3
    stride: 1
    weight_filler {
      type: "msra"
    }
    bias_filler {
      type: "constant"
      value: 0
    }
  }
}
layer {
  name: "bn_conv4_2b"
  type: "BatchNorm"
  bottom: "conv4_2b"
  top: "conv4_2b"
  param {
    lr_mult: 0
  }
  param {
    lr_mult: 0
  }
  param {
    lr_mult: 0
  }
}
layer {
  name: "scale_conv4_2b"
  type: "Scale"
  bottom: "conv4_2b"
  top: "conv4_2b"
  scale_param {
    bias_term: true
  }
}
layer {
  name: "conv4_2"
  type: "Eltwise"
  bottom: "conv4_1"
  bottom: "conv4_2b"
  top: "conv4_2"
}
layer {
  name: "conv4_2_relu"
  type: "ReLU"
  bottom: "conv4_2"
  top: "conv4_2"
}
layer {
  name: "conv4_3a"
  type: "Convolution"
  bottom: "conv4_2"
  top: "conv4_3a"
  param {
    lr_mult: 1
  }
  param {
    lr_mult: 2
  }
  convolution_param {
    num_output: 64
    pad: 1
    kernel_size: 3
    stride: 1
    weight_filler {
      type: "msra"
    }
    bias_filler {
      type: "constant"
      value: 0
    }
  }
}
layer {
  name: "bn_conv4_3a"
  type: "BatchNorm"
  bottom: "conv4_3a"
  top: "conv4_3a"
  param {
    lr_mult: 0
  }
  param {
    lr_mult: 0
  }
  param {
    lr_mult: 0
  }
}
layer {
  name: "scale_conv4_3a"
  type: "Scale"
  bottom: "conv4_3a"
  top: "conv4_3a"
  scale_param {
    bias_term: true
  }
}
layer {
  name: "conv4_3a_relu"
  type: "ReLU"
  bottom: "conv4_3a"
  top: "conv4_3a"
}
layer {
  name: "conv4_3b"
  type: "Convolution"
  bottom: "conv4_3a"
  top: "conv4_3b"
  param {
    lr_mult: 1
  }
  param {
    lr_mult: 2
  }
  convolution_param {
    num_output: 64
    pad: 1
    kernel_size: 3
    stride: 1
    weight_filler {
      type: "msra"
    }
    bias_filler {
      type: "constant"
      value: 0
    }
  }
}
layer {
  name: "bn_conv4_3b"
  type: "BatchNorm"
  bottom: "conv4_3b"
  top: "conv4_3b"
  param {
    lr_mult: 0
  }
  param {
    lr_mult: 0
  }
  param {
    lr_mult: 0
  }
}
layer {
  name: "scale_conv4_3b"
  type: "Scale"
  bottom: "conv4_3b"
  top: "conv4_3b"
  scale_param {
    bias_term: true
  }
}
layer {
  name: "conv4_3"
  type: "Eltwise"
  bottom: "conv4_2"
  bottom: "conv4_3b"
  top: "conv4_3"
}
layer {
  name: "conv4_3_relu"
  type: "ReLU"
  bottom: "conv4_3"
  top: "conv4_3"
}
layer {
  name: "global_pool"
  type: "Pooling"
  bottom: "conv4_3"
  top: "global_pool"
  pooling_param {
    pool: AVE
    kernel_size: 8
    stride: 8
  }
}
layer {
  name: "ip"
  type: "InnerProduct"
  bottom: "global_pool"
  top: "ip"
  inner_product_param {
    num_output: 10
  }
}
layer {
  name: "accuracy"
  type: "Accuracy"
  bottom: "ip"
  bottom: "label"
  top: "accuracy"
}
layer {
  name: "loss"
  type: "SoftmaxWithLoss"
  bottom: "ip"
  bottom: "label"
  top: "loss"
}
I0412 17:09:34.694576  8571 layer_factory.hpp:77] Creating layer cifar
I0412 17:09:34.695667  8571 net.cpp:91] Creating Layer cifar
I0412 17:09:34.695686  8571 net.cpp:399] cifar -> data
I0412 17:09:34.695703  8571 net.cpp:399] cifar -> label
I0412 17:09:34.695742  8571 data_transformer.cpp:25] Loading mean file from: /home/liangjiang/code/residual_network/data/cifar10/mean.binaryproto
I0412 17:09:34.697618  8632 db_lmdb.cpp:38] Opened lmdb /home/liangjiang/code/residual_network/data/cifar10/cifar10_train_lmdb
I0412 17:09:34.708624  8571 data_layer.cpp:41] output data size: 256,3,32,32
I0412 17:09:34.715060  8571 net.cpp:141] Setting up cifar
I0412 17:09:34.715101  8571 net.cpp:148] Top shape: 256 3 32 32 (786432)
I0412 17:09:34.715109  8571 net.cpp:148] Top shape: 256 (256)
I0412 17:09:34.715117  8571 net.cpp:156] Memory required for data: 3146752
I0412 17:09:34.715127  8571 layer_factory.hpp:77] Creating layer label_cifar_1_split
I0412 17:09:34.715153  8571 net.cpp:91] Creating Layer label_cifar_1_split
I0412 17:09:34.715162  8571 net.cpp:425] label_cifar_1_split <- label
I0412 17:09:34.715178  8571 net.cpp:399] label_cifar_1_split -> label_cifar_1_split_0
I0412 17:09:34.715194  8571 net.cpp:399] label_cifar_1_split -> label_cifar_1_split_1
I0412 17:09:34.715261  8571 net.cpp:141] Setting up label_cifar_1_split
I0412 17:09:34.715276  8571 net.cpp:148] Top shape: 256 (256)
I0412 17:09:34.715283  8571 net.cpp:148] Top shape: 256 (256)
I0412 17:09:34.715288  8571 net.cpp:156] Memory required for data: 3148800
I0412 17:09:34.715294  8571 layer_factory.hpp:77] Creating layer conv1
I0412 17:09:34.715313  8571 net.cpp:91] Creating Layer conv1
I0412 17:09:34.715320  8571 net.cpp:425] conv1 <- data
I0412 17:09:34.715340  8571 net.cpp:399] conv1 -> conv1
I0412 17:09:34.999455  8571 net.cpp:141] Setting up conv1
I0412 17:09:34.999511  8571 net.cpp:148] Top shape: 256 16 32 32 (4194304)
I0412 17:09:34.999517  8571 net.cpp:156] Memory required for data: 19926016
I0412 17:09:34.999542  8571 layer_factory.hpp:77] Creating layer bn_conv1
I0412 17:09:34.999562  8571 net.cpp:91] Creating Layer bn_conv1
I0412 17:09:34.999568  8571 net.cpp:425] bn_conv1 <- conv1
I0412 17:09:34.999578  8571 net.cpp:386] bn_conv1 -> conv1 (in-place)
I0412 17:09:34.999781  8571 net.cpp:141] Setting up bn_conv1
I0412 17:09:34.999791  8571 net.cpp:148] Top shape: 256 16 32 32 (4194304)
I0412 17:09:34.999796  8571 net.cpp:156] Memory required for data: 36703232
I0412 17:09:34.999812  8571 layer_factory.hpp:77] Creating layer scale_conv1
I0412 17:09:34.999825  8571 net.cpp:91] Creating Layer scale_conv1
I0412 17:09:34.999831  8571 net.cpp:425] scale_conv1 <- conv1
I0412 17:09:34.999838  8571 net.cpp:386] scale_conv1 -> conv1 (in-place)
I0412 17:09:34.999882  8571 layer_factory.hpp:77] Creating layer scale_conv1
I0412 17:09:34.999994  8571 net.cpp:141] Setting up scale_conv1
I0412 17:09:35.000004  8571 net.cpp:148] Top shape: 256 16 32 32 (4194304)
I0412 17:09:35.000008  8571 net.cpp:156] Memory required for data: 53480448
I0412 17:09:35.000018  8571 layer_factory.hpp:77] Creating layer conv1_relu
I0412 17:09:35.000027  8571 net.cpp:91] Creating Layer conv1_relu
I0412 17:09:35.000032  8571 net.cpp:425] conv1_relu <- conv1
I0412 17:09:35.000039  8571 net.cpp:386] conv1_relu -> conv1 (in-place)
I0412 17:09:35.000344  8571 net.cpp:141] Setting up conv1_relu
I0412 17:09:35.000360  8571 net.cpp:148] Top shape: 256 16 32 32 (4194304)
I0412 17:09:35.000366  8571 net.cpp:156] Memory required for data: 70257664
I0412 17:09:35.000372  8571 layer_factory.hpp:77] Creating layer conv1_conv1_relu_0_split
I0412 17:09:35.000381  8571 net.cpp:91] Creating Layer conv1_conv1_relu_0_split
I0412 17:09:35.000386  8571 net.cpp:425] conv1_conv1_relu_0_split <- conv1
I0412 17:09:35.000396  8571 net.cpp:399] conv1_conv1_relu_0_split -> conv1_conv1_relu_0_split_0
I0412 17:09:35.000406  8571 net.cpp:399] conv1_conv1_relu_0_split -> conv1_conv1_relu_0_split_1
I0412 17:09:35.000449  8571 net.cpp:141] Setting up conv1_conv1_relu_0_split
I0412 17:09:35.000458  8571 net.cpp:148] Top shape: 256 16 32 32 (4194304)
I0412 17:09:35.000465  8571 net.cpp:148] Top shape: 256 16 32 32 (4194304)
I0412 17:09:35.000470  8571 net.cpp:156] Memory required for data: 103812096
I0412 17:09:35.000475  8571 layer_factory.hpp:77] Creating layer conv2_1a
I0412 17:09:35.000490  8571 net.cpp:91] Creating Layer conv2_1a
I0412 17:09:35.000495  8571 net.cpp:425] conv2_1a <- conv1_conv1_relu_0_split_0
I0412 17:09:35.000504  8571 net.cpp:399] conv2_1a -> conv2_1a
I0412 17:09:35.001467  8571 net.cpp:141] Setting up conv2_1a
I0412 17:09:35.001487  8571 net.cpp:148] Top shape: 256 16 32 32 (4194304)
I0412 17:09:35.001493  8571 net.cpp:156] Memory required for data: 120589312
I0412 17:09:35.001507  8571 layer_factory.hpp:77] Creating layer bn_conv2_1a
I0412 17:09:35.001518  8571 net.cpp:91] Creating Layer bn_conv2_1a
I0412 17:09:35.001525  8571 net.cpp:425] bn_conv2_1a <- conv2_1a
I0412 17:09:35.001533  8571 net.cpp:386] bn_conv2_1a -> conv2_1a (in-place)
I0412 17:09:35.001724  8571 net.cpp:141] Setting up bn_conv2_1a
I0412 17:09:35.001734  8571 net.cpp:148] Top shape: 256 16 32 32 (4194304)
I0412 17:09:35.001739  8571 net.cpp:156] Memory required for data: 137366528
I0412 17:09:35.001749  8571 layer_factory.hpp:77] Creating layer scale_conv2_1a
I0412 17:09:35.001757  8571 net.cpp:91] Creating Layer scale_conv2_1a
I0412 17:09:35.001762  8571 net.cpp:425] scale_conv2_1a <- conv2_1a
I0412 17:09:35.001770  8571 net.cpp:386] scale_conv2_1a -> conv2_1a (in-place)
I0412 17:09:35.001807  8571 layer_factory.hpp:77] Creating layer scale_conv2_1a
I0412 17:09:35.001915  8571 net.cpp:141] Setting up scale_conv2_1a
I0412 17:09:35.001925  8571 net.cpp:148] Top shape: 256 16 32 32 (4194304)
I0412 17:09:35.001930  8571 net.cpp:156] Memory required for data: 154143744
I0412 17:09:35.001947  8571 layer_factory.hpp:77] Creating layer conv2_1a_relu
I0412 17:09:35.001956  8571 net.cpp:91] Creating Layer conv2_1a_relu
I0412 17:09:35.001961  8571 net.cpp:425] conv2_1a_relu <- conv2_1a
I0412 17:09:35.001968  8571 net.cpp:386] conv2_1a_relu -> conv2_1a (in-place)
I0412 17:09:35.002265  8571 net.cpp:141] Setting up conv2_1a_relu
I0412 17:09:35.002282  8571 net.cpp:148] Top shape: 256 16 32 32 (4194304)
I0412 17:09:35.002288  8571 net.cpp:156] Memory required for data: 170920960
I0412 17:09:35.002295  8571 layer_factory.hpp:77] Creating layer conv2_1b
I0412 17:09:35.002307  8571 net.cpp:91] Creating Layer conv2_1b
I0412 17:09:35.002313  8571 net.cpp:425] conv2_1b <- conv2_1a
I0412 17:09:35.002322  8571 net.cpp:399] conv2_1b -> conv2_1b
I0412 17:09:35.003381  8571 net.cpp:141] Setting up conv2_1b
I0412 17:09:35.003399  8571 net.cpp:148] Top shape: 256 16 32 32 (4194304)
I0412 17:09:35.003406  8571 net.cpp:156] Memory required for data: 187698176
I0412 17:09:35.003415  8571 layer_factory.hpp:77] Creating layer bn_conv2_1b
I0412 17:09:35.003425  8571 net.cpp:91] Creating Layer bn_conv2_1b
I0412 17:09:35.003432  8571 net.cpp:425] bn_conv2_1b <- conv2_1b
I0412 17:09:35.003439  8571 net.cpp:386] bn_conv2_1b -> conv2_1b (in-place)
I0412 17:09:35.003628  8571 net.cpp:141] Setting up bn_conv2_1b
I0412 17:09:35.003636  8571 net.cpp:148] Top shape: 256 16 32 32 (4194304)
I0412 17:09:35.003643  8571 net.cpp:156] Memory required for data: 204475392
I0412 17:09:35.003655  8571 layer_factory.hpp:77] Creating layer scale_conv2_1b
I0412 17:09:35.003664  8571 net.cpp:91] Creating Layer scale_conv2_1b
I0412 17:09:35.003670  8571 net.cpp:425] scale_conv2_1b <- conv2_1b
I0412 17:09:35.003676  8571 net.cpp:386] scale_conv2_1b -> conv2_1b (in-place)
I0412 17:09:35.003715  8571 layer_factory.hpp:77] Creating layer scale_conv2_1b
I0412 17:09:35.003823  8571 net.cpp:141] Setting up scale_conv2_1b
I0412 17:09:35.003832  8571 net.cpp:148] Top shape: 256 16 32 32 (4194304)
I0412 17:09:35.003839  8571 net.cpp:156] Memory required for data: 221252608
I0412 17:09:35.003846  8571 layer_factory.hpp:77] Creating layer conv2_1
I0412 17:09:35.003864  8571 net.cpp:91] Creating Layer conv2_1
I0412 17:09:35.003870  8571 net.cpp:425] conv2_1 <- conv2_1b
I0412 17:09:35.003876  8571 net.cpp:425] conv2_1 <- conv1_conv1_relu_0_split_1
I0412 17:09:35.003883  8571 net.cpp:399] conv2_1 -> conv2_1
I0412 17:09:35.003916  8571 net.cpp:141] Setting up conv2_1
I0412 17:09:35.003926  8571 net.cpp:148] Top shape: 256 16 32 32 (4194304)
I0412 17:09:35.003931  8571 net.cpp:156] Memory required for data: 238029824
I0412 17:09:35.003936  8571 layer_factory.hpp:77] Creating layer conv2_1_relu
I0412 17:09:35.003943  8571 net.cpp:91] Creating Layer conv2_1_relu
I0412 17:09:35.003948  8571 net.cpp:425] conv2_1_relu <- conv2_1
I0412 17:09:35.003954  8571 net.cpp:386] conv2_1_relu -> conv2_1 (in-place)
I0412 17:09:35.004138  8571 net.cpp:141] Setting up conv2_1_relu
I0412 17:09:35.004151  8571 net.cpp:148] Top shape: 256 16 32 32 (4194304)
I0412 17:09:35.004156  8571 net.cpp:156] Memory required for data: 254807040
I0412 17:09:35.004161  8571 layer_factory.hpp:77] Creating layer conv2_1_conv2_1_relu_0_split
I0412 17:09:35.004170  8571 net.cpp:91] Creating Layer conv2_1_conv2_1_relu_0_split
I0412 17:09:35.004176  8571 net.cpp:425] conv2_1_conv2_1_relu_0_split <- conv2_1
I0412 17:09:35.004184  8571 net.cpp:399] conv2_1_conv2_1_relu_0_split -> conv2_1_conv2_1_relu_0_split_0
I0412 17:09:35.004194  8571 net.cpp:399] conv2_1_conv2_1_relu_0_split -> conv2_1_conv2_1_relu_0_split_1
I0412 17:09:35.004233  8571 net.cpp:141] Setting up conv2_1_conv2_1_relu_0_split
I0412 17:09:35.004242  8571 net.cpp:148] Top shape: 256 16 32 32 (4194304)
I0412 17:09:35.004248  8571 net.cpp:148] Top shape: 256 16 32 32 (4194304)
I0412 17:09:35.004253  8571 net.cpp:156] Memory required for data: 288361472
I0412 17:09:35.004258  8571 layer_factory.hpp:77] Creating layer conv2_2a
I0412 17:09:35.004271  8571 net.cpp:91] Creating Layer conv2_2a
I0412 17:09:35.004282  8571 net.cpp:425] conv2_2a <- conv2_1_conv2_1_relu_0_split_0
I0412 17:09:35.004292  8571 net.cpp:399] conv2_2a -> conv2_2a
I0412 17:09:35.005409  8571 net.cpp:141] Setting up conv2_2a
I0412 17:09:35.005430  8571 net.cpp:148] Top shape: 256 16 32 32 (4194304)
I0412 17:09:35.005436  8571 net.cpp:156] Memory required for data: 305138688
I0412 17:09:35.005445  8571 layer_factory.hpp:77] Creating layer bn_conv2_2a
I0412 17:09:35.005455  8571 net.cpp:91] Creating Layer bn_conv2_2a
I0412 17:09:35.005461  8571 net.cpp:425] bn_conv2_2a <- conv2_2a
I0412 17:09:35.005470  8571 net.cpp:386] bn_conv2_2a -> conv2_2a (in-place)
I0412 17:09:35.005662  8571 net.cpp:141] Setting up bn_conv2_2a
I0412 17:09:35.005672  8571 net.cpp:148] Top shape: 256 16 32 32 (4194304)
I0412 17:09:35.005677  8571 net.cpp:156] Memory required for data: 321915904
I0412 17:09:35.005687  8571 layer_factory.hpp:77] Creating layer scale_conv2_2a
I0412 17:09:35.005697  8571 net.cpp:91] Creating Layer scale_conv2_2a
I0412 17:09:35.005702  8571 net.cpp:425] scale_conv2_2a <- conv2_2a
I0412 17:09:35.005708  8571 net.cpp:386] scale_conv2_2a -> conv2_2a (in-place)
I0412 17:09:35.005746  8571 layer_factory.hpp:77] Creating layer scale_conv2_2a
I0412 17:09:35.005857  8571 net.cpp:141] Setting up scale_conv2_2a
I0412 17:09:35.005867  8571 net.cpp:148] Top shape: 256 16 32 32 (4194304)
I0412 17:09:35.005872  8571 net.cpp:156] Memory required for data: 338693120
I0412 17:09:35.005882  8571 layer_factory.hpp:77] Creating layer conv2_2a_relu
I0412 17:09:35.005889  8571 net.cpp:91] Creating Layer conv2_2a_relu
I0412 17:09:35.005894  8571 net.cpp:425] conv2_2a_relu <- conv2_2a
I0412 17:09:35.005902  8571 net.cpp:386] conv2_2a_relu -> conv2_2a (in-place)
I0412 17:09:35.006204  8571 net.cpp:141] Setting up conv2_2a_relu
I0412 17:09:35.006220  8571 net.cpp:148] Top shape: 256 16 32 32 (4194304)
I0412 17:09:35.006227  8571 net.cpp:156] Memory required for data: 355470336
I0412 17:09:35.006232  8571 layer_factory.hpp:77] Creating layer conv2_2b
I0412 17:09:35.006245  8571 net.cpp:91] Creating Layer conv2_2b
I0412 17:09:35.006252  8571 net.cpp:425] conv2_2b <- conv2_2a
I0412 17:09:35.006260  8571 net.cpp:399] conv2_2b -> conv2_2b
I0412 17:09:35.007277  8571 net.cpp:141] Setting up conv2_2b
I0412 17:09:35.007294  8571 net.cpp:148] Top shape: 256 16 32 32 (4194304)
I0412 17:09:35.007300  8571 net.cpp:156] Memory required for data: 372247552
I0412 17:09:35.007309  8571 layer_factory.hpp:77] Creating layer bn_conv2_2b
I0412 17:09:35.007319  8571 net.cpp:91] Creating Layer bn_conv2_2b
I0412 17:09:35.007325  8571 net.cpp:425] bn_conv2_2b <- conv2_2b
I0412 17:09:35.007335  8571 net.cpp:386] bn_conv2_2b -> conv2_2b (in-place)
I0412 17:09:35.007545  8571 net.cpp:141] Setting up bn_conv2_2b
I0412 17:09:35.007556  8571 net.cpp:148] Top shape: 256 16 32 32 (4194304)
I0412 17:09:35.007561  8571 net.cpp:156] Memory required for data: 389024768
I0412 17:09:35.007578  8571 layer_factory.hpp:77] Creating layer scale_conv2_2b
I0412 17:09:35.007587  8571 net.cpp:91] Creating Layer scale_conv2_2b
I0412 17:09:35.007593  8571 net.cpp:425] scale_conv2_2b <- conv2_2b
I0412 17:09:35.007601  8571 net.cpp:386] scale_conv2_2b -> conv2_2b (in-place)
I0412 17:09:35.007642  8571 layer_factory.hpp:77] Creating layer scale_conv2_2b
I0412 17:09:35.007761  8571 net.cpp:141] Setting up scale_conv2_2b
I0412 17:09:35.007771  8571 net.cpp:148] Top shape: 256 16 32 32 (4194304)
I0412 17:09:35.007776  8571 net.cpp:156] Memory required for data: 405801984
I0412 17:09:35.007784  8571 layer_factory.hpp:77] Creating layer conv2_2
I0412 17:09:35.007792  8571 net.cpp:91] Creating Layer conv2_2
I0412 17:09:35.007797  8571 net.cpp:425] conv2_2 <- conv2_2b
I0412 17:09:35.007803  8571 net.cpp:425] conv2_2 <- conv2_1_conv2_1_relu_0_split_1
I0412 17:09:35.007813  8571 net.cpp:399] conv2_2 -> conv2_2
I0412 17:09:35.007843  8571 net.cpp:141] Setting up conv2_2
I0412 17:09:35.007851  8571 net.cpp:148] Top shape: 256 16 32 32 (4194304)
I0412 17:09:35.007858  8571 net.cpp:156] Memory required for data: 422579200
I0412 17:09:35.007863  8571 layer_factory.hpp:77] Creating layer conv2_2_relu
I0412 17:09:35.007874  8571 net.cpp:91] Creating Layer conv2_2_relu
I0412 17:09:35.007880  8571 net.cpp:425] conv2_2_relu <- conv2_2
I0412 17:09:35.007886  8571 net.cpp:386] conv2_2_relu -> conv2_2 (in-place)
I0412 17:09:35.008200  8571 net.cpp:141] Setting up conv2_2_relu
I0412 17:09:35.008218  8571 net.cpp:148] Top shape: 256 16 32 32 (4194304)
I0412 17:09:35.008224  8571 net.cpp:156] Memory required for data: 439356416
I0412 17:09:35.008229  8571 layer_factory.hpp:77] Creating layer conv2_2_conv2_2_relu_0_split
I0412 17:09:35.008236  8571 net.cpp:91] Creating Layer conv2_2_conv2_2_relu_0_split
I0412 17:09:35.008241  8571 net.cpp:425] conv2_2_conv2_2_relu_0_split <- conv2_2
I0412 17:09:35.008251  8571 net.cpp:399] conv2_2_conv2_2_relu_0_split -> conv2_2_conv2_2_relu_0_split_0
I0412 17:09:35.008262  8571 net.cpp:399] conv2_2_conv2_2_relu_0_split -> conv2_2_conv2_2_relu_0_split_1
I0412 17:09:35.008311  8571 net.cpp:141] Setting up conv2_2_conv2_2_relu_0_split
I0412 17:09:35.008322  8571 net.cpp:148] Top shape: 256 16 32 32 (4194304)
I0412 17:09:35.008328  8571 net.cpp:148] Top shape: 256 16 32 32 (4194304)
I0412 17:09:35.008333  8571 net.cpp:156] Memory required for data: 472910848
I0412 17:09:35.008338  8571 layer_factory.hpp:77] Creating layer conv2_3a
I0412 17:09:35.008352  8571 net.cpp:91] Creating Layer conv2_3a
I0412 17:09:35.008358  8571 net.cpp:425] conv2_3a <- conv2_2_conv2_2_relu_0_split_0
I0412 17:09:35.008369  8571 net.cpp:399] conv2_3a -> conv2_3a
I0412 17:09:35.009534  8571 net.cpp:141] Setting up conv2_3a
I0412 17:09:35.009553  8571 net.cpp:148] Top shape: 256 16 32 32 (4194304)
I0412 17:09:35.009559  8571 net.cpp:156] Memory required for data: 489688064
I0412 17:09:35.009569  8571 layer_factory.hpp:77] Creating layer bn_conv2_3a
I0412 17:09:35.009582  8571 net.cpp:91] Creating Layer bn_conv2_3a
I0412 17:09:35.009588  8571 net.cpp:425] bn_conv2_3a <- conv2_3a
I0412 17:09:35.009595  8571 net.cpp:386] bn_conv2_3a -> conv2_3a (in-place)
I0412 17:09:35.009809  8571 net.cpp:141] Setting up bn_conv2_3a
I0412 17:09:35.009819  8571 net.cpp:148] Top shape: 256 16 32 32 (4194304)
I0412 17:09:35.009824  8571 net.cpp:156] Memory required for data: 506465280
I0412 17:09:35.009835  8571 layer_factory.hpp:77] Creating layer scale_conv2_3a
I0412 17:09:35.009842  8571 net.cpp:91] Creating Layer scale_conv2_3a
I0412 17:09:35.009848  8571 net.cpp:425] scale_conv2_3a <- conv2_3a
I0412 17:09:35.009855  8571 net.cpp:386] scale_conv2_3a -> conv2_3a (in-place)
I0412 17:09:35.009897  8571 layer_factory.hpp:77] Creating layer scale_conv2_3a
I0412 17:09:35.010020  8571 net.cpp:141] Setting up scale_conv2_3a
I0412 17:09:35.010030  8571 net.cpp:148] Top shape: 256 16 32 32 (4194304)
I0412 17:09:35.010035  8571 net.cpp:156] Memory required for data: 523242496
I0412 17:09:35.010043  8571 layer_factory.hpp:77] Creating layer conv2_3a_relu
I0412 17:09:35.010051  8571 net.cpp:91] Creating Layer conv2_3a_relu
I0412 17:09:35.010056  8571 net.cpp:425] conv2_3a_relu <- conv2_3a
I0412 17:09:35.010066  8571 net.cpp:386] conv2_3a_relu -> conv2_3a (in-place)
I0412 17:09:35.010262  8571 net.cpp:141] Setting up conv2_3a_relu
I0412 17:09:35.010274  8571 net.cpp:148] Top shape: 256 16 32 32 (4194304)
I0412 17:09:35.010280  8571 net.cpp:156] Memory required for data: 540019712
I0412 17:09:35.010284  8571 layer_factory.hpp:77] Creating layer conv2_3b
I0412 17:09:35.010298  8571 net.cpp:91] Creating Layer conv2_3b
I0412 17:09:35.010304  8571 net.cpp:425] conv2_3b <- conv2_3a
I0412 17:09:35.010315  8571 net.cpp:399] conv2_3b -> conv2_3b
I0412 17:09:35.012356  8571 net.cpp:141] Setting up conv2_3b
I0412 17:09:35.012409  8571 net.cpp:148] Top shape: 256 16 32 32 (4194304)
I0412 17:09:35.012420  8571 net.cpp:156] Memory required for data: 556796928
I0412 17:09:35.012439  8571 layer_factory.hpp:77] Creating layer bn_conv2_3b
I0412 17:09:35.012467  8571 net.cpp:91] Creating Layer bn_conv2_3b
I0412 17:09:35.012480  8571 net.cpp:425] bn_conv2_3b <- conv2_3b
I0412 17:09:35.012495  8571 net.cpp:386] bn_conv2_3b -> conv2_3b (in-place)
I0412 17:09:35.012836  8571 net.cpp:141] Setting up bn_conv2_3b
I0412 17:09:35.012852  8571 net.cpp:148] Top shape: 256 16 32 32 (4194304)
I0412 17:09:35.012861  8571 net.cpp:156] Memory required for data: 573574144
I0412 17:09:35.012876  8571 layer_factory.hpp:77] Creating layer scale_conv2_3b
I0412 17:09:35.012890  8571 net.cpp:91] Creating Layer scale_conv2_3b
I0412 17:09:35.012898  8571 net.cpp:425] scale_conv2_3b <- conv2_3b
I0412 17:09:35.012909  8571 net.cpp:386] scale_conv2_3b -> conv2_3b (in-place)
I0412 17:09:35.012974  8571 layer_factory.hpp:77] Creating layer scale_conv2_3b
I0412 17:09:35.013176  8571 net.cpp:141] Setting up scale_conv2_3b
I0412 17:09:35.013195  8571 net.cpp:148] Top shape: 256 16 32 32 (4194304)
I0412 17:09:35.013202  8571 net.cpp:156] Memory required for data: 590351360
I0412 17:09:35.013216  8571 layer_factory.hpp:77] Creating layer conv2_3
I0412 17:09:35.013231  8571 net.cpp:91] Creating Layer conv2_3
I0412 17:09:35.013239  8571 net.cpp:425] conv2_3 <- conv2_3b
I0412 17:09:35.013249  8571 net.cpp:425] conv2_3 <- conv2_2_conv2_2_relu_0_split_1
I0412 17:09:35.013260  8571 net.cpp:399] conv2_3 -> conv2_3
I0412 17:09:35.013301  8571 net.cpp:141] Setting up conv2_3
I0412 17:09:35.013314  8571 net.cpp:148] Top shape: 256 16 32 32 (4194304)
I0412 17:09:35.013321  8571 net.cpp:156] Memory required for data: 607128576
I0412 17:09:35.013329  8571 layer_factory.hpp:77] Creating layer conv2_3_relu
I0412 17:09:35.013345  8571 net.cpp:91] Creating Layer conv2_3_relu
I0412 17:09:35.013352  8571 net.cpp:425] conv2_3_relu <- conv2_3
I0412 17:09:35.013365  8571 net.cpp:386] conv2_3_relu -> conv2_3 (in-place)
I0412 17:09:35.013939  8571 net.cpp:141] Setting up conv2_3_relu
I0412 17:09:35.013970  8571 net.cpp:148] Top shape: 256 16 32 32 (4194304)
I0412 17:09:35.013981  8571 net.cpp:156] Memory required for data: 623905792
I0412 17:09:35.013993  8571 layer_factory.hpp:77] Creating layer conv2_3_conv2_3_relu_0_split
I0412 17:09:35.014009  8571 net.cpp:91] Creating Layer conv2_3_conv2_3_relu_0_split
I0412 17:09:35.014024  8571 net.cpp:425] conv2_3_conv2_3_relu_0_split <- conv2_3
I0412 17:09:35.014039  8571 net.cpp:399] conv2_3_conv2_3_relu_0_split -> conv2_3_conv2_3_relu_0_split_0
I0412 17:09:35.014060  8571 net.cpp:399] conv2_3_conv2_3_relu_0_split -> conv2_3_conv2_3_relu_0_split_1
I0412 17:09:35.014153  8571 net.cpp:141] Setting up conv2_3_conv2_3_relu_0_split
I0412 17:09:35.014169  8571 net.cpp:148] Top shape: 256 16 32 32 (4194304)
I0412 17:09:35.014183  8571 net.cpp:148] Top shape: 256 16 32 32 (4194304)
I0412 17:09:35.014191  8571 net.cpp:156] Memory required for data: 657460224
I0412 17:09:35.014201  8571 layer_factory.hpp:77] Creating layer conv2_sub
I0412 17:09:35.014231  8571 net.cpp:91] Creating Layer conv2_sub
I0412 17:09:35.014243  8571 net.cpp:425] conv2_sub <- conv2_3_conv2_3_relu_0_split_0
I0412 17:09:35.014263  8571 net.cpp:399] conv2_sub -> conv2_sub
I0412 17:09:35.016335  8571 net.cpp:141] Setting up conv2_sub
I0412 17:09:35.016367  8571 net.cpp:148] Top shape: 256 32 16 16 (2097152)
I0412 17:09:35.016379  8571 net.cpp:156] Memory required for data: 665848832
I0412 17:09:35.016402  8571 layer_factory.hpp:77] Creating layer bn_conv2_sub
I0412 17:09:35.016420  8571 net.cpp:91] Creating Layer bn_conv2_sub
I0412 17:09:35.016432  8571 net.cpp:425] bn_conv2_sub <- conv2_sub
I0412 17:09:35.016449  8571 net.cpp:386] bn_conv2_sub -> conv2_sub (in-place)
I0412 17:09:35.016847  8571 net.cpp:141] Setting up bn_conv2_sub
I0412 17:09:35.016865  8571 net.cpp:148] Top shape: 256 32 16 16 (2097152)
I0412 17:09:35.016875  8571 net.cpp:156] Memory required for data: 674237440
I0412 17:09:35.016894  8571 layer_factory.hpp:77] Creating layer scale_conv2_sub
I0412 17:09:35.016913  8571 net.cpp:91] Creating Layer scale_conv2_sub
I0412 17:09:35.016924  8571 net.cpp:425] scale_conv2_sub <- conv2_sub
I0412 17:09:35.016938  8571 net.cpp:386] scale_conv2_sub -> conv2_sub (in-place)
I0412 17:09:35.017016  8571 layer_factory.hpp:77] Creating layer scale_conv2_sub
I0412 17:09:35.017268  8571 net.cpp:141] Setting up scale_conv2_sub
I0412 17:09:35.017302  8571 net.cpp:148] Top shape: 256 32 16 16 (2097152)
I0412 17:09:35.017313  8571 net.cpp:156] Memory required for data: 682626048
I0412 17:09:35.017329  8571 layer_factory.hpp:77] Creating layer conv3_1a
I0412 17:09:35.017356  8571 net.cpp:91] Creating Layer conv3_1a
I0412 17:09:35.017367  8571 net.cpp:425] conv3_1a <- conv2_3_conv2_3_relu_0_split_1
I0412 17:09:35.017387  8571 net.cpp:399] conv3_1a -> conv3_1a
I0412 17:09:35.019433  8571 net.cpp:141] Setting up conv3_1a
I0412 17:09:35.019466  8571 net.cpp:148] Top shape: 256 32 16 16 (2097152)
I0412 17:09:35.019477  8571 net.cpp:156] Memory required for data: 691014656
I0412 17:09:35.019495  8571 layer_factory.hpp:77] Creating layer bn_conv3_1a
I0412 17:09:35.019516  8571 net.cpp:91] Creating Layer bn_conv3_1a
I0412 17:09:35.019527  8571 net.cpp:425] bn_conv3_1a <- conv3_1a
I0412 17:09:35.019546  8571 net.cpp:386] bn_conv3_1a -> conv3_1a (in-place)
I0412 17:09:35.019953  8571 net.cpp:141] Setting up bn_conv3_1a
I0412 17:09:35.019971  8571 net.cpp:148] Top shape: 256 32 16 16 (2097152)
I0412 17:09:35.019981  8571 net.cpp:156] Memory required for data: 699403264
I0412 17:09:35.020000  8571 layer_factory.hpp:77] Creating layer scale_conv3_1a
I0412 17:09:35.020016  8571 net.cpp:91] Creating Layer scale_conv3_1a
I0412 17:09:35.020026  8571 net.cpp:425] scale_conv3_1a <- conv3_1a
I0412 17:09:35.020043  8571 net.cpp:386] scale_conv3_1a -> conv3_1a (in-place)
I0412 17:09:35.020118  8571 layer_factory.hpp:77] Creating layer scale_conv3_1a
I0412 17:09:35.020352  8571 net.cpp:141] Setting up scale_conv3_1a
I0412 17:09:35.020371  8571 net.cpp:148] Top shape: 256 32 16 16 (2097152)
I0412 17:09:35.020380  8571 net.cpp:156] Memory required for data: 707791872
I0412 17:09:35.020396  8571 layer_factory.hpp:77] Creating layer conv3_1a_relu
I0412 17:09:35.020411  8571 net.cpp:91] Creating Layer conv3_1a_relu
I0412 17:09:35.020421  8571 net.cpp:425] conv3_1a_relu <- conv3_1a
I0412 17:09:35.020433  8571 net.cpp:386] conv3_1a_relu -> conv3_1a (in-place)
I0412 17:09:35.021011  8571 net.cpp:141] Setting up conv3_1a_relu
I0412 17:09:35.021040  8571 net.cpp:148] Top shape: 256 32 16 16 (2097152)
I0412 17:09:35.021051  8571 net.cpp:156] Memory required for data: 716180480
I0412 17:09:35.021061  8571 layer_factory.hpp:77] Creating layer conv3_1b
I0412 17:09:35.021088  8571 net.cpp:91] Creating Layer conv3_1b
I0412 17:09:35.021100  8571 net.cpp:425] conv3_1b <- conv3_1a
I0412 17:09:35.021137  8571 net.cpp:399] conv3_1b -> conv3_1b
I0412 17:09:35.024704  8571 net.cpp:141] Setting up conv3_1b
I0412 17:09:35.024742  8571 net.cpp:148] Top shape: 256 32 16 16 (2097152)
I0412 17:09:35.024755  8571 net.cpp:156] Memory required for data: 724569088
I0412 17:09:35.024801  8571 layer_factory.hpp:77] Creating layer bn_conv3_1b
I0412 17:09:35.024821  8571 net.cpp:91] Creating Layer bn_conv3_1b
I0412 17:09:35.024832  8571 net.cpp:425] bn_conv3_1b <- conv3_1b
I0412 17:09:35.024848  8571 net.cpp:386] bn_conv3_1b -> conv3_1b (in-place)
I0412 17:09:35.025271  8571 net.cpp:141] Setting up bn_conv3_1b
I0412 17:09:35.025293  8571 net.cpp:148] Top shape: 256 32 16 16 (2097152)
I0412 17:09:35.025305  8571 net.cpp:156] Memory required for data: 732957696
I0412 17:09:35.025323  8571 layer_factory.hpp:77] Creating layer scale_conv3_1b
I0412 17:09:35.025341  8571 net.cpp:91] Creating Layer scale_conv3_1b
I0412 17:09:35.025352  8571 net.cpp:425] scale_conv3_1b <- conv3_1b
I0412 17:09:35.025364  8571 net.cpp:386] scale_conv3_1b -> conv3_1b (in-place)
I0412 17:09:35.025452  8571 layer_factory.hpp:77] Creating layer scale_conv3_1b
I0412 17:09:35.025676  8571 net.cpp:141] Setting up scale_conv3_1b
I0412 17:09:35.025692  8571 net.cpp:148] Top shape: 256 32 16 16 (2097152)
I0412 17:09:35.025701  8571 net.cpp:156] Memory required for data: 741346304
I0412 17:09:35.025717  8571 layer_factory.hpp:77] Creating layer conv3_1
I0412 17:09:35.025733  8571 net.cpp:91] Creating Layer conv3_1
I0412 17:09:35.025743  8571 net.cpp:425] conv3_1 <- conv3_1b
I0412 17:09:35.025753  8571 net.cpp:425] conv3_1 <- conv2_sub
I0412 17:09:35.025779  8571 net.cpp:399] conv3_1 -> conv3_1
I0412 17:09:35.025821  8571 net.cpp:141] Setting up conv3_1
I0412 17:09:35.025836  8571 net.cpp:148] Top shape: 256 32 16 16 (2097152)
I0412 17:09:35.025846  8571 net.cpp:156] Memory required for data: 749734912
I0412 17:09:35.025854  8571 layer_factory.hpp:77] Creating layer conv3_1_relu
I0412 17:09:35.025867  8571 net.cpp:91] Creating Layer conv3_1_relu
I0412 17:09:35.025877  8571 net.cpp:425] conv3_1_relu <- conv3_1
I0412 17:09:35.025892  8571 net.cpp:386] conv3_1_relu -> conv3_1 (in-place)
I0412 17:09:35.026234  8571 net.cpp:141] Setting up conv3_1_relu
I0412 17:09:35.026257  8571 net.cpp:148] Top shape: 256 32 16 16 (2097152)
I0412 17:09:35.026267  8571 net.cpp:156] Memory required for data: 758123520
I0412 17:09:35.026275  8571 layer_factory.hpp:77] Creating layer conv3_1_conv3_1_relu_0_split
I0412 17:09:35.026289  8571 net.cpp:91] Creating Layer conv3_1_conv3_1_relu_0_split
I0412 17:09:35.026299  8571 net.cpp:425] conv3_1_conv3_1_relu_0_split <- conv3_1
I0412 17:09:35.026312  8571 net.cpp:399] conv3_1_conv3_1_relu_0_split -> conv3_1_conv3_1_relu_0_split_0
I0412 17:09:35.026329  8571 net.cpp:399] conv3_1_conv3_1_relu_0_split -> conv3_1_conv3_1_relu_0_split_1
I0412 17:09:35.026412  8571 net.cpp:141] Setting up conv3_1_conv3_1_relu_0_split
I0412 17:09:35.026427  8571 net.cpp:148] Top shape: 256 32 16 16 (2097152)
I0412 17:09:35.026437  8571 net.cpp:148] Top shape: 256 32 16 16 (2097152)
I0412 17:09:35.026446  8571 net.cpp:156] Memory required for data: 774900736
I0412 17:09:35.026455  8571 layer_factory.hpp:77] Creating layer conv3_2a
I0412 17:09:35.026479  8571 net.cpp:91] Creating Layer conv3_2a
I0412 17:09:35.026489  8571 net.cpp:425] conv3_2a <- conv3_1_conv3_1_relu_0_split_0
I0412 17:09:35.026509  8571 net.cpp:399] conv3_2a -> conv3_2a
I0412 17:09:35.029021  8571 net.cpp:141] Setting up conv3_2a
I0412 17:09:35.029052  8571 net.cpp:148] Top shape: 256 32 16 16 (2097152)
I0412 17:09:35.029063  8571 net.cpp:156] Memory required for data: 783289344
I0412 17:09:35.029080  8571 layer_factory.hpp:77] Creating layer bn_conv3_2a
I0412 17:09:35.029101  8571 net.cpp:91] Creating Layer bn_conv3_2a
I0412 17:09:35.029124  8571 net.cpp:425] bn_conv3_2a <- conv3_2a
I0412 17:09:35.029146  8571 net.cpp:386] bn_conv3_2a -> conv3_2a (in-place)
I0412 17:09:35.029549  8571 net.cpp:141] Setting up bn_conv3_2a
I0412 17:09:35.029567  8571 net.cpp:148] Top shape: 256 32 16 16 (2097152)
I0412 17:09:35.029577  8571 net.cpp:156] Memory required for data: 791677952
I0412 17:09:35.029597  8571 layer_factory.hpp:77] Creating layer scale_conv3_2a
I0412 17:09:35.029613  8571 net.cpp:91] Creating Layer scale_conv3_2a
I0412 17:09:35.029623  8571 net.cpp:425] scale_conv3_2a <- conv3_2a
I0412 17:09:35.029635  8571 net.cpp:386] scale_conv3_2a -> conv3_2a (in-place)
I0412 17:09:35.029709  8571 layer_factory.hpp:77] Creating layer scale_conv3_2a
I0412 17:09:35.029932  8571 net.cpp:141] Setting up scale_conv3_2a
I0412 17:09:35.029948  8571 net.cpp:148] Top shape: 256 32 16 16 (2097152)
I0412 17:09:35.029956  8571 net.cpp:156] Memory required for data: 800066560
I0412 17:09:35.029971  8571 layer_factory.hpp:77] Creating layer conv3_2a_relu
I0412 17:09:35.029989  8571 net.cpp:91] Creating Layer conv3_2a_relu
I0412 17:09:35.029999  8571 net.cpp:425] conv3_2a_relu <- conv3_2a
I0412 17:09:35.030011  8571 net.cpp:386] conv3_2a_relu -> conv3_2a (in-place)
I0412 17:09:35.030355  8571 net.cpp:141] Setting up conv3_2a_relu
I0412 17:09:35.030375  8571 net.cpp:148] Top shape: 256 32 16 16 (2097152)
I0412 17:09:35.030385  8571 net.cpp:156] Memory required for data: 808455168
I0412 17:09:35.030395  8571 layer_factory.hpp:77] Creating layer conv3_2b
I0412 17:09:35.030418  8571 net.cpp:91] Creating Layer conv3_2b
I0412 17:09:35.030429  8571 net.cpp:425] conv3_2b <- conv3_2a
I0412 17:09:35.030447  8571 net.cpp:399] conv3_2b -> conv3_2b
I0412 17:09:35.032954  8571 net.cpp:141] Setting up conv3_2b
I0412 17:09:35.032985  8571 net.cpp:148] Top shape: 256 32 16 16 (2097152)
I0412 17:09:35.033004  8571 net.cpp:156] Memory required for data: 816843776
I0412 17:09:35.033021  8571 layer_factory.hpp:77] Creating layer bn_conv3_2b
I0412 17:09:35.033041  8571 net.cpp:91] Creating Layer bn_conv3_2b
I0412 17:09:35.033052  8571 net.cpp:425] bn_conv3_2b <- conv3_2b
I0412 17:09:35.033069  8571 net.cpp:386] bn_conv3_2b -> conv3_2b (in-place)
I0412 17:09:35.033468  8571 net.cpp:141] Setting up bn_conv3_2b
I0412 17:09:35.033488  8571 net.cpp:148] Top shape: 256 32 16 16 (2097152)
I0412 17:09:35.033498  8571 net.cpp:156] Memory required for data: 825232384
I0412 17:09:35.033514  8571 layer_factory.hpp:77] Creating layer scale_conv3_2b
I0412 17:09:35.033530  8571 net.cpp:91] Creating Layer scale_conv3_2b
I0412 17:09:35.033540  8571 net.cpp:425] scale_conv3_2b <- conv3_2b
I0412 17:09:35.033555  8571 net.cpp:386] scale_conv3_2b -> conv3_2b (in-place)
I0412 17:09:35.033627  8571 layer_factory.hpp:77] Creating layer scale_conv3_2b
I0412 17:09:35.033854  8571 net.cpp:141] Setting up scale_conv3_2b
I0412 17:09:35.033870  8571 net.cpp:148] Top shape: 256 32 16 16 (2097152)
I0412 17:09:35.033879  8571 net.cpp:156] Memory required for data: 833620992
I0412 17:09:35.033895  8571 layer_factory.hpp:77] Creating layer conv3_2
I0412 17:09:35.033908  8571 net.cpp:91] Creating Layer conv3_2
I0412 17:09:35.033917  8571 net.cpp:425] conv3_2 <- conv3_2b
I0412 17:09:35.033929  8571 net.cpp:425] conv3_2 <- conv3_1_conv3_1_relu_0_split_1
I0412 17:09:35.033942  8571 net.cpp:399] conv3_2 -> conv3_2
I0412 17:09:35.033987  8571 net.cpp:141] Setting up conv3_2
I0412 17:09:35.034003  8571 net.cpp:148] Top shape: 256 32 16 16 (2097152)
I0412 17:09:35.034011  8571 net.cpp:156] Memory required for data: 842009600
I0412 17:09:35.034020  8571 layer_factory.hpp:77] Creating layer conv3_2_relu
I0412 17:09:35.034034  8571 net.cpp:91] Creating Layer conv3_2_relu
I0412 17:09:35.034042  8571 net.cpp:425] conv3_2_relu <- conv3_2
I0412 17:09:35.034057  8571 net.cpp:386] conv3_2_relu -> conv3_2 (in-place)
I0412 17:09:35.034597  8571 net.cpp:141] Setting up conv3_2_relu
I0412 17:09:35.034624  8571 net.cpp:148] Top shape: 256 32 16 16 (2097152)
I0412 17:09:35.034634  8571 net.cpp:156] Memory required for data: 850398208
I0412 17:09:35.034644  8571 layer_factory.hpp:77] Creating layer conv3_2_conv3_2_relu_0_split
I0412 17:09:35.034662  8571 net.cpp:91] Creating Layer conv3_2_conv3_2_relu_0_split
I0412 17:09:35.034672  8571 net.cpp:425] conv3_2_conv3_2_relu_0_split <- conv3_2
I0412 17:09:35.034685  8571 net.cpp:399] conv3_2_conv3_2_relu_0_split -> conv3_2_conv3_2_relu_0_split_0
I0412 17:09:35.034703  8571 net.cpp:399] conv3_2_conv3_2_relu_0_split -> conv3_2_conv3_2_relu_0_split_1
I0412 17:09:35.034800  8571 net.cpp:141] Setting up conv3_2_conv3_2_relu_0_split
I0412 17:09:35.034816  8571 net.cpp:148] Top shape: 256 32 16 16 (2097152)
I0412 17:09:35.034828  8571 net.cpp:148] Top shape: 256 32 16 16 (2097152)
I0412 17:09:35.034837  8571 net.cpp:156] Memory required for data: 867175424
I0412 17:09:35.034847  8571 layer_factory.hpp:77] Creating layer conv3_3a
I0412 17:09:35.034870  8571 net.cpp:91] Creating Layer conv3_3a
I0412 17:09:35.034883  8571 net.cpp:425] conv3_3a <- conv3_2_conv3_2_relu_0_split_0
I0412 17:09:35.034899  8571 net.cpp:399] conv3_3a -> conv3_3a
I0412 17:09:35.037418  8571 net.cpp:141] Setting up conv3_3a
I0412 17:09:35.037451  8571 net.cpp:148] Top shape: 256 32 16 16 (2097152)
I0412 17:09:35.037462  8571 net.cpp:156] Memory required for data: 875564032
I0412 17:09:35.037479  8571 layer_factory.hpp:77] Creating layer bn_conv3_3a
I0412 17:09:35.037516  8571 net.cpp:91] Creating Layer bn_conv3_3a
I0412 17:09:35.037528  8571 net.cpp:425] bn_conv3_3a <- conv3_3a
I0412 17:09:35.037542  8571 net.cpp:386] bn_conv3_3a -> conv3_3a (in-place)
I0412 17:09:35.037930  8571 net.cpp:141] Setting up bn_conv3_3a
I0412 17:09:35.037948  8571 net.cpp:148] Top shape: 256 32 16 16 (2097152)
I0412 17:09:35.037958  8571 net.cpp:156] Memory required for data: 883952640
I0412 17:09:35.037976  8571 layer_factory.hpp:77] Creating layer scale_conv3_3a
I0412 17:09:35.037991  8571 net.cpp:91] Creating Layer scale_conv3_3a
I0412 17:09:35.038010  8571 net.cpp:425] scale_conv3_3a <- conv3_3a
I0412 17:09:35.038024  8571 net.cpp:386] scale_conv3_3a -> conv3_3a (in-place)
I0412 17:09:35.038105  8571 layer_factory.hpp:77] Creating layer scale_conv3_3a
I0412 17:09:35.038333  8571 net.cpp:141] Setting up scale_conv3_3a
I0412 17:09:35.038352  8571 net.cpp:148] Top shape: 256 32 16 16 (2097152)
I0412 17:09:35.038360  8571 net.cpp:156] Memory required for data: 892341248
I0412 17:09:35.038375  8571 layer_factory.hpp:77] Creating layer conv3_3a_relu
I0412 17:09:35.038391  8571 net.cpp:91] Creating Layer conv3_3a_relu
I0412 17:09:35.038400  8571 net.cpp:425] conv3_3a_relu <- conv3_3a
I0412 17:09:35.038413  8571 net.cpp:386] conv3_3a_relu -> conv3_3a (in-place)
I0412 17:09:35.038761  8571 net.cpp:141] Setting up conv3_3a_relu
I0412 17:09:35.038781  8571 net.cpp:148] Top shape: 256 32 16 16 (2097152)
I0412 17:09:35.038791  8571 net.cpp:156] Memory required for data: 900729856
I0412 17:09:35.038800  8571 layer_factory.hpp:77] Creating layer conv3_3b
I0412 17:09:35.038839  8571 net.cpp:91] Creating Layer conv3_3b
I0412 17:09:35.038851  8571 net.cpp:425] conv3_3b <- conv3_3a
I0412 17:09:35.038868  8571 net.cpp:399] conv3_3b -> conv3_3b
I0412 17:09:35.041414  8571 net.cpp:141] Setting up conv3_3b
I0412 17:09:35.041447  8571 net.cpp:148] Top shape: 256 32 16 16 (2097152)
I0412 17:09:35.041457  8571 net.cpp:156] Memory required for data: 909118464
I0412 17:09:35.041474  8571 layer_factory.hpp:77] Creating layer bn_conv3_3b
I0412 17:09:35.041494  8571 net.cpp:91] Creating Layer bn_conv3_3b
I0412 17:09:35.041506  8571 net.cpp:425] bn_conv3_3b <- conv3_3b
I0412 17:09:35.041519  8571 net.cpp:386] bn_conv3_3b -> conv3_3b (in-place)
I0412 17:09:35.041895  8571 net.cpp:141] Setting up bn_conv3_3b
I0412 17:09:35.041911  8571 net.cpp:148] Top shape: 256 32 16 16 (2097152)
I0412 17:09:35.041919  8571 net.cpp:156] Memory required for data: 917507072
I0412 17:09:35.041936  8571 layer_factory.hpp:77] Creating layer scale_conv3_3b
I0412 17:09:35.041954  8571 net.cpp:91] Creating Layer scale_conv3_3b
I0412 17:09:35.041962  8571 net.cpp:425] scale_conv3_3b <- conv3_3b
I0412 17:09:35.041975  8571 net.cpp:386] scale_conv3_3b -> conv3_3b (in-place)
I0412 17:09:35.042047  8571 layer_factory.hpp:77] Creating layer scale_conv3_3b
I0412 17:09:35.042263  8571 net.cpp:141] Setting up scale_conv3_3b
I0412 17:09:35.042280  8571 net.cpp:148] Top shape: 256 32 16 16 (2097152)
I0412 17:09:35.042289  8571 net.cpp:156] Memory required for data: 925895680
I0412 17:09:35.042302  8571 layer_factory.hpp:77] Creating layer conv3_3
I0412 17:09:35.042317  8571 net.cpp:91] Creating Layer conv3_3
I0412 17:09:35.042326  8571 net.cpp:425] conv3_3 <- conv3_3b
I0412 17:09:35.042337  8571 net.cpp:425] conv3_3 <- conv3_2_conv3_2_relu_0_split_1
I0412 17:09:35.042349  8571 net.cpp:399] conv3_3 -> conv3_3
I0412 17:09:35.042392  8571 net.cpp:141] Setting up conv3_3
I0412 17:09:35.042407  8571 net.cpp:148] Top shape: 256 32 16 16 (2097152)
I0412 17:09:35.042414  8571 net.cpp:156] Memory required for data: 934284288
I0412 17:09:35.042423  8571 layer_factory.hpp:77] Creating layer conv3_3_relu
I0412 17:09:35.042435  8571 net.cpp:91] Creating Layer conv3_3_relu
I0412 17:09:35.042443  8571 net.cpp:425] conv3_3_relu <- conv3_3
I0412 17:09:35.042454  8571 net.cpp:386] conv3_3_relu -> conv3_3 (in-place)
I0412 17:09:35.042780  8571 net.cpp:141] Setting up conv3_3_relu
I0412 17:09:35.042800  8571 net.cpp:148] Top shape: 256 32 16 16 (2097152)
I0412 17:09:35.042809  8571 net.cpp:156] Memory required for data: 942672896
I0412 17:09:35.042817  8571 layer_factory.hpp:77] Creating layer conv3_3_conv3_3_relu_0_split
I0412 17:09:35.042832  8571 net.cpp:91] Creating Layer conv3_3_conv3_3_relu_0_split
I0412 17:09:35.042841  8571 net.cpp:425] conv3_3_conv3_3_relu_0_split <- conv3_3
I0412 17:09:35.042853  8571 net.cpp:399] conv3_3_conv3_3_relu_0_split -> conv3_3_conv3_3_relu_0_split_0
I0412 17:09:35.042868  8571 net.cpp:399] conv3_3_conv3_3_relu_0_split -> conv3_3_conv3_3_relu_0_split_1
I0412 17:09:35.042955  8571 net.cpp:141] Setting up conv3_3_conv3_3_relu_0_split
I0412 17:09:35.042971  8571 net.cpp:148] Top shape: 256 32 16 16 (2097152)
I0412 17:09:35.042982  8571 net.cpp:148] Top shape: 256 32 16 16 (2097152)
I0412 17:09:35.042990  8571 net.cpp:156] Memory required for data: 959450112
I0412 17:09:35.042999  8571 layer_factory.hpp:77] Creating layer conv3_sub
I0412 17:09:35.043021  8571 net.cpp:91] Creating Layer conv3_sub
I0412 17:09:35.043031  8571 net.cpp:425] conv3_sub <- conv3_3_conv3_3_relu_0_split_0
I0412 17:09:35.043048  8571 net.cpp:399] conv3_sub -> conv3_sub
I0412 17:09:35.045202  8571 net.cpp:141] Setting up conv3_sub
I0412 17:09:35.045238  8571 net.cpp:148] Top shape: 256 64 8 8 (1048576)
I0412 17:09:35.045248  8571 net.cpp:156] Memory required for data: 963644416
I0412 17:09:35.045264  8571 layer_factory.hpp:77] Creating layer bn_conv3_sub
I0412 17:09:35.045280  8571 net.cpp:91] Creating Layer bn_conv3_sub
I0412 17:09:35.045290  8571 net.cpp:425] bn_conv3_sub <- conv3_sub
I0412 17:09:35.045307  8571 net.cpp:386] bn_conv3_sub -> conv3_sub (in-place)
I0412 17:09:35.045692  8571 net.cpp:141] Setting up bn_conv3_sub
I0412 17:09:35.045711  8571 net.cpp:148] Top shape: 256 64 8 8 (1048576)
I0412 17:09:35.045719  8571 net.cpp:156] Memory required for data: 967838720
I0412 17:09:35.045735  8571 layer_factory.hpp:77] Creating layer scale_conv3_sub
I0412 17:09:35.045750  8571 net.cpp:91] Creating Layer scale_conv3_sub
I0412 17:09:35.045759  8571 net.cpp:425] scale_conv3_sub <- conv3_sub
I0412 17:09:35.045773  8571 net.cpp:386] scale_conv3_sub -> conv3_sub (in-place)
I0412 17:09:35.045843  8571 layer_factory.hpp:77] Creating layer scale_conv3_sub
I0412 17:09:35.046073  8571 net.cpp:141] Setting up scale_conv3_sub
I0412 17:09:35.046090  8571 net.cpp:148] Top shape: 256 64 8 8 (1048576)
I0412 17:09:35.046099  8571 net.cpp:156] Memory required for data: 972033024
I0412 17:09:35.046113  8571 layer_factory.hpp:77] Creating layer conv4_1a
I0412 17:09:35.046138  8571 net.cpp:91] Creating Layer conv4_1a
I0412 17:09:35.046147  8571 net.cpp:425] conv4_1a <- conv3_3_conv3_3_relu_0_split_1
I0412 17:09:35.046165  8571 net.cpp:399] conv4_1a -> conv4_1a
I0412 17:09:35.048167  8571 net.cpp:141] Setting up conv4_1a
I0412 17:09:35.048204  8571 net.cpp:148] Top shape: 256 64 8 8 (1048576)
I0412 17:09:35.048214  8571 net.cpp:156] Memory required for data: 976227328
I0412 17:09:35.048230  8571 layer_factory.hpp:77] Creating layer bn_conv4_1a
I0412 17:09:35.048254  8571 net.cpp:91] Creating Layer bn_conv4_1a
I0412 17:09:35.048264  8571 net.cpp:425] bn_conv4_1a <- conv4_1a
I0412 17:09:35.048277  8571 net.cpp:386] bn_conv4_1a -> conv4_1a (in-place)
I0412 17:09:35.048655  8571 net.cpp:141] Setting up bn_conv4_1a
I0412 17:09:35.048672  8571 net.cpp:148] Top shape: 256 64 8 8 (1048576)
I0412 17:09:35.048681  8571 net.cpp:156] Memory required for data: 980421632
I0412 17:09:35.048697  8571 layer_factory.hpp:77] Creating layer scale_conv4_1a
I0412 17:09:35.048712  8571 net.cpp:91] Creating Layer scale_conv4_1a
I0412 17:09:35.048722  8571 net.cpp:425] scale_conv4_1a <- conv4_1a
I0412 17:09:35.048733  8571 net.cpp:386] scale_conv4_1a -> conv4_1a (in-place)
I0412 17:09:35.048807  8571 layer_factory.hpp:77] Creating layer scale_conv4_1a
I0412 17:09:35.049029  8571 net.cpp:141] Setting up scale_conv4_1a
I0412 17:09:35.049044  8571 net.cpp:148] Top shape: 256 64 8 8 (1048576)
I0412 17:09:35.049053  8571 net.cpp:156] Memory required for data: 984615936
I0412 17:09:35.049067  8571 layer_factory.hpp:77] Creating layer conv4_1a_relu
I0412 17:09:35.049080  8571 net.cpp:91] Creating Layer conv4_1a_relu
I0412 17:09:35.049088  8571 net.cpp:425] conv4_1a_relu <- conv4_1a
I0412 17:09:35.049103  8571 net.cpp:386] conv4_1a_relu -> conv4_1a (in-place)
I0412 17:09:35.049633  8571 net.cpp:141] Setting up conv4_1a_relu
I0412 17:09:35.049662  8571 net.cpp:148] Top shape: 256 64 8 8 (1048576)
I0412 17:09:35.049672  8571 net.cpp:156] Memory required for data: 988810240
I0412 17:09:35.049681  8571 layer_factory.hpp:77] Creating layer conv4_1b
I0412 17:09:35.049717  8571 net.cpp:91] Creating Layer conv4_1b
I0412 17:09:35.049728  8571 net.cpp:425] conv4_1b <- conv4_1a
I0412 17:09:35.049747  8571 net.cpp:399] conv4_1b -> conv4_1b
I0412 17:09:35.054538  8571 net.cpp:141] Setting up conv4_1b
I0412 17:09:35.054580  8571 net.cpp:148] Top shape: 256 64 8 8 (1048576)
I0412 17:09:35.054590  8571 net.cpp:156] Memory required for data: 993004544
I0412 17:09:35.054606  8571 layer_factory.hpp:77] Creating layer bn_conv4_1b
I0412 17:09:35.054623  8571 net.cpp:91] Creating Layer bn_conv4_1b
I0412 17:09:35.054633  8571 net.cpp:425] bn_conv4_1b <- conv4_1b
I0412 17:09:35.054651  8571 net.cpp:386] bn_conv4_1b -> conv4_1b (in-place)
I0412 17:09:35.055021  8571 net.cpp:141] Setting up bn_conv4_1b
I0412 17:09:35.055037  8571 net.cpp:148] Top shape: 256 64 8 8 (1048576)
I0412 17:09:35.055044  8571 net.cpp:156] Memory required for data: 997198848
I0412 17:09:35.055060  8571 layer_factory.hpp:77] Creating layer scale_conv4_1b
I0412 17:09:35.055075  8571 net.cpp:91] Creating Layer scale_conv4_1b
I0412 17:09:35.055084  8571 net.cpp:425] scale_conv4_1b <- conv4_1b
I0412 17:09:35.055097  8571 net.cpp:386] scale_conv4_1b -> conv4_1b (in-place)
I0412 17:09:35.055167  8571 layer_factory.hpp:77] Creating layer scale_conv4_1b
I0412 17:09:35.055379  8571 net.cpp:141] Setting up scale_conv4_1b
I0412 17:09:35.055394  8571 net.cpp:148] Top shape: 256 64 8 8 (1048576)
I0412 17:09:35.055402  8571 net.cpp:156] Memory required for data: 1001393152
I0412 17:09:35.055415  8571 layer_factory.hpp:77] Creating layer conv4_1
I0412 17:09:35.055428  8571 net.cpp:91] Creating Layer conv4_1
I0412 17:09:35.055436  8571 net.cpp:425] conv4_1 <- conv3_sub
I0412 17:09:35.055446  8571 net.cpp:425] conv4_1 <- conv4_1b
I0412 17:09:35.055464  8571 net.cpp:399] conv4_1 -> conv4_1
I0412 17:09:35.055503  8571 net.cpp:141] Setting up conv4_1
I0412 17:09:35.055516  8571 net.cpp:148] Top shape: 256 64 8 8 (1048576)
I0412 17:09:35.055524  8571 net.cpp:156] Memory required for data: 1005587456
I0412 17:09:35.055532  8571 layer_factory.hpp:77] Creating layer conv4_1_relu
I0412 17:09:35.055547  8571 net.cpp:91] Creating Layer conv4_1_relu
I0412 17:09:35.055557  8571 net.cpp:425] conv4_1_relu <- conv4_1
I0412 17:09:35.055567  8571 net.cpp:386] conv4_1_relu -> conv4_1 (in-place)
I0412 17:09:35.056051  8571 net.cpp:141] Setting up conv4_1_relu
I0412 17:09:35.056076  8571 net.cpp:148] Top shape: 256 64 8 8 (1048576)
I0412 17:09:35.056083  8571 net.cpp:156] Memory required for data: 1009781760
I0412 17:09:35.056092  8571 layer_factory.hpp:77] Creating layer conv4_1_conv4_1_relu_0_split
I0412 17:09:35.056108  8571 net.cpp:91] Creating Layer conv4_1_conv4_1_relu_0_split
I0412 17:09:35.056118  8571 net.cpp:425] conv4_1_conv4_1_relu_0_split <- conv4_1
I0412 17:09:35.056130  8571 net.cpp:399] conv4_1_conv4_1_relu_0_split -> conv4_1_conv4_1_relu_0_split_0
I0412 17:09:35.056146  8571 net.cpp:399] conv4_1_conv4_1_relu_0_split -> conv4_1_conv4_1_relu_0_split_1
I0412 17:09:35.056234  8571 net.cpp:141] Setting up conv4_1_conv4_1_relu_0_split
I0412 17:09:35.056247  8571 net.cpp:148] Top shape: 256 64 8 8 (1048576)
I0412 17:09:35.056257  8571 net.cpp:148] Top shape: 256 64 8 8 (1048576)
I0412 17:09:35.056265  8571 net.cpp:156] Memory required for data: 1018170368
I0412 17:09:35.056273  8571 layer_factory.hpp:77] Creating layer conv4_2a
I0412 17:09:35.056296  8571 net.cpp:91] Creating Layer conv4_2a
I0412 17:09:35.056305  8571 net.cpp:425] conv4_2a <- conv4_1_conv4_1_relu_0_split_0
I0412 17:09:35.056321  8571 net.cpp:399] conv4_2a -> conv4_2a
I0412 17:09:35.060194  8571 net.cpp:141] Setting up conv4_2a
I0412 17:09:35.060240  8571 net.cpp:148] Top shape: 256 64 8 8 (1048576)
I0412 17:09:35.060250  8571 net.cpp:156] Memory required for data: 1022364672
I0412 17:09:35.060267  8571 layer_factory.hpp:77] Creating layer bn_conv4_2a
I0412 17:09:35.060287  8571 net.cpp:91] Creating Layer bn_conv4_2a
I0412 17:09:35.060298  8571 net.cpp:425] bn_conv4_2a <- conv4_2a
I0412 17:09:35.060312  8571 net.cpp:386] bn_conv4_2a -> conv4_2a (in-place)
I0412 17:09:35.060681  8571 net.cpp:141] Setting up bn_conv4_2a
I0412 17:09:35.060710  8571 net.cpp:148] Top shape: 256 64 8 8 (1048576)
I0412 17:09:35.060719  8571 net.cpp:156] Memory required for data: 1026558976
I0412 17:09:35.060734  8571 layer_factory.hpp:77] Creating layer scale_conv4_2a
I0412 17:09:35.060750  8571 net.cpp:91] Creating Layer scale_conv4_2a
I0412 17:09:35.060758  8571 net.cpp:425] scale_conv4_2a <- conv4_2a
I0412 17:09:35.060768  8571 net.cpp:386] scale_conv4_2a -> conv4_2a (in-place)
I0412 17:09:35.060843  8571 layer_factory.hpp:77] Creating layer scale_conv4_2a
I0412 17:09:35.061056  8571 net.cpp:141] Setting up scale_conv4_2a
I0412 17:09:35.061071  8571 net.cpp:148] Top shape: 256 64 8 8 (1048576)
I0412 17:09:35.061079  8571 net.cpp:156] Memory required for data: 1030753280
I0412 17:09:35.061094  8571 layer_factory.hpp:77] Creating layer conv4_2a_relu
I0412 17:09:35.061107  8571 net.cpp:91] Creating Layer conv4_2a_relu
I0412 17:09:35.061126  8571 net.cpp:425] conv4_2a_relu <- conv4_2a
I0412 17:09:35.061137  8571 net.cpp:386] conv4_2a_relu -> conv4_2a (in-place)
I0412 17:09:35.061467  8571 net.cpp:141] Setting up conv4_2a_relu
I0412 17:09:35.061487  8571 net.cpp:148] Top shape: 256 64 8 8 (1048576)
I0412 17:09:35.061496  8571 net.cpp:156] Memory required for data: 1034947584
I0412 17:09:35.061503  8571 layer_factory.hpp:77] Creating layer conv4_2b
I0412 17:09:35.061528  8571 net.cpp:91] Creating Layer conv4_2b
I0412 17:09:35.061537  8571 net.cpp:425] conv4_2b <- conv4_2a
I0412 17:09:35.061552  8571 net.cpp:399] conv4_2b -> conv4_2b
I0412 17:09:35.065513  8571 net.cpp:141] Setting up conv4_2b
I0412 17:09:35.065542  8571 net.cpp:148] Top shape: 256 64 8 8 (1048576)
I0412 17:09:35.065551  8571 net.cpp:156] Memory required for data: 1039141888
I0412 17:09:35.065565  8571 layer_factory.hpp:77] Creating layer bn_conv4_2b
I0412 17:09:35.065584  8571 net.cpp:91] Creating Layer bn_conv4_2b
I0412 17:09:35.065594  8571 net.cpp:425] bn_conv4_2b <- conv4_2b
I0412 17:09:35.065606  8571 net.cpp:386] bn_conv4_2b -> conv4_2b (in-place)
I0412 17:09:35.065948  8571 net.cpp:141] Setting up bn_conv4_2b
I0412 17:09:35.065963  8571 net.cpp:148] Top shape: 256 64 8 8 (1048576)
I0412 17:09:35.065969  8571 net.cpp:156] Memory required for data: 1043336192
I0412 17:09:35.066026  8571 layer_factory.hpp:77] Creating layer scale_conv4_2b
I0412 17:09:35.066042  8571 net.cpp:91] Creating Layer scale_conv4_2b
I0412 17:09:35.066051  8571 net.cpp:425] scale_conv4_2b <- conv4_2b
I0412 17:09:35.066063  8571 net.cpp:386] scale_conv4_2b -> conv4_2b (in-place)
I0412 17:09:35.066133  8571 layer_factory.hpp:77] Creating layer scale_conv4_2b
I0412 17:09:35.066339  8571 net.cpp:141] Setting up scale_conv4_2b
I0412 17:09:35.066354  8571 net.cpp:148] Top shape: 256 64 8 8 (1048576)
I0412 17:09:35.066360  8571 net.cpp:156] Memory required for data: 1047530496
I0412 17:09:35.066372  8571 layer_factory.hpp:77] Creating layer conv4_2
I0412 17:09:35.066385  8571 net.cpp:91] Creating Layer conv4_2
I0412 17:09:35.066393  8571 net.cpp:425] conv4_2 <- conv4_1_conv4_1_relu_0_split_1
I0412 17:09:35.066402  8571 net.cpp:425] conv4_2 <- conv4_2b
I0412 17:09:35.066416  8571 net.cpp:399] conv4_2 -> conv4_2
I0412 17:09:35.066453  8571 net.cpp:141] Setting up conv4_2
I0412 17:09:35.066465  8571 net.cpp:148] Top shape: 256 64 8 8 (1048576)
I0412 17:09:35.066473  8571 net.cpp:156] Memory required for data: 1051724800
I0412 17:09:35.066480  8571 layer_factory.hpp:77] Creating layer conv4_2_relu
I0412 17:09:35.066494  8571 net.cpp:91] Creating Layer conv4_2_relu
I0412 17:09:35.066503  8571 net.cpp:425] conv4_2_relu <- conv4_2
I0412 17:09:35.066512  8571 net.cpp:386] conv4_2_relu -> conv4_2 (in-place)
I0412 17:09:35.066990  8571 net.cpp:141] Setting up conv4_2_relu
I0412 17:09:35.067015  8571 net.cpp:148] Top shape: 256 64 8 8 (1048576)
I0412 17:09:35.067023  8571 net.cpp:156] Memory required for data: 1055919104
I0412 17:09:35.067031  8571 layer_factory.hpp:77] Creating layer conv4_2_conv4_2_relu_0_split
I0412 17:09:35.067046  8571 net.cpp:91] Creating Layer conv4_2_conv4_2_relu_0_split
I0412 17:09:35.067065  8571 net.cpp:425] conv4_2_conv4_2_relu_0_split <- conv4_2
I0412 17:09:35.067076  8571 net.cpp:399] conv4_2_conv4_2_relu_0_split -> conv4_2_conv4_2_relu_0_split_0
I0412 17:09:35.067095  8571 net.cpp:399] conv4_2_conv4_2_relu_0_split -> conv4_2_conv4_2_relu_0_split_1
I0412 17:09:35.067173  8571 net.cpp:141] Setting up conv4_2_conv4_2_relu_0_split
I0412 17:09:35.067186  8571 net.cpp:148] Top shape: 256 64 8 8 (1048576)
I0412 17:09:35.067195  8571 net.cpp:148] Top shape: 256 64 8 8 (1048576)
I0412 17:09:35.067203  8571 net.cpp:156] Memory required for data: 1064307712
I0412 17:09:35.067210  8571 layer_factory.hpp:77] Creating layer conv4_3a
I0412 17:09:35.067232  8571 net.cpp:91] Creating Layer conv4_3a
I0412 17:09:35.067241  8571 net.cpp:425] conv4_3a <- conv4_2_conv4_2_relu_0_split_0
I0412 17:09:35.067256  8571 net.cpp:399] conv4_3a -> conv4_3a
I0412 17:09:35.070751  8571 net.cpp:141] Setting up conv4_3a
I0412 17:09:35.070778  8571 net.cpp:148] Top shape: 256 64 8 8 (1048576)
I0412 17:09:35.070787  8571 net.cpp:156] Memory required for data: 1068502016
I0412 17:09:35.070801  8571 layer_factory.hpp:77] Creating layer bn_conv4_3a
I0412 17:09:35.070818  8571 net.cpp:91] Creating Layer bn_conv4_3a
I0412 17:09:35.070828  8571 net.cpp:425] bn_conv4_3a <- conv4_3a
I0412 17:09:35.070839  8571 net.cpp:386] bn_conv4_3a -> conv4_3a (in-place)
I0412 17:09:35.071195  8571 net.cpp:141] Setting up bn_conv4_3a
I0412 17:09:35.071210  8571 net.cpp:148] Top shape: 256 64 8 8 (1048576)
I0412 17:09:35.071218  8571 net.cpp:156] Memory required for data: 1072696320
I0412 17:09:35.071233  8571 layer_factory.hpp:77] Creating layer scale_conv4_3a
I0412 17:09:35.071244  8571 net.cpp:91] Creating Layer scale_conv4_3a
I0412 17:09:35.071254  8571 net.cpp:425] scale_conv4_3a <- conv4_3a
I0412 17:09:35.071264  8571 net.cpp:386] scale_conv4_3a -> conv4_3a (in-place)
I0412 17:09:35.071333  8571 layer_factory.hpp:77] Creating layer scale_conv4_3a
I0412 17:09:35.071535  8571 net.cpp:141] Setting up scale_conv4_3a
I0412 17:09:35.071550  8571 net.cpp:148] Top shape: 256 64 8 8 (1048576)
I0412 17:09:35.071557  8571 net.cpp:156] Memory required for data: 1076890624
I0412 17:09:35.071570  8571 layer_factory.hpp:77] Creating layer conv4_3a_relu
I0412 17:09:35.071583  8571 net.cpp:91] Creating Layer conv4_3a_relu
I0412 17:09:35.071591  8571 net.cpp:425] conv4_3a_relu <- conv4_3a
I0412 17:09:35.071600  8571 net.cpp:386] conv4_3a_relu -> conv4_3a (in-place)
I0412 17:09:35.072074  8571 net.cpp:141] Setting up conv4_3a_relu
I0412 17:09:35.072100  8571 net.cpp:148] Top shape: 256 64 8 8 (1048576)
I0412 17:09:35.072108  8571 net.cpp:156] Memory required for data: 1081084928
I0412 17:09:35.072116  8571 layer_factory.hpp:77] Creating layer conv4_3b
I0412 17:09:35.072137  8571 net.cpp:91] Creating Layer conv4_3b
I0412 17:09:35.072147  8571 net.cpp:425] conv4_3b <- conv4_3a
I0412 17:09:35.072160  8571 net.cpp:399] conv4_3b -> conv4_3b
I0412 17:09:35.075850  8571 net.cpp:141] Setting up conv4_3b
I0412 17:09:35.075878  8571 net.cpp:148] Top shape: 256 64 8 8 (1048576)
I0412 17:09:35.075887  8571 net.cpp:156] Memory required for data: 1085279232
I0412 17:09:35.075901  8571 layer_factory.hpp:77] Creating layer bn_conv4_3b
I0412 17:09:35.075917  8571 net.cpp:91] Creating Layer bn_conv4_3b
I0412 17:09:35.075927  8571 net.cpp:425] bn_conv4_3b <- conv4_3b
I0412 17:09:35.075938  8571 net.cpp:386] bn_conv4_3b -> conv4_3b (in-place)
I0412 17:09:35.076299  8571 net.cpp:141] Setting up bn_conv4_3b
I0412 17:09:35.076314  8571 net.cpp:148] Top shape: 256 64 8 8 (1048576)
I0412 17:09:35.076321  8571 net.cpp:156] Memory required for data: 1089473536
I0412 17:09:35.076336  8571 layer_factory.hpp:77] Creating layer scale_conv4_3b
I0412 17:09:35.076351  8571 net.cpp:91] Creating Layer scale_conv4_3b
I0412 17:09:35.076359  8571 net.cpp:425] scale_conv4_3b <- conv4_3b
I0412 17:09:35.076370  8571 net.cpp:386] scale_conv4_3b -> conv4_3b (in-place)
I0412 17:09:35.076442  8571 layer_factory.hpp:77] Creating layer scale_conv4_3b
I0412 17:09:35.076653  8571 net.cpp:141] Setting up scale_conv4_3b
I0412 17:09:35.076673  8571 net.cpp:148] Top shape: 256 64 8 8 (1048576)
I0412 17:09:35.076681  8571 net.cpp:156] Memory required for data: 1093667840
I0412 17:09:35.076694  8571 layer_factory.hpp:77] Creating layer conv4_3
I0412 17:09:35.076709  8571 net.cpp:91] Creating Layer conv4_3
I0412 17:09:35.076717  8571 net.cpp:425] conv4_3 <- conv4_2_conv4_2_relu_0_split_1
I0412 17:09:35.076727  8571 net.cpp:425] conv4_3 <- conv4_3b
I0412 17:09:35.076738  8571 net.cpp:399] conv4_3 -> conv4_3
I0412 17:09:35.076778  8571 net.cpp:141] Setting up conv4_3
I0412 17:09:35.076792  8571 net.cpp:148] Top shape: 256 64 8 8 (1048576)
I0412 17:09:35.076799  8571 net.cpp:156] Memory required for data: 1097862144
I0412 17:09:35.076807  8571 layer_factory.hpp:77] Creating layer conv4_3_relu
I0412 17:09:35.076817  8571 net.cpp:91] Creating Layer conv4_3_relu
I0412 17:09:35.076825  8571 net.cpp:425] conv4_3_relu <- conv4_3
I0412 17:09:35.076835  8571 net.cpp:386] conv4_3_relu -> conv4_3 (in-place)
I0412 17:09:35.077145  8571 net.cpp:141] Setting up conv4_3_relu
I0412 17:09:35.077165  8571 net.cpp:148] Top shape: 256 64 8 8 (1048576)
I0412 17:09:35.077173  8571 net.cpp:156] Memory required for data: 1102056448
I0412 17:09:35.077181  8571 layer_factory.hpp:77] Creating layer global_pool
I0412 17:09:35.077203  8571 net.cpp:91] Creating Layer global_pool
I0412 17:09:35.077210  8571 net.cpp:425] global_pool <- conv4_3
I0412 17:09:35.077222  8571 net.cpp:399] global_pool -> global_pool
I0412 17:09:35.077731  8571 net.cpp:141] Setting up global_pool
I0412 17:09:35.077754  8571 net.cpp:148] Top shape: 256 64 1 1 (16384)
I0412 17:09:35.077762  8571 net.cpp:156] Memory required for data: 1102121984
I0412 17:09:35.077770  8571 layer_factory.hpp:77] Creating layer ip
I0412 17:09:35.077798  8571 net.cpp:91] Creating Layer ip
I0412 17:09:35.077806  8571 net.cpp:425] ip <- global_pool
I0412 17:09:35.077821  8571 net.cpp:399] ip -> ip
I0412 17:09:35.078023  8571 net.cpp:141] Setting up ip
I0412 17:09:35.078037  8571 net.cpp:148] Top shape: 256 10 (2560)
I0412 17:09:35.078044  8571 net.cpp:156] Memory required for data: 1102132224
I0412 17:09:35.078058  8571 layer_factory.hpp:77] Creating layer ip_ip_0_split
I0412 17:09:35.078070  8571 net.cpp:91] Creating Layer ip_ip_0_split
I0412 17:09:35.078078  8571 net.cpp:425] ip_ip_0_split <- ip
I0412 17:09:35.078088  8571 net.cpp:399] ip_ip_0_split -> ip_ip_0_split_0
I0412 17:09:35.078100  8571 net.cpp:399] ip_ip_0_split -> ip_ip_0_split_1
I0412 17:09:35.078157  8571 net.cpp:141] Setting up ip_ip_0_split
I0412 17:09:35.078172  8571 net.cpp:148] Top shape: 256 10 (2560)
I0412 17:09:35.078181  8571 net.cpp:148] Top shape: 256 10 (2560)
I0412 17:09:35.078187  8571 net.cpp:156] Memory required for data: 1102152704
I0412 17:09:35.078196  8571 layer_factory.hpp:77] Creating layer accuracy
I0412 17:09:35.078212  8571 net.cpp:91] Creating Layer accuracy
I0412 17:09:35.078219  8571 net.cpp:425] accuracy <- ip_ip_0_split_0
I0412 17:09:35.078228  8571 net.cpp:425] accuracy <- label_cifar_1_split_0
I0412 17:09:35.078239  8571 net.cpp:399] accuracy -> accuracy
…
I0412 17:09:35.083601  8571 net.cpp:313] The NetState phase (1) differed from the phase (0) specified by a rule in layer cifar
I0412 17:09:35.084414  8571 net.cpp:49] Initializing net from parameters: 
name: "ResNet-cifar"
state {
  phase: TEST
}
layer {
  name: "cifar"
  type: "Data"
  top: "data"
  top: "label"
  include {
    phase: TEST
  }
  transform_param {
    mean_file: "/home/liangjiang/code/residual_network/data/cifar10/mean.binaryproto"
  }
  data_param {
    source: "/home/liangjiang/code/residual_network/data/cifar10/cifar10_test_lmdb"
    batch_size: 100
    backend: LMDB
  }
}
layer {
  name: "conv1"
  type: "Convolution"
  bottom: "data"
  top: "conv1"
  param {
    lr_mult: 1
  }
  param {
    lr_mult: 2
  }
  convolution_param {
    num_output: 16
    pad: 1
    kernel_size: 3
    weight_filler {
      type: "msra"
    }
    bias_filler {
      type: "constant"
    }
  }
}
layer {
  name: "bn_conv1"
  type: "BatchNorm"
  bottom: "conv1"
  top: "conv1"
  param {
    lr_mult: 0
  }
  param {
    lr_mult: 0
  }
  param {
    lr_mult: 0
  }
}
layer {
  name: "scale_conv1"
  type: "Scale"
  bottom: "conv1"
  top: "conv1"
  scale_param {
    bias_term: true
  }
}
layer {
  name: "conv1_relu"
  type: "ReLU"
  bottom: "conv1"
  top: "conv1"
}
layer {
  name: "conv2_1a"
  type: "Convolution"
  bottom: "conv1"
  top: "conv2_1a"
  param {
    lr_mult: 1
  }
  param {
    lr_mult: 2
  }
  convolution_param {
    num_output: 16
    pad: 1
    kernel_size: 3
    stride: 1
    weight_filler {
      type: "msra"
    }
    bias_filler {
      type: "constant"
      value: 0
    }
  }
}
layer {
  name: "bn_conv2_1a"
  type: "BatchNorm"
  bottom: "conv2_1a"
  top: "conv2_1a"
  param {
    lr_mult: 0
  }
  param {
    lr_mult: 0
  }
  param {
    lr_mult: 0
  }
}
layer {
  name: "scale_conv2_1a"
  type: "Scale"
  bottom: "conv2_1a"
  top: "conv2_1a"
  scale_param {
    bias_term: true
  }
}
layer {
  name: "conv2_1a_relu"
  type: "ReLU"
  bottom: "conv2_1a"
  top: "conv2_1a"
}
layer {
  name: "conv2_1b"
  type: "Convolution"
  bottom: "conv2_1a"
  top: "conv2_1b"
  param {
    lr_mult: 1
  }
  param {
    lr_mult: 2
  }
  convolution_param {
    num_output: 16
    pad: 1
    kernel_size: 3
    stride: 1
    weight_filler {
      type: "msra"
    }
    bias_filler {
      type: "constant"
      value: 0
    }
  }
}
layer {
  name: "bn_conv2_1b"
  type: "BatchNorm"
  bottom: "conv2_1b"
  top: "conv2_1b"
  param {
    lr_mult: 0
  }
  param {
    lr_mult: 0
  }
  param {
    lr_mult: 0
  }
}
layer {
  name: "scale_conv2_1b"
  type: "Scale"
  bottom: "conv2_1b"
  top: "conv2_1b"
  scale_param {
    bias_term: true
  }
}
layer {
  name: "conv2_1"
  type: "Eltwise"
  bottom: "conv2_1b"
  bottom: "conv1"
  top: "conv2_1"
}
layer {
  name: "conv2_1_relu"
  type: "ReLU"
  bottom: "conv2_1"
  top: "conv2_1"
}
layer {
  name: "conv2_2a"
  type: "Convolution"
  bottom: "conv2_1"
  top: "conv2_2a"
  param {
    lr_mult: 1
  }
  param {
    lr_mult: 2
  }
  convolution_param {
    num_output: 16
    pad: 1
    kernel_size: 3
    stride: 1
    weight_filler {
      type: "msra"
    }
    bias_filler {
      type: "constant"
      value: 0
    }
  }
}
layer {
  name: "bn_conv2_2a"
  type: "BatchNorm"
  bottom: "conv2_2a"
  top: "conv2_2a"
  param {
    lr_mult: 0
  }
  param {
    lr_mult: 0
  }
  param {
    lr_mult: 0
  }
}
layer {
  name: "scale_conv2_2a"
  type: "Scale"
  bottom: "conv2_2a"
  top: "conv2_2a"
  scale_param {
    bias_term: true
  }
}
layer {
  name: "conv2_2a_relu"
  type: "ReLU"
  bottom: "conv2_2a"
  top: "conv2_2a"
}
layer {
  name: "conv2_2b"
  type: "Convolution"
  bottom: "conv2_2a"
  top: "conv2_2b"
  param {
    lr_mult: 1
  }
  param {
    lr_mult: 2
  }
  convolution_param {
    num_output: 16
    pad: 1
    kernel_size: 3
    stride: 1
    weight_filler {
      type: "msra"
    }
    bias_filler {
      type: "constant"
      value: 0
    }
  }
}
layer {
  name: "bn_conv2_2b"
  type: "BatchNorm"
  bottom: "conv2_2b"
  top: "conv2_2b"
  param {
    lr_mult: 0
  }
  param {
    lr_mult: 0
  }
  param {
    lr_mult: 0
  }
}
layer {
  name: "scale_conv2_2b"
  type: "Scale"
  bottom: "conv2_2b"
  top: "conv2_2b"
  scale_param {
    bias_term: true
  }
}
layer {
  name: "conv2_2"
  type: "Eltwise"
  bottom: "conv2_2b"
  bottom: "conv2_1"
  top: "conv2_2"
}
layer {
  name: "conv2_2_relu"
  type: "ReLU"
  bottom: "conv2_2"
  top: "conv2_2"
}
layer {
  name: "conv2_3a"
  type: "Convolution"
  bottom: "conv2_2"
  top: "conv2_3a"
  param {
    lr_mult: 1
  }
  param {
    lr_mult: 2
  }
  convolution_param {
    num_output: 16
    pad: 1
    kernel_size: 3
    stride: 1
    weight_filler {
      type: "msra"
    }
    bias_filler {
      type: "constant"
      value: 0
    }
  }
}
layer {
  name: "bn_conv2_3a"
  type: "BatchNorm"
  bottom: "conv2_3a"
  top: "conv2_3a"
  param {
    lr_mult: 0
  }
  param {
    lr_mult: 0
  }
  param {
    lr_mult: 0
  }
}
layer {
  name: "scale_conv2_3a"
  type: "Scale"
  bottom: "conv2_3a"
  top: "conv2_3a"
  scale_param {
    bias_term: true
  }
}
layer {
  name: "conv2_3a_relu"
  type: "ReLU"
  bottom: "conv2_3a"
  top: "conv2_3a"
}
layer {
  name: "conv2_3b"
  type: "Convolution"
  bottom: "conv2_3a"
  top: "conv2_3b"
  param {
    lr_mult: 1
  }
  param {
    lr_mult: 2
  }
  convolution_param {
    num_output: 16
    pad: 1
    kernel_size: 3
    stride: 1
    weight_filler {
      type: "msra"
    }
    bias_filler {
      type: "constant"
      value: 0
    }
  }
}
layer {
  name: "bn_conv2_3b"
  type: "BatchNorm"
  bottom: "conv2_3b"
  top: "conv2_3b"
  param {
    lr_mult: 0
  }
  param {
    lr_mult: 0
  }
  param {
    lr_mult: 0
  }
}
layer {
  name: "scale_conv2_3b"
  type: "Scale"
  bottom: "conv2_3b"
  top: "conv2_3b"
  scale_param {
    bias_term: true
  }
}
layer {
  name: "conv2_3"
  type: "Eltwise"
  bottom: "conv2_3b"
  bottom: "conv2_2"
  top: "conv2_3"
}
layer {
  name: "conv2_3_relu"
  type: "ReLU"
  bottom: "conv2_3"
  top: "conv2_3"
}
layer {
  name: "conv2_sub"
  type: "Convolution"
  bottom: "conv2_3"
  top: "conv2_sub"
  param {
    lr_mult: 1
  }
  param {
    lr_mult: 2
  }
  convolution_param {
    num_output: 32
    kernel_size: 1
    stride: 2
    weight_filler {
      type: "msra"
    }
    bias_filler {
      type: "constant"
      value: 0
    }
  }
}
layer {
  name: "bn_conv2_sub"
  type: "BatchNorm"
  bottom: "conv2_sub"
  top: "conv2_sub"
  param {
    lr_mult: 0
  }
  param {
    lr_mult: 0
  }
  param {
    lr_mult: 0
  }
}
layer {
  name: "scale_conv2_sub"
  type: "Scale"
  bottom: "conv2_sub"
  top: "conv2_sub"
  scale_param {
    bias_term: true
  }
}
layer {
  name: "conv3_1a"
  type: "Convolution"
  bottom: "conv2_3"
  top: "conv3_1a"
  param {
    lr_mult: 1
  }
  param {
    lr_mult: 2
  }
  convolution_param {
    num_output: 32
    pad: 0
    kernel_size: 1
    stride: 2
    weight_filler {
      type: "msra"
    }
    bias_filler {
      type: "constant"
      value: 0
    }
  }
}
layer {
  name: "bn_conv3_1a"
  type: "BatchNorm"
  bottom: "conv3_1a"
  top: "conv3_1a"
  param {
    lr_mult: 0
  }
  param {
    lr_mult: 0
  }
  param {
    lr_mult: 0
  }
}
layer {
  name: "scale_conv3_1a"
  type: "Scale"
  bottom: "conv3_1a"
  top: "conv3_1a"
  scale_param {
    bias_term: true
  }
}
layer {
  name: "conv3_1a_relu"
  type: "ReLU"
  bottom: "conv3_1a"
  top: "conv3_1a"
}
layer {
  name: "conv3_1b"
  type: "Convolution"
  bottom: "conv3_1a"
  top: "conv3_1b"
  param {
    lr_mult: 1
  }
  param {
    lr_mult: 2
  }
  convolution_param {
    num_output: 32
    pad: 1
    kernel_size: 3
    stride: 1
    weight_filler {
      type: "msra"
    }
    bias_filler {
      type: "constant"
      value: 0
    }
  }
}
layer {
  name: "bn_conv3_1b"
  type: "BatchNorm"
  bottom: "conv3_1b"
  top: "conv3_1b"
  param {
    lr_mult: 0
  }
  param {
    lr_mult: 0
  }
  param {
    lr_mult: 0
  }
}
layer {
  name: "scale_conv3_1b"
  type: "Scale"
  bottom: "conv3_1b"
  top: "conv3_1b"
  scale_param {
    bias_term: true
  }
}
layer {
  name: "conv3_1"
  type: "Eltwise"
  bottom: "conv3_1b"
  bottom: "conv2_sub"
  top: "conv3_1"
}
layer {
  name: "conv3_1_relu"
  type: "ReLU"
  bottom: "conv3_1"
  top: "conv3_1"
}
layer {
  name: "conv3_2a"
  type: "Convolution"
  bottom: "conv3_1"
  top: "conv3_2a"
  param {
    lr_mult: 1
  }
  param {
    lr_mult: 2
  }
  convolution_param {
    num_output: 32
    pad: 1
    kernel_size: 3
    stride: 1
    weight_filler {
      type: "msra"
    }
    bias_filler {
      type: "constant"
      value: 0
    }
  }
}
layer {
  name: "bn_conv3_2a"
  type: "BatchNorm"
  bottom: "conv3_2a"
  top: "conv3_2a"
  param {
    lr_mult: 0
  }
  param {
    lr_mult: 0
  }
  param {
    lr_mult: 0
  }
}
layer {
  name: "scale_conv3_2a"
  type: "Scale"
  bottom: "conv3_2a"
  top: "conv3_2a"
  scale_param {
    bias_term: true
  }
}
layer {
  name: "conv3_2a_relu"
  type: "ReLU"
  bottom: "conv3_2a"
  top: "conv3_2a"
}
layer {
  name: "conv3_2b"
  type: "Convolution"
  bottom: "conv3_2a"
  top: "conv3_2b"
  param {
    lr_mult: 1
  }
  param {
    lr_mult: 2
  }
  convolution_param {
    num_output: 32
    pad: 1
    kernel_size: 3
    stride: 1
    weight_filler {
      type: "msra"
    }
    bias_filler {
      type: "constant"
      value: 0
    }
  }
}
layer {
  name: "bn_conv3_2b"
  type: "BatchNorm"
  bottom: "conv3_2b"
  top: "conv3_2b"
  param {
    lr_mult: 0
  }
  param {
    lr_mult: 0
  }
  param {
    lr_mult: 0
  }
}
layer {
  name: "scale_conv3_2b"
  type: "Scale"
  bottom: "conv3_2b"
  top: "conv3_2b"
  scale_param {
    bias_term: true
  }
}
layer {
  name: "conv3_2"
  type: "Eltwise"
  bottom: "conv3_2b"
  bottom: "conv3_1"
  top: "conv3_2"
}
layer {
  name: "conv3_2_relu"
  type: "ReLU"
  bottom: "conv3_2"
  top: "conv3_2"
}
layer {
  name: "conv3_3a"
  type: "Convolution"
  bottom: "conv3_2"
  top: "conv3_3a"
  param {
    lr_mult: 1
  }
  param {
    lr_mult: 2
  }
  convolution_param {
    num_output: 32
    pad: 1
    kernel_size: 3
    stride: 1
    weight_filler {
      type: "msra"
    }
    bias_filler {
      type: "constant"
      value: 0
    }
  }
}
layer {
  name: "bn_conv3_3a"
  type: "BatchNorm"
  bottom: "conv3_3a"
  top: "conv3_3a"
  param {
    lr_mult: 0
  }
  param {
    lr_mult: 0
  }
  param {
    lr_mult: 0
  }
}
layer {
  name: "scale_conv3_3a"
  type: "Scale"
  bottom: "conv3_3a"
  top: "conv3_3a"
  scale_param {
    bias_term: true
  }
}
layer {
  name: "conv3_3a_relu"
  type: "ReLU"
  bottom: "conv3_3a"
  top: "conv3_3a"
}
layer {
  name: "conv3_3b"
  type: "Convolution"
  bottom: "conv3_3a"
  top: "conv3_3b"
  param {
    lr_mult: 1
  }
  param {
    lr_mult: 2
  }
  convolution_param {
    num_output: 32
    pad: 1
    kernel_size: 3
    stride: 1
    weight_filler {
      type: "msra"
    }
    bias_filler {
      type: "constant"
      value: 0
    }
  }
}
layer {
  name: "bn_conv3_3b"
  type: "BatchNorm"
  bottom: "conv3_3b"
  top: "conv3_3b"
  param {
    lr_mult: 0
  }
  param {
    lr_mult: 0
  }
  param {
    lr_mult: 0
  }
}
layer {
  name: "scale_conv3_3b"
  type: "Scale"
  bottom: "conv3_3b"
  top: "conv3_3b"
  scale_param {
    bias_term: true
  }
}
layer {
  name: "conv3_3"
  type: "Eltwise"
  bottom: "conv3_3b"
  bottom: "conv3_2"
  top: "conv3_3"
}
layer {
  name: "conv3_3_relu"
  type: "ReLU"
  bottom: "conv3_3"
  top: "conv3_3"
}
layer {
  name: "conv3_sub"
  type: "Convolution"
  bottom: "conv3_3"
  top: "conv3_sub"
  param {
    lr_mult: 1
  }
  param {
    lr_mult: 2
  }
  convolution_param {
    num_output: 64
    kernel_size: 1
    stride: 2
    weight_filler {
      type: "msra"
    }
    bias_filler {
      type: "constant"
      value: 0
    }
  }
}
layer {
  name: "bn_conv3_sub"
  type: "BatchNorm"
  bottom: "conv3_sub"
  top: "conv3_sub"
  param {
    lr_mult: 0
  }
  param {
    lr_mult: 0
  }
  param {
    lr_mult: 0
  }
}
layer {
  name: "scale_conv3_sub"
  type: "Scale"
  bottom: "conv3_sub"
  top: "conv3_sub"
  scale_param {
    bias_term: true
  }
}
layer {
  name: "conv4_1a"
  type: "Convolution"
  bottom: "conv3_3"
  top: "conv4_1a"
  param {
    lr_mult: 1
  }
  param {
    lr_mult: 2
  }
  convolution_param {
    num_output: 64
    pad: 0
    kernel_size: 1
    stride: 2
    weight_filler {
      type: "msra"
    }
    bias_filler {
      type: "constant"
      value: 0
    }
  }
}
layer {
  name: "bn_conv4_1a"
  type: "BatchNorm"
  bottom: "conv4_1a"
  top: "conv4_1a"
  param {
    lr_mult: 0
  }
  param {
    lr_mult: 0
  }
  param {
    lr_mult: 0
  }
}
layer {
  name: "scale_conv4_1a"
  type: "Scale"
  bottom: "conv4_1a"
  top: "conv4_1a"
  scale_param {
    bias_term: true
  }
}
layer {
  name: "conv4_1a_relu"
  type: "ReLU"
  bottom: "conv4_1a"
  top: "conv4_1a"
}
layer {
  name: "conv4_1b"
  type: "Convolution"
  bottom: "conv4_1a"
  top: "conv4_1b"
  param {
    lr_mult: 1
  }
  param {
    lr_mult: 2
  }
  convolution_param {
    num_output: 64
    pad: 1
    kernel_size: 3
    stride: 1
    weight_filler {
      type: "msra"
    }
    bias_filler {
      type: "constant"
      value: 0
    }
  }
}
layer {
  name: "bn_conv4_1b"
  type: "BatchNorm"
  bottom: "conv4_1b"
  top: "conv4_1b"
  param {
    lr_mult: 0
  }
  param {
    lr_mult: 0
  }
  param {
    lr_mult: 0
  }
}
layer {
  name: "scale_conv4_1b"
  type: "Scale"
  bottom: "conv4_1b"
  top: "conv4_1b"
  scale_param {
    bias_term: true
  }
}
layer {
  name: "conv4_1"
  type: "Eltwise"
  bottom: "conv3_sub"
  bottom: "conv4_1b"
  top: "conv4_1"
}
layer {
  name: "conv4_1_relu"
  type: "ReLU"
  bottom: "conv4_1"
  top: "conv4_1"
}
layer {
  name: "conv4_2a"
  type: "Convolution"
  bottom: "conv4_1"
  top: "conv4_2a"
  param {
    lr_mult: 1
  }
  param {
    lr_mult: 2
  }
  convolution_param {
    num_output: 64
    pad: 1
    kernel_size: 3
    stride: 1
    weight_filler {
      type: "msra"
    }
    bias_filler {
      type: "constant"
      value: 0
    }
  }
}
layer {
  name: "bn_conv4_2a"
  type: "BatchNorm"
  bottom: "conv4_2a"
  top: "conv4_2a"
  param {
    lr_mult: 0
  }
  param {
    lr_mult: 0
  }
  param {
    lr_mult: 0
  }
}
layer {
  name: "scale_conv4_2a"
  type: "Scale"
  bottom: "conv4_2a"
  top: "conv4_2a"
  scale_param {
    bias_term: true
  }
}
layer {
  name: "conv4_2a_relu"
  type: "ReLU"
  bottom: "conv4_2a"
  top: "conv4_2a"
}
layer {
  name: "conv4_2b"
  type: "Convolution"
  bottom: "conv4_2a"
  top: "conv4_2b"
  param {
    lr_mult: 1
  }
  param {
    lr_mult: 2
  }
  convolution_param {
    num_output: 64
    pad: 1
    kernel_size: 3
    stride: 1
    weight_filler {
      type: "msra"
    }
    bias_filler {
      type: "constant"
      value: 0
    }
  }
}
layer {
  name: "bn_conv4_2b"
  type: "BatchNorm"
  bottom: "conv4_2b"
  top: "conv4_2b"
  param {
    lr_mult: 0
  }
  param {
    lr_mult: 0
  }
  param {
    lr_mult: 0
  }
}
layer {
  name: "scale_conv4_2b"
  type: "Scale"
  bottom: "conv4_2b"
  top: "conv4_2b"
  scale_param {
    bias_term: true
  }
}
layer {
  name: "conv4_2"
  type: "Eltwise"
  bottom: "conv4_1"
  bottom: "conv4_2b"
  top: "conv4_2"
}
layer {
  name: "conv4_2_relu"
  type: "ReLU"
  bottom: "conv4_2"
  top: "conv4_2"
}
layer {
  name: "conv4_3a"
  type: "Convolution"
  bottom: "conv4_2"
  top: "conv4_3a"
  param {
    lr_mult: 1
  }
  param {
    lr_mult: 2
  }
  convolution_param {
    num_output: 64
    pad: 1
    kernel_size: 3
    stride: 1
    weight_filler {
      type: "msra"
    }
    bias_filler {
      type: "constant"
      value: 0
    }
  }
}
layer {
  name: "bn_conv4_3a"
  type: "BatchNorm"
  bottom: "conv4_3a"
  top: "conv4_3a"
  param {
    lr_mult: 0
  }
  param {
    lr_mult: 0
  }
  param {
    lr_mult: 0
  }
}
layer {
  name: "scale_conv4_3a"
  type: "Scale"
  bottom: "conv4_3a"
  top: "conv4_3a"
  scale_param {
    bias_term: true
  }
}
layer {
  name: "conv4_3a_relu"
  type: "ReLU"
  bottom: "conv4_3a"
  top: "conv4_3a"
}
layer {
  name: "conv4_3b"
  type: "Convolution"
  bottom: "conv4_3a"
  top: "conv4_3b"
  param {
    lr_mult: 1
  }
  param {
    lr_mult: 2
  }
  convolution_param {
    num_output: 64
    pad: 1
    kernel_size: 3
    stride: 1
    weight_filler {
      type: "msra"
    }
    bias_filler {
      type: "constant"
      value: 0
    }
  }
}
layer {
  name: "bn_conv4_3b"
  type: "BatchNorm"
  bottom: "conv4_3b"
  top: "conv4_3b"
  param {
    lr_mult: 0
  }
  param {
    lr_mult: 0
  }
  param {
    lr_mult: 0
  }
}
layer {
  name: "scale_conv4_3b"
  type: "Scale"
  bottom: "conv4_3b"
  top: "conv4_3b"
  scale_param {
    bias_term: true
  }
}
layer {
  name: "conv4_3"
  type: "Eltwise"
  bottom: "conv4_2"
  bottom: "conv4_3b"
  top: "conv4_3"
}
layer {
  name: "conv4_3_relu"
  type: "ReLU"
  bottom: "conv4_3"
  top: "conv4_3"
}
layer {
  name: "global_pool"
  type: "Pooling"
  bottom: "conv4_3"
  top: "global_pool"
  pooling_param {
    pool: AVE
    kernel_size: 8
    stride: 8
  }
}
layer {
  name: "ip"
  type: "InnerProduct"
  bottom: "global_pool"
  top: "ip"
  inner_product_param {
    num_output: 10
  }
}
layer {
  name: "accuracy"
  type: "Accuracy"
  bottom: "ip"
  bottom: "label"
  top: "accuracy"
}
layer {
  name: "loss"
  type: "SoftmaxWithLoss"
  bottom: "ip"
  bottom: "label"
  top: "loss"
}
I0412 17:09:35.085044  8571 layer_factory.hpp:77] Creating layer cifar
I0412 17:09:35.085263  8571 net.cpp:91] Creating Layer cifar
I0412 17:09:35.085286  8571 net.cpp:399] cifar -> data
I0412 17:09:35.085304  8571 net.cpp:399] cifar -> label
I0412 17:09:35.085319  8571 data_transformer.cpp:25] Loading mean file from: /home/liangjiang/code/residual_network/data/cifar10/mean.binaryproto
I0412 17:09:35.086712  8648 db_lmdb.cpp:38] Opened lmdb /home/liangjiang/code/residual_network/data/cifar10/cifar10_test_lmdb
I0412 17:09:35.086956  8571 data_layer.cpp:41] output data size: 100,3,32,32
I0412 17:09:35.091382  8571 net.cpp:141] Setting up cifar
I0412 17:09:35.091408  8571 net.cpp:148] Top shape: 100 3 32 32 (307200)
I0412 17:09:35.091418  8571 net.cpp:148] Top shape: 100 (100)
I0412 17:09:35.091423  8571 net.cpp:156] Memory required for data: 1229200
I0412 17:09:35.091430  8571 layer_factory.hpp:77] Creating layer label_cifar_1_split
I0412 17:09:35.091445  8571 net.cpp:91] Creating Layer label_cifar_1_split
I0412 17:09:35.091452  8571 net.cpp:425] label_cifar_1_split <- label
I0412 17:09:35.091482  8571 net.cpp:399] label_cifar_1_split -> label_cifar_1_split_0
I0412 17:09:35.091500  8571 net.cpp:399] label_cifar_1_split -> label_cifar_1_split_1
I0412 17:09:35.091657  8571 net.cpp:141] Setting up label_cifar_1_split
I0412 17:09:35.091675  8571 net.cpp:148] Top shape: 100 (100)
I0412 17:09:35.091682  8571 net.cpp:148] Top shape: 100 (100)
I0412 17:09:35.091688  8571 net.cpp:156] Memory required for data: 1230000
I0412 17:09:35.091694  8571 layer_factory.hpp:77] Creating layer conv1
I0412 17:09:35.091713  8571 net.cpp:91] Creating Layer conv1
I0412 17:09:35.091722  8571 net.cpp:425] conv1 <- data
I0412 17:09:35.091733  8571 net.cpp:399] conv1 -> conv1
I0412 17:09:35.093791  8571 net.cpp:141] Setting up conv1
I0412 17:09:35.093818  8571 net.cpp:148] Top shape: 100 16 32 32 (1638400)
I0412 17:09:35.093825  8571 net.cpp:156] Memory required for data: 7783600
I0412 17:09:35.093842  8571 layer_factory.hpp:77] Creating layer bn_conv1
I0412 17:09:35.093858  8571 net.cpp:91] Creating Layer bn_conv1
I0412 17:09:35.093864  8571 net.cpp:425] bn_conv1 <- conv1
I0412 17:09:35.093873  8571 net.cpp:386] bn_conv1 -> conv1 (in-place)
I0412 17:09:35.094372  8571 net.cpp:141] Setting up bn_conv1
I0412 17:09:35.094388  8571 net.cpp:148] Top shape: 100 16 32 32 (1638400)
I0412 17:09:35.094403  8571 net.cpp:156] Memory required for data: 14337200
I0412 17:09:35.094422  8571 layer_factory.hpp:77] Creating layer scale_conv1
I0412 17:09:35.094437  8571 net.cpp:91] Creating Layer scale_conv1
I0412 17:09:35.094446  8571 net.cpp:425] scale_conv1 <- conv1
I0412 17:09:35.094455  8571 net.cpp:386] scale_conv1 -> conv1 (in-place)
I0412 17:09:35.094527  8571 layer_factory.hpp:77] Creating layer scale_conv1
I0412 17:09:35.094707  8571 net.cpp:141] Setting up scale_conv1
I0412 17:09:35.094722  8571 net.cpp:148] Top shape: 100 16 32 32 (1638400)
I0412 17:09:35.094727  8571 net.cpp:156] Memory required for data: 20890800
I0412 17:09:35.094738  8571 layer_factory.hpp:77] Creating layer conv1_relu
I0412 17:09:35.094748  8571 net.cpp:91] Creating Layer conv1_relu
I0412 17:09:35.094754  8571 net.cpp:425] conv1_relu <- conv1
I0412 17:09:35.094764  8571 net.cpp:386] conv1_relu -> conv1 (in-place)
I0412 17:09:35.095214  8571 net.cpp:141] Setting up conv1_relu
I0412 17:09:35.095237  8571 net.cpp:148] Top shape: 100 16 32 32 (1638400)
I0412 17:09:35.095244  8571 net.cpp:156] Memory required for data: 27444400
I0412 17:09:35.095252  8571 layer_factory.hpp:77] Creating layer conv1_conv1_relu_0_split
I0412 17:09:35.095268  8571 net.cpp:91] Creating Layer conv1_conv1_relu_0_split
I0412 17:09:35.095274  8571 net.cpp:425] conv1_conv1_relu_0_split <- conv1
I0412 17:09:35.095288  8571 net.cpp:399] conv1_conv1_relu_0_split -> conv1_conv1_relu_0_split_0
I0412 17:09:35.095300  8571 net.cpp:399] conv1_conv1_relu_0_split -> conv1_conv1_relu_0_split_1
I0412 17:09:35.095381  8571 net.cpp:141] Setting up conv1_conv1_relu_0_split
I0412 17:09:35.095393  8571 net.cpp:148] Top shape: 100 16 32 32 (1638400)
I0412 17:09:35.095402  8571 net.cpp:148] Top shape: 100 16 32 32 (1638400)
I0412 17:09:35.095407  8571 net.cpp:156] Memory required for data: 40551600
I0412 17:09:35.095413  8571 layer_factory.hpp:77] Creating layer conv2_1a
I0412 17:09:35.095430  8571 net.cpp:91] Creating Layer conv2_1a
I0412 17:09:35.095438  8571 net.cpp:425] conv2_1a <- conv1_conv1_relu_0_split_0
I0412 17:09:35.095450  8571 net.cpp:399] conv2_1a -> conv2_1a
I0412 17:09:35.097054  8571 net.cpp:141] Setting up conv2_1a
I0412 17:09:35.097076  8571 net.cpp:148] Top shape: 100 16 32 32 (1638400)
I0412 17:09:35.097084  8571 net.cpp:156] Memory required for data: 47105200
I0412 17:09:35.097100  8571 layer_factory.hpp:77] Creating layer bn_conv2_1a
I0412 17:09:35.097143  8571 net.cpp:91] Creating Layer bn_conv2_1a
I0412 17:09:35.097151  8571 net.cpp:425] bn_conv2_1a <- conv2_1a
I0412 17:09:35.097175  8571 net.cpp:386] bn_conv2_1a -> conv2_1a (in-place)
I0412 17:09:35.097481  8571 net.cpp:141] Setting up bn_conv2_1a
I0412 17:09:35.097494  8571 net.cpp:148] Top shape: 100 16 32 32 (1638400)
I0412 17:09:35.097506  8571 net.cpp:156] Memory required for data: 53658800
I0412 17:09:35.097535  8571 layer_factory.hpp:77] Creating layer scale_conv2_1a
I0412 17:09:35.097546  8571 net.cpp:91] Creating Layer scale_conv2_1a
I0412 17:09:35.097553  8571 net.cpp:425] scale_conv2_1a <- conv2_1a
I0412 17:09:35.097563  8571 net.cpp:386] scale_conv2_1a -> conv2_1a (in-place)
I0412 17:09:35.097633  8571 layer_factory.hpp:77] Creating layer scale_conv2_1a
I0412 17:09:35.097808  8571 net.cpp:141] Setting up scale_conv2_1a
I0412 17:09:35.097826  8571 net.cpp:148] Top shape: 100 16 32 32 (1638400)
I0412 17:09:35.097831  8571 net.cpp:156] Memory required for data: 60212400
I0412 17:09:35.097841  8571 layer_factory.hpp:77] Creating layer conv2_1a_relu
I0412 17:09:35.097849  8571 net.cpp:91] Creating Layer conv2_1a_relu
I0412 17:09:35.097856  8571 net.cpp:425] conv2_1a_relu <- conv2_1a
I0412 17:09:35.097868  8571 net.cpp:386] conv2_1a_relu -> conv2_1a (in-place)
I0412 17:09:35.098120  8571 net.cpp:141] Setting up conv2_1a_relu
I0412 17:09:35.098136  8571 net.cpp:148] Top shape: 100 16 32 32 (1638400)
I0412 17:09:35.098142  8571 net.cpp:156] Memory required for data: 66766000
I0412 17:09:35.098148  8571 layer_factory.hpp:77] Creating layer conv2_1b
I0412 17:09:35.098173  8571 net.cpp:91] Creating Layer conv2_1b
I0412 17:09:35.098182  8571 net.cpp:425] conv2_1b <- conv2_1a
I0412 17:09:35.098192  8571 net.cpp:399] conv2_1b -> conv2_1b
I0412 17:09:35.099997  8571 net.cpp:141] Setting up conv2_1b
I0412 17:09:35.100020  8571 net.cpp:148] Top shape: 100 16 32 32 (1638400)
I0412 17:09:35.100028  8571 net.cpp:156] Memory required for data: 73319600
I0412 17:09:35.100039  8571 layer_factory.hpp:77] Creating layer bn_conv2_1b
I0412 17:09:35.100052  8571 net.cpp:91] Creating Layer bn_conv2_1b
I0412 17:09:35.100060  8571 net.cpp:425] bn_conv2_1b <- conv2_1b
I0412 17:09:35.100069  8571 net.cpp:386] bn_conv2_1b -> conv2_1b (in-place)
I0412 17:09:35.100366  8571 net.cpp:141] Setting up bn_conv2_1b
I0412 17:09:35.100380  8571 net.cpp:148] Top shape: 100 16 32 32 (1638400)
I0412 17:09:35.100394  8571 net.cpp:156] Memory required for data: 79873200
I0412 17:09:35.100425  8571 layer_factory.hpp:77] Creating layer scale_conv2_1b
I0412 17:09:35.100436  8571 net.cpp:91] Creating Layer scale_conv2_1b
I0412 17:09:35.100456  8571 net.cpp:425] scale_conv2_1b <- conv2_1b
I0412 17:09:35.100464  8571 net.cpp:386] scale_conv2_1b -> conv2_1b (in-place)
I0412 17:09:35.100536  8571 layer_factory.hpp:77] Creating layer scale_conv2_1b
I0412 17:09:35.100713  8571 net.cpp:141] Setting up scale_conv2_1b
I0412 17:09:35.100725  8571 net.cpp:148] Top shape: 100 16 32 32 (1638400)
I0412 17:09:35.100731  8571 net.cpp:156] Memory required for data: 86426800
I0412 17:09:35.100744  8571 layer_factory.hpp:77] Creating layer conv2_1
I0412 17:09:35.100755  8571 net.cpp:91] Creating Layer conv2_1
I0412 17:09:35.100761  8571 net.cpp:425] conv2_1 <- conv2_1b
I0412 17:09:35.100769  8571 net.cpp:425] conv2_1 <- conv1_conv1_relu_0_split_1
I0412 17:09:35.100777  8571 net.cpp:399] conv2_1 -> conv2_1
I0412 17:09:35.100819  8571 net.cpp:141] Setting up conv2_1
I0412 17:09:35.100831  8571 net.cpp:148] Top shape: 100 16 32 32 (1638400)
I0412 17:09:35.100837  8571 net.cpp:156] Memory required for data: 92980400
I0412 17:09:35.100843  8571 layer_factory.hpp:77] Creating layer conv2_1_relu
I0412 17:09:35.100852  8571 net.cpp:91] Creating Layer conv2_1_relu
I0412 17:09:35.100859  8571 net.cpp:425] conv2_1_relu <- conv2_1
I0412 17:09:35.100870  8571 net.cpp:386] conv2_1_relu -> conv2_1 (in-place)
I0412 17:09:35.101140  8571 net.cpp:141] Setting up conv2_1_relu
I0412 17:09:35.101158  8571 net.cpp:148] Top shape: 100 16 32 32 (1638400)
I0412 17:09:35.101166  8571 net.cpp:156] Memory required for data: 99534000
I0412 17:09:35.101171  8571 layer_factory.hpp:77] Creating layer conv2_1_conv2_1_relu_0_split
I0412 17:09:35.101184  8571 net.cpp:91] Creating Layer conv2_1_conv2_1_relu_0_split
I0412 17:09:35.101191  8571 net.cpp:425] conv2_1_conv2_1_relu_0_split <- conv2_1
I0412 17:09:35.101207  8571 net.cpp:399] conv2_1_conv2_1_relu_0_split -> conv2_1_conv2_1_relu_0_split_0
I0412 17:09:35.101219  8571 net.cpp:399] conv2_1_conv2_1_relu_0_split -> conv2_1_conv2_1_relu_0_split_1
I0412 17:09:35.101286  8571 net.cpp:141] Setting up conv2_1_conv2_1_relu_0_split
I0412 17:09:35.101300  8571 net.cpp:148] Top shape: 100 16 32 32 (1638400)
I0412 17:09:35.101307  8571 net.cpp:148] Top shape: 100 16 32 32 (1638400)
I0412 17:09:35.101317  8571 net.cpp:156] Memory required for data: 112641200
I0412 17:09:35.101325  8571 layer_factory.hpp:77] Creating layer conv2_2a
I0412 17:09:35.101357  8571 net.cpp:91] Creating Layer conv2_2a
I0412 17:09:35.101366  8571 net.cpp:425] conv2_2a <- conv2_1_conv2_1_relu_0_split_0
I0412 17:09:35.101377  8571 net.cpp:399] conv2_2a -> conv2_2a
I0412 17:09:35.102968  8571 net.cpp:141] Setting up conv2_2a
I0412 17:09:35.102994  8571 net.cpp:148] Top shape: 100 16 32 32 (1638400)
I0412 17:09:35.103001  8571 net.cpp:156] Memory required for data: 119194800
I0412 17:09:35.103013  8571 layer_factory.hpp:77] Creating layer bn_conv2_2a
I0412 17:09:35.103024  8571 net.cpp:91] Creating Layer bn_conv2_2a
I0412 17:09:35.103029  8571 net.cpp:425] bn_conv2_2a <- conv2_2a
I0412 17:09:35.103041  8571 net.cpp:386] bn_conv2_2a -> conv2_2a (in-place)
I0412 17:09:35.103682  8571 net.cpp:141] Setting up bn_conv2_2a
I0412 17:09:35.103713  8571 net.cpp:148] Top shape: 100 16 32 32 (1638400)
I0412 17:09:35.103719  8571 net.cpp:156] Memory required for data: 125748400
I0412 17:09:35.103732  8571 layer_factory.hpp:77] Creating layer scale_conv2_2a
I0412 17:09:35.103746  8571 net.cpp:91] Creating Layer scale_conv2_2a
I0412 17:09:35.103754  8571 net.cpp:425] scale_conv2_2a <- conv2_2a
I0412 17:09:35.103762  8571 net.cpp:386] scale_conv2_2a -> conv2_2a (in-place)
I0412 17:09:35.103834  8571 layer_factory.hpp:77] Creating layer scale_conv2_2a
I0412 17:09:35.104012  8571 net.cpp:141] Setting up scale_conv2_2a
I0412 17:09:35.104027  8571 net.cpp:148] Top shape: 100 16 32 32 (1638400)
I0412 17:09:35.104033  8571 net.cpp:156] Memory required for data: 132302000
I0412 17:09:35.104044  8571 layer_factory.hpp:77] Creating layer conv2_2a_relu
I0412 17:09:35.104056  8571 net.cpp:91] Creating Layer conv2_2a_relu
I0412 17:09:35.104063  8571 net.cpp:425] conv2_2a_relu <- conv2_2a
I0412 17:09:35.104073  8571 net.cpp:386] conv2_2a_relu -> conv2_2a (in-place)
I0412 17:09:35.104511  8571 net.cpp:141] Setting up conv2_2a_relu
I0412 17:09:35.104537  8571 net.cpp:148] Top shape: 100 16 32 32 (1638400)
I0412 17:09:35.104543  8571 net.cpp:156] Memory required for data: 138855600
I0412 17:09:35.104552  8571 layer_factory.hpp:77] Creating layer conv2_2b
I0412 17:09:35.104570  8571 net.cpp:91] Creating Layer conv2_2b
I0412 17:09:35.104578  8571 net.cpp:425] conv2_2b <- conv2_2a
I0412 17:09:35.104589  8571 net.cpp:399] conv2_2b -> conv2_2b
I0412 17:09:35.106123  8571 net.cpp:141] Setting up conv2_2b
I0412 17:09:35.106148  8571 net.cpp:148] Top shape: 100 16 32 32 (1638400)
I0412 17:09:35.106158  8571 net.cpp:156] Memory required for data: 145409200
I0412 17:09:35.106168  8571 layer_factory.hpp:77] Creating layer bn_conv2_2b
I0412 17:09:35.106183  8571 net.cpp:91] Creating Layer bn_conv2_2b
I0412 17:09:35.106196  8571 net.cpp:425] bn_conv2_2b <- conv2_2b
I0412 17:09:35.106205  8571 net.cpp:386] bn_conv2_2b -> conv2_2b (in-place)
I0412 17:09:35.106505  8571 net.cpp:141] Setting up bn_conv2_2b
I0412 17:09:35.106518  8571 net.cpp:148] Top shape: 100 16 32 32 (1638400)
I0412 17:09:35.106523  8571 net.cpp:156] Memory required for data: 151962800
I0412 17:09:35.106547  8571 layer_factory.hpp:77] Creating layer scale_conv2_2b
I0412 17:09:35.106560  8571 net.cpp:91] Creating Layer scale_conv2_2b
I0412 17:09:35.106566  8571 net.cpp:425] scale_conv2_2b <- conv2_2b
I0412 17:09:35.106576  8571 net.cpp:386] scale_conv2_2b -> conv2_2b (in-place)
I0412 17:09:35.106647  8571 layer_factory.hpp:77] Creating layer scale_conv2_2b
I0412 17:09:35.106822  8571 net.cpp:141] Setting up scale_conv2_2b
I0412 17:09:35.106834  8571 net.cpp:148] Top shape: 100 16 32 32 (1638400)
I0412 17:09:35.106839  8571 net.cpp:156] Memory required for data: 158516400
I0412 17:09:35.106851  8571 layer_factory.hpp:77] Creating layer conv2_2
I0412 17:09:35.106863  8571 net.cpp:91] Creating Layer conv2_2
I0412 17:09:35.106869  8571 net.cpp:425] conv2_2 <- conv2_2b
I0412 17:09:35.106878  8571 net.cpp:425] conv2_2 <- conv2_1_conv2_1_relu_0_split_1
I0412 17:09:35.106891  8571 net.cpp:399] conv2_2 -> conv2_2
I0412 17:09:35.106952  8571 net.cpp:141] Setting up conv2_2
I0412 17:09:35.106966  8571 net.cpp:148] Top shape: 100 16 32 32 (1638400)
I0412 17:09:35.106982  8571 net.cpp:156] Memory required for data: 165070000
I0412 17:09:35.106988  8571 layer_factory.hpp:77] Creating layer conv2_2_relu
I0412 17:09:35.106997  8571 net.cpp:91] Creating Layer conv2_2_relu
I0412 17:09:35.107015  8571 net.cpp:425] conv2_2_relu <- conv2_2
I0412 17:09:35.107028  8571 net.cpp:386] conv2_2_relu -> conv2_2 (in-place)
I0412 17:09:35.107282  8571 net.cpp:141] Setting up conv2_2_relu
I0412 17:09:35.107297  8571 net.cpp:148] Top shape: 100 16 32 32 (1638400)
I0412 17:09:35.107303  8571 net.cpp:156] Memory required for data: 171623600
I0412 17:09:35.107309  8571 layer_factory.hpp:77] Creating layer conv2_2_conv2_2_relu_0_split
I0412 17:09:35.107318  8571 net.cpp:91] Creating Layer conv2_2_conv2_2_relu_0_split
I0412 17:09:35.107331  8571 net.cpp:425] conv2_2_conv2_2_relu_0_split <- conv2_2
I0412 17:09:35.107343  8571 net.cpp:399] conv2_2_conv2_2_relu_0_split -> conv2_2_conv2_2_relu_0_split_0
I0412 17:09:35.107355  8571 net.cpp:399] conv2_2_conv2_2_relu_0_split -> conv2_2_conv2_2_relu_0_split_1
I0412 17:09:35.107424  8571 net.cpp:141] Setting up conv2_2_conv2_2_relu_0_split
I0412 17:09:35.107435  8571 net.cpp:148] Top shape: 100 16 32 32 (1638400)
I0412 17:09:35.107446  8571 net.cpp:148] Top shape: 100 16 32 32 (1638400)
I0412 17:09:35.107451  8571 net.cpp:156] Memory required for data: 184730800
I0412 17:09:35.107457  8571 layer_factory.hpp:77] Creating layer conv2_3a
I0412 17:09:35.107475  8571 net.cpp:91] Creating Layer conv2_3a
I0412 17:09:35.107481  8571 net.cpp:425] conv2_3a <- conv2_2_conv2_2_relu_0_split_0
I0412 17:09:35.107491  8571 net.cpp:399] conv2_3a -> conv2_3a
I0412 17:09:35.108968  8571 net.cpp:141] Setting up conv2_3a
I0412 17:09:35.108989  8571 net.cpp:148] Top shape: 100 16 32 32 (1638400)
I0412 17:09:35.108996  8571 net.cpp:156] Memory required for data: 191284400
I0412 17:09:35.109010  8571 layer_factory.hpp:77] Creating layer bn_conv2_3a
I0412 17:09:35.109025  8571 net.cpp:91] Creating Layer bn_conv2_3a
I0412 17:09:35.109031  8571 net.cpp:425] bn_conv2_3a <- conv2_3a
I0412 17:09:35.109040  8571 net.cpp:386] bn_conv2_3a -> conv2_3a (in-place)
I0412 17:09:35.109344  8571 net.cpp:141] Setting up bn_conv2_3a
I0412 17:09:35.109360  8571 net.cpp:148] Top shape: 100 16 32 32 (1638400)
I0412 17:09:35.109366  8571 net.cpp:156] Memory required for data: 197838000
I0412 17:09:35.109379  8571 layer_factory.hpp:77] Creating layer scale_conv2_3a
I0412 17:09:35.109391  8571 net.cpp:91] Creating Layer scale_conv2_3a
I0412 17:09:35.109398  8571 net.cpp:425] scale_conv2_3a <- conv2_3a
I0412 17:09:35.109406  8571 net.cpp:386] scale_conv2_3a -> conv2_3a (in-place)
I0412 17:09:35.109470  8571 layer_factory.hpp:77] Creating layer scale_conv2_3a
I0412 17:09:35.109639  8571 net.cpp:141] Setting up scale_conv2_3a
I0412 17:09:35.109652  8571 net.cpp:148] Top shape: 100 16 32 32 (1638400)
I0412 17:09:35.109658  8571 net.cpp:156] Memory required for data: 204391600
I0412 17:09:35.109668  8571 layer_factory.hpp:77] Creating layer conv2_3a_relu
I0412 17:09:35.109679  8571 net.cpp:91] Creating Layer conv2_3a_relu
I0412 17:09:35.109685  8571 net.cpp:425] conv2_3a_relu <- conv2_3a
I0412 17:09:35.109694  8571 net.cpp:386] conv2_3a_relu -> conv2_3a (in-place)
I0412 17:09:35.109943  8571 net.cpp:141] Setting up conv2_3a_relu
I0412 17:09:35.109958  8571 net.cpp:148] Top shape: 100 16 32 32 (1638400)
I0412 17:09:35.109964  8571 net.cpp:156] Memory required for data: 210945200
I0412 17:09:35.109971  8571 layer_factory.hpp:77] Creating layer conv2_3b
I0412 17:09:35.109987  8571 net.cpp:91] Creating Layer conv2_3b
I0412 17:09:35.109994  8571 net.cpp:425] conv2_3b <- conv2_3a
I0412 17:09:35.110010  8571 net.cpp:399] conv2_3b -> conv2_3b
I0412 17:09:35.111500  8571 net.cpp:141] Setting up conv2_3b
I0412 17:09:35.111522  8571 net.cpp:148] Top shape: 100 16 32 32 (1638400)
I0412 17:09:35.111529  8571 net.cpp:156] Memory required for data: 217498800
I0412 17:09:35.111541  8571 layer_factory.hpp:77] Creating layer bn_conv2_3b
I0412 17:09:35.111564  8571 net.cpp:91] Creating Layer bn_conv2_3b
I0412 17:09:35.111572  8571 net.cpp:425] bn_conv2_3b <- conv2_3b
I0412 17:09:35.111582  8571 net.cpp:386] bn_conv2_3b -> conv2_3b (in-place)
I0412 17:09:35.111874  8571 net.cpp:141] Setting up bn_conv2_3b
I0412 17:09:35.111886  8571 net.cpp:148] Top shape: 100 16 32 32 (1638400)
I0412 17:09:35.111892  8571 net.cpp:156] Memory required for data: 224052400
I0412 17:09:35.111904  8571 layer_factory.hpp:77] Creating layer scale_conv2_3b
I0412 17:09:35.111914  8571 net.cpp:91] Creating Layer scale_conv2_3b
I0412 17:09:35.111922  8571 net.cpp:425] scale_conv2_3b <- conv2_3b
I0412 17:09:35.111928  8571 net.cpp:386] scale_conv2_3b -> conv2_3b (in-place)
I0412 17:09:35.111994  8571 layer_factory.hpp:77] Creating layer scale_conv2_3b
I0412 17:09:35.112171  8571 net.cpp:141] Setting up scale_conv2_3b
I0412 17:09:35.112185  8571 net.cpp:148] Top shape: 100 16 32 32 (1638400)
I0412 17:09:35.112190  8571 net.cpp:156] Memory required for data: 230606000
I0412 17:09:35.112200  8571 layer_factory.hpp:77] Creating layer conv2_3
I0412 17:09:35.112212  8571 net.cpp:91] Creating Layer conv2_3
I0412 17:09:35.112218  8571 net.cpp:425] conv2_3 <- conv2_3b
I0412 17:09:35.112226  8571 net.cpp:425] conv2_3 <- conv2_2_conv2_2_relu_0_split_1
I0412 17:09:35.112236  8571 net.cpp:399] conv2_3 -> conv2_3
I0412 17:09:35.112275  8571 net.cpp:141] Setting up conv2_3
I0412 17:09:35.112285  8571 net.cpp:148] Top shape: 100 16 32 32 (1638400)
I0412 17:09:35.112292  8571 net.cpp:156] Memory required for data: 237159600
I0412 17:09:35.112298  8571 layer_factory.hpp:77] Creating layer conv2_3_relu
I0412 17:09:35.112309  8571 net.cpp:91] Creating Layer conv2_3_relu
I0412 17:09:35.112315  8571 net.cpp:425] conv2_3_relu <- conv2_3
I0412 17:09:35.112323  8571 net.cpp:386] conv2_3_relu -> conv2_3 (in-place)
I0412 17:09:35.112934  8571 net.cpp:141] Setting up conv2_3_relu
I0412 17:09:35.112956  8571 net.cpp:148] Top shape: 100 16 32 32 (1638400)
I0412 17:09:35.112962  8571 net.cpp:156] Memory required for data: 243713200
I0412 17:09:35.112968  8571 layer_factory.hpp:77] Creating layer conv2_3_conv2_3_relu_0_split
I0412 17:09:35.112982  8571 net.cpp:91] Creating Layer conv2_3_conv2_3_relu_0_split
I0412 17:09:35.112987  8571 net.cpp:425] conv2_3_conv2_3_relu_0_split <- conv2_3
I0412 17:09:35.112998  8571 net.cpp:399] conv2_3_conv2_3_relu_0_split -> conv2_3_conv2_3_relu_0_split_0
I0412 17:09:35.113008  8571 net.cpp:399] conv2_3_conv2_3_relu_0_split -> conv2_3_conv2_3_relu_0_split_1
I0412 17:09:35.113080  8571 net.cpp:141] Setting up conv2_3_conv2_3_relu_0_split
I0412 17:09:35.113092  8571 net.cpp:148] Top shape: 100 16 32 32 (1638400)
I0412 17:09:35.113100  8571 net.cpp:148] Top shape: 100 16 32 32 (1638400)
I0412 17:09:35.113104  8571 net.cpp:156] Memory required for data: 256820400
I0412 17:09:35.113124  8571 layer_factory.hpp:77] Creating layer conv2_sub
I0412 17:09:35.113147  8571 net.cpp:91] Creating Layer conv2_sub
I0412 17:09:35.113154  8571 net.cpp:425] conv2_sub <- conv2_3_conv2_3_relu_0_split_0
I0412 17:09:35.113168  8571 net.cpp:399] conv2_sub -> conv2_sub
I0412 17:09:35.114740  8571 net.cpp:141] Setting up conv2_sub
I0412 17:09:35.114763  8571 net.cpp:148] Top shape: 100 32 16 16 (819200)
I0412 17:09:35.114768  8571 net.cpp:156] Memory required for data: 260097200
I0412 17:09:35.114779  8571 layer_factory.hpp:77] Creating layer bn_conv2_sub
I0412 17:09:35.114794  8571 net.cpp:91] Creating Layer bn_conv2_sub
I0412 17:09:35.114800  8571 net.cpp:425] bn_conv2_sub <- conv2_sub
I0412 17:09:35.114809  8571 net.cpp:386] bn_conv2_sub -> conv2_sub (in-place)
I0412 17:09:35.115085  8571 net.cpp:141] Setting up bn_conv2_sub
I0412 17:09:35.115097  8571 net.cpp:148] Top shape: 100 32 16 16 (819200)
I0412 17:09:35.115103  8571 net.cpp:156] Memory required for data: 263374000
I0412 17:09:35.115114  8571 layer_factory.hpp:77] Creating layer scale_conv2_sub
I0412 17:09:35.115126  8571 net.cpp:91] Creating Layer scale_conv2_sub
I0412 17:09:35.115134  8571 net.cpp:425] scale_conv2_sub <- conv2_sub
I0412 17:09:35.115140  8571 net.cpp:386] scale_conv2_sub -> conv2_sub (in-place)
I0412 17:09:35.115202  8571 layer_factory.hpp:77] Creating layer scale_conv2_sub
I0412 17:09:35.115365  8571 net.cpp:141] Setting up scale_conv2_sub
I0412 17:09:35.115377  8571 net.cpp:148] Top shape: 100 32 16 16 (819200)
I0412 17:09:35.115382  8571 net.cpp:156] Memory required for data: 266650800
I0412 17:09:35.115392  8571 layer_factory.hpp:77] Creating layer conv3_1a
I0412 17:09:35.115411  8571 net.cpp:91] Creating Layer conv3_1a
I0412 17:09:35.115417  8571 net.cpp:425] conv3_1a <- conv2_3_conv2_3_relu_0_split_1
I0412 17:09:35.115427  8571 net.cpp:399] conv3_1a -> conv3_1a
I0412 17:09:35.131371  8571 net.cpp:141] Setting up conv3_1a
I0412 17:09:35.131393  8571 net.cpp:148] Top shape: 100 32 16 16 (819200)
I0412 17:09:35.131408  8571 net.cpp:156] Memory required for data: 269927600
I0412 17:09:35.131419  8571 layer_factory.hpp:77] Creating layer bn_conv3_1a
I0412 17:09:35.131434  8571 net.cpp:91] Creating Layer bn_conv3_1a
I0412 17:09:35.131441  8571 net.cpp:425] bn_conv3_1a <- conv3_1a
I0412 17:09:35.131453  8571 net.cpp:386] bn_conv3_1a -> conv3_1a (in-place)
I0412 17:09:35.131728  8571 net.cpp:141] Setting up bn_conv3_1a
I0412 17:09:35.131741  8571 net.cpp:148] Top shape: 100 32 16 16 (819200)
I0412 17:09:35.131747  8571 net.cpp:156] Memory required for data: 273204400
I0412 17:09:35.131757  8571 layer_factory.hpp:77] Creating layer scale_conv3_1a
I0412 17:09:35.131767  8571 net.cpp:91] Creating Layer scale_conv3_1a
I0412 17:09:35.131773  8571 net.cpp:425] scale_conv3_1a <- conv3_1a
I0412 17:09:35.131783  8571 net.cpp:386] scale_conv3_1a -> conv3_1a (in-place)
I0412 17:09:35.131844  8571 layer_factory.hpp:77] Creating layer scale_conv3_1a
I0412 17:09:35.132009  8571 net.cpp:141] Setting up scale_conv3_1a
I0412 17:09:35.132021  8571 net.cpp:148] Top shape: 100 32 16 16 (819200)
I0412 17:09:35.132026  8571 net.cpp:156] Memory required for data: 276481200
I0412 17:09:35.132035  8571 layer_factory.hpp:77] Creating layer conv3_1a_relu
I0412 17:09:35.132045  8571 net.cpp:91] Creating Layer conv3_1a_relu
I0412 17:09:35.132050  8571 net.cpp:425] conv3_1a_relu <- conv3_1a
I0412 17:09:35.132060  8571 net.cpp:386] conv3_1a_relu -> conv3_1a (in-place)
I0412 17:09:35.141578  8571 net.cpp:141] Setting up conv3_1a_relu
I0412 17:09:35.141599  8571 net.cpp:148] Top shape: 100 32 16 16 (819200)
I0412 17:09:35.141605  8571 net.cpp:156] Memory required for data: 279758000
I0412 17:09:35.141612  8571 layer_factory.hpp:77] Creating layer conv3_1b
I0412 17:09:35.141630  8571 net.cpp:91] Creating Layer conv3_1b
I0412 17:09:35.141638  8571 net.cpp:425] conv3_1b <- conv3_1a
I0412 17:09:35.141650  8571 net.cpp:399] conv3_1b -> conv3_1b
I0412 17:09:35.149978  8571 net.cpp:141] Setting up conv3_1b
I0412 17:09:35.150074  8571 net.cpp:148] Top shape: 100 32 16 16 (819200)
I0412 17:09:35.150097  8571 net.cpp:156] Memory required for data: 283034800
I0412 17:09:35.150151  8571 layer_factory.hpp:77] Creating layer bn_conv3_1b
I0412 17:09:35.150182  8571 net.cpp:91] Creating Layer bn_conv3_1b
I0412 17:09:35.150230  8571 net.cpp:425] bn_conv3_1b <- conv3_1b
I0412 17:09:35.150256  8571 net.cpp:386] bn_conv3_1b -> conv3_1b (in-place)
I0412 17:09:35.150733  8571 net.cpp:141] Setting up bn_conv3_1b
I0412 17:09:35.150763  8571 net.cpp:148] Top shape: 100 32 16 16 (819200)
I0412 17:09:35.150769  8571 net.cpp:156] Memory required for data: 286311600
I0412 17:09:35.150786  8571 layer_factory.hpp:77] Creating layer scale_conv3_1b
I0412 17:09:35.150802  8571 net.cpp:91] Creating Layer scale_conv3_1b
I0412 17:09:35.150810  8571 net.cpp:425] scale_conv3_1b <- conv3_1b
I0412 17:09:35.150820  8571 net.cpp:386] scale_conv3_1b -> conv3_1b (in-place)
I0412 17:09:35.150900  8571 layer_factory.hpp:77] Creating layer scale_conv3_1b
I0412 17:09:35.151125  8571 net.cpp:141] Setting up scale_conv3_1b
I0412 17:09:35.151171  8571 net.cpp:148] Top shape: 100 32 16 16 (819200)
I0412 17:09:35.151180  8571 net.cpp:156] Memory required for data: 289588400
I0412 17:09:35.151196  8571 layer_factory.hpp:77] Creating layer conv3_1
I0412 17:09:35.151209  8571 net.cpp:91] Creating Layer conv3_1
I0412 17:09:35.151218  8571 net.cpp:425] conv3_1 <- conv3_1b
I0412 17:09:35.151228  8571 net.cpp:425] conv3_1 <- conv2_sub
I0412 17:09:35.151245  8571 net.cpp:399] conv3_1 -> conv3_1
I0412 17:09:35.151345  8571 net.cpp:141] Setting up conv3_1
I0412 17:09:35.151358  8571 net.cpp:148] Top shape: 100 32 16 16 (819200)
I0412 17:09:35.151365  8571 net.cpp:156] Memory required for data: 292865200
I0412 17:09:35.151371  8571 layer_factory.hpp:77] Creating layer conv3_1_relu
I0412 17:09:35.151381  8571 net.cpp:91] Creating Layer conv3_1_relu
I0412 17:09:35.151386  8571 net.cpp:425] conv3_1_relu <- conv3_1
I0412 17:09:35.151394  8571 net.cpp:386] conv3_1_relu -> conv3_1 (in-place)
I0412 17:09:35.151764  8571 net.cpp:141] Setting up conv3_1_relu
I0412 17:09:35.151794  8571 net.cpp:148] Top shape: 100 32 16 16 (819200)
I0412 17:09:35.151801  8571 net.cpp:156] Memory required for data: 296142000
I0412 17:09:35.151808  8571 layer_factory.hpp:77] Creating layer conv3_1_conv3_1_relu_0_split
I0412 17:09:35.151819  8571 net.cpp:91] Creating Layer conv3_1_conv3_1_relu_0_split
I0412 17:09:35.151825  8571 net.cpp:425] conv3_1_conv3_1_relu_0_split <- conv3_1
I0412 17:09:35.151836  8571 net.cpp:399] conv3_1_conv3_1_relu_0_split -> conv3_1_conv3_1_relu_0_split_0
I0412 17:09:35.151849  8571 net.cpp:399] conv3_1_conv3_1_relu_0_split -> conv3_1_conv3_1_relu_0_split_1
I0412 17:09:35.151931  8571 net.cpp:141] Setting up conv3_1_conv3_1_relu_0_split
I0412 17:09:35.151942  8571 net.cpp:148] Top shape: 100 32 16 16 (819200)
I0412 17:09:35.151949  8571 net.cpp:148] Top shape: 100 32 16 16 (819200)
I0412 17:09:35.151955  8571 net.cpp:156] Memory required for data: 302695600
I0412 17:09:35.151962  8571 layer_factory.hpp:77] Creating layer conv3_2a
I0412 17:09:35.151983  8571 net.cpp:91] Creating Layer conv3_2a
I0412 17:09:35.151989  8571 net.cpp:425] conv3_2a <- conv3_1_conv3_1_relu_0_split_0
I0412 17:09:35.152003  8571 net.cpp:399] conv3_2a -> conv3_2a
I0412 17:09:35.154188  8571 net.cpp:141] Setting up conv3_2a
I0412 17:09:35.154216  8571 net.cpp:148] Top shape: 100 32 16 16 (819200)
I0412 17:09:35.154222  8571 net.cpp:156] Memory required for data: 305972400
I0412 17:09:35.154234  8571 layer_factory.hpp:77] Creating layer bn_conv3_2a
I0412 17:09:35.154252  8571 net.cpp:91] Creating Layer bn_conv3_2a
I0412 17:09:35.154259  8571 net.cpp:425] bn_conv3_2a <- conv3_2a
I0412 17:09:35.154271  8571 net.cpp:386] bn_conv3_2a -> conv3_2a (in-place)
I0412 17:09:35.154583  8571 net.cpp:141] Setting up bn_conv3_2a
I0412 17:09:35.154597  8571 net.cpp:148] Top shape: 100 32 16 16 (819200)
I0412 17:09:35.154603  8571 net.cpp:156] Memory required for data: 309249200
I0412 17:09:35.154615  8571 layer_factory.hpp:77] Creating layer scale_conv3_2a
I0412 17:09:35.154629  8571 net.cpp:91] Creating Layer scale_conv3_2a
I0412 17:09:35.154636  8571 net.cpp:425] scale_conv3_2a <- conv3_2a
I0412 17:09:35.154644  8571 net.cpp:386] scale_conv3_2a -> conv3_2a (in-place)
I0412 17:09:35.154716  8571 layer_factory.hpp:77] Creating layer scale_conv3_2a
I0412 17:09:35.154904  8571 net.cpp:141] Setting up scale_conv3_2a
I0412 17:09:35.154917  8571 net.cpp:148] Top shape: 100 32 16 16 (819200)
I0412 17:09:35.154922  8571 net.cpp:156] Memory required for data: 312526000
I0412 17:09:35.154933  8571 layer_factory.hpp:77] Creating layer conv3_2a_relu
I0412 17:09:35.154944  8571 net.cpp:91] Creating Layer conv3_2a_relu
I0412 17:09:35.154952  8571 net.cpp:425] conv3_2a_relu <- conv3_2a
I0412 17:09:35.154959  8571 net.cpp:386] conv3_2a_relu -> conv3_2a (in-place)
I0412 17:09:35.155413  8571 net.cpp:141] Setting up conv3_2a_relu
I0412 17:09:35.155434  8571 net.cpp:148] Top shape: 100 32 16 16 (819200)
I0412 17:09:35.155441  8571 net.cpp:156] Memory required for data: 315802800
I0412 17:09:35.155447  8571 layer_factory.hpp:77] Creating layer conv3_2b
I0412 17:09:35.155468  8571 net.cpp:91] Creating Layer conv3_2b
I0412 17:09:35.155477  8571 net.cpp:425] conv3_2b <- conv3_2a
I0412 17:09:35.155488  8571 net.cpp:399] conv3_2b -> conv3_2b
I0412 17:09:35.157287  8571 net.cpp:141] Setting up conv3_2b
I0412 17:09:35.157312  8571 net.cpp:148] Top shape: 100 32 16 16 (819200)
I0412 17:09:35.157320  8571 net.cpp:156] Memory required for data: 319079600
I0412 17:09:35.157330  8571 layer_factory.hpp:77] Creating layer bn_conv3_2b
I0412 17:09:35.157346  8571 net.cpp:91] Creating Layer bn_conv3_2b
I0412 17:09:35.157353  8571 net.cpp:425] bn_conv3_2b <- conv3_2b
I0412 17:09:35.157363  8571 net.cpp:386] bn_conv3_2b -> conv3_2b (in-place)
I0412 17:09:35.157676  8571 net.cpp:141] Setting up bn_conv3_2b
I0412 17:09:35.157688  8571 net.cpp:148] Top shape: 100 32 16 16 (819200)
I0412 17:09:35.157694  8571 net.cpp:156] Memory required for data: 322356400
I0412 17:09:35.157712  8571 layer_factory.hpp:77] Creating layer scale_conv3_2b
I0412 17:09:35.157733  8571 net.cpp:91] Creating Layer scale_conv3_2b
I0412 17:09:35.157740  8571 net.cpp:425] scale_conv3_2b <- conv3_2b
I0412 17:09:35.157754  8571 net.cpp:386] scale_conv3_2b -> conv3_2b (in-place)
I0412 17:09:35.157821  8571 layer_factory.hpp:77] Creating layer scale_conv3_2b
I0412 17:09:35.158007  8571 net.cpp:141] Setting up scale_conv3_2b
I0412 17:09:35.158023  8571 net.cpp:148] Top shape: 100 32 16 16 (819200)
I0412 17:09:35.158030  8571 net.cpp:156] Memory required for data: 325633200
I0412 17:09:35.158041  8571 layer_factory.hpp:77] Creating layer conv3_2
I0412 17:09:35.158049  8571 net.cpp:91] Creating Layer conv3_2
I0412 17:09:35.158056  8571 net.cpp:425] conv3_2 <- conv3_2b
I0412 17:09:35.158063  8571 net.cpp:425] conv3_2 <- conv3_1_conv3_1_relu_0_split_1
I0412 17:09:35.158072  8571 net.cpp:399] conv3_2 -> conv3_2
I0412 17:09:35.158109  8571 net.cpp:141] Setting up conv3_2
I0412 17:09:35.158120  8571 net.cpp:148] Top shape: 100 32 16 16 (819200)
I0412 17:09:35.158126  8571 net.cpp:156] Memory required for data: 328910000
I0412 17:09:35.158133  8571 layer_factory.hpp:77] Creating layer conv3_2_relu
I0412 17:09:35.158140  8571 net.cpp:91] Creating Layer conv3_2_relu
I0412 17:09:35.158148  8571 net.cpp:425] conv3_2_relu <- conv3_2
I0412 17:09:35.158167  8571 net.cpp:386] conv3_2_relu -> conv3_2 (in-place)
I0412 17:09:35.162813  8571 net.cpp:141] Setting up conv3_2_relu
I0412 17:09:35.162835  8571 net.cpp:148] Top shape: 100 32 16 16 (819200)
I0412 17:09:35.162842  8571 net.cpp:156] Memory required for data: 332186800
I0412 17:09:35.162849  8571 layer_factory.hpp:77] Creating layer conv3_2_conv3_2_relu_0_split
I0412 17:09:35.162861  8571 net.cpp:91] Creating Layer conv3_2_conv3_2_relu_0_split
I0412 17:09:35.162868  8571 net.cpp:425] conv3_2_conv3_2_relu_0_split <- conv3_2
I0412 17:09:35.162878  8571 net.cpp:399] conv3_2_conv3_2_relu_0_split -> conv3_2_conv3_2_relu_0_split_0
I0412 17:09:35.162889  8571 net.cpp:399] conv3_2_conv3_2_relu_0_split -> conv3_2_conv3_2_relu_0_split_1
I0412 17:09:35.162969  8571 net.cpp:141] Setting up conv3_2_conv3_2_relu_0_split
I0412 17:09:35.162981  8571 net.cpp:148] Top shape: 100 32 16 16 (819200)
I0412 17:09:35.162989  8571 net.cpp:148] Top shape: 100 32 16 16 (819200)
I0412 17:09:35.162995  8571 net.cpp:156] Memory required for data: 338740400
I0412 17:09:35.163002  8571 layer_factory.hpp:77] Creating layer conv3_3a
I0412 17:09:35.163023  8571 net.cpp:91] Creating Layer conv3_3a
I0412 17:09:35.163030  8571 net.cpp:425] conv3_3a <- conv3_2_conv3_2_relu_0_split_0
I0412 17:09:35.163041  8571 net.cpp:399] conv3_3a -> conv3_3a
I0412 17:09:35.165053  8571 net.cpp:141] Setting up conv3_3a
I0412 17:09:35.165076  8571 net.cpp:148] Top shape: 100 32 16 16 (819200)
I0412 17:09:35.165084  8571 net.cpp:156] Memory required for data: 342017200
I0412 17:09:35.165096  8571 layer_factory.hpp:77] Creating layer bn_conv3_3a
I0412 17:09:35.165122  8571 net.cpp:91] Creating Layer bn_conv3_3a
I0412 17:09:35.165132  8571 net.cpp:425] bn_conv3_3a <- conv3_3a
I0412 17:09:35.165140  8571 net.cpp:386] bn_conv3_3a -> conv3_3a (in-place)
I0412 17:09:35.165472  8571 net.cpp:141] Setting up bn_conv3_3a
I0412 17:09:35.165483  8571 net.cpp:148] Top shape: 100 32 16 16 (819200)
I0412 17:09:35.165488  8571 net.cpp:156] Memory required for data: 345294000
I0412 17:09:35.165499  8571 layer_factory.hpp:77] Creating layer scale_conv3_3a
I0412 17:09:35.165509  8571 net.cpp:91] Creating Layer scale_conv3_3a
I0412 17:09:35.165514  8571 net.cpp:425] scale_conv3_3a <- conv3_3a
I0412 17:09:35.165521  8571 net.cpp:386] scale_conv3_3a -> conv3_3a (in-place)
I0412 17:09:35.165587  8571 layer_factory.hpp:77] Creating layer scale_conv3_3a
I0412 17:09:35.165745  8571 net.cpp:141] Setting up scale_conv3_3a
I0412 17:09:35.165756  8571 net.cpp:148] Top shape: 100 32 16 16 (819200)
I0412 17:09:35.165761  8571 net.cpp:156] Memory required for data: 348570800
I0412 17:09:35.165771  8571 layer_factory.hpp:77] Creating layer conv3_3a_relu
I0412 17:09:35.165778  8571 net.cpp:91] Creating Layer conv3_3a_relu
I0412 17:09:35.165789  8571 net.cpp:425] conv3_3a_relu <- conv3_3a
I0412 17:09:35.165798  8571 net.cpp:386] conv3_3a_relu -> conv3_3a (in-place)
I0412 17:09:35.166014  8571 net.cpp:141] Setting up conv3_3a_relu
I0412 17:09:35.166028  8571 net.cpp:148] Top shape: 100 32 16 16 (819200)
I0412 17:09:35.166033  8571 net.cpp:156] Memory required for data: 351847600
I0412 17:09:35.166038  8571 layer_factory.hpp:77] Creating layer conv3_3b
I0412 17:09:35.166065  8571 net.cpp:91] Creating Layer conv3_3b
I0412 17:09:35.166071  8571 net.cpp:425] conv3_3b <- conv3_3a
I0412 17:09:35.166082  8571 net.cpp:399] conv3_3b -> conv3_3b
I0412 17:09:35.175353  8571 net.cpp:141] Setting up conv3_3b
I0412 17:09:35.175398  8571 net.cpp:148] Top shape: 100 32 16 16 (819200)
I0412 17:09:35.175405  8571 net.cpp:156] Memory required for data: 355124400
I0412 17:09:35.175420  8571 layer_factory.hpp:77] Creating layer bn_conv3_3b
I0412 17:09:35.175439  8571 net.cpp:91] Creating Layer bn_conv3_3b
I0412 17:09:35.175447  8571 net.cpp:425] bn_conv3_3b <- conv3_3b
I0412 17:09:35.175459  8571 net.cpp:386] bn_conv3_3b -> conv3_3b (in-place)
I0412 17:09:35.175736  8571 net.cpp:141] Setting up bn_conv3_3b
I0412 17:09:35.175747  8571 net.cpp:148] Top shape: 100 32 16 16 (819200)
I0412 17:09:35.175752  8571 net.cpp:156] Memory required for data: 358401200
I0412 17:09:35.175763  8571 layer_factory.hpp:77] Creating layer scale_conv3_3b
I0412 17:09:35.175775  8571 net.cpp:91] Creating Layer scale_conv3_3b
I0412 17:09:35.175779  8571 net.cpp:425] scale_conv3_3b <- conv3_3b
I0412 17:09:35.175786  8571 net.cpp:386] scale_conv3_3b -> conv3_3b (in-place)
I0412 17:09:35.175858  8571 layer_factory.hpp:77] Creating layer scale_conv3_3b
I0412 17:09:35.176023  8571 net.cpp:141] Setting up scale_conv3_3b
I0412 17:09:35.176034  8571 net.cpp:148] Top shape: 100 32 16 16 (819200)
I0412 17:09:35.176039  8571 net.cpp:156] Memory required for data: 361678000
I0412 17:09:35.176048  8571 layer_factory.hpp:77] Creating layer conv3_3
I0412 17:09:35.176057  8571 net.cpp:91] Creating Layer conv3_3
I0412 17:09:35.176065  8571 net.cpp:425] conv3_3 <- conv3_3b
I0412 17:09:35.176072  8571 net.cpp:425] conv3_3 <- conv3_2_conv3_2_relu_0_split_1
I0412 17:09:35.176080  8571 net.cpp:399] conv3_3 -> conv3_3
I0412 17:09:35.176112  8571 net.cpp:141] Setting up conv3_3
I0412 17:09:35.176121  8571 net.cpp:148] Top shape: 100 32 16 16 (819200)
I0412 17:09:35.176126  8571 net.cpp:156] Memory required for data: 364954800
I0412 17:09:35.176141  8571 layer_factory.hpp:77] Creating layer conv3_3_relu
I0412 17:09:35.176153  8571 net.cpp:91] Creating Layer conv3_3_relu
I0412 17:09:35.176158  8571 net.cpp:425] conv3_3_relu <- conv3_3
I0412 17:09:35.176165  8571 net.cpp:386] conv3_3_relu -> conv3_3 (in-place)
I0412 17:09:35.176589  8571 net.cpp:141] Setting up conv3_3_relu
I0412 17:09:35.176607  8571 net.cpp:148] Top shape: 100 32 16 16 (819200)
I0412 17:09:35.176612  8571 net.cpp:156] Memory required for data: 368231600
I0412 17:09:35.176619  8571 layer_factory.hpp:77] Creating layer conv3_3_conv3_3_relu_0_split
I0412 17:09:35.176630  8571 net.cpp:91] Creating Layer conv3_3_conv3_3_relu_0_split
I0412 17:09:35.176635  8571 net.cpp:425] conv3_3_conv3_3_relu_0_split <- conv3_3
I0412 17:09:35.176643  8571 net.cpp:399] conv3_3_conv3_3_relu_0_split -> conv3_3_conv3_3_relu_0_split_0
I0412 17:09:35.176656  8571 net.cpp:399] conv3_3_conv3_3_relu_0_split -> conv3_3_conv3_3_relu_0_split_1
I0412 17:09:35.176717  8571 net.cpp:141] Setting up conv3_3_conv3_3_relu_0_split
I0412 17:09:35.176726  8571 net.cpp:148] Top shape: 100 32 16 16 (819200)
I0412 17:09:35.176733  8571 net.cpp:148] Top shape: 100 32 16 16 (819200)
I0412 17:09:35.176738  8571 net.cpp:156] Memory required for data: 374785200
I0412 17:09:35.176743  8571 layer_factory.hpp:77] Creating layer conv3_sub
I0412 17:09:35.176759  8571 net.cpp:91] Creating Layer conv3_sub
I0412 17:09:35.176765  8571 net.cpp:425] conv3_sub <- conv3_3_conv3_3_relu_0_split_0
I0412 17:09:35.176776  8571 net.cpp:399] conv3_sub -> conv3_sub
I0412 17:09:35.178058  8571 net.cpp:141] Setting up conv3_sub
I0412 17:09:35.178092  8571 net.cpp:148] Top shape: 100 64 8 8 (409600)
I0412 17:09:35.178098  8571 net.cpp:156] Memory required for data: 376423600
I0412 17:09:35.178108  8571 layer_factory.hpp:77] Creating layer bn_conv3_sub
I0412 17:09:35.178118  8571 net.cpp:91] Creating Layer bn_conv3_sub
I0412 17:09:35.178124  8571 net.cpp:425] bn_conv3_sub <- conv3_sub
I0412 17:09:35.178135  8571 net.cpp:386] bn_conv3_sub -> conv3_sub (in-place)
I0412 17:09:35.178406  8571 net.cpp:141] Setting up bn_conv3_sub
I0412 17:09:35.178417  8571 net.cpp:148] Top shape: 100 64 8 8 (409600)
I0412 17:09:35.178422  8571 net.cpp:156] Memory required for data: 378062000
I0412 17:09:35.178432  8571 layer_factory.hpp:77] Creating layer scale_conv3_sub
I0412 17:09:35.178442  8571 net.cpp:91] Creating Layer scale_conv3_sub
I0412 17:09:35.178448  8571 net.cpp:425] scale_conv3_sub <- conv3_sub
I0412 17:09:35.178457  8571 net.cpp:386] scale_conv3_sub -> conv3_sub (in-place)
I0412 17:09:35.178515  8571 layer_factory.hpp:77] Creating layer scale_conv3_sub
I0412 17:09:35.178685  8571 net.cpp:141] Setting up scale_conv3_sub
I0412 17:09:35.178696  8571 net.cpp:148] Top shape: 100 64 8 8 (409600)
I0412 17:09:35.178701  8571 net.cpp:156] Memory required for data: 379700400
I0412 17:09:35.178709  8571 layer_factory.hpp:77] Creating layer conv4_1a
I0412 17:09:35.178725  8571 net.cpp:91] Creating Layer conv4_1a
I0412 17:09:35.178730  8571 net.cpp:425] conv4_1a <- conv3_3_conv3_3_relu_0_split_1
I0412 17:09:35.178741  8571 net.cpp:399] conv4_1a -> conv4_1a
I0412 17:09:35.180250  8571 net.cpp:141] Setting up conv4_1a
I0412 17:09:35.180272  8571 net.cpp:148] Top shape: 100 64 8 8 (409600)
I0412 17:09:35.180279  8571 net.cpp:156] Memory required for data: 381338800
I0412 17:09:35.180289  8571 layer_factory.hpp:77] Creating layer bn_conv4_1a
I0412 17:09:35.180299  8571 net.cpp:91] Creating Layer bn_conv4_1a
I0412 17:09:35.180305  8571 net.cpp:425] bn_conv4_1a <- conv4_1a
I0412 17:09:35.180316  8571 net.cpp:386] bn_conv4_1a -> conv4_1a (in-place)
I0412 17:09:35.180589  8571 net.cpp:141] Setting up bn_conv4_1a
I0412 17:09:35.180600  8571 net.cpp:148] Top shape: 100 64 8 8 (409600)
I0412 17:09:35.180605  8571 net.cpp:156] Memory required for data: 382977200
I0412 17:09:35.180616  8571 layer_factory.hpp:77] Creating layer scale_conv4_1a
I0412 17:09:35.180626  8571 net.cpp:91] Creating Layer scale_conv4_1a
I0412 17:09:35.180631  8571 net.cpp:425] scale_conv4_1a <- conv4_1a
I0412 17:09:35.180640  8571 net.cpp:386] scale_conv4_1a -> conv4_1a (in-place)
I0412 17:09:35.180698  8571 layer_factory.hpp:77] Creating layer scale_conv4_1a
I0412 17:09:35.180856  8571 net.cpp:141] Setting up scale_conv4_1a
I0412 17:09:35.180867  8571 net.cpp:148] Top shape: 100 64 8 8 (409600)
I0412 17:09:35.180872  8571 net.cpp:156] Memory required for data: 384615600
I0412 17:09:35.180881  8571 layer_factory.hpp:77] Creating layer conv4_1a_relu
I0412 17:09:35.180889  8571 net.cpp:91] Creating Layer conv4_1a_relu
I0412 17:09:35.180896  8571 net.cpp:425] conv4_1a_relu <- conv4_1a
I0412 17:09:35.180903  8571 net.cpp:386] conv4_1a_relu -> conv4_1a (in-place)
I0412 17:09:35.181288  8571 net.cpp:141] Setting up conv4_1a_relu
I0412 17:09:35.181308  8571 net.cpp:148] Top shape: 100 64 8 8 (409600)
I0412 17:09:35.181313  8571 net.cpp:156] Memory required for data: 386254000
I0412 17:09:35.181318  8571 layer_factory.hpp:77] Creating layer conv4_1b
I0412 17:09:35.181335  8571 net.cpp:91] Creating Layer conv4_1b
I0412 17:09:35.181342  8571 net.cpp:425] conv4_1b <- conv4_1a
I0412 17:09:35.181351  8571 net.cpp:399] conv4_1b -> conv4_1b
I0412 17:09:35.185083  8571 net.cpp:141] Setting up conv4_1b
I0412 17:09:35.185133  8571 net.cpp:148] Top shape: 100 64 8 8 (409600)
I0412 17:09:35.185140  8571 net.cpp:156] Memory required for data: 387892400
I0412 17:09:35.185149  8571 layer_factory.hpp:77] Creating layer bn_conv4_1b
I0412 17:09:35.185165  8571 net.cpp:91] Creating Layer bn_conv4_1b
I0412 17:09:35.185175  8571 net.cpp:425] bn_conv4_1b <- conv4_1b
I0412 17:09:35.185195  8571 net.cpp:386] bn_conv4_1b -> conv4_1b (in-place)
I0412 17:09:35.185750  8571 net.cpp:141] Setting up bn_conv4_1b
I0412 17:09:35.185791  8571 net.cpp:148] Top shape: 100 64 8 8 (409600)
I0412 17:09:35.185798  8571 net.cpp:156] Memory required for data: 389530800
I0412 17:09:35.185828  8571 layer_factory.hpp:77] Creating layer scale_conv4_1b
I0412 17:09:35.185879  8571 net.cpp:91] Creating Layer scale_conv4_1b
I0412 17:09:35.185885  8571 net.cpp:425] scale_conv4_1b <- conv4_1b
I0412 17:09:35.185892  8571 net.cpp:386] scale_conv4_1b -> conv4_1b (in-place)
I0412 17:09:35.186056  8571 layer_factory.hpp:77] Creating layer scale_conv4_1b
I0412 17:09:35.186434  8571 net.cpp:141] Setting up scale_conv4_1b
I0412 17:09:35.186470  8571 net.cpp:148] Top shape: 100 64 8 8 (409600)
I0412 17:09:35.186477  8571 net.cpp:156] Memory required for data: 391169200
I0412 17:09:35.186496  8571 layer_factory.hpp:77] Creating layer conv4_1
I0412 17:09:35.186523  8571 net.cpp:91] Creating Layer conv4_1
I0412 17:09:35.186537  8571 net.cpp:425] conv4_1 <- conv3_sub
I0412 17:09:35.186547  8571 net.cpp:425] conv4_1 <- conv4_1b
I0412 17:09:35.186560  8571 net.cpp:399] conv4_1 -> conv4_1
I0412 17:09:35.186641  8571 net.cpp:141] Setting up conv4_1
I0412 17:09:35.186651  8571 net.cpp:148] Top shape: 100 64 8 8 (409600)
I0412 17:09:35.186656  8571 net.cpp:156] Memory required for data: 392807600
I0412 17:09:35.186664  8571 layer_factory.hpp:77] Creating layer conv4_1_relu
I0412 17:09:35.186691  8571 net.cpp:91] Creating Layer conv4_1_relu
I0412 17:09:35.186705  8571 net.cpp:425] conv4_1_relu <- conv4_1
I0412 17:09:35.186714  8571 net.cpp:386] conv4_1_relu -> conv4_1 (in-place)
I0412 17:09:35.187765  8571 net.cpp:141] Setting up conv4_1_relu
I0412 17:09:35.187808  8571 net.cpp:148] Top shape: 100 64 8 8 (409600)
I0412 17:09:35.187819  8571 net.cpp:156] Memory required for data: 394446000
I0412 17:09:35.187826  8571 layer_factory.hpp:77] Creating layer conv4_1_conv4_1_relu_0_split
I0412 17:09:35.187855  8571 net.cpp:91] Creating Layer conv4_1_conv4_1_relu_0_split
I0412 17:09:35.187870  8571 net.cpp:425] conv4_1_conv4_1_relu_0_split <- conv4_1
I0412 17:09:35.187891  8571 net.cpp:399] conv4_1_conv4_1_relu_0_split -> conv4_1_conv4_1_relu_0_split_0
I0412 17:09:35.187911  8571 net.cpp:399] conv4_1_conv4_1_relu_0_split -> conv4_1_conv4_1_relu_0_split_1
I0412 17:09:35.188097  8571 net.cpp:141] Setting up conv4_1_conv4_1_relu_0_split
I0412 17:09:35.188122  8571 net.cpp:148] Top shape: 100 64 8 8 (409600)
I0412 17:09:35.188128  8571 net.cpp:148] Top shape: 100 64 8 8 (409600)
I0412 17:09:35.188133  8571 net.cpp:156] Memory required for data: 397722800
I0412 17:09:35.188138  8571 layer_factory.hpp:77] Creating layer conv4_2a
I0412 17:09:35.188158  8571 net.cpp:91] Creating Layer conv4_2a
I0412 17:09:35.188169  8571 net.cpp:425] conv4_2a <- conv4_1_conv4_1_relu_0_split_0
I0412 17:09:35.188194  8571 net.cpp:399] conv4_2a -> conv4_2a
I0412 17:09:35.192972  8571 net.cpp:141] Setting up conv4_2a
I0412 17:09:35.193032  8571 net.cpp:148] Top shape: 100 64 8 8 (409600)
I0412 17:09:35.193048  8571 net.cpp:156] Memory required for data: 399361200
I0412 17:09:35.193069  8571 layer_factory.hpp:77] Creating layer bn_conv4_2a
I0412 17:09:35.193094  8571 net.cpp:91] Creating Layer bn_conv4_2a
I0412 17:09:35.193100  8571 net.cpp:425] bn_conv4_2a <- conv4_2a
I0412 17:09:35.193109  8571 net.cpp:386] bn_conv4_2a -> conv4_2a (in-place)
I0412 17:09:35.193621  8571 net.cpp:141] Setting up bn_conv4_2a
I0412 17:09:35.193663  8571 net.cpp:148] Top shape: 100 64 8 8 (409600)
I0412 17:09:35.193672  8571 net.cpp:156] Memory required for data: 400999600
I0412 17:09:35.193697  8571 layer_factory.hpp:77] Creating layer scale_conv4_2a
I0412 17:09:35.193728  8571 net.cpp:91] Creating Layer scale_conv4_2a
I0412 17:09:35.193740  8571 net.cpp:425] scale_conv4_2a <- conv4_2a
I0412 17:09:35.193752  8571 net.cpp:386] scale_conv4_2a -> conv4_2a (in-place)
I0412 17:09:35.193876  8571 layer_factory.hpp:77] Creating layer scale_conv4_2a
I0412 17:09:35.194236  8571 net.cpp:141] Setting up scale_conv4_2a
I0412 17:09:35.194247  8571 net.cpp:148] Top shape: 100 64 8 8 (409600)
I0412 17:09:35.194273  8571 net.cpp:156] Memory required for data: 402638000
I0412 17:09:35.194298  8571 layer_factory.hpp:77] Creating layer conv4_2a_relu
I0412 17:09:35.194326  8571 net.cpp:91] Creating Layer conv4_2a_relu
I0412 17:09:35.194365  8571 net.cpp:425] conv4_2a_relu <- conv4_2a
I0412 17:09:35.194375  8571 net.cpp:386] conv4_2a_relu -> conv4_2a (in-place)
I0412 17:09:35.194818  8571 net.cpp:141] Setting up conv4_2a_relu
I0412 17:09:35.194861  8571 net.cpp:148] Top shape: 100 64 8 8 (409600)
I0412 17:09:35.194871  8571 net.cpp:156] Memory required for data: 404276400
I0412 17:09:35.194876  8571 layer_factory.hpp:77] Creating layer conv4_2b
I0412 17:09:35.194919  8571 net.cpp:91] Creating Layer conv4_2b
I0412 17:09:35.194941  8571 net.cpp:425] conv4_2b <- conv4_2a
I0412 17:09:35.194964  8571 net.cpp:399] conv4_2b -> conv4_2b
I0412 17:09:35.200822  8571 net.cpp:141] Setting up conv4_2b
I0412 17:09:35.200844  8571 net.cpp:148] Top shape: 100 64 8 8 (409600)
I0412 17:09:35.200850  8571 net.cpp:156] Memory required for data: 405914800
I0412 17:09:35.200860  8571 layer_factory.hpp:77] Creating layer bn_conv4_2b
I0412 17:09:35.200871  8571 net.cpp:91] Creating Layer bn_conv4_2b
I0412 17:09:35.200878  8571 net.cpp:425] bn_conv4_2b <- conv4_2b
I0412 17:09:35.200886  8571 net.cpp:386] bn_conv4_2b -> conv4_2b (in-place)
I0412 17:09:35.201167  8571 net.cpp:141] Setting up bn_conv4_2b
I0412 17:09:35.201180  8571 net.cpp:148] Top shape: 100 64 8 8 (409600)
I0412 17:09:35.201185  8571 net.cpp:156] Memory required for data: 407553200
I0412 17:09:35.201220  8571 layer_factory.hpp:77] Creating layer scale_conv4_2b
I0412 17:09:35.201233  8571 net.cpp:91] Creating Layer scale_conv4_2b
I0412 17:09:35.201239  8571 net.cpp:425] scale_conv4_2b <- conv4_2b
I0412 17:09:35.201248  8571 net.cpp:386] scale_conv4_2b -> conv4_2b (in-place)
I0412 17:09:35.201310  8571 layer_factory.hpp:77] Creating layer scale_conv4_2b
I0412 17:09:35.201469  8571 net.cpp:141] Setting up scale_conv4_2b
I0412 17:09:35.201480  8571 net.cpp:148] Top shape: 100 64 8 8 (409600)
I0412 17:09:35.201485  8571 net.cpp:156] Memory required for data: 409191600
I0412 17:09:35.201493  8571 layer_factory.hpp:77] Creating layer conv4_2
I0412 17:09:35.201501  8571 net.cpp:91] Creating Layer conv4_2
I0412 17:09:35.201508  8571 net.cpp:425] conv4_2 <- conv4_1_conv4_1_relu_0_split_1
I0412 17:09:35.201514  8571 net.cpp:425] conv4_2 <- conv4_2b
I0412 17:09:35.201524  8571 net.cpp:399] conv4_2 -> conv4_2
I0412 17:09:35.201558  8571 net.cpp:141] Setting up conv4_2
I0412 17:09:35.201570  8571 net.cpp:148] Top shape: 100 64 8 8 (409600)
I0412 17:09:35.201575  8571 net.cpp:156] Memory required for data: 410830000
I0412 17:09:35.201581  8571 layer_factory.hpp:77] Creating layer conv4_2_relu
I0412 17:09:35.201588  8571 net.cpp:91] Creating Layer conv4_2_relu
I0412 17:09:35.201593  8571 net.cpp:425] conv4_2_relu <- conv4_2
I0412 17:09:35.201601  8571 net.cpp:386] conv4_2_relu -> conv4_2 (in-place)
I0412 17:09:35.201967  8571 net.cpp:141] Setting up conv4_2_relu
I0412 17:09:35.201984  8571 net.cpp:148] Top shape: 100 64 8 8 (409600)
I0412 17:09:35.201990  8571 net.cpp:156] Memory required for data: 412468400
I0412 17:09:35.201995  8571 layer_factory.hpp:77] Creating layer conv4_2_conv4_2_relu_0_split
I0412 17:09:35.202003  8571 net.cpp:91] Creating Layer conv4_2_conv4_2_relu_0_split
I0412 17:09:35.202009  8571 net.cpp:425] conv4_2_conv4_2_relu_0_split <- conv4_2
I0412 17:09:35.202018  8571 net.cpp:399] conv4_2_conv4_2_relu_0_split -> conv4_2_conv4_2_relu_0_split_0
I0412 17:09:35.202033  8571 net.cpp:399] conv4_2_conv4_2_relu_0_split -> conv4_2_conv4_2_relu_0_split_1
I0412 17:09:35.202095  8571 net.cpp:141] Setting up conv4_2_conv4_2_relu_0_split
I0412 17:09:35.202105  8571 net.cpp:148] Top shape: 100 64 8 8 (409600)
I0412 17:09:35.202111  8571 net.cpp:148] Top shape: 100 64 8 8 (409600)
I0412 17:09:35.202116  8571 net.cpp:156] Memory required for data: 415745200
I0412 17:09:35.202121  8571 layer_factory.hpp:77] Creating layer conv4_3a
I0412 17:09:35.202137  8571 net.cpp:91] Creating Layer conv4_3a
I0412 17:09:35.202148  8571 net.cpp:425] conv4_3a <- conv4_2_conv4_2_relu_0_split_0
I0412 17:09:35.202157  8571 net.cpp:399] conv4_3a -> conv4_3a
I0412 17:09:35.204639  8571 net.cpp:141] Setting up conv4_3a
I0412 17:09:35.204658  8571 net.cpp:148] Top shape: 100 64 8 8 (409600)
I0412 17:09:35.204663  8571 net.cpp:156] Memory required for data: 417383600
I0412 17:09:35.204673  8571 layer_factory.hpp:77] Creating layer bn_conv4_3a
I0412 17:09:35.204685  8571 net.cpp:91] Creating Layer bn_conv4_3a
I0412 17:09:35.204691  8571 net.cpp:425] bn_conv4_3a <- conv4_3a
I0412 17:09:35.204701  8571 net.cpp:386] bn_conv4_3a -> conv4_3a (in-place)
I0412 17:09:35.204970  8571 net.cpp:141] Setting up bn_conv4_3a
I0412 17:09:35.204980  8571 net.cpp:148] Top shape: 100 64 8 8 (409600)
I0412 17:09:35.204985  8571 net.cpp:156] Memory required for data: 419022000
I0412 17:09:35.204994  8571 layer_factory.hpp:77] Creating layer scale_conv4_3a
I0412 17:09:35.205005  8571 net.cpp:91] Creating Layer scale_conv4_3a
I0412 17:09:35.205011  8571 net.cpp:425] scale_conv4_3a <- conv4_3a
I0412 17:09:35.205018  8571 net.cpp:386] scale_conv4_3a -> conv4_3a (in-place)
I0412 17:09:35.205078  8571 layer_factory.hpp:77] Creating layer scale_conv4_3a
I0412 17:09:35.205250  8571 net.cpp:141] Setting up scale_conv4_3a
I0412 17:09:35.205262  8571 net.cpp:148] Top shape: 100 64 8 8 (409600)
I0412 17:09:35.205267  8571 net.cpp:156] Memory required for data: 420660400
I0412 17:09:35.205276  8571 layer_factory.hpp:77] Creating layer conv4_3a_relu
I0412 17:09:35.205284  8571 net.cpp:91] Creating Layer conv4_3a_relu
I0412 17:09:35.205289  8571 net.cpp:425] conv4_3a_relu <- conv4_3a
I0412 17:09:35.205298  8571 net.cpp:386] conv4_3a_relu -> conv4_3a (in-place)
I0412 17:09:35.205642  8571 net.cpp:141] Setting up conv4_3a_relu
I0412 17:09:35.205659  8571 net.cpp:148] Top shape: 100 64 8 8 (409600)
I0412 17:09:35.205664  8571 net.cpp:156] Memory required for data: 422298800
I0412 17:09:35.205670  8571 layer_factory.hpp:77] Creating layer conv4_3b
I0412 17:09:35.205687  8571 net.cpp:91] Creating Layer conv4_3b
I0412 17:09:35.205694  8571 net.cpp:425] conv4_3b <- conv4_3a
I0412 17:09:35.205704  8571 net.cpp:399] conv4_3b -> conv4_3b
I0412 17:09:35.208284  8571 net.cpp:141] Setting up conv4_3b
I0412 17:09:35.208302  8571 net.cpp:148] Top shape: 100 64 8 8 (409600)
I0412 17:09:35.208308  8571 net.cpp:156] Memory required for data: 423937200
I0412 17:09:35.208317  8571 layer_factory.hpp:77] Creating layer bn_conv4_3b
I0412 17:09:35.208329  8571 net.cpp:91] Creating Layer bn_conv4_3b
I0412 17:09:35.208336  8571 net.cpp:425] bn_conv4_3b <- conv4_3b
I0412 17:09:35.208343  8571 net.cpp:386] bn_conv4_3b -> conv4_3b (in-place)
I0412 17:09:35.208616  8571 net.cpp:141] Setting up bn_conv4_3b
I0412 17:09:35.208627  8571 net.cpp:148] Top shape: 100 64 8 8 (409600)
I0412 17:09:35.208632  8571 net.cpp:156] Memory required for data: 425575600
I0412 17:09:35.208642  8571 layer_factory.hpp:77] Creating layer scale_conv4_3b
I0412 17:09:35.208657  8571 net.cpp:91] Creating Layer scale_conv4_3b
I0412 17:09:35.208662  8571 net.cpp:425] scale_conv4_3b <- conv4_3b
I0412 17:09:35.208669  8571 net.cpp:386] scale_conv4_3b -> conv4_3b (in-place)
I0412 17:09:35.208730  8571 layer_factory.hpp:77] Creating layer scale_conv4_3b
I0412 17:09:35.208896  8571 net.cpp:141] Setting up scale_conv4_3b
I0412 17:09:35.208907  8571 net.cpp:148] Top shape: 100 64 8 8 (409600)
I0412 17:09:35.208912  8571 net.cpp:156] Memory required for data: 427214000
I0412 17:09:35.208920  8571 layer_factory.hpp:77] Creating layer conv4_3
I0412 17:09:35.208930  8571 net.cpp:91] Creating Layer conv4_3
I0412 17:09:35.208936  8571 net.cpp:425] conv4_3 <- conv4_2_conv4_2_relu_0_split_1
I0412 17:09:35.208942  8571 net.cpp:425] conv4_3 <- conv4_3b
I0412 17:09:35.208950  8571 net.cpp:399] conv4_3 -> conv4_3
I0412 17:09:35.208989  8571 net.cpp:141] Setting up conv4_3
I0412 17:09:35.208998  8571 net.cpp:148] Top shape: 100 64 8 8 (409600)
I0412 17:09:35.209003  8571 net.cpp:156] Memory required for data: 428852400
I0412 17:09:35.209013  8571 layer_factory.hpp:77] Creating layer conv4_3_relu
I0412 17:09:35.209022  8571 net.cpp:91] Creating Layer conv4_3_relu
I0412 17:09:35.209027  8571 net.cpp:425] conv4_3_relu <- conv4_3
I0412 17:09:35.209035  8571 net.cpp:386] conv4_3_relu -> conv4_3 (in-place)
I0412 17:09:35.209254  8571 net.cpp:141] Setting up conv4_3_relu
I0412 17:09:35.209270  8571 net.cpp:148] Top shape: 100 64 8 8 (409600)
I0412 17:09:35.209276  8571 net.cpp:156] Memory required for data: 430490800
I0412 17:09:35.209281  8571 layer_factory.hpp:77] Creating layer global_pool
I0412 17:09:35.209291  8571 net.cpp:91] Creating Layer global_pool
I0412 17:09:35.209296  8571 net.cpp:425] global_pool <- conv4_3
I0412 17:09:35.209305  8571 net.cpp:399] global_pool -> global_pool
I0412 17:09:35.209689  8571 net.cpp:141] Setting up global_pool
I0412 17:09:35.209707  8571 net.cpp:148] Top shape: 100 64 1 1 (6400)
I0412 17:09:35.209712  8571 net.cpp:156] Memory required for data: 430516400
I0412 17:09:35.209717  8571 layer_factory.hpp:77] Creating layer ip
I0412 17:09:35.209728  8571 net.cpp:91] Creating Layer ip
I0412 17:09:35.209733  8571 net.cpp:425] ip <- global_pool
I0412 17:09:35.209743  8571 net.cpp:399] ip -> ip
I0412 17:09:35.209911  8571 net.cpp:141] Setting up ip
I0412 17:09:35.209923  8571 net.cpp:148] Top shape: 100 10 (1000)
I0412 17:09:35.209928  8571 net.cpp:156] Memory required for data: 430520400
I0412 17:09:35.209938  8571 layer_factory.hpp:77] Creating layer ip_ip_0_split
I0412 17:09:35.209945  8571 net.cpp:91] Creating Layer ip_ip_0_split
I0412 17:09:35.209951  8571 net.cpp:425] ip_ip_0_split <- ip
I0412 17:09:35.209959  8571 net.cpp:399] ip_ip_0_split -> ip_ip_0_split_0
I0412 17:09:35.209966  8571 net.cpp:399] ip_ip_0_split -> ip_ip_0_split_1
I0412 17:09:35.210024  8571 net.cpp:141] Setting up ip_ip_0_split
I0412 17:09:35.210033  8571 net.cpp:148] Top shape: 100 10 (1000)
I0412 17:09:35.210039  8571 net.cpp:148] Top shape: 100 10 (1000)
I0412 17:09:35.210044  8571 net.cpp:156] Memory required for data: 430528400
I0412 17:09:35.210049  8571 layer_factory.hpp:77] Creating layer accuracy
I0412 17:09:35.210057  8571 net.cpp:91] Creating Layer accuracy
I0412 17:09:35.210062  8571 net.cpp:425] accuracy <- ip_ip_0_split_0
I0412 17:09:35.210068  8571 net.cpp:425] accuracy <- label_cifar_1_split_0
I0412 17:09:35.210078  8571 net.cpp:399] accuracy -> accuracy
…
