…
I0413 19:11:54.312227 24448 solver.cpp:91] Creating training net from net file: prototxt/DyResNet/ResNet-cifar0.prototxt
I0413 19:11:54.312621 24448 net.cpp:313] The NetState phase (0) differed from the phase (1) specified by a rule in layer cifar
I0413 19:11:54.312722 24448 net.cpp:49] Initializing net from parameters: 
name: "ResNet-cifar"
state {
  phase: TRAIN
}
layer {
  name: "cifar"
  type: "Data"
  top: "data"
  top: "label"
  include {
    phase: TRAIN
  }
  transform_param {
    mirror: true
    mean_file: "data/cifar10/mean.binaryproto"
  }
  data_param {
    source: "data/cifar10/cifar10_train_lmdb"
    batch_size: 256
    backend: LMDB
  }
}
layer {
  name: "conv1"
  type: "Convolution"
  bottom: "data"
  top: "conv1"
  param {
    lr_mult: 1
  }
  param {
    lr_mult: 2
  }
  convolution_param {
    num_output: 16
    pad: 1
    kernel_size: 3
    weight_filler {
      type: "msra"
    }
    bias_filler {
      type: "constant"
    }
  }
}
layer {
  name: "bn_conv1"
  type: "BatchNorm"
  bottom: "conv1"
  top: "conv1"
  param {
    lr_mult: 0
  }
  param {
    lr_mult: 0
  }
  param {
    lr_mult: 0
  }
}
layer {
  name: "scale_conv1"
  type: "Scale"
  bottom: "conv1"
  top: "conv1"
  scale_param {
    bias_term: true
  }
}
layer {
  name: "conv1_relu"
  type: "ReLU"
  bottom: "conv1"
  top: "conv1"
}
layer {
  name: "conv2_1a"
  type: "Convolution"
  bottom: "conv1"
  top: "conv2_1a"
  param {
    lr_mult: 1
  }
  param {
    lr_mult: 2
  }
  convolution_param {
    num_output: 16
    pad: 1
    kernel_size: 3
    stride: 1
    weight_filler {
      type: "msra"
    }
    bias_filler {
      type: "constant"
      value: 0
    }
  }
}
layer {
  name: "bn_conv2_1a"
  type: "BatchNorm"
  bottom: "conv2_1a"
  top: "conv2_1a"
  param {
    lr_mult: 0
  }
  param {
    lr_mult: 0
  }
  param {
    lr_mult: 0
  }
}
layer {
  name: "scale_conv2_1a"
  type: "Scale"
  bottom: "conv2_1a"
  top: "conv2_1a"
  scale_param {
    bias_term: true
  }
}
layer {
  name: "conv2_1a_relu"
  type: "ReLU"
  bottom: "conv2_1a"
  top: "conv2_1a"
}
layer {
  name: "conv2_1b"
  type: "Convolution"
  bottom: "conv2_1a"
  top: "conv2_1b"
  param {
    lr_mult: 1
  }
  param {
    lr_mult: 2
  }
  convolution_param {
    num_output: 16
    pad: 1
    kernel_size: 3
    stride: 1
    weight_filler {
      type: "msra"
    }
    bias_filler {
      type: "constant"
      value: 0
    }
  }
}
layer {
  name: "bn_conv2_1b"
  type: "BatchNorm"
  bottom: "conv2_1b"
  top: "conv2_1b"
  param {
    lr_mult: 0
  }
  param {
    lr_mult: 0
  }
  param {
    lr_mult: 0
  }
}
layer {
  name: "scale_conv2_1b"
  type: "Scale"
  bottom: "conv2_1b"
  top: "conv2_1b"
  scale_param {
    bias_term: true
  }
}
layer {
  name: "conv2_1"
  type: "Eltwise"
  bottom: "conv2_1b"
  bottom: "conv1"
  top: "conv2_1"
}
layer {
  name: "conv2_1_relu"
  type: "ReLU"
  bottom: "conv2_1"
  top: "conv2_1"
}
layer {
  name: "global_pool"
  type: "Pooling"
  bottom: "conv2_1"
  top: "global_pool"
  pooling_param {
    pool: AVE
    kernel_size: 8
    stride: 8
  }
}
layer {
  name: "ip"
  type: "InnerProduct"
  bottom: "global_pool"
  top: "ip"
  inner_product_param {
    num_output: 10
  }
}
layer {
  name: "accuracy"
  type: "Accuracy"
  bottom: "ip"
  bottom: "label"
  top: "accuracy"
}
layer {
  name: "loss"
  type: "SoftmaxWithLoss"
  bottom: "ip"
  bottom: "label"
  top: "loss"
}
I0413 19:11:54.312811 24448 layer_factory.hpp:77] Creating layer cifar
I0413 19:11:54.313606 24448 net.cpp:91] Creating Layer cifar
I0413 19:11:54.313621 24448 net.cpp:399] cifar -> data
I0413 19:11:54.313633 24448 net.cpp:399] cifar -> label
I0413 19:11:54.313658 24448 data_transformer.cpp:25] Loading mean file from: data/cifar10/mean.binaryproto
I0413 19:11:54.334764 24523 db_lmdb.cpp:38] Opened lmdb data/cifar10/cifar10_train_lmdb
I0413 19:11:54.366529 24448 data_layer.cpp:41] output data size: 256,3,32,32
I0413 19:11:54.390614 24448 net.cpp:141] Setting up cifar
I0413 19:11:54.390669 24448 net.cpp:148] Top shape: 256 3 32 32 (786432)
I0413 19:11:54.390679 24448 net.cpp:148] Top shape: 256 (256)
I0413 19:11:54.390686 24448 net.cpp:156] Memory required for data: 3146752
I0413 19:11:54.390698 24448 layer_factory.hpp:77] Creating layer label_cifar_1_split
I0413 19:11:54.390723 24448 net.cpp:91] Creating Layer label_cifar_1_split
I0413 19:11:54.390732 24448 net.cpp:425] label_cifar_1_split <- label
I0413 19:11:54.390746 24448 net.cpp:399] label_cifar_1_split -> label_cifar_1_split_0
I0413 19:11:54.390763 24448 net.cpp:399] label_cifar_1_split -> label_cifar_1_split_1
I0413 19:11:54.390862 24448 net.cpp:141] Setting up label_cifar_1_split
I0413 19:11:54.390877 24448 net.cpp:148] Top shape: 256 (256)
I0413 19:11:54.390885 24448 net.cpp:148] Top shape: 256 (256)
I0413 19:11:54.390892 24448 net.cpp:156] Memory required for data: 3148800
I0413 19:11:54.390898 24448 layer_factory.hpp:77] Creating layer conv1
I0413 19:11:54.390928 24448 net.cpp:91] Creating Layer conv1
I0413 19:11:54.390935 24448 net.cpp:425] conv1 <- data
I0413 19:11:54.390945 24448 net.cpp:399] conv1 -> conv1
I0413 19:11:54.649355 24448 net.cpp:141] Setting up conv1
I0413 19:11:54.649418 24448 net.cpp:148] Top shape: 256 16 32 32 (4194304)
I0413 19:11:54.649425 24448 net.cpp:156] Memory required for data: 19926016
I0413 19:11:54.649449 24448 layer_factory.hpp:77] Creating layer bn_conv1
I0413 19:11:54.649466 24448 net.cpp:91] Creating Layer bn_conv1
I0413 19:11:54.649473 24448 net.cpp:425] bn_conv1 <- conv1
I0413 19:11:54.649483 24448 net.cpp:386] bn_conv1 -> conv1 (in-place)
I0413 19:11:54.649689 24448 net.cpp:141] Setting up bn_conv1
I0413 19:11:54.649699 24448 net.cpp:148] Top shape: 256 16 32 32 (4194304)
I0413 19:11:54.649704 24448 net.cpp:156] Memory required for data: 36703232
I0413 19:11:54.649720 24448 layer_factory.hpp:77] Creating layer scale_conv1
I0413 19:11:54.649734 24448 net.cpp:91] Creating Layer scale_conv1
I0413 19:11:54.649739 24448 net.cpp:425] scale_conv1 <- conv1
I0413 19:11:54.649746 24448 net.cpp:386] scale_conv1 -> conv1 (in-place)
I0413 19:11:54.649791 24448 layer_factory.hpp:77] Creating layer scale_conv1
I0413 19:11:54.649919 24448 net.cpp:141] Setting up scale_conv1
I0413 19:11:54.649930 24448 net.cpp:148] Top shape: 256 16 32 32 (4194304)
I0413 19:11:54.649935 24448 net.cpp:156] Memory required for data: 53480448
I0413 19:11:54.649945 24448 layer_factory.hpp:77] Creating layer conv1_relu
I0413 19:11:54.649953 24448 net.cpp:91] Creating Layer conv1_relu
I0413 19:11:54.649960 24448 net.cpp:425] conv1_relu <- conv1
I0413 19:11:54.649966 24448 net.cpp:386] conv1_relu -> conv1 (in-place)
I0413 19:11:54.650441 24448 net.cpp:141] Setting up conv1_relu
I0413 19:11:54.650459 24448 net.cpp:148] Top shape: 256 16 32 32 (4194304)
I0413 19:11:54.650465 24448 net.cpp:156] Memory required for data: 70257664
I0413 19:11:54.650470 24448 layer_factory.hpp:77] Creating layer conv1_conv1_relu_0_split
I0413 19:11:54.650480 24448 net.cpp:91] Creating Layer conv1_conv1_relu_0_split
I0413 19:11:54.650485 24448 net.cpp:425] conv1_conv1_relu_0_split <- conv1
I0413 19:11:54.650492 24448 net.cpp:399] conv1_conv1_relu_0_split -> conv1_conv1_relu_0_split_0
I0413 19:11:54.650503 24448 net.cpp:399] conv1_conv1_relu_0_split -> conv1_conv1_relu_0_split_1
I0413 19:11:54.650547 24448 net.cpp:141] Setting up conv1_conv1_relu_0_split
I0413 19:11:54.650557 24448 net.cpp:148] Top shape: 256 16 32 32 (4194304)
I0413 19:11:54.650563 24448 net.cpp:148] Top shape: 256 16 32 32 (4194304)
I0413 19:11:54.650568 24448 net.cpp:156] Memory required for data: 103812096
I0413 19:11:54.650573 24448 layer_factory.hpp:77] Creating layer conv2_1a
I0413 19:11:54.650589 24448 net.cpp:91] Creating Layer conv2_1a
I0413 19:11:54.650595 24448 net.cpp:425] conv2_1a <- conv1_conv1_relu_0_split_0
I0413 19:11:54.650604 24448 net.cpp:399] conv2_1a -> conv2_1a
I0413 19:11:54.652056 24448 net.cpp:141] Setting up conv2_1a
I0413 19:11:54.652073 24448 net.cpp:148] Top shape: 256 16 32 32 (4194304)
I0413 19:11:54.652079 24448 net.cpp:156] Memory required for data: 120589312
I0413 19:11:54.652092 24448 layer_factory.hpp:77] Creating layer bn_conv2_1a
I0413 19:11:54.652104 24448 net.cpp:91] Creating Layer bn_conv2_1a
I0413 19:11:54.652110 24448 net.cpp:425] bn_conv2_1a <- conv2_1a
I0413 19:11:54.652118 24448 net.cpp:386] bn_conv2_1a -> conv2_1a (in-place)
I0413 19:11:54.652313 24448 net.cpp:141] Setting up bn_conv2_1a
I0413 19:11:54.652324 24448 net.cpp:148] Top shape: 256 16 32 32 (4194304)
I0413 19:11:54.652329 24448 net.cpp:156] Memory required for data: 137366528
I0413 19:11:54.652339 24448 layer_factory.hpp:77] Creating layer scale_conv2_1a
I0413 19:11:54.652348 24448 net.cpp:91] Creating Layer scale_conv2_1a
I0413 19:11:54.652354 24448 net.cpp:425] scale_conv2_1a <- conv2_1a
I0413 19:11:54.652361 24448 net.cpp:386] scale_conv2_1a -> conv2_1a (in-place)
I0413 19:11:54.652400 24448 layer_factory.hpp:77] Creating layer scale_conv2_1a
I0413 19:11:54.652513 24448 net.cpp:141] Setting up scale_conv2_1a
I0413 19:11:54.652521 24448 net.cpp:148] Top shape: 256 16 32 32 (4194304)
I0413 19:11:54.652528 24448 net.cpp:156] Memory required for data: 154143744
I0413 19:11:54.652535 24448 layer_factory.hpp:77] Creating layer conv2_1a_relu
I0413 19:11:54.652544 24448 net.cpp:91] Creating Layer conv2_1a_relu
I0413 19:11:54.652549 24448 net.cpp:425] conv2_1a_relu <- conv2_1a
I0413 19:11:54.652556 24448 net.cpp:386] conv2_1a_relu -> conv2_1a (in-place)
I0413 19:11:54.652984 24448 net.cpp:141] Setting up conv2_1a_relu
I0413 19:11:54.652999 24448 net.cpp:148] Top shape: 256 16 32 32 (4194304)
I0413 19:11:54.653005 24448 net.cpp:156] Memory required for data: 170920960
I0413 19:11:54.653012 24448 layer_factory.hpp:77] Creating layer conv2_1b
I0413 19:11:54.653025 24448 net.cpp:91] Creating Layer conv2_1b
I0413 19:11:54.653031 24448 net.cpp:425] conv2_1b <- conv2_1a
I0413 19:11:54.653039 24448 net.cpp:399] conv2_1b -> conv2_1b
I0413 19:11:54.656532 24448 net.cpp:141] Setting up conv2_1b
I0413 19:11:54.656550 24448 net.cpp:148] Top shape: 256 16 32 32 (4194304)
I0413 19:11:54.656556 24448 net.cpp:156] Memory required for data: 187698176
I0413 19:11:54.656565 24448 layer_factory.hpp:77] Creating layer bn_conv2_1b
I0413 19:11:54.656580 24448 net.cpp:91] Creating Layer bn_conv2_1b
I0413 19:11:54.656586 24448 net.cpp:425] bn_conv2_1b <- conv2_1b
I0413 19:11:54.656594 24448 net.cpp:386] bn_conv2_1b -> conv2_1b (in-place)
I0413 19:11:54.656782 24448 net.cpp:141] Setting up bn_conv2_1b
I0413 19:11:54.656792 24448 net.cpp:148] Top shape: 256 16 32 32 (4194304)
I0413 19:11:54.656797 24448 net.cpp:156] Memory required for data: 204475392
I0413 19:11:54.656811 24448 layer_factory.hpp:77] Creating layer scale_conv2_1b
I0413 19:11:54.656821 24448 net.cpp:91] Creating Layer scale_conv2_1b
I0413 19:11:54.656826 24448 net.cpp:425] scale_conv2_1b <- conv2_1b
I0413 19:11:54.656832 24448 net.cpp:386] scale_conv2_1b -> conv2_1b (in-place)
I0413 19:11:54.656870 24448 layer_factory.hpp:77] Creating layer scale_conv2_1b
I0413 19:11:54.656980 24448 net.cpp:141] Setting up scale_conv2_1b
I0413 19:11:54.656990 24448 net.cpp:148] Top shape: 256 16 32 32 (4194304)
I0413 19:11:54.656994 24448 net.cpp:156] Memory required for data: 221252608
I0413 19:11:54.657002 24448 layer_factory.hpp:77] Creating layer conv2_1
I0413 19:11:54.657021 24448 net.cpp:91] Creating Layer conv2_1
I0413 19:11:54.657027 24448 net.cpp:425] conv2_1 <- conv2_1b
I0413 19:11:54.657032 24448 net.cpp:425] conv2_1 <- conv1_conv1_relu_0_split_1
I0413 19:11:54.657040 24448 net.cpp:399] conv2_1 -> conv2_1
I0413 19:11:54.657068 24448 net.cpp:141] Setting up conv2_1
I0413 19:11:54.657076 24448 net.cpp:148] Top shape: 256 16 32 32 (4194304)
I0413 19:11:54.657081 24448 net.cpp:156] Memory required for data: 238029824
I0413 19:11:54.657086 24448 layer_factory.hpp:77] Creating layer conv2_1_relu
I0413 19:11:54.657094 24448 net.cpp:91] Creating Layer conv2_1_relu
I0413 19:11:54.657099 24448 net.cpp:425] conv2_1_relu <- conv2_1
I0413 19:11:54.657105 24448 net.cpp:386] conv2_1_relu -> conv2_1 (in-place)
I0413 19:11:54.657573 24448 net.cpp:141] Setting up conv2_1_relu
I0413 19:11:54.657587 24448 net.cpp:148] Top shape: 256 16 32 32 (4194304)
I0413 19:11:54.657591 24448 net.cpp:156] Memory required for data: 254807040
I0413 19:11:54.657598 24448 layer_factory.hpp:77] Creating layer global_pool
I0413 19:11:54.657609 24448 net.cpp:91] Creating Layer global_pool
I0413 19:11:54.657614 24448 net.cpp:425] global_pool <- conv2_1
I0413 19:11:54.657623 24448 net.cpp:399] global_pool -> global_pool
I0413 19:11:54.658754 24448 net.cpp:141] Setting up global_pool
I0413 19:11:54.658771 24448 net.cpp:148] Top shape: 256 16 4 4 (65536)
I0413 19:11:54.658777 24448 net.cpp:156] Memory required for data: 255069184
I0413 19:11:54.658782 24448 layer_factory.hpp:77] Creating layer ip
I0413 19:11:54.658800 24448 net.cpp:91] Creating Layer ip
I0413 19:11:54.658807 24448 net.cpp:425] ip <- global_pool
I0413 19:11:54.658813 24448 net.cpp:399] ip -> ip
I0413 19:11:54.658928 24448 net.cpp:141] Setting up ip
I0413 19:11:54.658938 24448 net.cpp:148] Top shape: 256 10 (2560)
I0413 19:11:54.658943 24448 net.cpp:156] Memory required for data: 255079424
I0413 19:11:54.658952 24448 layer_factory.hpp:77] Creating layer ip_ip_0_split
I0413 19:11:54.658962 24448 net.cpp:91] Creating Layer ip_ip_0_split
I0413 19:11:54.658967 24448 net.cpp:425] ip_ip_0_split <- ip
I0413 19:11:54.658973 24448 net.cpp:399] ip_ip_0_split -> ip_ip_0_split_0
I0413 19:11:54.658982 24448 net.cpp:399] ip_ip_0_split -> ip_ip_0_split_1
I0413 19:11:54.659015 24448 net.cpp:141] Setting up ip_ip_0_split
I0413 19:11:54.659024 24448 net.cpp:148] Top shape: 256 10 (2560)
I0413 19:11:54.659029 24448 net.cpp:148] Top shape: 256 10 (2560)
I0413 19:11:54.659034 24448 net.cpp:156] Memory required for data: 255099904
I0413 19:11:54.659039 24448 layer_factory.hpp:77] Creating layer accuracy
I0413 19:11:54.659052 24448 net.cpp:91] Creating Layer accuracy
I0413 19:11:54.659059 24448 net.cpp:425] accuracy <- ip_ip_0_split_0
I0413 19:11:54.659065 24448 net.cpp:425] accuracy <- label_cifar_1_split_0
I0413 19:11:54.659071 24448 net.cpp:399] accuracy -> accuracy
…
I0413 19:11:54.660691 24448 solver.cpp:181] Creating test net (#0) specified by net file: prototxt/DyResNet/ResNet-cifar0.prototxt
I0413 19:11:54.660735 24448 net.cpp:313] The NetState phase (1) differed from the phase (0) specified by a rule in layer cifar
I0413 19:11:54.660876 24448 net.cpp:49] Initializing net from parameters: 
name: "ResNet-cifar"
state {
  phase: TEST
}
layer {
  name: "cifar"
  type: "Data"
  top: "data"
  top: "label"
  include {
    phase: TEST
  }
  transform_param {
    mean_file: "data/cifar10/mean.binaryproto"
  }
  data_param {
    source: "data/cifar10/cifar10_test_lmdb"
    batch_size: 100
    backend: LMDB
  }
}
layer {
  name: "conv1"
  type: "Convolution"
  bottom: "data"
  top: "conv1"
  param {
    lr_mult: 1
  }
  param {
    lr_mult: 2
  }
  convolution_param {
    num_output: 16
    pad: 1
    kernel_size: 3
    weight_filler {
      type: "msra"
    }
    bias_filler {
      type: "constant"
    }
  }
}
layer {
  name: "bn_conv1"
  type: "BatchNorm"
  bottom: "conv1"
  top: "conv1"
  param {
    lr_mult: 0
  }
  param {
    lr_mult: 0
  }
  param {
    lr_mult: 0
  }
}
layer {
  name: "scale_conv1"
  type: "Scale"
  bottom: "conv1"
  top: "conv1"
  scale_param {
    bias_term: true
  }
}
layer {
  name: "conv1_relu"
  type: "ReLU"
  bottom: "conv1"
  top: "conv1"
}
layer {
  name: "conv2_1a"
  type: "Convolution"
  bottom: "conv1"
  top: "conv2_1a"
  param {
    lr_mult: 1
  }
  param {
    lr_mult: 2
  }
  convolution_param {
    num_output: 16
    pad: 1
    kernel_size: 3
    stride: 1
    weight_filler {
      type: "msra"
    }
    bias_filler {
      type: "constant"
      value: 0
    }
  }
}
layer {
  name: "bn_conv2_1a"
  type: "BatchNorm"
  bottom: "conv2_1a"
  top: "conv2_1a"
  param {
    lr_mult: 0
  }
  param {
    lr_mult: 0
  }
  param {
    lr_mult: 0
  }
}
layer {
  name: "scale_conv2_1a"
  type: "Scale"
  bottom: "conv2_1a"
  top: "conv2_1a"
  scale_param {
    bias_term: true
  }
}
layer {
  name: "conv2_1a_relu"
  type: "ReLU"
  bottom: "conv2_1a"
  top: "conv2_1a"
}
layer {
  name: "conv2_1b"
  type: "Convolution"
  bottom: "conv2_1a"
  top: "conv2_1b"
  param {
    lr_mult: 1
  }
  param {
    lr_mult: 2
  }
  convolution_param {
    num_output: 16
    pad: 1
    kernel_size: 3
    stride: 1
    weight_filler {
      type: "msra"
    }
    bias_filler {
      type: "constant"
      value: 0
    }
  }
}
layer {
  name: "bn_conv2_1b"
  type: "BatchNorm"
  bottom: "conv2_1b"
  top: "conv2_1b"
  param {
    lr_mult: 0
  }
  param {
    lr_mult: 0
  }
  param {
    lr_mult: 0
  }
}
layer {
  name: "scale_conv2_1b"
  type: "Scale"
  bottom: "conv2_1b"
  top: "conv2_1b"
  scale_param {
    bias_term: true
  }
}
layer {
  name: "conv2_1"
  type: "Eltwise"
  bottom: "conv2_1b"
  bottom: "conv1"
  top: "conv2_1"
}
layer {
  name: "conv2_1_relu"
  type: "ReLU"
  bottom: "conv2_1"
  top: "conv2_1"
}
layer {
  name: "global_pool"
  type: "Pooling"
  bottom: "conv2_1"
  top: "global_pool"
  pooling_param {
    pool: AVE
    kernel_size: 8
    stride: 8
  }
}
layer {
  name: "ip"
  type: "InnerProduct"
  bottom: "global_pool"
  top: "ip"
  inner_product_param {
    num_output: 10
  }
}
layer {
  name: "accuracy"
  type: "Accuracy"
  bottom: "ip"
  bottom: "label"
  top: "accuracy"
}
layer {
  name: "loss"
  type: "SoftmaxWithLoss"
  bottom: "ip"
  bottom: "label"
  top: "loss"
}
I0413 19:11:54.660994 24448 layer_factory.hpp:77] Creating layer cifar
I0413 19:11:54.661157 24448 net.cpp:91] Creating Layer cifar
I0413 19:11:54.661171 24448 net.cpp:399] cifar -> data
I0413 19:11:54.661204 24448 net.cpp:399] cifar -> label
I0413 19:11:54.661218 24448 data_transformer.cpp:25] Loading mean file from: data/cifar10/mean.binaryproto
I0413 19:11:54.675644 24532 db_lmdb.cpp:38] Opened lmdb data/cifar10/cifar10_test_lmdb
I0413 19:11:54.675789 24448 data_layer.cpp:41] output data size: 100,3,32,32
I0413 19:11:54.697813 24448 net.cpp:141] Setting up cifar
I0413 19:11:54.697886 24448 net.cpp:148] Top shape: 100 3 32 32 (307200)
I0413 19:11:54.697901 24448 net.cpp:148] Top shape: 100 (100)
I0413 19:11:54.697911 24448 net.cpp:156] Memory required for data: 1229200
I0413 19:11:54.697924 24448 layer_factory.hpp:77] Creating layer label_cifar_1_split
I0413 19:11:54.697948 24448 net.cpp:91] Creating Layer label_cifar_1_split
I0413 19:11:54.697960 24448 net.cpp:425] label_cifar_1_split <- label
I0413 19:11:54.697981 24448 net.cpp:399] label_cifar_1_split -> label_cifar_1_split_0
I0413 19:11:54.698004 24448 net.cpp:399] label_cifar_1_split -> label_cifar_1_split_1
I0413 19:11:54.698140 24448 net.cpp:141] Setting up label_cifar_1_split
I0413 19:11:54.698163 24448 net.cpp:148] Top shape: 100 (100)
I0413 19:11:54.698174 24448 net.cpp:148] Top shape: 100 (100)
I0413 19:11:54.698182 24448 net.cpp:156] Memory required for data: 1230000
I0413 19:11:54.698192 24448 layer_factory.hpp:77] Creating layer conv1
I0413 19:11:54.698221 24448 net.cpp:91] Creating Layer conv1
I0413 19:11:54.698232 24448 net.cpp:425] conv1 <- data
I0413 19:11:54.698246 24448 net.cpp:399] conv1 -> conv1
I0413 19:11:54.700860 24448 net.cpp:141] Setting up conv1
I0413 19:11:54.700897 24448 net.cpp:148] Top shape: 100 16 32 32 (1638400)
I0413 19:11:54.700911 24448 net.cpp:156] Memory required for data: 7783600
I0413 19:11:54.700937 24448 layer_factory.hpp:77] Creating layer bn_conv1
I0413 19:11:54.700955 24448 net.cpp:91] Creating Layer bn_conv1
I0413 19:11:54.700969 24448 net.cpp:425] bn_conv1 <- conv1
I0413 19:11:54.700987 24448 net.cpp:386] bn_conv1 -> conv1 (in-place)
I0413 19:11:54.701406 24448 net.cpp:141] Setting up bn_conv1
I0413 19:11:54.701439 24448 net.cpp:148] Top shape: 100 16 32 32 (1638400)
I0413 19:11:54.701449 24448 net.cpp:156] Memory required for data: 14337200
I0413 19:11:54.701475 24448 layer_factory.hpp:77] Creating layer scale_conv1
I0413 19:11:54.701495 24448 net.cpp:91] Creating Layer scale_conv1
I0413 19:11:54.701505 24448 net.cpp:425] scale_conv1 <- conv1
I0413 19:11:54.701521 24448 net.cpp:386] scale_conv1 -> conv1 (in-place)
I0413 19:11:54.701601 24448 layer_factory.hpp:77] Creating layer scale_conv1
I0413 19:11:54.701849 24448 net.cpp:141] Setting up scale_conv1
I0413 19:11:54.701869 24448 net.cpp:148] Top shape: 100 16 32 32 (1638400)
I0413 19:11:54.701877 24448 net.cpp:156] Memory required for data: 20890800
I0413 19:11:54.701894 24448 layer_factory.hpp:77] Creating layer conv1_relu
I0413 19:11:54.701906 24448 net.cpp:91] Creating Layer conv1_relu
I0413 19:11:54.701915 24448 net.cpp:425] conv1_relu <- conv1
I0413 19:11:54.701927 24448 net.cpp:386] conv1_relu -> conv1 (in-place)
I0413 19:11:54.705971 24448 net.cpp:141] Setting up conv1_relu
I0413 19:11:54.706002 24448 net.cpp:148] Top shape: 100 16 32 32 (1638400)
I0413 19:11:54.706015 24448 net.cpp:156] Memory required for data: 27444400
I0413 19:11:54.706027 24448 layer_factory.hpp:77] Creating layer conv1_conv1_relu_0_split
I0413 19:11:54.706042 24448 net.cpp:91] Creating Layer conv1_conv1_relu_0_split
I0413 19:11:54.706050 24448 net.cpp:425] conv1_conv1_relu_0_split <- conv1
I0413 19:11:54.706064 24448 net.cpp:399] conv1_conv1_relu_0_split -> conv1_conv1_relu_0_split_0
I0413 19:11:54.706085 24448 net.cpp:399] conv1_conv1_relu_0_split -> conv1_conv1_relu_0_split_1
I0413 19:11:54.706171 24448 net.cpp:141] Setting up conv1_conv1_relu_0_split
I0413 19:11:54.706189 24448 net.cpp:148] Top shape: 100 16 32 32 (1638400)
I0413 19:11:54.706202 24448 net.cpp:148] Top shape: 100 16 32 32 (1638400)
I0413 19:11:54.706210 24448 net.cpp:156] Memory required for data: 40551600
I0413 19:11:54.706220 24448 layer_factory.hpp:77] Creating layer conv2_1a
I0413 19:11:54.706248 24448 net.cpp:91] Creating Layer conv2_1a
I0413 19:11:54.706259 24448 net.cpp:425] conv2_1a <- conv1_conv1_relu_0_split_0
I0413 19:11:54.706277 24448 net.cpp:399] conv2_1a -> conv2_1a
I0413 19:11:54.709585 24448 net.cpp:141] Setting up conv2_1a
I0413 19:11:54.709619 24448 net.cpp:148] Top shape: 100 16 32 32 (1638400)
I0413 19:11:54.709630 24448 net.cpp:156] Memory required for data: 47105200
I0413 19:11:54.709655 24448 layer_factory.hpp:77] Creating layer bn_conv2_1a
I0413 19:11:54.709677 24448 net.cpp:91] Creating Layer bn_conv2_1a
I0413 19:11:54.709692 24448 net.cpp:425] bn_conv2_1a <- conv2_1a
I0413 19:11:54.709705 24448 net.cpp:386] bn_conv2_1a -> conv2_1a (in-place)
I0413 19:11:54.710098 24448 net.cpp:141] Setting up bn_conv2_1a
I0413 19:11:54.710117 24448 net.cpp:148] Top shape: 100 16 32 32 (1638400)
I0413 19:11:54.710131 24448 net.cpp:156] Memory required for data: 53658800
I0413 19:11:54.710150 24448 layer_factory.hpp:77] Creating layer scale_conv2_1a
I0413 19:11:54.710165 24448 net.cpp:91] Creating Layer scale_conv2_1a
I0413 19:11:54.710178 24448 net.cpp:425] scale_conv2_1a <- conv2_1a
I0413 19:11:54.710191 24448 net.cpp:386] scale_conv2_1a -> conv2_1a (in-place)
I0413 19:11:54.710278 24448 layer_factory.hpp:77] Creating layer scale_conv2_1a
I0413 19:11:54.710500 24448 net.cpp:141] Setting up scale_conv2_1a
I0413 19:11:54.710517 24448 net.cpp:148] Top shape: 100 16 32 32 (1638400)
I0413 19:11:54.710526 24448 net.cpp:156] Memory required for data: 60212400
I0413 19:11:54.710544 24448 layer_factory.hpp:77] Creating layer conv2_1a_relu
I0413 19:11:54.710558 24448 net.cpp:91] Creating Layer conv2_1a_relu
I0413 19:11:54.710568 24448 net.cpp:425] conv2_1a_relu <- conv2_1a
I0413 19:11:54.710582 24448 net.cpp:386] conv2_1a_relu -> conv2_1a (in-place)
I0413 19:11:54.710948 24448 net.cpp:141] Setting up conv2_1a_relu
I0413 19:11:54.710969 24448 net.cpp:148] Top shape: 100 16 32 32 (1638400)
I0413 19:11:54.710979 24448 net.cpp:156] Memory required for data: 66766000
I0413 19:11:54.711001 24448 layer_factory.hpp:77] Creating layer conv2_1b
I0413 19:11:54.711029 24448 net.cpp:91] Creating Layer conv2_1b
I0413 19:11:54.711040 24448 net.cpp:425] conv2_1b <- conv2_1a
I0413 19:11:54.711055 24448 net.cpp:399] conv2_1b -> conv2_1b
I0413 19:11:54.721282 24448 net.cpp:141] Setting up conv2_1b
I0413 19:11:54.721339 24448 net.cpp:148] Top shape: 100 16 32 32 (1638400)
I0413 19:11:54.721350 24448 net.cpp:156] Memory required for data: 73319600
I0413 19:11:54.721369 24448 layer_factory.hpp:77] Creating layer bn_conv2_1b
I0413 19:11:54.721388 24448 net.cpp:91] Creating Layer bn_conv2_1b
I0413 19:11:54.721400 24448 net.cpp:425] bn_conv2_1b <- conv2_1b
I0413 19:11:54.721421 24448 net.cpp:386] bn_conv2_1b -> conv2_1b (in-place)
I0413 19:11:54.721786 24448 net.cpp:141] Setting up bn_conv2_1b
I0413 19:11:54.721802 24448 net.cpp:148] Top shape: 100 16 32 32 (1638400)
I0413 19:11:54.721810 24448 net.cpp:156] Memory required for data: 79873200
I0413 19:11:54.721837 24448 layer_factory.hpp:77] Creating layer scale_conv2_1b
I0413 19:11:54.721853 24448 net.cpp:91] Creating Layer scale_conv2_1b
I0413 19:11:54.721860 24448 net.cpp:425] scale_conv2_1b <- conv2_1b
I0413 19:11:54.721875 24448 net.cpp:386] scale_conv2_1b -> conv2_1b (in-place)
I0413 19:11:54.721951 24448 layer_factory.hpp:77] Creating layer scale_conv2_1b
I0413 19:11:54.722154 24448 net.cpp:141] Setting up scale_conv2_1b
I0413 19:11:54.722170 24448 net.cpp:148] Top shape: 100 16 32 32 (1638400)
I0413 19:11:54.722178 24448 net.cpp:156] Memory required for data: 86426800
I0413 19:11:54.722192 24448 layer_factory.hpp:77] Creating layer conv2_1
I0413 19:11:54.722204 24448 net.cpp:91] Creating Layer conv2_1
I0413 19:11:54.722213 24448 net.cpp:425] conv2_1 <- conv2_1b
I0413 19:11:54.722223 24448 net.cpp:425] conv2_1 <- conv1_conv1_relu_0_split_1
I0413 19:11:54.722234 24448 net.cpp:399] conv2_1 -> conv2_1
I0413 19:11:54.722285 24448 net.cpp:141] Setting up conv2_1
I0413 19:11:54.722298 24448 net.cpp:148] Top shape: 100 16 32 32 (1638400)
I0413 19:11:54.722309 24448 net.cpp:156] Memory required for data: 92980400
I0413 19:11:54.722317 24448 layer_factory.hpp:77] Creating layer conv2_1_relu
I0413 19:11:54.722329 24448 net.cpp:91] Creating Layer conv2_1_relu
I0413 19:11:54.722338 24448 net.cpp:425] conv2_1_relu <- conv2_1
I0413 19:11:54.722349 24448 net.cpp:386] conv2_1_relu -> conv2_1 (in-place)
I0413 19:11:54.722682 24448 net.cpp:141] Setting up conv2_1_relu
I0413 19:11:54.722702 24448 net.cpp:148] Top shape: 100 16 32 32 (1638400)
I0413 19:11:54.722710 24448 net.cpp:156] Memory required for data: 99534000
I0413 19:11:54.722719 24448 layer_factory.hpp:77] Creating layer global_pool
I0413 19:11:54.722739 24448 net.cpp:91] Creating Layer global_pool
I0413 19:11:54.722748 24448 net.cpp:425] global_pool <- conv2_1
I0413 19:11:54.722760 24448 net.cpp:399] global_pool -> global_pool
I0413 19:11:54.723276 24448 net.cpp:141] Setting up global_pool
I0413 19:11:54.723301 24448 net.cpp:148] Top shape: 100 16 4 4 (25600)
I0413 19:11:54.723310 24448 net.cpp:156] Memory required for data: 99636400
I0413 19:11:54.723320 24448 layer_factory.hpp:77] Creating layer ip
I0413 19:11:54.723340 24448 net.cpp:91] Creating Layer ip
I0413 19:11:54.723348 24448 net.cpp:425] ip <- global_pool
I0413 19:11:54.723361 24448 net.cpp:399] ip -> ip
I0413 19:11:54.723568 24448 net.cpp:141] Setting up ip
I0413 19:11:54.723583 24448 net.cpp:148] Top shape: 100 10 (1000)
I0413 19:11:54.723592 24448 net.cpp:156] Memory required for data: 99640400
I0413 19:11:54.723605 24448 layer_factory.hpp:77] Creating layer ip_ip_0_split
I0413 19:11:54.723621 24448 net.cpp:91] Creating Layer ip_ip_0_split
I0413 19:11:54.723630 24448 net.cpp:425] ip_ip_0_split <- ip
I0413 19:11:54.723641 24448 net.cpp:399] ip_ip_0_split -> ip_ip_0_split_0
I0413 19:11:54.723655 24448 net.cpp:399] ip_ip_0_split -> ip_ip_0_split_1
I0413 19:11:54.723726 24448 net.cpp:141] Setting up ip_ip_0_split
I0413 19:11:54.723738 24448 net.cpp:148] Top shape: 100 10 (1000)
I0413 19:11:54.723749 24448 net.cpp:148] Top shape: 100 10 (1000)
I0413 19:11:54.723767 24448 net.cpp:156] Memory required for data: 99648400
I0413 19:11:54.723775 24448 layer_factory.hpp:77] Creating layer accuracy
I0413 19:11:54.723788 24448 net.cpp:91] Creating Layer accuracy
I0413 19:11:54.723795 24448 net.cpp:425] accuracy <- ip_ip_0_split_0
I0413 19:11:54.723806 24448 net.cpp:425] accuracy <- label_cifar_1_split_0
I0413 19:11:54.723822 24448 net.cpp:399] accuracy -> accuracy
…
I0413 19:25:28.729763 27574 net.cpp:313] The NetState phase (0) differed from the phase (1) specified by a rule in layer cifar
I0413 19:25:28.729944 27574 net.cpp:49] Initializing net from parameters: 
name: "ResNet-cifar"
state {
  phase: TRAIN
}
layer {
  name: "cifar"
  type: "Data"
  top: "data"
  top: "label"
  include {
    phase: TRAIN
  }
  transform_param {
    mirror: true
    mean_file: "/home/liangjiang/code/residual_network-dy/data/cifar10/mean.binaryproto"
  }
  data_param {
    source: "/home/liangjiang/code/residual_network-dy/data/cifar10/cifar10_train_lmdb"
    batch_size: 256
    backend: LMDB
  }
}
layer {
  name: "conv1"
  type: "Convolution"
  bottom: "data"
  top: "conv1"
  param {
    lr_mult: 1
  }
  param {
    lr_mult: 2
  }
  convolution_param {
    num_output: 16
    pad: 1
    kernel_size: 3
    weight_filler {
      type: "msra"
    }
    bias_filler {
      type: "constant"
    }
  }
}
layer {
  name: "bn_conv1"
  type: "BatchNorm"
  bottom: "conv1"
  top: "conv1"
  param {
    lr_mult: 0
  }
  param {
    lr_mult: 0
  }
  param {
    lr_mult: 0
  }
}
layer {
  name: "scale_conv1"
  type: "Scale"
  bottom: "conv1"
  top: "conv1"
  scale_param {
    bias_term: true
  }
}
layer {
  name: "conv1_relu"
  type: "ReLU"
  bottom: "conv1"
  top: "conv1"
}
layer {
  name: "conv2_1a"
  type: "Convolution"
  bottom: "conv1"
  top: "conv2_1a"
  param {
    lr_mult: 1
  }
  param {
    lr_mult: 2
  }
  convolution_param {
    num_output: 16
    pad: 1
    kernel_size: 3
    stride: 1
    weight_filler {
      type: "msra"
    }
    bias_filler {
      type: "constant"
      value: 0
    }
  }
}
layer {
  name: "bn_conv2_1a"
  type: "BatchNorm"
  bottom: "conv2_1a"
  top: "conv2_1a"
  param {
    lr_mult: 0
  }
  param {
    lr_mult: 0
  }
  param {
    lr_mult: 0
  }
}
layer {
  name: "scale_conv2_1a"
  type: "Scale"
  bottom: "conv2_1a"
  top: "conv2_1a"
  scale_param {
    bias_term: true
  }
}
layer {
  name: "conv2_1a_relu"
  type: "ReLU"
  bottom: "conv2_1a"
  top: "conv2_1a"
}
layer {
  name: "conv2_1b"
  type: "Convolution"
  bottom: "conv2_1a"
  top: "conv2_1b"
  param {
    lr_mult: 1
  }
  param {
    lr_mult: 2
  }
  convolution_param {
    num_output: 16
    pad: 1
    kernel_size: 3
    stride: 1
    weight_filler {
      type: "msra"
    }
    bias_filler {
      type: "constant"
      value: 0
    }
  }
}
layer {
  name: "bn_conv2_1b"
  type: "BatchNorm"
  bottom: "conv2_1b"
  top: "conv2_1b"
  param {
    lr_mult: 0
  }
  param {
    lr_mult: 0
  }
  param {
    lr_mult: 0
  }
}
layer {
  name: "scale_conv2_1b"
  type: "Scale"
  bottom: "conv2_1b"
  top: "conv2_1b"
  scale_param {
    bias_term: true
  }
}
layer {
  name: "conv2_1"
  type: "Eltwise"
  bottom: "conv2_1b"
  bottom: "conv1"
  top: "conv2_1"
}
layer {
  name: "conv2_1_relu"
  type: "ReLU"
  bottom: "conv2_1"
  top: "conv2_1"
}
layer {
  name: "conv2_2a"
  type: "Convolution"
  bottom: "conv2_1"
  top: "conv2_2a"
  param {
    lr_mult: 1
  }
  param {
    lr_mult: 2
  }
  convolution_param {
    num_output: 16
    pad: 1
    kernel_size: 3
    stride: 1
    weight_filler {
      type: "msra"
    }
    bias_filler {
      type: "constant"
      value: 0
    }
  }
}
layer {
  name: "bn_conv2_2a"
  type: "BatchNorm"
  bottom: "conv2_2a"
  top: "conv2_2a"
  param {
    lr_mult: 0
  }
  param {
    lr_mult: 0
  }
  param {
    lr_mult: 0
  }
}
layer {
  name: "scale_conv2_2a"
  type: "Scale"
  bottom: "conv2_2a"
  top: "conv2_2a"
  scale_param {
    bias_term: true
  }
}
layer {
  name: "conv2_2a_relu"
  type: "ReLU"
  bottom: "conv2_2a"
  top: "conv2_2a"
}
layer {
  name: "conv2_2b"
  type: "Convolution"
  bottom: "conv2_2a"
  top: "conv2_2b"
  param {
    lr_mult: 1
  }
  param {
    lr_mult: 2
  }
  convolution_param {
    num_output: 16
    pad: 1
    kernel_size: 3
    stride: 1
    weight_filler {
      type: "msra"
    }
    bias_filler {
      type: "constant"
      value: 0
    }
  }
}
layer {
  name: "bn_conv2_2b"
  type: "BatchNorm"
  bottom: "conv2_2b"
  top: "conv2_2b"
  param {
    lr_mult: 0
  }
  param {
    lr_mult: 0
  }
  param {
    lr_mult: 0
  }
}
layer {
  name: "scale_conv2_2b"
  type: "Scale"
  bottom: "conv2_2b"
  top: "conv2_2b"
  scale_param {
    bias_term: true
  }
}
layer {
  name: "conv2_2"
  type: "Eltwise"
  bottom: "conv2_2b"
  bottom: "conv2_1"
  top: "conv2_2"
}
layer {
  name: "conv2_2_relu"
  type: "ReLU"
  bottom: "conv2_2"
  top: "conv2_2"
}
layer {
  name: "global_pool"
  type: "Pooling"
  bottom: "conv2_2"
  top: "global_pool"
  pooling_param {
    pool: AVE
    kernel_size: 8
    stride: 8
  }
}
layer {
  name: "ip"
  type: "InnerProduct"
  bottom: "global_pool"
  top: "ip"
  inner_product_param {
    num_output: 10
  }
}
layer {
  name: "accuracy"
  type: "Accuracy"
  bottom: "ip"
  bottom: "label"
  top: "accuracy"
}
layer {
  name: "loss"
  type: "SoftmaxWithLoss"
  bottom: "ip"
  bottom: "label"
  top: "loss"
}
I0413 19:25:28.730101 27574 layer_factory.hpp:77] Creating layer cifar
I0413 19:25:28.730701 27574 net.cpp:91] Creating Layer cifar
I0413 19:25:28.730718 27574 net.cpp:399] cifar -> data
I0413 19:25:28.730733 27574 net.cpp:399] cifar -> label
I0413 19:25:28.730767 27574 data_transformer.cpp:25] Loading mean file from: /home/liangjiang/code/residual_network-dy/data/cifar10/mean.binaryproto
I0413 19:25:28.746290 27636 db_lmdb.cpp:38] Opened lmdb /home/liangjiang/code/residual_network-dy/data/cifar10/cifar10_train_lmdb
I0413 19:25:28.775987 27574 data_layer.cpp:41] output data size: 256,3,32,32
I0413 19:25:28.785462 27574 net.cpp:141] Setting up cifar
I0413 19:25:28.785486 27574 net.cpp:148] Top shape: 256 3 32 32 (786432)
I0413 19:25:28.785495 27574 net.cpp:148] Top shape: 256 (256)
I0413 19:25:28.785501 27574 net.cpp:156] Memory required for data: 3146752
I0413 19:25:28.785508 27574 layer_factory.hpp:77] Creating layer label_cifar_1_split
I0413 19:25:28.785526 27574 net.cpp:91] Creating Layer label_cifar_1_split
I0413 19:25:28.785533 27574 net.cpp:425] label_cifar_1_split <- label
I0413 19:25:28.785543 27574 net.cpp:399] label_cifar_1_split -> label_cifar_1_split_0
I0413 19:25:28.785555 27574 net.cpp:399] label_cifar_1_split -> label_cifar_1_split_1
I0413 19:25:28.785624 27574 net.cpp:141] Setting up label_cifar_1_split
I0413 19:25:28.785639 27574 net.cpp:148] Top shape: 256 (256)
I0413 19:25:28.785645 27574 net.cpp:148] Top shape: 256 (256)
I0413 19:25:28.785650 27574 net.cpp:156] Memory required for data: 3148800
I0413 19:25:28.785656 27574 layer_factory.hpp:77] Creating layer conv1
I0413 19:25:28.785673 27574 net.cpp:91] Creating Layer conv1
I0413 19:25:28.785679 27574 net.cpp:425] conv1 <- data
I0413 19:25:28.785688 27574 net.cpp:399] conv1 -> conv1
I0413 19:25:29.057834 27574 net.cpp:141] Setting up conv1
I0413 19:25:29.057878 27574 net.cpp:148] Top shape: 256 16 32 32 (4194304)
I0413 19:25:29.057885 27574 net.cpp:156] Memory required for data: 19926016
I0413 19:25:29.057906 27574 layer_factory.hpp:77] Creating layer bn_conv1
I0413 19:25:29.057920 27574 net.cpp:91] Creating Layer bn_conv1
I0413 19:25:29.057927 27574 net.cpp:425] bn_conv1 <- conv1
I0413 19:25:29.057936 27574 net.cpp:386] bn_conv1 -> conv1 (in-place)
I0413 19:25:29.058128 27574 net.cpp:141] Setting up bn_conv1
I0413 19:25:29.058138 27574 net.cpp:148] Top shape: 256 16 32 32 (4194304)
I0413 19:25:29.058143 27574 net.cpp:156] Memory required for data: 36703232
I0413 19:25:29.058158 27574 layer_factory.hpp:77] Creating layer scale_conv1
I0413 19:25:29.058169 27574 net.cpp:91] Creating Layer scale_conv1
I0413 19:25:29.058176 27574 net.cpp:425] scale_conv1 <- conv1
I0413 19:25:29.058182 27574 net.cpp:386] scale_conv1 -> conv1 (in-place)
I0413 19:25:29.058221 27574 layer_factory.hpp:77] Creating layer scale_conv1
I0413 19:25:29.058329 27574 net.cpp:141] Setting up scale_conv1
I0413 19:25:29.058338 27574 net.cpp:148] Top shape: 256 16 32 32 (4194304)
I0413 19:25:29.058344 27574 net.cpp:156] Memory required for data: 53480448
I0413 19:25:29.058353 27574 layer_factory.hpp:77] Creating layer conv1_relu
I0413 19:25:29.058362 27574 net.cpp:91] Creating Layer conv1_relu
I0413 19:25:29.058368 27574 net.cpp:425] conv1_relu <- conv1
I0413 19:25:29.058375 27574 net.cpp:386] conv1_relu -> conv1 (in-place)
I0413 19:25:29.058873 27574 net.cpp:141] Setting up conv1_relu
I0413 19:25:29.058890 27574 net.cpp:148] Top shape: 256 16 32 32 (4194304)
I0413 19:25:29.058905 27574 net.cpp:156] Memory required for data: 70257664
I0413 19:25:29.058912 27574 layer_factory.hpp:77] Creating layer conv1_conv1_relu_0_split
I0413 19:25:29.058920 27574 net.cpp:91] Creating Layer conv1_conv1_relu_0_split
I0413 19:25:29.058926 27574 net.cpp:425] conv1_conv1_relu_0_split <- conv1
I0413 19:25:29.058934 27574 net.cpp:399] conv1_conv1_relu_0_split -> conv1_conv1_relu_0_split_0
I0413 19:25:29.058944 27574 net.cpp:399] conv1_conv1_relu_0_split -> conv1_conv1_relu_0_split_1
I0413 19:25:29.058986 27574 net.cpp:141] Setting up conv1_conv1_relu_0_split
I0413 19:25:29.058995 27574 net.cpp:148] Top shape: 256 16 32 32 (4194304)
I0413 19:25:29.059001 27574 net.cpp:148] Top shape: 256 16 32 32 (4194304)
I0413 19:25:29.059006 27574 net.cpp:156] Memory required for data: 103812096
I0413 19:25:29.059012 27574 layer_factory.hpp:77] Creating layer conv2_1a
I0413 19:25:29.059026 27574 net.cpp:91] Creating Layer conv2_1a
I0413 19:25:29.059031 27574 net.cpp:425] conv2_1a <- conv1_conv1_relu_0_split_0
I0413 19:25:29.059041 27574 net.cpp:399] conv2_1a -> conv2_1a
I0413 19:25:29.062405 27574 net.cpp:141] Setting up conv2_1a
I0413 19:25:29.062423 27574 net.cpp:148] Top shape: 256 16 32 32 (4194304)
I0413 19:25:29.062429 27574 net.cpp:156] Memory required for data: 120589312
I0413 19:25:29.062443 27574 layer_factory.hpp:77] Creating layer bn_conv2_1a
I0413 19:25:29.062453 27574 net.cpp:91] Creating Layer bn_conv2_1a
I0413 19:25:29.062460 27574 net.cpp:425] bn_conv2_1a <- conv2_1a
I0413 19:25:29.062469 27574 net.cpp:386] bn_conv2_1a -> conv2_1a (in-place)
I0413 19:25:29.062651 27574 net.cpp:141] Setting up bn_conv2_1a
I0413 19:25:29.062660 27574 net.cpp:148] Top shape: 256 16 32 32 (4194304)
I0413 19:25:29.062666 27574 net.cpp:156] Memory required for data: 137366528
I0413 19:25:29.062676 27574 layer_factory.hpp:77] Creating layer scale_conv2_1a
I0413 19:25:29.062685 27574 net.cpp:91] Creating Layer scale_conv2_1a
I0413 19:25:29.062690 27574 net.cpp:425] scale_conv2_1a <- conv2_1a
I0413 19:25:29.062697 27574 net.cpp:386] scale_conv2_1a -> conv2_1a (in-place)
I0413 19:25:29.062733 27574 layer_factory.hpp:77] Creating layer scale_conv2_1a
I0413 19:25:29.062839 27574 net.cpp:141] Setting up scale_conv2_1a
I0413 19:25:29.062847 27574 net.cpp:148] Top shape: 256 16 32 32 (4194304)
I0413 19:25:29.062854 27574 net.cpp:156] Memory required for data: 154143744
I0413 19:25:29.062861 27574 layer_factory.hpp:77] Creating layer conv2_1a_relu
I0413 19:25:29.062870 27574 net.cpp:91] Creating Layer conv2_1a_relu
I0413 19:25:29.062875 27574 net.cpp:425] conv2_1a_relu <- conv2_1a
I0413 19:25:29.062882 27574 net.cpp:386] conv2_1a_relu -> conv2_1a (in-place)
I0413 19:25:29.063408 27574 net.cpp:141] Setting up conv2_1a_relu
I0413 19:25:29.063424 27574 net.cpp:148] Top shape: 256 16 32 32 (4194304)
I0413 19:25:29.063431 27574 net.cpp:156] Memory required for data: 170920960
I0413 19:25:29.063436 27574 layer_factory.hpp:77] Creating layer conv2_1b
I0413 19:25:29.063449 27574 net.cpp:91] Creating Layer conv2_1b
I0413 19:25:29.063454 27574 net.cpp:425] conv2_1b <- conv2_1a
I0413 19:25:29.063463 27574 net.cpp:399] conv2_1b -> conv2_1b
I0413 19:25:29.066066 27574 net.cpp:141] Setting up conv2_1b
I0413 19:25:29.066084 27574 net.cpp:148] Top shape: 256 16 32 32 (4194304)
I0413 19:25:29.066090 27574 net.cpp:156] Memory required for data: 187698176
I0413 19:25:29.066099 27574 layer_factory.hpp:77] Creating layer bn_conv2_1b
I0413 19:25:29.066109 27574 net.cpp:91] Creating Layer bn_conv2_1b
I0413 19:25:29.066115 27574 net.cpp:425] bn_conv2_1b <- conv2_1b
I0413 19:25:29.066123 27574 net.cpp:386] bn_conv2_1b -> conv2_1b (in-place)
I0413 19:25:29.066305 27574 net.cpp:141] Setting up bn_conv2_1b
I0413 19:25:29.066315 27574 net.cpp:148] Top shape: 256 16 32 32 (4194304)
I0413 19:25:29.066320 27574 net.cpp:156] Memory required for data: 204475392
I0413 19:25:29.066334 27574 layer_factory.hpp:77] Creating layer scale_conv2_1b
I0413 19:25:29.066342 27574 net.cpp:91] Creating Layer scale_conv2_1b
I0413 19:25:29.066347 27574 net.cpp:425] scale_conv2_1b <- conv2_1b
I0413 19:25:29.066360 27574 net.cpp:386] scale_conv2_1b -> conv2_1b (in-place)
I0413 19:25:29.066400 27574 layer_factory.hpp:77] Creating layer scale_conv2_1b
I0413 19:25:29.066506 27574 net.cpp:141] Setting up scale_conv2_1b
I0413 19:25:29.066516 27574 net.cpp:148] Top shape: 256 16 32 32 (4194304)
I0413 19:25:29.066521 27574 net.cpp:156] Memory required for data: 221252608
I0413 19:25:29.066529 27574 layer_factory.hpp:77] Creating layer conv2_1
I0413 19:25:29.066537 27574 net.cpp:91] Creating Layer conv2_1
I0413 19:25:29.066543 27574 net.cpp:425] conv2_1 <- conv2_1b
I0413 19:25:29.066550 27574 net.cpp:425] conv2_1 <- conv1_conv1_relu_0_split_1
I0413 19:25:29.066557 27574 net.cpp:399] conv2_1 -> conv2_1
I0413 19:25:29.066591 27574 net.cpp:141] Setting up conv2_1
I0413 19:25:29.066599 27574 net.cpp:148] Top shape: 256 16 32 32 (4194304)
I0413 19:25:29.066604 27574 net.cpp:156] Memory required for data: 238029824
I0413 19:25:29.066609 27574 layer_factory.hpp:77] Creating layer conv2_1_relu
I0413 19:25:29.066617 27574 net.cpp:91] Creating Layer conv2_1_relu
I0413 19:25:29.066623 27574 net.cpp:425] conv2_1_relu <- conv2_1
I0413 19:25:29.066630 27574 net.cpp:386] conv2_1_relu -> conv2_1 (in-place)
I0413 19:25:29.067142 27574 net.cpp:141] Setting up conv2_1_relu
I0413 19:25:29.067154 27574 net.cpp:148] Top shape: 256 16 32 32 (4194304)
I0413 19:25:29.067159 27574 net.cpp:156] Memory required for data: 254807040
I0413 19:25:29.067165 27574 layer_factory.hpp:77] Creating layer conv2_1_conv2_1_relu_0_split
I0413 19:25:29.067174 27574 net.cpp:91] Creating Layer conv2_1_conv2_1_relu_0_split
I0413 19:25:29.067180 27574 net.cpp:425] conv2_1_conv2_1_relu_0_split <- conv2_1
I0413 19:25:29.067190 27574 net.cpp:399] conv2_1_conv2_1_relu_0_split -> conv2_1_conv2_1_relu_0_split_0
I0413 19:25:29.067200 27574 net.cpp:399] conv2_1_conv2_1_relu_0_split -> conv2_1_conv2_1_relu_0_split_1
I0413 19:25:29.067242 27574 net.cpp:141] Setting up conv2_1_conv2_1_relu_0_split
I0413 19:25:29.067251 27574 net.cpp:148] Top shape: 256 16 32 32 (4194304)
I0413 19:25:29.067257 27574 net.cpp:148] Top shape: 256 16 32 32 (4194304)
I0413 19:25:29.067262 27574 net.cpp:156] Memory required for data: 288361472
I0413 19:25:29.067267 27574 layer_factory.hpp:77] Creating layer conv2_2a
I0413 19:25:29.067282 27574 net.cpp:91] Creating Layer conv2_2a
I0413 19:25:29.067288 27574 net.cpp:425] conv2_2a <- conv2_1_conv2_1_relu_0_split_0
I0413 19:25:29.067297 27574 net.cpp:399] conv2_2a -> conv2_2a
I0413 19:25:29.070683 27574 net.cpp:141] Setting up conv2_2a
I0413 19:25:29.070703 27574 net.cpp:148] Top shape: 256 16 32 32 (4194304)
I0413 19:25:29.070708 27574 net.cpp:156] Memory required for data: 305138688
I0413 19:25:29.070718 27574 layer_factory.hpp:77] Creating layer bn_conv2_2a
I0413 19:25:29.070729 27574 net.cpp:91] Creating Layer bn_conv2_2a
I0413 19:25:29.070735 27574 net.cpp:425] bn_conv2_2a <- conv2_2a
I0413 19:25:29.070744 27574 net.cpp:386] bn_conv2_2a -> conv2_2a (in-place)
I0413 19:25:29.070943 27574 net.cpp:141] Setting up bn_conv2_2a
I0413 19:25:29.070953 27574 net.cpp:148] Top shape: 256 16 32 32 (4194304)
I0413 19:25:29.070958 27574 net.cpp:156] Memory required for data: 321915904
I0413 19:25:29.070968 27574 layer_factory.hpp:77] Creating layer scale_conv2_2a
I0413 19:25:29.070978 27574 net.cpp:91] Creating Layer scale_conv2_2a
I0413 19:25:29.070984 27574 net.cpp:425] scale_conv2_2a <- conv2_2a
I0413 19:25:29.070991 27574 net.cpp:386] scale_conv2_2a -> conv2_2a (in-place)
I0413 19:25:29.071030 27574 layer_factory.hpp:77] Creating layer scale_conv2_2a
I0413 19:25:29.071151 27574 net.cpp:141] Setting up scale_conv2_2a
I0413 19:25:29.071159 27574 net.cpp:148] Top shape: 256 16 32 32 (4194304)
I0413 19:25:29.071164 27574 net.cpp:156] Memory required for data: 338693120
I0413 19:25:29.071172 27574 layer_factory.hpp:77] Creating layer conv2_2a_relu
I0413 19:25:29.071180 27574 net.cpp:91] Creating Layer conv2_2a_relu
I0413 19:25:29.071185 27574 net.cpp:425] conv2_2a_relu <- conv2_2a
I0413 19:25:29.071194 27574 net.cpp:386] conv2_2a_relu -> conv2_2a (in-place)
I0413 19:25:29.071763 27574 net.cpp:141] Setting up conv2_2a_relu
I0413 19:25:29.071779 27574 net.cpp:148] Top shape: 256 16 32 32 (4194304)
I0413 19:25:29.071784 27574 net.cpp:156] Memory required for data: 355470336
I0413 19:25:29.071789 27574 layer_factory.hpp:77] Creating layer conv2_2b
I0413 19:25:29.071805 27574 net.cpp:91] Creating Layer conv2_2b
I0413 19:25:29.071811 27574 net.cpp:425] conv2_2b <- conv2_2a
I0413 19:25:29.071820 27574 net.cpp:399] conv2_2b -> conv2_2b
I0413 19:25:29.075314 27574 net.cpp:141] Setting up conv2_2b
I0413 19:25:29.075332 27574 net.cpp:148] Top shape: 256 16 32 32 (4194304)
I0413 19:25:29.075338 27574 net.cpp:156] Memory required for data: 372247552
I0413 19:25:29.075347 27574 layer_factory.hpp:77] Creating layer bn_conv2_2b
I0413 19:25:29.075361 27574 net.cpp:91] Creating Layer bn_conv2_2b
I0413 19:25:29.075366 27574 net.cpp:425] bn_conv2_2b <- conv2_2b
I0413 19:25:29.075374 27574 net.cpp:386] bn_conv2_2b -> conv2_2b (in-place)
I0413 19:25:29.075573 27574 net.cpp:141] Setting up bn_conv2_2b
I0413 19:25:29.075583 27574 net.cpp:148] Top shape: 256 16 32 32 (4194304)
I0413 19:25:29.075588 27574 net.cpp:156] Memory required for data: 389024768
I0413 19:25:29.075604 27574 layer_factory.hpp:77] Creating layer scale_conv2_2b
I0413 19:25:29.075613 27574 net.cpp:91] Creating Layer scale_conv2_2b
I0413 19:25:29.075618 27574 net.cpp:425] scale_conv2_2b <- conv2_2b
I0413 19:25:29.075625 27574 net.cpp:386] scale_conv2_2b -> conv2_2b (in-place)
I0413 19:25:29.075667 27574 layer_factory.hpp:77] Creating layer scale_conv2_2b
I0413 19:25:29.075789 27574 net.cpp:141] Setting up scale_conv2_2b
I0413 19:25:29.075799 27574 net.cpp:148] Top shape: 256 16 32 32 (4194304)
I0413 19:25:29.075804 27574 net.cpp:156] Memory required for data: 405801984
I0413 19:25:29.075812 27574 layer_factory.hpp:77] Creating layer conv2_2
I0413 19:25:29.075822 27574 net.cpp:91] Creating Layer conv2_2
I0413 19:25:29.075829 27574 net.cpp:425] conv2_2 <- conv2_2b
I0413 19:25:29.075835 27574 net.cpp:425] conv2_2 <- conv2_1_conv2_1_relu_0_split_1
I0413 19:25:29.075842 27574 net.cpp:399] conv2_2 -> conv2_2
I0413 19:25:29.075870 27574 net.cpp:141] Setting up conv2_2
I0413 19:25:29.075878 27574 net.cpp:148] Top shape: 256 16 32 32 (4194304)
I0413 19:25:29.075883 27574 net.cpp:156] Memory required for data: 422579200
I0413 19:25:29.075888 27574 layer_factory.hpp:77] Creating layer conv2_2_relu
I0413 19:25:29.075896 27574 net.cpp:91] Creating Layer conv2_2_relu
I0413 19:25:29.075901 27574 net.cpp:425] conv2_2_relu <- conv2_2
I0413 19:25:29.075909 27574 net.cpp:386] conv2_2_relu -> conv2_2 (in-place)
I0413 19:25:29.076346 27574 net.cpp:141] Setting up conv2_2_relu
I0413 19:25:29.076361 27574 net.cpp:148] Top shape: 256 16 32 32 (4194304)
I0413 19:25:29.076367 27574 net.cpp:156] Memory required for data: 439356416
I0413 19:25:29.076372 27574 layer_factory.hpp:77] Creating layer global_pool
I0413 19:25:29.076383 27574 net.cpp:91] Creating Layer global_pool
I0413 19:25:29.076390 27574 net.cpp:425] global_pool <- conv2_2
I0413 19:25:29.076397 27574 net.cpp:399] global_pool -> global_pool
I0413 19:25:29.077488 27574 net.cpp:141] Setting up global_pool
I0413 19:25:29.077502 27574 net.cpp:148] Top shape: 256 16 4 4 (65536)
I0413 19:25:29.077507 27574 net.cpp:156] Memory required for data: 439618560
I0413 19:25:29.077510 27574 layer_factory.hpp:77] Creating layer ip
I0413 19:25:29.077522 27574 net.cpp:91] Creating Layer ip
I0413 19:25:29.077527 27574 net.cpp:425] ip <- global_pool
I0413 19:25:29.077533 27574 net.cpp:399] ip -> ip
I0413 19:25:29.077627 27574 net.cpp:141] Setting up ip
I0413 19:25:29.077636 27574 net.cpp:148] Top shape: 256 10 (2560)
I0413 19:25:29.077639 27574 net.cpp:156] Memory required for data: 439628800
I0413 19:25:29.077646 27574 layer_factory.hpp:77] Creating layer ip_ip_0_split
I0413 19:25:29.077654 27574 net.cpp:91] Creating Layer ip_ip_0_split
I0413 19:25:29.077658 27574 net.cpp:425] ip_ip_0_split <- ip
I0413 19:25:29.077663 27574 net.cpp:399] ip_ip_0_split -> ip_ip_0_split_0
I0413 19:25:29.077672 27574 net.cpp:399] ip_ip_0_split -> ip_ip_0_split_1
I0413 19:25:29.077703 27574 net.cpp:141] Setting up ip_ip_0_split
I0413 19:25:29.077710 27574 net.cpp:148] Top shape: 256 10 (2560)
I0413 19:25:29.077715 27574 net.cpp:148] Top shape: 256 10 (2560)
I0413 19:25:29.077719 27574 net.cpp:156] Memory required for data: 439649280
I0413 19:25:29.077723 27574 layer_factory.hpp:77] Creating layer accuracy
I0413 19:25:29.077733 27574 net.cpp:91] Creating Layer accuracy
I0413 19:25:29.077738 27574 net.cpp:425] accuracy <- ip_ip_0_split_0
I0413 19:25:29.077741 27574 net.cpp:425] accuracy <- label_cifar_1_split_0
I0413 19:25:29.077749 27574 net.cpp:399] accuracy -> accuracy
…
I0413 19:25:29.079504 27574 net.cpp:313] The NetState phase (1) differed from the phase (0) specified by a rule in layer cifar
I0413 19:25:29.079654 27574 net.cpp:49] Initializing net from parameters: 
name: "ResNet-cifar"
state {
  phase: TEST
}
layer {
  name: "cifar"
  type: "Data"
  top: "data"
  top: "label"
  include {
    phase: TEST
  }
  transform_param {
    mean_file: "/home/liangjiang/code/residual_network-dy/data/cifar10/mean.binaryproto"
  }
  data_param {
    source: "/home/liangjiang/code/residual_network-dy/data/cifar10/cifar10_test_lmdb"
    batch_size: 100
    backend: LMDB
  }
}
layer {
  name: "conv1"
  type: "Convolution"
  bottom: "data"
  top: "conv1"
  param {
    lr_mult: 1
  }
  param {
    lr_mult: 2
  }
  convolution_param {
    num_output: 16
    pad: 1
    kernel_size: 3
    weight_filler {
      type: "msra"
    }
    bias_filler {
      type: "constant"
    }
  }
}
layer {
  name: "bn_conv1"
  type: "BatchNorm"
  bottom: "conv1"
  top: "conv1"
  param {
    lr_mult: 0
  }
  param {
    lr_mult: 0
  }
  param {
    lr_mult: 0
  }
}
layer {
  name: "scale_conv1"
  type: "Scale"
  bottom: "conv1"
  top: "conv1"
  scale_param {
    bias_term: true
  }
}
layer {
  name: "conv1_relu"
  type: "ReLU"
  bottom: "conv1"
  top: "conv1"
}
layer {
  name: "conv2_1a"
  type: "Convolution"
  bottom: "conv1"
  top: "conv2_1a"
  param {
    lr_mult: 1
  }
  param {
    lr_mult: 2
  }
  convolution_param {
    num_output: 16
    pad: 1
    kernel_size: 3
    stride: 1
    weight_filler {
      type: "msra"
    }
    bias_filler {
      type: "constant"
      value: 0
    }
  }
}
layer {
  name: "bn_conv2_1a"
  type: "BatchNorm"
  bottom: "conv2_1a"
  top: "conv2_1a"
  param {
    lr_mult: 0
  }
  param {
    lr_mult: 0
  }
  param {
    lr_mult: 0
  }
}
layer {
  name: "scale_conv2_1a"
  type: "Scale"
  bottom: "conv2_1a"
  top: "conv2_1a"
  scale_param {
    bias_term: true
  }
}
layer {
  name: "conv2_1a_relu"
  type: "ReLU"
  bottom: "conv2_1a"
  top: "conv2_1a"
}
layer {
  name: "conv2_1b"
  type: "Convolution"
  bottom: "conv2_1a"
  top: "conv2_1b"
  param {
    lr_mult: 1
  }
  param {
    lr_mult: 2
  }
  convolution_param {
    num_output: 16
    pad: 1
    kernel_size: 3
    stride: 1
    weight_filler {
      type: "msra"
    }
    bias_filler {
      type: "constant"
      value: 0
    }
  }
}
layer {
  name: "bn_conv2_1b"
  type: "BatchNorm"
  bottom: "conv2_1b"
  top: "conv2_1b"
  param {
    lr_mult: 0
  }
  param {
    lr_mult: 0
  }
  param {
    lr_mult: 0
  }
}
layer {
  name: "scale_conv2_1b"
  type: "Scale"
  bottom: "conv2_1b"
  top: "conv2_1b"
  scale_param {
    bias_term: true
  }
}
layer {
  name: "conv2_1"
  type: "Eltwise"
  bottom: "conv2_1b"
  bottom: "conv1"
  top: "conv2_1"
}
layer {
  name: "conv2_1_relu"
  type: "ReLU"
  bottom: "conv2_1"
  top: "conv2_1"
}
layer {
  name: "conv2_2a"
  type: "Convolution"
  bottom: "conv2_1"
  top: "conv2_2a"
  param {
    lr_mult: 1
  }
  param {
    lr_mult: 2
  }
  convolution_param {
    num_output: 16
    pad: 1
    kernel_size: 3
    stride: 1
    weight_filler {
      type: "msra"
    }
    bias_filler {
      type: "constant"
      value: 0
    }
  }
}
layer {
  name: "bn_conv2_2a"
  type: "BatchNorm"
  bottom: "conv2_2a"
  top: "conv2_2a"
  param {
    lr_mult: 0
  }
  param {
    lr_mult: 0
  }
  param {
    lr_mult: 0
  }
}
layer {
  name: "scale_conv2_2a"
  type: "Scale"
  bottom: "conv2_2a"
  top: "conv2_2a"
  scale_param {
    bias_term: true
  }
}
layer {
  name: "conv2_2a_relu"
  type: "ReLU"
  bottom: "conv2_2a"
  top: "conv2_2a"
}
layer {
  name: "conv2_2b"
  type: "Convolution"
  bottom: "conv2_2a"
  top: "conv2_2b"
  param {
    lr_mult: 1
  }
  param {
    lr_mult: 2
  }
  convolution_param {
    num_output: 16
    pad: 1
    kernel_size: 3
    stride: 1
    weight_filler {
      type: "msra"
    }
    bias_filler {
      type: "constant"
      value: 0
    }
  }
}
layer {
  name: "bn_conv2_2b"
  type: "BatchNorm"
  bottom: "conv2_2b"
  top: "conv2_2b"
  param {
    lr_mult: 0
  }
  param {
    lr_mult: 0
  }
  param {
    lr_mult: 0
  }
}
layer {
  name: "scale_conv2_2b"
  type: "Scale"
  bottom: "conv2_2b"
  top: "conv2_2b"
  scale_param {
    bias_term: true
  }
}
layer {
  name: "conv2_2"
  type: "Eltwise"
  bottom: "conv2_2b"
  bottom: "conv2_1"
  top: "conv2_2"
}
layer {
  name: "conv2_2_relu"
  type: "ReLU"
  bottom: "conv2_2"
  top: "conv2_2"
}
layer {
  name: "global_pool"
  type: "Pooling"
  bottom: "conv2_2"
  top: "global_pool"
  pooling_param {
    pool: AVE
    kernel_size: 8
    stride: 8
  }
}
layer {
  name: "ip"
  type: "InnerProduct"
  bottom: "global_pool"
  top: "ip"
  inner_product_param {
    num_output: 10
  }
}
layer {
  name: "accuracy"
  type: "Accuracy"
  bottom: "ip"
  bottom: "label"
  top: "accuracy"
}
layer {
  name: "loss"
  type: "SoftmaxWithLoss"
  bottom: "ip"
  bottom: "label"
  top: "loss"
}
I0413 19:25:29.079773 27574 layer_factory.hpp:77] Creating layer cifar
I0413 19:25:29.079880 27574 net.cpp:91] Creating Layer cifar
I0413 19:25:29.079890 27574 net.cpp:399] cifar -> data
I0413 19:25:29.079900 27574 net.cpp:399] cifar -> label
I0413 19:25:29.079907 27574 data_transformer.cpp:25] Loading mean file from: /home/liangjiang/code/residual_network-dy/data/cifar10/mean.binaryproto
I0413 19:25:29.081074 27641 db_lmdb.cpp:38] Opened lmdb /home/liangjiang/code/residual_network-dy/data/cifar10/cifar10_test_lmdb
I0413 19:25:29.081244 27574 data_layer.cpp:41] output data size: 100,3,32,32
I0413 19:25:29.086555 27574 net.cpp:141] Setting up cifar
I0413 19:25:29.086571 27574 net.cpp:148] Top shape: 100 3 32 32 (307200)
I0413 19:25:29.086577 27574 net.cpp:148] Top shape: 100 (100)
I0413 19:25:29.086581 27574 net.cpp:156] Memory required for data: 1229200
I0413 19:25:29.086586 27574 layer_factory.hpp:77] Creating layer label_cifar_1_split
I0413 19:25:29.086593 27574 net.cpp:91] Creating Layer label_cifar_1_split
I0413 19:25:29.086598 27574 net.cpp:425] label_cifar_1_split <- label
I0413 19:25:29.086604 27574 net.cpp:399] label_cifar_1_split -> label_cifar_1_split_0
I0413 19:25:29.086612 27574 net.cpp:399] label_cifar_1_split -> label_cifar_1_split_1
I0413 19:25:29.086654 27574 net.cpp:141] Setting up label_cifar_1_split
I0413 19:25:29.086661 27574 net.cpp:148] Top shape: 100 (100)
I0413 19:25:29.086666 27574 net.cpp:148] Top shape: 100 (100)
I0413 19:25:29.086669 27574 net.cpp:156] Memory required for data: 1230000
I0413 19:25:29.086673 27574 layer_factory.hpp:77] Creating layer conv1
I0413 19:25:29.086684 27574 net.cpp:91] Creating Layer conv1
I0413 19:25:29.086689 27574 net.cpp:425] conv1 <- data
I0413 19:25:29.086696 27574 net.cpp:399] conv1 -> conv1
I0413 19:25:29.091318 27574 net.cpp:141] Setting up conv1
I0413 19:25:29.091333 27574 net.cpp:148] Top shape: 100 16 32 32 (1638400)
I0413 19:25:29.091338 27574 net.cpp:156] Memory required for data: 7783600
I0413 19:25:29.091348 27574 layer_factory.hpp:77] Creating layer bn_conv1
I0413 19:25:29.091357 27574 net.cpp:91] Creating Layer bn_conv1
I0413 19:25:29.091363 27574 net.cpp:425] bn_conv1 <- conv1
I0413 19:25:29.091369 27574 net.cpp:386] bn_conv1 -> conv1 (in-place)
I0413 19:25:29.091532 27574 net.cpp:141] Setting up bn_conv1
I0413 19:25:29.091547 27574 net.cpp:148] Top shape: 100 16 32 32 (1638400)
I0413 19:25:29.091552 27574 net.cpp:156] Memory required for data: 14337200
I0413 19:25:29.091562 27574 layer_factory.hpp:77] Creating layer scale_conv1
I0413 19:25:29.091572 27574 net.cpp:91] Creating Layer scale_conv1
I0413 19:25:29.091594 27574 net.cpp:425] scale_conv1 <- conv1
I0413 19:25:29.091599 27574 net.cpp:386] scale_conv1 -> conv1 (in-place)
I0413 19:25:29.091639 27574 layer_factory.hpp:77] Creating layer scale_conv1
I0413 19:25:29.091743 27574 net.cpp:141] Setting up scale_conv1
I0413 19:25:29.091752 27574 net.cpp:148] Top shape: 100 16 32 32 (1638400)
I0413 19:25:29.091760 27574 net.cpp:156] Memory required for data: 20890800
I0413 19:25:29.091768 27574 layer_factory.hpp:77] Creating layer conv1_relu
I0413 19:25:29.091773 27574 net.cpp:91] Creating Layer conv1_relu
I0413 19:25:29.091778 27574 net.cpp:425] conv1_relu <- conv1
I0413 19:25:29.091784 27574 net.cpp:386] conv1_relu -> conv1 (in-place)
I0413 19:25:29.091933 27574 net.cpp:141] Setting up conv1_relu
I0413 19:25:29.091944 27574 net.cpp:148] Top shape: 100 16 32 32 (1638400)
I0413 19:25:29.091948 27574 net.cpp:156] Memory required for data: 27444400
I0413 19:25:29.091953 27574 layer_factory.hpp:77] Creating layer conv1_conv1_relu_0_split
I0413 19:25:29.091958 27574 net.cpp:91] Creating Layer conv1_conv1_relu_0_split
I0413 19:25:29.091963 27574 net.cpp:425] conv1_conv1_relu_0_split <- conv1
I0413 19:25:29.091969 27574 net.cpp:399] conv1_conv1_relu_0_split -> conv1_conv1_relu_0_split_0
I0413 19:25:29.091975 27574 net.cpp:399] conv1_conv1_relu_0_split -> conv1_conv1_relu_0_split_1
I0413 19:25:29.092013 27574 net.cpp:141] Setting up conv1_conv1_relu_0_split
I0413 19:25:29.092020 27574 net.cpp:148] Top shape: 100 16 32 32 (1638400)
I0413 19:25:29.092025 27574 net.cpp:148] Top shape: 100 16 32 32 (1638400)
I0413 19:25:29.092028 27574 net.cpp:156] Memory required for data: 40551600
I0413 19:25:29.092032 27574 layer_factory.hpp:77] Creating layer conv2_1a
I0413 19:25:29.092043 27574 net.cpp:91] Creating Layer conv2_1a
I0413 19:25:29.092048 27574 net.cpp:425] conv2_1a <- conv1_conv1_relu_0_split_0
I0413 19:25:29.092063 27574 net.cpp:399] conv2_1a -> conv2_1a
I0413 19:25:29.094750 27574 net.cpp:141] Setting up conv2_1a
I0413 19:25:29.094764 27574 net.cpp:148] Top shape: 100 16 32 32 (1638400)
I0413 19:25:29.094770 27574 net.cpp:156] Memory required for data: 47105200
I0413 19:25:29.094786 27574 layer_factory.hpp:77] Creating layer bn_conv2_1a
I0413 19:25:29.094796 27574 net.cpp:91] Creating Layer bn_conv2_1a
I0413 19:25:29.094800 27574 net.cpp:425] bn_conv2_1a <- conv2_1a
I0413 19:25:29.094808 27574 net.cpp:386] bn_conv2_1a -> conv2_1a (in-place)
I0413 19:25:29.094967 27574 net.cpp:141] Setting up bn_conv2_1a
I0413 19:25:29.094974 27574 net.cpp:148] Top shape: 100 16 32 32 (1638400)
I0413 19:25:29.094980 27574 net.cpp:156] Memory required for data: 53658800
I0413 19:25:29.094986 27574 layer_factory.hpp:77] Creating layer scale_conv2_1a
I0413 19:25:29.094995 27574 net.cpp:91] Creating Layer scale_conv2_1a
I0413 19:25:29.095000 27574 net.cpp:425] scale_conv2_1a <- conv2_1a
I0413 19:25:29.095005 27574 net.cpp:386] scale_conv2_1a -> conv2_1a (in-place)
I0413 19:25:29.095038 27574 layer_factory.hpp:77] Creating layer scale_conv2_1a
I0413 19:25:29.095135 27574 net.cpp:141] Setting up scale_conv2_1a
I0413 19:25:29.095142 27574 net.cpp:148] Top shape: 100 16 32 32 (1638400)
I0413 19:25:29.095147 27574 net.cpp:156] Memory required for data: 60212400
I0413 19:25:29.095155 27574 layer_factory.hpp:77] Creating layer conv2_1a_relu
I0413 19:25:29.095160 27574 net.cpp:91] Creating Layer conv2_1a_relu
I0413 19:25:29.095163 27574 net.cpp:425] conv2_1a_relu <- conv2_1a
I0413 19:25:29.095172 27574 net.cpp:386] conv2_1a_relu -> conv2_1a (in-place)
I0413 19:25:29.095755 27574 net.cpp:141] Setting up conv2_1a_relu
I0413 19:25:29.095768 27574 net.cpp:148] Top shape: 100 16 32 32 (1638400)
I0413 19:25:29.095772 27574 net.cpp:156] Memory required for data: 66766000
I0413 19:25:29.095777 27574 layer_factory.hpp:77] Creating layer conv2_1b
I0413 19:25:29.095789 27574 net.cpp:91] Creating Layer conv2_1b
I0413 19:25:29.095793 27574 net.cpp:425] conv2_1b <- conv2_1a
I0413 19:25:29.095800 27574 net.cpp:399] conv2_1b -> conv2_1b
I0413 19:25:29.098520 27574 net.cpp:141] Setting up conv2_1b
I0413 19:25:29.098536 27574 net.cpp:148] Top shape: 100 16 32 32 (1638400)
I0413 19:25:29.098542 27574 net.cpp:156] Memory required for data: 73319600
I0413 19:25:29.098549 27574 layer_factory.hpp:77] Creating layer bn_conv2_1b
I0413 19:25:29.098559 27574 net.cpp:91] Creating Layer bn_conv2_1b
I0413 19:25:29.098564 27574 net.cpp:425] bn_conv2_1b <- conv2_1b
I0413 19:25:29.098575 27574 net.cpp:386] bn_conv2_1b -> conv2_1b (in-place)
I0413 19:25:29.098769 27574 net.cpp:141] Setting up bn_conv2_1b
I0413 19:25:29.098778 27574 net.cpp:148] Top shape: 100 16 32 32 (1638400)
I0413 19:25:29.098781 27574 net.cpp:156] Memory required for data: 79873200
I0413 19:25:29.098793 27574 layer_factory.hpp:77] Creating layer scale_conv2_1b
I0413 19:25:29.098800 27574 net.cpp:91] Creating Layer scale_conv2_1b
I0413 19:25:29.098804 27574 net.cpp:425] scale_conv2_1b <- conv2_1b
I0413 19:25:29.098809 27574 net.cpp:386] scale_conv2_1b -> conv2_1b (in-place)
I0413 19:25:29.098850 27574 layer_factory.hpp:77] Creating layer scale_conv2_1b
I0413 19:25:29.098948 27574 net.cpp:141] Setting up scale_conv2_1b
I0413 19:25:29.098961 27574 net.cpp:148] Top shape: 100 16 32 32 (1638400)
I0413 19:25:29.098973 27574 net.cpp:156] Memory required for data: 86426800
I0413 19:25:29.098980 27574 layer_factory.hpp:77] Creating layer conv2_1
I0413 19:25:29.098989 27574 net.cpp:91] Creating Layer conv2_1
I0413 19:25:29.098992 27574 net.cpp:425] conv2_1 <- conv2_1b
I0413 19:25:29.098999 27574 net.cpp:425] conv2_1 <- conv1_conv1_relu_0_split_1
I0413 19:25:29.099021 27574 net.cpp:399] conv2_1 -> conv2_1
I0413 19:25:29.099048 27574 net.cpp:141] Setting up conv2_1
I0413 19:25:29.099061 27574 net.cpp:148] Top shape: 100 16 32 32 (1638400)
I0413 19:25:29.099071 27574 net.cpp:156] Memory required for data: 92980400
I0413 19:25:29.099076 27574 layer_factory.hpp:77] Creating layer conv2_1_relu
I0413 19:25:29.099081 27574 net.cpp:91] Creating Layer conv2_1_relu
I0413 19:25:29.099086 27574 net.cpp:425] conv2_1_relu <- conv2_1
I0413 19:25:29.099092 27574 net.cpp:386] conv2_1_relu -> conv2_1 (in-place)
I0413 19:25:29.099587 27574 net.cpp:141] Setting up conv2_1_relu
I0413 19:25:29.099598 27574 net.cpp:148] Top shape: 100 16 32 32 (1638400)
I0413 19:25:29.099603 27574 net.cpp:156] Memory required for data: 99534000
I0413 19:25:29.099611 27574 layer_factory.hpp:77] Creating layer conv2_1_conv2_1_relu_0_split
I0413 19:25:29.099637 27574 net.cpp:91] Creating Layer conv2_1_conv2_1_relu_0_split
I0413 19:25:29.099643 27574 net.cpp:425] conv2_1_conv2_1_relu_0_split <- conv2_1
I0413 19:25:29.099652 27574 net.cpp:399] conv2_1_conv2_1_relu_0_split -> conv2_1_conv2_1_relu_0_split_0
I0413 19:25:29.099659 27574 net.cpp:399] conv2_1_conv2_1_relu_0_split -> conv2_1_conv2_1_relu_0_split_1
I0413 19:25:29.099710 27574 net.cpp:141] Setting up conv2_1_conv2_1_relu_0_split
I0413 19:25:29.099720 27574 net.cpp:148] Top shape: 100 16 32 32 (1638400)
I0413 19:25:29.099725 27574 net.cpp:148] Top shape: 100 16 32 32 (1638400)
I0413 19:25:29.099728 27574 net.cpp:156] Memory required for data: 112641200
I0413 19:25:29.099733 27574 layer_factory.hpp:77] Creating layer conv2_2a
I0413 19:25:29.099745 27574 net.cpp:91] Creating Layer conv2_2a
I0413 19:25:29.099753 27574 net.cpp:425] conv2_2a <- conv2_1_conv2_1_relu_0_split_0
I0413 19:25:29.099772 27574 net.cpp:399] conv2_2a -> conv2_2a
I0413 19:25:29.104251 27574 net.cpp:141] Setting up conv2_2a
I0413 19:25:29.104271 27574 net.cpp:148] Top shape: 100 16 32 32 (1638400)
I0413 19:25:29.104276 27574 net.cpp:156] Memory required for data: 119194800
I0413 19:25:29.104285 27574 layer_factory.hpp:77] Creating layer bn_conv2_2a
I0413 19:25:29.104292 27574 net.cpp:91] Creating Layer bn_conv2_2a
I0413 19:25:29.104297 27574 net.cpp:425] bn_conv2_2a <- conv2_2a
I0413 19:25:29.104305 27574 net.cpp:386] bn_conv2_2a -> conv2_2a (in-place)
I0413 19:25:29.104483 27574 net.cpp:141] Setting up bn_conv2_2a
I0413 19:25:29.104492 27574 net.cpp:148] Top shape: 100 16 32 32 (1638400)
I0413 19:25:29.104496 27574 net.cpp:156] Memory required for data: 125748400
I0413 19:25:29.104504 27574 layer_factory.hpp:77] Creating layer scale_conv2_2a
I0413 19:25:29.104511 27574 net.cpp:91] Creating Layer scale_conv2_2a
I0413 19:25:29.104533 27574 net.cpp:425] scale_conv2_2a <- conv2_2a
I0413 19:25:29.104539 27574 net.cpp:386] scale_conv2_2a -> conv2_2a (in-place)
I0413 19:25:29.104579 27574 layer_factory.hpp:77] Creating layer scale_conv2_2a
I0413 19:25:29.104687 27574 net.cpp:141] Setting up scale_conv2_2a
I0413 19:25:29.104708 27574 net.cpp:148] Top shape: 100 16 32 32 (1638400)
I0413 19:25:29.104712 27574 net.cpp:156] Memory required for data: 132302000
I0413 19:25:29.104719 27574 layer_factory.hpp:77] Creating layer conv2_2a_relu
I0413 19:25:29.104727 27574 net.cpp:91] Creating Layer conv2_2a_relu
I0413 19:25:29.104732 27574 net.cpp:425] conv2_2a_relu <- conv2_2a
I0413 19:25:29.104737 27574 net.cpp:386] conv2_2a_relu -> conv2_2a (in-place)
I0413 19:25:29.104900 27574 net.cpp:141] Setting up conv2_2a_relu
I0413 19:25:29.104923 27574 net.cpp:148] Top shape: 100 16 32 32 (1638400)
I0413 19:25:29.104926 27574 net.cpp:156] Memory required for data: 138855600
I0413 19:25:29.104931 27574 layer_factory.hpp:77] Creating layer conv2_2b
I0413 19:25:29.104943 27574 net.cpp:91] Creating Layer conv2_2b
I0413 19:25:29.104953 27574 net.cpp:425] conv2_2b <- conv2_2a
I0413 19:25:29.104970 27574 net.cpp:399] conv2_2b -> conv2_2b
I0413 19:25:29.107683 27574 net.cpp:141] Setting up conv2_2b
I0413 19:25:29.107699 27574 net.cpp:148] Top shape: 100 16 32 32 (1638400)
I0413 19:25:29.107703 27574 net.cpp:156] Memory required for data: 145409200
I0413 19:25:29.107734 27574 layer_factory.hpp:77] Creating layer bn_conv2_2b
I0413 19:25:29.107744 27574 net.cpp:91] Creating Layer bn_conv2_2b
I0413 19:25:29.107748 27574 net.cpp:425] bn_conv2_2b <- conv2_2b
I0413 19:25:29.107755 27574 net.cpp:386] bn_conv2_2b -> conv2_2b (in-place)
I0413 19:25:29.107933 27574 net.cpp:141] Setting up bn_conv2_2b
I0413 19:25:29.107941 27574 net.cpp:148] Top shape: 100 16 32 32 (1638400)
I0413 19:25:29.107946 27574 net.cpp:156] Memory required for data: 151962800
I0413 19:25:29.107959 27574 layer_factory.hpp:77] Creating layer scale_conv2_2b
I0413 19:25:29.107969 27574 net.cpp:91] Creating Layer scale_conv2_2b
I0413 19:25:29.107974 27574 net.cpp:425] scale_conv2_2b <- conv2_2b
I0413 19:25:29.107980 27574 net.cpp:386] scale_conv2_2b -> conv2_2b (in-place)
I0413 19:25:29.108021 27574 layer_factory.hpp:77] Creating layer scale_conv2_2b
I0413 19:25:29.108126 27574 net.cpp:141] Setting up scale_conv2_2b
I0413 19:25:29.108134 27574 net.cpp:148] Top shape: 100 16 32 32 (1638400)
I0413 19:25:29.108139 27574 net.cpp:156] Memory required for data: 158516400
I0413 19:25:29.108145 27574 layer_factory.hpp:77] Creating layer conv2_2
I0413 19:25:29.108160 27574 net.cpp:91] Creating Layer conv2_2
I0413 19:25:29.108165 27574 net.cpp:425] conv2_2 <- conv2_2b
I0413 19:25:29.108170 27574 net.cpp:425] conv2_2 <- conv2_1_conv2_1_relu_0_split_1
I0413 19:25:29.108176 27574 net.cpp:399] conv2_2 -> conv2_2
I0413 19:25:29.108201 27574 net.cpp:141] Setting up conv2_2
I0413 19:25:29.108211 27574 net.cpp:148] Top shape: 100 16 32 32 (1638400)
I0413 19:25:29.108214 27574 net.cpp:156] Memory required for data: 165070000
I0413 19:25:29.108218 27574 layer_factory.hpp:77] Creating layer conv2_2_relu
I0413 19:25:29.108225 27574 net.cpp:91] Creating Layer conv2_2_relu
I0413 19:25:29.108239 27574 net.cpp:425] conv2_2_relu <- conv2_2
I0413 19:25:29.108245 27574 net.cpp:386] conv2_2_relu -> conv2_2 (in-place)
I0413 19:25:29.108789 27574 net.cpp:141] Setting up conv2_2_relu
I0413 19:25:29.108803 27574 net.cpp:148] Top shape: 100 16 32 32 (1638400)
I0413 19:25:29.108808 27574 net.cpp:156] Memory required for data: 171623600
I0413 19:25:29.108813 27574 layer_factory.hpp:77] Creating layer global_pool
I0413 19:25:29.108819 27574 net.cpp:91] Creating Layer global_pool
I0413 19:25:29.108824 27574 net.cpp:425] global_pool <- conv2_2
I0413 19:25:29.108832 27574 net.cpp:399] global_pool -> global_pool
I0413 19:25:29.109905 27574 net.cpp:141] Setting up global_pool
I0413 19:25:29.109916 27574 net.cpp:148] Top shape: 100 16 4 4 (25600)
I0413 19:25:29.109920 27574 net.cpp:156] Memory required for data: 171726000
I0413 19:25:29.109925 27574 layer_factory.hpp:77] Creating layer ip
I0413 19:25:29.109935 27574 net.cpp:91] Creating Layer ip
I0413 19:25:29.109938 27574 net.cpp:425] ip <- global_pool
I0413 19:25:29.109944 27574 net.cpp:399] ip -> ip
I0413 19:25:29.110059 27574 net.cpp:141] Setting up ip
I0413 19:25:29.110072 27574 net.cpp:148] Top shape: 100 10 (1000)
I0413 19:25:29.110077 27574 net.cpp:156] Memory required for data: 171730000
I0413 19:25:29.110085 27574 layer_factory.hpp:77] Creating layer ip_ip_0_split
I0413 19:25:29.110091 27574 net.cpp:91] Creating Layer ip_ip_0_split
I0413 19:25:29.110095 27574 net.cpp:425] ip_ip_0_split <- ip
I0413 19:25:29.110101 27574 net.cpp:399] ip_ip_0_split -> ip_ip_0_split_0
I0413 19:25:29.110108 27574 net.cpp:399] ip_ip_0_split -> ip_ip_0_split_1
I0413 19:25:29.110146 27574 net.cpp:141] Setting up ip_ip_0_split
I0413 19:25:29.110152 27574 net.cpp:148] Top shape: 100 10 (1000)
I0413 19:25:29.110157 27574 net.cpp:148] Top shape: 100 10 (1000)
I0413 19:25:29.110162 27574 net.cpp:156] Memory required for data: 171738000
I0413 19:25:29.110165 27574 layer_factory.hpp:77] Creating layer accuracy
I0413 19:25:29.110172 27574 net.cpp:91] Creating Layer accuracy
I0413 19:25:29.110175 27574 net.cpp:425] accuracy <- ip_ip_0_split_0
I0413 19:25:29.110180 27574 net.cpp:425] accuracy <- label_cifar_1_split_0
I0413 19:25:29.110188 27574 net.cpp:399] accuracy -> accuracy
…
I0413 19:46:43.340001 17267 solver.cpp:91] Creating training net from net file: prototxt/DyResNet/ResNet-cifar2.prototxt
I0413 19:46:43.340723 17267 net.cpp:313] The NetState phase (0) differed from the phase (1) specified by a rule in layer cifar
I0413 19:46:43.340908 17267 net.cpp:49] Initializing net from parameters: 
name: "ResNet-cifar"
state {
  phase: TRAIN
}
layer {
  name: "cifar"
  type: "Data"
  top: "data"
  top: "label"
  include {
    phase: TRAIN
  }
  transform_param {
    mirror: true
    mean_file: "data/cifar10/mean.binaryproto"
  }
  data_param {
    source: "data/cifar10/cifar10_train_lmdb"
    batch_size: 256
    backend: LMDB
  }
}
layer {
  name: "conv1"
  type: "Convolution"
  bottom: "data"
  top: "conv1"
  param {
    lr_mult: 1
  }
  param {
    lr_mult: 2
  }
  convolution_param {
    num_output: 16
    pad: 1
    kernel_size: 3
    weight_filler {
      type: "msra"
    }
    bias_filler {
      type: "constant"
    }
  }
}
layer {
  name: "bn_conv1"
  type: "BatchNorm"
  bottom: "conv1"
  top: "conv1"
  param {
    lr_mult: 0
  }
  param {
    lr_mult: 0
  }
  param {
    lr_mult: 0
  }
}
layer {
  name: "scale_conv1"
  type: "Scale"
  bottom: "conv1"
  top: "conv1"
  scale_param {
    bias_term: true
  }
}
layer {
  name: "conv1_relu"
  type: "ReLU"
  bottom: "conv1"
  top: "conv1"
}
layer {
  name: "conv2_1a"
  type: "Convolution"
  bottom: "conv1"
  top: "conv2_1a"
  param {
    lr_mult: 1
  }
  param {
    lr_mult: 2
  }
  convolution_param {
    num_output: 16
    pad: 1
    kernel_size: 3
    stride: 1
    weight_filler {
      type: "msra"
    }
    bias_filler {
      type: "constant"
      value: 0
    }
  }
}
layer {
  name: "bn_conv2_1a"
  type: "BatchNorm"
  bottom: "conv2_1a"
  top: "conv2_1a"
  param {
    lr_mult: 0
  }
  param {
    lr_mult: 0
  }
  param {
    lr_mult: 0
  }
}
layer {
  name: "scale_conv2_1a"
  type: "Scale"
  bottom: "conv2_1a"
  top: "conv2_1a"
  scale_param {
    bias_term: true
  }
}
layer {
  name: "conv2_1a_relu"
  type: "ReLU"
  bottom: "conv2_1a"
  top: "conv2_1a"
}
layer {
  name: "conv2_1b"
  type: "Convolution"
  bottom: "conv2_1a"
  top: "conv2_1b"
  param {
    lr_mult: 1
  }
  param {
    lr_mult: 2
  }
  convolution_param {
    num_output: 16
    pad: 1
    kernel_size: 3
    stride: 1
    weight_filler {
      type: "msra"
    }
    bias_filler {
      type: "constant"
      value: 0
    }
  }
}
layer {
  name: "bn_conv2_1b"
  type: "BatchNorm"
  bottom: "conv2_1b"
  top: "conv2_1b"
  param {
    lr_mult: 0
  }
  param {
    lr_mult: 0
  }
  param {
    lr_mult: 0
  }
}
layer {
  name: "scale_conv2_1b"
  type: "Scale"
  bottom: "conv2_1b"
  top: "conv2_1b"
  scale_param {
    bias_term: true
  }
}
layer {
  name: "conv2_1"
  type: "Eltwise"
  bottom: "conv2_1b"
  bottom: "conv1"
  top: "conv2_1"
}
layer {
  name: "conv2_1_relu"
  type: "ReLU"
  bottom: "conv2_1"
  top: "conv2_1"
}
layer {
  name: "conv2_2a"
  type: "Convolution"
  bottom: "conv2_1"
  top: "conv2_2a"
  param {
    lr_mult: 1
  }
  param {
    lr_mult: 2
  }
  convolution_param {
    num_output: 16
    pad: 1
    kernel_size: 3
    stride: 1
    weight_filler {
      type: "msra"
    }
    bias_filler {
      type: "constant"
      value: 0
    }
  }
}
layer {
  name: "bn_conv2_2a"
  type: "BatchNorm"
  bottom: "conv2_2a"
  top: "conv2_2a"
  param {
    lr_mult: 0
  }
  param {
    lr_mult: 0
  }
  param {
    lr_mult: 0
  }
}
layer {
  name: "scale_conv2_2a"
  type: "Scale"
  bottom: "conv2_2a"
  top: "conv2_2a"
  scale_param {
    bias_term: true
  }
}
layer {
  name: "conv2_2a_relu"
  type: "ReLU"
  bottom: "conv2_2a"
  top: "conv2_2a"
}
layer {
  name: "conv2_2b"
  type: "Convolution"
  bottom: "conv2_2a"
  top: "conv2_2b"
  param {
    lr_mult: 1
  }
  param {
    lr_mult: 2
  }
  convolution_param {
    num_output: 16
    pad: 1
    kernel_size: 3
    stride: 1
    weight_filler {
      type: "msra"
    }
    bias_filler {
      type: "constant"
      value: 0
    }
  }
}
layer {
  name: "bn_conv2_2b"
  type: "BatchNorm"
  bottom: "conv2_2b"
  top: "conv2_2b"
  param {
    lr_mult: 0
  }
  param {
    lr_mult: 0
  }
  param {
    lr_mult: 0
  }
}
layer {
  name: "scale_conv2_2b"
  type: "Scale"
  bottom: "conv2_2b"
  top: "conv2_2b"
  scale_param {
    bias_term: true
  }
}
layer {
  name: "conv2_2"
  type: "Eltwise"
  bottom: "conv2_2b"
  bottom: "conv2_1"
  top: "conv2_2"
}
layer {
  name: "conv2_2_relu"
  type: "ReLU"
  bottom: "conv2_2"
  top: "conv2_2"
}
layer {
  name: "conv2_3a"
  type: "Convolution"
  bottom: "conv2_2"
  top: "conv2_3a"
  param {
    lr_mult: 1
  }
  param {
    lr_mult: 2
  }
  convolution_param {
    num_output: 16
    pad: 1
    kernel_size: 3
    stride: 1
    weight_filler {
      type: "msra"
    }
    bias_filler {
      type: "constant"
      value: 0
    }
  }
}
layer {
  name: "bn_conv2_3a"
  type: "BatchNorm"
  bottom: "conv2_3a"
  top: "conv2_3a"
  param {
    lr_mult: 0
  }
  param {
    lr_mult: 0
  }
  param {
    lr_mult: 0
  }
}
layer {
  name: "scale_conv2_3a"
  type: "Scale"
  bottom: "conv2_3a"
  top: "conv2_3a"
  scale_param {
    bias_term: true
  }
}
layer {
  name: "conv2_3a_relu"
  type: "ReLU"
  bottom: "conv2_3a"
  top: "conv2_3a"
}
layer {
  name: "conv2_3b"
  type: "Convolution"
  bottom: "conv2_3a"
  top: "conv2_3b"
  param {
    lr_mult: 1
  }
  param {
    lr_mult: 2
  }
  convolution_param {
    num_output: 16
    pad: 1
    kernel_size: 3
    stride: 1
    weight_filler {
      type: "msra"
    }
    bias_filler {
      type: "constant"
      value: 0
    }
  }
}
layer {
  name: "bn_conv2_3b"
  type: "BatchNorm"
  bottom: "conv2_3b"
  top: "conv2_3b"
  param {
    lr_mult: 0
  }
  param {
    lr_mult: 0
  }
  param {
    lr_mult: 0
  }
}
layer {
  name: "scale_conv2_3b"
  type: "Scale"
  bottom: "conv2_3b"
  top: "conv2_3b"
  scale_param {
    bias_term: true
  }
}
layer {
  name: "conv2_3"
  type: "Eltwise"
  bottom: "conv2_3b"
  bottom: "conv2_2"
  top: "conv2_3"
}
layer {
  name: "conv2_3_relu"
  type: "ReLU"
  bottom: "conv2_3"
  top: "conv2_3"
}
layer {
  name: "global_pool"
  type: "Pooling"
  bottom: "conv2_3"
  top: "global_pool"
  pooling_param {
    pool: AVE
    kernel_size: 8
    stride: 8
  }
}
layer {
  name: "ip"
  type: "InnerProduct"
  bottom: "global_pool"
  top: "ip"
  inner_product_param {
    num_output: 10
  }
}
layer {
  name: "accuracy"
  type: "Accuracy"
  bottom: "ip"
  bottom: "label"
  top: "accuracy"
}
layer {
  name: "loss"
  type: "SoftmaxWithLoss"
  bottom: "ip"
  bottom: "label"
  top: "loss"
}
I0413 19:46:43.341076 17267 layer_factory.hpp:77] Creating layer cifar
I0413 19:46:43.341990 17267 net.cpp:91] Creating Layer cifar
I0413 19:46:43.342023 17267 net.cpp:399] cifar -> data
I0413 19:46:43.342039 17267 net.cpp:399] cifar -> label
I0413 19:46:43.342056 17267 data_transformer.cpp:25] Loading mean file from: data/cifar10/mean.binaryproto
I0413 19:46:43.345273 17316 db_lmdb.cpp:38] Opened lmdb data/cifar10/cifar10_train_lmdb
I0413 19:46:43.386059 17267 data_layer.cpp:41] output data size: 256,3,32,32
I0413 19:46:43.394515 17267 net.cpp:141] Setting up cifar
I0413 19:46:43.394539 17267 net.cpp:148] Top shape: 256 3 32 32 (786432)
I0413 19:46:43.394546 17267 net.cpp:148] Top shape: 256 (256)
I0413 19:46:43.394549 17267 net.cpp:156] Memory required for data: 3146752
I0413 19:46:43.394556 17267 layer_factory.hpp:77] Creating layer label_cifar_1_split
I0413 19:46:43.394572 17267 net.cpp:91] Creating Layer label_cifar_1_split
I0413 19:46:43.394578 17267 net.cpp:425] label_cifar_1_split <- label
I0413 19:46:43.394601 17267 net.cpp:399] label_cifar_1_split -> label_cifar_1_split_0
I0413 19:46:43.394614 17267 net.cpp:399] label_cifar_1_split -> label_cifar_1_split_1
I0413 19:46:43.394683 17267 net.cpp:141] Setting up label_cifar_1_split
I0413 19:46:43.394692 17267 net.cpp:148] Top shape: 256 (256)
I0413 19:46:43.394697 17267 net.cpp:148] Top shape: 256 (256)
I0413 19:46:43.394701 17267 net.cpp:156] Memory required for data: 3148800
I0413 19:46:43.394704 17267 layer_factory.hpp:77] Creating layer conv1
I0413 19:46:43.394724 17267 net.cpp:91] Creating Layer conv1
I0413 19:46:43.394729 17267 net.cpp:425] conv1 <- data
I0413 19:46:43.394737 17267 net.cpp:399] conv1 -> conv1
I0413 19:46:43.646474 17267 net.cpp:141] Setting up conv1
I0413 19:46:43.646517 17267 net.cpp:148] Top shape: 256 16 32 32 (4194304)
I0413 19:46:43.646522 17267 net.cpp:156] Memory required for data: 19926016
I0413 19:46:43.646538 17267 layer_factory.hpp:77] Creating layer bn_conv1
I0413 19:46:43.646551 17267 net.cpp:91] Creating Layer bn_conv1
I0413 19:46:43.646558 17267 net.cpp:425] bn_conv1 <- conv1
I0413 19:46:43.646565 17267 net.cpp:386] bn_conv1 -> conv1 (in-place)
I0413 19:46:43.646713 17267 net.cpp:141] Setting up bn_conv1
I0413 19:46:43.646721 17267 net.cpp:148] Top shape: 256 16 32 32 (4194304)
I0413 19:46:43.646725 17267 net.cpp:156] Memory required for data: 36703232
I0413 19:46:43.646735 17267 layer_factory.hpp:77] Creating layer scale_conv1
I0413 19:46:43.646745 17267 net.cpp:91] Creating Layer scale_conv1
I0413 19:46:43.646749 17267 net.cpp:425] scale_conv1 <- conv1
I0413 19:46:43.646755 17267 net.cpp:386] scale_conv1 -> conv1 (in-place)
I0413 19:46:43.646787 17267 layer_factory.hpp:77] Creating layer scale_conv1
I0413 19:46:43.646872 17267 net.cpp:141] Setting up scale_conv1
I0413 19:46:43.646878 17267 net.cpp:148] Top shape: 256 16 32 32 (4194304)
I0413 19:46:43.646881 17267 net.cpp:156] Memory required for data: 53480448
I0413 19:46:43.646888 17267 layer_factory.hpp:77] Creating layer conv1_relu
I0413 19:46:43.646895 17267 net.cpp:91] Creating Layer conv1_relu
I0413 19:46:43.646899 17267 net.cpp:425] conv1_relu <- conv1
I0413 19:46:43.646904 17267 net.cpp:386] conv1_relu -> conv1 (in-place)
I0413 19:46:43.647513 17267 net.cpp:141] Setting up conv1_relu
I0413 19:46:43.647526 17267 net.cpp:148] Top shape: 256 16 32 32 (4194304)
I0413 19:46:43.647531 17267 net.cpp:156] Memory required for data: 70257664
I0413 19:46:43.647534 17267 layer_factory.hpp:77] Creating layer conv1_conv1_relu_0_split
I0413 19:46:43.647541 17267 net.cpp:91] Creating Layer conv1_conv1_relu_0_split
I0413 19:46:43.647546 17267 net.cpp:425] conv1_conv1_relu_0_split <- conv1
I0413 19:46:43.647552 17267 net.cpp:399] conv1_conv1_relu_0_split -> conv1_conv1_relu_0_split_0
I0413 19:46:43.647560 17267 net.cpp:399] conv1_conv1_relu_0_split -> conv1_conv1_relu_0_split_1
I0413 19:46:43.647593 17267 net.cpp:141] Setting up conv1_conv1_relu_0_split
I0413 19:46:43.647599 17267 net.cpp:148] Top shape: 256 16 32 32 (4194304)
I0413 19:46:43.647604 17267 net.cpp:148] Top shape: 256 16 32 32 (4194304)
I0413 19:46:43.647608 17267 net.cpp:156] Memory required for data: 103812096
I0413 19:46:43.647611 17267 layer_factory.hpp:77] Creating layer conv2_1a
I0413 19:46:43.647630 17267 net.cpp:91] Creating Layer conv2_1a
I0413 19:46:43.647635 17267 net.cpp:425] conv2_1a <- conv1_conv1_relu_0_split_0
I0413 19:46:43.647641 17267 net.cpp:399] conv2_1a -> conv2_1a
I0413 19:46:43.651026 17267 net.cpp:141] Setting up conv2_1a
I0413 19:46:43.651041 17267 net.cpp:148] Top shape: 256 16 32 32 (4194304)
I0413 19:46:43.651044 17267 net.cpp:156] Memory required for data: 120589312
I0413 19:46:43.651054 17267 layer_factory.hpp:77] Creating layer bn_conv2_1a
I0413 19:46:43.651063 17267 net.cpp:91] Creating Layer bn_conv2_1a
I0413 19:46:43.651067 17267 net.cpp:425] bn_conv2_1a <- conv2_1a
I0413 19:46:43.651073 17267 net.cpp:386] bn_conv2_1a -> conv2_1a (in-place)
I0413 19:46:43.651212 17267 net.cpp:141] Setting up bn_conv2_1a
I0413 19:46:43.651219 17267 net.cpp:148] Top shape: 256 16 32 32 (4194304)
I0413 19:46:43.651223 17267 net.cpp:156] Memory required for data: 137366528
I0413 19:46:43.651231 17267 layer_factory.hpp:77] Creating layer scale_conv2_1a
I0413 19:46:43.651237 17267 net.cpp:91] Creating Layer scale_conv2_1a
I0413 19:46:43.651242 17267 net.cpp:425] scale_conv2_1a <- conv2_1a
I0413 19:46:43.651247 17267 net.cpp:386] scale_conv2_1a -> conv2_1a (in-place)
I0413 19:46:43.651274 17267 layer_factory.hpp:77] Creating layer scale_conv2_1a
I0413 19:46:43.651353 17267 net.cpp:141] Setting up scale_conv2_1a
I0413 19:46:43.651360 17267 net.cpp:148] Top shape: 256 16 32 32 (4194304)
I0413 19:46:43.651365 17267 net.cpp:156] Memory required for data: 154143744
I0413 19:46:43.651371 17267 layer_factory.hpp:77] Creating layer conv2_1a_relu
I0413 19:46:43.651376 17267 net.cpp:91] Creating Layer conv2_1a_relu
I0413 19:46:43.651381 17267 net.cpp:425] conv2_1a_relu <- conv2_1a
I0413 19:46:43.651386 17267 net.cpp:386] conv2_1a_relu -> conv2_1a (in-place)
I0413 19:46:43.652096 17267 net.cpp:141] Setting up conv2_1a_relu
I0413 19:46:43.652107 17267 net.cpp:148] Top shape: 256 16 32 32 (4194304)
I0413 19:46:43.652112 17267 net.cpp:156] Memory required for data: 170920960
I0413 19:46:43.652117 17267 layer_factory.hpp:77] Creating layer conv2_1b
I0413 19:46:43.652125 17267 net.cpp:91] Creating Layer conv2_1b
I0413 19:46:43.652130 17267 net.cpp:425] conv2_1b <- conv2_1a
I0413 19:46:43.652137 17267 net.cpp:399] conv2_1b -> conv2_1b
I0413 19:46:43.655493 17267 net.cpp:141] Setting up conv2_1b
I0413 19:46:43.655508 17267 net.cpp:148] Top shape: 256 16 32 32 (4194304)
I0413 19:46:43.655513 17267 net.cpp:156] Memory required for data: 187698176
I0413 19:46:43.655519 17267 layer_factory.hpp:77] Creating layer bn_conv2_1b
I0413 19:46:43.655527 17267 net.cpp:91] Creating Layer bn_conv2_1b
I0413 19:46:43.655531 17267 net.cpp:425] bn_conv2_1b <- conv2_1b
I0413 19:46:43.655537 17267 net.cpp:386] bn_conv2_1b -> conv2_1b (in-place)
I0413 19:46:43.655675 17267 net.cpp:141] Setting up bn_conv2_1b
I0413 19:46:43.655683 17267 net.cpp:148] Top shape: 256 16 32 32 (4194304)
I0413 19:46:43.655686 17267 net.cpp:156] Memory required for data: 204475392
I0413 19:46:43.655696 17267 layer_factory.hpp:77] Creating layer scale_conv2_1b
I0413 19:46:43.655702 17267 net.cpp:91] Creating Layer scale_conv2_1b
I0413 19:46:43.655706 17267 net.cpp:425] scale_conv2_1b <- conv2_1b
I0413 19:46:43.655711 17267 net.cpp:386] scale_conv2_1b -> conv2_1b (in-place)
I0413 19:46:43.655740 17267 layer_factory.hpp:77] Creating layer scale_conv2_1b
I0413 19:46:43.655822 17267 net.cpp:141] Setting up scale_conv2_1b
I0413 19:46:43.655828 17267 net.cpp:148] Top shape: 256 16 32 32 (4194304)
I0413 19:46:43.655833 17267 net.cpp:156] Memory required for data: 221252608
I0413 19:46:43.655838 17267 layer_factory.hpp:77] Creating layer conv2_1
I0413 19:46:43.655844 17267 net.cpp:91] Creating Layer conv2_1
I0413 19:46:43.655848 17267 net.cpp:425] conv2_1 <- conv2_1b
I0413 19:46:43.655853 17267 net.cpp:425] conv2_1 <- conv1_conv1_relu_0_split_1
I0413 19:46:43.655858 17267 net.cpp:399] conv2_1 -> conv2_1
I0413 19:46:43.655879 17267 net.cpp:141] Setting up conv2_1
I0413 19:46:43.655885 17267 net.cpp:148] Top shape: 256 16 32 32 (4194304)
I0413 19:46:43.655895 17267 net.cpp:156] Memory required for data: 238029824
I0413 19:46:43.655900 17267 layer_factory.hpp:77] Creating layer conv2_1_relu
I0413 19:46:43.655906 17267 net.cpp:91] Creating Layer conv2_1_relu
I0413 19:46:43.655910 17267 net.cpp:425] conv2_1_relu <- conv2_1
I0413 19:46:43.655915 17267 net.cpp:386] conv2_1_relu -> conv2_1 (in-place)
I0413 19:46:43.656054 17267 net.cpp:141] Setting up conv2_1_relu
I0413 19:46:43.656064 17267 net.cpp:148] Top shape: 256 16 32 32 (4194304)
I0413 19:46:43.656067 17267 net.cpp:156] Memory required for data: 254807040
I0413 19:46:43.656070 17267 layer_factory.hpp:77] Creating layer conv2_1_conv2_1_relu_0_split
I0413 19:46:43.656078 17267 net.cpp:91] Creating Layer conv2_1_conv2_1_relu_0_split
I0413 19:46:43.656082 17267 net.cpp:425] conv2_1_conv2_1_relu_0_split <- conv2_1
I0413 19:46:43.656087 17267 net.cpp:399] conv2_1_conv2_1_relu_0_split -> conv2_1_conv2_1_relu_0_split_0
I0413 19:46:43.656095 17267 net.cpp:399] conv2_1_conv2_1_relu_0_split -> conv2_1_conv2_1_relu_0_split_1
I0413 19:46:43.656126 17267 net.cpp:141] Setting up conv2_1_conv2_1_relu_0_split
I0413 19:46:43.656131 17267 net.cpp:148] Top shape: 256 16 32 32 (4194304)
I0413 19:46:43.656136 17267 net.cpp:148] Top shape: 256 16 32 32 (4194304)
I0413 19:46:43.656139 17267 net.cpp:156] Memory required for data: 288361472
I0413 19:46:43.656143 17267 layer_factory.hpp:77] Creating layer conv2_2a
I0413 19:46:43.656152 17267 net.cpp:91] Creating Layer conv2_2a
I0413 19:46:43.656157 17267 net.cpp:425] conv2_2a <- conv2_1_conv2_1_relu_0_split_0
I0413 19:46:43.656163 17267 net.cpp:399] conv2_2a -> conv2_2a
I0413 19:46:43.659253 17267 net.cpp:141] Setting up conv2_2a
I0413 19:46:43.659268 17267 net.cpp:148] Top shape: 256 16 32 32 (4194304)
I0413 19:46:43.659273 17267 net.cpp:156] Memory required for data: 305138688
I0413 19:46:43.659281 17267 layer_factory.hpp:77] Creating layer bn_conv2_2a
I0413 19:46:43.659287 17267 net.cpp:91] Creating Layer bn_conv2_2a
I0413 19:46:43.659292 17267 net.cpp:425] bn_conv2_2a <- conv2_2a
I0413 19:46:43.659298 17267 net.cpp:386] bn_conv2_2a -> conv2_2a (in-place)
I0413 19:46:43.659440 17267 net.cpp:141] Setting up bn_conv2_2a
I0413 19:46:43.659447 17267 net.cpp:148] Top shape: 256 16 32 32 (4194304)
I0413 19:46:43.659451 17267 net.cpp:156] Memory required for data: 321915904
I0413 19:46:43.659458 17267 layer_factory.hpp:77] Creating layer scale_conv2_2a
I0413 19:46:43.659464 17267 net.cpp:91] Creating Layer scale_conv2_2a
I0413 19:46:43.659468 17267 net.cpp:425] scale_conv2_2a <- conv2_2a
I0413 19:46:43.659473 17267 net.cpp:386] scale_conv2_2a -> conv2_2a (in-place)
I0413 19:46:43.659502 17267 layer_factory.hpp:77] Creating layer scale_conv2_2a
I0413 19:46:43.659584 17267 net.cpp:141] Setting up scale_conv2_2a
I0413 19:46:43.659591 17267 net.cpp:148] Top shape: 256 16 32 32 (4194304)
I0413 19:46:43.659595 17267 net.cpp:156] Memory required for data: 338693120
I0413 19:46:43.659601 17267 layer_factory.hpp:77] Creating layer conv2_2a_relu
I0413 19:46:43.659607 17267 net.cpp:91] Creating Layer conv2_2a_relu
I0413 19:46:43.659611 17267 net.cpp:425] conv2_2a_relu <- conv2_2a
I0413 19:46:43.659616 17267 net.cpp:386] conv2_2a_relu -> conv2_2a (in-place)
I0413 19:46:43.660353 17267 net.cpp:141] Setting up conv2_2a_relu
I0413 19:46:43.660367 17267 net.cpp:148] Top shape: 256 16 32 32 (4194304)
I0413 19:46:43.660370 17267 net.cpp:156] Memory required for data: 355470336
I0413 19:46:43.660374 17267 layer_factory.hpp:77] Creating layer conv2_2b
I0413 19:46:43.660384 17267 net.cpp:91] Creating Layer conv2_2b
I0413 19:46:43.660388 17267 net.cpp:425] conv2_2b <- conv2_2a
I0413 19:46:43.660395 17267 net.cpp:399] conv2_2b -> conv2_2b
I0413 19:46:43.663892 17267 net.cpp:141] Setting up conv2_2b
I0413 19:46:43.663907 17267 net.cpp:148] Top shape: 256 16 32 32 (4194304)
I0413 19:46:43.663910 17267 net.cpp:156] Memory required for data: 372247552
I0413 19:46:43.663918 17267 layer_factory.hpp:77] Creating layer bn_conv2_2b
I0413 19:46:43.663925 17267 net.cpp:91] Creating Layer bn_conv2_2b
I0413 19:46:43.663934 17267 net.cpp:425] bn_conv2_2b <- conv2_2b
I0413 19:46:43.663944 17267 net.cpp:386] bn_conv2_2b -> conv2_2b (in-place)
I0413 19:46:43.664089 17267 net.cpp:141] Setting up bn_conv2_2b
I0413 19:46:43.664098 17267 net.cpp:148] Top shape: 256 16 32 32 (4194304)
I0413 19:46:43.664101 17267 net.cpp:156] Memory required for data: 389024768
I0413 19:46:43.664113 17267 layer_factory.hpp:77] Creating layer scale_conv2_2b
I0413 19:46:43.664119 17267 net.cpp:91] Creating Layer scale_conv2_2b
I0413 19:46:43.664124 17267 net.cpp:425] scale_conv2_2b <- conv2_2b
I0413 19:46:43.664129 17267 net.cpp:386] scale_conv2_2b -> conv2_2b (in-place)
I0413 19:46:43.664161 17267 layer_factory.hpp:77] Creating layer scale_conv2_2b
I0413 19:46:43.664255 17267 net.cpp:141] Setting up scale_conv2_2b
I0413 19:46:43.664263 17267 net.cpp:148] Top shape: 256 16 32 32 (4194304)
I0413 19:46:43.664266 17267 net.cpp:156] Memory required for data: 405801984
I0413 19:46:43.664273 17267 layer_factory.hpp:77] Creating layer conv2_2
I0413 19:46:43.664279 17267 net.cpp:91] Creating Layer conv2_2
I0413 19:46:43.664283 17267 net.cpp:425] conv2_2 <- conv2_2b
I0413 19:46:43.664288 17267 net.cpp:425] conv2_2 <- conv2_1_conv2_1_relu_0_split_1
I0413 19:46:43.664294 17267 net.cpp:399] conv2_2 -> conv2_2
I0413 19:46:43.664315 17267 net.cpp:141] Setting up conv2_2
I0413 19:46:43.664321 17267 net.cpp:148] Top shape: 256 16 32 32 (4194304)
I0413 19:46:43.664325 17267 net.cpp:156] Memory required for data: 422579200
I0413 19:46:43.664330 17267 layer_factory.hpp:77] Creating layer conv2_2_relu
I0413 19:46:43.664336 17267 net.cpp:91] Creating Layer conv2_2_relu
I0413 19:46:43.664341 17267 net.cpp:425] conv2_2_relu <- conv2_2
I0413 19:46:43.664345 17267 net.cpp:386] conv2_2_relu -> conv2_2 (in-place)
I0413 19:46:43.664971 17267 net.cpp:141] Setting up conv2_2_relu
I0413 19:46:43.664984 17267 net.cpp:148] Top shape: 256 16 32 32 (4194304)
I0413 19:46:43.664988 17267 net.cpp:156] Memory required for data: 439356416
I0413 19:46:43.664993 17267 layer_factory.hpp:77] Creating layer conv2_2_conv2_2_relu_0_split
I0413 19:46:43.664999 17267 net.cpp:91] Creating Layer conv2_2_conv2_2_relu_0_split
I0413 19:46:43.665004 17267 net.cpp:425] conv2_2_conv2_2_relu_0_split <- conv2_2
I0413 19:46:43.665010 17267 net.cpp:399] conv2_2_conv2_2_relu_0_split -> conv2_2_conv2_2_relu_0_split_0
I0413 19:46:43.665019 17267 net.cpp:399] conv2_2_conv2_2_relu_0_split -> conv2_2_conv2_2_relu_0_split_1
I0413 19:46:43.665057 17267 net.cpp:141] Setting up conv2_2_conv2_2_relu_0_split
I0413 19:46:43.665065 17267 net.cpp:148] Top shape: 256 16 32 32 (4194304)
I0413 19:46:43.665069 17267 net.cpp:148] Top shape: 256 16 32 32 (4194304)
I0413 19:46:43.665073 17267 net.cpp:156] Memory required for data: 472910848
I0413 19:46:43.665076 17267 layer_factory.hpp:77] Creating layer conv2_3a
I0413 19:46:43.665088 17267 net.cpp:91] Creating Layer conv2_3a
I0413 19:46:43.665092 17267 net.cpp:425] conv2_3a <- conv2_2_conv2_2_relu_0_split_0
I0413 19:46:43.665101 17267 net.cpp:399] conv2_3a -> conv2_3a
I0413 19:46:43.668472 17267 net.cpp:141] Setting up conv2_3a
I0413 19:46:43.668485 17267 net.cpp:148] Top shape: 256 16 32 32 (4194304)
I0413 19:46:43.668489 17267 net.cpp:156] Memory required for data: 489688064
I0413 19:46:43.668496 17267 layer_factory.hpp:77] Creating layer bn_conv2_3a
I0413 19:46:43.668503 17267 net.cpp:91] Creating Layer bn_conv2_3a
I0413 19:46:43.668509 17267 net.cpp:425] bn_conv2_3a <- conv2_3a
I0413 19:46:43.668516 17267 net.cpp:386] bn_conv2_3a -> conv2_3a (in-place)
I0413 19:46:43.668674 17267 net.cpp:141] Setting up bn_conv2_3a
I0413 19:46:43.668683 17267 net.cpp:148] Top shape: 256 16 32 32 (4194304)
I0413 19:46:43.668685 17267 net.cpp:156] Memory required for data: 506465280
I0413 19:46:43.668694 17267 layer_factory.hpp:77] Creating layer scale_conv2_3a
I0413 19:46:43.668699 17267 net.cpp:91] Creating Layer scale_conv2_3a
I0413 19:46:43.668704 17267 net.cpp:425] scale_conv2_3a <- conv2_3a
I0413 19:46:43.668710 17267 net.cpp:386] scale_conv2_3a -> conv2_3a (in-place)
I0413 19:46:43.668745 17267 layer_factory.hpp:77] Creating layer scale_conv2_3a
I0413 19:46:43.668838 17267 net.cpp:141] Setting up scale_conv2_3a
I0413 19:46:43.668844 17267 net.cpp:148] Top shape: 256 16 32 32 (4194304)
I0413 19:46:43.668848 17267 net.cpp:156] Memory required for data: 523242496
I0413 19:46:43.668854 17267 layer_factory.hpp:77] Creating layer conv2_3a_relu
I0413 19:46:43.668860 17267 net.cpp:91] Creating Layer conv2_3a_relu
I0413 19:46:43.668866 17267 net.cpp:425] conv2_3a_relu <- conv2_3a
I0413 19:46:43.668871 17267 net.cpp:386] conv2_3a_relu -> conv2_3a (in-place)
I0413 19:46:43.669620 17267 net.cpp:141] Setting up conv2_3a_relu
I0413 19:46:43.669631 17267 net.cpp:148] Top shape: 256 16 32 32 (4194304)
I0413 19:46:43.669634 17267 net.cpp:156] Memory required for data: 540019712
I0413 19:46:43.669638 17267 layer_factory.hpp:77] Creating layer conv2_3b
I0413 19:46:43.669649 17267 net.cpp:91] Creating Layer conv2_3b
I0413 19:46:43.669654 17267 net.cpp:425] conv2_3b <- conv2_3a
I0413 19:46:43.669662 17267 net.cpp:399] conv2_3b -> conv2_3b
I0413 19:46:43.671879 17267 net.cpp:141] Setting up conv2_3b
I0413 19:46:43.671893 17267 net.cpp:148] Top shape: 256 16 32 32 (4194304)
I0413 19:46:43.671897 17267 net.cpp:156] Memory required for data: 556796928
I0413 19:46:43.671905 17267 layer_factory.hpp:77] Creating layer bn_conv2_3b
I0413 19:46:43.671933 17267 net.cpp:91] Creating Layer bn_conv2_3b
I0413 19:46:43.671938 17267 net.cpp:425] bn_conv2_3b <- conv2_3b
I0413 19:46:43.671947 17267 net.cpp:386] bn_conv2_3b -> conv2_3b (in-place)
I0413 19:46:43.672113 17267 net.cpp:141] Setting up bn_conv2_3b
I0413 19:46:43.672121 17267 net.cpp:148] Top shape: 256 16 32 32 (4194304)
I0413 19:46:43.672124 17267 net.cpp:156] Memory required for data: 573574144
I0413 19:46:43.672132 17267 layer_factory.hpp:77] Creating layer scale_conv2_3b
I0413 19:46:43.672139 17267 net.cpp:91] Creating Layer scale_conv2_3b
I0413 19:46:43.672144 17267 net.cpp:425] scale_conv2_3b <- conv2_3b
I0413 19:46:43.672149 17267 net.cpp:386] scale_conv2_3b -> conv2_3b (in-place)
I0413 19:46:43.672186 17267 layer_factory.hpp:77] Creating layer scale_conv2_3b
I0413 19:46:43.672281 17267 net.cpp:141] Setting up scale_conv2_3b
I0413 19:46:43.672288 17267 net.cpp:148] Top shape: 256 16 32 32 (4194304)
I0413 19:46:43.672292 17267 net.cpp:156] Memory required for data: 590351360
I0413 19:46:43.672298 17267 layer_factory.hpp:77] Creating layer conv2_3
I0413 19:46:43.672303 17267 net.cpp:91] Creating Layer conv2_3
I0413 19:46:43.672307 17267 net.cpp:425] conv2_3 <- conv2_3b
I0413 19:46:43.672312 17267 net.cpp:425] conv2_3 <- conv2_2_conv2_2_relu_0_split_1
I0413 19:46:43.672319 17267 net.cpp:399] conv2_3 -> conv2_3
I0413 19:46:43.672340 17267 net.cpp:141] Setting up conv2_3
I0413 19:46:43.672349 17267 net.cpp:148] Top shape: 256 16 32 32 (4194304)
I0413 19:46:43.672353 17267 net.cpp:156] Memory required for data: 607128576
I0413 19:46:43.672358 17267 layer_factory.hpp:77] Creating layer conv2_3_relu
I0413 19:46:43.672363 17267 net.cpp:91] Creating Layer conv2_3_relu
I0413 19:46:43.672368 17267 net.cpp:425] conv2_3_relu <- conv2_3
I0413 19:46:43.672372 17267 net.cpp:386] conv2_3_relu -> conv2_3 (in-place)
I0413 19:46:43.672621 17267 net.cpp:141] Setting up conv2_3_relu
I0413 19:46:43.672633 17267 net.cpp:148] Top shape: 256 16 32 32 (4194304)
I0413 19:46:43.672637 17267 net.cpp:156] Memory required for data: 623905792
I0413 19:46:43.672641 17267 layer_factory.hpp:77] Creating layer global_pool
I0413 19:46:43.672648 17267 net.cpp:91] Creating Layer global_pool
I0413 19:46:43.672653 17267 net.cpp:425] global_pool <- conv2_3
I0413 19:46:43.672662 17267 net.cpp:399] global_pool -> global_pool
I0413 19:46:43.673197 17267 net.cpp:141] Setting up global_pool
I0413 19:46:43.673209 17267 net.cpp:148] Top shape: 256 16 4 4 (65536)
I0413 19:46:43.673213 17267 net.cpp:156] Memory required for data: 624167936
I0413 19:46:43.673216 17267 layer_factory.hpp:77] Creating layer ip
I0413 19:46:43.673225 17267 net.cpp:91] Creating Layer ip
I0413 19:46:43.673230 17267 net.cpp:425] ip <- global_pool
I0413 19:46:43.673241 17267 net.cpp:399] ip -> ip
I0413 19:46:43.673339 17267 net.cpp:141] Setting up ip
I0413 19:46:43.673346 17267 net.cpp:148] Top shape: 256 10 (2560)
I0413 19:46:43.673351 17267 net.cpp:156] Memory required for data: 624178176
I0413 19:46:43.673357 17267 layer_factory.hpp:77] Creating layer ip_ip_0_split
I0413 19:46:43.673364 17267 net.cpp:91] Creating Layer ip_ip_0_split
I0413 19:46:43.673368 17267 net.cpp:425] ip_ip_0_split <- ip
I0413 19:46:43.673374 17267 net.cpp:399] ip_ip_0_split -> ip_ip_0_split_0
I0413 19:46:43.673380 17267 net.cpp:399] ip_ip_0_split -> ip_ip_0_split_1
I0413 19:46:43.673411 17267 net.cpp:141] Setting up ip_ip_0_split
I0413 19:46:43.673419 17267 net.cpp:148] Top shape: 256 10 (2560)
I0413 19:46:43.673424 17267 net.cpp:148] Top shape: 256 10 (2560)
I0413 19:46:43.673427 17267 net.cpp:156] Memory required for data: 624198656
I0413 19:46:43.673431 17267 layer_factory.hpp:77] Creating layer accuracy
I0413 19:46:43.673436 17267 net.cpp:91] Creating Layer accuracy
I0413 19:46:43.673440 17267 net.cpp:425] accuracy <- ip_ip_0_split_0
I0413 19:46:43.673445 17267 net.cpp:425] accuracy <- label_cifar_1_split_0
I0413 19:46:43.673450 17267 net.cpp:399] accuracy -> accuracy
…
I0413 19:46:43.675506 17267 solver.cpp:181] Creating test net (#0) specified by net file: prototxt/DyResNet/ResNet-cifar2.prototxt
I0413 19:46:43.675561 17267 net.cpp:313] The NetState phase (1) differed from the phase (0) specified by a rule in layer cifar
I0413 19:46:43.675753 17267 net.cpp:49] Initializing net from parameters: 
name: "ResNet-cifar"
state {
  phase: TEST
}
layer {
  name: "cifar"
  type: "Data"
  top: "data"
  top: "label"
  include {
    phase: TEST
  }
  transform_param {
    mean_file: "data/cifar10/mean.binaryproto"
  }
  data_param {
    source: "data/cifar10/cifar10_test_lmdb"
    batch_size: 100
    backend: LMDB
  }
}
layer {
  name: "conv1"
  type: "Convolution"
  bottom: "data"
  top: "conv1"
  param {
    lr_mult: 1
  }
  param {
    lr_mult: 2
  }
  convolution_param {
    num_output: 16
    pad: 1
    kernel_size: 3
    weight_filler {
      type: "msra"
    }
    bias_filler {
      type: "constant"
    }
  }
}
layer {
  name: "bn_conv1"
  type: "BatchNorm"
  bottom: "conv1"
  top: "conv1"
  param {
    lr_mult: 0
  }
  param {
    lr_mult: 0
  }
  param {
    lr_mult: 0
  }
}
layer {
  name: "scale_conv1"
  type: "Scale"
  bottom: "conv1"
  top: "conv1"
  scale_param {
    bias_term: true
  }
}
layer {
  name: "conv1_relu"
  type: "ReLU"
  bottom: "conv1"
  top: "conv1"
}
layer {
  name: "conv2_1a"
  type: "Convolution"
  bottom: "conv1"
  top: "conv2_1a"
  param {
    lr_mult: 1
  }
  param {
    lr_mult: 2
  }
  convolution_param {
    num_output: 16
    pad: 1
    kernel_size: 3
    stride: 1
    weight_filler {
      type: "msra"
    }
    bias_filler {
      type: "constant"
      value: 0
    }
  }
}
layer {
  name: "bn_conv2_1a"
  type: "BatchNorm"
  bottom: "conv2_1a"
  top: "conv2_1a"
  param {
    lr_mult: 0
  }
  param {
    lr_mult: 0
  }
  param {
    lr_mult: 0
  }
}
layer {
  name: "scale_conv2_1a"
  type: "Scale"
  bottom: "conv2_1a"
  top: "conv2_1a"
  scale_param {
    bias_term: true
  }
}
layer {
  name: "conv2_1a_relu"
  type: "ReLU"
  bottom: "conv2_1a"
  top: "conv2_1a"
}
layer {
  name: "conv2_1b"
  type: "Convolution"
  bottom: "conv2_1a"
  top: "conv2_1b"
  param {
    lr_mult: 1
  }
  param {
    lr_mult: 2
  }
  convolution_param {
    num_output: 16
    pad: 1
    kernel_size: 3
    stride: 1
    weight_filler {
      type: "msra"
    }
    bias_filler {
      type: "constant"
      value: 0
    }
  }
}
layer {
  name: "bn_conv2_1b"
  type: "BatchNorm"
  bottom: "conv2_1b"
  top: "conv2_1b"
  param {
    lr_mult: 0
  }
  param {
    lr_mult: 0
  }
  param {
    lr_mult: 0
  }
}
layer {
  name: "scale_conv2_1b"
  type: "Scale"
  bottom: "conv2_1b"
  top: "conv2_1b"
  scale_param {
    bias_term: true
  }
}
layer {
  name: "conv2_1"
  type: "Eltwise"
  bottom: "conv2_1b"
  bottom: "conv1"
  top: "conv2_1"
}
layer {
  name: "conv2_1_relu"
  type: "ReLU"
  bottom: "conv2_1"
  top: "conv2_1"
}
layer {
  name: "conv2_2a"
  type: "Convolution"
  bottom: "conv2_1"
  top: "conv2_2a"
  param {
    lr_mult: 1
  }
  param {
    lr_mult: 2
  }
  convolution_param {
    num_output: 16
    pad: 1
    kernel_size: 3
    stride: 1
    weight_filler {
      type: "msra"
    }
    bias_filler {
      type: "constant"
      value: 0
    }
  }
}
layer {
  name: "bn_conv2_2a"
  type: "BatchNorm"
  bottom: "conv2_2a"
  top: "conv2_2a"
  param {
    lr_mult: 0
  }
  param {
    lr_mult: 0
  }
  param {
    lr_mult: 0
  }
}
layer {
  name: "scale_conv2_2a"
  type: "Scale"
  bottom: "conv2_2a"
  top: "conv2_2a"
  scale_param {
    bias_term: true
  }
}
layer {
  name: "conv2_2a_relu"
  type: "ReLU"
  bottom: "conv2_2a"
  top: "conv2_2a"
}
layer {
  name: "conv2_2b"
  type: "Convolution"
  bottom: "conv2_2a"
  top: "conv2_2b"
  param {
    lr_mult: 1
  }
  param {
    lr_mult: 2
  }
  convolution_param {
    num_output: 16
    pad: 1
    kernel_size: 3
    stride: 1
    weight_filler {
      type: "msra"
    }
    bias_filler {
      type: "constant"
      value: 0
    }
  }
}
layer {
  name: "bn_conv2_2b"
  type: "BatchNorm"
  bottom: "conv2_2b"
  top: "conv2_2b"
  param {
    lr_mult: 0
  }
  param {
    lr_mult: 0
  }
  param {
    lr_mult: 0
  }
}
layer {
  name: "scale_conv2_2b"
  type: "Scale"
  bottom: "conv2_2b"
  top: "conv2_2b"
  scale_param {
    bias_term: true
  }
}
layer {
  name: "conv2_2"
  type: "Eltwise"
  bottom: "conv2_2b"
  bottom: "conv2_1"
  top: "conv2_2"
}
layer {
  name: "conv2_2_relu"
  type: "ReLU"
  bottom: "conv2_2"
  top: "conv2_2"
}
layer {
  name: "conv2_3a"
  type: "Convolution"
  bottom: "conv2_2"
  top: "conv2_3a"
  param {
    lr_mult: 1
  }
  param {
    lr_mult: 2
  }
  convolution_param {
    num_output: 16
    pad: 1
    kernel_size: 3
    stride: 1
    weight_filler {
      type: "msra"
    }
    bias_filler {
      type: "constant"
      value: 0
    }
  }
}
layer {
  name: "bn_conv2_3a"
  type: "BatchNorm"
  bottom: "conv2_3a"
  top: "conv2_3a"
  param {
    lr_mult: 0
  }
  param {
    lr_mult: 0
  }
  param {
    lr_mult: 0
  }
}
layer {
  name: "scale_conv2_3a"
  type: "Scale"
  bottom: "conv2_3a"
  top: "conv2_3a"
  scale_param {
    bias_term: true
  }
}
layer {
  name: "conv2_3a_relu"
  type: "ReLU"
  bottom: "conv2_3a"
  top: "conv2_3a"
}
layer {
  name: "conv2_3b"
  type: "Convolution"
  bottom: "conv2_3a"
  top: "conv2_3b"
  param {
    lr_mult: 1
  }
  param {
    lr_mult: 2
  }
  convolution_param {
    num_output: 16
    pad: 1
    kernel_size: 3
    stride: 1
    weight_filler {
      type: "msra"
    }
    bias_filler {
      type: "constant"
      value: 0
    }
  }
}
layer {
  name: "bn_conv2_3b"
  type: "BatchNorm"
  bottom: "conv2_3b"
  top: "conv2_3b"
  param {
    lr_mult: 0
  }
  param {
    lr_mult: 0
  }
  param {
    lr_mult: 0
  }
}
layer {
  name: "scale_conv2_3b"
  type: "Scale"
  bottom: "conv2_3b"
  top: "conv2_3b"
  scale_param {
    bias_term: true
  }
}
layer {
  name: "conv2_3"
  type: "Eltwise"
  bottom: "conv2_3b"
  bottom: "conv2_2"
  top: "conv2_3"
}
layer {
  name: "conv2_3_relu"
  type: "ReLU"
  bottom: "conv2_3"
  top: "conv2_3"
}
layer {
  name: "global_pool"
  type: "Pooling"
  bottom: "conv2_3"
  top: "global_pool"
  pooling_param {
    pool: AVE
    kernel_size: 8
    stride: 8
  }
}
layer {
  name: "ip"
  type: "InnerProduct"
  bottom: "global_pool"
  top: "ip"
  inner_product_param {
    num_output: 10
  }
}
layer {
  name: "accuracy"
  type: "Accuracy"
  bottom: "ip"
  bottom: "label"
  top: "accuracy"
}
layer {
  name: "loss"
  type: "SoftmaxWithLoss"
  bottom: "ip"
  bottom: "label"
  top: "loss"
}
I0413 19:46:43.675915 17267 layer_factory.hpp:77] Creating layer cifar
I0413 19:46:43.676026 17267 net.cpp:91] Creating Layer cifar
I0413 19:46:43.676055 17267 net.cpp:399] cifar -> data
I0413 19:46:43.676069 17267 net.cpp:399] cifar -> label
I0413 19:46:43.676079 17267 data_transformer.cpp:25] Loading mean file from: data/cifar10/mean.binaryproto
I0413 19:46:43.677356 17323 db_lmdb.cpp:38] Opened lmdb data/cifar10/cifar10_test_lmdb
I0413 19:46:43.677518 17267 data_layer.cpp:41] output data size: 100,3,32,32
I0413 19:46:43.682175 17267 net.cpp:141] Setting up cifar
I0413 19:46:43.682193 17267 net.cpp:148] Top shape: 100 3 32 32 (307200)
I0413 19:46:43.682199 17267 net.cpp:148] Top shape: 100 (100)
I0413 19:46:43.682204 17267 net.cpp:156] Memory required for data: 1229200
I0413 19:46:43.682207 17267 layer_factory.hpp:77] Creating layer label_cifar_1_split
I0413 19:46:43.682216 17267 net.cpp:91] Creating Layer label_cifar_1_split
I0413 19:46:43.682221 17267 net.cpp:425] label_cifar_1_split <- label
I0413 19:46:43.682227 17267 net.cpp:399] label_cifar_1_split -> label_cifar_1_split_0
I0413 19:46:43.682237 17267 net.cpp:399] label_cifar_1_split -> label_cifar_1_split_1
I0413 19:46:43.682286 17267 net.cpp:141] Setting up label_cifar_1_split
I0413 19:46:43.682294 17267 net.cpp:148] Top shape: 100 (100)
I0413 19:46:43.682299 17267 net.cpp:148] Top shape: 100 (100)
I0413 19:46:43.682302 17267 net.cpp:156] Memory required for data: 1230000
I0413 19:46:43.682307 17267 layer_factory.hpp:77] Creating layer conv1
I0413 19:46:43.682319 17267 net.cpp:91] Creating Layer conv1
I0413 19:46:43.682324 17267 net.cpp:425] conv1 <- data
I0413 19:46:43.682332 17267 net.cpp:399] conv1 -> conv1
I0413 19:46:43.687088 17267 net.cpp:141] Setting up conv1
I0413 19:46:43.687104 17267 net.cpp:148] Top shape: 100 16 32 32 (1638400)
I0413 19:46:43.687113 17267 net.cpp:156] Memory required for data: 7783600
I0413 19:46:43.687129 17267 layer_factory.hpp:77] Creating layer bn_conv1
I0413 19:46:43.687139 17267 net.cpp:91] Creating Layer bn_conv1
I0413 19:46:43.687144 17267 net.cpp:425] bn_conv1 <- conv1
I0413 19:46:43.687152 17267 net.cpp:386] bn_conv1 -> conv1 (in-place)
I0413 19:46:43.687332 17267 net.cpp:141] Setting up bn_conv1
I0413 19:46:43.687340 17267 net.cpp:148] Top shape: 100 16 32 32 (1638400)
I0413 19:46:43.687345 17267 net.cpp:156] Memory required for data: 14337200
I0413 19:46:43.687367 17267 layer_factory.hpp:77] Creating layer scale_conv1
I0413 19:46:43.687376 17267 net.cpp:91] Creating Layer scale_conv1
I0413 19:46:43.687381 17267 net.cpp:425] scale_conv1 <- conv1
I0413 19:46:43.687391 17267 net.cpp:386] scale_conv1 -> conv1 (in-place)
I0413 19:46:43.687434 17267 layer_factory.hpp:77] Creating layer scale_conv1
I0413 19:46:43.687536 17267 net.cpp:141] Setting up scale_conv1
I0413 19:46:43.687546 17267 net.cpp:148] Top shape: 100 16 32 32 (1638400)
I0413 19:46:43.687549 17267 net.cpp:156] Memory required for data: 20890800
I0413 19:46:43.687556 17267 layer_factory.hpp:77] Creating layer conv1_relu
I0413 19:46:43.687564 17267 net.cpp:91] Creating Layer conv1_relu
I0413 19:46:43.687568 17267 net.cpp:425] conv1_relu <- conv1
I0413 19:46:43.687574 17267 net.cpp:386] conv1_relu -> conv1 (in-place)
I0413 19:46:43.687736 17267 net.cpp:141] Setting up conv1_relu
I0413 19:46:43.687747 17267 net.cpp:148] Top shape: 100 16 32 32 (1638400)
I0413 19:46:43.687750 17267 net.cpp:156] Memory required for data: 27444400
I0413 19:46:43.687754 17267 layer_factory.hpp:77] Creating layer conv1_conv1_relu_0_split
I0413 19:46:43.687762 17267 net.cpp:91] Creating Layer conv1_conv1_relu_0_split
I0413 19:46:43.687772 17267 net.cpp:425] conv1_conv1_relu_0_split <- conv1
I0413 19:46:43.687777 17267 net.cpp:399] conv1_conv1_relu_0_split -> conv1_conv1_relu_0_split_0
I0413 19:46:43.687784 17267 net.cpp:399] conv1_conv1_relu_0_split -> conv1_conv1_relu_0_split_1
I0413 19:46:43.687826 17267 net.cpp:141] Setting up conv1_conv1_relu_0_split
I0413 19:46:43.687834 17267 net.cpp:148] Top shape: 100 16 32 32 (1638400)
I0413 19:46:43.687845 17267 net.cpp:148] Top shape: 100 16 32 32 (1638400)
I0413 19:46:43.687849 17267 net.cpp:156] Memory required for data: 40551600
I0413 19:46:43.687858 17267 layer_factory.hpp:77] Creating layer conv2_1a
I0413 19:46:43.687870 17267 net.cpp:91] Creating Layer conv2_1a
I0413 19:46:43.687875 17267 net.cpp:425] conv2_1a <- conv1_conv1_relu_0_split_0
I0413 19:46:43.687885 17267 net.cpp:399] conv2_1a -> conv2_1a
I0413 19:46:43.690608 17267 net.cpp:141] Setting up conv2_1a
I0413 19:46:43.690623 17267 net.cpp:148] Top shape: 100 16 32 32 (1638400)
I0413 19:46:43.690629 17267 net.cpp:156] Memory required for data: 47105200
I0413 19:46:43.690640 17267 layer_factory.hpp:77] Creating layer bn_conv2_1a
I0413 19:46:43.690652 17267 net.cpp:91] Creating Layer bn_conv2_1a
I0413 19:46:43.690657 17267 net.cpp:425] bn_conv2_1a <- conv2_1a
I0413 19:46:43.690664 17267 net.cpp:386] bn_conv2_1a -> conv2_1a (in-place)
I0413 19:46:43.690872 17267 net.cpp:141] Setting up bn_conv2_1a
I0413 19:46:43.690882 17267 net.cpp:148] Top shape: 100 16 32 32 (1638400)
I0413 19:46:43.690886 17267 net.cpp:156] Memory required for data: 53658800
I0413 19:46:43.690896 17267 layer_factory.hpp:77] Creating layer scale_conv2_1a
I0413 19:46:43.690903 17267 net.cpp:91] Creating Layer scale_conv2_1a
I0413 19:46:43.690908 17267 net.cpp:425] scale_conv2_1a <- conv2_1a
I0413 19:46:43.690913 17267 net.cpp:386] scale_conv2_1a -> conv2_1a (in-place)
I0413 19:46:43.691753 17267 layer_factory.hpp:77] Creating layer scale_conv2_1a
I0413 19:46:43.691864 17267 net.cpp:141] Setting up scale_conv2_1a
I0413 19:46:43.691872 17267 net.cpp:148] Top shape: 100 16 32 32 (1638400)
I0413 19:46:43.691876 17267 net.cpp:156] Memory required for data: 60212400
I0413 19:46:43.691884 17267 layer_factory.hpp:77] Creating layer conv2_1a_relu
I0413 19:46:43.691891 17267 net.cpp:91] Creating Layer conv2_1a_relu
I0413 19:46:43.691896 17267 net.cpp:425] conv2_1a_relu <- conv2_1a
I0413 19:46:43.691901 17267 net.cpp:386] conv2_1a_relu -> conv2_1a (in-place)
I0413 19:46:43.692065 17267 net.cpp:141] Setting up conv2_1a_relu
I0413 19:46:43.692082 17267 net.cpp:148] Top shape: 100 16 32 32 (1638400)
I0413 19:46:43.692087 17267 net.cpp:156] Memory required for data: 66766000
I0413 19:46:43.692091 17267 layer_factory.hpp:77] Creating layer conv2_1b
I0413 19:46:43.692103 17267 net.cpp:91] Creating Layer conv2_1b
I0413 19:46:43.692111 17267 net.cpp:425] conv2_1b <- conv2_1a
I0413 19:46:43.692117 17267 net.cpp:399] conv2_1b -> conv2_1b
I0413 19:46:43.695169 17267 net.cpp:141] Setting up conv2_1b
I0413 19:46:43.695186 17267 net.cpp:148] Top shape: 100 16 32 32 (1638400)
I0413 19:46:43.695194 17267 net.cpp:156] Memory required for data: 73319600
I0413 19:46:43.695201 17267 layer_factory.hpp:77] Creating layer bn_conv2_1b
I0413 19:46:43.695211 17267 net.cpp:91] Creating Layer bn_conv2_1b
I0413 19:46:43.695216 17267 net.cpp:425] bn_conv2_1b <- conv2_1b
I0413 19:46:43.695222 17267 net.cpp:386] bn_conv2_1b -> conv2_1b (in-place)
I0413 19:46:43.695400 17267 net.cpp:141] Setting up bn_conv2_1b
I0413 19:46:43.695410 17267 net.cpp:148] Top shape: 100 16 32 32 (1638400)
I0413 19:46:43.695413 17267 net.cpp:156] Memory required for data: 79873200
I0413 19:46:43.695438 17267 layer_factory.hpp:77] Creating layer scale_conv2_1b
I0413 19:46:43.695446 17267 net.cpp:91] Creating Layer scale_conv2_1b
I0413 19:46:43.695451 17267 net.cpp:425] scale_conv2_1b <- conv2_1b
I0413 19:46:43.695457 17267 net.cpp:386] scale_conv2_1b -> conv2_1b (in-place)
I0413 19:46:43.695498 17267 layer_factory.hpp:77] Creating layer scale_conv2_1b
I0413 19:46:43.695621 17267 net.cpp:141] Setting up scale_conv2_1b
I0413 19:46:43.695631 17267 net.cpp:148] Top shape: 100 16 32 32 (1638400)
I0413 19:46:43.695634 17267 net.cpp:156] Memory required for data: 86426800
I0413 19:46:43.695641 17267 layer_factory.hpp:77] Creating layer conv2_1
I0413 19:46:43.695647 17267 net.cpp:91] Creating Layer conv2_1
I0413 19:46:43.695652 17267 net.cpp:425] conv2_1 <- conv2_1b
I0413 19:46:43.695657 17267 net.cpp:425] conv2_1 <- conv1_conv1_relu_0_split_1
I0413 19:46:43.695664 17267 net.cpp:399] conv2_1 -> conv2_1
I0413 19:46:43.695690 17267 net.cpp:141] Setting up conv2_1
I0413 19:46:43.695698 17267 net.cpp:148] Top shape: 100 16 32 32 (1638400)
I0413 19:46:43.695706 17267 net.cpp:156] Memory required for data: 92980400
I0413 19:46:43.695711 17267 layer_factory.hpp:77] Creating layer conv2_1_relu
I0413 19:46:43.695720 17267 net.cpp:91] Creating Layer conv2_1_relu
I0413 19:46:43.695724 17267 net.cpp:425] conv2_1_relu <- conv2_1
I0413 19:46:43.695730 17267 net.cpp:386] conv2_1_relu -> conv2_1 (in-place)
I0413 19:46:43.696595 17267 net.cpp:141] Setting up conv2_1_relu
I0413 19:46:43.696609 17267 net.cpp:148] Top shape: 100 16 32 32 (1638400)
I0413 19:46:43.696614 17267 net.cpp:156] Memory required for data: 99534000
I0413 19:46:43.696619 17267 layer_factory.hpp:77] Creating layer conv2_1_conv2_1_relu_0_split
I0413 19:46:43.696630 17267 net.cpp:91] Creating Layer conv2_1_conv2_1_relu_0_split
I0413 19:46:43.696635 17267 net.cpp:425] conv2_1_conv2_1_relu_0_split <- conv2_1
I0413 19:46:43.696641 17267 net.cpp:399] conv2_1_conv2_1_relu_0_split -> conv2_1_conv2_1_relu_0_split_0
I0413 19:46:43.696650 17267 net.cpp:399] conv2_1_conv2_1_relu_0_split -> conv2_1_conv2_1_relu_0_split_1
I0413 19:46:43.696692 17267 net.cpp:141] Setting up conv2_1_conv2_1_relu_0_split
I0413 19:46:43.696699 17267 net.cpp:148] Top shape: 100 16 32 32 (1638400)
I0413 19:46:43.696704 17267 net.cpp:148] Top shape: 100 16 32 32 (1638400)
I0413 19:46:43.696708 17267 net.cpp:156] Memory required for data: 112641200
I0413 19:46:43.696712 17267 layer_factory.hpp:77] Creating layer conv2_2a
I0413 19:46:43.696724 17267 net.cpp:91] Creating Layer conv2_2a
I0413 19:46:43.696729 17267 net.cpp:425] conv2_2a <- conv2_1_conv2_1_relu_0_split_0
I0413 19:46:43.696738 17267 net.cpp:399] conv2_2a -> conv2_2a
I0413 19:46:43.699729 17267 net.cpp:141] Setting up conv2_2a
I0413 19:46:43.699749 17267 net.cpp:148] Top shape: 100 16 32 32 (1638400)
I0413 19:46:43.699754 17267 net.cpp:156] Memory required for data: 119194800
I0413 19:46:43.699762 17267 layer_factory.hpp:77] Creating layer bn_conv2_2a
I0413 19:46:43.699770 17267 net.cpp:91] Creating Layer bn_conv2_2a
I0413 19:46:43.699775 17267 net.cpp:425] bn_conv2_2a <- conv2_2a
I0413 19:46:43.699785 17267 net.cpp:386] bn_conv2_2a -> conv2_2a (in-place)
I0413 19:46:43.699972 17267 net.cpp:141] Setting up bn_conv2_2a
I0413 19:46:43.699981 17267 net.cpp:148] Top shape: 100 16 32 32 (1638400)
I0413 19:46:43.699985 17267 net.cpp:156] Memory required for data: 125748400
I0413 19:46:43.699992 17267 layer_factory.hpp:77] Creating layer scale_conv2_2a
I0413 19:46:43.700011 17267 net.cpp:91] Creating Layer scale_conv2_2a
I0413 19:46:43.700016 17267 net.cpp:425] scale_conv2_2a <- conv2_2a
I0413 19:46:43.700023 17267 net.cpp:386] scale_conv2_2a -> conv2_2a (in-place)
I0413 19:46:43.700064 17267 layer_factory.hpp:77] Creating layer scale_conv2_2a
I0413 19:46:43.700175 17267 net.cpp:141] Setting up scale_conv2_2a
I0413 19:46:43.700184 17267 net.cpp:148] Top shape: 100 16 32 32 (1638400)
I0413 19:46:43.700189 17267 net.cpp:156] Memory required for data: 132302000
I0413 19:46:43.700196 17267 layer_factory.hpp:77] Creating layer conv2_2a_relu
I0413 19:46:43.700203 17267 net.cpp:91] Creating Layer conv2_2a_relu
I0413 19:46:43.700207 17267 net.cpp:425] conv2_2a_relu <- conv2_2a
I0413 19:46:43.700212 17267 net.cpp:386] conv2_2a_relu -> conv2_2a (in-place)
I0413 19:46:43.700882 17267 net.cpp:141] Setting up conv2_2a_relu
I0413 19:46:43.700894 17267 net.cpp:148] Top shape: 100 16 32 32 (1638400)
I0413 19:46:43.700898 17267 net.cpp:156] Memory required for data: 138855600
I0413 19:46:43.700902 17267 layer_factory.hpp:77] Creating layer conv2_2b
I0413 19:46:43.700916 17267 net.cpp:91] Creating Layer conv2_2b
I0413 19:46:43.700920 17267 net.cpp:425] conv2_2b <- conv2_2a
I0413 19:46:43.700929 17267 net.cpp:399] conv2_2b -> conv2_2b
I0413 19:46:43.704411 17267 net.cpp:141] Setting up conv2_2b
I0413 19:46:43.704454 17267 net.cpp:148] Top shape: 100 16 32 32 (1638400)
I0413 19:46:43.704460 17267 net.cpp:156] Memory required for data: 145409200
I0413 19:46:43.704471 17267 layer_factory.hpp:77] Creating layer bn_conv2_2b
I0413 19:46:43.704483 17267 net.cpp:91] Creating Layer bn_conv2_2b
I0413 19:46:43.704498 17267 net.cpp:425] bn_conv2_2b <- conv2_2b
I0413 19:46:43.704509 17267 net.cpp:386] bn_conv2_2b -> conv2_2b (in-place)
I0413 19:46:43.704725 17267 net.cpp:141] Setting up bn_conv2_2b
I0413 19:46:43.704741 17267 net.cpp:148] Top shape: 100 16 32 32 (1638400)
I0413 19:46:43.704746 17267 net.cpp:156] Memory required for data: 151962800
I0413 19:46:43.704773 17267 layer_factory.hpp:77] Creating layer scale_conv2_2b
I0413 19:46:43.704784 17267 net.cpp:91] Creating Layer scale_conv2_2b
I0413 19:46:43.704789 17267 net.cpp:425] scale_conv2_2b <- conv2_2b
I0413 19:46:43.704795 17267 net.cpp:386] scale_conv2_2b -> conv2_2b (in-place)
I0413 19:46:43.704857 17267 layer_factory.hpp:77] Creating layer scale_conv2_2b
I0413 19:46:43.704991 17267 net.cpp:141] Setting up scale_conv2_2b
I0413 19:46:43.705000 17267 net.cpp:148] Top shape: 100 16 32 32 (1638400)
I0413 19:46:43.705004 17267 net.cpp:156] Memory required for data: 158516400
I0413 19:46:43.705013 17267 layer_factory.hpp:77] Creating layer conv2_2
I0413 19:46:43.705019 17267 net.cpp:91] Creating Layer conv2_2
I0413 19:46:43.705024 17267 net.cpp:425] conv2_2 <- conv2_2b
I0413 19:46:43.705031 17267 net.cpp:425] conv2_2 <- conv2_1_conv2_1_relu_0_split_1
I0413 19:46:43.705039 17267 net.cpp:399] conv2_2 -> conv2_2
I0413 19:46:43.705068 17267 net.cpp:141] Setting up conv2_2
I0413 19:46:43.705076 17267 net.cpp:148] Top shape: 100 16 32 32 (1638400)
I0413 19:46:43.705080 17267 net.cpp:156] Memory required for data: 165070000
I0413 19:46:43.705085 17267 layer_factory.hpp:77] Creating layer conv2_2_relu
I0413 19:46:43.705091 17267 net.cpp:91] Creating Layer conv2_2_relu
I0413 19:46:43.705096 17267 net.cpp:425] conv2_2_relu <- conv2_2
I0413 19:46:43.705137 17267 net.cpp:386] conv2_2_relu -> conv2_2 (in-place)
I0413 19:46:43.705476 17267 net.cpp:141] Setting up conv2_2_relu
I0413 19:46:43.705490 17267 net.cpp:148] Top shape: 100 16 32 32 (1638400)
I0413 19:46:43.705495 17267 net.cpp:156] Memory required for data: 171623600
I0413 19:46:43.705500 17267 layer_factory.hpp:77] Creating layer conv2_2_conv2_2_relu_0_split
I0413 19:46:43.705508 17267 net.cpp:91] Creating Layer conv2_2_conv2_2_relu_0_split
I0413 19:46:43.705513 17267 net.cpp:425] conv2_2_conv2_2_relu_0_split <- conv2_2
I0413 19:46:43.705534 17267 net.cpp:399] conv2_2_conv2_2_relu_0_split -> conv2_2_conv2_2_relu_0_split_0
I0413 19:46:43.705554 17267 net.cpp:399] conv2_2_conv2_2_relu_0_split -> conv2_2_conv2_2_relu_0_split_1
I0413 19:46:43.705615 17267 net.cpp:141] Setting up conv2_2_conv2_2_relu_0_split
I0413 19:46:43.705622 17267 net.cpp:148] Top shape: 100 16 32 32 (1638400)
I0413 19:46:43.705628 17267 net.cpp:148] Top shape: 100 16 32 32 (1638400)
I0413 19:46:43.705632 17267 net.cpp:156] Memory required for data: 184730800
I0413 19:46:43.705636 17267 layer_factory.hpp:77] Creating layer conv2_3a
I0413 19:46:43.705649 17267 net.cpp:91] Creating Layer conv2_3a
I0413 19:46:43.705654 17267 net.cpp:425] conv2_3a <- conv2_2_conv2_2_relu_0_split_0
I0413 19:46:43.705662 17267 net.cpp:399] conv2_3a -> conv2_3a
I0413 19:46:43.708295 17267 net.cpp:141] Setting up conv2_3a
I0413 19:46:43.708312 17267 net.cpp:148] Top shape: 100 16 32 32 (1638400)
I0413 19:46:43.708317 17267 net.cpp:156] Memory required for data: 191284400
I0413 19:46:43.708323 17267 layer_factory.hpp:77] Creating layer bn_conv2_3a
I0413 19:46:43.708330 17267 net.cpp:91] Creating Layer bn_conv2_3a
I0413 19:46:43.708335 17267 net.cpp:425] bn_conv2_3a <- conv2_3a
I0413 19:46:43.708343 17267 net.cpp:386] bn_conv2_3a -> conv2_3a (in-place)
I0413 19:46:43.708516 17267 net.cpp:141] Setting up bn_conv2_3a
I0413 19:46:43.708524 17267 net.cpp:148] Top shape: 100 16 32 32 (1638400)
I0413 19:46:43.708528 17267 net.cpp:156] Memory required for data: 197838000
I0413 19:46:43.708535 17267 layer_factory.hpp:77] Creating layer scale_conv2_3a
I0413 19:46:43.708542 17267 net.cpp:91] Creating Layer scale_conv2_3a
I0413 19:46:43.708546 17267 net.cpp:425] scale_conv2_3a <- conv2_3a
I0413 19:46:43.708552 17267 net.cpp:386] scale_conv2_3a -> conv2_3a (in-place)
I0413 19:46:43.708595 17267 layer_factory.hpp:77] Creating layer scale_conv2_3a
I0413 19:46:43.708695 17267 net.cpp:141] Setting up scale_conv2_3a
I0413 19:46:43.708703 17267 net.cpp:148] Top shape: 100 16 32 32 (1638400)
I0413 19:46:43.708708 17267 net.cpp:156] Memory required for data: 204391600
I0413 19:46:43.708714 17267 layer_factory.hpp:77] Creating layer conv2_3a_relu
I0413 19:46:43.708721 17267 net.cpp:91] Creating Layer conv2_3a_relu
I0413 19:46:43.708725 17267 net.cpp:425] conv2_3a_relu <- conv2_3a
I0413 19:46:43.708730 17267 net.cpp:386] conv2_3a_relu -> conv2_3a (in-place)
I0413 19:46:43.709388 17267 net.cpp:141] Setting up conv2_3a_relu
I0413 19:46:43.709405 17267 net.cpp:148] Top shape: 100 16 32 32 (1638400)
I0413 19:46:43.709410 17267 net.cpp:156] Memory required for data: 210945200
I0413 19:46:43.709414 17267 layer_factory.hpp:77] Creating layer conv2_3b
I0413 19:46:43.709427 17267 net.cpp:91] Creating Layer conv2_3b
I0413 19:46:43.709432 17267 net.cpp:425] conv2_3b <- conv2_3a
I0413 19:46:43.709439 17267 net.cpp:399] conv2_3b -> conv2_3b
I0413 19:46:43.712921 17267 net.cpp:141] Setting up conv2_3b
I0413 19:46:43.712937 17267 net.cpp:148] Top shape: 100 16 32 32 (1638400)
I0413 19:46:43.712941 17267 net.cpp:156] Memory required for data: 217498800
I0413 19:46:43.712949 17267 layer_factory.hpp:77] Creating layer bn_conv2_3b
I0413 19:46:43.712961 17267 net.cpp:91] Creating Layer bn_conv2_3b
I0413 19:46:43.712966 17267 net.cpp:425] bn_conv2_3b <- conv2_3b
I0413 19:46:43.712973 17267 net.cpp:386] bn_conv2_3b -> conv2_3b (in-place)
I0413 19:46:43.713168 17267 net.cpp:141] Setting up bn_conv2_3b
I0413 19:46:43.713178 17267 net.cpp:148] Top shape: 100 16 32 32 (1638400)
I0413 19:46:43.713182 17267 net.cpp:156] Memory required for data: 224052400
I0413 19:46:43.713191 17267 layer_factory.hpp:77] Creating layer scale_conv2_3b
I0413 19:46:43.713197 17267 net.cpp:91] Creating Layer scale_conv2_3b
I0413 19:46:43.713201 17267 net.cpp:425] scale_conv2_3b <- conv2_3b
I0413 19:46:43.713209 17267 net.cpp:386] scale_conv2_3b -> conv2_3b (in-place)
I0413 19:46:43.713246 17267 layer_factory.hpp:77] Creating layer scale_conv2_3b
I0413 19:46:43.713353 17267 net.cpp:141] Setting up scale_conv2_3b
I0413 19:46:43.713361 17267 net.cpp:148] Top shape: 100 16 32 32 (1638400)
I0413 19:46:43.713366 17267 net.cpp:156] Memory required for data: 230606000
I0413 19:46:43.713371 17267 layer_factory.hpp:77] Creating layer conv2_3
I0413 19:46:43.713377 17267 net.cpp:91] Creating Layer conv2_3
I0413 19:46:43.713382 17267 net.cpp:425] conv2_3 <- conv2_3b
I0413 19:46:43.713387 17267 net.cpp:425] conv2_3 <- conv2_2_conv2_2_relu_0_split_1
I0413 19:46:43.713392 17267 net.cpp:399] conv2_3 -> conv2_3
I0413 19:46:43.713418 17267 net.cpp:141] Setting up conv2_3
I0413 19:46:43.713425 17267 net.cpp:148] Top shape: 100 16 32 32 (1638400)
I0413 19:46:43.713428 17267 net.cpp:156] Memory required for data: 237159600
I0413 19:46:43.713433 17267 layer_factory.hpp:77] Creating layer conv2_3_relu
I0413 19:46:43.713443 17267 net.cpp:91] Creating Layer conv2_3_relu
I0413 19:46:43.713459 17267 net.cpp:425] conv2_3_relu <- conv2_3
I0413 19:46:43.713464 17267 net.cpp:386] conv2_3_relu -> conv2_3 (in-place)
I0413 19:46:43.713970 17267 net.cpp:141] Setting up conv2_3_relu
I0413 19:46:43.713980 17267 net.cpp:148] Top shape: 100 16 32 32 (1638400)
I0413 19:46:43.713984 17267 net.cpp:156] Memory required for data: 243713200
I0413 19:46:43.713989 17267 layer_factory.hpp:77] Creating layer global_pool
I0413 19:46:43.713996 17267 net.cpp:91] Creating Layer global_pool
I0413 19:46:43.714000 17267 net.cpp:425] global_pool <- conv2_3
I0413 19:46:43.714006 17267 net.cpp:399] global_pool -> global_pool
I0413 19:46:43.715128 17267 net.cpp:141] Setting up global_pool
I0413 19:46:43.715142 17267 net.cpp:148] Top shape: 100 16 4 4 (25600)
I0413 19:46:43.715145 17267 net.cpp:156] Memory required for data: 243815600
I0413 19:46:43.715149 17267 layer_factory.hpp:77] Creating layer ip
I0413 19:46:43.715159 17267 net.cpp:91] Creating Layer ip
I0413 19:46:43.715164 17267 net.cpp:425] ip <- global_pool
I0413 19:46:43.715174 17267 net.cpp:399] ip -> ip
I0413 19:46:43.715279 17267 net.cpp:141] Setting up ip
I0413 19:46:43.715287 17267 net.cpp:148] Top shape: 100 10 (1000)
I0413 19:46:43.715291 17267 net.cpp:156] Memory required for data: 243819600
I0413 19:46:43.715297 17267 layer_factory.hpp:77] Creating layer ip_ip_0_split
I0413 19:46:43.715303 17267 net.cpp:91] Creating Layer ip_ip_0_split
I0413 19:46:43.715307 17267 net.cpp:425] ip_ip_0_split <- ip
I0413 19:46:43.715314 17267 net.cpp:399] ip_ip_0_split -> ip_ip_0_split_0
I0413 19:46:43.715322 17267 net.cpp:399] ip_ip_0_split -> ip_ip_0_split_1
I0413 19:46:43.715358 17267 net.cpp:141] Setting up ip_ip_0_split
I0413 19:46:43.715363 17267 net.cpp:148] Top shape: 100 10 (1000)
I0413 19:46:43.715368 17267 net.cpp:148] Top shape: 100 10 (1000)
I0413 19:46:43.715371 17267 net.cpp:156] Memory required for data: 243827600
I0413 19:46:43.715375 17267 layer_factory.hpp:77] Creating layer accuracy
I0413 19:46:43.715381 17267 net.cpp:91] Creating Layer accuracy
I0413 19:46:43.715385 17267 net.cpp:425] accuracy <- ip_ip_0_split_0
I0413 19:46:43.715390 17267 net.cpp:425] accuracy <- label_cifar_1_split_0
I0413 19:46:43.715395 17267 net.cpp:399] accuracy -> accuracy
…
I0413 20:13:32.435729 21859 solver.cpp:91] Creating training net from net file: prototxt/DyResNet/ResNet-cifar3.prototxt
I0413 20:13:32.436913 21859 net.cpp:313] The NetState phase (0) differed from the phase (1) specified by a rule in layer cifar
I0413 20:13:32.437257 21859 net.cpp:49] Initializing net from parameters: 
name: "ResNet-cifar"
state {
  phase: TRAIN
}
layer {
  name: "cifar"
  type: "Data"
  top: "data"
  top: "label"
  include {
    phase: TRAIN
  }
  transform_param {
    mirror: true
    mean_file: "data/cifar10/mean.binaryproto"
  }
  data_param {
    source: "data/cifar10/cifar10_train_lmdb"
    batch_size: 256
    backend: LMDB
  }
}
layer {
  name: "conv1"
  type: "Convolution"
  bottom: "data"
  top: "conv1"
  param {
    lr_mult: 1
  }
  param {
    lr_mult: 2
  }
  convolution_param {
    num_output: 16
    pad: 1
    kernel_size: 3
    weight_filler {
      type: "msra"
    }
    bias_filler {
      type: "constant"
    }
  }
}
layer {
  name: "bn_conv1"
  type: "BatchNorm"
  bottom: "conv1"
  top: "conv1"
  param {
    lr_mult: 0
  }
  param {
    lr_mult: 0
  }
  param {
    lr_mult: 0
  }
}
layer {
  name: "scale_conv1"
  type: "Scale"
  bottom: "conv1"
  top: "conv1"
  scale_param {
    bias_term: true
  }
}
layer {
  name: "conv1_relu"
  type: "ReLU"
  bottom: "conv1"
  top: "conv1"
}
layer {
  name: "conv2_1a"
  type: "Convolution"
  bottom: "conv1"
  top: "conv2_1a"
  param {
    lr_mult: 1
  }
  param {
    lr_mult: 2
  }
  convolution_param {
    num_output: 16
    pad: 1
    kernel_size: 3
    stride: 1
    weight_filler {
      type: "msra"
    }
    bias_filler {
      type: "constant"
      value: 0
    }
  }
}
layer {
  name: "bn_conv2_1a"
  type: "BatchNorm"
  bottom: "conv2_1a"
  top: "conv2_1a"
  param {
    lr_mult: 0
  }
  param {
    lr_mult: 0
  }
  param {
    lr_mult: 0
  }
}
layer {
  name: "scale_conv2_1a"
  type: "Scale"
  bottom: "conv2_1a"
  top: "conv2_1a"
  scale_param {
    bias_term: true
  }
}
layer {
  name: "conv2_1a_relu"
  type: "ReLU"
  bottom: "conv2_1a"
  top: "conv2_1a"
}
layer {
  name: "conv2_1b"
  type: "Convolution"
  bottom: "conv2_1a"
  top: "conv2_1b"
  param {
    lr_mult: 1
  }
  param {
    lr_mult: 2
  }
  convolution_param {
    num_output: 16
    pad: 1
    kernel_size: 3
    stride: 1
    weight_filler {
      type: "msra"
    }
    bias_filler {
      type: "constant"
      value: 0
    }
  }
}
layer {
  name: "bn_conv2_1b"
  type: "BatchNorm"
  bottom: "conv2_1b"
  top: "conv2_1b"
  param {
    lr_mult: 0
  }
  param {
    lr_mult: 0
  }
  param {
    lr_mult: 0
  }
}
layer {
  name: "scale_conv2_1b"
  type: "Scale"
  bottom: "conv2_1b"
  top: "conv2_1b"
  scale_param {
    bias_term: true
  }
}
layer {
  name: "conv2_1"
  type: "Eltwise"
  bottom: "conv2_1b"
  bottom: "conv1"
  top: "conv2_1"
}
layer {
  name: "conv2_1_relu"
  type: "ReLU"
  bottom: "conv2_1"
  top: "conv2_1"
}
layer {
  name: "conv2_2a"
  type: "Convolution"
  bottom: "conv2_1"
  top: "conv2_2a"
  param {
    lr_mult: 1
  }
  param {
    lr_mult: 2
  }
  convolution_param {
    num_output: 16
    pad: 1
    kernel_size: 3
    stride: 1
    weight_filler {
      type: "msra"
    }
    bias_filler {
      type: "constant"
      value: 0
    }
  }
}
layer {
  name: "bn_conv2_2a"
  type: "BatchNorm"
  bottom: "conv2_2a"
  top: "conv2_2a"
  param {
    lr_mult: 0
  }
  param {
    lr_mult: 0
  }
  param {
    lr_mult: 0
  }
}
layer {
  name: "scale_conv2_2a"
  type: "Scale"
  bottom: "conv2_2a"
  top: "conv2_2a"
  scale_param {
    bias_term: true
  }
}
layer {
  name: "conv2_2a_relu"
  type: "ReLU"
  bottom: "conv2_2a"
  top: "conv2_2a"
}
layer {
  name: "conv2_2b"
  type: "Convolution"
  bottom: "conv2_2a"
  top: "conv2_2b"
  param {
    lr_mult: 1
  }
  param {
    lr_mult: 2
  }
  convolution_param {
    num_output: 16
    pad: 1
    kernel_size: 3
    stride: 1
    weight_filler {
      type: "msra"
    }
    bias_filler {
      type: "constant"
      value: 0
    }
  }
}
layer {
  name: "bn_conv2_2b"
  type: "BatchNorm"
  bottom: "conv2_2b"
  top: "conv2_2b"
  param {
    lr_mult: 0
  }
  param {
    lr_mult: 0
  }
  param {
    lr_mult: 0
  }
}
layer {
  name: "scale_conv2_2b"
  type: "Scale"
  bottom: "conv2_2b"
  top: "conv2_2b"
  scale_param {
    bias_term: true
  }
}
layer {
  name: "conv2_2"
  type: "Eltwise"
  bottom: "conv2_2b"
  bottom: "conv2_1"
  top: "conv2_2"
}
layer {
  name: "conv2_2_relu"
  type: "ReLU"
  bottom: "conv2_2"
  top: "conv2_2"
}
layer {
  name: "conv2_3a"
  type: "Convolution"
  bottom: "conv2_2"
  top: "conv2_3a"
  param {
    lr_mult: 1
  }
  param {
    lr_mult: 2
  }
  convolution_param {
    num_output: 16
    pad: 1
    kernel_size: 3
    stride: 1
    weight_filler {
      type: "msra"
    }
    bias_filler {
      type: "constant"
      value: 0
    }
  }
}
layer {
  name: "bn_conv2_3a"
  type: "BatchNorm"
  bottom: "conv2_3a"
  top: "conv2_3a"
  param {
    lr_mult: 0
  }
  param {
    lr_mult: 0
  }
  param {
    lr_mult: 0
  }
}
layer {
  name: "scale_conv2_3a"
  type: "Scale"
  bottom: "conv2_3a"
  top: "conv2_3a"
  scale_param {
    bias_term: true
  }
}
layer {
  name: "conv2_3a_relu"
  type: "ReLU"
  bottom: "conv2_3a"
  top: "conv2_3a"
}
layer {
  name: "conv2_3b"
  type: "Convolution"
  bottom: "conv2_3a"
  top: "conv2_3b"
  param {
    lr_mult: 1
  }
  param {
    lr_mult: 2
  }
  convolution_param {
    num_output: 16
    pad: 1
    kernel_size: 3
    stride: 1
    weight_filler {
      type: "msra"
    }
    bias_filler {
      type: "constant"
      value: 0
    }
  }
}
layer {
  name: "bn_conv2_3b"
  type: "BatchNorm"
  bottom: "conv2_3b"
  top: "conv2_3b"
  param {
    lr_mult: 0
  }
  param {
    lr_mult: 0
  }
  param {
    lr_mult: 0
  }
}
layer {
  name: "scale_conv2_3b"
  type: "Scale"
  bottom: "conv2_3b"
  top: "conv2_3b"
  scale_param {
    bias_term: true
  }
}
layer {
  name: "conv2_3"
  type: "Eltwise"
  bottom: "conv2_3b"
  bottom: "conv2_2"
  top: "conv2_3"
}
layer {
  name: "conv2_3_relu"
  type: "ReLU"
  bottom: "conv2_3"
  top: "conv2_3"
}
layer {
  name: "conv2_sub"
  type: "Convolution"
  bottom: "conv2_3"
  top: "conv2_sub"
  param {
    lr_mult: 1
  }
  param {
    lr_mult: 2
  }
  convolution_param {
    num_output: 32
    kernel_size: 1
    stride: 2
    weight_filler {
      type: "msra"
    }
    bias_filler {
      type: "constant"
      value: 0
    }
  }
}
layer {
  name: "bn_conv2_sub"
  type: "BatchNorm"
  bottom: "conv2_sub"
  top: "conv2_sub"
  param {
    lr_mult: 0
  }
  param {
    lr_mult: 0
  }
  param {
    lr_mult: 0
  }
}
layer {
  name: "scale_conv2_sub"
  type: "Scale"
  bottom: "conv2_sub"
  top: "conv2_sub"
  scale_param {
    bias_term: true
  }
}
layer {
  name: "conv3_1a"
  type: "Convolution"
  bottom: "conv2_3"
  top: "conv3_1a"
  param {
    lr_mult: 1
  }
  param {
    lr_mult: 2
  }
  convolution_param {
    num_output: 32
    pad: 0
    kernel_size: 1
    stride: 2
    weight_filler {
      type: "msra"
    }
    bias_filler {
      type: "constant"
      value: 0
    }
  }
}
layer {
  name: "bn_conv3_1a"
  type: "BatchNorm"
  bottom: "conv3_1a"
  top: "conv3_1a"
  param {
    lr_mult: 0
  }
  param {
    lr_mult: 0
  }
  param {
    lr_mult: 0
  }
}
layer {
  name: "scale_conv3_1a"
  type: "Scale"
  bottom: "conv3_1a"
  top: "conv3_1a"
  scale_param {
    bias_term: true
  }
}
layer {
  name: "conv3_1a_relu"
  type: "ReLU"
  bottom: "conv3_1a"
  top: "conv3_1a"
}
layer {
  name: "conv3_1b"
  type: "Convolution"
  bottom: "conv3_1a"
  top: "conv3_1b"
  param {
    lr_mult: 1
  }
  param {
    lr_mult: 2
  }
  convolution_param {
    num_output: 32
    pad: 1
    kernel_size: 3
    stride: 1
    weight_filler {
      type: "msra"
    }
    bias_filler {
      type: "constant"
      value: 0
    }
  }
}
layer {
  name: "bn_conv3_1b"
  type: "BatchNorm"
  bottom: "conv3_1b"
  top: "conv3_1b"
  param {
    lr_mult: 0
  }
  param {
    lr_mult: 0
  }
  param {
    lr_mult: 0
  }
}
layer {
  name: "scale_conv3_1b"
  type: "Scale"
  bottom: "conv3_1b"
  top: "conv3_1b"
  scale_param {
    bias_term: true
  }
}
layer {
  name: "conv3_1"
  type: "Eltwise"
  bottom: "conv3_1b"
  bottom: "conv2_sub"
  top: "conv3_1"
}
layer {
  name: "conv3_1_relu"
  type: "ReLU"
  bottom: "conv3_1"
  top: "conv3_1"
}
layer {
  name: "global_pool"
  type: "Pooling"
  bottom: "conv3_1"
  top: "global_pool"
  pooling_param {
    pool: AVE
    kernel_size: 8
    stride: 8
  }
}
layer {
  name: "ip"
  type: "InnerProduct"
  bottom: "global_pool"
  top: "ip"
  inner_product_param {
    num_output: 10
  }
}
layer {
  name: "accuracy"
  type: "Accuracy"
  bottom: "ip"
  bottom: "label"
  top: "accuracy"
}
layer {
  name: "loss"
  type: "SoftmaxWithLoss"
  bottom: "ip"
  bottom: "label"
  top: "loss"
}
I0413 20:13:32.437527 21859 layer_factory.hpp:77] Creating layer cifar
I0413 20:13:32.438177 21859 net.cpp:91] Creating Layer cifar
I0413 20:13:32.438197 21859 net.cpp:399] cifar -> data
I0413 20:13:32.438213 21859 net.cpp:399] cifar -> label
I0413 20:13:32.438233 21859 data_transformer.cpp:25] Loading mean file from: data/cifar10/mean.binaryproto
I0413 20:13:32.444705 21947 db_lmdb.cpp:38] Opened lmdb data/cifar10/cifar10_train_lmdb
I0413 20:13:32.454358 21859 data_layer.cpp:41] output data size: 256,3,32,32
I0413 20:13:32.461036 21859 net.cpp:141] Setting up cifar
I0413 20:13:32.461063 21859 net.cpp:148] Top shape: 256 3 32 32 (786432)
I0413 20:13:32.461071 21859 net.cpp:148] Top shape: 256 (256)
I0413 20:13:32.461077 21859 net.cpp:156] Memory required for data: 3146752
I0413 20:13:32.461087 21859 layer_factory.hpp:77] Creating layer label_cifar_1_split
I0413 20:13:32.461117 21859 net.cpp:91] Creating Layer label_cifar_1_split
I0413 20:13:32.461127 21859 net.cpp:425] label_cifar_1_split <- label
I0413 20:13:32.461138 21859 net.cpp:399] label_cifar_1_split -> label_cifar_1_split_0
I0413 20:13:32.461153 21859 net.cpp:399] label_cifar_1_split -> label_cifar_1_split_1
I0413 20:13:32.461284 21859 net.cpp:141] Setting up label_cifar_1_split
I0413 20:13:32.461307 21859 net.cpp:148] Top shape: 256 (256)
I0413 20:13:32.461313 21859 net.cpp:148] Top shape: 256 (256)
I0413 20:13:32.461318 21859 net.cpp:156] Memory required for data: 3148800
I0413 20:13:32.461324 21859 layer_factory.hpp:77] Creating layer conv1
I0413 20:13:32.461345 21859 net.cpp:91] Creating Layer conv1
I0413 20:13:32.461352 21859 net.cpp:425] conv1 <- data
I0413 20:13:32.461361 21859 net.cpp:399] conv1 -> conv1
I0413 20:13:32.668902 21859 net.cpp:141] Setting up conv1
I0413 20:13:32.668951 21859 net.cpp:148] Top shape: 256 16 32 32 (4194304)
I0413 20:13:32.668958 21859 net.cpp:156] Memory required for data: 19926016
I0413 20:13:32.668982 21859 layer_factory.hpp:77] Creating layer bn_conv1
I0413 20:13:32.669001 21859 net.cpp:91] Creating Layer bn_conv1
I0413 20:13:32.669008 21859 net.cpp:425] bn_conv1 <- conv1
I0413 20:13:32.669019 21859 net.cpp:386] bn_conv1 -> conv1 (in-place)
I0413 20:13:32.669234 21859 net.cpp:141] Setting up bn_conv1
I0413 20:13:32.669248 21859 net.cpp:148] Top shape: 256 16 32 32 (4194304)
I0413 20:13:32.669255 21859 net.cpp:156] Memory required for data: 36703232
I0413 20:13:32.669270 21859 layer_factory.hpp:77] Creating layer scale_conv1
I0413 20:13:32.669284 21859 net.cpp:91] Creating Layer scale_conv1
I0413 20:13:32.669291 21859 net.cpp:425] scale_conv1 <- conv1
I0413 20:13:32.669298 21859 net.cpp:386] scale_conv1 -> conv1 (in-place)
I0413 20:13:32.669345 21859 layer_factory.hpp:77] Creating layer scale_conv1
I0413 20:13:32.669461 21859 net.cpp:141] Setting up scale_conv1
I0413 20:13:32.669471 21859 net.cpp:148] Top shape: 256 16 32 32 (4194304)
I0413 20:13:32.669476 21859 net.cpp:156] Memory required for data: 53480448
I0413 20:13:32.669487 21859 layer_factory.hpp:77] Creating layer conv1_relu
I0413 20:13:32.669497 21859 net.cpp:91] Creating Layer conv1_relu
I0413 20:13:32.669503 21859 net.cpp:425] conv1_relu <- conv1
I0413 20:13:32.669512 21859 net.cpp:386] conv1_relu -> conv1 (in-place)
I0413 20:13:32.669829 21859 net.cpp:141] Setting up conv1_relu
I0413 20:13:32.669847 21859 net.cpp:148] Top shape: 256 16 32 32 (4194304)
I0413 20:13:32.669854 21859 net.cpp:156] Memory required for data: 70257664
I0413 20:13:32.669860 21859 layer_factory.hpp:77] Creating layer conv1_conv1_relu_0_split
I0413 20:13:32.669870 21859 net.cpp:91] Creating Layer conv1_conv1_relu_0_split
I0413 20:13:32.669877 21859 net.cpp:425] conv1_conv1_relu_0_split <- conv1
I0413 20:13:32.669885 21859 net.cpp:399] conv1_conv1_relu_0_split -> conv1_conv1_relu_0_split_0
I0413 20:13:32.669896 21859 net.cpp:399] conv1_conv1_relu_0_split -> conv1_conv1_relu_0_split_1
I0413 20:13:32.669945 21859 net.cpp:141] Setting up conv1_conv1_relu_0_split
I0413 20:13:32.669955 21859 net.cpp:148] Top shape: 256 16 32 32 (4194304)
I0413 20:13:32.669961 21859 net.cpp:148] Top shape: 256 16 32 32 (4194304)
I0413 20:13:32.669966 21859 net.cpp:156] Memory required for data: 103812096
I0413 20:13:32.669972 21859 layer_factory.hpp:77] Creating layer conv2_1a
I0413 20:13:32.669988 21859 net.cpp:91] Creating Layer conv2_1a
I0413 20:13:32.669994 21859 net.cpp:425] conv2_1a <- conv1_conv1_relu_0_split_0
I0413 20:13:32.670003 21859 net.cpp:399] conv2_1a -> conv2_1a
I0413 20:13:32.670977 21859 net.cpp:141] Setting up conv2_1a
I0413 20:13:32.670999 21859 net.cpp:148] Top shape: 256 16 32 32 (4194304)
I0413 20:13:32.671005 21859 net.cpp:156] Memory required for data: 120589312
I0413 20:13:32.671020 21859 layer_factory.hpp:77] Creating layer bn_conv2_1a
I0413 20:13:32.671031 21859 net.cpp:91] Creating Layer bn_conv2_1a
I0413 20:13:32.671038 21859 net.cpp:425] bn_conv2_1a <- conv2_1a
I0413 20:13:32.671046 21859 net.cpp:386] bn_conv2_1a -> conv2_1a (in-place)
I0413 20:13:32.671239 21859 net.cpp:141] Setting up bn_conv2_1a
I0413 20:13:32.671252 21859 net.cpp:148] Top shape: 256 16 32 32 (4194304)
I0413 20:13:32.671257 21859 net.cpp:156] Memory required for data: 137366528
I0413 20:13:32.671268 21859 layer_factory.hpp:77] Creating layer scale_conv2_1a
I0413 20:13:32.671277 21859 net.cpp:91] Creating Layer scale_conv2_1a
I0413 20:13:32.671294 21859 net.cpp:425] scale_conv2_1a <- conv2_1a
I0413 20:13:32.671303 21859 net.cpp:386] scale_conv2_1a -> conv2_1a (in-place)
I0413 20:13:32.671346 21859 layer_factory.hpp:77] Creating layer scale_conv2_1a
I0413 20:13:32.671460 21859 net.cpp:141] Setting up scale_conv2_1a
I0413 20:13:32.671471 21859 net.cpp:148] Top shape: 256 16 32 32 (4194304)
I0413 20:13:32.671476 21859 net.cpp:156] Memory required for data: 154143744
I0413 20:13:32.671486 21859 layer_factory.hpp:77] Creating layer conv2_1a_relu
I0413 20:13:32.671495 21859 net.cpp:91] Creating Layer conv2_1a_relu
I0413 20:13:32.671501 21859 net.cpp:425] conv2_1a_relu <- conv2_1a
I0413 20:13:32.671509 21859 net.cpp:386] conv2_1a_relu -> conv2_1a (in-place)
I0413 20:13:32.671818 21859 net.cpp:141] Setting up conv2_1a_relu
I0413 20:13:32.671836 21859 net.cpp:148] Top shape: 256 16 32 32 (4194304)
I0413 20:13:32.671843 21859 net.cpp:156] Memory required for data: 170920960
I0413 20:13:32.671849 21859 layer_factory.hpp:77] Creating layer conv2_1b
I0413 20:13:32.671864 21859 net.cpp:91] Creating Layer conv2_1b
I0413 20:13:32.671869 21859 net.cpp:425] conv2_1b <- conv2_1a
I0413 20:13:32.671880 21859 net.cpp:399] conv2_1b -> conv2_1b
I0413 20:13:32.672973 21859 net.cpp:141] Setting up conv2_1b
I0413 20:13:32.672994 21859 net.cpp:148] Top shape: 256 16 32 32 (4194304)
I0413 20:13:32.673001 21859 net.cpp:156] Memory required for data: 187698176
I0413 20:13:32.673012 21859 layer_factory.hpp:77] Creating layer bn_conv2_1b
I0413 20:13:32.673022 21859 net.cpp:91] Creating Layer bn_conv2_1b
I0413 20:13:32.673028 21859 net.cpp:425] bn_conv2_1b <- conv2_1b
I0413 20:13:32.673038 21859 net.cpp:386] bn_conv2_1b -> conv2_1b (in-place)
I0413 20:13:32.673243 21859 net.cpp:141] Setting up bn_conv2_1b
I0413 20:13:32.673257 21859 net.cpp:148] Top shape: 256 16 32 32 (4194304)
I0413 20:13:32.673264 21859 net.cpp:156] Memory required for data: 204475392
I0413 20:13:32.673280 21859 layer_factory.hpp:77] Creating layer scale_conv2_1b
I0413 20:13:32.673290 21859 net.cpp:91] Creating Layer scale_conv2_1b
I0413 20:13:32.673295 21859 net.cpp:425] scale_conv2_1b <- conv2_1b
I0413 20:13:32.673303 21859 net.cpp:386] scale_conv2_1b -> conv2_1b (in-place)
I0413 20:13:32.673346 21859 layer_factory.hpp:77] Creating layer scale_conv2_1b
I0413 20:13:32.673470 21859 net.cpp:141] Setting up scale_conv2_1b
I0413 20:13:32.673483 21859 net.cpp:148] Top shape: 256 16 32 32 (4194304)
I0413 20:13:32.673488 21859 net.cpp:156] Memory required for data: 221252608
I0413 20:13:32.673498 21859 layer_factory.hpp:77] Creating layer conv2_1
I0413 20:13:32.673507 21859 net.cpp:91] Creating Layer conv2_1
I0413 20:13:32.673513 21859 net.cpp:425] conv2_1 <- conv2_1b
I0413 20:13:32.673519 21859 net.cpp:425] conv2_1 <- conv1_conv1_relu_0_split_1
I0413 20:13:32.673527 21859 net.cpp:399] conv2_1 -> conv2_1
I0413 20:13:32.673568 21859 net.cpp:141] Setting up conv2_1
I0413 20:13:32.673579 21859 net.cpp:148] Top shape: 256 16 32 32 (4194304)
I0413 20:13:32.673584 21859 net.cpp:156] Memory required for data: 238029824
I0413 20:13:32.673590 21859 layer_factory.hpp:77] Creating layer conv2_1_relu
I0413 20:13:32.673599 21859 net.cpp:91] Creating Layer conv2_1_relu
I0413 20:13:32.673605 21859 net.cpp:425] conv2_1_relu <- conv2_1
I0413 20:13:32.673612 21859 net.cpp:386] conv2_1_relu -> conv2_1 (in-place)
I0413 20:13:32.673818 21859 net.cpp:141] Setting up conv2_1_relu
I0413 20:13:32.673833 21859 net.cpp:148] Top shape: 256 16 32 32 (4194304)
I0413 20:13:32.673840 21859 net.cpp:156] Memory required for data: 254807040
I0413 20:13:32.673846 21859 layer_factory.hpp:77] Creating layer conv2_1_conv2_1_relu_0_split
I0413 20:13:32.673856 21859 net.cpp:91] Creating Layer conv2_1_conv2_1_relu_0_split
I0413 20:13:32.673864 21859 net.cpp:425] conv2_1_conv2_1_relu_0_split <- conv2_1
I0413 20:13:32.673873 21859 net.cpp:399] conv2_1_conv2_1_relu_0_split -> conv2_1_conv2_1_relu_0_split_0
I0413 20:13:32.673883 21859 net.cpp:399] conv2_1_conv2_1_relu_0_split -> conv2_1_conv2_1_relu_0_split_1
I0413 20:13:32.673933 21859 net.cpp:141] Setting up conv2_1_conv2_1_relu_0_split
I0413 20:13:32.673949 21859 net.cpp:148] Top shape: 256 16 32 32 (4194304)
I0413 20:13:32.673956 21859 net.cpp:148] Top shape: 256 16 32 32 (4194304)
I0413 20:13:32.673961 21859 net.cpp:156] Memory required for data: 288361472
I0413 20:13:32.673966 21859 layer_factory.hpp:77] Creating layer conv2_2a
I0413 20:13:32.673982 21859 net.cpp:91] Creating Layer conv2_2a
I0413 20:13:32.673988 21859 net.cpp:425] conv2_2a <- conv2_1_conv2_1_relu_0_split_0
I0413 20:13:32.674000 21859 net.cpp:399] conv2_2a -> conv2_2a
I0413 20:13:32.675225 21859 net.cpp:141] Setting up conv2_2a
I0413 20:13:32.675246 21859 net.cpp:148] Top shape: 256 16 32 32 (4194304)
I0413 20:13:32.675251 21859 net.cpp:156] Memory required for data: 305138688
I0413 20:13:32.675262 21859 layer_factory.hpp:77] Creating layer bn_conv2_2a
I0413 20:13:32.675272 21859 net.cpp:91] Creating Layer bn_conv2_2a
I0413 20:13:32.675278 21859 net.cpp:425] bn_conv2_2a <- conv2_2a
I0413 20:13:32.675292 21859 net.cpp:386] bn_conv2_2a -> conv2_2a (in-place)
I0413 20:13:32.675501 21859 net.cpp:141] Setting up bn_conv2_2a
I0413 20:13:32.675513 21859 net.cpp:148] Top shape: 256 16 32 32 (4194304)
I0413 20:13:32.675518 21859 net.cpp:156] Memory required for data: 321915904
I0413 20:13:32.675529 21859 layer_factory.hpp:77] Creating layer scale_conv2_2a
I0413 20:13:32.675539 21859 net.cpp:91] Creating Layer scale_conv2_2a
I0413 20:13:32.675544 21859 net.cpp:425] scale_conv2_2a <- conv2_2a
I0413 20:13:32.675552 21859 net.cpp:386] scale_conv2_2a -> conv2_2a (in-place)
I0413 20:13:32.675601 21859 layer_factory.hpp:77] Creating layer scale_conv2_2a
I0413 20:13:32.675726 21859 net.cpp:141] Setting up scale_conv2_2a
I0413 20:13:32.675739 21859 net.cpp:148] Top shape: 256 16 32 32 (4194304)
I0413 20:13:32.675743 21859 net.cpp:156] Memory required for data: 338693120
I0413 20:13:32.675753 21859 layer_factory.hpp:77] Creating layer conv2_2a_relu
I0413 20:13:32.675761 21859 net.cpp:91] Creating Layer conv2_2a_relu
I0413 20:13:32.675767 21859 net.cpp:425] conv2_2a_relu <- conv2_2a
I0413 20:13:32.675776 21859 net.cpp:386] conv2_2a_relu -> conv2_2a (in-place)
I0413 20:13:32.676105 21859 net.cpp:141] Setting up conv2_2a_relu
I0413 20:13:32.676126 21859 net.cpp:148] Top shape: 256 16 32 32 (4194304)
I0413 20:13:32.676131 21859 net.cpp:156] Memory required for data: 355470336
I0413 20:13:32.676137 21859 layer_factory.hpp:77] Creating layer conv2_2b
I0413 20:13:32.676153 21859 net.cpp:91] Creating Layer conv2_2b
I0413 20:13:32.676159 21859 net.cpp:425] conv2_2b <- conv2_2a
I0413 20:13:32.676169 21859 net.cpp:399] conv2_2b -> conv2_2b
I0413 20:13:32.677599 21859 net.cpp:141] Setting up conv2_2b
I0413 20:13:32.677619 21859 net.cpp:148] Top shape: 256 16 32 32 (4194304)
I0413 20:13:32.677625 21859 net.cpp:156] Memory required for data: 372247552
I0413 20:13:32.677639 21859 layer_factory.hpp:77] Creating layer bn_conv2_2b
I0413 20:13:32.677650 21859 net.cpp:91] Creating Layer bn_conv2_2b
I0413 20:13:32.677657 21859 net.cpp:425] bn_conv2_2b <- conv2_2b
I0413 20:13:32.677665 21859 net.cpp:386] bn_conv2_2b -> conv2_2b (in-place)
I0413 20:13:32.677875 21859 net.cpp:141] Setting up bn_conv2_2b
I0413 20:13:32.677887 21859 net.cpp:148] Top shape: 256 16 32 32 (4194304)
I0413 20:13:32.677892 21859 net.cpp:156] Memory required for data: 389024768
I0413 20:13:32.677908 21859 layer_factory.hpp:77] Creating layer scale_conv2_2b
I0413 20:13:32.677922 21859 net.cpp:91] Creating Layer scale_conv2_2b
I0413 20:13:32.677927 21859 net.cpp:425] scale_conv2_2b <- conv2_2b
I0413 20:13:32.677934 21859 net.cpp:386] scale_conv2_2b -> conv2_2b (in-place)
I0413 20:13:32.677981 21859 layer_factory.hpp:77] Creating layer scale_conv2_2b
I0413 20:13:32.678104 21859 net.cpp:141] Setting up scale_conv2_2b
I0413 20:13:32.678117 21859 net.cpp:148] Top shape: 256 16 32 32 (4194304)
I0413 20:13:32.678123 21859 net.cpp:156] Memory required for data: 405801984
…
I0413 21:49:06.103968 10297 layer_factory.hpp:77] Creating layer conv2_1
I0413 21:49:06.103979 10297 net.cpp:91] Creating Layer conv2_1
I0413 21:49:06.103986 10297 net.cpp:425] conv2_1 <- conv2_1b
I0413 21:49:06.103998 10297 net.cpp:425] conv2_1 <- conv1_conv1_relu_0_split_1
I0413 21:49:06.104007 10297 net.cpp:399] conv2_1 -> conv2_1
I0413 21:49:06.104050 10297 net.cpp:141] Setting up conv2_1
I0413 21:49:06.104063 10297 net.cpp:148] Top shape: 100 16 32 32 (1638400)
I0413 21:49:06.104074 10297 net.cpp:156] Memory required for data: 92980400
I0413 21:49:06.104090 10297 layer_factory.hpp:77] Creating layer conv2_1_relu
I0413 21:49:06.104099 10297 net.cpp:91] Creating Layer conv2_1_relu
I0413 21:49:06.104104 10297 net.cpp:425] conv2_1_relu <- conv2_1
I0413 21:49:06.104127 10297 net.cpp:386] conv2_1_relu -> conv2_1 (in-place)
I0413 21:49:06.104370 10297 net.cpp:141] Setting up conv2_1_relu
I0413 21:49:06.104385 10297 net.cpp:148] Top shape: 100 16 32 32 (1638400)
I0413 21:49:06.104392 10297 net.cpp:156] Memory required for data: 99534000
I0413 21:49:06.104398 10297 layer_factory.hpp:77] Creating layer conv2_1_conv2_1_relu_0_split
I0413 21:49:06.104411 10297 net.cpp:91] Creating Layer conv2_1_conv2_1_relu_0_split
I0413 21:49:06.104418 10297 net.cpp:425] conv2_1_conv2_1_relu_0_split <- conv2_1
I0413 21:49:06.104429 10297 net.cpp:399] conv2_1_conv2_1_relu_0_split -> conv2_1_conv2_1_relu_0_split_0
I0413 21:49:06.104445 10297 net.cpp:399] conv2_1_conv2_1_relu_0_split -> conv2_1_conv2_1_relu_0_split_1
I0413 21:49:06.104512 10297 net.cpp:141] Setting up conv2_1_conv2_1_relu_0_split
I0413 21:49:06.104526 10297 net.cpp:148] Top shape: 100 16 32 32 (1638400)
I0413 21:49:06.104533 10297 net.cpp:148] Top shape: 100 16 32 32 (1638400)
I0413 21:49:06.104538 10297 net.cpp:156] Memory required for data: 112641200
I0413 21:49:06.104564 10297 layer_factory.hpp:77] Creating layer conv2_2a
I0413 21:49:06.104581 10297 net.cpp:91] Creating Layer conv2_2a
I0413 21:49:06.104588 10297 net.cpp:425] conv2_2a <- conv2_1_conv2_1_relu_0_split_0
I0413 21:49:06.104598 10297 net.cpp:399] conv2_2a -> conv2_2a
I0413 21:49:06.106021 10297 net.cpp:141] Setting up conv2_2a
I0413 21:49:06.106045 10297 net.cpp:148] Top shape: 100 16 32 32 (1638400)
I0413 21:49:06.106052 10297 net.cpp:156] Memory required for data: 119194800
I0413 21:49:06.106063 10297 layer_factory.hpp:77] Creating layer bn_conv2_2a
I0413 21:49:06.106073 10297 net.cpp:91] Creating Layer bn_conv2_2a
I0413 21:49:06.106081 10297 net.cpp:425] bn_conv2_2a <- conv2_2a
I0413 21:49:06.106092 10297 net.cpp:386] bn_conv2_2a -> conv2_2a (in-place)
I0413 21:49:06.106403 10297 net.cpp:141] Setting up bn_conv2_2a
I0413 21:49:06.106416 10297 net.cpp:148] Top shape: 100 16 32 32 (1638400)
I0413 21:49:06.106422 10297 net.cpp:156] Memory required for data: 125748400
I0413 21:49:06.106433 10297 layer_factory.hpp:77] Creating layer scale_conv2_2a
I0413 21:49:06.106443 10297 net.cpp:91] Creating Layer scale_conv2_2a
I0413 21:49:06.106449 10297 net.cpp:425] scale_conv2_2a <- conv2_2a
I0413 21:49:06.106457 10297 net.cpp:386] scale_conv2_2a -> conv2_2a (in-place)
I0413 21:49:06.106601 10297 layer_factory.hpp:77] Creating layer scale_conv2_2a
I0413 21:49:06.106771 10297 net.cpp:141] Setting up scale_conv2_2a
I0413 21:49:06.106784 10297 net.cpp:148] Top shape: 100 16 32 32 (1638400)
I0413 21:49:06.106792 10297 net.cpp:156] Memory required for data: 132302000
I0413 21:49:06.106802 10297 layer_factory.hpp:77] Creating layer conv2_2a_relu
I0413 21:49:06.106813 10297 net.cpp:91] Creating Layer conv2_2a_relu
I0413 21:49:06.106838 10297 net.cpp:425] conv2_2a_relu <- conv2_2a
I0413 21:49:06.106847 10297 net.cpp:386] conv2_2a_relu -> conv2_2a (in-place)
I0413 21:49:06.107228 10297 net.cpp:141] Setting up conv2_2a_relu
I0413 21:49:06.107251 10297 net.cpp:148] Top shape: 100 16 32 32 (1638400)
I0413 21:49:06.107259 10297 net.cpp:156] Memory required for data: 138855600
I0413 21:49:06.107265 10297 layer_factory.hpp:77] Creating layer conv2_2b
I0413 21:49:06.107282 10297 net.cpp:91] Creating Layer conv2_2b
I0413 21:49:06.107290 10297 net.cpp:425] conv2_2b <- conv2_2a
I0413 21:49:06.107300 10297 net.cpp:399] conv2_2b -> conv2_2b
I0413 21:49:06.108726 10297 net.cpp:141] Setting up conv2_2b
I0413 21:49:06.108752 10297 net.cpp:148] Top shape: 100 16 32 32 (1638400)
I0413 21:49:06.108758 10297 net.cpp:156] Memory required for data: 145409200
I0413 21:49:06.108768 10297 layer_factory.hpp:77] Creating layer bn_conv2_2b
I0413 21:49:06.108782 10297 net.cpp:91] Creating Layer bn_conv2_2b
I0413 21:49:06.108790 10297 net.cpp:425] bn_conv2_2b <- conv2_2b
I0413 21:49:06.108799 10297 net.cpp:386] bn_conv2_2b -> conv2_2b (in-place)
I0413 21:49:06.109087 10297 net.cpp:141] Setting up bn_conv2_2b
I0413 21:49:06.109100 10297 net.cpp:148] Top shape: 100 16 32 32 (1638400)
I0413 21:49:06.109107 10297 net.cpp:156] Memory required for data: 151962800
I0413 21:49:06.109140 10297 layer_factory.hpp:77] Creating layer scale_conv2_2b
I0413 21:49:06.109168 10297 net.cpp:91] Creating Layer scale_conv2_2b
I0413 21:49:06.109174 10297 net.cpp:425] scale_conv2_2b <- conv2_2b
I0413 21:49:06.109182 10297 net.cpp:386] scale_conv2_2b -> conv2_2b (in-place)
I0413 21:49:06.109248 10297 layer_factory.hpp:77] Creating layer scale_conv2_2b
I0413 21:49:06.109412 10297 net.cpp:141] Setting up scale_conv2_2b
I0413 21:49:06.109424 10297 net.cpp:148] Top shape: 100 16 32 32 (1638400)
I0413 21:49:06.109429 10297 net.cpp:156] Memory required for data: 158516400
I0413 21:49:06.109439 10297 layer_factory.hpp:77] Creating layer conv2_2
I0413 21:49:06.109450 10297 net.cpp:91] Creating Layer conv2_2
I0413 21:49:06.109457 10297 net.cpp:425] conv2_2 <- conv2_2b
I0413 21:49:06.109463 10297 net.cpp:425] conv2_2 <- conv2_1_conv2_1_relu_0_split_1
I0413 21:49:06.109472 10297 net.cpp:399] conv2_2 -> conv2_2
I0413 21:49:06.109513 10297 net.cpp:141] Setting up conv2_2
I0413 21:49:06.109524 10297 net.cpp:148] Top shape: 100 16 32 32 (1638400)
I0413 21:49:06.109535 10297 net.cpp:156] Memory required for data: 165070000
I0413 21:49:06.109547 10297 layer_factory.hpp:77] Creating layer conv2_2_relu
I0413 21:49:06.109570 10297 net.cpp:91] Creating Layer conv2_2_relu
I0413 21:49:06.109575 10297 net.cpp:425] conv2_2_relu <- conv2_2
I0413 21:49:06.109586 10297 net.cpp:386] conv2_2_relu -> conv2_2 (in-place)
I0413 21:49:06.109823 10297 net.cpp:141] Setting up conv2_2_relu
I0413 21:49:06.109838 10297 net.cpp:148] Top shape: 100 16 32 32 (1638400)
I0413 21:49:06.109844 10297 net.cpp:156] Memory required for data: 171623600
I0413 21:49:06.109851 10297 layer_factory.hpp:77] Creating layer conv2_2_conv2_2_relu_0_split
I0413 21:49:06.109860 10297 net.cpp:91] Creating Layer conv2_2_conv2_2_relu_0_split
I0413 21:49:06.109866 10297 net.cpp:425] conv2_2_conv2_2_relu_0_split <- conv2_2
I0413 21:49:06.109876 10297 net.cpp:399] conv2_2_conv2_2_relu_0_split -> conv2_2_conv2_2_relu_0_split_0
I0413 21:49:06.109900 10297 net.cpp:399] conv2_2_conv2_2_relu_0_split -> conv2_2_conv2_2_relu_0_split_1
I0413 21:49:06.109964 10297 net.cpp:141] Setting up conv2_2_conv2_2_relu_0_split
I0413 21:49:06.109977 10297 net.cpp:148] Top shape: 100 16 32 32 (1638400)
I0413 21:49:06.109988 10297 net.cpp:148] Top shape: 100 16 32 32 (1638400)
I0413 21:49:06.109994 10297 net.cpp:156] Memory required for data: 184730800
I0413 21:49:06.110000 10297 layer_factory.hpp:77] Creating layer conv2_3a
I0413 21:49:06.110015 10297 net.cpp:91] Creating Layer conv2_3a
I0413 21:49:06.110023 10297 net.cpp:425] conv2_3a <- conv2_2_conv2_2_relu_0_split_0
I0413 21:49:06.110031 10297 net.cpp:399] conv2_3a -> conv2_3a
I0413 21:49:06.111385 10297 net.cpp:141] Setting up conv2_3a
I0413 21:49:06.111407 10297 net.cpp:148] Top shape: 100 16 32 32 (1638400)
I0413 21:49:06.111413 10297 net.cpp:156] Memory required for data: 191284400
I0413 21:49:06.111423 10297 layer_factory.hpp:77] Creating layer bn_conv2_3a
I0413 21:49:06.111435 10297 net.cpp:91] Creating Layer bn_conv2_3a
I0413 21:49:06.111443 10297 net.cpp:425] bn_conv2_3a <- conv2_3a
I0413 21:49:06.111451 10297 net.cpp:386] bn_conv2_3a -> conv2_3a (in-place)
I0413 21:49:06.111718 10297 net.cpp:141] Setting up bn_conv2_3a
I0413 21:49:06.111731 10297 net.cpp:148] Top shape: 100 16 32 32 (1638400)
I0413 21:49:06.111735 10297 net.cpp:156] Memory required for data: 197838000
I0413 21:49:06.111747 10297 layer_factory.hpp:77] Creating layer scale_conv2_3a
I0413 21:49:06.111757 10297 net.cpp:91] Creating Layer scale_conv2_3a
I0413 21:49:06.111763 10297 net.cpp:425] scale_conv2_3a <- conv2_3a
I0413 21:49:06.111771 10297 net.cpp:386] scale_conv2_3a -> conv2_3a (in-place)
I0413 21:49:06.111830 10297 layer_factory.hpp:77] Creating layer scale_conv2_3a
I0413 21:49:06.111985 10297 net.cpp:141] Setting up scale_conv2_3a
I0413 21:49:06.111996 10297 net.cpp:148] Top shape: 100 16 32 32 (1638400)
I0413 21:49:06.112002 10297 net.cpp:156] Memory required for data: 204391600
I0413 21:49:06.112011 10297 layer_factory.hpp:77] Creating layer conv2_3a_relu
I0413 21:49:06.112021 10297 net.cpp:91] Creating Layer conv2_3a_relu
I0413 21:49:06.112027 10297 net.cpp:425] conv2_3a_relu <- conv2_3a
I0413 21:49:06.112035 10297 net.cpp:386] conv2_3a_relu -> conv2_3a (in-place)
I0413 21:49:06.112268 10297 net.cpp:141] Setting up conv2_3a_relu
I0413 21:49:06.112282 10297 net.cpp:148] Top shape: 100 16 32 32 (1638400)
I0413 21:49:06.112288 10297 net.cpp:156] Memory required for data: 210945200
I0413 21:49:06.112294 10297 layer_factory.hpp:77] Creating layer conv2_3b
I0413 21:49:06.112308 10297 net.cpp:91] Creating Layer conv2_3b
I0413 21:49:06.112315 10297 net.cpp:425] conv2_3b <- conv2_3a
I0413 21:49:06.112326 10297 net.cpp:399] conv2_3b -> conv2_3b
I0413 21:49:06.113697 10297 net.cpp:141] Setting up conv2_3b
I0413 21:49:06.113716 10297 net.cpp:148] Top shape: 100 16 32 32 (1638400)
I0413 21:49:06.113723 10297 net.cpp:156] Memory required for data: 217498800
I0413 21:49:06.113734 10297 layer_factory.hpp:77] Creating layer bn_conv2_3b
I0413 21:49:06.113751 10297 net.cpp:91] Creating Layer bn_conv2_3b
I0413 21:49:06.113766 10297 net.cpp:425] bn_conv2_3b <- conv2_3b
I0413 21:49:06.113776 10297 net.cpp:386] bn_conv2_3b -> conv2_3b (in-place)
I0413 21:49:06.114047 10297 net.cpp:141] Setting up bn_conv2_3b
I0413 21:49:06.114058 10297 net.cpp:148] Top shape: 100 16 32 32 (1638400)
I0413 21:49:06.114063 10297 net.cpp:156] Memory required for data: 224052400
I0413 21:49:06.114074 10297 layer_factory.hpp:77] Creating layer scale_conv2_3b
I0413 21:49:06.114084 10297 net.cpp:91] Creating Layer scale_conv2_3b
I0413 21:49:06.114089 10297 net.cpp:425] scale_conv2_3b <- conv2_3b
I0413 21:49:06.114097 10297 net.cpp:386] scale_conv2_3b -> conv2_3b (in-place)
I0413 21:49:06.114157 10297 layer_factory.hpp:77] Creating layer scale_conv2_3b
I0413 21:49:06.114315 10297 net.cpp:141] Setting up scale_conv2_3b
I0413 21:49:06.114326 10297 net.cpp:148] Top shape: 100 16 32 32 (1638400)
I0413 21:49:06.114331 10297 net.cpp:156] Memory required for data: 230606000
I0413 21:49:06.114341 10297 layer_factory.hpp:77] Creating layer conv2_3
I0413 21:49:06.114351 10297 net.cpp:91] Creating Layer conv2_3
I0413 21:49:06.114356 10297 net.cpp:425] conv2_3 <- conv2_3b
I0413 21:49:06.114364 10297 net.cpp:425] conv2_3 <- conv2_2_conv2_2_relu_0_split_1
I0413 21:49:06.114374 10297 net.cpp:399] conv2_3 -> conv2_3
I0413 21:49:06.114410 10297 net.cpp:141] Setting up conv2_3
I0413 21:49:06.114420 10297 net.cpp:148] Top shape: 100 16 32 32 (1638400)
I0413 21:49:06.114426 10297 net.cpp:156] Memory required for data: 237159600
I0413 21:49:06.114431 10297 layer_factory.hpp:77] Creating layer conv2_3_relu
I0413 21:49:06.114441 10297 net.cpp:91] Creating Layer conv2_3_relu
I0413 21:49:06.114449 10297 net.cpp:425] conv2_3_relu <- conv2_3
I0413 21:49:06.114455 10297 net.cpp:386] conv2_3_relu -> conv2_3 (in-place)
I0413 21:49:06.114917 10297 net.cpp:141] Setting up conv2_3_relu
I0413 21:49:06.114935 10297 net.cpp:148] Top shape: 100 16 32 32 (1638400)
I0413 21:49:06.114943 10297 net.cpp:156] Memory required for data: 243713200
I0413 21:49:06.114948 10297 layer_factory.hpp:77] Creating layer conv2_3_conv2_3_relu_0_split
I0413 21:49:06.114959 10297 net.cpp:91] Creating Layer conv2_3_conv2_3_relu_0_split
I0413 21:49:06.114965 10297 net.cpp:425] conv2_3_conv2_3_relu_0_split <- conv2_3
I0413 21:49:06.114974 10297 net.cpp:399] conv2_3_conv2_3_relu_0_split -> conv2_3_conv2_3_relu_0_split_0
I0413 21:49:06.114984 10297 net.cpp:399] conv2_3_conv2_3_relu_0_split -> conv2_3_conv2_3_relu_0_split_1
I0413 21:49:06.115051 10297 net.cpp:141] Setting up conv2_3_conv2_3_relu_0_split
I0413 21:49:06.115061 10297 net.cpp:148] Top shape: 100 16 32 32 (1638400)
I0413 21:49:06.115067 10297 net.cpp:148] Top shape: 100 16 32 32 (1638400)
I0413 21:49:06.115072 10297 net.cpp:156] Memory required for data: 256820400
I0413 21:49:06.115078 10297 layer_factory.hpp:77] Creating layer conv2_sub
I0413 21:49:06.115092 10297 net.cpp:91] Creating Layer conv2_sub
I0413 21:49:06.115098 10297 net.cpp:425] conv2_sub <- conv2_3_conv2_3_relu_0_split_0
I0413 21:49:06.115110 10297 net.cpp:399] conv2_sub -> conv2_sub
I0413 21:49:06.116420 10297 net.cpp:141] Setting up conv2_sub
I0413 21:49:06.116439 10297 net.cpp:148] Top shape: 100 32 16 16 (819200)
I0413 21:49:06.116446 10297 net.cpp:156] Memory required for data: 260097200
I0413 21:49:06.116456 10297 layer_factory.hpp:77] Creating layer bn_conv2_sub
I0413 21:49:06.116467 10297 net.cpp:91] Creating Layer bn_conv2_sub
I0413 21:49:06.116474 10297 net.cpp:425] bn_conv2_sub <- conv2_sub
I0413 21:49:06.116483 10297 net.cpp:386] bn_conv2_sub -> conv2_sub (in-place)
I0413 21:49:06.116753 10297 net.cpp:141] Setting up bn_conv2_sub
I0413 21:49:06.116765 10297 net.cpp:148] Top shape: 100 32 16 16 (819200)
I0413 21:49:06.116771 10297 net.cpp:156] Memory required for data: 263374000
I0413 21:49:06.116781 10297 layer_factory.hpp:77] Creating layer scale_conv2_sub
I0413 21:49:06.116792 10297 net.cpp:91] Creating Layer scale_conv2_sub
I0413 21:49:06.116798 10297 net.cpp:425] scale_conv2_sub <- conv2_sub
I0413 21:49:06.116806 10297 net.cpp:386] scale_conv2_sub -> conv2_sub (in-place)
I0413 21:49:06.116875 10297 layer_factory.hpp:77] Creating layer scale_conv2_sub
I0413 21:49:06.117034 10297 net.cpp:141] Setting up scale_conv2_sub
I0413 21:49:06.117045 10297 net.cpp:148] Top shape: 100 32 16 16 (819200)
I0413 21:49:06.117050 10297 net.cpp:156] Memory required for data: 266650800
I0413 21:49:06.117060 10297 layer_factory.hpp:77] Creating layer conv3_1a
I0413 21:49:06.117076 10297 net.cpp:91] Creating Layer conv3_1a
I0413 21:49:06.117084 10297 net.cpp:425] conv3_1a <- conv2_3_conv2_3_relu_0_split_1
I0413 21:49:06.117092 10297 net.cpp:399] conv3_1a -> conv3_1a
I0413 21:49:06.118315 10297 net.cpp:141] Setting up conv3_1a
I0413 21:49:06.118336 10297 net.cpp:148] Top shape: 100 32 16 16 (819200)
I0413 21:49:06.118342 10297 net.cpp:156] Memory required for data: 269927600
I0413 21:49:06.118352 10297 layer_factory.hpp:77] Creating layer bn_conv3_1a
I0413 21:49:06.118365 10297 net.cpp:91] Creating Layer bn_conv3_1a
I0413 21:49:06.118371 10297 net.cpp:425] bn_conv3_1a <- conv3_1a
I0413 21:49:06.118381 10297 net.cpp:386] bn_conv3_1a -> conv3_1a (in-place)
I0413 21:49:06.118652 10297 net.cpp:141] Setting up bn_conv3_1a
I0413 21:49:06.118664 10297 net.cpp:148] Top shape: 100 32 16 16 (819200)
I0413 21:49:06.118669 10297 net.cpp:156] Memory required for data: 273204400
I0413 21:49:06.118680 10297 layer_factory.hpp:77] Creating layer scale_conv3_1a
I0413 21:49:06.118690 10297 net.cpp:91] Creating Layer scale_conv3_1a
I0413 21:49:06.118695 10297 net.cpp:425] scale_conv3_1a <- conv3_1a
I0413 21:49:06.118705 10297 net.cpp:386] scale_conv3_1a -> conv3_1a (in-place)
I0413 21:49:06.118763 10297 layer_factory.hpp:77] Creating layer scale_conv3_1a
I0413 21:49:06.118921 10297 net.cpp:141] Setting up scale_conv3_1a
I0413 21:49:06.118932 10297 net.cpp:148] Top shape: 100 32 16 16 (819200)
I0413 21:49:06.118937 10297 net.cpp:156] Memory required for data: 276481200
I0413 21:49:06.118947 10297 layer_factory.hpp:77] Creating layer conv3_1a_relu
I0413 21:49:06.118954 10297 net.cpp:91] Creating Layer conv3_1a_relu
I0413 21:49:06.118960 10297 net.cpp:425] conv3_1a_relu <- conv3_1a
I0413 21:49:06.118969 10297 net.cpp:386] conv3_1a_relu -> conv3_1a (in-place)
I0413 21:49:06.119345 10297 net.cpp:141] Setting up conv3_1a_relu
I0413 21:49:06.119364 10297 net.cpp:148] Top shape: 100 32 16 16 (819200)
I0413 21:49:06.119370 10297 net.cpp:156] Memory required for data: 279758000
I0413 21:49:06.119375 10297 layer_factory.hpp:77] Creating layer conv3_1b
I0413 21:49:06.119391 10297 net.cpp:91] Creating Layer conv3_1b
I0413 21:49:06.119398 10297 net.cpp:425] conv3_1b <- conv3_1a
I0413 21:49:06.119410 10297 net.cpp:399] conv3_1b -> conv3_1b
I0413 21:49:06.121018 10297 net.cpp:141] Setting up conv3_1b
I0413 21:49:06.121038 10297 net.cpp:148] Top shape: 100 32 16 16 (819200)
I0413 21:49:06.121044 10297 net.cpp:156] Memory required for data: 283034800
I0413 21:49:06.121067 10297 layer_factory.hpp:77] Creating layer bn_conv3_1b
I0413 21:49:06.121078 10297 net.cpp:91] Creating Layer bn_conv3_1b
I0413 21:49:06.121088 10297 net.cpp:425] bn_conv3_1b <- conv3_1b
I0413 21:49:06.121096 10297 net.cpp:386] bn_conv3_1b -> conv3_1b (in-place)
I0413 21:49:06.121383 10297 net.cpp:141] Setting up bn_conv3_1b
I0413 21:49:06.121397 10297 net.cpp:148] Top shape: 100 32 16 16 (819200)
I0413 21:49:06.121402 10297 net.cpp:156] Memory required for data: 286311600
I0413 21:49:06.121412 10297 layer_factory.hpp:77] Creating layer scale_conv3_1b
I0413 21:49:06.121423 10297 net.cpp:91] Creating Layer scale_conv3_1b
I0413 21:49:06.121429 10297 net.cpp:425] scale_conv3_1b <- conv3_1b
I0413 21:49:06.121438 10297 net.cpp:386] scale_conv3_1b -> conv3_1b (in-place)
I0413 21:49:06.121495 10297 layer_factory.hpp:77] Creating layer scale_conv3_1b
I0413 21:49:06.121650 10297 net.cpp:141] Setting up scale_conv3_1b
I0413 21:49:06.121660 10297 net.cpp:148] Top shape: 100 32 16 16 (819200)
I0413 21:49:06.121665 10297 net.cpp:156] Memory required for data: 289588400
I0413 21:49:06.121675 10297 layer_factory.hpp:77] Creating layer conv3_1
I0413 21:49:06.121681 10297 net.cpp:91] Creating Layer conv3_1
I0413 21:49:06.121693 10297 net.cpp:425] conv3_1 <- conv3_1b
I0413 21:49:06.121702 10297 net.cpp:425] conv3_1 <- conv2_sub
I0413 21:49:06.121711 10297 net.cpp:399] conv3_1 -> conv3_1
I0413 21:49:06.121742 10297 net.cpp:141] Setting up conv3_1
I0413 21:49:06.121754 10297 net.cpp:148] Top shape: 100 32 16 16 (819200)
I0413 21:49:06.121759 10297 net.cpp:156] Memory required for data: 292865200
I0413 21:49:06.121764 10297 layer_factory.hpp:77] Creating layer conv3_1_relu
I0413 21:49:06.121772 10297 net.cpp:91] Creating Layer conv3_1_relu
I0413 21:49:06.121778 10297 net.cpp:425] conv3_1_relu <- conv3_1
I0413 21:49:06.121783 10297 net.cpp:386] conv3_1_relu -> conv3_1 (in-place)
I0413 21:49:06.121994 10297 net.cpp:141] Setting up conv3_1_relu
I0413 21:49:06.122009 10297 net.cpp:148] Top shape: 100 32 16 16 (819200)
I0413 21:49:06.122014 10297 net.cpp:156] Memory required for data: 296142000
I0413 21:49:06.122020 10297 layer_factory.hpp:77] Creating layer conv3_1_conv3_1_relu_0_split
I0413 21:49:06.122026 10297 net.cpp:91] Creating Layer conv3_1_conv3_1_relu_0_split
I0413 21:49:06.122032 10297 net.cpp:425] conv3_1_conv3_1_relu_0_split <- conv3_1
I0413 21:49:06.122042 10297 net.cpp:399] conv3_1_conv3_1_relu_0_split -> conv3_1_conv3_1_relu_0_split_0
I0413 21:49:06.122052 10297 net.cpp:399] conv3_1_conv3_1_relu_0_split -> conv3_1_conv3_1_relu_0_split_1
I0413 21:49:06.122112 10297 net.cpp:141] Setting up conv3_1_conv3_1_relu_0_split
I0413 21:49:06.122122 10297 net.cpp:148] Top shape: 100 32 16 16 (819200)
I0413 21:49:06.122128 10297 net.cpp:148] Top shape: 100 32 16 16 (819200)
I0413 21:49:06.122133 10297 net.cpp:156] Memory required for data: 302695600
I0413 21:49:06.122138 10297 layer_factory.hpp:77] Creating layer conv3_2a
I0413 21:49:06.122151 10297 net.cpp:91] Creating Layer conv3_2a
I0413 21:49:06.122159 10297 net.cpp:425] conv3_2a <- conv3_1_conv3_1_relu_0_split_0
I0413 21:49:06.122169 10297 net.cpp:399] conv3_2a -> conv3_2a
I0413 21:49:06.123728 10297 net.cpp:141] Setting up conv3_2a
I0413 21:49:06.123745 10297 net.cpp:148] Top shape: 100 32 16 16 (819200)
I0413 21:49:06.123751 10297 net.cpp:156] Memory required for data: 305972400
I0413 21:49:06.123761 10297 layer_factory.hpp:77] Creating layer bn_conv3_2a
I0413 21:49:06.123774 10297 net.cpp:91] Creating Layer bn_conv3_2a
I0413 21:49:06.123780 10297 net.cpp:425] bn_conv3_2a <- conv3_2a
I0413 21:49:06.123790 10297 net.cpp:386] bn_conv3_2a -> conv3_2a (in-place)
I0413 21:49:06.124052 10297 net.cpp:141] Setting up bn_conv3_2a
I0413 21:49:06.124063 10297 net.cpp:148] Top shape: 100 32 16 16 (819200)
I0413 21:49:06.124068 10297 net.cpp:156] Memory required for data: 309249200
I0413 21:49:06.124078 10297 layer_factory.hpp:77] Creating layer scale_conv3_2a
I0413 21:49:06.124089 10297 net.cpp:91] Creating Layer scale_conv3_2a
I0413 21:49:06.124094 10297 net.cpp:425] scale_conv3_2a <- conv3_2a
I0413 21:49:06.124102 10297 net.cpp:386] scale_conv3_2a -> conv3_2a (in-place)
I0413 21:49:06.124161 10297 layer_factory.hpp:77] Creating layer scale_conv3_2a
I0413 21:49:06.124323 10297 net.cpp:141] Setting up scale_conv3_2a
I0413 21:49:06.124335 10297 net.cpp:148] Top shape: 100 32 16 16 (819200)
I0413 21:49:06.124339 10297 net.cpp:156] Memory required for data: 312526000
I0413 21:49:06.124347 10297 layer_factory.hpp:77] Creating layer conv3_2a_relu
I0413 21:49:06.124357 10297 net.cpp:91] Creating Layer conv3_2a_relu
I0413 21:49:06.124363 10297 net.cpp:425] conv3_2a_relu <- conv3_2a
I0413 21:49:06.124371 10297 net.cpp:386] conv3_2a_relu -> conv3_2a (in-place)
I0413 21:49:06.124713 10297 net.cpp:141] Setting up conv3_2a_relu
I0413 21:49:06.124730 10297 net.cpp:148] Top shape: 100 32 16 16 (819200)
I0413 21:49:06.124737 10297 net.cpp:156] Memory required for data: 315802800
I0413 21:49:06.124742 10297 layer_factory.hpp:77] Creating layer conv3_2b
I0413 21:49:06.124758 10297 net.cpp:91] Creating Layer conv3_2b
I0413 21:49:06.124764 10297 net.cpp:425] conv3_2b <- conv3_2a
I0413 21:49:06.124774 10297 net.cpp:399] conv3_2b -> conv3_2b
I0413 21:49:06.126235 10297 net.cpp:141] Setting up conv3_2b
I0413 21:49:06.126260 10297 net.cpp:148] Top shape: 100 32 16 16 (819200)
I0413 21:49:06.126266 10297 net.cpp:156] Memory required for data: 319079600
I0413 21:49:06.126276 10297 layer_factory.hpp:77] Creating layer bn_conv3_2b
I0413 21:49:06.126288 10297 net.cpp:91] Creating Layer bn_conv3_2b
I0413 21:49:06.126294 10297 net.cpp:425] bn_conv3_2b <- conv3_2b
I0413 21:49:06.126303 10297 net.cpp:386] bn_conv3_2b -> conv3_2b (in-place)
I0413 21:49:06.126566 10297 net.cpp:141] Setting up bn_conv3_2b
I0413 21:49:06.126577 10297 net.cpp:148] Top shape: 100 32 16 16 (819200)
I0413 21:49:06.126582 10297 net.cpp:156] Memory required for data: 322356400
I0413 21:49:06.126593 10297 layer_factory.hpp:77] Creating layer scale_conv3_2b
I0413 21:49:06.126602 10297 net.cpp:91] Creating Layer scale_conv3_2b
I0413 21:49:06.126607 10297 net.cpp:425] scale_conv3_2b <- conv3_2b
I0413 21:49:06.126617 10297 net.cpp:386] scale_conv3_2b -> conv3_2b (in-place)
I0413 21:49:06.126674 10297 layer_factory.hpp:77] Creating layer scale_conv3_2b
I0413 21:49:06.126834 10297 net.cpp:141] Setting up scale_conv3_2b
I0413 21:49:06.126845 10297 net.cpp:148] Top shape: 100 32 16 16 (819200)
I0413 21:49:06.126850 10297 net.cpp:156] Memory required for data: 325633200
I0413 21:49:06.126859 10297 layer_factory.hpp:77] Creating layer conv3_2
I0413 21:49:06.126866 10297 net.cpp:91] Creating Layer conv3_2
I0413 21:49:06.126873 10297 net.cpp:425] conv3_2 <- conv3_2b
I0413 21:49:06.126878 10297 net.cpp:425] conv3_2 <- conv3_1_conv3_1_relu_0_split_1
I0413 21:49:06.126888 10297 net.cpp:399] conv3_2 -> conv3_2
I0413 21:49:06.126922 10297 net.cpp:141] Setting up conv3_2
I0413 21:49:06.126932 10297 net.cpp:148] Top shape: 100 32 16 16 (819200)
I0413 21:49:06.126937 10297 net.cpp:156] Memory required for data: 328910000
I0413 21:49:06.126942 10297 layer_factory.hpp:77] Creating layer conv3_2_relu
I0413 21:49:06.126950 10297 net.cpp:91] Creating Layer conv3_2_relu
I0413 21:49:06.126955 10297 net.cpp:425] conv3_2_relu <- conv3_2
I0413 21:49:06.126965 10297 net.cpp:386] conv3_2_relu -> conv3_2 (in-place)
I0413 21:49:06.127313 10297 net.cpp:141] Setting up conv3_2_relu
I0413 21:49:06.127331 10297 net.cpp:148] Top shape: 100 32 16 16 (819200)
I0413 21:49:06.127336 10297 net.cpp:156] Memory required for data: 332186800
I0413 21:49:06.127341 10297 layer_factory.hpp:77] Creating layer conv3_2_conv3_2_relu_0_split
I0413 21:49:06.127351 10297 net.cpp:91] Creating Layer conv3_2_conv3_2_relu_0_split
I0413 21:49:06.127358 10297 net.cpp:425] conv3_2_conv3_2_relu_0_split <- conv3_2
I0413 21:49:06.127367 10297 net.cpp:399] conv3_2_conv3_2_relu_0_split -> conv3_2_conv3_2_relu_0_split_0
I0413 21:49:06.127377 10297 net.cpp:399] conv3_2_conv3_2_relu_0_split -> conv3_2_conv3_2_relu_0_split_1
I0413 21:49:06.127444 10297 net.cpp:141] Setting up conv3_2_conv3_2_relu_0_split
I0413 21:49:06.127454 10297 net.cpp:148] Top shape: 100 32 16 16 (819200)
I0413 21:49:06.127460 10297 net.cpp:148] Top shape: 100 32 16 16 (819200)
I0413 21:49:06.127465 10297 net.cpp:156] Memory required for data: 338740400
I0413 21:49:06.127471 10297 layer_factory.hpp:77] Creating layer conv3_3a
I0413 21:49:06.127487 10297 net.cpp:91] Creating Layer conv3_3a
I0413 21:49:06.127495 10297 net.cpp:425] conv3_3a <- conv3_2_conv3_2_relu_0_split_0
I0413 21:49:06.127503 10297 net.cpp:399] conv3_3a -> conv3_3a
I0413 21:49:06.129088 10297 net.cpp:141] Setting up conv3_3a
I0413 21:49:06.129106 10297 net.cpp:148] Top shape: 100 32 16 16 (819200)
I0413 21:49:06.129122 10297 net.cpp:156] Memory required for data: 342017200
I0413 21:49:06.129132 10297 layer_factory.hpp:77] Creating layer bn_conv3_3a
I0413 21:49:06.129143 10297 net.cpp:91] Creating Layer bn_conv3_3a
I0413 21:49:06.129149 10297 net.cpp:425] bn_conv3_3a <- conv3_3a
I0413 21:49:06.129158 10297 net.cpp:386] bn_conv3_3a -> conv3_3a (in-place)
I0413 21:49:06.129431 10297 net.cpp:141] Setting up bn_conv3_3a
I0413 21:49:06.129442 10297 net.cpp:148] Top shape: 100 32 16 16 (819200)
I0413 21:49:06.129447 10297 net.cpp:156] Memory required for data: 345294000
I0413 21:49:06.129464 10297 layer_factory.hpp:77] Creating layer scale_conv3_3a
I0413 21:49:06.129473 10297 net.cpp:91] Creating Layer scale_conv3_3a
I0413 21:49:06.129479 10297 net.cpp:425] scale_conv3_3a <- conv3_3a
I0413 21:49:06.129487 10297 net.cpp:386] scale_conv3_3a -> conv3_3a (in-place)
I0413 21:49:06.129549 10297 layer_factory.hpp:77] Creating layer scale_conv3_3a
I0413 21:49:06.129708 10297 net.cpp:141] Setting up scale_conv3_3a
I0413 21:49:06.129719 10297 net.cpp:148] Top shape: 100 32 16 16 (819200)
I0413 21:49:06.129724 10297 net.cpp:156] Memory required for data: 348570800
I0413 21:49:06.129731 10297 layer_factory.hpp:77] Creating layer conv3_3a_relu
I0413 21:49:06.129739 10297 net.cpp:91] Creating Layer conv3_3a_relu
I0413 21:49:06.129745 10297 net.cpp:425] conv3_3a_relu <- conv3_3a
I0413 21:49:06.129753 10297 net.cpp:386] conv3_3a_relu -> conv3_3a (in-place)
I0413 21:49:06.129972 10297 net.cpp:141] Setting up conv3_3a_relu
I0413 21:49:06.129986 10297 net.cpp:148] Top shape: 100 32 16 16 (819200)
I0413 21:49:06.129992 10297 net.cpp:156] Memory required for data: 351847600
I0413 21:49:06.129997 10297 layer_factory.hpp:77] Creating layer conv3_3b
I0413 21:49:06.130017 10297 net.cpp:91] Creating Layer conv3_3b
I0413 21:49:06.130023 10297 net.cpp:425] conv3_3b <- conv3_3a
I0413 21:49:06.130035 10297 net.cpp:399] conv3_3b -> conv3_3b
I0413 21:49:06.131631 10297 net.cpp:141] Setting up conv3_3b
I0413 21:49:06.131650 10297 net.cpp:148] Top shape: 100 32 16 16 (819200)
I0413 21:49:06.131659 10297 net.cpp:156] Memory required for data: 355124400
I0413 21:49:06.131669 10297 layer_factory.hpp:77] Creating layer bn_conv3_3b
I0413 21:49:06.131678 10297 net.cpp:91] Creating Layer bn_conv3_3b
I0413 21:49:06.131685 10297 net.cpp:425] bn_conv3_3b <- conv3_3b
I0413 21:49:06.131695 10297 net.cpp:386] bn_conv3_3b -> conv3_3b (in-place)
I0413 21:49:06.131980 10297 net.cpp:141] Setting up bn_conv3_3b
I0413 21:49:06.131991 10297 net.cpp:148] Top shape: 100 32 16 16 (819200)
I0413 21:49:06.131997 10297 net.cpp:156] Memory required for data: 358401200
I0413 21:49:06.132007 10297 layer_factory.hpp:77] Creating layer scale_conv3_3b
I0413 21:49:06.132015 10297 net.cpp:91] Creating Layer scale_conv3_3b
I0413 21:49:06.132021 10297 net.cpp:425] scale_conv3_3b <- conv3_3b
I0413 21:49:06.132030 10297 net.cpp:386] scale_conv3_3b -> conv3_3b (in-place)
I0413 21:49:06.132091 10297 layer_factory.hpp:77] Creating layer scale_conv3_3b
I0413 21:49:06.132249 10297 net.cpp:141] Setting up scale_conv3_3b
I0413 21:49:06.132261 10297 net.cpp:148] Top shape: 100 32 16 16 (819200)
I0413 21:49:06.132266 10297 net.cpp:156] Memory required for data: 361678000
I0413 21:49:06.132274 10297 layer_factory.hpp:77] Creating layer conv3_3
I0413 21:49:06.132284 10297 net.cpp:91] Creating Layer conv3_3
I0413 21:49:06.132289 10297 net.cpp:425] conv3_3 <- conv3_3b
I0413 21:49:06.132297 10297 net.cpp:425] conv3_3 <- conv3_2_conv3_2_relu_0_split_1
I0413 21:49:06.132304 10297 net.cpp:399] conv3_3 -> conv3_3
I0413 21:49:06.132334 10297 net.cpp:141] Setting up conv3_3
I0413 21:49:06.132344 10297 net.cpp:148] Top shape: 100 32 16 16 (819200)
I0413 21:49:06.132349 10297 net.cpp:156] Memory required for data: 364954800
I0413 21:49:06.132354 10297 layer_factory.hpp:77] Creating layer conv3_3_relu
I0413 21:49:06.132364 10297 net.cpp:91] Creating Layer conv3_3_relu
I0413 21:49:06.132370 10297 net.cpp:425] conv3_3_relu <- conv3_3
I0413 21:49:06.132377 10297 net.cpp:386] conv3_3_relu -> conv3_3 (in-place)
I0413 21:49:06.132722 10297 net.cpp:141] Setting up conv3_3_relu
I0413 21:49:06.132740 10297 net.cpp:148] Top shape: 100 32 16 16 (819200)
I0413 21:49:06.132745 10297 net.cpp:156] Memory required for data: 368231600
I0413 21:49:06.132750 10297 layer_factory.hpp:77] Creating layer conv3_3_conv3_3_relu_0_split
I0413 21:49:06.132761 10297 net.cpp:91] Creating Layer conv3_3_conv3_3_relu_0_split
I0413 21:49:06.132767 10297 net.cpp:425] conv3_3_conv3_3_relu_0_split <- conv3_3
I0413 21:49:06.132776 10297 net.cpp:399] conv3_3_conv3_3_relu_0_split -> conv3_3_conv3_3_relu_0_split_0
I0413 21:49:06.132797 10297 net.cpp:399] conv3_3_conv3_3_relu_0_split -> conv3_3_conv3_3_relu_0_split_1
I0413 21:49:06.132859 10297 net.cpp:141] Setting up conv3_3_conv3_3_relu_0_split
I0413 21:49:06.132870 10297 net.cpp:148] Top shape: 100 32 16 16 (819200)
I0413 21:49:06.132876 10297 net.cpp:148] Top shape: 100 32 16 16 (819200)
I0413 21:49:06.132881 10297 net.cpp:156] Memory required for data: 374785200
I0413 21:49:06.132887 10297 layer_factory.hpp:77] Creating layer conv3_sub
I0413 21:49:06.132900 10297 net.cpp:91] Creating Layer conv3_sub
I0413 21:49:06.132906 10297 net.cpp:425] conv3_sub <- conv3_3_conv3_3_relu_0_split_0
I0413 21:49:06.132917 10297 net.cpp:399] conv3_sub -> conv3_sub
I0413 21:49:06.134140 10297 net.cpp:141] Setting up conv3_sub
I0413 21:49:06.134161 10297 net.cpp:148] Top shape: 100 64 8 8 (409600)
I0413 21:49:06.134167 10297 net.cpp:156] Memory required for data: 376423600
I0413 21:49:06.134177 10297 layer_factory.hpp:77] Creating layer bn_conv3_sub
I0413 21:49:06.134186 10297 net.cpp:91] Creating Layer bn_conv3_sub
I0413 21:49:06.134192 10297 net.cpp:425] bn_conv3_sub <- conv3_sub
I0413 21:49:06.134203 10297 net.cpp:386] bn_conv3_sub -> conv3_sub (in-place)
I0413 21:49:06.134477 10297 net.cpp:141] Setting up bn_conv3_sub
I0413 21:49:06.134488 10297 net.cpp:148] Top shape: 100 64 8 8 (409600)
I0413 21:49:06.134493 10297 net.cpp:156] Memory required for data: 378062000
I0413 21:49:06.134505 10297 layer_factory.hpp:77] Creating layer scale_conv3_sub
I0413 21:49:06.134512 10297 net.cpp:91] Creating Layer scale_conv3_sub
I0413 21:49:06.134518 10297 net.cpp:425] scale_conv3_sub <- conv3_sub
I0413 21:49:06.134528 10297 net.cpp:386] scale_conv3_sub -> conv3_sub (in-place)
I0413 21:49:06.134588 10297 layer_factory.hpp:77] Creating layer scale_conv3_sub
I0413 21:49:06.134747 10297 net.cpp:141] Setting up scale_conv3_sub
I0413 21:49:06.134758 10297 net.cpp:148] Top shape: 100 64 8 8 (409600)
I0413 21:49:06.134763 10297 net.cpp:156] Memory required for data: 379700400
I0413 21:49:06.134773 10297 layer_factory.hpp:77] Creating layer conv4_1a
I0413 21:49:06.134785 10297 net.cpp:91] Creating Layer conv4_1a
I0413 21:49:06.134793 10297 net.cpp:425] conv4_1a <- conv3_3_conv3_3_relu_0_split_1
I0413 21:49:06.134802 10297 net.cpp:399] conv4_1a -> conv4_1a
I0413 21:49:06.136248 10297 net.cpp:141] Setting up conv4_1a
I0413 21:49:06.136268 10297 net.cpp:148] Top shape: 100 64 8 8 (409600)
I0413 21:49:06.136276 10297 net.cpp:156] Memory required for data: 381338800
I0413 21:49:06.136284 10297 layer_factory.hpp:77] Creating layer bn_conv4_1a
I0413 21:49:06.136294 10297 net.cpp:91] Creating Layer bn_conv4_1a
I0413 21:49:06.136301 10297 net.cpp:425] bn_conv4_1a <- conv4_1a
I0413 21:49:06.136312 10297 net.cpp:386] bn_conv4_1a -> conv4_1a (in-place)
I0413 21:49:06.136593 10297 net.cpp:141] Setting up bn_conv4_1a
I0413 21:49:06.136605 10297 net.cpp:148] Top shape: 100 64 8 8 (409600)
I0413 21:49:06.136610 10297 net.cpp:156] Memory required for data: 382977200
I0413 21:49:06.136620 10297 layer_factory.hpp:77] Creating layer scale_conv4_1a
I0413 21:49:06.136629 10297 net.cpp:91] Creating Layer scale_conv4_1a
I0413 21:49:06.136636 10297 net.cpp:425] scale_conv4_1a <- conv4_1a
I0413 21:49:06.136646 10297 net.cpp:386] scale_conv4_1a -> conv4_1a (in-place)
I0413 21:49:06.136703 10297 layer_factory.hpp:77] Creating layer scale_conv4_1a
I0413 21:49:06.136862 10297 net.cpp:141] Setting up scale_conv4_1a
I0413 21:49:06.136873 10297 net.cpp:148] Top shape: 100 64 8 8 (409600)
I0413 21:49:06.136878 10297 net.cpp:156] Memory required for data: 384615600
I0413 21:49:06.136885 10297 layer_factory.hpp:77] Creating layer conv4_1a_relu
I0413 21:49:06.136893 10297 net.cpp:91] Creating Layer conv4_1a_relu
I0413 21:49:06.136899 10297 net.cpp:425] conv4_1a_relu <- conv4_1a
I0413 21:49:06.136909 10297 net.cpp:386] conv4_1a_relu -> conv4_1a (in-place)
I0413 21:49:06.137269 10297 net.cpp:141] Setting up conv4_1a_relu
I0413 21:49:06.137286 10297 net.cpp:148] Top shape: 100 64 8 8 (409600)
I0413 21:49:06.137292 10297 net.cpp:156] Memory required for data: 386254000
I0413 21:49:06.137303 10297 layer_factory.hpp:77] Creating layer conv4_1b
I0413 21:49:06.137320 10297 net.cpp:91] Creating Layer conv4_1b
I0413 21:49:06.137326 10297 net.cpp:425] conv4_1b <- conv4_1a
I0413 21:49:06.137336 10297 net.cpp:399] conv4_1b -> conv4_1b
I0413 21:49:06.139802 10297 net.cpp:141] Setting up conv4_1b
I0413 21:49:06.139822 10297 net.cpp:148] Top shape: 100 64 8 8 (409600)
I0413 21:49:06.139827 10297 net.cpp:156] Memory required for data: 387892400
I0413 21:49:06.139837 10297 layer_factory.hpp:77] Creating layer bn_conv4_1b
I0413 21:49:06.139849 10297 net.cpp:91] Creating Layer bn_conv4_1b
I0413 21:49:06.139855 10297 net.cpp:425] bn_conv4_1b <- conv4_1b
I0413 21:49:06.139864 10297 net.cpp:386] bn_conv4_1b -> conv4_1b (in-place)
I0413 21:49:06.140142 10297 net.cpp:141] Setting up bn_conv4_1b
I0413 21:49:06.140153 10297 net.cpp:148] Top shape: 100 64 8 8 (409600)
I0413 21:49:06.140158 10297 net.cpp:156] Memory required for data: 389530800
I0413 21:49:06.140168 10297 layer_factory.hpp:77] Creating layer scale_conv4_1b
I0413 21:49:06.140182 10297 net.cpp:91] Creating Layer scale_conv4_1b
I0413 21:49:06.140188 10297 net.cpp:425] scale_conv4_1b <- conv4_1b
I0413 21:49:06.140197 10297 net.cpp:386] scale_conv4_1b -> conv4_1b (in-place)
I0413 21:49:06.140259 10297 layer_factory.hpp:77] Creating layer scale_conv4_1b
I0413 21:49:06.140421 10297 net.cpp:141] Setting up scale_conv4_1b
I0413 21:49:06.140432 10297 net.cpp:148] Top shape: 100 64 8 8 (409600)
I0413 21:49:06.140439 10297 net.cpp:156] Memory required for data: 391169200
I0413 21:49:06.140447 10297 layer_factory.hpp:77] Creating layer conv4_1
I0413 21:49:06.140457 10297 net.cpp:91] Creating Layer conv4_1
I0413 21:49:06.140463 10297 net.cpp:425] conv4_1 <- conv3_sub
I0413 21:49:06.140470 10297 net.cpp:425] conv4_1 <- conv4_1b
I0413 21:49:06.140480 10297 net.cpp:399] conv4_1 -> conv4_1
I0413 21:49:06.140517 10297 net.cpp:141] Setting up conv4_1
I0413 21:49:06.140527 10297 net.cpp:148] Top shape: 100 64 8 8 (409600)
I0413 21:49:06.140532 10297 net.cpp:156] Memory required for data: 392807600
I0413 21:49:06.140537 10297 layer_factory.hpp:77] Creating layer conv4_1_relu
I0413 21:49:06.140547 10297 net.cpp:91] Creating Layer conv4_1_relu
I0413 21:49:06.140553 10297 net.cpp:425] conv4_1_relu <- conv4_1
I0413 21:49:06.140560 10297 net.cpp:386] conv4_1_relu -> conv4_1 (in-place)
I0413 21:49:06.140897 10297 net.cpp:141] Setting up conv4_1_relu
I0413 21:49:06.140913 10297 net.cpp:148] Top shape: 100 64 8 8 (409600)
I0413 21:49:06.140918 10297 net.cpp:156] Memory required for data: 394446000
I0413 21:49:06.140924 10297 layer_factory.hpp:77] Creating layer conv4_1_conv4_1_relu_0_split
I0413 21:49:06.140934 10297 net.cpp:91] Creating Layer conv4_1_conv4_1_relu_0_split
I0413 21:49:06.140940 10297 net.cpp:425] conv4_1_conv4_1_relu_0_split <- conv4_1
I0413 21:49:06.140949 10297 net.cpp:399] conv4_1_conv4_1_relu_0_split -> conv4_1_conv4_1_relu_0_split_0
I0413 21:49:06.140959 10297 net.cpp:399] conv4_1_conv4_1_relu_0_split -> conv4_1_conv4_1_relu_0_split_1
I0413 21:49:06.141021 10297 net.cpp:141] Setting up conv4_1_conv4_1_relu_0_split
I0413 21:49:06.141032 10297 net.cpp:148] Top shape: 100 64 8 8 (409600)
I0413 21:49:06.141038 10297 net.cpp:148] Top shape: 100 64 8 8 (409600)
I0413 21:49:06.141043 10297 net.cpp:156] Memory required for data: 397722800
I0413 21:49:06.141049 10297 layer_factory.hpp:77] Creating layer conv4_2a
I0413 21:49:06.141062 10297 net.cpp:91] Creating Layer conv4_2a
I0413 21:49:06.141069 10297 net.cpp:425] conv4_2a <- conv4_1_conv4_1_relu_0_split_0
I0413 21:49:06.141080 10297 net.cpp:399] conv4_2a -> conv4_2a
I0413 21:49:06.143673 10297 net.cpp:141] Setting up conv4_2a
I0413 21:49:06.143693 10297 net.cpp:148] Top shape: 100 64 8 8 (409600)
I0413 21:49:06.143699 10297 net.cpp:156] Memory required for data: 399361200
I0413 21:49:06.143709 10297 layer_factory.hpp:77] Creating layer bn_conv4_2a
I0413 21:49:06.143720 10297 net.cpp:91] Creating Layer bn_conv4_2a
I0413 21:49:06.143728 10297 net.cpp:425] bn_conv4_2a <- conv4_2a
I0413 21:49:06.143740 10297 net.cpp:386] bn_conv4_2a -> conv4_2a (in-place)
I0413 21:49:06.144018 10297 net.cpp:141] Setting up bn_conv4_2a
I0413 21:49:06.144029 10297 net.cpp:148] Top shape: 100 64 8 8 (409600)
I0413 21:49:06.144035 10297 net.cpp:156] Memory required for data: 400999600
I0413 21:49:06.144045 10297 layer_factory.hpp:77] Creating layer scale_conv4_2a
I0413 21:49:06.144055 10297 net.cpp:91] Creating Layer scale_conv4_2a
I0413 21:49:06.144062 10297 net.cpp:425] scale_conv4_2a <- conv4_2a
I0413 21:49:06.144069 10297 net.cpp:386] scale_conv4_2a -> conv4_2a (in-place)
I0413 21:49:06.144131 10297 layer_factory.hpp:77] Creating layer scale_conv4_2a
I0413 21:49:06.144295 10297 net.cpp:141] Setting up scale_conv4_2a
I0413 21:49:06.144305 10297 net.cpp:148] Top shape: 100 64 8 8 (409600)
I0413 21:49:06.144310 10297 net.cpp:156] Memory required for data: 402638000
I0413 21:49:06.144320 10297 layer_factory.hpp:77] Creating layer conv4_2a_relu
I0413 21:49:06.144330 10297 net.cpp:91] Creating Layer conv4_2a_relu
I0413 21:49:06.144335 10297 net.cpp:425] conv4_2a_relu <- conv4_2a
I0413 21:49:06.144342 10297 net.cpp:386] conv4_2a_relu -> conv4_2a (in-place)
I0413 21:49:06.144561 10297 net.cpp:141] Setting up conv4_2a_relu
I0413 21:49:06.144574 10297 net.cpp:148] Top shape: 100 64 8 8 (409600)
I0413 21:49:06.144579 10297 net.cpp:156] Memory required for data: 404276400
I0413 21:49:06.144585 10297 layer_factory.hpp:77] Creating layer conv4_2b
I0413 21:49:06.144598 10297 net.cpp:91] Creating Layer conv4_2b
I0413 21:49:06.144605 10297 net.cpp:425] conv4_2b <- conv4_2a
I0413 21:49:06.144616 10297 net.cpp:399] conv4_2b -> conv4_2b
I0413 21:49:06.147758 10297 net.cpp:141] Setting up conv4_2b
I0413 21:49:06.147778 10297 net.cpp:148] Top shape: 100 64 8 8 (409600)
I0413 21:49:06.147783 10297 net.cpp:156] Memory required for data: 405914800
I0413 21:49:06.147794 10297 layer_factory.hpp:77] Creating layer bn_conv4_2b
I0413 21:49:06.147809 10297 net.cpp:91] Creating Layer bn_conv4_2b
I0413 21:49:06.147816 10297 net.cpp:425] bn_conv4_2b <- conv4_2b
I0413 21:49:06.147825 10297 net.cpp:386] bn_conv4_2b -> conv4_2b (in-place)
I0413 21:49:06.148108 10297 net.cpp:141] Setting up bn_conv4_2b
I0413 21:49:06.148118 10297 net.cpp:148] Top shape: 100 64 8 8 (409600)
I0413 21:49:06.148123 10297 net.cpp:156] Memory required for data: 407553200
I0413 21:49:06.148152 10297 layer_factory.hpp:77] Creating layer scale_conv4_2b
I0413 21:49:06.148164 10297 net.cpp:91] Creating Layer scale_conv4_2b
I0413 21:49:06.148170 10297 net.cpp:425] scale_conv4_2b <- conv4_2b
I0413 21:49:06.148180 10297 net.cpp:386] scale_conv4_2b -> conv4_2b (in-place)
I0413 21:49:06.148243 10297 layer_factory.hpp:77] Creating layer scale_conv4_2b
I0413 21:49:06.148406 10297 net.cpp:141] Setting up scale_conv4_2b
I0413 21:49:06.148416 10297 net.cpp:148] Top shape: 100 64 8 8 (409600)
I0413 21:49:06.148422 10297 net.cpp:156] Memory required for data: 409191600
I0413 21:49:06.148429 10297 layer_factory.hpp:77] Creating layer conv4_2
I0413 21:49:06.148437 10297 net.cpp:91] Creating Layer conv4_2
I0413 21:49:06.148442 10297 net.cpp:425] conv4_2 <- conv4_1_conv4_1_relu_0_split_1
I0413 21:49:06.148449 10297 net.cpp:425] conv4_2 <- conv4_2b
I0413 21:49:06.148460 10297 net.cpp:399] conv4_2 -> conv4_2
I0413 21:49:06.148499 10297 net.cpp:141] Setting up conv4_2
I0413 21:49:06.148509 10297 net.cpp:148] Top shape: 100 64 8 8 (409600)
I0413 21:49:06.148514 10297 net.cpp:156] Memory required for data: 410830000
I0413 21:49:06.148520 10297 layer_factory.hpp:77] Creating layer conv4_2_relu
I0413 21:49:06.148527 10297 net.cpp:91] Creating Layer conv4_2_relu
I0413 21:49:06.148533 10297 net.cpp:425] conv4_2_relu <- conv4_2
I0413 21:49:06.148540 10297 net.cpp:386] conv4_2_relu -> conv4_2 (in-place)
I0413 21:49:06.148895 10297 net.cpp:141] Setting up conv4_2_relu
I0413 21:49:06.148911 10297 net.cpp:148] Top shape: 100 64 8 8 (409600)
I0413 21:49:06.148917 10297 net.cpp:156] Memory required for data: 412468400
I0413 21:49:06.148923 10297 layer_factory.hpp:77] Creating layer conv4_2_conv4_2_relu_0_split
I0413 21:49:06.148936 10297 net.cpp:91] Creating Layer conv4_2_conv4_2_relu_0_split
I0413 21:49:06.148943 10297 net.cpp:425] conv4_2_conv4_2_relu_0_split <- conv4_2
I0413 21:49:06.148952 10297 net.cpp:399] conv4_2_conv4_2_relu_0_split -> conv4_2_conv4_2_relu_0_split_0
I0413 21:49:06.148964 10297 net.cpp:399] conv4_2_conv4_2_relu_0_split -> conv4_2_conv4_2_relu_0_split_1
I0413 21:49:06.149029 10297 net.cpp:141] Setting up conv4_2_conv4_2_relu_0_split
I0413 21:49:06.149039 10297 net.cpp:148] Top shape: 100 64 8 8 (409600)
I0413 21:49:06.149046 10297 net.cpp:148] Top shape: 100 64 8 8 (409600)
I0413 21:49:06.149051 10297 net.cpp:156] Memory required for data: 415745200
I0413 21:49:06.149056 10297 layer_factory.hpp:77] Creating layer conv4_3a
I0413 21:49:06.149072 10297 net.cpp:91] Creating Layer conv4_3a
I0413 21:49:06.149080 10297 net.cpp:425] conv4_3a <- conv4_2_conv4_2_relu_0_split_0
I0413 21:49:06.149088 10297 net.cpp:399] conv4_3a -> conv4_3a
I0413 21:49:06.151561 10297 net.cpp:141] Setting up conv4_3a
I0413 21:49:06.151582 10297 net.cpp:148] Top shape: 100 64 8 8 (409600)
I0413 21:49:06.151587 10297 net.cpp:156] Memory required for data: 417383600
I0413 21:49:06.151597 10297 layer_factory.hpp:77] Creating layer bn_conv4_3a
I0413 21:49:06.151610 10297 net.cpp:91] Creating Layer bn_conv4_3a
I0413 21:49:06.151618 10297 net.cpp:425] bn_conv4_3a <- conv4_3a
I0413 21:49:06.151628 10297 net.cpp:386] bn_conv4_3a -> conv4_3a (in-place)
I0413 21:49:06.151912 10297 net.cpp:141] Setting up bn_conv4_3a
I0413 21:49:06.151923 10297 net.cpp:148] Top shape: 100 64 8 8 (409600)
I0413 21:49:06.151928 10297 net.cpp:156] Memory required for data: 419022000
I0413 21:49:06.151938 10297 layer_factory.hpp:77] Creating layer scale_conv4_3a
I0413 21:49:06.151949 10297 net.cpp:91] Creating Layer scale_conv4_3a
I0413 21:49:06.151955 10297 net.cpp:425] scale_conv4_3a <- conv4_3a
I0413 21:49:06.151963 10297 net.cpp:386] scale_conv4_3a -> conv4_3a (in-place)
I0413 21:49:06.152026 10297 layer_factory.hpp:77] Creating layer scale_conv4_3a
I0413 21:49:06.152196 10297 net.cpp:141] Setting up scale_conv4_3a
I0413 21:49:06.152207 10297 net.cpp:148] Top shape: 100 64 8 8 (409600)
I0413 21:49:06.152212 10297 net.cpp:156] Memory required for data: 420660400
I0413 21:49:06.152220 10297 layer_factory.hpp:77] Creating layer conv4_3a_relu
I0413 21:49:06.152228 10297 net.cpp:91] Creating Layer conv4_3a_relu
I0413 21:49:06.152235 10297 net.cpp:425] conv4_3a_relu <- conv4_3a
I0413 21:49:06.152243 10297 net.cpp:386] conv4_3a_relu -> conv4_3a (in-place)
I0413 21:49:06.152587 10297 net.cpp:141] Setting up conv4_3a_relu
I0413 21:49:06.152604 10297 net.cpp:148] Top shape: 100 64 8 8 (409600)
I0413 21:49:06.152611 10297 net.cpp:156] Memory required for data: 422298800
I0413 21:49:06.152616 10297 layer_factory.hpp:77] Creating layer conv4_3b
I0413 21:49:06.152631 10297 net.cpp:91] Creating Layer conv4_3b
I0413 21:49:06.152637 10297 net.cpp:425] conv4_3b <- conv4_3a
I0413 21:49:06.152648 10297 net.cpp:399] conv4_3b -> conv4_3b
I0413 21:49:06.155247 10297 net.cpp:141] Setting up conv4_3b
I0413 21:49:06.155267 10297 net.cpp:148] Top shape: 100 64 8 8 (409600)
I0413 21:49:06.155273 10297 net.cpp:156] Memory required for data: 423937200
I0413 21:49:06.155283 10297 layer_factory.hpp:77] Creating layer bn_conv4_3b
I0413 21:49:06.155295 10297 net.cpp:91] Creating Layer bn_conv4_3b
I0413 21:49:06.155303 10297 net.cpp:425] bn_conv4_3b <- conv4_3b
I0413 21:49:06.155310 10297 net.cpp:386] bn_conv4_3b -> conv4_3b (in-place)
I0413 21:49:06.155599 10297 net.cpp:141] Setting up bn_conv4_3b
I0413 21:49:06.155611 10297 net.cpp:148] Top shape: 100 64 8 8 (409600)
I0413 21:49:06.155616 10297 net.cpp:156] Memory required for data: 425575600
I0413 21:49:06.155627 10297 layer_factory.hpp:77] Creating layer scale_conv4_3b
I0413 21:49:06.155640 10297 net.cpp:91] Creating Layer scale_conv4_3b
I0413 21:49:06.155647 10297 net.cpp:425] scale_conv4_3b <- conv4_3b
I0413 21:49:06.155655 10297 net.cpp:386] scale_conv4_3b -> conv4_3b (in-place)
I0413 21:49:06.155720 10297 layer_factory.hpp:77] Creating layer scale_conv4_3b
I0413 21:49:06.155900 10297 net.cpp:141] Setting up scale_conv4_3b
I0413 21:49:06.155911 10297 net.cpp:148] Top shape: 100 64 8 8 (409600)
I0413 21:49:06.155917 10297 net.cpp:156] Memory required for data: 427214000
I0413 21:49:06.155926 10297 layer_factory.hpp:77] Creating layer conv4_3
I0413 21:49:06.155936 10297 net.cpp:91] Creating Layer conv4_3
I0413 21:49:06.155942 10297 net.cpp:425] conv4_3 <- conv4_2_conv4_2_relu_0_split_1
I0413 21:49:06.155949 10297 net.cpp:425] conv4_3 <- conv4_3b
I0413 21:49:06.155957 10297 net.cpp:399] conv4_3 -> conv4_3
I0413 21:49:06.155998 10297 net.cpp:141] Setting up conv4_3
I0413 21:49:06.156008 10297 net.cpp:148] Top shape: 100 64 8 8 (409600)
I0413 21:49:06.156013 10297 net.cpp:156] Memory required for data: 428852400
I0413 21:49:06.156018 10297 layer_factory.hpp:77] Creating layer conv4_3_relu
I0413 21:49:06.156026 10297 net.cpp:91] Creating Layer conv4_3_relu
I0413 21:49:06.156033 10297 net.cpp:425] conv4_3_relu <- conv4_3
I0413 21:49:06.156041 10297 net.cpp:386] conv4_3_relu -> conv4_3 (in-place)
I0413 21:49:06.156257 10297 net.cpp:141] Setting up conv4_3_relu
I0413 21:49:06.156272 10297 net.cpp:148] Top shape: 100 64 8 8 (409600)
I0413 21:49:06.156277 10297 net.cpp:156] Memory required for data: 430490800
I0413 21:49:06.156283 10297 layer_factory.hpp:77] Creating layer global_pool
I0413 21:49:06.156292 10297 net.cpp:91] Creating Layer global_pool
I0413 21:49:06.156298 10297 net.cpp:425] global_pool <- conv4_3
I0413 21:49:06.156306 10297 net.cpp:399] global_pool -> global_pool
I0413 21:49:06.156687 10297 net.cpp:141] Setting up global_pool
I0413 21:49:06.156705 10297 net.cpp:148] Top shape: 100 64 1 1 (6400)
I0413 21:49:06.156711 10297 net.cpp:156] Memory required for data: 430516400
I0413 21:49:06.156718 10297 layer_factory.hpp:77] Creating layer ip
I0413 21:49:06.156726 10297 net.cpp:91] Creating Layer ip
I0413 21:49:06.156733 10297 net.cpp:425] ip <- global_pool
I0413 21:49:06.156747 10297 net.cpp:399] ip -> ip
I0413 21:49:06.156913 10297 net.cpp:141] Setting up ip
I0413 21:49:06.156925 10297 net.cpp:148] Top shape: 100 10 (1000)
I0413 21:49:06.156930 10297 net.cpp:156] Memory required for data: 430520400
I0413 21:49:06.156939 10297 layer_factory.hpp:77] Creating layer ip_ip_0_split
I0413 21:49:06.156949 10297 net.cpp:91] Creating Layer ip_ip_0_split
I0413 21:49:06.156955 10297 net.cpp:425] ip_ip_0_split <- ip
I0413 21:49:06.156961 10297 net.cpp:399] ip_ip_0_split -> ip_ip_0_split_0
I0413 21:49:06.156970 10297 net.cpp:399] ip_ip_0_split -> ip_ip_0_split_1
I0413 21:49:06.157030 10297 net.cpp:141] Setting up ip_ip_0_split
I0413 21:49:06.157040 10297 net.cpp:148] Top shape: 100 10 (1000)
I0413 21:49:06.157047 10297 net.cpp:148] Top shape: 100 10 (1000)
I0413 21:49:06.157052 10297 net.cpp:156] Memory required for data: 430528400
I0413 21:49:06.157057 10297 layer_factory.hpp:77] Creating layer accuracy
I0413 21:49:06.157064 10297 net.cpp:91] Creating Layer accuracy
I0413 21:49:06.157069 10297 net.cpp:425] accuracy <- ip_ip_0_split_0
I0413 21:49:06.157076 10297 net.cpp:425] accuracy <- label_cifar_1_split_0
I0413 21:49:06.157086 10297 net.cpp:399] accuracy -> accuracy
…
