…
I0412 22:47:59.986507  9395 solver.cpp:91] Creating training net from net file: prototxt/ResNet-cifar.prototxt
I0412 22:47:59.988276  9395 net.cpp:313] The NetState phase (0) differed from the phase (1) specified by a rule in layer cifar
I0412 22:47:59.988771  9395 net.cpp:49] Initializing net from parameters: 
name: "ResNet-cifar"
state {
  phase: TRAIN
}
layer {
  name: "cifar"
  type: "Data"
  top: "data"
  top: "label"
  include {
    phase: TRAIN
  }
  transform_param {
    mean_file: "data/cifar10/mean.binaryproto"
  }
  data_param {
    source: "data/cifar10/cifar10_train_lmdb"
    batch_size: 256
    backend: LMDB
  }
}
layer {
  name: "conv1"
  type: "Convolution"
  bottom: "data"
  top: "conv1"
  param {
    lr_mult: 1
  }
  param {
    lr_mult: 2
  }
  convolution_param {
    num_output: 16
    pad: 1
    kernel_size: 3
    weight_filler {
      type: "msra"
    }
    bias_filler {
      type: "constant"
    }
  }
}
layer {
  name: "bn_conv1"
  type: "BatchNorm"
  bottom: "conv1"
  top: "conv1"
  param {
    lr_mult: 0
  }
  param {
    lr_mult: 0
  }
  param {
    lr_mult: 0
  }
}
layer {
  name: "scale_conv1"
  type: "Scale"
  bottom: "conv1"
  top: "conv1"
  scale_param {
    bias_term: true
  }
}
layer {
  name: "conv1_relu"
  type: "ReLU"
  bottom: "conv1"
  top: "conv1"
}
layer {
  name: "conv2_1a"
  type: "Convolution"
  bottom: "conv1"
  top: "conv2_1a"
  param {
    lr_mult: 1
  }
  param {
    lr_mult: 2
  }
  convolution_param {
    num_output: 16
    pad: 1
    kernel_size: 3
    stride: 1
    weight_filler {
      type: "msra"
    }
    bias_filler {
      type: "constant"
      value: 0
    }
  }
}
layer {
  name: "bn_conv2_1a"
  type: "BatchNorm"
  bottom: "conv2_1a"
  top: "conv2_1a"
  param {
    lr_mult: 0
  }
  param {
    lr_mult: 0
  }
  param {
    lr_mult: 0
  }
}
layer {
  name: "scale_conv2_1a"
  type: "Scale"
  bottom: "conv2_1a"
  top: "conv2_1a"
  scale_param {
    bias_term: true
  }
}
layer {
  name: "conv2_1a_relu"
  type: "ReLU"
  bottom: "conv2_1a"
  top: "conv2_1a"
}
layer {
  name: "conv2_1b"
  type: "Convolution"
  bottom: "conv2_1a"
  top: "conv2_1b"
  param {
    lr_mult: 1
  }
  param {
    lr_mult: 2
  }
  convolution_param {
    num_output: 16
    pad: 1
    kernel_size: 3
    stride: 1
    weight_filler {
      type: "msra"
    }
    bias_filler {
      type: "constant"
      value: 0
    }
  }
}
layer {
  name: "bn_conv2_1b"
  type: "BatchNorm"
  bottom: "conv2_1b"
  top: "conv2_1b"
  param {
    lr_mult: 0
  }
  param {
    lr_mult: 0
  }
  param {
    lr_mult: 0
  }
}
layer {
  name: "scale_conv2_1b"
  type: "Scale"
  bottom: "conv2_1b"
  top: "conv2_1b"
  scale_param {
    bias_term: true
  }
}
layer {
  name: "conv2_1_relu"
  type: "ReLU"
  bottom: "conv2_1b"
  top: "conv2_1b"
}
layer {
  name: "conv2_2a"
  type: "Convolution"
  bottom: "conv2_1b"
  top: "conv2_2a"
  param {
    lr_mult: 1
  }
  param {
    lr_mult: 2
  }
  convolution_param {
    num_output: 16
    pad: 1
    kernel_size: 3
    stride: 1
    weight_filler {
      type: "msra"
    }
    bias_filler {
      type: "constant"
      value: 0
    }
  }
}
layer {
  name: "bn_conv2_2a"
  type: "BatchNorm"
  bottom: "conv2_2a"
  top: "conv2_2a"
  param {
    lr_mult: 0
  }
  param {
    lr_mult: 0
  }
  param {
    lr_mult: 0
  }
}
layer {
  name: "scale_conv2_2a"
  type: "Scale"
  bottom: "conv2_2a"
  top: "conv2_2a"
  scale_param {
    bias_term: true
  }
}
layer {
  name: "conv2_1"
  type: "Eltwise"
  bottom: "conv2_2a"
  bottom: "conv1"
  top: "conv2_1"
}
layer {
  name: "conv2_2a_relu"
  type: "ReLU"
  bottom: "conv2_1"
  top: "conv2_1"
}
layer {
  name: "conv2_2b"
  type: "Convolution"
  bottom: "conv2_1"
  top: "conv2_2b"
  param {
    lr_mult: 1
  }
  param {
    lr_mult: 2
  }
  convolution_param {
    num_output: 16
    pad: 1
    kernel_size: 3
    stride: 1
    weight_filler {
      type: "msra"
    }
    bias_filler {
      type: "constant"
      value: 0
    }
  }
}
layer {
  name: "bn_conv2_2b"
  type: "BatchNorm"
  bottom: "conv2_2b"
  top: "conv2_2b"
  param {
    lr_mult: 0
  }
  param {
    lr_mult: 0
  }
  param {
    lr_mult: 0
  }
}
layer {
  name: "scale_conv2_2b"
  type: "Scale"
  bottom: "conv2_2b"
  top: "conv2_2b"
  scale_param {
    bias_term: true
  }
}
layer {
  name: "conv2_2_relu"
  type: "ReLU"
  bottom: "conv2_2b"
  top: "conv2_2b"
}
layer {
  name: "conv2_3a"
  type: "Convolution"
  bottom: "conv2_2b"
  top: "conv2_3a"
  param {
    lr_mult: 1
  }
  param {
    lr_mult: 2
  }
  convolution_param {
    num_output: 16
    pad: 1
    kernel_size: 3
    stride: 1
    weight_filler {
      type: "msra"
    }
    bias_filler {
      type: "constant"
      value: 0
    }
  }
}
layer {
  name: "bn_conv2_3a"
  type: "BatchNorm"
  bottom: "conv2_3a"
  top: "conv2_3a"
  param {
    lr_mult: 0
  }
  param {
    lr_mult: 0
  }
  param {
    lr_mult: 0
  }
}
layer {
  name: "scale_conv2_3a"
  type: "Scale"
  bottom: "conv2_3a"
  top: "conv2_3a"
  scale_param {
    bias_term: true
  }
}
layer {
  name: "conv2_3a_relu"
  type: "ReLU"
  bottom: "conv2_3a"
  top: "conv2_3a"
}
layer {
  name: "conv2_3b"
  type: "Convolution"
  bottom: "conv2_3a"
  top: "conv2_3b"
  param {
    lr_mult: 1
  }
  param {
    lr_mult: 2
  }
  convolution_param {
    num_output: 16
    pad: 1
    kernel_size: 3
    stride: 1
    weight_filler {
      type: "msra"
    }
    bias_filler {
      type: "constant"
      value: 0
    }
  }
}
layer {
  name: "bn_conv2_3b"
  type: "BatchNorm"
  bottom: "conv2_3b"
  top: "conv2_3b"
  param {
    lr_mult: 0
  }
  param {
    lr_mult: 0
  }
  param {
    lr_mult: 0
  }
}
layer {
  name: "scale_conv2_3b"
  type: "Scale"
  bottom: "conv2_3b"
  top: "conv2_3b"
  scale_param {
    bias_term: true
  }
}
layer {
  name: "conv2_3"
  type: "Eltwise"
  bottom: "conv2_3b"
  bottom: "conv2_1"
  top: "conv2_3"
}
layer {
  name: "conv2_3_relu"
  type: "ReLU"
  bottom: "conv2_3"
  top: "conv2_3"
}
layer {
  name: "conv2_sub"
  type: "Convolution"
  bottom: "conv2_3"
  top: "conv2_sub"
  param {
    lr_mult: 1
  }
  param {
    lr_mult: 2
  }
  convolution_param {
    num_output: 32
    kernel_size: 1
    stride: 2
    weight_filler {
      type: "msra"
    }
    bias_filler {
      type: "constant"
      value: 0
    }
  }
}
layer {
  name: "bn_conv2_sub"
  type: "BatchNorm"
  bottom: "conv2_sub"
  top: "conv2_sub"
  param {
    lr_mult: 0
  }
  param {
    lr_mult: 0
  }
  param {
    lr_mult: 0
  }
}
layer {
  name: "scale_conv2_sub"
  type: "Scale"
  bottom: "conv2_sub"
  top: "conv2_sub"
  scale_param {
    bias_term: true
  }
}
layer {
  name: "conv3_1a"
  type: "Convolution"
  bottom: "conv2_3"
  top: "conv3_1a"
  param {
    lr_mult: 1
  }
  param {
    lr_mult: 2
  }
  convolution_param {
    num_output: 32
    pad: 0
    kernel_size: 1
    stride: 2
    weight_filler {
      type: "msra"
    }
    bias_filler {
      type: "constant"
      value: 0
    }
  }
}
layer {
  name: "bn_conv3_1a"
  type: "BatchNorm"
  bottom: "conv3_1a"
  top: "conv3_1a"
  param {
    lr_mult: 0
  }
  param {
    lr_mult: 0
  }
  param {
    lr_mult: 0
  }
}
layer {
  name: "scale_conv3_1a"
  type: "Scale"
  bottom: "conv3_1a"
  top: "conv3_1a"
  scale_param {
    bias_term: true
  }
}
layer {
  name: "conv3_1a_relu"
  type: "ReLU"
  bottom: "conv3_1a"
  top: "conv3_1a"
}
layer {
  name: "conv3_1b"
  type: "Convolution"
  bottom: "conv3_1a"
  top: "conv3_1b"
  param {
    lr_mult: 1
  }
  param {
    lr_mult: 2
  }
  convolution_param {
    num_output: 32
    pad: 1
    kernel_size: 3
    stride: 1
    weight_filler {
      type: "msra"
    }
    bias_filler {
      type: "constant"
      value: 0
    }
  }
}
layer {
  name: "bn_conv3_1b"
  type: "BatchNorm"
  bottom: "conv3_1b"
  top: "conv3_1b"
  param {
    lr_mult: 0
  }
  param {
    lr_mult: 0
  }
  param {
    lr_mult: 0
  }
}
layer {
  name: "scale_conv3_1b"
  type: "Scale"
  bottom: "conv3_1b"
  top: "conv3_1b"
  scale_param {
    bias_term: true
  }
}
layer {
  name: "conv3_1_relu"
  type: "ReLU"
  bottom: "conv3_1b"
  top: "conv3_1b"
}
layer {
  name: "conv3_2a"
  type: "Convolution"
  bottom: "conv3_1b"
  top: "conv3_2a"
  param {
    lr_mult: 1
  }
  param {
    lr_mult: 2
  }
  convolution_param {
    num_output: 32
    pad: 1
    kernel_size: 3
    stride: 1
    weight_filler {
      type: "msra"
    }
    bias_filler {
      type: "constant"
      value: 0
    }
  }
}
layer {
  name: "bn_conv3_2a"
  type: "BatchNorm"
  bottom: "conv3_2a"
  top: "conv3_2a"
  param {
    lr_mult: 0
  }
  param {
    lr_mult: 0
  }
  param {
    lr_mult: 0
  }
}
layer {
  name: "scale_conv3_2a"
  type: "Scale"
  bottom: "conv3_2a"
  top: "conv3_2a"
  scale_param {
    bias_term: true
  }
}
layer {
  name: "conv3_1"
  type: "Eltwise"
  bottom: "conv3_2a"
  bottom: "conv2_sub"
  top: "conv3_1"
}
layer {
  name: "conv3_2a_relu"
  type: "ReLU"
  bottom: "conv3_1"
  top: "conv3_1"
}
layer {
  name: "conv3_2b"
  type: "Convolution"
  bottom: "conv3_1"
  top: "conv3_2b"
  param {
    lr_mult: 1
  }
  param {
    lr_mult: 2
  }
  convolution_param {
    num_output: 32
    pad: 1
    kernel_size: 3
    stride: 1
    weight_filler {
      type: "msra"
    }
    bias_filler {
      type: "constant"
      value: 0
    }
  }
}
layer {
  name: "bn_conv3_2b"
  type: "BatchNorm"
  bottom: "conv3_2b"
  top: "conv3_2b"
  param {
    lr_mult: 0
  }
  param {
    lr_mult: 0
  }
  param {
    lr_mult: 0
  }
}
layer {
  name: "scale_conv3_2b"
  type: "Scale"
  bottom: "conv3_2b"
  top: "conv3_2b"
  scale_param {
    bias_term: true
  }
}
layer {
  name: "conv3_2_relu"
  type: "ReLU"
  bottom: "conv3_2b"
  top: "conv3_2b"
}
layer {
  name: "conv3_3a"
  type: "Convolution"
  bottom: "conv3_2b"
  top: "conv3_3a"
  param {
    lr_mult: 1
  }
  param {
    lr_mult: 2
  }
  convolution_param {
    num_output: 32
    pad: 1
    kernel_size: 3
    stride: 1
    weight_filler {
      type: "msra"
    }
    bias_filler {
      type: "constant"
      value: 0
    }
  }
}
layer {
  name: "bn_conv3_3a"
  type: "BatchNorm"
  bottom: "conv3_3a"
  top: "conv3_3a"
  param {
    lr_mult: 0
  }
  param {
    lr_mult: 0
  }
  param {
    lr_mult: 0
  }
}
layer {
  name: "scale_conv3_3a"
  type: "Scale"
  bottom: "conv3_3a"
  top: "conv3_3a"
  scale_param {
    bias_term: true
  }
}
layer {
  name: "conv3_3a_relu"
  type: "ReLU"
  bottom: "conv3_3a"
  top: "conv3_3a"
}
layer {
  name: "conv3_3b"
  type: "Convolution"
  bottom: "conv3_3a"
  top: "conv3_3b"
  param {
    lr_mult: 1
  }
  param {
    lr_mult: 2
  }
  convolution_param {
    num_output: 32
    pad: 1
    kernel_size: 3
    stride: 1
    weight_filler {
      type: "msra"
    }
    bias_filler {
      type: "constant"
      value: 0
    }
  }
}
layer {
  name: "bn_conv3_3b"
  type: "BatchNorm"
  bottom: "conv3_3b"
  top: "conv3_3b"
  param {
    lr_mult: 0
  }
  param {
    lr_mult: 0
  }
  param {
    lr_mult: 0
  }
}
layer {
  name: "scale_conv3_3b"
  type: "Scale"
  bottom: "conv3_3b"
  top: "conv3_3b"
  scale_param {
    bias_term: true
  }
}
layer {
  name: "conv3_3"
  type: "Eltwise"
  bottom: "conv3_3b"
  bottom: "conv3_1"
  top: "conv3_3"
}
layer {
  name: "conv3_3_relu"
  type: "ReLU"
  bottom: "conv3_3"
  top: "conv3_3"
}
layer {
  name: "conv3_sub"
  type: "Convolution"
  bottom: "conv3_3"
  top: "conv3_sub"
  param {
    lr_mult: 1
  }
  param {
    lr_mult: 2
  }
  convolution_param {
    num_output: 64
    kernel_size: 1
    stride: 2
    weight_filler {
      type: "msra"
    }
    bias_filler {
      type: "constant"
      value: 0
    }
  }
}
layer {
  name: "bn_conv3_sub"
  type: "BatchNorm"
  bottom: "conv3_sub"
  top: "conv3_sub"
  param {
    lr_mult: 0
  }
  param {
    lr_mult: 0
  }
  param {
    lr_mult: 0
  }
}
layer {
  name: "scale_conv3_sub"
  type: "Scale"
  bottom: "conv3_sub"
  top: "conv3_sub"
  scale_param {
    bias_term: true
  }
}
layer {
  name: "conv4_1a"
  type: "Convolution"
  bottom: "conv3_3"
  top: "conv4_1a"
  param {
    lr_mult: 1
  }
  param {
    lr_mult: 2
  }
  convolution_param {
    num_output: 64
    pad: 0
    kernel_size: 1
    stride: 2
    weight_filler {
      type: "msra"
    }
    bias_filler {
      type: "constant"
      value: 0
    }
  }
}
layer {
  name: "bn_conv4_1a"
  type: "BatchNorm"
  bottom: "conv4_1a"
  top: "conv4_1a"
  param {
    lr_mult: 0
  }
  param {
    lr_mult: 0
  }
  param {
    lr_mult: 0
  }
}
layer {
  name: "scale_conv4_1a"
  type: "Scale"
  bottom: "conv4_1a"
  top: "conv4_1a"
  scale_param {
    bias_term: true
  }
}
layer {
  name: "conv4_1a_relu"
  type: "ReLU"
  bottom: "conv4_1a"
  top: "conv4_1a"
}
layer {
  name: "conv4_1b"
  type: "Convolution"
  bottom: "conv4_1a"
  top: "conv4_1b"
  param {
    lr_mult: 1
  }
  param {
    lr_mult: 2
  }
  convolution_param {
    num_output: 64
    pad: 1
    kernel_size: 3
    stride: 1
    weight_filler {
      type: "msra"
    }
    bias_filler {
      type: "constant"
      value: 0
    }
  }
}
layer {
  name: "bn_conv4_1b"
  type: "BatchNorm"
  bottom: "conv4_1b"
  top: "conv4_1b"
  param {
    lr_mult: 0
  }
  param {
    lr_mult: 0
  }
  param {
    lr_mult: 0
  }
}
layer {
  name: "scale_conv4_1b"
  type: "Scale"
  bottom: "conv4_1b"
  top: "conv4_1b"
  scale_param {
    bias_term: true
  }
}
layer {
  name: "conv4_1_relu"
  type: "ReLU"
  bottom: "conv4_1b"
  top: "conv4_1b"
}
layer {
  name: "conv4_2a"
  type: "Convolution"
  bottom: "conv4_1b"
  top: "conv4_2a"
  param {
    lr_mult: 1
  }
  param {
    lr_mult: 2
  }
  convolution_param {
    num_output: 64
    pad: 1
    kernel_size: 3
    stride: 1
    weight_filler {
      type: "msra"
    }
    bias_filler {
      type: "constant"
      value: 0
    }
  }
}
layer {
  name: "bn_conv4_2a"
  type: "BatchNorm"
  bottom: "conv4_2a"
  top: "conv4_2a"
  param {
    lr_mult: 0
  }
  param {
    lr_mult: 0
  }
  param {
    lr_mult: 0
  }
}
layer {
  name: "scale_conv4_2a"
  type: "Scale"
  bottom: "conv4_2a"
  top: "conv4_2a"
  scale_param {
    bias_term: true
  }
}
layer {
  name: "conv4_1"
  type: "Eltwise"
  bottom: "conv3_sub"
  bottom: "conv4_2a"
  top: "conv4_1"
}
layer {
  name: "conv4_2a_relu"
  type: "ReLU"
  bottom: "conv4_1"
  top: "conv4_1"
}
layer {
  name: "conv4_2b"
  type: "Convolution"
  bottom: "conv4_1"
  top: "conv4_2b"
  param {
    lr_mult: 1
  }
  param {
    lr_mult: 2
  }
  convolution_param {
    num_output: 64
    pad: 1
    kernel_size: 3
    stride: 1
    weight_filler {
      type: "msra"
    }
    bias_filler {
      type: "constant"
      value: 0
    }
  }
}
layer {
  name: "bn_conv4_2b"
  type: "BatchNorm"
  bottom: "conv4_2b"
  top: "conv4_2b"
  param {
    lr_mult: 0
  }
  param {
    lr_mult: 0
  }
  param {
    lr_mult: 0
  }
}
layer {
  name: "scale_conv4_2b"
  type: "Scale"
  bottom: "conv4_2b"
  top: "conv4_2b"
  scale_param {
    bias_term: true
  }
}
layer {
  name: "conv4_2_relu"
  type: "ReLU"
  bottom: "conv4_2b"
  top: "conv4_2b"
}
layer {
  name: "conv4_3a"
  type: "Convolution"
  bottom: "conv4_2b"
  top: "conv4_3a"
  param {
    lr_mult: 1
  }
  param {
    lr_mult: 2
  }
  convolution_param {
    num_output: 64
    pad: 1
    kernel_size: 3
    stride: 1
    weight_filler {
      type: "msra"
    }
    bias_filler {
      type: "constant"
      value: 0
    }
  }
}
layer {
  name: "bn_conv4_3a"
  type: "BatchNorm"
  bottom: "conv4_3a"
  top: "conv4_3a"
  param {
    lr_mult: 0
  }
  param {
    lr_mult: 0
  }
  param {
    lr_mult: 0
  }
}
layer {
  name: "scale_conv4_3a"
  type: "Scale"
  bottom: "conv4_3a"
  top: "conv4_3a"
  scale_param {
    bias_term: true
  }
}
layer {
  name: "conv4_3a_relu"
  type: "ReLU"
  bottom: "conv4_3a"
  top: "conv4_3a"
}
layer {
  name: "conv4_3b"
  type: "Convolution"
  bottom: "conv4_3a"
  top: "conv4_3b"
  param {
    lr_mult: 1
  }
  param {
    lr_mult: 2
  }
  convolution_param {
    num_output: 64
    pad: 1
    kernel_size: 3
    stride: 1
    weight_filler {
      type: "msra"
    }
    bias_filler {
      type: "constant"
      value: 0
    }
  }
}
layer {
  name: "bn_conv4_3b"
  type: "BatchNorm"
  bottom: "conv4_3b"
  top: "conv4_3b"
  param {
    lr_mult: 0
  }
  param {
    lr_mult: 0
  }
  param {
    lr_mult: 0
  }
}
layer {
  name: "scale_conv4_3b"
  type: "Scale"
  bottom: "conv4_3b"
  top: "conv4_3b"
  scale_param {
    bias_term: true
  }
}
layer {
  name: "conv4_3"
  type: "Eltwise"
  bottom: "conv4_1"
  bottom: "conv4_3b"
  top: "conv4_3"
}
layer {
  name: "conv4_3_relu"
  type: "ReLU"
  bottom: "conv4_3"
  top: "conv4_3"
}
layer {
  name: "global_pool"
  type: "Pooling"
  bottom: "conv4_3"
  top: "global_pool"
  pooling_param {
    pool: AVE
    kernel_size: 8
    stride: 8
  }
}
layer {
  name: "ip"
  type: "InnerProduct"
  bottom: "global_pool"
  top: "ip"
  inner_product_param {
    num_output: 10
  }
}
layer {
  name: "accuracy"
  type: "Accuracy"
  bottom: "ip"
  bottom: "label"
  top: "accuracy"
}
layer {
  name: "loss"
  type: "SoftmaxWithLoss"
  bottom: "ip"
  bottom: "label"
  top: "loss"
}
I0412 22:47:59.989143  9395 layer_factory.hpp:77] Creating layer cifar
I0412 22:47:59.990094  9395 net.cpp:91] Creating Layer cifar
I0412 22:47:59.990134  9395 net.cpp:399] cifar -> data
I0412 22:47:59.990152  9395 net.cpp:399] cifar -> label
I0412 22:47:59.990164  9395 data_transformer.cpp:25] Loading mean file from: data/cifar10/mean.binaryproto
I0412 22:47:59.991839  9665 db_lmdb.cpp:38] Opened lmdb data/cifar10/cifar10_train_lmdb
I0412 22:48:00.031620  9395 data_layer.cpp:41] output data size: 256,3,32,32
I0412 22:48:00.041188  9395 net.cpp:141] Setting up cifar
I0412 22:48:00.041218  9395 net.cpp:148] Top shape: 256 3 32 32 (786432)
I0412 22:48:00.041225  9395 net.cpp:148] Top shape: 256 (256)
I0412 22:48:00.041229  9395 net.cpp:156] Memory required for data: 3146752
I0412 22:48:00.041241  9395 layer_factory.hpp:77] Creating layer label_cifar_1_split
I0412 22:48:00.041263  9395 net.cpp:91] Creating Layer label_cifar_1_split
I0412 22:48:00.041270  9395 net.cpp:425] label_cifar_1_split <- label
I0412 22:48:00.041278  9395 net.cpp:399] label_cifar_1_split -> label_cifar_1_split_0
I0412 22:48:00.041291  9395 net.cpp:399] label_cifar_1_split -> label_cifar_1_split_1
I0412 22:48:00.041364  9395 net.cpp:141] Setting up label_cifar_1_split
I0412 22:48:00.041374  9395 net.cpp:148] Top shape: 256 (256)
I0412 22:48:00.041379  9395 net.cpp:148] Top shape: 256 (256)
I0412 22:48:00.041383  9395 net.cpp:156] Memory required for data: 3148800
I0412 22:48:00.041388  9395 layer_factory.hpp:77] Creating layer conv1
I0412 22:48:00.041406  9395 net.cpp:91] Creating Layer conv1
I0412 22:48:00.041412  9395 net.cpp:425] conv1 <- data
I0412 22:48:00.041419  9395 net.cpp:399] conv1 -> conv1
I0412 22:48:00.288528  9395 net.cpp:141] Setting up conv1
I0412 22:48:00.288573  9395 net.cpp:148] Top shape: 256 16 32 32 (4194304)
I0412 22:48:00.288578  9395 net.cpp:156] Memory required for data: 19926016
I0412 22:48:00.288596  9395 layer_factory.hpp:77] Creating layer bn_conv1
I0412 22:48:00.288614  9395 net.cpp:91] Creating Layer bn_conv1
I0412 22:48:00.288619  9395 net.cpp:425] bn_conv1 <- conv1
I0412 22:48:00.288626  9395 net.cpp:386] bn_conv1 -> conv1 (in-place)
I0412 22:48:00.288790  9395 net.cpp:141] Setting up bn_conv1
I0412 22:48:00.288806  9395 net.cpp:148] Top shape: 256 16 32 32 (4194304)
I0412 22:48:00.288810  9395 net.cpp:156] Memory required for data: 36703232
I0412 22:48:00.288820  9395 layer_factory.hpp:77] Creating layer scale_conv1
I0412 22:48:00.288831  9395 net.cpp:91] Creating Layer scale_conv1
I0412 22:48:00.288836  9395 net.cpp:425] scale_conv1 <- conv1
I0412 22:48:00.288841  9395 net.cpp:386] scale_conv1 -> conv1 (in-place)
I0412 22:48:00.288879  9395 layer_factory.hpp:77] Creating layer scale_conv1
I0412 22:48:00.288980  9395 net.cpp:141] Setting up scale_conv1
I0412 22:48:00.288987  9395 net.cpp:148] Top shape: 256 16 32 32 (4194304)
I0412 22:48:00.288990  9395 net.cpp:156] Memory required for data: 53480448
I0412 22:48:00.288998  9395 layer_factory.hpp:77] Creating layer conv1_relu
I0412 22:48:00.289006  9395 net.cpp:91] Creating Layer conv1_relu
I0412 22:48:00.289011  9395 net.cpp:425] conv1_relu <- conv1
I0412 22:48:00.289016  9395 net.cpp:386] conv1_relu -> conv1 (in-place)
I0412 22:48:00.289559  9395 net.cpp:141] Setting up conv1_relu
I0412 22:48:00.289573  9395 net.cpp:148] Top shape: 256 16 32 32 (4194304)
I0412 22:48:00.289577  9395 net.cpp:156] Memory required for data: 70257664
I0412 22:48:00.289582  9395 layer_factory.hpp:77] Creating layer conv1_conv1_relu_0_split
I0412 22:48:00.289589  9395 net.cpp:91] Creating Layer conv1_conv1_relu_0_split
I0412 22:48:00.289593  9395 net.cpp:425] conv1_conv1_relu_0_split <- conv1
I0412 22:48:00.289602  9395 net.cpp:399] conv1_conv1_relu_0_split -> conv1_conv1_relu_0_split_0
I0412 22:48:00.289609  9395 net.cpp:399] conv1_conv1_relu_0_split -> conv1_conv1_relu_0_split_1
I0412 22:48:00.289647  9395 net.cpp:141] Setting up conv1_conv1_relu_0_split
I0412 22:48:00.289654  9395 net.cpp:148] Top shape: 256 16 32 32 (4194304)
I0412 22:48:00.289659  9395 net.cpp:148] Top shape: 256 16 32 32 (4194304)
I0412 22:48:00.289664  9395 net.cpp:156] Memory required for data: 103812096
I0412 22:48:00.289667  9395 layer_factory.hpp:77] Creating layer conv2_1a
I0412 22:48:00.289682  9395 net.cpp:91] Creating Layer conv2_1a
I0412 22:48:00.289687  9395 net.cpp:425] conv2_1a <- conv1_conv1_relu_0_split_0
I0412 22:48:00.289695  9395 net.cpp:399] conv2_1a -> conv2_1a
I0412 22:48:00.293179  9395 net.cpp:141] Setting up conv2_1a
I0412 22:48:00.293195  9395 net.cpp:148] Top shape: 256 16 32 32 (4194304)
I0412 22:48:00.293200  9395 net.cpp:156] Memory required for data: 120589312
I0412 22:48:00.293212  9395 layer_factory.hpp:77] Creating layer bn_conv2_1a
I0412 22:48:00.293223  9395 net.cpp:91] Creating Layer bn_conv2_1a
I0412 22:48:00.293228  9395 net.cpp:425] bn_conv2_1a <- conv2_1a
I0412 22:48:00.293236  9395 net.cpp:386] bn_conv2_1a -> conv2_1a (in-place)
I0412 22:48:00.293403  9395 net.cpp:141] Setting up bn_conv2_1a
I0412 22:48:00.293423  9395 net.cpp:148] Top shape: 256 16 32 32 (4194304)
I0412 22:48:00.293427  9395 net.cpp:156] Memory required for data: 137366528
I0412 22:48:00.293434  9395 layer_factory.hpp:77] Creating layer scale_conv2_1a
I0412 22:48:00.293443  9395 net.cpp:91] Creating Layer scale_conv2_1a
I0412 22:48:00.293447  9395 net.cpp:425] scale_conv2_1a <- conv2_1a
I0412 22:48:00.293453  9395 net.cpp:386] scale_conv2_1a -> conv2_1a (in-place)
I0412 22:48:00.293496  9395 layer_factory.hpp:77] Creating layer scale_conv2_1a
I0412 22:48:00.293586  9395 net.cpp:141] Setting up scale_conv2_1a
I0412 22:48:00.293593  9395 net.cpp:148] Top shape: 256 16 32 32 (4194304)
I0412 22:48:00.293597  9395 net.cpp:156] Memory required for data: 154143744
I0412 22:48:00.293604  9395 layer_factory.hpp:77] Creating layer conv2_1a_relu
I0412 22:48:00.293609  9395 net.cpp:91] Creating Layer conv2_1a_relu
I0412 22:48:00.293613  9395 net.cpp:425] conv2_1a_relu <- conv2_1a
I0412 22:48:00.293619  9395 net.cpp:386] conv2_1a_relu -> conv2_1a (in-place)
I0412 22:48:00.294226  9395 net.cpp:141] Setting up conv2_1a_relu
I0412 22:48:00.294239  9395 net.cpp:148] Top shape: 256 16 32 32 (4194304)
I0412 22:48:00.294244  9395 net.cpp:156] Memory required for data: 170920960
I0412 22:48:00.294247  9395 layer_factory.hpp:77] Creating layer conv2_1b
I0412 22:48:00.294266  9395 net.cpp:91] Creating Layer conv2_1b
I0412 22:48:00.294271  9395 net.cpp:425] conv2_1b <- conv2_1a
I0412 22:48:00.294278  9395 net.cpp:399] conv2_1b -> conv2_1b
I0412 22:48:00.297724  9395 net.cpp:141] Setting up conv2_1b
I0412 22:48:00.297739  9395 net.cpp:148] Top shape: 256 16 32 32 (4194304)
I0412 22:48:00.297744  9395 net.cpp:156] Memory required for data: 187698176
I0412 22:48:00.297750  9395 layer_factory.hpp:77] Creating layer bn_conv2_1b
I0412 22:48:00.297760  9395 net.cpp:91] Creating Layer bn_conv2_1b
I0412 22:48:00.297765  9395 net.cpp:425] bn_conv2_1b <- conv2_1b
I0412 22:48:00.297770  9395 net.cpp:386] bn_conv2_1b -> conv2_1b (in-place)
I0412 22:48:00.297924  9395 net.cpp:141] Setting up bn_conv2_1b
I0412 22:48:00.297931  9395 net.cpp:148] Top shape: 256 16 32 32 (4194304)
I0412 22:48:00.297935  9395 net.cpp:156] Memory required for data: 204475392
I0412 22:48:00.297945  9395 layer_factory.hpp:77] Creating layer scale_conv2_1b
I0412 22:48:00.297951  9395 net.cpp:91] Creating Layer scale_conv2_1b
I0412 22:48:00.297956  9395 net.cpp:425] scale_conv2_1b <- conv2_1b
I0412 22:48:00.297961  9395 net.cpp:386] scale_conv2_1b -> conv2_1b (in-place)
I0412 22:48:00.297997  9395 layer_factory.hpp:77] Creating layer scale_conv2_1b
I0412 22:48:00.298090  9395 net.cpp:141] Setting up scale_conv2_1b
I0412 22:48:00.298099  9395 net.cpp:148] Top shape: 256 16 32 32 (4194304)
I0412 22:48:00.298102  9395 net.cpp:156] Memory required for data: 221252608
I0412 22:48:00.298108  9395 layer_factory.hpp:77] Creating layer conv2_1_relu
I0412 22:48:00.298115  9395 net.cpp:91] Creating Layer conv2_1_relu
I0412 22:48:00.298118  9395 net.cpp:425] conv2_1_relu <- conv2_1b
I0412 22:48:00.298125  9395 net.cpp:386] conv2_1_relu -> conv2_1b (in-place)
I0412 22:48:00.298774  9395 net.cpp:141] Setting up conv2_1_relu
I0412 22:48:00.298784  9395 net.cpp:148] Top shape: 256 16 32 32 (4194304)
I0412 22:48:00.298787  9395 net.cpp:156] Memory required for data: 238029824
I0412 22:48:00.298791  9395 layer_factory.hpp:77] Creating layer conv2_2a
I0412 22:48:00.298804  9395 net.cpp:91] Creating Layer conv2_2a
I0412 22:48:00.298809  9395 net.cpp:425] conv2_2a <- conv2_1b
I0412 22:48:00.298815  9395 net.cpp:399] conv2_2a -> conv2_2a
I0412 22:48:00.302263  9395 net.cpp:141] Setting up conv2_2a
I0412 22:48:00.302278  9395 net.cpp:148] Top shape: 256 16 32 32 (4194304)
I0412 22:48:00.302284  9395 net.cpp:156] Memory required for data: 254807040
I0412 22:48:00.302290  9395 layer_factory.hpp:77] Creating layer bn_conv2_2a
I0412 22:48:00.302302  9395 net.cpp:91] Creating Layer bn_conv2_2a
I0412 22:48:00.302309  9395 net.cpp:425] bn_conv2_2a <- conv2_2a
I0412 22:48:00.302314  9395 net.cpp:386] bn_conv2_2a -> conv2_2a (in-place)
I0412 22:48:00.302479  9395 net.cpp:141] Setting up bn_conv2_2a
I0412 22:48:00.302486  9395 net.cpp:148] Top shape: 256 16 32 32 (4194304)
I0412 22:48:00.302490  9395 net.cpp:156] Memory required for data: 271584256
I0412 22:48:00.302497  9395 layer_factory.hpp:77] Creating layer scale_conv2_2a
I0412 22:48:00.302505  9395 net.cpp:91] Creating Layer scale_conv2_2a
I0412 22:48:00.302508  9395 net.cpp:425] scale_conv2_2a <- conv2_2a
I0412 22:48:00.302515  9395 net.cpp:386] scale_conv2_2a -> conv2_2a (in-place)
I0412 22:48:00.302548  9395 layer_factory.hpp:77] Creating layer scale_conv2_2a
I0412 22:48:00.302646  9395 net.cpp:141] Setting up scale_conv2_2a
I0412 22:48:00.302654  9395 net.cpp:148] Top shape: 256 16 32 32 (4194304)
I0412 22:48:00.302659  9395 net.cpp:156] Memory required for data: 288361472
I0412 22:48:00.302665  9395 layer_factory.hpp:77] Creating layer conv2_1
I0412 22:48:00.302673  9395 net.cpp:91] Creating Layer conv2_1
I0412 22:48:00.302677  9395 net.cpp:425] conv2_1 <- conv2_2a
I0412 22:48:00.302682  9395 net.cpp:425] conv2_1 <- conv1_conv1_relu_0_split_1
I0412 22:48:00.302688  9395 net.cpp:399] conv2_1 -> conv2_1
I0412 22:48:00.302718  9395 net.cpp:141] Setting up conv2_1
I0412 22:48:00.302726  9395 net.cpp:148] Top shape: 256 16 32 32 (4194304)
I0412 22:48:00.302733  9395 net.cpp:156] Memory required for data: 305138688
I0412 22:48:00.302737  9395 layer_factory.hpp:77] Creating layer conv2_2a_relu
I0412 22:48:00.302743  9395 net.cpp:91] Creating Layer conv2_2a_relu
I0412 22:48:00.302747  9395 net.cpp:425] conv2_2a_relu <- conv2_1
I0412 22:48:00.302754  9395 net.cpp:386] conv2_2a_relu -> conv2_1 (in-place)
I0412 22:48:00.303225  9395 net.cpp:141] Setting up conv2_2a_relu
I0412 22:48:00.303237  9395 net.cpp:148] Top shape: 256 16 32 32 (4194304)
I0412 22:48:00.303241  9395 net.cpp:156] Memory required for data: 321915904
I0412 22:48:00.303246  9395 layer_factory.hpp:77] Creating layer conv2_1_conv2_2a_relu_0_split
I0412 22:48:00.303254  9395 net.cpp:91] Creating Layer conv2_1_conv2_2a_relu_0_split
I0412 22:48:00.303259  9395 net.cpp:425] conv2_1_conv2_2a_relu_0_split <- conv2_1
I0412 22:48:00.303266  9395 net.cpp:399] conv2_1_conv2_2a_relu_0_split -> conv2_1_conv2_2a_relu_0_split_0
I0412 22:48:00.303273  9395 net.cpp:399] conv2_1_conv2_2a_relu_0_split -> conv2_1_conv2_2a_relu_0_split_1
I0412 22:48:00.303313  9395 net.cpp:141] Setting up conv2_1_conv2_2a_relu_0_split
I0412 22:48:00.303320  9395 net.cpp:148] Top shape: 256 16 32 32 (4194304)
I0412 22:48:00.303325  9395 net.cpp:148] Top shape: 256 16 32 32 (4194304)
I0412 22:48:00.303329  9395 net.cpp:156] Memory required for data: 355470336
I0412 22:48:00.303333  9395 layer_factory.hpp:77] Creating layer conv2_2b
I0412 22:48:00.303344  9395 net.cpp:91] Creating Layer conv2_2b
I0412 22:48:00.303349  9395 net.cpp:425] conv2_2b <- conv2_1_conv2_2a_relu_0_split_0
I0412 22:48:00.303359  9395 net.cpp:399] conv2_2b -> conv2_2b
I0412 22:48:00.305924  9395 net.cpp:141] Setting up conv2_2b
I0412 22:48:00.305939  9395 net.cpp:148] Top shape: 256 16 32 32 (4194304)
I0412 22:48:00.305944  9395 net.cpp:156] Memory required for data: 372247552
I0412 22:48:00.305953  9395 layer_factory.hpp:77] Creating layer bn_conv2_2b
I0412 22:48:00.305963  9395 net.cpp:91] Creating Layer bn_conv2_2b
I0412 22:48:00.305968  9395 net.cpp:425] bn_conv2_2b <- conv2_2b
I0412 22:48:00.305974  9395 net.cpp:386] bn_conv2_2b -> conv2_2b (in-place)
I0412 22:48:00.306146  9395 net.cpp:141] Setting up bn_conv2_2b
I0412 22:48:00.306154  9395 net.cpp:148] Top shape: 256 16 32 32 (4194304)
I0412 22:48:00.306159  9395 net.cpp:156] Memory required for data: 389024768
I0412 22:48:00.306172  9395 layer_factory.hpp:77] Creating layer scale_conv2_2b
I0412 22:48:00.306180  9395 net.cpp:91] Creating Layer scale_conv2_2b
I0412 22:48:00.306185  9395 net.cpp:425] scale_conv2_2b <- conv2_2b
I0412 22:48:00.306190  9395 net.cpp:386] scale_conv2_2b -> conv2_2b (in-place)
I0412 22:48:00.306226  9395 layer_factory.hpp:77] Creating layer scale_conv2_2b
I0412 22:48:00.306323  9395 net.cpp:141] Setting up scale_conv2_2b
I0412 22:48:00.306330  9395 net.cpp:148] Top shape: 256 16 32 32 (4194304)
I0412 22:48:00.306334  9395 net.cpp:156] Memory required for data: 405801984
I0412 22:48:00.306340  9395 layer_factory.hpp:77] Creating layer conv2_2_relu
I0412 22:48:00.306346  9395 net.cpp:91] Creating Layer conv2_2_relu
I0412 22:48:00.306350  9395 net.cpp:425] conv2_2_relu <- conv2_2b
I0412 22:48:00.306357  9395 net.cpp:386] conv2_2_relu -> conv2_2b (in-place)
I0412 22:48:00.307003  9395 net.cpp:141] Setting up conv2_2_relu
I0412 22:48:00.307016  9395 net.cpp:148] Top shape: 256 16 32 32 (4194304)
I0412 22:48:00.307023  9395 net.cpp:156] Memory required for data: 422579200
I0412 22:48:00.307027  9395 layer_factory.hpp:77] Creating layer conv2_3a
I0412 22:48:00.307039  9395 net.cpp:91] Creating Layer conv2_3a
I0412 22:48:00.307044  9395 net.cpp:425] conv2_3a <- conv2_2b
I0412 22:48:00.307051  9395 net.cpp:399] conv2_3a -> conv2_3a
I0412 22:48:00.310562  9395 net.cpp:141] Setting up conv2_3a
I0412 22:48:00.310581  9395 net.cpp:148] Top shape: 256 16 32 32 (4194304)
I0412 22:48:00.310586  9395 net.cpp:156] Memory required for data: 439356416
I0412 22:48:00.310595  9395 layer_factory.hpp:77] Creating layer bn_conv2_3a
I0412 22:48:00.310612  9395 net.cpp:91] Creating Layer bn_conv2_3a
I0412 22:48:00.310621  9395 net.cpp:425] bn_conv2_3a <- conv2_3a
I0412 22:48:00.310631  9395 net.cpp:386] bn_conv2_3a -> conv2_3a (in-place)
I0412 22:48:00.310801  9395 net.cpp:141] Setting up bn_conv2_3a
I0412 22:48:00.310808  9395 net.cpp:148] Top shape: 256 16 32 32 (4194304)
I0412 22:48:00.310812  9395 net.cpp:156] Memory required for data: 456133632
I0412 22:48:00.310820  9395 layer_factory.hpp:77] Creating layer scale_conv2_3a
I0412 22:48:00.310827  9395 net.cpp:91] Creating Layer scale_conv2_3a
I0412 22:48:00.310832  9395 net.cpp:425] scale_conv2_3a <- conv2_3a
I0412 22:48:00.310837  9395 net.cpp:386] scale_conv2_3a -> conv2_3a (in-place)
I0412 22:48:00.310870  9395 layer_factory.hpp:77] Creating layer scale_conv2_3a
I0412 22:48:00.310971  9395 net.cpp:141] Setting up scale_conv2_3a
I0412 22:48:00.310979  9395 net.cpp:148] Top shape: 256 16 32 32 (4194304)
I0412 22:48:00.310983  9395 net.cpp:156] Memory required for data: 472910848
I0412 22:48:00.310991  9395 layer_factory.hpp:77] Creating layer conv2_3a_relu
I0412 22:48:00.310997  9395 net.cpp:91] Creating Layer conv2_3a_relu
I0412 22:48:00.311000  9395 net.cpp:425] conv2_3a_relu <- conv2_3a
I0412 22:48:00.311007  9395 net.cpp:386] conv2_3a_relu -> conv2_3a (in-place)
I0412 22:48:00.311614  9395 net.cpp:141] Setting up conv2_3a_relu
I0412 22:48:00.311625  9395 net.cpp:148] Top shape: 256 16 32 32 (4194304)
I0412 22:48:00.311630  9395 net.cpp:156] Memory required for data: 489688064
I0412 22:48:00.311633  9395 layer_factory.hpp:77] Creating layer conv2_3b
I0412 22:48:00.311646  9395 net.cpp:91] Creating Layer conv2_3b
I0412 22:48:00.311651  9395 net.cpp:425] conv2_3b <- conv2_3a
I0412 22:48:00.311658  9395 net.cpp:399] conv2_3b -> conv2_3b
I0412 22:48:00.315096  9395 net.cpp:141] Setting up conv2_3b
I0412 22:48:00.315111  9395 net.cpp:148] Top shape: 256 16 32 32 (4194304)
I0412 22:48:00.315116  9395 net.cpp:156] Memory required for data: 506465280
I0412 22:48:00.315124  9395 layer_factory.hpp:77] Creating layer bn_conv2_3b
I0412 22:48:00.315134  9395 net.cpp:91] Creating Layer bn_conv2_3b
I0412 22:48:00.315138  9395 net.cpp:425] bn_conv2_3b <- conv2_3b
I0412 22:48:00.315145  9395 net.cpp:386] bn_conv2_3b -> conv2_3b (in-place)
I0412 22:48:00.315318  9395 net.cpp:141] Setting up bn_conv2_3b
I0412 22:48:00.315326  9395 net.cpp:148] Top shape: 256 16 32 32 (4194304)
I0412 22:48:00.315330  9395 net.cpp:156] Memory required for data: 523242496
I0412 22:48:00.315338  9395 layer_factory.hpp:77] Creating layer scale_conv2_3b
I0412 22:48:00.315346  9395 net.cpp:91] Creating Layer scale_conv2_3b
I0412 22:48:00.315349  9395 net.cpp:425] scale_conv2_3b <- conv2_3b
I0412 22:48:00.315356  9395 net.cpp:386] scale_conv2_3b -> conv2_3b (in-place)
I0412 22:48:00.315389  9395 layer_factory.hpp:77] Creating layer scale_conv2_3b
I0412 22:48:00.315487  9395 net.cpp:141] Setting up scale_conv2_3b
I0412 22:48:00.315495  9395 net.cpp:148] Top shape: 256 16 32 32 (4194304)
I0412 22:48:00.315498  9395 net.cpp:156] Memory required for data: 540019712
I0412 22:48:00.315505  9395 layer_factory.hpp:77] Creating layer conv2_3
I0412 22:48:00.315515  9395 net.cpp:91] Creating Layer conv2_3
I0412 22:48:00.315520  9395 net.cpp:425] conv2_3 <- conv2_3b
I0412 22:48:00.315524  9395 net.cpp:425] conv2_3 <- conv2_1_conv2_2a_relu_0_split_1
I0412 22:48:00.315531  9395 net.cpp:399] conv2_3 -> conv2_3
I0412 22:48:00.315557  9395 net.cpp:141] Setting up conv2_3
I0412 22:48:00.315565  9395 net.cpp:148] Top shape: 256 16 32 32 (4194304)
I0412 22:48:00.315569  9395 net.cpp:156] Memory required for data: 556796928
I0412 22:48:00.315573  9395 layer_factory.hpp:77] Creating layer conv2_3_relu
I0412 22:48:00.315579  9395 net.cpp:91] Creating Layer conv2_3_relu
I0412 22:48:00.315583  9395 net.cpp:425] conv2_3_relu <- conv2_3
I0412 22:48:00.315588  9395 net.cpp:386] conv2_3_relu -> conv2_3 (in-place)
I0412 22:48:00.316156  9395 net.cpp:141] Setting up conv2_3_relu
I0412 22:48:00.316169  9395 net.cpp:148] Top shape: 256 16 32 32 (4194304)
I0412 22:48:00.316174  9395 net.cpp:156] Memory required for data: 573574144
I0412 22:48:00.316179  9395 layer_factory.hpp:77] Creating layer conv2_3_conv2_3_relu_0_split
I0412 22:48:00.316190  9395 net.cpp:91] Creating Layer conv2_3_conv2_3_relu_0_split
I0412 22:48:00.316195  9395 net.cpp:425] conv2_3_conv2_3_relu_0_split <- conv2_3
I0412 22:48:00.316202  9395 net.cpp:399] conv2_3_conv2_3_relu_0_split -> conv2_3_conv2_3_relu_0_split_0
I0412 22:48:00.316210  9395 net.cpp:399] conv2_3_conv2_3_relu_0_split -> conv2_3_conv2_3_relu_0_split_1
I0412 22:48:00.316249  9395 net.cpp:141] Setting up conv2_3_conv2_3_relu_0_split
I0412 22:48:00.316257  9395 net.cpp:148] Top shape: 256 16 32 32 (4194304)
I0412 22:48:00.316262  9395 net.cpp:148] Top shape: 256 16 32 32 (4194304)
I0412 22:48:00.316265  9395 net.cpp:156] Memory required for data: 607128576
I0412 22:48:00.316269  9395 layer_factory.hpp:77] Creating layer conv2_sub
I0412 22:48:00.316282  9395 net.cpp:91] Creating Layer conv2_sub
I0412 22:48:00.316287  9395 net.cpp:425] conv2_sub <- conv2_3_conv2_3_relu_0_split_0
I0412 22:48:00.316293  9395 net.cpp:399] conv2_sub -> conv2_sub
I0412 22:48:00.319664  9395 net.cpp:141] Setting up conv2_sub
I0412 22:48:00.319680  9395 net.cpp:148] Top shape: 256 32 16 16 (2097152)
I0412 22:48:00.319686  9395 net.cpp:156] Memory required for data: 615517184
I0412 22:48:00.319694  9395 layer_factory.hpp:77] Creating layer bn_conv2_sub
I0412 22:48:00.319702  9395 net.cpp:91] Creating Layer bn_conv2_sub
I0412 22:48:00.319707  9395 net.cpp:425] bn_conv2_sub <- conv2_sub
I0412 22:48:00.319715  9395 net.cpp:386] bn_conv2_sub -> conv2_sub (in-place)
I0412 22:48:00.319887  9395 net.cpp:141] Setting up bn_conv2_sub
I0412 22:48:00.319895  9395 net.cpp:148] Top shape: 256 32 16 16 (2097152)
I0412 22:48:00.319900  9395 net.cpp:156] Memory required for data: 623905792
I0412 22:48:00.319907  9395 layer_factory.hpp:77] Creating layer scale_conv2_sub
I0412 22:48:00.319914  9395 net.cpp:91] Creating Layer scale_conv2_sub
I0412 22:48:00.319918  9395 net.cpp:425] scale_conv2_sub <- conv2_sub
I0412 22:48:00.319923  9395 net.cpp:386] scale_conv2_sub -> conv2_sub (in-place)
I0412 22:48:00.319957  9395 layer_factory.hpp:77] Creating layer scale_conv2_sub
I0412 22:48:00.320058  9395 net.cpp:141] Setting up scale_conv2_sub
I0412 22:48:00.320066  9395 net.cpp:148] Top shape: 256 32 16 16 (2097152)
I0412 22:48:00.320070  9395 net.cpp:156] Memory required for data: 632294400
I0412 22:48:00.320077  9395 layer_factory.hpp:77] Creating layer conv3_1a
I0412 22:48:00.320087  9395 net.cpp:91] Creating Layer conv3_1a
I0412 22:48:00.320092  9395 net.cpp:425] conv3_1a <- conv2_3_conv2_3_relu_0_split_1
I0412 22:48:00.320101  9395 net.cpp:399] conv3_1a -> conv3_1a
I0412 22:48:00.322156  9395 net.cpp:141] Setting up conv3_1a
I0412 22:48:00.322171  9395 net.cpp:148] Top shape: 256 32 16 16 (2097152)
I0412 22:48:00.322175  9395 net.cpp:156] Memory required for data: 640683008
I0412 22:48:00.322183  9395 layer_factory.hpp:77] Creating layer bn_conv3_1a
I0412 22:48:00.322192  9395 net.cpp:91] Creating Layer bn_conv3_1a
I0412 22:48:00.322197  9395 net.cpp:425] bn_conv3_1a <- conv3_1a
I0412 22:48:00.322203  9395 net.cpp:386] bn_conv3_1a -> conv3_1a (in-place)
I0412 22:48:00.322371  9395 net.cpp:141] Setting up bn_conv3_1a
I0412 22:48:00.322379  9395 net.cpp:148] Top shape: 256 32 16 16 (2097152)
I0412 22:48:00.322382  9395 net.cpp:156] Memory required for data: 649071616
I0412 22:48:00.322392  9395 layer_factory.hpp:77] Creating layer scale_conv3_1a
I0412 22:48:00.322399  9395 net.cpp:91] Creating Layer scale_conv3_1a
I0412 22:48:00.322403  9395 net.cpp:425] scale_conv3_1a <- conv3_1a
I0412 22:48:00.322409  9395 net.cpp:386] scale_conv3_1a -> conv3_1a (in-place)
I0412 22:48:00.322443  9395 layer_factory.hpp:77] Creating layer scale_conv3_1a
I0412 22:48:00.322542  9395 net.cpp:141] Setting up scale_conv3_1a
I0412 22:48:00.322549  9395 net.cpp:148] Top shape: 256 32 16 16 (2097152)
I0412 22:48:00.322553  9395 net.cpp:156] Memory required for data: 657460224
I0412 22:48:00.322561  9395 layer_factory.hpp:77] Creating layer conv3_1a_relu
I0412 22:48:00.322567  9395 net.cpp:91] Creating Layer conv3_1a_relu
I0412 22:48:00.322576  9395 net.cpp:425] conv3_1a_relu <- conv3_1a
I0412 22:48:00.322582  9395 net.cpp:386] conv3_1a_relu -> conv3_1a (in-place)
I0412 22:48:00.323235  9395 net.cpp:141] Setting up conv3_1a_relu
I0412 22:48:00.323247  9395 net.cpp:148] Top shape: 256 32 16 16 (2097152)
I0412 22:48:00.323252  9395 net.cpp:156] Memory required for data: 665848832
I0412 22:48:00.323256  9395 layer_factory.hpp:77] Creating layer conv3_1b
I0412 22:48:00.323269  9395 net.cpp:91] Creating Layer conv3_1b
I0412 22:48:00.323276  9395 net.cpp:425] conv3_1b <- conv3_1a
I0412 22:48:00.323282  9395 net.cpp:399] conv3_1b -> conv3_1b
I0412 22:48:00.326844  9395 net.cpp:141] Setting up conv3_1b
I0412 22:48:00.326871  9395 net.cpp:148] Top shape: 256 32 16 16 (2097152)
I0412 22:48:00.326876  9395 net.cpp:156] Memory required for data: 674237440
I0412 22:48:00.326902  9395 layer_factory.hpp:77] Creating layer bn_conv3_1b
I0412 22:48:00.326915  9395 net.cpp:91] Creating Layer bn_conv3_1b
I0412 22:48:00.326920  9395 net.cpp:425] bn_conv3_1b <- conv3_1b
I0412 22:48:00.326926  9395 net.cpp:386] bn_conv3_1b -> conv3_1b (in-place)
I0412 22:48:00.327105  9395 net.cpp:141] Setting up bn_conv3_1b
I0412 22:48:00.327113  9395 net.cpp:148] Top shape: 256 32 16 16 (2097152)
I0412 22:48:00.327118  9395 net.cpp:156] Memory required for data: 682626048
I0412 22:48:00.327126  9395 layer_factory.hpp:77] Creating layer scale_conv3_1b
I0412 22:48:00.327134  9395 net.cpp:91] Creating Layer scale_conv3_1b
I0412 22:48:00.327138  9395 net.cpp:425] scale_conv3_1b <- conv3_1b
I0412 22:48:00.327147  9395 net.cpp:386] scale_conv3_1b -> conv3_1b (in-place)
I0412 22:48:00.327181  9395 layer_factory.hpp:77] Creating layer scale_conv3_1b
I0412 22:48:00.327288  9395 net.cpp:141] Setting up scale_conv3_1b
I0412 22:48:00.327298  9395 net.cpp:148] Top shape: 256 32 16 16 (2097152)
I0412 22:48:00.327302  9395 net.cpp:156] Memory required for data: 691014656
I0412 22:48:00.327311  9395 layer_factory.hpp:77] Creating layer conv3_1_relu
I0412 22:48:00.327316  9395 net.cpp:91] Creating Layer conv3_1_relu
I0412 22:48:00.327321  9395 net.cpp:425] conv3_1_relu <- conv3_1b
I0412 22:48:00.327327  9395 net.cpp:386] conv3_1_relu -> conv3_1b (in-place)
I0412 22:48:00.327863  9395 net.cpp:141] Setting up conv3_1_relu
I0412 22:48:00.327874  9395 net.cpp:148] Top shape: 256 32 16 16 (2097152)
I0412 22:48:00.327878  9395 net.cpp:156] Memory required for data: 699403264
I0412 22:48:00.327883  9395 layer_factory.hpp:77] Creating layer conv3_2a
I0412 22:48:00.327898  9395 net.cpp:91] Creating Layer conv3_2a
I0412 22:48:00.327903  9395 net.cpp:425] conv3_2a <- conv3_1b
I0412 22:48:00.327911  9395 net.cpp:399] conv3_2a -> conv3_2a
I0412 22:48:00.331393  9395 net.cpp:141] Setting up conv3_2a
I0412 22:48:00.331410  9395 net.cpp:148] Top shape: 256 32 16 16 (2097152)
I0412 22:48:00.331414  9395 net.cpp:156] Memory required for data: 707791872
I0412 22:48:00.331423  9395 layer_factory.hpp:77] Creating layer bn_conv3_2a
I0412 22:48:00.331430  9395 net.cpp:91] Creating Layer bn_conv3_2a
I0412 22:48:00.331435  9395 net.cpp:425] bn_conv3_2a <- conv3_2a
I0412 22:48:00.331444  9395 net.cpp:386] bn_conv3_2a -> conv3_2a (in-place)
I0412 22:48:00.331627  9395 net.cpp:141] Setting up bn_conv3_2a
I0412 22:48:00.331634  9395 net.cpp:148] Top shape: 256 32 16 16 (2097152)
I0412 22:48:00.331639  9395 net.cpp:156] Memory required for data: 716180480
I0412 22:48:00.331645  9395 layer_factory.hpp:77] Creating layer scale_conv3_2a
I0412 22:48:00.331652  9395 net.cpp:91] Creating Layer scale_conv3_2a
I0412 22:48:00.331656  9395 net.cpp:425] scale_conv3_2a <- conv3_2a
I0412 22:48:00.331662  9395 net.cpp:386] scale_conv3_2a -> conv3_2a (in-place)
I0412 22:48:00.331699  9395 layer_factory.hpp:77] Creating layer scale_conv3_2a
I0412 22:48:00.331796  9395 net.cpp:141] Setting up scale_conv3_2a
I0412 22:48:00.331804  9395 net.cpp:148] Top shape: 256 32 16 16 (2097152)
I0412 22:48:00.331807  9395 net.cpp:156] Memory required for data: 724569088
I0412 22:48:00.331815  9395 layer_factory.hpp:77] Creating layer conv3_1
I0412 22:48:00.331826  9395 net.cpp:91] Creating Layer conv3_1
I0412 22:48:00.331832  9395 net.cpp:425] conv3_1 <- conv3_2a
I0412 22:48:00.331837  9395 net.cpp:425] conv3_1 <- conv2_sub
I0412 22:48:00.331843  9395 net.cpp:399] conv3_1 -> conv3_1
I0412 22:48:00.331863  9395 net.cpp:141] Setting up conv3_1
I0412 22:48:00.331871  9395 net.cpp:148] Top shape: 256 32 16 16 (2097152)
I0412 22:48:00.331874  9395 net.cpp:156] Memory required for data: 732957696
I0412 22:48:00.331877  9395 layer_factory.hpp:77] Creating layer conv3_2a_relu
I0412 22:48:00.331886  9395 net.cpp:91] Creating Layer conv3_2a_relu
I0412 22:48:00.331889  9395 net.cpp:425] conv3_2a_relu <- conv3_1
I0412 22:48:00.331894  9395 net.cpp:386] conv3_2a_relu -> conv3_1 (in-place)
I0412 22:48:00.332469  9395 net.cpp:141] Setting up conv3_2a_relu
I0412 22:48:00.332479  9395 net.cpp:148] Top shape: 256 32 16 16 (2097152)
I0412 22:48:00.332484  9395 net.cpp:156] Memory required for data: 741346304
I0412 22:48:00.332487  9395 layer_factory.hpp:77] Creating layer conv3_1_conv3_2a_relu_0_split
I0412 22:48:00.332494  9395 net.cpp:91] Creating Layer conv3_1_conv3_2a_relu_0_split
I0412 22:48:00.332497  9395 net.cpp:425] conv3_1_conv3_2a_relu_0_split <- conv3_1
I0412 22:48:00.332505  9395 net.cpp:399] conv3_1_conv3_2a_relu_0_split -> conv3_1_conv3_2a_relu_0_split_0
I0412 22:48:00.332512  9395 net.cpp:399] conv3_1_conv3_2a_relu_0_split -> conv3_1_conv3_2a_relu_0_split_1
I0412 22:48:00.332551  9395 net.cpp:141] Setting up conv3_1_conv3_2a_relu_0_split
I0412 22:48:00.332557  9395 net.cpp:148] Top shape: 256 32 16 16 (2097152)
I0412 22:48:00.332562  9395 net.cpp:148] Top shape: 256 32 16 16 (2097152)
I0412 22:48:00.332566  9395 net.cpp:156] Memory required for data: 758123520
I0412 22:48:00.332569  9395 layer_factory.hpp:77] Creating layer conv3_2b
I0412 22:48:00.332582  9395 net.cpp:91] Creating Layer conv3_2b
I0412 22:48:00.332587  9395 net.cpp:425] conv3_2b <- conv3_1_conv3_2a_relu_0_split_0
I0412 22:48:00.332592  9395 net.cpp:399] conv3_2b -> conv3_2b
I0412 22:48:00.335983  9395 net.cpp:141] Setting up conv3_2b
I0412 22:48:00.335999  9395 net.cpp:148] Top shape: 256 32 16 16 (2097152)
I0412 22:48:00.336002  9395 net.cpp:156] Memory required for data: 766512128
I0412 22:48:00.336009  9395 layer_factory.hpp:77] Creating layer bn_conv3_2b
I0412 22:48:00.336019  9395 net.cpp:91] Creating Layer bn_conv3_2b
I0412 22:48:00.336024  9395 net.cpp:425] bn_conv3_2b <- conv3_2b
I0412 22:48:00.336029  9395 net.cpp:386] bn_conv3_2b -> conv3_2b (in-place)
I0412 22:48:00.336190  9395 net.cpp:141] Setting up bn_conv3_2b
I0412 22:48:00.336199  9395 net.cpp:148] Top shape: 256 32 16 16 (2097152)
I0412 22:48:00.336202  9395 net.cpp:156] Memory required for data: 774900736
I0412 22:48:00.336210  9395 layer_factory.hpp:77] Creating layer scale_conv3_2b
I0412 22:48:00.336217  9395 net.cpp:91] Creating Layer scale_conv3_2b
I0412 22:48:00.336221  9395 net.cpp:425] scale_conv3_2b <- conv3_2b
I0412 22:48:00.336227  9395 net.cpp:386] scale_conv3_2b -> conv3_2b (in-place)
I0412 22:48:00.336259  9395 layer_factory.hpp:77] Creating layer scale_conv3_2b
I0412 22:48:00.336357  9395 net.cpp:141] Setting up scale_conv3_2b
I0412 22:48:00.336364  9395 net.cpp:148] Top shape: 256 32 16 16 (2097152)
I0412 22:48:00.336369  9395 net.cpp:156] Memory required for data: 783289344
I0412 22:48:00.336374  9395 layer_factory.hpp:77] Creating layer conv3_2_relu
I0412 22:48:00.336382  9395 net.cpp:91] Creating Layer conv3_2_relu
I0412 22:48:00.336386  9395 net.cpp:425] conv3_2_relu <- conv3_2b
I0412 22:48:00.336391  9395 net.cpp:386] conv3_2_relu -> conv3_2b (in-place)
I0412 22:48:00.336642  9395 net.cpp:141] Setting up conv3_2_relu
I0412 22:48:00.336655  9395 net.cpp:148] Top shape: 256 32 16 16 (2097152)
I0412 22:48:00.336659  9395 net.cpp:156] Memory required for data: 791677952
I0412 22:48:00.336663  9395 layer_factory.hpp:77] Creating layer conv3_3a
I0412 22:48:00.336676  9395 net.cpp:91] Creating Layer conv3_3a
I0412 22:48:00.336681  9395 net.cpp:425] conv3_3a <- conv3_2b
I0412 22:48:00.336688  9395 net.cpp:399] conv3_3a -> conv3_3a
I0412 22:48:00.339805  9395 net.cpp:141] Setting up conv3_3a
I0412 22:48:00.339824  9395 net.cpp:148] Top shape: 256 32 16 16 (2097152)
I0412 22:48:00.339828  9395 net.cpp:156] Memory required for data: 800066560
I0412 22:48:00.339835  9395 layer_factory.hpp:77] Creating layer bn_conv3_3a
I0412 22:48:00.339844  9395 net.cpp:91] Creating Layer bn_conv3_3a
I0412 22:48:00.339849  9395 net.cpp:425] bn_conv3_3a <- conv3_3a
I0412 22:48:00.339855  9395 net.cpp:386] bn_conv3_3a -> conv3_3a (in-place)
I0412 22:48:00.340023  9395 net.cpp:141] Setting up bn_conv3_3a
I0412 22:48:00.340029  9395 net.cpp:148] Top shape: 256 32 16 16 (2097152)
I0412 22:48:00.340034  9395 net.cpp:156] Memory required for data: 808455168
I0412 22:48:00.340040  9395 layer_factory.hpp:77] Creating layer scale_conv3_3a
I0412 22:48:00.340047  9395 net.cpp:91] Creating Layer scale_conv3_3a
I0412 22:48:00.340052  9395 net.cpp:425] scale_conv3_3a <- conv3_3a
I0412 22:48:00.340057  9395 net.cpp:386] scale_conv3_3a -> conv3_3a (in-place)
I0412 22:48:00.340090  9395 layer_factory.hpp:77] Creating layer scale_conv3_3a
I0412 22:48:00.340189  9395 net.cpp:141] Setting up scale_conv3_3a
I0412 22:48:00.340196  9395 net.cpp:148] Top shape: 256 32 16 16 (2097152)
I0412 22:48:00.340200  9395 net.cpp:156] Memory required for data: 816843776
I0412 22:48:00.340206  9395 layer_factory.hpp:77] Creating layer conv3_3a_relu
I0412 22:48:00.340214  9395 net.cpp:91] Creating Layer conv3_3a_relu
I0412 22:48:00.340219  9395 net.cpp:425] conv3_3a_relu <- conv3_3a
I0412 22:48:00.340224  9395 net.cpp:386] conv3_3a_relu -> conv3_3a (in-place)
I0412 22:48:00.340867  9395 net.cpp:141] Setting up conv3_3a_relu
I0412 22:48:00.340878  9395 net.cpp:148] Top shape: 256 32 16 16 (2097152)
I0412 22:48:00.340881  9395 net.cpp:156] Memory required for data: 825232384
I0412 22:48:00.340886  9395 layer_factory.hpp:77] Creating layer conv3_3b
I0412 22:48:00.340898  9395 net.cpp:91] Creating Layer conv3_3b
I0412 22:48:00.340904  9395 net.cpp:425] conv3_3b <- conv3_3a
I0412 22:48:00.340911  9395 net.cpp:399] conv3_3b -> conv3_3b
I0412 22:48:00.344452  9395 net.cpp:141] Setting up conv3_3b
I0412 22:48:00.344470  9395 net.cpp:148] Top shape: 256 32 16 16 (2097152)
I0412 22:48:00.344473  9395 net.cpp:156] Memory required for data: 833620992
I0412 22:48:00.344481  9395 layer_factory.hpp:77] Creating layer bn_conv3_3b
I0412 22:48:00.344491  9395 net.cpp:91] Creating Layer bn_conv3_3b
I0412 22:48:00.344496  9395 net.cpp:425] bn_conv3_3b <- conv3_3b
I0412 22:48:00.344502  9395 net.cpp:386] bn_conv3_3b -> conv3_3b (in-place)
I0412 22:48:00.344667  9395 net.cpp:141] Setting up bn_conv3_3b
I0412 22:48:00.344674  9395 net.cpp:148] Top shape: 256 32 16 16 (2097152)
I0412 22:48:00.344678  9395 net.cpp:156] Memory required for data: 842009600
I0412 22:48:00.344686  9395 layer_factory.hpp:77] Creating layer scale_conv3_3b
I0412 22:48:00.344692  9395 net.cpp:91] Creating Layer scale_conv3_3b
I0412 22:48:00.344696  9395 net.cpp:425] scale_conv3_3b <- conv3_3b
I0412 22:48:00.344705  9395 net.cpp:386] scale_conv3_3b -> conv3_3b (in-place)
I0412 22:48:00.344738  9395 layer_factory.hpp:77] Creating layer scale_conv3_3b
I0412 22:48:00.344840  9395 net.cpp:141] Setting up scale_conv3_3b
I0412 22:48:00.344847  9395 net.cpp:148] Top shape: 256 32 16 16 (2097152)
I0412 22:48:00.344851  9395 net.cpp:156] Memory required for data: 850398208
I0412 22:48:00.344857  9395 layer_factory.hpp:77] Creating layer conv3_3
I0412 22:48:00.344864  9395 net.cpp:91] Creating Layer conv3_3
I0412 22:48:00.344868  9395 net.cpp:425] conv3_3 <- conv3_3b
I0412 22:48:00.344874  9395 net.cpp:425] conv3_3 <- conv3_1_conv3_2a_relu_0_split_1
I0412 22:48:00.344880  9395 net.cpp:399] conv3_3 -> conv3_3
I0412 22:48:00.344903  9395 net.cpp:141] Setting up conv3_3
I0412 22:48:00.344910  9395 net.cpp:148] Top shape: 256 32 16 16 (2097152)
I0412 22:48:00.344914  9395 net.cpp:156] Memory required for data: 858786816
I0412 22:48:00.344918  9395 layer_factory.hpp:77] Creating layer conv3_3_relu
I0412 22:48:00.344934  9395 net.cpp:91] Creating Layer conv3_3_relu
I0412 22:48:00.344944  9395 net.cpp:425] conv3_3_relu <- conv3_3
I0412 22:48:00.344952  9395 net.cpp:386] conv3_3_relu -> conv3_3 (in-place)
I0412 22:48:00.345502  9395 net.cpp:141] Setting up conv3_3_relu
I0412 22:48:00.345513  9395 net.cpp:148] Top shape: 256 32 16 16 (2097152)
I0412 22:48:00.345517  9395 net.cpp:156] Memory required for data: 867175424
I0412 22:48:00.345522  9395 layer_factory.hpp:77] Creating layer conv3_3_conv3_3_relu_0_split
I0412 22:48:00.345531  9395 net.cpp:91] Creating Layer conv3_3_conv3_3_relu_0_split
I0412 22:48:00.345536  9395 net.cpp:425] conv3_3_conv3_3_relu_0_split <- conv3_3
I0412 22:48:00.345541  9395 net.cpp:399] conv3_3_conv3_3_relu_0_split -> conv3_3_conv3_3_relu_0_split_0
I0412 22:48:00.345549  9395 net.cpp:399] conv3_3_conv3_3_relu_0_split -> conv3_3_conv3_3_relu_0_split_1
I0412 22:48:00.345588  9395 net.cpp:141] Setting up conv3_3_conv3_3_relu_0_split
I0412 22:48:00.345595  9395 net.cpp:148] Top shape: 256 32 16 16 (2097152)
I0412 22:48:00.345599  9395 net.cpp:148] Top shape: 256 32 16 16 (2097152)
I0412 22:48:00.345603  9395 net.cpp:156] Memory required for data: 883952640
I0412 22:48:00.345607  9395 layer_factory.hpp:77] Creating layer conv3_sub
I0412 22:48:00.345618  9395 net.cpp:91] Creating Layer conv3_sub
I0412 22:48:00.345623  9395 net.cpp:425] conv3_sub <- conv3_3_conv3_3_relu_0_split_0
I0412 22:48:00.345629  9395 net.cpp:399] conv3_sub -> conv3_sub
I0412 22:48:00.348989  9395 net.cpp:141] Setting up conv3_sub
I0412 22:48:00.349004  9395 net.cpp:148] Top shape: 256 64 8 8 (1048576)
I0412 22:48:00.349007  9395 net.cpp:156] Memory required for data: 888146944
I0412 22:48:00.349014  9395 layer_factory.hpp:77] Creating layer bn_conv3_sub
I0412 22:48:00.349023  9395 net.cpp:91] Creating Layer bn_conv3_sub
I0412 22:48:00.349028  9395 net.cpp:425] bn_conv3_sub <- conv3_sub
I0412 22:48:00.349035  9395 net.cpp:386] bn_conv3_sub -> conv3_sub (in-place)
I0412 22:48:00.349263  9395 net.cpp:141] Setting up bn_conv3_sub
I0412 22:48:00.349274  9395 net.cpp:148] Top shape: 256 64 8 8 (1048576)
I0412 22:48:00.349279  9395 net.cpp:156] Memory required for data: 892341248
I0412 22:48:00.349288  9395 layer_factory.hpp:77] Creating layer scale_conv3_sub
I0412 22:48:00.349298  9395 net.cpp:91] Creating Layer scale_conv3_sub
I0412 22:48:00.349304  9395 net.cpp:425] scale_conv3_sub <- conv3_sub
I0412 22:48:00.349310  9395 net.cpp:386] scale_conv3_sub -> conv3_sub (in-place)
I0412 22:48:00.349351  9395 layer_factory.hpp:77] Creating layer scale_conv3_sub
I0412 22:48:00.349525  9395 net.cpp:141] Setting up scale_conv3_sub
I0412 22:48:00.349534  9395 net.cpp:148] Top shape: 256 64 8 8 (1048576)
I0412 22:48:00.349536  9395 net.cpp:156] Memory required for data: 896535552
I0412 22:48:00.349544  9395 layer_factory.hpp:77] Creating layer conv4_1a
I0412 22:48:00.349555  9395 net.cpp:91] Creating Layer conv4_1a
I0412 22:48:00.349560  9395 net.cpp:425] conv4_1a <- conv3_3_conv3_3_relu_0_split_1
I0412 22:48:00.349566  9395 net.cpp:399] conv4_1a -> conv4_1a
I0412 22:48:00.363095  9395 net.cpp:141] Setting up conv4_1a
I0412 22:48:00.363108  9395 net.cpp:148] Top shape: 256 64 8 8 (1048576)
I0412 22:48:00.363113  9395 net.cpp:156] Memory required for data: 900729856
I0412 22:48:00.363121  9395 layer_factory.hpp:77] Creating layer bn_conv4_1a
I0412 22:48:00.363129  9395 net.cpp:91] Creating Layer bn_conv4_1a
I0412 22:48:00.363134  9395 net.cpp:425] bn_conv4_1a <- conv4_1a
I0412 22:48:00.363140  9395 net.cpp:386] bn_conv4_1a -> conv4_1a (in-place)
I0412 22:48:00.363313  9395 net.cpp:141] Setting up bn_conv4_1a
I0412 22:48:00.363320  9395 net.cpp:148] Top shape: 256 64 8 8 (1048576)
I0412 22:48:00.363324  9395 net.cpp:156] Memory required for data: 904924160
I0412 22:48:00.363332  9395 layer_factory.hpp:77] Creating layer scale_conv4_1a
I0412 22:48:00.363338  9395 net.cpp:91] Creating Layer scale_conv4_1a
I0412 22:48:00.363343  9395 net.cpp:425] scale_conv4_1a <- conv4_1a
I0412 22:48:00.363348  9395 net.cpp:386] scale_conv4_1a -> conv4_1a (in-place)
I0412 22:48:00.363384  9395 layer_factory.hpp:77] Creating layer scale_conv4_1a
I0412 22:48:00.363492  9395 net.cpp:141] Setting up scale_conv4_1a
I0412 22:48:00.363500  9395 net.cpp:148] Top shape: 256 64 8 8 (1048576)
I0412 22:48:00.363504  9395 net.cpp:156] Memory required for data: 909118464
I0412 22:48:00.363510  9395 layer_factory.hpp:77] Creating layer conv4_1a_relu
I0412 22:48:00.363517  9395 net.cpp:91] Creating Layer conv4_1a_relu
I0412 22:48:00.363519  9395 net.cpp:425] conv4_1a_relu <- conv4_1a
I0412 22:48:00.363524  9395 net.cpp:386] conv4_1a_relu -> conv4_1a (in-place)
I0412 22:48:00.371321  9395 net.cpp:141] Setting up conv4_1a_relu
I0412 22:48:00.371336  9395 net.cpp:148] Top shape: 256 64 8 8 (1048576)
I0412 22:48:00.371340  9395 net.cpp:156] Memory required for data: 913312768
I0412 22:48:00.371345  9395 layer_factory.hpp:77] Creating layer conv4_1b
I0412 22:48:00.371356  9395 net.cpp:91] Creating Layer conv4_1b
I0412 22:48:00.371361  9395 net.cpp:425] conv4_1b <- conv4_1a
I0412 22:48:00.371368  9395 net.cpp:399] conv4_1b -> conv4_1b
I0412 22:48:00.378927  9395 net.cpp:141] Setting up conv4_1b
I0412 22:48:00.378995  9395 net.cpp:148] Top shape: 256 64 8 8 (1048576)
I0412 22:48:00.379003  9395 net.cpp:156] Memory required for data: 917507072
I0412 22:48:00.379019  9395 layer_factory.hpp:77] Creating layer bn_conv4_1b
I0412 22:48:00.379040  9395 net.cpp:91] Creating Layer bn_conv4_1b
I0412 22:48:00.379048  9395 net.cpp:425] bn_conv4_1b <- conv4_1b
I0412 22:48:00.379060  9395 net.cpp:386] bn_conv4_1b -> conv4_1b (in-place)
I0412 22:48:00.379521  9395 net.cpp:141] Setting up bn_conv4_1b
I0412 22:48:00.379555  9395 net.cpp:148] Top shape: 256 64 8 8 (1048576)
I0412 22:48:00.379560  9395 net.cpp:156] Memory required for data: 921701376
I0412 22:48:00.379576  9395 layer_factory.hpp:77] Creating layer scale_conv4_1b
I0412 22:48:00.379603  9395 net.cpp:91] Creating Layer scale_conv4_1b
I0412 22:48:00.379611  9395 net.cpp:425] scale_conv4_1b <- conv4_1b
I0412 22:48:00.379632  9395 net.cpp:386] scale_conv4_1b -> conv4_1b (in-place)
I0412 22:48:00.379711  9395 layer_factory.hpp:77] Creating layer scale_conv4_1b
I0412 22:48:00.379828  9395 net.cpp:141] Setting up scale_conv4_1b
I0412 22:48:00.379837  9395 net.cpp:148] Top shape: 256 64 8 8 (1048576)
I0412 22:48:00.379842  9395 net.cpp:156] Memory required for data: 925895680
I0412 22:48:00.379848  9395 layer_factory.hpp:77] Creating layer conv4_1_relu
I0412 22:48:00.379858  9395 net.cpp:91] Creating Layer conv4_1_relu
I0412 22:48:00.379863  9395 net.cpp:425] conv4_1_relu <- conv4_1b
I0412 22:48:00.379868  9395 net.cpp:386] conv4_1_relu -> conv4_1b (in-place)
I0412 22:48:00.380558  9395 net.cpp:141] Setting up conv4_1_relu
I0412 22:48:00.380607  9395 net.cpp:148] Top shape: 256 64 8 8 (1048576)
I0412 22:48:00.380612  9395 net.cpp:156] Memory required for data: 930089984
I0412 22:48:00.380620  9395 layer_factory.hpp:77] Creating layer conv4_2a
I0412 22:48:00.380647  9395 net.cpp:91] Creating Layer conv4_2a
I0412 22:48:00.380655  9395 net.cpp:425] conv4_2a <- conv4_1b
I0412 22:48:00.380666  9395 net.cpp:399] conv4_2a -> conv4_2a
I0412 22:48:00.383404  9395 net.cpp:141] Setting up conv4_2a
I0412 22:48:00.383419  9395 net.cpp:148] Top shape: 256 64 8 8 (1048576)
I0412 22:48:00.383424  9395 net.cpp:156] Memory required for data: 934284288
I0412 22:48:00.383433  9395 layer_factory.hpp:77] Creating layer bn_conv4_2a
I0412 22:48:00.383443  9395 net.cpp:91] Creating Layer bn_conv4_2a
I0412 22:48:00.383448  9395 net.cpp:425] bn_conv4_2a <- conv4_2a
I0412 22:48:00.383455  9395 net.cpp:386] bn_conv4_2a -> conv4_2a (in-place)
I0412 22:48:00.383635  9395 net.cpp:141] Setting up bn_conv4_2a
I0412 22:48:00.383643  9395 net.cpp:148] Top shape: 256 64 8 8 (1048576)
I0412 22:48:00.383646  9395 net.cpp:156] Memory required for data: 938478592
I0412 22:48:00.383654  9395 layer_factory.hpp:77] Creating layer scale_conv4_2a
I0412 22:48:00.383663  9395 net.cpp:91] Creating Layer scale_conv4_2a
I0412 22:48:00.383668  9395 net.cpp:425] scale_conv4_2a <- conv4_2a
I0412 22:48:00.383673  9395 net.cpp:386] scale_conv4_2a -> conv4_2a (in-place)
I0412 22:48:00.383721  9395 layer_factory.hpp:77] Creating layer scale_conv4_2a
I0412 22:48:00.383831  9395 net.cpp:141] Setting up scale_conv4_2a
I0412 22:48:00.383839  9395 net.cpp:148] Top shape: 256 64 8 8 (1048576)
I0412 22:48:00.383843  9395 net.cpp:156] Memory required for data: 942672896
I0412 22:48:00.383851  9395 layer_factory.hpp:77] Creating layer conv4_1
I0412 22:48:00.383857  9395 net.cpp:91] Creating Layer conv4_1
I0412 22:48:00.383862  9395 net.cpp:425] conv4_1 <- conv3_sub
I0412 22:48:00.383867  9395 net.cpp:425] conv4_1 <- conv4_2a
I0412 22:48:00.383872  9395 net.cpp:399] conv4_1 -> conv4_1
I0412 22:48:00.383896  9395 net.cpp:141] Setting up conv4_1
I0412 22:48:00.383903  9395 net.cpp:148] Top shape: 256 64 8 8 (1048576)
I0412 22:48:00.383908  9395 net.cpp:156] Memory required for data: 946867200
I0412 22:48:00.383911  9395 layer_factory.hpp:77] Creating layer conv4_2a_relu
I0412 22:48:00.383918  9395 net.cpp:91] Creating Layer conv4_2a_relu
I0412 22:48:00.383921  9395 net.cpp:425] conv4_2a_relu <- conv4_1
I0412 22:48:00.383927  9395 net.cpp:386] conv4_2a_relu -> conv4_1 (in-place)
I0412 22:48:00.384083  9395 net.cpp:141] Setting up conv4_2a_relu
I0412 22:48:00.384093  9395 net.cpp:148] Top shape: 256 64 8 8 (1048576)
I0412 22:48:00.384098  9395 net.cpp:156] Memory required for data: 951061504
I0412 22:48:00.384101  9395 layer_factory.hpp:77] Creating layer conv4_1_conv4_2a_relu_0_split
I0412 22:48:00.384109  9395 net.cpp:91] Creating Layer conv4_1_conv4_2a_relu_0_split
I0412 22:48:00.384112  9395 net.cpp:425] conv4_1_conv4_2a_relu_0_split <- conv4_1
I0412 22:48:00.384119  9395 net.cpp:399] conv4_1_conv4_2a_relu_0_split -> conv4_1_conv4_2a_relu_0_split_0
I0412 22:48:00.384127  9395 net.cpp:399] conv4_1_conv4_2a_relu_0_split -> conv4_1_conv4_2a_relu_0_split_1
I0412 22:48:00.384167  9395 net.cpp:141] Setting up conv4_1_conv4_2a_relu_0_split
I0412 22:48:00.384174  9395 net.cpp:148] Top shape: 256 64 8 8 (1048576)
I0412 22:48:00.384178  9395 net.cpp:148] Top shape: 256 64 8 8 (1048576)
I0412 22:48:00.384182  9395 net.cpp:156] Memory required for data: 959450112
I0412 22:48:00.384186  9395 layer_factory.hpp:77] Creating layer conv4_2b
I0412 22:48:00.384196  9395 net.cpp:91] Creating Layer conv4_2b
I0412 22:48:00.384202  9395 net.cpp:425] conv4_2b <- conv4_1_conv4_2a_relu_0_split_0
I0412 22:48:00.384209  9395 net.cpp:399] conv4_2b -> conv4_2b
I0412 22:48:00.391099  9395 net.cpp:141] Setting up conv4_2b
I0412 22:48:00.391114  9395 net.cpp:148] Top shape: 256 64 8 8 (1048576)
I0412 22:48:00.391119  9395 net.cpp:156] Memory required for data: 963644416
I0412 22:48:00.391126  9395 layer_factory.hpp:77] Creating layer bn_conv4_2b
I0412 22:48:00.391135  9395 net.cpp:91] Creating Layer bn_conv4_2b
I0412 22:48:00.391140  9395 net.cpp:425] bn_conv4_2b <- conv4_2b
I0412 22:48:00.391146  9395 net.cpp:386] bn_conv4_2b -> conv4_2b (in-place)
I0412 22:48:00.391326  9395 net.cpp:141] Setting up bn_conv4_2b
I0412 22:48:00.391333  9395 net.cpp:148] Top shape: 256 64 8 8 (1048576)
I0412 22:48:00.391337  9395 net.cpp:156] Memory required for data: 967838720
I0412 22:48:00.391368  9395 layer_factory.hpp:77] Creating layer scale_conv4_2b
I0412 22:48:00.391376  9395 net.cpp:91] Creating Layer scale_conv4_2b
I0412 22:48:00.391381  9395 net.cpp:425] scale_conv4_2b <- conv4_2b
I0412 22:48:00.391387  9395 net.cpp:386] scale_conv4_2b -> conv4_2b (in-place)
I0412 22:48:00.391424  9395 layer_factory.hpp:77] Creating layer scale_conv4_2b
I0412 22:48:00.391530  9395 net.cpp:141] Setting up scale_conv4_2b
I0412 22:48:00.391538  9395 net.cpp:148] Top shape: 256 64 8 8 (1048576)
I0412 22:48:00.391541  9395 net.cpp:156] Memory required for data: 972033024
I0412 22:48:00.391548  9395 layer_factory.hpp:77] Creating layer conv4_2_relu
I0412 22:48:00.391554  9395 net.cpp:91] Creating Layer conv4_2_relu
I0412 22:48:00.391558  9395 net.cpp:425] conv4_2_relu <- conv4_2b
I0412 22:48:00.391563  9395 net.cpp:386] conv4_2_relu -> conv4_2b (in-place)
I0412 22:48:00.392163  9395 net.cpp:141] Setting up conv4_2_relu
I0412 22:48:00.392177  9395 net.cpp:148] Top shape: 256 64 8 8 (1048576)
I0412 22:48:00.392185  9395 net.cpp:156] Memory required for data: 976227328
I0412 22:48:00.392189  9395 layer_factory.hpp:77] Creating layer conv4_3a
I0412 22:48:00.392201  9395 net.cpp:91] Creating Layer conv4_3a
I0412 22:48:00.392210  9395 net.cpp:425] conv4_3a <- conv4_2b
I0412 22:48:00.392218  9395 net.cpp:399] conv4_3a -> conv4_3a
I0412 22:48:00.399090  9395 net.cpp:141] Setting up conv4_3a
I0412 22:48:00.399144  9395 net.cpp:148] Top shape: 256 64 8 8 (1048576)
I0412 22:48:00.399150  9395 net.cpp:156] Memory required for data: 980421632
I0412 22:48:00.399165  9395 layer_factory.hpp:77] Creating layer bn_conv4_3a
I0412 22:48:00.399183  9395 net.cpp:91] Creating Layer bn_conv4_3a
I0412 22:48:00.399190  9395 net.cpp:425] bn_conv4_3a <- conv4_3a
I0412 22:48:00.399200  9395 net.cpp:386] bn_conv4_3a -> conv4_3a (in-place)
I0412 22:48:00.399430  9395 net.cpp:141] Setting up bn_conv4_3a
I0412 22:48:00.399451  9395 net.cpp:148] Top shape: 256 64 8 8 (1048576)
I0412 22:48:00.399461  9395 net.cpp:156] Memory required for data: 984615936
I0412 22:48:00.399478  9395 layer_factory.hpp:77] Creating layer scale_conv4_3a
I0412 22:48:00.399497  9395 net.cpp:91] Creating Layer scale_conv4_3a
I0412 22:48:00.399512  9395 net.cpp:425] scale_conv4_3a <- conv4_3a
I0412 22:48:00.399529  9395 net.cpp:386] scale_conv4_3a -> conv4_3a (in-place)
I0412 22:48:00.399684  9395 layer_factory.hpp:77] Creating layer scale_conv4_3a
I0412 22:48:00.400046  9395 net.cpp:141] Setting up scale_conv4_3a
I0412 22:48:00.400075  9395 net.cpp:148] Top shape: 256 64 8 8 (1048576)
I0412 22:48:00.400080  9395 net.cpp:156] Memory required for data: 988810240
I0412 22:48:00.400094  9395 layer_factory.hpp:77] Creating layer conv4_3a_relu
I0412 22:48:00.400107  9395 net.cpp:91] Creating Layer conv4_3a_relu
I0412 22:48:00.400113  9395 net.cpp:425] conv4_3a_relu <- conv4_3a
I0412 22:48:00.400121  9395 net.cpp:386] conv4_3a_relu -> conv4_3a (in-place)
I0412 22:48:00.401161  9395 net.cpp:141] Setting up conv4_3a_relu
I0412 22:48:00.401211  9395 net.cpp:148] Top shape: 256 64 8 8 (1048576)
I0412 22:48:00.401216  9395 net.cpp:156] Memory required for data: 993004544
I0412 22:48:00.401226  9395 layer_factory.hpp:77] Creating layer conv4_3b
I0412 22:48:00.401250  9395 net.cpp:91] Creating Layer conv4_3b
I0412 22:48:00.401257  9395 net.cpp:425] conv4_3b <- conv4_3a
I0412 22:48:00.401273  9395 net.cpp:399] conv4_3b -> conv4_3b
I0412 22:48:00.404791  9395 net.cpp:141] Setting up conv4_3b
I0412 22:48:00.404808  9395 net.cpp:148] Top shape: 256 64 8 8 (1048576)
I0412 22:48:00.404811  9395 net.cpp:156] Memory required for data: 997198848
I0412 22:48:00.404820  9395 layer_factory.hpp:77] Creating layer bn_conv4_3b
I0412 22:48:00.404831  9395 net.cpp:91] Creating Layer bn_conv4_3b
I0412 22:48:00.404836  9395 net.cpp:425] bn_conv4_3b <- conv4_3b
I0412 22:48:00.404844  9395 net.cpp:386] bn_conv4_3b -> conv4_3b (in-place)
I0412 22:48:00.405026  9395 net.cpp:141] Setting up bn_conv4_3b
I0412 22:48:00.405035  9395 net.cpp:148] Top shape: 256 64 8 8 (1048576)
I0412 22:48:00.405038  9395 net.cpp:156] Memory required for data: 1001393152
I0412 22:48:00.405045  9395 layer_factory.hpp:77] Creating layer scale_conv4_3b
I0412 22:48:00.405055  9395 net.cpp:91] Creating Layer scale_conv4_3b
I0412 22:48:00.405061  9395 net.cpp:425] scale_conv4_3b <- conv4_3b
I0412 22:48:00.405066  9395 net.cpp:386] scale_conv4_3b -> conv4_3b (in-place)
I0412 22:48:00.405105  9395 layer_factory.hpp:77] Creating layer scale_conv4_3b
I0412 22:48:00.405581  9395 net.cpp:141] Setting up scale_conv4_3b
I0412 22:48:00.405634  9395 net.cpp:148] Top shape: 256 64 8 8 (1048576)
I0412 22:48:00.405644  9395 net.cpp:156] Memory required for data: 1005587456
I0412 22:48:00.405663  9395 layer_factory.hpp:77] Creating layer conv4_3
I0412 22:48:00.405683  9395 net.cpp:91] Creating Layer conv4_3
I0412 22:48:00.405695  9395 net.cpp:425] conv4_3 <- conv4_1_conv4_2a_relu_0_split_1
I0412 22:48:00.405709  9395 net.cpp:425] conv4_3 <- conv4_3b
I0412 22:48:00.405725  9395 net.cpp:399] conv4_3 -> conv4_3
I0412 22:48:00.405784  9395 net.cpp:141] Setting up conv4_3
I0412 22:48:00.405800  9395 net.cpp:148] Top shape: 256 64 8 8 (1048576)
I0412 22:48:00.405808  9395 net.cpp:156] Memory required for data: 1009781760
I0412 22:48:00.405817  9395 layer_factory.hpp:77] Creating layer conv4_3_relu
I0412 22:48:00.405830  9395 net.cpp:91] Creating Layer conv4_3_relu
I0412 22:48:00.405839  9395 net.cpp:425] conv4_3_relu <- conv4_3
I0412 22:48:00.405854  9395 net.cpp:386] conv4_3_relu -> conv4_3 (in-place)
I0412 22:48:00.406249  9395 net.cpp:141] Setting up conv4_3_relu
I0412 22:48:00.406272  9395 net.cpp:148] Top shape: 256 64 8 8 (1048576)
I0412 22:48:00.406281  9395 net.cpp:156] Memory required for data: 1013976064
I0412 22:48:00.406291  9395 layer_factory.hpp:77] Creating layer global_pool
I0412 22:48:00.406306  9395 net.cpp:91] Creating Layer global_pool
I0412 22:48:00.406314  9395 net.cpp:425] global_pool <- conv4_3
I0412 22:48:00.406327  9395 net.cpp:399] global_pool -> global_pool
I0412 22:48:00.407035  9395 net.cpp:141] Setting up global_pool
I0412 22:48:00.407063  9395 net.cpp:148] Top shape: 256 64 1 1 (16384)
I0412 22:48:00.407073  9395 net.cpp:156] Memory required for data: 1014041600
I0412 22:48:00.407081  9395 layer_factory.hpp:77] Creating layer ip
I0412 22:48:00.407097  9395 net.cpp:91] Creating Layer ip
I0412 22:48:00.407106  9395 net.cpp:425] ip <- global_pool
I0412 22:48:00.407122  9395 net.cpp:399] ip -> ip
I0412 22:48:00.407369  9395 net.cpp:141] Setting up ip
I0412 22:48:00.407388  9395 net.cpp:148] Top shape: 256 10 (2560)
I0412 22:48:00.407397  9395 net.cpp:156] Memory required for data: 1014051840
I0412 22:48:00.407413  9395 layer_factory.hpp:77] Creating layer ip_ip_0_split
I0412 22:48:00.407426  9395 net.cpp:91] Creating Layer ip_ip_0_split
I0412 22:48:00.407435  9395 net.cpp:425] ip_ip_0_split <- ip
I0412 22:48:00.407447  9395 net.cpp:399] ip_ip_0_split -> ip_ip_0_split_0
I0412 22:48:00.407462  9395 net.cpp:399] ip_ip_0_split -> ip_ip_0_split_1
I0412 22:48:00.407533  9395 net.cpp:141] Setting up ip_ip_0_split
I0412 22:48:00.407547  9395 net.cpp:148] Top shape: 256 10 (2560)
I0412 22:48:00.407557  9395 net.cpp:148] Top shape: 256 10 (2560)
I0412 22:48:00.407565  9395 net.cpp:156] Memory required for data: 1014072320
I0412 22:48:00.407573  9395 layer_factory.hpp:77] Creating layer accuracy
I0412 22:48:00.407593  9395 net.cpp:91] Creating Layer accuracy
I0412 22:48:00.407603  9395 net.cpp:425] accuracy <- ip_ip_0_split_0
I0412 22:48:00.407613  9395 net.cpp:425] accuracy <- label_cifar_1_split_0
I0412 22:48:00.407629  9395 net.cpp:399] accuracy -> accuracy
…
I0412 22:48:00.414383  9395 solver.cpp:181] Creating test net (#0) specified by net file: prototxt/ResNet-cifar.prototxt
I0412 22:48:00.414645  9395 net.cpp:313] The NetState phase (1) differed from the phase (0) specified by a rule in layer cifar
I0412 22:48:00.415758  9395 net.cpp:49] Initializing net from parameters: 
name: "ResNet-cifar"
state {
  phase: TEST
}
layer {
  name: "cifar"
  type: "Data"
  top: "data"
  top: "label"
  include {
    phase: TEST
  }
  transform_param {
    mean_file: "data/cifar10/mean.binaryproto"
  }
  data_param {
    source: "data/cifar10/cifar10_test_lmdb"
    batch_size: 100
    backend: LMDB
  }
}
layer {
  name: "conv1"
  type: "Convolution"
  bottom: "data"
  top: "conv1"
  param {
    lr_mult: 1
  }
  param {
    lr_mult: 2
  }
  convolution_param {
    num_output: 16
    pad: 1
    kernel_size: 3
    weight_filler {
      type: "msra"
    }
    bias_filler {
      type: "constant"
    }
  }
}
layer {
  name: "bn_conv1"
  type: "BatchNorm"
  bottom: "conv1"
  top: "conv1"
  param {
    lr_mult: 0
  }
  param {
    lr_mult: 0
  }
  param {
    lr_mult: 0
  }
}
layer {
  name: "scale_conv1"
  type: "Scale"
  bottom: "conv1"
  top: "conv1"
  scale_param {
    bias_term: true
  }
}
layer {
  name: "conv1_relu"
  type: "ReLU"
  bottom: "conv1"
  top: "conv1"
}
layer {
  name: "conv2_1a"
  type: "Convolution"
  bottom: "conv1"
  top: "conv2_1a"
  param {
    lr_mult: 1
  }
  param {
    lr_mult: 2
  }
  convolution_param {
    num_output: 16
    pad: 1
    kernel_size: 3
    stride: 1
    weight_filler {
      type: "msra"
    }
    bias_filler {
      type: "constant"
      value: 0
    }
  }
}
layer {
  name: "bn_conv2_1a"
  type: "BatchNorm"
  bottom: "conv2_1a"
  top: "conv2_1a"
  param {
    lr_mult: 0
  }
  param {
    lr_mult: 0
  }
  param {
    lr_mult: 0
  }
}
layer {
  name: "scale_conv2_1a"
  type: "Scale"
  bottom: "conv2_1a"
  top: "conv2_1a"
  scale_param {
    bias_term: true
  }
}
layer {
  name: "conv2_1a_relu"
  type: "ReLU"
  bottom: "conv2_1a"
  top: "conv2_1a"
}
layer {
  name: "conv2_1b"
  type: "Convolution"
  bottom: "conv2_1a"
  top: "conv2_1b"
  param {
    lr_mult: 1
  }
  param {
    lr_mult: 2
  }
  convolution_param {
    num_output: 16
    pad: 1
    kernel_size: 3
    stride: 1
    weight_filler {
      type: "msra"
    }
    bias_filler {
      type: "constant"
      value: 0
    }
  }
}
layer {
  name: "bn_conv2_1b"
  type: "BatchNorm"
  bottom: "conv2_1b"
  top: "conv2_1b"
  param {
    lr_mult: 0
  }
  param {
    lr_mult: 0
  }
  param {
    lr_mult: 0
  }
}
layer {
  name: "scale_conv2_1b"
  type: "Scale"
  bottom: "conv2_1b"
  top: "conv2_1b"
  scale_param {
    bias_term: true
  }
}
layer {
  name: "conv2_1_relu"
  type: "ReLU"
  bottom: "conv2_1b"
  top: "conv2_1b"
}
layer {
  name: "conv2_2a"
  type: "Convolution"
  bottom: "conv2_1b"
  top: "conv2_2a"
  param {
    lr_mult: 1
  }
  param {
    lr_mult: 2
  }
  convolution_param {
    num_output: 16
    pad: 1
    kernel_size: 3
    stride: 1
    weight_filler {
      type: "msra"
    }
    bias_filler {
      type: "constant"
      value: 0
    }
  }
}
layer {
  name: "bn_conv2_2a"
  type: "BatchNorm"
  bottom: "conv2_2a"
  top: "conv2_2a"
  param {
    lr_mult: 0
  }
  param {
    lr_mult: 0
  }
  param {
    lr_mult: 0
  }
}
layer {
  name: "scale_conv2_2a"
  type: "Scale"
  bottom: "conv2_2a"
  top: "conv2_2a"
  scale_param {
    bias_term: true
  }
}
layer {
  name: "conv2_1"
  type: "Eltwise"
  bottom: "conv2_2a"
  bottom: "conv1"
  top: "conv2_1"
}
layer {
  name: "conv2_2a_relu"
  type: "ReLU"
  bottom: "conv2_1"
  top: "conv2_1"
}
layer {
  name: "conv2_2b"
  type: "Convolution"
  bottom: "conv2_1"
  top: "conv2_2b"
  param {
    lr_mult: 1
  }
  param {
    lr_mult: 2
  }
  convolution_param {
    num_output: 16
    pad: 1
    kernel_size: 3
    stride: 1
    weight_filler {
      type: "msra"
    }
    bias_filler {
      type: "constant"
      value: 0
    }
  }
}
layer {
  name: "bn_conv2_2b"
  type: "BatchNorm"
  bottom: "conv2_2b"
  top: "conv2_2b"
  param {
    lr_mult: 0
  }
  param {
    lr_mult: 0
  }
  param {
    lr_mult: 0
  }
}
layer {
  name: "scale_conv2_2b"
  type: "Scale"
  bottom: "conv2_2b"
  top: "conv2_2b"
  scale_param {
    bias_term: true
  }
}
layer {
  name: "conv2_2_relu"
  type: "ReLU"
  bottom: "conv2_2b"
  top: "conv2_2b"
}
layer {
  name: "conv2_3a"
  type: "Convolution"
  bottom: "conv2_2b"
  top: "conv2_3a"
  param {
    lr_mult: 1
  }
  param {
    lr_mult: 2
  }
  convolution_param {
    num_output: 16
    pad: 1
    kernel_size: 3
    stride: 1
    weight_filler {
      type: "msra"
    }
    bias_filler {
      type: "constant"
      value: 0
    }
  }
}
layer {
  name: "bn_conv2_3a"
  type: "BatchNorm"
  bottom: "conv2_3a"
  top: "conv2_3a"
  param {
    lr_mult: 0
  }
  param {
    lr_mult: 0
  }
  param {
    lr_mult: 0
  }
}
layer {
  name: "scale_conv2_3a"
  type: "Scale"
  bottom: "conv2_3a"
  top: "conv2_3a"
  scale_param {
    bias_term: true
  }
}
layer {
  name: "conv2_3a_relu"
  type: "ReLU"
  bottom: "conv2_3a"
  top: "conv2_3a"
}
layer {
  name: "conv2_3b"
  type: "Convolution"
  bottom: "conv2_3a"
  top: "conv2_3b"
  param {
    lr_mult: 1
  }
  param {
    lr_mult: 2
  }
  convolution_param {
    num_output: 16
    pad: 1
    kernel_size: 3
    stride: 1
    weight_filler {
      type: "msra"
    }
    bias_filler {
      type: "constant"
      value: 0
    }
  }
}
layer {
  name: "bn_conv2_3b"
  type: "BatchNorm"
  bottom: "conv2_3b"
  top: "conv2_3b"
  param {
    lr_mult: 0
  }
  param {
    lr_mult: 0
  }
  param {
    lr_mult: 0
  }
}
layer {
  name: "scale_conv2_3b"
  type: "Scale"
  bottom: "conv2_3b"
  top: "conv2_3b"
  scale_param {
    bias_term: true
  }
}
layer {
  name: "conv2_3"
  type: "Eltwise"
  bottom: "conv2_3b"
  bottom: "conv2_1"
  top: "conv2_3"
}
layer {
  name: "conv2_3_relu"
  type: "ReLU"
  bottom: "conv2_3"
  top: "conv2_3"
}
layer {
  name: "conv2_sub"
  type: "Convolution"
  bottom: "conv2_3"
  top: "conv2_sub"
  param {
    lr_mult: 1
  }
  param {
    lr_mult: 2
  }
  convolution_param {
    num_output: 32
    kernel_size: 1
    stride: 2
    weight_filler {
      type: "msra"
    }
    bias_filler {
      type: "constant"
      value: 0
    }
  }
}
layer {
  name: "bn_conv2_sub"
  type: "BatchNorm"
  bottom: "conv2_sub"
  top: "conv2_sub"
  param {
    lr_mult: 0
  }
  param {
    lr_mult: 0
  }
  param {
    lr_mult: 0
  }
}
layer {
  name: "scale_conv2_sub"
  type: "Scale"
  bottom: "conv2_sub"
  top: "conv2_sub"
  scale_param {
    bias_term: true
  }
}
layer {
  name: "conv3_1a"
  type: "Convolution"
  bottom: "conv2_3"
  top: "conv3_1a"
  param {
    lr_mult: 1
  }
  param {
    lr_mult: 2
  }
  convolution_param {
    num_output: 32
    pad: 0
    kernel_size: 1
    stride: 2
    weight_filler {
      type: "msra"
    }
    bias_filler {
      type: "constant"
      value: 0
    }
  }
}
layer {
  name: "bn_conv3_1a"
  type: "BatchNorm"
  bottom: "conv3_1a"
  top: "conv3_1a"
  param {
    lr_mult: 0
  }
  param {
    lr_mult: 0
  }
  param {
    lr_mult: 0
  }
}
layer {
  name: "scale_conv3_1a"
  type: "Scale"
  bottom: "conv3_1a"
  top: "conv3_1a"
  scale_param {
    bias_term: true
  }
}
layer {
  name: "conv3_1a_relu"
  type: "ReLU"
  bottom: "conv3_1a"
  top: "conv3_1a"
}
layer {
  name: "conv3_1b"
  type: "Convolution"
  bottom: "conv3_1a"
  top: "conv3_1b"
  param {
    lr_mult: 1
  }
  param {
    lr_mult: 2
  }
  convolution_param {
    num_output: 32
    pad: 1
    kernel_size: 3
    stride: 1
    weight_filler {
      type: "msra"
    }
    bias_filler {
      type: "constant"
      value: 0
    }
  }
}
layer {
  name: "bn_conv3_1b"
  type: "BatchNorm"
  bottom: "conv3_1b"
  top: "conv3_1b"
  param {
    lr_mult: 0
  }
  param {
    lr_mult: 0
  }
  param {
    lr_mult: 0
  }
}
layer {
  name: "scale_conv3_1b"
  type: "Scale"
  bottom: "conv3_1b"
  top: "conv3_1b"
  scale_param {
    bias_term: true
  }
}
layer {
  name: "conv3_1_relu"
  type: "ReLU"
  bottom: "conv3_1b"
  top: "conv3_1b"
}
layer {
  name: "conv3_2a"
  type: "Convolution"
  bottom: "conv3_1b"
  top: "conv3_2a"
  param {
    lr_mult: 1
  }
  param {
    lr_mult: 2
  }
  convolution_param {
    num_output: 32
    pad: 1
    kernel_size: 3
    stride: 1
    weight_filler {
      type: "msra"
    }
    bias_filler {
      type: "constant"
      value: 0
    }
  }
}
layer {
  name: "bn_conv3_2a"
  type: "BatchNorm"
  bottom: "conv3_2a"
  top: "conv3_2a"
  param {
    lr_mult: 0
  }
  param {
    lr_mult: 0
  }
  param {
    lr_mult: 0
  }
}
layer {
  name: "scale_conv3_2a"
  type: "Scale"
  bottom: "conv3_2a"
  top: "conv3_2a"
  scale_param {
    bias_term: true
  }
}
layer {
  name: "conv3_1"
  type: "Eltwise"
  bottom: "conv3_2a"
  bottom: "conv2_sub"
  top: "conv3_1"
}
layer {
  name: "conv3_2a_relu"
  type: "ReLU"
  bottom: "conv3_1"
  top: "conv3_1"
}
layer {
  name: "conv3_2b"
  type: "Convolution"
  bottom: "conv3_1"
  top: "conv3_2b"
  param {
    lr_mult: 1
  }
  param {
    lr_mult: 2
  }
  convolution_param {
    num_output: 32
    pad: 1
    kernel_size: 3
    stride: 1
    weight_filler {
      type: "msra"
    }
    bias_filler {
      type: "constant"
      value: 0
    }
  }
}
layer {
  name: "bn_conv3_2b"
  type: "BatchNorm"
  bottom: "conv3_2b"
  top: "conv3_2b"
  param {
    lr_mult: 0
  }
  param {
    lr_mult: 0
  }
  param {
    lr_mult: 0
  }
}
layer {
  name: "scale_conv3_2b"
  type: "Scale"
  bottom: "conv3_2b"
  top: "conv3_2b"
  scale_param {
    bias_term: true
  }
}
layer {
  name: "conv3_2_relu"
  type: "ReLU"
  bottom: "conv3_2b"
  top: "conv3_2b"
}
layer {
  name: "conv3_3a"
  type: "Convolution"
  bottom: "conv3_2b"
  top: "conv3_3a"
  param {
    lr_mult: 1
  }
  param {
    lr_mult: 2
  }
  convolution_param {
    num_output: 32
    pad: 1
    kernel_size: 3
    stride: 1
    weight_filler {
      type: "msra"
    }
    bias_filler {
      type: "constant"
      value: 0
    }
  }
}
layer {
  name: "bn_conv3_3a"
  type: "BatchNorm"
  bottom: "conv3_3a"
  top: "conv3_3a"
  param {
    lr_mult: 0
  }
  param {
    lr_mult: 0
  }
  param {
    lr_mult: 0
  }
}
layer {
  name: "scale_conv3_3a"
  type: "Scale"
  bottom: "conv3_3a"
  top: "conv3_3a"
  scale_param {
    bias_term: true
  }
}
layer {
  name: "conv3_3a_relu"
  type: "ReLU"
  bottom: "conv3_3a"
  top: "conv3_3a"
}
layer {
  name: "conv3_3b"
  type: "Convolution"
  bottom: "conv3_3a"
  top: "conv3_3b"
  param {
    lr_mult: 1
  }
  param {
    lr_mult: 2
  }
  convolution_param {
    num_output: 32
    pad: 1
    kernel_size: 3
    stride: 1
    weight_filler {
      type: "msra"
    }
    bias_filler {
      type: "constant"
      value: 0
    }
  }
}
layer {
  name: "bn_conv3_3b"
  type: "BatchNorm"
  bottom: "conv3_3b"
  top: "conv3_3b"
  param {
    lr_mult: 0
  }
  param {
    lr_mult: 0
  }
  param {
    lr_mult: 0
  }
}
layer {
  name: "scale_conv3_3b"
  type: "Scale"
  bottom: "conv3_3b"
  top: "conv3_3b"
  scale_param {
    bias_term: true
  }
}
layer {
  name: "conv3_3"
  type: "Eltwise"
  bottom: "conv3_3b"
  bottom: "conv3_1"
  top: "conv3_3"
}
layer {
  name: "conv3_3_relu"
  type: "ReLU"
  bottom: "conv3_3"
  top: "conv3_3"
}
layer {
  name: "conv3_sub"
  type: "Convolution"
  bottom: "conv3_3"
  top: "conv3_sub"
  param {
    lr_mult: 1
  }
  param {
    lr_mult: 2
  }
  convolution_param {
    num_output: 64
    kernel_size: 1
    stride: 2
    weight_filler {
      type: "msra"
    }
    bias_filler {
      type: "constant"
      value: 0
    }
  }
}
layer {
  name: "bn_conv3_sub"
  type: "BatchNorm"
  bottom: "conv3_sub"
  top: "conv3_sub"
  param {
    lr_mult: 0
  }
  param {
    lr_mult: 0
  }
  param {
    lr_mult: 0
  }
}
layer {
  name: "scale_conv3_sub"
  type: "Scale"
  bottom: "conv3_sub"
  top: "conv3_sub"
  scale_param {
    bias_term: true
  }
}
layer {
  name: "conv4_1a"
  type: "Convolution"
  bottom: "conv3_3"
  top: "conv4_1a"
  param {
    lr_mult: 1
  }
  param {
    lr_mult: 2
  }
  convolution_param {
    num_output: 64
    pad: 0
    kernel_size: 1
    stride: 2
    weight_filler {
      type: "msra"
    }
    bias_filler {
      type: "constant"
      value: 0
    }
  }
}
layer {
  name: "bn_conv4_1a"
  type: "BatchNorm"
  bottom: "conv4_1a"
  top: "conv4_1a"
  param {
    lr_mult: 0
  }
  param {
    lr_mult: 0
  }
  param {
    lr_mult: 0
  }
}
layer {
  name: "scale_conv4_1a"
  type: "Scale"
  bottom: "conv4_1a"
  top: "conv4_1a"
  scale_param {
    bias_term: true
  }
}
layer {
  name: "conv4_1a_relu"
  type: "ReLU"
  bottom: "conv4_1a"
  top: "conv4_1a"
}
layer {
  name: "conv4_1b"
  type: "Convolution"
  bottom: "conv4_1a"
  top: "conv4_1b"
  param {
    lr_mult: 1
  }
  param {
    lr_mult: 2
  }
  convolution_param {
    num_output: 64
    pad: 1
    kernel_size: 3
    stride: 1
    weight_filler {
      type: "msra"
    }
    bias_filler {
      type: "constant"
      value: 0
    }
  }
}
layer {
  name: "bn_conv4_1b"
  type: "BatchNorm"
  bottom: "conv4_1b"
  top: "conv4_1b"
  param {
    lr_mult: 0
  }
  param {
    lr_mult: 0
  }
  param {
    lr_mult: 0
  }
}
layer {
  name: "scale_conv4_1b"
  type: "Scale"
  bottom: "conv4_1b"
  top: "conv4_1b"
  scale_param {
    bias_term: true
  }
}
layer {
  name: "conv4_1_relu"
  type: "ReLU"
  bottom: "conv4_1b"
  top: "conv4_1b"
}
layer {
  name: "conv4_2a"
  type: "Convolution"
  bottom: "conv4_1b"
  top: "conv4_2a"
  param {
    lr_mult: 1
  }
  param {
    lr_mult: 2
  }
  convolution_param {
    num_output: 64
    pad: 1
    kernel_size: 3
    stride: 1
    weight_filler {
      type: "msra"
    }
    bias_filler {
      type: "constant"
      value: 0
    }
  }
}
layer {
  name: "bn_conv4_2a"
  type: "BatchNorm"
  bottom: "conv4_2a"
  top: "conv4_2a"
  param {
    lr_mult: 0
  }
  param {
    lr_mult: 0
  }
  param {
    lr_mult: 0
  }
}
layer {
  name: "scale_conv4_2a"
  type: "Scale"
  bottom: "conv4_2a"
  top: "conv4_2a"
  scale_param {
    bias_term: true
  }
}
layer {
  name: "conv4_1"
  type: "Eltwise"
  bottom: "conv3_sub"
  bottom: "conv4_2a"
  top: "conv4_1"
}
layer {
  name: "conv4_2a_relu"
  type: "ReLU"
  bottom: "conv4_1"
  top: "conv4_1"
}
layer {
  name: "conv4_2b"
  type: "Convolution"
  bottom: "conv4_1"
  top: "conv4_2b"
  param {
    lr_mult: 1
  }
  param {
    lr_mult: 2
  }
  convolution_param {
    num_output: 64
    pad: 1
    kernel_size: 3
    stride: 1
    weight_filler {
      type: "msra"
    }
    bias_filler {
      type: "constant"
      value: 0
    }
  }
}
layer {
  name: "bn_conv4_2b"
  type: "BatchNorm"
  bottom: "conv4_2b"
  top: "conv4_2b"
  param {
    lr_mult: 0
  }
  param {
    lr_mult: 0
  }
  param {
    lr_mult: 0
  }
}
layer {
  name: "scale_conv4_2b"
  type: "Scale"
  bottom: "conv4_2b"
  top: "conv4_2b"
  scale_param {
    bias_term: true
  }
}
layer {
  name: "conv4_2_relu"
  type: "ReLU"
  bottom: "conv4_2b"
  top: "conv4_2b"
}
layer {
  name: "conv4_3a"
  type: "Convolution"
  bottom: "conv4_2b"
  top: "conv4_3a"
  param {
    lr_mult: 1
  }
  param {
    lr_mult: 2
  }
  convolution_param {
    num_output: 64
    pad: 1
    kernel_size: 3
    stride: 1
    weight_filler {
      type: "msra"
    }
    bias_filler {
      type: "constant"
      value: 0
    }
  }
}
layer {
  name: "bn_conv4_3a"
  type: "BatchNorm"
  bottom: "conv4_3a"
  top: "conv4_3a"
  param {
    lr_mult: 0
  }
  param {
    lr_mult: 0
  }
  param {
    lr_mult: 0
  }
}
layer {
  name: "scale_conv4_3a"
  type: "Scale"
  bottom: "conv4_3a"
  top: "conv4_3a"
  scale_param {
    bias_term: true
  }
}
layer {
  name: "conv4_3a_relu"
  type: "ReLU"
  bottom: "conv4_3a"
  top: "conv4_3a"
}
layer {
  name: "conv4_3b"
  type: "Convolution"
  bottom: "conv4_3a"
  top: "conv4_3b"
  param {
    lr_mult: 1
  }
  param {
    lr_mult: 2
  }
  convolution_param {
    num_output: 64
    pad: 1
    kernel_size: 3
    stride: 1
    weight_filler {
      type: "msra"
    }
    bias_filler {
      type: "constant"
      value: 0
    }
  }
}
layer {
  name: "bn_conv4_3b"
  type: "BatchNorm"
  bottom: "conv4_3b"
  top: "conv4_3b"
  param {
    lr_mult: 0
  }
  param {
    lr_mult: 0
  }
  param {
    lr_mult: 0
  }
}
layer {
  name: "scale_conv4_3b"
  type: "Scale"
  bottom: "conv4_3b"
  top: "conv4_3b"
  scale_param {
    bias_term: true
  }
}
layer {
  name: "conv4_3"
  type: "Eltwise"
  bottom: "conv4_1"
  bottom: "conv4_3b"
  top: "conv4_3"
}
layer {
  name: "conv4_3_relu"
  type: "ReLU"
  bottom: "conv4_3"
  top: "conv4_3"
}
layer {
  name: "global_pool"
  type: "Pooling"
  bottom: "conv4_3"
  top: "global_pool"
  pooling_param {
    pool: AVE
    kernel_size: 8
    stride: 8
  }
}
layer {
  name: "ip"
  type: "InnerProduct"
  bottom: "global_pool"
  top: "ip"
  inner_product_param {
    num_output: 10
  }
}
layer {
  name: "accuracy"
  type: "Accuracy"
  bottom: "ip"
  bottom: "label"
  top: "accuracy"
}
layer {
  name: "loss"
  type: "SoftmaxWithLoss"
  bottom: "ip"
  bottom: "label"
  top: "loss"
}
I0412 22:48:00.416563  9395 layer_factory.hpp:77] Creating layer cifar
I0412 22:48:00.416822  9395 net.cpp:91] Creating Layer cifar
I0412 22:48:00.416846  9395 net.cpp:399] cifar -> data
I0412 22:48:00.416874  9395 net.cpp:399] cifar -> label
I0412 22:48:00.416895  9395 data_transformer.cpp:25] Loading mean file from: data/cifar10/mean.binaryproto
I0412 22:48:00.418555  9696 db_lmdb.cpp:38] Opened lmdb data/cifar10/cifar10_test_lmdb
I0412 22:48:00.418833  9395 data_layer.cpp:41] output data size: 100,3,32,32
I0412 22:48:00.425976  9395 net.cpp:141] Setting up cifar
I0412 22:48:00.426012  9395 net.cpp:148] Top shape: 100 3 32 32 (307200)
I0412 22:48:00.426025  9395 net.cpp:148] Top shape: 100 (100)
I0412 22:48:00.426034  9395 net.cpp:156] Memory required for data: 1229200
I0412 22:48:00.426048  9395 layer_factory.hpp:77] Creating layer label_cifar_1_split
I0412 22:48:00.426065  9395 net.cpp:91] Creating Layer label_cifar_1_split
I0412 22:48:00.426075  9395 net.cpp:425] label_cifar_1_split <- label
I0412 22:48:00.426095  9395 net.cpp:399] label_cifar_1_split -> label_cifar_1_split_0
I0412 22:48:00.426113  9395 net.cpp:399] label_cifar_1_split -> label_cifar_1_split_1
I0412 22:48:00.426314  9395 net.cpp:141] Setting up label_cifar_1_split
I0412 22:48:00.426338  9395 net.cpp:148] Top shape: 100 (100)
I0412 22:48:00.426349  9395 net.cpp:148] Top shape: 100 (100)
I0412 22:48:00.426357  9395 net.cpp:156] Memory required for data: 1230000
I0412 22:48:00.426367  9395 layer_factory.hpp:77] Creating layer conv1
I0412 22:48:00.426393  9395 net.cpp:91] Creating Layer conv1
I0412 22:48:00.426404  9395 net.cpp:425] conv1 <- data
I0412 22:48:00.426420  9395 net.cpp:399] conv1 -> conv1
I0412 22:48:00.430117  9395 net.cpp:141] Setting up conv1
I0412 22:48:00.430151  9395 net.cpp:148] Top shape: 100 16 32 32 (1638400)
I0412 22:48:00.430165  9395 net.cpp:156] Memory required for data: 7783600
I0412 22:48:00.430187  9395 layer_factory.hpp:77] Creating layer bn_conv1
I0412 22:48:00.430227  9395 net.cpp:91] Creating Layer bn_conv1
I0412 22:48:00.430238  9395 net.cpp:425] bn_conv1 <- conv1
I0412 22:48:00.430259  9395 net.cpp:386] bn_conv1 -> conv1 (in-place)
I0412 22:48:00.430706  9395 net.cpp:141] Setting up bn_conv1
I0412 22:48:00.430729  9395 net.cpp:148] Top shape: 100 16 32 32 (1638400)
I0412 22:48:00.430738  9395 net.cpp:156] Memory required for data: 14337200
I0412 22:48:00.430763  9395 layer_factory.hpp:77] Creating layer scale_conv1
I0412 22:48:00.430783  9395 net.cpp:91] Creating Layer scale_conv1
I0412 22:48:00.430793  9395 net.cpp:425] scale_conv1 <- conv1
I0412 22:48:00.430804  9395 net.cpp:386] scale_conv1 -> conv1 (in-place)
I0412 22:48:00.430914  9395 layer_factory.hpp:77] Creating layer scale_conv1
I0412 22:48:00.431160  9395 net.cpp:141] Setting up scale_conv1
I0412 22:48:00.431177  9395 net.cpp:148] Top shape: 100 16 32 32 (1638400)
I0412 22:48:00.431188  9395 net.cpp:156] Memory required for data: 20890800
I0412 22:48:00.431203  9395 layer_factory.hpp:77] Creating layer conv1_relu
I0412 22:48:00.431217  9395 net.cpp:91] Creating Layer conv1_relu
I0412 22:48:00.431226  9395 net.cpp:425] conv1_relu <- conv1
I0412 22:48:00.431241  9395 net.cpp:386] conv1_relu -> conv1 (in-place)
I0412 22:48:00.431833  9395 net.cpp:141] Setting up conv1_relu
I0412 22:48:00.431860  9395 net.cpp:148] Top shape: 100 16 32 32 (1638400)
I0412 22:48:00.431870  9395 net.cpp:156] Memory required for data: 27444400
I0412 22:48:00.431880  9395 layer_factory.hpp:77] Creating layer conv1_conv1_relu_0_split
I0412 22:48:00.431895  9395 net.cpp:91] Creating Layer conv1_conv1_relu_0_split
I0412 22:48:00.431936  9395 net.cpp:425] conv1_conv1_relu_0_split <- conv1
I0412 22:48:00.431951  9395 net.cpp:399] conv1_conv1_relu_0_split -> conv1_conv1_relu_0_split_0
I0412 22:48:00.431985  9395 net.cpp:399] conv1_conv1_relu_0_split -> conv1_conv1_relu_0_split_1
I0412 22:48:00.432104  9395 net.cpp:141] Setting up conv1_conv1_relu_0_split
I0412 22:48:00.432126  9395 net.cpp:148] Top shape: 100 16 32 32 (1638400)
I0412 22:48:00.432137  9395 net.cpp:148] Top shape: 100 16 32 32 (1638400)
I0412 22:48:00.432158  9395 net.cpp:156] Memory required for data: 40551600
I0412 22:48:00.432168  9395 layer_factory.hpp:77] Creating layer conv2_1a
I0412 22:48:00.432194  9395 net.cpp:91] Creating Layer conv2_1a
I0412 22:48:00.432205  9395 net.cpp:425] conv2_1a <- conv1_conv1_relu_0_split_0
I0412 22:48:00.432221  9395 net.cpp:399] conv2_1a -> conv2_1a
I0412 22:48:00.435890  9395 net.cpp:141] Setting up conv2_1a
I0412 22:48:00.435920  9395 net.cpp:148] Top shape: 100 16 32 32 (1638400)
I0412 22:48:00.435935  9395 net.cpp:156] Memory required for data: 47105200
I0412 22:48:00.435956  9395 layer_factory.hpp:77] Creating layer bn_conv2_1a
I0412 22:48:00.435976  9395 net.cpp:91] Creating Layer bn_conv2_1a
I0412 22:48:00.435986  9395 net.cpp:425] bn_conv2_1a <- conv2_1a
I0412 22:48:00.436002  9395 net.cpp:386] bn_conv2_1a -> conv2_1a (in-place)
I0412 22:48:00.436426  9395 net.cpp:141] Setting up bn_conv2_1a
I0412 22:48:00.436444  9395 net.cpp:148] Top shape: 100 16 32 32 (1638400)
I0412 22:48:00.436451  9395 net.cpp:156] Memory required for data: 53658800
I0412 22:48:00.436468  9395 layer_factory.hpp:77] Creating layer scale_conv2_1a
I0412 22:48:00.436489  9395 net.cpp:91] Creating Layer scale_conv2_1a
I0412 22:48:00.436499  9395 net.cpp:425] scale_conv2_1a <- conv2_1a
I0412 22:48:00.436511  9395 net.cpp:386] scale_conv2_1a -> conv2_1a (in-place)
I0412 22:48:00.436597  9395 layer_factory.hpp:77] Creating layer scale_conv2_1a
I0412 22:48:00.436851  9395 net.cpp:141] Setting up scale_conv2_1a
I0412 22:48:00.436868  9395 net.cpp:148] Top shape: 100 16 32 32 (1638400)
I0412 22:48:00.436880  9395 net.cpp:156] Memory required for data: 60212400
I0412 22:48:00.436910  9395 layer_factory.hpp:77] Creating layer conv2_1a_relu
I0412 22:48:00.436923  9395 net.cpp:91] Creating Layer conv2_1a_relu
I0412 22:48:00.436933  9395 net.cpp:425] conv2_1a_relu <- conv2_1a
I0412 22:48:00.436947  9395 net.cpp:386] conv2_1a_relu -> conv2_1a (in-place)
I0412 22:48:00.437315  9395 net.cpp:141] Setting up conv2_1a_relu
I0412 22:48:00.437337  9395 net.cpp:148] Top shape: 100 16 32 32 (1638400)
I0412 22:48:00.437346  9395 net.cpp:156] Memory required for data: 66766000
I0412 22:48:00.437356  9395 layer_factory.hpp:77] Creating layer conv2_1b
I0412 22:48:00.437378  9395 net.cpp:91] Creating Layer conv2_1b
I0412 22:48:00.437389  9395 net.cpp:425] conv2_1b <- conv2_1a
I0412 22:48:00.437403  9395 net.cpp:399] conv2_1b -> conv2_1b
I0412 22:48:00.440346  9395 net.cpp:141] Setting up conv2_1b
I0412 22:48:00.440376  9395 net.cpp:148] Top shape: 100 16 32 32 (1638400)
I0412 22:48:00.440384  9395 net.cpp:156] Memory required for data: 73319600
I0412 22:48:00.440400  9395 layer_factory.hpp:77] Creating layer bn_conv2_1b
I0412 22:48:00.440418  9395 net.cpp:91] Creating Layer bn_conv2_1b
I0412 22:48:00.440428  9395 net.cpp:425] bn_conv2_1b <- conv2_1b
I0412 22:48:00.440445  9395 net.cpp:386] bn_conv2_1b -> conv2_1b (in-place)
I0412 22:48:00.441738  9395 net.cpp:141] Setting up bn_conv2_1b
I0412 22:48:00.441758  9395 net.cpp:148] Top shape: 100 16 32 32 (1638400)
I0412 22:48:00.441766  9395 net.cpp:156] Memory required for data: 79873200
I0412 22:48:00.441789  9395 layer_factory.hpp:77] Creating layer scale_conv2_1b
I0412 22:48:00.441807  9395 net.cpp:91] Creating Layer scale_conv2_1b
I0412 22:48:00.441817  9395 net.cpp:425] scale_conv2_1b <- conv2_1b
I0412 22:48:00.441833  9395 net.cpp:386] scale_conv2_1b -> conv2_1b (in-place)
I0412 22:48:00.441921  9395 layer_factory.hpp:77] Creating layer scale_conv2_1b
I0412 22:48:00.442162  9395 net.cpp:141] Setting up scale_conv2_1b
I0412 22:48:00.442176  9395 net.cpp:148] Top shape: 100 16 32 32 (1638400)
I0412 22:48:00.442185  9395 net.cpp:156] Memory required for data: 86426800
I0412 22:48:00.442205  9395 layer_factory.hpp:77] Creating layer conv2_1_relu
I0412 22:48:00.442229  9395 net.cpp:91] Creating Layer conv2_1_relu
I0412 22:48:00.442250  9395 net.cpp:425] conv2_1_relu <- conv2_1b
I0412 22:48:00.442262  9395 net.cpp:386] conv2_1_relu -> conv2_1b (in-place)
I0412 22:48:00.442618  9395 net.cpp:141] Setting up conv2_1_relu
I0412 22:48:00.442638  9395 net.cpp:148] Top shape: 100 16 32 32 (1638400)
I0412 22:48:00.442647  9395 net.cpp:156] Memory required for data: 92980400
I0412 22:48:00.442656  9395 layer_factory.hpp:77] Creating layer conv2_2a
I0412 22:48:00.442679  9395 net.cpp:91] Creating Layer conv2_2a
I0412 22:48:00.442689  9395 net.cpp:425] conv2_2a <- conv2_1b
I0412 22:48:00.442706  9395 net.cpp:399] conv2_2a -> conv2_2a
I0412 22:48:00.445919  9395 net.cpp:141] Setting up conv2_2a
I0412 22:48:00.445948  9395 net.cpp:148] Top shape: 100 16 32 32 (1638400)
I0412 22:48:00.445957  9395 net.cpp:156] Memory required for data: 99534000
I0412 22:48:00.445971  9395 layer_factory.hpp:77] Creating layer bn_conv2_2a
I0412 22:48:00.445991  9395 net.cpp:91] Creating Layer bn_conv2_2a
I0412 22:48:00.446002  9395 net.cpp:425] bn_conv2_2a <- conv2_2a
I0412 22:48:00.446017  9395 net.cpp:386] bn_conv2_2a -> conv2_2a (in-place)
I0412 22:48:00.446399  9395 net.cpp:141] Setting up bn_conv2_2a
I0412 22:48:00.446414  9395 net.cpp:148] Top shape: 100 16 32 32 (1638400)
I0412 22:48:00.446422  9395 net.cpp:156] Memory required for data: 106087600
I0412 22:48:00.446437  9395 layer_factory.hpp:77] Creating layer scale_conv2_2a
I0412 22:48:00.446457  9395 net.cpp:91] Creating Layer scale_conv2_2a
I0412 22:48:00.446466  9395 net.cpp:425] scale_conv2_2a <- conv2_2a
I0412 22:48:00.446478  9395 net.cpp:386] scale_conv2_2a -> conv2_2a (in-place)
I0412 22:48:00.446560  9395 layer_factory.hpp:77] Creating layer scale_conv2_2a
I0412 22:48:00.446787  9395 net.cpp:141] Setting up scale_conv2_2a
I0412 22:48:00.446802  9395 net.cpp:148] Top shape: 100 16 32 32 (1638400)
I0412 22:48:00.446810  9395 net.cpp:156] Memory required for data: 112641200
I0412 22:48:00.446823  9395 layer_factory.hpp:77] Creating layer conv2_1
I0412 22:48:00.446835  9395 net.cpp:91] Creating Layer conv2_1
I0412 22:48:00.446843  9395 net.cpp:425] conv2_1 <- conv2_2a
I0412 22:48:00.446852  9395 net.cpp:425] conv2_1 <- conv1_conv1_relu_0_split_1
I0412 22:48:00.446867  9395 net.cpp:399] conv2_1 -> conv2_1
I0412 22:48:00.446916  9395 net.cpp:141] Setting up conv2_1
I0412 22:48:00.446931  9395 net.cpp:148] Top shape: 100 16 32 32 (1638400)
I0412 22:48:00.446939  9395 net.cpp:156] Memory required for data: 119194800
I0412 22:48:00.446948  9395 layer_factory.hpp:77] Creating layer conv2_2a_relu
I0412 22:48:00.446959  9395 net.cpp:91] Creating Layer conv2_2a_relu
I0412 22:48:00.446967  9395 net.cpp:425] conv2_2a_relu <- conv2_1
I0412 22:48:00.446977  9395 net.cpp:386] conv2_2a_relu -> conv2_1 (in-place)
I0412 22:48:00.447474  9395 net.cpp:141] Setting up conv2_2a_relu
I0412 22:48:00.447497  9395 net.cpp:148] Top shape: 100 16 32 32 (1638400)
I0412 22:48:00.447505  9395 net.cpp:156] Memory required for data: 125748400
I0412 22:48:00.447515  9395 layer_factory.hpp:77] Creating layer conv2_1_conv2_2a_relu_0_split
I0412 22:48:00.447525  9395 net.cpp:91] Creating Layer conv2_1_conv2_2a_relu_0_split
I0412 22:48:00.447535  9395 net.cpp:425] conv2_1_conv2_2a_relu_0_split <- conv2_1
I0412 22:48:00.447548  9395 net.cpp:399] conv2_1_conv2_2a_relu_0_split -> conv2_1_conv2_2a_relu_0_split_0
I0412 22:48:00.447563  9395 net.cpp:399] conv2_1_conv2_2a_relu_0_split -> conv2_1_conv2_2a_relu_0_split_1
I0412 22:48:00.447645  9395 net.cpp:141] Setting up conv2_1_conv2_2a_relu_0_split
I0412 22:48:00.447659  9395 net.cpp:148] Top shape: 100 16 32 32 (1638400)
I0412 22:48:00.447669  9395 net.cpp:148] Top shape: 100 16 32 32 (1638400)
I0412 22:48:00.447676  9395 net.cpp:156] Memory required for data: 138855600
I0412 22:48:00.447685  9395 layer_factory.hpp:77] Creating layer conv2_2b
I0412 22:48:00.447707  9395 net.cpp:91] Creating Layer conv2_2b
I0412 22:48:00.447716  9395 net.cpp:425] conv2_2b <- conv2_1_conv2_2a_relu_0_split_0
I0412 22:48:00.447737  9395 net.cpp:399] conv2_2b -> conv2_2b
I0412 22:48:00.450847  9395 net.cpp:141] Setting up conv2_2b
I0412 22:48:00.450875  9395 net.cpp:148] Top shape: 100 16 32 32 (1638400)
I0412 22:48:00.450884  9395 net.cpp:156] Memory required for data: 145409200
I0412 22:48:00.450899  9395 layer_factory.hpp:77] Creating layer bn_conv2_2b
I0412 22:48:00.450916  9395 net.cpp:91] Creating Layer bn_conv2_2b
I0412 22:48:00.450925  9395 net.cpp:425] bn_conv2_2b <- conv2_2b
I0412 22:48:00.450937  9395 net.cpp:386] bn_conv2_2b -> conv2_2b (in-place)
I0412 22:48:00.451333  9395 net.cpp:141] Setting up bn_conv2_2b
I0412 22:48:00.451349  9395 net.cpp:148] Top shape: 100 16 32 32 (1638400)
I0412 22:48:00.451355  9395 net.cpp:156] Memory required for data: 151962800
I0412 22:48:00.451377  9395 layer_factory.hpp:77] Creating layer scale_conv2_2b
I0412 22:48:00.451391  9395 net.cpp:91] Creating Layer scale_conv2_2b
I0412 22:48:00.451400  9395 net.cpp:425] scale_conv2_2b <- conv2_2b
I0412 22:48:00.451414  9395 net.cpp:386] scale_conv2_2b -> conv2_2b (in-place)
I0412 22:48:00.451496  9395 layer_factory.hpp:77] Creating layer scale_conv2_2b
I0412 22:48:00.451730  9395 net.cpp:141] Setting up scale_conv2_2b
I0412 22:48:00.451746  9395 net.cpp:148] Top shape: 100 16 32 32 (1638400)
I0412 22:48:00.451755  9395 net.cpp:156] Memory required for data: 158516400
I0412 22:48:00.451767  9395 layer_factory.hpp:77] Creating layer conv2_2_relu
I0412 22:48:00.451779  9395 net.cpp:91] Creating Layer conv2_2_relu
I0412 22:48:00.451787  9395 net.cpp:425] conv2_2_relu <- conv2_2b
I0412 22:48:00.451797  9395 net.cpp:386] conv2_2_relu -> conv2_2b (in-place)
I0412 22:48:00.452142  9395 net.cpp:141] Setting up conv2_2_relu
I0412 22:48:00.452164  9395 net.cpp:148] Top shape: 100 16 32 32 (1638400)
I0412 22:48:00.452172  9395 net.cpp:156] Memory required for data: 165070000
I0412 22:48:00.452181  9395 layer_factory.hpp:77] Creating layer conv2_3a
I0412 22:48:00.452203  9395 net.cpp:91] Creating Layer conv2_3a
I0412 22:48:00.452213  9395 net.cpp:425] conv2_3a <- conv2_2b
I0412 22:48:00.452229  9395 net.cpp:399] conv2_3a -> conv2_3a
I0412 22:48:00.455401  9395 net.cpp:141] Setting up conv2_3a
I0412 22:48:00.455428  9395 net.cpp:148] Top shape: 100 16 32 32 (1638400)
I0412 22:48:00.455437  9395 net.cpp:156] Memory required for data: 171623600
I0412 22:48:00.455451  9395 layer_factory.hpp:77] Creating layer bn_conv2_3a
I0412 22:48:00.455468  9395 net.cpp:91] Creating Layer bn_conv2_3a
I0412 22:48:00.455477  9395 net.cpp:425] bn_conv2_3a <- conv2_3a
I0412 22:48:00.455489  9395 net.cpp:386] bn_conv2_3a -> conv2_3a (in-place)
I0412 22:48:00.455884  9395 net.cpp:141] Setting up bn_conv2_3a
I0412 22:48:00.455899  9395 net.cpp:148] Top shape: 100 16 32 32 (1638400)
I0412 22:48:00.455907  9395 net.cpp:156] Memory required for data: 178177200
I0412 22:48:00.455922  9395 layer_factory.hpp:77] Creating layer scale_conv2_3a
I0412 22:48:00.455935  9395 net.cpp:91] Creating Layer scale_conv2_3a
I0412 22:48:00.455943  9395 net.cpp:425] scale_conv2_3a <- conv2_3a
I0412 22:48:00.455955  9395 net.cpp:386] scale_conv2_3a -> conv2_3a (in-place)
I0412 22:48:00.456039  9395 layer_factory.hpp:77] Creating layer scale_conv2_3a
I0412 22:48:00.456260  9395 net.cpp:141] Setting up scale_conv2_3a
I0412 22:48:00.456274  9395 net.cpp:148] Top shape: 100 16 32 32 (1638400)
I0412 22:48:00.456282  9395 net.cpp:156] Memory required for data: 184730800
I0412 22:48:00.456295  9395 layer_factory.hpp:77] Creating layer conv2_3a_relu
I0412 22:48:00.456306  9395 net.cpp:91] Creating Layer conv2_3a_relu
I0412 22:48:00.456315  9395 net.cpp:425] conv2_3a_relu <- conv2_3a
I0412 22:48:00.456327  9395 net.cpp:386] conv2_3a_relu -> conv2_3a (in-place)
I0412 22:48:00.456656  9395 net.cpp:141] Setting up conv2_3a_relu
I0412 22:48:00.456676  9395 net.cpp:148] Top shape: 100 16 32 32 (1638400)
I0412 22:48:00.456683  9395 net.cpp:156] Memory required for data: 191284400
I0412 22:48:00.456691  9395 layer_factory.hpp:77] Creating layer conv2_3b
I0412 22:48:00.456714  9395 net.cpp:91] Creating Layer conv2_3b
I0412 22:48:00.456730  9395 net.cpp:425] conv2_3b <- conv2_3a
I0412 22:48:00.456744  9395 net.cpp:399] conv2_3b -> conv2_3b
I0412 22:48:00.459985  9395 net.cpp:141] Setting up conv2_3b
I0412 22:48:00.460011  9395 net.cpp:148] Top shape: 100 16 32 32 (1638400)
I0412 22:48:00.460018  9395 net.cpp:156] Memory required for data: 197838000
I0412 22:48:00.460031  9395 layer_factory.hpp:77] Creating layer bn_conv2_3b
I0412 22:48:00.460047  9395 net.cpp:91] Creating Layer bn_conv2_3b
I0412 22:48:00.460057  9395 net.cpp:425] bn_conv2_3b <- conv2_3b
I0412 22:48:00.460067  9395 net.cpp:386] bn_conv2_3b -> conv2_3b (in-place)
I0412 22:48:00.460439  9395 net.cpp:141] Setting up bn_conv2_3b
I0412 22:48:00.460454  9395 net.cpp:148] Top shape: 100 16 32 32 (1638400)
I0412 22:48:00.460461  9395 net.cpp:156] Memory required for data: 204391600
I0412 22:48:00.460475  9395 layer_factory.hpp:77] Creating layer scale_conv2_3b
I0412 22:48:00.460487  9395 net.cpp:91] Creating Layer scale_conv2_3b
I0412 22:48:00.460496  9395 net.cpp:425] scale_conv2_3b <- conv2_3b
I0412 22:48:00.460506  9395 net.cpp:386] scale_conv2_3b -> conv2_3b (in-place)
I0412 22:48:00.460584  9395 layer_factory.hpp:77] Creating layer scale_conv2_3b
I0412 22:48:00.460799  9395 net.cpp:141] Setting up scale_conv2_3b
I0412 22:48:00.460813  9395 net.cpp:148] Top shape: 100 16 32 32 (1638400)
I0412 22:48:00.460821  9395 net.cpp:156] Memory required for data: 210945200
I0412 22:48:00.460834  9395 layer_factory.hpp:77] Creating layer conv2_3
I0412 22:48:00.460851  9395 net.cpp:91] Creating Layer conv2_3
I0412 22:48:00.460860  9395 net.cpp:425] conv2_3 <- conv2_3b
I0412 22:48:00.460870  9395 net.cpp:425] conv2_3 <- conv2_1_conv2_2a_relu_0_split_1
I0412 22:48:00.460880  9395 net.cpp:399] conv2_3 -> conv2_3
I0412 22:48:00.460932  9395 net.cpp:141] Setting up conv2_3
I0412 22:48:00.460947  9395 net.cpp:148] Top shape: 100 16 32 32 (1638400)
I0412 22:48:00.460953  9395 net.cpp:156] Memory required for data: 217498800
I0412 22:48:00.460961  9395 layer_factory.hpp:77] Creating layer conv2_3_relu
I0412 22:48:00.460973  9395 net.cpp:91] Creating Layer conv2_3_relu
I0412 22:48:00.460983  9395 net.cpp:425] conv2_3_relu <- conv2_3
I0412 22:48:00.460994  9395 net.cpp:386] conv2_3_relu -> conv2_3 (in-place)
I0412 22:48:00.461607  9395 net.cpp:141] Setting up conv2_3_relu
I0412 22:48:00.461632  9395 net.cpp:148] Top shape: 100 16 32 32 (1638400)
I0412 22:48:00.461639  9395 net.cpp:156] Memory required for data: 224052400
I0412 22:48:00.461647  9395 layer_factory.hpp:77] Creating layer conv2_3_conv2_3_relu_0_split
I0412 22:48:00.461659  9395 net.cpp:91] Creating Layer conv2_3_conv2_3_relu_0_split
I0412 22:48:00.461668  9395 net.cpp:425] conv2_3_conv2_3_relu_0_split <- conv2_3
I0412 22:48:00.461688  9395 net.cpp:399] conv2_3_conv2_3_relu_0_split -> conv2_3_conv2_3_relu_0_split_0
I0412 22:48:00.461702  9395 net.cpp:399] conv2_3_conv2_3_relu_0_split -> conv2_3_conv2_3_relu_0_split_1
I0412 22:48:00.461783  9395 net.cpp:141] Setting up conv2_3_conv2_3_relu_0_split
I0412 22:48:00.461796  9395 net.cpp:148] Top shape: 100 16 32 32 (1638400)
I0412 22:48:00.461805  9395 net.cpp:148] Top shape: 100 16 32 32 (1638400)
I0412 22:48:00.461812  9395 net.cpp:156] Memory required for data: 237159600
I0412 22:48:00.461820  9395 layer_factory.hpp:77] Creating layer conv2_sub
I0412 22:48:00.461843  9395 net.cpp:91] Creating Layer conv2_sub
I0412 22:48:00.461851  9395 net.cpp:425] conv2_sub <- conv2_3_conv2_3_relu_0_split_0
I0412 22:48:00.461863  9395 net.cpp:399] conv2_sub -> conv2_sub
I0412 22:48:00.463809  9395 net.cpp:141] Setting up conv2_sub
I0412 22:48:00.463834  9395 net.cpp:148] Top shape: 100 32 16 16 (819200)
I0412 22:48:00.463842  9395 net.cpp:156] Memory required for data: 240436400
I0412 22:48:00.463856  9395 layer_factory.hpp:77] Creating layer bn_conv2_sub
I0412 22:48:00.463870  9395 net.cpp:91] Creating Layer bn_conv2_sub
I0412 22:48:00.463878  9395 net.cpp:425] bn_conv2_sub <- conv2_sub
I0412 22:48:00.463892  9395 net.cpp:386] bn_conv2_sub -> conv2_sub (in-place)
I0412 22:48:00.464262  9395 net.cpp:141] Setting up bn_conv2_sub
I0412 22:48:00.464277  9395 net.cpp:148] Top shape: 100 32 16 16 (819200)
I0412 22:48:00.464284  9395 net.cpp:156] Memory required for data: 243713200
I0412 22:48:00.464298  9395 layer_factory.hpp:77] Creating layer scale_conv2_sub
I0412 22:48:00.464310  9395 net.cpp:91] Creating Layer scale_conv2_sub
I0412 22:48:00.464318  9395 net.cpp:425] scale_conv2_sub <- conv2_sub
I0412 22:48:00.464329  9395 net.cpp:386] scale_conv2_sub -> conv2_sub (in-place)
I0412 22:48:00.464406  9395 layer_factory.hpp:77] Creating layer scale_conv2_sub
I0412 22:48:00.464619  9395 net.cpp:141] Setting up scale_conv2_sub
I0412 22:48:00.464635  9395 net.cpp:148] Top shape: 100 32 16 16 (819200)
I0412 22:48:00.464643  9395 net.cpp:156] Memory required for data: 246990000
I0412 22:48:00.464654  9395 layer_factory.hpp:77] Creating layer conv3_1a
I0412 22:48:00.464674  9395 net.cpp:91] Creating Layer conv3_1a
I0412 22:48:00.464684  9395 net.cpp:425] conv3_1a <- conv2_3_conv2_3_relu_0_split_1
I0412 22:48:00.464696  9395 net.cpp:399] conv3_1a -> conv3_1a
I0412 22:48:00.467114  9395 net.cpp:141] Setting up conv3_1a
I0412 22:48:00.467140  9395 net.cpp:148] Top shape: 100 32 16 16 (819200)
I0412 22:48:00.467149  9395 net.cpp:156] Memory required for data: 250266800
I0412 22:48:00.467161  9395 layer_factory.hpp:77] Creating layer bn_conv3_1a
I0412 22:48:00.467177  9395 net.cpp:91] Creating Layer bn_conv3_1a
I0412 22:48:00.467186  9395 net.cpp:425] bn_conv3_1a <- conv3_1a
I0412 22:48:00.467198  9395 net.cpp:386] bn_conv3_1a -> conv3_1a (in-place)
I0412 22:48:00.467557  9395 net.cpp:141] Setting up bn_conv3_1a
I0412 22:48:00.467571  9395 net.cpp:148] Top shape: 100 32 16 16 (819200)
I0412 22:48:00.467578  9395 net.cpp:156] Memory required for data: 253543600
I0412 22:48:00.467592  9395 layer_factory.hpp:77] Creating layer scale_conv3_1a
I0412 22:48:00.467607  9395 net.cpp:91] Creating Layer scale_conv3_1a
I0412 22:48:00.467615  9395 net.cpp:425] scale_conv3_1a <- conv3_1a
I0412 22:48:00.467627  9395 net.cpp:386] scale_conv3_1a -> conv3_1a (in-place)
I0412 22:48:00.467705  9395 layer_factory.hpp:77] Creating layer scale_conv3_1a
I0412 22:48:00.467921  9395 net.cpp:141] Setting up scale_conv3_1a
I0412 22:48:00.467936  9395 net.cpp:148] Top shape: 100 32 16 16 (819200)
I0412 22:48:00.467942  9395 net.cpp:156] Memory required for data: 256820400
I0412 22:48:00.467954  9395 layer_factory.hpp:77] Creating layer conv3_1a_relu
I0412 22:48:00.467968  9395 net.cpp:91] Creating Layer conv3_1a_relu
I0412 22:48:00.467975  9395 net.cpp:425] conv3_1a_relu <- conv3_1a
I0412 22:48:00.467985  9395 net.cpp:386] conv3_1a_relu -> conv3_1a (in-place)
I0412 22:48:00.468443  9395 net.cpp:141] Setting up conv3_1a_relu
I0412 22:48:00.468466  9395 net.cpp:148] Top shape: 100 32 16 16 (819200)
I0412 22:48:00.468473  9395 net.cpp:156] Memory required for data: 260097200
I0412 22:48:00.468482  9395 layer_factory.hpp:77] Creating layer conv3_1b
I0412 22:48:00.468502  9395 net.cpp:91] Creating Layer conv3_1b
I0412 22:48:00.468511  9395 net.cpp:425] conv3_1b <- conv3_1a
I0412 22:48:00.468528  9395 net.cpp:399] conv3_1b -> conv3_1b
I0412 22:48:00.471678  9395 net.cpp:141] Setting up conv3_1b
I0412 22:48:00.471704  9395 net.cpp:148] Top shape: 100 32 16 16 (819200)
I0412 22:48:00.471711  9395 net.cpp:156] Memory required for data: 263374000
I0412 22:48:00.471740  9395 layer_factory.hpp:77] Creating layer bn_conv3_1b
I0412 22:48:00.471753  9395 net.cpp:91] Creating Layer bn_conv3_1b
I0412 22:48:00.471762  9395 net.cpp:425] bn_conv3_1b <- conv3_1b
I0412 22:48:00.471772  9395 net.cpp:386] bn_conv3_1b -> conv3_1b (in-place)
I0412 22:48:00.472122  9395 net.cpp:141] Setting up bn_conv3_1b
I0412 22:48:00.472136  9395 net.cpp:148] Top shape: 100 32 16 16 (819200)
I0412 22:48:00.472143  9395 net.cpp:156] Memory required for data: 266650800
I0412 22:48:00.472165  9395 layer_factory.hpp:77] Creating layer scale_conv3_1b
I0412 22:48:00.472184  9395 net.cpp:91] Creating Layer scale_conv3_1b
I0412 22:48:00.472193  9395 net.cpp:425] scale_conv3_1b <- conv3_1b
I0412 22:48:00.472209  9395 net.cpp:386] scale_conv3_1b -> conv3_1b (in-place)
I0412 22:48:00.472293  9395 layer_factory.hpp:77] Creating layer scale_conv3_1b
I0412 22:48:00.472507  9395 net.cpp:141] Setting up scale_conv3_1b
I0412 22:48:00.472522  9395 net.cpp:148] Top shape: 100 32 16 16 (819200)
I0412 22:48:00.472528  9395 net.cpp:156] Memory required for data: 269927600
I0412 22:48:00.472540  9395 layer_factory.hpp:77] Creating layer conv3_1_relu
I0412 22:48:00.472551  9395 net.cpp:91] Creating Layer conv3_1_relu
I0412 22:48:00.472558  9395 net.cpp:425] conv3_1_relu <- conv3_1b
I0412 22:48:00.472569  9395 net.cpp:386] conv3_1_relu -> conv3_1b (in-place)
I0412 22:48:00.472849  9395 net.cpp:141] Setting up conv3_1_relu
I0412 22:48:00.472865  9395 net.cpp:148] Top shape: 100 32 16 16 (819200)
I0412 22:48:00.472872  9395 net.cpp:156] Memory required for data: 273204400
I0412 22:48:00.472880  9395 layer_factory.hpp:77] Creating layer conv3_2a
I0412 22:48:00.472903  9395 net.cpp:91] Creating Layer conv3_2a
I0412 22:48:00.472910  9395 net.cpp:425] conv3_2a <- conv3_1b
I0412 22:48:00.472923  9395 net.cpp:399] conv3_2a -> conv3_2a
I0412 22:48:00.476265  9395 net.cpp:141] Setting up conv3_2a
I0412 22:48:00.476289  9395 net.cpp:148] Top shape: 100 32 16 16 (819200)
I0412 22:48:00.476297  9395 net.cpp:156] Memory required for data: 276481200
I0412 22:48:00.476310  9395 layer_factory.hpp:77] Creating layer bn_conv3_2a
I0412 22:48:00.476325  9395 net.cpp:91] Creating Layer bn_conv3_2a
I0412 22:48:00.476335  9395 net.cpp:425] bn_conv3_2a <- conv3_2a
I0412 22:48:00.476344  9395 net.cpp:386] bn_conv3_2a -> conv3_2a (in-place)
I0412 22:48:00.476691  9395 net.cpp:141] Setting up bn_conv3_2a
I0412 22:48:00.476704  9395 net.cpp:148] Top shape: 100 32 16 16 (819200)
I0412 22:48:00.476711  9395 net.cpp:156] Memory required for data: 279758000
I0412 22:48:00.476727  9395 layer_factory.hpp:77] Creating layer scale_conv3_2a
I0412 22:48:00.476739  9395 net.cpp:91] Creating Layer scale_conv3_2a
I0412 22:48:00.476747  9395 net.cpp:425] scale_conv3_2a <- conv3_2a
I0412 22:48:00.476757  9395 net.cpp:386] scale_conv3_2a -> conv3_2a (in-place)
I0412 22:48:00.476830  9395 layer_factory.hpp:77] Creating layer scale_conv3_2a
I0412 22:48:00.477035  9395 net.cpp:141] Setting up scale_conv3_2a
I0412 22:48:00.477047  9395 net.cpp:148] Top shape: 100 32 16 16 (819200)
I0412 22:48:00.477054  9395 net.cpp:156] Memory required for data: 283034800
I0412 22:48:00.477066  9395 layer_factory.hpp:77] Creating layer conv3_1
I0412 22:48:00.477077  9395 net.cpp:91] Creating Layer conv3_1
I0412 22:48:00.477083  9395 net.cpp:425] conv3_1 <- conv3_2a
I0412 22:48:00.477092  9395 net.cpp:425] conv3_1 <- conv2_sub
I0412 22:48:00.477105  9395 net.cpp:399] conv3_1 -> conv3_1
I0412 22:48:00.477151  9395 net.cpp:141] Setting up conv3_1
I0412 22:48:00.477164  9395 net.cpp:148] Top shape: 100 32 16 16 (819200)
I0412 22:48:00.477171  9395 net.cpp:156] Memory required for data: 286311600
I0412 22:48:00.477180  9395 layer_factory.hpp:77] Creating layer conv3_2a_relu
I0412 22:48:00.477190  9395 net.cpp:91] Creating Layer conv3_2a_relu
I0412 22:48:00.477196  9395 net.cpp:425] conv3_2a_relu <- conv3_1
I0412 22:48:00.477211  9395 net.cpp:386] conv3_2a_relu -> conv3_1 (in-place)
I0412 22:48:00.477650  9395 net.cpp:141] Setting up conv3_2a_relu
I0412 22:48:00.477672  9395 net.cpp:148] Top shape: 100 32 16 16 (819200)
I0412 22:48:00.477680  9395 net.cpp:156] Memory required for data: 289588400
I0412 22:48:00.477687  9395 layer_factory.hpp:77] Creating layer conv3_1_conv3_2a_relu_0_split
I0412 22:48:00.477701  9395 net.cpp:91] Creating Layer conv3_1_conv3_2a_relu_0_split
I0412 22:48:00.477710  9395 net.cpp:425] conv3_1_conv3_2a_relu_0_split <- conv3_1
I0412 22:48:00.477720  9395 net.cpp:399] conv3_1_conv3_2a_relu_0_split -> conv3_1_conv3_2a_relu_0_split_0
I0412 22:48:00.477735  9395 net.cpp:399] conv3_1_conv3_2a_relu_0_split -> conv3_1_conv3_2a_relu_0_split_1
I0412 22:48:00.477813  9395 net.cpp:141] Setting up conv3_1_conv3_2a_relu_0_split
I0412 22:48:00.477825  9395 net.cpp:148] Top shape: 100 32 16 16 (819200)
I0412 22:48:00.477840  9395 net.cpp:148] Top shape: 100 32 16 16 (819200)
I0412 22:48:00.477848  9395 net.cpp:156] Memory required for data: 296142000
I0412 22:48:00.477854  9395 layer_factory.hpp:77] Creating layer conv3_2b
I0412 22:48:00.477872  9395 net.cpp:91] Creating Layer conv3_2b
I0412 22:48:00.477881  9395 net.cpp:425] conv3_2b <- conv3_1_conv3_2a_relu_0_split_0
I0412 22:48:00.477895  9395 net.cpp:399] conv3_2b -> conv3_2b
I0412 22:48:00.479831  9395 net.cpp:141] Setting up conv3_2b
I0412 22:48:00.479858  9395 net.cpp:148] Top shape: 100 32 16 16 (819200)
I0412 22:48:00.479866  9395 net.cpp:156] Memory required for data: 299418800
I0412 22:48:00.479879  9395 layer_factory.hpp:77] Creating layer bn_conv3_2b
I0412 22:48:00.479894  9395 net.cpp:91] Creating Layer bn_conv3_2b
I0412 22:48:00.479903  9395 net.cpp:425] bn_conv3_2b <- conv3_2b
I0412 22:48:00.479914  9395 net.cpp:386] bn_conv3_2b -> conv3_2b (in-place)
I0412 22:48:00.480263  9395 net.cpp:141] Setting up bn_conv3_2b
I0412 22:48:00.480275  9395 net.cpp:148] Top shape: 100 32 16 16 (819200)
I0412 22:48:00.480283  9395 net.cpp:156] Memory required for data: 302695600
I0412 22:48:00.480296  9395 layer_factory.hpp:77] Creating layer scale_conv3_2b
I0412 22:48:00.480309  9395 net.cpp:91] Creating Layer scale_conv3_2b
I0412 22:48:00.480317  9395 net.cpp:425] scale_conv3_2b <- conv3_2b
I0412 22:48:00.480327  9395 net.cpp:386] scale_conv3_2b -> conv3_2b (in-place)
I0412 22:48:00.480402  9395 layer_factory.hpp:77] Creating layer scale_conv3_2b
I0412 22:48:00.480610  9395 net.cpp:141] Setting up scale_conv3_2b
I0412 22:48:00.480623  9395 net.cpp:148] Top shape: 100 32 16 16 (819200)
I0412 22:48:00.480630  9395 net.cpp:156] Memory required for data: 305972400
I0412 22:48:00.480643  9395 layer_factory.hpp:77] Creating layer conv3_2_relu
I0412 22:48:00.480654  9395 net.cpp:91] Creating Layer conv3_2_relu
I0412 22:48:00.480662  9395 net.cpp:425] conv3_2_relu <- conv3_2b
I0412 22:48:00.480671  9395 net.cpp:386] conv3_2_relu -> conv3_2b (in-place)
I0412 22:48:00.481120  9395 net.cpp:141] Setting up conv3_2_relu
I0412 22:48:00.481155  9395 net.cpp:148] Top shape: 100 32 16 16 (819200)
I0412 22:48:00.481163  9395 net.cpp:156] Memory required for data: 309249200
I0412 22:48:00.481170  9395 layer_factory.hpp:77] Creating layer conv3_3a
I0412 22:48:00.481190  9395 net.cpp:91] Creating Layer conv3_3a
I0412 22:48:00.481199  9395 net.cpp:425] conv3_3a <- conv3_2b
I0412 22:48:00.481210  9395 net.cpp:399] conv3_3a -> conv3_3a
I0412 22:48:00.484446  9395 net.cpp:141] Setting up conv3_3a
I0412 22:48:00.484467  9395 net.cpp:148] Top shape: 100 32 16 16 (819200)
I0412 22:48:00.484474  9395 net.cpp:156] Memory required for data: 312526000
I0412 22:48:00.484486  9395 layer_factory.hpp:77] Creating layer bn_conv3_3a
I0412 22:48:00.484501  9395 net.cpp:91] Creating Layer bn_conv3_3a
I0412 22:48:00.484509  9395 net.cpp:425] bn_conv3_3a <- conv3_3a
I0412 22:48:00.484519  9395 net.cpp:386] bn_conv3_3a -> conv3_3a (in-place)
I0412 22:48:00.484855  9395 net.cpp:141] Setting up bn_conv3_3a
I0412 22:48:00.484868  9395 net.cpp:148] Top shape: 100 32 16 16 (819200)
I0412 22:48:00.484874  9395 net.cpp:156] Memory required for data: 315802800
I0412 22:48:00.484887  9395 layer_factory.hpp:77] Creating layer scale_conv3_3a
I0412 22:48:00.484899  9395 net.cpp:91] Creating Layer scale_conv3_3a
I0412 22:48:00.484905  9395 net.cpp:425] scale_conv3_3a <- conv3_3a
I0412 22:48:00.484915  9395 net.cpp:386] scale_conv3_3a -> conv3_3a (in-place)
I0412 22:48:00.484992  9395 layer_factory.hpp:77] Creating layer scale_conv3_3a
I0412 22:48:00.485200  9395 net.cpp:141] Setting up scale_conv3_3a
I0412 22:48:00.485214  9395 net.cpp:148] Top shape: 100 32 16 16 (819200)
I0412 22:48:00.485220  9395 net.cpp:156] Memory required for data: 319079600
I0412 22:48:00.485232  9395 layer_factory.hpp:77] Creating layer conv3_3a_relu
I0412 22:48:00.485242  9395 net.cpp:91] Creating Layer conv3_3a_relu
I0412 22:48:00.485249  9395 net.cpp:425] conv3_3a_relu <- conv3_3a
I0412 22:48:00.485260  9395 net.cpp:386] conv3_3a_relu -> conv3_3a (in-place)
I0412 22:48:00.485532  9395 net.cpp:141] Setting up conv3_3a_relu
I0412 22:48:00.485548  9395 net.cpp:148] Top shape: 100 32 16 16 (819200)
I0412 22:48:00.485555  9395 net.cpp:156] Memory required for data: 322356400
I0412 22:48:00.485563  9395 layer_factory.hpp:77] Creating layer conv3_3b
I0412 22:48:00.485585  9395 net.cpp:91] Creating Layer conv3_3b
I0412 22:48:00.485592  9395 net.cpp:425] conv3_3b <- conv3_3a
I0412 22:48:00.485605  9395 net.cpp:399] conv3_3b -> conv3_3b
I0412 22:48:00.489004  9395 net.cpp:141] Setting up conv3_3b
I0412 22:48:00.489027  9395 net.cpp:148] Top shape: 100 32 16 16 (819200)
I0412 22:48:00.489034  9395 net.cpp:156] Memory required for data: 325633200
I0412 22:48:00.489047  9395 layer_factory.hpp:77] Creating layer bn_conv3_3b
I0412 22:48:00.489068  9395 net.cpp:91] Creating Layer bn_conv3_3b
I0412 22:48:00.489075  9395 net.cpp:425] bn_conv3_3b <- conv3_3b
I0412 22:48:00.489086  9395 net.cpp:386] bn_conv3_3b -> conv3_3b (in-place)
I0412 22:48:00.489428  9395 net.cpp:141] Setting up bn_conv3_3b
I0412 22:48:00.489442  9395 net.cpp:148] Top shape: 100 32 16 16 (819200)
I0412 22:48:00.489449  9395 net.cpp:156] Memory required for data: 328910000
I0412 22:48:00.489461  9395 layer_factory.hpp:77] Creating layer scale_conv3_3b
I0412 22:48:00.489475  9395 net.cpp:91] Creating Layer scale_conv3_3b
I0412 22:48:00.489483  9395 net.cpp:425] scale_conv3_3b <- conv3_3b
I0412 22:48:00.489492  9395 net.cpp:386] scale_conv3_3b -> conv3_3b (in-place)
I0412 22:48:00.489565  9395 layer_factory.hpp:77] Creating layer scale_conv3_3b
I0412 22:48:00.489763  9395 net.cpp:141] Setting up scale_conv3_3b
I0412 22:48:00.489775  9395 net.cpp:148] Top shape: 100 32 16 16 (819200)
I0412 22:48:00.489781  9395 net.cpp:156] Memory required for data: 332186800
I0412 22:48:00.489792  9395 layer_factory.hpp:77] Creating layer conv3_3
I0412 22:48:00.489805  9395 net.cpp:91] Creating Layer conv3_3
I0412 22:48:00.489812  9395 net.cpp:425] conv3_3 <- conv3_3b
I0412 22:48:00.489821  9395 net.cpp:425] conv3_3 <- conv3_1_conv3_2a_relu_0_split_1
I0412 22:48:00.489831  9395 net.cpp:399] conv3_3 -> conv3_3
I0412 22:48:00.489871  9395 net.cpp:141] Setting up conv3_3
I0412 22:48:00.489882  9395 net.cpp:148] Top shape: 100 32 16 16 (819200)
I0412 22:48:00.489888  9395 net.cpp:156] Memory required for data: 335463600
I0412 22:48:00.489895  9395 layer_factory.hpp:77] Creating layer conv3_3_relu
I0412 22:48:00.489914  9395 net.cpp:91] Creating Layer conv3_3_relu
I0412 22:48:00.489922  9395 net.cpp:425] conv3_3_relu <- conv3_3
I0412 22:48:00.489931  9395 net.cpp:386] conv3_3_relu -> conv3_3 (in-place)
I0412 22:48:00.490352  9395 net.cpp:141] Setting up conv3_3_relu
I0412 22:48:00.490373  9395 net.cpp:148] Top shape: 100 32 16 16 (819200)
I0412 22:48:00.490381  9395 net.cpp:156] Memory required for data: 338740400
I0412 22:48:00.490388  9395 layer_factory.hpp:77] Creating layer conv3_3_conv3_3_relu_0_split
I0412 22:48:00.490401  9395 net.cpp:91] Creating Layer conv3_3_conv3_3_relu_0_split
I0412 22:48:00.490409  9395 net.cpp:425] conv3_3_conv3_3_relu_0_split <- conv3_3
I0412 22:48:00.490419  9395 net.cpp:399] conv3_3_conv3_3_relu_0_split -> conv3_3_conv3_3_relu_0_split_0
I0412 22:48:00.490435  9395 net.cpp:399] conv3_3_conv3_3_relu_0_split -> conv3_3_conv3_3_relu_0_split_1
I0412 22:48:00.490511  9395 net.cpp:141] Setting up conv3_3_conv3_3_relu_0_split
I0412 22:48:00.490523  9395 net.cpp:148] Top shape: 100 32 16 16 (819200)
I0412 22:48:00.490531  9395 net.cpp:148] Top shape: 100 32 16 16 (819200)
I0412 22:48:00.490537  9395 net.cpp:156] Memory required for data: 345294000
I0412 22:48:00.490545  9395 layer_factory.hpp:77] Creating layer conv3_sub
I0412 22:48:00.490561  9395 net.cpp:91] Creating Layer conv3_sub
I0412 22:48:00.490569  9395 net.cpp:425] conv3_sub <- conv3_3_conv3_3_relu_0_split_0
I0412 22:48:00.490582  9395 net.cpp:399] conv3_sub -> conv3_sub
I0412 22:48:00.498222  9395 net.cpp:141] Setting up conv3_sub
I0412 22:48:00.498271  9395 net.cpp:148] Top shape: 100 64 8 8 (409600)
I0412 22:48:00.498280  9395 net.cpp:156] Memory required for data: 346932400
I0412 22:48:00.498309  9395 layer_factory.hpp:77] Creating layer bn_conv3_sub
I0412 22:48:00.498347  9395 net.cpp:91] Creating Layer bn_conv3_sub
I0412 22:48:00.498376  9395 net.cpp:425] bn_conv3_sub <- conv3_sub
I0412 22:48:00.498389  9395 net.cpp:386] bn_conv3_sub -> conv3_sub (in-place)
I0412 22:48:00.498730  9395 net.cpp:141] Setting up bn_conv3_sub
I0412 22:48:00.498744  9395 net.cpp:148] Top shape: 100 64 8 8 (409600)
I0412 22:48:00.498749  9395 net.cpp:156] Memory required for data: 348570800
I0412 22:48:00.498762  9395 layer_factory.hpp:77] Creating layer scale_conv3_sub
I0412 22:48:00.498785  9395 net.cpp:91] Creating Layer scale_conv3_sub
I0412 22:48:00.498792  9395 net.cpp:425] scale_conv3_sub <- conv3_sub
I0412 22:48:00.498801  9395 net.cpp:386] scale_conv3_sub -> conv3_sub (in-place)
I0412 22:48:00.498895  9395 layer_factory.hpp:77] Creating layer scale_conv3_sub
I0412 22:48:00.499092  9395 net.cpp:141] Setting up scale_conv3_sub
I0412 22:48:00.499104  9395 net.cpp:148] Top shape: 100 64 8 8 (409600)
I0412 22:48:00.499110  9395 net.cpp:156] Memory required for data: 350209200
I0412 22:48:00.499121  9395 layer_factory.hpp:77] Creating layer conv4_1a
I0412 22:48:00.499150  9395 net.cpp:91] Creating Layer conv4_1a
I0412 22:48:00.499166  9395 net.cpp:425] conv4_1a <- conv3_3_conv3_3_relu_0_split_1
I0412 22:48:00.499178  9395 net.cpp:399] conv4_1a -> conv4_1a
I0412 22:48:00.502470  9395 net.cpp:141] Setting up conv4_1a
I0412 22:48:00.502493  9395 net.cpp:148] Top shape: 100 64 8 8 (409600)
I0412 22:48:00.502501  9395 net.cpp:156] Memory required for data: 351847600
I0412 22:48:00.502512  9395 layer_factory.hpp:77] Creating layer bn_conv4_1a
I0412 22:48:00.502542  9395 net.cpp:91] Creating Layer bn_conv4_1a
I0412 22:48:00.502552  9395 net.cpp:425] bn_conv4_1a <- conv4_1a
I0412 22:48:00.502562  9395 net.cpp:386] bn_conv4_1a -> conv4_1a (in-place)
I0412 22:48:00.502889  9395 net.cpp:141] Setting up bn_conv4_1a
I0412 22:48:00.502902  9395 net.cpp:148] Top shape: 100 64 8 8 (409600)
I0412 22:48:00.502908  9395 net.cpp:156] Memory required for data: 353486000
I0412 22:48:00.502928  9395 layer_factory.hpp:77] Creating layer scale_conv4_1a
I0412 22:48:00.502944  9395 net.cpp:91] Creating Layer scale_conv4_1a
I0412 22:48:00.502951  9395 net.cpp:425] scale_conv4_1a <- conv4_1a
I0412 22:48:00.502960  9395 net.cpp:386] scale_conv4_1a -> conv4_1a (in-place)
I0412 22:48:00.503033  9395 layer_factory.hpp:77] Creating layer scale_conv4_1a
I0412 22:48:00.503232  9395 net.cpp:141] Setting up scale_conv4_1a
I0412 22:48:00.503244  9395 net.cpp:148] Top shape: 100 64 8 8 (409600)
I0412 22:48:00.503250  9395 net.cpp:156] Memory required for data: 355124400
I0412 22:48:00.503262  9395 layer_factory.hpp:77] Creating layer conv4_1a_relu
I0412 22:48:00.503278  9395 net.cpp:91] Creating Layer conv4_1a_relu
I0412 22:48:00.503285  9395 net.cpp:425] conv4_1a_relu <- conv4_1a
I0412 22:48:00.503293  9395 net.cpp:386] conv4_1a_relu -> conv4_1a (in-place)
I0412 22:48:00.503728  9395 net.cpp:141] Setting up conv4_1a_relu
I0412 22:48:00.503748  9395 net.cpp:148] Top shape: 100 64 8 8 (409600)
I0412 22:48:00.503756  9395 net.cpp:156] Memory required for data: 356762800
I0412 22:48:00.503762  9395 layer_factory.hpp:77] Creating layer conv4_1b
I0412 22:48:00.503798  9395 net.cpp:91] Creating Layer conv4_1b
I0412 22:48:00.503805  9395 net.cpp:425] conv4_1b <- conv4_1a
I0412 22:48:00.503824  9395 net.cpp:399] conv4_1b -> conv4_1b
I0412 22:48:00.508087  9395 net.cpp:141] Setting up conv4_1b
I0412 22:48:00.508108  9395 net.cpp:148] Top shape: 100 64 8 8 (409600)
I0412 22:48:00.508116  9395 net.cpp:156] Memory required for data: 358401200
I0412 22:48:00.508126  9395 layer_factory.hpp:77] Creating layer bn_conv4_1b
I0412 22:48:00.508146  9395 net.cpp:91] Creating Layer bn_conv4_1b
I0412 22:48:00.508154  9395 net.cpp:425] bn_conv4_1b <- conv4_1b
I0412 22:48:00.508165  9395 net.cpp:386] bn_conv4_1b -> conv4_1b (in-place)
I0412 22:48:00.508486  9395 net.cpp:141] Setting up bn_conv4_1b
I0412 22:48:00.508498  9395 net.cpp:148] Top shape: 100 64 8 8 (409600)
I0412 22:48:00.508510  9395 net.cpp:156] Memory required for data: 360039600
I0412 22:48:00.508530  9395 layer_factory.hpp:77] Creating layer scale_conv4_1b
I0412 22:48:00.508540  9395 net.cpp:91] Creating Layer scale_conv4_1b
I0412 22:48:00.508548  9395 net.cpp:425] scale_conv4_1b <- conv4_1b
I0412 22:48:00.508555  9395 net.cpp:386] scale_conv4_1b -> conv4_1b (in-place)
I0412 22:48:00.508623  9395 layer_factory.hpp:77] Creating layer scale_conv4_1b
I0412 22:48:00.508806  9395 net.cpp:141] Setting up scale_conv4_1b
I0412 22:48:00.508818  9395 net.cpp:148] Top shape: 100 64 8 8 (409600)
I0412 22:48:00.508824  9395 net.cpp:156] Memory required for data: 361678000
I0412 22:48:00.508833  9395 layer_factory.hpp:77] Creating layer conv4_1_relu
I0412 22:48:00.508851  9395 net.cpp:91] Creating Layer conv4_1_relu
I0412 22:48:00.508857  9395 net.cpp:425] conv4_1_relu <- conv4_1b
I0412 22:48:00.508865  9395 net.cpp:386] conv4_1_relu -> conv4_1b (in-place)
I0412 22:48:00.509261  9395 net.cpp:141] Setting up conv4_1_relu
I0412 22:48:00.509281  9395 net.cpp:148] Top shape: 100 64 8 8 (409600)
I0412 22:48:00.509287  9395 net.cpp:156] Memory required for data: 363316400
I0412 22:48:00.509294  9395 layer_factory.hpp:77] Creating layer conv4_2a
I0412 22:48:00.509310  9395 net.cpp:91] Creating Layer conv4_2a
I0412 22:48:00.509317  9395 net.cpp:425] conv4_2a <- conv4_1b
I0412 22:48:00.509330  9395 net.cpp:399] conv4_2a -> conv4_2a
I0412 22:48:00.513947  9395 net.cpp:141] Setting up conv4_2a
I0412 22:48:00.513969  9395 net.cpp:148] Top shape: 100 64 8 8 (409600)
I0412 22:48:00.513977  9395 net.cpp:156] Memory required for data: 364954800
I0412 22:48:00.513988  9395 layer_factory.hpp:77] Creating layer bn_conv4_2a
I0412 22:48:00.513999  9395 net.cpp:91] Creating Layer bn_conv4_2a
I0412 22:48:00.514008  9395 net.cpp:425] bn_conv4_2a <- conv4_2a
I0412 22:48:00.514019  9395 net.cpp:386] bn_conv4_2a -> conv4_2a (in-place)
I0412 22:48:00.514330  9395 net.cpp:141] Setting up bn_conv4_2a
I0412 22:48:00.514343  9395 net.cpp:148] Top shape: 100 64 8 8 (409600)
I0412 22:48:00.514348  9395 net.cpp:156] Memory required for data: 366593200
I0412 22:48:00.514366  9395 layer_factory.hpp:77] Creating layer scale_conv4_2a
I0412 22:48:00.514382  9395 net.cpp:91] Creating Layer scale_conv4_2a
I0412 22:48:00.514389  9395 net.cpp:425] scale_conv4_2a <- conv4_2a
I0412 22:48:00.514397  9395 net.cpp:386] scale_conv4_2a -> conv4_2a (in-place)
I0412 22:48:00.514467  9395 layer_factory.hpp:77] Creating layer scale_conv4_2a
I0412 22:48:00.514659  9395 net.cpp:141] Setting up scale_conv4_2a
I0412 22:48:00.514672  9395 net.cpp:148] Top shape: 100 64 8 8 (409600)
I0412 22:48:00.514678  9395 net.cpp:156] Memory required for data: 368231600
I0412 22:48:00.514688  9395 layer_factory.hpp:77] Creating layer conv4_1
I0412 22:48:00.514703  9395 net.cpp:91] Creating Layer conv4_1
I0412 22:48:00.514709  9395 net.cpp:425] conv4_1 <- conv3_sub
I0412 22:48:00.514716  9395 net.cpp:425] conv4_1 <- conv4_2a
I0412 22:48:00.514727  9395 net.cpp:399] conv4_1 -> conv4_1
I0412 22:48:00.514770  9395 net.cpp:141] Setting up conv4_1
I0412 22:48:00.514780  9395 net.cpp:148] Top shape: 100 64 8 8 (409600)
I0412 22:48:00.514786  9395 net.cpp:156] Memory required for data: 369870000
I0412 22:48:00.514792  9395 layer_factory.hpp:77] Creating layer conv4_2a_relu
I0412 22:48:00.514808  9395 net.cpp:91] Creating Layer conv4_2a_relu
I0412 22:48:00.514816  9395 net.cpp:425] conv4_2a_relu <- conv4_1
I0412 22:48:00.514822  9395 net.cpp:386] conv4_2a_relu -> conv4_1 (in-place)
I0412 22:48:00.515069  9395 net.cpp:141] Setting up conv4_2a_relu
I0412 22:48:00.515084  9395 net.cpp:148] Top shape: 100 64 8 8 (409600)
I0412 22:48:00.515090  9395 net.cpp:156] Memory required for data: 371508400
I0412 22:48:00.515096  9395 layer_factory.hpp:77] Creating layer conv4_1_conv4_2a_relu_0_split
I0412 22:48:00.515111  9395 net.cpp:91] Creating Layer conv4_1_conv4_2a_relu_0_split
I0412 22:48:00.515118  9395 net.cpp:425] conv4_1_conv4_2a_relu_0_split <- conv4_1
I0412 22:48:00.515136  9395 net.cpp:399] conv4_1_conv4_2a_relu_0_split -> conv4_1_conv4_2a_relu_0_split_0
I0412 22:48:00.515147  9395 net.cpp:399] conv4_1_conv4_2a_relu_0_split -> conv4_1_conv4_2a_relu_0_split_1
I0412 22:48:00.515214  9395 net.cpp:141] Setting up conv4_1_conv4_2a_relu_0_split
I0412 22:48:00.515224  9395 net.cpp:148] Top shape: 100 64 8 8 (409600)
I0412 22:48:00.515231  9395 net.cpp:148] Top shape: 100 64 8 8 (409600)
I0412 22:48:00.515238  9395 net.cpp:156] Memory required for data: 374785200
I0412 22:48:00.515244  9395 layer_factory.hpp:77] Creating layer conv4_2b
I0412 22:48:00.515270  9395 net.cpp:91] Creating Layer conv4_2b
I0412 22:48:00.515278  9395 net.cpp:425] conv4_2b <- conv4_1_conv4_2a_relu_0_split_0
I0412 22:48:00.515288  9395 net.cpp:399] conv4_2b -> conv4_2b
I0412 22:48:00.519666  9395 net.cpp:141] Setting up conv4_2b
I0412 22:48:00.519688  9395 net.cpp:148] Top shape: 100 64 8 8 (409600)
I0412 22:48:00.519695  9395 net.cpp:156] Memory required for data: 376423600
I0412 22:48:00.519706  9395 layer_factory.hpp:77] Creating layer bn_conv4_2b
I0412 22:48:00.519723  9395 net.cpp:91] Creating Layer bn_conv4_2b
I0412 22:48:00.519731  9395 net.cpp:425] bn_conv4_2b <- conv4_2b
I0412 22:48:00.519742  9395 net.cpp:386] bn_conv4_2b -> conv4_2b (in-place)
I0412 22:48:00.520046  9395 net.cpp:141] Setting up bn_conv4_2b
I0412 22:48:00.520057  9395 net.cpp:148] Top shape: 100 64 8 8 (409600)
I0412 22:48:00.520063  9395 net.cpp:156] Memory required for data: 378062000
I0412 22:48:00.520099  9395 layer_factory.hpp:77] Creating layer scale_conv4_2b
I0412 22:48:00.520112  9395 net.cpp:91] Creating Layer scale_conv4_2b
I0412 22:48:00.520118  9395 net.cpp:425] scale_conv4_2b <- conv4_2b
I0412 22:48:00.520126  9395 net.cpp:386] scale_conv4_2b -> conv4_2b (in-place)
I0412 22:48:00.520195  9395 layer_factory.hpp:77] Creating layer scale_conv4_2b
I0412 22:48:00.520375  9395 net.cpp:141] Setting up scale_conv4_2b
I0412 22:48:00.520386  9395 net.cpp:148] Top shape: 100 64 8 8 (409600)
I0412 22:48:00.520392  9395 net.cpp:156] Memory required for data: 379700400
I0412 22:48:00.520407  9395 layer_factory.hpp:77] Creating layer conv4_2_relu
I0412 22:48:00.520427  9395 net.cpp:91] Creating Layer conv4_2_relu
I0412 22:48:00.520434  9395 net.cpp:425] conv4_2_relu <- conv4_2b
I0412 22:48:00.520442  9395 net.cpp:386] conv4_2_relu -> conv4_2b (in-place)
I0412 22:48:00.520825  9395 net.cpp:141] Setting up conv4_2_relu
I0412 22:48:00.520843  9395 net.cpp:148] Top shape: 100 64 8 8 (409600)
I0412 22:48:00.520849  9395 net.cpp:156] Memory required for data: 381338800
I0412 22:48:00.520856  9395 layer_factory.hpp:77] Creating layer conv4_3a
I0412 22:48:00.520874  9395 net.cpp:91] Creating Layer conv4_3a
I0412 22:48:00.520881  9395 net.cpp:425] conv4_3a <- conv4_2b
I0412 22:48:00.520891  9395 net.cpp:399] conv4_3a -> conv4_3a
I0412 22:48:00.525310  9395 net.cpp:141] Setting up conv4_3a
I0412 22:48:00.525329  9395 net.cpp:148] Top shape: 100 64 8 8 (409600)
I0412 22:48:00.525336  9395 net.cpp:156] Memory required for data: 382977200
I0412 22:48:00.525346  9395 layer_factory.hpp:77] Creating layer bn_conv4_3a
I0412 22:48:00.525369  9395 net.cpp:91] Creating Layer bn_conv4_3a
I0412 22:48:00.525377  9395 net.cpp:425] bn_conv4_3a <- conv4_3a
I0412 22:48:00.525388  9395 net.cpp:386] bn_conv4_3a -> conv4_3a (in-place)
I0412 22:48:00.525696  9395 net.cpp:141] Setting up bn_conv4_3a
I0412 22:48:00.525707  9395 net.cpp:148] Top shape: 100 64 8 8 (409600)
I0412 22:48:00.525712  9395 net.cpp:156] Memory required for data: 384615600
I0412 22:48:00.525723  9395 layer_factory.hpp:77] Creating layer scale_conv4_3a
I0412 22:48:00.525734  9395 net.cpp:91] Creating Layer scale_conv4_3a
I0412 22:48:00.525741  9395 net.cpp:425] scale_conv4_3a <- conv4_3a
I0412 22:48:00.525749  9395 net.cpp:386] scale_conv4_3a -> conv4_3a (in-place)
I0412 22:48:00.525815  9395 layer_factory.hpp:77] Creating layer scale_conv4_3a
I0412 22:48:00.525993  9395 net.cpp:141] Setting up scale_conv4_3a
I0412 22:48:00.526005  9395 net.cpp:148] Top shape: 100 64 8 8 (409600)
I0412 22:48:00.526010  9395 net.cpp:156] Memory required for data: 386254000
I0412 22:48:00.526024  9395 layer_factory.hpp:77] Creating layer conv4_3a_relu
I0412 22:48:00.526039  9395 net.cpp:91] Creating Layer conv4_3a_relu
I0412 22:48:00.526046  9395 net.cpp:425] conv4_3a_relu <- conv4_3a
I0412 22:48:00.526057  9395 net.cpp:386] conv4_3a_relu -> conv4_3a (in-place)
I0412 22:48:00.526438  9395 net.cpp:141] Setting up conv4_3a_relu
I0412 22:48:00.526456  9395 net.cpp:148] Top shape: 100 64 8 8 (409600)
I0412 22:48:00.526463  9395 net.cpp:156] Memory required for data: 387892400
I0412 22:48:00.526469  9395 layer_factory.hpp:77] Creating layer conv4_3b
I0412 22:48:00.526491  9395 net.cpp:91] Creating Layer conv4_3b
I0412 22:48:00.526499  9395 net.cpp:425] conv4_3b <- conv4_3a
I0412 22:48:00.526510  9395 net.cpp:399] conv4_3b -> conv4_3b
I0412 22:48:00.530943  9395 net.cpp:141] Setting up conv4_3b
I0412 22:48:00.530963  9395 net.cpp:148] Top shape: 100 64 8 8 (409600)
I0412 22:48:00.530969  9395 net.cpp:156] Memory required for data: 389530800
I0412 22:48:00.530979  9395 layer_factory.hpp:77] Creating layer bn_conv4_3b
I0412 22:48:00.530997  9395 net.cpp:91] Creating Layer bn_conv4_3b
I0412 22:48:00.531004  9395 net.cpp:425] bn_conv4_3b <- conv4_3b
I0412 22:48:00.531013  9395 net.cpp:386] bn_conv4_3b -> conv4_3b (in-place)
I0412 22:48:00.531309  9395 net.cpp:141] Setting up bn_conv4_3b
I0412 22:48:00.531319  9395 net.cpp:148] Top shape: 100 64 8 8 (409600)
I0412 22:48:00.531325  9395 net.cpp:156] Memory required for data: 391169200
I0412 22:48:00.531335  9395 layer_factory.hpp:77] Creating layer scale_conv4_3b
I0412 22:48:00.531347  9395 net.cpp:91] Creating Layer scale_conv4_3b
I0412 22:48:00.531352  9395 net.cpp:425] scale_conv4_3b <- conv4_3b
I0412 22:48:00.531360  9395 net.cpp:386] scale_conv4_3b -> conv4_3b (in-place)
I0412 22:48:00.531422  9395 layer_factory.hpp:77] Creating layer scale_conv4_3b
I0412 22:48:00.531596  9395 net.cpp:141] Setting up scale_conv4_3b
I0412 22:48:00.531607  9395 net.cpp:148] Top shape: 100 64 8 8 (409600)
I0412 22:48:00.531612  9395 net.cpp:156] Memory required for data: 392807600
I0412 22:48:00.531621  9395 layer_factory.hpp:77] Creating layer conv4_3
I0412 22:48:00.531631  9395 net.cpp:91] Creating Layer conv4_3
I0412 22:48:00.531637  9395 net.cpp:425] conv4_3 <- conv4_1_conv4_2a_relu_0_split_1
I0412 22:48:00.531644  9395 net.cpp:425] conv4_3 <- conv4_3b
I0412 22:48:00.531652  9395 net.cpp:399] conv4_3 -> conv4_3
I0412 22:48:00.531695  9395 net.cpp:141] Setting up conv4_3
I0412 22:48:00.531705  9395 net.cpp:148] Top shape: 100 64 8 8 (409600)
I0412 22:48:00.531710  9395 net.cpp:156] Memory required for data: 394446000
I0412 22:48:00.531716  9395 layer_factory.hpp:77] Creating layer conv4_3_relu
I0412 22:48:00.531724  9395 net.cpp:91] Creating Layer conv4_3_relu
I0412 22:48:00.531729  9395 net.cpp:425] conv4_3_relu <- conv4_3
I0412 22:48:00.531739  9395 net.cpp:386] conv4_3_relu -> conv4_3 (in-place)
I0412 22:48:00.531963  9395 net.cpp:141] Setting up conv4_3_relu
I0412 22:48:00.531976  9395 net.cpp:148] Top shape: 100 64 8 8 (409600)
I0412 22:48:00.531982  9395 net.cpp:156] Memory required for data: 396084400
I0412 22:48:00.531988  9395 layer_factory.hpp:77] Creating layer global_pool
I0412 22:48:00.531997  9395 net.cpp:91] Creating Layer global_pool
I0412 22:48:00.532003  9395 net.cpp:425] global_pool <- conv4_3
I0412 22:48:00.532013  9395 net.cpp:399] global_pool -> global_pool
I0412 22:48:00.533128  9395 net.cpp:141] Setting up global_pool
I0412 22:48:00.533146  9395 net.cpp:148] Top shape: 100 64 1 1 (6400)
I0412 22:48:00.533152  9395 net.cpp:156] Memory required for data: 396110000
I0412 22:48:00.533159  9395 layer_factory.hpp:77] Creating layer ip
I0412 22:48:00.533170  9395 net.cpp:91] Creating Layer ip
I0412 22:48:00.533177  9395 net.cpp:425] ip <- global_pool
I0412 22:48:00.533185  9395 net.cpp:399] ip -> ip
I0412 22:48:00.533447  9395 net.cpp:141] Setting up ip
I0412 22:48:00.533458  9395 net.cpp:148] Top shape: 100 10 (1000)
I0412 22:48:00.533464  9395 net.cpp:156] Memory required for data: 396114000
I0412 22:48:00.533479  9395 layer_factory.hpp:77] Creating layer ip_ip_0_split
I0412 22:48:00.533488  9395 net.cpp:91] Creating Layer ip_ip_0_split
I0412 22:48:00.533493  9395 net.cpp:425] ip_ip_0_split <- ip
I0412 22:48:00.533501  9395 net.cpp:399] ip_ip_0_split -> ip_ip_0_split_0
I0412 22:48:00.533514  9395 net.cpp:399] ip_ip_0_split -> ip_ip_0_split_1
I0412 22:48:00.533573  9395 net.cpp:141] Setting up ip_ip_0_split
I0412 22:48:00.533582  9395 net.cpp:148] Top shape: 100 10 (1000)
I0412 22:48:00.533589  9395 net.cpp:148] Top shape: 100 10 (1000)
I0412 22:48:00.533594  9395 net.cpp:156] Memory required for data: 396122000
I0412 22:48:00.533599  9395 layer_factory.hpp:77] Creating layer accuracy
I0412 22:48:00.533609  9395 net.cpp:91] Creating Layer accuracy
I0412 22:48:00.533615  9395 net.cpp:425] accuracy <- ip_ip_0_split_0
I0412 22:48:00.533622  9395 net.cpp:425] accuracy <- label_cifar_1_split_0
I0412 22:48:00.533630  9395 net.cpp:399] accuracy -> accuracy
…
