…
I0423 23:58:02.416497  4370 solver.cpp:91] Creating training net from net file: prototxt/ResNet-cifar.prototxt
I0423 23:58:02.419242  4370 net.cpp:313] The NetState phase (0) differed from the phase (1) specified by a rule in layer cifar
I0423 23:58:02.419939  4370 net.cpp:49] Initializing net from parameters: 
name: "ResNet-cifar"
state {
  phase: TRAIN
}
layer {
  name: "cifar"
  type: "Data"
  top: "data"
  top: "label"
  include {
    phase: TRAIN
  }
  transform_param {
    mirror: true
    mean_file: "data/cifar10/mean.binaryproto"
  }
  data_param {
    source: "data/cifar10/cifar10_train_lmdb"
    batch_size: 256
    backend: LMDB
  }
}
layer {
  name: "conv1"
  type: "Convolution"
  bottom: "data"
  top: "conv1"
  param {
    lr_mult: 1
  }
  param {
    lr_mult: 2
  }
  convolution_param {
    num_output: 16
    pad: 1
    kernel_size: 3
    weight_filler {
      type: "msra"
    }
    bias_filler {
      type: "constant"
    }
  }
}
layer {
  name: "bn_conv1"
  type: "BatchNorm"
  bottom: "conv1"
  top: "conv1"
  param {
    lr_mult: 0
  }
  param {
    lr_mult: 0
  }
  param {
    lr_mult: 0
  }
}
layer {
  name: "scale_conv1"
  type: "Scale"
  bottom: "conv1"
  top: "conv1"
  scale_param {
    bias_term: true
  }
}
layer {
  name: "conv1_relu"
  type: "ReLU"
  bottom: "conv1"
  top: "conv1"
}
layer {
  name: "conv1_sub2"
  type: "Convolution"
  bottom: "conv1"
  top: "conv1_sub2"
  param {
    lr_mult: 1
  }
  param {
    lr_mult: 2
  }
  convolution_param {
    num_output: 32
    kernel_size: 1
    stride: 2
    weight_filler {
      type: "msra"
    }
    bias_filler {
      type: "constant"
      value: 0
    }
  }
}
layer {
  name: "bn_conv1_sub2"
  type: "BatchNorm"
  bottom: "conv1_sub2"
  top: "conv1_sub2"
  param {
    lr_mult: 0
  }
  param {
    lr_mult: 0
  }
  param {
    lr_mult: 0
  }
}
layer {
  name: "scale_conv1_sub2"
  type: "Scale"
  bottom: "conv1_sub2"
  top: "conv1_sub2"
  scale_param {
    bias_term: true
  }
}
layer {
  name: "conv2_1a"
  type: "Convolution"
  bottom: "conv1"
  top: "conv2_1a"
  param {
    lr_mult: 1
  }
  param {
    lr_mult: 2
  }
  convolution_param {
    num_output: 16
    pad: 1
    kernel_size: 3
    stride: 1
    weight_filler {
      type: "msra"
    }
    bias_filler {
      type: "constant"
      value: 0
    }
  }
}
layer {
  name: "bn_conv2_1a"
  type: "BatchNorm"
  bottom: "conv2_1a"
  top: "conv2_1a"
  param {
    lr_mult: 0
  }
  param {
    lr_mult: 0
  }
  param {
    lr_mult: 0
  }
}
layer {
  name: "scale_conv2_1a"
  type: "Scale"
  bottom: "conv2_1a"
  top: "conv2_1a"
  scale_param {
    bias_term: true
  }
}
layer {
  name: "conv2_1a_relu"
  type: "ReLU"
  bottom: "conv2_1a"
  top: "conv2_1a"
}
layer {
  name: "conv2_1b"
  type: "Convolution"
  bottom: "conv2_1a"
  top: "conv2_1b"
  param {
    lr_mult: 1
  }
  param {
    lr_mult: 2
  }
  convolution_param {
    num_output: 16
    pad: 1
    kernel_size: 3
    stride: 1
    weight_filler {
      type: "msra"
    }
    bias_filler {
      type: "constant"
      value: 0
    }
  }
}
layer {
  name: "bn_conv2_1b"
  type: "BatchNorm"
  bottom: "conv2_1b"
  top: "conv2_1b"
  param {
    lr_mult: 0
  }
  param {
    lr_mult: 0
  }
  param {
    lr_mult: 0
  }
}
layer {
  name: "scale_conv2_1b"
  type: "Scale"
  bottom: "conv2_1b"
  top: "conv2_1b"
  scale_param {
    bias_term: true
  }
}
layer {
  name: "conv2_1"
  type: "Eltwise"
  bottom: "conv2_1b"
  bottom: "conv1"
  top: "conv2_1"
}
layer {
  name: "conv2_1_relu"
  type: "ReLU"
  bottom: "conv2_1"
  top: "conv2_1"
}
layer {
  name: "conv2_2a"
  type: "Convolution"
  bottom: "conv2_1"
  top: "conv2_2a"
  param {
    lr_mult: 1
  }
  param {
    lr_mult: 2
  }
  convolution_param {
    num_output: 16
    pad: 1
    kernel_size: 3
    stride: 1
    weight_filler {
      type: "msra"
    }
    bias_filler {
      type: "constant"
      value: 0
    }
  }
}
layer {
  name: "bn_conv2_2a"
  type: "BatchNorm"
  bottom: "conv2_2a"
  top: "conv2_2a"
  param {
    lr_mult: 0
  }
  param {
    lr_mult: 0
  }
  param {
    lr_mult: 0
  }
}
layer {
  name: "scale_conv2_2a"
  type: "Scale"
  bottom: "conv2_2a"
  top: "conv2_2a"
  scale_param {
    bias_term: true
  }
}
layer {
  name: "conv2_2a_relu"
  type: "ReLU"
  bottom: "conv2_2a"
  top: "conv2_2a"
}
layer {
  name: "conv2_2b"
  type: "Convolution"
  bottom: "conv2_2a"
  top: "conv2_2b"
  param {
    lr_mult: 1
  }
  param {
    lr_mult: 2
  }
  convolution_param {
    num_output: 16
    pad: 1
    kernel_size: 3
    stride: 1
    weight_filler {
      type: "msra"
    }
    bias_filler {
      type: "constant"
      value: 0
    }
  }
}
layer {
  name: "bn_conv2_2b"
  type: "BatchNorm"
  bottom: "conv2_2b"
  top: "conv2_2b"
  param {
    lr_mult: 0
  }
  param {
    lr_mult: 0
  }
  param {
    lr_mult: 0
  }
}
layer {
  name: "scale_conv2_2b"
  type: "Scale"
  bottom: "conv2_2b"
  top: "conv2_2b"
  scale_param {
    bias_term: true
  }
}
layer {
  name: "conv2_2"
  type: "Eltwise"
  bottom: "conv2_2b"
  bottom: "conv2_1"
  top: "conv2_2"
}
layer {
  name: "conv2_2_relu"
  type: "ReLU"
  bottom: "conv2_2"
  top: "conv2_2"
}
layer {
  name: "conv2_3a"
  type: "Convolution"
  bottom: "conv2_2"
  top: "conv2_3a"
  param {
    lr_mult: 1
  }
  param {
    lr_mult: 2
  }
  convolution_param {
    num_output: 16
    pad: 1
    kernel_size: 3
    stride: 1
    weight_filler {
      type: "msra"
    }
    bias_filler {
      type: "constant"
      value: 0
    }
  }
}
layer {
  name: "bn_conv2_3a"
  type: "BatchNorm"
  bottom: "conv2_3a"
  top: "conv2_3a"
  param {
    lr_mult: 0
  }
  param {
    lr_mult: 0
  }
  param {
    lr_mult: 0
  }
}
layer {
  name: "scale_conv2_3a"
  type: "Scale"
  bottom: "conv2_3a"
  top: "conv2_3a"
  scale_param {
    bias_term: true
  }
}
layer {
  name: "conv2_3a_relu"
  type: "ReLU"
  bottom: "conv2_3a"
  top: "conv2_3a"
}
layer {
  name: "conv2_3b"
  type: "Convolution"
  bottom: "conv2_3a"
  top: "conv2_3b"
  param {
    lr_mult: 1
  }
  param {
    lr_mult: 2
  }
  convolution_param {
    num_output: 16
    pad: 1
    kernel_size: 3
    stride: 1
    weight_filler {
      type: "msra"
    }
    bias_filler {
      type: "constant"
      value: 0
    }
  }
}
layer {
  name: "bn_conv2_3b"
  type: "BatchNorm"
  bottom: "conv2_3b"
  top: "conv2_3b"
  param {
    lr_mult: 0
  }
  param {
    lr_mult: 0
  }
  param {
    lr_mult: 0
  }
}
layer {
  name: "scale_conv2_3b"
  type: "Scale"
  bottom: "conv2_3b"
  top: "conv2_3b"
  scale_param {
    bias_term: true
  }
}
layer {
  name: "conv2_3"
  type: "Eltwise"
  bottom: "conv2_3b"
  bottom: "conv2_2"
  top: "conv2_3"
}
layer {
  name: "conv2_3_relu"
  type: "ReLU"
  bottom: "conv2_3"
  top: "conv2_3"
}
layer {
  name: "conv2_sub"
  type: "Convolution"
  bottom: "conv2_3"
  top: "conv2_sub"
  param {
    lr_mult: 1
  }
  param {
    lr_mult: 2
  }
  convolution_param {
    num_output: 32
    kernel_size: 1
    stride: 2
    weight_filler {
      type: "msra"
    }
    bias_filler {
      type: "constant"
      value: 0
    }
  }
}
layer {
  name: "bn_conv2_sub"
  type: "BatchNorm"
  bottom: "conv2_sub"
  top: "conv2_sub"
  param {
    lr_mult: 0
  }
  param {
    lr_mult: 0
  }
  param {
    lr_mult: 0
  }
}
layer {
  name: "scale_conv2_sub"
  type: "Scale"
  bottom: "conv2_sub"
  top: "conv2_sub"
  scale_param {
    bias_term: true
  }
}
layer {
  name: "conv2_sub2"
  type: "Convolution"
  bottom: "conv2_3"
  top: "conv2_sub2"
  param {
    lr_mult: 1
  }
  param {
    lr_mult: 2
  }
  convolution_param {
    num_output: 64
    kernel_size: 1
    stride: 4
    weight_filler {
      type: "msra"
    }
    bias_filler {
      type: "constant"
      value: 0
    }
  }
}
layer {
  name: "bn_conv2_sub2"
  type: "BatchNorm"
  bottom: "conv2_sub2"
  top: "conv2_sub2"
  param {
    lr_mult: 0
  }
  param {
    lr_mult: 0
  }
  param {
    lr_mult: 0
  }
}
layer {
  name: "scale_conv2_sub2"
  type: "Scale"
  bottom: "conv2_sub2"
  top: "conv2_sub2"
  scale_param {
    bias_term: true
  }
}
layer {
  name: "conv3_1a"
  type: "Convolution"
  bottom: "conv2_3"
  top: "conv3_1a"
  param {
    lr_mult: 1
  }
  param {
    lr_mult: 2
  }
  convolution_param {
    num_output: 32
    pad: 0
    kernel_size: 1
    stride: 2
    weight_filler {
      type: "msra"
    }
    bias_filler {
      type: "constant"
      value: 0
    }
  }
}
layer {
  name: "bn_conv3_1a"
  type: "BatchNorm"
  bottom: "conv3_1a"
  top: "conv3_1a"
  param {
    lr_mult: 0
  }
  param {
    lr_mult: 0
  }
  param {
    lr_mult: 0
  }
}
layer {
  name: "scale_conv3_1a"
  type: "Scale"
  bottom: "conv3_1a"
  top: "conv3_1a"
  scale_param {
    bias_term: true
  }
}
layer {
  name: "conv3_1a_relu"
  type: "ReLU"
  bottom: "conv3_1a"
  top: "conv3_1a"
}
layer {
  name: "conv3_1b"
  type: "Convolution"
  bottom: "conv3_1a"
  top: "conv3_1b"
  param {
    lr_mult: 1
  }
  param {
    lr_mult: 2
  }
  convolution_param {
    num_output: 32
    pad: 1
    kernel_size: 3
    stride: 1
    weight_filler {
      type: "msra"
    }
    bias_filler {
      type: "constant"
      value: 0
    }
  }
}
layer {
  name: "bn_conv3_1b"
  type: "BatchNorm"
  bottom: "conv3_1b"
  top: "conv3_1b"
  param {
    lr_mult: 0
  }
  param {
    lr_mult: 0
  }
  param {
    lr_mult: 0
  }
}
layer {
  name: "scale_conv3_1b"
  type: "Scale"
  bottom: "conv3_1b"
  top: "conv3_1b"
  scale_param {
    bias_term: true
  }
}
layer {
  name: "conv3_1"
  type: "Eltwise"
  bottom: "conv3_1b"
  bottom: "conv1_sub2"
  bottom: "conv2_sub"
  top: "conv3_1"
}
layer {
  name: "conv3_1_relu"
  type: "ReLU"
  bottom: "conv3_1"
  top: "conv3_1"
}
layer {
  name: "conv3_2a"
  type: "Convolution"
  bottom: "conv3_1"
  top: "conv3_2a"
  param {
    lr_mult: 1
  }
  param {
    lr_mult: 2
  }
  convolution_param {
    num_output: 32
    pad: 1
    kernel_size: 3
    stride: 1
    weight_filler {
      type: "msra"
    }
    bias_filler {
      type: "constant"
      value: 0
    }
  }
}
layer {
  name: "bn_conv3_2a"
  type: "BatchNorm"
  bottom: "conv3_2a"
  top: "conv3_2a"
  param {
    lr_mult: 0
  }
  param {
    lr_mult: 0
  }
  param {
    lr_mult: 0
  }
}
layer {
  name: "scale_conv3_2a"
  type: "Scale"
  bottom: "conv3_2a"
  top: "conv3_2a"
  scale_param {
    bias_term: true
  }
}
layer {
  name: "conv3_2a_relu"
  type: "ReLU"
  bottom: "conv3_2a"
  top: "conv3_2a"
}
layer {
  name: "conv3_2b"
  type: "Convolution"
  bottom: "conv3_2a"
  top: "conv3_2b"
  param {
    lr_mult: 1
  }
  param {
    lr_mult: 2
  }
  convolution_param {
    num_output: 32
    pad: 1
    kernel_size: 3
    stride: 1
    weight_filler {
      type: "msra"
    }
    bias_filler {
      type: "constant"
      value: 0
    }
  }
}
layer {
  name: "bn_conv3_2b"
  type: "BatchNorm"
  bottom: "conv3_2b"
  top: "conv3_2b"
  param {
    lr_mult: 0
  }
  param {
    lr_mult: 0
  }
  param {
    lr_mult: 0
  }
}
layer {
  name: "scale_conv3_2b"
  type: "Scale"
  bottom: "conv3_2b"
  top: "conv3_2b"
  scale_param {
    bias_term: true
  }
}
layer {
  name: "conv3_2"
  type: "Eltwise"
  bottom: "conv3_2b"
  bottom: "conv3_1"
  top: "conv3_2"
}
layer {
  name: "conv3_2_relu"
  type: "ReLU"
  bottom: "conv3_2"
  top: "conv3_2"
}
layer {
  name: "conv3_3a"
  type: "Convolution"
  bottom: "conv3_2"
  top: "conv3_3a"
  param {
    lr_mult: 1
  }
  param {
    lr_mult: 2
  }
  convolution_param {
    num_output: 32
    pad: 1
    kernel_size: 3
    stride: 1
    weight_filler {
      type: "msra"
    }
    bias_filler {
      type: "constant"
      value: 0
    }
  }
}
layer {
  name: "bn_conv3_3a"
  type: "BatchNorm"
  bottom: "conv3_3a"
  top: "conv3_3a"
  param {
    lr_mult: 0
  }
  param {
    lr_mult: 0
  }
  param {
    lr_mult: 0
  }
}
layer {
  name: "scale_conv3_3a"
  type: "Scale"
  bottom: "conv3_3a"
  top: "conv3_3a"
  scale_param {
    bias_term: true
  }
}
layer {
  name: "conv3_3a_relu"
  type: "ReLU"
  bottom: "conv3_3a"
  top: "conv3_3a"
}
layer {
  name: "conv3_3b"
  type: "Convolution"
  bottom: "conv3_3a"
  top: "conv3_3b"
  param {
    lr_mult: 1
  }
  param {
    lr_mult: 2
  }
  convolution_param {
    num_output: 32
    pad: 1
    kernel_size: 3
    stride: 1
    weight_filler {
      type: "msra"
    }
    bias_filler {
      type: "constant"
      value: 0
    }
  }
}
layer {
  name: "bn_conv3_3b"
  type: "BatchNorm"
  bottom: "conv3_3b"
  top: "conv3_3b"
  param {
    lr_mult: 0
  }
  param {
    lr_mult: 0
  }
  param {
    lr_mult: 0
  }
}
layer {
  name: "scale_conv3_3b"
  type: "Scale"
  bottom: "conv3_3b"
  top: "conv3_3b"
  scale_param {
    bias_term: true
  }
}
layer {
  name: "conv3_3"
  type: "Eltwise"
  bottom: "conv3_3b"
  bottom: "conv3_2"
  top: "conv3_3"
}
layer {
  name: "conv3_3_relu"
  type: "ReLU"
  bottom: "conv3_3"
  top: "conv3_3"
}
layer {
  name: "conv3_sub"
  type: "Convolution"
  bottom: "conv3_3"
  top: "conv3_sub"
  param {
    lr_mult: 1
  }
  param {
    lr_mult: 2
  }
  convolution_param {
    num_output: 64
    kernel_size: 1
    stride: 2
    weight_filler {
      type: "msra"
    }
    bias_filler {
      type: "constant"
      value: 0
    }
  }
}
layer {
  name: "bn_conv3_sub"
  type: "BatchNorm"
  bottom: "conv3_sub"
  top: "conv3_sub"
  param {
    lr_mult: 0
  }
  param {
    lr_mult: 0
  }
  param {
    lr_mult: 0
  }
}
layer {
  name: "scale_conv3_sub"
  type: "Scale"
  bottom: "conv3_sub"
  top: "conv3_sub"
  scale_param {
    bias_term: true
  }
}
layer {
  name: "conv4_1a"
  type: "Convolution"
  bottom: "conv3_3"
  top: "conv4_1a"
  param {
    lr_mult: 1
  }
  param {
    lr_mult: 2
  }
  convolution_param {
    num_output: 64
    pad: 0
    kernel_size: 1
    stride: 2
    weight_filler {
      type: "msra"
    }
    bias_filler {
      type: "constant"
      value: 0
    }
  }
}
layer {
  name: "bn_conv4_1a"
  type: "BatchNorm"
  bottom: "conv4_1a"
  top: "conv4_1a"
  param {
    lr_mult: 0
  }
  param {
    lr_mult: 0
  }
  param {
    lr_mult: 0
  }
}
layer {
  name: "scale_conv4_1a"
  type: "Scale"
  bottom: "conv4_1a"
  top: "conv4_1a"
  scale_param {
    bias_term: true
  }
}
layer {
  name: "conv4_1a_relu"
  type: "ReLU"
  bottom: "conv4_1a"
  top: "conv4_1a"
}
layer {
  name: "conv4_1b"
  type: "Convolution"
  bottom: "conv4_1a"
  top: "conv4_1b"
  param {
    lr_mult: 1
  }
  param {
    lr_mult: 2
  }
  convolution_param {
    num_output: 64
    pad: 1
    kernel_size: 3
    stride: 1
    weight_filler {
      type: "msra"
    }
    bias_filler {
      type: "constant"
      value: 0
    }
  }
}
layer {
  name: "bn_conv4_1b"
  type: "BatchNorm"
  bottom: "conv4_1b"
  top: "conv4_1b"
  param {
    lr_mult: 0
  }
  param {
    lr_mult: 0
  }
  param {
    lr_mult: 0
  }
}
layer {
  name: "scale_conv4_1b"
  type: "Scale"
  bottom: "conv4_1b"
  top: "conv4_1b"
  scale_param {
    bias_term: true
  }
}
layer {
  name: "conv4_1"
  type: "Eltwise"
  bottom: "conv2_sub2"
  bottom: "conv3_sub"
  bottom: "conv4_1b"
  top: "conv4_1"
}
layer {
  name: "conv4_1_relu"
  type: "ReLU"
  bottom: "conv4_1"
  top: "conv4_1"
}
layer {
  name: "conv4_2a"
  type: "Convolution"
  bottom: "conv4_1"
  top: "conv4_2a"
  param {
    lr_mult: 1
  }
  param {
    lr_mult: 2
  }
  convolution_param {
    num_output: 64
    pad: 1
    kernel_size: 3
    stride: 1
    weight_filler {
      type: "msra"
    }
    bias_filler {
      type: "constant"
      value: 0
    }
  }
}
layer {
  name: "bn_conv4_2a"
  type: "BatchNorm"
  bottom: "conv4_2a"
  top: "conv4_2a"
  param {
    lr_mult: 0
  }
  param {
    lr_mult: 0
  }
  param {
    lr_mult: 0
  }
}
layer {
  name: "scale_conv4_2a"
  type: "Scale"
  bottom: "conv4_2a"
  top: "conv4_2a"
  scale_param {
    bias_term: true
  }
}
layer {
  name: "conv4_2a_relu"
  type: "ReLU"
  bottom: "conv4_2a"
  top: "conv4_2a"
}
layer {
  name: "conv4_2b"
  type: "Convolution"
  bottom: "conv4_2a"
  top: "conv4_2b"
  param {
    lr_mult: 1
  }
  param {
    lr_mult: 2
  }
  convolution_param {
    num_output: 64
    pad: 1
    kernel_size: 3
    stride: 1
    weight_filler {
      type: "msra"
    }
    bias_filler {
      type: "constant"
      value: 0
    }
  }
}
layer {
  name: "bn_conv4_2b"
  type: "BatchNorm"
  bottom: "conv4_2b"
  top: "conv4_2b"
  param {
    lr_mult: 0
  }
  param {
    lr_mult: 0
  }
  param {
    lr_mult: 0
  }
}
layer {
  name: "scale_conv4_2b"
  type: "Scale"
  bottom: "conv4_2b"
  top: "conv4_2b"
  scale_param {
    bias_term: true
  }
}
layer {
  name: "conv4_2"
  type: "Eltwise"
  bottom: "conv4_1"
  bottom: "conv4_2b"
  top: "conv4_2"
}
layer {
  name: "conv4_2_relu"
  type: "ReLU"
  bottom: "conv4_2"
  top: "conv4_2"
}
layer {
  name: "conv4_3a"
  type: "Convolution"
  bottom: "conv4_2"
  top: "conv4_3a"
  param {
    lr_mult: 1
  }
  param {
    lr_mult: 2
  }
  convolution_param {
    num_output: 64
    pad: 1
    kernel_size: 3
    stride: 1
    weight_filler {
      type: "msra"
    }
    bias_filler {
      type: "constant"
      value: 0
    }
  }
}
layer {
  name: "bn_conv4_3a"
  type: "BatchNorm"
  bottom: "conv4_3a"
  top: "conv4_3a"
  param {
    lr_mult: 0
  }
  param {
    lr_mult: 0
  }
  param {
    lr_mult: 0
  }
}
layer {
  name: "scale_conv4_3a"
  type: "Scale"
  bottom: "conv4_3a"
  top: "conv4_3a"
  scale_param {
    bias_term: true
  }
}
layer {
  name: "conv4_3a_relu"
  type: "ReLU"
  bottom: "conv4_3a"
  top: "conv4_3a"
}
layer {
  name: "conv4_3b"
  type: "Convolution"
  bottom: "conv4_3a"
  top: "conv4_3b"
  param {
    lr_mult: 1
  }
  param {
    lr_mult: 2
  }
  convolution_param {
    num_output: 64
    pad: 1
    kernel_size: 3
    stride: 1
    weight_filler {
      type: "msra"
    }
    bias_filler {
      type: "constant"
      value: 0
    }
  }
}
layer {
  name: "bn_conv4_3b"
  type: "BatchNorm"
  bottom: "conv4_3b"
  top: "conv4_3b"
  param {
    lr_mult: 0
  }
  param {
    lr_mult: 0
  }
  param {
    lr_mult: 0
  }
}
layer {
  name: "scale_conv4_3b"
  type: "Scale"
  bottom: "conv4_3b"
  top: "conv4_3b"
  scale_param {
    bias_term: true
  }
}
layer {
  name: "conv4_3"
  type: "Eltwise"
  bottom: "conv4_2"
  bottom: "conv3_sub"
  bottom: "conv4_3b"
  top: "conv4_3"
}
layer {
  name: "conv4_3_relu"
  type: "ReLU"
  bottom: "conv4_3"
  top: "conv4_3"
}
layer {
  name: "global_pool"
  type: "Pooling"
  bottom: "conv4_3"
  top: "global_pool"
  pooling_param {
    pool: AVE
    kernel_size: 8
    stride: 8
  }
}
layer {
  name: "ip"
  type: "InnerProduct"
  bottom: "global_pool"
  top: "ip"
  inner_product_param {
    num_output: 10
  }
}
layer {
  name: "accuracy"
  type: "Accuracy"
  bottom: "ip"
  bottom: "label"
  top: "accuracy"
}
layer {
  name: "loss"
  type: "SoftmaxWithLoss"
  bottom: "ip"
  bottom: "label"
  top: "loss"
}
I0423 23:58:02.420492  4370 layer_factory.hpp:77] Creating layer cifar
I0423 23:58:02.421205  4370 net.cpp:91] Creating Layer cifar
I0423 23:58:02.421249  4370 net.cpp:399] cifar -> data
I0423 23:58:02.421270  4370 net.cpp:399] cifar -> label
I0423 23:58:02.421285  4370 data_transformer.cpp:25] Loading mean file from: data/cifar10/mean.binaryproto
I0423 23:58:02.422082  4395 db_lmdb.cpp:38] Opened lmdb data/cifar10/cifar10_train_lmdb
I0423 23:58:02.435575  4370 data_layer.cpp:41] output data size: 256,3,32,32
I0423 23:58:02.442394  4370 net.cpp:141] Setting up cifar
I0423 23:58:02.442427  4370 net.cpp:148] Top shape: 256 3 32 32 (786432)
I0423 23:58:02.442436  4370 net.cpp:148] Top shape: 256 (256)
I0423 23:58:02.442442  4370 net.cpp:156] Memory required for data: 3146752
I0423 23:58:02.442452  4370 layer_factory.hpp:77] Creating layer label_cifar_1_split
I0423 23:58:02.442477  4370 net.cpp:91] Creating Layer label_cifar_1_split
I0423 23:58:02.442486  4370 net.cpp:425] label_cifar_1_split <- label
I0423 23:58:02.442497  4370 net.cpp:399] label_cifar_1_split -> label_cifar_1_split_0
I0423 23:58:02.442512  4370 net.cpp:399] label_cifar_1_split -> label_cifar_1_split_1
I0423 23:58:02.442610  4370 net.cpp:141] Setting up label_cifar_1_split
I0423 23:58:02.442623  4370 net.cpp:148] Top shape: 256 (256)
I0423 23:58:02.442630  4370 net.cpp:148] Top shape: 256 (256)
I0423 23:58:02.442634  4370 net.cpp:156] Memory required for data: 3148800
I0423 23:58:02.442641  4370 layer_factory.hpp:77] Creating layer conv1
I0423 23:58:02.442662  4370 net.cpp:91] Creating Layer conv1
I0423 23:58:02.442668  4370 net.cpp:425] conv1 <- data
I0423 23:58:02.442678  4370 net.cpp:399] conv1 -> conv1
I0423 23:58:02.691105  4370 net.cpp:141] Setting up conv1
I0423 23:58:02.691153  4370 net.cpp:148] Top shape: 256 16 32 32 (4194304)
I0423 23:58:02.691159  4370 net.cpp:156] Memory required for data: 19926016
I0423 23:58:02.691184  4370 layer_factory.hpp:77] Creating layer bn_conv1
I0423 23:58:02.691200  4370 net.cpp:91] Creating Layer bn_conv1
I0423 23:58:02.691208  4370 net.cpp:425] bn_conv1 <- conv1
I0423 23:58:02.691218  4370 net.cpp:386] bn_conv1 -> conv1 (in-place)
I0423 23:58:02.691422  4370 net.cpp:141] Setting up bn_conv1
I0423 23:58:02.691436  4370 net.cpp:148] Top shape: 256 16 32 32 (4194304)
I0423 23:58:02.691440  4370 net.cpp:156] Memory required for data: 36703232
I0423 23:58:02.691457  4370 layer_factory.hpp:77] Creating layer scale_conv1
I0423 23:58:02.691470  4370 net.cpp:91] Creating Layer scale_conv1
I0423 23:58:02.691476  4370 net.cpp:425] scale_conv1 <- conv1
I0423 23:58:02.691484  4370 net.cpp:386] scale_conv1 -> conv1 (in-place)
I0423 23:58:02.691530  4370 layer_factory.hpp:77] Creating layer scale_conv1
I0423 23:58:02.691653  4370 net.cpp:141] Setting up scale_conv1
I0423 23:58:02.691664  4370 net.cpp:148] Top shape: 256 16 32 32 (4194304)
I0423 23:58:02.691669  4370 net.cpp:156] Memory required for data: 53480448
I0423 23:58:02.691679  4370 layer_factory.hpp:77] Creating layer conv1_relu
I0423 23:58:02.691689  4370 net.cpp:91] Creating Layer conv1_relu
I0423 23:58:02.691695  4370 net.cpp:425] conv1_relu <- conv1
I0423 23:58:02.691704  4370 net.cpp:386] conv1_relu -> conv1 (in-place)
I0423 23:58:02.692025  4370 net.cpp:141] Setting up conv1_relu
I0423 23:58:02.692044  4370 net.cpp:148] Top shape: 256 16 32 32 (4194304)
I0423 23:58:02.692049  4370 net.cpp:156] Memory required for data: 70257664
I0423 23:58:02.692055  4370 layer_factory.hpp:77] Creating layer conv1_conv1_relu_0_split
I0423 23:58:02.692065  4370 net.cpp:91] Creating Layer conv1_conv1_relu_0_split
I0423 23:58:02.692071  4370 net.cpp:425] conv1_conv1_relu_0_split <- conv1
I0423 23:58:02.692080  4370 net.cpp:399] conv1_conv1_relu_0_split -> conv1_conv1_relu_0_split_0
I0423 23:58:02.692091  4370 net.cpp:399] conv1_conv1_relu_0_split -> conv1_conv1_relu_0_split_1
I0423 23:58:02.692101  4370 net.cpp:399] conv1_conv1_relu_0_split -> conv1_conv1_relu_0_split_2
I0423 23:58:02.692167  4370 net.cpp:141] Setting up conv1_conv1_relu_0_split
I0423 23:58:02.692176  4370 net.cpp:148] Top shape: 256 16 32 32 (4194304)
I0423 23:58:02.692183  4370 net.cpp:148] Top shape: 256 16 32 32 (4194304)
I0423 23:58:02.692188  4370 net.cpp:148] Top shape: 256 16 32 32 (4194304)
I0423 23:58:02.692194  4370 net.cpp:156] Memory required for data: 120589312
I0423 23:58:02.692199  4370 layer_factory.hpp:77] Creating layer conv1_sub2
I0423 23:58:02.692214  4370 net.cpp:91] Creating Layer conv1_sub2
I0423 23:58:02.692221  4370 net.cpp:425] conv1_sub2 <- conv1_conv1_relu_0_split_0
I0423 23:58:02.692230  4370 net.cpp:399] conv1_sub2 -> conv1_sub2
I0423 23:58:02.693300  4370 net.cpp:141] Setting up conv1_sub2
I0423 23:58:02.693322  4370 net.cpp:148] Top shape: 256 32 16 16 (2097152)
I0423 23:58:02.693328  4370 net.cpp:156] Memory required for data: 128977920
I0423 23:58:02.693342  4370 layer_factory.hpp:77] Creating layer bn_conv1_sub2
I0423 23:58:02.693354  4370 net.cpp:91] Creating Layer bn_conv1_sub2
I0423 23:58:02.693361  4370 net.cpp:425] bn_conv1_sub2 <- conv1_sub2
I0423 23:58:02.693370  4370 net.cpp:386] bn_conv1_sub2 -> conv1_sub2 (in-place)
I0423 23:58:02.693565  4370 net.cpp:141] Setting up bn_conv1_sub2
I0423 23:58:02.693578  4370 net.cpp:148] Top shape: 256 32 16 16 (2097152)
I0423 23:58:02.693583  4370 net.cpp:156] Memory required for data: 137366528
I0423 23:58:02.693594  4370 layer_factory.hpp:77] Creating layer scale_conv1_sub2
I0423 23:58:02.693604  4370 net.cpp:91] Creating Layer scale_conv1_sub2
I0423 23:58:02.693610  4370 net.cpp:425] scale_conv1_sub2 <- conv1_sub2
I0423 23:58:02.693619  4370 net.cpp:386] scale_conv1_sub2 -> conv1_sub2 (in-place)
I0423 23:58:02.693660  4370 layer_factory.hpp:77] Creating layer scale_conv1_sub2
I0423 23:58:02.693776  4370 net.cpp:141] Setting up scale_conv1_sub2
I0423 23:58:02.693788  4370 net.cpp:148] Top shape: 256 32 16 16 (2097152)
I0423 23:58:02.693794  4370 net.cpp:156] Memory required for data: 145755136
I0423 23:58:02.693802  4370 layer_factory.hpp:77] Creating layer conv2_1a
I0423 23:58:02.693815  4370 net.cpp:91] Creating Layer conv2_1a
I0423 23:58:02.693821  4370 net.cpp:425] conv2_1a <- conv1_conv1_relu_0_split_1
I0423 23:58:02.693831  4370 net.cpp:399] conv2_1a -> conv2_1a
I0423 23:58:02.694963  4370 net.cpp:141] Setting up conv2_1a
I0423 23:58:02.694983  4370 net.cpp:148] Top shape: 256 16 32 32 (4194304)
I0423 23:58:02.694989  4370 net.cpp:156] Memory required for data: 162532352
I0423 23:58:02.694999  4370 layer_factory.hpp:77] Creating layer bn_conv2_1a
I0423 23:58:02.695013  4370 net.cpp:91] Creating Layer bn_conv2_1a
I0423 23:58:02.695019  4370 net.cpp:425] bn_conv2_1a <- conv2_1a
I0423 23:58:02.695029  4370 net.cpp:386] bn_conv2_1a -> conv2_1a (in-place)
I0423 23:58:02.695238  4370 net.cpp:141] Setting up bn_conv2_1a
I0423 23:58:02.695250  4370 net.cpp:148] Top shape: 256 16 32 32 (4194304)
I0423 23:58:02.695255  4370 net.cpp:156] Memory required for data: 179309568
I0423 23:58:02.695271  4370 layer_factory.hpp:77] Creating layer scale_conv2_1a
I0423 23:58:02.695287  4370 net.cpp:91] Creating Layer scale_conv2_1a
I0423 23:58:02.695294  4370 net.cpp:425] scale_conv2_1a <- conv2_1a
I0423 23:58:02.695303  4370 net.cpp:386] scale_conv2_1a -> conv2_1a (in-place)
I0423 23:58:02.695350  4370 layer_factory.hpp:77] Creating layer scale_conv2_1a
I0423 23:58:02.695480  4370 net.cpp:141] Setting up scale_conv2_1a
I0423 23:58:02.695492  4370 net.cpp:148] Top shape: 256 16 32 32 (4194304)
I0423 23:58:02.695497  4370 net.cpp:156] Memory required for data: 196086784
I0423 23:58:02.695507  4370 layer_factory.hpp:77] Creating layer conv2_1a_relu
I0423 23:58:02.695515  4370 net.cpp:91] Creating Layer conv2_1a_relu
I0423 23:58:02.695520  4370 net.cpp:425] conv2_1a_relu <- conv2_1a
I0423 23:58:02.695530  4370 net.cpp:386] conv2_1a_relu -> conv2_1a (in-place)
I0423 23:58:02.695899  4370 net.cpp:141] Setting up conv2_1a_relu
I0423 23:58:02.695919  4370 net.cpp:148] Top shape: 256 16 32 32 (4194304)
I0423 23:58:02.695924  4370 net.cpp:156] Memory required for data: 212864000
I0423 23:58:02.695930  4370 layer_factory.hpp:77] Creating layer conv2_1b
I0423 23:58:02.695951  4370 net.cpp:91] Creating Layer conv2_1b
I0423 23:58:02.695961  4370 net.cpp:425] conv2_1b <- conv2_1a
I0423 23:58:02.695971  4370 net.cpp:399] conv2_1b -> conv2_1b
I0423 23:58:02.697211  4370 net.cpp:141] Setting up conv2_1b
I0423 23:58:02.697232  4370 net.cpp:148] Top shape: 256 16 32 32 (4194304)
I0423 23:58:02.697238  4370 net.cpp:156] Memory required for data: 229641216
I0423 23:58:02.697248  4370 layer_factory.hpp:77] Creating layer bn_conv2_1b
I0423 23:58:02.697262  4370 net.cpp:91] Creating Layer bn_conv2_1b
I0423 23:58:02.697273  4370 net.cpp:425] bn_conv2_1b <- conv2_1b
I0423 23:58:02.697284  4370 net.cpp:386] bn_conv2_1b -> conv2_1b (in-place)
I0423 23:58:02.697500  4370 net.cpp:141] Setting up bn_conv2_1b
I0423 23:58:02.697512  4370 net.cpp:148] Top shape: 256 16 32 32 (4194304)
I0423 23:58:02.697517  4370 net.cpp:156] Memory required for data: 246418432
I0423 23:58:02.697528  4370 layer_factory.hpp:77] Creating layer scale_conv2_1b
I0423 23:58:02.697542  4370 net.cpp:91] Creating Layer scale_conv2_1b
I0423 23:58:02.697548  4370 net.cpp:425] scale_conv2_1b <- conv2_1b
I0423 23:58:02.697557  4370 net.cpp:386] scale_conv2_1b -> conv2_1b (in-place)
I0423 23:58:02.697604  4370 layer_factory.hpp:77] Creating layer scale_conv2_1b
I0423 23:58:02.697736  4370 net.cpp:141] Setting up scale_conv2_1b
I0423 23:58:02.697746  4370 net.cpp:148] Top shape: 256 16 32 32 (4194304)
I0423 23:58:02.697752  4370 net.cpp:156] Memory required for data: 263195648
I0423 23:58:02.697762  4370 layer_factory.hpp:77] Creating layer conv2_1
I0423 23:58:02.697770  4370 net.cpp:91] Creating Layer conv2_1
I0423 23:58:02.697775  4370 net.cpp:425] conv2_1 <- conv2_1b
I0423 23:58:02.697782  4370 net.cpp:425] conv2_1 <- conv1_conv1_relu_0_split_2
I0423 23:58:02.697793  4370 net.cpp:399] conv2_1 -> conv2_1
I0423 23:58:02.697825  4370 net.cpp:141] Setting up conv2_1
I0423 23:58:02.697837  4370 net.cpp:148] Top shape: 256 16 32 32 (4194304)
I0423 23:58:02.697844  4370 net.cpp:156] Memory required for data: 279972864
I0423 23:58:02.697849  4370 layer_factory.hpp:77] Creating layer conv2_1_relu
I0423 23:58:02.697856  4370 net.cpp:91] Creating Layer conv2_1_relu
I0423 23:58:02.697862  4370 net.cpp:425] conv2_1_relu <- conv2_1
I0423 23:58:02.697870  4370 net.cpp:386] conv2_1_relu -> conv2_1 (in-place)
I0423 23:58:02.698079  4370 net.cpp:141] Setting up conv2_1_relu
I0423 23:58:02.698093  4370 net.cpp:148] Top shape: 256 16 32 32 (4194304)
I0423 23:58:02.698099  4370 net.cpp:156] Memory required for data: 296750080
I0423 23:58:02.698106  4370 layer_factory.hpp:77] Creating layer conv2_1_conv2_1_relu_0_split
I0423 23:58:02.698115  4370 net.cpp:91] Creating Layer conv2_1_conv2_1_relu_0_split
I0423 23:58:02.698122  4370 net.cpp:425] conv2_1_conv2_1_relu_0_split <- conv2_1
I0423 23:58:02.698130  4370 net.cpp:399] conv2_1_conv2_1_relu_0_split -> conv2_1_conv2_1_relu_0_split_0
I0423 23:58:02.698140  4370 net.cpp:399] conv2_1_conv2_1_relu_0_split -> conv2_1_conv2_1_relu_0_split_1
I0423 23:58:02.698190  4370 net.cpp:141] Setting up conv2_1_conv2_1_relu_0_split
I0423 23:58:02.698200  4370 net.cpp:148] Top shape: 256 16 32 32 (4194304)
I0423 23:58:02.698207  4370 net.cpp:148] Top shape: 256 16 32 32 (4194304)
I0423 23:58:02.698212  4370 net.cpp:156] Memory required for data: 330304512
I0423 23:58:02.698218  4370 layer_factory.hpp:77] Creating layer conv2_2a
I0423 23:58:02.698232  4370 net.cpp:91] Creating Layer conv2_2a
I0423 23:58:02.698240  4370 net.cpp:425] conv2_2a <- conv2_1_conv2_1_relu_0_split_0
I0423 23:58:02.698251  4370 net.cpp:399] conv2_2a -> conv2_2a
I0423 23:58:02.699465  4370 net.cpp:141] Setting up conv2_2a
I0423 23:58:02.699486  4370 net.cpp:148] Top shape: 256 16 32 32 (4194304)
I0423 23:58:02.699491  4370 net.cpp:156] Memory required for data: 347081728
I0423 23:58:02.699501  4370 layer_factory.hpp:77] Creating layer bn_conv2_2a
I0423 23:58:02.699514  4370 net.cpp:91] Creating Layer bn_conv2_2a
I0423 23:58:02.699520  4370 net.cpp:425] bn_conv2_2a <- conv2_2a
I0423 23:58:02.699532  4370 net.cpp:386] bn_conv2_2a -> conv2_2a (in-place)
I0423 23:58:02.699744  4370 net.cpp:141] Setting up bn_conv2_2a
I0423 23:58:02.699756  4370 net.cpp:148] Top shape: 256 16 32 32 (4194304)
I0423 23:58:02.699762  4370 net.cpp:156] Memory required for data: 363858944
I0423 23:58:02.699780  4370 layer_factory.hpp:77] Creating layer scale_conv2_2a
I0423 23:58:02.699790  4370 net.cpp:91] Creating Layer scale_conv2_2a
I0423 23:58:02.699796  4370 net.cpp:425] scale_conv2_2a <- conv2_2a
I0423 23:58:02.699803  4370 net.cpp:386] scale_conv2_2a -> conv2_2a (in-place)
I0423 23:58:02.699849  4370 layer_factory.hpp:77] Creating layer scale_conv2_2a
I0423 23:58:02.699986  4370 net.cpp:141] Setting up scale_conv2_2a
I0423 23:58:02.699998  4370 net.cpp:148] Top shape: 256 16 32 32 (4194304)
I0423 23:58:02.700004  4370 net.cpp:156] Memory required for data: 380636160
I0423 23:58:02.700013  4370 layer_factory.hpp:77] Creating layer conv2_2a_relu
I0423 23:58:02.700024  4370 net.cpp:91] Creating Layer conv2_2a_relu
I0423 23:58:02.700031  4370 net.cpp:425] conv2_2a_relu <- conv2_2a
I0423 23:58:02.700037  4370 net.cpp:386] conv2_2a_relu -> conv2_2a (in-place)
I0423 23:58:02.700240  4370 net.cpp:141] Setting up conv2_2a_relu
I0423 23:58:02.700254  4370 net.cpp:148] Top shape: 256 16 32 32 (4194304)
I0423 23:58:02.700260  4370 net.cpp:156] Memory required for data: 397413376
I0423 23:58:02.700266  4370 layer_factory.hpp:77] Creating layer conv2_2b
I0423 23:58:02.700284  4370 net.cpp:91] Creating Layer conv2_2b
I0423 23:58:02.700290  4370 net.cpp:425] conv2_2b <- conv2_2a
I0423 23:58:02.700300  4370 net.cpp:399] conv2_2b -> conv2_2b
I0423 23:58:02.701530  4370 net.cpp:141] Setting up conv2_2b
I0423 23:58:02.701552  4370 net.cpp:148] Top shape: 256 16 32 32 (4194304)
I0423 23:58:02.701558  4370 net.cpp:156] Memory required for data: 414190592
I0423 23:58:02.701568  4370 layer_factory.hpp:77] Creating layer bn_conv2_2b
I0423 23:58:02.701586  4370 net.cpp:91] Creating Layer bn_conv2_2b
I0423 23:58:02.701592  4370 net.cpp:425] bn_conv2_2b <- conv2_2b
I0423 23:58:02.701602  4370 net.cpp:386] bn_conv2_2b -> conv2_2b (in-place)
I0423 23:58:02.701813  4370 net.cpp:141] Setting up bn_conv2_2b
I0423 23:58:02.701825  4370 net.cpp:148] Top shape: 256 16 32 32 (4194304)
I0423 23:58:02.701831  4370 net.cpp:156] Memory required for data: 430967808
I0423 23:58:02.701841  4370 layer_factory.hpp:77] Creating layer scale_conv2_2b
I0423 23:58:02.701856  4370 net.cpp:91] Creating Layer scale_conv2_2b
I0423 23:58:02.701864  4370 net.cpp:425] scale_conv2_2b <- conv2_2b
I0423 23:58:02.701872  4370 net.cpp:386] scale_conv2_2b -> conv2_2b (in-place)
I0423 23:58:02.701916  4370 layer_factory.hpp:77] Creating layer scale_conv2_2b
I0423 23:58:02.702049  4370 net.cpp:141] Setting up scale_conv2_2b
I0423 23:58:02.702060  4370 net.cpp:148] Top shape: 256 16 32 32 (4194304)
I0423 23:58:02.702065  4370 net.cpp:156] Memory required for data: 447745024
I0423 23:58:02.702075  4370 layer_factory.hpp:77] Creating layer conv2_2
I0423 23:58:02.702085  4370 net.cpp:91] Creating Layer conv2_2
I0423 23:58:02.702090  4370 net.cpp:425] conv2_2 <- conv2_2b
I0423 23:58:02.702096  4370 net.cpp:425] conv2_2 <- conv2_1_conv2_1_relu_0_split_1
I0423 23:58:02.702105  4370 net.cpp:399] conv2_2 -> conv2_2
I0423 23:58:02.702139  4370 net.cpp:141] Setting up conv2_2
I0423 23:58:02.702152  4370 net.cpp:148] Top shape: 256 16 32 32 (4194304)
I0423 23:58:02.702158  4370 net.cpp:156] Memory required for data: 464522240
I0423 23:58:02.702163  4370 layer_factory.hpp:77] Creating layer conv2_2_relu
I0423 23:58:02.702172  4370 net.cpp:91] Creating Layer conv2_2_relu
I0423 23:58:02.702178  4370 net.cpp:425] conv2_2_relu <- conv2_2
I0423 23:58:02.702185  4370 net.cpp:386] conv2_2_relu -> conv2_2 (in-place)
I0423 23:58:02.702522  4370 net.cpp:141] Setting up conv2_2_relu
I0423 23:58:02.702540  4370 net.cpp:148] Top shape: 256 16 32 32 (4194304)
I0423 23:58:02.702546  4370 net.cpp:156] Memory required for data: 481299456
I0423 23:58:02.702553  4370 layer_factory.hpp:77] Creating layer conv2_2_conv2_2_relu_0_split
I0423 23:58:02.702563  4370 net.cpp:91] Creating Layer conv2_2_conv2_2_relu_0_split
I0423 23:58:02.702569  4370 net.cpp:425] conv2_2_conv2_2_relu_0_split <- conv2_2
I0423 23:58:02.702579  4370 net.cpp:399] conv2_2_conv2_2_relu_0_split -> conv2_2_conv2_2_relu_0_split_0
I0423 23:58:02.702589  4370 net.cpp:399] conv2_2_conv2_2_relu_0_split -> conv2_2_conv2_2_relu_0_split_1
I0423 23:58:02.702641  4370 net.cpp:141] Setting up conv2_2_conv2_2_relu_0_split
I0423 23:58:02.702651  4370 net.cpp:148] Top shape: 256 16 32 32 (4194304)
I0423 23:58:02.702657  4370 net.cpp:148] Top shape: 256 16 32 32 (4194304)
I0423 23:58:02.702667  4370 net.cpp:156] Memory required for data: 514853888
I0423 23:58:02.702673  4370 layer_factory.hpp:77] Creating layer conv2_3a
I0423 23:58:02.702692  4370 net.cpp:91] Creating Layer conv2_3a
I0423 23:58:02.702698  4370 net.cpp:425] conv2_3a <- conv2_2_conv2_2_relu_0_split_0
I0423 23:58:02.702708  4370 net.cpp:399] conv2_3a -> conv2_3a
I0423 23:58:02.704032  4370 net.cpp:141] Setting up conv2_3a
I0423 23:58:02.704052  4370 net.cpp:148] Top shape: 256 16 32 32 (4194304)
I0423 23:58:02.704058  4370 net.cpp:156] Memory required for data: 531631104
I0423 23:58:02.704068  4370 layer_factory.hpp:77] Creating layer bn_conv2_3a
I0423 23:58:02.704082  4370 net.cpp:91] Creating Layer bn_conv2_3a
I0423 23:58:02.704087  4370 net.cpp:425] bn_conv2_3a <- conv2_3a
I0423 23:58:02.704097  4370 net.cpp:386] bn_conv2_3a -> conv2_3a (in-place)
I0423 23:58:02.704321  4370 net.cpp:141] Setting up bn_conv2_3a
I0423 23:58:02.704334  4370 net.cpp:148] Top shape: 256 16 32 32 (4194304)
I0423 23:58:02.704339  4370 net.cpp:156] Memory required for data: 548408320
I0423 23:58:02.704349  4370 layer_factory.hpp:77] Creating layer scale_conv2_3a
I0423 23:58:02.704365  4370 net.cpp:91] Creating Layer scale_conv2_3a
I0423 23:58:02.704370  4370 net.cpp:425] scale_conv2_3a <- conv2_3a
I0423 23:58:02.704380  4370 net.cpp:386] scale_conv2_3a -> conv2_3a (in-place)
I0423 23:58:02.704423  4370 layer_factory.hpp:77] Creating layer scale_conv2_3a
I0423 23:58:02.704555  4370 net.cpp:141] Setting up scale_conv2_3a
I0423 23:58:02.704567  4370 net.cpp:148] Top shape: 256 16 32 32 (4194304)
I0423 23:58:02.704572  4370 net.cpp:156] Memory required for data: 565185536
I0423 23:58:02.704581  4370 layer_factory.hpp:77] Creating layer conv2_3a_relu
I0423 23:58:02.704589  4370 net.cpp:91] Creating Layer conv2_3a_relu
I0423 23:58:02.704596  4370 net.cpp:425] conv2_3a_relu <- conv2_3a
I0423 23:58:02.704602  4370 net.cpp:386] conv2_3a_relu -> conv2_3a (in-place)
I0423 23:58:02.704815  4370 net.cpp:141] Setting up conv2_3a_relu
I0423 23:58:02.704830  4370 net.cpp:148] Top shape: 256 16 32 32 (4194304)
I0423 23:58:02.704836  4370 net.cpp:156] Memory required for data: 581962752
I0423 23:58:02.704843  4370 layer_factory.hpp:77] Creating layer conv2_3b
I0423 23:58:02.704859  4370 net.cpp:91] Creating Layer conv2_3b
I0423 23:58:02.704865  4370 net.cpp:425] conv2_3b <- conv2_3a
I0423 23:58:02.704876  4370 net.cpp:399] conv2_3b -> conv2_3b
I0423 23:58:02.706131  4370 net.cpp:141] Setting up conv2_3b
I0423 23:58:02.706152  4370 net.cpp:148] Top shape: 256 16 32 32 (4194304)
I0423 23:58:02.706158  4370 net.cpp:156] Memory required for data: 598739968
I0423 23:58:02.706169  4370 layer_factory.hpp:77] Creating layer bn_conv2_3b
I0423 23:58:02.706182  4370 net.cpp:91] Creating Layer bn_conv2_3b
I0423 23:58:02.706188  4370 net.cpp:425] bn_conv2_3b <- conv2_3b
I0423 23:58:02.706197  4370 net.cpp:386] bn_conv2_3b -> conv2_3b (in-place)
I0423 23:58:02.706423  4370 net.cpp:141] Setting up bn_conv2_3b
I0423 23:58:02.706435  4370 net.cpp:148] Top shape: 256 16 32 32 (4194304)
I0423 23:58:02.706440  4370 net.cpp:156] Memory required for data: 615517184
I0423 23:58:02.706451  4370 layer_factory.hpp:77] Creating layer scale_conv2_3b
I0423 23:58:02.706461  4370 net.cpp:91] Creating Layer scale_conv2_3b
I0423 23:58:02.706467  4370 net.cpp:425] scale_conv2_3b <- conv2_3b
I0423 23:58:02.706477  4370 net.cpp:386] scale_conv2_3b -> conv2_3b (in-place)
I0423 23:58:02.706521  4370 layer_factory.hpp:77] Creating layer scale_conv2_3b
I0423 23:58:02.706650  4370 net.cpp:141] Setting up scale_conv2_3b
I0423 23:58:02.706661  4370 net.cpp:148] Top shape: 256 16 32 32 (4194304)
I0423 23:58:02.706666  4370 net.cpp:156] Memory required for data: 632294400
I0423 23:58:02.706676  4370 layer_factory.hpp:77] Creating layer conv2_3
I0423 23:58:02.706686  4370 net.cpp:91] Creating Layer conv2_3
I0423 23:58:02.706692  4370 net.cpp:425] conv2_3 <- conv2_3b
I0423 23:58:02.706701  4370 net.cpp:425] conv2_3 <- conv2_2_conv2_2_relu_0_split_1
I0423 23:58:02.706708  4370 net.cpp:399] conv2_3 -> conv2_3
I0423 23:58:02.706746  4370 net.cpp:141] Setting up conv2_3
I0423 23:58:02.706758  4370 net.cpp:148] Top shape: 256 16 32 32 (4194304)
I0423 23:58:02.706763  4370 net.cpp:156] Memory required for data: 649071616
I0423 23:58:02.706769  4370 layer_factory.hpp:77] Creating layer conv2_3_relu
I0423 23:58:02.706778  4370 net.cpp:91] Creating Layer conv2_3_relu
I0423 23:58:02.706782  4370 net.cpp:425] conv2_3_relu <- conv2_3
I0423 23:58:02.706794  4370 net.cpp:386] conv2_3_relu -> conv2_3 (in-place)
I0423 23:58:02.707000  4370 net.cpp:141] Setting up conv2_3_relu
I0423 23:58:02.707013  4370 net.cpp:148] Top shape: 256 16 32 32 (4194304)
I0423 23:58:02.707020  4370 net.cpp:156] Memory required for data: 665848832
I0423 23:58:02.707025  4370 layer_factory.hpp:77] Creating layer conv2_3_conv2_3_relu_0_split
I0423 23:58:02.707036  4370 net.cpp:91] Creating Layer conv2_3_conv2_3_relu_0_split
I0423 23:58:02.707042  4370 net.cpp:425] conv2_3_conv2_3_relu_0_split <- conv2_3
I0423 23:58:02.707051  4370 net.cpp:399] conv2_3_conv2_3_relu_0_split -> conv2_3_conv2_3_relu_0_split_0
I0423 23:58:02.707062  4370 net.cpp:399] conv2_3_conv2_3_relu_0_split -> conv2_3_conv2_3_relu_0_split_1
I0423 23:58:02.707072  4370 net.cpp:399] conv2_3_conv2_3_relu_0_split -> conv2_3_conv2_3_relu_0_split_2
I0423 23:58:02.707134  4370 net.cpp:141] Setting up conv2_3_conv2_3_relu_0_split
I0423 23:58:02.707144  4370 net.cpp:148] Top shape: 256 16 32 32 (4194304)
I0423 23:58:02.707149  4370 net.cpp:148] Top shape: 256 16 32 32 (4194304)
I0423 23:58:02.707155  4370 net.cpp:148] Top shape: 256 16 32 32 (4194304)
I0423 23:58:02.707160  4370 net.cpp:156] Memory required for data: 716180480
I0423 23:58:02.707166  4370 layer_factory.hpp:77] Creating layer conv2_sub
I0423 23:58:02.707183  4370 net.cpp:91] Creating Layer conv2_sub
I0423 23:58:02.707190  4370 net.cpp:425] conv2_sub <- conv2_3_conv2_3_relu_0_split_0
I0423 23:58:02.707200  4370 net.cpp:399] conv2_sub -> conv2_sub
I0423 23:58:02.708360  4370 net.cpp:141] Setting up conv2_sub
I0423 23:58:02.708384  4370 net.cpp:148] Top shape: 256 32 16 16 (2097152)
I0423 23:58:02.708389  4370 net.cpp:156] Memory required for data: 724569088
I0423 23:58:02.708400  4370 layer_factory.hpp:77] Creating layer bn_conv2_sub
I0423 23:58:02.708411  4370 net.cpp:91] Creating Layer bn_conv2_sub
I0423 23:58:02.708418  4370 net.cpp:425] bn_conv2_sub <- conv2_sub
I0423 23:58:02.708426  4370 net.cpp:386] bn_conv2_sub -> conv2_sub (in-place)
I0423 23:58:02.708645  4370 net.cpp:141] Setting up bn_conv2_sub
I0423 23:58:02.708657  4370 net.cpp:148] Top shape: 256 32 16 16 (2097152)
I0423 23:58:02.708663  4370 net.cpp:156] Memory required for data: 732957696
I0423 23:58:02.708674  4370 layer_factory.hpp:77] Creating layer scale_conv2_sub
I0423 23:58:02.708685  4370 net.cpp:91] Creating Layer scale_conv2_sub
I0423 23:58:02.708693  4370 net.cpp:425] scale_conv2_sub <- conv2_sub
I0423 23:58:02.708700  4370 net.cpp:386] scale_conv2_sub -> conv2_sub (in-place)
I0423 23:58:02.708747  4370 layer_factory.hpp:77] Creating layer scale_conv2_sub
I0423 23:58:02.708881  4370 net.cpp:141] Setting up scale_conv2_sub
I0423 23:58:02.708894  4370 net.cpp:148] Top shape: 256 32 16 16 (2097152)
I0423 23:58:02.708899  4370 net.cpp:156] Memory required for data: 741346304
I0423 23:58:02.708907  4370 layer_factory.hpp:77] Creating layer conv2_sub2
I0423 23:58:02.708923  4370 net.cpp:91] Creating Layer conv2_sub2
I0423 23:58:02.708930  4370 net.cpp:425] conv2_sub2 <- conv2_3_conv2_3_relu_0_split_1
I0423 23:58:02.708941  4370 net.cpp:399] conv2_sub2 -> conv2_sub2
I0423 23:58:02.710256  4370 net.cpp:141] Setting up conv2_sub2
I0423 23:58:02.710279  4370 net.cpp:148] Top shape: 256 64 8 8 (1048576)
I0423 23:58:02.710286  4370 net.cpp:156] Memory required for data: 745540608
I0423 23:58:02.710309  4370 layer_factory.hpp:77] Creating layer bn_conv2_sub2
I0423 23:58:02.710320  4370 net.cpp:91] Creating Layer bn_conv2_sub2
I0423 23:58:02.710328  4370 net.cpp:425] bn_conv2_sub2 <- conv2_sub2
I0423 23:58:02.710337  4370 net.cpp:386] bn_conv2_sub2 -> conv2_sub2 (in-place)
I0423 23:58:02.710579  4370 net.cpp:141] Setting up bn_conv2_sub2
I0423 23:58:02.710592  4370 net.cpp:148] Top shape: 256 64 8 8 (1048576)
I0423 23:58:02.710597  4370 net.cpp:156] Memory required for data: 749734912
I0423 23:58:02.710609  4370 layer_factory.hpp:77] Creating layer scale_conv2_sub2
I0423 23:58:02.710618  4370 net.cpp:91] Creating Layer scale_conv2_sub2
I0423 23:58:02.710625  4370 net.cpp:425] scale_conv2_sub2 <- conv2_sub2
I0423 23:58:02.710633  4370 net.cpp:386] scale_conv2_sub2 -> conv2_sub2 (in-place)
I0423 23:58:02.710685  4370 layer_factory.hpp:77] Creating layer scale_conv2_sub2
I0423 23:58:02.710822  4370 net.cpp:141] Setting up scale_conv2_sub2
I0423 23:58:02.710835  4370 net.cpp:148] Top shape: 256 64 8 8 (1048576)
I0423 23:58:02.710841  4370 net.cpp:156] Memory required for data: 753929216
I0423 23:58:02.710850  4370 layer_factory.hpp:77] Creating layer conv3_1a
I0423 23:58:02.710870  4370 net.cpp:91] Creating Layer conv3_1a
I0423 23:58:02.710876  4370 net.cpp:425] conv3_1a <- conv2_3_conv2_3_relu_0_split_2
I0423 23:58:02.710886  4370 net.cpp:399] conv3_1a -> conv3_1a
I0423 23:58:02.712071  4370 net.cpp:141] Setting up conv3_1a
I0423 23:58:02.712090  4370 net.cpp:148] Top shape: 256 32 16 16 (2097152)
I0423 23:58:02.712097  4370 net.cpp:156] Memory required for data: 762317824
I0423 23:58:02.712106  4370 layer_factory.hpp:77] Creating layer bn_conv3_1a
I0423 23:58:02.712119  4370 net.cpp:91] Creating Layer bn_conv3_1a
I0423 23:58:02.712126  4370 net.cpp:425] bn_conv3_1a <- conv3_1a
I0423 23:58:02.712137  4370 net.cpp:386] bn_conv3_1a -> conv3_1a (in-place)
I0423 23:58:02.712357  4370 net.cpp:141] Setting up bn_conv3_1a
I0423 23:58:02.712368  4370 net.cpp:148] Top shape: 256 32 16 16 (2097152)
I0423 23:58:02.712373  4370 net.cpp:156] Memory required for data: 770706432
I0423 23:58:02.712384  4370 layer_factory.hpp:77] Creating layer scale_conv3_1a
I0423 23:58:02.712393  4370 net.cpp:91] Creating Layer scale_conv3_1a
I0423 23:58:02.712400  4370 net.cpp:425] scale_conv3_1a <- conv3_1a
I0423 23:58:02.712414  4370 net.cpp:386] scale_conv3_1a -> conv3_1a (in-place)
I0423 23:58:02.712461  4370 layer_factory.hpp:77] Creating layer scale_conv3_1a
I0423 23:58:02.712596  4370 net.cpp:141] Setting up scale_conv3_1a
I0423 23:58:02.712609  4370 net.cpp:148] Top shape: 256 32 16 16 (2097152)
I0423 23:58:02.712613  4370 net.cpp:156] Memory required for data: 779095040
I0423 23:58:02.712622  4370 layer_factory.hpp:77] Creating layer conv3_1a_relu
I0423 23:58:02.712631  4370 net.cpp:91] Creating Layer conv3_1a_relu
I0423 23:58:02.712637  4370 net.cpp:425] conv3_1a_relu <- conv3_1a
I0423 23:58:02.712644  4370 net.cpp:386] conv3_1a_relu -> conv3_1a (in-place)
I0423 23:58:02.712849  4370 net.cpp:141] Setting up conv3_1a_relu
I0423 23:58:02.712863  4370 net.cpp:148] Top shape: 256 32 16 16 (2097152)
I0423 23:58:02.712869  4370 net.cpp:156] Memory required for data: 787483648
I0423 23:58:02.712875  4370 layer_factory.hpp:77] Creating layer conv3_1b
I0423 23:58:02.712890  4370 net.cpp:91] Creating Layer conv3_1b
I0423 23:58:02.712898  4370 net.cpp:425] conv3_1b <- conv3_1a
I0423 23:58:02.712908  4370 net.cpp:399] conv3_1b -> conv3_1b
I0423 23:58:02.715006  4370 net.cpp:141] Setting up conv3_1b
I0423 23:58:02.715028  4370 net.cpp:148] Top shape: 256 32 16 16 (2097152)
I0423 23:58:02.715034  4370 net.cpp:156] Memory required for data: 795872256
I0423 23:58:02.715044  4370 layer_factory.hpp:77] Creating layer bn_conv3_1b
I0423 23:58:02.715056  4370 net.cpp:91] Creating Layer bn_conv3_1b
I0423 23:58:02.715064  4370 net.cpp:425] bn_conv3_1b <- conv3_1b
I0423 23:58:02.715075  4370 net.cpp:386] bn_conv3_1b -> conv3_1b (in-place)
I0423 23:58:02.715297  4370 net.cpp:141] Setting up bn_conv3_1b
I0423 23:58:02.715309  4370 net.cpp:148] Top shape: 256 32 16 16 (2097152)
I0423 23:58:02.715314  4370 net.cpp:156] Memory required for data: 804260864
I0423 23:58:02.715325  4370 layer_factory.hpp:77] Creating layer scale_conv3_1b
I0423 23:58:02.715334  4370 net.cpp:91] Creating Layer scale_conv3_1b
I0423 23:58:02.715340  4370 net.cpp:425] scale_conv3_1b <- conv3_1b
I0423 23:58:02.715356  4370 net.cpp:386] scale_conv3_1b -> conv3_1b (in-place)
I0423 23:58:02.715402  4370 layer_factory.hpp:77] Creating layer scale_conv3_1b
I0423 23:58:02.715538  4370 net.cpp:141] Setting up scale_conv3_1b
I0423 23:58:02.715550  4370 net.cpp:148] Top shape: 256 32 16 16 (2097152)
I0423 23:58:02.715555  4370 net.cpp:156] Memory required for data: 812649472
I0423 23:58:02.715564  4370 layer_factory.hpp:77] Creating layer conv3_1
I0423 23:58:02.715574  4370 net.cpp:91] Creating Layer conv3_1
I0423 23:58:02.715579  4370 net.cpp:425] conv3_1 <- conv3_1b
I0423 23:58:02.715586  4370 net.cpp:425] conv3_1 <- conv1_sub2
I0423 23:58:02.715593  4370 net.cpp:425] conv3_1 <- conv2_sub
I0423 23:58:02.715600  4370 net.cpp:399] conv3_1 -> conv3_1
I0423 23:58:02.715631  4370 net.cpp:141] Setting up conv3_1
I0423 23:58:02.715641  4370 net.cpp:148] Top shape: 256 32 16 16 (2097152)
I0423 23:58:02.715646  4370 net.cpp:156] Memory required for data: 821038080
I0423 23:58:02.715651  4370 layer_factory.hpp:77] Creating layer conv3_1_relu
I0423 23:58:02.715659  4370 net.cpp:91] Creating Layer conv3_1_relu
I0423 23:58:02.715665  4370 net.cpp:425] conv3_1_relu <- conv3_1
I0423 23:58:02.715674  4370 net.cpp:386] conv3_1_relu -> conv3_1 (in-place)
I0423 23:58:02.716012  4370 net.cpp:141] Setting up conv3_1_relu
I0423 23:58:02.716029  4370 net.cpp:148] Top shape: 256 32 16 16 (2097152)
I0423 23:58:02.716035  4370 net.cpp:156] Memory required for data: 829426688
I0423 23:58:02.716042  4370 layer_factory.hpp:77] Creating layer conv3_1_conv3_1_relu_0_split
I0423 23:58:02.716053  4370 net.cpp:91] Creating Layer conv3_1_conv3_1_relu_0_split
I0423 23:58:02.716059  4370 net.cpp:425] conv3_1_conv3_1_relu_0_split <- conv3_1
I0423 23:58:02.716068  4370 net.cpp:399] conv3_1_conv3_1_relu_0_split -> conv3_1_conv3_1_relu_0_split_0
I0423 23:58:02.716078  4370 net.cpp:399] conv3_1_conv3_1_relu_0_split -> conv3_1_conv3_1_relu_0_split_1
I0423 23:58:02.716142  4370 net.cpp:141] Setting up conv3_1_conv3_1_relu_0_split
I0423 23:58:02.716153  4370 net.cpp:148] Top shape: 256 32 16 16 (2097152)
I0423 23:58:02.716161  4370 net.cpp:148] Top shape: 256 32 16 16 (2097152)
I0423 23:58:02.716166  4370 net.cpp:156] Memory required for data: 846203904
I0423 23:58:02.716171  4370 layer_factory.hpp:77] Creating layer conv3_2a
I0423 23:58:02.716187  4370 net.cpp:91] Creating Layer conv3_2a
I0423 23:58:02.716193  4370 net.cpp:425] conv3_2a <- conv3_1_conv3_1_relu_0_split_0
I0423 23:58:02.716205  4370 net.cpp:399] conv3_2a -> conv3_2a
I0423 23:58:02.717712  4370 net.cpp:141] Setting up conv3_2a
I0423 23:58:02.717733  4370 net.cpp:148] Top shape: 256 32 16 16 (2097152)
I0423 23:58:02.717739  4370 net.cpp:156] Memory required for data: 854592512
I0423 23:58:02.717749  4370 layer_factory.hpp:77] Creating layer bn_conv3_2a
I0423 23:58:02.717762  4370 net.cpp:91] Creating Layer bn_conv3_2a
I0423 23:58:02.717769  4370 net.cpp:425] bn_conv3_2a <- conv3_2a
I0423 23:58:02.717777  4370 net.cpp:386] bn_conv3_2a -> conv3_2a (in-place)
I0423 23:58:02.718005  4370 net.cpp:141] Setting up bn_conv3_2a
I0423 23:58:02.718017  4370 net.cpp:148] Top shape: 256 32 16 16 (2097152)
I0423 23:58:02.718022  4370 net.cpp:156] Memory required for data: 862981120
I0423 23:58:02.718034  4370 layer_factory.hpp:77] Creating layer scale_conv3_2a
I0423 23:58:02.718044  4370 net.cpp:91] Creating Layer scale_conv3_2a
I0423 23:58:02.718050  4370 net.cpp:425] scale_conv3_2a <- conv3_2a
I0423 23:58:02.718057  4370 net.cpp:386] scale_conv3_2a -> conv3_2a (in-place)
I0423 23:58:02.718106  4370 layer_factory.hpp:77] Creating layer scale_conv3_2a
I0423 23:58:02.718245  4370 net.cpp:141] Setting up scale_conv3_2a
I0423 23:58:02.718255  4370 net.cpp:148] Top shape: 256 32 16 16 (2097152)
I0423 23:58:02.718261  4370 net.cpp:156] Memory required for data: 871369728
I0423 23:58:02.718271  4370 layer_factory.hpp:77] Creating layer conv3_2a_relu
I0423 23:58:02.718282  4370 net.cpp:91] Creating Layer conv3_2a_relu
I0423 23:58:02.718288  4370 net.cpp:425] conv3_2a_relu <- conv3_2a
I0423 23:58:02.718302  4370 net.cpp:386] conv3_2a_relu -> conv3_2a (in-place)
I0423 23:58:02.718504  4370 net.cpp:141] Setting up conv3_2a_relu
I0423 23:58:02.718519  4370 net.cpp:148] Top shape: 256 32 16 16 (2097152)
I0423 23:58:02.718525  4370 net.cpp:156] Memory required for data: 879758336
I0423 23:58:02.718531  4370 layer_factory.hpp:77] Creating layer conv3_2b
I0423 23:58:02.718546  4370 net.cpp:91] Creating Layer conv3_2b
I0423 23:58:02.718554  4370 net.cpp:425] conv3_2b <- conv3_2a
I0423 23:58:02.718564  4370 net.cpp:399] conv3_2b -> conv3_2b
I0423 23:58:02.720068  4370 net.cpp:141] Setting up conv3_2b
I0423 23:58:02.720088  4370 net.cpp:148] Top shape: 256 32 16 16 (2097152)
I0423 23:58:02.720094  4370 net.cpp:156] Memory required for data: 888146944
I0423 23:58:02.720104  4370 layer_factory.hpp:77] Creating layer bn_conv3_2b
I0423 23:58:02.720118  4370 net.cpp:91] Creating Layer bn_conv3_2b
I0423 23:58:02.720124  4370 net.cpp:425] bn_conv3_2b <- conv3_2b
I0423 23:58:02.720134  4370 net.cpp:386] bn_conv3_2b -> conv3_2b (in-place)
I0423 23:58:02.720357  4370 net.cpp:141] Setting up bn_conv3_2b
I0423 23:58:02.720369  4370 net.cpp:148] Top shape: 256 32 16 16 (2097152)
I0423 23:58:02.720374  4370 net.cpp:156] Memory required for data: 896535552
I0423 23:58:02.720386  4370 layer_factory.hpp:77] Creating layer scale_conv3_2b
I0423 23:58:02.720396  4370 net.cpp:91] Creating Layer scale_conv3_2b
I0423 23:58:02.720402  4370 net.cpp:425] scale_conv3_2b <- conv3_2b
I0423 23:58:02.720412  4370 net.cpp:386] scale_conv3_2b -> conv3_2b (in-place)
I0423 23:58:02.720455  4370 layer_factory.hpp:77] Creating layer scale_conv3_2b
I0423 23:58:02.720597  4370 net.cpp:141] Setting up scale_conv3_2b
I0423 23:58:02.720608  4370 net.cpp:148] Top shape: 256 32 16 16 (2097152)
I0423 23:58:02.720614  4370 net.cpp:156] Memory required for data: 904924160
I0423 23:58:02.720623  4370 layer_factory.hpp:77] Creating layer conv3_2
I0423 23:58:02.720631  4370 net.cpp:91] Creating Layer conv3_2
I0423 23:58:02.720638  4370 net.cpp:425] conv3_2 <- conv3_2b
I0423 23:58:02.720644  4370 net.cpp:425] conv3_2 <- conv3_1_conv3_1_relu_0_split_1
I0423 23:58:02.720652  4370 net.cpp:399] conv3_2 -> conv3_2
I0423 23:58:02.720684  4370 net.cpp:141] Setting up conv3_2
I0423 23:58:02.720693  4370 net.cpp:148] Top shape: 256 32 16 16 (2097152)
I0423 23:58:02.720700  4370 net.cpp:156] Memory required for data: 913312768
I0423 23:58:02.720705  4370 layer_factory.hpp:77] Creating layer conv3_2_relu
I0423 23:58:02.720720  4370 net.cpp:91] Creating Layer conv3_2_relu
I0423 23:58:02.720726  4370 net.cpp:425] conv3_2_relu <- conv3_2
I0423 23:58:02.720736  4370 net.cpp:386] conv3_2_relu -> conv3_2 (in-place)
I0423 23:58:02.720939  4370 net.cpp:141] Setting up conv3_2_relu
I0423 23:58:02.720954  4370 net.cpp:148] Top shape: 256 32 16 16 (2097152)
I0423 23:58:02.720959  4370 net.cpp:156] Memory required for data: 921701376
I0423 23:58:02.720966  4370 layer_factory.hpp:77] Creating layer conv3_2_conv3_2_relu_0_split
I0423 23:58:02.720976  4370 net.cpp:91] Creating Layer conv3_2_conv3_2_relu_0_split
I0423 23:58:02.720983  4370 net.cpp:425] conv3_2_conv3_2_relu_0_split <- conv3_2
I0423 23:58:02.720991  4370 net.cpp:399] conv3_2_conv3_2_relu_0_split -> conv3_2_conv3_2_relu_0_split_0
I0423 23:58:02.721000  4370 net.cpp:399] conv3_2_conv3_2_relu_0_split -> conv3_2_conv3_2_relu_0_split_1
I0423 23:58:02.721055  4370 net.cpp:141] Setting up conv3_2_conv3_2_relu_0_split
I0423 23:58:02.721065  4370 net.cpp:148] Top shape: 256 32 16 16 (2097152)
I0423 23:58:02.721071  4370 net.cpp:148] Top shape: 256 32 16 16 (2097152)
I0423 23:58:02.721076  4370 net.cpp:156] Memory required for data: 938478592
I0423 23:58:02.721081  4370 layer_factory.hpp:77] Creating layer conv3_3a
I0423 23:58:02.721096  4370 net.cpp:91] Creating Layer conv3_3a
I0423 23:58:02.721103  4370 net.cpp:425] conv3_3a <- conv3_2_conv3_2_relu_0_split_0
I0423 23:58:02.721122  4370 net.cpp:399] conv3_3a -> conv3_3a
I0423 23:58:02.722749  4370 net.cpp:141] Setting up conv3_3a
I0423 23:58:02.722769  4370 net.cpp:148] Top shape: 256 32 16 16 (2097152)
I0423 23:58:02.722780  4370 net.cpp:156] Memory required for data: 946867200
I0423 23:58:02.722791  4370 layer_factory.hpp:77] Creating layer bn_conv3_3a
I0423 23:58:02.722801  4370 net.cpp:91] Creating Layer bn_conv3_3a
I0423 23:58:02.722808  4370 net.cpp:425] bn_conv3_3a <- conv3_3a
I0423 23:58:02.722820  4370 net.cpp:386] bn_conv3_3a -> conv3_3a (in-place)
I0423 23:58:02.723047  4370 net.cpp:141] Setting up bn_conv3_3a
I0423 23:58:02.723058  4370 net.cpp:148] Top shape: 256 32 16 16 (2097152)
I0423 23:58:02.723063  4370 net.cpp:156] Memory required for data: 955255808
I0423 23:58:02.723074  4370 layer_factory.hpp:77] Creating layer scale_conv3_3a
I0423 23:58:02.723083  4370 net.cpp:91] Creating Layer scale_conv3_3a
I0423 23:58:02.723089  4370 net.cpp:425] scale_conv3_3a <- conv3_3a
I0423 23:58:02.723098  4370 net.cpp:386] scale_conv3_3a -> conv3_3a (in-place)
I0423 23:58:02.723145  4370 layer_factory.hpp:77] Creating layer scale_conv3_3a
I0423 23:58:02.723283  4370 net.cpp:141] Setting up scale_conv3_3a
I0423 23:58:02.723294  4370 net.cpp:148] Top shape: 256 32 16 16 (2097152)
I0423 23:58:02.723299  4370 net.cpp:156] Memory required for data: 963644416
I0423 23:58:02.723309  4370 layer_factory.hpp:77] Creating layer conv3_3a_relu
I0423 23:58:02.723318  4370 net.cpp:91] Creating Layer conv3_3a_relu
I0423 23:58:02.723325  4370 net.cpp:425] conv3_3a_relu <- conv3_3a
I0423 23:58:02.723332  4370 net.cpp:386] conv3_3a_relu -> conv3_3a (in-place)
I0423 23:58:02.723680  4370 net.cpp:141] Setting up conv3_3a_relu
I0423 23:58:02.723698  4370 net.cpp:148] Top shape: 256 32 16 16 (2097152)
I0423 23:58:02.723704  4370 net.cpp:156] Memory required for data: 972033024
I0423 23:58:02.723711  4370 layer_factory.hpp:77] Creating layer conv3_3b
I0423 23:58:02.723728  4370 net.cpp:91] Creating Layer conv3_3b
I0423 23:58:02.723734  4370 net.cpp:425] conv3_3b <- conv3_3a
I0423 23:58:02.723747  4370 net.cpp:399] conv3_3b -> conv3_3b
I0423 23:58:02.725374  4370 net.cpp:141] Setting up conv3_3b
I0423 23:58:02.725395  4370 net.cpp:148] Top shape: 256 32 16 16 (2097152)
I0423 23:58:02.725401  4370 net.cpp:156] Memory required for data: 980421632
I0423 23:58:02.725412  4370 layer_factory.hpp:77] Creating layer bn_conv3_3b
I0423 23:58:02.725425  4370 net.cpp:91] Creating Layer bn_conv3_3b
I0423 23:58:02.725431  4370 net.cpp:425] bn_conv3_3b <- conv3_3b
I0423 23:58:02.725440  4370 net.cpp:386] bn_conv3_3b -> conv3_3b (in-place)
I0423 23:58:02.725671  4370 net.cpp:141] Setting up bn_conv3_3b
I0423 23:58:02.725682  4370 net.cpp:148] Top shape: 256 32 16 16 (2097152)
I0423 23:58:02.725687  4370 net.cpp:156] Memory required for data: 988810240
I0423 23:58:02.725698  4370 layer_factory.hpp:77] Creating layer scale_conv3_3b
I0423 23:58:02.725708  4370 net.cpp:91] Creating Layer scale_conv3_3b
I0423 23:58:02.725714  4370 net.cpp:425] scale_conv3_3b <- conv3_3b
I0423 23:58:02.725724  4370 net.cpp:386] scale_conv3_3b -> conv3_3b (in-place)
I0423 23:58:02.725770  4370 layer_factory.hpp:77] Creating layer scale_conv3_3b
I0423 23:58:02.725908  4370 net.cpp:141] Setting up scale_conv3_3b
I0423 23:58:02.725921  4370 net.cpp:148] Top shape: 256 32 16 16 (2097152)
I0423 23:58:02.725926  4370 net.cpp:156] Memory required for data: 997198848
I0423 23:58:02.725935  4370 layer_factory.hpp:77] Creating layer conv3_3
I0423 23:58:02.725944  4370 net.cpp:91] Creating Layer conv3_3
I0423 23:58:02.725950  4370 net.cpp:425] conv3_3 <- conv3_3b
I0423 23:58:02.725957  4370 net.cpp:425] conv3_3 <- conv3_2_conv3_2_relu_0_split_1
I0423 23:58:02.725965  4370 net.cpp:399] conv3_3 -> conv3_3
I0423 23:58:02.725996  4370 net.cpp:141] Setting up conv3_3
I0423 23:58:02.726006  4370 net.cpp:148] Top shape: 256 32 16 16 (2097152)
I0423 23:58:02.726011  4370 net.cpp:156] Memory required for data: 1005587456
I0423 23:58:02.726016  4370 layer_factory.hpp:77] Creating layer conv3_3_relu
I0423 23:58:02.726025  4370 net.cpp:91] Creating Layer conv3_3_relu
I0423 23:58:02.726030  4370 net.cpp:425] conv3_3_relu <- conv3_3
I0423 23:58:02.726042  4370 net.cpp:386] conv3_3_relu -> conv3_3 (in-place)
I0423 23:58:02.726253  4370 net.cpp:141] Setting up conv3_3_relu
I0423 23:58:02.726269  4370 net.cpp:148] Top shape: 256 32 16 16 (2097152)
I0423 23:58:02.726274  4370 net.cpp:156] Memory required for data: 1013976064
I0423 23:58:02.726279  4370 layer_factory.hpp:77] Creating layer conv3_3_conv3_3_relu_0_split
I0423 23:58:02.726287  4370 net.cpp:91] Creating Layer conv3_3_conv3_3_relu_0_split
I0423 23:58:02.726294  4370 net.cpp:425] conv3_3_conv3_3_relu_0_split <- conv3_3
I0423 23:58:02.726305  4370 net.cpp:399] conv3_3_conv3_3_relu_0_split -> conv3_3_conv3_3_relu_0_split_0
I0423 23:58:02.726315  4370 net.cpp:399] conv3_3_conv3_3_relu_0_split -> conv3_3_conv3_3_relu_0_split_1
I0423 23:58:02.726369  4370 net.cpp:141] Setting up conv3_3_conv3_3_relu_0_split
I0423 23:58:02.726380  4370 net.cpp:148] Top shape: 256 32 16 16 (2097152)
I0423 23:58:02.726387  4370 net.cpp:148] Top shape: 256 32 16 16 (2097152)
I0423 23:58:02.726392  4370 net.cpp:156] Memory required for data: 1030753280
I0423 23:58:02.726397  4370 layer_factory.hpp:77] Creating layer conv3_sub
I0423 23:58:02.726411  4370 net.cpp:91] Creating Layer conv3_sub
I0423 23:58:02.726418  4370 net.cpp:425] conv3_sub <- conv3_3_conv3_3_relu_0_split_0
I0423 23:58:02.726429  4370 net.cpp:399] conv3_sub -> conv3_sub
I0423 23:58:02.727692  4370 net.cpp:141] Setting up conv3_sub
I0423 23:58:02.727713  4370 net.cpp:148] Top shape: 256 64 8 8 (1048576)
I0423 23:58:02.727721  4370 net.cpp:156] Memory required for data: 1034947584
I0423 23:58:02.727731  4370 layer_factory.hpp:77] Creating layer bn_conv3_sub
I0423 23:58:02.727741  4370 net.cpp:91] Creating Layer bn_conv3_sub
I0423 23:58:02.727748  4370 net.cpp:425] bn_conv3_sub <- conv3_sub
I0423 23:58:02.727759  4370 net.cpp:386] bn_conv3_sub -> conv3_sub (in-place)
I0423 23:58:02.727994  4370 net.cpp:141] Setting up bn_conv3_sub
I0423 23:58:02.728005  4370 net.cpp:148] Top shape: 256 64 8 8 (1048576)
I0423 23:58:02.728011  4370 net.cpp:156] Memory required for data: 1039141888
I0423 23:58:02.728021  4370 layer_factory.hpp:77] Creating layer scale_conv3_sub
I0423 23:58:02.728031  4370 net.cpp:91] Creating Layer scale_conv3_sub
I0423 23:58:02.728037  4370 net.cpp:425] scale_conv3_sub <- conv3_sub
I0423 23:58:02.728049  4370 net.cpp:386] scale_conv3_sub -> conv3_sub (in-place)
I0423 23:58:02.728094  4370 layer_factory.hpp:77] Creating layer scale_conv3_sub
I0423 23:58:02.728238  4370 net.cpp:141] Setting up scale_conv3_sub
I0423 23:58:02.728250  4370 net.cpp:148] Top shape: 256 64 8 8 (1048576)
I0423 23:58:02.728255  4370 net.cpp:156] Memory required for data: 1043336192
I0423 23:58:02.728265  4370 layer_factory.hpp:77] Creating layer conv3_sub_scale_conv3_sub_0_split
I0423 23:58:02.728272  4370 net.cpp:91] Creating Layer conv3_sub_scale_conv3_sub_0_split
I0423 23:58:02.728278  4370 net.cpp:425] conv3_sub_scale_conv3_sub_0_split <- conv3_sub
I0423 23:58:02.728286  4370 net.cpp:399] conv3_sub_scale_conv3_sub_0_split -> conv3_sub_scale_conv3_sub_0_split_0
I0423 23:58:02.728296  4370 net.cpp:399] conv3_sub_scale_conv3_sub_0_split -> conv3_sub_scale_conv3_sub_0_split_1
I0423 23:58:02.728343  4370 net.cpp:141] Setting up conv3_sub_scale_conv3_sub_0_split
I0423 23:58:02.728353  4370 net.cpp:148] Top shape: 256 64 8 8 (1048576)
I0423 23:58:02.728360  4370 net.cpp:148] Top shape: 256 64 8 8 (1048576)
I0423 23:58:02.728365  4370 net.cpp:156] Memory required for data: 1051724800
I0423 23:58:02.728370  4370 layer_factory.hpp:77] Creating layer conv4_1a
I0423 23:58:02.728385  4370 net.cpp:91] Creating Layer conv4_1a
I0423 23:58:02.728392  4370 net.cpp:425] conv4_1a <- conv3_3_conv3_3_relu_0_split_1
I0423 23:58:02.728402  4370 net.cpp:399] conv4_1a -> conv4_1a
I0423 23:58:02.729681  4370 net.cpp:141] Setting up conv4_1a
I0423 23:58:02.729702  4370 net.cpp:148] Top shape: 256 64 8 8 (1048576)
I0423 23:58:02.729708  4370 net.cpp:156] Memory required for data: 1055919104
I0423 23:58:02.729718  4370 layer_factory.hpp:77] Creating layer bn_conv4_1a
I0423 23:58:02.729732  4370 net.cpp:91] Creating Layer bn_conv4_1a
I0423 23:58:02.729738  4370 net.cpp:425] bn_conv4_1a <- conv4_1a
I0423 23:58:02.729753  4370 net.cpp:386] bn_conv4_1a -> conv4_1a (in-place)
I0423 23:58:02.729991  4370 net.cpp:141] Setting up bn_conv4_1a
I0423 23:58:02.730002  4370 net.cpp:148] Top shape: 256 64 8 8 (1048576)
I0423 23:58:02.730008  4370 net.cpp:156] Memory required for data: 1060113408
I0423 23:58:02.730020  4370 layer_factory.hpp:77] Creating layer scale_conv4_1a
I0423 23:58:02.730028  4370 net.cpp:91] Creating Layer scale_conv4_1a
I0423 23:58:02.730034  4370 net.cpp:425] scale_conv4_1a <- conv4_1a
I0423 23:58:02.730042  4370 net.cpp:386] scale_conv4_1a -> conv4_1a (in-place)
I0423 23:58:02.730093  4370 layer_factory.hpp:77] Creating layer scale_conv4_1a
I0423 23:58:02.730242  4370 net.cpp:141] Setting up scale_conv4_1a
I0423 23:58:02.730254  4370 net.cpp:148] Top shape: 256 64 8 8 (1048576)
I0423 23:58:02.730259  4370 net.cpp:156] Memory required for data: 1064307712
I0423 23:58:02.730268  4370 layer_factory.hpp:77] Creating layer conv4_1a_relu
I0423 23:58:02.730279  4370 net.cpp:91] Creating Layer conv4_1a_relu
I0423 23:58:02.730284  4370 net.cpp:425] conv4_1a_relu <- conv4_1a
I0423 23:58:02.730293  4370 net.cpp:386] conv4_1a_relu -> conv4_1a (in-place)
I0423 23:58:02.730504  4370 net.cpp:141] Setting up conv4_1a_relu
I0423 23:58:02.730520  4370 net.cpp:148] Top shape: 256 64 8 8 (1048576)
I0423 23:58:02.730525  4370 net.cpp:156] Memory required for data: 1068502016
I0423 23:58:02.730530  4370 layer_factory.hpp:77] Creating layer conv4_1b
I0423 23:58:02.730547  4370 net.cpp:91] Creating Layer conv4_1b
I0423 23:58:02.730554  4370 net.cpp:425] conv4_1b <- conv4_1a
I0423 23:58:02.730563  4370 net.cpp:399] conv4_1b -> conv4_1b
I0423 23:58:02.733633  4370 net.cpp:141] Setting up conv4_1b
I0423 23:58:02.733654  4370 net.cpp:148] Top shape: 256 64 8 8 (1048576)
I0423 23:58:02.733660  4370 net.cpp:156] Memory required for data: 1072696320
I0423 23:58:02.733670  4370 layer_factory.hpp:77] Creating layer bn_conv4_1b
I0423 23:58:02.733683  4370 net.cpp:91] Creating Layer bn_conv4_1b
I0423 23:58:02.733690  4370 net.cpp:425] bn_conv4_1b <- conv4_1b
I0423 23:58:02.733701  4370 net.cpp:386] bn_conv4_1b -> conv4_1b (in-place)
I0423 23:58:02.733952  4370 net.cpp:141] Setting up bn_conv4_1b
I0423 23:58:02.733964  4370 net.cpp:148] Top shape: 256 64 8 8 (1048576)
I0423 23:58:02.733970  4370 net.cpp:156] Memory required for data: 1076890624
I0423 23:58:02.733999  4370 layer_factory.hpp:77] Creating layer scale_conv4_1b
I0423 23:58:02.734011  4370 net.cpp:91] Creating Layer scale_conv4_1b
I0423 23:58:02.734017  4370 net.cpp:425] scale_conv4_1b <- conv4_1b
I0423 23:58:02.734025  4370 net.cpp:386] scale_conv4_1b -> conv4_1b (in-place)
I0423 23:58:02.734076  4370 layer_factory.hpp:77] Creating layer scale_conv4_1b
I0423 23:58:02.734222  4370 net.cpp:141] Setting up scale_conv4_1b
I0423 23:58:02.734235  4370 net.cpp:148] Top shape: 256 64 8 8 (1048576)
I0423 23:58:02.734239  4370 net.cpp:156] Memory required for data: 1081084928
I0423 23:58:02.734248  4370 layer_factory.hpp:77] Creating layer conv4_1
I0423 23:58:02.734257  4370 net.cpp:91] Creating Layer conv4_1
I0423 23:58:02.734263  4370 net.cpp:425] conv4_1 <- conv2_sub2
I0423 23:58:02.734271  4370 net.cpp:425] conv4_1 <- conv3_sub_scale_conv3_sub_0_split_0
I0423 23:58:02.734277  4370 net.cpp:425] conv4_1 <- conv4_1b
I0423 23:58:02.734287  4370 net.cpp:399] conv4_1 -> conv4_1
I0423 23:58:02.734318  4370 net.cpp:141] Setting up conv4_1
I0423 23:58:02.734329  4370 net.cpp:148] Top shape: 256 64 8 8 (1048576)
I0423 23:58:02.734334  4370 net.cpp:156] Memory required for data: 1085279232
I0423 23:58:02.734340  4370 layer_factory.hpp:77] Creating layer conv4_1_relu
I0423 23:58:02.734349  4370 net.cpp:91] Creating Layer conv4_1_relu
I0423 23:58:02.734354  4370 net.cpp:425] conv4_1_relu <- conv4_1
I0423 23:58:02.734361  4370 net.cpp:386] conv4_1_relu -> conv4_1 (in-place)
I0423 23:58:02.734705  4370 net.cpp:141] Setting up conv4_1_relu
I0423 23:58:02.734726  4370 net.cpp:148] Top shape: 256 64 8 8 (1048576)
I0423 23:58:02.734732  4370 net.cpp:156] Memory required for data: 1089473536
I0423 23:58:02.734743  4370 layer_factory.hpp:77] Creating layer conv4_1_conv4_1_relu_0_split
I0423 23:58:02.734753  4370 net.cpp:91] Creating Layer conv4_1_conv4_1_relu_0_split
I0423 23:58:02.734760  4370 net.cpp:425] conv4_1_conv4_1_relu_0_split <- conv4_1
I0423 23:58:02.734768  4370 net.cpp:399] conv4_1_conv4_1_relu_0_split -> conv4_1_conv4_1_relu_0_split_0
I0423 23:58:02.734778  4370 net.cpp:399] conv4_1_conv4_1_relu_0_split -> conv4_1_conv4_1_relu_0_split_1
I0423 23:58:02.734836  4370 net.cpp:141] Setting up conv4_1_conv4_1_relu_0_split
I0423 23:58:02.734848  4370 net.cpp:148] Top shape: 256 64 8 8 (1048576)
I0423 23:58:02.734854  4370 net.cpp:148] Top shape: 256 64 8 8 (1048576)
I0423 23:58:02.734859  4370 net.cpp:156] Memory required for data: 1097862144
I0423 23:58:02.734865  4370 layer_factory.hpp:77] Creating layer conv4_2a
I0423 23:58:02.734880  4370 net.cpp:91] Creating Layer conv4_2a
I0423 23:58:02.734889  4370 net.cpp:425] conv4_2a <- conv4_1_conv4_1_relu_0_split_0
I0423 23:58:02.734899  4370 net.cpp:399] conv4_2a -> conv4_2a
I0423 23:58:02.737290  4370 net.cpp:141] Setting up conv4_2a
I0423 23:58:02.737311  4370 net.cpp:148] Top shape: 256 64 8 8 (1048576)
I0423 23:58:02.737318  4370 net.cpp:156] Memory required for data: 1102056448
I0423 23:58:02.737329  4370 layer_factory.hpp:77] Creating layer bn_conv4_2a
I0423 23:58:02.737341  4370 net.cpp:91] Creating Layer bn_conv4_2a
I0423 23:58:02.737349  4370 net.cpp:425] bn_conv4_2a <- conv4_2a
I0423 23:58:02.737356  4370 net.cpp:386] bn_conv4_2a -> conv4_2a (in-place)
I0423 23:58:02.737609  4370 net.cpp:141] Setting up bn_conv4_2a
I0423 23:58:02.737622  4370 net.cpp:148] Top shape: 256 64 8 8 (1048576)
I0423 23:58:02.737627  4370 net.cpp:156] Memory required for data: 1106250752
I0423 23:58:02.737637  4370 layer_factory.hpp:77] Creating layer scale_conv4_2a
I0423 23:58:02.737649  4370 net.cpp:91] Creating Layer scale_conv4_2a
I0423 23:58:02.737655  4370 net.cpp:425] scale_conv4_2a <- conv4_2a
I0423 23:58:02.737663  4370 net.cpp:386] scale_conv4_2a -> conv4_2a (in-place)
I0423 23:58:02.737715  4370 layer_factory.hpp:77] Creating layer scale_conv4_2a
I0423 23:58:02.737864  4370 net.cpp:141] Setting up scale_conv4_2a
I0423 23:58:02.737876  4370 net.cpp:148] Top shape: 256 64 8 8 (1048576)
I0423 23:58:02.737881  4370 net.cpp:156] Memory required for data: 1110445056
I0423 23:58:02.737890  4370 layer_factory.hpp:77] Creating layer conv4_2a_relu
I0423 23:58:02.737901  4370 net.cpp:91] Creating Layer conv4_2a_relu
I0423 23:58:02.737907  4370 net.cpp:425] conv4_2a_relu <- conv4_2a
I0423 23:58:02.737915  4370 net.cpp:386] conv4_2a_relu -> conv4_2a (in-place)
I0423 23:58:02.738258  4370 net.cpp:141] Setting up conv4_2a_relu
I0423 23:58:02.738276  4370 net.cpp:148] Top shape: 256 64 8 8 (1048576)
I0423 23:58:02.738281  4370 net.cpp:156] Memory required for data: 1114639360
I0423 23:58:02.738287  4370 layer_factory.hpp:77] Creating layer conv4_2b
I0423 23:58:02.738306  4370 net.cpp:91] Creating Layer conv4_2b
I0423 23:58:02.738312  4370 net.cpp:425] conv4_2b <- conv4_2a
I0423 23:58:02.738322  4370 net.cpp:399] conv4_2b -> conv4_2b
I0423 23:58:02.740826  4370 net.cpp:141] Setting up conv4_2b
I0423 23:58:02.740846  4370 net.cpp:148] Top shape: 256 64 8 8 (1048576)
I0423 23:58:02.740852  4370 net.cpp:156] Memory required for data: 1118833664
I0423 23:58:02.740862  4370 layer_factory.hpp:77] Creating layer bn_conv4_2b
I0423 23:58:02.740875  4370 net.cpp:91] Creating Layer bn_conv4_2b
I0423 23:58:02.740882  4370 net.cpp:425] bn_conv4_2b <- conv4_2b
I0423 23:58:02.740890  4370 net.cpp:386] bn_conv4_2b -> conv4_2b (in-place)
I0423 23:58:02.741144  4370 net.cpp:141] Setting up bn_conv4_2b
I0423 23:58:02.741158  4370 net.cpp:148] Top shape: 256 64 8 8 (1048576)
I0423 23:58:02.741163  4370 net.cpp:156] Memory required for data: 1123027968
I0423 23:58:02.741174  4370 layer_factory.hpp:77] Creating layer scale_conv4_2b
I0423 23:58:02.741184  4370 net.cpp:91] Creating Layer scale_conv4_2b
I0423 23:58:02.741190  4370 net.cpp:425] scale_conv4_2b <- conv4_2b
I0423 23:58:02.741204  4370 net.cpp:386] scale_conv4_2b -> conv4_2b (in-place)
I0423 23:58:02.741263  4370 layer_factory.hpp:77] Creating layer scale_conv4_2b
I0423 23:58:02.741418  4370 net.cpp:141] Setting up scale_conv4_2b
I0423 23:58:02.741432  4370 net.cpp:148] Top shape: 256 64 8 8 (1048576)
I0423 23:58:02.741437  4370 net.cpp:156] Memory required for data: 1127222272
I0423 23:58:02.741447  4370 layer_factory.hpp:77] Creating layer conv4_2
I0423 23:58:02.741456  4370 net.cpp:91] Creating Layer conv4_2
I0423 23:58:02.741462  4370 net.cpp:425] conv4_2 <- conv4_1_conv4_1_relu_0_split_1
I0423 23:58:02.741469  4370 net.cpp:425] conv4_2 <- conv4_2b
I0423 23:58:02.741477  4370 net.cpp:399] conv4_2 -> conv4_2
I0423 23:58:02.741506  4370 net.cpp:141] Setting up conv4_2
I0423 23:58:02.741519  4370 net.cpp:148] Top shape: 256 64 8 8 (1048576)
I0423 23:58:02.741524  4370 net.cpp:156] Memory required for data: 1131416576
I0423 23:58:02.741530  4370 layer_factory.hpp:77] Creating layer conv4_2_relu
I0423 23:58:02.741539  4370 net.cpp:91] Creating Layer conv4_2_relu
I0423 23:58:02.741544  4370 net.cpp:425] conv4_2_relu <- conv4_2
I0423 23:58:02.741554  4370 net.cpp:386] conv4_2_relu -> conv4_2 (in-place)
I0423 23:58:02.741765  4370 net.cpp:141] Setting up conv4_2_relu
I0423 23:58:02.741780  4370 net.cpp:148] Top shape: 256 64 8 8 (1048576)
I0423 23:58:02.741786  4370 net.cpp:156] Memory required for data: 1135610880
I0423 23:58:02.741792  4370 layer_factory.hpp:77] Creating layer conv4_2_conv4_2_relu_0_split
I0423 23:58:02.741801  4370 net.cpp:91] Creating Layer conv4_2_conv4_2_relu_0_split
I0423 23:58:02.741806  4370 net.cpp:425] conv4_2_conv4_2_relu_0_split <- conv4_2
I0423 23:58:02.741816  4370 net.cpp:399] conv4_2_conv4_2_relu_0_split -> conv4_2_conv4_2_relu_0_split_0
I0423 23:58:02.741827  4370 net.cpp:399] conv4_2_conv4_2_relu_0_split -> conv4_2_conv4_2_relu_0_split_1
I0423 23:58:02.741885  4370 net.cpp:141] Setting up conv4_2_conv4_2_relu_0_split
I0423 23:58:02.741896  4370 net.cpp:148] Top shape: 256 64 8 8 (1048576)
I0423 23:58:02.741902  4370 net.cpp:148] Top shape: 256 64 8 8 (1048576)
I0423 23:58:02.741907  4370 net.cpp:156] Memory required for data: 1143999488
I0423 23:58:02.741914  4370 layer_factory.hpp:77] Creating layer conv4_3a
I0423 23:58:02.741928  4370 net.cpp:91] Creating Layer conv4_3a
I0423 23:58:02.741935  4370 net.cpp:425] conv4_3a <- conv4_2_conv4_2_relu_0_split_0
I0423 23:58:02.741946  4370 net.cpp:399] conv4_3a -> conv4_3a
I0423 23:58:02.744451  4370 net.cpp:141] Setting up conv4_3a
I0423 23:58:02.744470  4370 net.cpp:148] Top shape: 256 64 8 8 (1048576)
I0423 23:58:02.744479  4370 net.cpp:156] Memory required for data: 1148193792
I0423 23:58:02.744489  4370 layer_factory.hpp:77] Creating layer bn_conv4_3a
I0423 23:58:02.744499  4370 net.cpp:91] Creating Layer bn_conv4_3a
I0423 23:58:02.744506  4370 net.cpp:425] bn_conv4_3a <- conv4_3a
I0423 23:58:02.744518  4370 net.cpp:386] bn_conv4_3a -> conv4_3a (in-place)
I0423 23:58:02.744766  4370 net.cpp:141] Setting up bn_conv4_3a
I0423 23:58:02.744778  4370 net.cpp:148] Top shape: 256 64 8 8 (1048576)
I0423 23:58:02.744783  4370 net.cpp:156] Memory required for data: 1152388096
I0423 23:58:02.744794  4370 layer_factory.hpp:77] Creating layer scale_conv4_3a
I0423 23:58:02.744804  4370 net.cpp:91] Creating Layer scale_conv4_3a
I0423 23:58:02.744810  4370 net.cpp:425] scale_conv4_3a <- conv4_3a
I0423 23:58:02.744818  4370 net.cpp:386] scale_conv4_3a -> conv4_3a (in-place)
I0423 23:58:02.744874  4370 layer_factory.hpp:77] Creating layer scale_conv4_3a
I0423 23:58:02.745023  4370 net.cpp:141] Setting up scale_conv4_3a
I0423 23:58:02.745035  4370 net.cpp:148] Top shape: 256 64 8 8 (1048576)
I0423 23:58:02.745040  4370 net.cpp:156] Memory required for data: 1156582400
I0423 23:58:02.745049  4370 layer_factory.hpp:77] Creating layer conv4_3a_relu
I0423 23:58:02.745059  4370 net.cpp:91] Creating Layer conv4_3a_relu
I0423 23:58:02.745064  4370 net.cpp:425] conv4_3a_relu <- conv4_3a
I0423 23:58:02.745071  4370 net.cpp:386] conv4_3a_relu -> conv4_3a (in-place)
I0423 23:58:02.745429  4370 net.cpp:141] Setting up conv4_3a_relu
I0423 23:58:02.745447  4370 net.cpp:148] Top shape: 256 64 8 8 (1048576)
I0423 23:58:02.745453  4370 net.cpp:156] Memory required for data: 1160776704
I0423 23:58:02.745460  4370 layer_factory.hpp:77] Creating layer conv4_3b
I0423 23:58:02.745476  4370 net.cpp:91] Creating Layer conv4_3b
I0423 23:58:02.745482  4370 net.cpp:425] conv4_3b <- conv4_3a
I0423 23:58:02.745494  4370 net.cpp:399] conv4_3b -> conv4_3b
I0423 23:58:02.747874  4370 net.cpp:141] Setting up conv4_3b
I0423 23:58:02.747895  4370 net.cpp:148] Top shape: 256 64 8 8 (1048576)
I0423 23:58:02.747901  4370 net.cpp:156] Memory required for data: 1164971008
I0423 23:58:02.747911  4370 layer_factory.hpp:77] Creating layer bn_conv4_3b
I0423 23:58:02.747922  4370 net.cpp:91] Creating Layer bn_conv4_3b
I0423 23:58:02.747928  4370 net.cpp:425] bn_conv4_3b <- conv4_3b
I0423 23:58:02.747939  4370 net.cpp:386] bn_conv4_3b -> conv4_3b (in-place)
I0423 23:58:02.748186  4370 net.cpp:141] Setting up bn_conv4_3b
I0423 23:58:02.748198  4370 net.cpp:148] Top shape: 256 64 8 8 (1048576)
I0423 23:58:02.748203  4370 net.cpp:156] Memory required for data: 1169165312
I0423 23:58:02.748214  4370 layer_factory.hpp:77] Creating layer scale_conv4_3b
I0423 23:58:02.748224  4370 net.cpp:91] Creating Layer scale_conv4_3b
I0423 23:58:02.748229  4370 net.cpp:425] scale_conv4_3b <- conv4_3b
I0423 23:58:02.748240  4370 net.cpp:386] scale_conv4_3b -> conv4_3b (in-place)
I0423 23:58:02.748289  4370 layer_factory.hpp:77] Creating layer scale_conv4_3b
I0423 23:58:02.748445  4370 net.cpp:141] Setting up scale_conv4_3b
I0423 23:58:02.748456  4370 net.cpp:148] Top shape: 256 64 8 8 (1048576)
I0423 23:58:02.748462  4370 net.cpp:156] Memory required for data: 1173359616
I0423 23:58:02.748471  4370 layer_factory.hpp:77] Creating layer conv4_3
I0423 23:58:02.748481  4370 net.cpp:91] Creating Layer conv4_3
I0423 23:58:02.748487  4370 net.cpp:425] conv4_3 <- conv4_2_conv4_2_relu_0_split_1
I0423 23:58:02.748494  4370 net.cpp:425] conv4_3 <- conv3_sub_scale_conv3_sub_0_split_1
I0423 23:58:02.748502  4370 net.cpp:425] conv4_3 <- conv4_3b
I0423 23:58:02.748509  4370 net.cpp:399] conv4_3 -> conv4_3
I0423 23:58:02.748543  4370 net.cpp:141] Setting up conv4_3
I0423 23:58:02.748553  4370 net.cpp:148] Top shape: 256 64 8 8 (1048576)
I0423 23:58:02.748558  4370 net.cpp:156] Memory required for data: 1177553920
I0423 23:58:02.748564  4370 layer_factory.hpp:77] Creating layer conv4_3_relu
I0423 23:58:02.748574  4370 net.cpp:91] Creating Layer conv4_3_relu
I0423 23:58:02.748579  4370 net.cpp:425] conv4_3_relu <- conv4_3
I0423 23:58:02.748587  4370 net.cpp:386] conv4_3_relu -> conv4_3 (in-place)
I0423 23:58:02.749058  4370 net.cpp:141] Setting up conv4_3_relu
I0423 23:58:02.749078  4370 net.cpp:148] Top shape: 256 64 8 8 (1048576)
I0423 23:58:02.749083  4370 net.cpp:156] Memory required for data: 1181748224
I0423 23:58:02.749089  4370 layer_factory.hpp:77] Creating layer global_pool
I0423 23:58:02.749099  4370 net.cpp:91] Creating Layer global_pool
I0423 23:58:02.749106  4370 net.cpp:425] global_pool <- conv4_3
I0423 23:58:02.749124  4370 net.cpp:399] global_pool -> global_pool
I0423 23:58:02.749383  4370 net.cpp:141] Setting up global_pool
I0423 23:58:02.749399  4370 net.cpp:148] Top shape: 256 64 1 1 (16384)
I0423 23:58:02.749404  4370 net.cpp:156] Memory required for data: 1181813760
I0423 23:58:02.749411  4370 layer_factory.hpp:77] Creating layer ip
I0423 23:58:02.749421  4370 net.cpp:91] Creating Layer ip
I0423 23:58:02.749428  4370 net.cpp:425] ip <- global_pool
I0423 23:58:02.749439  4370 net.cpp:399] ip -> ip
I0423 23:58:02.749583  4370 net.cpp:141] Setting up ip
I0423 23:58:02.749596  4370 net.cpp:148] Top shape: 256 10 (2560)
I0423 23:58:02.749603  4370 net.cpp:156] Memory required for data: 1181824000
I0423 23:58:02.749613  4370 layer_factory.hpp:77] Creating layer ip_ip_0_split
I0423 23:58:02.749620  4370 net.cpp:91] Creating Layer ip_ip_0_split
I0423 23:58:02.749626  4370 net.cpp:425] ip_ip_0_split <- ip
I0423 23:58:02.749634  4370 net.cpp:399] ip_ip_0_split -> ip_ip_0_split_0
I0423 23:58:02.749650  4370 net.cpp:399] ip_ip_0_split -> ip_ip_0_split_1
I0423 23:58:02.749699  4370 net.cpp:141] Setting up ip_ip_0_split
I0423 23:58:02.749709  4370 net.cpp:148] Top shape: 256 10 (2560)
I0423 23:58:02.749716  4370 net.cpp:148] Top shape: 256 10 (2560)
I0423 23:58:02.749722  4370 net.cpp:156] Memory required for data: 1181844480
I0423 23:58:02.749727  4370 layer_factory.hpp:77] Creating layer accuracy
I0423 23:58:02.749738  4370 net.cpp:91] Creating Layer accuracy
I0423 23:58:02.749745  4370 net.cpp:425] accuracy <- ip_ip_0_split_0
I0423 23:58:02.749752  4370 net.cpp:425] accuracy <- label_cifar_1_split_0
I0423 23:58:02.749763  4370 net.cpp:399] accuracy -> accuracy
…
I0423 23:58:02.753793  4370 solver.cpp:181] Creating test net (#0) specified by net file: prototxt/ResNet-cifar.prototxt
I0423 23:58:02.753952  4370 net.cpp:313] The NetState phase (1) differed from the phase (0) specified by a rule in layer cifar
I0423 23:58:02.754581  4370 net.cpp:49] Initializing net from parameters: 
name: "ResNet-cifar"
state {
  phase: TEST
}
layer {
  name: "cifar"
  type: "Data"
  top: "data"
  top: "label"
  include {
    phase: TEST
  }
  transform_param {
    mean_file: "data/cifar10/mean.binaryproto"
  }
  data_param {
    source: "data/cifar10/cifar10_test_lmdb"
    batch_size: 100
    backend: LMDB
  }
}
layer {
  name: "conv1"
  type: "Convolution"
  bottom: "data"
  top: "conv1"
  param {
    lr_mult: 1
  }
  param {
    lr_mult: 2
  }
  convolution_param {
    num_output: 16
    pad: 1
    kernel_size: 3
    weight_filler {
      type: "msra"
    }
    bias_filler {
      type: "constant"
    }
  }
}
layer {
  name: "bn_conv1"
  type: "BatchNorm"
  bottom: "conv1"
  top: "conv1"
  param {
    lr_mult: 0
  }
  param {
    lr_mult: 0
  }
  param {
    lr_mult: 0
  }
}
layer {
  name: "scale_conv1"
  type: "Scale"
  bottom: "conv1"
  top: "conv1"
  scale_param {
    bias_term: true
  }
}
layer {
  name: "conv1_relu"
  type: "ReLU"
  bottom: "conv1"
  top: "conv1"
}
layer {
  name: "conv1_sub2"
  type: "Convolution"
  bottom: "conv1"
  top: "conv1_sub2"
  param {
    lr_mult: 1
  }
  param {
    lr_mult: 2
  }
  convolution_param {
    num_output: 32
    kernel_size: 1
    stride: 2
    weight_filler {
      type: "msra"
    }
    bias_filler {
      type: "constant"
      value: 0
    }
  }
}
layer {
  name: "bn_conv1_sub2"
  type: "BatchNorm"
  bottom: "conv1_sub2"
  top: "conv1_sub2"
  param {
    lr_mult: 0
  }
  param {
    lr_mult: 0
  }
  param {
    lr_mult: 0
  }
}
layer {
  name: "scale_conv1_sub2"
  type: "Scale"
  bottom: "conv1_sub2"
  top: "conv1_sub2"
  scale_param {
    bias_term: true
  }
}
layer {
  name: "conv2_1a"
  type: "Convolution"
  bottom: "conv1"
  top: "conv2_1a"
  param {
    lr_mult: 1
  }
  param {
    lr_mult: 2
  }
  convolution_param {
    num_output: 16
    pad: 1
    kernel_size: 3
    stride: 1
    weight_filler {
      type: "msra"
    }
    bias_filler {
      type: "constant"
      value: 0
    }
  }
}
layer {
  name: "bn_conv2_1a"
  type: "BatchNorm"
  bottom: "conv2_1a"
  top: "conv2_1a"
  param {
    lr_mult: 0
  }
  param {
    lr_mult: 0
  }
  param {
    lr_mult: 0
  }
}
layer {
  name: "scale_conv2_1a"
  type: "Scale"
  bottom: "conv2_1a"
  top: "conv2_1a"
  scale_param {
    bias_term: true
  }
}
layer {
  name: "conv2_1a_relu"
  type: "ReLU"
  bottom: "conv2_1a"
  top: "conv2_1a"
}
layer {
  name: "conv2_1b"
  type: "Convolution"
  bottom: "conv2_1a"
  top: "conv2_1b"
  param {
    lr_mult: 1
  }
  param {
    lr_mult: 2
  }
  convolution_param {
    num_output: 16
    pad: 1
    kernel_size: 3
    stride: 1
    weight_filler {
      type: "msra"
    }
    bias_filler {
      type: "constant"
      value: 0
    }
  }
}
layer {
  name: "bn_conv2_1b"
  type: "BatchNorm"
  bottom: "conv2_1b"
  top: "conv2_1b"
  param {
    lr_mult: 0
  }
  param {
    lr_mult: 0
  }
  param {
    lr_mult: 0
  }
}
layer {
  name: "scale_conv2_1b"
  type: "Scale"
  bottom: "conv2_1b"
  top: "conv2_1b"
  scale_param {
    bias_term: true
  }
}
layer {
  name: "conv2_1"
  type: "Eltwise"
  bottom: "conv2_1b"
  bottom: "conv1"
  top: "conv2_1"
}
layer {
  name: "conv2_1_relu"
  type: "ReLU"
  bottom: "conv2_1"
  top: "conv2_1"
}
layer {
  name: "conv2_2a"
  type: "Convolution"
  bottom: "conv2_1"
  top: "conv2_2a"
  param {
    lr_mult: 1
  }
  param {
    lr_mult: 2
  }
  convolution_param {
    num_output: 16
    pad: 1
    kernel_size: 3
    stride: 1
    weight_filler {
      type: "msra"
    }
    bias_filler {
      type: "constant"
      value: 0
    }
  }
}
layer {
  name: "bn_conv2_2a"
  type: "BatchNorm"
  bottom: "conv2_2a"
  top: "conv2_2a"
  param {
    lr_mult: 0
  }
  param {
    lr_mult: 0
  }
  param {
    lr_mult: 0
  }
}
layer {
  name: "scale_conv2_2a"
  type: "Scale"
  bottom: "conv2_2a"
  top: "conv2_2a"
  scale_param {
    bias_term: true
  }
}
layer {
  name: "conv2_2a_relu"
  type: "ReLU"
  bottom: "conv2_2a"
  top: "conv2_2a"
}
layer {
  name: "conv2_2b"
  type: "Convolution"
  bottom: "conv2_2a"
  top: "conv2_2b"
  param {
    lr_mult: 1
  }
  param {
    lr_mult: 2
  }
  convolution_param {
    num_output: 16
    pad: 1
    kernel_size: 3
    stride: 1
    weight_filler {
      type: "msra"
    }
    bias_filler {
      type: "constant"
      value: 0
    }
  }
}
layer {
  name: "bn_conv2_2b"
  type: "BatchNorm"
  bottom: "conv2_2b"
  top: "conv2_2b"
  param {
    lr_mult: 0
  }
  param {
    lr_mult: 0
  }
  param {
    lr_mult: 0
  }
}
layer {
  name: "scale_conv2_2b"
  type: "Scale"
  bottom: "conv2_2b"
  top: "conv2_2b"
  scale_param {
    bias_term: true
  }
}
layer {
  name: "conv2_2"
  type: "Eltwise"
  bottom: "conv2_2b"
  bottom: "conv2_1"
  top: "conv2_2"
}
layer {
  name: "conv2_2_relu"
  type: "ReLU"
  bottom: "conv2_2"
  top: "conv2_2"
}
layer {
  name: "conv2_3a"
  type: "Convolution"
  bottom: "conv2_2"
  top: "conv2_3a"
  param {
    lr_mult: 1
  }
  param {
    lr_mult: 2
  }
  convolution_param {
    num_output: 16
    pad: 1
    kernel_size: 3
    stride: 1
    weight_filler {
      type: "msra"
    }
    bias_filler {
      type: "constant"
      value: 0
    }
  }
}
layer {
  name: "bn_conv2_3a"
  type: "BatchNorm"
  bottom: "conv2_3a"
  top: "conv2_3a"
  param {
    lr_mult: 0
  }
  param {
    lr_mult: 0
  }
  param {
    lr_mult: 0
  }
}
layer {
  name: "scale_conv2_3a"
  type: "Scale"
  bottom: "conv2_3a"
  top: "conv2_3a"
  scale_param {
    bias_term: true
  }
}
layer {
  name: "conv2_3a_relu"
  type: "ReLU"
  bottom: "conv2_3a"
  top: "conv2_3a"
}
layer {
  name: "conv2_3b"
  type: "Convolution"
  bottom: "conv2_3a"
  top: "conv2_3b"
  param {
    lr_mult: 1
  }
  param {
    lr_mult: 2
  }
  convolution_param {
    num_output: 16
    pad: 1
    kernel_size: 3
    stride: 1
    weight_filler {
      type: "msra"
    }
    bias_filler {
      type: "constant"
      value: 0
    }
  }
}
layer {
  name: "bn_conv2_3b"
  type: "BatchNorm"
  bottom: "conv2_3b"
  top: "conv2_3b"
  param {
    lr_mult: 0
  }
  param {
    lr_mult: 0
  }
  param {
    lr_mult: 0
  }
}
layer {
  name: "scale_conv2_3b"
  type: "Scale"
  bottom: "conv2_3b"
  top: "conv2_3b"
  scale_param {
    bias_term: true
  }
}
layer {
  name: "conv2_3"
  type: "Eltwise"
  bottom: "conv2_3b"
  bottom: "conv2_2"
  top: "conv2_3"
}
layer {
  name: "conv2_3_relu"
  type: "ReLU"
  bottom: "conv2_3"
  top: "conv2_3"
}
layer {
  name: "conv2_sub"
  type: "Convolution"
  bottom: "conv2_3"
  top: "conv2_sub"
  param {
    lr_mult: 1
  }
  param {
    lr_mult: 2
  }
  convolution_param {
    num_output: 32
    kernel_size: 1
    stride: 2
    weight_filler {
      type: "msra"
    }
    bias_filler {
      type: "constant"
      value: 0
    }
  }
}
layer {
  name: "bn_conv2_sub"
  type: "BatchNorm"
  bottom: "conv2_sub"
  top: "conv2_sub"
  param {
    lr_mult: 0
  }
  param {
    lr_mult: 0
  }
  param {
    lr_mult: 0
  }
}
layer {
  name: "scale_conv2_sub"
  type: "Scale"
  bottom: "conv2_sub"
  top: "conv2_sub"
  scale_param {
    bias_term: true
  }
}
layer {
  name: "conv2_sub2"
  type: "Convolution"
  bottom: "conv2_3"
  top: "conv2_sub2"
  param {
    lr_mult: 1
  }
  param {
    lr_mult: 2
  }
  convolution_param {
    num_output: 64
    kernel_size: 1
    stride: 4
    weight_filler {
      type: "msra"
    }
    bias_filler {
      type: "constant"
      value: 0
    }
  }
}
layer {
  name: "bn_conv2_sub2"
  type: "BatchNorm"
  bottom: "conv2_sub2"
  top: "conv2_sub2"
  param {
    lr_mult: 0
  }
  param {
    lr_mult: 0
  }
  param {
    lr_mult: 0
  }
}
layer {
  name: "scale_conv2_sub2"
  type: "Scale"
  bottom: "conv2_sub2"
  top: "conv2_sub2"
  scale_param {
    bias_term: true
  }
}
layer {
  name: "conv3_1a"
  type: "Convolution"
  bottom: "conv2_3"
  top: "conv3_1a"
  param {
    lr_mult: 1
  }
  param {
    lr_mult: 2
  }
  convolution_param {
    num_output: 32
    pad: 0
    kernel_size: 1
    stride: 2
    weight_filler {
      type: "msra"
    }
    bias_filler {
      type: "constant"
      value: 0
    }
  }
}
layer {
  name: "bn_conv3_1a"
  type: "BatchNorm"
  bottom: "conv3_1a"
  top: "conv3_1a"
  param {
    lr_mult: 0
  }
  param {
    lr_mult: 0
  }
  param {
    lr_mult: 0
  }
}
layer {
  name: "scale_conv3_1a"
  type: "Scale"
  bottom: "conv3_1a"
  top: "conv3_1a"
  scale_param {
    bias_term: true
  }
}
layer {
  name: "conv3_1a_relu"
  type: "ReLU"
  bottom: "conv3_1a"
  top: "conv3_1a"
}
layer {
  name: "conv3_1b"
  type: "Convolution"
  bottom: "conv3_1a"
  top: "conv3_1b"
  param {
    lr_mult: 1
  }
  param {
    lr_mult: 2
  }
  convolution_param {
    num_output: 32
    pad: 1
    kernel_size: 3
    stride: 1
    weight_filler {
      type: "msra"
    }
    bias_filler {
      type: "constant"
      value: 0
    }
  }
}
layer {
  name: "bn_conv3_1b"
  type: "BatchNorm"
  bottom: "conv3_1b"
  top: "conv3_1b"
  param {
    lr_mult: 0
  }
  param {
    lr_mult: 0
  }
  param {
    lr_mult: 0
  }
}
layer {
  name: "scale_conv3_1b"
  type: "Scale"
  bottom: "conv3_1b"
  top: "conv3_1b"
  scale_param {
    bias_term: true
  }
}
layer {
  name: "conv3_1"
  type: "Eltwise"
  bottom: "conv3_1b"
  bottom: "conv1_sub2"
  bottom: "conv2_sub"
  top: "conv3_1"
}
layer {
  name: "conv3_1_relu"
  type: "ReLU"
  bottom: "conv3_1"
  top: "conv3_1"
}
layer {
  name: "conv3_2a"
  type: "Convolution"
  bottom: "conv3_1"
  top: "conv3_2a"
  param {
    lr_mult: 1
  }
  param {
    lr_mult: 2
  }
  convolution_param {
    num_output: 32
    pad: 1
    kernel_size: 3
    stride: 1
    weight_filler {
      type: "msra"
    }
    bias_filler {
      type: "constant"
      value: 0
    }
  }
}
layer {
  name: "bn_conv3_2a"
  type: "BatchNorm"
  bottom: "conv3_2a"
  top: "conv3_2a"
  param {
    lr_mult: 0
  }
  param {
    lr_mult: 0
  }
  param {
    lr_mult: 0
  }
}
layer {
  name: "scale_conv3_2a"
  type: "Scale"
  bottom: "conv3_2a"
  top: "conv3_2a"
  scale_param {
    bias_term: true
  }
}
layer {
  name: "conv3_2a_relu"
  type: "ReLU"
  bottom: "conv3_2a"
  top: "conv3_2a"
}
layer {
  name: "conv3_2b"
  type: "Convolution"
  bottom: "conv3_2a"
  top: "conv3_2b"
  param {
    lr_mult: 1
  }
  param {
    lr_mult: 2
  }
  convolution_param {
    num_output: 32
    pad: 1
    kernel_size: 3
    stride: 1
    weight_filler {
      type: "msra"
    }
    bias_filler {
      type: "constant"
      value: 0
    }
  }
}
layer {
  name: "bn_conv3_2b"
  type: "BatchNorm"
  bottom: "conv3_2b"
  top: "conv3_2b"
  param {
    lr_mult: 0
  }
  param {
    lr_mult: 0
  }
  param {
    lr_mult: 0
  }
}
layer {
  name: "scale_conv3_2b"
  type: "Scale"
  bottom: "conv3_2b"
  top: "conv3_2b"
  scale_param {
    bias_term: true
  }
}
layer {
  name: "conv3_2"
  type: "Eltwise"
  bottom: "conv3_2b"
  bottom: "conv3_1"
  top: "conv3_2"
}
layer {
  name: "conv3_2_relu"
  type: "ReLU"
  bottom: "conv3_2"
  top: "conv3_2"
}
layer {
  name: "conv3_3a"
  type: "Convolution"
  bottom: "conv3_2"
  top: "conv3_3a"
  param {
    lr_mult: 1
  }
  param {
    lr_mult: 2
  }
  convolution_param {
    num_output: 32
    pad: 1
    kernel_size: 3
    stride: 1
    weight_filler {
      type: "msra"
    }
    bias_filler {
      type: "constant"
      value: 0
    }
  }
}
layer {
  name: "bn_conv3_3a"
  type: "BatchNorm"
  bottom: "conv3_3a"
  top: "conv3_3a"
  param {
    lr_mult: 0
  }
  param {
    lr_mult: 0
  }
  param {
    lr_mult: 0
  }
}
layer {
  name: "scale_conv3_3a"
  type: "Scale"
  bottom: "conv3_3a"
  top: "conv3_3a"
  scale_param {
    bias_term: true
  }
}
layer {
  name: "conv3_3a_relu"
  type: "ReLU"
  bottom: "conv3_3a"
  top: "conv3_3a"
}
layer {
  name: "conv3_3b"
  type: "Convolution"
  bottom: "conv3_3a"
  top: "conv3_3b"
  param {
    lr_mult: 1
  }
  param {
    lr_mult: 2
  }
  convolution_param {
    num_output: 32
    pad: 1
    kernel_size: 3
    stride: 1
    weight_filler {
      type: "msra"
    }
    bias_filler {
      type: "constant"
      value: 0
    }
  }
}
layer {
  name: "bn_conv3_3b"
  type: "BatchNorm"
  bottom: "conv3_3b"
  top: "conv3_3b"
  param {
    lr_mult: 0
  }
  param {
    lr_mult: 0
  }
  param {
    lr_mult: 0
  }
}
layer {
  name: "scale_conv3_3b"
  type: "Scale"
  bottom: "conv3_3b"
  top: "conv3_3b"
  scale_param {
    bias_term: true
  }
}
layer {
  name: "conv3_3"
  type: "Eltwise"
  bottom: "conv3_3b"
  bottom: "conv3_2"
  top: "conv3_3"
}
layer {
  name: "conv3_3_relu"
  type: "ReLU"
  bottom: "conv3_3"
  top: "conv3_3"
}
layer {
  name: "conv3_sub"
  type: "Convolution"
  bottom: "conv3_3"
  top: "conv3_sub"
  param {
    lr_mult: 1
  }
  param {
    lr_mult: 2
  }
  convolution_param {
    num_output: 64
    kernel_size: 1
    stride: 2
    weight_filler {
      type: "msra"
    }
    bias_filler {
      type: "constant"
      value: 0
    }
  }
}
layer {
  name: "bn_conv3_sub"
  type: "BatchNorm"
  bottom: "conv3_sub"
  top: "conv3_sub"
  param {
    lr_mult: 0
  }
  param {
    lr_mult: 0
  }
  param {
    lr_mult: 0
  }
}
layer {
  name: "scale_conv3_sub"
  type: "Scale"
  bottom: "conv3_sub"
  top: "conv3_sub"
  scale_param {
    bias_term: true
  }
}
layer {
  name: "conv4_1a"
  type: "Convolution"
  bottom: "conv3_3"
  top: "conv4_1a"
  param {
    lr_mult: 1
  }
  param {
    lr_mult: 2
  }
  convolution_param {
    num_output: 64
    pad: 0
    kernel_size: 1
    stride: 2
    weight_filler {
      type: "msra"
    }
    bias_filler {
      type: "constant"
      value: 0
    }
  }
}
layer {
  name: "bn_conv4_1a"
  type: "BatchNorm"
  bottom: "conv4_1a"
  top: "conv4_1a"
  param {
    lr_mult: 0
  }
  param {
    lr_mult: 0
  }
  param {
    lr_mult: 0
  }
}
layer {
  name: "scale_conv4_1a"
  type: "Scale"
  bottom: "conv4_1a"
  top: "conv4_1a"
  scale_param {
    bias_term: true
  }
}
layer {
  name: "conv4_1a_relu"
  type: "ReLU"
  bottom: "conv4_1a"
  top: "conv4_1a"
}
layer {
  name: "conv4_1b"
  type: "Convolution"
  bottom: "conv4_1a"
  top: "conv4_1b"
  param {
    lr_mult: 1
  }
  param {
    lr_mult: 2
  }
  convolution_param {
    num_output: 64
    pad: 1
    kernel_size: 3
    stride: 1
    weight_filler {
      type: "msra"
    }
    bias_filler {
      type: "constant"
      value: 0
    }
  }
}
layer {
  name: "bn_conv4_1b"
  type: "BatchNorm"
  bottom: "conv4_1b"
  top: "conv4_1b"
  param {
    lr_mult: 0
  }
  param {
    lr_mult: 0
  }
  param {
    lr_mult: 0
  }
}
layer {
  name: "scale_conv4_1b"
  type: "Scale"
  bottom: "conv4_1b"
  top: "conv4_1b"
  scale_param {
    bias_term: true
  }
}
layer {
  name: "conv4_1"
  type: "Eltwise"
  bottom: "conv2_sub2"
  bottom: "conv3_sub"
  bottom: "conv4_1b"
  top: "conv4_1"
}
layer {
  name: "conv4_1_relu"
  type: "ReLU"
  bottom: "conv4_1"
  top: "conv4_1"
}
layer {
  name: "conv4_2a"
  type: "Convolution"
  bottom: "conv4_1"
  top: "conv4_2a"
  param {
    lr_mult: 1
  }
  param {
    lr_mult: 2
  }
  convolution_param {
    num_output: 64
    pad: 1
    kernel_size: 3
    stride: 1
    weight_filler {
      type: "msra"
    }
    bias_filler {
      type: "constant"
      value: 0
    }
  }
}
layer {
  name: "bn_conv4_2a"
  type: "BatchNorm"
  bottom: "conv4_2a"
  top: "conv4_2a"
  param {
    lr_mult: 0
  }
  param {
    lr_mult: 0
  }
  param {
    lr_mult: 0
  }
}
layer {
  name: "scale_conv4_2a"
  type: "Scale"
  bottom: "conv4_2a"
  top: "conv4_2a"
  scale_param {
    bias_term: true
  }
}
layer {
  name: "conv4_2a_relu"
  type: "ReLU"
  bottom: "conv4_2a"
  top: "conv4_2a"
}
layer {
  name: "conv4_2b"
  type: "Convolution"
  bottom: "conv4_2a"
  top: "conv4_2b"
  param {
    lr_mult: 1
  }
  param {
    lr_mult: 2
  }
  convolution_param {
    num_output: 64
    pad: 1
    kernel_size: 3
    stride: 1
    weight_filler {
      type: "msra"
    }
    bias_filler {
      type: "constant"
      value: 0
    }
  }
}
layer {
  name: "bn_conv4_2b"
  type: "BatchNorm"
  bottom: "conv4_2b"
  top: "conv4_2b"
  param {
    lr_mult: 0
  }
  param {
    lr_mult: 0
  }
  param {
    lr_mult: 0
  }
}
layer {
  name: "scale_conv4_2b"
  type: "Scale"
  bottom: "conv4_2b"
  top: "conv4_2b"
  scale_param {
    bias_term: true
  }
}
layer {
  name: "conv4_2"
  type: "Eltwise"
  bottom: "conv4_1"
  bottom: "conv4_2b"
  top: "conv4_2"
}
layer {
  name: "conv4_2_relu"
  type: "ReLU"
  bottom: "conv4_2"
  top: "conv4_2"
}
layer {
  name: "conv4_3a"
  type: "Convolution"
  bottom: "conv4_2"
  top: "conv4_3a"
  param {
    lr_mult: 1
  }
  param {
    lr_mult: 2
  }
  convolution_param {
    num_output: 64
    pad: 1
    kernel_size: 3
    stride: 1
    weight_filler {
      type: "msra"
    }
    bias_filler {
      type: "constant"
      value: 0
    }
  }
}
layer {
  name: "bn_conv4_3a"
  type: "BatchNorm"
  bottom: "conv4_3a"
  top: "conv4_3a"
  param {
    lr_mult: 0
  }
  param {
    lr_mult: 0
  }
  param {
    lr_mult: 0
  }
}
layer {
  name: "scale_conv4_3a"
  type: "Scale"
  bottom: "conv4_3a"
  top: "conv4_3a"
  scale_param {
    bias_term: true
  }
}
layer {
  name: "conv4_3a_relu"
  type: "ReLU"
  bottom: "conv4_3a"
  top: "conv4_3a"
}
layer {
  name: "conv4_3b"
  type: "Convolution"
  bottom: "conv4_3a"
  top: "conv4_3b"
  param {
    lr_mult: 1
  }
  param {
    lr_mult: 2
  }
  convolution_param {
    num_output: 64
    pad: 1
    kernel_size: 3
    stride: 1
    weight_filler {
      type: "msra"
    }
    bias_filler {
      type: "constant"
      value: 0
    }
  }
}
layer {
  name: "bn_conv4_3b"
  type: "BatchNorm"
  bottom: "conv4_3b"
  top: "conv4_3b"
  param {
    lr_mult: 0
  }
  param {
    lr_mult: 0
  }
  param {
    lr_mult: 0
  }
}
layer {
  name: "scale_conv4_3b"
  type: "Scale"
  bottom: "conv4_3b"
  top: "conv4_3b"
  scale_param {
    bias_term: true
  }
}
layer {
  name: "conv4_3"
  type: "Eltwise"
  bottom: "conv4_2"
  bottom: "conv3_sub"
  bottom: "conv4_3b"
  top: "conv4_3"
}
layer {
  name: "conv4_3_relu"
  type: "ReLU"
  bottom: "conv4_3"
  top: "conv4_3"
}
layer {
  name: "global_pool"
  type: "Pooling"
  bottom: "conv4_3"
  top: "global_pool"
  pooling_param {
    pool: AVE
    kernel_size: 8
    stride: 8
  }
}
layer {
  name: "ip"
  type: "InnerProduct"
  bottom: "global_pool"
  top: "ip"
  inner_product_param {
    num_output: 10
  }
}
layer {
  name: "accuracy"
  type: "Accuracy"
  bottom: "ip"
  bottom: "label"
  top: "accuracy"
}
layer {
  name: "loss"
  type: "SoftmaxWithLoss"
  bottom: "ip"
  bottom: "label"
  top: "loss"
}
I0423 23:58:02.755081  4370 layer_factory.hpp:77] Creating layer cifar
I0423 23:58:02.755235  4370 net.cpp:91] Creating Layer cifar
I0423 23:58:02.755252  4370 net.cpp:399] cifar -> data
I0423 23:58:02.755265  4370 net.cpp:399] cifar -> label
I0423 23:58:02.755277  4370 data_transformer.cpp:25] Loading mean file from: data/cifar10/mean.binaryproto
I0423 23:58:02.756857  4399 db_lmdb.cpp:38] Opened lmdb data/cifar10/cifar10_test_lmdb
I0423 23:58:02.757200  4370 data_layer.cpp:41] output data size: 100,3,32,32
I0423 23:58:02.760785  4370 net.cpp:141] Setting up cifar
I0423 23:58:02.760807  4370 net.cpp:148] Top shape: 100 3 32 32 (307200)
I0423 23:58:02.760817  4370 net.cpp:148] Top shape: 100 (100)
I0423 23:58:02.760821  4370 net.cpp:156] Memory required for data: 1229200
I0423 23:58:02.760828  4370 layer_factory.hpp:77] Creating layer label_cifar_1_split
I0423 23:58:02.760843  4370 net.cpp:91] Creating Layer label_cifar_1_split
I0423 23:58:02.760848  4370 net.cpp:425] label_cifar_1_split <- label
I0423 23:58:02.760857  4370 net.cpp:399] label_cifar_1_split -> label_cifar_1_split_0
I0423 23:58:02.760869  4370 net.cpp:399] label_cifar_1_split -> label_cifar_1_split_1
I0423 23:58:02.760988  4370 net.cpp:141] Setting up label_cifar_1_split
I0423 23:58:02.761004  4370 net.cpp:148] Top shape: 100 (100)
I0423 23:58:02.761010  4370 net.cpp:148] Top shape: 100 (100)
I0423 23:58:02.761015  4370 net.cpp:156] Memory required for data: 1230000
I0423 23:58:02.761023  4370 layer_factory.hpp:77] Creating layer conv1
I0423 23:58:02.761041  4370 net.cpp:91] Creating Layer conv1
I0423 23:58:02.761049  4370 net.cpp:425] conv1 <- data
I0423 23:58:02.761060  4370 net.cpp:399] conv1 -> conv1
I0423 23:58:02.762761  4370 net.cpp:141] Setting up conv1
I0423 23:58:02.762784  4370 net.cpp:148] Top shape: 100 16 32 32 (1638400)
I0423 23:58:02.762790  4370 net.cpp:156] Memory required for data: 7783600
I0423 23:58:02.762804  4370 layer_factory.hpp:77] Creating layer bn_conv1
I0423 23:58:02.762819  4370 net.cpp:91] Creating Layer bn_conv1
I0423 23:58:02.762825  4370 net.cpp:425] bn_conv1 <- conv1
I0423 23:58:02.762840  4370 net.cpp:386] bn_conv1 -> conv1 (in-place)
I0423 23:58:02.763100  4370 net.cpp:141] Setting up bn_conv1
I0423 23:58:02.763113  4370 net.cpp:148] Top shape: 100 16 32 32 (1638400)
I0423 23:58:02.763128  4370 net.cpp:156] Memory required for data: 14337200
I0423 23:58:02.763145  4370 layer_factory.hpp:77] Creating layer scale_conv1
I0423 23:58:02.763156  4370 net.cpp:91] Creating Layer scale_conv1
I0423 23:58:02.763162  4370 net.cpp:425] scale_conv1 <- conv1
I0423 23:58:02.763170  4370 net.cpp:386] scale_conv1 -> conv1 (in-place)
I0423 23:58:02.763233  4370 layer_factory.hpp:77] Creating layer scale_conv1
I0423 23:58:02.763388  4370 net.cpp:141] Setting up scale_conv1
I0423 23:58:02.763401  4370 net.cpp:148] Top shape: 100 16 32 32 (1638400)
I0423 23:58:02.763411  4370 net.cpp:156] Memory required for data: 20890800
I0423 23:58:02.763422  4370 layer_factory.hpp:77] Creating layer conv1_relu
I0423 23:58:02.763432  4370 net.cpp:91] Creating Layer conv1_relu
I0423 23:58:02.763438  4370 net.cpp:425] conv1_relu <- conv1
I0423 23:58:02.763445  4370 net.cpp:386] conv1_relu -> conv1 (in-place)
I0423 23:58:02.763667  4370 net.cpp:141] Setting up conv1_relu
I0423 23:58:02.763684  4370 net.cpp:148] Top shape: 100 16 32 32 (1638400)
I0423 23:58:02.763689  4370 net.cpp:156] Memory required for data: 27444400
I0423 23:58:02.763695  4370 layer_factory.hpp:77] Creating layer conv1_conv1_relu_0_split
I0423 23:58:02.763703  4370 net.cpp:91] Creating Layer conv1_conv1_relu_0_split
I0423 23:58:02.763710  4370 net.cpp:425] conv1_conv1_relu_0_split <- conv1
I0423 23:58:02.763741  4370 net.cpp:399] conv1_conv1_relu_0_split -> conv1_conv1_relu_0_split_0
I0423 23:58:02.763751  4370 net.cpp:399] conv1_conv1_relu_0_split -> conv1_conv1_relu_0_split_1
I0423 23:58:02.763761  4370 net.cpp:399] conv1_conv1_relu_0_split -> conv1_conv1_relu_0_split_2
I0423 23:58:02.763847  4370 net.cpp:141] Setting up conv1_conv1_relu_0_split
I0423 23:58:02.763859  4370 net.cpp:148] Top shape: 100 16 32 32 (1638400)
I0423 23:58:02.763865  4370 net.cpp:148] Top shape: 100 16 32 32 (1638400)
I0423 23:58:02.763871  4370 net.cpp:148] Top shape: 100 16 32 32 (1638400)
I0423 23:58:02.763876  4370 net.cpp:156] Memory required for data: 47105200
I0423 23:58:02.763882  4370 layer_factory.hpp:77] Creating layer conv1_sub2
I0423 23:58:02.763896  4370 net.cpp:91] Creating Layer conv1_sub2
I0423 23:58:02.763903  4370 net.cpp:425] conv1_sub2 <- conv1_conv1_relu_0_split_0
I0423 23:58:02.763914  4370 net.cpp:399] conv1_sub2 -> conv1_sub2
I0423 23:58:02.765231  4370 net.cpp:141] Setting up conv1_sub2
I0423 23:58:02.765254  4370 net.cpp:148] Top shape: 100 32 16 16 (819200)
I0423 23:58:02.765264  4370 net.cpp:156] Memory required for data: 50382000
I0423 23:58:02.765286  4370 layer_factory.hpp:77] Creating layer bn_conv1_sub2
I0423 23:58:02.765301  4370 net.cpp:91] Creating Layer bn_conv1_sub2
I0423 23:58:02.765311  4370 net.cpp:425] bn_conv1_sub2 <- conv1_sub2
I0423 23:58:02.765326  4370 net.cpp:386] bn_conv1_sub2 -> conv1_sub2 (in-place)
I0423 23:58:02.765585  4370 net.cpp:141] Setting up bn_conv1_sub2
I0423 23:58:02.765599  4370 net.cpp:148] Top shape: 100 32 16 16 (819200)
I0423 23:58:02.765604  4370 net.cpp:156] Memory required for data: 53658800
I0423 23:58:02.765626  4370 layer_factory.hpp:77] Creating layer scale_conv1_sub2
I0423 23:58:02.765636  4370 net.cpp:91] Creating Layer scale_conv1_sub2
I0423 23:58:02.765641  4370 net.cpp:425] scale_conv1_sub2 <- conv1_sub2
I0423 23:58:02.765652  4370 net.cpp:386] scale_conv1_sub2 -> conv1_sub2 (in-place)
I0423 23:58:02.765718  4370 layer_factory.hpp:77] Creating layer scale_conv1_sub2
I0423 23:58:02.765875  4370 net.cpp:141] Setting up scale_conv1_sub2
I0423 23:58:02.765887  4370 net.cpp:148] Top shape: 100 32 16 16 (819200)
I0423 23:58:02.765905  4370 net.cpp:156] Memory required for data: 56935600
I0423 23:58:02.765915  4370 layer_factory.hpp:77] Creating layer conv2_1a
I0423 23:58:02.765930  4370 net.cpp:91] Creating Layer conv2_1a
I0423 23:58:02.765940  4370 net.cpp:425] conv2_1a <- conv1_conv1_relu_0_split_1
I0423 23:58:02.765959  4370 net.cpp:399] conv2_1a -> conv2_1a
I0423 23:58:02.767612  4370 net.cpp:141] Setting up conv2_1a
I0423 23:58:02.767633  4370 net.cpp:148] Top shape: 100 16 32 32 (1638400)
I0423 23:58:02.767639  4370 net.cpp:156] Memory required for data: 63489200
I0423 23:58:02.767649  4370 layer_factory.hpp:77] Creating layer bn_conv2_1a
I0423 23:58:02.767662  4370 net.cpp:91] Creating Layer bn_conv2_1a
I0423 23:58:02.767668  4370 net.cpp:425] bn_conv2_1a <- conv2_1a
I0423 23:58:02.767678  4370 net.cpp:386] bn_conv2_1a -> conv2_1a (in-place)
I0423 23:58:02.767946  4370 net.cpp:141] Setting up bn_conv2_1a
I0423 23:58:02.767958  4370 net.cpp:148] Top shape: 100 16 32 32 (1638400)
I0423 23:58:02.767963  4370 net.cpp:156] Memory required for data: 70042800
I0423 23:58:02.767983  4370 layer_factory.hpp:77] Creating layer scale_conv2_1a
I0423 23:58:02.767997  4370 net.cpp:91] Creating Layer scale_conv2_1a
I0423 23:58:02.768002  4370 net.cpp:425] scale_conv2_1a <- conv2_1a
I0423 23:58:02.768010  4370 net.cpp:386] scale_conv2_1a -> conv2_1a (in-place)
I0423 23:58:02.768070  4370 layer_factory.hpp:77] Creating layer scale_conv2_1a
I0423 23:58:02.768232  4370 net.cpp:141] Setting up scale_conv2_1a
I0423 23:58:02.768244  4370 net.cpp:148] Top shape: 100 16 32 32 (1638400)
I0423 23:58:02.768267  4370 net.cpp:156] Memory required for data: 76596400
I0423 23:58:02.768278  4370 layer_factory.hpp:77] Creating layer conv2_1a_relu
I0423 23:58:02.768288  4370 net.cpp:91] Creating Layer conv2_1a_relu
I0423 23:58:02.768295  4370 net.cpp:425] conv2_1a_relu <- conv2_1a
I0423 23:58:02.768302  4370 net.cpp:386] conv2_1a_relu -> conv2_1a (in-place)
I0423 23:58:02.768532  4370 net.cpp:141] Setting up conv2_1a_relu
I0423 23:58:02.768548  4370 net.cpp:148] Top shape: 100 16 32 32 (1638400)
I0423 23:58:02.768553  4370 net.cpp:156] Memory required for data: 83150000
I0423 23:58:02.768559  4370 layer_factory.hpp:77] Creating layer conv2_1b
I0423 23:58:02.768574  4370 net.cpp:91] Creating Layer conv2_1b
I0423 23:58:02.768580  4370 net.cpp:425] conv2_1b <- conv2_1a
I0423 23:58:02.768591  4370 net.cpp:399] conv2_1b -> conv2_1b
I0423 23:58:02.769940  4370 net.cpp:141] Setting up conv2_1b
I0423 23:58:02.769961  4370 net.cpp:148] Top shape: 100 16 32 32 (1638400)
I0423 23:58:02.769968  4370 net.cpp:156] Memory required for data: 89703600
I0423 23:58:02.769978  4370 layer_factory.hpp:77] Creating layer bn_conv2_1b
I0423 23:58:02.769989  4370 net.cpp:91] Creating Layer bn_conv2_1b
I0423 23:58:02.769996  4370 net.cpp:425] bn_conv2_1b <- conv2_1b
I0423 23:58:02.770005  4370 net.cpp:386] bn_conv2_1b -> conv2_1b (in-place)
I0423 23:58:02.770269  4370 net.cpp:141] Setting up bn_conv2_1b
I0423 23:58:02.770282  4370 net.cpp:148] Top shape: 100 16 32 32 (1638400)
I0423 23:58:02.770288  4370 net.cpp:156] Memory required for data: 96257200
I0423 23:58:02.770299  4370 layer_factory.hpp:77] Creating layer scale_conv2_1b
I0423 23:58:02.770313  4370 net.cpp:91] Creating Layer scale_conv2_1b
I0423 23:58:02.770319  4370 net.cpp:425] scale_conv2_1b <- conv2_1b
I0423 23:58:02.770328  4370 net.cpp:386] scale_conv2_1b -> conv2_1b (in-place)
I0423 23:58:02.770387  4370 layer_factory.hpp:77] Creating layer scale_conv2_1b
I0423 23:58:02.770541  4370 net.cpp:141] Setting up scale_conv2_1b
I0423 23:58:02.770553  4370 net.cpp:148] Top shape: 100 16 32 32 (1638400)
I0423 23:58:02.770565  4370 net.cpp:156] Memory required for data: 102810800
I0423 23:58:02.770573  4370 layer_factory.hpp:77] Creating layer conv2_1
I0423 23:58:02.770581  4370 net.cpp:91] Creating Layer conv2_1
I0423 23:58:02.770587  4370 net.cpp:425] conv2_1 <- conv2_1b
I0423 23:58:02.770594  4370 net.cpp:425] conv2_1 <- conv1_conv1_relu_0_split_2
I0423 23:58:02.770627  4370 net.cpp:399] conv2_1 -> conv2_1
I0423 23:58:02.770664  4370 net.cpp:141] Setting up conv2_1
I0423 23:58:02.770678  4370 net.cpp:148] Top shape: 100 16 32 32 (1638400)
I0423 23:58:02.770684  4370 net.cpp:156] Memory required for data: 109364400
I0423 23:58:02.770694  4370 layer_factory.hpp:77] Creating layer conv2_1_relu
I0423 23:58:02.770702  4370 net.cpp:91] Creating Layer conv2_1_relu
I0423 23:58:02.770709  4370 net.cpp:425] conv2_1_relu <- conv2_1
I0423 23:58:02.770716  4370 net.cpp:386] conv2_1_relu -> conv2_1 (in-place)
I0423 23:58:02.771080  4370 net.cpp:141] Setting up conv2_1_relu
I0423 23:58:02.771098  4370 net.cpp:148] Top shape: 100 16 32 32 (1638400)
I0423 23:58:02.771105  4370 net.cpp:156] Memory required for data: 115918000
I0423 23:58:02.771114  4370 layer_factory.hpp:77] Creating layer conv2_1_conv2_1_relu_0_split
I0423 23:58:02.771123  4370 net.cpp:91] Creating Layer conv2_1_conv2_1_relu_0_split
I0423 23:58:02.771129  4370 net.cpp:425] conv2_1_conv2_1_relu_0_split <- conv2_1
I0423 23:58:02.771141  4370 net.cpp:399] conv2_1_conv2_1_relu_0_split -> conv2_1_conv2_1_relu_0_split_0
I0423 23:58:02.771157  4370 net.cpp:399] conv2_1_conv2_1_relu_0_split -> conv2_1_conv2_1_relu_0_split_1
I0423 23:58:02.771219  4370 net.cpp:141] Setting up conv2_1_conv2_1_relu_0_split
I0423 23:58:02.771231  4370 net.cpp:148] Top shape: 100 16 32 32 (1638400)
I0423 23:58:02.771237  4370 net.cpp:148] Top shape: 100 16 32 32 (1638400)
I0423 23:58:02.771242  4370 net.cpp:156] Memory required for data: 129025200
I0423 23:58:02.771248  4370 layer_factory.hpp:77] Creating layer conv2_2a
I0423 23:58:02.771265  4370 net.cpp:91] Creating Layer conv2_2a
I0423 23:58:02.771271  4370 net.cpp:425] conv2_2a <- conv2_1_conv2_1_relu_0_split_0
I0423 23:58:02.771281  4370 net.cpp:399] conv2_2a -> conv2_2a
I0423 23:58:02.772991  4370 net.cpp:141] Setting up conv2_2a
I0423 23:58:02.773015  4370 net.cpp:148] Top shape: 100 16 32 32 (1638400)
I0423 23:58:02.773027  4370 net.cpp:156] Memory required for data: 135578800
I0423 23:58:02.773041  4370 layer_factory.hpp:77] Creating layer bn_conv2_2a
I0423 23:58:02.773054  4370 net.cpp:91] Creating Layer bn_conv2_2a
I0423 23:58:02.773061  4370 net.cpp:425] bn_conv2_2a <- conv2_2a
I0423 23:58:02.773069  4370 net.cpp:386] bn_conv2_2a -> conv2_2a (in-place)
I0423 23:58:02.773356  4370 net.cpp:141] Setting up bn_conv2_2a
I0423 23:58:02.773375  4370 net.cpp:148] Top shape: 100 16 32 32 (1638400)
I0423 23:58:02.773380  4370 net.cpp:156] Memory required for data: 142132400
I0423 23:58:02.773397  4370 layer_factory.hpp:77] Creating layer scale_conv2_2a
I0423 23:58:02.773411  4370 net.cpp:91] Creating Layer scale_conv2_2a
I0423 23:58:02.773427  4370 net.cpp:425] scale_conv2_2a <- conv2_2a
I0423 23:58:02.773437  4370 net.cpp:386] scale_conv2_2a -> conv2_2a (in-place)
I0423 23:58:02.773502  4370 layer_factory.hpp:77] Creating layer scale_conv2_2a
I0423 23:58:02.773665  4370 net.cpp:141] Setting up scale_conv2_2a
I0423 23:58:02.773677  4370 net.cpp:148] Top shape: 100 16 32 32 (1638400)
I0423 23:58:02.773682  4370 net.cpp:156] Memory required for data: 148686000
I0423 23:58:02.773692  4370 layer_factory.hpp:77] Creating layer conv2_2a_relu
I0423 23:58:02.773710  4370 net.cpp:91] Creating Layer conv2_2a_relu
I0423 23:58:02.773715  4370 net.cpp:425] conv2_2a_relu <- conv2_2a
I0423 23:58:02.773722  4370 net.cpp:386] conv2_2a_relu -> conv2_2a (in-place)
I0423 23:58:02.773953  4370 net.cpp:141] Setting up conv2_2a_relu
I0423 23:58:02.773969  4370 net.cpp:148] Top shape: 100 16 32 32 (1638400)
I0423 23:58:02.773986  4370 net.cpp:156] Memory required for data: 155239600
I0423 23:58:02.773993  4370 layer_factory.hpp:77] Creating layer conv2_2b
I0423 23:58:02.774008  4370 net.cpp:91] Creating Layer conv2_2b
I0423 23:58:02.774015  4370 net.cpp:425] conv2_2b <- conv2_2a
I0423 23:58:02.774027  4370 net.cpp:399] conv2_2b -> conv2_2b
I0423 23:58:02.775377  4370 net.cpp:141] Setting up conv2_2b
I0423 23:58:02.775403  4370 net.cpp:148] Top shape: 100 16 32 32 (1638400)
I0423 23:58:02.775408  4370 net.cpp:156] Memory required for data: 161793200
I0423 23:58:02.775418  4370 layer_factory.hpp:77] Creating layer bn_conv2_2b
I0423 23:58:02.775429  4370 net.cpp:91] Creating Layer bn_conv2_2b
I0423 23:58:02.775435  4370 net.cpp:425] bn_conv2_2b <- conv2_2b
I0423 23:58:02.775456  4370 net.cpp:386] bn_conv2_2b -> conv2_2b (in-place)
I0423 23:58:02.775756  4370 net.cpp:141] Setting up bn_conv2_2b
I0423 23:58:02.775770  4370 net.cpp:148] Top shape: 100 16 32 32 (1638400)
I0423 23:58:02.775776  4370 net.cpp:156] Memory required for data: 168346800
I0423 23:58:02.775787  4370 layer_factory.hpp:77] Creating layer scale_conv2_2b
I0423 23:58:02.775796  4370 net.cpp:91] Creating Layer scale_conv2_2b
I0423 23:58:02.775802  4370 net.cpp:425] scale_conv2_2b <- conv2_2b
I0423 23:58:02.775813  4370 net.cpp:386] scale_conv2_2b -> conv2_2b (in-place)
I0423 23:58:02.775871  4370 layer_factory.hpp:77] Creating layer scale_conv2_2b
I0423 23:58:02.776023  4370 net.cpp:141] Setting up scale_conv2_2b
I0423 23:58:02.776036  4370 net.cpp:148] Top shape: 100 16 32 32 (1638400)
I0423 23:58:02.776042  4370 net.cpp:156] Memory required for data: 174900400
I0423 23:58:02.776057  4370 layer_factory.hpp:77] Creating layer conv2_2
I0423 23:58:02.776067  4370 net.cpp:91] Creating Layer conv2_2
I0423 23:58:02.776072  4370 net.cpp:425] conv2_2 <- conv2_2b
I0423 23:58:02.776079  4370 net.cpp:425] conv2_2 <- conv2_1_conv2_1_relu_0_split_1
I0423 23:58:02.776087  4370 net.cpp:399] conv2_2 -> conv2_2
I0423 23:58:02.776129  4370 net.cpp:141] Setting up conv2_2
I0423 23:58:02.776140  4370 net.cpp:148] Top shape: 100 16 32 32 (1638400)
I0423 23:58:02.776147  4370 net.cpp:156] Memory required for data: 181454000
I0423 23:58:02.776152  4370 layer_factory.hpp:77] Creating layer conv2_2_relu
I0423 23:58:02.776160  4370 net.cpp:91] Creating Layer conv2_2_relu
I0423 23:58:02.776166  4370 net.cpp:425] conv2_2_relu <- conv2_2
I0423 23:58:02.776173  4370 net.cpp:386] conv2_2_relu -> conv2_2 (in-place)
I0423 23:58:02.776401  4370 net.cpp:141] Setting up conv2_2_relu
I0423 23:58:02.776415  4370 net.cpp:148] Top shape: 100 16 32 32 (1638400)
I0423 23:58:02.776422  4370 net.cpp:156] Memory required for data: 188007600
I0423 23:58:02.776427  4370 layer_factory.hpp:77] Creating layer conv2_2_conv2_2_relu_0_split
I0423 23:58:02.776435  4370 net.cpp:91] Creating Layer conv2_2_conv2_2_relu_0_split
I0423 23:58:02.776442  4370 net.cpp:425] conv2_2_conv2_2_relu_0_split <- conv2_2
I0423 23:58:02.776455  4370 net.cpp:399] conv2_2_conv2_2_relu_0_split -> conv2_2_conv2_2_relu_0_split_0
I0423 23:58:02.776466  4370 net.cpp:399] conv2_2_conv2_2_relu_0_split -> conv2_2_conv2_2_relu_0_split_1
I0423 23:58:02.776527  4370 net.cpp:141] Setting up conv2_2_conv2_2_relu_0_split
I0423 23:58:02.776538  4370 net.cpp:148] Top shape: 100 16 32 32 (1638400)
I0423 23:58:02.776545  4370 net.cpp:148] Top shape: 100 16 32 32 (1638400)
I0423 23:58:02.776549  4370 net.cpp:156] Memory required for data: 201114800
I0423 23:58:02.776556  4370 layer_factory.hpp:77] Creating layer conv2_3a
I0423 23:58:02.776571  4370 net.cpp:91] Creating Layer conv2_3a
I0423 23:58:02.776576  4370 net.cpp:425] conv2_3a <- conv2_2_conv2_2_relu_0_split_0
I0423 23:58:02.776588  4370 net.cpp:399] conv2_3a -> conv2_3a
I0423 23:58:02.778103  4370 net.cpp:141] Setting up conv2_3a
I0423 23:58:02.778125  4370 net.cpp:148] Top shape: 100 16 32 32 (1638400)
I0423 23:58:02.778131  4370 net.cpp:156] Memory required for data: 207668400
I0423 23:58:02.778141  4370 layer_factory.hpp:77] Creating layer bn_conv2_3a
I0423 23:58:02.778151  4370 net.cpp:91] Creating Layer bn_conv2_3a
I0423 23:58:02.778158  4370 net.cpp:425] bn_conv2_3a <- conv2_3a
I0423 23:58:02.778167  4370 net.cpp:386] bn_conv2_3a -> conv2_3a (in-place)
I0423 23:58:02.778434  4370 net.cpp:141] Setting up bn_conv2_3a
I0423 23:58:02.778446  4370 net.cpp:148] Top shape: 100 16 32 32 (1638400)
I0423 23:58:02.778452  4370 net.cpp:156] Memory required for data: 214222000
I0423 23:58:02.778463  4370 layer_factory.hpp:77] Creating layer scale_conv2_3a
I0423 23:58:02.778480  4370 net.cpp:91] Creating Layer scale_conv2_3a
I0423 23:58:02.778486  4370 net.cpp:425] scale_conv2_3a <- conv2_3a
I0423 23:58:02.778494  4370 net.cpp:386] scale_conv2_3a -> conv2_3a (in-place)
I0423 23:58:02.778554  4370 layer_factory.hpp:77] Creating layer scale_conv2_3a
I0423 23:58:02.778710  4370 net.cpp:141] Setting up scale_conv2_3a
I0423 23:58:02.778722  4370 net.cpp:148] Top shape: 100 16 32 32 (1638400)
I0423 23:58:02.778726  4370 net.cpp:156] Memory required for data: 220775600
I0423 23:58:02.778735  4370 layer_factory.hpp:77] Creating layer conv2_3a_relu
I0423 23:58:02.778751  4370 net.cpp:91] Creating Layer conv2_3a_relu
I0423 23:58:02.778758  4370 net.cpp:425] conv2_3a_relu <- conv2_3a
I0423 23:58:02.778765  4370 net.cpp:386] conv2_3a_relu -> conv2_3a (in-place)
I0423 23:58:02.779124  4370 net.cpp:141] Setting up conv2_3a_relu
I0423 23:58:02.779141  4370 net.cpp:148] Top shape: 100 16 32 32 (1638400)
I0423 23:58:02.779147  4370 net.cpp:156] Memory required for data: 227329200
I0423 23:58:02.779153  4370 layer_factory.hpp:77] Creating layer conv2_3b
I0423 23:58:02.779168  4370 net.cpp:91] Creating Layer conv2_3b
I0423 23:58:02.779175  4370 net.cpp:425] conv2_3b <- conv2_3a
I0423 23:58:02.779192  4370 net.cpp:399] conv2_3b -> conv2_3b
I0423 23:58:02.780539  4370 net.cpp:141] Setting up conv2_3b
I0423 23:58:02.780560  4370 net.cpp:148] Top shape: 100 16 32 32 (1638400)
I0423 23:58:02.780566  4370 net.cpp:156] Memory required for data: 233882800
I0423 23:58:02.780576  4370 layer_factory.hpp:77] Creating layer bn_conv2_3b
I0423 23:58:02.780586  4370 net.cpp:91] Creating Layer bn_conv2_3b
I0423 23:58:02.780592  4370 net.cpp:425] bn_conv2_3b <- conv2_3b
I0423 23:58:02.780603  4370 net.cpp:386] bn_conv2_3b -> conv2_3b (in-place)
I0423 23:58:02.780882  4370 net.cpp:141] Setting up bn_conv2_3b
I0423 23:58:02.780896  4370 net.cpp:148] Top shape: 100 16 32 32 (1638400)
I0423 23:58:02.780901  4370 net.cpp:156] Memory required for data: 240436400
I0423 23:58:02.780912  4370 layer_factory.hpp:77] Creating layer scale_conv2_3b
I0423 23:58:02.780921  4370 net.cpp:91] Creating Layer scale_conv2_3b
I0423 23:58:02.780927  4370 net.cpp:425] scale_conv2_3b <- conv2_3b
I0423 23:58:02.780936  4370 net.cpp:386] scale_conv2_3b -> conv2_3b (in-place)
I0423 23:58:02.780998  4370 layer_factory.hpp:77] Creating layer scale_conv2_3b
I0423 23:58:02.781165  4370 net.cpp:141] Setting up scale_conv2_3b
I0423 23:58:02.781178  4370 net.cpp:148] Top shape: 100 16 32 32 (1638400)
I0423 23:58:02.781183  4370 net.cpp:156] Memory required for data: 246990000
I0423 23:58:02.781193  4370 layer_factory.hpp:77] Creating layer conv2_3
I0423 23:58:02.781203  4370 net.cpp:91] Creating Layer conv2_3
I0423 23:58:02.781209  4370 net.cpp:425] conv2_3 <- conv2_3b
I0423 23:58:02.781216  4370 net.cpp:425] conv2_3 <- conv2_2_conv2_2_relu_0_split_1
I0423 23:58:02.781224  4370 net.cpp:399] conv2_3 -> conv2_3
I0423 23:58:02.781263  4370 net.cpp:141] Setting up conv2_3
I0423 23:58:02.781273  4370 net.cpp:148] Top shape: 100 16 32 32 (1638400)
I0423 23:58:02.781280  4370 net.cpp:156] Memory required for data: 253543600
I0423 23:58:02.781285  4370 layer_factory.hpp:77] Creating layer conv2_3_relu
I0423 23:58:02.781292  4370 net.cpp:91] Creating Layer conv2_3_relu
I0423 23:58:02.781298  4370 net.cpp:425] conv2_3_relu <- conv2_3
I0423 23:58:02.781308  4370 net.cpp:386] conv2_3_relu -> conv2_3 (in-place)
I0423 23:58:02.781534  4370 net.cpp:141] Setting up conv2_3_relu
I0423 23:58:02.781549  4370 net.cpp:148] Top shape: 100 16 32 32 (1638400)
I0423 23:58:02.781554  4370 net.cpp:156] Memory required for data: 260097200
I0423 23:58:02.781560  4370 layer_factory.hpp:77] Creating layer conv2_3_conv2_3_relu_0_split
I0423 23:58:02.781571  4370 net.cpp:91] Creating Layer conv2_3_conv2_3_relu_0_split
I0423 23:58:02.781577  4370 net.cpp:425] conv2_3_conv2_3_relu_0_split <- conv2_3
I0423 23:58:02.781585  4370 net.cpp:399] conv2_3_conv2_3_relu_0_split -> conv2_3_conv2_3_relu_0_split_0
I0423 23:58:02.781595  4370 net.cpp:399] conv2_3_conv2_3_relu_0_split -> conv2_3_conv2_3_relu_0_split_1
I0423 23:58:02.781606  4370 net.cpp:399] conv2_3_conv2_3_relu_0_split -> conv2_3_conv2_3_relu_0_split_2
I0423 23:58:02.781682  4370 net.cpp:141] Setting up conv2_3_conv2_3_relu_0_split
I0423 23:58:02.781692  4370 net.cpp:148] Top shape: 100 16 32 32 (1638400)
I0423 23:58:02.781698  4370 net.cpp:148] Top shape: 100 16 32 32 (1638400)
I0423 23:58:02.781704  4370 net.cpp:148] Top shape: 100 16 32 32 (1638400)
I0423 23:58:02.781709  4370 net.cpp:156] Memory required for data: 279758000
I0423 23:58:02.781715  4370 layer_factory.hpp:77] Creating layer conv2_sub
I0423 23:58:02.781730  4370 net.cpp:91] Creating Layer conv2_sub
I0423 23:58:02.781738  4370 net.cpp:425] conv2_sub <- conv2_3_conv2_3_relu_0_split_0
I0423 23:58:02.781749  4370 net.cpp:399] conv2_sub -> conv2_sub
I0423 23:58:02.783031  4370 net.cpp:141] Setting up conv2_sub
I0423 23:58:02.783051  4370 net.cpp:148] Top shape: 100 32 16 16 (819200)
I0423 23:58:02.783057  4370 net.cpp:156] Memory required for data: 283034800
I0423 23:58:02.783067  4370 layer_factory.hpp:77] Creating layer bn_conv2_sub
I0423 23:58:02.783079  4370 net.cpp:91] Creating Layer bn_conv2_sub
I0423 23:58:02.783087  4370 net.cpp:425] bn_conv2_sub <- conv2_sub
I0423 23:58:02.783100  4370 net.cpp:386] bn_conv2_sub -> conv2_sub (in-place)
I0423 23:58:02.783365  4370 net.cpp:141] Setting up bn_conv2_sub
I0423 23:58:02.783375  4370 net.cpp:148] Top shape: 100 32 16 16 (819200)
I0423 23:58:02.783381  4370 net.cpp:156] Memory required for data: 286311600
I0423 23:58:02.783395  4370 layer_factory.hpp:77] Creating layer scale_conv2_sub
I0423 23:58:02.783403  4370 net.cpp:91] Creating Layer scale_conv2_sub
I0423 23:58:02.783409  4370 net.cpp:425] scale_conv2_sub <- conv2_sub
I0423 23:58:02.783417  4370 net.cpp:386] scale_conv2_sub -> conv2_sub (in-place)
I0423 23:58:02.783479  4370 layer_factory.hpp:77] Creating layer scale_conv2_sub
I0423 23:58:02.783641  4370 net.cpp:141] Setting up scale_conv2_sub
I0423 23:58:02.783653  4370 net.cpp:148] Top shape: 100 32 16 16 (819200)
I0423 23:58:02.783658  4370 net.cpp:156] Memory required for data: 289588400
I0423 23:58:02.783668  4370 layer_factory.hpp:77] Creating layer conv2_sub2
I0423 23:58:02.783682  4370 net.cpp:91] Creating Layer conv2_sub2
I0423 23:58:02.783689  4370 net.cpp:425] conv2_sub2 <- conv2_3_conv2_3_relu_0_split_1
I0423 23:58:02.783699  4370 net.cpp:399] conv2_sub2 -> conv2_sub2
I0423 23:58:02.784993  4370 net.cpp:141] Setting up conv2_sub2
I0423 23:58:02.785013  4370 net.cpp:148] Top shape: 100 64 8 8 (409600)
I0423 23:58:02.785019  4370 net.cpp:156] Memory required for data: 291226800
I0423 23:58:02.785046  4370 layer_factory.hpp:77] Creating layer bn_conv2_sub2
I0423 23:58:02.785059  4370 net.cpp:91] Creating Layer bn_conv2_sub2
I0423 23:58:02.785066  4370 net.cpp:425] bn_conv2_sub2 <- conv2_sub2
I0423 23:58:02.785074  4370 net.cpp:386] bn_conv2_sub2 -> conv2_sub2 (in-place)
I0423 23:58:02.785353  4370 net.cpp:141] Setting up bn_conv2_sub2
I0423 23:58:02.785367  4370 net.cpp:148] Top shape: 100 64 8 8 (409600)
I0423 23:58:02.785373  4370 net.cpp:156] Memory required for data: 292865200
I0423 23:58:02.785384  4370 layer_factory.hpp:77] Creating layer scale_conv2_sub2
I0423 23:58:02.785393  4370 net.cpp:91] Creating Layer scale_conv2_sub2
I0423 23:58:02.785399  4370 net.cpp:425] scale_conv2_sub2 <- conv2_sub2
I0423 23:58:02.785408  4370 net.cpp:386] scale_conv2_sub2 -> conv2_sub2 (in-place)
I0423 23:58:02.785471  4370 layer_factory.hpp:77] Creating layer scale_conv2_sub2
I0423 23:58:02.785632  4370 net.cpp:141] Setting up scale_conv2_sub2
I0423 23:58:02.785645  4370 net.cpp:148] Top shape: 100 64 8 8 (409600)
I0423 23:58:02.785650  4370 net.cpp:156] Memory required for data: 294503600
I0423 23:58:02.785658  4370 layer_factory.hpp:77] Creating layer conv3_1a
I0423 23:58:02.785673  4370 net.cpp:91] Creating Layer conv3_1a
I0423 23:58:02.785681  4370 net.cpp:425] conv3_1a <- conv2_3_conv2_3_relu_0_split_2
I0423 23:58:02.785691  4370 net.cpp:399] conv3_1a -> conv3_1a
I0423 23:58:02.786999  4370 net.cpp:141] Setting up conv3_1a
I0423 23:58:02.787020  4370 net.cpp:148] Top shape: 100 32 16 16 (819200)
I0423 23:58:02.787026  4370 net.cpp:156] Memory required for data: 297780400
I0423 23:58:02.787035  4370 layer_factory.hpp:77] Creating layer bn_conv3_1a
I0423 23:58:02.787048  4370 net.cpp:91] Creating Layer bn_conv3_1a
I0423 23:58:02.787055  4370 net.cpp:425] bn_conv3_1a <- conv3_1a
I0423 23:58:02.787066  4370 net.cpp:386] bn_conv3_1a -> conv3_1a (in-place)
I0423 23:58:02.787328  4370 net.cpp:141] Setting up bn_conv3_1a
I0423 23:58:02.787339  4370 net.cpp:148] Top shape: 100 32 16 16 (819200)
I0423 23:58:02.787344  4370 net.cpp:156] Memory required for data: 301057200
I0423 23:58:02.787355  4370 layer_factory.hpp:77] Creating layer scale_conv3_1a
I0423 23:58:02.787364  4370 net.cpp:91] Creating Layer scale_conv3_1a
I0423 23:58:02.787370  4370 net.cpp:425] scale_conv3_1a <- conv3_1a
I0423 23:58:02.787381  4370 net.cpp:386] scale_conv3_1a -> conv3_1a (in-place)
I0423 23:58:02.787438  4370 layer_factory.hpp:77] Creating layer scale_conv3_1a
I0423 23:58:02.787598  4370 net.cpp:141] Setting up scale_conv3_1a
I0423 23:58:02.787611  4370 net.cpp:148] Top shape: 100 32 16 16 (819200)
I0423 23:58:02.787621  4370 net.cpp:156] Memory required for data: 304334000
I0423 23:58:02.787631  4370 layer_factory.hpp:77] Creating layer conv3_1a_relu
I0423 23:58:02.787638  4370 net.cpp:91] Creating Layer conv3_1a_relu
I0423 23:58:02.787644  4370 net.cpp:425] conv3_1a_relu <- conv3_1a
I0423 23:58:02.787654  4370 net.cpp:386] conv3_1a_relu -> conv3_1a (in-place)
I0423 23:58:02.787876  4370 net.cpp:141] Setting up conv3_1a_relu
I0423 23:58:02.787894  4370 net.cpp:148] Top shape: 100 32 16 16 (819200)
I0423 23:58:02.787899  4370 net.cpp:156] Memory required for data: 307610800
I0423 23:58:02.787904  4370 layer_factory.hpp:77] Creating layer conv3_1b
I0423 23:58:02.787919  4370 net.cpp:91] Creating Layer conv3_1b
I0423 23:58:02.787926  4370 net.cpp:425] conv3_1b <- conv3_1a
I0423 23:58:02.787936  4370 net.cpp:399] conv3_1b -> conv3_1b
I0423 23:58:02.789547  4370 net.cpp:141] Setting up conv3_1b
I0423 23:58:02.789567  4370 net.cpp:148] Top shape: 100 32 16 16 (819200)
I0423 23:58:02.789573  4370 net.cpp:156] Memory required for data: 310887600
I0423 23:58:02.789583  4370 layer_factory.hpp:77] Creating layer bn_conv3_1b
I0423 23:58:02.789594  4370 net.cpp:91] Creating Layer bn_conv3_1b
I0423 23:58:02.789600  4370 net.cpp:425] bn_conv3_1b <- conv3_1b
I0423 23:58:02.789611  4370 net.cpp:386] bn_conv3_1b -> conv3_1b (in-place)
I0423 23:58:02.789878  4370 net.cpp:141] Setting up bn_conv3_1b
I0423 23:58:02.789891  4370 net.cpp:148] Top shape: 100 32 16 16 (819200)
I0423 23:58:02.789896  4370 net.cpp:156] Memory required for data: 314164400
I0423 23:58:02.789906  4370 layer_factory.hpp:77] Creating layer scale_conv3_1b
I0423 23:58:02.789916  4370 net.cpp:91] Creating Layer scale_conv3_1b
I0423 23:58:02.789922  4370 net.cpp:425] scale_conv3_1b <- conv3_1b
I0423 23:58:02.789930  4370 net.cpp:386] scale_conv3_1b -> conv3_1b (in-place)
I0423 23:58:02.789989  4370 layer_factory.hpp:77] Creating layer scale_conv3_1b
I0423 23:58:02.790148  4370 net.cpp:141] Setting up scale_conv3_1b
I0423 23:58:02.790161  4370 net.cpp:148] Top shape: 100 32 16 16 (819200)
I0423 23:58:02.790166  4370 net.cpp:156] Memory required for data: 317441200
I0423 23:58:02.790175  4370 layer_factory.hpp:77] Creating layer conv3_1
I0423 23:58:02.790184  4370 net.cpp:91] Creating Layer conv3_1
I0423 23:58:02.790190  4370 net.cpp:425] conv3_1 <- conv3_1b
I0423 23:58:02.790197  4370 net.cpp:425] conv3_1 <- conv1_sub2
I0423 23:58:02.790205  4370 net.cpp:425] conv3_1 <- conv2_sub
I0423 23:58:02.790212  4370 net.cpp:399] conv3_1 -> conv3_1
I0423 23:58:02.790246  4370 net.cpp:141] Setting up conv3_1
I0423 23:58:02.790256  4370 net.cpp:148] Top shape: 100 32 16 16 (819200)
I0423 23:58:02.790262  4370 net.cpp:156] Memory required for data: 320718000
I0423 23:58:02.790267  4370 layer_factory.hpp:77] Creating layer conv3_1_relu
I0423 23:58:02.790276  4370 net.cpp:91] Creating Layer conv3_1_relu
I0423 23:58:02.790280  4370 net.cpp:425] conv3_1_relu <- conv3_1
I0423 23:58:02.790294  4370 net.cpp:386] conv3_1_relu -> conv3_1 (in-place)
I0423 23:58:02.790513  4370 net.cpp:141] Setting up conv3_1_relu
I0423 23:58:02.790527  4370 net.cpp:148] Top shape: 100 32 16 16 (819200)
I0423 23:58:02.790534  4370 net.cpp:156] Memory required for data: 323994800
I0423 23:58:02.790539  4370 layer_factory.hpp:77] Creating layer conv3_1_conv3_1_relu_0_split
I0423 23:58:02.790547  4370 net.cpp:91] Creating Layer conv3_1_conv3_1_relu_0_split
I0423 23:58:02.790554  4370 net.cpp:425] conv3_1_conv3_1_relu_0_split <- conv3_1
I0423 23:58:02.790565  4370 net.cpp:399] conv3_1_conv3_1_relu_0_split -> conv3_1_conv3_1_relu_0_split_0
I0423 23:58:02.790575  4370 net.cpp:399] conv3_1_conv3_1_relu_0_split -> conv3_1_conv3_1_relu_0_split_1
I0423 23:58:02.790637  4370 net.cpp:141] Setting up conv3_1_conv3_1_relu_0_split
I0423 23:58:02.790647  4370 net.cpp:148] Top shape: 100 32 16 16 (819200)
I0423 23:58:02.790653  4370 net.cpp:148] Top shape: 100 32 16 16 (819200)
I0423 23:58:02.790658  4370 net.cpp:156] Memory required for data: 330548400
I0423 23:58:02.790664  4370 layer_factory.hpp:77] Creating layer conv3_2a
I0423 23:58:02.790683  4370 net.cpp:91] Creating Layer conv3_2a
I0423 23:58:02.790690  4370 net.cpp:425] conv3_2a <- conv3_1_conv3_1_relu_0_split_0
I0423 23:58:02.790702  4370 net.cpp:399] conv3_2a -> conv3_2a
I0423 23:58:02.792315  4370 net.cpp:141] Setting up conv3_2a
I0423 23:58:02.792336  4370 net.cpp:148] Top shape: 100 32 16 16 (819200)
I0423 23:58:02.792342  4370 net.cpp:156] Memory required for data: 333825200
I0423 23:58:02.792352  4370 layer_factory.hpp:77] Creating layer bn_conv3_2a
I0423 23:58:02.792364  4370 net.cpp:91] Creating Layer bn_conv3_2a
I0423 23:58:02.792371  4370 net.cpp:425] bn_conv3_2a <- conv3_2a
I0423 23:58:02.792382  4370 net.cpp:386] bn_conv3_2a -> conv3_2a (in-place)
I0423 23:58:02.792644  4370 net.cpp:141] Setting up bn_conv3_2a
I0423 23:58:02.792656  4370 net.cpp:148] Top shape: 100 32 16 16 (819200)
I0423 23:58:02.792662  4370 net.cpp:156] Memory required for data: 337102000
I0423 23:58:02.792673  4370 layer_factory.hpp:77] Creating layer scale_conv3_2a
I0423 23:58:02.792682  4370 net.cpp:91] Creating Layer scale_conv3_2a
I0423 23:58:02.792688  4370 net.cpp:425] scale_conv3_2a <- conv3_2a
I0423 23:58:02.792700  4370 net.cpp:386] scale_conv3_2a -> conv3_2a (in-place)
I0423 23:58:02.792757  4370 layer_factory.hpp:77] Creating layer scale_conv3_2a
I0423 23:58:02.792917  4370 net.cpp:141] Setting up scale_conv3_2a
I0423 23:58:02.792928  4370 net.cpp:148] Top shape: 100 32 16 16 (819200)
I0423 23:58:02.792934  4370 net.cpp:156] Memory required for data: 340378800
I0423 23:58:02.792943  4370 layer_factory.hpp:77] Creating layer conv3_2a_relu
I0423 23:58:02.792951  4370 net.cpp:91] Creating Layer conv3_2a_relu
I0423 23:58:02.792958  4370 net.cpp:425] conv3_2a_relu <- conv3_2a
I0423 23:58:02.792968  4370 net.cpp:386] conv3_2a_relu -> conv3_2a (in-place)
I0423 23:58:02.793342  4370 net.cpp:141] Setting up conv3_2a_relu
I0423 23:58:02.793361  4370 net.cpp:148] Top shape: 100 32 16 16 (819200)
I0423 23:58:02.793367  4370 net.cpp:156] Memory required for data: 343655600
I0423 23:58:02.793373  4370 layer_factory.hpp:77] Creating layer conv3_2b
I0423 23:58:02.793390  4370 net.cpp:91] Creating Layer conv3_2b
I0423 23:58:02.793396  4370 net.cpp:425] conv3_2b <- conv3_2a
I0423 23:58:02.793408  4370 net.cpp:399] conv3_2b -> conv3_2b
I0423 23:58:02.795023  4370 net.cpp:141] Setting up conv3_2b
I0423 23:58:02.795043  4370 net.cpp:148] Top shape: 100 32 16 16 (819200)
I0423 23:58:02.795049  4370 net.cpp:156] Memory required for data: 346932400
I0423 23:58:02.795059  4370 layer_factory.hpp:77] Creating layer bn_conv3_2b
I0423 23:58:02.795073  4370 net.cpp:91] Creating Layer bn_conv3_2b
I0423 23:58:02.795078  4370 net.cpp:425] bn_conv3_2b <- conv3_2b
I0423 23:58:02.795088  4370 net.cpp:386] bn_conv3_2b -> conv3_2b (in-place)
I0423 23:58:02.795351  4370 net.cpp:141] Setting up bn_conv3_2b
I0423 23:58:02.795363  4370 net.cpp:148] Top shape: 100 32 16 16 (819200)
I0423 23:58:02.795368  4370 net.cpp:156] Memory required for data: 350209200
I0423 23:58:02.795379  4370 layer_factory.hpp:77] Creating layer scale_conv3_2b
I0423 23:58:02.795392  4370 net.cpp:91] Creating Layer scale_conv3_2b
I0423 23:58:02.795397  4370 net.cpp:425] scale_conv3_2b <- conv3_2b
I0423 23:58:02.795405  4370 net.cpp:386] scale_conv3_2b -> conv3_2b (in-place)
I0423 23:58:02.795465  4370 layer_factory.hpp:77] Creating layer scale_conv3_2b
I0423 23:58:02.795626  4370 net.cpp:141] Setting up scale_conv3_2b
I0423 23:58:02.795639  4370 net.cpp:148] Top shape: 100 32 16 16 (819200)
I0423 23:58:02.795644  4370 net.cpp:156] Memory required for data: 353486000
I0423 23:58:02.795652  4370 layer_factory.hpp:77] Creating layer conv3_2
I0423 23:58:02.795663  4370 net.cpp:91] Creating Layer conv3_2
I0423 23:58:02.795670  4370 net.cpp:425] conv3_2 <- conv3_2b
I0423 23:58:02.795676  4370 net.cpp:425] conv3_2 <- conv3_1_conv3_1_relu_0_split_1
I0423 23:58:02.795685  4370 net.cpp:399] conv3_2 -> conv3_2
I0423 23:58:02.795718  4370 net.cpp:141] Setting up conv3_2
I0423 23:58:02.795728  4370 net.cpp:148] Top shape: 100 32 16 16 (819200)
I0423 23:58:02.795733  4370 net.cpp:156] Memory required for data: 356762800
I0423 23:58:02.795744  4370 layer_factory.hpp:77] Creating layer conv3_2_relu
I0423 23:58:02.795760  4370 net.cpp:91] Creating Layer conv3_2_relu
I0423 23:58:02.795766  4370 net.cpp:425] conv3_2_relu <- conv3_2
I0423 23:58:02.795774  4370 net.cpp:386] conv3_2_relu -> conv3_2 (in-place)
I0423 23:58:02.796001  4370 net.cpp:141] Setting up conv3_2_relu
I0423 23:58:02.796016  4370 net.cpp:148] Top shape: 100 32 16 16 (819200)
I0423 23:58:02.796022  4370 net.cpp:156] Memory required for data: 360039600
I0423 23:58:02.796028  4370 layer_factory.hpp:77] Creating layer conv3_2_conv3_2_relu_0_split
I0423 23:58:02.796037  4370 net.cpp:91] Creating Layer conv3_2_conv3_2_relu_0_split
I0423 23:58:02.796043  4370 net.cpp:425] conv3_2_conv3_2_relu_0_split <- conv3_2
I0423 23:58:02.796053  4370 net.cpp:399] conv3_2_conv3_2_relu_0_split -> conv3_2_conv3_2_relu_0_split_0
I0423 23:58:02.796064  4370 net.cpp:399] conv3_2_conv3_2_relu_0_split -> conv3_2_conv3_2_relu_0_split_1
I0423 23:58:02.796125  4370 net.cpp:141] Setting up conv3_2_conv3_2_relu_0_split
I0423 23:58:02.796136  4370 net.cpp:148] Top shape: 100 32 16 16 (819200)
I0423 23:58:02.796142  4370 net.cpp:148] Top shape: 100 32 16 16 (819200)
I0423 23:58:02.796147  4370 net.cpp:156] Memory required for data: 366593200
I0423 23:58:02.796152  4370 layer_factory.hpp:77] Creating layer conv3_3a
I0423 23:58:02.796169  4370 net.cpp:91] Creating Layer conv3_3a
I0423 23:58:02.796176  4370 net.cpp:425] conv3_3a <- conv3_2_conv3_2_relu_0_split_0
I0423 23:58:02.796186  4370 net.cpp:399] conv3_3a -> conv3_3a
I0423 23:58:02.797960  4370 net.cpp:141] Setting up conv3_3a
I0423 23:58:02.797979  4370 net.cpp:148] Top shape: 100 32 16 16 (819200)
I0423 23:58:02.797986  4370 net.cpp:156] Memory required for data: 369870000
I0423 23:58:02.797996  4370 layer_factory.hpp:77] Creating layer bn_conv3_3a
I0423 23:58:02.798009  4370 net.cpp:91] Creating Layer bn_conv3_3a
I0423 23:58:02.798017  4370 net.cpp:425] bn_conv3_3a <- conv3_3a
I0423 23:58:02.798024  4370 net.cpp:386] bn_conv3_3a -> conv3_3a (in-place)
I0423 23:58:02.798292  4370 net.cpp:141] Setting up bn_conv3_3a
I0423 23:58:02.798305  4370 net.cpp:148] Top shape: 100 32 16 16 (819200)
I0423 23:58:02.798310  4370 net.cpp:156] Memory required for data: 373146800
I0423 23:58:02.798321  4370 layer_factory.hpp:77] Creating layer scale_conv3_3a
I0423 23:58:02.798331  4370 net.cpp:91] Creating Layer scale_conv3_3a
I0423 23:58:02.798336  4370 net.cpp:425] scale_conv3_3a <- conv3_3a
I0423 23:58:02.798346  4370 net.cpp:386] scale_conv3_3a -> conv3_3a (in-place)
I0423 23:58:02.798405  4370 layer_factory.hpp:77] Creating layer scale_conv3_3a
I0423 23:58:02.798563  4370 net.cpp:141] Setting up scale_conv3_3a
I0423 23:58:02.798575  4370 net.cpp:148] Top shape: 100 32 16 16 (819200)
I0423 23:58:02.798580  4370 net.cpp:156] Memory required for data: 376423600
I0423 23:58:02.798590  4370 layer_factory.hpp:77] Creating layer conv3_3a_relu
I0423 23:58:02.798599  4370 net.cpp:91] Creating Layer conv3_3a_relu
I0423 23:58:02.798604  4370 net.cpp:425] conv3_3a_relu <- conv3_3a
I0423 23:58:02.798611  4370 net.cpp:386] conv3_3a_relu -> conv3_3a (in-place)
I0423 23:58:02.798835  4370 net.cpp:141] Setting up conv3_3a_relu
I0423 23:58:02.798849  4370 net.cpp:148] Top shape: 100 32 16 16 (819200)
I0423 23:58:02.798856  4370 net.cpp:156] Memory required for data: 379700400
I0423 23:58:02.798861  4370 layer_factory.hpp:77] Creating layer conv3_3b
I0423 23:58:02.798880  4370 net.cpp:91] Creating Layer conv3_3b
I0423 23:58:02.798887  4370 net.cpp:425] conv3_3b <- conv3_3a
I0423 23:58:02.798898  4370 net.cpp:399] conv3_3b -> conv3_3b
I0423 23:58:02.800511  4370 net.cpp:141] Setting up conv3_3b
I0423 23:58:02.800531  4370 net.cpp:148] Top shape: 100 32 16 16 (819200)
I0423 23:58:02.800537  4370 net.cpp:156] Memory required for data: 382977200
I0423 23:58:02.800547  4370 layer_factory.hpp:77] Creating layer bn_conv3_3b
I0423 23:58:02.800560  4370 net.cpp:91] Creating Layer bn_conv3_3b
I0423 23:58:02.800567  4370 net.cpp:425] bn_conv3_3b <- conv3_3b
I0423 23:58:02.800581  4370 net.cpp:386] bn_conv3_3b -> conv3_3b (in-place)
I0423 23:58:02.800850  4370 net.cpp:141] Setting up bn_conv3_3b
I0423 23:58:02.800863  4370 net.cpp:148] Top shape: 100 32 16 16 (819200)
I0423 23:58:02.800868  4370 net.cpp:156] Memory required for data: 386254000
I0423 23:58:02.800879  4370 layer_factory.hpp:77] Creating layer scale_conv3_3b
I0423 23:58:02.800889  4370 net.cpp:91] Creating Layer scale_conv3_3b
I0423 23:58:02.800894  4370 net.cpp:425] scale_conv3_3b <- conv3_3b
I0423 23:58:02.800902  4370 net.cpp:386] scale_conv3_3b -> conv3_3b (in-place)
I0423 23:58:02.800963  4370 layer_factory.hpp:77] Creating layer scale_conv3_3b
I0423 23:58:02.801139  4370 net.cpp:141] Setting up scale_conv3_3b
I0423 23:58:02.801153  4370 net.cpp:148] Top shape: 100 32 16 16 (819200)
I0423 23:58:02.801158  4370 net.cpp:156] Memory required for data: 389530800
I0423 23:58:02.801167  4370 layer_factory.hpp:77] Creating layer conv3_3
I0423 23:58:02.801177  4370 net.cpp:91] Creating Layer conv3_3
I0423 23:58:02.801183  4370 net.cpp:425] conv3_3 <- conv3_3b
I0423 23:58:02.801190  4370 net.cpp:425] conv3_3 <- conv3_2_conv3_2_relu_0_split_1
I0423 23:58:02.801198  4370 net.cpp:399] conv3_3 -> conv3_3
I0423 23:58:02.801234  4370 net.cpp:141] Setting up conv3_3
I0423 23:58:02.801245  4370 net.cpp:148] Top shape: 100 32 16 16 (819200)
I0423 23:58:02.801250  4370 net.cpp:156] Memory required for data: 392807600
I0423 23:58:02.801256  4370 layer_factory.hpp:77] Creating layer conv3_3_relu
I0423 23:58:02.801265  4370 net.cpp:91] Creating Layer conv3_3_relu
I0423 23:58:02.801270  4370 net.cpp:425] conv3_3_relu <- conv3_3
I0423 23:58:02.801280  4370 net.cpp:386] conv3_3_relu -> conv3_3 (in-place)
I0423 23:58:02.801642  4370 net.cpp:141] Setting up conv3_3_relu
I0423 23:58:02.801659  4370 net.cpp:148] Top shape: 100 32 16 16 (819200)
I0423 23:58:02.801666  4370 net.cpp:156] Memory required for data: 396084400
I0423 23:58:02.801671  4370 layer_factory.hpp:77] Creating layer conv3_3_conv3_3_relu_0_split
I0423 23:58:02.801683  4370 net.cpp:91] Creating Layer conv3_3_conv3_3_relu_0_split
I0423 23:58:02.801689  4370 net.cpp:425] conv3_3_conv3_3_relu_0_split <- conv3_3
I0423 23:58:02.801698  4370 net.cpp:399] conv3_3_conv3_3_relu_0_split -> conv3_3_conv3_3_relu_0_split_0
I0423 23:58:02.801708  4370 net.cpp:399] conv3_3_conv3_3_relu_0_split -> conv3_3_conv3_3_relu_0_split_1
I0423 23:58:02.801774  4370 net.cpp:141] Setting up conv3_3_conv3_3_relu_0_split
I0423 23:58:02.801784  4370 net.cpp:148] Top shape: 100 32 16 16 (819200)
I0423 23:58:02.801790  4370 net.cpp:148] Top shape: 100 32 16 16 (819200)
I0423 23:58:02.801795  4370 net.cpp:156] Memory required for data: 402638000
I0423 23:58:02.801801  4370 layer_factory.hpp:77] Creating layer conv3_sub
I0423 23:58:02.801820  4370 net.cpp:91] Creating Layer conv3_sub
I0423 23:58:02.801827  4370 net.cpp:425] conv3_sub <- conv3_3_conv3_3_relu_0_split_0
I0423 23:58:02.801839  4370 net.cpp:399] conv3_sub -> conv3_sub
I0423 23:58:02.803205  4370 net.cpp:141] Setting up conv3_sub
I0423 23:58:02.803225  4370 net.cpp:148] Top shape: 100 64 8 8 (409600)
I0423 23:58:02.803231  4370 net.cpp:156] Memory required for data: 404276400
I0423 23:58:02.803241  4370 layer_factory.hpp:77] Creating layer bn_conv3_sub
I0423 23:58:02.803256  4370 net.cpp:91] Creating Layer bn_conv3_sub
I0423 23:58:02.803262  4370 net.cpp:425] bn_conv3_sub <- conv3_sub
I0423 23:58:02.803272  4370 net.cpp:386] bn_conv3_sub -> conv3_sub (in-place)
I0423 23:58:02.803557  4370 net.cpp:141] Setting up bn_conv3_sub
I0423 23:58:02.803570  4370 net.cpp:148] Top shape: 100 64 8 8 (409600)
I0423 23:58:02.803575  4370 net.cpp:156] Memory required for data: 405914800
I0423 23:58:02.803586  4370 layer_factory.hpp:77] Creating layer scale_conv3_sub
I0423 23:58:02.803596  4370 net.cpp:91] Creating Layer scale_conv3_sub
I0423 23:58:02.803602  4370 net.cpp:425] scale_conv3_sub <- conv3_sub
I0423 23:58:02.803611  4370 net.cpp:386] scale_conv3_sub -> conv3_sub (in-place)
I0423 23:58:02.803678  4370 layer_factory.hpp:77] Creating layer scale_conv3_sub
I0423 23:58:02.803853  4370 net.cpp:141] Setting up scale_conv3_sub
I0423 23:58:02.803864  4370 net.cpp:148] Top shape: 100 64 8 8 (409600)
I0423 23:58:02.803869  4370 net.cpp:156] Memory required for data: 407553200
I0423 23:58:02.803879  4370 layer_factory.hpp:77] Creating layer conv3_sub_scale_conv3_sub_0_split
I0423 23:58:02.803890  4370 net.cpp:91] Creating Layer conv3_sub_scale_conv3_sub_0_split
I0423 23:58:02.803896  4370 net.cpp:425] conv3_sub_scale_conv3_sub_0_split <- conv3_sub
I0423 23:58:02.803905  4370 net.cpp:399] conv3_sub_scale_conv3_sub_0_split -> conv3_sub_scale_conv3_sub_0_split_0
I0423 23:58:02.803915  4370 net.cpp:399] conv3_sub_scale_conv3_sub_0_split -> conv3_sub_scale_conv3_sub_0_split_1
I0423 23:58:02.803972  4370 net.cpp:141] Setting up conv3_sub_scale_conv3_sub_0_split
I0423 23:58:02.803982  4370 net.cpp:148] Top shape: 100 64 8 8 (409600)
I0423 23:58:02.803988  4370 net.cpp:148] Top shape: 100 64 8 8 (409600)
I0423 23:58:02.803993  4370 net.cpp:156] Memory required for data: 410830000
I0423 23:58:02.803998  4370 layer_factory.hpp:77] Creating layer conv4_1a
I0423 23:58:02.804013  4370 net.cpp:91] Creating Layer conv4_1a
I0423 23:58:02.804020  4370 net.cpp:425] conv4_1a <- conv3_3_conv3_3_relu_0_split_1
I0423 23:58:02.804029  4370 net.cpp:399] conv4_1a -> conv4_1a
I0423 23:58:02.805276  4370 net.cpp:141] Setting up conv4_1a
I0423 23:58:02.805297  4370 net.cpp:148] Top shape: 100 64 8 8 (409600)
I0423 23:58:02.805302  4370 net.cpp:156] Memory required for data: 412468400
I0423 23:58:02.805313  4370 layer_factory.hpp:77] Creating layer bn_conv4_1a
I0423 23:58:02.805323  4370 net.cpp:91] Creating Layer bn_conv4_1a
I0423 23:58:02.805330  4370 net.cpp:425] bn_conv4_1a <- conv4_1a
I0423 23:58:02.805344  4370 net.cpp:386] bn_conv4_1a -> conv4_1a (in-place)
I0423 23:58:02.805629  4370 net.cpp:141] Setting up bn_conv4_1a
I0423 23:58:02.805642  4370 net.cpp:148] Top shape: 100 64 8 8 (409600)
I0423 23:58:02.805647  4370 net.cpp:156] Memory required for data: 414106800
I0423 23:58:02.805658  4370 layer_factory.hpp:77] Creating layer scale_conv4_1a
I0423 23:58:02.805668  4370 net.cpp:91] Creating Layer scale_conv4_1a
I0423 23:58:02.805675  4370 net.cpp:425] scale_conv4_1a <- conv4_1a
I0423 23:58:02.805685  4370 net.cpp:386] scale_conv4_1a -> conv4_1a (in-place)
I0423 23:58:02.805744  4370 layer_factory.hpp:77] Creating layer scale_conv4_1a
I0423 23:58:02.805908  4370 net.cpp:141] Setting up scale_conv4_1a
I0423 23:58:02.805920  4370 net.cpp:148] Top shape: 100 64 8 8 (409600)
I0423 23:58:02.805925  4370 net.cpp:156] Memory required for data: 415745200
I0423 23:58:02.805935  4370 layer_factory.hpp:77] Creating layer conv4_1a_relu
I0423 23:58:02.805944  4370 net.cpp:91] Creating Layer conv4_1a_relu
I0423 23:58:02.805950  4370 net.cpp:425] conv4_1a_relu <- conv4_1a
I0423 23:58:02.805959  4370 net.cpp:386] conv4_1a_relu -> conv4_1a (in-place)
I0423 23:58:02.806324  4370 net.cpp:141] Setting up conv4_1a_relu
I0423 23:58:02.806342  4370 net.cpp:148] Top shape: 100 64 8 8 (409600)
I0423 23:58:02.806349  4370 net.cpp:156] Memory required for data: 417383600
I0423 23:58:02.806354  4370 layer_factory.hpp:77] Creating layer conv4_1b
I0423 23:58:02.806372  4370 net.cpp:91] Creating Layer conv4_1b
I0423 23:58:02.806380  4370 net.cpp:425] conv4_1b <- conv4_1a
I0423 23:58:02.806390  4370 net.cpp:399] conv4_1b -> conv4_1b
I0423 23:58:02.809007  4370 net.cpp:141] Setting up conv4_1b
I0423 23:58:02.809027  4370 net.cpp:148] Top shape: 100 64 8 8 (409600)
I0423 23:58:02.809033  4370 net.cpp:156] Memory required for data: 419022000
I0423 23:58:02.809043  4370 layer_factory.hpp:77] Creating layer bn_conv4_1b
I0423 23:58:02.809057  4370 net.cpp:91] Creating Layer bn_conv4_1b
I0423 23:58:02.809064  4370 net.cpp:425] bn_conv4_1b <- conv4_1b
I0423 23:58:02.809075  4370 net.cpp:386] bn_conv4_1b -> conv4_1b (in-place)
I0423 23:58:02.809365  4370 net.cpp:141] Setting up bn_conv4_1b
I0423 23:58:02.809379  4370 net.cpp:148] Top shape: 100 64 8 8 (409600)
I0423 23:58:02.809384  4370 net.cpp:156] Memory required for data: 420660400
I0423 23:58:02.809430  4370 layer_factory.hpp:77] Creating layer scale_conv4_1b
I0423 23:58:02.809442  4370 net.cpp:91] Creating Layer scale_conv4_1b
I0423 23:58:02.809448  4370 net.cpp:425] scale_conv4_1b <- conv4_1b
I0423 23:58:02.809458  4370 net.cpp:386] scale_conv4_1b -> conv4_1b (in-place)
I0423 23:58:02.809528  4370 layer_factory.hpp:77] Creating layer scale_conv4_1b
I0423 23:58:02.809697  4370 net.cpp:141] Setting up scale_conv4_1b
I0423 23:58:02.809710  4370 net.cpp:148] Top shape: 100 64 8 8 (409600)
I0423 23:58:02.809715  4370 net.cpp:156] Memory required for data: 422298800
I0423 23:58:02.809725  4370 layer_factory.hpp:77] Creating layer conv4_1
I0423 23:58:02.809732  4370 net.cpp:91] Creating Layer conv4_1
I0423 23:58:02.809739  4370 net.cpp:425] conv4_1 <- conv2_sub2
I0423 23:58:02.809747  4370 net.cpp:425] conv4_1 <- conv3_sub_scale_conv3_sub_0_split_0
I0423 23:58:02.809754  4370 net.cpp:425] conv4_1 <- conv4_1b
I0423 23:58:02.809762  4370 net.cpp:399] conv4_1 -> conv4_1
I0423 23:58:02.809803  4370 net.cpp:141] Setting up conv4_1
I0423 23:58:02.809814  4370 net.cpp:148] Top shape: 100 64 8 8 (409600)
I0423 23:58:02.809820  4370 net.cpp:156] Memory required for data: 423937200
I0423 23:58:02.809825  4370 layer_factory.hpp:77] Creating layer conv4_1_relu
I0423 23:58:02.809834  4370 net.cpp:91] Creating Layer conv4_1_relu
I0423 23:58:02.809839  4370 net.cpp:425] conv4_1_relu <- conv4_1
I0423 23:58:02.809849  4370 net.cpp:386] conv4_1_relu -> conv4_1 (in-place)
I0423 23:58:02.810073  4370 net.cpp:141] Setting up conv4_1_relu
I0423 23:58:02.810087  4370 net.cpp:148] Top shape: 100 64 8 8 (409600)
I0423 23:58:02.810093  4370 net.cpp:156] Memory required for data: 425575600
I0423 23:58:02.810099  4370 layer_factory.hpp:77] Creating layer conv4_1_conv4_1_relu_0_split
I0423 23:58:02.810111  4370 net.cpp:91] Creating Layer conv4_1_conv4_1_relu_0_split
I0423 23:58:02.810117  4370 net.cpp:425] conv4_1_conv4_1_relu_0_split <- conv4_1
I0423 23:58:02.810124  4370 net.cpp:399] conv4_1_conv4_1_relu_0_split -> conv4_1_conv4_1_relu_0_split_0
I0423 23:58:02.810134  4370 net.cpp:399] conv4_1_conv4_1_relu_0_split -> conv4_1_conv4_1_relu_0_split_1
I0423 23:58:02.810204  4370 net.cpp:141] Setting up conv4_1_conv4_1_relu_0_split
I0423 23:58:02.810215  4370 net.cpp:148] Top shape: 100 64 8 8 (409600)
I0423 23:58:02.810221  4370 net.cpp:148] Top shape: 100 64 8 8 (409600)
I0423 23:58:02.810226  4370 net.cpp:156] Memory required for data: 428852400
I0423 23:58:02.810232  4370 layer_factory.hpp:77] Creating layer conv4_2a
I0423 23:58:02.810247  4370 net.cpp:91] Creating Layer conv4_2a
I0423 23:58:02.810253  4370 net.cpp:425] conv4_2a <- conv4_1_conv4_1_relu_0_split_0
I0423 23:58:02.810266  4370 net.cpp:399] conv4_2a -> conv4_2a
I0423 23:58:02.812890  4370 net.cpp:141] Setting up conv4_2a
I0423 23:58:02.812909  4370 net.cpp:148] Top shape: 100 64 8 8 (409600)
I0423 23:58:02.812916  4370 net.cpp:156] Memory required for data: 430490800
I0423 23:58:02.812925  4370 layer_factory.hpp:77] Creating layer bn_conv4_2a
I0423 23:58:02.812935  4370 net.cpp:91] Creating Layer bn_conv4_2a
I0423 23:58:02.812942  4370 net.cpp:425] bn_conv4_2a <- conv4_2a
I0423 23:58:02.812953  4370 net.cpp:386] bn_conv4_2a -> conv4_2a (in-place)
I0423 23:58:02.813249  4370 net.cpp:141] Setting up bn_conv4_2a
I0423 23:58:02.813263  4370 net.cpp:148] Top shape: 100 64 8 8 (409600)
I0423 23:58:02.813269  4370 net.cpp:156] Memory required for data: 432129200
I0423 23:58:02.813280  4370 layer_factory.hpp:77] Creating layer scale_conv4_2a
I0423 23:58:02.813290  4370 net.cpp:91] Creating Layer scale_conv4_2a
I0423 23:58:02.813297  4370 net.cpp:425] scale_conv4_2a <- conv4_2a
I0423 23:58:02.813307  4370 net.cpp:386] scale_conv4_2a -> conv4_2a (in-place)
I0423 23:58:02.813369  4370 layer_factory.hpp:77] Creating layer scale_conv4_2a
I0423 23:58:02.813536  4370 net.cpp:141] Setting up scale_conv4_2a
I0423 23:58:02.813549  4370 net.cpp:148] Top shape: 100 64 8 8 (409600)
I0423 23:58:02.813554  4370 net.cpp:156] Memory required for data: 433767600
I0423 23:58:02.813562  4370 layer_factory.hpp:77] Creating layer conv4_2a_relu
I0423 23:58:02.813576  4370 net.cpp:91] Creating Layer conv4_2a_relu
I0423 23:58:02.813582  4370 net.cpp:425] conv4_2a_relu <- conv4_2a
I0423 23:58:02.813596  4370 net.cpp:386] conv4_2a_relu -> conv4_2a (in-place)
I0423 23:58:02.813963  4370 net.cpp:141] Setting up conv4_2a_relu
I0423 23:58:02.813982  4370 net.cpp:148] Top shape: 100 64 8 8 (409600)
I0423 23:58:02.813987  4370 net.cpp:156] Memory required for data: 435406000
I0423 23:58:02.813993  4370 layer_factory.hpp:77] Creating layer conv4_2b
I0423 23:58:02.814012  4370 net.cpp:91] Creating Layer conv4_2b
I0423 23:58:02.814019  4370 net.cpp:425] conv4_2b <- conv4_2a
I0423 23:58:02.814029  4370 net.cpp:399] conv4_2b -> conv4_2b
I0423 23:58:02.817144  4370 net.cpp:141] Setting up conv4_2b
I0423 23:58:02.817168  4370 net.cpp:148] Top shape: 100 64 8 8 (409600)
I0423 23:58:02.817175  4370 net.cpp:156] Memory required for data: 437044400
I0423 23:58:02.817185  4370 layer_factory.hpp:77] Creating layer bn_conv4_2b
I0423 23:58:02.817195  4370 net.cpp:91] Creating Layer bn_conv4_2b
I0423 23:58:02.817203  4370 net.cpp:425] bn_conv4_2b <- conv4_2b
I0423 23:58:02.817214  4370 net.cpp:386] bn_conv4_2b -> conv4_2b (in-place)
I0423 23:58:02.817503  4370 net.cpp:141] Setting up bn_conv4_2b
I0423 23:58:02.817515  4370 net.cpp:148] Top shape: 100 64 8 8 (409600)
I0423 23:58:02.817520  4370 net.cpp:156] Memory required for data: 438682800
I0423 23:58:02.817531  4370 layer_factory.hpp:77] Creating layer scale_conv4_2b
I0423 23:58:02.817541  4370 net.cpp:91] Creating Layer scale_conv4_2b
I0423 23:58:02.817548  4370 net.cpp:425] scale_conv4_2b <- conv4_2b
I0423 23:58:02.817558  4370 net.cpp:386] scale_conv4_2b -> conv4_2b (in-place)
I0423 23:58:02.817620  4370 layer_factory.hpp:77] Creating layer scale_conv4_2b
I0423 23:58:02.817792  4370 net.cpp:141] Setting up scale_conv4_2b
I0423 23:58:02.817803  4370 net.cpp:148] Top shape: 100 64 8 8 (409600)
I0423 23:58:02.817809  4370 net.cpp:156] Memory required for data: 440321200
I0423 23:58:02.817818  4370 layer_factory.hpp:77] Creating layer conv4_2
I0423 23:58:02.817826  4370 net.cpp:91] Creating Layer conv4_2
I0423 23:58:02.817833  4370 net.cpp:425] conv4_2 <- conv4_1_conv4_1_relu_0_split_1
I0423 23:58:02.817841  4370 net.cpp:425] conv4_2 <- conv4_2b
I0423 23:58:02.817850  4370 net.cpp:399] conv4_2 -> conv4_2
I0423 23:58:02.817891  4370 net.cpp:141] Setting up conv4_2
I0423 23:58:02.817903  4370 net.cpp:148] Top shape: 100 64 8 8 (409600)
I0423 23:58:02.817908  4370 net.cpp:156] Memory required for data: 441959600
I0423 23:58:02.817914  4370 layer_factory.hpp:77] Creating layer conv4_2_relu
I0423 23:58:02.817920  4370 net.cpp:91] Creating Layer conv4_2_relu
I0423 23:58:02.817926  4370 net.cpp:425] conv4_2_relu <- conv4_2
I0423 23:58:02.817934  4370 net.cpp:386] conv4_2_relu -> conv4_2 (in-place)
I0423 23:58:02.818305  4370 net.cpp:141] Setting up conv4_2_relu
I0423 23:58:02.818323  4370 net.cpp:148] Top shape: 100 64 8 8 (409600)
I0423 23:58:02.818330  4370 net.cpp:156] Memory required for data: 443598000
I0423 23:58:02.818336  4370 layer_factory.hpp:77] Creating layer conv4_2_conv4_2_relu_0_split
I0423 23:58:02.818344  4370 net.cpp:91] Creating Layer conv4_2_conv4_2_relu_0_split
I0423 23:58:02.818351  4370 net.cpp:425] conv4_2_conv4_2_relu_0_split <- conv4_2
I0423 23:58:02.818362  4370 net.cpp:399] conv4_2_conv4_2_relu_0_split -> conv4_2_conv4_2_relu_0_split_0
I0423 23:58:02.818373  4370 net.cpp:399] conv4_2_conv4_2_relu_0_split -> conv4_2_conv4_2_relu_0_split_1
I0423 23:58:02.818437  4370 net.cpp:141] Setting up conv4_2_conv4_2_relu_0_split
I0423 23:58:02.818449  4370 net.cpp:148] Top shape: 100 64 8 8 (409600)
I0423 23:58:02.818455  4370 net.cpp:148] Top shape: 100 64 8 8 (409600)
I0423 23:58:02.818460  4370 net.cpp:156] Memory required for data: 446874800
I0423 23:58:02.818465  4370 layer_factory.hpp:77] Creating layer conv4_3a
I0423 23:58:02.818483  4370 net.cpp:91] Creating Layer conv4_3a
I0423 23:58:02.818490  4370 net.cpp:425] conv4_3a <- conv4_2_conv4_2_relu_0_split_0
I0423 23:58:02.818505  4370 net.cpp:399] conv4_3a -> conv4_3a
I0423 23:58:02.821135  4370 net.cpp:141] Setting up conv4_3a
I0423 23:58:02.821158  4370 net.cpp:148] Top shape: 100 64 8 8 (409600)
I0423 23:58:02.821166  4370 net.cpp:156] Memory required for data: 448513200
I0423 23:58:02.821176  4370 layer_factory.hpp:77] Creating layer bn_conv4_3a
I0423 23:58:02.821185  4370 net.cpp:91] Creating Layer bn_conv4_3a
I0423 23:58:02.821192  4370 net.cpp:425] bn_conv4_3a <- conv4_3a
I0423 23:58:02.821203  4370 net.cpp:386] bn_conv4_3a -> conv4_3a (in-place)
I0423 23:58:02.821507  4370 net.cpp:141] Setting up bn_conv4_3a
I0423 23:58:02.821519  4370 net.cpp:148] Top shape: 100 64 8 8 (409600)
I0423 23:58:02.821524  4370 net.cpp:156] Memory required for data: 450151600
I0423 23:58:02.821537  4370 layer_factory.hpp:77] Creating layer scale_conv4_3a
I0423 23:58:02.821545  4370 net.cpp:91] Creating Layer scale_conv4_3a
I0423 23:58:02.821552  4370 net.cpp:425] scale_conv4_3a <- conv4_3a
I0423 23:58:02.821563  4370 net.cpp:386] scale_conv4_3a -> conv4_3a (in-place)
I0423 23:58:02.821624  4370 layer_factory.hpp:77] Creating layer scale_conv4_3a
I0423 23:58:02.821796  4370 net.cpp:141] Setting up scale_conv4_3a
I0423 23:58:02.821808  4370 net.cpp:148] Top shape: 100 64 8 8 (409600)
I0423 23:58:02.821813  4370 net.cpp:156] Memory required for data: 451790000
I0423 23:58:02.821822  4370 layer_factory.hpp:77] Creating layer conv4_3a_relu
I0423 23:58:02.821831  4370 net.cpp:91] Creating Layer conv4_3a_relu
I0423 23:58:02.821837  4370 net.cpp:425] conv4_3a_relu <- conv4_3a
I0423 23:58:02.821847  4370 net.cpp:386] conv4_3a_relu -> conv4_3a (in-place)
I0423 23:58:02.822077  4370 net.cpp:141] Setting up conv4_3a_relu
I0423 23:58:02.822094  4370 net.cpp:148] Top shape: 100 64 8 8 (409600)
I0423 23:58:02.822100  4370 net.cpp:156] Memory required for data: 453428400
I0423 23:58:02.822106  4370 layer_factory.hpp:77] Creating layer conv4_3b
I0423 23:58:02.822123  4370 net.cpp:91] Creating Layer conv4_3b
I0423 23:58:02.822129  4370 net.cpp:425] conv4_3b <- conv4_3a
I0423 23:58:02.822139  4370 net.cpp:399] conv4_3b -> conv4_3b
I0423 23:58:02.825448  4370 net.cpp:141] Setting up conv4_3b
I0423 23:58:02.825469  4370 net.cpp:148] Top shape: 100 64 8 8 (409600)
I0423 23:58:02.825476  4370 net.cpp:156] Memory required for data: 455066800
I0423 23:58:02.825486  4370 layer_factory.hpp:77] Creating layer bn_conv4_3b
I0423 23:58:02.825500  4370 net.cpp:91] Creating Layer bn_conv4_3b
I0423 23:58:02.825506  4370 net.cpp:425] bn_conv4_3b <- conv4_3b
I0423 23:58:02.825515  4370 net.cpp:386] bn_conv4_3b -> conv4_3b (in-place)
I0423 23:58:02.825728  4370 net.cpp:141] Setting up bn_conv4_3b
I0423 23:58:02.825742  4370 net.cpp:148] Top shape: 100 64 8 8 (409600)
I0423 23:58:02.825747  4370 net.cpp:156] Memory required for data: 456705200
I0423 23:58:02.825757  4370 layer_factory.hpp:77] Creating layer scale_conv4_3b
I0423 23:58:02.825767  4370 net.cpp:91] Creating Layer scale_conv4_3b
I0423 23:58:02.825773  4370 net.cpp:425] scale_conv4_3b <- conv4_3b
I0423 23:58:02.825781  4370 net.cpp:386] scale_conv4_3b -> conv4_3b (in-place)
I0423 23:58:02.825834  4370 layer_factory.hpp:77] Creating layer scale_conv4_3b
I0423 23:58:02.825963  4370 net.cpp:141] Setting up scale_conv4_3b
I0423 23:58:02.825973  4370 net.cpp:148] Top shape: 100 64 8 8 (409600)
I0423 23:58:02.825978  4370 net.cpp:156] Memory required for data: 458343600
I0423 23:58:02.825987  4370 layer_factory.hpp:77] Creating layer conv4_3
I0423 23:58:02.825996  4370 net.cpp:91] Creating Layer conv4_3
I0423 23:58:02.826002  4370 net.cpp:425] conv4_3 <- conv4_2_conv4_2_relu_0_split_1
I0423 23:58:02.826009  4370 net.cpp:425] conv4_3 <- conv3_sub_scale_conv3_sub_0_split_1
I0423 23:58:02.826016  4370 net.cpp:425] conv4_3 <- conv4_3b
I0423 23:58:02.826023  4370 net.cpp:399] conv4_3 -> conv4_3
I0423 23:58:02.826056  4370 net.cpp:141] Setting up conv4_3
I0423 23:58:02.826067  4370 net.cpp:148] Top shape: 100 64 8 8 (409600)
I0423 23:58:02.826072  4370 net.cpp:156] Memory required for data: 459982000
I0423 23:58:02.826078  4370 layer_factory.hpp:77] Creating layer conv4_3_relu
I0423 23:58:02.826092  4370 net.cpp:91] Creating Layer conv4_3_relu
I0423 23:58:02.826097  4370 net.cpp:425] conv4_3_relu <- conv4_3
I0423 23:58:02.826105  4370 net.cpp:386] conv4_3_relu -> conv4_3 (in-place)
I0423 23:58:02.826473  4370 net.cpp:141] Setting up conv4_3_relu
I0423 23:58:02.826493  4370 net.cpp:148] Top shape: 100 64 8 8 (409600)
I0423 23:58:02.826499  4370 net.cpp:156] Memory required for data: 461620400
I0423 23:58:02.826505  4370 layer_factory.hpp:77] Creating layer global_pool
I0423 23:58:02.826516  4370 net.cpp:91] Creating Layer global_pool
I0423 23:58:02.826522  4370 net.cpp:425] global_pool <- conv4_3
I0423 23:58:02.826531  4370 net.cpp:399] global_pool -> global_pool
I0423 23:58:02.826784  4370 net.cpp:141] Setting up global_pool
I0423 23:58:02.826800  4370 net.cpp:148] Top shape: 100 64 1 1 (6400)
I0423 23:58:02.826805  4370 net.cpp:156] Memory required for data: 461646000
I0423 23:58:02.826812  4370 layer_factory.hpp:77] Creating layer ip
I0423 23:58:02.826822  4370 net.cpp:91] Creating Layer ip
I0423 23:58:02.826828  4370 net.cpp:425] ip <- global_pool
I0423 23:58:02.826839  4370 net.cpp:399] ip -> ip
I0423 23:58:02.826984  4370 net.cpp:141] Setting up ip
I0423 23:58:02.826997  4370 net.cpp:148] Top shape: 100 10 (1000)
I0423 23:58:02.827002  4370 net.cpp:156] Memory required for data: 461650000
I0423 23:58:02.827010  4370 layer_factory.hpp:77] Creating layer ip_ip_0_split
I0423 23:58:02.827019  4370 net.cpp:91] Creating Layer ip_ip_0_split
I0423 23:58:02.827025  4370 net.cpp:425] ip_ip_0_split <- ip
I0423 23:58:02.827035  4370 net.cpp:399] ip_ip_0_split -> ip_ip_0_split_0
I0423 23:58:02.827046  4370 net.cpp:399] ip_ip_0_split -> ip_ip_0_split_1
I0423 23:58:02.827090  4370 net.cpp:141] Setting up ip_ip_0_split
I0423 23:58:02.827102  4370 net.cpp:148] Top shape: 100 10 (1000)
I0423 23:58:02.827108  4370 net.cpp:148] Top shape: 100 10 (1000)
I0423 23:58:02.827113  4370 net.cpp:156] Memory required for data: 461658000
I0423 23:58:02.827119  4370 layer_factory.hpp:77] Creating layer accuracy
I0423 23:58:02.827127  4370 net.cpp:91] Creating Layer accuracy
I0423 23:58:02.827133  4370 net.cpp:425] accuracy <- ip_ip_0_split_0
I0423 23:58:02.827141  4370 net.cpp:425] accuracy <- label_cifar_1_split_0
I0423 23:58:02.827148  4370 net.cpp:399] accuracy -> accuracy
…
