…
I0420 18:45:31.076537 11276 net.cpp:313] The NetState phase (0) differed from the phase (1) specified by a rule in layer cifar
I0420 18:45:31.077100 11276 net.cpp:49] Initializing net from parameters: 
name: "ResNet-cifar"
state {
  phase: TRAIN
}
layer {
  name: "cifar"
  type: "Data"
  top: "data"
  top: "label"
  include {
    phase: TRAIN
  }
  transform_param {
    mean_file: "/home/liangjiang/code/residual_network/data/cifar10/mean.binaryproto"
  }
  data_param {
    source: "/home/liangjiang/code/residual_network/data/cifar10/cifar10_train_lmdb"
    batch_size: 256
    backend: LMDB
  }
}
layer {
  name: "conv1"
  type: "Convolution"
  bottom: "data"
  top: "conv1"
  param {
    lr_mult: 1
  }
  param {
    lr_mult: 2
  }
  convolution_param {
    num_output: 16
    pad: 1
    kernel_size: 3
    weight_filler {
      type: "msra"
    }
    bias_filler {
      type: "constant"
    }
  }
}
layer {
  name: "bn_conv1"
  type: "BatchNorm"
  bottom: "conv1"
  top: "conv1"
  param {
    lr_mult: 0
  }
  param {
    lr_mult: 0
  }
  param {
    lr_mult: 0
  }
}
layer {
  name: "scale_conv1"
  type: "Scale"
  bottom: "conv1"
  top: "conv1"
  scale_param {
    bias_term: true
  }
}
layer {
  name: "conv1_relu"
  type: "ReLU"
  bottom: "conv1"
  top: "conv1"
}
layer {
  name: "conv2_1a"
  type: "Convolution"
  bottom: "conv1"
  top: "conv2_1a"
  param {
    lr_mult: 1
  }
  param {
    lr_mult: 2
  }
  convolution_param {
    num_output: 16
    pad: 1
    kernel_size: 3
    stride: 1
    weight_filler {
      type: "msra"
    }
    bias_filler {
      type: "constant"
      value: 0
    }
  }
}
layer {
  name: "bn_conv2_1a"
  type: "BatchNorm"
  bottom: "conv2_1a"
  top: "conv2_1a"
  param {
    lr_mult: 0
  }
  param {
    lr_mult: 0
  }
  param {
    lr_mult: 0
  }
}
layer {
  name: "scale_conv2_1a"
  type: "Scale"
  bottom: "conv2_1a"
  top: "conv2_1a"
  scale_param {
    bias_term: true
  }
}
layer {
  name: "conv2_1a_relu"
  type: "ReLU"
  bottom: "conv2_1a"
  top: "conv2_1a"
}
layer {
  name: "conv2_1b"
  type: "Convolution"
  bottom: "conv2_1a"
  top: "conv2_1b"
  param {
    lr_mult: 1
  }
  param {
    lr_mult: 2
  }
  convolution_param {
    num_output: 16
    pad: 1
    kernel_size: 3
    stride: 1
    weight_filler {
      type: "msra"
    }
    bias_filler {
      type: "constant"
      value: 0
    }
  }
}
layer {
  name: "bn_conv2_1b"
  type: "BatchNorm"
  bottom: "conv2_1b"
  top: "conv2_1b"
  param {
    lr_mult: 0
  }
  param {
    lr_mult: 0
  }
  param {
    lr_mult: 0
  }
}
layer {
  name: "scale_conv2_1b"
  type: "Scale"
  bottom: "conv2_1b"
  top: "conv2_1b"
  scale_param {
    bias_term: true
  }
}
layer {
  name: "conv2_1_relu"
  type: "ReLU"
  bottom: "conv2_1b"
  top: "conv2_1b"
}
layer {
  name: "conv2_2a"
  type: "Convolution"
  bottom: "conv2_1b"
  top: "conv2_2a"
  param {
    lr_mult: 1
  }
  param {
    lr_mult: 2
  }
  convolution_param {
    num_output: 16
    pad: 1
    kernel_size: 3
    stride: 1
    weight_filler {
      type: "msra"
    }
    bias_filler {
      type: "constant"
      value: 0
    }
  }
}
layer {
  name: "bn_conv2_2a"
  type: "BatchNorm"
  bottom: "conv2_2a"
  top: "conv2_2a"
  param {
    lr_mult: 0
  }
  param {
    lr_mult: 0
  }
  param {
    lr_mult: 0
  }
}
layer {
  name: "scale_conv2_2a"
  type: "Scale"
  bottom: "conv2_2a"
  top: "conv2_2a"
  scale_param {
    bias_term: true
  }
}
layer {
  name: "conv2_2a_relu"
  type: "ReLU"
  bottom: "conv2_2a"
  top: "conv2_2a"
}
layer {
  name: "conv2_2b"
  type: "Convolution"
  bottom: "conv2_2a"
  top: "conv2_2b"
  param {
    lr_mult: 1
  }
  param {
    lr_mult: 2
  }
  convolution_param {
    num_output: 16
    pad: 1
    kernel_size: 3
    stride: 1
    weight_filler {
      type: "msra"
    }
    bias_filler {
      type: "constant"
      value: 0
    }
  }
}
layer {
  name: "bn_conv2_2b"
  type: "BatchNorm"
  bottom: "conv2_2b"
  top: "conv2_2b"
  param {
    lr_mult: 0
  }
  param {
    lr_mult: 0
  }
  param {
    lr_mult: 0
  }
}
layer {
  name: "scale_conv2_2b"
  type: "Scale"
  bottom: "conv2_2b"
  top: "conv2_2b"
  scale_param {
    bias_term: true
  }
}
layer {
  name: "conv2_2_relu"
  type: "ReLU"
  bottom: "conv2_2b"
  top: "conv2_2b"
}
layer {
  name: "conv2_3a"
  type: "Convolution"
  bottom: "conv2_2b"
  top: "conv2_3a"
  param {
    lr_mult: 1
  }
  param {
    lr_mult: 2
  }
  convolution_param {
    num_output: 16
    pad: 1
    kernel_size: 3
    stride: 1
    weight_filler {
      type: "msra"
    }
    bias_filler {
      type: "constant"
      value: 0
    }
  }
}
layer {
  name: "bn_conv2_3a"
  type: "BatchNorm"
  bottom: "conv2_3a"
  top: "conv2_3a"
  param {
    lr_mult: 0
  }
  param {
    lr_mult: 0
  }
  param {
    lr_mult: 0
  }
}
layer {
  name: "scale_conv2_3a"
  type: "Scale"
  bottom: "conv2_3a"
  top: "conv2_3a"
  scale_param {
    bias_term: true
  }
}
layer {
  name: "conv2_3a_relu"
  type: "ReLU"
  bottom: "conv2_3a"
  top: "conv2_3a"
}
layer {
  name: "conv2_3b"
  type: "Convolution"
  bottom: "conv2_3a"
  top: "conv2_3b"
  param {
    lr_mult: 1
  }
  param {
    lr_mult: 2
  }
  convolution_param {
    num_output: 16
    pad: 1
    kernel_size: 3
    stride: 1
    weight_filler {
      type: "msra"
    }
    bias_filler {
      type: "constant"
      value: 0
    }
  }
}
layer {
  name: "bn_conv2_3b"
  type: "BatchNorm"
  bottom: "conv2_3b"
  top: "conv2_3b"
  param {
    lr_mult: 0
  }
  param {
    lr_mult: 0
  }
  param {
    lr_mult: 0
  }
}
layer {
  name: "scale_conv2_3b"
  type: "Scale"
  bottom: "conv2_3b"
  top: "conv2_3b"
  scale_param {
    bias_term: true
  }
}
layer {
  name: "conv2_3"
  type: "Eltwise"
  bottom: "conv2_3b"
  bottom: "conv1"
  top: "conv2_3"
}
layer {
  name: "conv2_3_relu"
  type: "ReLU"
  bottom: "conv2_3"
  top: "conv2_3"
}
layer {
  name: "conv2_sub"
  type: "Convolution"
  bottom: "conv2_3"
  top: "conv2_sub"
  param {
    lr_mult: 1
  }
  param {
    lr_mult: 2
  }
  convolution_param {
    num_output: 32
    kernel_size: 1
    stride: 2
    weight_filler {
      type: "msra"
    }
    bias_filler {
      type: "constant"
      value: 0
    }
  }
}
layer {
  name: "bn_conv2_sub"
  type: "BatchNorm"
  bottom: "conv2_sub"
  top: "conv2_sub"
  param {
    lr_mult: 0
  }
  param {
    lr_mult: 0
  }
  param {
    lr_mult: 0
  }
}
layer {
  name: "scale_conv2_sub"
  type: "Scale"
  bottom: "conv2_sub"
  top: "conv2_sub"
  scale_param {
    bias_term: true
  }
}
layer {
  name: "conv3_1a"
  type: "Convolution"
  bottom: "conv2_3"
  top: "conv3_1a"
  param {
    lr_mult: 1
  }
  param {
    lr_mult: 2
  }
  convolution_param {
    num_output: 32
    pad: 0
    kernel_size: 1
    stride: 2
    weight_filler {
      type: "msra"
    }
    bias_filler {
      type: "constant"
      value: 0
    }
  }
}
layer {
  name: "bn_conv3_1a"
  type: "BatchNorm"
  bottom: "conv3_1a"
  top: "conv3_1a"
  param {
    lr_mult: 0
  }
  param {
    lr_mult: 0
  }
  param {
    lr_mult: 0
  }
}
layer {
  name: "scale_conv3_1a"
  type: "Scale"
  bottom: "conv3_1a"
  top: "conv3_1a"
  scale_param {
    bias_term: true
  }
}
layer {
  name: "conv3_1a_relu"
  type: "ReLU"
  bottom: "conv3_1a"
  top: "conv3_1a"
}
layer {
  name: "conv3_1b"
  type: "Convolution"
  bottom: "conv3_1a"
  top: "conv3_1b"
  param {
    lr_mult: 1
  }
  param {
    lr_mult: 2
  }
  convolution_param {
    num_output: 32
    pad: 1
    kernel_size: 3
    stride: 1
    weight_filler {
      type: "msra"
    }
    bias_filler {
      type: "constant"
      value: 0
    }
  }
}
layer {
  name: "bn_conv3_1b"
  type: "BatchNorm"
  bottom: "conv3_1b"
  top: "conv3_1b"
  param {
    lr_mult: 0
  }
  param {
    lr_mult: 0
  }
  param {
    lr_mult: 0
  }
}
layer {
  name: "scale_conv3_1b"
  type: "Scale"
  bottom: "conv3_1b"
  top: "conv3_1b"
  scale_param {
    bias_term: true
  }
}
layer {
  name: "conv3_1_relu"
  type: "ReLU"
  bottom: "conv3_1b"
  top: "conv3_1b"
}
layer {
  name: "conv3_2a"
  type: "Convolution"
  bottom: "conv3_1b"
  top: "conv3_2a"
  param {
    lr_mult: 1
  }
  param {
    lr_mult: 2
  }
  convolution_param {
    num_output: 32
    pad: 1
    kernel_size: 3
    stride: 1
    weight_filler {
      type: "msra"
    }
    bias_filler {
      type: "constant"
      value: 0
    }
  }
}
layer {
  name: "bn_conv3_2a"
  type: "BatchNorm"
  bottom: "conv3_2a"
  top: "conv3_2a"
  param {
    lr_mult: 0
  }
  param {
    lr_mult: 0
  }
  param {
    lr_mult: 0
  }
}
layer {
  name: "scale_conv3_2a"
  type: "Scale"
  bottom: "conv3_2a"
  top: "conv3_2a"
  scale_param {
    bias_term: true
  }
}
layer {
  name: "conv3_2a_relu"
  type: "ReLU"
  bottom: "conv3_2a"
  top: "conv3_2a"
}
layer {
  name: "conv3_2b"
  type: "Convolution"
  bottom: "conv3_2a"
  top: "conv3_2b"
  param {
    lr_mult: 1
  }
  param {
    lr_mult: 2
  }
  convolution_param {
    num_output: 32
    pad: 1
    kernel_size: 3
    stride: 1
    weight_filler {
      type: "msra"
    }
    bias_filler {
      type: "constant"
      value: 0
    }
  }
}
layer {
  name: "bn_conv3_2b"
  type: "BatchNorm"
  bottom: "conv3_2b"
  top: "conv3_2b"
  param {
    lr_mult: 0
  }
  param {
    lr_mult: 0
  }
  param {
    lr_mult: 0
  }
}
layer {
  name: "scale_conv3_2b"
  type: "Scale"
  bottom: "conv3_2b"
  top: "conv3_2b"
  scale_param {
    bias_term: true
  }
}
layer {
  name: "conv3_2_relu"
  type: "ReLU"
  bottom: "conv3_2b"
  top: "conv3_2b"
}
layer {
  name: "conv3_3a"
  type: "Convolution"
  bottom: "conv3_2b"
  top: "conv3_3a"
  param {
    lr_mult: 1
  }
  param {
    lr_mult: 2
  }
  convolution_param {
    num_output: 32
    pad: 1
    kernel_size: 3
    stride: 1
    weight_filler {
      type: "msra"
    }
    bias_filler {
      type: "constant"
      value: 0
    }
  }
}
layer {
  name: "bn_conv3_3a"
  type: "BatchNorm"
  bottom: "conv3_3a"
  top: "conv3_3a"
  param {
    lr_mult: 0
  }
  param {
    lr_mult: 0
  }
  param {
    lr_mult: 0
  }
}
layer {
  name: "scale_conv3_3a"
  type: "Scale"
  bottom: "conv3_3a"
  top: "conv3_3a"
  scale_param {
    bias_term: true
  }
}
layer {
  name: "conv3_3a_relu"
  type: "ReLU"
  bottom: "conv3_3a"
  top: "conv3_3a"
}
layer {
  name: "conv3_3b"
  type: "Convolution"
  bottom: "conv3_3a"
  top: "conv3_3b"
  param {
    lr_mult: 1
  }
  param {
    lr_mult: 2
  }
  convolution_param {
    num_output: 32
    pad: 1
    kernel_size: 3
    stride: 1
    weight_filler {
      type: "msra"
    }
    bias_filler {
      type: "constant"
      value: 0
    }
  }
}
layer {
  name: "bn_conv3_3b"
  type: "BatchNorm"
  bottom: "conv3_3b"
  top: "conv3_3b"
  param {
    lr_mult: 0
  }
  param {
    lr_mult: 0
  }
  param {
    lr_mult: 0
  }
}
layer {
  name: "scale_conv3_3b"
  type: "Scale"
  bottom: "conv3_3b"
  top: "conv3_3b"
  scale_param {
    bias_term: true
  }
}
layer {
  name: "conv3_3"
  type: "Eltwise"
  bottom: "conv3_3b"
  bottom: "conv2_sub"
  top: "conv3_3"
}
layer {
  name: "conv3_3_relu"
  type: "ReLU"
  bottom: "conv3_3"
  top: "conv3_3"
}
layer {
  name: "conv3_sub"
  type: "Convolution"
  bottom: "conv3_3"
  top: "conv3_sub"
  param {
    lr_mult: 1
  }
  param {
    lr_mult: 2
  }
  convolution_param {
    num_output: 64
    kernel_size: 1
    stride: 2
    weight_filler {
      type: "msra"
    }
    bias_filler {
      type: "constant"
      value: 0
    }
  }
}
layer {
  name: "bn_conv3_sub"
  type: "BatchNorm"
  bottom: "conv3_sub"
  top: "conv3_sub"
  param {
    lr_mult: 0
  }
  param {
    lr_mult: 0
  }
  param {
    lr_mult: 0
  }
}
layer {
  name: "scale_conv3_sub"
  type: "Scale"
  bottom: "conv3_sub"
  top: "conv3_sub"
  scale_param {
    bias_term: true
  }
}
layer {
  name: "conv4_1a"
  type: "Convolution"
  bottom: "conv3_3"
  top: "conv4_1a"
  param {
    lr_mult: 1
  }
  param {
    lr_mult: 2
  }
  convolution_param {
    num_output: 64
    pad: 0
    kernel_size: 1
    stride: 2
    weight_filler {
      type: "msra"
    }
    bias_filler {
      type: "constant"
      value: 0
    }
  }
}
layer {
  name: "bn_conv4_1a"
  type: "BatchNorm"
  bottom: "conv4_1a"
  top: "conv4_1a"
  param {
    lr_mult: 0
  }
  param {
    lr_mult: 0
  }
  param {
    lr_mult: 0
  }
}
layer {
  name: "scale_conv4_1a"
  type: "Scale"
  bottom: "conv4_1a"
  top: "conv4_1a"
  scale_param {
    bias_term: true
  }
}
layer {
  name: "conv4_1a_relu"
  type: "ReLU"
  bottom: "conv4_1a"
  top: "conv4_1a"
}
layer {
  name: "conv4_1b"
  type: "Convolution"
  bottom: "conv4_1a"
  top: "conv4_1b"
  param {
    lr_mult: 1
  }
  param {
    lr_mult: 2
  }
  convolution_param {
    num_output: 64
    pad: 1
    kernel_size: 3
    stride: 1
    weight_filler {
      type: "msra"
    }
    bias_filler {
      type: "constant"
      value: 0
    }
  }
}
layer {
  name: "bn_conv4_1b"
  type: "BatchNorm"
  bottom: "conv4_1b"
  top: "conv4_1b"
  param {
    lr_mult: 0
  }
  param {
    lr_mult: 0
  }
  param {
    lr_mult: 0
  }
}
layer {
  name: "scale_conv4_1b"
  type: "Scale"
  bottom: "conv4_1b"
  top: "conv4_1b"
  scale_param {
    bias_term: true
  }
}
layer {
  name: "conv4_1_relu"
  type: "ReLU"
  bottom: "conv4_1b"
  top: "conv4_1b"
}
layer {
  name: "conv4_2a"
  type: "Convolution"
  bottom: "conv4_1b"
  top: "conv4_2a"
  param {
    lr_mult: 1
  }
  param {
    lr_mult: 2
  }
  convolution_param {
    num_output: 64
    pad: 1
    kernel_size: 3
    stride: 1
    weight_filler {
      type: "msra"
    }
    bias_filler {
      type: "constant"
      value: 0
    }
  }
}
layer {
  name: "bn_conv4_2a"
  type: "BatchNorm"
  bottom: "conv4_2a"
  top: "conv4_2a"
  param {
    lr_mult: 0
  }
  param {
    lr_mult: 0
  }
  param {
    lr_mult: 0
  }
}
layer {
  name: "scale_conv4_2a"
  type: "Scale"
  bottom: "conv4_2a"
  top: "conv4_2a"
  scale_param {
    bias_term: true
  }
}
layer {
  name: "conv4_2a_relu"
  type: "ReLU"
  bottom: "conv4_2a"
  top: "conv4_2a"
}
layer {
  name: "conv4_2b"
  type: "Convolution"
  bottom: "conv4_2a"
  top: "conv4_2b"
  param {
    lr_mult: 1
  }
  param {
    lr_mult: 2
  }
  convolution_param {
    num_output: 64
    pad: 1
    kernel_size: 3
    stride: 1
    weight_filler {
      type: "msra"
    }
    bias_filler {
      type: "constant"
      value: 0
    }
  }
}
layer {
  name: "bn_conv4_2b"
  type: "BatchNorm"
  bottom: "conv4_2b"
  top: "conv4_2b"
  param {
    lr_mult: 0
  }
  param {
    lr_mult: 0
  }
  param {
    lr_mult: 0
  }
}
layer {
  name: "scale_conv4_2b"
  type: "Scale"
  bottom: "conv4_2b"
  top: "conv4_2b"
  scale_param {
    bias_term: true
  }
}
layer {
  name: "conv4_2_relu"
  type: "ReLU"
  bottom: "conv4_2b"
  top: "conv4_2b"
}
layer {
  name: "conv4_3a"
  type: "Convolution"
  bottom: "conv4_2b"
  top: "conv4_3a"
  param {
    lr_mult: 1
  }
  param {
    lr_mult: 2
  }
  convolution_param {
    num_output: 64
    pad: 1
    kernel_size: 3
    stride: 1
    weight_filler {
      type: "msra"
    }
    bias_filler {
      type: "constant"
      value: 0
    }
  }
}
layer {
  name: "bn_conv4_3a"
  type: "BatchNorm"
  bottom: "conv4_3a"
  top: "conv4_3a"
  param {
    lr_mult: 0
  }
  param {
    lr_mult: 0
  }
  param {
    lr_mult: 0
  }
}
layer {
  name: "scale_conv4_3a"
  type: "Scale"
  bottom: "conv4_3a"
  top: "conv4_3a"
  scale_param {
    bias_term: true
  }
}
layer {
  name: "conv4_3a_relu"
  type: "ReLU"
  bottom: "conv4_3a"
  top: "conv4_3a"
}
layer {
  name: "conv4_3b"
  type: "Convolution"
  bottom: "conv4_3a"
  top: "conv4_3b"
  param {
    lr_mult: 1
  }
  param {
    lr_mult: 2
  }
  convolution_param {
    num_output: 64
    pad: 1
    kernel_size: 3
    stride: 1
    weight_filler {
      type: "msra"
    }
    bias_filler {
      type: "constant"
      value: 0
    }
  }
}
layer {
  name: "bn_conv4_3b"
  type: "BatchNorm"
  bottom: "conv4_3b"
  top: "conv4_3b"
  param {
    lr_mult: 0
  }
  param {
    lr_mult: 0
  }
  param {
    lr_mult: 0
  }
}
layer {
  name: "scale_conv4_3b"
  type: "Scale"
  bottom: "conv4_3b"
  top: "conv4_3b"
  scale_param {
    bias_term: true
  }
}
layer {
  name: "conv4_3"
  type: "Eltwise"
  bottom: "conv3_sub"
  bottom: "conv4_3b"
  top: "conv4_3"
}
layer {
  name: "conv4_3_relu"
  type: "ReLU"
  bottom: "conv4_3"
  top: "conv4_3"
}
layer {
  name: "global_pool"
  type: "Pooling"
  bottom: "conv4_3"
  top: "global_pool"
  pooling_param {
    pool: AVE
    kernel_size: 8
    stride: 8
  }
}
layer {
  name: "ip"
  type: "InnerProduct"
  bottom: "global_pool"
  top: "ip"
  inner_product_param {
    num_output: 10
  }
}
layer {
  name: "accuracy"
  type: "Accuracy"
  bottom: "ip"
  bottom: "label"
  top: "accuracy"
}
layer {
  name: "loss"
  type: "SoftmaxWithLoss"
  bottom: "ip"
  bottom: "label"
  top: "loss"
}
I0420 18:45:31.077488 11276 layer_factory.hpp:77] Creating layer cifar
I0420 18:45:31.078102 11276 net.cpp:91] Creating Layer cifar
I0420 18:45:31.078119 11276 net.cpp:399] cifar -> data
I0420 18:45:31.078135 11276 net.cpp:399] cifar -> label
I0420 18:45:31.078156 11276 data_transformer.cpp:25] Loading mean file from: /home/liangjiang/code/residual_network/data/cifar10/mean.binaryproto
I0420 18:45:31.079185 11318 db_lmdb.cpp:38] Opened lmdb /home/liangjiang/code/residual_network/data/cifar10/cifar10_train_lmdb
I0420 18:45:31.090379 11276 data_layer.cpp:41] output data size: 256,3,32,32
I0420 18:45:31.095958 11276 net.cpp:141] Setting up cifar
I0420 18:45:31.096007 11276 net.cpp:148] Top shape: 256 3 32 32 (786432)
I0420 18:45:31.096015 11276 net.cpp:148] Top shape: 256 (256)
I0420 18:45:31.096020 11276 net.cpp:156] Memory required for data: 3146752
I0420 18:45:31.096029 11276 layer_factory.hpp:77] Creating layer label_cifar_1_split
I0420 18:45:31.096051 11276 net.cpp:91] Creating Layer label_cifar_1_split
I0420 18:45:31.096058 11276 net.cpp:425] label_cifar_1_split <- label
I0420 18:45:31.096071 11276 net.cpp:399] label_cifar_1_split -> label_cifar_1_split_0
I0420 18:45:31.096086 11276 net.cpp:399] label_cifar_1_split -> label_cifar_1_split_1
I0420 18:45:31.096140 11276 net.cpp:141] Setting up label_cifar_1_split
I0420 18:45:31.096149 11276 net.cpp:148] Top shape: 256 (256)
I0420 18:45:31.096154 11276 net.cpp:148] Top shape: 256 (256)
I0420 18:45:31.096159 11276 net.cpp:156] Memory required for data: 3148800
I0420 18:45:31.096164 11276 layer_factory.hpp:77] Creating layer conv1
I0420 18:45:31.096182 11276 net.cpp:91] Creating Layer conv1
I0420 18:45:31.096189 11276 net.cpp:425] conv1 <- data
I0420 18:45:31.096197 11276 net.cpp:399] conv1 -> conv1
I0420 18:45:31.276962 11276 net.cpp:141] Setting up conv1
I0420 18:45:31.277014 11276 net.cpp:148] Top shape: 256 16 32 32 (4194304)
I0420 18:45:31.277019 11276 net.cpp:156] Memory required for data: 19926016
I0420 18:45:31.277040 11276 layer_factory.hpp:77] Creating layer bn_conv1
I0420 18:45:31.277055 11276 net.cpp:91] Creating Layer bn_conv1
I0420 18:45:31.277062 11276 net.cpp:425] bn_conv1 <- conv1
I0420 18:45:31.277071 11276 net.cpp:386] bn_conv1 -> conv1 (in-place)
I0420 18:45:31.277263 11276 net.cpp:141] Setting up bn_conv1
I0420 18:45:31.277274 11276 net.cpp:148] Top shape: 256 16 32 32 (4194304)
I0420 18:45:31.277279 11276 net.cpp:156] Memory required for data: 36703232
I0420 18:45:31.277302 11276 layer_factory.hpp:77] Creating layer scale_conv1
I0420 18:45:31.277313 11276 net.cpp:91] Creating Layer scale_conv1
I0420 18:45:31.277318 11276 net.cpp:425] scale_conv1 <- conv1
I0420 18:45:31.277325 11276 net.cpp:386] scale_conv1 -> conv1 (in-place)
I0420 18:45:31.277364 11276 layer_factory.hpp:77] Creating layer scale_conv1
I0420 18:45:31.277465 11276 net.cpp:141] Setting up scale_conv1
I0420 18:45:31.277474 11276 net.cpp:148] Top shape: 256 16 32 32 (4194304)
I0420 18:45:31.277478 11276 net.cpp:156] Memory required for data: 53480448
I0420 18:45:31.277487 11276 layer_factory.hpp:77] Creating layer conv1_relu
I0420 18:45:31.277495 11276 net.cpp:91] Creating Layer conv1_relu
I0420 18:45:31.277500 11276 net.cpp:425] conv1_relu <- conv1
I0420 18:45:31.277508 11276 net.cpp:386] conv1_relu -> conv1 (in-place)
I0420 18:45:31.277782 11276 net.cpp:141] Setting up conv1_relu
I0420 18:45:31.277797 11276 net.cpp:148] Top shape: 256 16 32 32 (4194304)
I0420 18:45:31.277803 11276 net.cpp:156] Memory required for data: 70257664
I0420 18:45:31.277808 11276 layer_factory.hpp:77] Creating layer conv1_conv1_relu_0_split
I0420 18:45:31.277817 11276 net.cpp:91] Creating Layer conv1_conv1_relu_0_split
I0420 18:45:31.277822 11276 net.cpp:425] conv1_conv1_relu_0_split <- conv1
I0420 18:45:31.277828 11276 net.cpp:399] conv1_conv1_relu_0_split -> conv1_conv1_relu_0_split_0
I0420 18:45:31.277838 11276 net.cpp:399] conv1_conv1_relu_0_split -> conv1_conv1_relu_0_split_1
I0420 18:45:31.277878 11276 net.cpp:141] Setting up conv1_conv1_relu_0_split
I0420 18:45:31.277885 11276 net.cpp:148] Top shape: 256 16 32 32 (4194304)
I0420 18:45:31.277891 11276 net.cpp:148] Top shape: 256 16 32 32 (4194304)
I0420 18:45:31.277895 11276 net.cpp:156] Memory required for data: 103812096
I0420 18:45:31.277900 11276 layer_factory.hpp:77] Creating layer conv2_1a
I0420 18:45:31.277914 11276 net.cpp:91] Creating Layer conv2_1a
I0420 18:45:31.277918 11276 net.cpp:425] conv2_1a <- conv1_conv1_relu_0_split_0
I0420 18:45:31.277925 11276 net.cpp:399] conv2_1a -> conv2_1a
I0420 18:45:31.278800 11276 net.cpp:141] Setting up conv2_1a
I0420 18:45:31.278817 11276 net.cpp:148] Top shape: 256 16 32 32 (4194304)
I0420 18:45:31.278823 11276 net.cpp:156] Memory required for data: 120589312
I0420 18:45:31.278836 11276 layer_factory.hpp:77] Creating layer bn_conv2_1a
I0420 18:45:31.278846 11276 net.cpp:91] Creating Layer bn_conv2_1a
I0420 18:45:31.278851 11276 net.cpp:425] bn_conv2_1a <- conv2_1a
I0420 18:45:31.278858 11276 net.cpp:386] bn_conv2_1a -> conv2_1a (in-place)
I0420 18:45:31.279029 11276 net.cpp:141] Setting up bn_conv2_1a
I0420 18:45:31.279037 11276 net.cpp:148] Top shape: 256 16 32 32 (4194304)
I0420 18:45:31.279042 11276 net.cpp:156] Memory required for data: 137366528
I0420 18:45:31.279052 11276 layer_factory.hpp:77] Creating layer scale_conv2_1a
I0420 18:45:31.279059 11276 net.cpp:91] Creating Layer scale_conv2_1a
I0420 18:45:31.279064 11276 net.cpp:425] scale_conv2_1a <- conv2_1a
I0420 18:45:31.279072 11276 net.cpp:386] scale_conv2_1a -> conv2_1a (in-place)
I0420 18:45:31.279106 11276 layer_factory.hpp:77] Creating layer scale_conv2_1a
I0420 18:45:31.279202 11276 net.cpp:141] Setting up scale_conv2_1a
I0420 18:45:31.279211 11276 net.cpp:148] Top shape: 256 16 32 32 (4194304)
I0420 18:45:31.279217 11276 net.cpp:156] Memory required for data: 154143744
I0420 18:45:31.279223 11276 layer_factory.hpp:77] Creating layer conv2_1a_relu
I0420 18:45:31.279230 11276 net.cpp:91] Creating Layer conv2_1a_relu
I0420 18:45:31.279235 11276 net.cpp:425] conv2_1a_relu <- conv2_1a
I0420 18:45:31.279242 11276 net.cpp:386] conv2_1a_relu -> conv2_1a (in-place)
I0420 18:45:31.279512 11276 net.cpp:141] Setting up conv2_1a_relu
I0420 18:45:31.279527 11276 net.cpp:148] Top shape: 256 16 32 32 (4194304)
I0420 18:45:31.279532 11276 net.cpp:156] Memory required for data: 170920960
I0420 18:45:31.279538 11276 layer_factory.hpp:77] Creating layer conv2_1b
I0420 18:45:31.279549 11276 net.cpp:91] Creating Layer conv2_1b
I0420 18:45:31.279556 11276 net.cpp:425] conv2_1b <- conv2_1a
I0420 18:45:31.279568 11276 net.cpp:399] conv2_1b -> conv2_1b
I0420 18:45:31.280606 11276 net.cpp:141] Setting up conv2_1b
I0420 18:45:31.280622 11276 net.cpp:148] Top shape: 256 16 32 32 (4194304)
I0420 18:45:31.280628 11276 net.cpp:156] Memory required for data: 187698176
I0420 18:45:31.280637 11276 layer_factory.hpp:77] Creating layer bn_conv2_1b
I0420 18:45:31.280647 11276 net.cpp:91] Creating Layer bn_conv2_1b
I0420 18:45:31.280655 11276 net.cpp:425] bn_conv2_1b <- conv2_1b
I0420 18:45:31.280663 11276 net.cpp:386] bn_conv2_1b -> conv2_1b (in-place)
I0420 18:45:31.280845 11276 net.cpp:141] Setting up bn_conv2_1b
I0420 18:45:31.280854 11276 net.cpp:148] Top shape: 256 16 32 32 (4194304)
I0420 18:45:31.280859 11276 net.cpp:156] Memory required for data: 204475392
I0420 18:45:31.280876 11276 layer_factory.hpp:77] Creating layer scale_conv2_1b
I0420 18:45:31.280885 11276 net.cpp:91] Creating Layer scale_conv2_1b
I0420 18:45:31.280890 11276 net.cpp:425] scale_conv2_1b <- conv2_1b
I0420 18:45:31.280896 11276 net.cpp:386] scale_conv2_1b -> conv2_1b (in-place)
I0420 18:45:31.280935 11276 layer_factory.hpp:77] Creating layer scale_conv2_1b
I0420 18:45:31.281044 11276 net.cpp:141] Setting up scale_conv2_1b
I0420 18:45:31.281054 11276 net.cpp:148] Top shape: 256 16 32 32 (4194304)
I0420 18:45:31.281057 11276 net.cpp:156] Memory required for data: 221252608
I0420 18:45:31.281065 11276 layer_factory.hpp:77] Creating layer conv2_1_relu
I0420 18:45:31.281075 11276 net.cpp:91] Creating Layer conv2_1_relu
I0420 18:45:31.281080 11276 net.cpp:425] conv2_1_relu <- conv2_1b
I0420 18:45:31.281085 11276 net.cpp:386] conv2_1_relu -> conv2_1b (in-place)
I0420 18:45:31.281277 11276 net.cpp:141] Setting up conv2_1_relu
I0420 18:45:31.281291 11276 net.cpp:148] Top shape: 256 16 32 32 (4194304)
I0420 18:45:31.281296 11276 net.cpp:156] Memory required for data: 238029824
I0420 18:45:31.281301 11276 layer_factory.hpp:77] Creating layer conv2_2a
I0420 18:45:31.281313 11276 net.cpp:91] Creating Layer conv2_2a
I0420 18:45:31.281319 11276 net.cpp:425] conv2_2a <- conv2_1b
I0420 18:45:31.281329 11276 net.cpp:399] conv2_2a -> conv2_2a
I0420 18:45:31.282851 11276 net.cpp:141] Setting up conv2_2a
I0420 18:45:31.282886 11276 net.cpp:148] Top shape: 256 16 32 32 (4194304)
I0420 18:45:31.282892 11276 net.cpp:156] Memory required for data: 254807040
I0420 18:45:31.282904 11276 layer_factory.hpp:77] Creating layer bn_conv2_2a
I0420 18:45:31.282923 11276 net.cpp:91] Creating Layer bn_conv2_2a
I0420 18:45:31.282930 11276 net.cpp:425] bn_conv2_2a <- conv2_2a
I0420 18:45:31.282940 11276 net.cpp:386] bn_conv2_2a -> conv2_2a (in-place)
I0420 18:45:31.283130 11276 net.cpp:141] Setting up bn_conv2_2a
I0420 18:45:31.283139 11276 net.cpp:148] Top shape: 256 16 32 32 (4194304)
I0420 18:45:31.283143 11276 net.cpp:156] Memory required for data: 271584256
I0420 18:45:31.283154 11276 layer_factory.hpp:77] Creating layer scale_conv2_2a
I0420 18:45:31.283164 11276 net.cpp:91] Creating Layer scale_conv2_2a
I0420 18:45:31.283169 11276 net.cpp:425] scale_conv2_2a <- conv2_2a
I0420 18:45:31.283176 11276 net.cpp:386] scale_conv2_2a -> conv2_2a (in-place)
I0420 18:45:31.283215 11276 layer_factory.hpp:77] Creating layer scale_conv2_2a
I0420 18:45:31.283326 11276 net.cpp:141] Setting up scale_conv2_2a
I0420 18:45:31.283335 11276 net.cpp:148] Top shape: 256 16 32 32 (4194304)
I0420 18:45:31.283339 11276 net.cpp:156] Memory required for data: 288361472
I0420 18:45:31.283347 11276 layer_factory.hpp:77] Creating layer conv2_2a_relu
I0420 18:45:31.283355 11276 net.cpp:91] Creating Layer conv2_2a_relu
I0420 18:45:31.283360 11276 net.cpp:425] conv2_2a_relu <- conv2_2a
I0420 18:45:31.283365 11276 net.cpp:386] conv2_2a_relu -> conv2_2a (in-place)
I0420 18:45:31.283736 11276 net.cpp:141] Setting up conv2_2a_relu
I0420 18:45:31.283752 11276 net.cpp:148] Top shape: 256 16 32 32 (4194304)
I0420 18:45:31.283758 11276 net.cpp:156] Memory required for data: 305138688
I0420 18:45:31.283763 11276 layer_factory.hpp:77] Creating layer conv2_2b
I0420 18:45:31.283779 11276 net.cpp:91] Creating Layer conv2_2b
I0420 18:45:31.283792 11276 net.cpp:425] conv2_2b <- conv2_2a
I0420 18:45:31.283802 11276 net.cpp:399] conv2_2b -> conv2_2b
I0420 18:45:31.284795 11276 net.cpp:141] Setting up conv2_2b
I0420 18:45:31.284811 11276 net.cpp:148] Top shape: 256 16 32 32 (4194304)
I0420 18:45:31.284816 11276 net.cpp:156] Memory required for data: 321915904
I0420 18:45:31.284826 11276 layer_factory.hpp:77] Creating layer bn_conv2_2b
I0420 18:45:31.284837 11276 net.cpp:91] Creating Layer bn_conv2_2b
I0420 18:45:31.284842 11276 net.cpp:425] bn_conv2_2b <- conv2_2b
I0420 18:45:31.284849 11276 net.cpp:386] bn_conv2_2b -> conv2_2b (in-place)
I0420 18:45:31.285054 11276 net.cpp:141] Setting up bn_conv2_2b
I0420 18:45:31.285063 11276 net.cpp:148] Top shape: 256 16 32 32 (4194304)
I0420 18:45:31.285068 11276 net.cpp:156] Memory required for data: 338693120
I0420 18:45:31.285084 11276 layer_factory.hpp:77] Creating layer scale_conv2_2b
I0420 18:45:31.285092 11276 net.cpp:91] Creating Layer scale_conv2_2b
I0420 18:45:31.285097 11276 net.cpp:425] scale_conv2_2b <- conv2_2b
I0420 18:45:31.285104 11276 net.cpp:386] scale_conv2_2b -> conv2_2b (in-place)
I0420 18:45:31.285167 11276 layer_factory.hpp:77] Creating layer scale_conv2_2b
I0420 18:45:31.285290 11276 net.cpp:141] Setting up scale_conv2_2b
I0420 18:45:31.285300 11276 net.cpp:148] Top shape: 256 16 32 32 (4194304)
I0420 18:45:31.285303 11276 net.cpp:156] Memory required for data: 355470336
I0420 18:45:31.285311 11276 layer_factory.hpp:77] Creating layer conv2_2_relu
I0420 18:45:31.285320 11276 net.cpp:91] Creating Layer conv2_2_relu
I0420 18:45:31.285326 11276 net.cpp:425] conv2_2_relu <- conv2_2b
I0420 18:45:31.285331 11276 net.cpp:386] conv2_2_relu -> conv2_2b (in-place)
I0420 18:45:31.300597 11276 net.cpp:141] Setting up conv2_2_relu
I0420 18:45:31.300616 11276 net.cpp:148] Top shape: 256 16 32 32 (4194304)
I0420 18:45:31.300622 11276 net.cpp:156] Memory required for data: 372247552
I0420 18:45:31.300627 11276 layer_factory.hpp:77] Creating layer conv2_3a
I0420 18:45:31.300643 11276 net.cpp:91] Creating Layer conv2_3a
I0420 18:45:31.300649 11276 net.cpp:425] conv2_3a <- conv2_2b
I0420 18:45:31.300658 11276 net.cpp:399] conv2_3a -> conv2_3a
I0420 18:45:31.311504 11276 net.cpp:141] Setting up conv2_3a
I0420 18:45:31.311527 11276 net.cpp:148] Top shape: 256 16 32 32 (4194304)
I0420 18:45:31.311534 11276 net.cpp:156] Memory required for data: 389024768
I0420 18:45:31.311543 11276 layer_factory.hpp:77] Creating layer bn_conv2_3a
I0420 18:45:31.311556 11276 net.cpp:91] Creating Layer bn_conv2_3a
I0420 18:45:31.311563 11276 net.cpp:425] bn_conv2_3a <- conv2_3a
I0420 18:45:31.311573 11276 net.cpp:386] bn_conv2_3a -> conv2_3a (in-place)
I0420 18:45:31.311784 11276 net.cpp:141] Setting up bn_conv2_3a
I0420 18:45:31.311794 11276 net.cpp:148] Top shape: 256 16 32 32 (4194304)
I0420 18:45:31.311799 11276 net.cpp:156] Memory required for data: 405801984
I0420 18:45:31.311808 11276 layer_factory.hpp:77] Creating layer scale_conv2_3a
I0420 18:45:31.311822 11276 net.cpp:91] Creating Layer scale_conv2_3a
I0420 18:45:31.311830 11276 net.cpp:425] scale_conv2_3a <- conv2_3a
I0420 18:45:31.311836 11276 net.cpp:386] scale_conv2_3a -> conv2_3a (in-place)
I0420 18:45:31.311878 11276 layer_factory.hpp:77] Creating layer scale_conv2_3a
I0420 18:45:31.312002 11276 net.cpp:141] Setting up scale_conv2_3a
I0420 18:45:31.312011 11276 net.cpp:148] Top shape: 256 16 32 32 (4194304)
I0420 18:45:31.312016 11276 net.cpp:156] Memory required for data: 422579200
I0420 18:45:31.312026 11276 layer_factory.hpp:77] Creating layer conv2_3a_relu
I0420 18:45:31.312032 11276 net.cpp:91] Creating Layer conv2_3a_relu
I0420 18:45:31.312037 11276 net.cpp:425] conv2_3a_relu <- conv2_3a
I0420 18:45:31.312047 11276 net.cpp:386] conv2_3a_relu -> conv2_3a (in-place)
I0420 18:45:31.312243 11276 net.cpp:141] Setting up conv2_3a_relu
I0420 18:45:31.312257 11276 net.cpp:148] Top shape: 256 16 32 32 (4194304)
I0420 18:45:31.312261 11276 net.cpp:156] Memory required for data: 439356416
I0420 18:45:31.312266 11276 layer_factory.hpp:77] Creating layer conv2_3b
I0420 18:45:31.312288 11276 net.cpp:91] Creating Layer conv2_3b
I0420 18:45:31.312294 11276 net.cpp:425] conv2_3b <- conv2_3a
I0420 18:45:31.312304 11276 net.cpp:399] conv2_3b -> conv2_3b
I0420 18:45:31.319075 11276 net.cpp:141] Setting up conv2_3b
I0420 18:45:31.319142 11276 net.cpp:148] Top shape: 256 16 32 32 (4194304)
I0420 18:45:31.319155 11276 net.cpp:156] Memory required for data: 456133632
I0420 18:45:31.319180 11276 layer_factory.hpp:77] Creating layer bn_conv2_3b
I0420 18:45:31.319205 11276 net.cpp:91] Creating Layer bn_conv2_3b
I0420 18:45:31.319219 11276 net.cpp:425] bn_conv2_3b <- conv2_3b
I0420 18:45:31.319236 11276 net.cpp:386] bn_conv2_3b -> conv2_3b (in-place)
I0420 18:45:31.319665 11276 net.cpp:141] Setting up bn_conv2_3b
I0420 18:45:31.319684 11276 net.cpp:148] Top shape: 256 16 32 32 (4194304)
I0420 18:45:31.319694 11276 net.cpp:156] Memory required for data: 472910848
I0420 18:45:31.319713 11276 layer_factory.hpp:77] Creating layer scale_conv2_3b
I0420 18:45:31.319731 11276 net.cpp:91] Creating Layer scale_conv2_3b
I0420 18:45:31.319742 11276 net.cpp:425] scale_conv2_3b <- conv2_3b
I0420 18:45:31.319756 11276 net.cpp:386] scale_conv2_3b -> conv2_3b (in-place)
I0420 18:45:31.319838 11276 layer_factory.hpp:77] Creating layer scale_conv2_3b
I0420 18:45:31.320076 11276 net.cpp:141] Setting up scale_conv2_3b
I0420 18:45:31.320094 11276 net.cpp:148] Top shape: 256 16 32 32 (4194304)
I0420 18:45:31.320104 11276 net.cpp:156] Memory required for data: 489688064
I0420 18:45:31.320121 11276 layer_factory.hpp:77] Creating layer conv2_3
I0420 18:45:31.320138 11276 net.cpp:91] Creating Layer conv2_3
I0420 18:45:31.320149 11276 net.cpp:425] conv2_3 <- conv2_3b
I0420 18:45:31.320161 11276 net.cpp:425] conv2_3 <- conv1_conv1_relu_0_split_1
I0420 18:45:31.320176 11276 net.cpp:399] conv2_3 -> conv2_3
I0420 18:45:31.320253 11276 net.cpp:141] Setting up conv2_3
I0420 18:45:31.320271 11276 net.cpp:148] Top shape: 256 16 32 32 (4194304)
I0420 18:45:31.320281 11276 net.cpp:156] Memory required for data: 506465280
I0420 18:45:31.320289 11276 layer_factory.hpp:77] Creating layer conv2_3_relu
I0420 18:45:31.320304 11276 net.cpp:91] Creating Layer conv2_3_relu
I0420 18:45:31.320314 11276 net.cpp:425] conv2_3_relu <- conv2_3
I0420 18:45:31.320333 11276 net.cpp:386] conv2_3_relu -> conv2_3 (in-place)
I0420 18:45:31.320973 11276 net.cpp:141] Setting up conv2_3_relu
I0420 18:45:31.321005 11276 net.cpp:148] Top shape: 256 16 32 32 (4194304)
I0420 18:45:31.321017 11276 net.cpp:156] Memory required for data: 523242496
I0420 18:45:31.321027 11276 layer_factory.hpp:77] Creating layer conv2_3_conv2_3_relu_0_split
I0420 18:45:31.321056 11276 net.cpp:91] Creating Layer conv2_3_conv2_3_relu_0_split
I0420 18:45:31.321068 11276 net.cpp:425] conv2_3_conv2_3_relu_0_split <- conv2_3
I0420 18:45:31.321087 11276 net.cpp:399] conv2_3_conv2_3_relu_0_split -> conv2_3_conv2_3_relu_0_split_0
I0420 18:45:31.321107 11276 net.cpp:399] conv2_3_conv2_3_relu_0_split -> conv2_3_conv2_3_relu_0_split_1
I0420 18:45:31.321218 11276 net.cpp:141] Setting up conv2_3_conv2_3_relu_0_split
I0420 18:45:31.321239 11276 net.cpp:148] Top shape: 256 16 32 32 (4194304)
I0420 18:45:31.321251 11276 net.cpp:148] Top shape: 256 16 32 32 (4194304)
I0420 18:45:31.321261 11276 net.cpp:156] Memory required for data: 556796928
I0420 18:45:31.321271 11276 layer_factory.hpp:77] Creating layer conv2_sub
I0420 18:45:31.321300 11276 net.cpp:91] Creating Layer conv2_sub
I0420 18:45:31.321311 11276 net.cpp:425] conv2_sub <- conv2_3_conv2_3_relu_0_split_0
I0420 18:45:31.321328 11276 net.cpp:399] conv2_sub -> conv2_sub
I0420 18:45:31.327503 11276 net.cpp:141] Setting up conv2_sub
I0420 18:45:31.327527 11276 net.cpp:148] Top shape: 256 32 16 16 (2097152)
I0420 18:45:31.327533 11276 net.cpp:156] Memory required for data: 565185536
I0420 18:45:31.327544 11276 layer_factory.hpp:77] Creating layer bn_conv2_sub
I0420 18:45:31.327555 11276 net.cpp:91] Creating Layer bn_conv2_sub
I0420 18:45:31.327563 11276 net.cpp:425] bn_conv2_sub <- conv2_sub
I0420 18:45:31.327570 11276 net.cpp:386] bn_conv2_sub -> conv2_sub (in-place)
I0420 18:45:31.327826 11276 net.cpp:141] Setting up bn_conv2_sub
I0420 18:45:31.327846 11276 net.cpp:148] Top shape: 256 32 16 16 (2097152)
I0420 18:45:31.327854 11276 net.cpp:156] Memory required for data: 573574144
I0420 18:45:31.327874 11276 layer_factory.hpp:77] Creating layer scale_conv2_sub
I0420 18:45:31.327895 11276 net.cpp:91] Creating Layer scale_conv2_sub
I0420 18:45:31.327908 11276 net.cpp:425] scale_conv2_sub <- conv2_sub
I0420 18:45:31.327922 11276 net.cpp:386] scale_conv2_sub -> conv2_sub (in-place)
I0420 18:45:31.328001 11276 layer_factory.hpp:77] Creating layer scale_conv2_sub
I0420 18:45:31.328235 11276 net.cpp:141] Setting up scale_conv2_sub
I0420 18:45:31.328253 11276 net.cpp:148] Top shape: 256 32 16 16 (2097152)
I0420 18:45:31.328263 11276 net.cpp:156] Memory required for data: 581962752
I0420 18:45:31.328279 11276 layer_factory.hpp:77] Creating layer conv3_1a
I0420 18:45:31.328304 11276 net.cpp:91] Creating Layer conv3_1a
I0420 18:45:31.328315 11276 net.cpp:425] conv3_1a <- conv2_3_conv2_3_relu_0_split_1
I0420 18:45:31.328336 11276 net.cpp:399] conv3_1a -> conv3_1a
I0420 18:45:31.330250 11276 net.cpp:141] Setting up conv3_1a
I0420 18:45:31.330274 11276 net.cpp:148] Top shape: 256 32 16 16 (2097152)
I0420 18:45:31.330282 11276 net.cpp:156] Memory required for data: 590351360
I0420 18:45:31.330294 11276 layer_factory.hpp:77] Creating layer bn_conv3_1a
I0420 18:45:31.330309 11276 net.cpp:91] Creating Layer bn_conv3_1a
I0420 18:45:31.330317 11276 net.cpp:425] bn_conv3_1a <- conv3_1a
I0420 18:45:31.330332 11276 net.cpp:386] bn_conv3_1a -> conv3_1a (in-place)
I0420 18:45:31.330610 11276 net.cpp:141] Setting up bn_conv3_1a
I0420 18:45:31.330622 11276 net.cpp:148] Top shape: 256 32 16 16 (2097152)
I0420 18:45:31.330629 11276 net.cpp:156] Memory required for data: 598739968
I0420 18:45:31.330642 11276 layer_factory.hpp:77] Creating layer scale_conv3_1a
I0420 18:45:31.330653 11276 net.cpp:91] Creating Layer scale_conv3_1a
I0420 18:45:31.330659 11276 net.cpp:425] scale_conv3_1a <- conv3_1a
I0420 18:45:31.330672 11276 net.cpp:386] scale_conv3_1a -> conv3_1a (in-place)
I0420 18:45:31.330721 11276 layer_factory.hpp:77] Creating layer scale_conv3_1a
I0420 18:45:31.330885 11276 net.cpp:141] Setting up scale_conv3_1a
I0420 18:45:31.330899 11276 net.cpp:148] Top shape: 256 32 16 16 (2097152)
I0420 18:45:31.330904 11276 net.cpp:156] Memory required for data: 607128576
I0420 18:45:31.330915 11276 layer_factory.hpp:77] Creating layer conv3_1a_relu
I0420 18:45:31.330924 11276 net.cpp:91] Creating Layer conv3_1a_relu
I0420 18:45:31.330931 11276 net.cpp:425] conv3_1a_relu <- conv3_1a
I0420 18:45:31.330940 11276 net.cpp:386] conv3_1a_relu -> conv3_1a (in-place)
I0420 18:45:31.333076 11276 net.cpp:141] Setting up conv3_1a_relu
I0420 18:45:31.333135 11276 net.cpp:148] Top shape: 256 32 16 16 (2097152)
I0420 18:45:31.333144 11276 net.cpp:156] Memory required for data: 615517184
I0420 18:45:31.333153 11276 layer_factory.hpp:77] Creating layer conv3_1b
I0420 18:45:31.333179 11276 net.cpp:91] Creating Layer conv3_1b
I0420 18:45:31.333189 11276 net.cpp:425] conv3_1b <- conv3_1a
I0420 18:45:31.333202 11276 net.cpp:399] conv3_1b -> conv3_1b
I0420 18:45:31.337565 11276 net.cpp:141] Setting up conv3_1b
I0420 18:45:31.337607 11276 net.cpp:148] Top shape: 256 32 16 16 (2097152)
I0420 18:45:31.337613 11276 net.cpp:156] Memory required for data: 623905792
I0420 18:45:31.337652 11276 layer_factory.hpp:77] Creating layer bn_conv3_1b
I0420 18:45:31.337667 11276 net.cpp:91] Creating Layer bn_conv3_1b
I0420 18:45:31.337676 11276 net.cpp:425] bn_conv3_1b <- conv3_1b
I0420 18:45:31.337687 11276 net.cpp:386] bn_conv3_1b -> conv3_1b (in-place)
I0420 18:45:31.337903 11276 net.cpp:141] Setting up bn_conv3_1b
I0420 18:45:31.337913 11276 net.cpp:148] Top shape: 256 32 16 16 (2097152)
I0420 18:45:31.337918 11276 net.cpp:156] Memory required for data: 632294400
I0420 18:45:31.337929 11276 layer_factory.hpp:77] Creating layer scale_conv3_1b
I0420 18:45:31.337939 11276 net.cpp:91] Creating Layer scale_conv3_1b
I0420 18:45:31.337951 11276 net.cpp:425] scale_conv3_1b <- conv3_1b
I0420 18:45:31.337960 11276 net.cpp:386] scale_conv3_1b -> conv3_1b (in-place)
I0420 18:45:31.338004 11276 layer_factory.hpp:77] Creating layer scale_conv3_1b
I0420 18:45:31.338131 11276 net.cpp:141] Setting up scale_conv3_1b
I0420 18:45:31.338140 11276 net.cpp:148] Top shape: 256 32 16 16 (2097152)
I0420 18:45:31.338145 11276 net.cpp:156] Memory required for data: 640683008
I0420 18:45:31.338153 11276 layer_factory.hpp:77] Creating layer conv3_1_relu
I0420 18:45:31.338163 11276 net.cpp:91] Creating Layer conv3_1_relu
I0420 18:45:31.338168 11276 net.cpp:425] conv3_1_relu <- conv3_1b
I0420 18:45:31.338177 11276 net.cpp:386] conv3_1_relu -> conv3_1b (in-place)
I0420 18:45:31.338372 11276 net.cpp:141] Setting up conv3_1_relu
I0420 18:45:31.338385 11276 net.cpp:148] Top shape: 256 32 16 16 (2097152)
I0420 18:45:31.338390 11276 net.cpp:156] Memory required for data: 649071616
I0420 18:45:31.338397 11276 layer_factory.hpp:77] Creating layer conv3_2a
I0420 18:45:31.338413 11276 net.cpp:91] Creating Layer conv3_2a
I0420 18:45:31.338418 11276 net.cpp:425] conv3_2a <- conv3_1b
I0420 18:45:31.338428 11276 net.cpp:399] conv3_2a -> conv3_2a
I0420 18:45:31.339872 11276 net.cpp:141] Setting up conv3_2a
I0420 18:45:31.339890 11276 net.cpp:148] Top shape: 256 32 16 16 (2097152)
I0420 18:45:31.339895 11276 net.cpp:156] Memory required for data: 657460224
I0420 18:45:31.339905 11276 layer_factory.hpp:77] Creating layer bn_conv3_2a
I0420 18:45:31.339916 11276 net.cpp:91] Creating Layer bn_conv3_2a
I0420 18:45:31.339922 11276 net.cpp:425] bn_conv3_2a <- conv3_2a
I0420 18:45:31.339931 11276 net.cpp:386] bn_conv3_2a -> conv3_2a (in-place)
I0420 18:45:31.340147 11276 net.cpp:141] Setting up bn_conv3_2a
I0420 18:45:31.340157 11276 net.cpp:148] Top shape: 256 32 16 16 (2097152)
I0420 18:45:31.340162 11276 net.cpp:156] Memory required for data: 665848832
I0420 18:45:31.340173 11276 layer_factory.hpp:77] Creating layer scale_conv3_2a
I0420 18:45:31.340183 11276 net.cpp:91] Creating Layer scale_conv3_2a
I0420 18:45:31.340188 11276 net.cpp:425] scale_conv3_2a <- conv3_2a
I0420 18:45:31.340195 11276 net.cpp:386] scale_conv3_2a -> conv3_2a (in-place)
I0420 18:45:31.340237 11276 layer_factory.hpp:77] Creating layer scale_conv3_2a
I0420 18:45:31.340363 11276 net.cpp:141] Setting up scale_conv3_2a
I0420 18:45:31.340371 11276 net.cpp:148] Top shape: 256 32 16 16 (2097152)
I0420 18:45:31.340376 11276 net.cpp:156] Memory required for data: 674237440
I0420 18:45:31.340384 11276 layer_factory.hpp:77] Creating layer conv3_2a_relu
I0420 18:45:31.340391 11276 net.cpp:91] Creating Layer conv3_2a_relu
I0420 18:45:31.340396 11276 net.cpp:425] conv3_2a_relu <- conv3_2a
I0420 18:45:31.340405 11276 net.cpp:386] conv3_2a_relu -> conv3_2a (in-place)
I0420 18:45:31.340595 11276 net.cpp:141] Setting up conv3_2a_relu
I0420 18:45:31.340608 11276 net.cpp:148] Top shape: 256 32 16 16 (2097152)
I0420 18:45:31.340613 11276 net.cpp:156] Memory required for data: 682626048
I0420 18:45:31.340618 11276 layer_factory.hpp:77] Creating layer conv3_2b
I0420 18:45:31.340632 11276 net.cpp:91] Creating Layer conv3_2b
I0420 18:45:31.340638 11276 net.cpp:425] conv3_2b <- conv3_2a
I0420 18:45:31.340648 11276 net.cpp:399] conv3_2b -> conv3_2b
I0420 18:45:31.342098 11276 net.cpp:141] Setting up conv3_2b
I0420 18:45:31.342118 11276 net.cpp:148] Top shape: 256 32 16 16 (2097152)
I0420 18:45:31.342123 11276 net.cpp:156] Memory required for data: 691014656
I0420 18:45:31.342133 11276 layer_factory.hpp:77] Creating layer bn_conv3_2b
I0420 18:45:31.342144 11276 net.cpp:91] Creating Layer bn_conv3_2b
I0420 18:45:31.342149 11276 net.cpp:425] bn_conv3_2b <- conv3_2b
I0420 18:45:31.342157 11276 net.cpp:386] bn_conv3_2b -> conv3_2b (in-place)
I0420 18:45:31.342372 11276 net.cpp:141] Setting up bn_conv3_2b
I0420 18:45:31.342382 11276 net.cpp:148] Top shape: 256 32 16 16 (2097152)
I0420 18:45:31.342387 11276 net.cpp:156] Memory required for data: 699403264
I0420 18:45:31.342397 11276 layer_factory.hpp:77] Creating layer scale_conv3_2b
I0420 18:45:31.342411 11276 net.cpp:91] Creating Layer scale_conv3_2b
I0420 18:45:31.342417 11276 net.cpp:425] scale_conv3_2b <- conv3_2b
I0420 18:45:31.342427 11276 net.cpp:386] scale_conv3_2b -> conv3_2b (in-place)
I0420 18:45:31.342469 11276 layer_factory.hpp:77] Creating layer scale_conv3_2b
I0420 18:45:31.342593 11276 net.cpp:141] Setting up scale_conv3_2b
I0420 18:45:31.342603 11276 net.cpp:148] Top shape: 256 32 16 16 (2097152)
I0420 18:45:31.342607 11276 net.cpp:156] Memory required for data: 707791872
I0420 18:45:31.342617 11276 layer_factory.hpp:77] Creating layer conv3_2_relu
I0420 18:45:31.342625 11276 net.cpp:91] Creating Layer conv3_2_relu
I0420 18:45:31.342630 11276 net.cpp:425] conv3_2_relu <- conv3_2b
I0420 18:45:31.342636 11276 net.cpp:386] conv3_2_relu -> conv3_2b (in-place)
I0420 18:45:31.342977 11276 net.cpp:141] Setting up conv3_2_relu
I0420 18:45:31.342994 11276 net.cpp:148] Top shape: 256 32 16 16 (2097152)
I0420 18:45:31.342999 11276 net.cpp:156] Memory required for data: 716180480
I0420 18:45:31.343005 11276 layer_factory.hpp:77] Creating layer conv3_3a
I0420 18:45:31.343020 11276 net.cpp:91] Creating Layer conv3_3a
I0420 18:45:31.343026 11276 net.cpp:425] conv3_3a <- conv3_2b
I0420 18:45:31.343035 11276 net.cpp:399] conv3_3a -> conv3_3a
I0420 18:45:31.346345 11276 net.cpp:141] Setting up conv3_3a
I0420 18:45:31.346407 11276 net.cpp:148] Top shape: 256 32 16 16 (2097152)
I0420 18:45:31.346413 11276 net.cpp:156] Memory required for data: 724569088
I0420 18:45:31.346422 11276 layer_factory.hpp:77] Creating layer bn_conv3_3a
I0420 18:45:31.346441 11276 net.cpp:91] Creating Layer bn_conv3_3a
I0420 18:45:31.346465 11276 net.cpp:425] bn_conv3_3a <- conv3_3a
I0420 18:45:31.346495 11276 net.cpp:386] bn_conv3_3a -> conv3_3a (in-place)
I0420 18:45:31.346964 11276 net.cpp:141] Setting up bn_conv3_3a
I0420 18:45:31.347004 11276 net.cpp:148] Top shape: 256 32 16 16 (2097152)
I0420 18:45:31.347012 11276 net.cpp:156] Memory required for data: 732957696
I0420 18:45:31.347038 11276 layer_factory.hpp:77] Creating layer scale_conv3_3a
I0420 18:45:31.347060 11276 net.cpp:91] Creating Layer scale_conv3_3a
I0420 18:45:31.347075 11276 net.cpp:425] scale_conv3_3a <- conv3_3a
I0420 18:45:31.347103 11276 net.cpp:386] scale_conv3_3a -> conv3_3a (in-place)
I0420 18:45:31.347172 11276 layer_factory.hpp:77] Creating layer scale_conv3_3a
I0420 18:45:31.347538 11276 net.cpp:141] Setting up scale_conv3_3a
I0420 18:45:31.347574 11276 net.cpp:148] Top shape: 256 32 16 16 (2097152)
I0420 18:45:31.347584 11276 net.cpp:156] Memory required for data: 741346304
I0420 18:45:31.347600 11276 layer_factory.hpp:77] Creating layer conv3_3a_relu
I0420 18:45:31.347617 11276 net.cpp:91] Creating Layer conv3_3a_relu
I0420 18:45:31.347631 11276 net.cpp:425] conv3_3a_relu <- conv3_3a
I0420 18:45:31.347640 11276 net.cpp:386] conv3_3a_relu -> conv3_3a (in-place)
I0420 18:45:31.348182 11276 net.cpp:141] Setting up conv3_3a_relu
I0420 18:45:31.348248 11276 net.cpp:148] Top shape: 256 32 16 16 (2097152)
I0420 18:45:31.348253 11276 net.cpp:156] Memory required for data: 749734912
I0420 18:45:31.348258 11276 layer_factory.hpp:77] Creating layer conv3_3b
I0420 18:45:31.348273 11276 net.cpp:91] Creating Layer conv3_3b
I0420 18:45:31.348278 11276 net.cpp:425] conv3_3b <- conv3_3a
I0420 18:45:31.348310 11276 net.cpp:399] conv3_3b -> conv3_3b
I0420 18:45:31.352226 11276 net.cpp:141] Setting up conv3_3b
I0420 18:45:31.352314 11276 net.cpp:148] Top shape: 256 32 16 16 (2097152)
I0420 18:45:31.352320 11276 net.cpp:156] Memory required for data: 758123520
I0420 18:45:31.352329 11276 layer_factory.hpp:77] Creating layer bn_conv3_3b
I0420 18:45:31.352341 11276 net.cpp:91] Creating Layer bn_conv3_3b
I0420 18:45:31.352355 11276 net.cpp:425] bn_conv3_3b <- conv3_3b
I0420 18:45:31.352377 11276 net.cpp:386] bn_conv3_3b -> conv3_3b (in-place)
I0420 18:45:31.352885 11276 net.cpp:141] Setting up bn_conv3_3b
I0420 18:45:31.352942 11276 net.cpp:148] Top shape: 256 32 16 16 (2097152)
I0420 18:45:31.352954 11276 net.cpp:156] Memory required for data: 766512128
I0420 18:45:31.352984 11276 layer_factory.hpp:77] Creating layer scale_conv3_3b
I0420 18:45:31.353050 11276 net.cpp:91] Creating Layer scale_conv3_3b
I0420 18:45:31.353056 11276 net.cpp:425] scale_conv3_3b <- conv3_3b
I0420 18:45:31.353063 11276 net.cpp:386] scale_conv3_3b -> conv3_3b (in-place)
I0420 18:45:31.353225 11276 layer_factory.hpp:77] Creating layer scale_conv3_3b
I0420 18:45:31.353636 11276 net.cpp:141] Setting up scale_conv3_3b
I0420 18:45:31.353680 11276 net.cpp:148] Top shape: 256 32 16 16 (2097152)
I0420 18:45:31.353693 11276 net.cpp:156] Memory required for data: 774900736
I0420 18:45:31.353710 11276 layer_factory.hpp:77] Creating layer conv3_3
I0420 18:45:31.353739 11276 net.cpp:91] Creating Layer conv3_3
I0420 18:45:31.353747 11276 net.cpp:425] conv3_3 <- conv3_3b
I0420 18:45:31.353768 11276 net.cpp:425] conv3_3 <- conv2_sub
I0420 18:45:31.353790 11276 net.cpp:399] conv3_3 -> conv3_3
I0420 18:45:31.353816 11276 net.cpp:141] Setting up conv3_3
I0420 18:45:31.353835 11276 net.cpp:148] Top shape: 256 32 16 16 (2097152)
I0420 18:45:31.353848 11276 net.cpp:156] Memory required for data: 783289344
I0420 18:45:31.353855 11276 layer_factory.hpp:77] Creating layer conv3_3_relu
I0420 18:45:31.353878 11276 net.cpp:91] Creating Layer conv3_3_relu
I0420 18:45:31.353896 11276 net.cpp:425] conv3_3_relu <- conv3_3
I0420 18:45:31.353929 11276 net.cpp:386] conv3_3_relu -> conv3_3 (in-place)
I0420 18:45:31.354434 11276 net.cpp:141] Setting up conv3_3_relu
I0420 18:45:31.354504 11276 net.cpp:148] Top shape: 256 32 16 16 (2097152)
I0420 18:45:31.354514 11276 net.cpp:156] Memory required for data: 791677952
I0420 18:45:31.354529 11276 layer_factory.hpp:77] Creating layer conv3_3_conv3_3_relu_0_split
I0420 18:45:31.354537 11276 net.cpp:91] Creating Layer conv3_3_conv3_3_relu_0_split
I0420 18:45:31.354542 11276 net.cpp:425] conv3_3_conv3_3_relu_0_split <- conv3_3
I0420 18:45:31.354550 11276 net.cpp:399] conv3_3_conv3_3_relu_0_split -> conv3_3_conv3_3_relu_0_split_0
I0420 18:45:31.354565 11276 net.cpp:399] conv3_3_conv3_3_relu_0_split -> conv3_3_conv3_3_relu_0_split_1
I0420 18:45:31.354723 11276 net.cpp:141] Setting up conv3_3_conv3_3_relu_0_split
I0420 18:45:31.354768 11276 net.cpp:148] Top shape: 256 32 16 16 (2097152)
I0420 18:45:31.354779 11276 net.cpp:148] Top shape: 256 32 16 16 (2097152)
I0420 18:45:31.354789 11276 net.cpp:156] Memory required for data: 808455168
I0420 18:45:31.354799 11276 layer_factory.hpp:77] Creating layer conv3_sub
I0420 18:45:31.354853 11276 net.cpp:91] Creating Layer conv3_sub
I0420 18:45:31.354874 11276 net.cpp:425] conv3_sub <- conv3_3_conv3_3_relu_0_split_0
I0420 18:45:31.354900 11276 net.cpp:399] conv3_sub -> conv3_sub
I0420 18:45:31.358947 11276 net.cpp:141] Setting up conv3_sub
I0420 18:45:31.358978 11276 net.cpp:148] Top shape: 256 64 8 8 (1048576)
I0420 18:45:31.358984 11276 net.cpp:156] Memory required for data: 812649472
I0420 18:45:31.359001 11276 layer_factory.hpp:77] Creating layer bn_conv3_sub
I0420 18:45:31.359046 11276 net.cpp:91] Creating Layer bn_conv3_sub
I0420 18:45:31.359066 11276 net.cpp:425] bn_conv3_sub <- conv3_sub
I0420 18:45:31.359091 11276 net.cpp:386] bn_conv3_sub -> conv3_sub (in-place)
I0420 18:45:31.359580 11276 net.cpp:141] Setting up bn_conv3_sub
I0420 18:45:31.359634 11276 net.cpp:148] Top shape: 256 64 8 8 (1048576)
I0420 18:45:31.359643 11276 net.cpp:156] Memory required for data: 816843776
I0420 18:45:31.359666 11276 layer_factory.hpp:77] Creating layer scale_conv3_sub
I0420 18:45:31.359706 11276 net.cpp:91] Creating Layer scale_conv3_sub
I0420 18:45:31.359712 11276 net.cpp:425] scale_conv3_sub <- conv3_sub
I0420 18:45:31.359720 11276 net.cpp:386] scale_conv3_sub -> conv3_sub (in-place)
I0420 18:45:31.359879 11276 layer_factory.hpp:77] Creating layer scale_conv3_sub
I0420 18:45:31.360242 11276 net.cpp:141] Setting up scale_conv3_sub
I0420 18:45:31.360306 11276 net.cpp:148] Top shape: 256 64 8 8 (1048576)
I0420 18:45:31.360313 11276 net.cpp:156] Memory required for data: 821038080
I0420 18:45:31.360337 11276 layer_factory.hpp:77] Creating layer conv4_1a
I0420 18:45:31.360389 11276 net.cpp:91] Creating Layer conv4_1a
I0420 18:45:31.360436 11276 net.cpp:425] conv4_1a <- conv3_3_conv3_3_relu_0_split_1
I0420 18:45:31.360447 11276 net.cpp:399] conv4_1a -> conv4_1a
I0420 18:45:31.362076 11276 net.cpp:141] Setting up conv4_1a
I0420 18:45:31.362093 11276 net.cpp:148] Top shape: 256 64 8 8 (1048576)
I0420 18:45:31.362099 11276 net.cpp:156] Memory required for data: 825232384
I0420 18:45:31.362108 11276 layer_factory.hpp:77] Creating layer bn_conv4_1a
I0420 18:45:31.362118 11276 net.cpp:91] Creating Layer bn_conv4_1a
I0420 18:45:31.362124 11276 net.cpp:425] bn_conv4_1a <- conv4_1a
I0420 18:45:31.362134 11276 net.cpp:386] bn_conv4_1a -> conv4_1a (in-place)
I0420 18:45:31.362360 11276 net.cpp:141] Setting up bn_conv4_1a
I0420 18:45:31.362370 11276 net.cpp:148] Top shape: 256 64 8 8 (1048576)
I0420 18:45:31.362375 11276 net.cpp:156] Memory required for data: 829426688
I0420 18:45:31.362385 11276 layer_factory.hpp:77] Creating layer scale_conv4_1a
I0420 18:45:31.362395 11276 net.cpp:91] Creating Layer scale_conv4_1a
I0420 18:45:31.362401 11276 net.cpp:425] scale_conv4_1a <- conv4_1a
I0420 18:45:31.362409 11276 net.cpp:386] scale_conv4_1a -> conv4_1a (in-place)
I0420 18:45:31.362452 11276 layer_factory.hpp:77] Creating layer scale_conv4_1a
I0420 18:45:31.362586 11276 net.cpp:141] Setting up scale_conv4_1a
I0420 18:45:31.362594 11276 net.cpp:148] Top shape: 256 64 8 8 (1048576)
I0420 18:45:31.362599 11276 net.cpp:156] Memory required for data: 833620992
I0420 18:45:31.362607 11276 layer_factory.hpp:77] Creating layer conv4_1a_relu
I0420 18:45:31.362615 11276 net.cpp:91] Creating Layer conv4_1a_relu
I0420 18:45:31.362620 11276 net.cpp:425] conv4_1a_relu <- conv4_1a
I0420 18:45:31.362628 11276 net.cpp:386] conv4_1a_relu -> conv4_1a (in-place)
I0420 18:45:31.362959 11276 net.cpp:141] Setting up conv4_1a_relu
I0420 18:45:31.362975 11276 net.cpp:148] Top shape: 256 64 8 8 (1048576)
I0420 18:45:31.362982 11276 net.cpp:156] Memory required for data: 837815296
I0420 18:45:31.362987 11276 layer_factory.hpp:77] Creating layer conv4_1b
I0420 18:45:31.363003 11276 net.cpp:91] Creating Layer conv4_1b
I0420 18:45:31.363008 11276 net.cpp:425] conv4_1b <- conv4_1a
I0420 18:45:31.363023 11276 net.cpp:399] conv4_1b -> conv4_1b
I0420 18:45:31.365921 11276 net.cpp:141] Setting up conv4_1b
I0420 18:45:31.365941 11276 net.cpp:148] Top shape: 256 64 8 8 (1048576)
I0420 18:45:31.365947 11276 net.cpp:156] Memory required for data: 842009600
I0420 18:45:31.365955 11276 layer_factory.hpp:77] Creating layer bn_conv4_1b
I0420 18:45:31.365967 11276 net.cpp:91] Creating Layer bn_conv4_1b
I0420 18:45:31.365973 11276 net.cpp:425] bn_conv4_1b <- conv4_1b
I0420 18:45:31.365983 11276 net.cpp:386] bn_conv4_1b -> conv4_1b (in-place)
I0420 18:45:31.366215 11276 net.cpp:141] Setting up bn_conv4_1b
I0420 18:45:31.366225 11276 net.cpp:148] Top shape: 256 64 8 8 (1048576)
I0420 18:45:31.366230 11276 net.cpp:156] Memory required for data: 846203904
I0420 18:45:31.366240 11276 layer_factory.hpp:77] Creating layer scale_conv4_1b
I0420 18:45:31.366250 11276 net.cpp:91] Creating Layer scale_conv4_1b
I0420 18:45:31.366255 11276 net.cpp:425] scale_conv4_1b <- conv4_1b
I0420 18:45:31.366261 11276 net.cpp:386] scale_conv4_1b -> conv4_1b (in-place)
I0420 18:45:31.366307 11276 layer_factory.hpp:77] Creating layer scale_conv4_1b
I0420 18:45:31.366446 11276 net.cpp:141] Setting up scale_conv4_1b
I0420 18:45:31.366456 11276 net.cpp:148] Top shape: 256 64 8 8 (1048576)
I0420 18:45:31.366461 11276 net.cpp:156] Memory required for data: 850398208
I0420 18:45:31.366468 11276 layer_factory.hpp:77] Creating layer conv4_1_relu
I0420 18:45:31.366477 11276 net.cpp:91] Creating Layer conv4_1_relu
I0420 18:45:31.366482 11276 net.cpp:425] conv4_1_relu <- conv4_1b
I0420 18:45:31.366489 11276 net.cpp:386] conv4_1_relu -> conv4_1b (in-place)
I0420 18:45:31.366812 11276 net.cpp:141] Setting up conv4_1_relu
I0420 18:45:31.366828 11276 net.cpp:148] Top shape: 256 64 8 8 (1048576)
I0420 18:45:31.366833 11276 net.cpp:156] Memory required for data: 854592512
I0420 18:45:31.366839 11276 layer_factory.hpp:77] Creating layer conv4_2a
I0420 18:45:31.366858 11276 net.cpp:91] Creating Layer conv4_2a
I0420 18:45:31.366865 11276 net.cpp:425] conv4_2a <- conv4_1b
I0420 18:45:31.366876 11276 net.cpp:399] conv4_2a -> conv4_2a
I0420 18:45:31.369324 11276 net.cpp:141] Setting up conv4_2a
I0420 18:45:31.369343 11276 net.cpp:148] Top shape: 256 64 8 8 (1048576)
I0420 18:45:31.369349 11276 net.cpp:156] Memory required for data: 858786816
I0420 18:45:31.369357 11276 layer_factory.hpp:77] Creating layer bn_conv4_2a
I0420 18:45:31.369367 11276 net.cpp:91] Creating Layer bn_conv4_2a
I0420 18:45:31.369374 11276 net.cpp:425] bn_conv4_2a <- conv4_2a
I0420 18:45:31.369384 11276 net.cpp:386] bn_conv4_2a -> conv4_2a (in-place)
I0420 18:45:31.369617 11276 net.cpp:141] Setting up bn_conv4_2a
I0420 18:45:31.369627 11276 net.cpp:148] Top shape: 256 64 8 8 (1048576)
I0420 18:45:31.369632 11276 net.cpp:156] Memory required for data: 862981120
I0420 18:45:31.369642 11276 layer_factory.hpp:77] Creating layer scale_conv4_2a
I0420 18:45:31.369650 11276 net.cpp:91] Creating Layer scale_conv4_2a
I0420 18:45:31.369657 11276 net.cpp:425] scale_conv4_2a <- conv4_2a
I0420 18:45:31.369668 11276 net.cpp:386] scale_conv4_2a -> conv4_2a (in-place)
I0420 18:45:31.369714 11276 layer_factory.hpp:77] Creating layer scale_conv4_2a
I0420 18:45:31.369853 11276 net.cpp:141] Setting up scale_conv4_2a
I0420 18:45:31.369863 11276 net.cpp:148] Top shape: 256 64 8 8 (1048576)
I0420 18:45:31.369866 11276 net.cpp:156] Memory required for data: 867175424
I0420 18:45:31.369875 11276 layer_factory.hpp:77] Creating layer conv4_2a_relu
I0420 18:45:31.369882 11276 net.cpp:91] Creating Layer conv4_2a_relu
I0420 18:45:31.369887 11276 net.cpp:425] conv4_2a_relu <- conv4_2a
I0420 18:45:31.369896 11276 net.cpp:386] conv4_2a_relu -> conv4_2a (in-place)
I0420 18:45:31.370096 11276 net.cpp:141] Setting up conv4_2a_relu
I0420 18:45:31.370113 11276 net.cpp:148] Top shape: 256 64 8 8 (1048576)
I0420 18:45:31.370120 11276 net.cpp:156] Memory required for data: 871369728
I0420 18:45:31.370124 11276 layer_factory.hpp:77] Creating layer conv4_2b
I0420 18:45:31.370138 11276 net.cpp:91] Creating Layer conv4_2b
I0420 18:45:31.370144 11276 net.cpp:425] conv4_2b <- conv4_2a
I0420 18:45:31.370153 11276 net.cpp:399] conv4_2b -> conv4_2b
I0420 18:45:31.372608 11276 net.cpp:141] Setting up conv4_2b
I0420 18:45:31.372625 11276 net.cpp:148] Top shape: 256 64 8 8 (1048576)
I0420 18:45:31.372632 11276 net.cpp:156] Memory required for data: 875564032
I0420 18:45:31.372640 11276 layer_factory.hpp:77] Creating layer bn_conv4_2b
I0420 18:45:31.372653 11276 net.cpp:91] Creating Layer bn_conv4_2b
I0420 18:45:31.372660 11276 net.cpp:425] bn_conv4_2b <- conv4_2b
I0420 18:45:31.372668 11276 net.cpp:386] bn_conv4_2b -> conv4_2b (in-place)
I0420 18:45:31.372903 11276 net.cpp:141] Setting up bn_conv4_2b
I0420 18:45:31.372913 11276 net.cpp:148] Top shape: 256 64 8 8 (1048576)
I0420 18:45:31.372918 11276 net.cpp:156] Memory required for data: 879758336
I0420 18:45:31.372946 11276 layer_factory.hpp:77] Creating layer scale_conv4_2b
I0420 18:45:31.372956 11276 net.cpp:91] Creating Layer scale_conv4_2b
I0420 18:45:31.372961 11276 net.cpp:425] scale_conv4_2b <- conv4_2b
I0420 18:45:31.372969 11276 net.cpp:386] scale_conv4_2b -> conv4_2b (in-place)
I0420 18:45:31.373014 11276 layer_factory.hpp:77] Creating layer scale_conv4_2b
I0420 18:45:31.373157 11276 net.cpp:141] Setting up scale_conv4_2b
I0420 18:45:31.373168 11276 net.cpp:148] Top shape: 256 64 8 8 (1048576)
I0420 18:45:31.373173 11276 net.cpp:156] Memory required for data: 883952640
I0420 18:45:31.373183 11276 layer_factory.hpp:77] Creating layer conv4_2_relu
I0420 18:45:31.373189 11276 net.cpp:91] Creating Layer conv4_2_relu
I0420 18:45:31.373194 11276 net.cpp:425] conv4_2_relu <- conv4_2b
I0420 18:45:31.373203 11276 net.cpp:386] conv4_2_relu -> conv4_2b (in-place)
I0420 18:45:31.373533 11276 net.cpp:141] Setting up conv4_2_relu
I0420 18:45:31.373548 11276 net.cpp:148] Top shape: 256 64 8 8 (1048576)
I0420 18:45:31.373553 11276 net.cpp:156] Memory required for data: 888146944
I0420 18:45:31.373564 11276 layer_factory.hpp:77] Creating layer conv4_3a
I0420 18:45:31.373582 11276 net.cpp:91] Creating Layer conv4_3a
I0420 18:45:31.373589 11276 net.cpp:425] conv4_3a <- conv4_2b
I0420 18:45:31.373600 11276 net.cpp:399] conv4_3a -> conv4_3a
I0420 18:45:31.375938 11276 net.cpp:141] Setting up conv4_3a
I0420 18:45:31.375957 11276 net.cpp:148] Top shape: 256 64 8 8 (1048576)
I0420 18:45:31.375963 11276 net.cpp:156] Memory required for data: 892341248
I0420 18:45:31.375973 11276 layer_factory.hpp:77] Creating layer bn_conv4_3a
I0420 18:45:31.375982 11276 net.cpp:91] Creating Layer bn_conv4_3a
I0420 18:45:31.375988 11276 net.cpp:425] bn_conv4_3a <- conv4_3a
I0420 18:45:31.375998 11276 net.cpp:386] bn_conv4_3a -> conv4_3a (in-place)
I0420 18:45:31.376233 11276 net.cpp:141] Setting up bn_conv4_3a
I0420 18:45:31.376243 11276 net.cpp:148] Top shape: 256 64 8 8 (1048576)
I0420 18:45:31.376248 11276 net.cpp:156] Memory required for data: 896535552
I0420 18:45:31.376258 11276 layer_factory.hpp:77] Creating layer scale_conv4_3a
I0420 18:45:31.376267 11276 net.cpp:91] Creating Layer scale_conv4_3a
I0420 18:45:31.376272 11276 net.cpp:425] scale_conv4_3a <- conv4_3a
I0420 18:45:31.376281 11276 net.cpp:386] scale_conv4_3a -> conv4_3a (in-place)
I0420 18:45:31.376324 11276 layer_factory.hpp:77] Creating layer scale_conv4_3a
I0420 18:45:31.376464 11276 net.cpp:141] Setting up scale_conv4_3a
I0420 18:45:31.376474 11276 net.cpp:148] Top shape: 256 64 8 8 (1048576)
I0420 18:45:31.376479 11276 net.cpp:156] Memory required for data: 900729856
I0420 18:45:31.376487 11276 layer_factory.hpp:77] Creating layer conv4_3a_relu
I0420 18:45:31.376495 11276 net.cpp:91] Creating Layer conv4_3a_relu
I0420 18:45:31.376500 11276 net.cpp:425] conv4_3a_relu <- conv4_3a
I0420 18:45:31.376507 11276 net.cpp:386] conv4_3a_relu -> conv4_3a (in-place)
I0420 18:45:31.376832 11276 net.cpp:141] Setting up conv4_3a_relu
I0420 18:45:31.376847 11276 net.cpp:148] Top shape: 256 64 8 8 (1048576)
I0420 18:45:31.376853 11276 net.cpp:156] Memory required for data: 904924160
I0420 18:45:31.376858 11276 layer_factory.hpp:77] Creating layer conv4_3b
I0420 18:45:31.376873 11276 net.cpp:91] Creating Layer conv4_3b
I0420 18:45:31.376879 11276 net.cpp:425] conv4_3b <- conv4_3a
I0420 18:45:31.376891 11276 net.cpp:399] conv4_3b -> conv4_3b
I0420 18:45:31.379361 11276 net.cpp:141] Setting up conv4_3b
I0420 18:45:31.379380 11276 net.cpp:148] Top shape: 256 64 8 8 (1048576)
I0420 18:45:31.379386 11276 net.cpp:156] Memory required for data: 909118464
I0420 18:45:31.379395 11276 layer_factory.hpp:77] Creating layer bn_conv4_3b
I0420 18:45:31.379407 11276 net.cpp:91] Creating Layer bn_conv4_3b
I0420 18:45:31.379413 11276 net.cpp:425] bn_conv4_3b <- conv4_3b
I0420 18:45:31.379420 11276 net.cpp:386] bn_conv4_3b -> conv4_3b (in-place)
I0420 18:45:31.379659 11276 net.cpp:141] Setting up bn_conv4_3b
I0420 18:45:31.379668 11276 net.cpp:148] Top shape: 256 64 8 8 (1048576)
I0420 18:45:31.379673 11276 net.cpp:156] Memory required for data: 913312768
I0420 18:45:31.379683 11276 layer_factory.hpp:77] Creating layer scale_conv4_3b
I0420 18:45:31.379693 11276 net.cpp:91] Creating Layer scale_conv4_3b
I0420 18:45:31.379698 11276 net.cpp:425] scale_conv4_3b <- conv4_3b
I0420 18:45:31.379705 11276 net.cpp:386] scale_conv4_3b -> conv4_3b (in-place)
I0420 18:45:31.379761 11276 layer_factory.hpp:77] Creating layer scale_conv4_3b
I0420 18:45:31.379904 11276 net.cpp:141] Setting up scale_conv4_3b
I0420 18:45:31.379914 11276 net.cpp:148] Top shape: 256 64 8 8 (1048576)
I0420 18:45:31.379919 11276 net.cpp:156] Memory required for data: 917507072
I0420 18:45:31.379926 11276 layer_factory.hpp:77] Creating layer conv4_3
I0420 18:45:31.379936 11276 net.cpp:91] Creating Layer conv4_3
I0420 18:45:31.379942 11276 net.cpp:425] conv4_3 <- conv3_sub
I0420 18:45:31.379948 11276 net.cpp:425] conv4_3 <- conv4_3b
I0420 18:45:31.379956 11276 net.cpp:399] conv4_3 -> conv4_3
I0420 18:45:31.379981 11276 net.cpp:141] Setting up conv4_3
I0420 18:45:31.379989 11276 net.cpp:148] Top shape: 256 64 8 8 (1048576)
I0420 18:45:31.379998 11276 net.cpp:156] Memory required for data: 921701376
I0420 18:45:31.380004 11276 layer_factory.hpp:77] Creating layer conv4_3_relu
I0420 18:45:31.380014 11276 net.cpp:91] Creating Layer conv4_3_relu
I0420 18:45:31.380020 11276 net.cpp:425] conv4_3_relu <- conv4_3
I0420 18:45:31.380028 11276 net.cpp:386] conv4_3_relu -> conv4_3 (in-place)
I0420 18:45:31.380234 11276 net.cpp:141] Setting up conv4_3_relu
I0420 18:45:31.380246 11276 net.cpp:148] Top shape: 256 64 8 8 (1048576)
I0420 18:45:31.380251 11276 net.cpp:156] Memory required for data: 925895680
I0420 18:45:31.380257 11276 layer_factory.hpp:77] Creating layer global_pool
I0420 18:45:31.380269 11276 net.cpp:91] Creating Layer global_pool
I0420 18:45:31.380273 11276 net.cpp:425] global_pool <- conv4_3
I0420 18:45:31.380281 11276 net.cpp:399] global_pool -> global_pool
I0420 18:45:31.380632 11276 net.cpp:141] Setting up global_pool
I0420 18:45:31.380650 11276 net.cpp:148] Top shape: 256 64 1 1 (16384)
I0420 18:45:31.380656 11276 net.cpp:156] Memory required for data: 925961216
I0420 18:45:31.380661 11276 layer_factory.hpp:77] Creating layer ip
I0420 18:45:31.380671 11276 net.cpp:91] Creating Layer ip
I0420 18:45:31.380676 11276 net.cpp:425] ip <- global_pool
I0420 18:45:31.380684 11276 net.cpp:399] ip -> ip
I0420 18:45:31.380836 11276 net.cpp:141] Setting up ip
I0420 18:45:31.380846 11276 net.cpp:148] Top shape: 256 10 (2560)
I0420 18:45:31.380851 11276 net.cpp:156] Memory required for data: 925971456
I0420 18:45:31.380859 11276 layer_factory.hpp:77] Creating layer ip_ip_0_split
I0420 18:45:31.380867 11276 net.cpp:91] Creating Layer ip_ip_0_split
I0420 18:45:31.380872 11276 net.cpp:425] ip_ip_0_split <- ip
I0420 18:45:31.380882 11276 net.cpp:399] ip_ip_0_split -> ip_ip_0_split_0
I0420 18:45:31.380890 11276 net.cpp:399] ip_ip_0_split -> ip_ip_0_split_1
I0420 18:45:31.380931 11276 net.cpp:141] Setting up ip_ip_0_split
I0420 18:45:31.380940 11276 net.cpp:148] Top shape: 256 10 (2560)
I0420 18:45:31.380946 11276 net.cpp:148] Top shape: 256 10 (2560)
I0420 18:45:31.380951 11276 net.cpp:156] Memory required for data: 925991936
I0420 18:45:31.380956 11276 layer_factory.hpp:77] Creating layer accuracy
I0420 18:45:31.380966 11276 net.cpp:91] Creating Layer accuracy
I0420 18:45:31.380971 11276 net.cpp:425] accuracy <- ip_ip_0_split_0
I0420 18:45:31.380977 11276 net.cpp:425] accuracy <- label_cifar_1_split_0
I0420 18:45:31.380985 11276 net.cpp:399] accuracy -> accuracy
…
I0420 18:45:31.384511 11276 net.cpp:313] The NetState phase (1) differed from the phase (0) specified by a rule in layer cifar
I0420 18:45:31.385061 11276 net.cpp:49] Initializing net from parameters: 
name: "ResNet-cifar"
state {
  phase: TEST
}
layer {
  name: "cifar"
  type: "Data"
  top: "data"
  top: "label"
  include {
    phase: TEST
  }
  transform_param {
    mean_file: "/home/liangjiang/code/residual_network/data/cifar10/mean.binaryproto"
  }
  data_param {
    source: "/home/liangjiang/code/residual_network/data/cifar10/cifar10_test_lmdb"
    batch_size: 100
    backend: LMDB
  }
}
layer {
  name: "conv1"
  type: "Convolution"
  bottom: "data"
  top: "conv1"
  param {
    lr_mult: 1
  }
  param {
    lr_mult: 2
  }
  convolution_param {
    num_output: 16
    pad: 1
    kernel_size: 3
    weight_filler {
      type: "msra"
    }
    bias_filler {
      type: "constant"
    }
  }
}
layer {
  name: "bn_conv1"
  type: "BatchNorm"
  bottom: "conv1"
  top: "conv1"
  param {
    lr_mult: 0
  }
  param {
    lr_mult: 0
  }
  param {
    lr_mult: 0
  }
}
layer {
  name: "scale_conv1"
  type: "Scale"
  bottom: "conv1"
  top: "conv1"
  scale_param {
    bias_term: true
  }
}
layer {
  name: "conv1_relu"
  type: "ReLU"
  bottom: "conv1"
  top: "conv1"
}
layer {
  name: "conv2_1a"
  type: "Convolution"
  bottom: "conv1"
  top: "conv2_1a"
  param {
    lr_mult: 1
  }
  param {
    lr_mult: 2
  }
  convolution_param {
    num_output: 16
    pad: 1
    kernel_size: 3
    stride: 1
    weight_filler {
      type: "msra"
    }
    bias_filler {
      type: "constant"
      value: 0
    }
  }
}
layer {
  name: "bn_conv2_1a"
  type: "BatchNorm"
  bottom: "conv2_1a"
  top: "conv2_1a"
  param {
    lr_mult: 0
  }
  param {
    lr_mult: 0
  }
  param {
    lr_mult: 0
  }
}
layer {
  name: "scale_conv2_1a"
  type: "Scale"
  bottom: "conv2_1a"
  top: "conv2_1a"
  scale_param {
    bias_term: true
  }
}
layer {
  name: "conv2_1a_relu"
  type: "ReLU"
  bottom: "conv2_1a"
  top: "conv2_1a"
}
layer {
  name: "conv2_1b"
  type: "Convolution"
  bottom: "conv2_1a"
  top: "conv2_1b"
  param {
    lr_mult: 1
  }
  param {
    lr_mult: 2
  }
  convolution_param {
    num_output: 16
    pad: 1
    kernel_size: 3
    stride: 1
    weight_filler {
      type: "msra"
    }
    bias_filler {
      type: "constant"
      value: 0
    }
  }
}
layer {
  name: "bn_conv2_1b"
  type: "BatchNorm"
  bottom: "conv2_1b"
  top: "conv2_1b"
  param {
    lr_mult: 0
  }
  param {
    lr_mult: 0
  }
  param {
    lr_mult: 0
  }
}
layer {
  name: "scale_conv2_1b"
  type: "Scale"
  bottom: "conv2_1b"
  top: "conv2_1b"
  scale_param {
    bias_term: true
  }
}
layer {
  name: "conv2_1_relu"
  type: "ReLU"
  bottom: "conv2_1b"
  top: "conv2_1b"
}
layer {
  name: "conv2_2a"
  type: "Convolution"
  bottom: "conv2_1b"
  top: "conv2_2a"
  param {
    lr_mult: 1
  }
  param {
    lr_mult: 2
  }
  convolution_param {
    num_output: 16
    pad: 1
    kernel_size: 3
    stride: 1
    weight_filler {
      type: "msra"
    }
    bias_filler {
      type: "constant"
      value: 0
    }
  }
}
layer {
  name: "bn_conv2_2a"
  type: "BatchNorm"
  bottom: "conv2_2a"
  top: "conv2_2a"
  param {
    lr_mult: 0
  }
  param {
    lr_mult: 0
  }
  param {
    lr_mult: 0
  }
}
layer {
  name: "scale_conv2_2a"
  type: "Scale"
  bottom: "conv2_2a"
  top: "conv2_2a"
  scale_param {
    bias_term: true
  }
}
layer {
  name: "conv2_2a_relu"
  type: "ReLU"
  bottom: "conv2_2a"
  top: "conv2_2a"
}
layer {
  name: "conv2_2b"
  type: "Convolution"
  bottom: "conv2_2a"
  top: "conv2_2b"
  param {
    lr_mult: 1
  }
  param {
    lr_mult: 2
  }
  convolution_param {
    num_output: 16
    pad: 1
    kernel_size: 3
    stride: 1
    weight_filler {
      type: "msra"
    }
    bias_filler {
      type: "constant"
      value: 0
    }
  }
}
layer {
  name: "bn_conv2_2b"
  type: "BatchNorm"
  bottom: "conv2_2b"
  top: "conv2_2b"
  param {
    lr_mult: 0
  }
  param {
    lr_mult: 0
  }
  param {
    lr_mult: 0
  }
}
layer {
  name: "scale_conv2_2b"
  type: "Scale"
  bottom: "conv2_2b"
  top: "conv2_2b"
  scale_param {
    bias_term: true
  }
}
layer {
  name: "conv2_2_relu"
  type: "ReLU"
  bottom: "conv2_2b"
  top: "conv2_2b"
}
layer {
  name: "conv2_3a"
  type: "Convolution"
  bottom: "conv2_2b"
  top: "conv2_3a"
  param {
    lr_mult: 1
  }
  param {
    lr_mult: 2
  }
  convolution_param {
    num_output: 16
    pad: 1
    kernel_size: 3
    stride: 1
    weight_filler {
      type: "msra"
    }
    bias_filler {
      type: "constant"
      value: 0
    }
  }
}
layer {
  name: "bn_conv2_3a"
  type: "BatchNorm"
  bottom: "conv2_3a"
  top: "conv2_3a"
  param {
    lr_mult: 0
  }
  param {
    lr_mult: 0
  }
  param {
    lr_mult: 0
  }
}
layer {
  name: "scale_conv2_3a"
  type: "Scale"
  bottom: "conv2_3a"
  top: "conv2_3a"
  scale_param {
    bias_term: true
  }
}
layer {
  name: "conv2_3a_relu"
  type: "ReLU"
  bottom: "conv2_3a"
  top: "conv2_3a"
}
layer {
  name: "conv2_3b"
  type: "Convolution"
  bottom: "conv2_3a"
  top: "conv2_3b"
  param {
    lr_mult: 1
  }
  param {
    lr_mult: 2
  }
  convolution_param {
    num_output: 16
    pad: 1
    kernel_size: 3
    stride: 1
    weight_filler {
      type: "msra"
    }
    bias_filler {
      type: "constant"
      value: 0
    }
  }
}
layer {
  name: "bn_conv2_3b"
  type: "BatchNorm"
  bottom: "conv2_3b"
  top: "conv2_3b"
  param {
    lr_mult: 0
  }
  param {
    lr_mult: 0
  }
  param {
    lr_mult: 0
  }
}
layer {
  name: "scale_conv2_3b"
  type: "Scale"
  bottom: "conv2_3b"
  top: "conv2_3b"
  scale_param {
    bias_term: true
  }
}
layer {
  name: "conv2_3"
  type: "Eltwise"
  bottom: "conv2_3b"
  bottom: "conv1"
  top: "conv2_3"
}
layer {
  name: "conv2_3_relu"
  type: "ReLU"
  bottom: "conv2_3"
  top: "conv2_3"
}
layer {
  name: "conv2_sub"
  type: "Convolution"
  bottom: "conv2_3"
  top: "conv2_sub"
  param {
    lr_mult: 1
  }
  param {
    lr_mult: 2
  }
  convolution_param {
    num_output: 32
    kernel_size: 1
    stride: 2
    weight_filler {
      type: "msra"
    }
    bias_filler {
      type: "constant"
      value: 0
    }
  }
}
layer {
  name: "bn_conv2_sub"
  type: "BatchNorm"
  bottom: "conv2_sub"
  top: "conv2_sub"
  param {
    lr_mult: 0
  }
  param {
    lr_mult: 0
  }
  param {
    lr_mult: 0
  }
}
layer {
  name: "scale_conv2_sub"
  type: "Scale"
  bottom: "conv2_sub"
  top: "conv2_sub"
  scale_param {
    bias_term: true
  }
}
layer {
  name: "conv3_1a"
  type: "Convolution"
  bottom: "conv2_3"
  top: "conv3_1a"
  param {
    lr_mult: 1
  }
  param {
    lr_mult: 2
  }
  convolution_param {
    num_output: 32
    pad: 0
    kernel_size: 1
    stride: 2
    weight_filler {
      type: "msra"
    }
    bias_filler {
      type: "constant"
      value: 0
    }
  }
}
layer {
  name: "bn_conv3_1a"
  type: "BatchNorm"
  bottom: "conv3_1a"
  top: "conv3_1a"
  param {
    lr_mult: 0
  }
  param {
    lr_mult: 0
  }
  param {
    lr_mult: 0
  }
}
layer {
  name: "scale_conv3_1a"
  type: "Scale"
  bottom: "conv3_1a"
  top: "conv3_1a"
  scale_param {
    bias_term: true
  }
}
layer {
  name: "conv3_1a_relu"
  type: "ReLU"
  bottom: "conv3_1a"
  top: "conv3_1a"
}
layer {
  name: "conv3_1b"
  type: "Convolution"
  bottom: "conv3_1a"
  top: "conv3_1b"
  param {
    lr_mult: 1
  }
  param {
    lr_mult: 2
  }
  convolution_param {
    num_output: 32
    pad: 1
    kernel_size: 3
    stride: 1
    weight_filler {
      type: "msra"
    }
    bias_filler {
      type: "constant"
      value: 0
    }
  }
}
layer {
  name: "bn_conv3_1b"
  type: "BatchNorm"
  bottom: "conv3_1b"
  top: "conv3_1b"
  param {
    lr_mult: 0
  }
  param {
    lr_mult: 0
  }
  param {
    lr_mult: 0
  }
}
layer {
  name: "scale_conv3_1b"
  type: "Scale"
  bottom: "conv3_1b"
  top: "conv3_1b"
  scale_param {
    bias_term: true
  }
}
layer {
  name: "conv3_1_relu"
  type: "ReLU"
  bottom: "conv3_1b"
  top: "conv3_1b"
}
layer {
  name: "conv3_2a"
  type: "Convolution"
  bottom: "conv3_1b"
  top: "conv3_2a"
  param {
    lr_mult: 1
  }
  param {
    lr_mult: 2
  }
  convolution_param {
    num_output: 32
    pad: 1
    kernel_size: 3
    stride: 1
    weight_filler {
      type: "msra"
    }
    bias_filler {
      type: "constant"
      value: 0
    }
  }
}
layer {
  name: "bn_conv3_2a"
  type: "BatchNorm"
  bottom: "conv3_2a"
  top: "conv3_2a"
  param {
    lr_mult: 0
  }
  param {
    lr_mult: 0
  }
  param {
    lr_mult: 0
  }
}
layer {
  name: "scale_conv3_2a"
  type: "Scale"
  bottom: "conv3_2a"
  top: "conv3_2a"
  scale_param {
    bias_term: true
  }
}
layer {
  name: "conv3_2a_relu"
  type: "ReLU"
  bottom: "conv3_2a"
  top: "conv3_2a"
}
layer {
  name: "conv3_2b"
  type: "Convolution"
  bottom: "conv3_2a"
  top: "conv3_2b"
  param {
    lr_mult: 1
  }
  param {
    lr_mult: 2
  }
  convolution_param {
    num_output: 32
    pad: 1
    kernel_size: 3
    stride: 1
    weight_filler {
      type: "msra"
    }
    bias_filler {
      type: "constant"
      value: 0
    }
  }
}
layer {
  name: "bn_conv3_2b"
  type: "BatchNorm"
  bottom: "conv3_2b"
  top: "conv3_2b"
  param {
    lr_mult: 0
  }
  param {
    lr_mult: 0
  }
  param {
    lr_mult: 0
  }
}
layer {
  name: "scale_conv3_2b"
  type: "Scale"
  bottom: "conv3_2b"
  top: "conv3_2b"
  scale_param {
    bias_term: true
  }
}
layer {
  name: "conv3_2_relu"
  type: "ReLU"
  bottom: "conv3_2b"
  top: "conv3_2b"
}
layer {
  name: "conv3_3a"
  type: "Convolution"
  bottom: "conv3_2b"
  top: "conv3_3a"
  param {
    lr_mult: 1
  }
  param {
    lr_mult: 2
  }
  convolution_param {
    num_output: 32
    pad: 1
    kernel_size: 3
    stride: 1
    weight_filler {
      type: "msra"
    }
    bias_filler {
      type: "constant"
      value: 0
    }
  }
}
layer {
  name: "bn_conv3_3a"
  type: "BatchNorm"
  bottom: "conv3_3a"
  top: "conv3_3a"
  param {
    lr_mult: 0
  }
  param {
    lr_mult: 0
  }
  param {
    lr_mult: 0
  }
}
layer {
  name: "scale_conv3_3a"
  type: "Scale"
  bottom: "conv3_3a"
  top: "conv3_3a"
  scale_param {
    bias_term: true
  }
}
layer {
  name: "conv3_3a_relu"
  type: "ReLU"
  bottom: "conv3_3a"
  top: "conv3_3a"
}
layer {
  name: "conv3_3b"
  type: "Convolution"
  bottom: "conv3_3a"
  top: "conv3_3b"
  param {
    lr_mult: 1
  }
  param {
    lr_mult: 2
  }
  convolution_param {
    num_output: 32
    pad: 1
    kernel_size: 3
    stride: 1
    weight_filler {
      type: "msra"
    }
    bias_filler {
      type: "constant"
      value: 0
    }
  }
}
layer {
  name: "bn_conv3_3b"
  type: "BatchNorm"
  bottom: "conv3_3b"
  top: "conv3_3b"
  param {
    lr_mult: 0
  }
  param {
    lr_mult: 0
  }
  param {
    lr_mult: 0
  }
}
layer {
  name: "scale_conv3_3b"
  type: "Scale"
  bottom: "conv3_3b"
  top: "conv3_3b"
  scale_param {
    bias_term: true
  }
}
layer {
  name: "conv3_3"
  type: "Eltwise"
  bottom: "conv3_3b"
  bottom: "conv2_sub"
  top: "conv3_3"
}
layer {
  name: "conv3_3_relu"
  type: "ReLU"
  bottom: "conv3_3"
  top: "conv3_3"
}
layer {
  name: "conv3_sub"
  type: "Convolution"
  bottom: "conv3_3"
  top: "conv3_sub"
  param {
    lr_mult: 1
  }
  param {
    lr_mult: 2
  }
  convolution_param {
    num_output: 64
    kernel_size: 1
    stride: 2
    weight_filler {
      type: "msra"
    }
    bias_filler {
      type: "constant"
      value: 0
    }
  }
}
layer {
  name: "bn_conv3_sub"
  type: "BatchNorm"
  bottom: "conv3_sub"
  top: "conv3_sub"
  param {
    lr_mult: 0
  }
  param {
    lr_mult: 0
  }
  param {
    lr_mult: 0
  }
}
layer {
  name: "scale_conv3_sub"
  type: "Scale"
  bottom: "conv3_sub"
  top: "conv3_sub"
  scale_param {
    bias_term: true
  }
}
layer {
  name: "conv4_1a"
  type: "Convolution"
  bottom: "conv3_3"
  top: "conv4_1a"
  param {
    lr_mult: 1
  }
  param {
    lr_mult: 2
  }
  convolution_param {
    num_output: 64
    pad: 0
    kernel_size: 1
    stride: 2
    weight_filler {
      type: "msra"
    }
    bias_filler {
      type: "constant"
      value: 0
    }
  }
}
layer {
  name: "bn_conv4_1a"
  type: "BatchNorm"
  bottom: "conv4_1a"
  top: "conv4_1a"
  param {
    lr_mult: 0
  }
  param {
    lr_mult: 0
  }
  param {
    lr_mult: 0
  }
}
layer {
  name: "scale_conv4_1a"
  type: "Scale"
  bottom: "conv4_1a"
  top: "conv4_1a"
  scale_param {
    bias_term: true
  }
}
layer {
  name: "conv4_1a_relu"
  type: "ReLU"
  bottom: "conv4_1a"
  top: "conv4_1a"
}
layer {
  name: "conv4_1b"
  type: "Convolution"
  bottom: "conv4_1a"
  top: "conv4_1b"
  param {
    lr_mult: 1
  }
  param {
    lr_mult: 2
  }
  convolution_param {
    num_output: 64
    pad: 1
    kernel_size: 3
    stride: 1
    weight_filler {
      type: "msra"
    }
    bias_filler {
      type: "constant"
      value: 0
    }
  }
}
layer {
  name: "bn_conv4_1b"
  type: "BatchNorm"
  bottom: "conv4_1b"
  top: "conv4_1b"
  param {
    lr_mult: 0
  }
  param {
    lr_mult: 0
  }
  param {
    lr_mult: 0
  }
}
layer {
  name: "scale_conv4_1b"
  type: "Scale"
  bottom: "conv4_1b"
  top: "conv4_1b"
  scale_param {
    bias_term: true
  }
}
layer {
  name: "conv4_1_relu"
  type: "ReLU"
  bottom: "conv4_1b"
  top: "conv4_1b"
}
layer {
  name: "conv4_2a"
  type: "Convolution"
  bottom: "conv4_1b"
  top: "conv4_2a"
  param {
    lr_mult: 1
  }
  param {
    lr_mult: 2
  }
  convolution_param {
    num_output: 64
    pad: 1
    kernel_size: 3
    stride: 1
    weight_filler {
      type: "msra"
    }
    bias_filler {
      type: "constant"
      value: 0
    }
  }
}
layer {
  name: "bn_conv4_2a"
  type: "BatchNorm"
  bottom: "conv4_2a"
  top: "conv4_2a"
  param {
    lr_mult: 0
  }
  param {
    lr_mult: 0
  }
  param {
    lr_mult: 0
  }
}
layer {
  name: "scale_conv4_2a"
  type: "Scale"
  bottom: "conv4_2a"
  top: "conv4_2a"
  scale_param {
    bias_term: true
  }
}
layer {
  name: "conv4_2a_relu"
  type: "ReLU"
  bottom: "conv4_2a"
  top: "conv4_2a"
}
layer {
  name: "conv4_2b"
  type: "Convolution"
  bottom: "conv4_2a"
  top: "conv4_2b"
  param {
    lr_mult: 1
  }
  param {
    lr_mult: 2
  }
  convolution_param {
    num_output: 64
    pad: 1
    kernel_size: 3
    stride: 1
    weight_filler {
      type: "msra"
    }
    bias_filler {
      type: "constant"
      value: 0
    }
  }
}
layer {
  name: "bn_conv4_2b"
  type: "BatchNorm"
  bottom: "conv4_2b"
  top: "conv4_2b"
  param {
    lr_mult: 0
  }
  param {
    lr_mult: 0
  }
  param {
    lr_mult: 0
  }
}
layer {
  name: "scale_conv4_2b"
  type: "Scale"
  bottom: "conv4_2b"
  top: "conv4_2b"
  scale_param {
    bias_term: true
  }
}
layer {
  name: "conv4_2_relu"
  type: "ReLU"
  bottom: "conv4_2b"
  top: "conv4_2b"
}
layer {
  name: "conv4_3a"
  type: "Convolution"
  bottom: "conv4_2b"
  top: "conv4_3a"
  param {
    lr_mult: 1
  }
  param {
    lr_mult: 2
  }
  convolution_param {
    num_output: 64
    pad: 1
    kernel_size: 3
    stride: 1
    weight_filler {
      type: "msra"
    }
    bias_filler {
      type: "constant"
      value: 0
    }
  }
}
layer {
  name: "bn_conv4_3a"
  type: "BatchNorm"
  bottom: "conv4_3a"
  top: "conv4_3a"
  param {
    lr_mult: 0
  }
  param {
    lr_mult: 0
  }
  param {
    lr_mult: 0
  }
}
layer {
  name: "scale_conv4_3a"
  type: "Scale"
  bottom: "conv4_3a"
  top: "conv4_3a"
  scale_param {
    bias_term: true
  }
}
layer {
  name: "conv4_3a_relu"
  type: "ReLU"
  bottom: "conv4_3a"
  top: "conv4_3a"
}
layer {
  name: "conv4_3b"
  type: "Convolution"
  bottom: "conv4_3a"
  top: "conv4_3b"
  param {
    lr_mult: 1
  }
  param {
    lr_mult: 2
  }
  convolution_param {
    num_output: 64
    pad: 1
    kernel_size: 3
    stride: 1
    weight_filler {
      type: "msra"
    }
    bias_filler {
      type: "constant"
      value: 0
    }
  }
}
layer {
  name: "bn_conv4_3b"
  type: "BatchNorm"
  bottom: "conv4_3b"
  top: "conv4_3b"
  param {
    lr_mult: 0
  }
  param {
    lr_mult: 0
  }
  param {
    lr_mult: 0
  }
}
layer {
  name: "scale_conv4_3b"
  type: "Scale"
  bottom: "conv4_3b"
  top: "conv4_3b"
  scale_param {
    bias_term: true
  }
}
layer {
  name: "conv4_3"
  type: "Eltwise"
  bottom: "conv3_sub"
  bottom: "conv4_3b"
  top: "conv4_3"
}
layer {
  name: "conv4_3_relu"
  type: "ReLU"
  bottom: "conv4_3"
  top: "conv4_3"
}
layer {
  name: "global_pool"
  type: "Pooling"
  bottom: "conv4_3"
  top: "global_pool"
  pooling_param {
    pool: AVE
    kernel_size: 8
    stride: 8
  }
}
layer {
  name: "ip"
  type: "InnerProduct"
  bottom: "global_pool"
  top: "ip"
  inner_product_param {
    num_output: 10
  }
}
layer {
  name: "accuracy"
  type: "Accuracy"
  bottom: "ip"
  bottom: "label"
  top: "accuracy"
}
layer {
  name: "loss"
  type: "SoftmaxWithLoss"
  bottom: "ip"
  bottom: "label"
  top: "loss"
}
I0420 18:45:31.385468 11276 layer_factory.hpp:77] Creating layer cifar
I0420 18:45:31.385602 11276 net.cpp:91] Creating Layer cifar
I0420 18:45:31.385617 11276 net.cpp:399] cifar -> data
I0420 18:45:31.385629 11276 net.cpp:399] cifar -> label
I0420 18:45:31.385639 11276 data_transformer.cpp:25] Loading mean file from: /home/liangjiang/code/residual_network/data/cifar10/mean.binaryproto
I0420 18:45:31.386414 11331 db_lmdb.cpp:38] Opened lmdb /home/liangjiang/code/residual_network/data/cifar10/cifar10_test_lmdb
I0420 18:45:31.386535 11276 data_layer.cpp:41] output data size: 100,3,32,32
I0420 18:45:31.389629 11276 net.cpp:141] Setting up cifar
I0420 18:45:31.389657 11276 net.cpp:148] Top shape: 100 3 32 32 (307200)
I0420 18:45:31.389664 11276 net.cpp:148] Top shape: 100 (100)
I0420 18:45:31.389670 11276 net.cpp:156] Memory required for data: 1229200
I0420 18:45:31.389677 11276 layer_factory.hpp:77] Creating layer label_cifar_1_split
I0420 18:45:31.389688 11276 net.cpp:91] Creating Layer label_cifar_1_split
I0420 18:45:31.389693 11276 net.cpp:425] label_cifar_1_split <- label
I0420 18:45:31.389704 11276 net.cpp:399] label_cifar_1_split -> label_cifar_1_split_0
I0420 18:45:31.389716 11276 net.cpp:399] label_cifar_1_split -> label_cifar_1_split_1
I0420 18:45:31.389781 11276 net.cpp:141] Setting up label_cifar_1_split
I0420 18:45:31.389791 11276 net.cpp:148] Top shape: 100 (100)
I0420 18:45:31.389796 11276 net.cpp:148] Top shape: 100 (100)
I0420 18:45:31.389801 11276 net.cpp:156] Memory required for data: 1230000
I0420 18:45:31.389806 11276 layer_factory.hpp:77] Creating layer conv1
I0420 18:45:31.389823 11276 net.cpp:91] Creating Layer conv1
I0420 18:45:31.389829 11276 net.cpp:425] conv1 <- data
I0420 18:45:31.389837 11276 net.cpp:399] conv1 -> conv1
I0420 18:45:31.391443 11276 net.cpp:141] Setting up conv1
I0420 18:45:31.391463 11276 net.cpp:148] Top shape: 100 16 32 32 (1638400)
I0420 18:45:31.391469 11276 net.cpp:156] Memory required for data: 7783600
I0420 18:45:31.391484 11276 layer_factory.hpp:77] Creating layer bn_conv1
I0420 18:45:31.391494 11276 net.cpp:91] Creating Layer bn_conv1
I0420 18:45:31.391501 11276 net.cpp:425] bn_conv1 <- conv1
I0420 18:45:31.391515 11276 net.cpp:386] bn_conv1 -> conv1 (in-place)
I0420 18:45:31.391762 11276 net.cpp:141] Setting up bn_conv1
I0420 18:45:31.391772 11276 net.cpp:148] Top shape: 100 16 32 32 (1638400)
I0420 18:45:31.391778 11276 net.cpp:156] Memory required for data: 14337200
I0420 18:45:31.391806 11276 layer_factory.hpp:77] Creating layer scale_conv1
I0420 18:45:31.391824 11276 net.cpp:91] Creating Layer scale_conv1
I0420 18:45:31.391830 11276 net.cpp:425] scale_conv1 <- conv1
I0420 18:45:31.391837 11276 net.cpp:386] scale_conv1 -> conv1 (in-place)
I0420 18:45:31.391893 11276 layer_factory.hpp:77] Creating layer scale_conv1
I0420 18:45:31.392036 11276 net.cpp:141] Setting up scale_conv1
I0420 18:45:31.392053 11276 net.cpp:148] Top shape: 100 16 32 32 (1638400)
I0420 18:45:31.392060 11276 net.cpp:156] Memory required for data: 20890800
I0420 18:45:31.392076 11276 layer_factory.hpp:77] Creating layer conv1_relu
I0420 18:45:31.392084 11276 net.cpp:91] Creating Layer conv1_relu
I0420 18:45:31.392096 11276 net.cpp:425] conv1_relu <- conv1
I0420 18:45:31.392105 11276 net.cpp:386] conv1_relu -> conv1 (in-place)
I0420 18:45:31.392462 11276 net.cpp:141] Setting up conv1_relu
I0420 18:45:31.392482 11276 net.cpp:148] Top shape: 100 16 32 32 (1638400)
I0420 18:45:31.392487 11276 net.cpp:156] Memory required for data: 27444400
I0420 18:45:31.392493 11276 layer_factory.hpp:77] Creating layer conv1_conv1_relu_0_split
I0420 18:45:31.392499 11276 net.cpp:91] Creating Layer conv1_conv1_relu_0_split
I0420 18:45:31.392505 11276 net.cpp:425] conv1_conv1_relu_0_split <- conv1
I0420 18:45:31.392515 11276 net.cpp:399] conv1_conv1_relu_0_split -> conv1_conv1_relu_0_split_0
I0420 18:45:31.392525 11276 net.cpp:399] conv1_conv1_relu_0_split -> conv1_conv1_relu_0_split_1
I0420 18:45:31.392581 11276 net.cpp:141] Setting up conv1_conv1_relu_0_split
I0420 18:45:31.392591 11276 net.cpp:148] Top shape: 100 16 32 32 (1638400)
I0420 18:45:31.392597 11276 net.cpp:148] Top shape: 100 16 32 32 (1638400)
I0420 18:45:31.392614 11276 net.cpp:156] Memory required for data: 40551600
I0420 18:45:31.392621 11276 layer_factory.hpp:77] Creating layer conv2_1a
I0420 18:45:31.392642 11276 net.cpp:91] Creating Layer conv2_1a
I0420 18:45:31.392647 11276 net.cpp:425] conv2_1a <- conv1_conv1_relu_0_split_0
I0420 18:45:31.392659 11276 net.cpp:399] conv2_1a -> conv2_1a
I0420 18:45:31.394213 11276 net.cpp:141] Setting up conv2_1a
I0420 18:45:31.394232 11276 net.cpp:148] Top shape: 100 16 32 32 (1638400)
I0420 18:45:31.394243 11276 net.cpp:156] Memory required for data: 47105200
I0420 18:45:31.394255 11276 layer_factory.hpp:77] Creating layer bn_conv2_1a
I0420 18:45:31.394268 11276 net.cpp:91] Creating Layer bn_conv2_1a
I0420 18:45:31.394274 11276 net.cpp:425] bn_conv2_1a <- conv2_1a
I0420 18:45:31.394284 11276 net.cpp:386] bn_conv2_1a -> conv2_1a (in-place)
I0420 18:45:31.394536 11276 net.cpp:141] Setting up bn_conv2_1a
I0420 18:45:31.394547 11276 net.cpp:148] Top shape: 100 16 32 32 (1638400)
I0420 18:45:31.394552 11276 net.cpp:156] Memory required for data: 53658800
I0420 18:45:31.394562 11276 layer_factory.hpp:77] Creating layer scale_conv2_1a
I0420 18:45:31.394579 11276 net.cpp:91] Creating Layer scale_conv2_1a
I0420 18:45:31.394585 11276 net.cpp:425] scale_conv2_1a <- conv2_1a
I0420 18:45:31.394599 11276 net.cpp:386] scale_conv2_1a -> conv2_1a (in-place)
I0420 18:45:31.394654 11276 layer_factory.hpp:77] Creating layer scale_conv2_1a
I0420 18:45:31.394801 11276 net.cpp:141] Setting up scale_conv2_1a
I0420 18:45:31.394811 11276 net.cpp:148] Top shape: 100 16 32 32 (1638400)
I0420 18:45:31.394816 11276 net.cpp:156] Memory required for data: 60212400
I0420 18:45:31.394835 11276 layer_factory.hpp:77] Creating layer conv2_1a_relu
I0420 18:45:31.394845 11276 net.cpp:91] Creating Layer conv2_1a_relu
I0420 18:45:31.394850 11276 net.cpp:425] conv2_1a_relu <- conv2_1a
I0420 18:45:31.394857 11276 net.cpp:386] conv2_1a_relu -> conv2_1a (in-place)
I0420 18:45:31.395071 11276 net.cpp:141] Setting up conv2_1a_relu
I0420 18:45:31.395094 11276 net.cpp:148] Top shape: 100 16 32 32 (1638400)
I0420 18:45:31.395099 11276 net.cpp:156] Memory required for data: 66766000
I0420 18:45:31.395107 11276 layer_factory.hpp:77] Creating layer conv2_1b
I0420 18:45:31.395122 11276 net.cpp:91] Creating Layer conv2_1b
I0420 18:45:31.395128 11276 net.cpp:425] conv2_1b <- conv2_1a
I0420 18:45:31.395172 11276 net.cpp:399] conv2_1b -> conv2_1b
I0420 18:45:31.396679 11276 net.cpp:141] Setting up conv2_1b
I0420 18:45:31.396698 11276 net.cpp:148] Top shape: 100 16 32 32 (1638400)
I0420 18:45:31.396713 11276 net.cpp:156] Memory required for data: 73319600
I0420 18:45:31.396723 11276 layer_factory.hpp:77] Creating layer bn_conv2_1b
I0420 18:45:31.396733 11276 net.cpp:91] Creating Layer bn_conv2_1b
I0420 18:45:31.396739 11276 net.cpp:425] bn_conv2_1b <- conv2_1b
I0420 18:45:31.396749 11276 net.cpp:386] bn_conv2_1b -> conv2_1b (in-place)
I0420 18:45:31.396997 11276 net.cpp:141] Setting up bn_conv2_1b
I0420 18:45:31.397007 11276 net.cpp:148] Top shape: 100 16 32 32 (1638400)
I0420 18:45:31.397012 11276 net.cpp:156] Memory required for data: 79873200
I0420 18:45:31.397027 11276 layer_factory.hpp:77] Creating layer scale_conv2_1b
I0420 18:45:31.397034 11276 net.cpp:91] Creating Layer scale_conv2_1b
I0420 18:45:31.397040 11276 net.cpp:425] scale_conv2_1b <- conv2_1b
I0420 18:45:31.397049 11276 net.cpp:386] scale_conv2_1b -> conv2_1b (in-place)
I0420 18:45:31.397101 11276 layer_factory.hpp:77] Creating layer scale_conv2_1b
I0420 18:45:31.397256 11276 net.cpp:141] Setting up scale_conv2_1b
I0420 18:45:31.397269 11276 net.cpp:148] Top shape: 100 16 32 32 (1638400)
I0420 18:45:31.397282 11276 net.cpp:156] Memory required for data: 86426800
I0420 18:45:31.397291 11276 layer_factory.hpp:77] Creating layer conv2_1_relu
I0420 18:45:31.397310 11276 net.cpp:91] Creating Layer conv2_1_relu
I0420 18:45:31.397315 11276 net.cpp:425] conv2_1_relu <- conv2_1b
I0420 18:45:31.397322 11276 net.cpp:386] conv2_1_relu -> conv2_1b (in-place)
I0420 18:45:31.397539 11276 net.cpp:141] Setting up conv2_1_relu
I0420 18:45:31.397557 11276 net.cpp:148] Top shape: 100 16 32 32 (1638400)
I0420 18:45:31.397562 11276 net.cpp:156] Memory required for data: 92980400
I0420 18:45:31.397567 11276 layer_factory.hpp:77] Creating layer conv2_2a
I0420 18:45:31.397581 11276 net.cpp:91] Creating Layer conv2_2a
I0420 18:45:31.397588 11276 net.cpp:425] conv2_2a <- conv2_1b
I0420 18:45:31.397599 11276 net.cpp:399] conv2_2a -> conv2_2a
I0420 18:45:31.398962 11276 net.cpp:141] Setting up conv2_2a
I0420 18:45:31.398985 11276 net.cpp:148] Top shape: 100 16 32 32 (1638400)
I0420 18:45:31.398991 11276 net.cpp:156] Memory required for data: 99534000
I0420 18:45:31.399001 11276 layer_factory.hpp:77] Creating layer bn_conv2_2a
I0420 18:45:31.399013 11276 net.cpp:91] Creating Layer bn_conv2_2a
I0420 18:45:31.399019 11276 net.cpp:425] bn_conv2_2a <- conv2_2a
I0420 18:45:31.399030 11276 net.cpp:386] bn_conv2_2a -> conv2_2a (in-place)
I0420 18:45:31.399281 11276 net.cpp:141] Setting up bn_conv2_2a
I0420 18:45:31.399289 11276 net.cpp:148] Top shape: 100 16 32 32 (1638400)
I0420 18:45:31.399294 11276 net.cpp:156] Memory required for data: 106087600
I0420 18:45:31.399304 11276 layer_factory.hpp:77] Creating layer scale_conv2_2a
I0420 18:45:31.399313 11276 net.cpp:91] Creating Layer scale_conv2_2a
I0420 18:45:31.399318 11276 net.cpp:425] scale_conv2_2a <- conv2_2a
I0420 18:45:31.399325 11276 net.cpp:386] scale_conv2_2a -> conv2_2a (in-place)
I0420 18:45:31.399379 11276 layer_factory.hpp:77] Creating layer scale_conv2_2a
I0420 18:45:31.399523 11276 net.cpp:141] Setting up scale_conv2_2a
I0420 18:45:31.399533 11276 net.cpp:148] Top shape: 100 16 32 32 (1638400)
I0420 18:45:31.399538 11276 net.cpp:156] Memory required for data: 112641200
I0420 18:45:31.399545 11276 layer_factory.hpp:77] Creating layer conv2_2a_relu
I0420 18:45:31.399555 11276 net.cpp:91] Creating Layer conv2_2a_relu
I0420 18:45:31.399560 11276 net.cpp:425] conv2_2a_relu <- conv2_2a
I0420 18:45:31.399567 11276 net.cpp:386] conv2_2a_relu -> conv2_2a (in-place)
I0420 18:45:31.399909 11276 net.cpp:141] Setting up conv2_2a_relu
I0420 18:45:31.399927 11276 net.cpp:148] Top shape: 100 16 32 32 (1638400)
I0420 18:45:31.399933 11276 net.cpp:156] Memory required for data: 119194800
I0420 18:45:31.399938 11276 layer_factory.hpp:77] Creating layer conv2_2b
I0420 18:45:31.399952 11276 net.cpp:91] Creating Layer conv2_2b
I0420 18:45:31.399958 11276 net.cpp:425] conv2_2b <- conv2_2a
I0420 18:45:31.399967 11276 net.cpp:399] conv2_2b -> conv2_2b
I0420 18:45:31.401238 11276 net.cpp:141] Setting up conv2_2b
I0420 18:45:31.401257 11276 net.cpp:148] Top shape: 100 16 32 32 (1638400)
I0420 18:45:31.401262 11276 net.cpp:156] Memory required for data: 125748400
I0420 18:45:31.401271 11276 layer_factory.hpp:77] Creating layer bn_conv2_2b
I0420 18:45:31.401286 11276 net.cpp:91] Creating Layer bn_conv2_2b
I0420 18:45:31.401293 11276 net.cpp:425] bn_conv2_2b <- conv2_2b
I0420 18:45:31.401300 11276 net.cpp:386] bn_conv2_2b -> conv2_2b (in-place)
I0420 18:45:31.401563 11276 net.cpp:141] Setting up bn_conv2_2b
I0420 18:45:31.401576 11276 net.cpp:148] Top shape: 100 16 32 32 (1638400)
I0420 18:45:31.401581 11276 net.cpp:156] Memory required for data: 132302000
I0420 18:45:31.401597 11276 layer_factory.hpp:77] Creating layer scale_conv2_2b
I0420 18:45:31.401607 11276 net.cpp:91] Creating Layer scale_conv2_2b
I0420 18:45:31.401612 11276 net.cpp:425] scale_conv2_2b <- conv2_2b
I0420 18:45:31.401618 11276 net.cpp:386] scale_conv2_2b -> conv2_2b (in-place)
I0420 18:45:31.401674 11276 layer_factory.hpp:77] Creating layer scale_conv2_2b
I0420 18:45:31.401823 11276 net.cpp:141] Setting up scale_conv2_2b
I0420 18:45:31.401834 11276 net.cpp:148] Top shape: 100 16 32 32 (1638400)
I0420 18:45:31.401837 11276 net.cpp:156] Memory required for data: 138855600
I0420 18:45:31.401846 11276 layer_factory.hpp:77] Creating layer conv2_2_relu
I0420 18:45:31.401856 11276 net.cpp:91] Creating Layer conv2_2_relu
I0420 18:45:31.401861 11276 net.cpp:425] conv2_2_relu <- conv2_2b
I0420 18:45:31.401868 11276 net.cpp:386] conv2_2_relu -> conv2_2b (in-place)
I0420 18:45:31.402081 11276 net.cpp:141] Setting up conv2_2_relu
I0420 18:45:31.402093 11276 net.cpp:148] Top shape: 100 16 32 32 (1638400)
I0420 18:45:31.402099 11276 net.cpp:156] Memory required for data: 145409200
I0420 18:45:31.402104 11276 layer_factory.hpp:77] Creating layer conv2_3a
I0420 18:45:31.402118 11276 net.cpp:91] Creating Layer conv2_3a
I0420 18:45:31.402125 11276 net.cpp:425] conv2_3a <- conv2_2b
I0420 18:45:31.402133 11276 net.cpp:399] conv2_3a -> conv2_3a
I0420 18:45:31.403434 11276 net.cpp:141] Setting up conv2_3a
I0420 18:45:31.403451 11276 net.cpp:148] Top shape: 100 16 32 32 (1638400)
I0420 18:45:31.403457 11276 net.cpp:156] Memory required for data: 151962800
I0420 18:45:31.403467 11276 layer_factory.hpp:77] Creating layer bn_conv2_3a
I0420 18:45:31.403478 11276 net.cpp:91] Creating Layer bn_conv2_3a
I0420 18:45:31.403484 11276 net.cpp:425] bn_conv2_3a <- conv2_3a
I0420 18:45:31.403494 11276 net.cpp:386] bn_conv2_3a -> conv2_3a (in-place)
I0420 18:45:31.403745 11276 net.cpp:141] Setting up bn_conv2_3a
I0420 18:45:31.403755 11276 net.cpp:148] Top shape: 100 16 32 32 (1638400)
I0420 18:45:31.403760 11276 net.cpp:156] Memory required for data: 158516400
I0420 18:45:31.403770 11276 layer_factory.hpp:77] Creating layer scale_conv2_3a
I0420 18:45:31.403781 11276 net.cpp:91] Creating Layer scale_conv2_3a
I0420 18:45:31.403786 11276 net.cpp:425] scale_conv2_3a <- conv2_3a
I0420 18:45:31.403795 11276 net.cpp:386] scale_conv2_3a -> conv2_3a (in-place)
I0420 18:45:31.403847 11276 layer_factory.hpp:77] Creating layer scale_conv2_3a
I0420 18:45:31.403992 11276 net.cpp:141] Setting up scale_conv2_3a
I0420 18:45:31.404001 11276 net.cpp:148] Top shape: 100 16 32 32 (1638400)
I0420 18:45:31.404006 11276 net.cpp:156] Memory required for data: 165070000
I0420 18:45:31.404016 11276 layer_factory.hpp:77] Creating layer conv2_3a_relu
I0420 18:45:31.404022 11276 net.cpp:91] Creating Layer conv2_3a_relu
I0420 18:45:31.404027 11276 net.cpp:425] conv2_3a_relu <- conv2_3a
I0420 18:45:31.404036 11276 net.cpp:386] conv2_3a_relu -> conv2_3a (in-place)
I0420 18:45:31.404248 11276 net.cpp:141] Setting up conv2_3a_relu
I0420 18:45:31.404263 11276 net.cpp:148] Top shape: 100 16 32 32 (1638400)
I0420 18:45:31.404268 11276 net.cpp:156] Memory required for data: 171623600
I0420 18:45:31.404273 11276 layer_factory.hpp:77] Creating layer conv2_3b
I0420 18:45:31.404286 11276 net.cpp:91] Creating Layer conv2_3b
I0420 18:45:31.404294 11276 net.cpp:425] conv2_3b <- conv2_3a
I0420 18:45:31.404302 11276 net.cpp:399] conv2_3b -> conv2_3b
I0420 18:45:31.405576 11276 net.cpp:141] Setting up conv2_3b
I0420 18:45:31.405594 11276 net.cpp:148] Top shape: 100 16 32 32 (1638400)
I0420 18:45:31.405601 11276 net.cpp:156] Memory required for data: 178177200
I0420 18:45:31.405609 11276 layer_factory.hpp:77] Creating layer bn_conv2_3b
I0420 18:45:31.405621 11276 net.cpp:91] Creating Layer bn_conv2_3b
I0420 18:45:31.405627 11276 net.cpp:425] bn_conv2_3b <- conv2_3b
I0420 18:45:31.405634 11276 net.cpp:386] bn_conv2_3b -> conv2_3b (in-place)
I0420 18:45:31.405889 11276 net.cpp:141] Setting up bn_conv2_3b
I0420 18:45:31.405899 11276 net.cpp:148] Top shape: 100 16 32 32 (1638400)
I0420 18:45:31.405903 11276 net.cpp:156] Memory required for data: 184730800
I0420 18:45:31.405913 11276 layer_factory.hpp:77] Creating layer scale_conv2_3b
I0420 18:45:31.405921 11276 net.cpp:91] Creating Layer scale_conv2_3b
I0420 18:45:31.405926 11276 net.cpp:425] scale_conv2_3b <- conv2_3b
I0420 18:45:31.405936 11276 net.cpp:386] scale_conv2_3b -> conv2_3b (in-place)
I0420 18:45:31.405989 11276 layer_factory.hpp:77] Creating layer scale_conv2_3b
I0420 18:45:31.406136 11276 net.cpp:141] Setting up scale_conv2_3b
I0420 18:45:31.406144 11276 net.cpp:148] Top shape: 100 16 32 32 (1638400)
I0420 18:45:31.406149 11276 net.cpp:156] Memory required for data: 191284400
I0420 18:45:31.406158 11276 layer_factory.hpp:77] Creating layer conv2_3
I0420 18:45:31.406165 11276 net.cpp:91] Creating Layer conv2_3
I0420 18:45:31.406170 11276 net.cpp:425] conv2_3 <- conv2_3b
I0420 18:45:31.406177 11276 net.cpp:425] conv2_3 <- conv1_conv1_relu_0_split_1
I0420 18:45:31.406183 11276 net.cpp:399] conv2_3 -> conv2_3
I0420 18:45:31.406218 11276 net.cpp:141] Setting up conv2_3
I0420 18:45:31.406229 11276 net.cpp:148] Top shape: 100 16 32 32 (1638400)
I0420 18:45:31.406234 11276 net.cpp:156] Memory required for data: 197838000
I0420 18:45:31.406239 11276 layer_factory.hpp:77] Creating layer conv2_3_relu
I0420 18:45:31.406245 11276 net.cpp:91] Creating Layer conv2_3_relu
I0420 18:45:31.406255 11276 net.cpp:425] conv2_3_relu <- conv2_3
I0420 18:45:31.406262 11276 net.cpp:386] conv2_3_relu -> conv2_3 (in-place)
I0420 18:45:31.406704 11276 net.cpp:141] Setting up conv2_3_relu
I0420 18:45:31.406720 11276 net.cpp:148] Top shape: 100 16 32 32 (1638400)
I0420 18:45:31.406726 11276 net.cpp:156] Memory required for data: 204391600
I0420 18:45:31.406731 11276 layer_factory.hpp:77] Creating layer conv2_3_conv2_3_relu_0_split
I0420 18:45:31.406744 11276 net.cpp:91] Creating Layer conv2_3_conv2_3_relu_0_split
I0420 18:45:31.406750 11276 net.cpp:425] conv2_3_conv2_3_relu_0_split <- conv2_3
I0420 18:45:31.406760 11276 net.cpp:399] conv2_3_conv2_3_relu_0_split -> conv2_3_conv2_3_relu_0_split_0
I0420 18:45:31.406770 11276 net.cpp:399] conv2_3_conv2_3_relu_0_split -> conv2_3_conv2_3_relu_0_split_1
I0420 18:45:31.406826 11276 net.cpp:141] Setting up conv2_3_conv2_3_relu_0_split
I0420 18:45:31.406837 11276 net.cpp:148] Top shape: 100 16 32 32 (1638400)
I0420 18:45:31.406844 11276 net.cpp:148] Top shape: 100 16 32 32 (1638400)
I0420 18:45:31.406848 11276 net.cpp:156] Memory required for data: 217498800
I0420 18:45:31.406853 11276 layer_factory.hpp:77] Creating layer conv2_sub
I0420 18:45:31.406867 11276 net.cpp:91] Creating Layer conv2_sub
I0420 18:45:31.406873 11276 net.cpp:425] conv2_sub <- conv2_3_conv2_3_relu_0_split_0
I0420 18:45:31.406883 11276 net.cpp:399] conv2_sub -> conv2_sub
I0420 18:45:31.408123 11276 net.cpp:141] Setting up conv2_sub
I0420 18:45:31.408141 11276 net.cpp:148] Top shape: 100 32 16 16 (819200)
I0420 18:45:31.408148 11276 net.cpp:156] Memory required for data: 220775600
I0420 18:45:31.408156 11276 layer_factory.hpp:77] Creating layer bn_conv2_sub
I0420 18:45:31.408169 11276 net.cpp:91] Creating Layer bn_conv2_sub
I0420 18:45:31.408174 11276 net.cpp:425] bn_conv2_sub <- conv2_sub
I0420 18:45:31.408185 11276 net.cpp:386] bn_conv2_sub -> conv2_sub (in-place)
I0420 18:45:31.408434 11276 net.cpp:141] Setting up bn_conv2_sub
I0420 18:45:31.408445 11276 net.cpp:148] Top shape: 100 32 16 16 (819200)
I0420 18:45:31.408450 11276 net.cpp:156] Memory required for data: 224052400
I0420 18:45:31.408460 11276 layer_factory.hpp:77] Creating layer scale_conv2_sub
I0420 18:45:31.408470 11276 net.cpp:91] Creating Layer scale_conv2_sub
I0420 18:45:31.408476 11276 net.cpp:425] scale_conv2_sub <- conv2_sub
I0420 18:45:31.408483 11276 net.cpp:386] scale_conv2_sub -> conv2_sub (in-place)
I0420 18:45:31.408538 11276 layer_factory.hpp:77] Creating layer scale_conv2_sub
I0420 18:45:31.408684 11276 net.cpp:141] Setting up scale_conv2_sub
I0420 18:45:31.408692 11276 net.cpp:148] Top shape: 100 32 16 16 (819200)
I0420 18:45:31.408697 11276 net.cpp:156] Memory required for data: 227329200
I0420 18:45:31.408705 11276 layer_factory.hpp:77] Creating layer conv3_1a
I0420 18:45:31.408721 11276 net.cpp:91] Creating Layer conv3_1a
I0420 18:45:31.408727 11276 net.cpp:425] conv3_1a <- conv2_3_conv2_3_relu_0_split_1
I0420 18:45:31.408736 11276 net.cpp:399] conv3_1a -> conv3_1a
I0420 18:45:31.409878 11276 net.cpp:141] Setting up conv3_1a
I0420 18:45:31.409896 11276 net.cpp:148] Top shape: 100 32 16 16 (819200)
I0420 18:45:31.409901 11276 net.cpp:156] Memory required for data: 230606000
I0420 18:45:31.409910 11276 layer_factory.hpp:77] Creating layer bn_conv3_1a
I0420 18:45:31.409922 11276 net.cpp:91] Creating Layer bn_conv3_1a
I0420 18:45:31.409929 11276 net.cpp:425] bn_conv3_1a <- conv3_1a
I0420 18:45:31.409936 11276 net.cpp:386] bn_conv3_1a -> conv3_1a (in-place)
I0420 18:45:31.410182 11276 net.cpp:141] Setting up bn_conv3_1a
I0420 18:45:31.410192 11276 net.cpp:148] Top shape: 100 32 16 16 (819200)
I0420 18:45:31.410197 11276 net.cpp:156] Memory required for data: 233882800
I0420 18:45:31.410207 11276 layer_factory.hpp:77] Creating layer scale_conv3_1a
I0420 18:45:31.410217 11276 net.cpp:91] Creating Layer scale_conv3_1a
I0420 18:45:31.410221 11276 net.cpp:425] scale_conv3_1a <- conv3_1a
I0420 18:45:31.410228 11276 net.cpp:386] scale_conv3_1a -> conv3_1a (in-place)
I0420 18:45:31.410281 11276 layer_factory.hpp:77] Creating layer scale_conv3_1a
I0420 18:45:31.410435 11276 net.cpp:141] Setting up scale_conv3_1a
I0420 18:45:31.410445 11276 net.cpp:148] Top shape: 100 32 16 16 (819200)
I0420 18:45:31.410450 11276 net.cpp:156] Memory required for data: 237159600
I0420 18:45:31.410459 11276 layer_factory.hpp:77] Creating layer conv3_1a_relu
I0420 18:45:31.410466 11276 net.cpp:91] Creating Layer conv3_1a_relu
I0420 18:45:31.410471 11276 net.cpp:425] conv3_1a_relu <- conv3_1a
I0420 18:45:31.410477 11276 net.cpp:386] conv3_1a_relu -> conv3_1a (in-place)
I0420 18:45:31.410815 11276 net.cpp:141] Setting up conv3_1a_relu
I0420 18:45:31.410830 11276 net.cpp:148] Top shape: 100 32 16 16 (819200)
I0420 18:45:31.410835 11276 net.cpp:156] Memory required for data: 240436400
I0420 18:45:31.410841 11276 layer_factory.hpp:77] Creating layer conv3_1b
I0420 18:45:31.410856 11276 net.cpp:91] Creating Layer conv3_1b
I0420 18:45:31.410862 11276 net.cpp:425] conv3_1b <- conv3_1a
I0420 18:45:31.410873 11276 net.cpp:399] conv3_1b -> conv3_1b
I0420 18:45:31.412395 11276 net.cpp:141] Setting up conv3_1b
I0420 18:45:31.412412 11276 net.cpp:148] Top shape: 100 32 16 16 (819200)
I0420 18:45:31.412418 11276 net.cpp:156] Memory required for data: 243713200
I0420 18:45:31.412439 11276 layer_factory.hpp:77] Creating layer bn_conv3_1b
I0420 18:45:31.412452 11276 net.cpp:91] Creating Layer bn_conv3_1b
I0420 18:45:31.412458 11276 net.cpp:425] bn_conv3_1b <- conv3_1b
I0420 18:45:31.412467 11276 net.cpp:386] bn_conv3_1b -> conv3_1b (in-place)
I0420 18:45:31.412714 11276 net.cpp:141] Setting up bn_conv3_1b
I0420 18:45:31.412724 11276 net.cpp:148] Top shape: 100 32 16 16 (819200)
I0420 18:45:31.412729 11276 net.cpp:156] Memory required for data: 246990000
I0420 18:45:31.412739 11276 layer_factory.hpp:77] Creating layer scale_conv3_1b
I0420 18:45:31.412747 11276 net.cpp:91] Creating Layer scale_conv3_1b
I0420 18:45:31.412752 11276 net.cpp:425] scale_conv3_1b <- conv3_1b
I0420 18:45:31.412761 11276 net.cpp:386] scale_conv3_1b -> conv3_1b (in-place)
I0420 18:45:31.412814 11276 layer_factory.hpp:77] Creating layer scale_conv3_1b
I0420 18:45:31.412963 11276 net.cpp:141] Setting up scale_conv3_1b
I0420 18:45:31.412973 11276 net.cpp:148] Top shape: 100 32 16 16 (819200)
I0420 18:45:31.412978 11276 net.cpp:156] Memory required for data: 250266800
I0420 18:45:31.412986 11276 layer_factory.hpp:77] Creating layer conv3_1_relu
I0420 18:45:31.412993 11276 net.cpp:91] Creating Layer conv3_1_relu
I0420 18:45:31.412998 11276 net.cpp:425] conv3_1_relu <- conv3_1b
I0420 18:45:31.413012 11276 net.cpp:386] conv3_1_relu -> conv3_1b (in-place)
I0420 18:45:31.413235 11276 net.cpp:141] Setting up conv3_1_relu
I0420 18:45:31.413249 11276 net.cpp:148] Top shape: 100 32 16 16 (819200)
I0420 18:45:31.413254 11276 net.cpp:156] Memory required for data: 253543600
I0420 18:45:31.413259 11276 layer_factory.hpp:77] Creating layer conv3_2a
I0420 18:45:31.413274 11276 net.cpp:91] Creating Layer conv3_2a
I0420 18:45:31.413280 11276 net.cpp:425] conv3_2a <- conv3_1b
I0420 18:45:31.413290 11276 net.cpp:399] conv3_2a -> conv3_2a
I0420 18:45:31.414819 11276 net.cpp:141] Setting up conv3_2a
I0420 18:45:31.414835 11276 net.cpp:148] Top shape: 100 32 16 16 (819200)
I0420 18:45:31.414841 11276 net.cpp:156] Memory required for data: 256820400
I0420 18:45:31.414850 11276 layer_factory.hpp:77] Creating layer bn_conv3_2a
I0420 18:45:31.414862 11276 net.cpp:91] Creating Layer bn_conv3_2a
I0420 18:45:31.414868 11276 net.cpp:425] bn_conv3_2a <- conv3_2a
I0420 18:45:31.414875 11276 net.cpp:386] bn_conv3_2a -> conv3_2a (in-place)
I0420 18:45:31.415125 11276 net.cpp:141] Setting up bn_conv3_2a
I0420 18:45:31.415135 11276 net.cpp:148] Top shape: 100 32 16 16 (819200)
I0420 18:45:31.415140 11276 net.cpp:156] Memory required for data: 260097200
I0420 18:45:31.415150 11276 layer_factory.hpp:77] Creating layer scale_conv3_2a
I0420 18:45:31.415159 11276 net.cpp:91] Creating Layer scale_conv3_2a
I0420 18:45:31.415164 11276 net.cpp:425] scale_conv3_2a <- conv3_2a
I0420 18:45:31.415176 11276 net.cpp:386] scale_conv3_2a -> conv3_2a (in-place)
I0420 18:45:31.415235 11276 layer_factory.hpp:77] Creating layer scale_conv3_2a
I0420 18:45:31.415385 11276 net.cpp:141] Setting up scale_conv3_2a
I0420 18:45:31.415395 11276 net.cpp:148] Top shape: 100 32 16 16 (819200)
I0420 18:45:31.415400 11276 net.cpp:156] Memory required for data: 263374000
I0420 18:45:31.415407 11276 layer_factory.hpp:77] Creating layer conv3_2a_relu
I0420 18:45:31.415416 11276 net.cpp:91] Creating Layer conv3_2a_relu
I0420 18:45:31.415421 11276 net.cpp:425] conv3_2a_relu <- conv3_2a
I0420 18:45:31.415427 11276 net.cpp:386] conv3_2a_relu -> conv3_2a (in-place)
I0420 18:45:31.415762 11276 net.cpp:141] Setting up conv3_2a_relu
I0420 18:45:31.415778 11276 net.cpp:148] Top shape: 100 32 16 16 (819200)
I0420 18:45:31.415784 11276 net.cpp:156] Memory required for data: 266650800
I0420 18:45:31.415789 11276 layer_factory.hpp:77] Creating layer conv3_2b
I0420 18:45:31.415803 11276 net.cpp:91] Creating Layer conv3_2b
I0420 18:45:31.415810 11276 net.cpp:425] conv3_2b <- conv3_2a
I0420 18:45:31.415820 11276 net.cpp:399] conv3_2b -> conv3_2b
I0420 18:45:31.417260 11276 net.cpp:141] Setting up conv3_2b
I0420 18:45:31.417280 11276 net.cpp:148] Top shape: 100 32 16 16 (819200)
I0420 18:45:31.417286 11276 net.cpp:156] Memory required for data: 269927600
I0420 18:45:31.417295 11276 layer_factory.hpp:77] Creating layer bn_conv3_2b
I0420 18:45:31.417304 11276 net.cpp:91] Creating Layer bn_conv3_2b
I0420 18:45:31.417310 11276 net.cpp:425] bn_conv3_2b <- conv3_2b
I0420 18:45:31.417320 11276 net.cpp:386] bn_conv3_2b -> conv3_2b (in-place)
I0420 18:45:31.417578 11276 net.cpp:141] Setting up bn_conv3_2b
I0420 18:45:31.417588 11276 net.cpp:148] Top shape: 100 32 16 16 (819200)
I0420 18:45:31.417593 11276 net.cpp:156] Memory required for data: 273204400
I0420 18:45:31.417603 11276 layer_factory.hpp:77] Creating layer scale_conv3_2b
I0420 18:45:31.417611 11276 net.cpp:91] Creating Layer scale_conv3_2b
I0420 18:45:31.417616 11276 net.cpp:425] scale_conv3_2b <- conv3_2b
I0420 18:45:31.417623 11276 net.cpp:386] scale_conv3_2b -> conv3_2b (in-place)
I0420 18:45:31.417678 11276 layer_factory.hpp:77] Creating layer scale_conv3_2b
I0420 18:45:31.417830 11276 net.cpp:141] Setting up scale_conv3_2b
I0420 18:45:31.417840 11276 net.cpp:148] Top shape: 100 32 16 16 (819200)
I0420 18:45:31.417845 11276 net.cpp:156] Memory required for data: 276481200
I0420 18:45:31.417853 11276 layer_factory.hpp:77] Creating layer conv3_2_relu
I0420 18:45:31.417862 11276 net.cpp:91] Creating Layer conv3_2_relu
I0420 18:45:31.417867 11276 net.cpp:425] conv3_2_relu <- conv3_2b
I0420 18:45:31.417875 11276 net.cpp:386] conv3_2_relu -> conv3_2b (in-place)
I0420 18:45:31.418211 11276 net.cpp:141] Setting up conv3_2_relu
I0420 18:45:31.418227 11276 net.cpp:148] Top shape: 100 32 16 16 (819200)
I0420 18:45:31.418233 11276 net.cpp:156] Memory required for data: 279758000
I0420 18:45:31.418238 11276 layer_factory.hpp:77] Creating layer conv3_3a
I0420 18:45:31.418252 11276 net.cpp:91] Creating Layer conv3_3a
I0420 18:45:31.418258 11276 net.cpp:425] conv3_3a <- conv3_2b
I0420 18:45:31.418277 11276 net.cpp:399] conv3_3a -> conv3_3a
I0420 18:45:31.419822 11276 net.cpp:141] Setting up conv3_3a
I0420 18:45:31.419839 11276 net.cpp:148] Top shape: 100 32 16 16 (819200)
I0420 18:45:31.419845 11276 net.cpp:156] Memory required for data: 283034800
I0420 18:45:31.419854 11276 layer_factory.hpp:77] Creating layer bn_conv3_3a
I0420 18:45:31.419865 11276 net.cpp:91] Creating Layer bn_conv3_3a
I0420 18:45:31.419872 11276 net.cpp:425] bn_conv3_3a <- conv3_3a
I0420 18:45:31.419879 11276 net.cpp:386] bn_conv3_3a -> conv3_3a (in-place)
I0420 18:45:31.420135 11276 net.cpp:141] Setting up bn_conv3_3a
I0420 18:45:31.420145 11276 net.cpp:148] Top shape: 100 32 16 16 (819200)
I0420 18:45:31.420150 11276 net.cpp:156] Memory required for data: 286311600
I0420 18:45:31.420161 11276 layer_factory.hpp:77] Creating layer scale_conv3_3a
I0420 18:45:31.420169 11276 net.cpp:91] Creating Layer scale_conv3_3a
I0420 18:45:31.420174 11276 net.cpp:425] scale_conv3_3a <- conv3_3a
I0420 18:45:31.420181 11276 net.cpp:386] scale_conv3_3a -> conv3_3a (in-place)
I0420 18:45:31.420243 11276 layer_factory.hpp:77] Creating layer scale_conv3_3a
I0420 18:45:31.420397 11276 net.cpp:141] Setting up scale_conv3_3a
I0420 18:45:31.420408 11276 net.cpp:148] Top shape: 100 32 16 16 (819200)
I0420 18:45:31.420413 11276 net.cpp:156] Memory required for data: 289588400
I0420 18:45:31.420420 11276 layer_factory.hpp:77] Creating layer conv3_3a_relu
I0420 18:45:31.420428 11276 net.cpp:91] Creating Layer conv3_3a_relu
I0420 18:45:31.420433 11276 net.cpp:425] conv3_3a_relu <- conv3_3a
I0420 18:45:31.420439 11276 net.cpp:386] conv3_3a_relu -> conv3_3a (in-place)
I0420 18:45:31.420647 11276 net.cpp:141] Setting up conv3_3a_relu
I0420 18:45:31.420660 11276 net.cpp:148] Top shape: 100 32 16 16 (819200)
I0420 18:45:31.420666 11276 net.cpp:156] Memory required for data: 292865200
I0420 18:45:31.420671 11276 layer_factory.hpp:77] Creating layer conv3_3b
I0420 18:45:31.420686 11276 net.cpp:91] Creating Layer conv3_3b
I0420 18:45:31.420691 11276 net.cpp:425] conv3_3b <- conv3_3a
I0420 18:45:31.420702 11276 net.cpp:399] conv3_3b -> conv3_3b
I0420 18:45:31.422255 11276 net.cpp:141] Setting up conv3_3b
I0420 18:45:31.422273 11276 net.cpp:148] Top shape: 100 32 16 16 (819200)
I0420 18:45:31.422279 11276 net.cpp:156] Memory required for data: 296142000
I0420 18:45:31.422289 11276 layer_factory.hpp:77] Creating layer bn_conv3_3b
I0420 18:45:31.422300 11276 net.cpp:91] Creating Layer bn_conv3_3b
I0420 18:45:31.422307 11276 net.cpp:425] bn_conv3_3b <- conv3_3b
I0420 18:45:31.422313 11276 net.cpp:386] bn_conv3_3b -> conv3_3b (in-place)
I0420 18:45:31.422570 11276 net.cpp:141] Setting up bn_conv3_3b
I0420 18:45:31.422580 11276 net.cpp:148] Top shape: 100 32 16 16 (819200)
I0420 18:45:31.422585 11276 net.cpp:156] Memory required for data: 299418800
I0420 18:45:31.422595 11276 layer_factory.hpp:77] Creating layer scale_conv3_3b
I0420 18:45:31.422603 11276 net.cpp:91] Creating Layer scale_conv3_3b
I0420 18:45:31.422608 11276 net.cpp:425] scale_conv3_3b <- conv3_3b
I0420 18:45:31.422616 11276 net.cpp:386] scale_conv3_3b -> conv3_3b (in-place)
I0420 18:45:31.422675 11276 layer_factory.hpp:77] Creating layer scale_conv3_3b
I0420 18:45:31.422826 11276 net.cpp:141] Setting up scale_conv3_3b
I0420 18:45:31.422835 11276 net.cpp:148] Top shape: 100 32 16 16 (819200)
I0420 18:45:31.422840 11276 net.cpp:156] Memory required for data: 302695600
I0420 18:45:31.422848 11276 layer_factory.hpp:77] Creating layer conv3_3
I0420 18:45:31.422857 11276 net.cpp:91] Creating Layer conv3_3
I0420 18:45:31.422863 11276 net.cpp:425] conv3_3 <- conv3_3b
I0420 18:45:31.422870 11276 net.cpp:425] conv3_3 <- conv2_sub
I0420 18:45:31.422878 11276 net.cpp:399] conv3_3 -> conv3_3
I0420 18:45:31.422905 11276 net.cpp:141] Setting up conv3_3
I0420 18:45:31.422914 11276 net.cpp:148] Top shape: 100 32 16 16 (819200)
I0420 18:45:31.422919 11276 net.cpp:156] Memory required for data: 305972400
I0420 18:45:31.422924 11276 layer_factory.hpp:77] Creating layer conv3_3_relu
I0420 18:45:31.422935 11276 net.cpp:91] Creating Layer conv3_3_relu
I0420 18:45:31.422940 11276 net.cpp:425] conv3_3_relu <- conv3_3
I0420 18:45:31.422946 11276 net.cpp:386] conv3_3_relu -> conv3_3 (in-place)
I0420 18:45:31.423281 11276 net.cpp:141] Setting up conv3_3_relu
I0420 18:45:31.423297 11276 net.cpp:148] Top shape: 100 32 16 16 (819200)
I0420 18:45:31.423302 11276 net.cpp:156] Memory required for data: 309249200
I0420 18:45:31.423308 11276 layer_factory.hpp:77] Creating layer conv3_3_conv3_3_relu_0_split
I0420 18:45:31.423318 11276 net.cpp:91] Creating Layer conv3_3_conv3_3_relu_0_split
I0420 18:45:31.423324 11276 net.cpp:425] conv3_3_conv3_3_relu_0_split <- conv3_3
I0420 18:45:31.423331 11276 net.cpp:399] conv3_3_conv3_3_relu_0_split -> conv3_3_conv3_3_relu_0_split_0
I0420 18:45:31.423343 11276 net.cpp:399] conv3_3_conv3_3_relu_0_split -> conv3_3_conv3_3_relu_0_split_1
I0420 18:45:31.423399 11276 net.cpp:141] Setting up conv3_3_conv3_3_relu_0_split
I0420 18:45:31.423408 11276 net.cpp:148] Top shape: 100 32 16 16 (819200)
I0420 18:45:31.423419 11276 net.cpp:148] Top shape: 100 32 16 16 (819200)
I0420 18:45:31.423424 11276 net.cpp:156] Memory required for data: 315802800
I0420 18:45:31.423430 11276 layer_factory.hpp:77] Creating layer conv3_sub
I0420 18:45:31.423444 11276 net.cpp:91] Creating Layer conv3_sub
I0420 18:45:31.423450 11276 net.cpp:425] conv3_sub <- conv3_3_conv3_3_relu_0_split_0
I0420 18:45:31.423460 11276 net.cpp:399] conv3_sub -> conv3_sub
I0420 18:45:31.424674 11276 net.cpp:141] Setting up conv3_sub
I0420 18:45:31.424696 11276 net.cpp:148] Top shape: 100 64 8 8 (409600)
I0420 18:45:31.424702 11276 net.cpp:156] Memory required for data: 317441200
I0420 18:45:31.424711 11276 layer_factory.hpp:77] Creating layer bn_conv3_sub
I0420 18:45:31.424721 11276 net.cpp:91] Creating Layer bn_conv3_sub
I0420 18:45:31.424727 11276 net.cpp:425] bn_conv3_sub <- conv3_sub
I0420 18:45:31.424738 11276 net.cpp:386] bn_conv3_sub -> conv3_sub (in-place)
I0420 18:45:31.425009 11276 net.cpp:141] Setting up bn_conv3_sub
I0420 18:45:31.425019 11276 net.cpp:148] Top shape: 100 64 8 8 (409600)
I0420 18:45:31.425024 11276 net.cpp:156] Memory required for data: 319079600
I0420 18:45:31.425034 11276 layer_factory.hpp:77] Creating layer scale_conv3_sub
I0420 18:45:31.425048 11276 net.cpp:91] Creating Layer scale_conv3_sub
I0420 18:45:31.425055 11276 net.cpp:425] scale_conv3_sub <- conv3_sub
I0420 18:45:31.425061 11276 net.cpp:386] scale_conv3_sub -> conv3_sub (in-place)
I0420 18:45:31.425133 11276 layer_factory.hpp:77] Creating layer scale_conv3_sub
I0420 18:45:31.425295 11276 net.cpp:141] Setting up scale_conv3_sub
I0420 18:45:31.425305 11276 net.cpp:148] Top shape: 100 64 8 8 (409600)
I0420 18:45:31.425310 11276 net.cpp:156] Memory required for data: 320718000
I0420 18:45:31.425319 11276 layer_factory.hpp:77] Creating layer conv4_1a
I0420 18:45:31.425333 11276 net.cpp:91] Creating Layer conv4_1a
I0420 18:45:31.425339 11276 net.cpp:425] conv4_1a <- conv3_3_conv3_3_relu_0_split_1
I0420 18:45:31.425348 11276 net.cpp:399] conv4_1a -> conv4_1a
I0420 18:45:31.426766 11276 net.cpp:141] Setting up conv4_1a
I0420 18:45:31.426784 11276 net.cpp:148] Top shape: 100 64 8 8 (409600)
I0420 18:45:31.426789 11276 net.cpp:156] Memory required for data: 322356400
I0420 18:45:31.426798 11276 layer_factory.hpp:77] Creating layer bn_conv4_1a
I0420 18:45:31.426810 11276 net.cpp:91] Creating Layer bn_conv4_1a
I0420 18:45:31.426815 11276 net.cpp:425] bn_conv4_1a <- conv4_1a
I0420 18:45:31.426826 11276 net.cpp:386] bn_conv4_1a -> conv4_1a (in-place)
I0420 18:45:31.427091 11276 net.cpp:141] Setting up bn_conv4_1a
I0420 18:45:31.427101 11276 net.cpp:148] Top shape: 100 64 8 8 (409600)
I0420 18:45:31.427106 11276 net.cpp:156] Memory required for data: 323994800
I0420 18:45:31.427116 11276 layer_factory.hpp:77] Creating layer scale_conv4_1a
I0420 18:45:31.427127 11276 net.cpp:91] Creating Layer scale_conv4_1a
I0420 18:45:31.427134 11276 net.cpp:425] scale_conv4_1a <- conv4_1a
I0420 18:45:31.427140 11276 net.cpp:386] scale_conv4_1a -> conv4_1a (in-place)
I0420 18:45:31.427196 11276 layer_factory.hpp:77] Creating layer scale_conv4_1a
I0420 18:45:31.427357 11276 net.cpp:141] Setting up scale_conv4_1a
I0420 18:45:31.427367 11276 net.cpp:148] Top shape: 100 64 8 8 (409600)
I0420 18:45:31.427371 11276 net.cpp:156] Memory required for data: 325633200
I0420 18:45:31.427381 11276 layer_factory.hpp:77] Creating layer conv4_1a_relu
I0420 18:45:31.427387 11276 net.cpp:91] Creating Layer conv4_1a_relu
I0420 18:45:31.427392 11276 net.cpp:425] conv4_1a_relu <- conv4_1a
I0420 18:45:31.427402 11276 net.cpp:386] conv4_1a_relu -> conv4_1a (in-place)
I0420 18:45:31.427743 11276 net.cpp:141] Setting up conv4_1a_relu
I0420 18:45:31.427759 11276 net.cpp:148] Top shape: 100 64 8 8 (409600)
I0420 18:45:31.427764 11276 net.cpp:156] Memory required for data: 327271600
I0420 18:45:31.427770 11276 layer_factory.hpp:77] Creating layer conv4_1b
I0420 18:45:31.427793 11276 net.cpp:91] Creating Layer conv4_1b
I0420 18:45:31.427799 11276 net.cpp:425] conv4_1b <- conv4_1a
I0420 18:45:31.427810 11276 net.cpp:399] conv4_1b -> conv4_1b
I0420 18:45:31.430258 11276 net.cpp:141] Setting up conv4_1b
I0420 18:45:31.430276 11276 net.cpp:148] Top shape: 100 64 8 8 (409600)
I0420 18:45:31.430282 11276 net.cpp:156] Memory required for data: 328910000
I0420 18:45:31.430291 11276 layer_factory.hpp:77] Creating layer bn_conv4_1b
I0420 18:45:31.430304 11276 net.cpp:91] Creating Layer bn_conv4_1b
I0420 18:45:31.430310 11276 net.cpp:425] bn_conv4_1b <- conv4_1b
I0420 18:45:31.430316 11276 net.cpp:386] bn_conv4_1b -> conv4_1b (in-place)
I0420 18:45:31.430588 11276 net.cpp:141] Setting up bn_conv4_1b
I0420 18:45:31.430599 11276 net.cpp:148] Top shape: 100 64 8 8 (409600)
I0420 18:45:31.430604 11276 net.cpp:156] Memory required for data: 330548400
I0420 18:45:31.430613 11276 layer_factory.hpp:77] Creating layer scale_conv4_1b
I0420 18:45:31.430622 11276 net.cpp:91] Creating Layer scale_conv4_1b
I0420 18:45:31.430629 11276 net.cpp:425] scale_conv4_1b <- conv4_1b
I0420 18:45:31.430635 11276 net.cpp:386] scale_conv4_1b -> conv4_1b (in-place)
I0420 18:45:31.430694 11276 layer_factory.hpp:77] Creating layer scale_conv4_1b
I0420 18:45:31.430850 11276 net.cpp:141] Setting up scale_conv4_1b
I0420 18:45:31.430860 11276 net.cpp:148] Top shape: 100 64 8 8 (409600)
I0420 18:45:31.430866 11276 net.cpp:156] Memory required for data: 332186800
I0420 18:45:31.430873 11276 layer_factory.hpp:77] Creating layer conv4_1_relu
I0420 18:45:31.430886 11276 net.cpp:91] Creating Layer conv4_1_relu
I0420 18:45:31.430891 11276 net.cpp:425] conv4_1_relu <- conv4_1b
I0420 18:45:31.430898 11276 net.cpp:386] conv4_1_relu -> conv4_1b (in-place)
I0420 18:45:31.431233 11276 net.cpp:141] Setting up conv4_1_relu
I0420 18:45:31.431252 11276 net.cpp:148] Top shape: 100 64 8 8 (409600)
I0420 18:45:31.431257 11276 net.cpp:156] Memory required for data: 333825200
I0420 18:45:31.431262 11276 layer_factory.hpp:77] Creating layer conv4_2a
I0420 18:45:31.431277 11276 net.cpp:91] Creating Layer conv4_2a
I0420 18:45:31.431284 11276 net.cpp:425] conv4_2a <- conv4_1b
I0420 18:45:31.431293 11276 net.cpp:399] conv4_2a -> conv4_2a
I0420 18:45:31.433847 11276 net.cpp:141] Setting up conv4_2a
I0420 18:45:31.433866 11276 net.cpp:148] Top shape: 100 64 8 8 (409600)
I0420 18:45:31.433871 11276 net.cpp:156] Memory required for data: 335463600
I0420 18:45:31.433881 11276 layer_factory.hpp:77] Creating layer bn_conv4_2a
I0420 18:45:31.433892 11276 net.cpp:91] Creating Layer bn_conv4_2a
I0420 18:45:31.433899 11276 net.cpp:425] bn_conv4_2a <- conv4_2a
I0420 18:45:31.433909 11276 net.cpp:386] bn_conv4_2a -> conv4_2a (in-place)
I0420 18:45:31.434176 11276 net.cpp:141] Setting up bn_conv4_2a
I0420 18:45:31.434186 11276 net.cpp:148] Top shape: 100 64 8 8 (409600)
I0420 18:45:31.434191 11276 net.cpp:156] Memory required for data: 337102000
I0420 18:45:31.434201 11276 layer_factory.hpp:77] Creating layer scale_conv4_2a
I0420 18:45:31.434212 11276 net.cpp:91] Creating Layer scale_conv4_2a
I0420 18:45:31.434218 11276 net.cpp:425] scale_conv4_2a <- conv4_2a
I0420 18:45:31.434226 11276 net.cpp:386] scale_conv4_2a -> conv4_2a (in-place)
I0420 18:45:31.434283 11276 layer_factory.hpp:77] Creating layer scale_conv4_2a
I0420 18:45:31.434442 11276 net.cpp:141] Setting up scale_conv4_2a
I0420 18:45:31.434451 11276 net.cpp:148] Top shape: 100 64 8 8 (409600)
I0420 18:45:31.434455 11276 net.cpp:156] Memory required for data: 338740400
I0420 18:45:31.434464 11276 layer_factory.hpp:77] Creating layer conv4_2a_relu
I0420 18:45:31.434471 11276 net.cpp:91] Creating Layer conv4_2a_relu
I0420 18:45:31.434478 11276 net.cpp:425] conv4_2a_relu <- conv4_2a
I0420 18:45:31.434486 11276 net.cpp:386] conv4_2a_relu -> conv4_2a (in-place)
I0420 18:45:31.434701 11276 net.cpp:141] Setting up conv4_2a_relu
I0420 18:45:31.434715 11276 net.cpp:148] Top shape: 100 64 8 8 (409600)
I0420 18:45:31.434720 11276 net.cpp:156] Memory required for data: 340378800
I0420 18:45:31.434725 11276 layer_factory.hpp:77] Creating layer conv4_2b
I0420 18:45:31.434741 11276 net.cpp:91] Creating Layer conv4_2b
I0420 18:45:31.434747 11276 net.cpp:425] conv4_2b <- conv4_2a
I0420 18:45:31.434761 11276 net.cpp:399] conv4_2b -> conv4_2b
I0420 18:45:31.437850 11276 net.cpp:141] Setting up conv4_2b
I0420 18:45:31.437870 11276 net.cpp:148] Top shape: 100 64 8 8 (409600)
I0420 18:45:31.437875 11276 net.cpp:156] Memory required for data: 342017200
I0420 18:45:31.437885 11276 layer_factory.hpp:77] Creating layer bn_conv4_2b
I0420 18:45:31.437896 11276 net.cpp:91] Creating Layer bn_conv4_2b
I0420 18:45:31.437902 11276 net.cpp:425] bn_conv4_2b <- conv4_2b
I0420 18:45:31.437912 11276 net.cpp:386] bn_conv4_2b -> conv4_2b (in-place)
I0420 18:45:31.438184 11276 net.cpp:141] Setting up bn_conv4_2b
I0420 18:45:31.438194 11276 net.cpp:148] Top shape: 100 64 8 8 (409600)
I0420 18:45:31.438199 11276 net.cpp:156] Memory required for data: 343655600
I0420 18:45:31.438230 11276 layer_factory.hpp:77] Creating layer scale_conv4_2b
I0420 18:45:31.438246 11276 net.cpp:91] Creating Layer scale_conv4_2b
I0420 18:45:31.438251 11276 net.cpp:425] scale_conv4_2b <- conv4_2b
I0420 18:45:31.438258 11276 net.cpp:386] scale_conv4_2b -> conv4_2b (in-place)
I0420 18:45:31.438318 11276 layer_factory.hpp:77] Creating layer scale_conv4_2b
I0420 18:45:31.438480 11276 net.cpp:141] Setting up scale_conv4_2b
I0420 18:45:31.438490 11276 net.cpp:148] Top shape: 100 64 8 8 (409600)
I0420 18:45:31.438495 11276 net.cpp:156] Memory required for data: 345294000
I0420 18:45:31.438503 11276 layer_factory.hpp:77] Creating layer conv4_2_relu
I0420 18:45:31.438513 11276 net.cpp:91] Creating Layer conv4_2_relu
I0420 18:45:31.438519 11276 net.cpp:425] conv4_2_relu <- conv4_2b
I0420 18:45:31.438525 11276 net.cpp:386] conv4_2_relu -> conv4_2b (in-place)
I0420 18:45:31.438868 11276 net.cpp:141] Setting up conv4_2_relu
I0420 18:45:31.438884 11276 net.cpp:148] Top shape: 100 64 8 8 (409600)
I0420 18:45:31.438889 11276 net.cpp:156] Memory required for data: 346932400
I0420 18:45:31.438895 11276 layer_factory.hpp:77] Creating layer conv4_3a
I0420 18:45:31.438911 11276 net.cpp:91] Creating Layer conv4_3a
I0420 18:45:31.438918 11276 net.cpp:425] conv4_3a <- conv4_2b
I0420 18:45:31.438926 11276 net.cpp:399] conv4_3a -> conv4_3a
I0420 18:45:31.441360 11276 net.cpp:141] Setting up conv4_3a
I0420 18:45:31.441378 11276 net.cpp:148] Top shape: 100 64 8 8 (409600)
I0420 18:45:31.441385 11276 net.cpp:156] Memory required for data: 348570800
I0420 18:45:31.441393 11276 layer_factory.hpp:77] Creating layer bn_conv4_3a
I0420 18:45:31.441406 11276 net.cpp:91] Creating Layer bn_conv4_3a
I0420 18:45:31.441411 11276 net.cpp:425] bn_conv4_3a <- conv4_3a
I0420 18:45:31.441421 11276 net.cpp:386] bn_conv4_3a -> conv4_3a (in-place)
I0420 18:45:31.441692 11276 net.cpp:141] Setting up bn_conv4_3a
I0420 18:45:31.441704 11276 net.cpp:148] Top shape: 100 64 8 8 (409600)
I0420 18:45:31.441709 11276 net.cpp:156] Memory required for data: 350209200
I0420 18:45:31.441718 11276 layer_factory.hpp:77] Creating layer scale_conv4_3a
I0420 18:45:31.441730 11276 net.cpp:91] Creating Layer scale_conv4_3a
I0420 18:45:31.441735 11276 net.cpp:425] scale_conv4_3a <- conv4_3a
I0420 18:45:31.441742 11276 net.cpp:386] scale_conv4_3a -> conv4_3a (in-place)
I0420 18:45:31.441800 11276 layer_factory.hpp:77] Creating layer scale_conv4_3a
I0420 18:45:31.441965 11276 net.cpp:141] Setting up scale_conv4_3a
I0420 18:45:31.441975 11276 net.cpp:148] Top shape: 100 64 8 8 (409600)
I0420 18:45:31.441980 11276 net.cpp:156] Memory required for data: 351847600
I0420 18:45:31.441989 11276 layer_factory.hpp:77] Creating layer conv4_3a_relu
I0420 18:45:31.441998 11276 net.cpp:91] Creating Layer conv4_3a_relu
I0420 18:45:31.442003 11276 net.cpp:425] conv4_3a_relu <- conv4_3a
I0420 18:45:31.442011 11276 net.cpp:386] conv4_3a_relu -> conv4_3a (in-place)
I0420 18:45:31.442347 11276 net.cpp:141] Setting up conv4_3a_relu
I0420 18:45:31.442363 11276 net.cpp:148] Top shape: 100 64 8 8 (409600)
I0420 18:45:31.442368 11276 net.cpp:156] Memory required for data: 353486000
I0420 18:45:31.442373 11276 layer_factory.hpp:77] Creating layer conv4_3b
I0420 18:45:31.442389 11276 net.cpp:91] Creating Layer conv4_3b
I0420 18:45:31.442394 11276 net.cpp:425] conv4_3b <- conv4_3a
I0420 18:45:31.442410 11276 net.cpp:399] conv4_3b -> conv4_3b
I0420 18:45:31.444964 11276 net.cpp:141] Setting up conv4_3b
I0420 18:45:31.444983 11276 net.cpp:148] Top shape: 100 64 8 8 (409600)
I0420 18:45:31.444988 11276 net.cpp:156] Memory required for data: 355124400
I0420 18:45:31.444998 11276 layer_factory.hpp:77] Creating layer bn_conv4_3b
I0420 18:45:31.445009 11276 net.cpp:91] Creating Layer bn_conv4_3b
I0420 18:45:31.445015 11276 net.cpp:425] bn_conv4_3b <- conv4_3b
I0420 18:45:31.445024 11276 net.cpp:386] bn_conv4_3b -> conv4_3b (in-place)
I0420 18:45:31.445332 11276 net.cpp:141] Setting up bn_conv4_3b
I0420 18:45:31.445345 11276 net.cpp:148] Top shape: 100 64 8 8 (409600)
I0420 18:45:31.445350 11276 net.cpp:156] Memory required for data: 356762800
I0420 18:45:31.445360 11276 layer_factory.hpp:77] Creating layer scale_conv4_3b
I0420 18:45:31.445371 11276 net.cpp:91] Creating Layer scale_conv4_3b
I0420 18:45:31.445377 11276 net.cpp:425] scale_conv4_3b <- conv4_3b
I0420 18:45:31.445385 11276 net.cpp:386] scale_conv4_3b -> conv4_3b (in-place)
I0420 18:45:31.445446 11276 layer_factory.hpp:77] Creating layer scale_conv4_3b
I0420 18:45:31.445606 11276 net.cpp:141] Setting up scale_conv4_3b
I0420 18:45:31.445616 11276 net.cpp:148] Top shape: 100 64 8 8 (409600)
I0420 18:45:31.445621 11276 net.cpp:156] Memory required for data: 358401200
I0420 18:45:31.445629 11276 layer_factory.hpp:77] Creating layer conv4_3
I0420 18:45:31.445637 11276 net.cpp:91] Creating Layer conv4_3
I0420 18:45:31.445642 11276 net.cpp:425] conv4_3 <- conv3_sub
I0420 18:45:31.445652 11276 net.cpp:425] conv4_3 <- conv4_3b
I0420 18:45:31.445658 11276 net.cpp:399] conv4_3 -> conv4_3
I0420 18:45:31.445693 11276 net.cpp:141] Setting up conv4_3
I0420 18:45:31.445703 11276 net.cpp:148] Top shape: 100 64 8 8 (409600)
I0420 18:45:31.445708 11276 net.cpp:156] Memory required for data: 360039600
I0420 18:45:31.445713 11276 layer_factory.hpp:77] Creating layer conv4_3_relu
I0420 18:45:31.445722 11276 net.cpp:91] Creating Layer conv4_3_relu
I0420 18:45:31.445727 11276 net.cpp:425] conv4_3_relu <- conv4_3
I0420 18:45:31.445734 11276 net.cpp:386] conv4_3_relu -> conv4_3 (in-place)
I0420 18:45:31.445955 11276 net.cpp:141] Setting up conv4_3_relu
I0420 18:45:31.445968 11276 net.cpp:148] Top shape: 100 64 8 8 (409600)
I0420 18:45:31.445974 11276 net.cpp:156] Memory required for data: 361678000
I0420 18:45:31.445979 11276 layer_factory.hpp:77] Creating layer global_pool
I0420 18:45:31.445991 11276 net.cpp:91] Creating Layer global_pool
I0420 18:45:31.445996 11276 net.cpp:425] global_pool <- conv4_3
I0420 18:45:31.446003 11276 net.cpp:399] global_pool -> global_pool
I0420 18:45:31.446367 11276 net.cpp:141] Setting up global_pool
I0420 18:45:31.446385 11276 net.cpp:148] Top shape: 100 64 1 1 (6400)
I0420 18:45:31.446391 11276 net.cpp:156] Memory required for data: 361703600
I0420 18:45:31.446398 11276 layer_factory.hpp:77] Creating layer ip
I0420 18:45:31.446406 11276 net.cpp:91] Creating Layer ip
I0420 18:45:31.446413 11276 net.cpp:425] ip <- global_pool
I0420 18:45:31.446419 11276 net.cpp:399] ip -> ip
I0420 18:45:31.446578 11276 net.cpp:141] Setting up ip
I0420 18:45:31.446589 11276 net.cpp:148] Top shape: 100 10 (1000)
I0420 18:45:31.446594 11276 net.cpp:156] Memory required for data: 361707600
I0420 18:45:31.446602 11276 layer_factory.hpp:77] Creating layer ip_ip_0_split
I0420 18:45:31.446610 11276 net.cpp:91] Creating Layer ip_ip_0_split
I0420 18:45:31.446615 11276 net.cpp:425] ip_ip_0_split <- ip
I0420 18:45:31.446624 11276 net.cpp:399] ip_ip_0_split -> ip_ip_0_split_0
I0420 18:45:31.446633 11276 net.cpp:399] ip_ip_0_split -> ip_ip_0_split_1
I0420 18:45:31.446686 11276 net.cpp:141] Setting up ip_ip_0_split
I0420 18:45:31.446698 11276 net.cpp:148] Top shape: 100 10 (1000)
I0420 18:45:31.446704 11276 net.cpp:148] Top shape: 100 10 (1000)
I0420 18:45:31.446709 11276 net.cpp:156] Memory required for data: 361715600
I0420 18:45:31.446714 11276 layer_factory.hpp:77] Creating layer accuracy
I0420 18:45:31.446722 11276 net.cpp:91] Creating Layer accuracy
I0420 18:45:31.446732 11276 net.cpp:425] accuracy <- ip_ip_0_split_0
I0420 18:45:31.446738 11276 net.cpp:425] accuracy <- label_cifar_1_split_0
I0420 18:45:31.446748 11276 net.cpp:399] accuracy -> accuracy
…
