…
I0413 14:13:54.738699 14838 solver.cpp:91] Creating training net from net file: prototxt/ResNet-cifar.prototxt
I0413 14:13:54.741139 14838 net.cpp:313] The NetState phase (0) differed from the phase (1) specified by a rule in layer cifar
I0413 14:13:54.741770 14838 net.cpp:49] Initializing net from parameters: 
name: "ResNet-cifar"
state {
  phase: TRAIN
}
layer {
  name: "cifar"
  type: "Data"
  top: "data"
  top: "label"
  include {
    phase: TRAIN
  }
  transform_param {
    mean_file: "data/cifar10/mean.binaryproto"
  }
  data_param {
    source: "data/cifar10/cifar10_train_lmdb"
    batch_size: 256
    backend: LMDB
  }
}
layer {
  name: "conv1"
  type: "Convolution"
  bottom: "data"
  top: "conv1"
  param {
    lr_mult: 1
  }
  param {
    lr_mult: 2
  }
  convolution_param {
    num_output: 16
    pad: 1
    kernel_size: 3
    weight_filler {
      type: "msra"
    }
    bias_filler {
      type: "constant"
    }
  }
}
layer {
  name: "bn_conv1"
  type: "BatchNorm"
  bottom: "conv1"
  top: "conv1"
  param {
    lr_mult: 0
  }
  param {
    lr_mult: 0
  }
  param {
    lr_mult: 0
  }
}
layer {
  name: "scale_conv1"
  type: "Scale"
  bottom: "conv1"
  top: "conv1"
  scale_param {
    bias_term: true
  }
}
layer {
  name: "conv1_relu"
  type: "ReLU"
  bottom: "conv1"
  top: "conv1"
}
layer {
  name: "conv2_1a"
  type: "Convolution"
  bottom: "conv1"
  top: "conv2_1a"
  param {
    lr_mult: 1
  }
  param {
    lr_mult: 2
  }
  convolution_param {
    num_output: 16
    pad: 1
    kernel_size: 3
    stride: 1
    weight_filler {
      type: "msra"
    }
    bias_filler {
      type: "constant"
      value: 0
    }
  }
}
layer {
  name: "bn_conv2_1a"
  type: "BatchNorm"
  bottom: "conv2_1a"
  top: "conv2_1a"
  param {
    lr_mult: 0
  }
  param {
    lr_mult: 0
  }
  param {
    lr_mult: 0
  }
}
layer {
  name: "scale_conv2_1a"
  type: "Scale"
  bottom: "conv2_1a"
  top: "conv2_1a"
  scale_param {
    bias_term: true
  }
}
layer {
  name: "conv2_1a_relu"
  type: "ReLU"
  bottom: "conv2_1a"
  top: "conv2_1a"
}
layer {
  name: "conv2_1a_sum"
  type: "Eltwise"
  bottom: "conv2_1a"
  bottom: "conv1"
  top: "conv2_1a_sum"
}
layer {
  name: "conv2_1b"
  type: "Convolution"
  bottom: "conv2_1a_sum"
  top: "conv2_1b"
  param {
    lr_mult: 1
  }
  param {
    lr_mult: 2
  }
  convolution_param {
    num_output: 16
    pad: 1
    kernel_size: 3
    stride: 1
    weight_filler {
      type: "msra"
    }
    bias_filler {
      type: "constant"
      value: 0
    }
  }
}
layer {
  name: "bn_conv2_1b"
  type: "BatchNorm"
  bottom: "conv2_1b"
  top: "conv2_1b"
  param {
    lr_mult: 0
  }
  param {
    lr_mult: 0
  }
  param {
    lr_mult: 0
  }
}
layer {
  name: "scale_conv2_1b"
  type: "Scale"
  bottom: "conv2_1b"
  top: "conv2_1b"
  scale_param {
    bias_term: true
  }
}
layer {
  name: "conv2_1_relu"
  type: "ReLU"
  bottom: "conv2_1b"
  top: "conv2_1b"
}
layer {
  name: "conv2_1"
  type: "Eltwise"
  bottom: "conv2_1b"
  bottom: "conv2_1a_sum"
  top: "conv2_1"
}
layer {
  name: "conv2_2a"
  type: "Convolution"
  bottom: "conv2_1"
  top: "conv2_2a"
  param {
    lr_mult: 1
  }
  param {
    lr_mult: 2
  }
  convolution_param {
    num_output: 16
    pad: 1
    kernel_size: 3
    stride: 1
    weight_filler {
      type: "msra"
    }
    bias_filler {
      type: "constant"
      value: 0
    }
  }
}
layer {
  name: "bn_conv2_2a"
  type: "BatchNorm"
  bottom: "conv2_2a"
  top: "conv2_2a"
  param {
    lr_mult: 0
  }
  param {
    lr_mult: 0
  }
  param {
    lr_mult: 0
  }
}
layer {
  name: "scale_conv2_2a"
  type: "Scale"
  bottom: "conv2_2a"
  top: "conv2_2a"
  scale_param {
    bias_term: true
  }
}
layer {
  name: "conv2_2a_relu"
  type: "ReLU"
  bottom: "conv2_2a"
  top: "conv2_2a"
}
layer {
  name: "conv2_2a_sum"
  type: "Eltwise"
  bottom: "conv2_1"
  bottom: "conv2_2a"
  top: "conv2_2a_sum"
}
layer {
  name: "conv2_2b"
  type: "Convolution"
  bottom: "conv2_2a_sum"
  top: "conv2_2b"
  param {
    lr_mult: 1
  }
  param {
    lr_mult: 2
  }
  convolution_param {
    num_output: 16
    pad: 1
    kernel_size: 3
    stride: 1
    weight_filler {
      type: "msra"
    }
    bias_filler {
      type: "constant"
      value: 0
    }
  }
}
layer {
  name: "bn_conv2_2b"
  type: "BatchNorm"
  bottom: "conv2_2b"
  top: "conv2_2b"
  param {
    lr_mult: 0
  }
  param {
    lr_mult: 0
  }
  param {
    lr_mult: 0
  }
}
layer {
  name: "scale_conv2_2b"
  type: "Scale"
  bottom: "conv2_2b"
  top: "conv2_2b"
  scale_param {
    bias_term: true
  }
}
layer {
  name: "conv2_2_relu"
  type: "ReLU"
  bottom: "conv2_2b"
  top: "conv2_2b"
}
layer {
  name: "conv2_2"
  type: "Eltwise"
  bottom: "conv2_2b"
  bottom: "conv2_2a_sum"
  top: "conv2_2"
}
layer {
  name: "conv2_3a"
  type: "Convolution"
  bottom: "conv2_2"
  top: "conv2_3a"
  param {
    lr_mult: 1
  }
  param {
    lr_mult: 2
  }
  convolution_param {
    num_output: 16
    pad: 1
    kernel_size: 3
    stride: 1
    weight_filler {
      type: "msra"
    }
    bias_filler {
      type: "constant"
      value: 0
    }
  }
}
layer {
  name: "bn_conv2_3a"
  type: "BatchNorm"
  bottom: "conv2_3a"
  top: "conv2_3a"
  param {
    lr_mult: 0
  }
  param {
    lr_mult: 0
  }
  param {
    lr_mult: 0
  }
}
layer {
  name: "scale_conv2_3a"
  type: "Scale"
  bottom: "conv2_3a"
  top: "conv2_3a"
  scale_param {
    bias_term: true
  }
}
layer {
  name: "conv2_3a_relu"
  type: "ReLU"
  bottom: "conv2_3a"
  top: "conv2_3a"
}
layer {
  name: "conv2_3a_sum"
  type: "Eltwise"
  bottom: "conv2_2"
  bottom: "conv2_3a"
  top: "conv2_3a_sum"
}
layer {
  name: "conv2_3b"
  type: "Convolution"
  bottom: "conv2_3a_sum"
  top: "conv2_3b"
  param {
    lr_mult: 1
  }
  param {
    lr_mult: 2
  }
  convolution_param {
    num_output: 16
    pad: 1
    kernel_size: 3
    stride: 1
    weight_filler {
      type: "msra"
    }
    bias_filler {
      type: "constant"
      value: 0
    }
  }
}
layer {
  name: "bn_conv2_3b"
  type: "BatchNorm"
  bottom: "conv2_3b"
  top: "conv2_3b"
  param {
    lr_mult: 0
  }
  param {
    lr_mult: 0
  }
  param {
    lr_mult: 0
  }
}
layer {
  name: "scale_conv2_3b"
  type: "Scale"
  bottom: "conv2_3b"
  top: "conv2_3b"
  scale_param {
    bias_term: true
  }
}
layer {
  name: "conv2_3_relu"
  type: "ReLU"
  bottom: "conv2_3b"
  top: "conv2_3b"
}
layer {
  name: "conv2_3"
  type: "Eltwise"
  bottom: "conv2_3a_sum"
  bottom: "conv2_3b"
  top: "conv2_3"
}
layer {
  name: "conv2_sub"
  type: "Convolution"
  bottom: "conv2_3"
  top: "conv2_sub"
  param {
    lr_mult: 1
  }
  param {
    lr_mult: 2
  }
  convolution_param {
    num_output: 32
    kernel_size: 1
    stride: 2
    weight_filler {
      type: "msra"
    }
    bias_filler {
      type: "constant"
      value: 0
    }
  }
}
layer {
  name: "bn_conv2_sub"
  type: "BatchNorm"
  bottom: "conv2_sub"
  top: "conv2_sub"
  param {
    lr_mult: 0
  }
  param {
    lr_mult: 0
  }
  param {
    lr_mult: 0
  }
}
layer {
  name: "scale_conv2_sub"
  type: "Scale"
  bottom: "conv2_sub"
  top: "conv2_sub"
  scale_param {
    bias_term: true
  }
}
layer {
  name: "conv3_1a"
  type: "Convolution"
  bottom: "conv2_3"
  top: "conv3_1a"
  param {
    lr_mult: 1
  }
  param {
    lr_mult: 2
  }
  convolution_param {
    num_output: 32
    pad: 0
    kernel_size: 1
    stride: 2
    weight_filler {
      type: "msra"
    }
    bias_filler {
      type: "constant"
      value: 0
    }
  }
}
layer {
  name: "bn_conv3_1a"
  type: "BatchNorm"
  bottom: "conv3_1a"
  top: "conv3_1a"
  param {
    lr_mult: 0
  }
  param {
    lr_mult: 0
  }
  param {
    lr_mult: 0
  }
}
layer {
  name: "scale_conv3_1a"
  type: "Scale"
  bottom: "conv3_1a"
  top: "conv3_1a"
  scale_param {
    bias_term: true
  }
}
layer {
  name: "conv3_1a_relu"
  type: "ReLU"
  bottom: "conv3_1a"
  top: "conv3_1a"
}
layer {
  name: "conv3_1a_sum"
  type: "Eltwise"
  bottom: "conv3_1a"
  bottom: "conv2_sub"
  top: "conv3_1a_sum"
}
layer {
  name: "conv3_1b"
  type: "Convolution"
  bottom: "conv3_1a_sum"
  top: "conv3_1b"
  param {
    lr_mult: 1
  }
  param {
    lr_mult: 2
  }
  convolution_param {
    num_output: 32
    pad: 1
    kernel_size: 3
    stride: 1
    weight_filler {
      type: "msra"
    }
    bias_filler {
      type: "constant"
      value: 0
    }
  }
}
layer {
  name: "bn_conv3_1b"
  type: "BatchNorm"
  bottom: "conv3_1b"
  top: "conv3_1b"
  param {
    lr_mult: 0
  }
  param {
    lr_mult: 0
  }
  param {
    lr_mult: 0
  }
}
layer {
  name: "scale_conv3_1b"
  type: "Scale"
  bottom: "conv3_1b"
  top: "conv3_1b"
  scale_param {
    bias_term: true
  }
}
layer {
  name: "conv3_1_relu"
  type: "ReLU"
  bottom: "conv3_1b"
  top: "conv3_1b"
}
layer {
  name: "conv3_1"
  type: "Eltwise"
  bottom: "conv3_1a_sum"
  bottom: "conv3_1b"
  top: "conv3_1"
}
layer {
  name: "conv3_2a"
  type: "Convolution"
  bottom: "conv3_1"
  top: "conv3_2a"
  param {
    lr_mult: 1
  }
  param {
    lr_mult: 2
  }
  convolution_param {
    num_output: 32
    pad: 1
    kernel_size: 3
    stride: 1
    weight_filler {
      type: "msra"
    }
    bias_filler {
      type: "constant"
      value: 0
    }
  }
}
layer {
  name: "bn_conv3_2a"
  type: "BatchNorm"
  bottom: "conv3_2a"
  top: "conv3_2a"
  param {
    lr_mult: 0
  }
  param {
    lr_mult: 0
  }
  param {
    lr_mult: 0
  }
}
layer {
  name: "scale_conv3_2a"
  type: "Scale"
  bottom: "conv3_2a"
  top: "conv3_2a"
  scale_param {
    bias_term: true
  }
}
layer {
  name: "conv3_2a_relu"
  type: "ReLU"
  bottom: "conv3_2a"
  top: "conv3_2a"
}
layer {
  name: "conv3_2a_sum"
  type: "Eltwise"
  bottom: "conv3_1"
  bottom: "conv3_2a"
  top: "conv3_2a_sum"
}
layer {
  name: "conv3_2b"
  type: "Convolution"
  bottom: "conv3_2a_sum"
  top: "conv3_2b"
  param {
    lr_mult: 1
  }
  param {
    lr_mult: 2
  }
  convolution_param {
    num_output: 32
    pad: 1
    kernel_size: 3
    stride: 1
    weight_filler {
      type: "msra"
    }
    bias_filler {
      type: "constant"
      value: 0
    }
  }
}
layer {
  name: "bn_conv3_2b"
  type: "BatchNorm"
  bottom: "conv3_2b"
  top: "conv3_2b"
  param {
    lr_mult: 0
  }
  param {
    lr_mult: 0
  }
  param {
    lr_mult: 0
  }
}
layer {
  name: "scale_conv3_2b"
  type: "Scale"
  bottom: "conv3_2b"
  top: "conv3_2b"
  scale_param {
    bias_term: true
  }
}
layer {
  name: "conv3_2_relu"
  type: "ReLU"
  bottom: "conv3_2b"
  top: "conv3_2b"
}
layer {
  name: "conv3_2"
  type: "Eltwise"
  bottom: "conv3_2a_sum"
  bottom: "conv3_2b"
  top: "conv3_2"
}
layer {
  name: "conv3_3a"
  type: "Convolution"
  bottom: "conv3_2"
  top: "conv3_3a"
  param {
    lr_mult: 1
  }
  param {
    lr_mult: 2
  }
  convolution_param {
    num_output: 32
    pad: 1
    kernel_size: 3
    stride: 1
    weight_filler {
      type: "msra"
    }
    bias_filler {
      type: "constant"
      value: 0
    }
  }
}
layer {
  name: "bn_conv3_3a"
  type: "BatchNorm"
  bottom: "conv3_3a"
  top: "conv3_3a"
  param {
    lr_mult: 0
  }
  param {
    lr_mult: 0
  }
  param {
    lr_mult: 0
  }
}
layer {
  name: "scale_conv3_3a"
  type: "Scale"
  bottom: "conv3_3a"
  top: "conv3_3a"
  scale_param {
    bias_term: true
  }
}
layer {
  name: "conv3_3a_relu"
  type: "ReLU"
  bottom: "conv3_3a"
  top: "conv3_3a"
}
layer {
  name: "conv3_3a_sum"
  type: "Eltwise"
  bottom: "conv3_2"
  bottom: "conv3_3a"
  top: "conv3_3a_sum"
}
layer {
  name: "conv3_3b"
  type: "Convolution"
  bottom: "conv3_3a_sum"
  top: "conv3_3b"
  param {
    lr_mult: 1
  }
  param {
    lr_mult: 2
  }
  convolution_param {
    num_output: 32
    pad: 1
    kernel_size: 3
    stride: 1
    weight_filler {
      type: "msra"
    }
    bias_filler {
      type: "constant"
      value: 0
    }
  }
}
layer {
  name: "bn_conv3_3b"
  type: "BatchNorm"
  bottom: "conv3_3b"
  top: "conv3_3b"
  param {
    lr_mult: 0
  }
  param {
    lr_mult: 0
  }
  param {
    lr_mult: 0
  }
}
layer {
  name: "scale_conv3_3b"
  type: "Scale"
  bottom: "conv3_3b"
  top: "conv3_3b"
  scale_param {
    bias_term: true
  }
}
layer {
  name: "conv3_3_relu"
  type: "ReLU"
  bottom: "conv3_3b"
  top: "conv3_3b"
}
layer {
  name: "conv3_3"
  type: "Eltwise"
  bottom: "conv3_3b"
  bottom: "conv3_3a_sum"
  top: "conv3_3"
}
layer {
  name: "conv3_sub"
  type: "Convolution"
  bottom: "conv3_3"
  top: "conv3_sub"
  param {
    lr_mult: 1
  }
  param {
    lr_mult: 2
  }
  convolution_param {
    num_output: 64
    kernel_size: 1
    stride: 2
    weight_filler {
      type: "msra"
    }
    bias_filler {
      type: "constant"
      value: 0
    }
  }
}
layer {
  name: "bn_conv3_sub"
  type: "BatchNorm"
  bottom: "conv3_sub"
  top: "conv3_sub"
  param {
    lr_mult: 0
  }
  param {
    lr_mult: 0
  }
  param {
    lr_mult: 0
  }
}
layer {
  name: "scale_conv3_sub"
  type: "Scale"
  bottom: "conv3_sub"
  top: "conv3_sub"
  scale_param {
    bias_term: true
  }
}
layer {
  name: "conv4_1a"
  type: "Convolution"
  bottom: "conv3_3"
  top: "conv4_1a"
  param {
    lr_mult: 1
  }
  param {
    lr_mult: 2
  }
  convolution_param {
    num_output: 64
    pad: 0
    kernel_size: 1
    stride: 2
    weight_filler {
      type: "msra"
    }
    bias_filler {
      type: "constant"
      value: 0
    }
  }
}
layer {
  name: "bn_conv4_1a"
  type: "BatchNorm"
  bottom: "conv4_1a"
  top: "conv4_1a"
  param {
    lr_mult: 0
  }
  param {
    lr_mult: 0
  }
  param {
    lr_mult: 0
  }
}
layer {
  name: "scale_conv4_1a"
  type: "Scale"
  bottom: "conv4_1a"
  top: "conv4_1a"
  scale_param {
    bias_term: true
  }
}
layer {
  name: "conv4_1a_relu"
  type: "ReLU"
  bottom: "conv4_1a"
  top: "conv4_1a"
}
layer {
  name: "conv4_1a_sum"
  type: "Eltwise"
  bottom: "conv3_sub"
  bottom: "conv4_1a"
  top: "conv4_1a_sum"
}
layer {
  name: "conv4_1b"
  type: "Convolution"
  bottom: "conv4_1a_sum"
  top: "conv4_1b"
  param {
    lr_mult: 1
  }
  param {
    lr_mult: 2
  }
  convolution_param {
    num_output: 64
    pad: 1
    kernel_size: 3
    stride: 1
    weight_filler {
      type: "msra"
    }
    bias_filler {
      type: "constant"
      value: 0
    }
  }
}
layer {
  name: "bn_conv4_1b"
  type: "BatchNorm"
  bottom: "conv4_1b"
  top: "conv4_1b"
  param {
    lr_mult: 0
  }
  param {
    lr_mult: 0
  }
  param {
    lr_mult: 0
  }
}
layer {
  name: "scale_conv4_1b"
  type: "Scale"
  bottom: "conv4_1b"
  top: "conv4_1b"
  scale_param {
    bias_term: true
  }
}
layer {
  name: "conv4_1_relu"
  type: "ReLU"
  bottom: "conv4_1b"
  top: "conv4_1b"
}
layer {
  name: "conv4_1"
  type: "Eltwise"
  bottom: "conv4_1a_sum"
  bottom: "conv4_1b"
  top: "conv4_1"
}
layer {
  name: "conv4_2a"
  type: "Convolution"
  bottom: "conv4_1"
  top: "conv4_2a"
  param {
    lr_mult: 1
  }
  param {
    lr_mult: 2
  }
  convolution_param {
    num_output: 64
    pad: 1
    kernel_size: 3
    stride: 1
    weight_filler {
      type: "msra"
    }
    bias_filler {
      type: "constant"
      value: 0
    }
  }
}
layer {
  name: "bn_conv4_2a"
  type: "BatchNorm"
  bottom: "conv4_2a"
  top: "conv4_2a"
  param {
    lr_mult: 0
  }
  param {
    lr_mult: 0
  }
  param {
    lr_mult: 0
  }
}
layer {
  name: "scale_conv4_2a"
  type: "Scale"
  bottom: "conv4_2a"
  top: "conv4_2a"
  scale_param {
    bias_term: true
  }
}
layer {
  name: "conv4_2a_relu"
  type: "ReLU"
  bottom: "conv4_2a"
  top: "conv4_2a"
}
layer {
  name: "conv4_2a_sum"
  type: "Eltwise"
  bottom: "conv4_1"
  bottom: "conv4_2a"
  top: "conv4_2a_sum"
}
layer {
  name: "conv4_2b"
  type: "Convolution"
  bottom: "conv4_2a_sum"
  top: "conv4_2b"
  param {
    lr_mult: 1
  }
  param {
    lr_mult: 2
  }
  convolution_param {
    num_output: 64
    pad: 1
    kernel_size: 3
    stride: 1
    weight_filler {
      type: "msra"
    }
    bias_filler {
      type: "constant"
      value: 0
    }
  }
}
layer {
  name: "bn_conv4_2b"
  type: "BatchNorm"
  bottom: "conv4_2b"
  top: "conv4_2b"
  param {
    lr_mult: 0
  }
  param {
    lr_mult: 0
  }
  param {
    lr_mult: 0
  }
}
layer {
  name: "scale_conv4_2b"
  type: "Scale"
  bottom: "conv4_2b"
  top: "conv4_2b"
  scale_param {
    bias_term: true
  }
}
layer {
  name: "conv4_2_relu"
  type: "ReLU"
  bottom: "conv4_2b"
  top: "conv4_2b"
}
layer {
  name: "conv4_2"
  type: "Eltwise"
  bottom: "conv4_2a_sum"
  bottom: "conv4_2b"
  top: "conv4_2"
}
layer {
  name: "conv4_3a"
  type: "Convolution"
  bottom: "conv4_2"
  top: "conv4_3a"
  param {
    lr_mult: 1
  }
  param {
    lr_mult: 2
  }
  convolution_param {
    num_output: 64
    pad: 1
    kernel_size: 3
    stride: 1
    weight_filler {
      type: "msra"
    }
    bias_filler {
      type: "constant"
      value: 0
    }
  }
}
layer {
  name: "bn_conv4_3a"
  type: "BatchNorm"
  bottom: "conv4_3a"
  top: "conv4_3a"
  param {
    lr_mult: 0
  }
  param {
    lr_mult: 0
  }
  param {
    lr_mult: 0
  }
}
layer {
  name: "scale_conv4_3a"
  type: "Scale"
  bottom: "conv4_3a"
  top: "conv4_3a"
  scale_param {
    bias_term: true
  }
}
layer {
  name: "conv4_3a_relu"
  type: "ReLU"
  bottom: "conv4_3a"
  top: "conv4_3a"
}
layer {
  name: "conv4_3a_sum"
  type: "Eltwise"
  bottom: "conv4_2"
  bottom: "conv4_3a"
  top: "conv4_3a_sum"
}
layer {
  name: "conv4_3b"
  type: "Convolution"
  bottom: "conv4_3a_sum"
  top: "conv4_3b"
  param {
    lr_mult: 1
  }
  param {
    lr_mult: 2
  }
  convolution_param {
    num_output: 64
    pad: 1
    kernel_size: 3
    stride: 1
    weight_filler {
      type: "msra"
    }
    bias_filler {
      type: "constant"
      value: 0
    }
  }
}
layer {
  name: "bn_conv4_3b"
  type: "BatchNorm"
  bottom: "conv4_3b"
  top: "conv4_3b"
  param {
    lr_mult: 0
  }
  param {
    lr_mult: 0
  }
  param {
    lr_mult: 0
  }
}
layer {
  name: "scale_conv4_3b"
  type: "Scale"
  bottom: "conv4_3b"
  top: "conv4_3b"
  scale_param {
    bias_term: true
  }
}
layer {
  name: "conv4_3_relu"
  type: "ReLU"
  bottom: "conv4_3b"
  top: "conv4_3b"
}
layer {
  name: "conv4_3"
  type: "Eltwise"
  bottom: "conv4_3a_sum"
  bottom: "conv4_3b"
  top: "conv4_3"
}
layer {
  name: "global_pool"
  type: "Pooling"
  bottom: "conv4_3"
  top: "global_pool"
  pooling_param {
    pool: AVE
    kernel_size: 8
    stride: 8
  }
}
layer {
  name: "ip"
  type: "InnerProduct"
  bottom: "global_pool"
  top: "ip"
  inner_product_param {
    num_output: 10
  }
}
layer {
  name: "accuracy"
  type: "Accuracy"
  bottom: "ip"
  bottom: "label"
  top: "accuracy"
}
layer {
  name: "loss"
  type: "SoftmaxWithLoss"
  bottom: "ip"
  bottom: "label"
  top: "loss"
}
I0413 14:13:54.742352 14838 layer_factory.hpp:77] Creating layer cifar
I0413 14:13:54.743026 14838 net.cpp:91] Creating Layer cifar
I0413 14:13:54.743044 14838 net.cpp:399] cifar -> data
I0413 14:13:54.743060 14838 net.cpp:399] cifar -> label
I0413 14:13:54.743075 14838 data_transformer.cpp:25] Loading mean file from: data/cifar10/mean.binaryproto
I0413 14:13:54.746572 14909 db_lmdb.cpp:38] Opened lmdb data/cifar10/cifar10_train_lmdb
I0413 14:13:54.756003 14838 data_layer.cpp:41] output data size: 256,3,32,32
I0413 14:13:54.762533 14838 net.cpp:141] Setting up cifar
I0413 14:13:54.762570 14838 net.cpp:148] Top shape: 256 3 32 32 (786432)
I0413 14:13:54.762579 14838 net.cpp:148] Top shape: 256 (256)
I0413 14:13:54.762584 14838 net.cpp:156] Memory required for data: 3146752
I0413 14:13:54.762603 14838 layer_factory.hpp:77] Creating layer label_cifar_1_split
I0413 14:13:54.762629 14838 net.cpp:91] Creating Layer label_cifar_1_split
I0413 14:13:54.762637 14838 net.cpp:425] label_cifar_1_split <- label
I0413 14:13:54.762648 14838 net.cpp:399] label_cifar_1_split -> label_cifar_1_split_0
I0413 14:13:54.762666 14838 net.cpp:399] label_cifar_1_split -> label_cifar_1_split_1
I0413 14:13:54.762784 14838 net.cpp:141] Setting up label_cifar_1_split
I0413 14:13:54.762796 14838 net.cpp:148] Top shape: 256 (256)
I0413 14:13:54.762804 14838 net.cpp:148] Top shape: 256 (256)
I0413 14:13:54.762809 14838 net.cpp:156] Memory required for data: 3148800
I0413 14:13:54.762814 14838 layer_factory.hpp:77] Creating layer conv1
I0413 14:13:54.762842 14838 net.cpp:91] Creating Layer conv1
I0413 14:13:54.762850 14838 net.cpp:425] conv1 <- data
I0413 14:13:54.762858 14838 net.cpp:399] conv1 -> conv1
I0413 14:13:55.009758 14838 net.cpp:141] Setting up conv1
I0413 14:13:55.009816 14838 net.cpp:148] Top shape: 256 16 32 32 (4194304)
I0413 14:13:55.009824 14838 net.cpp:156] Memory required for data: 19926016
I0413 14:13:55.009850 14838 layer_factory.hpp:77] Creating layer bn_conv1
I0413 14:13:55.009870 14838 net.cpp:91] Creating Layer bn_conv1
I0413 14:13:55.009877 14838 net.cpp:425] bn_conv1 <- conv1
I0413 14:13:55.009887 14838 net.cpp:386] bn_conv1 -> conv1 (in-place)
I0413 14:13:55.010090 14838 net.cpp:141] Setting up bn_conv1
I0413 14:13:55.010100 14838 net.cpp:148] Top shape: 256 16 32 32 (4194304)
I0413 14:13:55.010107 14838 net.cpp:156] Memory required for data: 36703232
I0413 14:13:55.010121 14838 layer_factory.hpp:77] Creating layer scale_conv1
I0413 14:13:55.010135 14838 net.cpp:91] Creating Layer scale_conv1
I0413 14:13:55.010143 14838 net.cpp:425] scale_conv1 <- conv1
I0413 14:13:55.010150 14838 net.cpp:386] scale_conv1 -> conv1 (in-place)
I0413 14:13:55.010193 14838 layer_factory.hpp:77] Creating layer scale_conv1
I0413 14:13:55.010315 14838 net.cpp:141] Setting up scale_conv1
I0413 14:13:55.010326 14838 net.cpp:148] Top shape: 256 16 32 32 (4194304)
I0413 14:13:55.010331 14838 net.cpp:156] Memory required for data: 53480448
I0413 14:13:55.010341 14838 layer_factory.hpp:77] Creating layer conv1_relu
I0413 14:13:55.010351 14838 net.cpp:91] Creating Layer conv1_relu
I0413 14:13:55.010357 14838 net.cpp:425] conv1_relu <- conv1
I0413 14:13:55.010365 14838 net.cpp:386] conv1_relu -> conv1 (in-place)
I0413 14:13:55.010665 14838 net.cpp:141] Setting up conv1_relu
I0413 14:13:55.010684 14838 net.cpp:148] Top shape: 256 16 32 32 (4194304)
I0413 14:13:55.010689 14838 net.cpp:156] Memory required for data: 70257664
I0413 14:13:55.010696 14838 layer_factory.hpp:77] Creating layer conv1_conv1_relu_0_split
I0413 14:13:55.010706 14838 net.cpp:91] Creating Layer conv1_conv1_relu_0_split
I0413 14:13:55.010712 14838 net.cpp:425] conv1_conv1_relu_0_split <- conv1
I0413 14:13:55.010720 14838 net.cpp:399] conv1_conv1_relu_0_split -> conv1_conv1_relu_0_split_0
I0413 14:13:55.010731 14838 net.cpp:399] conv1_conv1_relu_0_split -> conv1_conv1_relu_0_split_1
I0413 14:13:55.010776 14838 net.cpp:141] Setting up conv1_conv1_relu_0_split
I0413 14:13:55.010785 14838 net.cpp:148] Top shape: 256 16 32 32 (4194304)
I0413 14:13:55.010792 14838 net.cpp:148] Top shape: 256 16 32 32 (4194304)
I0413 14:13:55.010797 14838 net.cpp:156] Memory required for data: 103812096
I0413 14:13:55.010803 14838 layer_factory.hpp:77] Creating layer conv2_1a
I0413 14:13:55.010819 14838 net.cpp:91] Creating Layer conv2_1a
I0413 14:13:55.010825 14838 net.cpp:425] conv2_1a <- conv1_conv1_relu_0_split_0
I0413 14:13:55.010834 14838 net.cpp:399] conv2_1a -> conv2_1a
I0413 14:13:55.011773 14838 net.cpp:141] Setting up conv2_1a
I0413 14:13:55.011792 14838 net.cpp:148] Top shape: 256 16 32 32 (4194304)
I0413 14:13:55.011800 14838 net.cpp:156] Memory required for data: 120589312
I0413 14:13:55.011813 14838 layer_factory.hpp:77] Creating layer bn_conv2_1a
I0413 14:13:55.011826 14838 net.cpp:91] Creating Layer bn_conv2_1a
I0413 14:13:55.011831 14838 net.cpp:425] bn_conv2_1a <- conv2_1a
I0413 14:13:55.011849 14838 net.cpp:386] bn_conv2_1a -> conv2_1a (in-place)
I0413 14:13:55.012035 14838 net.cpp:141] Setting up bn_conv2_1a
I0413 14:13:55.012047 14838 net.cpp:148] Top shape: 256 16 32 32 (4194304)
I0413 14:13:55.012053 14838 net.cpp:156] Memory required for data: 137366528
I0413 14:13:55.012063 14838 layer_factory.hpp:77] Creating layer scale_conv2_1a
I0413 14:13:55.012071 14838 net.cpp:91] Creating Layer scale_conv2_1a
I0413 14:13:55.012078 14838 net.cpp:425] scale_conv2_1a <- conv2_1a
I0413 14:13:55.012085 14838 net.cpp:386] scale_conv2_1a -> conv2_1a (in-place)
I0413 14:13:55.012122 14838 layer_factory.hpp:77] Creating layer scale_conv2_1a
I0413 14:13:55.012228 14838 net.cpp:141] Setting up scale_conv2_1a
I0413 14:13:55.012238 14838 net.cpp:148] Top shape: 256 16 32 32 (4194304)
I0413 14:13:55.012244 14838 net.cpp:156] Memory required for data: 154143744
I0413 14:13:55.012253 14838 layer_factory.hpp:77] Creating layer conv2_1a_relu
I0413 14:13:55.012261 14838 net.cpp:91] Creating Layer conv2_1a_relu
I0413 14:13:55.012267 14838 net.cpp:425] conv2_1a_relu <- conv2_1a
I0413 14:13:55.012274 14838 net.cpp:386] conv2_1a_relu -> conv2_1a (in-place)
I0413 14:13:55.012568 14838 net.cpp:141] Setting up conv2_1a_relu
I0413 14:13:55.012586 14838 net.cpp:148] Top shape: 256 16 32 32 (4194304)
I0413 14:13:55.012593 14838 net.cpp:156] Memory required for data: 170920960
I0413 14:13:55.012598 14838 layer_factory.hpp:77] Creating layer conv2_1a_sum
I0413 14:13:55.012608 14838 net.cpp:91] Creating Layer conv2_1a_sum
I0413 14:13:55.012614 14838 net.cpp:425] conv2_1a_sum <- conv2_1a
I0413 14:13:55.012620 14838 net.cpp:425] conv2_1a_sum <- conv1_conv1_relu_0_split_1
I0413 14:13:55.012629 14838 net.cpp:399] conv2_1a_sum -> conv2_1a_sum
I0413 14:13:55.012671 14838 net.cpp:141] Setting up conv2_1a_sum
I0413 14:13:55.012681 14838 net.cpp:148] Top shape: 256 16 32 32 (4194304)
I0413 14:13:55.012686 14838 net.cpp:156] Memory required for data: 187698176
I0413 14:13:55.012692 14838 layer_factory.hpp:77] Creating layer conv2_1a_sum_conv2_1a_sum_0_split
I0413 14:13:55.012701 14838 net.cpp:91] Creating Layer conv2_1a_sum_conv2_1a_sum_0_split
I0413 14:13:55.012706 14838 net.cpp:425] conv2_1a_sum_conv2_1a_sum_0_split <- conv2_1a_sum
I0413 14:13:55.012713 14838 net.cpp:399] conv2_1a_sum_conv2_1a_sum_0_split -> conv2_1a_sum_conv2_1a_sum_0_split_0
I0413 14:13:55.012722 14838 net.cpp:399] conv2_1a_sum_conv2_1a_sum_0_split -> conv2_1a_sum_conv2_1a_sum_0_split_1
I0413 14:13:55.012759 14838 net.cpp:141] Setting up conv2_1a_sum_conv2_1a_sum_0_split
I0413 14:13:55.012768 14838 net.cpp:148] Top shape: 256 16 32 32 (4194304)
I0413 14:13:55.012774 14838 net.cpp:148] Top shape: 256 16 32 32 (4194304)
I0413 14:13:55.012779 14838 net.cpp:156] Memory required for data: 221252608
I0413 14:13:55.012785 14838 layer_factory.hpp:77] Creating layer conv2_1b
I0413 14:13:55.012797 14838 net.cpp:91] Creating Layer conv2_1b
I0413 14:13:55.012804 14838 net.cpp:425] conv2_1b <- conv2_1a_sum_conv2_1a_sum_0_split_0
I0413 14:13:55.012812 14838 net.cpp:399] conv2_1b -> conv2_1b
I0413 14:13:55.013864 14838 net.cpp:141] Setting up conv2_1b
I0413 14:13:55.013885 14838 net.cpp:148] Top shape: 256 16 32 32 (4194304)
I0413 14:13:55.013891 14838 net.cpp:156] Memory required for data: 238029824
I0413 14:13:55.013901 14838 layer_factory.hpp:77] Creating layer bn_conv2_1b
I0413 14:13:55.013912 14838 net.cpp:91] Creating Layer bn_conv2_1b
I0413 14:13:55.013918 14838 net.cpp:425] bn_conv2_1b <- conv2_1b
I0413 14:13:55.013927 14838 net.cpp:386] bn_conv2_1b -> conv2_1b (in-place)
I0413 14:13:55.014113 14838 net.cpp:141] Setting up bn_conv2_1b
I0413 14:13:55.014124 14838 net.cpp:148] Top shape: 256 16 32 32 (4194304)
I0413 14:13:55.014130 14838 net.cpp:156] Memory required for data: 254807040
I0413 14:13:55.014144 14838 layer_factory.hpp:77] Creating layer scale_conv2_1b
I0413 14:13:55.014154 14838 net.cpp:91] Creating Layer scale_conv2_1b
I0413 14:13:55.014160 14838 net.cpp:425] scale_conv2_1b <- conv2_1b
I0413 14:13:55.014168 14838 net.cpp:386] scale_conv2_1b -> conv2_1b (in-place)
I0413 14:13:55.014214 14838 layer_factory.hpp:77] Creating layer scale_conv2_1b
I0413 14:13:55.014327 14838 net.cpp:141] Setting up scale_conv2_1b
I0413 14:13:55.014336 14838 net.cpp:148] Top shape: 256 16 32 32 (4194304)
I0413 14:13:55.014343 14838 net.cpp:156] Memory required for data: 271584256
I0413 14:13:55.014351 14838 layer_factory.hpp:77] Creating layer conv2_1_relu
I0413 14:13:55.014361 14838 net.cpp:91] Creating Layer conv2_1_relu
I0413 14:13:55.014366 14838 net.cpp:425] conv2_1_relu <- conv2_1b
I0413 14:13:55.014374 14838 net.cpp:386] conv2_1_relu -> conv2_1b (in-place)
I0413 14:13:55.014557 14838 net.cpp:141] Setting up conv2_1_relu
I0413 14:13:55.014571 14838 net.cpp:148] Top shape: 256 16 32 32 (4194304)
I0413 14:13:55.014576 14838 net.cpp:156] Memory required for data: 288361472
I0413 14:13:55.014582 14838 layer_factory.hpp:77] Creating layer conv2_1
I0413 14:13:55.014591 14838 net.cpp:91] Creating Layer conv2_1
I0413 14:13:55.014597 14838 net.cpp:425] conv2_1 <- conv2_1b
I0413 14:13:55.014605 14838 net.cpp:425] conv2_1 <- conv2_1a_sum_conv2_1a_sum_0_split_1
I0413 14:13:55.014611 14838 net.cpp:399] conv2_1 -> conv2_1
I0413 14:13:55.014643 14838 net.cpp:141] Setting up conv2_1
I0413 14:13:55.014652 14838 net.cpp:148] Top shape: 256 16 32 32 (4194304)
I0413 14:13:55.014658 14838 net.cpp:156] Memory required for data: 305138688
I0413 14:13:55.014663 14838 layer_factory.hpp:77] Creating layer conv2_1_conv2_1_0_split
I0413 14:13:55.014672 14838 net.cpp:91] Creating Layer conv2_1_conv2_1_0_split
I0413 14:13:55.014678 14838 net.cpp:425] conv2_1_conv2_1_0_split <- conv2_1
I0413 14:13:55.014684 14838 net.cpp:399] conv2_1_conv2_1_0_split -> conv2_1_conv2_1_0_split_0
I0413 14:13:55.014693 14838 net.cpp:399] conv2_1_conv2_1_0_split -> conv2_1_conv2_1_0_split_1
I0413 14:13:55.014730 14838 net.cpp:141] Setting up conv2_1_conv2_1_0_split
I0413 14:13:55.014739 14838 net.cpp:148] Top shape: 256 16 32 32 (4194304)
I0413 14:13:55.014745 14838 net.cpp:148] Top shape: 256 16 32 32 (4194304)
I0413 14:13:55.014750 14838 net.cpp:156] Memory required for data: 338693120
I0413 14:13:55.014756 14838 layer_factory.hpp:77] Creating layer conv2_2a
I0413 14:13:55.014768 14838 net.cpp:91] Creating Layer conv2_2a
I0413 14:13:55.014775 14838 net.cpp:425] conv2_2a <- conv2_1_conv2_1_0_split_0
I0413 14:13:55.014783 14838 net.cpp:399] conv2_2a -> conv2_2a
I0413 14:13:55.015880 14838 net.cpp:141] Setting up conv2_2a
I0413 14:13:55.015900 14838 net.cpp:148] Top shape: 256 16 32 32 (4194304)
I0413 14:13:55.015907 14838 net.cpp:156] Memory required for data: 355470336
I0413 14:13:55.015918 14838 layer_factory.hpp:77] Creating layer bn_conv2_2a
I0413 14:13:55.015928 14838 net.cpp:91] Creating Layer bn_conv2_2a
I0413 14:13:55.015934 14838 net.cpp:425] bn_conv2_2a <- conv2_2a
I0413 14:13:55.015943 14838 net.cpp:386] bn_conv2_2a -> conv2_2a (in-place)
I0413 14:13:55.016134 14838 net.cpp:141] Setting up bn_conv2_2a
I0413 14:13:55.016144 14838 net.cpp:148] Top shape: 256 16 32 32 (4194304)
I0413 14:13:55.016150 14838 net.cpp:156] Memory required for data: 372247552
I0413 14:13:55.016160 14838 layer_factory.hpp:77] Creating layer scale_conv2_2a
I0413 14:13:55.016170 14838 net.cpp:91] Creating Layer scale_conv2_2a
I0413 14:13:55.016175 14838 net.cpp:425] scale_conv2_2a <- conv2_2a
I0413 14:13:55.016182 14838 net.cpp:386] scale_conv2_2a -> conv2_2a (in-place)
I0413 14:13:55.016221 14838 layer_factory.hpp:77] Creating layer scale_conv2_2a
I0413 14:13:55.016329 14838 net.cpp:141] Setting up scale_conv2_2a
I0413 14:13:55.016338 14838 net.cpp:148] Top shape: 256 16 32 32 (4194304)
I0413 14:13:55.016345 14838 net.cpp:156] Memory required for data: 389024768
I0413 14:13:55.016353 14838 layer_factory.hpp:77] Creating layer conv2_2a_relu
I0413 14:13:55.016361 14838 net.cpp:91] Creating Layer conv2_2a_relu
I0413 14:13:55.016367 14838 net.cpp:425] conv2_2a_relu <- conv2_2a
I0413 14:13:55.016374 14838 net.cpp:386] conv2_2a_relu -> conv2_2a (in-place)
I0413 14:13:55.016674 14838 net.cpp:141] Setting up conv2_2a_relu
I0413 14:13:55.016691 14838 net.cpp:148] Top shape: 256 16 32 32 (4194304)
I0413 14:13:55.016703 14838 net.cpp:156] Memory required for data: 405801984
I0413 14:13:55.016710 14838 layer_factory.hpp:77] Creating layer conv2_2a_sum
I0413 14:13:55.016719 14838 net.cpp:91] Creating Layer conv2_2a_sum
I0413 14:13:55.016726 14838 net.cpp:425] conv2_2a_sum <- conv2_1_conv2_1_0_split_1
I0413 14:13:55.016733 14838 net.cpp:425] conv2_2a_sum <- conv2_2a
I0413 14:13:55.016741 14838 net.cpp:399] conv2_2a_sum -> conv2_2a_sum
I0413 14:13:55.016777 14838 net.cpp:141] Setting up conv2_2a_sum
I0413 14:13:55.016787 14838 net.cpp:148] Top shape: 256 16 32 32 (4194304)
I0413 14:13:55.016793 14838 net.cpp:156] Memory required for data: 422579200
I0413 14:13:55.016798 14838 layer_factory.hpp:77] Creating layer conv2_2a_sum_conv2_2a_sum_0_split
I0413 14:13:55.016805 14838 net.cpp:91] Creating Layer conv2_2a_sum_conv2_2a_sum_0_split
I0413 14:13:55.016811 14838 net.cpp:425] conv2_2a_sum_conv2_2a_sum_0_split <- conv2_2a_sum
I0413 14:13:55.016819 14838 net.cpp:399] conv2_2a_sum_conv2_2a_sum_0_split -> conv2_2a_sum_conv2_2a_sum_0_split_0
I0413 14:13:55.016829 14838 net.cpp:399] conv2_2a_sum_conv2_2a_sum_0_split -> conv2_2a_sum_conv2_2a_sum_0_split_1
I0413 14:13:55.016865 14838 net.cpp:141] Setting up conv2_2a_sum_conv2_2a_sum_0_split
I0413 14:13:55.016875 14838 net.cpp:148] Top shape: 256 16 32 32 (4194304)
I0413 14:13:55.016881 14838 net.cpp:148] Top shape: 256 16 32 32 (4194304)
I0413 14:13:55.016886 14838 net.cpp:156] Memory required for data: 456133632
I0413 14:13:55.016891 14838 layer_factory.hpp:77] Creating layer conv2_2b
I0413 14:13:55.016904 14838 net.cpp:91] Creating Layer conv2_2b
I0413 14:13:55.016911 14838 net.cpp:425] conv2_2b <- conv2_2a_sum_conv2_2a_sum_0_split_0
I0413 14:13:55.016919 14838 net.cpp:399] conv2_2b -> conv2_2b
I0413 14:13:55.017904 14838 net.cpp:141] Setting up conv2_2b
I0413 14:13:55.017923 14838 net.cpp:148] Top shape: 256 16 32 32 (4194304)
I0413 14:13:55.017930 14838 net.cpp:156] Memory required for data: 472910848
I0413 14:13:55.017940 14838 layer_factory.hpp:77] Creating layer bn_conv2_2b
I0413 14:13:55.017951 14838 net.cpp:91] Creating Layer bn_conv2_2b
I0413 14:13:55.017956 14838 net.cpp:425] bn_conv2_2b <- conv2_2b
I0413 14:13:55.017964 14838 net.cpp:386] bn_conv2_2b -> conv2_2b (in-place)
I0413 14:13:55.018159 14838 net.cpp:141] Setting up bn_conv2_2b
I0413 14:13:55.018169 14838 net.cpp:148] Top shape: 256 16 32 32 (4194304)
I0413 14:13:55.018175 14838 net.cpp:156] Memory required for data: 489688064
I0413 14:13:55.018190 14838 layer_factory.hpp:77] Creating layer scale_conv2_2b
I0413 14:13:55.018200 14838 net.cpp:91] Creating Layer scale_conv2_2b
I0413 14:13:55.018206 14838 net.cpp:425] scale_conv2_2b <- conv2_2b
I0413 14:13:55.018213 14838 net.cpp:386] scale_conv2_2b -> conv2_2b (in-place)
I0413 14:13:55.018252 14838 layer_factory.hpp:77] Creating layer scale_conv2_2b
I0413 14:13:55.018363 14838 net.cpp:141] Setting up scale_conv2_2b
I0413 14:13:55.018373 14838 net.cpp:148] Top shape: 256 16 32 32 (4194304)
I0413 14:13:55.018379 14838 net.cpp:156] Memory required for data: 506465280
I0413 14:13:55.018388 14838 layer_factory.hpp:77] Creating layer conv2_2_relu
I0413 14:13:55.018396 14838 net.cpp:91] Creating Layer conv2_2_relu
I0413 14:13:55.018401 14838 net.cpp:425] conv2_2_relu <- conv2_2b
I0413 14:13:55.018409 14838 net.cpp:386] conv2_2_relu -> conv2_2b (in-place)
I0413 14:13:55.018707 14838 net.cpp:141] Setting up conv2_2_relu
I0413 14:13:55.018725 14838 net.cpp:148] Top shape: 256 16 32 32 (4194304)
I0413 14:13:55.018731 14838 net.cpp:156] Memory required for data: 523242496
I0413 14:13:55.018738 14838 layer_factory.hpp:77] Creating layer conv2_2
I0413 14:13:55.018748 14838 net.cpp:91] Creating Layer conv2_2
I0413 14:13:55.018754 14838 net.cpp:425] conv2_2 <- conv2_2b
I0413 14:13:55.018760 14838 net.cpp:425] conv2_2 <- conv2_2a_sum_conv2_2a_sum_0_split_1
I0413 14:13:55.018769 14838 net.cpp:399] conv2_2 -> conv2_2
I0413 14:13:55.018801 14838 net.cpp:141] Setting up conv2_2
I0413 14:13:55.018810 14838 net.cpp:148] Top shape: 256 16 32 32 (4194304)
I0413 14:13:55.018822 14838 net.cpp:156] Memory required for data: 540019712
I0413 14:13:55.018828 14838 layer_factory.hpp:77] Creating layer conv2_2_conv2_2_0_split
I0413 14:13:55.018837 14838 net.cpp:91] Creating Layer conv2_2_conv2_2_0_split
I0413 14:13:55.018842 14838 net.cpp:425] conv2_2_conv2_2_0_split <- conv2_2
I0413 14:13:55.018851 14838 net.cpp:399] conv2_2_conv2_2_0_split -> conv2_2_conv2_2_0_split_0
I0413 14:13:55.018860 14838 net.cpp:399] conv2_2_conv2_2_0_split -> conv2_2_conv2_2_0_split_1
I0413 14:13:55.018899 14838 net.cpp:141] Setting up conv2_2_conv2_2_0_split
I0413 14:13:55.018908 14838 net.cpp:148] Top shape: 256 16 32 32 (4194304)
I0413 14:13:55.018915 14838 net.cpp:148] Top shape: 256 16 32 32 (4194304)
I0413 14:13:55.018920 14838 net.cpp:156] Memory required for data: 573574144
I0413 14:13:55.018926 14838 layer_factory.hpp:77] Creating layer conv2_3a
I0413 14:13:55.018939 14838 net.cpp:91] Creating Layer conv2_3a
I0413 14:13:55.018944 14838 net.cpp:425] conv2_3a <- conv2_2_conv2_2_0_split_0
I0413 14:13:55.018954 14838 net.cpp:399] conv2_3a -> conv2_3a
I0413 14:13:55.020169 14838 net.cpp:141] Setting up conv2_3a
I0413 14:13:55.020190 14838 net.cpp:148] Top shape: 256 16 32 32 (4194304)
I0413 14:13:55.020196 14838 net.cpp:156] Memory required for data: 590351360
I0413 14:13:55.020207 14838 layer_factory.hpp:77] Creating layer bn_conv2_3a
I0413 14:13:55.020220 14838 net.cpp:91] Creating Layer bn_conv2_3a
I0413 14:13:55.020226 14838 net.cpp:425] bn_conv2_3a <- conv2_3a
I0413 14:13:55.020236 14838 net.cpp:386] bn_conv2_3a -> conv2_3a (in-place)
I0413 14:13:55.020428 14838 net.cpp:141] Setting up bn_conv2_3a
I0413 14:13:55.020439 14838 net.cpp:148] Top shape: 256 16 32 32 (4194304)
I0413 14:13:55.020444 14838 net.cpp:156] Memory required for data: 607128576
I0413 14:13:55.020455 14838 layer_factory.hpp:77] Creating layer scale_conv2_3a
I0413 14:13:55.020464 14838 net.cpp:91] Creating Layer scale_conv2_3a
I0413 14:13:55.020469 14838 net.cpp:425] scale_conv2_3a <- conv2_3a
I0413 14:13:55.020478 14838 net.cpp:386] scale_conv2_3a -> conv2_3a (in-place)
I0413 14:13:55.020515 14838 layer_factory.hpp:77] Creating layer scale_conv2_3a
I0413 14:13:55.020627 14838 net.cpp:141] Setting up scale_conv2_3a
I0413 14:13:55.020637 14838 net.cpp:148] Top shape: 256 16 32 32 (4194304)
I0413 14:13:55.020642 14838 net.cpp:156] Memory required for data: 623905792
I0413 14:13:55.020651 14838 layer_factory.hpp:77] Creating layer conv2_3a_relu
I0413 14:13:55.020659 14838 net.cpp:91] Creating Layer conv2_3a_relu
I0413 14:13:55.020665 14838 net.cpp:425] conv2_3a_relu <- conv2_3a
I0413 14:13:55.020673 14838 net.cpp:386] conv2_3a_relu -> conv2_3a (in-place)
I0413 14:13:55.020856 14838 net.cpp:141] Setting up conv2_3a_relu
I0413 14:13:55.020870 14838 net.cpp:148] Top shape: 256 16 32 32 (4194304)
I0413 14:13:55.020876 14838 net.cpp:156] Memory required for data: 640683008
I0413 14:13:55.020882 14838 layer_factory.hpp:77] Creating layer conv2_3a_sum
I0413 14:13:55.020890 14838 net.cpp:91] Creating Layer conv2_3a_sum
I0413 14:13:55.020896 14838 net.cpp:425] conv2_3a_sum <- conv2_2_conv2_2_0_split_1
I0413 14:13:55.020903 14838 net.cpp:425] conv2_3a_sum <- conv2_3a
I0413 14:13:55.020911 14838 net.cpp:399] conv2_3a_sum -> conv2_3a_sum
I0413 14:13:55.020942 14838 net.cpp:141] Setting up conv2_3a_sum
I0413 14:13:55.020951 14838 net.cpp:148] Top shape: 256 16 32 32 (4194304)
I0413 14:13:55.020957 14838 net.cpp:156] Memory required for data: 657460224
I0413 14:13:55.020962 14838 layer_factory.hpp:77] Creating layer conv2_3a_sum_conv2_3a_sum_0_split
I0413 14:13:55.020970 14838 net.cpp:91] Creating Layer conv2_3a_sum_conv2_3a_sum_0_split
I0413 14:13:55.020977 14838 net.cpp:425] conv2_3a_sum_conv2_3a_sum_0_split <- conv2_3a_sum
I0413 14:13:55.020983 14838 net.cpp:399] conv2_3a_sum_conv2_3a_sum_0_split -> conv2_3a_sum_conv2_3a_sum_0_split_0
I0413 14:13:55.020992 14838 net.cpp:399] conv2_3a_sum_conv2_3a_sum_0_split -> conv2_3a_sum_conv2_3a_sum_0_split_1
I0413 14:13:55.021031 14838 net.cpp:141] Setting up conv2_3a_sum_conv2_3a_sum_0_split
I0413 14:13:55.021046 14838 net.cpp:148] Top shape: 256 16 32 32 (4194304)
I0413 14:13:55.021054 14838 net.cpp:148] Top shape: 256 16 32 32 (4194304)
I0413 14:13:55.021059 14838 net.cpp:156] Memory required for data: 691014656
I0413 14:13:55.021065 14838 layer_factory.hpp:77] Creating layer conv2_3b
I0413 14:13:55.021078 14838 net.cpp:91] Creating Layer conv2_3b
I0413 14:13:55.021085 14838 net.cpp:425] conv2_3b <- conv2_3a_sum_conv2_3a_sum_0_split_0
I0413 14:13:55.021093 14838 net.cpp:399] conv2_3b -> conv2_3b
I0413 14:13:55.022286 14838 net.cpp:141] Setting up conv2_3b
I0413 14:13:55.022306 14838 net.cpp:148] Top shape: 256 16 32 32 (4194304)
I0413 14:13:55.022313 14838 net.cpp:156] Memory required for data: 707791872
I0413 14:13:55.022323 14838 layer_factory.hpp:77] Creating layer bn_conv2_3b
I0413 14:13:55.022333 14838 net.cpp:91] Creating Layer bn_conv2_3b
I0413 14:13:55.022339 14838 net.cpp:425] bn_conv2_3b <- conv2_3b
I0413 14:13:55.022347 14838 net.cpp:386] bn_conv2_3b -> conv2_3b (in-place)
I0413 14:13:55.022549 14838 net.cpp:141] Setting up bn_conv2_3b
I0413 14:13:55.022559 14838 net.cpp:148] Top shape: 256 16 32 32 (4194304)
I0413 14:13:55.022565 14838 net.cpp:156] Memory required for data: 724569088
I0413 14:13:55.022575 14838 layer_factory.hpp:77] Creating layer scale_conv2_3b
I0413 14:13:55.022584 14838 net.cpp:91] Creating Layer scale_conv2_3b
I0413 14:13:55.022590 14838 net.cpp:425] scale_conv2_3b <- conv2_3b
I0413 14:13:55.022598 14838 net.cpp:386] scale_conv2_3b -> conv2_3b (in-place)
I0413 14:13:55.022637 14838 layer_factory.hpp:77] Creating layer scale_conv2_3b
I0413 14:13:55.022753 14838 net.cpp:141] Setting up scale_conv2_3b
I0413 14:13:55.022763 14838 net.cpp:148] Top shape: 256 16 32 32 (4194304)
I0413 14:13:55.022768 14838 net.cpp:156] Memory required for data: 741346304
I0413 14:13:55.022778 14838 layer_factory.hpp:77] Creating layer conv2_3_relu
I0413 14:13:55.022785 14838 net.cpp:91] Creating Layer conv2_3_relu
I0413 14:13:55.022791 14838 net.cpp:425] conv2_3_relu <- conv2_3b
I0413 14:13:55.022799 14838 net.cpp:386] conv2_3_relu -> conv2_3b (in-place)
I0413 14:13:55.023100 14838 net.cpp:141] Setting up conv2_3_relu
I0413 14:13:55.023118 14838 net.cpp:148] Top shape: 256 16 32 32 (4194304)
I0413 14:13:55.023124 14838 net.cpp:156] Memory required for data: 758123520
I0413 14:13:55.023130 14838 layer_factory.hpp:77] Creating layer conv2_3
I0413 14:13:55.023140 14838 net.cpp:91] Creating Layer conv2_3
I0413 14:13:55.023146 14838 net.cpp:425] conv2_3 <- conv2_3a_sum_conv2_3a_sum_0_split_1
I0413 14:13:55.023154 14838 net.cpp:425] conv2_3 <- conv2_3b
I0413 14:13:55.023161 14838 net.cpp:399] conv2_3 -> conv2_3
I0413 14:13:55.023196 14838 net.cpp:141] Setting up conv2_3
I0413 14:13:55.023205 14838 net.cpp:148] Top shape: 256 16 32 32 (4194304)
I0413 14:13:55.023211 14838 net.cpp:156] Memory required for data: 774900736
I0413 14:13:55.023216 14838 layer_factory.hpp:77] Creating layer conv2_3_conv2_3_0_split
I0413 14:13:55.023224 14838 net.cpp:91] Creating Layer conv2_3_conv2_3_0_split
I0413 14:13:55.023231 14838 net.cpp:425] conv2_3_conv2_3_0_split <- conv2_3
I0413 14:13:55.023238 14838 net.cpp:399] conv2_3_conv2_3_0_split -> conv2_3_conv2_3_0_split_0
I0413 14:13:55.023247 14838 net.cpp:399] conv2_3_conv2_3_0_split -> conv2_3_conv2_3_0_split_1
I0413 14:13:55.023288 14838 net.cpp:141] Setting up conv2_3_conv2_3_0_split
I0413 14:13:55.023296 14838 net.cpp:148] Top shape: 256 16 32 32 (4194304)
I0413 14:13:55.023303 14838 net.cpp:148] Top shape: 256 16 32 32 (4194304)
I0413 14:13:55.023308 14838 net.cpp:156] Memory required for data: 808455168
I0413 14:13:55.023314 14838 layer_factory.hpp:77] Creating layer conv2_sub
I0413 14:13:55.023326 14838 net.cpp:91] Creating Layer conv2_sub
I0413 14:13:55.023332 14838 net.cpp:425] conv2_sub <- conv2_3_conv2_3_0_split_0
I0413 14:13:55.023341 14838 net.cpp:399] conv2_sub -> conv2_sub
I0413 14:13:55.024355 14838 net.cpp:141] Setting up conv2_sub
I0413 14:13:55.024374 14838 net.cpp:148] Top shape: 256 32 16 16 (2097152)
I0413 14:13:55.024380 14838 net.cpp:156] Memory required for data: 816843776
I0413 14:13:55.024397 14838 layer_factory.hpp:77] Creating layer bn_conv2_sub
I0413 14:13:55.024408 14838 net.cpp:91] Creating Layer bn_conv2_sub
I0413 14:13:55.024415 14838 net.cpp:425] bn_conv2_sub <- conv2_sub
I0413 14:13:55.024423 14838 net.cpp:386] bn_conv2_sub -> conv2_sub (in-place)
I0413 14:13:55.024621 14838 net.cpp:141] Setting up bn_conv2_sub
I0413 14:13:55.024632 14838 net.cpp:148] Top shape: 256 32 16 16 (2097152)
I0413 14:13:55.024637 14838 net.cpp:156] Memory required for data: 825232384
I0413 14:13:55.024648 14838 layer_factory.hpp:77] Creating layer scale_conv2_sub
I0413 14:13:55.024657 14838 net.cpp:91] Creating Layer scale_conv2_sub
I0413 14:13:55.024662 14838 net.cpp:425] scale_conv2_sub <- conv2_sub
I0413 14:13:55.024670 14838 net.cpp:386] scale_conv2_sub -> conv2_sub (in-place)
I0413 14:13:55.024709 14838 layer_factory.hpp:77] Creating layer scale_conv2_sub
I0413 14:13:55.024823 14838 net.cpp:141] Setting up scale_conv2_sub
I0413 14:13:55.024833 14838 net.cpp:148] Top shape: 256 32 16 16 (2097152)
I0413 14:13:55.024839 14838 net.cpp:156] Memory required for data: 833620992
I0413 14:13:55.024847 14838 layer_factory.hpp:77] Creating layer conv3_1a
I0413 14:13:55.024860 14838 net.cpp:91] Creating Layer conv3_1a
I0413 14:13:55.024868 14838 net.cpp:425] conv3_1a <- conv2_3_conv2_3_0_split_1
I0413 14:13:55.024876 14838 net.cpp:399] conv3_1a -> conv3_1a
I0413 14:13:55.025893 14838 net.cpp:141] Setting up conv3_1a
I0413 14:13:55.025914 14838 net.cpp:148] Top shape: 256 32 16 16 (2097152)
I0413 14:13:55.025921 14838 net.cpp:156] Memory required for data: 842009600
I0413 14:13:55.025930 14838 layer_factory.hpp:77] Creating layer bn_conv3_1a
I0413 14:13:55.025941 14838 net.cpp:91] Creating Layer bn_conv3_1a
I0413 14:13:55.025948 14838 net.cpp:425] bn_conv3_1a <- conv3_1a
I0413 14:13:55.025955 14838 net.cpp:386] bn_conv3_1a -> conv3_1a (in-place)
I0413 14:13:55.026149 14838 net.cpp:141] Setting up bn_conv3_1a
I0413 14:13:55.026160 14838 net.cpp:148] Top shape: 256 32 16 16 (2097152)
I0413 14:13:55.026165 14838 net.cpp:156] Memory required for data: 850398208
I0413 14:13:55.026175 14838 layer_factory.hpp:77] Creating layer scale_conv3_1a
I0413 14:13:55.026183 14838 net.cpp:91] Creating Layer scale_conv3_1a
I0413 14:13:55.026190 14838 net.cpp:425] scale_conv3_1a <- conv3_1a
I0413 14:13:55.026196 14838 net.cpp:386] scale_conv3_1a -> conv3_1a (in-place)
I0413 14:13:55.026237 14838 layer_factory.hpp:77] Creating layer scale_conv3_1a
I0413 14:13:55.026350 14838 net.cpp:141] Setting up scale_conv3_1a
I0413 14:13:55.026360 14838 net.cpp:148] Top shape: 256 32 16 16 (2097152)
I0413 14:13:55.026365 14838 net.cpp:156] Memory required for data: 858786816
I0413 14:13:55.026374 14838 layer_factory.hpp:77] Creating layer conv3_1a_relu
I0413 14:13:55.026381 14838 net.cpp:91] Creating Layer conv3_1a_relu
I0413 14:13:55.026387 14838 net.cpp:425] conv3_1a_relu <- conv3_1a
I0413 14:13:55.026394 14838 net.cpp:386] conv3_1a_relu -> conv3_1a (in-place)
I0413 14:13:55.026695 14838 net.cpp:141] Setting up conv3_1a_relu
I0413 14:13:55.026712 14838 net.cpp:148] Top shape: 256 32 16 16 (2097152)
I0413 14:13:55.026718 14838 net.cpp:156] Memory required for data: 867175424
I0413 14:13:55.026726 14838 layer_factory.hpp:77] Creating layer conv3_1a_sum
I0413 14:13:55.026734 14838 net.cpp:91] Creating Layer conv3_1a_sum
I0413 14:13:55.026741 14838 net.cpp:425] conv3_1a_sum <- conv3_1a
I0413 14:13:55.026747 14838 net.cpp:425] conv3_1a_sum <- conv2_sub
I0413 14:13:55.026756 14838 net.cpp:399] conv3_1a_sum -> conv3_1a_sum
I0413 14:13:55.026784 14838 net.cpp:141] Setting up conv3_1a_sum
I0413 14:13:55.026793 14838 net.cpp:148] Top shape: 256 32 16 16 (2097152)
I0413 14:13:55.026798 14838 net.cpp:156] Memory required for data: 875564032
I0413 14:13:55.026804 14838 layer_factory.hpp:77] Creating layer conv3_1a_sum_conv3_1a_sum_0_split
I0413 14:13:55.026813 14838 net.cpp:91] Creating Layer conv3_1a_sum_conv3_1a_sum_0_split
I0413 14:13:55.026818 14838 net.cpp:425] conv3_1a_sum_conv3_1a_sum_0_split <- conv3_1a_sum
I0413 14:13:55.026825 14838 net.cpp:399] conv3_1a_sum_conv3_1a_sum_0_split -> conv3_1a_sum_conv3_1a_sum_0_split_0
I0413 14:13:55.026840 14838 net.cpp:399] conv3_1a_sum_conv3_1a_sum_0_split -> conv3_1a_sum_conv3_1a_sum_0_split_1
I0413 14:13:55.026881 14838 net.cpp:141] Setting up conv3_1a_sum_conv3_1a_sum_0_split
I0413 14:13:55.026891 14838 net.cpp:148] Top shape: 256 32 16 16 (2097152)
I0413 14:13:55.026898 14838 net.cpp:148] Top shape: 256 32 16 16 (2097152)
I0413 14:13:55.026903 14838 net.cpp:156] Memory required for data: 892341248
I0413 14:13:55.026908 14838 layer_factory.hpp:77] Creating layer conv3_1b
I0413 14:13:55.026921 14838 net.cpp:91] Creating Layer conv3_1b
I0413 14:13:55.026927 14838 net.cpp:425] conv3_1b <- conv3_1a_sum_conv3_1a_sum_0_split_0
I0413 14:13:55.026937 14838 net.cpp:399] conv3_1b -> conv3_1b
I0413 14:13:55.028867 14838 net.cpp:141] Setting up conv3_1b
I0413 14:13:55.028887 14838 net.cpp:148] Top shape: 256 32 16 16 (2097152)
I0413 14:13:55.028893 14838 net.cpp:156] Memory required for data: 900729856
I0413 14:13:55.028913 14838 layer_factory.hpp:77] Creating layer bn_conv3_1b
I0413 14:13:55.028923 14838 net.cpp:91] Creating Layer bn_conv3_1b
I0413 14:13:55.028929 14838 net.cpp:425] bn_conv3_1b <- conv3_1b
I0413 14:13:55.028939 14838 net.cpp:386] bn_conv3_1b -> conv3_1b (in-place)
I0413 14:13:55.029148 14838 net.cpp:141] Setting up bn_conv3_1b
I0413 14:13:55.029162 14838 net.cpp:148] Top shape: 256 32 16 16 (2097152)
I0413 14:13:55.029168 14838 net.cpp:156] Memory required for data: 909118464
I0413 14:13:55.029180 14838 layer_factory.hpp:77] Creating layer scale_conv3_1b
I0413 14:13:55.029188 14838 net.cpp:91] Creating Layer scale_conv3_1b
I0413 14:13:55.029194 14838 net.cpp:425] scale_conv3_1b <- conv3_1b
I0413 14:13:55.029202 14838 net.cpp:386] scale_conv3_1b -> conv3_1b (in-place)
I0413 14:13:55.029243 14838 layer_factory.hpp:77] Creating layer scale_conv3_1b
I0413 14:13:55.029361 14838 net.cpp:141] Setting up scale_conv3_1b
I0413 14:13:55.029371 14838 net.cpp:148] Top shape: 256 32 16 16 (2097152)
I0413 14:13:55.029376 14838 net.cpp:156] Memory required for data: 917507072
I0413 14:13:55.029384 14838 layer_factory.hpp:77] Creating layer conv3_1_relu
I0413 14:13:55.029393 14838 net.cpp:91] Creating Layer conv3_1_relu
I0413 14:13:55.029398 14838 net.cpp:425] conv3_1_relu <- conv3_1b
I0413 14:13:55.029405 14838 net.cpp:386] conv3_1_relu -> conv3_1b (in-place)
I0413 14:13:55.029590 14838 net.cpp:141] Setting up conv3_1_relu
I0413 14:13:55.029604 14838 net.cpp:148] Top shape: 256 32 16 16 (2097152)
I0413 14:13:55.029610 14838 net.cpp:156] Memory required for data: 925895680
I0413 14:13:55.029616 14838 layer_factory.hpp:77] Creating layer conv3_1
I0413 14:13:55.029625 14838 net.cpp:91] Creating Layer conv3_1
I0413 14:13:55.029631 14838 net.cpp:425] conv3_1 <- conv3_1a_sum_conv3_1a_sum_0_split_1
I0413 14:13:55.029639 14838 net.cpp:425] conv3_1 <- conv3_1b
I0413 14:13:55.029646 14838 net.cpp:399] conv3_1 -> conv3_1
I0413 14:13:55.029673 14838 net.cpp:141] Setting up conv3_1
I0413 14:13:55.029683 14838 net.cpp:148] Top shape: 256 32 16 16 (2097152)
I0413 14:13:55.029688 14838 net.cpp:156] Memory required for data: 934284288
I0413 14:13:55.029695 14838 layer_factory.hpp:77] Creating layer conv3_1_conv3_1_0_split
I0413 14:13:55.029701 14838 net.cpp:91] Creating Layer conv3_1_conv3_1_0_split
I0413 14:13:55.029707 14838 net.cpp:425] conv3_1_conv3_1_0_split <- conv3_1
I0413 14:13:55.029716 14838 net.cpp:399] conv3_1_conv3_1_0_split -> conv3_1_conv3_1_0_split_0
I0413 14:13:55.029724 14838 net.cpp:399] conv3_1_conv3_1_0_split -> conv3_1_conv3_1_0_split_1
I0413 14:13:55.029764 14838 net.cpp:141] Setting up conv3_1_conv3_1_0_split
I0413 14:13:55.029773 14838 net.cpp:148] Top shape: 256 32 16 16 (2097152)
I0413 14:13:55.029780 14838 net.cpp:148] Top shape: 256 32 16 16 (2097152)
I0413 14:13:55.029785 14838 net.cpp:156] Memory required for data: 951061504
I0413 14:13:55.029791 14838 layer_factory.hpp:77] Creating layer conv3_2a
I0413 14:13:55.029803 14838 net.cpp:91] Creating Layer conv3_2a
I0413 14:13:55.029809 14838 net.cpp:425] conv3_2a <- conv3_1_conv3_1_0_split_0
I0413 14:13:55.029825 14838 net.cpp:399] conv3_2a -> conv3_2a
I0413 14:13:55.031245 14838 net.cpp:141] Setting up conv3_2a
I0413 14:13:55.031265 14838 net.cpp:148] Top shape: 256 32 16 16 (2097152)
I0413 14:13:55.031271 14838 net.cpp:156] Memory required for data: 959450112
I0413 14:13:55.031281 14838 layer_factory.hpp:77] Creating layer bn_conv3_2a
I0413 14:13:55.031293 14838 net.cpp:91] Creating Layer bn_conv3_2a
I0413 14:13:55.031301 14838 net.cpp:425] bn_conv3_2a <- conv3_2a
I0413 14:13:55.031311 14838 net.cpp:386] bn_conv3_2a -> conv3_2a (in-place)
I0413 14:13:55.031519 14838 net.cpp:141] Setting up bn_conv3_2a
I0413 14:13:55.031529 14838 net.cpp:148] Top shape: 256 32 16 16 (2097152)
I0413 14:13:55.031535 14838 net.cpp:156] Memory required for data: 967838720
I0413 14:13:55.031545 14838 layer_factory.hpp:77] Creating layer scale_conv3_2a
I0413 14:13:55.031553 14838 net.cpp:91] Creating Layer scale_conv3_2a
I0413 14:13:55.031559 14838 net.cpp:425] scale_conv3_2a <- conv3_2a
I0413 14:13:55.031569 14838 net.cpp:386] scale_conv3_2a -> conv3_2a (in-place)
I0413 14:13:55.031610 14838 layer_factory.hpp:77] Creating layer scale_conv3_2a
I0413 14:13:55.031736 14838 net.cpp:141] Setting up scale_conv3_2a
I0413 14:13:55.031746 14838 net.cpp:148] Top shape: 256 32 16 16 (2097152)
I0413 14:13:55.031751 14838 net.cpp:156] Memory required for data: 976227328
I0413 14:13:55.031760 14838 layer_factory.hpp:77] Creating layer conv3_2a_relu
I0413 14:13:55.031769 14838 net.cpp:91] Creating Layer conv3_2a_relu
I0413 14:13:55.031774 14838 net.cpp:425] conv3_2a_relu <- conv3_2a
I0413 14:13:55.031781 14838 net.cpp:386] conv3_2a_relu -> conv3_2a (in-place)
I0413 14:13:55.031980 14838 net.cpp:141] Setting up conv3_2a_relu
I0413 14:13:55.031994 14838 net.cpp:148] Top shape: 256 32 16 16 (2097152)
I0413 14:13:55.032001 14838 net.cpp:156] Memory required for data: 984615936
I0413 14:13:55.032006 14838 layer_factory.hpp:77] Creating layer conv3_2a_sum
I0413 14:13:55.032016 14838 net.cpp:91] Creating Layer conv3_2a_sum
I0413 14:13:55.032022 14838 net.cpp:425] conv3_2a_sum <- conv3_1_conv3_1_0_split_1
I0413 14:13:55.032029 14838 net.cpp:425] conv3_2a_sum <- conv3_2a
I0413 14:13:55.032037 14838 net.cpp:399] conv3_2a_sum -> conv3_2a_sum
I0413 14:13:55.032065 14838 net.cpp:141] Setting up conv3_2a_sum
I0413 14:13:55.032075 14838 net.cpp:148] Top shape: 256 32 16 16 (2097152)
I0413 14:13:55.032080 14838 net.cpp:156] Memory required for data: 993004544
I0413 14:13:55.032086 14838 layer_factory.hpp:77] Creating layer conv3_2a_sum_conv3_2a_sum_0_split
I0413 14:13:55.032096 14838 net.cpp:91] Creating Layer conv3_2a_sum_conv3_2a_sum_0_split
I0413 14:13:55.032102 14838 net.cpp:425] conv3_2a_sum_conv3_2a_sum_0_split <- conv3_2a_sum
I0413 14:13:55.032109 14838 net.cpp:399] conv3_2a_sum_conv3_2a_sum_0_split -> conv3_2a_sum_conv3_2a_sum_0_split_0
I0413 14:13:55.032119 14838 net.cpp:399] conv3_2a_sum_conv3_2a_sum_0_split -> conv3_2a_sum_conv3_2a_sum_0_split_1
I0413 14:13:55.032163 14838 net.cpp:141] Setting up conv3_2a_sum_conv3_2a_sum_0_split
I0413 14:13:55.032172 14838 net.cpp:148] Top shape: 256 32 16 16 (2097152)
I0413 14:13:55.032178 14838 net.cpp:148] Top shape: 256 32 16 16 (2097152)
I0413 14:13:55.032183 14838 net.cpp:156] Memory required for data: 1009781760
I0413 14:13:55.032189 14838 layer_factory.hpp:77] Creating layer conv3_2b
I0413 14:13:55.032210 14838 net.cpp:91] Creating Layer conv3_2b
I0413 14:13:55.032217 14838 net.cpp:425] conv3_2b <- conv3_2a_sum_conv3_2a_sum_0_split_0
I0413 14:13:55.032228 14838 net.cpp:399] conv3_2b -> conv3_2b
I0413 14:13:55.033661 14838 net.cpp:141] Setting up conv3_2b
I0413 14:13:55.033682 14838 net.cpp:148] Top shape: 256 32 16 16 (2097152)
I0413 14:13:55.033689 14838 net.cpp:156] Memory required for data: 1018170368
I0413 14:13:55.033699 14838 layer_factory.hpp:77] Creating layer bn_conv3_2b
I0413 14:13:55.033711 14838 net.cpp:91] Creating Layer bn_conv3_2b
I0413 14:13:55.033718 14838 net.cpp:425] bn_conv3_2b <- conv3_2b
I0413 14:13:55.033727 14838 net.cpp:386] bn_conv3_2b -> conv3_2b (in-place)
I0413 14:13:55.033948 14838 net.cpp:141] Setting up bn_conv3_2b
I0413 14:13:55.033959 14838 net.cpp:148] Top shape: 256 32 16 16 (2097152)
I0413 14:13:55.033964 14838 net.cpp:156] Memory required for data: 1026558976
I0413 14:13:55.033975 14838 layer_factory.hpp:77] Creating layer scale_conv3_2b
I0413 14:13:55.033989 14838 net.cpp:91] Creating Layer scale_conv3_2b
I0413 14:13:55.033995 14838 net.cpp:425] scale_conv3_2b <- conv3_2b
I0413 14:13:55.034003 14838 net.cpp:386] scale_conv3_2b -> conv3_2b (in-place)
I0413 14:13:55.034045 14838 layer_factory.hpp:77] Creating layer scale_conv3_2b
I0413 14:13:55.034173 14838 net.cpp:141] Setting up scale_conv3_2b
I0413 14:13:55.034183 14838 net.cpp:148] Top shape: 256 32 16 16 (2097152)
I0413 14:13:55.034189 14838 net.cpp:156] Memory required for data: 1034947584
I0413 14:13:55.034198 14838 layer_factory.hpp:77] Creating layer conv3_2_relu
I0413 14:13:55.034205 14838 net.cpp:91] Creating Layer conv3_2_relu
I0413 14:13:55.034211 14838 net.cpp:425] conv3_2_relu <- conv3_2b
I0413 14:13:55.034219 14838 net.cpp:386] conv3_2_relu -> conv3_2b (in-place)
I0413 14:13:55.034539 14838 net.cpp:141] Setting up conv3_2_relu
I0413 14:13:55.034557 14838 net.cpp:148] Top shape: 256 32 16 16 (2097152)
I0413 14:13:55.034564 14838 net.cpp:156] Memory required for data: 1043336192
I0413 14:13:55.034570 14838 layer_factory.hpp:77] Creating layer conv3_2
I0413 14:13:55.034579 14838 net.cpp:91] Creating Layer conv3_2
I0413 14:13:55.034585 14838 net.cpp:425] conv3_2 <- conv3_2a_sum_conv3_2a_sum_0_split_1
I0413 14:13:55.034593 14838 net.cpp:425] conv3_2 <- conv3_2b
I0413 14:13:55.034603 14838 net.cpp:399] conv3_2 -> conv3_2
I0413 14:13:55.034634 14838 net.cpp:141] Setting up conv3_2
I0413 14:13:55.034643 14838 net.cpp:148] Top shape: 256 32 16 16 (2097152)
I0413 14:13:55.034648 14838 net.cpp:156] Memory required for data: 1051724800
I0413 14:13:55.034654 14838 layer_factory.hpp:77] Creating layer conv3_2_conv3_2_0_split
I0413 14:13:55.034664 14838 net.cpp:91] Creating Layer conv3_2_conv3_2_0_split
I0413 14:13:55.034670 14838 net.cpp:425] conv3_2_conv3_2_0_split <- conv3_2
I0413 14:13:55.034677 14838 net.cpp:399] conv3_2_conv3_2_0_split -> conv3_2_conv3_2_0_split_0
I0413 14:13:55.034687 14838 net.cpp:399] conv3_2_conv3_2_0_split -> conv3_2_conv3_2_0_split_1
I0413 14:13:55.034732 14838 net.cpp:141] Setting up conv3_2_conv3_2_0_split
I0413 14:13:55.034741 14838 net.cpp:148] Top shape: 256 32 16 16 (2097152)
I0413 14:13:55.034749 14838 net.cpp:148] Top shape: 256 32 16 16 (2097152)
I0413 14:13:55.034754 14838 net.cpp:156] Memory required for data: 1068502016
I0413 14:13:55.034759 14838 layer_factory.hpp:77] Creating layer conv3_3a
I0413 14:13:55.034772 14838 net.cpp:91] Creating Layer conv3_3a
I0413 14:13:55.034780 14838 net.cpp:425] conv3_3a <- conv3_2_conv3_2_0_split_0
I0413 14:13:55.034790 14838 net.cpp:399] conv3_3a -> conv3_3a
I0413 14:13:55.036228 14838 net.cpp:141] Setting up conv3_3a
I0413 14:13:55.036247 14838 net.cpp:148] Top shape: 256 32 16 16 (2097152)
I0413 14:13:55.036254 14838 net.cpp:156] Memory required for data: 1076890624
I0413 14:13:55.036264 14838 layer_factory.hpp:77] Creating layer bn_conv3_3a
I0413 14:13:55.036278 14838 net.cpp:91] Creating Layer bn_conv3_3a
I0413 14:13:55.036284 14838 net.cpp:425] bn_conv3_3a <- conv3_3a
I0413 14:13:55.036293 14838 net.cpp:386] bn_conv3_3a -> conv3_3a (in-place)
I0413 14:13:55.036505 14838 net.cpp:141] Setting up bn_conv3_3a
I0413 14:13:55.036516 14838 net.cpp:148] Top shape: 256 32 16 16 (2097152)
I0413 14:13:55.036521 14838 net.cpp:156] Memory required for data: 1085279232
I0413 14:13:55.036531 14838 layer_factory.hpp:77] Creating layer scale_conv3_3a
I0413 14:13:55.036543 14838 net.cpp:91] Creating Layer scale_conv3_3a
I0413 14:13:55.036550 14838 net.cpp:425] scale_conv3_3a <- conv3_3a
I0413 14:13:55.036556 14838 net.cpp:386] scale_conv3_3a -> conv3_3a (in-place)
I0413 14:13:55.036600 14838 layer_factory.hpp:77] Creating layer scale_conv3_3a
I0413 14:13:55.036732 14838 net.cpp:141] Setting up scale_conv3_3a
I0413 14:13:55.036743 14838 net.cpp:148] Top shape: 256 32 16 16 (2097152)
I0413 14:13:55.036754 14838 net.cpp:156] Memory required for data: 1093667840
I0413 14:13:55.036763 14838 layer_factory.hpp:77] Creating layer conv3_3a_relu
I0413 14:13:55.036773 14838 net.cpp:91] Creating Layer conv3_3a_relu
I0413 14:13:55.036779 14838 net.cpp:425] conv3_3a_relu <- conv3_3a
I0413 14:13:55.036785 14838 net.cpp:386] conv3_3a_relu -> conv3_3a (in-place)
I0413 14:13:55.036978 14838 net.cpp:141] Setting up conv3_3a_relu
I0413 14:13:55.036993 14838 net.cpp:148] Top shape: 256 32 16 16 (2097152)
I0413 14:13:55.036998 14838 net.cpp:156] Memory required for data: 1102056448
I0413 14:13:55.037003 14838 layer_factory.hpp:77] Creating layer conv3_3a_sum
I0413 14:13:55.037011 14838 net.cpp:91] Creating Layer conv3_3a_sum
I0413 14:13:55.037017 14838 net.cpp:425] conv3_3a_sum <- conv3_2_conv3_2_0_split_1
I0413 14:13:55.037024 14838 net.cpp:425] conv3_3a_sum <- conv3_3a
I0413 14:13:55.037032 14838 net.cpp:399] conv3_3a_sum -> conv3_3a_sum
I0413 14:13:55.037062 14838 net.cpp:141] Setting up conv3_3a_sum
I0413 14:13:55.037072 14838 net.cpp:148] Top shape: 256 32 16 16 (2097152)
I0413 14:13:55.037077 14838 net.cpp:156] Memory required for data: 1110445056
I0413 14:13:55.037082 14838 layer_factory.hpp:77] Creating layer conv3_3a_sum_conv3_3a_sum_0_split
I0413 14:13:55.037092 14838 net.cpp:91] Creating Layer conv3_3a_sum_conv3_3a_sum_0_split
I0413 14:13:55.037098 14838 net.cpp:425] conv3_3a_sum_conv3_3a_sum_0_split <- conv3_3a_sum
I0413 14:13:55.037106 14838 net.cpp:399] conv3_3a_sum_conv3_3a_sum_0_split -> conv3_3a_sum_conv3_3a_sum_0_split_0
I0413 14:13:55.037122 14838 net.cpp:399] conv3_3a_sum_conv3_3a_sum_0_split -> conv3_3a_sum_conv3_3a_sum_0_split_1
I0413 14:13:55.037169 14838 net.cpp:141] Setting up conv3_3a_sum_conv3_3a_sum_0_split
I0413 14:13:55.037179 14838 net.cpp:148] Top shape: 256 32 16 16 (2097152)
I0413 14:13:55.037186 14838 net.cpp:148] Top shape: 256 32 16 16 (2097152)
I0413 14:13:55.037191 14838 net.cpp:156] Memory required for data: 1127222272
I0413 14:13:55.037196 14838 layer_factory.hpp:77] Creating layer conv3_3b
I0413 14:13:55.037210 14838 net.cpp:91] Creating Layer conv3_3b
I0413 14:13:55.037217 14838 net.cpp:425] conv3_3b <- conv3_3a_sum_conv3_3a_sum_0_split_0
I0413 14:13:55.037227 14838 net.cpp:399] conv3_3b -> conv3_3b
I0413 14:13:55.038667 14838 net.cpp:141] Setting up conv3_3b
I0413 14:13:55.038686 14838 net.cpp:148] Top shape: 256 32 16 16 (2097152)
I0413 14:13:55.038693 14838 net.cpp:156] Memory required for data: 1135610880
I0413 14:13:55.038703 14838 layer_factory.hpp:77] Creating layer bn_conv3_3b
I0413 14:13:55.038715 14838 net.cpp:91] Creating Layer bn_conv3_3b
I0413 14:13:55.038722 14838 net.cpp:425] bn_conv3_3b <- conv3_3b
I0413 14:13:55.038732 14838 net.cpp:386] bn_conv3_3b -> conv3_3b (in-place)
I0413 14:13:55.038950 14838 net.cpp:141] Setting up bn_conv3_3b
I0413 14:13:55.038961 14838 net.cpp:148] Top shape: 256 32 16 16 (2097152)
I0413 14:13:55.038966 14838 net.cpp:156] Memory required for data: 1143999488
I0413 14:13:55.038976 14838 layer_factory.hpp:77] Creating layer scale_conv3_3b
I0413 14:13:55.038985 14838 net.cpp:91] Creating Layer scale_conv3_3b
I0413 14:13:55.038991 14838 net.cpp:425] scale_conv3_3b <- conv3_3b
I0413 14:13:55.039000 14838 net.cpp:386] scale_conv3_3b -> conv3_3b (in-place)
I0413 14:13:55.039043 14838 layer_factory.hpp:77] Creating layer scale_conv3_3b
I0413 14:13:55.039176 14838 net.cpp:141] Setting up scale_conv3_3b
I0413 14:13:55.039187 14838 net.cpp:148] Top shape: 256 32 16 16 (2097152)
I0413 14:13:55.039192 14838 net.cpp:156] Memory required for data: 1152388096
I0413 14:13:55.039201 14838 layer_factory.hpp:77] Creating layer conv3_3_relu
I0413 14:13:55.039208 14838 net.cpp:91] Creating Layer conv3_3_relu
I0413 14:13:55.039214 14838 net.cpp:425] conv3_3_relu <- conv3_3b
I0413 14:13:55.039222 14838 net.cpp:386] conv3_3_relu -> conv3_3b (in-place)
I0413 14:13:55.039415 14838 net.cpp:141] Setting up conv3_3_relu
I0413 14:13:55.039429 14838 net.cpp:148] Top shape: 256 32 16 16 (2097152)
I0413 14:13:55.039435 14838 net.cpp:156] Memory required for data: 1160776704
I0413 14:13:55.039446 14838 layer_factory.hpp:77] Creating layer conv3_3
I0413 14:13:55.039456 14838 net.cpp:91] Creating Layer conv3_3
I0413 14:13:55.039463 14838 net.cpp:425] conv3_3 <- conv3_3b
I0413 14:13:55.039469 14838 net.cpp:425] conv3_3 <- conv3_3a_sum_conv3_3a_sum_0_split_1
I0413 14:13:55.039477 14838 net.cpp:399] conv3_3 -> conv3_3
I0413 14:13:55.039505 14838 net.cpp:141] Setting up conv3_3
I0413 14:13:55.039515 14838 net.cpp:148] Top shape: 256 32 16 16 (2097152)
I0413 14:13:55.039520 14838 net.cpp:156] Memory required for data: 1169165312
I0413 14:13:55.039525 14838 layer_factory.hpp:77] Creating layer conv3_3_conv3_3_0_split
I0413 14:13:55.039535 14838 net.cpp:91] Creating Layer conv3_3_conv3_3_0_split
I0413 14:13:55.039541 14838 net.cpp:425] conv3_3_conv3_3_0_split <- conv3_3
I0413 14:13:55.039549 14838 net.cpp:399] conv3_3_conv3_3_0_split -> conv3_3_conv3_3_0_split_0
I0413 14:13:55.039561 14838 net.cpp:399] conv3_3_conv3_3_0_split -> conv3_3_conv3_3_0_split_1
I0413 14:13:55.039605 14838 net.cpp:141] Setting up conv3_3_conv3_3_0_split
I0413 14:13:55.039614 14838 net.cpp:148] Top shape: 256 32 16 16 (2097152)
I0413 14:13:55.039621 14838 net.cpp:148] Top shape: 256 32 16 16 (2097152)
I0413 14:13:55.039626 14838 net.cpp:156] Memory required for data: 1185942528
I0413 14:13:55.039631 14838 layer_factory.hpp:77] Creating layer conv3_sub
I0413 14:13:55.039645 14838 net.cpp:91] Creating Layer conv3_sub
I0413 14:13:55.039651 14838 net.cpp:425] conv3_sub <- conv3_3_conv3_3_0_split_0
I0413 14:13:55.039661 14838 net.cpp:399] conv3_sub -> conv3_sub
I0413 14:13:55.040978 14838 net.cpp:141] Setting up conv3_sub
I0413 14:13:55.040998 14838 net.cpp:148] Top shape: 256 64 8 8 (1048576)
I0413 14:13:55.041004 14838 net.cpp:156] Memory required for data: 1190136832
I0413 14:13:55.041014 14838 layer_factory.hpp:77] Creating layer bn_conv3_sub
I0413 14:13:55.041026 14838 net.cpp:91] Creating Layer bn_conv3_sub
I0413 14:13:55.041033 14838 net.cpp:425] bn_conv3_sub <- conv3_sub
I0413 14:13:55.041041 14838 net.cpp:386] bn_conv3_sub -> conv3_sub (in-place)
I0413 14:13:55.041282 14838 net.cpp:141] Setting up bn_conv3_sub
I0413 14:13:55.041296 14838 net.cpp:148] Top shape: 256 64 8 8 (1048576)
I0413 14:13:55.041301 14838 net.cpp:156] Memory required for data: 1194331136
I0413 14:13:55.041311 14838 layer_factory.hpp:77] Creating layer scale_conv3_sub
I0413 14:13:55.041321 14838 net.cpp:91] Creating Layer scale_conv3_sub
I0413 14:13:55.041326 14838 net.cpp:425] scale_conv3_sub <- conv3_sub
I0413 14:13:55.041334 14838 net.cpp:386] scale_conv3_sub -> conv3_sub (in-place)
I0413 14:13:55.041384 14838 layer_factory.hpp:77] Creating layer scale_conv3_sub
I0413 14:13:55.041523 14838 net.cpp:141] Setting up scale_conv3_sub
I0413 14:13:55.041534 14838 net.cpp:148] Top shape: 256 64 8 8 (1048576)
I0413 14:13:55.041539 14838 net.cpp:156] Memory required for data: 1198525440
I0413 14:13:55.041548 14838 layer_factory.hpp:77] Creating layer conv4_1a
I0413 14:13:55.041563 14838 net.cpp:91] Creating Layer conv4_1a
I0413 14:13:55.041569 14838 net.cpp:425] conv4_1a <- conv3_3_conv3_3_0_split_1
I0413 14:13:55.041581 14838 net.cpp:399] conv4_1a -> conv4_1a
I0413 14:13:55.042768 14838 net.cpp:141] Setting up conv4_1a
I0413 14:13:55.042788 14838 net.cpp:148] Top shape: 256 64 8 8 (1048576)
I0413 14:13:55.042793 14838 net.cpp:156] Memory required for data: 1202719744
I0413 14:13:55.042804 14838 layer_factory.hpp:77] Creating layer bn_conv4_1a
I0413 14:13:55.042815 14838 net.cpp:91] Creating Layer bn_conv4_1a
I0413 14:13:55.042822 14838 net.cpp:425] bn_conv4_1a <- conv4_1a
I0413 14:13:55.042830 14838 net.cpp:386] bn_conv4_1a -> conv4_1a (in-place)
I0413 14:13:55.043056 14838 net.cpp:141] Setting up bn_conv4_1a
I0413 14:13:55.043066 14838 net.cpp:148] Top shape: 256 64 8 8 (1048576)
I0413 14:13:55.043071 14838 net.cpp:156] Memory required for data: 1206914048
I0413 14:13:55.043081 14838 layer_factory.hpp:77] Creating layer scale_conv4_1a
I0413 14:13:55.043093 14838 net.cpp:91] Creating Layer scale_conv4_1a
I0413 14:13:55.043104 14838 net.cpp:425] scale_conv4_1a <- conv4_1a
I0413 14:13:55.043112 14838 net.cpp:386] scale_conv4_1a -> conv4_1a (in-place)
I0413 14:13:55.043156 14838 layer_factory.hpp:77] Creating layer scale_conv4_1a
I0413 14:13:55.043295 14838 net.cpp:141] Setting up scale_conv4_1a
I0413 14:13:55.043306 14838 net.cpp:148] Top shape: 256 64 8 8 (1048576)
I0413 14:13:55.043311 14838 net.cpp:156] Memory required for data: 1211108352
I0413 14:13:55.043319 14838 layer_factory.hpp:77] Creating layer conv4_1a_relu
I0413 14:13:55.043328 14838 net.cpp:91] Creating Layer conv4_1a_relu
I0413 14:13:55.043334 14838 net.cpp:425] conv4_1a_relu <- conv4_1a
I0413 14:13:55.043342 14838 net.cpp:386] conv4_1a_relu -> conv4_1a (in-place)
I0413 14:13:55.043665 14838 net.cpp:141] Setting up conv4_1a_relu
I0413 14:13:55.043684 14838 net.cpp:148] Top shape: 256 64 8 8 (1048576)
I0413 14:13:55.043689 14838 net.cpp:156] Memory required for data: 1215302656
I0413 14:13:55.043695 14838 layer_factory.hpp:77] Creating layer conv4_1a_sum
I0413 14:13:55.043706 14838 net.cpp:91] Creating Layer conv4_1a_sum
I0413 14:13:55.043714 14838 net.cpp:425] conv4_1a_sum <- conv3_sub
I0413 14:13:55.043720 14838 net.cpp:425] conv4_1a_sum <- conv4_1a
I0413 14:13:55.043728 14838 net.cpp:399] conv4_1a_sum -> conv4_1a_sum
I0413 14:13:55.043762 14838 net.cpp:141] Setting up conv4_1a_sum
I0413 14:13:55.043772 14838 net.cpp:148] Top shape: 256 64 8 8 (1048576)
I0413 14:13:55.043777 14838 net.cpp:156] Memory required for data: 1219496960
I0413 14:13:55.043782 14838 layer_factory.hpp:77] Creating layer conv4_1a_sum_conv4_1a_sum_0_split
I0413 14:13:55.043790 14838 net.cpp:91] Creating Layer conv4_1a_sum_conv4_1a_sum_0_split
I0413 14:13:55.043797 14838 net.cpp:425] conv4_1a_sum_conv4_1a_sum_0_split <- conv4_1a_sum
I0413 14:13:55.043803 14838 net.cpp:399] conv4_1a_sum_conv4_1a_sum_0_split -> conv4_1a_sum_conv4_1a_sum_0_split_0
I0413 14:13:55.043814 14838 net.cpp:399] conv4_1a_sum_conv4_1a_sum_0_split -> conv4_1a_sum_conv4_1a_sum_0_split_1
I0413 14:13:55.043861 14838 net.cpp:141] Setting up conv4_1a_sum_conv4_1a_sum_0_split
I0413 14:13:55.043870 14838 net.cpp:148] Top shape: 256 64 8 8 (1048576)
I0413 14:13:55.043877 14838 net.cpp:148] Top shape: 256 64 8 8 (1048576)
I0413 14:13:55.043882 14838 net.cpp:156] Memory required for data: 1227885568
I0413 14:13:55.043887 14838 layer_factory.hpp:77] Creating layer conv4_1b
I0413 14:13:55.043905 14838 net.cpp:91] Creating Layer conv4_1b
I0413 14:13:55.043910 14838 net.cpp:425] conv4_1b <- conv4_1a_sum_conv4_1a_sum_0_split_0
I0413 14:13:55.043920 14838 net.cpp:399] conv4_1b -> conv4_1b
I0413 14:13:55.046872 14838 net.cpp:141] Setting up conv4_1b
I0413 14:13:55.046893 14838 net.cpp:148] Top shape: 256 64 8 8 (1048576)
I0413 14:13:55.046900 14838 net.cpp:156] Memory required for data: 1232079872
I0413 14:13:55.046910 14838 layer_factory.hpp:77] Creating layer bn_conv4_1b
I0413 14:13:55.046922 14838 net.cpp:91] Creating Layer bn_conv4_1b
I0413 14:13:55.046928 14838 net.cpp:425] bn_conv4_1b <- conv4_1b
I0413 14:13:55.046936 14838 net.cpp:386] bn_conv4_1b -> conv4_1b (in-place)
I0413 14:13:55.047173 14838 net.cpp:141] Setting up bn_conv4_1b
I0413 14:13:55.047184 14838 net.cpp:148] Top shape: 256 64 8 8 (1048576)
I0413 14:13:55.047190 14838 net.cpp:156] Memory required for data: 1236274176
I0413 14:13:55.047200 14838 layer_factory.hpp:77] Creating layer scale_conv4_1b
I0413 14:13:55.047209 14838 net.cpp:91] Creating Layer scale_conv4_1b
I0413 14:13:55.047215 14838 net.cpp:425] scale_conv4_1b <- conv4_1b
I0413 14:13:55.047222 14838 net.cpp:386] scale_conv4_1b -> conv4_1b (in-place)
I0413 14:13:55.047272 14838 layer_factory.hpp:77] Creating layer scale_conv4_1b
I0413 14:13:55.047413 14838 net.cpp:141] Setting up scale_conv4_1b
I0413 14:13:55.047426 14838 net.cpp:148] Top shape: 256 64 8 8 (1048576)
I0413 14:13:55.047431 14838 net.cpp:156] Memory required for data: 1240468480
I0413 14:13:55.047441 14838 layer_factory.hpp:77] Creating layer conv4_1_relu
I0413 14:13:55.047448 14838 net.cpp:91] Creating Layer conv4_1_relu
I0413 14:13:55.047454 14838 net.cpp:425] conv4_1_relu <- conv4_1b
I0413 14:13:55.047466 14838 net.cpp:386] conv4_1_relu -> conv4_1b (in-place)
I0413 14:13:55.047791 14838 net.cpp:141] Setting up conv4_1_relu
I0413 14:13:55.047811 14838 net.cpp:148] Top shape: 256 64 8 8 (1048576)
I0413 14:13:55.047816 14838 net.cpp:156] Memory required for data: 1244662784
I0413 14:13:55.047822 14838 layer_factory.hpp:77] Creating layer conv4_1
I0413 14:13:55.047832 14838 net.cpp:91] Creating Layer conv4_1
I0413 14:13:55.047837 14838 net.cpp:425] conv4_1 <- conv4_1a_sum_conv4_1a_sum_0_split_1
I0413 14:13:55.047844 14838 net.cpp:425] conv4_1 <- conv4_1b
I0413 14:13:55.047852 14838 net.cpp:399] conv4_1 -> conv4_1
I0413 14:13:55.047886 14838 net.cpp:141] Setting up conv4_1
I0413 14:13:55.047896 14838 net.cpp:148] Top shape: 256 64 8 8 (1048576)
I0413 14:13:55.047902 14838 net.cpp:156] Memory required for data: 1248857088
I0413 14:13:55.047907 14838 layer_factory.hpp:77] Creating layer conv4_1_conv4_1_0_split
I0413 14:13:55.047915 14838 net.cpp:91] Creating Layer conv4_1_conv4_1_0_split
I0413 14:13:55.047920 14838 net.cpp:425] conv4_1_conv4_1_0_split <- conv4_1
I0413 14:13:55.047930 14838 net.cpp:399] conv4_1_conv4_1_0_split -> conv4_1_conv4_1_0_split_0
I0413 14:13:55.047940 14838 net.cpp:399] conv4_1_conv4_1_0_split -> conv4_1_conv4_1_0_split_1
I0413 14:13:55.047994 14838 net.cpp:141] Setting up conv4_1_conv4_1_0_split
I0413 14:13:55.048004 14838 net.cpp:148] Top shape: 256 64 8 8 (1048576)
I0413 14:13:55.048012 14838 net.cpp:148] Top shape: 256 64 8 8 (1048576)
I0413 14:13:55.048017 14838 net.cpp:156] Memory required for data: 1257245696
I0413 14:13:55.048022 14838 layer_factory.hpp:77] Creating layer conv4_2a
I0413 14:13:55.048039 14838 net.cpp:91] Creating Layer conv4_2a
I0413 14:13:55.048046 14838 net.cpp:425] conv4_2a <- conv4_1_conv4_1_0_split_0
I0413 14:13:55.048055 14838 net.cpp:399] conv4_2a -> conv4_2a
I0413 14:13:55.050544 14838 net.cpp:141] Setting up conv4_2a
I0413 14:13:55.050564 14838 net.cpp:148] Top shape: 256 64 8 8 (1048576)
I0413 14:13:55.050570 14838 net.cpp:156] Memory required for data: 1261440000
I0413 14:13:55.050580 14838 layer_factory.hpp:77] Creating layer bn_conv4_2a
I0413 14:13:55.050592 14838 net.cpp:91] Creating Layer bn_conv4_2a
I0413 14:13:55.050598 14838 net.cpp:425] bn_conv4_2a <- conv4_2a
I0413 14:13:55.050608 14838 net.cpp:386] bn_conv4_2a -> conv4_2a (in-place)
I0413 14:13:55.050846 14838 net.cpp:141] Setting up bn_conv4_2a
I0413 14:13:55.050858 14838 net.cpp:148] Top shape: 256 64 8 8 (1048576)
I0413 14:13:55.050863 14838 net.cpp:156] Memory required for data: 1265634304
I0413 14:13:55.050873 14838 layer_factory.hpp:77] Creating layer scale_conv4_2a
I0413 14:13:55.050884 14838 net.cpp:91] Creating Layer scale_conv4_2a
I0413 14:13:55.050889 14838 net.cpp:425] scale_conv4_2a <- conv4_2a
I0413 14:13:55.050896 14838 net.cpp:386] scale_conv4_2a -> conv4_2a (in-place)
I0413 14:13:55.050943 14838 layer_factory.hpp:77] Creating layer scale_conv4_2a
I0413 14:13:55.051089 14838 net.cpp:141] Setting up scale_conv4_2a
I0413 14:13:55.051100 14838 net.cpp:148] Top shape: 256 64 8 8 (1048576)
I0413 14:13:55.051105 14838 net.cpp:156] Memory required for data: 1269828608
I0413 14:13:55.051113 14838 layer_factory.hpp:77] Creating layer conv4_2a_relu
I0413 14:13:55.051121 14838 net.cpp:91] Creating Layer conv4_2a_relu
I0413 14:13:55.051127 14838 net.cpp:425] conv4_2a_relu <- conv4_2a
I0413 14:13:55.051133 14838 net.cpp:386] conv4_2a_relu -> conv4_2a (in-place)
I0413 14:13:55.051342 14838 net.cpp:141] Setting up conv4_2a_relu
I0413 14:13:55.051357 14838 net.cpp:148] Top shape: 256 64 8 8 (1048576)
I0413 14:13:55.051363 14838 net.cpp:156] Memory required for data: 1274022912
I0413 14:13:55.051368 14838 layer_factory.hpp:77] Creating layer conv4_2a_sum
I0413 14:13:55.051379 14838 net.cpp:91] Creating Layer conv4_2a_sum
I0413 14:13:55.051385 14838 net.cpp:425] conv4_2a_sum <- conv4_1_conv4_1_0_split_1
I0413 14:13:55.051393 14838 net.cpp:425] conv4_2a_sum <- conv4_2a
I0413 14:13:55.051400 14838 net.cpp:399] conv4_2a_sum -> conv4_2a_sum
I0413 14:13:55.051436 14838 net.cpp:141] Setting up conv4_2a_sum
I0413 14:13:55.051447 14838 net.cpp:148] Top shape: 256 64 8 8 (1048576)
I0413 14:13:55.051452 14838 net.cpp:156] Memory required for data: 1278217216
I0413 14:13:55.051458 14838 layer_factory.hpp:77] Creating layer conv4_2a_sum_conv4_2a_sum_0_split
I0413 14:13:55.051467 14838 net.cpp:91] Creating Layer conv4_2a_sum_conv4_2a_sum_0_split
I0413 14:13:55.051473 14838 net.cpp:425] conv4_2a_sum_conv4_2a_sum_0_split <- conv4_2a_sum
I0413 14:13:55.051481 14838 net.cpp:399] conv4_2a_sum_conv4_2a_sum_0_split -> conv4_2a_sum_conv4_2a_sum_0_split_0
I0413 14:13:55.051491 14838 net.cpp:399] conv4_2a_sum_conv4_2a_sum_0_split -> conv4_2a_sum_conv4_2a_sum_0_split_1
I0413 14:13:55.051539 14838 net.cpp:141] Setting up conv4_2a_sum_conv4_2a_sum_0_split
I0413 14:13:55.051548 14838 net.cpp:148] Top shape: 256 64 8 8 (1048576)
I0413 14:13:55.051555 14838 net.cpp:148] Top shape: 256 64 8 8 (1048576)
I0413 14:13:55.051560 14838 net.cpp:156] Memory required for data: 1286605824
I0413 14:13:55.051565 14838 layer_factory.hpp:77] Creating layer conv4_2b
I0413 14:13:55.051579 14838 net.cpp:91] Creating Layer conv4_2b
I0413 14:13:55.051585 14838 net.cpp:425] conv4_2b <- conv4_2a_sum_conv4_2a_sum_0_split_0
I0413 14:13:55.051596 14838 net.cpp:399] conv4_2b -> conv4_2b
I0413 14:13:55.054090 14838 net.cpp:141] Setting up conv4_2b
I0413 14:13:55.054111 14838 net.cpp:148] Top shape: 256 64 8 8 (1048576)
I0413 14:13:55.054117 14838 net.cpp:156] Memory required for data: 1290800128
I0413 14:13:55.054127 14838 layer_factory.hpp:77] Creating layer bn_conv4_2b
I0413 14:13:55.054139 14838 net.cpp:91] Creating Layer bn_conv4_2b
I0413 14:13:55.054147 14838 net.cpp:425] bn_conv4_2b <- conv4_2b
I0413 14:13:55.054154 14838 net.cpp:386] bn_conv4_2b -> conv4_2b (in-place)
I0413 14:13:55.054393 14838 net.cpp:141] Setting up bn_conv4_2b
I0413 14:13:55.054404 14838 net.cpp:148] Top shape: 256 64 8 8 (1048576)
I0413 14:13:55.054409 14838 net.cpp:156] Memory required for data: 1294994432
I0413 14:13:55.054435 14838 layer_factory.hpp:77] Creating layer scale_conv4_2b
I0413 14:13:55.054445 14838 net.cpp:91] Creating Layer scale_conv4_2b
I0413 14:13:55.054451 14838 net.cpp:425] scale_conv4_2b <- conv4_2b
I0413 14:13:55.054462 14838 net.cpp:386] scale_conv4_2b -> conv4_2b (in-place)
I0413 14:13:55.054512 14838 layer_factory.hpp:77] Creating layer scale_conv4_2b
I0413 14:13:55.054653 14838 net.cpp:141] Setting up scale_conv4_2b
I0413 14:13:55.054664 14838 net.cpp:148] Top shape: 256 64 8 8 (1048576)
I0413 14:13:55.054669 14838 net.cpp:156] Memory required for data: 1299188736
I0413 14:13:55.054678 14838 layer_factory.hpp:77] Creating layer conv4_2_relu
I0413 14:13:55.054687 14838 net.cpp:91] Creating Layer conv4_2_relu
I0413 14:13:55.054692 14838 net.cpp:425] conv4_2_relu <- conv4_2b
I0413 14:13:55.054698 14838 net.cpp:386] conv4_2_relu -> conv4_2b (in-place)
I0413 14:13:55.055030 14838 net.cpp:141] Setting up conv4_2_relu
I0413 14:13:55.055048 14838 net.cpp:148] Top shape: 256 64 8 8 (1048576)
I0413 14:13:55.055054 14838 net.cpp:156] Memory required for data: 1303383040
I0413 14:13:55.055060 14838 layer_factory.hpp:77] Creating layer conv4_2
I0413 14:13:55.055069 14838 net.cpp:91] Creating Layer conv4_2
I0413 14:13:55.055075 14838 net.cpp:425] conv4_2 <- conv4_2a_sum_conv4_2a_sum_0_split_1
I0413 14:13:55.055083 14838 net.cpp:425] conv4_2 <- conv4_2b
I0413 14:13:55.055094 14838 net.cpp:399] conv4_2 -> conv4_2
I0413 14:13:55.055125 14838 net.cpp:141] Setting up conv4_2
I0413 14:13:55.055135 14838 net.cpp:148] Top shape: 256 64 8 8 (1048576)
I0413 14:13:55.055140 14838 net.cpp:156] Memory required for data: 1307577344
I0413 14:13:55.055146 14838 layer_factory.hpp:77] Creating layer conv4_2_conv4_2_0_split
I0413 14:13:55.055156 14838 net.cpp:91] Creating Layer conv4_2_conv4_2_0_split
I0413 14:13:55.055162 14838 net.cpp:425] conv4_2_conv4_2_0_split <- conv4_2
I0413 14:13:55.055171 14838 net.cpp:399] conv4_2_conv4_2_0_split -> conv4_2_conv4_2_0_split_0
I0413 14:13:55.055179 14838 net.cpp:399] conv4_2_conv4_2_0_split -> conv4_2_conv4_2_0_split_1
I0413 14:13:55.055235 14838 net.cpp:141] Setting up conv4_2_conv4_2_0_split
I0413 14:13:55.055245 14838 net.cpp:148] Top shape: 256 64 8 8 (1048576)
I0413 14:13:55.055253 14838 net.cpp:148] Top shape: 256 64 8 8 (1048576)
I0413 14:13:55.055258 14838 net.cpp:156] Memory required for data: 1315965952
I0413 14:13:55.055263 14838 layer_factory.hpp:77] Creating layer conv4_3a
I0413 14:13:55.055276 14838 net.cpp:91] Creating Layer conv4_3a
I0413 14:13:55.055282 14838 net.cpp:425] conv4_3a <- conv4_2_conv4_2_0_split_0
I0413 14:13:55.055294 14838 net.cpp:399] conv4_3a -> conv4_3a
I0413 14:13:55.057687 14838 net.cpp:141] Setting up conv4_3a
I0413 14:13:55.057708 14838 net.cpp:148] Top shape: 256 64 8 8 (1048576)
I0413 14:13:55.057713 14838 net.cpp:156] Memory required for data: 1320160256
I0413 14:13:55.057723 14838 layer_factory.hpp:77] Creating layer bn_conv4_3a
I0413 14:13:55.057734 14838 net.cpp:91] Creating Layer bn_conv4_3a
I0413 14:13:55.057739 14838 net.cpp:425] bn_conv4_3a <- conv4_3a
I0413 14:13:55.057750 14838 net.cpp:386] bn_conv4_3a -> conv4_3a (in-place)
I0413 14:13:55.057989 14838 net.cpp:141] Setting up bn_conv4_3a
I0413 14:13:55.058001 14838 net.cpp:148] Top shape: 256 64 8 8 (1048576)
I0413 14:13:55.058007 14838 net.cpp:156] Memory required for data: 1324354560
I0413 14:13:55.058017 14838 layer_factory.hpp:77] Creating layer scale_conv4_3a
I0413 14:13:55.058025 14838 net.cpp:91] Creating Layer scale_conv4_3a
I0413 14:13:55.058030 14838 net.cpp:425] scale_conv4_3a <- conv4_3a
I0413 14:13:55.058040 14838 net.cpp:386] scale_conv4_3a -> conv4_3a (in-place)
I0413 14:13:55.058084 14838 layer_factory.hpp:77] Creating layer scale_conv4_3a
I0413 14:13:55.058226 14838 net.cpp:141] Setting up scale_conv4_3a
I0413 14:13:55.058236 14838 net.cpp:148] Top shape: 256 64 8 8 (1048576)
I0413 14:13:55.058243 14838 net.cpp:156] Memory required for data: 1328548864
I0413 14:13:55.058250 14838 layer_factory.hpp:77] Creating layer conv4_3a_relu
I0413 14:13:55.058259 14838 net.cpp:91] Creating Layer conv4_3a_relu
I0413 14:13:55.058264 14838 net.cpp:425] conv4_3a_relu <- conv4_3a
I0413 14:13:55.058272 14838 net.cpp:386] conv4_3a_relu -> conv4_3a (in-place)
I0413 14:13:55.058596 14838 net.cpp:141] Setting up conv4_3a_relu
I0413 14:13:55.058614 14838 net.cpp:148] Top shape: 256 64 8 8 (1048576)
I0413 14:13:55.058620 14838 net.cpp:156] Memory required for data: 1332743168
I0413 14:13:55.058626 14838 layer_factory.hpp:77] Creating layer conv4_3a_sum
I0413 14:13:55.058634 14838 net.cpp:91] Creating Layer conv4_3a_sum
I0413 14:13:55.058641 14838 net.cpp:425] conv4_3a_sum <- conv4_2_conv4_2_0_split_1
I0413 14:13:55.058648 14838 net.cpp:425] conv4_3a_sum <- conv4_3a
I0413 14:13:55.058658 14838 net.cpp:399] conv4_3a_sum -> conv4_3a_sum
I0413 14:13:55.058691 14838 net.cpp:141] Setting up conv4_3a_sum
I0413 14:13:55.058702 14838 net.cpp:148] Top shape: 256 64 8 8 (1048576)
I0413 14:13:55.058707 14838 net.cpp:156] Memory required for data: 1336937472
I0413 14:13:55.058713 14838 layer_factory.hpp:77] Creating layer conv4_3a_sum_conv4_3a_sum_0_split
I0413 14:13:55.058720 14838 net.cpp:91] Creating Layer conv4_3a_sum_conv4_3a_sum_0_split
I0413 14:13:55.058727 14838 net.cpp:425] conv4_3a_sum_conv4_3a_sum_0_split <- conv4_3a_sum
I0413 14:13:55.058734 14838 net.cpp:399] conv4_3a_sum_conv4_3a_sum_0_split -> conv4_3a_sum_conv4_3a_sum_0_split_0
I0413 14:13:55.058743 14838 net.cpp:399] conv4_3a_sum_conv4_3a_sum_0_split -> conv4_3a_sum_conv4_3a_sum_0_split_1
I0413 14:13:55.058791 14838 net.cpp:141] Setting up conv4_3a_sum_conv4_3a_sum_0_split
I0413 14:13:55.058801 14838 net.cpp:148] Top shape: 256 64 8 8 (1048576)
I0413 14:13:55.058807 14838 net.cpp:148] Top shape: 256 64 8 8 (1048576)
I0413 14:13:55.058814 14838 net.cpp:156] Memory required for data: 1345326080
I0413 14:13:55.058818 14838 layer_factory.hpp:77] Creating layer conv4_3b
I0413 14:13:55.058832 14838 net.cpp:91] Creating Layer conv4_3b
I0413 14:13:55.058840 14838 net.cpp:425] conv4_3b <- conv4_3a_sum_conv4_3a_sum_0_split_0
I0413 14:13:55.058850 14838 net.cpp:399] conv4_3b -> conv4_3b
I0413 14:13:55.061362 14838 net.cpp:141] Setting up conv4_3b
I0413 14:13:55.061383 14838 net.cpp:148] Top shape: 256 64 8 8 (1048576)
I0413 14:13:55.061390 14838 net.cpp:156] Memory required for data: 1349520384
I0413 14:13:55.061399 14838 layer_factory.hpp:77] Creating layer bn_conv4_3b
I0413 14:13:55.061413 14838 net.cpp:91] Creating Layer bn_conv4_3b
I0413 14:13:55.061419 14838 net.cpp:425] bn_conv4_3b <- conv4_3b
I0413 14:13:55.061427 14838 net.cpp:386] bn_conv4_3b -> conv4_3b (in-place)
I0413 14:13:55.061677 14838 net.cpp:141] Setting up bn_conv4_3b
I0413 14:13:55.061688 14838 net.cpp:148] Top shape: 256 64 8 8 (1048576)
I0413 14:13:55.061694 14838 net.cpp:156] Memory required for data: 1353714688
I0413 14:13:55.061704 14838 layer_factory.hpp:77] Creating layer scale_conv4_3b
I0413 14:13:55.061713 14838 net.cpp:91] Creating Layer scale_conv4_3b
I0413 14:13:55.061719 14838 net.cpp:425] scale_conv4_3b <- conv4_3b
I0413 14:13:55.061727 14838 net.cpp:386] scale_conv4_3b -> conv4_3b (in-place)
I0413 14:13:55.061779 14838 layer_factory.hpp:77] Creating layer scale_conv4_3b
I0413 14:13:55.061918 14838 net.cpp:141] Setting up scale_conv4_3b
I0413 14:13:55.061933 14838 net.cpp:148] Top shape: 256 64 8 8 (1048576)
I0413 14:13:55.061939 14838 net.cpp:156] Memory required for data: 1357908992
I0413 14:13:55.061949 14838 layer_factory.hpp:77] Creating layer conv4_3_relu
I0413 14:13:55.061956 14838 net.cpp:91] Creating Layer conv4_3_relu
I0413 14:13:55.061961 14838 net.cpp:425] conv4_3_relu <- conv4_3b
I0413 14:13:55.061969 14838 net.cpp:386] conv4_3_relu -> conv4_3b (in-place)
I0413 14:13:55.062173 14838 net.cpp:141] Setting up conv4_3_relu
I0413 14:13:55.062187 14838 net.cpp:148] Top shape: 256 64 8 8 (1048576)
I0413 14:13:55.062193 14838 net.cpp:156] Memory required for data: 1362103296
I0413 14:13:55.062199 14838 layer_factory.hpp:77] Creating layer conv4_3
I0413 14:13:55.062207 14838 net.cpp:91] Creating Layer conv4_3
I0413 14:13:55.062214 14838 net.cpp:425] conv4_3 <- conv4_3a_sum_conv4_3a_sum_0_split_1
I0413 14:13:55.062222 14838 net.cpp:425] conv4_3 <- conv4_3b
I0413 14:13:55.062232 14838 net.cpp:399] conv4_3 -> conv4_3
I0413 14:13:55.062263 14838 net.cpp:141] Setting up conv4_3
I0413 14:13:55.062271 14838 net.cpp:148] Top shape: 256 64 8 8 (1048576)
I0413 14:13:55.062278 14838 net.cpp:156] Memory required for data: 1366297600
I0413 14:13:55.062283 14838 layer_factory.hpp:77] Creating layer global_pool
I0413 14:13:55.062294 14838 net.cpp:91] Creating Layer global_pool
I0413 14:13:55.062300 14838 net.cpp:425] global_pool <- conv4_3
I0413 14:13:55.062307 14838 net.cpp:399] global_pool -> global_pool
I0413 14:13:55.062664 14838 net.cpp:141] Setting up global_pool
I0413 14:13:55.062683 14838 net.cpp:148] Top shape: 256 64 1 1 (16384)
I0413 14:13:55.062690 14838 net.cpp:156] Memory required for data: 1366363136
I0413 14:13:55.062695 14838 layer_factory.hpp:77] Creating layer ip
I0413 14:13:55.062712 14838 net.cpp:91] Creating Layer ip
I0413 14:13:55.062718 14838 net.cpp:425] ip <- global_pool
I0413 14:13:55.062726 14838 net.cpp:399] ip -> ip
I0413 14:13:55.062866 14838 net.cpp:141] Setting up ip
I0413 14:13:55.062877 14838 net.cpp:148] Top shape: 256 10 (2560)
I0413 14:13:55.062882 14838 net.cpp:156] Memory required for data: 1366373376
I0413 14:13:55.062891 14838 layer_factory.hpp:77] Creating layer ip_ip_0_split
I0413 14:13:55.062901 14838 net.cpp:91] Creating Layer ip_ip_0_split
I0413 14:13:55.062906 14838 net.cpp:425] ip_ip_0_split <- ip
I0413 14:13:55.062916 14838 net.cpp:399] ip_ip_0_split -> ip_ip_0_split_0
I0413 14:13:55.062924 14838 net.cpp:399] ip_ip_0_split -> ip_ip_0_split_1
I0413 14:13:55.062966 14838 net.cpp:141] Setting up ip_ip_0_split
I0413 14:13:55.062975 14838 net.cpp:148] Top shape: 256 10 (2560)
I0413 14:13:55.062983 14838 net.cpp:148] Top shape: 256 10 (2560)
I0413 14:13:55.062988 14838 net.cpp:156] Memory required for data: 1366393856
I0413 14:13:55.062993 14838 layer_factory.hpp:77] Creating layer accuracy
I0413 14:13:55.063009 14838 net.cpp:91] Creating Layer accuracy
I0413 14:13:55.063014 14838 net.cpp:425] accuracy <- ip_ip_0_split_0
I0413 14:13:55.063026 14838 net.cpp:425] accuracy <- label_cifar_1_split_0
I0413 14:13:55.063035 14838 net.cpp:399] accuracy -> accuracy
…
I0413 14:13:55.066933 14838 solver.cpp:181] Creating test net (#0) specified by net file: prototxt/ResNet-cifar.prototxt
I0413 14:13:55.067101 14838 net.cpp:313] The NetState phase (1) differed from the phase (0) specified by a rule in layer cifar
I0413 14:13:55.067725 14838 net.cpp:49] Initializing net from parameters: 
name: "ResNet-cifar"
state {
  phase: TEST
}
layer {
  name: "cifar"
  type: "Data"
  top: "data"
  top: "label"
  include {
    phase: TEST
  }
  transform_param {
    mean_file: "data/cifar10/mean.binaryproto"
  }
  data_param {
    source: "data/cifar10/cifar10_test_lmdb"
    batch_size: 100
    backend: LMDB
  }
}
layer {
  name: "conv1"
  type: "Convolution"
  bottom: "data"
  top: "conv1"
  param {
    lr_mult: 1
  }
  param {
    lr_mult: 2
  }
  convolution_param {
    num_output: 16
    pad: 1
    kernel_size: 3
    weight_filler {
      type: "msra"
    }
    bias_filler {
      type: "constant"
    }
  }
}
layer {
  name: "bn_conv1"
  type: "BatchNorm"
  bottom: "conv1"
  top: "conv1"
  param {
    lr_mult: 0
  }
  param {
    lr_mult: 0
  }
  param {
    lr_mult: 0
  }
}
layer {
  name: "scale_conv1"
  type: "Scale"
  bottom: "conv1"
  top: "conv1"
  scale_param {
    bias_term: true
  }
}
layer {
  name: "conv1_relu"
  type: "ReLU"
  bottom: "conv1"
  top: "conv1"
}
layer {
  name: "conv2_1a"
  type: "Convolution"
  bottom: "conv1"
  top: "conv2_1a"
  param {
    lr_mult: 1
  }
  param {
    lr_mult: 2
  }
  convolution_param {
    num_output: 16
    pad: 1
    kernel_size: 3
    stride: 1
    weight_filler {
      type: "msra"
    }
    bias_filler {
      type: "constant"
      value: 0
    }
  }
}
layer {
  name: "bn_conv2_1a"
  type: "BatchNorm"
  bottom: "conv2_1a"
  top: "conv2_1a"
  param {
    lr_mult: 0
  }
  param {
    lr_mult: 0
  }
  param {
    lr_mult: 0
  }
}
layer {
  name: "scale_conv2_1a"
  type: "Scale"
  bottom: "conv2_1a"
  top: "conv2_1a"
  scale_param {
    bias_term: true
  }
}
layer {
  name: "conv2_1a_relu"
  type: "ReLU"
  bottom: "conv2_1a"
  top: "conv2_1a"
}
layer {
  name: "conv2_1a_sum"
  type: "Eltwise"
  bottom: "conv2_1a"
  bottom: "conv1"
  top: "conv2_1a_sum"
}
layer {
  name: "conv2_1b"
  type: "Convolution"
  bottom: "conv2_1a_sum"
  top: "conv2_1b"
  param {
    lr_mult: 1
  }
  param {
    lr_mult: 2
  }
  convolution_param {
    num_output: 16
    pad: 1
    kernel_size: 3
    stride: 1
    weight_filler {
      type: "msra"
    }
    bias_filler {
      type: "constant"
      value: 0
    }
  }
}
layer {
  name: "bn_conv2_1b"
  type: "BatchNorm"
  bottom: "conv2_1b"
  top: "conv2_1b"
  param {
    lr_mult: 0
  }
  param {
    lr_mult: 0
  }
  param {
    lr_mult: 0
  }
}
layer {
  name: "scale_conv2_1b"
  type: "Scale"
  bottom: "conv2_1b"
  top: "conv2_1b"
  scale_param {
    bias_term: true
  }
}
layer {
  name: "conv2_1_relu"
  type: "ReLU"
  bottom: "conv2_1b"
  top: "conv2_1b"
}
layer {
  name: "conv2_1"
  type: "Eltwise"
  bottom: "conv2_1b"
  bottom: "conv2_1a_sum"
  top: "conv2_1"
}
layer {
  name: "conv2_2a"
  type: "Convolution"
  bottom: "conv2_1"
  top: "conv2_2a"
  param {
    lr_mult: 1
  }
  param {
    lr_mult: 2
  }
  convolution_param {
    num_output: 16
    pad: 1
    kernel_size: 3
    stride: 1
    weight_filler {
      type: "msra"
    }
    bias_filler {
      type: "constant"
      value: 0
    }
  }
}
layer {
  name: "bn_conv2_2a"
  type: "BatchNorm"
  bottom: "conv2_2a"
  top: "conv2_2a"
  param {
    lr_mult: 0
  }
  param {
    lr_mult: 0
  }
  param {
    lr_mult: 0
  }
}
layer {
  name: "scale_conv2_2a"
  type: "Scale"
  bottom: "conv2_2a"
  top: "conv2_2a"
  scale_param {
    bias_term: true
  }
}
layer {
  name: "conv2_2a_relu"
  type: "ReLU"
  bottom: "conv2_2a"
  top: "conv2_2a"
}
layer {
  name: "conv2_2a_sum"
  type: "Eltwise"
  bottom: "conv2_1"
  bottom: "conv2_2a"
  top: "conv2_2a_sum"
}
layer {
  name: "conv2_2b"
  type: "Convolution"
  bottom: "conv2_2a_sum"
  top: "conv2_2b"
  param {
    lr_mult: 1
  }
  param {
    lr_mult: 2
  }
  convolution_param {
    num_output: 16
    pad: 1
    kernel_size: 3
    stride: 1
    weight_filler {
      type: "msra"
    }
    bias_filler {
      type: "constant"
      value: 0
    }
  }
}
layer {
  name: "bn_conv2_2b"
  type: "BatchNorm"
  bottom: "conv2_2b"
  top: "conv2_2b"
  param {
    lr_mult: 0
  }
  param {
    lr_mult: 0
  }
  param {
    lr_mult: 0
  }
}
layer {
  name: "scale_conv2_2b"
  type: "Scale"
  bottom: "conv2_2b"
  top: "conv2_2b"
  scale_param {
    bias_term: true
  }
}
layer {
  name: "conv2_2_relu"
  type: "ReLU"
  bottom: "conv2_2b"
  top: "conv2_2b"
}
layer {
  name: "conv2_2"
  type: "Eltwise"
  bottom: "conv2_2b"
  bottom: "conv2_2a_sum"
  top: "conv2_2"
}
layer {
  name: "conv2_3a"
  type: "Convolution"
  bottom: "conv2_2"
  top: "conv2_3a"
  param {
    lr_mult: 1
  }
  param {
    lr_mult: 2
  }
  convolution_param {
    num_output: 16
    pad: 1
    kernel_size: 3
    stride: 1
    weight_filler {
      type: "msra"
    }
    bias_filler {
      type: "constant"
      value: 0
    }
  }
}
layer {
  name: "bn_conv2_3a"
  type: "BatchNorm"
  bottom: "conv2_3a"
  top: "conv2_3a"
  param {
    lr_mult: 0
  }
  param {
    lr_mult: 0
  }
  param {
    lr_mult: 0
  }
}
layer {
  name: "scale_conv2_3a"
  type: "Scale"
  bottom: "conv2_3a"
  top: "conv2_3a"
  scale_param {
    bias_term: true
  }
}
layer {
  name: "conv2_3a_relu"
  type: "ReLU"
  bottom: "conv2_3a"
  top: "conv2_3a"
}
layer {
  name: "conv2_3a_sum"
  type: "Eltwise"
  bottom: "conv2_2"
  bottom: "conv2_3a"
  top: "conv2_3a_sum"
}
layer {
  name: "conv2_3b"
  type: "Convolution"
  bottom: "conv2_3a_sum"
  top: "conv2_3b"
  param {
    lr_mult: 1
  }
  param {
    lr_mult: 2
  }
  convolution_param {
    num_output: 16
    pad: 1
    kernel_size: 3
    stride: 1
    weight_filler {
      type: "msra"
    }
    bias_filler {
      type: "constant"
      value: 0
    }
  }
}
layer {
  name: "bn_conv2_3b"
  type: "BatchNorm"
  bottom: "conv2_3b"
  top: "conv2_3b"
  param {
    lr_mult: 0
  }
  param {
    lr_mult: 0
  }
  param {
    lr_mult: 0
  }
}
layer {
  name: "scale_conv2_3b"
  type: "Scale"
  bottom: "conv2_3b"
  top: "conv2_3b"
  scale_param {
    bias_term: true
  }
}
layer {
  name: "conv2_3_relu"
  type: "ReLU"
  bottom: "conv2_3b"
  top: "conv2_3b"
}
layer {
  name: "conv2_3"
  type: "Eltwise"
  bottom: "conv2_3a_sum"
  bottom: "conv2_3b"
  top: "conv2_3"
}
layer {
  name: "conv2_sub"
  type: "Convolution"
  bottom: "conv2_3"
  top: "conv2_sub"
  param {
    lr_mult: 1
  }
  param {
    lr_mult: 2
  }
  convolution_param {
    num_output: 32
    kernel_size: 1
    stride: 2
    weight_filler {
      type: "msra"
    }
    bias_filler {
      type: "constant"
      value: 0
    }
  }
}
layer {
  name: "bn_conv2_sub"
  type: "BatchNorm"
  bottom: "conv2_sub"
  top: "conv2_sub"
  param {
    lr_mult: 0
  }
  param {
    lr_mult: 0
  }
  param {
    lr_mult: 0
  }
}
layer {
  name: "scale_conv2_sub"
  type: "Scale"
  bottom: "conv2_sub"
  top: "conv2_sub"
  scale_param {
    bias_term: true
  }
}
layer {
  name: "conv3_1a"
  type: "Convolution"
  bottom: "conv2_3"
  top: "conv3_1a"
  param {
    lr_mult: 1
  }
  param {
    lr_mult: 2
  }
  convolution_param {
    num_output: 32
    pad: 0
    kernel_size: 1
    stride: 2
    weight_filler {
      type: "msra"
    }
    bias_filler {
      type: "constant"
      value: 0
    }
  }
}
layer {
  name: "bn_conv3_1a"
  type: "BatchNorm"
  bottom: "conv3_1a"
  top: "conv3_1a"
  param {
    lr_mult: 0
  }
  param {
    lr_mult: 0
  }
  param {
    lr_mult: 0
  }
}
layer {
  name: "scale_conv3_1a"
  type: "Scale"
  bottom: "conv3_1a"
  top: "conv3_1a"
  scale_param {
    bias_term: true
  }
}
layer {
  name: "conv3_1a_relu"
  type: "ReLU"
  bottom: "conv3_1a"
  top: "conv3_1a"
}
layer {
  name: "conv3_1a_sum"
  type: "Eltwise"
  bottom: "conv3_1a"
  bottom: "conv2_sub"
  top: "conv3_1a_sum"
}
layer {
  name: "conv3_1b"
  type: "Convolution"
  bottom: "conv3_1a_sum"
  top: "conv3_1b"
  param {
    lr_mult: 1
  }
  param {
    lr_mult: 2
  }
  convolution_param {
    num_output: 32
    pad: 1
    kernel_size: 3
    stride: 1
    weight_filler {
      type: "msra"
    }
    bias_filler {
      type: "constant"
      value: 0
    }
  }
}
layer {
  name: "bn_conv3_1b"
  type: "BatchNorm"
  bottom: "conv3_1b"
  top: "conv3_1b"
  param {
    lr_mult: 0
  }
  param {
    lr_mult: 0
  }
  param {
    lr_mult: 0
  }
}
layer {
  name: "scale_conv3_1b"
  type: "Scale"
  bottom: "conv3_1b"
  top: "conv3_1b"
  scale_param {
    bias_term: true
  }
}
layer {
  name: "conv3_1_relu"
  type: "ReLU"
  bottom: "conv3_1b"
  top: "conv3_1b"
}
layer {
  name: "conv3_1"
  type: "Eltwise"
  bottom: "conv3_1a_sum"
  bottom: "conv3_1b"
  top: "conv3_1"
}
layer {
  name: "conv3_2a"
  type: "Convolution"
  bottom: "conv3_1"
  top: "conv3_2a"
  param {
    lr_mult: 1
  }
  param {
    lr_mult: 2
  }
  convolution_param {
    num_output: 32
    pad: 1
    kernel_size: 3
    stride: 1
    weight_filler {
      type: "msra"
    }
    bias_filler {
      type: "constant"
      value: 0
    }
  }
}
layer {
  name: "bn_conv3_2a"
  type: "BatchNorm"
  bottom: "conv3_2a"
  top: "conv3_2a"
  param {
    lr_mult: 0
  }
  param {
    lr_mult: 0
  }
  param {
    lr_mult: 0
  }
}
layer {
  name: "scale_conv3_2a"
  type: "Scale"
  bottom: "conv3_2a"
  top: "conv3_2a"
  scale_param {
    bias_term: true
  }
}
layer {
  name: "conv3_2a_relu"
  type: "ReLU"
  bottom: "conv3_2a"
  top: "conv3_2a"
}
layer {
  name: "conv3_2a_sum"
  type: "Eltwise"
  bottom: "conv3_1"
  bottom: "conv3_2a"
  top: "conv3_2a_sum"
}
layer {
  name: "conv3_2b"
  type: "Convolution"
  bottom: "conv3_2a_sum"
  top: "conv3_2b"
  param {
    lr_mult: 1
  }
  param {
    lr_mult: 2
  }
  convolution_param {
    num_output: 32
    pad: 1
    kernel_size: 3
    stride: 1
    weight_filler {
      type: "msra"
    }
    bias_filler {
      type: "constant"
      value: 0
    }
  }
}
layer {
  name: "bn_conv3_2b"
  type: "BatchNorm"
  bottom: "conv3_2b"
  top: "conv3_2b"
  param {
    lr_mult: 0
  }
  param {
    lr_mult: 0
  }
  param {
    lr_mult: 0
  }
}
layer {
  name: "scale_conv3_2b"
  type: "Scale"
  bottom: "conv3_2b"
  top: "conv3_2b"
  scale_param {
    bias_term: true
  }
}
layer {
  name: "conv3_2_relu"
  type: "ReLU"
  bottom: "conv3_2b"
  top: "conv3_2b"
}
layer {
  name: "conv3_2"
  type: "Eltwise"
  bottom: "conv3_2a_sum"
  bottom: "conv3_2b"
  top: "conv3_2"
}
layer {
  name: "conv3_3a"
  type: "Convolution"
  bottom: "conv3_2"
  top: "conv3_3a"
  param {
    lr_mult: 1
  }
  param {
    lr_mult: 2
  }
  convolution_param {
    num_output: 32
    pad: 1
    kernel_size: 3
    stride: 1
    weight_filler {
      type: "msra"
    }
    bias_filler {
      type: "constant"
      value: 0
    }
  }
}
layer {
  name: "bn_conv3_3a"
  type: "BatchNorm"
  bottom: "conv3_3a"
  top: "conv3_3a"
  param {
    lr_mult: 0
  }
  param {
    lr_mult: 0
  }
  param {
    lr_mult: 0
  }
}
layer {
  name: "scale_conv3_3a"
  type: "Scale"
  bottom: "conv3_3a"
  top: "conv3_3a"
  scale_param {
    bias_term: true
  }
}
layer {
  name: "conv3_3a_relu"
  type: "ReLU"
  bottom: "conv3_3a"
  top: "conv3_3a"
}
layer {
  name: "conv3_3a_sum"
  type: "Eltwise"
  bottom: "conv3_2"
  bottom: "conv3_3a"
  top: "conv3_3a_sum"
}
layer {
  name: "conv3_3b"
  type: "Convolution"
  bottom: "conv3_3a_sum"
  top: "conv3_3b"
  param {
    lr_mult: 1
  }
  param {
    lr_mult: 2
  }
  convolution_param {
    num_output: 32
    pad: 1
    kernel_size: 3
    stride: 1
    weight_filler {
      type: "msra"
    }
    bias_filler {
      type: "constant"
      value: 0
    }
  }
}
layer {
  name: "bn_conv3_3b"
  type: "BatchNorm"
  bottom: "conv3_3b"
  top: "conv3_3b"
  param {
    lr_mult: 0
  }
  param {
    lr_mult: 0
  }
  param {
    lr_mult: 0
  }
}
layer {
  name: "scale_conv3_3b"
  type: "Scale"
  bottom: "conv3_3b"
  top: "conv3_3b"
  scale_param {
    bias_term: true
  }
}
layer {
  name: "conv3_3_relu"
  type: "ReLU"
  bottom: "conv3_3b"
  top: "conv3_3b"
}
layer {
  name: "conv3_3"
  type: "Eltwise"
  bottom: "conv3_3b"
  bottom: "conv3_3a_sum"
  top: "conv3_3"
}
layer {
  name: "conv3_sub"
  type: "Convolution"
  bottom: "conv3_3"
  top: "conv3_sub"
  param {
    lr_mult: 1
  }
  param {
    lr_mult: 2
  }
  convolution_param {
    num_output: 64
    kernel_size: 1
    stride: 2
    weight_filler {
      type: "msra"
    }
    bias_filler {
      type: "constant"
      value: 0
    }
  }
}
layer {
  name: "bn_conv3_sub"
  type: "BatchNorm"
  bottom: "conv3_sub"
  top: "conv3_sub"
  param {
    lr_mult: 0
  }
  param {
    lr_mult: 0
  }
  param {
    lr_mult: 0
  }
}
layer {
  name: "scale_conv3_sub"
  type: "Scale"
  bottom: "conv3_sub"
  top: "conv3_sub"
  scale_param {
    bias_term: true
  }
}
layer {
  name: "conv4_1a"
  type: "Convolution"
  bottom: "conv3_3"
  top: "conv4_1a"
  param {
    lr_mult: 1
  }
  param {
    lr_mult: 2
  }
  convolution_param {
    num_output: 64
    pad: 0
    kernel_size: 1
    stride: 2
    weight_filler {
      type: "msra"
    }
    bias_filler {
      type: "constant"
      value: 0
    }
  }
}
layer {
  name: "bn_conv4_1a"
  type: "BatchNorm"
  bottom: "conv4_1a"
  top: "conv4_1a"
  param {
    lr_mult: 0
  }
  param {
    lr_mult: 0
  }
  param {
    lr_mult: 0
  }
}
layer {
  name: "scale_conv4_1a"
  type: "Scale"
  bottom: "conv4_1a"
  top: "conv4_1a"
  scale_param {
    bias_term: true
  }
}
layer {
  name: "conv4_1a_relu"
  type: "ReLU"
  bottom: "conv4_1a"
  top: "conv4_1a"
}
layer {
  name: "conv4_1a_sum"
  type: "Eltwise"
  bottom: "conv3_sub"
  bottom: "conv4_1a"
  top: "conv4_1a_sum"
}
layer {
  name: "conv4_1b"
  type: "Convolution"
  bottom: "conv4_1a_sum"
  top: "conv4_1b"
  param {
    lr_mult: 1
  }
  param {
    lr_mult: 2
  }
  convolution_param {
    num_output: 64
    pad: 1
    kernel_size: 3
    stride: 1
    weight_filler {
      type: "msra"
    }
    bias_filler {
      type: "constant"
      value: 0
    }
  }
}
layer {
  name: "bn_conv4_1b"
  type: "BatchNorm"
  bottom: "conv4_1b"
  top: "conv4_1b"
  param {
    lr_mult: 0
  }
  param {
    lr_mult: 0
  }
  param {
    lr_mult: 0
  }
}
layer {
  name: "scale_conv4_1b"
  type: "Scale"
  bottom: "conv4_1b"
  top: "conv4_1b"
  scale_param {
    bias_term: true
  }
}
layer {
  name: "conv4_1_relu"
  type: "ReLU"
  bottom: "conv4_1b"
  top: "conv4_1b"
}
layer {
  name: "conv4_1"
  type: "Eltwise"
  bottom: "conv4_1a_sum"
  bottom: "conv4_1b"
  top: "conv4_1"
}
layer {
  name: "conv4_2a"
  type: "Convolution"
  bottom: "conv4_1"
  top: "conv4_2a"
  param {
    lr_mult: 1
  }
  param {
    lr_mult: 2
  }
  convolution_param {
    num_output: 64
    pad: 1
    kernel_size: 3
    stride: 1
    weight_filler {
      type: "msra"
    }
    bias_filler {
      type: "constant"
      value: 0
    }
  }
}
layer {
  name: "bn_conv4_2a"
  type: "BatchNorm"
  bottom: "conv4_2a"
  top: "conv4_2a"
  param {
    lr_mult: 0
  }
  param {
    lr_mult: 0
  }
  param {
    lr_mult: 0
  }
}
layer {
  name: "scale_conv4_2a"
  type: "Scale"
  bottom: "conv4_2a"
  top: "conv4_2a"
  scale_param {
    bias_term: true
  }
}
layer {
  name: "conv4_2a_relu"
  type: "ReLU"
  bottom: "conv4_2a"
  top: "conv4_2a"
}
layer {
  name: "conv4_2a_sum"
  type: "Eltwise"
  bottom: "conv4_1"
  bottom: "conv4_2a"
  top: "conv4_2a_sum"
}
layer {
  name: "conv4_2b"
  type: "Convolution"
  bottom: "conv4_2a_sum"
  top: "conv4_2b"
  param {
    lr_mult: 1
  }
  param {
    lr_mult: 2
  }
  convolution_param {
    num_output: 64
    pad: 1
    kernel_size: 3
    stride: 1
    weight_filler {
      type: "msra"
    }
    bias_filler {
      type: "constant"
      value: 0
    }
  }
}
layer {
  name: "bn_conv4_2b"
  type: "BatchNorm"
  bottom: "conv4_2b"
  top: "conv4_2b"
  param {
    lr_mult: 0
  }
  param {
    lr_mult: 0
  }
  param {
    lr_mult: 0
  }
}
layer {
  name: "scale_conv4_2b"
  type: "Scale"
  bottom: "conv4_2b"
  top: "conv4_2b"
  scale_param {
    bias_term: true
  }
}
layer {
  name: "conv4_2_relu"
  type: "ReLU"
  bottom: "conv4_2b"
  top: "conv4_2b"
}
layer {
  name: "conv4_2"
  type: "Eltwise"
  bottom: "conv4_2a_sum"
  bottom: "conv4_2b"
  top: "conv4_2"
}
layer {
  name: "conv4_3a"
  type: "Convolution"
  bottom: "conv4_2"
  top: "conv4_3a"
  param {
    lr_mult: 1
  }
  param {
    lr_mult: 2
  }
  convolution_param {
    num_output: 64
    pad: 1
    kernel_size: 3
    stride: 1
    weight_filler {
      type: "msra"
    }
    bias_filler {
      type: "constant"
      value: 0
    }
  }
}
layer {
  name: "bn_conv4_3a"
  type: "BatchNorm"
  bottom: "conv4_3a"
  top: "conv4_3a"
  param {
    lr_mult: 0
  }
  param {
    lr_mult: 0
  }
  param {
    lr_mult: 0
  }
}
layer {
  name: "scale_conv4_3a"
  type: "Scale"
  bottom: "conv4_3a"
  top: "conv4_3a"
  scale_param {
    bias_term: true
  }
}
layer {
  name: "conv4_3a_relu"
  type: "ReLU"
  bottom: "conv4_3a"
  top: "conv4_3a"
}
layer {
  name: "conv4_3a_sum"
  type: "Eltwise"
  bottom: "conv4_2"
  bottom: "conv4_3a"
  top: "conv4_3a_sum"
}
layer {
  name: "conv4_3b"
  type: "Convolution"
  bottom: "conv4_3a_sum"
  top: "conv4_3b"
  param {
    lr_mult: 1
  }
  param {
    lr_mult: 2
  }
  convolution_param {
    num_output: 64
    pad: 1
    kernel_size: 3
    stride: 1
    weight_filler {
      type: "msra"
    }
    bias_filler {
      type: "constant"
      value: 0
    }
  }
}
layer {
  name: "bn_conv4_3b"
  type: "BatchNorm"
  bottom: "conv4_3b"
  top: "conv4_3b"
  param {
    lr_mult: 0
  }
  param {
    lr_mult: 0
  }
  param {
    lr_mult: 0
  }
}
layer {
  name: "scale_conv4_3b"
  type: "Scale"
  bottom: "conv4_3b"
  top: "conv4_3b"
  scale_param {
    bias_term: true
  }
}
layer {
  name: "conv4_3_relu"
  type: "ReLU"
  bottom: "conv4_3b"
  top: "conv4_3b"
}
layer {
  name: "conv4_3"
  type: "Eltwise"
  bottom: "conv4_3a_sum"
  bottom: "conv4_3b"
  top: "conv4_3"
}
layer {
  name: "global_pool"
  type: "Pooling"
  bottom: "conv4_3"
  top: "global_pool"
  pooling_param {
    pool: AVE
    kernel_size: 8
    stride: 8
  }
}
layer {
  name: "ip"
  type: "InnerProduct"
  bottom: "global_pool"
  top: "ip"
  inner_product_param {
    num_output: 10
  }
}
layer {
  name: "accuracy"
  type: "Accuracy"
  bottom: "ip"
  bottom: "label"
  top: "accuracy"
}
layer {
  name: "loss"
  type: "SoftmaxWithLoss"
  bottom: "ip"
  bottom: "label"
  top: "loss"
}
I0413 14:13:55.068286 14838 layer_factory.hpp:77] Creating layer cifar
I0413 14:13:55.068435 14838 net.cpp:91] Creating Layer cifar
I0413 14:13:55.068452 14838 net.cpp:399] cifar -> data
I0413 14:13:55.068465 14838 net.cpp:399] cifar -> label
I0413 14:13:55.068478 14838 data_transformer.cpp:25] Loading mean file from: data/cifar10/mean.binaryproto
I0413 14:13:55.069708 14923 db_lmdb.cpp:38] Opened lmdb data/cifar10/cifar10_test_lmdb
I0413 14:13:55.069898 14838 data_layer.cpp:41] output data size: 100,3,32,32
I0413 14:13:55.073084 14838 net.cpp:141] Setting up cifar
I0413 14:13:55.073107 14838 net.cpp:148] Top shape: 100 3 32 32 (307200)
I0413 14:13:55.073127 14838 net.cpp:148] Top shape: 100 (100)
I0413 14:13:55.073133 14838 net.cpp:156] Memory required for data: 1229200
I0413 14:13:55.073140 14838 layer_factory.hpp:77] Creating layer label_cifar_1_split
I0413 14:13:55.073153 14838 net.cpp:91] Creating Layer label_cifar_1_split
I0413 14:13:55.073159 14838 net.cpp:425] label_cifar_1_split <- label
I0413 14:13:55.073189 14838 net.cpp:399] label_cifar_1_split -> label_cifar_1_split_0
I0413 14:13:55.073204 14838 net.cpp:399] label_cifar_1_split -> label_cifar_1_split_1
I0413 14:13:55.073350 14838 net.cpp:141] Setting up label_cifar_1_split
I0413 14:13:55.073364 14838 net.cpp:148] Top shape: 100 (100)
I0413 14:13:55.073369 14838 net.cpp:148] Top shape: 100 (100)
I0413 14:13:55.073374 14838 net.cpp:156] Memory required for data: 1230000
I0413 14:13:55.073380 14838 layer_factory.hpp:77] Creating layer conv1
I0413 14:13:55.073396 14838 net.cpp:91] Creating Layer conv1
I0413 14:13:55.073402 14838 net.cpp:425] conv1 <- data
I0413 14:13:55.073413 14838 net.cpp:399] conv1 -> conv1
I0413 14:13:55.075070 14838 net.cpp:141] Setting up conv1
I0413 14:13:55.075091 14838 net.cpp:148] Top shape: 100 16 32 32 (1638400)
I0413 14:13:55.075098 14838 net.cpp:156] Memory required for data: 7783600
I0413 14:13:55.075112 14838 layer_factory.hpp:77] Creating layer bn_conv1
I0413 14:13:55.075127 14838 net.cpp:91] Creating Layer bn_conv1
I0413 14:13:55.075134 14838 net.cpp:425] bn_conv1 <- conv1
I0413 14:13:55.075142 14838 net.cpp:386] bn_conv1 -> conv1 (in-place)
I0413 14:13:55.075392 14838 net.cpp:141] Setting up bn_conv1
I0413 14:13:55.075417 14838 net.cpp:148] Top shape: 100 16 32 32 (1638400)
I0413 14:13:55.075423 14838 net.cpp:156] Memory required for data: 14337200
I0413 14:13:55.075438 14838 layer_factory.hpp:77] Creating layer scale_conv1
I0413 14:13:55.075458 14838 net.cpp:91] Creating Layer scale_conv1
I0413 14:13:55.075464 14838 net.cpp:425] scale_conv1 <- conv1
I0413 14:13:55.075470 14838 net.cpp:386] scale_conv1 -> conv1 (in-place)
I0413 14:13:55.075553 14838 layer_factory.hpp:77] Creating layer scale_conv1
I0413 14:13:55.075701 14838 net.cpp:141] Setting up scale_conv1
I0413 14:13:55.075712 14838 net.cpp:148] Top shape: 100 16 32 32 (1638400)
I0413 14:13:55.075718 14838 net.cpp:156] Memory required for data: 20890800
I0413 14:13:55.075727 14838 layer_factory.hpp:77] Creating layer conv1_relu
I0413 14:13:55.075736 14838 net.cpp:91] Creating Layer conv1_relu
I0413 14:13:55.075741 14838 net.cpp:425] conv1_relu <- conv1
I0413 14:13:55.075760 14838 net.cpp:386] conv1_relu -> conv1 (in-place)
I0413 14:13:55.076117 14838 net.cpp:141] Setting up conv1_relu
I0413 14:13:55.076140 14838 net.cpp:148] Top shape: 100 16 32 32 (1638400)
I0413 14:13:55.076146 14838 net.cpp:156] Memory required for data: 27444400
I0413 14:13:55.076153 14838 layer_factory.hpp:77] Creating layer conv1_conv1_relu_0_split
I0413 14:13:55.076161 14838 net.cpp:91] Creating Layer conv1_conv1_relu_0_split
I0413 14:13:55.076167 14838 net.cpp:425] conv1_conv1_relu_0_split <- conv1
I0413 14:13:55.076185 14838 net.cpp:399] conv1_conv1_relu_0_split -> conv1_conv1_relu_0_split_0
I0413 14:13:55.076196 14838 net.cpp:399] conv1_conv1_relu_0_split -> conv1_conv1_relu_0_split_1
I0413 14:13:55.076256 14838 net.cpp:141] Setting up conv1_conv1_relu_0_split
I0413 14:13:55.076267 14838 net.cpp:148] Top shape: 100 16 32 32 (1638400)
I0413 14:13:55.076273 14838 net.cpp:148] Top shape: 100 16 32 32 (1638400)
I0413 14:13:55.076282 14838 net.cpp:156] Memory required for data: 40551600
I0413 14:13:55.076288 14838 layer_factory.hpp:77] Creating layer conv2_1a
I0413 14:13:55.076308 14838 net.cpp:91] Creating Layer conv2_1a
I0413 14:13:55.076315 14838 net.cpp:425] conv2_1a <- conv1_conv1_relu_0_split_0
I0413 14:13:55.076326 14838 net.cpp:399] conv2_1a -> conv2_1a
I0413 14:13:55.077605 14838 net.cpp:141] Setting up conv2_1a
I0413 14:13:55.077626 14838 net.cpp:148] Top shape: 100 16 32 32 (1638400)
I0413 14:13:55.077633 14838 net.cpp:156] Memory required for data: 47105200
I0413 14:13:55.077646 14838 layer_factory.hpp:77] Creating layer bn_conv2_1a
I0413 14:13:55.077659 14838 net.cpp:91] Creating Layer bn_conv2_1a
I0413 14:13:55.077667 14838 net.cpp:425] bn_conv2_1a <- conv2_1a
I0413 14:13:55.077675 14838 net.cpp:386] bn_conv2_1a -> conv2_1a (in-place)
I0413 14:13:55.077929 14838 net.cpp:141] Setting up bn_conv2_1a
I0413 14:13:55.077940 14838 net.cpp:148] Top shape: 100 16 32 32 (1638400)
I0413 14:13:55.077945 14838 net.cpp:156] Memory required for data: 53658800
I0413 14:13:55.077965 14838 layer_factory.hpp:77] Creating layer scale_conv2_1a
I0413 14:13:55.077975 14838 net.cpp:91] Creating Layer scale_conv2_1a
I0413 14:13:55.077980 14838 net.cpp:425] scale_conv2_1a <- conv2_1a
I0413 14:13:55.077987 14838 net.cpp:386] scale_conv2_1a -> conv2_1a (in-place)
I0413 14:13:55.078053 14838 layer_factory.hpp:77] Creating layer scale_conv2_1a
I0413 14:13:55.078200 14838 net.cpp:141] Setting up scale_conv2_1a
I0413 14:13:55.078212 14838 net.cpp:148] Top shape: 100 16 32 32 (1638400)
I0413 14:13:55.078217 14838 net.cpp:156] Memory required for data: 60212400
I0413 14:13:55.078227 14838 layer_factory.hpp:77] Creating layer conv2_1a_relu
I0413 14:13:55.078234 14838 net.cpp:91] Creating Layer conv2_1a_relu
I0413 14:13:55.078239 14838 net.cpp:425] conv2_1a_relu <- conv2_1a
I0413 14:13:55.078259 14838 net.cpp:386] conv2_1a_relu -> conv2_1a (in-place)
I0413 14:13:55.078471 14838 net.cpp:141] Setting up conv2_1a_relu
I0413 14:13:55.078488 14838 net.cpp:148] Top shape: 100 16 32 32 (1638400)
I0413 14:13:55.078495 14838 net.cpp:156] Memory required for data: 66766000
I0413 14:13:55.078500 14838 layer_factory.hpp:77] Creating layer conv2_1a_sum
I0413 14:13:55.078510 14838 net.cpp:91] Creating Layer conv2_1a_sum
I0413 14:13:55.078516 14838 net.cpp:425] conv2_1a_sum <- conv2_1a
I0413 14:13:55.078526 14838 net.cpp:425] conv2_1a_sum <- conv1_conv1_relu_0_split_1
I0413 14:13:55.078533 14838 net.cpp:399] conv2_1a_sum -> conv2_1a_sum
I0413 14:13:55.078574 14838 net.cpp:141] Setting up conv2_1a_sum
I0413 14:13:55.078585 14838 net.cpp:148] Top shape: 100 16 32 32 (1638400)
I0413 14:13:55.078596 14838 net.cpp:156] Memory required for data: 73319600
I0413 14:13:55.078606 14838 layer_factory.hpp:77] Creating layer conv2_1a_sum_conv2_1a_sum_0_split
I0413 14:13:55.078615 14838 net.cpp:91] Creating Layer conv2_1a_sum_conv2_1a_sum_0_split
I0413 14:13:55.078621 14838 net.cpp:425] conv2_1a_sum_conv2_1a_sum_0_split <- conv2_1a_sum
I0413 14:13:55.078629 14838 net.cpp:399] conv2_1a_sum_conv2_1a_sum_0_split -> conv2_1a_sum_conv2_1a_sum_0_split_0
I0413 14:13:55.078639 14838 net.cpp:399] conv2_1a_sum_conv2_1a_sum_0_split -> conv2_1a_sum_conv2_1a_sum_0_split_1
I0413 14:13:55.078694 14838 net.cpp:141] Setting up conv2_1a_sum_conv2_1a_sum_0_split
I0413 14:13:55.078704 14838 net.cpp:148] Top shape: 100 16 32 32 (1638400)
I0413 14:13:55.078711 14838 net.cpp:148] Top shape: 100 16 32 32 (1638400)
I0413 14:13:55.078716 14838 net.cpp:156] Memory required for data: 86426800
I0413 14:13:55.078730 14838 layer_factory.hpp:77] Creating layer conv2_1b
I0413 14:13:55.078743 14838 net.cpp:91] Creating Layer conv2_1b
I0413 14:13:55.078750 14838 net.cpp:425] conv2_1b <- conv2_1a_sum_conv2_1a_sum_0_split_0
I0413 14:13:55.078761 14838 net.cpp:399] conv2_1b -> conv2_1b
I0413 14:13:55.080206 14838 net.cpp:141] Setting up conv2_1b
I0413 14:13:55.080230 14838 net.cpp:148] Top shape: 100 16 32 32 (1638400)
I0413 14:13:55.080240 14838 net.cpp:156] Memory required for data: 92980400
I0413 14:13:55.080250 14838 layer_factory.hpp:77] Creating layer bn_conv2_1b
I0413 14:13:55.080260 14838 net.cpp:91] Creating Layer bn_conv2_1b
I0413 14:13:55.080266 14838 net.cpp:425] bn_conv2_1b <- conv2_1b
I0413 14:13:55.080276 14838 net.cpp:386] bn_conv2_1b -> conv2_1b (in-place)
I0413 14:13:55.080536 14838 net.cpp:141] Setting up bn_conv2_1b
I0413 14:13:55.080549 14838 net.cpp:148] Top shape: 100 16 32 32 (1638400)
I0413 14:13:55.080554 14838 net.cpp:156] Memory required for data: 99534000
I0413 14:13:55.080569 14838 layer_factory.hpp:77] Creating layer scale_conv2_1b
I0413 14:13:55.080577 14838 net.cpp:91] Creating Layer scale_conv2_1b
I0413 14:13:55.080584 14838 net.cpp:425] scale_conv2_1b <- conv2_1b
I0413 14:13:55.080593 14838 net.cpp:386] scale_conv2_1b -> conv2_1b (in-place)
I0413 14:13:55.080647 14838 layer_factory.hpp:77] Creating layer scale_conv2_1b
I0413 14:13:55.080790 14838 net.cpp:141] Setting up scale_conv2_1b
I0413 14:13:55.080804 14838 net.cpp:148] Top shape: 100 16 32 32 (1638400)
I0413 14:13:55.080811 14838 net.cpp:156] Memory required for data: 106087600
I0413 14:13:55.080818 14838 layer_factory.hpp:77] Creating layer conv2_1_relu
I0413 14:13:55.080827 14838 net.cpp:91] Creating Layer conv2_1_relu
I0413 14:13:55.080833 14838 net.cpp:425] conv2_1_relu <- conv2_1b
I0413 14:13:55.080849 14838 net.cpp:386] conv2_1_relu -> conv2_1b (in-place)
I0413 14:13:55.081065 14838 net.cpp:141] Setting up conv2_1_relu
I0413 14:13:55.081079 14838 net.cpp:148] Top shape: 100 16 32 32 (1638400)
I0413 14:13:55.081087 14838 net.cpp:156] Memory required for data: 112641200
I0413 14:13:55.081094 14838 layer_factory.hpp:77] Creating layer conv2_1
I0413 14:13:55.081106 14838 net.cpp:91] Creating Layer conv2_1
I0413 14:13:55.081120 14838 net.cpp:425] conv2_1 <- conv2_1b
I0413 14:13:55.081127 14838 net.cpp:425] conv2_1 <- conv2_1a_sum_conv2_1a_sum_0_split_1
I0413 14:13:55.081135 14838 net.cpp:399] conv2_1 -> conv2_1
I0413 14:13:55.081176 14838 net.cpp:141] Setting up conv2_1
I0413 14:13:55.081187 14838 net.cpp:148] Top shape: 100 16 32 32 (1638400)
I0413 14:13:55.081192 14838 net.cpp:156] Memory required for data: 119194800
I0413 14:13:55.081198 14838 layer_factory.hpp:77] Creating layer conv2_1_conv2_1_0_split
I0413 14:13:55.081205 14838 net.cpp:91] Creating Layer conv2_1_conv2_1_0_split
I0413 14:13:55.081212 14838 net.cpp:425] conv2_1_conv2_1_0_split <- conv2_1
I0413 14:13:55.081220 14838 net.cpp:399] conv2_1_conv2_1_0_split -> conv2_1_conv2_1_0_split_0
I0413 14:13:55.081230 14838 net.cpp:399] conv2_1_conv2_1_0_split -> conv2_1_conv2_1_0_split_1
I0413 14:13:55.081280 14838 net.cpp:141] Setting up conv2_1_conv2_1_0_split
I0413 14:13:55.081295 14838 net.cpp:148] Top shape: 100 16 32 32 (1638400)
I0413 14:13:55.081306 14838 net.cpp:148] Top shape: 100 16 32 32 (1638400)
I0413 14:13:55.081311 14838 net.cpp:156] Memory required for data: 132302000
I0413 14:13:55.081317 14838 layer_factory.hpp:77] Creating layer conv2_2a
I0413 14:13:55.081332 14838 net.cpp:91] Creating Layer conv2_2a
I0413 14:13:55.081338 14838 net.cpp:425] conv2_2a <- conv2_1_conv2_1_0_split_0
I0413 14:13:55.081363 14838 net.cpp:399] conv2_2a -> conv2_2a
I0413 14:13:55.082620 14838 net.cpp:141] Setting up conv2_2a
I0413 14:13:55.082639 14838 net.cpp:148] Top shape: 100 16 32 32 (1638400)
I0413 14:13:55.082646 14838 net.cpp:156] Memory required for data: 138855600
I0413 14:13:55.082656 14838 layer_factory.hpp:77] Creating layer bn_conv2_2a
I0413 14:13:55.082665 14838 net.cpp:91] Creating Layer bn_conv2_2a
I0413 14:13:55.082671 14838 net.cpp:425] bn_conv2_2a <- conv2_2a
I0413 14:13:55.082691 14838 net.cpp:386] bn_conv2_2a -> conv2_2a (in-place)
I0413 14:13:55.082950 14838 net.cpp:141] Setting up bn_conv2_2a
I0413 14:13:55.082962 14838 net.cpp:148] Top shape: 100 16 32 32 (1638400)
I0413 14:13:55.082973 14838 net.cpp:156] Memory required for data: 145409200
I0413 14:13:55.082993 14838 layer_factory.hpp:77] Creating layer scale_conv2_2a
I0413 14:13:55.083001 14838 net.cpp:91] Creating Layer scale_conv2_2a
I0413 14:13:55.083008 14838 net.cpp:425] scale_conv2_2a <- conv2_2a
I0413 14:13:55.083016 14838 net.cpp:386] scale_conv2_2a -> conv2_2a (in-place)
I0413 14:13:55.083071 14838 layer_factory.hpp:77] Creating layer scale_conv2_2a
I0413 14:13:55.083220 14838 net.cpp:141] Setting up scale_conv2_2a
I0413 14:13:55.083230 14838 net.cpp:148] Top shape: 100 16 32 32 (1638400)
I0413 14:13:55.083235 14838 net.cpp:156] Memory required for data: 151962800
I0413 14:13:55.083245 14838 layer_factory.hpp:77] Creating layer conv2_2a_relu
I0413 14:13:55.083253 14838 net.cpp:91] Creating Layer conv2_2a_relu
I0413 14:13:55.083259 14838 net.cpp:425] conv2_2a_relu <- conv2_2a
I0413 14:13:55.083266 14838 net.cpp:386] conv2_2a_relu -> conv2_2a (in-place)
I0413 14:13:55.083660 14838 net.cpp:141] Setting up conv2_2a_relu
I0413 14:13:55.083679 14838 net.cpp:148] Top shape: 100 16 32 32 (1638400)
I0413 14:13:55.083685 14838 net.cpp:156] Memory required for data: 158516400
I0413 14:13:55.083691 14838 layer_factory.hpp:77] Creating layer conv2_2a_sum
I0413 14:13:55.083699 14838 net.cpp:91] Creating Layer conv2_2a_sum
I0413 14:13:55.083705 14838 net.cpp:425] conv2_2a_sum <- conv2_1_conv2_1_0_split_1
I0413 14:13:55.083714 14838 net.cpp:425] conv2_2a_sum <- conv2_2a
I0413 14:13:55.083720 14838 net.cpp:399] conv2_2a_sum -> conv2_2a_sum
I0413 14:13:55.083864 14838 net.cpp:141] Setting up conv2_2a_sum
I0413 14:13:55.083880 14838 net.cpp:148] Top shape: 100 16 32 32 (1638400)
I0413 14:13:55.083886 14838 net.cpp:156] Memory required for data: 165070000
I0413 14:13:55.083891 14838 layer_factory.hpp:77] Creating layer conv2_2a_sum_conv2_2a_sum_0_split
I0413 14:13:55.083899 14838 net.cpp:91] Creating Layer conv2_2a_sum_conv2_2a_sum_0_split
I0413 14:13:55.083905 14838 net.cpp:425] conv2_2a_sum_conv2_2a_sum_0_split <- conv2_2a_sum
I0413 14:13:55.083912 14838 net.cpp:399] conv2_2a_sum_conv2_2a_sum_0_split -> conv2_2a_sum_conv2_2a_sum_0_split_0
I0413 14:13:55.083923 14838 net.cpp:399] conv2_2a_sum_conv2_2a_sum_0_split -> conv2_2a_sum_conv2_2a_sum_0_split_1
I0413 14:13:55.083977 14838 net.cpp:141] Setting up conv2_2a_sum_conv2_2a_sum_0_split
I0413 14:13:55.083986 14838 net.cpp:148] Top shape: 100 16 32 32 (1638400)
I0413 14:13:55.084005 14838 net.cpp:148] Top shape: 100 16 32 32 (1638400)
I0413 14:13:55.084010 14838 net.cpp:156] Memory required for data: 178177200
I0413 14:13:55.084017 14838 layer_factory.hpp:77] Creating layer conv2_2b
I0413 14:13:55.084033 14838 net.cpp:91] Creating Layer conv2_2b
I0413 14:13:55.084038 14838 net.cpp:425] conv2_2b <- conv2_2a_sum_conv2_2a_sum_0_split_0
I0413 14:13:55.084048 14838 net.cpp:399] conv2_2b -> conv2_2b
I0413 14:13:55.085316 14838 net.cpp:141] Setting up conv2_2b
I0413 14:13:55.085342 14838 net.cpp:148] Top shape: 100 16 32 32 (1638400)
I0413 14:13:55.085358 14838 net.cpp:156] Memory required for data: 184730800
I0413 14:13:55.085368 14838 layer_factory.hpp:77] Creating layer bn_conv2_2b
I0413 14:13:55.085382 14838 net.cpp:91] Creating Layer bn_conv2_2b
I0413 14:13:55.085389 14838 net.cpp:425] bn_conv2_2b <- conv2_2b
I0413 14:13:55.085397 14838 net.cpp:386] bn_conv2_2b -> conv2_2b (in-place)
I0413 14:13:55.085654 14838 net.cpp:141] Setting up bn_conv2_2b
I0413 14:13:55.085664 14838 net.cpp:148] Top shape: 100 16 32 32 (1638400)
I0413 14:13:55.085670 14838 net.cpp:156] Memory required for data: 191284400
I0413 14:13:55.085687 14838 layer_factory.hpp:77] Creating layer scale_conv2_2b
I0413 14:13:55.085696 14838 net.cpp:91] Creating Layer scale_conv2_2b
I0413 14:13:55.085702 14838 net.cpp:425] scale_conv2_2b <- conv2_2b
I0413 14:13:55.085723 14838 net.cpp:386] scale_conv2_2b -> conv2_2b (in-place)
I0413 14:13:55.085783 14838 layer_factory.hpp:77] Creating layer scale_conv2_2b
I0413 14:13:55.085930 14838 net.cpp:141] Setting up scale_conv2_2b
I0413 14:13:55.085942 14838 net.cpp:148] Top shape: 100 16 32 32 (1638400)
I0413 14:13:55.085947 14838 net.cpp:156] Memory required for data: 197838000
I0413 14:13:55.085961 14838 layer_factory.hpp:77] Creating layer conv2_2_relu
I0413 14:13:55.085971 14838 net.cpp:91] Creating Layer conv2_2_relu
I0413 14:13:55.085978 14838 net.cpp:425] conv2_2_relu <- conv2_2b
I0413 14:13:55.085984 14838 net.cpp:386] conv2_2_relu -> conv2_2b (in-place)
I0413 14:13:55.086199 14838 net.cpp:141] Setting up conv2_2_relu
I0413 14:13:55.086215 14838 net.cpp:148] Top shape: 100 16 32 32 (1638400)
I0413 14:13:55.086220 14838 net.cpp:156] Memory required for data: 204391600
I0413 14:13:55.086243 14838 layer_factory.hpp:77] Creating layer conv2_2
I0413 14:13:55.086251 14838 net.cpp:91] Creating Layer conv2_2
I0413 14:13:55.086256 14838 net.cpp:425] conv2_2 <- conv2_2b
I0413 14:13:55.086263 14838 net.cpp:425] conv2_2 <- conv2_2a_sum_conv2_2a_sum_0_split_1
I0413 14:13:55.086273 14838 net.cpp:399] conv2_2 -> conv2_2
I0413 14:13:55.086313 14838 net.cpp:141] Setting up conv2_2
I0413 14:13:55.086323 14838 net.cpp:148] Top shape: 100 16 32 32 (1638400)
I0413 14:13:55.086328 14838 net.cpp:156] Memory required for data: 210945200
I0413 14:13:55.086344 14838 layer_factory.hpp:77] Creating layer conv2_2_conv2_2_0_split
I0413 14:13:55.086356 14838 net.cpp:91] Creating Layer conv2_2_conv2_2_0_split
I0413 14:13:55.086362 14838 net.cpp:425] conv2_2_conv2_2_0_split <- conv2_2
I0413 14:13:55.086370 14838 net.cpp:399] conv2_2_conv2_2_0_split -> conv2_2_conv2_2_0_split_0
I0413 14:13:55.086381 14838 net.cpp:399] conv2_2_conv2_2_0_split -> conv2_2_conv2_2_0_split_1
I0413 14:13:55.086439 14838 net.cpp:141] Setting up conv2_2_conv2_2_0_split
I0413 14:13:55.086448 14838 net.cpp:148] Top shape: 100 16 32 32 (1638400)
I0413 14:13:55.086455 14838 net.cpp:148] Top shape: 100 16 32 32 (1638400)
I0413 14:13:55.086460 14838 net.cpp:156] Memory required for data: 224052400
I0413 14:13:55.086465 14838 layer_factory.hpp:77] Creating layer conv2_3a
I0413 14:13:55.086478 14838 net.cpp:91] Creating Layer conv2_3a
I0413 14:13:55.086485 14838 net.cpp:425] conv2_3a <- conv2_2_conv2_2_0_split_0
I0413 14:13:55.086499 14838 net.cpp:399] conv2_3a -> conv2_3a
I0413 14:13:55.087816 14838 net.cpp:141] Setting up conv2_3a
I0413 14:13:55.087836 14838 net.cpp:148] Top shape: 100 16 32 32 (1638400)
I0413 14:13:55.087842 14838 net.cpp:156] Memory required for data: 230606000
I0413 14:13:55.087852 14838 layer_factory.hpp:77] Creating layer bn_conv2_3a
I0413 14:13:55.087867 14838 net.cpp:91] Creating Layer bn_conv2_3a
I0413 14:13:55.087873 14838 net.cpp:425] bn_conv2_3a <- conv2_3a
I0413 14:13:55.087884 14838 net.cpp:386] bn_conv2_3a -> conv2_3a (in-place)
I0413 14:13:55.088143 14838 net.cpp:141] Setting up bn_conv2_3a
I0413 14:13:55.088155 14838 net.cpp:148] Top shape: 100 16 32 32 (1638400)
I0413 14:13:55.088160 14838 net.cpp:156] Memory required for data: 237159600
I0413 14:13:55.088171 14838 layer_factory.hpp:77] Creating layer scale_conv2_3a
I0413 14:13:55.088184 14838 net.cpp:91] Creating Layer scale_conv2_3a
I0413 14:13:55.088191 14838 net.cpp:425] scale_conv2_3a <- conv2_3a
I0413 14:13:55.088198 14838 net.cpp:386] scale_conv2_3a -> conv2_3a (in-place)
I0413 14:13:55.088253 14838 layer_factory.hpp:77] Creating layer scale_conv2_3a
I0413 14:13:55.088402 14838 net.cpp:141] Setting up scale_conv2_3a
I0413 14:13:55.088412 14838 net.cpp:148] Top shape: 100 16 32 32 (1638400)
I0413 14:13:55.088418 14838 net.cpp:156] Memory required for data: 243713200
I0413 14:13:55.088425 14838 layer_factory.hpp:77] Creating layer conv2_3a_relu
I0413 14:13:55.088434 14838 net.cpp:91] Creating Layer conv2_3a_relu
I0413 14:13:55.088440 14838 net.cpp:425] conv2_3a_relu <- conv2_3a
I0413 14:13:55.088448 14838 net.cpp:386] conv2_3a_relu -> conv2_3a (in-place)
I0413 14:13:55.088660 14838 net.cpp:141] Setting up conv2_3a_relu
I0413 14:13:55.088673 14838 net.cpp:148] Top shape: 100 16 32 32 (1638400)
I0413 14:13:55.088680 14838 net.cpp:156] Memory required for data: 250266800
I0413 14:13:55.088685 14838 layer_factory.hpp:77] Creating layer conv2_3a_sum
I0413 14:13:55.088692 14838 net.cpp:91] Creating Layer conv2_3a_sum
I0413 14:13:55.088701 14838 net.cpp:425] conv2_3a_sum <- conv2_2_conv2_2_0_split_1
I0413 14:13:55.088708 14838 net.cpp:425] conv2_3a_sum <- conv2_3a
I0413 14:13:55.088716 14838 net.cpp:399] conv2_3a_sum -> conv2_3a_sum
I0413 14:13:55.088753 14838 net.cpp:141] Setting up conv2_3a_sum
I0413 14:13:55.088763 14838 net.cpp:148] Top shape: 100 16 32 32 (1638400)
I0413 14:13:55.088768 14838 net.cpp:156] Memory required for data: 256820400
I0413 14:13:55.088773 14838 layer_factory.hpp:77] Creating layer conv2_3a_sum_conv2_3a_sum_0_split
I0413 14:13:55.088783 14838 net.cpp:91] Creating Layer conv2_3a_sum_conv2_3a_sum_0_split
I0413 14:13:55.088789 14838 net.cpp:425] conv2_3a_sum_conv2_3a_sum_0_split <- conv2_3a_sum
I0413 14:13:55.088798 14838 net.cpp:399] conv2_3a_sum_conv2_3a_sum_0_split -> conv2_3a_sum_conv2_3a_sum_0_split_0
I0413 14:13:55.088807 14838 net.cpp:399] conv2_3a_sum_conv2_3a_sum_0_split -> conv2_3a_sum_conv2_3a_sum_0_split_1
I0413 14:13:55.088856 14838 net.cpp:141] Setting up conv2_3a_sum_conv2_3a_sum_0_split
I0413 14:13:55.088865 14838 net.cpp:148] Top shape: 100 16 32 32 (1638400)
I0413 14:13:55.088872 14838 net.cpp:148] Top shape: 100 16 32 32 (1638400)
I0413 14:13:55.088877 14838 net.cpp:156] Memory required for data: 269927600
I0413 14:13:55.088882 14838 layer_factory.hpp:77] Creating layer conv2_3b
I0413 14:13:55.088896 14838 net.cpp:91] Creating Layer conv2_3b
I0413 14:13:55.088902 14838 net.cpp:425] conv2_3b <- conv2_3a_sum_conv2_3a_sum_0_split_0
I0413 14:13:55.088913 14838 net.cpp:399] conv2_3b -> conv2_3b
I0413 14:13:55.090188 14838 net.cpp:141] Setting up conv2_3b
I0413 14:13:55.090209 14838 net.cpp:148] Top shape: 100 16 32 32 (1638400)
I0413 14:13:55.090214 14838 net.cpp:156] Memory required for data: 276481200
I0413 14:13:55.090224 14838 layer_factory.hpp:77] Creating layer bn_conv2_3b
I0413 14:13:55.090234 14838 net.cpp:91] Creating Layer bn_conv2_3b
I0413 14:13:55.090240 14838 net.cpp:425] bn_conv2_3b <- conv2_3b
I0413 14:13:55.090250 14838 net.cpp:386] bn_conv2_3b -> conv2_3b (in-place)
I0413 14:13:55.090514 14838 net.cpp:141] Setting up bn_conv2_3b
I0413 14:13:55.090526 14838 net.cpp:148] Top shape: 100 16 32 32 (1638400)
I0413 14:13:55.090531 14838 net.cpp:156] Memory required for data: 283034800
I0413 14:13:55.090541 14838 layer_factory.hpp:77] Creating layer scale_conv2_3b
I0413 14:13:55.090550 14838 net.cpp:91] Creating Layer scale_conv2_3b
I0413 14:13:55.090555 14838 net.cpp:425] scale_conv2_3b <- conv2_3b
I0413 14:13:55.090565 14838 net.cpp:386] scale_conv2_3b -> conv2_3b (in-place)
I0413 14:13:55.090620 14838 layer_factory.hpp:77] Creating layer scale_conv2_3b
I0413 14:13:55.090765 14838 net.cpp:141] Setting up scale_conv2_3b
I0413 14:13:55.090777 14838 net.cpp:148] Top shape: 100 16 32 32 (1638400)
I0413 14:13:55.090783 14838 net.cpp:156] Memory required for data: 289588400
I0413 14:13:55.090791 14838 layer_factory.hpp:77] Creating layer conv2_3_relu
I0413 14:13:55.090804 14838 net.cpp:91] Creating Layer conv2_3_relu
I0413 14:13:55.090811 14838 net.cpp:425] conv2_3_relu <- conv2_3b
I0413 14:13:55.090817 14838 net.cpp:386] conv2_3_relu -> conv2_3b (in-place)
I0413 14:13:55.091256 14838 net.cpp:141] Setting up conv2_3_relu
I0413 14:13:55.091274 14838 net.cpp:148] Top shape: 100 16 32 32 (1638400)
I0413 14:13:55.091280 14838 net.cpp:156] Memory required for data: 296142000
I0413 14:13:55.091286 14838 layer_factory.hpp:77] Creating layer conv2_3
I0413 14:13:55.091297 14838 net.cpp:91] Creating Layer conv2_3
I0413 14:13:55.091303 14838 net.cpp:425] conv2_3 <- conv2_3a_sum_conv2_3a_sum_0_split_1
I0413 14:13:55.091311 14838 net.cpp:425] conv2_3 <- conv2_3b
I0413 14:13:55.091320 14838 net.cpp:399] conv2_3 -> conv2_3
I0413 14:13:55.091362 14838 net.cpp:141] Setting up conv2_3
I0413 14:13:55.091372 14838 net.cpp:148] Top shape: 100 16 32 32 (1638400)
I0413 14:13:55.091378 14838 net.cpp:156] Memory required for data: 302695600
I0413 14:13:55.091383 14838 layer_factory.hpp:77] Creating layer conv2_3_conv2_3_0_split
I0413 14:13:55.091390 14838 net.cpp:91] Creating Layer conv2_3_conv2_3_0_split
I0413 14:13:55.091397 14838 net.cpp:425] conv2_3_conv2_3_0_split <- conv2_3
I0413 14:13:55.091405 14838 net.cpp:399] conv2_3_conv2_3_0_split -> conv2_3_conv2_3_0_split_0
I0413 14:13:55.091414 14838 net.cpp:399] conv2_3_conv2_3_0_split -> conv2_3_conv2_3_0_split_1
I0413 14:13:55.091465 14838 net.cpp:141] Setting up conv2_3_conv2_3_0_split
I0413 14:13:55.091475 14838 net.cpp:148] Top shape: 100 16 32 32 (1638400)
I0413 14:13:55.091481 14838 net.cpp:148] Top shape: 100 16 32 32 (1638400)
I0413 14:13:55.091485 14838 net.cpp:156] Memory required for data: 315802800
I0413 14:13:55.091491 14838 layer_factory.hpp:77] Creating layer conv2_sub
I0413 14:13:55.091506 14838 net.cpp:91] Creating Layer conv2_sub
I0413 14:13:55.091512 14838 net.cpp:425] conv2_sub <- conv2_3_conv2_3_0_split_0
I0413 14:13:55.091521 14838 net.cpp:399] conv2_sub -> conv2_sub
I0413 14:13:55.092756 14838 net.cpp:141] Setting up conv2_sub
I0413 14:13:55.092775 14838 net.cpp:148] Top shape: 100 32 16 16 (819200)
I0413 14:13:55.092782 14838 net.cpp:156] Memory required for data: 319079600
I0413 14:13:55.092790 14838 layer_factory.hpp:77] Creating layer bn_conv2_sub
I0413 14:13:55.092800 14838 net.cpp:91] Creating Layer bn_conv2_sub
I0413 14:13:55.092806 14838 net.cpp:425] bn_conv2_sub <- conv2_sub
I0413 14:13:55.092818 14838 net.cpp:386] bn_conv2_sub -> conv2_sub (in-place)
I0413 14:13:55.093070 14838 net.cpp:141] Setting up bn_conv2_sub
I0413 14:13:55.093080 14838 net.cpp:148] Top shape: 100 32 16 16 (819200)
I0413 14:13:55.093086 14838 net.cpp:156] Memory required for data: 322356400
I0413 14:13:55.093096 14838 layer_factory.hpp:77] Creating layer scale_conv2_sub
I0413 14:13:55.093104 14838 net.cpp:91] Creating Layer scale_conv2_sub
I0413 14:13:55.093117 14838 net.cpp:425] scale_conv2_sub <- conv2_sub
I0413 14:13:55.093127 14838 net.cpp:386] scale_conv2_sub -> conv2_sub (in-place)
I0413 14:13:55.093184 14838 layer_factory.hpp:77] Creating layer scale_conv2_sub
I0413 14:13:55.093332 14838 net.cpp:141] Setting up scale_conv2_sub
I0413 14:13:55.093343 14838 net.cpp:148] Top shape: 100 32 16 16 (819200)
I0413 14:13:55.093349 14838 net.cpp:156] Memory required for data: 325633200
I0413 14:13:55.093358 14838 layer_factory.hpp:77] Creating layer conv3_1a
I0413 14:13:55.093374 14838 net.cpp:91] Creating Layer conv3_1a
I0413 14:13:55.093381 14838 net.cpp:425] conv3_1a <- conv2_3_conv2_3_0_split_1
I0413 14:13:55.093390 14838 net.cpp:399] conv3_1a -> conv3_1a
I0413 14:13:55.094521 14838 net.cpp:141] Setting up conv3_1a
I0413 14:13:55.094544 14838 net.cpp:148] Top shape: 100 32 16 16 (819200)
I0413 14:13:55.094550 14838 net.cpp:156] Memory required for data: 328910000
I0413 14:13:55.094560 14838 layer_factory.hpp:77] Creating layer bn_conv3_1a
I0413 14:13:55.094569 14838 net.cpp:91] Creating Layer bn_conv3_1a
I0413 14:13:55.094575 14838 net.cpp:425] bn_conv3_1a <- conv3_1a
I0413 14:13:55.094586 14838 net.cpp:386] bn_conv3_1a -> conv3_1a (in-place)
I0413 14:13:55.094838 14838 net.cpp:141] Setting up bn_conv3_1a
I0413 14:13:55.094849 14838 net.cpp:148] Top shape: 100 32 16 16 (819200)
I0413 14:13:55.094854 14838 net.cpp:156] Memory required for data: 332186800
I0413 14:13:55.094864 14838 layer_factory.hpp:77] Creating layer scale_conv3_1a
I0413 14:13:55.094873 14838 net.cpp:91] Creating Layer scale_conv3_1a
I0413 14:13:55.094879 14838 net.cpp:425] scale_conv3_1a <- conv3_1a
I0413 14:13:55.094887 14838 net.cpp:386] scale_conv3_1a -> conv3_1a (in-place)
I0413 14:13:55.094941 14838 layer_factory.hpp:77] Creating layer scale_conv3_1a
I0413 14:13:55.095089 14838 net.cpp:141] Setting up scale_conv3_1a
I0413 14:13:55.095099 14838 net.cpp:148] Top shape: 100 32 16 16 (819200)
I0413 14:13:55.095104 14838 net.cpp:156] Memory required for data: 335463600
I0413 14:13:55.095113 14838 layer_factory.hpp:77] Creating layer conv3_1a_relu
I0413 14:13:55.095124 14838 net.cpp:91] Creating Layer conv3_1a_relu
I0413 14:13:55.095129 14838 net.cpp:425] conv3_1a_relu <- conv3_1a
I0413 14:13:55.095135 14838 net.cpp:386] conv3_1a_relu -> conv3_1a (in-place)
I0413 14:13:55.095470 14838 net.cpp:141] Setting up conv3_1a_relu
I0413 14:13:55.095489 14838 net.cpp:148] Top shape: 100 32 16 16 (819200)
I0413 14:13:55.095494 14838 net.cpp:156] Memory required for data: 338740400
I0413 14:13:55.095500 14838 layer_factory.hpp:77] Creating layer conv3_1a_sum
I0413 14:13:55.095510 14838 net.cpp:91] Creating Layer conv3_1a_sum
I0413 14:13:55.095517 14838 net.cpp:425] conv3_1a_sum <- conv3_1a
I0413 14:13:55.095525 14838 net.cpp:425] conv3_1a_sum <- conv2_sub
I0413 14:13:55.095531 14838 net.cpp:399] conv3_1a_sum -> conv3_1a_sum
I0413 14:13:55.095566 14838 net.cpp:141] Setting up conv3_1a_sum
I0413 14:13:55.095576 14838 net.cpp:148] Top shape: 100 32 16 16 (819200)
I0413 14:13:55.095582 14838 net.cpp:156] Memory required for data: 342017200
I0413 14:13:55.095587 14838 layer_factory.hpp:77] Creating layer conv3_1a_sum_conv3_1a_sum_0_split
I0413 14:13:55.095599 14838 net.cpp:91] Creating Layer conv3_1a_sum_conv3_1a_sum_0_split
I0413 14:13:55.095605 14838 net.cpp:425] conv3_1a_sum_conv3_1a_sum_0_split <- conv3_1a_sum
I0413 14:13:55.095613 14838 net.cpp:399] conv3_1a_sum_conv3_1a_sum_0_split -> conv3_1a_sum_conv3_1a_sum_0_split_0
I0413 14:13:55.095624 14838 net.cpp:399] conv3_1a_sum_conv3_1a_sum_0_split -> conv3_1a_sum_conv3_1a_sum_0_split_1
I0413 14:13:55.095675 14838 net.cpp:141] Setting up conv3_1a_sum_conv3_1a_sum_0_split
I0413 14:13:55.095685 14838 net.cpp:148] Top shape: 100 32 16 16 (819200)
I0413 14:13:55.095692 14838 net.cpp:148] Top shape: 100 32 16 16 (819200)
I0413 14:13:55.095697 14838 net.cpp:156] Memory required for data: 348570800
I0413 14:13:55.095702 14838 layer_factory.hpp:77] Creating layer conv3_1b
I0413 14:13:55.095716 14838 net.cpp:91] Creating Layer conv3_1b
I0413 14:13:55.095722 14838 net.cpp:425] conv3_1b <- conv3_1a_sum_conv3_1a_sum_0_split_0
I0413 14:13:55.095732 14838 net.cpp:399] conv3_1b -> conv3_1b
I0413 14:13:55.097272 14838 net.cpp:141] Setting up conv3_1b
I0413 14:13:55.097293 14838 net.cpp:148] Top shape: 100 32 16 16 (819200)
I0413 14:13:55.097300 14838 net.cpp:156] Memory required for data: 351847600
I0413 14:13:55.097321 14838 layer_factory.hpp:77] Creating layer bn_conv3_1b
I0413 14:13:55.097334 14838 net.cpp:91] Creating Layer bn_conv3_1b
I0413 14:13:55.097342 14838 net.cpp:425] bn_conv3_1b <- conv3_1b
I0413 14:13:55.097349 14838 net.cpp:386] bn_conv3_1b -> conv3_1b (in-place)
I0413 14:13:55.097601 14838 net.cpp:141] Setting up bn_conv3_1b
I0413 14:13:55.097612 14838 net.cpp:148] Top shape: 100 32 16 16 (819200)
I0413 14:13:55.097617 14838 net.cpp:156] Memory required for data: 355124400
I0413 14:13:55.097628 14838 layer_factory.hpp:77] Creating layer scale_conv3_1b
I0413 14:13:55.097637 14838 net.cpp:91] Creating Layer scale_conv3_1b
I0413 14:13:55.097642 14838 net.cpp:425] scale_conv3_1b <- conv3_1b
I0413 14:13:55.097653 14838 net.cpp:386] scale_conv3_1b -> conv3_1b (in-place)
I0413 14:13:55.097707 14838 layer_factory.hpp:77] Creating layer scale_conv3_1b
I0413 14:13:55.097864 14838 net.cpp:141] Setting up scale_conv3_1b
I0413 14:13:55.097875 14838 net.cpp:148] Top shape: 100 32 16 16 (819200)
I0413 14:13:55.097880 14838 net.cpp:156] Memory required for data: 358401200
I0413 14:13:55.097889 14838 layer_factory.hpp:77] Creating layer conv3_1_relu
I0413 14:13:55.097897 14838 net.cpp:91] Creating Layer conv3_1_relu
I0413 14:13:55.097903 14838 net.cpp:425] conv3_1_relu <- conv3_1b
I0413 14:13:55.097909 14838 net.cpp:386] conv3_1_relu -> conv3_1b (in-place)
I0413 14:13:55.098116 14838 net.cpp:141] Setting up conv3_1_relu
I0413 14:13:55.098130 14838 net.cpp:148] Top shape: 100 32 16 16 (819200)
I0413 14:13:55.098135 14838 net.cpp:156] Memory required for data: 361678000
I0413 14:13:55.098141 14838 layer_factory.hpp:77] Creating layer conv3_1
I0413 14:13:55.098150 14838 net.cpp:91] Creating Layer conv3_1
I0413 14:13:55.098156 14838 net.cpp:425] conv3_1 <- conv3_1a_sum_conv3_1a_sum_0_split_1
I0413 14:13:55.098165 14838 net.cpp:425] conv3_1 <- conv3_1b
I0413 14:13:55.098171 14838 net.cpp:399] conv3_1 -> conv3_1
I0413 14:13:55.098203 14838 net.cpp:141] Setting up conv3_1
I0413 14:13:55.098213 14838 net.cpp:148] Top shape: 100 32 16 16 (819200)
I0413 14:13:55.098218 14838 net.cpp:156] Memory required for data: 364954800
I0413 14:13:55.098223 14838 layer_factory.hpp:77] Creating layer conv3_1_conv3_1_0_split
I0413 14:13:55.098234 14838 net.cpp:91] Creating Layer conv3_1_conv3_1_0_split
I0413 14:13:55.098239 14838 net.cpp:425] conv3_1_conv3_1_0_split <- conv3_1
I0413 14:13:55.098248 14838 net.cpp:399] conv3_1_conv3_1_0_split -> conv3_1_conv3_1_0_split_0
I0413 14:13:55.098256 14838 net.cpp:399] conv3_1_conv3_1_0_split -> conv3_1_conv3_1_0_split_1
I0413 14:13:55.098309 14838 net.cpp:141] Setting up conv3_1_conv3_1_0_split
I0413 14:13:55.098318 14838 net.cpp:148] Top shape: 100 32 16 16 (819200)
I0413 14:13:55.098325 14838 net.cpp:148] Top shape: 100 32 16 16 (819200)
I0413 14:13:55.098330 14838 net.cpp:156] Memory required for data: 371508400
I0413 14:13:55.098335 14838 layer_factory.hpp:77] Creating layer conv3_2a
I0413 14:13:55.098348 14838 net.cpp:91] Creating Layer conv3_2a
I0413 14:13:55.098356 14838 net.cpp:425] conv3_2a <- conv3_1_conv3_1_0_split_0
I0413 14:13:55.098366 14838 net.cpp:399] conv3_2a -> conv3_2a
I0413 14:13:55.099894 14838 net.cpp:141] Setting up conv3_2a
I0413 14:13:55.099913 14838 net.cpp:148] Top shape: 100 32 16 16 (819200)
I0413 14:13:55.099920 14838 net.cpp:156] Memory required for data: 374785200
I0413 14:13:55.099930 14838 layer_factory.hpp:77] Creating layer bn_conv3_2a
I0413 14:13:55.099941 14838 net.cpp:91] Creating Layer bn_conv3_2a
I0413 14:13:55.099948 14838 net.cpp:425] bn_conv3_2a <- conv3_2a
I0413 14:13:55.099956 14838 net.cpp:386] bn_conv3_2a -> conv3_2a (in-place)
I0413 14:13:55.100211 14838 net.cpp:141] Setting up bn_conv3_2a
I0413 14:13:55.100222 14838 net.cpp:148] Top shape: 100 32 16 16 (819200)
I0413 14:13:55.100229 14838 net.cpp:156] Memory required for data: 378062000
I0413 14:13:55.100239 14838 layer_factory.hpp:77] Creating layer scale_conv3_2a
I0413 14:13:55.100246 14838 net.cpp:91] Creating Layer scale_conv3_2a
I0413 14:13:55.100252 14838 net.cpp:425] scale_conv3_2a <- conv3_2a
I0413 14:13:55.100261 14838 net.cpp:386] scale_conv3_2a -> conv3_2a (in-place)
I0413 14:13:55.100316 14838 layer_factory.hpp:77] Creating layer scale_conv3_2a
I0413 14:13:55.100462 14838 net.cpp:141] Setting up scale_conv3_2a
I0413 14:13:55.100472 14838 net.cpp:148] Top shape: 100 32 16 16 (819200)
I0413 14:13:55.100478 14838 net.cpp:156] Memory required for data: 381338800
I0413 14:13:55.100486 14838 layer_factory.hpp:77] Creating layer conv3_2a_relu
I0413 14:13:55.100494 14838 net.cpp:91] Creating Layer conv3_2a_relu
I0413 14:13:55.100499 14838 net.cpp:425] conv3_2a_relu <- conv3_2a
I0413 14:13:55.100507 14838 net.cpp:386] conv3_2a_relu -> conv3_2a (in-place)
I0413 14:13:55.100841 14838 net.cpp:141] Setting up conv3_2a_relu
I0413 14:13:55.100859 14838 net.cpp:148] Top shape: 100 32 16 16 (819200)
I0413 14:13:55.100865 14838 net.cpp:156] Memory required for data: 384615600
I0413 14:13:55.100875 14838 layer_factory.hpp:77] Creating layer conv3_2a_sum
I0413 14:13:55.100884 14838 net.cpp:91] Creating Layer conv3_2a_sum
I0413 14:13:55.100890 14838 net.cpp:425] conv3_2a_sum <- conv3_1_conv3_1_0_split_1
I0413 14:13:55.100898 14838 net.cpp:425] conv3_2a_sum <- conv3_2a
I0413 14:13:55.100908 14838 net.cpp:399] conv3_2a_sum -> conv3_2a_sum
I0413 14:13:55.100944 14838 net.cpp:141] Setting up conv3_2a_sum
I0413 14:13:55.100952 14838 net.cpp:148] Top shape: 100 32 16 16 (819200)
I0413 14:13:55.100958 14838 net.cpp:156] Memory required for data: 387892400
I0413 14:13:55.100963 14838 layer_factory.hpp:77] Creating layer conv3_2a_sum_conv3_2a_sum_0_split
I0413 14:13:55.100973 14838 net.cpp:91] Creating Layer conv3_2a_sum_conv3_2a_sum_0_split
I0413 14:13:55.100978 14838 net.cpp:425] conv3_2a_sum_conv3_2a_sum_0_split <- conv3_2a_sum
I0413 14:13:55.100986 14838 net.cpp:399] conv3_2a_sum_conv3_2a_sum_0_split -> conv3_2a_sum_conv3_2a_sum_0_split_0
I0413 14:13:55.100996 14838 net.cpp:399] conv3_2a_sum_conv3_2a_sum_0_split -> conv3_2a_sum_conv3_2a_sum_0_split_1
I0413 14:13:55.101047 14838 net.cpp:141] Setting up conv3_2a_sum_conv3_2a_sum_0_split
I0413 14:13:55.101057 14838 net.cpp:148] Top shape: 100 32 16 16 (819200)
I0413 14:13:55.101063 14838 net.cpp:148] Top shape: 100 32 16 16 (819200)
I0413 14:13:55.101068 14838 net.cpp:156] Memory required for data: 394446000
I0413 14:13:55.101073 14838 layer_factory.hpp:77] Creating layer conv3_2b
I0413 14:13:55.101094 14838 net.cpp:91] Creating Layer conv3_2b
I0413 14:13:55.101100 14838 net.cpp:425] conv3_2b <- conv3_2a_sum_conv3_2a_sum_0_split_0
I0413 14:13:55.101119 14838 net.cpp:399] conv3_2b -> conv3_2b
I0413 14:13:55.102552 14838 net.cpp:141] Setting up conv3_2b
I0413 14:13:55.102571 14838 net.cpp:148] Top shape: 100 32 16 16 (819200)
I0413 14:13:55.102578 14838 net.cpp:156] Memory required for data: 397722800
I0413 14:13:55.102588 14838 layer_factory.hpp:77] Creating layer bn_conv3_2b
I0413 14:13:55.102601 14838 net.cpp:91] Creating Layer bn_conv3_2b
I0413 14:13:55.102607 14838 net.cpp:425] bn_conv3_2b <- conv3_2b
I0413 14:13:55.102617 14838 net.cpp:386] bn_conv3_2b -> conv3_2b (in-place)
I0413 14:13:55.102871 14838 net.cpp:141] Setting up bn_conv3_2b
I0413 14:13:55.102882 14838 net.cpp:148] Top shape: 100 32 16 16 (819200)
I0413 14:13:55.102887 14838 net.cpp:156] Memory required for data: 400999600
I0413 14:13:55.102897 14838 layer_factory.hpp:77] Creating layer scale_conv3_2b
I0413 14:13:55.102907 14838 net.cpp:91] Creating Layer scale_conv3_2b
I0413 14:13:55.102913 14838 net.cpp:425] scale_conv3_2b <- conv3_2b
I0413 14:13:55.102921 14838 net.cpp:386] scale_conv3_2b -> conv3_2b (in-place)
I0413 14:13:55.102977 14838 layer_factory.hpp:77] Creating layer scale_conv3_2b
I0413 14:13:55.103129 14838 net.cpp:141] Setting up scale_conv3_2b
I0413 14:13:55.103140 14838 net.cpp:148] Top shape: 100 32 16 16 (819200)
I0413 14:13:55.103145 14838 net.cpp:156] Memory required for data: 404276400
I0413 14:13:55.103153 14838 layer_factory.hpp:77] Creating layer conv3_2_relu
I0413 14:13:55.103162 14838 net.cpp:91] Creating Layer conv3_2_relu
I0413 14:13:55.103166 14838 net.cpp:425] conv3_2_relu <- conv3_2b
I0413 14:13:55.103178 14838 net.cpp:386] conv3_2_relu -> conv3_2b (in-place)
I0413 14:13:55.103514 14838 net.cpp:141] Setting up conv3_2_relu
I0413 14:13:55.103533 14838 net.cpp:148] Top shape: 100 32 16 16 (819200)
I0413 14:13:55.103538 14838 net.cpp:156] Memory required for data: 407553200
I0413 14:13:55.103544 14838 layer_factory.hpp:77] Creating layer conv3_2
I0413 14:13:55.103555 14838 net.cpp:91] Creating Layer conv3_2
I0413 14:13:55.103561 14838 net.cpp:425] conv3_2 <- conv3_2a_sum_conv3_2a_sum_0_split_1
I0413 14:13:55.103569 14838 net.cpp:425] conv3_2 <- conv3_2b
I0413 14:13:55.103576 14838 net.cpp:399] conv3_2 -> conv3_2
I0413 14:13:55.103613 14838 net.cpp:141] Setting up conv3_2
I0413 14:13:55.103623 14838 net.cpp:148] Top shape: 100 32 16 16 (819200)
I0413 14:13:55.103628 14838 net.cpp:156] Memory required for data: 410830000
I0413 14:13:55.103638 14838 layer_factory.hpp:77] Creating layer conv3_2_conv3_2_0_split
I0413 14:13:55.103646 14838 net.cpp:91] Creating Layer conv3_2_conv3_2_0_split
I0413 14:13:55.103652 14838 net.cpp:425] conv3_2_conv3_2_0_split <- conv3_2
I0413 14:13:55.103659 14838 net.cpp:399] conv3_2_conv3_2_0_split -> conv3_2_conv3_2_0_split_0
I0413 14:13:55.103670 14838 net.cpp:399] conv3_2_conv3_2_0_split -> conv3_2_conv3_2_0_split_1
I0413 14:13:55.103723 14838 net.cpp:141] Setting up conv3_2_conv3_2_0_split
I0413 14:13:55.103732 14838 net.cpp:148] Top shape: 100 32 16 16 (819200)
I0413 14:13:55.103739 14838 net.cpp:148] Top shape: 100 32 16 16 (819200)
I0413 14:13:55.103744 14838 net.cpp:156] Memory required for data: 417383600
I0413 14:13:55.103749 14838 layer_factory.hpp:77] Creating layer conv3_3a
I0413 14:13:55.103765 14838 net.cpp:91] Creating Layer conv3_3a
I0413 14:13:55.103772 14838 net.cpp:425] conv3_3a <- conv3_2_conv3_2_0_split_0
I0413 14:13:55.103780 14838 net.cpp:399] conv3_3a -> conv3_3a
I0413 14:13:55.105331 14838 net.cpp:141] Setting up conv3_3a
I0413 14:13:55.105352 14838 net.cpp:148] Top shape: 100 32 16 16 (819200)
I0413 14:13:55.105358 14838 net.cpp:156] Memory required for data: 420660400
I0413 14:13:55.105368 14838 layer_factory.hpp:77] Creating layer bn_conv3_3a
I0413 14:13:55.105381 14838 net.cpp:91] Creating Layer bn_conv3_3a
I0413 14:13:55.105386 14838 net.cpp:425] bn_conv3_3a <- conv3_3a
I0413 14:13:55.105394 14838 net.cpp:386] bn_conv3_3a -> conv3_3a (in-place)
I0413 14:13:55.105654 14838 net.cpp:141] Setting up bn_conv3_3a
I0413 14:13:55.105664 14838 net.cpp:148] Top shape: 100 32 16 16 (819200)
I0413 14:13:55.105670 14838 net.cpp:156] Memory required for data: 423937200
I0413 14:13:55.105680 14838 layer_factory.hpp:77] Creating layer scale_conv3_3a
I0413 14:13:55.105689 14838 net.cpp:91] Creating Layer scale_conv3_3a
I0413 14:13:55.105695 14838 net.cpp:425] scale_conv3_3a <- conv3_3a
I0413 14:13:55.105701 14838 net.cpp:386] scale_conv3_3a -> conv3_3a (in-place)
I0413 14:13:55.105761 14838 layer_factory.hpp:77] Creating layer scale_conv3_3a
I0413 14:13:55.105909 14838 net.cpp:141] Setting up scale_conv3_3a
I0413 14:13:55.105919 14838 net.cpp:148] Top shape: 100 32 16 16 (819200)
I0413 14:13:55.105924 14838 net.cpp:156] Memory required for data: 427214000
I0413 14:13:55.105933 14838 layer_factory.hpp:77] Creating layer conv3_3a_relu
I0413 14:13:55.105940 14838 net.cpp:91] Creating Layer conv3_3a_relu
I0413 14:13:55.105947 14838 net.cpp:425] conv3_3a_relu <- conv3_3a
I0413 14:13:55.105958 14838 net.cpp:386] conv3_3a_relu -> conv3_3a (in-place)
I0413 14:13:55.106169 14838 net.cpp:141] Setting up conv3_3a_relu
I0413 14:13:55.106184 14838 net.cpp:148] Top shape: 100 32 16 16 (819200)
I0413 14:13:55.106189 14838 net.cpp:156] Memory required for data: 430490800
I0413 14:13:55.106194 14838 layer_factory.hpp:77] Creating layer conv3_3a_sum
I0413 14:13:55.106204 14838 net.cpp:91] Creating Layer conv3_3a_sum
I0413 14:13:55.106211 14838 net.cpp:425] conv3_3a_sum <- conv3_2_conv3_2_0_split_1
I0413 14:13:55.106217 14838 net.cpp:425] conv3_3a_sum <- conv3_3a
I0413 14:13:55.106225 14838 net.cpp:399] conv3_3a_sum -> conv3_3a_sum
I0413 14:13:55.106262 14838 net.cpp:141] Setting up conv3_3a_sum
I0413 14:13:55.106272 14838 net.cpp:148] Top shape: 100 32 16 16 (819200)
I0413 14:13:55.106277 14838 net.cpp:156] Memory required for data: 433767600
I0413 14:13:55.106283 14838 layer_factory.hpp:77] Creating layer conv3_3a_sum_conv3_3a_sum_0_split
I0413 14:13:55.106290 14838 net.cpp:91] Creating Layer conv3_3a_sum_conv3_3a_sum_0_split
I0413 14:13:55.106297 14838 net.cpp:425] conv3_3a_sum_conv3_3a_sum_0_split <- conv3_3a_sum
I0413 14:13:55.106303 14838 net.cpp:399] conv3_3a_sum_conv3_3a_sum_0_split -> conv3_3a_sum_conv3_3a_sum_0_split_0
I0413 14:13:55.106314 14838 net.cpp:399] conv3_3a_sum_conv3_3a_sum_0_split -> conv3_3a_sum_conv3_3a_sum_0_split_1
I0413 14:13:55.106366 14838 net.cpp:141] Setting up conv3_3a_sum_conv3_3a_sum_0_split
I0413 14:13:55.106376 14838 net.cpp:148] Top shape: 100 32 16 16 (819200)
I0413 14:13:55.106382 14838 net.cpp:148] Top shape: 100 32 16 16 (819200)
I0413 14:13:55.106392 14838 net.cpp:156] Memory required for data: 440321200
I0413 14:13:55.106398 14838 layer_factory.hpp:77] Creating layer conv3_3b
I0413 14:13:55.106413 14838 net.cpp:91] Creating Layer conv3_3b
I0413 14:13:55.106420 14838 net.cpp:425] conv3_3b <- conv3_3a_sum_conv3_3a_sum_0_split_0
I0413 14:13:55.106428 14838 net.cpp:399] conv3_3b -> conv3_3b
I0413 14:13:55.107977 14838 net.cpp:141] Setting up conv3_3b
I0413 14:13:55.107996 14838 net.cpp:148] Top shape: 100 32 16 16 (819200)
I0413 14:13:55.108003 14838 net.cpp:156] Memory required for data: 443598000
I0413 14:13:55.108013 14838 layer_factory.hpp:77] Creating layer bn_conv3_3b
I0413 14:13:55.108024 14838 net.cpp:91] Creating Layer bn_conv3_3b
I0413 14:13:55.108031 14838 net.cpp:425] bn_conv3_3b <- conv3_3b
I0413 14:13:55.108039 14838 net.cpp:386] bn_conv3_3b -> conv3_3b (in-place)
I0413 14:13:55.108299 14838 net.cpp:141] Setting up bn_conv3_3b
I0413 14:13:55.108310 14838 net.cpp:148] Top shape: 100 32 16 16 (819200)
I0413 14:13:55.108316 14838 net.cpp:156] Memory required for data: 446874800
I0413 14:13:55.108325 14838 layer_factory.hpp:77] Creating layer scale_conv3_3b
I0413 14:13:55.108336 14838 net.cpp:91] Creating Layer scale_conv3_3b
I0413 14:13:55.108342 14838 net.cpp:425] scale_conv3_3b <- conv3_3b
I0413 14:13:55.108350 14838 net.cpp:386] scale_conv3_3b -> conv3_3b (in-place)
I0413 14:13:55.108405 14838 layer_factory.hpp:77] Creating layer scale_conv3_3b
I0413 14:13:55.108556 14838 net.cpp:141] Setting up scale_conv3_3b
I0413 14:13:55.108566 14838 net.cpp:148] Top shape: 100 32 16 16 (819200)
I0413 14:13:55.108572 14838 net.cpp:156] Memory required for data: 450151600
I0413 14:13:55.108579 14838 layer_factory.hpp:77] Creating layer conv3_3_relu
I0413 14:13:55.108592 14838 net.cpp:91] Creating Layer conv3_3_relu
I0413 14:13:55.108598 14838 net.cpp:425] conv3_3_relu <- conv3_3b
I0413 14:13:55.108605 14838 net.cpp:386] conv3_3_relu -> conv3_3b (in-place)
I0413 14:13:55.108938 14838 net.cpp:141] Setting up conv3_3_relu
I0413 14:13:55.108957 14838 net.cpp:148] Top shape: 100 32 16 16 (819200)
I0413 14:13:55.108963 14838 net.cpp:156] Memory required for data: 453428400
I0413 14:13:55.108968 14838 layer_factory.hpp:77] Creating layer conv3_3
I0413 14:13:55.108976 14838 net.cpp:91] Creating Layer conv3_3
I0413 14:13:55.108983 14838 net.cpp:425] conv3_3 <- conv3_3b
I0413 14:13:55.108990 14838 net.cpp:425] conv3_3 <- conv3_3a_sum_conv3_3a_sum_0_split_1
I0413 14:13:55.109000 14838 net.cpp:399] conv3_3 -> conv3_3
I0413 14:13:55.109035 14838 net.cpp:141] Setting up conv3_3
I0413 14:13:55.109045 14838 net.cpp:148] Top shape: 100 32 16 16 (819200)
I0413 14:13:55.109050 14838 net.cpp:156] Memory required for data: 456705200
I0413 14:13:55.109055 14838 layer_factory.hpp:77] Creating layer conv3_3_conv3_3_0_split
I0413 14:13:55.109062 14838 net.cpp:91] Creating Layer conv3_3_conv3_3_0_split
I0413 14:13:55.109068 14838 net.cpp:425] conv3_3_conv3_3_0_split <- conv3_3
I0413 14:13:55.109078 14838 net.cpp:399] conv3_3_conv3_3_0_split -> conv3_3_conv3_3_0_split_0
I0413 14:13:55.109087 14838 net.cpp:399] conv3_3_conv3_3_0_split -> conv3_3_conv3_3_0_split_1
I0413 14:13:55.109151 14838 net.cpp:141] Setting up conv3_3_conv3_3_0_split
I0413 14:13:55.109164 14838 net.cpp:148] Top shape: 100 32 16 16 (819200)
I0413 14:13:55.109171 14838 net.cpp:148] Top shape: 100 32 16 16 (819200)
I0413 14:13:55.109176 14838 net.cpp:156] Memory required for data: 463258800
I0413 14:13:55.109182 14838 layer_factory.hpp:77] Creating layer conv3_sub
I0413 14:13:55.109195 14838 net.cpp:91] Creating Layer conv3_sub
I0413 14:13:55.109201 14838 net.cpp:425] conv3_sub <- conv3_3_conv3_3_0_split_0
I0413 14:13:55.109210 14838 net.cpp:399] conv3_sub -> conv3_sub
I0413 14:13:55.110391 14838 net.cpp:141] Setting up conv3_sub
I0413 14:13:55.110411 14838 net.cpp:148] Top shape: 100 64 8 8 (409600)
I0413 14:13:55.110419 14838 net.cpp:156] Memory required for data: 464897200
I0413 14:13:55.110429 14838 layer_factory.hpp:77] Creating layer bn_conv3_sub
I0413 14:13:55.110445 14838 net.cpp:91] Creating Layer bn_conv3_sub
I0413 14:13:55.110451 14838 net.cpp:425] bn_conv3_sub <- conv3_sub
I0413 14:13:55.110460 14838 net.cpp:386] bn_conv3_sub -> conv3_sub (in-place)
I0413 14:13:55.110728 14838 net.cpp:141] Setting up bn_conv3_sub
I0413 14:13:55.110738 14838 net.cpp:148] Top shape: 100 64 8 8 (409600)
I0413 14:13:55.110743 14838 net.cpp:156] Memory required for data: 466535600
I0413 14:13:55.110754 14838 layer_factory.hpp:77] Creating layer scale_conv3_sub
I0413 14:13:55.110762 14838 net.cpp:91] Creating Layer scale_conv3_sub
I0413 14:13:55.110769 14838 net.cpp:425] scale_conv3_sub <- conv3_sub
I0413 14:13:55.110775 14838 net.cpp:386] scale_conv3_sub -> conv3_sub (in-place)
I0413 14:13:55.110836 14838 layer_factory.hpp:77] Creating layer scale_conv3_sub
I0413 14:13:55.110990 14838 net.cpp:141] Setting up scale_conv3_sub
I0413 14:13:55.111001 14838 net.cpp:148] Top shape: 100 64 8 8 (409600)
I0413 14:13:55.111006 14838 net.cpp:156] Memory required for data: 468174000
I0413 14:13:55.111014 14838 layer_factory.hpp:77] Creating layer conv4_1a
I0413 14:13:55.111027 14838 net.cpp:91] Creating Layer conv4_1a
I0413 14:13:55.111034 14838 net.cpp:425] conv4_1a <- conv3_3_conv3_3_0_split_1
I0413 14:13:55.111043 14838 net.cpp:399] conv4_1a -> conv4_1a
I0413 14:13:55.112453 14838 net.cpp:141] Setting up conv4_1a
I0413 14:13:55.112473 14838 net.cpp:148] Top shape: 100 64 8 8 (409600)
I0413 14:13:55.112480 14838 net.cpp:156] Memory required for data: 469812400
I0413 14:13:55.112489 14838 layer_factory.hpp:77] Creating layer bn_conv4_1a
I0413 14:13:55.112501 14838 net.cpp:91] Creating Layer bn_conv4_1a
I0413 14:13:55.112509 14838 net.cpp:425] bn_conv4_1a <- conv4_1a
I0413 14:13:55.112516 14838 net.cpp:386] bn_conv4_1a -> conv4_1a (in-place)
I0413 14:13:55.112781 14838 net.cpp:141] Setting up bn_conv4_1a
I0413 14:13:55.112792 14838 net.cpp:148] Top shape: 100 64 8 8 (409600)
I0413 14:13:55.112797 14838 net.cpp:156] Memory required for data: 471450800
I0413 14:13:55.112807 14838 layer_factory.hpp:77] Creating layer scale_conv4_1a
I0413 14:13:55.112814 14838 net.cpp:91] Creating Layer scale_conv4_1a
I0413 14:13:55.112820 14838 net.cpp:425] scale_conv4_1a <- conv4_1a
I0413 14:13:55.112828 14838 net.cpp:386] scale_conv4_1a -> conv4_1a (in-place)
I0413 14:13:55.112886 14838 layer_factory.hpp:77] Creating layer scale_conv4_1a
I0413 14:13:55.113041 14838 net.cpp:141] Setting up scale_conv4_1a
I0413 14:13:55.113052 14838 net.cpp:148] Top shape: 100 64 8 8 (409600)
I0413 14:13:55.113057 14838 net.cpp:156] Memory required for data: 473089200
I0413 14:13:55.113065 14838 layer_factory.hpp:77] Creating layer conv4_1a_relu
I0413 14:13:55.113072 14838 net.cpp:91] Creating Layer conv4_1a_relu
I0413 14:13:55.113078 14838 net.cpp:425] conv4_1a_relu <- conv4_1a
I0413 14:13:55.113085 14838 net.cpp:386] conv4_1a_relu -> conv4_1a (in-place)
I0413 14:13:55.113451 14838 net.cpp:141] Setting up conv4_1a_relu
I0413 14:13:55.113468 14838 net.cpp:148] Top shape: 100 64 8 8 (409600)
I0413 14:13:55.113474 14838 net.cpp:156] Memory required for data: 474727600
I0413 14:13:55.113481 14838 layer_factory.hpp:77] Creating layer conv4_1a_sum
I0413 14:13:55.113489 14838 net.cpp:91] Creating Layer conv4_1a_sum
I0413 14:13:55.113495 14838 net.cpp:425] conv4_1a_sum <- conv3_sub
I0413 14:13:55.113502 14838 net.cpp:425] conv4_1a_sum <- conv4_1a
I0413 14:13:55.113512 14838 net.cpp:399] conv4_1a_sum -> conv4_1a_sum
I0413 14:13:55.113555 14838 net.cpp:141] Setting up conv4_1a_sum
I0413 14:13:55.113567 14838 net.cpp:148] Top shape: 100 64 8 8 (409600)
I0413 14:13:55.113572 14838 net.cpp:156] Memory required for data: 476366000
I0413 14:13:55.113579 14838 layer_factory.hpp:77] Creating layer conv4_1a_sum_conv4_1a_sum_0_split
I0413 14:13:55.113585 14838 net.cpp:91] Creating Layer conv4_1a_sum_conv4_1a_sum_0_split
I0413 14:13:55.113591 14838 net.cpp:425] conv4_1a_sum_conv4_1a_sum_0_split <- conv4_1a_sum
I0413 14:13:55.113598 14838 net.cpp:399] conv4_1a_sum_conv4_1a_sum_0_split -> conv4_1a_sum_conv4_1a_sum_0_split_0
I0413 14:13:55.113607 14838 net.cpp:399] conv4_1a_sum_conv4_1a_sum_0_split -> conv4_1a_sum_conv4_1a_sum_0_split_1
I0413 14:13:55.113668 14838 net.cpp:141] Setting up conv4_1a_sum_conv4_1a_sum_0_split
I0413 14:13:55.113678 14838 net.cpp:148] Top shape: 100 64 8 8 (409600)
I0413 14:13:55.113684 14838 net.cpp:148] Top shape: 100 64 8 8 (409600)
I0413 14:13:55.113689 14838 net.cpp:156] Memory required for data: 479642800
I0413 14:13:55.113695 14838 layer_factory.hpp:77] Creating layer conv4_1b
I0413 14:13:55.113716 14838 net.cpp:91] Creating Layer conv4_1b
I0413 14:13:55.113724 14838 net.cpp:425] conv4_1b <- conv4_1a_sum_conv4_1a_sum_0_split_0
I0413 14:13:55.113735 14838 net.cpp:399] conv4_1b -> conv4_1b
I0413 14:13:55.116168 14838 net.cpp:141] Setting up conv4_1b
I0413 14:13:55.116189 14838 net.cpp:148] Top shape: 100 64 8 8 (409600)
I0413 14:13:55.116194 14838 net.cpp:156] Memory required for data: 481281200
I0413 14:13:55.116204 14838 layer_factory.hpp:77] Creating layer bn_conv4_1b
I0413 14:13:55.116215 14838 net.cpp:91] Creating Layer bn_conv4_1b
I0413 14:13:55.116222 14838 net.cpp:425] bn_conv4_1b <- conv4_1b
I0413 14:13:55.116231 14838 net.cpp:386] bn_conv4_1b -> conv4_1b (in-place)
I0413 14:13:55.116498 14838 net.cpp:141] Setting up bn_conv4_1b
I0413 14:13:55.116509 14838 net.cpp:148] Top shape: 100 64 8 8 (409600)
I0413 14:13:55.116515 14838 net.cpp:156] Memory required for data: 482919600
I0413 14:13:55.116525 14838 layer_factory.hpp:77] Creating layer scale_conv4_1b
I0413 14:13:55.116535 14838 net.cpp:91] Creating Layer scale_conv4_1b
I0413 14:13:55.116541 14838 net.cpp:425] scale_conv4_1b <- conv4_1b
I0413 14:13:55.116549 14838 net.cpp:386] scale_conv4_1b -> conv4_1b (in-place)
I0413 14:13:55.116606 14838 layer_factory.hpp:77] Creating layer scale_conv4_1b
I0413 14:13:55.116765 14838 net.cpp:141] Setting up scale_conv4_1b
I0413 14:13:55.116775 14838 net.cpp:148] Top shape: 100 64 8 8 (409600)
I0413 14:13:55.116780 14838 net.cpp:156] Memory required for data: 484558000
I0413 14:13:55.116789 14838 layer_factory.hpp:77] Creating layer conv4_1_relu
I0413 14:13:55.116798 14838 net.cpp:91] Creating Layer conv4_1_relu
I0413 14:13:55.116804 14838 net.cpp:425] conv4_1_relu <- conv4_1b
I0413 14:13:55.116811 14838 net.cpp:386] conv4_1_relu -> conv4_1b (in-place)
I0413 14:13:55.117163 14838 net.cpp:141] Setting up conv4_1_relu
I0413 14:13:55.117182 14838 net.cpp:148] Top shape: 100 64 8 8 (409600)
I0413 14:13:55.117188 14838 net.cpp:156] Memory required for data: 486196400
I0413 14:13:55.117194 14838 layer_factory.hpp:77] Creating layer conv4_1
I0413 14:13:55.117205 14838 net.cpp:91] Creating Layer conv4_1
I0413 14:13:55.117213 14838 net.cpp:425] conv4_1 <- conv4_1a_sum_conv4_1a_sum_0_split_1
I0413 14:13:55.117219 14838 net.cpp:425] conv4_1 <- conv4_1b
I0413 14:13:55.117228 14838 net.cpp:399] conv4_1 -> conv4_1
I0413 14:13:55.117270 14838 net.cpp:141] Setting up conv4_1
I0413 14:13:55.117280 14838 net.cpp:148] Top shape: 100 64 8 8 (409600)
I0413 14:13:55.117285 14838 net.cpp:156] Memory required for data: 487834800
I0413 14:13:55.117290 14838 layer_factory.hpp:77] Creating layer conv4_1_conv4_1_0_split
I0413 14:13:55.117300 14838 net.cpp:91] Creating Layer conv4_1_conv4_1_0_split
I0413 14:13:55.117306 14838 net.cpp:425] conv4_1_conv4_1_0_split <- conv4_1
I0413 14:13:55.117313 14838 net.cpp:399] conv4_1_conv4_1_0_split -> conv4_1_conv4_1_0_split_0
I0413 14:13:55.117322 14838 net.cpp:399] conv4_1_conv4_1_0_split -> conv4_1_conv4_1_0_split_1
I0413 14:13:55.117384 14838 net.cpp:141] Setting up conv4_1_conv4_1_0_split
I0413 14:13:55.117395 14838 net.cpp:148] Top shape: 100 64 8 8 (409600)
I0413 14:13:55.117403 14838 net.cpp:148] Top shape: 100 64 8 8 (409600)
I0413 14:13:55.117408 14838 net.cpp:156] Memory required for data: 491111600
I0413 14:13:55.117413 14838 layer_factory.hpp:77] Creating layer conv4_2a
I0413 14:13:55.117427 14838 net.cpp:91] Creating Layer conv4_2a
I0413 14:13:55.117434 14838 net.cpp:425] conv4_2a <- conv4_1_conv4_1_0_split_0
I0413 14:13:55.117444 14838 net.cpp:399] conv4_2a -> conv4_2a
I0413 14:13:55.119990 14838 net.cpp:141] Setting up conv4_2a
I0413 14:13:55.120018 14838 net.cpp:148] Top shape: 100 64 8 8 (409600)
I0413 14:13:55.120024 14838 net.cpp:156] Memory required for data: 492750000
I0413 14:13:55.120036 14838 layer_factory.hpp:77] Creating layer bn_conv4_2a
I0413 14:13:55.120048 14838 net.cpp:91] Creating Layer bn_conv4_2a
I0413 14:13:55.120054 14838 net.cpp:425] bn_conv4_2a <- conv4_2a
I0413 14:13:55.120064 14838 net.cpp:386] bn_conv4_2a -> conv4_2a (in-place)
I0413 14:13:55.120332 14838 net.cpp:141] Setting up bn_conv4_2a
I0413 14:13:55.120343 14838 net.cpp:148] Top shape: 100 64 8 8 (409600)
I0413 14:13:55.120349 14838 net.cpp:156] Memory required for data: 494388400
I0413 14:13:55.120359 14838 layer_factory.hpp:77] Creating layer scale_conv4_2a
I0413 14:13:55.120368 14838 net.cpp:91] Creating Layer scale_conv4_2a
I0413 14:13:55.120373 14838 net.cpp:425] scale_conv4_2a <- conv4_2a
I0413 14:13:55.120380 14838 net.cpp:386] scale_conv4_2a -> conv4_2a (in-place)
I0413 14:13:55.120440 14838 layer_factory.hpp:77] Creating layer scale_conv4_2a
I0413 14:13:55.120597 14838 net.cpp:141] Setting up scale_conv4_2a
I0413 14:13:55.120609 14838 net.cpp:148] Top shape: 100 64 8 8 (409600)
I0413 14:13:55.120614 14838 net.cpp:156] Memory required for data: 496026800
I0413 14:13:55.120622 14838 layer_factory.hpp:77] Creating layer conv4_2a_relu
I0413 14:13:55.120631 14838 net.cpp:91] Creating Layer conv4_2a_relu
I0413 14:13:55.120637 14838 net.cpp:425] conv4_2a_relu <- conv4_2a
I0413 14:13:55.120645 14838 net.cpp:386] conv4_2a_relu -> conv4_2a (in-place)
I0413 14:13:55.120857 14838 net.cpp:141] Setting up conv4_2a_relu
I0413 14:13:55.120874 14838 net.cpp:148] Top shape: 100 64 8 8 (409600)
I0413 14:13:55.120879 14838 net.cpp:156] Memory required for data: 497665200
I0413 14:13:55.120885 14838 layer_factory.hpp:77] Creating layer conv4_2a_sum
I0413 14:13:55.120893 14838 net.cpp:91] Creating Layer conv4_2a_sum
I0413 14:13:55.120899 14838 net.cpp:425] conv4_2a_sum <- conv4_1_conv4_1_0_split_1
I0413 14:13:55.120906 14838 net.cpp:425] conv4_2a_sum <- conv4_2a
I0413 14:13:55.120916 14838 net.cpp:399] conv4_2a_sum -> conv4_2a_sum
I0413 14:13:55.120956 14838 net.cpp:141] Setting up conv4_2a_sum
I0413 14:13:55.120966 14838 net.cpp:148] Top shape: 100 64 8 8 (409600)
I0413 14:13:55.120971 14838 net.cpp:156] Memory required for data: 499303600
I0413 14:13:55.120976 14838 layer_factory.hpp:77] Creating layer conv4_2a_sum_conv4_2a_sum_0_split
I0413 14:13:55.120986 14838 net.cpp:91] Creating Layer conv4_2a_sum_conv4_2a_sum_0_split
I0413 14:13:55.120992 14838 net.cpp:425] conv4_2a_sum_conv4_2a_sum_0_split <- conv4_2a_sum
I0413 14:13:55.121000 14838 net.cpp:399] conv4_2a_sum_conv4_2a_sum_0_split -> conv4_2a_sum_conv4_2a_sum_0_split_0
I0413 14:13:55.121008 14838 net.cpp:399] conv4_2a_sum_conv4_2a_sum_0_split -> conv4_2a_sum_conv4_2a_sum_0_split_1
I0413 14:13:55.121063 14838 net.cpp:141] Setting up conv4_2a_sum_conv4_2a_sum_0_split
I0413 14:13:55.121073 14838 net.cpp:148] Top shape: 100 64 8 8 (409600)
I0413 14:13:55.121079 14838 net.cpp:148] Top shape: 100 64 8 8 (409600)
I0413 14:13:55.121084 14838 net.cpp:156] Memory required for data: 502580400
I0413 14:13:55.121089 14838 layer_factory.hpp:77] Creating layer conv4_2b
I0413 14:13:55.121104 14838 net.cpp:91] Creating Layer conv4_2b
I0413 14:13:55.121119 14838 net.cpp:425] conv4_2b <- conv4_2a_sum_conv4_2a_sum_0_split_0
I0413 14:13:55.121131 14838 net.cpp:399] conv4_2b -> conv4_2b
I0413 14:13:55.124251 14838 net.cpp:141] Setting up conv4_2b
I0413 14:13:55.124272 14838 net.cpp:148] Top shape: 100 64 8 8 (409600)
I0413 14:13:55.124279 14838 net.cpp:156] Memory required for data: 504218800
I0413 14:13:55.124289 14838 layer_factory.hpp:77] Creating layer bn_conv4_2b
I0413 14:13:55.124301 14838 net.cpp:91] Creating Layer bn_conv4_2b
I0413 14:13:55.124308 14838 net.cpp:425] bn_conv4_2b <- conv4_2b
I0413 14:13:55.124316 14838 net.cpp:386] bn_conv4_2b -> conv4_2b (in-place)
I0413 14:13:55.124583 14838 net.cpp:141] Setting up bn_conv4_2b
I0413 14:13:55.124593 14838 net.cpp:148] Top shape: 100 64 8 8 (409600)
I0413 14:13:55.124599 14838 net.cpp:156] Memory required for data: 505857200
I0413 14:13:55.124634 14838 layer_factory.hpp:77] Creating layer scale_conv4_2b
I0413 14:13:55.124644 14838 net.cpp:91] Creating Layer scale_conv4_2b
I0413 14:13:55.124650 14838 net.cpp:425] scale_conv4_2b <- conv4_2b
I0413 14:13:55.124657 14838 net.cpp:386] scale_conv4_2b -> conv4_2b (in-place)
I0413 14:13:55.124722 14838 layer_factory.hpp:77] Creating layer scale_conv4_2b
I0413 14:13:55.124883 14838 net.cpp:141] Setting up scale_conv4_2b
I0413 14:13:55.124896 14838 net.cpp:148] Top shape: 100 64 8 8 (409600)
I0413 14:13:55.124900 14838 net.cpp:156] Memory required for data: 507495600
I0413 14:13:55.124909 14838 layer_factory.hpp:77] Creating layer conv4_2_relu
I0413 14:13:55.124917 14838 net.cpp:91] Creating Layer conv4_2_relu
I0413 14:13:55.124922 14838 net.cpp:425] conv4_2_relu <- conv4_2b
I0413 14:13:55.124929 14838 net.cpp:386] conv4_2_relu -> conv4_2b (in-place)
I0413 14:13:55.125288 14838 net.cpp:141] Setting up conv4_2_relu
I0413 14:13:55.125306 14838 net.cpp:148] Top shape: 100 64 8 8 (409600)
I0413 14:13:55.125313 14838 net.cpp:156] Memory required for data: 509134000
I0413 14:13:55.125319 14838 layer_factory.hpp:77] Creating layer conv4_2
I0413 14:13:55.125329 14838 net.cpp:91] Creating Layer conv4_2
I0413 14:13:55.125335 14838 net.cpp:425] conv4_2 <- conv4_2a_sum_conv4_2a_sum_0_split_1
I0413 14:13:55.125344 14838 net.cpp:425] conv4_2 <- conv4_2b
I0413 14:13:55.125351 14838 net.cpp:399] conv4_2 -> conv4_2
I0413 14:13:55.125394 14838 net.cpp:141] Setting up conv4_2
I0413 14:13:55.125406 14838 net.cpp:148] Top shape: 100 64 8 8 (409600)
I0413 14:13:55.125412 14838 net.cpp:156] Memory required for data: 510772400
I0413 14:13:55.125417 14838 layer_factory.hpp:77] Creating layer conv4_2_conv4_2_0_split
I0413 14:13:55.125425 14838 net.cpp:91] Creating Layer conv4_2_conv4_2_0_split
I0413 14:13:55.125432 14838 net.cpp:425] conv4_2_conv4_2_0_split <- conv4_2
I0413 14:13:55.125440 14838 net.cpp:399] conv4_2_conv4_2_0_split -> conv4_2_conv4_2_0_split_0
I0413 14:13:55.125450 14838 net.cpp:399] conv4_2_conv4_2_0_split -> conv4_2_conv4_2_0_split_1
I0413 14:13:55.125504 14838 net.cpp:141] Setting up conv4_2_conv4_2_0_split
I0413 14:13:55.125514 14838 net.cpp:148] Top shape: 100 64 8 8 (409600)
I0413 14:13:55.125521 14838 net.cpp:148] Top shape: 100 64 8 8 (409600)
I0413 14:13:55.125526 14838 net.cpp:156] Memory required for data: 514049200
I0413 14:13:55.125531 14838 layer_factory.hpp:77] Creating layer conv4_3a
I0413 14:13:55.125545 14838 net.cpp:91] Creating Layer conv4_3a
I0413 14:13:55.125552 14838 net.cpp:425] conv4_3a <- conv4_2_conv4_2_0_split_0
I0413 14:13:55.125561 14838 net.cpp:399] conv4_3a -> conv4_3a
I0413 14:13:55.127979 14838 net.cpp:141] Setting up conv4_3a
I0413 14:13:55.127998 14838 net.cpp:148] Top shape: 100 64 8 8 (409600)
I0413 14:13:55.128005 14838 net.cpp:156] Memory required for data: 515687600
I0413 14:13:55.128015 14838 layer_factory.hpp:77] Creating layer bn_conv4_3a
I0413 14:13:55.128026 14838 net.cpp:91] Creating Layer bn_conv4_3a
I0413 14:13:55.128033 14838 net.cpp:425] bn_conv4_3a <- conv4_3a
I0413 14:13:55.128041 14838 net.cpp:386] bn_conv4_3a -> conv4_3a (in-place)
I0413 14:13:55.128316 14838 net.cpp:141] Setting up bn_conv4_3a
I0413 14:13:55.128327 14838 net.cpp:148] Top shape: 100 64 8 8 (409600)
I0413 14:13:55.128332 14838 net.cpp:156] Memory required for data: 517326000
I0413 14:13:55.128342 14838 layer_factory.hpp:77] Creating layer scale_conv4_3a
I0413 14:13:55.128351 14838 net.cpp:91] Creating Layer scale_conv4_3a
I0413 14:13:55.128357 14838 net.cpp:425] scale_conv4_3a <- conv4_3a
I0413 14:13:55.128365 14838 net.cpp:386] scale_conv4_3a -> conv4_3a (in-place)
I0413 14:13:55.128428 14838 layer_factory.hpp:77] Creating layer scale_conv4_3a
I0413 14:13:55.128590 14838 net.cpp:141] Setting up scale_conv4_3a
I0413 14:13:55.128600 14838 net.cpp:148] Top shape: 100 64 8 8 (409600)
I0413 14:13:55.128607 14838 net.cpp:156] Memory required for data: 518964400
I0413 14:13:55.128614 14838 layer_factory.hpp:77] Creating layer conv4_3a_relu
I0413 14:13:55.128629 14838 net.cpp:91] Creating Layer conv4_3a_relu
I0413 14:13:55.128634 14838 net.cpp:425] conv4_3a_relu <- conv4_3a
I0413 14:13:55.128641 14838 net.cpp:386] conv4_3a_relu -> conv4_3a (in-place)
I0413 14:13:55.128988 14838 net.cpp:141] Setting up conv4_3a_relu
I0413 14:13:55.129005 14838 net.cpp:148] Top shape: 100 64 8 8 (409600)
I0413 14:13:55.129011 14838 net.cpp:156] Memory required for data: 520602800
I0413 14:13:55.129017 14838 layer_factory.hpp:77] Creating layer conv4_3a_sum
I0413 14:13:55.129026 14838 net.cpp:91] Creating Layer conv4_3a_sum
I0413 14:13:55.129032 14838 net.cpp:425] conv4_3a_sum <- conv4_2_conv4_2_0_split_1
I0413 14:13:55.129040 14838 net.cpp:425] conv4_3a_sum <- conv4_3a
I0413 14:13:55.129050 14838 net.cpp:399] conv4_3a_sum -> conv4_3a_sum
I0413 14:13:55.129093 14838 net.cpp:141] Setting up conv4_3a_sum
I0413 14:13:55.129106 14838 net.cpp:148] Top shape: 100 64 8 8 (409600)
I0413 14:13:55.129122 14838 net.cpp:156] Memory required for data: 522241200
I0413 14:13:55.129129 14838 layer_factory.hpp:77] Creating layer conv4_3a_sum_conv4_3a_sum_0_split
I0413 14:13:55.129137 14838 net.cpp:91] Creating Layer conv4_3a_sum_conv4_3a_sum_0_split
I0413 14:13:55.129143 14838 net.cpp:425] conv4_3a_sum_conv4_3a_sum_0_split <- conv4_3a_sum
I0413 14:13:55.129151 14838 net.cpp:399] conv4_3a_sum_conv4_3a_sum_0_split -> conv4_3a_sum_conv4_3a_sum_0_split_0
I0413 14:13:55.129160 14838 net.cpp:399] conv4_3a_sum_conv4_3a_sum_0_split -> conv4_3a_sum_conv4_3a_sum_0_split_1
I0413 14:13:55.129220 14838 net.cpp:141] Setting up conv4_3a_sum_conv4_3a_sum_0_split
I0413 14:13:55.129230 14838 net.cpp:148] Top shape: 100 64 8 8 (409600)
I0413 14:13:55.129236 14838 net.cpp:148] Top shape: 100 64 8 8 (409600)
I0413 14:13:55.129241 14838 net.cpp:156] Memory required for data: 525518000
I0413 14:13:55.129246 14838 layer_factory.hpp:77] Creating layer conv4_3b
I0413 14:13:55.129261 14838 net.cpp:91] Creating Layer conv4_3b
I0413 14:13:55.129268 14838 net.cpp:425] conv4_3b <- conv4_3a_sum_conv4_3a_sum_0_split_0
I0413 14:13:55.129278 14838 net.cpp:399] conv4_3b -> conv4_3b
I0413 14:13:55.131829 14838 net.cpp:141] Setting up conv4_3b
I0413 14:13:55.131849 14838 net.cpp:148] Top shape: 100 64 8 8 (409600)
I0413 14:13:55.131855 14838 net.cpp:156] Memory required for data: 527156400
I0413 14:13:55.131865 14838 layer_factory.hpp:77] Creating layer bn_conv4_3b
I0413 14:13:55.131876 14838 net.cpp:91] Creating Layer bn_conv4_3b
I0413 14:13:55.131883 14838 net.cpp:425] bn_conv4_3b <- conv4_3b
I0413 14:13:55.131891 14838 net.cpp:386] bn_conv4_3b -> conv4_3b (in-place)
I0413 14:13:55.132165 14838 net.cpp:141] Setting up bn_conv4_3b
I0413 14:13:55.132176 14838 net.cpp:148] Top shape: 100 64 8 8 (409600)
I0413 14:13:55.132182 14838 net.cpp:156] Memory required for data: 528794800
I0413 14:13:55.132192 14838 layer_factory.hpp:77] Creating layer scale_conv4_3b
I0413 14:13:55.132201 14838 net.cpp:91] Creating Layer scale_conv4_3b
I0413 14:13:55.132206 14838 net.cpp:425] scale_conv4_3b <- conv4_3b
I0413 14:13:55.132213 14838 net.cpp:386] scale_conv4_3b -> conv4_3b (in-place)
I0413 14:13:55.132275 14838 layer_factory.hpp:77] Creating layer scale_conv4_3b
I0413 14:13:55.132436 14838 net.cpp:141] Setting up scale_conv4_3b
I0413 14:13:55.132446 14838 net.cpp:148] Top shape: 100 64 8 8 (409600)
I0413 14:13:55.132452 14838 net.cpp:156] Memory required for data: 530433200
I0413 14:13:55.132459 14838 layer_factory.hpp:77] Creating layer conv4_3_relu
I0413 14:13:55.132467 14838 net.cpp:91] Creating Layer conv4_3_relu
I0413 14:13:55.132472 14838 net.cpp:425] conv4_3_relu <- conv4_3b
I0413 14:13:55.132479 14838 net.cpp:386] conv4_3_relu -> conv4_3b (in-place)
I0413 14:13:55.132694 14838 net.cpp:141] Setting up conv4_3_relu
I0413 14:13:55.132707 14838 net.cpp:148] Top shape: 100 64 8 8 (409600)
I0413 14:13:55.132714 14838 net.cpp:156] Memory required for data: 532071600
I0413 14:13:55.132719 14838 layer_factory.hpp:77] Creating layer conv4_3
I0413 14:13:55.132728 14838 net.cpp:91] Creating Layer conv4_3
I0413 14:13:55.132735 14838 net.cpp:425] conv4_3 <- conv4_3a_sum_conv4_3a_sum_0_split_1
I0413 14:13:55.132750 14838 net.cpp:425] conv4_3 <- conv4_3b
I0413 14:13:55.132758 14838 net.cpp:399] conv4_3 -> conv4_3
I0413 14:13:55.132802 14838 net.cpp:141] Setting up conv4_3
I0413 14:13:55.132812 14838 net.cpp:148] Top shape: 100 64 8 8 (409600)
I0413 14:13:55.132818 14838 net.cpp:156] Memory required for data: 533710000
I0413 14:13:55.132823 14838 layer_factory.hpp:77] Creating layer global_pool
I0413 14:13:55.132833 14838 net.cpp:91] Creating Layer global_pool
I0413 14:13:55.132838 14838 net.cpp:425] global_pool <- conv4_3
I0413 14:13:55.132848 14838 net.cpp:399] global_pool -> global_pool
I0413 14:13:55.133230 14838 net.cpp:141] Setting up global_pool
I0413 14:13:55.133249 14838 net.cpp:148] Top shape: 100 64 1 1 (6400)
I0413 14:13:55.133255 14838 net.cpp:156] Memory required for data: 533735600
I0413 14:13:55.133261 14838 layer_factory.hpp:77] Creating layer ip
I0413 14:13:55.133270 14838 net.cpp:91] Creating Layer ip
I0413 14:13:55.133276 14838 net.cpp:425] ip <- global_pool
I0413 14:13:55.133287 14838 net.cpp:399] ip -> ip
I0413 14:13:55.133450 14838 net.cpp:141] Setting up ip
I0413 14:13:55.133461 14838 net.cpp:148] Top shape: 100 10 (1000)
I0413 14:13:55.133466 14838 net.cpp:156] Memory required for data: 533739600
I0413 14:13:55.133476 14838 layer_factory.hpp:77] Creating layer ip_ip_0_split
I0413 14:13:55.133484 14838 net.cpp:91] Creating Layer ip_ip_0_split
I0413 14:13:55.133489 14838 net.cpp:425] ip_ip_0_split <- ip
I0413 14:13:55.133499 14838 net.cpp:399] ip_ip_0_split -> ip_ip_0_split_0
I0413 14:13:55.133508 14838 net.cpp:399] ip_ip_0_split -> ip_ip_0_split_1
I0413 14:13:55.133563 14838 net.cpp:141] Setting up ip_ip_0_split
I0413 14:13:55.133574 14838 net.cpp:148] Top shape: 100 10 (1000)
I0413 14:13:55.133580 14838 net.cpp:148] Top shape: 100 10 (1000)
I0413 14:13:55.133586 14838 net.cpp:156] Memory required for data: 533747600
I0413 14:13:55.133591 14838 layer_factory.hpp:77] Creating layer accuracy
I0413 14:13:55.133599 14838 net.cpp:91] Creating Layer accuracy
I0413 14:13:55.133605 14838 net.cpp:425] accuracy <- ip_ip_0_split_0
I0413 14:13:55.133611 14838 net.cpp:425] accuracy <- label_cifar_1_split_0
I0413 14:13:55.133620 14838 net.cpp:399] accuracy -> accuracy
…
