…
I0421 22:02:57.801578 12189 solver.cpp:91] Creating training net from net file: prototxt/ResNet-cifar.prototxt
I0421 22:02:57.803349 12189 net.cpp:313] The NetState phase (0) differed from the phase (1) specified by a rule in layer cifar
I0421 22:02:57.803798 12189 net.cpp:49] Initializing net from parameters: 
name: "ResNet-cifar"
state {
  phase: TRAIN
}
layer {
  name: "cifar"
  type: "Data"
  top: "data"
  top: "label"
  include {
    phase: TRAIN
  }
  transform_param {
    mirror: true
    mean_file: "data/cifar10/mean.binaryproto"
  }
  data_param {
    source: "data/cifar10/cifar10_train_lmdb"
    batch_size: 256
    backend: LMDB
  }
}
layer {
  name: "conv1"
  type: "Convolution"
  bottom: "data"
  top: "conv1"
  param {
    lr_mult: 1
  }
  param {
    lr_mult: 2
  }
  convolution_param {
    num_output: 16
    pad: 1
    kernel_size: 3
    weight_filler {
      type: "msra"
    }
    bias_filler {
      type: "constant"
    }
  }
}
layer {
  name: "bn_conv1"
  type: "BatchNorm"
  bottom: "conv1"
  top: "conv1"
  param {
    lr_mult: 0
  }
  param {
    lr_mult: 0
  }
  param {
    lr_mult: 0
  }
}
layer {
  name: "scale_conv1"
  type: "Scale"
  bottom: "conv1"
  top: "conv1"
  scale_param {
    bias_term: true
  }
}
layer {
  name: "conv1_relu"
  type: "ReLU"
  bottom: "conv1"
  top: "conv1"
}
layer {
  name: "conv2_1a"
  type: "Convolution"
  bottom: "conv1"
  top: "conv2_1a"
  param {
    lr_mult: 1
  }
  param {
    lr_mult: 2
  }
  convolution_param {
    num_output: 16
    pad: 1
    kernel_size: 3
    stride: 1
    weight_filler {
      type: "msra"
    }
    bias_filler {
      type: "constant"
      value: 0
    }
  }
}
layer {
  name: "bn_conv2_1a"
  type: "BatchNorm"
  bottom: "conv2_1a"
  top: "conv2_1a"
  param {
    lr_mult: 0
  }
  param {
    lr_mult: 0
  }
  param {
    lr_mult: 0
  }
}
layer {
  name: "scale_conv2_1a"
  type: "Scale"
  bottom: "conv2_1a"
  top: "conv2_1a"
  scale_param {
    bias_term: true
  }
}
layer {
  name: "conv2_1a_relu"
  type: "ReLU"
  bottom: "conv2_1a"
  top: "conv2_1a"
}
layer {
  name: "conv2_1b"
  type: "Convolution"
  bottom: "conv2_1a"
  top: "conv2_1b"
  param {
    lr_mult: 1
  }
  param {
    lr_mult: 2
  }
  convolution_param {
    num_output: 16
    pad: 1
    kernel_size: 3
    stride: 1
    weight_filler {
      type: "msra"
    }
    bias_filler {
      type: "constant"
      value: 0
    }
  }
}
layer {
  name: "bn_conv2_1b"
  type: "BatchNorm"
  bottom: "conv2_1b"
  top: "conv2_1b"
  param {
    lr_mult: 0
  }
  param {
    lr_mult: 0
  }
  param {
    lr_mult: 0
  }
}
layer {
  name: "scale_conv2_1b"
  type: "Scale"
  bottom: "conv2_1b"
  top: "conv2_1b"
  scale_param {
    bias_term: true
  }
}
layer {
  name: "conv2_1"
  type: "Eltwise"
  bottom: "conv2_1b"
  bottom: "conv1"
  top: "conv2_1"
}
layer {
  name: "conv2_1_relu"
  type: "ReLU"
  bottom: "conv2_1"
  top: "conv2_1"
}
layer {
  name: "conv2_2a"
  type: "Convolution"
  bottom: "conv2_1"
  top: "conv2_2a"
  param {
    lr_mult: 1
  }
  param {
    lr_mult: 2
  }
  convolution_param {
    num_output: 16
    pad: 1
    kernel_size: 3
    stride: 1
    weight_filler {
      type: "msra"
    }
    bias_filler {
      type: "constant"
      value: 0
    }
  }
}
layer {
  name: "bn_conv2_2a"
  type: "BatchNorm"
  bottom: "conv2_2a"
  top: "conv2_2a"
  param {
    lr_mult: 0
  }
  param {
    lr_mult: 0
  }
  param {
    lr_mult: 0
  }
}
layer {
  name: "scale_conv2_2a"
  type: "Scale"
  bottom: "conv2_2a"
  top: "conv2_2a"
  scale_param {
    bias_term: true
  }
}
layer {
  name: "conv2_2a_relu"
  type: "ReLU"
  bottom: "conv2_2a"
  top: "conv2_2a"
}
layer {
  name: "conv2_2b"
  type: "Convolution"
  bottom: "conv2_2a"
  top: "conv2_2b"
  param {
    lr_mult: 1
  }
  param {
    lr_mult: 2
  }
  convolution_param {
    num_output: 16
    pad: 1
    kernel_size: 3
    stride: 1
    weight_filler {
      type: "msra"
    }
    bias_filler {
      type: "constant"
      value: 0
    }
  }
}
layer {
  name: "bn_conv2_2b"
  type: "BatchNorm"
  bottom: "conv2_2b"
  top: "conv2_2b"
  param {
    lr_mult: 0
  }
  param {
    lr_mult: 0
  }
  param {
    lr_mult: 0
  }
}
layer {
  name: "scale_conv2_2b"
  type: "Scale"
  bottom: "conv2_2b"
  top: "conv2_2b"
  scale_param {
    bias_term: true
  }
}
layer {
  name: "conv2_2"
  type: "Eltwise"
  bottom: "conv2_2b"
  bottom: "conv2_1"
  top: "conv2_2"
}
layer {
  name: "conv2_2_relu"
  type: "ReLU"
  bottom: "conv2_2"
  top: "conv2_2"
}
layer {
  name: "conv2_3a"
  type: "Convolution"
  bottom: "conv2_2"
  top: "conv2_3a"
  param {
    lr_mult: 1
  }
  param {
    lr_mult: 2
  }
  convolution_param {
    num_output: 16
    pad: 1
    kernel_size: 3
    stride: 1
    weight_filler {
      type: "msra"
    }
    bias_filler {
      type: "constant"
      value: 0
    }
  }
}
layer {
  name: "bn_conv2_3a"
  type: "BatchNorm"
  bottom: "conv2_3a"
  top: "conv2_3a"
  param {
    lr_mult: 0
  }
  param {
    lr_mult: 0
  }
  param {
    lr_mult: 0
  }
}
layer {
  name: "scale_conv2_3a"
  type: "Scale"
  bottom: "conv2_3a"
  top: "conv2_3a"
  scale_param {
    bias_term: true
  }
}
layer {
  name: "conv2_3a_relu"
  type: "ReLU"
  bottom: "conv2_3a"
  top: "conv2_3a"
}
layer {
  name: "conv2_3b"
  type: "Convolution"
  bottom: "conv2_3a"
  top: "conv2_3b"
  param {
    lr_mult: 1
  }
  param {
    lr_mult: 2
  }
  convolution_param {
    num_output: 16
    pad: 1
    kernel_size: 3
    stride: 1
    weight_filler {
      type: "msra"
    }
    bias_filler {
      type: "constant"
      value: 0
    }
  }
}
layer {
  name: "bn_conv2_3b"
  type: "BatchNorm"
  bottom: "conv2_3b"
  top: "conv2_3b"
  param {
    lr_mult: 0
  }
  param {
    lr_mult: 0
  }
  param {
    lr_mult: 0
  }
}
layer {
  name: "scale_conv2_3b"
  type: "Scale"
  bottom: "conv2_3b"
  top: "conv2_3b"
  scale_param {
    bias_term: true
  }
}
layer {
  name: "conv2_3"
  type: "Eltwise"
  bottom: "conv1"
  bottom: "conv2_3b"
  bottom: "conv2_2"
  top: "conv2_3"
}
layer {
  name: "conv2_3_relu"
  type: "ReLU"
  bottom: "conv2_3"
  top: "conv2_3"
}
layer {
  name: "conv2_sub"
  type: "Convolution"
  bottom: "conv2_3"
  top: "conv2_sub"
  param {
    lr_mult: 1
  }
  param {
    lr_mult: 2
  }
  convolution_param {
    num_output: 32
    kernel_size: 1
    stride: 2
    weight_filler {
      type: "msra"
    }
    bias_filler {
      type: "constant"
      value: 0
    }
  }
}
layer {
  name: "bn_conv2_sub"
  type: "BatchNorm"
  bottom: "conv2_sub"
  top: "conv2_sub"
  param {
    lr_mult: 0
  }
  param {
    lr_mult: 0
  }
  param {
    lr_mult: 0
  }
}
layer {
  name: "scale_conv2_sub"
  type: "Scale"
  bottom: "conv2_sub"
  top: "conv2_sub"
  scale_param {
    bias_term: true
  }
}
layer {
  name: "conv3_1a"
  type: "Convolution"
  bottom: "conv2_3"
  top: "conv3_1a"
  param {
    lr_mult: 1
  }
  param {
    lr_mult: 2
  }
  convolution_param {
    num_output: 32
    pad: 0
    kernel_size: 1
    stride: 2
    weight_filler {
      type: "msra"
    }
    bias_filler {
      type: "constant"
      value: 0
    }
  }
}
layer {
  name: "bn_conv3_1a"
  type: "BatchNorm"
  bottom: "conv3_1a"
  top: "conv3_1a"
  param {
    lr_mult: 0
  }
  param {
    lr_mult: 0
  }
  param {
    lr_mult: 0
  }
}
layer {
  name: "scale_conv3_1a"
  type: "Scale"
  bottom: "conv3_1a"
  top: "conv3_1a"
  scale_param {
    bias_term: true
  }
}
layer {
  name: "conv3_1a_relu"
  type: "ReLU"
  bottom: "conv3_1a"
  top: "conv3_1a"
}
layer {
  name: "conv3_1b"
  type: "Convolution"
  bottom: "conv3_1a"
  top: "conv3_1b"
  param {
    lr_mult: 1
  }
  param {
    lr_mult: 2
  }
  convolution_param {
    num_output: 32
    pad: 1
    kernel_size: 3
    stride: 1
    weight_filler {
      type: "msra"
    }
    bias_filler {
      type: "constant"
      value: 0
    }
  }
}
layer {
  name: "bn_conv3_1b"
  type: "BatchNorm"
  bottom: "conv3_1b"
  top: "conv3_1b"
  param {
    lr_mult: 0
  }
  param {
    lr_mult: 0
  }
  param {
    lr_mult: 0
  }
}
layer {
  name: "scale_conv3_1b"
  type: "Scale"
  bottom: "conv3_1b"
  top: "conv3_1b"
  scale_param {
    bias_term: true
  }
}
layer {
  name: "conv3_1"
  type: "Eltwise"
  bottom: "conv3_1b"
  bottom: "conv2_sub"
  top: "conv3_1"
}
layer {
  name: "conv3_1_relu"
  type: "ReLU"
  bottom: "conv3_1"
  top: "conv3_1"
}
layer {
  name: "conv3_2a"
  type: "Convolution"
  bottom: "conv3_1"
  top: "conv3_2a"
  param {
    lr_mult: 1
  }
  param {
    lr_mult: 2
  }
  convolution_param {
    num_output: 32
    pad: 1
    kernel_size: 3
    stride: 1
    weight_filler {
      type: "msra"
    }
    bias_filler {
      type: "constant"
      value: 0
    }
  }
}
layer {
  name: "bn_conv3_2a"
  type: "BatchNorm"
  bottom: "conv3_2a"
  top: "conv3_2a"
  param {
    lr_mult: 0
  }
  param {
    lr_mult: 0
  }
  param {
    lr_mult: 0
  }
}
layer {
  name: "scale_conv3_2a"
  type: "Scale"
  bottom: "conv3_2a"
  top: "conv3_2a"
  scale_param {
    bias_term: true
  }
}
layer {
  name: "conv3_2a_relu"
  type: "ReLU"
  bottom: "conv3_2a"
  top: "conv3_2a"
}
layer {
  name: "conv3_2b"
  type: "Convolution"
  bottom: "conv3_2a"
  top: "conv3_2b"
  param {
    lr_mult: 1
  }
  param {
    lr_mult: 2
  }
  convolution_param {
    num_output: 32
    pad: 1
    kernel_size: 3
    stride: 1
    weight_filler {
      type: "msra"
    }
    bias_filler {
      type: "constant"
      value: 0
    }
  }
}
layer {
  name: "bn_conv3_2b"
  type: "BatchNorm"
  bottom: "conv3_2b"
  top: "conv3_2b"
  param {
    lr_mult: 0
  }
  param {
    lr_mult: 0
  }
  param {
    lr_mult: 0
  }
}
layer {
  name: "scale_conv3_2b"
  type: "Scale"
  bottom: "conv3_2b"
  top: "conv3_2b"
  scale_param {
    bias_term: true
  }
}
layer {
  name: "conv3_2"
  type: "Eltwise"
  bottom: "conv3_2b"
  bottom: "conv3_1"
  top: "conv3_2"
}
layer {
  name: "conv3_2_relu"
  type: "ReLU"
  bottom: "conv3_2"
  top: "conv3_2"
}
layer {
  name: "conv3_3a"
  type: "Convolution"
  bottom: "conv3_2"
  top: "conv3_3a"
  param {
    lr_mult: 1
  }
  param {
    lr_mult: 2
  }
  convolution_param {
    num_output: 32
    pad: 1
    kernel_size: 3
    stride: 1
    weight_filler {
      type: "msra"
    }
    bias_filler {
      type: "constant"
      value: 0
    }
  }
}
layer {
  name: "bn_conv3_3a"
  type: "BatchNorm"
  bottom: "conv3_3a"
  top: "conv3_3a"
  param {
    lr_mult: 0
  }
  param {
    lr_mult: 0
  }
  param {
    lr_mult: 0
  }
}
layer {
  name: "scale_conv3_3a"
  type: "Scale"
  bottom: "conv3_3a"
  top: "conv3_3a"
  scale_param {
    bias_term: true
  }
}
layer {
  name: "conv3_3a_relu"
  type: "ReLU"
  bottom: "conv3_3a"
  top: "conv3_3a"
}
layer {
  name: "conv3_3b"
  type: "Convolution"
  bottom: "conv3_3a"
  top: "conv3_3b"
  param {
    lr_mult: 1
  }
  param {
    lr_mult: 2
  }
  convolution_param {
    num_output: 32
    pad: 1
    kernel_size: 3
    stride: 1
    weight_filler {
      type: "msra"
    }
    bias_filler {
      type: "constant"
      value: 0
    }
  }
}
layer {
  name: "bn_conv3_3b"
  type: "BatchNorm"
  bottom: "conv3_3b"
  top: "conv3_3b"
  param {
    lr_mult: 0
  }
  param {
    lr_mult: 0
  }
  param {
    lr_mult: 0
  }
}
layer {
  name: "scale_conv3_3b"
  type: "Scale"
  bottom: "conv3_3b"
  top: "conv3_3b"
  scale_param {
    bias_term: true
  }
}
layer {
  name: "conv3_3"
  type: "Eltwise"
  bottom: "conv3_3b"
  bottom: "conv2_sub"
  bottom: "conv3_2"
  top: "conv3_3"
}
layer {
  name: "conv3_3_relu"
  type: "ReLU"
  bottom: "conv3_3"
  top: "conv3_3"
}
layer {
  name: "conv3_sub"
  type: "Convolution"
  bottom: "conv3_3"
  top: "conv3_sub"
  param {
    lr_mult: 1
  }
  param {
    lr_mult: 2
  }
  convolution_param {
    num_output: 64
    kernel_size: 1
    stride: 2
    weight_filler {
      type: "msra"
    }
    bias_filler {
      type: "constant"
      value: 0
    }
  }
}
layer {
  name: "bn_conv3_sub"
  type: "BatchNorm"
  bottom: "conv3_sub"
  top: "conv3_sub"
  param {
    lr_mult: 0
  }
  param {
    lr_mult: 0
  }
  param {
    lr_mult: 0
  }
}
layer {
  name: "scale_conv3_sub"
  type: "Scale"
  bottom: "conv3_sub"
  top: "conv3_sub"
  scale_param {
    bias_term: true
  }
}
layer {
  name: "conv4_1a"
  type: "Convolution"
  bottom: "conv3_3"
  top: "conv4_1a"
  param {
    lr_mult: 1
  }
  param {
    lr_mult: 2
  }
  convolution_param {
    num_output: 64
    pad: 0
    kernel_size: 1
    stride: 2
    weight_filler {
      type: "msra"
    }
    bias_filler {
      type: "constant"
      value: 0
    }
  }
}
layer {
  name: "bn_conv4_1a"
  type: "BatchNorm"
  bottom: "conv4_1a"
  top: "conv4_1a"
  param {
    lr_mult: 0
  }
  param {
    lr_mult: 0
  }
  param {
    lr_mult: 0
  }
}
layer {
  name: "scale_conv4_1a"
  type: "Scale"
  bottom: "conv4_1a"
  top: "conv4_1a"
  scale_param {
    bias_term: true
  }
}
layer {
  name: "conv4_1a_relu"
  type: "ReLU"
  bottom: "conv4_1a"
  top: "conv4_1a"
}
layer {
  name: "conv4_1b"
  type: "Convolution"
  bottom: "conv4_1a"
  top: "conv4_1b"
  param {
    lr_mult: 1
  }
  param {
    lr_mult: 2
  }
  convolution_param {
    num_output: 64
    pad: 1
    kernel_size: 3
    stride: 1
    weight_filler {
      type: "msra"
    }
    bias_filler {
      type: "constant"
      value: 0
    }
  }
}
layer {
  name: "bn_conv4_1b"
  type: "BatchNorm"
  bottom: "conv4_1b"
  top: "conv4_1b"
  param {
    lr_mult: 0
  }
  param {
    lr_mult: 0
  }
  param {
    lr_mult: 0
  }
}
layer {
  name: "scale_conv4_1b"
  type: "Scale"
  bottom: "conv4_1b"
  top: "conv4_1b"
  scale_param {
    bias_term: true
  }
}
layer {
  name: "conv4_1"
  type: "Eltwise"
  bottom: "conv3_sub"
  bottom: "conv4_1b"
  top: "conv4_1"
}
layer {
  name: "conv4_1_relu"
  type: "ReLU"
  bottom: "conv4_1"
  top: "conv4_1"
}
layer {
  name: "conv4_2a"
  type: "Convolution"
  bottom: "conv4_1"
  top: "conv4_2a"
  param {
    lr_mult: 1
  }
  param {
    lr_mult: 2
  }
  convolution_param {
    num_output: 64
    pad: 1
    kernel_size: 3
    stride: 1
    weight_filler {
      type: "msra"
    }
    bias_filler {
      type: "constant"
      value: 0
    }
  }
}
layer {
  name: "bn_conv4_2a"
  type: "BatchNorm"
  bottom: "conv4_2a"
  top: "conv4_2a"
  param {
    lr_mult: 0
  }
  param {
    lr_mult: 0
  }
  param {
    lr_mult: 0
  }
}
layer {
  name: "scale_conv4_2a"
  type: "Scale"
  bottom: "conv4_2a"
  top: "conv4_2a"
  scale_param {
    bias_term: true
  }
}
layer {
  name: "conv4_2a_relu"
  type: "ReLU"
  bottom: "conv4_2a"
  top: "conv4_2a"
}
layer {
  name: "conv4_2b"
  type: "Convolution"
  bottom: "conv4_2a"
  top: "conv4_2b"
  param {
    lr_mult: 1
  }
  param {
    lr_mult: 2
  }
  convolution_param {
    num_output: 64
    pad: 1
    kernel_size: 3
    stride: 1
    weight_filler {
      type: "msra"
    }
    bias_filler {
      type: "constant"
      value: 0
    }
  }
}
layer {
  name: "bn_conv4_2b"
  type: "BatchNorm"
  bottom: "conv4_2b"
  top: "conv4_2b"
  param {
    lr_mult: 0
  }
  param {
    lr_mult: 0
  }
  param {
    lr_mult: 0
  }
}
layer {
  name: "scale_conv4_2b"
  type: "Scale"
  bottom: "conv4_2b"
  top: "conv4_2b"
  scale_param {
    bias_term: true
  }
}
layer {
  name: "conv4_2"
  type: "Eltwise"
  bottom: "conv4_1"
  bottom: "conv4_2b"
  top: "conv4_2"
}
layer {
  name: "conv4_2_relu"
  type: "ReLU"
  bottom: "conv4_2"
  top: "conv4_2"
}
layer {
  name: "conv4_3a"
  type: "Convolution"
  bottom: "conv4_2"
  top: "conv4_3a"
  param {
    lr_mult: 1
  }
  param {
    lr_mult: 2
  }
  convolution_param {
    num_output: 64
    pad: 1
    kernel_size: 3
    stride: 1
    weight_filler {
      type: "msra"
    }
    bias_filler {
      type: "constant"
      value: 0
    }
  }
}
layer {
  name: "bn_conv4_3a"
  type: "BatchNorm"
  bottom: "conv4_3a"
  top: "conv4_3a"
  param {
    lr_mult: 0
  }
  param {
    lr_mult: 0
  }
  param {
    lr_mult: 0
  }
}
layer {
  name: "scale_conv4_3a"
  type: "Scale"
  bottom: "conv4_3a"
  top: "conv4_3a"
  scale_param {
    bias_term: true
  }
}
layer {
  name: "conv4_3a_relu"
  type: "ReLU"
  bottom: "conv4_3a"
  top: "conv4_3a"
}
layer {
  name: "conv4_3b"
  type: "Convolution"
  bottom: "conv4_3a"
  top: "conv4_3b"
  param {
    lr_mult: 1
  }
  param {
    lr_mult: 2
  }
  convolution_param {
    num_output: 64
    pad: 1
    kernel_size: 3
    stride: 1
    weight_filler {
      type: "msra"
    }
    bias_filler {
      type: "constant"
      value: 0
    }
  }
}
layer {
  name: "bn_conv4_3b"
  type: "BatchNorm"
  bottom: "conv4_3b"
  top: "conv4_3b"
  param {
    lr_mult: 0
  }
  param {
    lr_mult: 0
  }
  param {
    lr_mult: 0
  }
}
layer {
  name: "scale_conv4_3b"
  type: "Scale"
  bottom: "conv4_3b"
  top: "conv4_3b"
  scale_param {
    bias_term: true
  }
}
layer {
  name: "conv4_3"
  type: "Eltwise"
  bottom: "conv4_2"
  bottom: "conv3_sub"
  bottom: "conv4_3b"
  top: "conv4_3"
}
layer {
  name: "conv4_3_relu"
  type: "ReLU"
  bottom: "conv4_3"
  top: "conv4_3"
}
layer {
  name: "global_pool"
  type: "Pooling"
  bottom: "conv4_3"
  top: "global_pool"
  pooling_param {
    pool: AVE
    kernel_size: 8
    stride: 8
  }
}
layer {
  name: "ip"
  type: "InnerProduct"
  bottom: "global_pool"
  top: "ip"
  inner_product_param {
    num_output: 10
  }
}
layer {
  name: "accuracy"
  type: "Accuracy"
  bottom: "ip"
  bottom: "label"
  top: "accuracy"
}
layer {
  name: "loss"
  type: "SoftmaxWithLoss"
  bottom: "ip"
  bottom: "label"
  top: "loss"
}
I0421 22:02:57.804168 12189 layer_factory.hpp:77] Creating layer cifar
I0421 22:02:57.804672 12189 net.cpp:91] Creating Layer cifar
I0421 22:02:57.804684 12189 net.cpp:399] cifar -> data
I0421 22:02:57.804697 12189 net.cpp:399] cifar -> label
I0421 22:02:57.804719 12189 data_transformer.cpp:25] Loading mean file from: data/cifar10/mean.binaryproto
I0421 22:02:57.819914 12207 db_lmdb.cpp:38] Opened lmdb data/cifar10/cifar10_train_lmdb
I0421 22:02:57.841714 12189 data_layer.cpp:41] output data size: 256,3,32,32
I0421 22:02:57.851533 12189 net.cpp:141] Setting up cifar
I0421 22:02:57.851569 12189 net.cpp:148] Top shape: 256 3 32 32 (786432)
I0421 22:02:57.851577 12189 net.cpp:148] Top shape: 256 (256)
I0421 22:02:57.851582 12189 net.cpp:156] Memory required for data: 3146752
I0421 22:02:57.851588 12189 layer_factory.hpp:77] Creating layer label_cifar_1_split
I0421 22:02:57.851605 12189 net.cpp:91] Creating Layer label_cifar_1_split
I0421 22:02:57.851611 12189 net.cpp:425] label_cifar_1_split <- label
I0421 22:02:57.851619 12189 net.cpp:399] label_cifar_1_split -> label_cifar_1_split_0
I0421 22:02:57.851631 12189 net.cpp:399] label_cifar_1_split -> label_cifar_1_split_1
I0421 22:02:57.851694 12189 net.cpp:141] Setting up label_cifar_1_split
I0421 22:02:57.851704 12189 net.cpp:148] Top shape: 256 (256)
I0421 22:02:57.851709 12189 net.cpp:148] Top shape: 256 (256)
I0421 22:02:57.851713 12189 net.cpp:156] Memory required for data: 3148800
I0421 22:02:57.851717 12189 layer_factory.hpp:77] Creating layer conv1
I0421 22:02:57.851735 12189 net.cpp:91] Creating Layer conv1
I0421 22:02:57.851742 12189 net.cpp:425] conv1 <- data
I0421 22:02:57.851750 12189 net.cpp:399] conv1 -> conv1
I0421 22:02:58.131511 12189 net.cpp:141] Setting up conv1
I0421 22:02:58.131561 12189 net.cpp:148] Top shape: 256 16 32 32 (4194304)
I0421 22:02:58.131577 12189 net.cpp:156] Memory required for data: 19926016
I0421 22:02:58.131600 12189 layer_factory.hpp:77] Creating layer bn_conv1
I0421 22:02:58.131618 12189 net.cpp:91] Creating Layer bn_conv1
I0421 22:02:58.131624 12189 net.cpp:425] bn_conv1 <- conv1
I0421 22:02:58.131633 12189 net.cpp:386] bn_conv1 -> conv1 (in-place)
I0421 22:02:58.131839 12189 net.cpp:141] Setting up bn_conv1
I0421 22:02:58.131850 12189 net.cpp:148] Top shape: 256 16 32 32 (4194304)
I0421 22:02:58.131855 12189 net.cpp:156] Memory required for data: 36703232
I0421 22:02:58.131870 12189 layer_factory.hpp:77] Creating layer scale_conv1
I0421 22:02:58.131883 12189 net.cpp:91] Creating Layer scale_conv1
I0421 22:02:58.131888 12189 net.cpp:425] scale_conv1 <- conv1
I0421 22:02:58.131896 12189 net.cpp:386] scale_conv1 -> conv1 (in-place)
I0421 22:02:58.131939 12189 layer_factory.hpp:77] Creating layer scale_conv1
I0421 22:02:58.132052 12189 net.cpp:141] Setting up scale_conv1
I0421 22:02:58.132061 12189 net.cpp:148] Top shape: 256 16 32 32 (4194304)
I0421 22:02:58.132066 12189 net.cpp:156] Memory required for data: 53480448
I0421 22:02:58.132076 12189 layer_factory.hpp:77] Creating layer conv1_relu
I0421 22:02:58.132086 12189 net.cpp:91] Creating Layer conv1_relu
I0421 22:02:58.132091 12189 net.cpp:425] conv1_relu <- conv1
I0421 22:02:58.132098 12189 net.cpp:386] conv1_relu -> conv1 (in-place)
I0421 22:02:58.132407 12189 net.cpp:141] Setting up conv1_relu
I0421 22:02:58.132424 12189 net.cpp:148] Top shape: 256 16 32 32 (4194304)
I0421 22:02:58.132429 12189 net.cpp:156] Memory required for data: 70257664
I0421 22:02:58.132436 12189 layer_factory.hpp:77] Creating layer conv1_conv1_relu_0_split
I0421 22:02:58.132446 12189 net.cpp:91] Creating Layer conv1_conv1_relu_0_split
I0421 22:02:58.132450 12189 net.cpp:425] conv1_conv1_relu_0_split <- conv1
I0421 22:02:58.132459 12189 net.cpp:399] conv1_conv1_relu_0_split -> conv1_conv1_relu_0_split_0
I0421 22:02:58.132470 12189 net.cpp:399] conv1_conv1_relu_0_split -> conv1_conv1_relu_0_split_1
I0421 22:02:58.132479 12189 net.cpp:399] conv1_conv1_relu_0_split -> conv1_conv1_relu_0_split_2
I0421 22:02:58.132535 12189 net.cpp:141] Setting up conv1_conv1_relu_0_split
I0421 22:02:58.132544 12189 net.cpp:148] Top shape: 256 16 32 32 (4194304)
I0421 22:02:58.132550 12189 net.cpp:148] Top shape: 256 16 32 32 (4194304)
I0421 22:02:58.132555 12189 net.cpp:148] Top shape: 256 16 32 32 (4194304)
I0421 22:02:58.132560 12189 net.cpp:156] Memory required for data: 120589312
I0421 22:02:58.132565 12189 layer_factory.hpp:77] Creating layer conv2_1a
I0421 22:02:58.132580 12189 net.cpp:91] Creating Layer conv2_1a
I0421 22:02:58.132586 12189 net.cpp:425] conv2_1a <- conv1_conv1_relu_0_split_0
I0421 22:02:58.132594 12189 net.cpp:399] conv2_1a -> conv2_1a
I0421 22:02:58.136128 12189 net.cpp:141] Setting up conv2_1a
I0421 22:02:58.136148 12189 net.cpp:148] Top shape: 256 16 32 32 (4194304)
I0421 22:02:58.136154 12189 net.cpp:156] Memory required for data: 137366528
I0421 22:02:58.136168 12189 layer_factory.hpp:77] Creating layer bn_conv2_1a
I0421 22:02:58.136179 12189 net.cpp:91] Creating Layer bn_conv2_1a
I0421 22:02:58.136184 12189 net.cpp:425] bn_conv2_1a <- conv2_1a
I0421 22:02:58.136193 12189 net.cpp:386] bn_conv2_1a -> conv2_1a (in-place)
I0421 22:02:58.136390 12189 net.cpp:141] Setting up bn_conv2_1a
I0421 22:02:58.136400 12189 net.cpp:148] Top shape: 256 16 32 32 (4194304)
I0421 22:02:58.136405 12189 net.cpp:156] Memory required for data: 154143744
I0421 22:02:58.136415 12189 layer_factory.hpp:77] Creating layer scale_conv2_1a
I0421 22:02:58.136425 12189 net.cpp:91] Creating Layer scale_conv2_1a
I0421 22:02:58.136430 12189 net.cpp:425] scale_conv2_1a <- conv2_1a
I0421 22:02:58.136437 12189 net.cpp:386] scale_conv2_1a -> conv2_1a (in-place)
I0421 22:02:58.136476 12189 layer_factory.hpp:77] Creating layer scale_conv2_1a
I0421 22:02:58.136585 12189 net.cpp:141] Setting up scale_conv2_1a
I0421 22:02:58.136595 12189 net.cpp:148] Top shape: 256 16 32 32 (4194304)
I0421 22:02:58.136600 12189 net.cpp:156] Memory required for data: 170920960
I0421 22:02:58.136615 12189 layer_factory.hpp:77] Creating layer conv2_1a_relu
I0421 22:02:58.136623 12189 net.cpp:91] Creating Layer conv2_1a_relu
I0421 22:02:58.136628 12189 net.cpp:425] conv2_1a_relu <- conv2_1a
I0421 22:02:58.136636 12189 net.cpp:386] conv2_1a_relu -> conv2_1a (in-place)
I0421 22:02:58.137265 12189 net.cpp:141] Setting up conv2_1a_relu
I0421 22:02:58.137282 12189 net.cpp:148] Top shape: 256 16 32 32 (4194304)
I0421 22:02:58.137289 12189 net.cpp:156] Memory required for data: 187698176
I0421 22:02:58.137293 12189 layer_factory.hpp:77] Creating layer conv2_1b
I0421 22:02:58.137307 12189 net.cpp:91] Creating Layer conv2_1b
I0421 22:02:58.137313 12189 net.cpp:425] conv2_1b <- conv2_1a
I0421 22:02:58.137323 12189 net.cpp:399] conv2_1b -> conv2_1b
I0421 22:02:58.141027 12189 net.cpp:141] Setting up conv2_1b
I0421 22:02:58.141046 12189 net.cpp:148] Top shape: 256 16 32 32 (4194304)
I0421 22:02:58.141052 12189 net.cpp:156] Memory required for data: 204475392
I0421 22:02:58.141060 12189 layer_factory.hpp:77] Creating layer bn_conv2_1b
I0421 22:02:58.141070 12189 net.cpp:91] Creating Layer bn_conv2_1b
I0421 22:02:58.141077 12189 net.cpp:425] bn_conv2_1b <- conv2_1b
I0421 22:02:58.141085 12189 net.cpp:386] bn_conv2_1b -> conv2_1b (in-place)
I0421 22:02:58.141291 12189 net.cpp:141] Setting up bn_conv2_1b
I0421 22:02:58.141302 12189 net.cpp:148] Top shape: 256 16 32 32 (4194304)
I0421 22:02:58.141307 12189 net.cpp:156] Memory required for data: 221252608
I0421 22:02:58.141321 12189 layer_factory.hpp:77] Creating layer scale_conv2_1b
I0421 22:02:58.141331 12189 net.cpp:91] Creating Layer scale_conv2_1b
I0421 22:02:58.141336 12189 net.cpp:425] scale_conv2_1b <- conv2_1b
I0421 22:02:58.141343 12189 net.cpp:386] scale_conv2_1b -> conv2_1b (in-place)
I0421 22:02:58.141381 12189 layer_factory.hpp:77] Creating layer scale_conv2_1b
I0421 22:02:58.141499 12189 net.cpp:141] Setting up scale_conv2_1b
I0421 22:02:58.141507 12189 net.cpp:148] Top shape: 256 16 32 32 (4194304)
I0421 22:02:58.141512 12189 net.cpp:156] Memory required for data: 238029824
I0421 22:02:58.141520 12189 layer_factory.hpp:77] Creating layer conv2_1
I0421 22:02:58.141538 12189 net.cpp:91] Creating Layer conv2_1
I0421 22:02:58.141544 12189 net.cpp:425] conv2_1 <- conv2_1b
I0421 22:02:58.141551 12189 net.cpp:425] conv2_1 <- conv1_conv1_relu_0_split_1
I0421 22:02:58.141559 12189 net.cpp:399] conv2_1 -> conv2_1
I0421 22:02:58.141587 12189 net.cpp:141] Setting up conv2_1
I0421 22:02:58.141597 12189 net.cpp:148] Top shape: 256 16 32 32 (4194304)
I0421 22:02:58.141602 12189 net.cpp:156] Memory required for data: 254807040
I0421 22:02:58.141607 12189 layer_factory.hpp:77] Creating layer conv2_1_relu
I0421 22:02:58.141613 12189 net.cpp:91] Creating Layer conv2_1_relu
I0421 22:02:58.141619 12189 net.cpp:425] conv2_1_relu <- conv2_1
I0421 22:02:58.141626 12189 net.cpp:386] conv2_1_relu -> conv2_1 (in-place)
I0421 22:02:58.142156 12189 net.cpp:141] Setting up conv2_1_relu
I0421 22:02:58.142168 12189 net.cpp:148] Top shape: 256 16 32 32 (4194304)
I0421 22:02:58.142174 12189 net.cpp:156] Memory required for data: 271584256
I0421 22:02:58.142179 12189 layer_factory.hpp:77] Creating layer conv2_1_conv2_1_relu_0_split
I0421 22:02:58.142189 12189 net.cpp:91] Creating Layer conv2_1_conv2_1_relu_0_split
I0421 22:02:58.142194 12189 net.cpp:425] conv2_1_conv2_1_relu_0_split <- conv2_1
I0421 22:02:58.142202 12189 net.cpp:399] conv2_1_conv2_1_relu_0_split -> conv2_1_conv2_1_relu_0_split_0
I0421 22:02:58.142211 12189 net.cpp:399] conv2_1_conv2_1_relu_0_split -> conv2_1_conv2_1_relu_0_split_1
I0421 22:02:58.142256 12189 net.cpp:141] Setting up conv2_1_conv2_1_relu_0_split
I0421 22:02:58.142264 12189 net.cpp:148] Top shape: 256 16 32 32 (4194304)
I0421 22:02:58.142271 12189 net.cpp:148] Top shape: 256 16 32 32 (4194304)
I0421 22:02:58.142276 12189 net.cpp:156] Memory required for data: 305138688
I0421 22:02:58.142280 12189 layer_factory.hpp:77] Creating layer conv2_2a
I0421 22:02:58.142292 12189 net.cpp:91] Creating Layer conv2_2a
I0421 22:02:58.142297 12189 net.cpp:425] conv2_2a <- conv2_1_conv2_1_relu_0_split_0
I0421 22:02:58.142313 12189 net.cpp:399] conv2_2a -> conv2_2a
I0421 22:02:58.145977 12189 net.cpp:141] Setting up conv2_2a
I0421 22:02:58.145995 12189 net.cpp:148] Top shape: 256 16 32 32 (4194304)
I0421 22:02:58.146001 12189 net.cpp:156] Memory required for data: 321915904
I0421 22:02:58.146010 12189 layer_factory.hpp:77] Creating layer bn_conv2_2a
I0421 22:02:58.146020 12189 net.cpp:91] Creating Layer bn_conv2_2a
I0421 22:02:58.146026 12189 net.cpp:425] bn_conv2_2a <- conv2_2a
I0421 22:02:58.146036 12189 net.cpp:386] bn_conv2_2a -> conv2_2a (in-place)
I0421 22:02:58.146236 12189 net.cpp:141] Setting up bn_conv2_2a
I0421 22:02:58.146246 12189 net.cpp:148] Top shape: 256 16 32 32 (4194304)
I0421 22:02:58.146251 12189 net.cpp:156] Memory required for data: 338693120
I0421 22:02:58.146260 12189 layer_factory.hpp:77] Creating layer scale_conv2_2a
I0421 22:02:58.146270 12189 net.cpp:91] Creating Layer scale_conv2_2a
I0421 22:02:58.146276 12189 net.cpp:425] scale_conv2_2a <- conv2_2a
I0421 22:02:58.146283 12189 net.cpp:386] scale_conv2_2a -> conv2_2a (in-place)
I0421 22:02:58.146322 12189 layer_factory.hpp:77] Creating layer scale_conv2_2a
I0421 22:02:58.146440 12189 net.cpp:141] Setting up scale_conv2_2a
I0421 22:02:58.146448 12189 net.cpp:148] Top shape: 256 16 32 32 (4194304)
I0421 22:02:58.146452 12189 net.cpp:156] Memory required for data: 355470336
I0421 22:02:58.146461 12189 layer_factory.hpp:77] Creating layer conv2_2a_relu
I0421 22:02:58.146469 12189 net.cpp:91] Creating Layer conv2_2a_relu
I0421 22:02:58.146474 12189 net.cpp:425] conv2_2a_relu <- conv2_2a
I0421 22:02:58.146482 12189 net.cpp:386] conv2_2a_relu -> conv2_2a (in-place)
I0421 22:02:58.147117 12189 net.cpp:141] Setting up conv2_2a_relu
I0421 22:02:58.147133 12189 net.cpp:148] Top shape: 256 16 32 32 (4194304)
I0421 22:02:58.147140 12189 net.cpp:156] Memory required for data: 372247552
I0421 22:02:58.147145 12189 layer_factory.hpp:77] Creating layer conv2_2b
I0421 22:02:58.147158 12189 net.cpp:91] Creating Layer conv2_2b
I0421 22:02:58.147164 12189 net.cpp:425] conv2_2b <- conv2_2a
I0421 22:02:58.147174 12189 net.cpp:399] conv2_2b -> conv2_2b
I0421 22:02:58.148773 12189 net.cpp:141] Setting up conv2_2b
I0421 22:02:58.148790 12189 net.cpp:148] Top shape: 256 16 32 32 (4194304)
I0421 22:02:58.148797 12189 net.cpp:156] Memory required for data: 389024768
I0421 22:02:58.148805 12189 layer_factory.hpp:77] Creating layer bn_conv2_2b
I0421 22:02:58.148816 12189 net.cpp:91] Creating Layer bn_conv2_2b
I0421 22:02:58.148823 12189 net.cpp:425] bn_conv2_2b <- conv2_2b
I0421 22:02:58.148831 12189 net.cpp:386] bn_conv2_2b -> conv2_2b (in-place)
I0421 22:02:58.149034 12189 net.cpp:141] Setting up bn_conv2_2b
I0421 22:02:58.149044 12189 net.cpp:148] Top shape: 256 16 32 32 (4194304)
I0421 22:02:58.149049 12189 net.cpp:156] Memory required for data: 405801984
I0421 22:02:58.149065 12189 layer_factory.hpp:77] Creating layer scale_conv2_2b
I0421 22:02:58.149075 12189 net.cpp:91] Creating Layer scale_conv2_2b
I0421 22:02:58.149080 12189 net.cpp:425] scale_conv2_2b <- conv2_2b
I0421 22:02:58.149087 12189 net.cpp:386] scale_conv2_2b -> conv2_2b (in-place)
I0421 22:02:58.149134 12189 layer_factory.hpp:77] Creating layer scale_conv2_2b
I0421 22:02:58.149260 12189 net.cpp:141] Setting up scale_conv2_2b
I0421 22:02:58.149269 12189 net.cpp:148] Top shape: 256 16 32 32 (4194304)
I0421 22:02:58.149273 12189 net.cpp:156] Memory required for data: 422579200
I0421 22:02:58.149282 12189 layer_factory.hpp:77] Creating layer conv2_2
I0421 22:02:58.149291 12189 net.cpp:91] Creating Layer conv2_2
I0421 22:02:58.149296 12189 net.cpp:425] conv2_2 <- conv2_2b
I0421 22:02:58.149303 12189 net.cpp:425] conv2_2 <- conv2_1_conv2_1_relu_0_split_1
I0421 22:02:58.149310 12189 net.cpp:399] conv2_2 -> conv2_2
I0421 22:02:58.149338 12189 net.cpp:141] Setting up conv2_2
I0421 22:02:58.149345 12189 net.cpp:148] Top shape: 256 16 32 32 (4194304)
I0421 22:02:58.149350 12189 net.cpp:156] Memory required for data: 439356416
I0421 22:02:58.149355 12189 layer_factory.hpp:77] Creating layer conv2_2_relu
I0421 22:02:58.149369 12189 net.cpp:91] Creating Layer conv2_2_relu
I0421 22:02:58.149375 12189 net.cpp:425] conv2_2_relu <- conv2_2
I0421 22:02:58.149382 12189 net.cpp:386] conv2_2_relu -> conv2_2 (in-place)
I0421 22:02:58.149693 12189 net.cpp:141] Setting up conv2_2_relu
I0421 22:02:58.149709 12189 net.cpp:148] Top shape: 256 16 32 32 (4194304)
I0421 22:02:58.149714 12189 net.cpp:156] Memory required for data: 456133632
I0421 22:02:58.149719 12189 layer_factory.hpp:77] Creating layer conv2_2_conv2_2_relu_0_split
I0421 22:02:58.149729 12189 net.cpp:91] Creating Layer conv2_2_conv2_2_relu_0_split
I0421 22:02:58.149734 12189 net.cpp:425] conv2_2_conv2_2_relu_0_split <- conv2_2
I0421 22:02:58.149742 12189 net.cpp:399] conv2_2_conv2_2_relu_0_split -> conv2_2_conv2_2_relu_0_split_0
I0421 22:02:58.149755 12189 net.cpp:399] conv2_2_conv2_2_relu_0_split -> conv2_2_conv2_2_relu_0_split_1
I0421 22:02:58.149801 12189 net.cpp:141] Setting up conv2_2_conv2_2_relu_0_split
I0421 22:02:58.149809 12189 net.cpp:148] Top shape: 256 16 32 32 (4194304)
I0421 22:02:58.149816 12189 net.cpp:148] Top shape: 256 16 32 32 (4194304)
I0421 22:02:58.149821 12189 net.cpp:156] Memory required for data: 489688064
I0421 22:02:58.149826 12189 layer_factory.hpp:77] Creating layer conv2_3a
I0421 22:02:58.149839 12189 net.cpp:91] Creating Layer conv2_3a
I0421 22:02:58.149844 12189 net.cpp:425] conv2_3a <- conv2_2_conv2_2_relu_0_split_0
I0421 22:02:58.149853 12189 net.cpp:399] conv2_3a -> conv2_3a
I0421 22:02:58.153071 12189 net.cpp:141] Setting up conv2_3a
I0421 22:02:58.153090 12189 net.cpp:148] Top shape: 256 16 32 32 (4194304)
I0421 22:02:58.153095 12189 net.cpp:156] Memory required for data: 506465280
I0421 22:02:58.153105 12189 layer_factory.hpp:77] Creating layer bn_conv2_3a
I0421 22:02:58.153126 12189 net.cpp:91] Creating Layer bn_conv2_3a
I0421 22:02:58.153132 12189 net.cpp:425] bn_conv2_3a <- conv2_3a
I0421 22:02:58.153141 12189 net.cpp:386] bn_conv2_3a -> conv2_3a (in-place)
I0421 22:02:58.153347 12189 net.cpp:141] Setting up bn_conv2_3a
I0421 22:02:58.153355 12189 net.cpp:148] Top shape: 256 16 32 32 (4194304)
I0421 22:02:58.153360 12189 net.cpp:156] Memory required for data: 523242496
I0421 22:02:58.153370 12189 layer_factory.hpp:77] Creating layer scale_conv2_3a
I0421 22:02:58.153379 12189 net.cpp:91] Creating Layer scale_conv2_3a
I0421 22:02:58.153384 12189 net.cpp:425] scale_conv2_3a <- conv2_3a
I0421 22:02:58.153393 12189 net.cpp:386] scale_conv2_3a -> conv2_3a (in-place)
I0421 22:02:58.153430 12189 layer_factory.hpp:77] Creating layer scale_conv2_3a
I0421 22:02:58.153555 12189 net.cpp:141] Setting up scale_conv2_3a
I0421 22:02:58.153564 12189 net.cpp:148] Top shape: 256 16 32 32 (4194304)
I0421 22:02:58.153568 12189 net.cpp:156] Memory required for data: 540019712
I0421 22:02:58.153578 12189 layer_factory.hpp:77] Creating layer conv2_3a_relu
I0421 22:02:58.153585 12189 net.cpp:91] Creating Layer conv2_3a_relu
I0421 22:02:58.153590 12189 net.cpp:425] conv2_3a_relu <- conv2_3a
I0421 22:02:58.153599 12189 net.cpp:386] conv2_3a_relu -> conv2_3a (in-place)
I0421 22:02:58.154191 12189 net.cpp:141] Setting up conv2_3a_relu
I0421 22:02:58.154203 12189 net.cpp:148] Top shape: 256 16 32 32 (4194304)
I0421 22:02:58.154209 12189 net.cpp:156] Memory required for data: 556796928
I0421 22:02:58.154214 12189 layer_factory.hpp:77] Creating layer conv2_3b
I0421 22:02:58.154228 12189 net.cpp:91] Creating Layer conv2_3b
I0421 22:02:58.154233 12189 net.cpp:425] conv2_3b <- conv2_3a
I0421 22:02:58.154243 12189 net.cpp:399] conv2_3b -> conv2_3b
I0421 22:02:58.158010 12189 net.cpp:141] Setting up conv2_3b
I0421 22:02:58.158028 12189 net.cpp:148] Top shape: 256 16 32 32 (4194304)
I0421 22:02:58.158035 12189 net.cpp:156] Memory required for data: 573574144
I0421 22:02:58.158043 12189 layer_factory.hpp:77] Creating layer bn_conv2_3b
I0421 22:02:58.158057 12189 net.cpp:91] Creating Layer bn_conv2_3b
I0421 22:02:58.158063 12189 net.cpp:425] bn_conv2_3b <- conv2_3b
I0421 22:02:58.158071 12189 net.cpp:386] bn_conv2_3b -> conv2_3b (in-place)
I0421 22:02:58.158283 12189 net.cpp:141] Setting up bn_conv2_3b
I0421 22:02:58.158293 12189 net.cpp:148] Top shape: 256 16 32 32 (4194304)
I0421 22:02:58.158298 12189 net.cpp:156] Memory required for data: 590351360
I0421 22:02:58.158308 12189 layer_factory.hpp:77] Creating layer scale_conv2_3b
I0421 22:02:58.158318 12189 net.cpp:91] Creating Layer scale_conv2_3b
I0421 22:02:58.158324 12189 net.cpp:425] scale_conv2_3b <- conv2_3b
I0421 22:02:58.158331 12189 net.cpp:386] scale_conv2_3b -> conv2_3b (in-place)
I0421 22:02:58.158370 12189 layer_factory.hpp:77] Creating layer scale_conv2_3b
I0421 22:02:58.158486 12189 net.cpp:141] Setting up scale_conv2_3b
I0421 22:02:58.158495 12189 net.cpp:148] Top shape: 256 16 32 32 (4194304)
I0421 22:02:58.158499 12189 net.cpp:156] Memory required for data: 607128576
I0421 22:02:58.158509 12189 layer_factory.hpp:77] Creating layer conv2_3
I0421 22:02:58.158516 12189 net.cpp:91] Creating Layer conv2_3
I0421 22:02:58.158522 12189 net.cpp:425] conv2_3 <- conv1_conv1_relu_0_split_2
I0421 22:02:58.158530 12189 net.cpp:425] conv2_3 <- conv2_3b
I0421 22:02:58.158536 12189 net.cpp:425] conv2_3 <- conv2_2_conv2_2_relu_0_split_1
I0421 22:02:58.158543 12189 net.cpp:399] conv2_3 -> conv2_3
I0421 22:02:58.158571 12189 net.cpp:141] Setting up conv2_3
I0421 22:02:58.158581 12189 net.cpp:148] Top shape: 256 16 32 32 (4194304)
I0421 22:02:58.158586 12189 net.cpp:156] Memory required for data: 623905792
I0421 22:02:58.158591 12189 layer_factory.hpp:77] Creating layer conv2_3_relu
I0421 22:02:58.158598 12189 net.cpp:91] Creating Layer conv2_3_relu
I0421 22:02:58.158603 12189 net.cpp:425] conv2_3_relu <- conv2_3
I0421 22:02:58.158610 12189 net.cpp:386] conv2_3_relu -> conv2_3 (in-place)
I0421 22:02:58.159152 12189 net.cpp:141] Setting up conv2_3_relu
I0421 22:02:58.159168 12189 net.cpp:148] Top shape: 256 16 32 32 (4194304)
I0421 22:02:58.159174 12189 net.cpp:156] Memory required for data: 640683008
I0421 22:02:58.159180 12189 layer_factory.hpp:77] Creating layer conv2_3_conv2_3_relu_0_split
I0421 22:02:58.159188 12189 net.cpp:91] Creating Layer conv2_3_conv2_3_relu_0_split
I0421 22:02:58.159193 12189 net.cpp:425] conv2_3_conv2_3_relu_0_split <- conv2_3
I0421 22:02:58.159203 12189 net.cpp:399] conv2_3_conv2_3_relu_0_split -> conv2_3_conv2_3_relu_0_split_0
I0421 22:02:58.159214 12189 net.cpp:399] conv2_3_conv2_3_relu_0_split -> conv2_3_conv2_3_relu_0_split_1
I0421 22:02:58.159260 12189 net.cpp:141] Setting up conv2_3_conv2_3_relu_0_split
I0421 22:02:58.159268 12189 net.cpp:148] Top shape: 256 16 32 32 (4194304)
I0421 22:02:58.159274 12189 net.cpp:148] Top shape: 256 16 32 32 (4194304)
I0421 22:02:58.159279 12189 net.cpp:156] Memory required for data: 674237440
I0421 22:02:58.159284 12189 layer_factory.hpp:77] Creating layer conv2_sub
I0421 22:02:58.159298 12189 net.cpp:91] Creating Layer conv2_sub
I0421 22:02:58.159303 12189 net.cpp:425] conv2_sub <- conv2_3_conv2_3_relu_0_split_0
I0421 22:02:58.159313 12189 net.cpp:399] conv2_sub -> conv2_sub
I0421 22:02:58.163038 12189 net.cpp:141] Setting up conv2_sub
I0421 22:02:58.163056 12189 net.cpp:148] Top shape: 256 32 16 16 (2097152)
I0421 22:02:58.163063 12189 net.cpp:156] Memory required for data: 682626048
I0421 22:02:58.163072 12189 layer_factory.hpp:77] Creating layer bn_conv2_sub
I0421 22:02:58.163082 12189 net.cpp:91] Creating Layer bn_conv2_sub
I0421 22:02:58.163089 12189 net.cpp:425] bn_conv2_sub <- conv2_sub
I0421 22:02:58.163096 12189 net.cpp:386] bn_conv2_sub -> conv2_sub (in-place)
I0421 22:02:58.163298 12189 net.cpp:141] Setting up bn_conv2_sub
I0421 22:02:58.163307 12189 net.cpp:148] Top shape: 256 32 16 16 (2097152)
I0421 22:02:58.163312 12189 net.cpp:156] Memory required for data: 691014656
I0421 22:02:58.163322 12189 layer_factory.hpp:77] Creating layer scale_conv2_sub
I0421 22:02:58.163331 12189 net.cpp:91] Creating Layer scale_conv2_sub
I0421 22:02:58.163336 12189 net.cpp:425] scale_conv2_sub <- conv2_sub
I0421 22:02:58.163344 12189 net.cpp:386] scale_conv2_sub -> conv2_sub (in-place)
I0421 22:02:58.163384 12189 layer_factory.hpp:77] Creating layer scale_conv2_sub
I0421 22:02:58.163511 12189 net.cpp:141] Setting up scale_conv2_sub
I0421 22:02:58.163522 12189 net.cpp:148] Top shape: 256 32 16 16 (2097152)
I0421 22:02:58.163527 12189 net.cpp:156] Memory required for data: 699403264
I0421 22:02:58.163535 12189 layer_factory.hpp:77] Creating layer conv2_sub_scale_conv2_sub_0_split
I0421 22:02:58.163543 12189 net.cpp:91] Creating Layer conv2_sub_scale_conv2_sub_0_split
I0421 22:02:58.163548 12189 net.cpp:425] conv2_sub_scale_conv2_sub_0_split <- conv2_sub
I0421 22:02:58.163557 12189 net.cpp:399] conv2_sub_scale_conv2_sub_0_split -> conv2_sub_scale_conv2_sub_0_split_0
I0421 22:02:58.163565 12189 net.cpp:399] conv2_sub_scale_conv2_sub_0_split -> conv2_sub_scale_conv2_sub_0_split_1
I0421 22:02:58.163600 12189 net.cpp:141] Setting up conv2_sub_scale_conv2_sub_0_split
I0421 22:02:58.163609 12189 net.cpp:148] Top shape: 256 32 16 16 (2097152)
I0421 22:02:58.163614 12189 net.cpp:148] Top shape: 256 32 16 16 (2097152)
I0421 22:02:58.163619 12189 net.cpp:156] Memory required for data: 716180480
I0421 22:02:58.163625 12189 layer_factory.hpp:77] Creating layer conv3_1a
I0421 22:02:58.163637 12189 net.cpp:91] Creating Layer conv3_1a
I0421 22:02:58.163643 12189 net.cpp:425] conv3_1a <- conv2_3_conv2_3_relu_0_split_1
I0421 22:02:58.163653 12189 net.cpp:399] conv3_1a -> conv3_1a
I0421 22:02:58.165351 12189 net.cpp:141] Setting up conv3_1a
I0421 22:02:58.165370 12189 net.cpp:148] Top shape: 256 32 16 16 (2097152)
I0421 22:02:58.165376 12189 net.cpp:156] Memory required for data: 724569088
I0421 22:02:58.165385 12189 layer_factory.hpp:77] Creating layer bn_conv3_1a
I0421 22:02:58.165396 12189 net.cpp:91] Creating Layer bn_conv3_1a
I0421 22:02:58.165402 12189 net.cpp:425] bn_conv3_1a <- conv3_1a
I0421 22:02:58.165411 12189 net.cpp:386] bn_conv3_1a -> conv3_1a (in-place)
I0421 22:02:58.165616 12189 net.cpp:141] Setting up bn_conv3_1a
I0421 22:02:58.165627 12189 net.cpp:148] Top shape: 256 32 16 16 (2097152)
I0421 22:02:58.165632 12189 net.cpp:156] Memory required for data: 732957696
I0421 22:02:58.165640 12189 layer_factory.hpp:77] Creating layer scale_conv3_1a
I0421 22:02:58.165649 12189 net.cpp:91] Creating Layer scale_conv3_1a
I0421 22:02:58.165655 12189 net.cpp:425] scale_conv3_1a <- conv3_1a
I0421 22:02:58.165663 12189 net.cpp:386] scale_conv3_1a -> conv3_1a (in-place)
I0421 22:02:58.165700 12189 layer_factory.hpp:77] Creating layer scale_conv3_1a
I0421 22:02:58.165819 12189 net.cpp:141] Setting up scale_conv3_1a
I0421 22:02:58.165827 12189 net.cpp:148] Top shape: 256 32 16 16 (2097152)
I0421 22:02:58.165832 12189 net.cpp:156] Memory required for data: 741346304
I0421 22:02:58.165840 12189 layer_factory.hpp:77] Creating layer conv3_1a_relu
I0421 22:02:58.165849 12189 net.cpp:91] Creating Layer conv3_1a_relu
I0421 22:02:58.165854 12189 net.cpp:425] conv3_1a_relu <- conv3_1a
I0421 22:02:58.165863 12189 net.cpp:386] conv3_1a_relu -> conv3_1a (in-place)
I0421 22:02:58.166167 12189 net.cpp:141] Setting up conv3_1a_relu
I0421 22:02:58.166184 12189 net.cpp:148] Top shape: 256 32 16 16 (2097152)
I0421 22:02:58.166189 12189 net.cpp:156] Memory required for data: 749734912
I0421 22:02:58.166195 12189 layer_factory.hpp:77] Creating layer conv3_1b
I0421 22:02:58.166209 12189 net.cpp:91] Creating Layer conv3_1b
I0421 22:02:58.166215 12189 net.cpp:425] conv3_1b <- conv3_1a
I0421 22:02:58.166224 12189 net.cpp:399] conv3_1b -> conv3_1b
I0421 22:02:58.169883 12189 net.cpp:141] Setting up conv3_1b
I0421 22:02:58.169903 12189 net.cpp:148] Top shape: 256 32 16 16 (2097152)
I0421 22:02:58.169909 12189 net.cpp:156] Memory required for data: 758123520
I0421 22:02:58.169929 12189 layer_factory.hpp:77] Creating layer bn_conv3_1b
I0421 22:02:58.169939 12189 net.cpp:91] Creating Layer bn_conv3_1b
I0421 22:02:58.169945 12189 net.cpp:425] bn_conv3_1b <- conv3_1b
I0421 22:02:58.169955 12189 net.cpp:386] bn_conv3_1b -> conv3_1b (in-place)
I0421 22:02:58.170166 12189 net.cpp:141] Setting up bn_conv3_1b
I0421 22:02:58.170174 12189 net.cpp:148] Top shape: 256 32 16 16 (2097152)
I0421 22:02:58.170179 12189 net.cpp:156] Memory required for data: 766512128
I0421 22:02:58.170195 12189 layer_factory.hpp:77] Creating layer scale_conv3_1b
I0421 22:02:58.170205 12189 net.cpp:91] Creating Layer scale_conv3_1b
I0421 22:02:58.170210 12189 net.cpp:425] scale_conv3_1b <- conv3_1b
I0421 22:02:58.170218 12189 net.cpp:386] scale_conv3_1b -> conv3_1b (in-place)
I0421 22:02:58.170259 12189 layer_factory.hpp:77] Creating layer scale_conv3_1b
I0421 22:02:58.170383 12189 net.cpp:141] Setting up scale_conv3_1b
I0421 22:02:58.170392 12189 net.cpp:148] Top shape: 256 32 16 16 (2097152)
I0421 22:02:58.170397 12189 net.cpp:156] Memory required for data: 774900736
I0421 22:02:58.170405 12189 layer_factory.hpp:77] Creating layer conv3_1
I0421 22:02:58.170413 12189 net.cpp:91] Creating Layer conv3_1
I0421 22:02:58.170418 12189 net.cpp:425] conv3_1 <- conv3_1b
I0421 22:02:58.170425 12189 net.cpp:425] conv3_1 <- conv2_sub_scale_conv2_sub_0_split_0
I0421 22:02:58.170433 12189 net.cpp:399] conv3_1 -> conv3_1
I0421 22:02:58.170459 12189 net.cpp:141] Setting up conv3_1
I0421 22:02:58.170466 12189 net.cpp:148] Top shape: 256 32 16 16 (2097152)
I0421 22:02:58.170471 12189 net.cpp:156] Memory required for data: 783289344
I0421 22:02:58.170476 12189 layer_factory.hpp:77] Creating layer conv3_1_relu
I0421 22:02:58.170485 12189 net.cpp:91] Creating Layer conv3_1_relu
I0421 22:02:58.170490 12189 net.cpp:425] conv3_1_relu <- conv3_1
I0421 22:02:58.170497 12189 net.cpp:386] conv3_1_relu -> conv3_1 (in-place)
I0421 22:02:58.170984 12189 net.cpp:141] Setting up conv3_1_relu
I0421 22:02:58.170996 12189 net.cpp:148] Top shape: 256 32 16 16 (2097152)
I0421 22:02:58.171001 12189 net.cpp:156] Memory required for data: 791677952
I0421 22:02:58.171007 12189 layer_factory.hpp:77] Creating layer conv3_1_conv3_1_relu_0_split
I0421 22:02:58.171016 12189 net.cpp:91] Creating Layer conv3_1_conv3_1_relu_0_split
I0421 22:02:58.171021 12189 net.cpp:425] conv3_1_conv3_1_relu_0_split <- conv3_1
I0421 22:02:58.171030 12189 net.cpp:399] conv3_1_conv3_1_relu_0_split -> conv3_1_conv3_1_relu_0_split_0
I0421 22:02:58.171039 12189 net.cpp:399] conv3_1_conv3_1_relu_0_split -> conv3_1_conv3_1_relu_0_split_1
I0421 22:02:58.171085 12189 net.cpp:141] Setting up conv3_1_conv3_1_relu_0_split
I0421 22:02:58.171093 12189 net.cpp:148] Top shape: 256 32 16 16 (2097152)
I0421 22:02:58.171099 12189 net.cpp:148] Top shape: 256 32 16 16 (2097152)
I0421 22:02:58.171103 12189 net.cpp:156] Memory required for data: 808455168
I0421 22:02:58.171108 12189 layer_factory.hpp:77] Creating layer conv3_2a
I0421 22:02:58.171123 12189 net.cpp:91] Creating Layer conv3_2a
I0421 22:02:58.171128 12189 net.cpp:425] conv3_2a <- conv3_1_conv3_1_relu_0_split_0
I0421 22:02:58.171138 12189 net.cpp:399] conv3_2a -> conv3_2a
I0421 22:02:58.174773 12189 net.cpp:141] Setting up conv3_2a
I0421 22:02:58.174793 12189 net.cpp:148] Top shape: 256 32 16 16 (2097152)
I0421 22:02:58.174798 12189 net.cpp:156] Memory required for data: 816843776
I0421 22:02:58.174808 12189 layer_factory.hpp:77] Creating layer bn_conv3_2a
I0421 22:02:58.174818 12189 net.cpp:91] Creating Layer bn_conv3_2a
I0421 22:02:58.174823 12189 net.cpp:425] bn_conv3_2a <- conv3_2a
I0421 22:02:58.174832 12189 net.cpp:386] bn_conv3_2a -> conv3_2a (in-place)
I0421 22:02:58.175042 12189 net.cpp:141] Setting up bn_conv3_2a
I0421 22:02:58.175052 12189 net.cpp:148] Top shape: 256 32 16 16 (2097152)
I0421 22:02:58.175057 12189 net.cpp:156] Memory required for data: 825232384
I0421 22:02:58.175066 12189 layer_factory.hpp:77] Creating layer scale_conv3_2a
I0421 22:02:58.175076 12189 net.cpp:91] Creating Layer scale_conv3_2a
I0421 22:02:58.175081 12189 net.cpp:425] scale_conv3_2a <- conv3_2a
I0421 22:02:58.175088 12189 net.cpp:386] scale_conv3_2a -> conv3_2a (in-place)
I0421 22:02:58.175128 12189 layer_factory.hpp:77] Creating layer scale_conv3_2a
I0421 22:02:58.175249 12189 net.cpp:141] Setting up scale_conv3_2a
I0421 22:02:58.175258 12189 net.cpp:148] Top shape: 256 32 16 16 (2097152)
I0421 22:02:58.175262 12189 net.cpp:156] Memory required for data: 833620992
I0421 22:02:58.175271 12189 layer_factory.hpp:77] Creating layer conv3_2a_relu
I0421 22:02:58.175285 12189 net.cpp:91] Creating Layer conv3_2a_relu
I0421 22:02:58.175292 12189 net.cpp:425] conv3_2a_relu <- conv3_2a
I0421 22:02:58.175299 12189 net.cpp:386] conv3_2a_relu -> conv3_2a (in-place)
I0421 22:02:58.175881 12189 net.cpp:141] Setting up conv3_2a_relu
I0421 22:02:58.175894 12189 net.cpp:148] Top shape: 256 32 16 16 (2097152)
I0421 22:02:58.175899 12189 net.cpp:156] Memory required for data: 842009600
I0421 22:02:58.175904 12189 layer_factory.hpp:77] Creating layer conv3_2b
I0421 22:02:58.175918 12189 net.cpp:91] Creating Layer conv3_2b
I0421 22:02:58.175925 12189 net.cpp:425] conv3_2b <- conv3_2a
I0421 22:02:58.175935 12189 net.cpp:399] conv3_2b -> conv3_2b
I0421 22:02:58.179708 12189 net.cpp:141] Setting up conv3_2b
I0421 22:02:58.179726 12189 net.cpp:148] Top shape: 256 32 16 16 (2097152)
I0421 22:02:58.179731 12189 net.cpp:156] Memory required for data: 850398208
I0421 22:02:58.179740 12189 layer_factory.hpp:77] Creating layer bn_conv3_2b
I0421 22:02:58.179751 12189 net.cpp:91] Creating Layer bn_conv3_2b
I0421 22:02:58.179757 12189 net.cpp:425] bn_conv3_2b <- conv3_2b
I0421 22:02:58.179765 12189 net.cpp:386] bn_conv3_2b -> conv3_2b (in-place)
I0421 22:02:58.179982 12189 net.cpp:141] Setting up bn_conv3_2b
I0421 22:02:58.179991 12189 net.cpp:148] Top shape: 256 32 16 16 (2097152)
I0421 22:02:58.179996 12189 net.cpp:156] Memory required for data: 858786816
I0421 22:02:58.180006 12189 layer_factory.hpp:77] Creating layer scale_conv3_2b
I0421 22:02:58.180014 12189 net.cpp:91] Creating Layer scale_conv3_2b
I0421 22:02:58.180021 12189 net.cpp:425] scale_conv3_2b <- conv3_2b
I0421 22:02:58.180027 12189 net.cpp:386] scale_conv3_2b -> conv3_2b (in-place)
I0421 22:02:58.180069 12189 layer_factory.hpp:77] Creating layer scale_conv3_2b
I0421 22:02:58.180197 12189 net.cpp:141] Setting up scale_conv3_2b
I0421 22:02:58.180207 12189 net.cpp:148] Top shape: 256 32 16 16 (2097152)
I0421 22:02:58.180210 12189 net.cpp:156] Memory required for data: 867175424
I0421 22:02:58.180218 12189 layer_factory.hpp:77] Creating layer conv3_2
I0421 22:02:58.180230 12189 net.cpp:91] Creating Layer conv3_2
I0421 22:02:58.180235 12189 net.cpp:425] conv3_2 <- conv3_2b
I0421 22:02:58.180241 12189 net.cpp:425] conv3_2 <- conv3_1_conv3_1_relu_0_split_1
I0421 22:02:58.180248 12189 net.cpp:399] conv3_2 -> conv3_2
I0421 22:02:58.180274 12189 net.cpp:141] Setting up conv3_2
I0421 22:02:58.180282 12189 net.cpp:148] Top shape: 256 32 16 16 (2097152)
I0421 22:02:58.180287 12189 net.cpp:156] Memory required for data: 875564032
I0421 22:02:58.180292 12189 layer_factory.hpp:77] Creating layer conv3_2_relu
I0421 22:02:58.180299 12189 net.cpp:91] Creating Layer conv3_2_relu
I0421 22:02:58.180305 12189 net.cpp:425] conv3_2_relu <- conv3_2
I0421 22:02:58.180312 12189 net.cpp:386] conv3_2_relu -> conv3_2 (in-place)
I0421 22:02:58.180886 12189 net.cpp:141] Setting up conv3_2_relu
I0421 22:02:58.180902 12189 net.cpp:148] Top shape: 256 32 16 16 (2097152)
I0421 22:02:58.180907 12189 net.cpp:156] Memory required for data: 883952640
I0421 22:02:58.180912 12189 layer_factory.hpp:77] Creating layer conv3_2_conv3_2_relu_0_split
I0421 22:02:58.180919 12189 net.cpp:91] Creating Layer conv3_2_conv3_2_relu_0_split
I0421 22:02:58.180925 12189 net.cpp:425] conv3_2_conv3_2_relu_0_split <- conv3_2
I0421 22:02:58.180934 12189 net.cpp:399] conv3_2_conv3_2_relu_0_split -> conv3_2_conv3_2_relu_0_split_0
I0421 22:02:58.180944 12189 net.cpp:399] conv3_2_conv3_2_relu_0_split -> conv3_2_conv3_2_relu_0_split_1
I0421 22:02:58.180994 12189 net.cpp:141] Setting up conv3_2_conv3_2_relu_0_split
I0421 22:02:58.181002 12189 net.cpp:148] Top shape: 256 32 16 16 (2097152)
I0421 22:02:58.181008 12189 net.cpp:148] Top shape: 256 32 16 16 (2097152)
I0421 22:02:58.181012 12189 net.cpp:156] Memory required for data: 900729856
I0421 22:02:58.181017 12189 layer_factory.hpp:77] Creating layer conv3_3a
I0421 22:02:58.181032 12189 net.cpp:91] Creating Layer conv3_3a
I0421 22:02:58.181038 12189 net.cpp:425] conv3_3a <- conv3_2_conv3_2_relu_0_split_0
I0421 22:02:58.181052 12189 net.cpp:399] conv3_3a -> conv3_3a
I0421 22:02:58.182762 12189 net.cpp:141] Setting up conv3_3a
I0421 22:02:58.182780 12189 net.cpp:148] Top shape: 256 32 16 16 (2097152)
I0421 22:02:58.182786 12189 net.cpp:156] Memory required for data: 909118464
I0421 22:02:58.182796 12189 layer_factory.hpp:77] Creating layer bn_conv3_3a
I0421 22:02:58.182804 12189 net.cpp:91] Creating Layer bn_conv3_3a
I0421 22:02:58.182811 12189 net.cpp:425] bn_conv3_3a <- conv3_3a
I0421 22:02:58.182821 12189 net.cpp:386] bn_conv3_3a -> conv3_3a (in-place)
I0421 22:02:58.183038 12189 net.cpp:141] Setting up bn_conv3_3a
I0421 22:02:58.183049 12189 net.cpp:148] Top shape: 256 32 16 16 (2097152)
I0421 22:02:58.183053 12189 net.cpp:156] Memory required for data: 917507072
I0421 22:02:58.183063 12189 layer_factory.hpp:77] Creating layer scale_conv3_3a
I0421 22:02:58.183073 12189 net.cpp:91] Creating Layer scale_conv3_3a
I0421 22:02:58.183078 12189 net.cpp:425] scale_conv3_3a <- conv3_3a
I0421 22:02:58.183084 12189 net.cpp:386] scale_conv3_3a -> conv3_3a (in-place)
I0421 22:02:58.183126 12189 layer_factory.hpp:77] Creating layer scale_conv3_3a
I0421 22:02:58.183253 12189 net.cpp:141] Setting up scale_conv3_3a
I0421 22:02:58.183261 12189 net.cpp:148] Top shape: 256 32 16 16 (2097152)
I0421 22:02:58.183266 12189 net.cpp:156] Memory required for data: 925895680
I0421 22:02:58.183274 12189 layer_factory.hpp:77] Creating layer conv3_3a_relu
I0421 22:02:58.183289 12189 net.cpp:91] Creating Layer conv3_3a_relu
I0421 22:02:58.183295 12189 net.cpp:425] conv3_3a_relu <- conv3_3a
I0421 22:02:58.183302 12189 net.cpp:386] conv3_3a_relu -> conv3_3a (in-place)
I0421 22:02:58.183509 12189 net.cpp:141] Setting up conv3_3a_relu
I0421 22:02:58.183522 12189 net.cpp:148] Top shape: 256 32 16 16 (2097152)
I0421 22:02:58.183527 12189 net.cpp:156] Memory required for data: 934284288
I0421 22:02:58.183533 12189 layer_factory.hpp:77] Creating layer conv3_3b
I0421 22:02:58.183547 12189 net.cpp:91] Creating Layer conv3_3b
I0421 22:02:58.183553 12189 net.cpp:425] conv3_3b <- conv3_3a
I0421 22:02:58.183563 12189 net.cpp:399] conv3_3b -> conv3_3b
I0421 22:02:58.190111 12189 net.cpp:141] Setting up conv3_3b
I0421 22:02:58.190132 12189 net.cpp:148] Top shape: 256 32 16 16 (2097152)
I0421 22:02:58.190138 12189 net.cpp:156] Memory required for data: 942672896
I0421 22:02:58.190147 12189 layer_factory.hpp:77] Creating layer bn_conv3_3b
I0421 22:02:58.190157 12189 net.cpp:91] Creating Layer bn_conv3_3b
I0421 22:02:58.190162 12189 net.cpp:425] bn_conv3_3b <- conv3_3b
I0421 22:02:58.190172 12189 net.cpp:386] bn_conv3_3b -> conv3_3b (in-place)
I0421 22:02:58.190388 12189 net.cpp:141] Setting up bn_conv3_3b
I0421 22:02:58.190398 12189 net.cpp:148] Top shape: 256 32 16 16 (2097152)
I0421 22:02:58.190403 12189 net.cpp:156] Memory required for data: 951061504
I0421 22:02:58.190412 12189 layer_factory.hpp:77] Creating layer scale_conv3_3b
I0421 22:02:58.190421 12189 net.cpp:91] Creating Layer scale_conv3_3b
I0421 22:02:58.190426 12189 net.cpp:425] scale_conv3_3b <- conv3_3b
I0421 22:02:58.190433 12189 net.cpp:386] scale_conv3_3b -> conv3_3b (in-place)
I0421 22:02:58.190474 12189 layer_factory.hpp:77] Creating layer scale_conv3_3b
I0421 22:02:58.190599 12189 net.cpp:141] Setting up scale_conv3_3b
I0421 22:02:58.190608 12189 net.cpp:148] Top shape: 256 32 16 16 (2097152)
I0421 22:02:58.190613 12189 net.cpp:156] Memory required for data: 959450112
I0421 22:02:58.190621 12189 layer_factory.hpp:77] Creating layer conv3_3
I0421 22:02:58.190629 12189 net.cpp:91] Creating Layer conv3_3
I0421 22:02:58.190634 12189 net.cpp:425] conv3_3 <- conv3_3b
I0421 22:02:58.190640 12189 net.cpp:425] conv3_3 <- conv2_sub_scale_conv2_sub_0_split_1
I0421 22:02:58.190649 12189 net.cpp:425] conv3_3 <- conv3_2_conv3_2_relu_0_split_1
I0421 22:02:58.190655 12189 net.cpp:399] conv3_3 -> conv3_3
I0421 22:02:58.190680 12189 net.cpp:141] Setting up conv3_3
I0421 22:02:58.190687 12189 net.cpp:148] Top shape: 256 32 16 16 (2097152)
I0421 22:02:58.190692 12189 net.cpp:156] Memory required for data: 967838720
I0421 22:02:58.190702 12189 layer_factory.hpp:77] Creating layer conv3_3_relu
I0421 22:02:58.190713 12189 net.cpp:91] Creating Layer conv3_3_relu
I0421 22:02:58.190718 12189 net.cpp:425] conv3_3_relu <- conv3_3
I0421 22:02:58.190726 12189 net.cpp:386] conv3_3_relu -> conv3_3 (in-place)
I0421 22:02:58.191236 12189 net.cpp:141] Setting up conv3_3_relu
I0421 22:02:58.191249 12189 net.cpp:148] Top shape: 256 32 16 16 (2097152)
I0421 22:02:58.191254 12189 net.cpp:156] Memory required for data: 976227328
I0421 22:02:58.191260 12189 layer_factory.hpp:77] Creating layer conv3_3_conv3_3_relu_0_split
I0421 22:02:58.191267 12189 net.cpp:91] Creating Layer conv3_3_conv3_3_relu_0_split
I0421 22:02:58.191273 12189 net.cpp:425] conv3_3_conv3_3_relu_0_split <- conv3_3
I0421 22:02:58.191280 12189 net.cpp:399] conv3_3_conv3_3_relu_0_split -> conv3_3_conv3_3_relu_0_split_0
I0421 22:02:58.191292 12189 net.cpp:399] conv3_3_conv3_3_relu_0_split -> conv3_3_conv3_3_relu_0_split_1
I0421 22:02:58.191339 12189 net.cpp:141] Setting up conv3_3_conv3_3_relu_0_split
I0421 22:02:58.191347 12189 net.cpp:148] Top shape: 256 32 16 16 (2097152)
I0421 22:02:58.191354 12189 net.cpp:148] Top shape: 256 32 16 16 (2097152)
I0421 22:02:58.191357 12189 net.cpp:156] Memory required for data: 993004544
I0421 22:02:58.191362 12189 layer_factory.hpp:77] Creating layer conv3_sub
I0421 22:02:58.191377 12189 net.cpp:91] Creating Layer conv3_sub
I0421 22:02:58.191383 12189 net.cpp:425] conv3_sub <- conv3_3_conv3_3_relu_0_split_0
I0421 22:02:58.191391 12189 net.cpp:399] conv3_sub -> conv3_sub
I0421 22:02:58.196519 12189 net.cpp:141] Setting up conv3_sub
I0421 22:02:58.196538 12189 net.cpp:148] Top shape: 256 64 8 8 (1048576)
I0421 22:02:58.196544 12189 net.cpp:156] Memory required for data: 997198848
I0421 22:02:58.196553 12189 layer_factory.hpp:77] Creating layer bn_conv3_sub
I0421 22:02:58.196564 12189 net.cpp:91] Creating Layer bn_conv3_sub
I0421 22:02:58.196570 12189 net.cpp:425] bn_conv3_sub <- conv3_sub
I0421 22:02:58.196580 12189 net.cpp:386] bn_conv3_sub -> conv3_sub (in-place)
I0421 22:02:58.196800 12189 net.cpp:141] Setting up bn_conv3_sub
I0421 22:02:58.196810 12189 net.cpp:148] Top shape: 256 64 8 8 (1048576)
I0421 22:02:58.196815 12189 net.cpp:156] Memory required for data: 1001393152
I0421 22:02:58.196825 12189 layer_factory.hpp:77] Creating layer scale_conv3_sub
I0421 22:02:58.196835 12189 net.cpp:91] Creating Layer scale_conv3_sub
I0421 22:02:58.196841 12189 net.cpp:425] scale_conv3_sub <- conv3_sub
I0421 22:02:58.196847 12189 net.cpp:386] scale_conv3_sub -> conv3_sub (in-place)
I0421 22:02:58.196890 12189 layer_factory.hpp:77] Creating layer scale_conv3_sub
I0421 22:02:58.197024 12189 net.cpp:141] Setting up scale_conv3_sub
I0421 22:02:58.197033 12189 net.cpp:148] Top shape: 256 64 8 8 (1048576)
I0421 22:02:58.197037 12189 net.cpp:156] Memory required for data: 1005587456
I0421 22:02:58.197046 12189 layer_factory.hpp:77] Creating layer conv3_sub_scale_conv3_sub_0_split
I0421 22:02:58.197055 12189 net.cpp:91] Creating Layer conv3_sub_scale_conv3_sub_0_split
I0421 22:02:58.197062 12189 net.cpp:425] conv3_sub_scale_conv3_sub_0_split <- conv3_sub
I0421 22:02:58.197067 12189 net.cpp:399] conv3_sub_scale_conv3_sub_0_split -> conv3_sub_scale_conv3_sub_0_split_0
I0421 22:02:58.197078 12189 net.cpp:399] conv3_sub_scale_conv3_sub_0_split -> conv3_sub_scale_conv3_sub_0_split_1
I0421 22:02:58.197130 12189 net.cpp:141] Setting up conv3_sub_scale_conv3_sub_0_split
I0421 22:02:58.197140 12189 net.cpp:148] Top shape: 256 64 8 8 (1048576)
I0421 22:02:58.197146 12189 net.cpp:148] Top shape: 256 64 8 8 (1048576)
I0421 22:02:58.197150 12189 net.cpp:156] Memory required for data: 1013976064
I0421 22:02:58.197155 12189 layer_factory.hpp:77] Creating layer conv4_1a
I0421 22:02:58.197172 12189 net.cpp:91] Creating Layer conv4_1a
I0421 22:02:58.197178 12189 net.cpp:425] conv4_1a <- conv3_3_conv3_3_relu_0_split_1
I0421 22:02:58.197188 12189 net.cpp:399] conv4_1a -> conv4_1a
I0421 22:02:58.216099 12189 net.cpp:141] Setting up conv4_1a
I0421 22:02:58.216120 12189 net.cpp:148] Top shape: 256 64 8 8 (1048576)
I0421 22:02:58.216132 12189 net.cpp:156] Memory required for data: 1018170368
I0421 22:02:58.216142 12189 layer_factory.hpp:77] Creating layer bn_conv4_1a
I0421 22:02:58.216155 12189 net.cpp:91] Creating Layer bn_conv4_1a
I0421 22:02:58.216161 12189 net.cpp:425] bn_conv4_1a <- conv4_1a
I0421 22:02:58.216168 12189 net.cpp:386] bn_conv4_1a -> conv4_1a (in-place)
I0421 22:02:58.216403 12189 net.cpp:141] Setting up bn_conv4_1a
I0421 22:02:58.216413 12189 net.cpp:148] Top shape: 256 64 8 8 (1048576)
I0421 22:02:58.216418 12189 net.cpp:156] Memory required for data: 1022364672
I0421 22:02:58.216428 12189 layer_factory.hpp:77] Creating layer scale_conv4_1a
I0421 22:02:58.216445 12189 net.cpp:91] Creating Layer scale_conv4_1a
I0421 22:02:58.216451 12189 net.cpp:425] scale_conv4_1a <- conv4_1a
I0421 22:02:58.216459 12189 net.cpp:386] scale_conv4_1a -> conv4_1a (in-place)
I0421 22:02:58.216501 12189 layer_factory.hpp:77] Creating layer scale_conv4_1a
I0421 22:02:58.216639 12189 net.cpp:141] Setting up scale_conv4_1a
I0421 22:02:58.216647 12189 net.cpp:148] Top shape: 256 64 8 8 (1048576)
I0421 22:02:58.216652 12189 net.cpp:156] Memory required for data: 1026558976
I0421 22:02:58.216660 12189 layer_factory.hpp:77] Creating layer conv4_1a_relu
I0421 22:02:58.216668 12189 net.cpp:91] Creating Layer conv4_1a_relu
I0421 22:02:58.216673 12189 net.cpp:425] conv4_1a_relu <- conv4_1a
I0421 22:02:58.216681 12189 net.cpp:386] conv4_1a_relu -> conv4_1a (in-place)
I0421 22:02:58.226585 12189 net.cpp:141] Setting up conv4_1a_relu
I0421 22:02:58.226608 12189 net.cpp:148] Top shape: 256 64 8 8 (1048576)
I0421 22:02:58.226613 12189 net.cpp:156] Memory required for data: 1030753280
I0421 22:02:58.226619 12189 layer_factory.hpp:77] Creating layer conv4_1b
I0421 22:02:58.226636 12189 net.cpp:91] Creating Layer conv4_1b
I0421 22:02:58.226642 12189 net.cpp:425] conv4_1b <- conv4_1a
I0421 22:02:58.226652 12189 net.cpp:399] conv4_1b -> conv4_1b
I0421 22:02:58.236311 12189 net.cpp:141] Setting up conv4_1b
I0421 22:02:58.236362 12189 net.cpp:148] Top shape: 256 64 8 8 (1048576)
I0421 22:02:58.236368 12189 net.cpp:156] Memory required for data: 1034947584
I0421 22:02:58.236387 12189 layer_factory.hpp:77] Creating layer bn_conv4_1b
I0421 22:02:58.236405 12189 net.cpp:91] Creating Layer bn_conv4_1b
I0421 22:02:58.236414 12189 net.cpp:425] bn_conv4_1b <- conv4_1b
I0421 22:02:58.236424 12189 net.cpp:386] bn_conv4_1b -> conv4_1b (in-place)
I0421 22:02:58.236670 12189 net.cpp:141] Setting up bn_conv4_1b
I0421 22:02:58.236680 12189 net.cpp:148] Top shape: 256 64 8 8 (1048576)
I0421 22:02:58.236685 12189 net.cpp:156] Memory required for data: 1039141888
I0421 22:02:58.236695 12189 layer_factory.hpp:77] Creating layer scale_conv4_1b
I0421 22:02:58.236706 12189 net.cpp:91] Creating Layer scale_conv4_1b
I0421 22:02:58.236711 12189 net.cpp:425] scale_conv4_1b <- conv4_1b
I0421 22:02:58.236718 12189 net.cpp:386] scale_conv4_1b -> conv4_1b (in-place)
I0421 22:02:58.236768 12189 layer_factory.hpp:77] Creating layer scale_conv4_1b
I0421 22:02:58.236907 12189 net.cpp:141] Setting up scale_conv4_1b
I0421 22:02:58.236917 12189 net.cpp:148] Top shape: 256 64 8 8 (1048576)
I0421 22:02:58.236922 12189 net.cpp:156] Memory required for data: 1043336192
I0421 22:02:58.236930 12189 layer_factory.hpp:77] Creating layer conv4_1
I0421 22:02:58.236939 12189 net.cpp:91] Creating Layer conv4_1
I0421 22:02:58.236944 12189 net.cpp:425] conv4_1 <- conv3_sub_scale_conv3_sub_0_split_0
I0421 22:02:58.236951 12189 net.cpp:425] conv4_1 <- conv4_1b
I0421 22:02:58.236961 12189 net.cpp:399] conv4_1 -> conv4_1
I0421 22:02:58.236990 12189 net.cpp:141] Setting up conv4_1
I0421 22:02:58.236999 12189 net.cpp:148] Top shape: 256 64 8 8 (1048576)
I0421 22:02:58.237004 12189 net.cpp:156] Memory required for data: 1047530496
I0421 22:02:58.237010 12189 layer_factory.hpp:77] Creating layer conv4_1_relu
I0421 22:02:58.237021 12189 net.cpp:91] Creating Layer conv4_1_relu
I0421 22:02:58.237028 12189 net.cpp:425] conv4_1_relu <- conv4_1
I0421 22:02:58.237036 12189 net.cpp:386] conv4_1_relu -> conv4_1 (in-place)
I0421 22:02:58.237795 12189 net.cpp:141] Setting up conv4_1_relu
I0421 22:02:58.237839 12189 net.cpp:148] Top shape: 256 64 8 8 (1048576)
I0421 22:02:58.237845 12189 net.cpp:156] Memory required for data: 1051724800
I0421 22:02:58.237854 12189 layer_factory.hpp:77] Creating layer conv4_1_conv4_1_relu_0_split
I0421 22:02:58.237874 12189 net.cpp:91] Creating Layer conv4_1_conv4_1_relu_0_split
I0421 22:02:58.237884 12189 net.cpp:425] conv4_1_conv4_1_relu_0_split <- conv4_1
I0421 22:02:58.237895 12189 net.cpp:399] conv4_1_conv4_1_relu_0_split -> conv4_1_conv4_1_relu_0_split_0
I0421 22:02:58.237910 12189 net.cpp:399] conv4_1_conv4_1_relu_0_split -> conv4_1_conv4_1_relu_0_split_1
I0421 22:02:58.237984 12189 net.cpp:141] Setting up conv4_1_conv4_1_relu_0_split
I0421 22:02:58.237993 12189 net.cpp:148] Top shape: 256 64 8 8 (1048576)
I0421 22:02:58.237999 12189 net.cpp:148] Top shape: 256 64 8 8 (1048576)
I0421 22:02:58.238004 12189 net.cpp:156] Memory required for data: 1060113408
I0421 22:02:58.238009 12189 layer_factory.hpp:77] Creating layer conv4_2a
I0421 22:02:58.238029 12189 net.cpp:91] Creating Layer conv4_2a
I0421 22:02:58.238034 12189 net.cpp:425] conv4_2a <- conv4_1_conv4_1_relu_0_split_0
I0421 22:02:58.238045 12189 net.cpp:399] conv4_2a -> conv4_2a
I0421 22:02:58.242285 12189 net.cpp:141] Setting up conv4_2a
I0421 22:02:58.242305 12189 net.cpp:148] Top shape: 256 64 8 8 (1048576)
I0421 22:02:58.242311 12189 net.cpp:156] Memory required for data: 1064307712
I0421 22:02:58.242321 12189 layer_factory.hpp:77] Creating layer bn_conv4_2a
I0421 22:02:58.242336 12189 net.cpp:91] Creating Layer bn_conv4_2a
I0421 22:02:58.242341 12189 net.cpp:425] bn_conv4_2a <- conv4_2a
I0421 22:02:58.242349 12189 net.cpp:386] bn_conv4_2a -> conv4_2a (in-place)
I0421 22:02:58.242583 12189 net.cpp:141] Setting up bn_conv4_2a
I0421 22:02:58.242594 12189 net.cpp:148] Top shape: 256 64 8 8 (1048576)
I0421 22:02:58.242599 12189 net.cpp:156] Memory required for data: 1068502016
I0421 22:02:58.242609 12189 layer_factory.hpp:77] Creating layer scale_conv4_2a
I0421 22:02:58.242621 12189 net.cpp:91] Creating Layer scale_conv4_2a
I0421 22:02:58.242627 12189 net.cpp:425] scale_conv4_2a <- conv4_2a
I0421 22:02:58.242635 12189 net.cpp:386] scale_conv4_2a -> conv4_2a (in-place)
I0421 22:02:58.242682 12189 layer_factory.hpp:77] Creating layer scale_conv4_2a
I0421 22:02:58.242822 12189 net.cpp:141] Setting up scale_conv4_2a
I0421 22:02:58.242831 12189 net.cpp:148] Top shape: 256 64 8 8 (1048576)
I0421 22:02:58.242836 12189 net.cpp:156] Memory required for data: 1072696320
I0421 22:02:58.242846 12189 layer_factory.hpp:77] Creating layer conv4_2a_relu
I0421 22:02:58.242856 12189 net.cpp:91] Creating Layer conv4_2a_relu
I0421 22:02:58.242861 12189 net.cpp:425] conv4_2a_relu <- conv4_2a
I0421 22:02:58.242868 12189 net.cpp:386] conv4_2a_relu -> conv4_2a (in-place)
I0421 22:02:58.243352 12189 net.cpp:141] Setting up conv4_2a_relu
I0421 22:02:58.243366 12189 net.cpp:148] Top shape: 256 64 8 8 (1048576)
I0421 22:02:58.243371 12189 net.cpp:156] Memory required for data: 1076890624
I0421 22:02:58.243376 12189 layer_factory.hpp:77] Creating layer conv4_2b
I0421 22:02:58.243389 12189 net.cpp:91] Creating Layer conv4_2b
I0421 22:02:58.243396 12189 net.cpp:425] conv4_2b <- conv4_2a
I0421 22:02:58.243407 12189 net.cpp:399] conv4_2b -> conv4_2b
I0421 22:02:58.251209 12189 net.cpp:141] Setting up conv4_2b
I0421 22:02:58.251230 12189 net.cpp:148] Top shape: 256 64 8 8 (1048576)
I0421 22:02:58.251236 12189 net.cpp:156] Memory required for data: 1081084928
I0421 22:02:58.251246 12189 layer_factory.hpp:77] Creating layer bn_conv4_2b
I0421 22:02:58.251260 12189 net.cpp:91] Creating Layer bn_conv4_2b
I0421 22:02:58.251266 12189 net.cpp:425] bn_conv4_2b <- conv4_2b
I0421 22:02:58.251276 12189 net.cpp:386] bn_conv4_2b -> conv4_2b (in-place)
I0421 22:02:58.251508 12189 net.cpp:141] Setting up bn_conv4_2b
I0421 22:02:58.251518 12189 net.cpp:148] Top shape: 256 64 8 8 (1048576)
I0421 22:02:58.251523 12189 net.cpp:156] Memory required for data: 1085279232
I0421 22:02:58.251570 12189 layer_factory.hpp:77] Creating layer scale_conv4_2b
I0421 22:02:58.251582 12189 net.cpp:91] Creating Layer scale_conv4_2b
I0421 22:02:58.251588 12189 net.cpp:425] scale_conv4_2b <- conv4_2b
I0421 22:02:58.251595 12189 net.cpp:386] scale_conv4_2b -> conv4_2b (in-place)
I0421 22:02:58.251642 12189 layer_factory.hpp:77] Creating layer scale_conv4_2b
I0421 22:02:58.251780 12189 net.cpp:141] Setting up scale_conv4_2b
I0421 22:02:58.251791 12189 net.cpp:148] Top shape: 256 64 8 8 (1048576)
I0421 22:02:58.251796 12189 net.cpp:156] Memory required for data: 1089473536
I0421 22:02:58.251803 12189 layer_factory.hpp:77] Creating layer conv4_2
I0421 22:02:58.251813 12189 net.cpp:91] Creating Layer conv4_2
I0421 22:02:58.251819 12189 net.cpp:425] conv4_2 <- conv4_1_conv4_1_relu_0_split_1
I0421 22:02:58.251827 12189 net.cpp:425] conv4_2 <- conv4_2b
I0421 22:02:58.251833 12189 net.cpp:399] conv4_2 -> conv4_2
I0421 22:02:58.251862 12189 net.cpp:141] Setting up conv4_2
I0421 22:02:58.251870 12189 net.cpp:148] Top shape: 256 64 8 8 (1048576)
I0421 22:02:58.251875 12189 net.cpp:156] Memory required for data: 1093667840
I0421 22:02:58.251880 12189 layer_factory.hpp:77] Creating layer conv4_2_relu
I0421 22:02:58.251888 12189 net.cpp:91] Creating Layer conv4_2_relu
I0421 22:02:58.251893 12189 net.cpp:425] conv4_2_relu <- conv4_2
I0421 22:02:58.251899 12189 net.cpp:386] conv4_2_relu -> conv4_2 (in-place)
I0421 22:02:58.252326 12189 net.cpp:141] Setting up conv4_2_relu
I0421 22:02:58.252343 12189 net.cpp:148] Top shape: 256 64 8 8 (1048576)
I0421 22:02:58.252349 12189 net.cpp:156] Memory required for data: 1097862144
I0421 22:02:58.252354 12189 layer_factory.hpp:77] Creating layer conv4_2_conv4_2_relu_0_split
I0421 22:02:58.252363 12189 net.cpp:91] Creating Layer conv4_2_conv4_2_relu_0_split
I0421 22:02:58.252368 12189 net.cpp:425] conv4_2_conv4_2_relu_0_split <- conv4_2
I0421 22:02:58.252377 12189 net.cpp:399] conv4_2_conv4_2_relu_0_split -> conv4_2_conv4_2_relu_0_split_0
I0421 22:02:58.252388 12189 net.cpp:399] conv4_2_conv4_2_relu_0_split -> conv4_2_conv4_2_relu_0_split_1
I0421 22:02:58.252440 12189 net.cpp:141] Setting up conv4_2_conv4_2_relu_0_split
I0421 22:02:58.252449 12189 net.cpp:148] Top shape: 256 64 8 8 (1048576)
I0421 22:02:58.252454 12189 net.cpp:148] Top shape: 256 64 8 8 (1048576)
I0421 22:02:58.252460 12189 net.cpp:156] Memory required for data: 1106250752
I0421 22:02:58.252463 12189 layer_factory.hpp:77] Creating layer conv4_3a
I0421 22:02:58.252482 12189 net.cpp:91] Creating Layer conv4_3a
I0421 22:02:58.252488 12189 net.cpp:425] conv4_3a <- conv4_2_conv4_2_relu_0_split_0
I0421 22:02:58.252497 12189 net.cpp:399] conv4_3a -> conv4_3a
I0421 22:02:58.261277 12189 net.cpp:141] Setting up conv4_3a
I0421 22:02:58.261343 12189 net.cpp:148] Top shape: 256 64 8 8 (1048576)
I0421 22:02:58.261366 12189 net.cpp:156] Memory required for data: 1110445056
I0421 22:02:58.261404 12189 layer_factory.hpp:77] Creating layer bn_conv4_3a
I0421 22:02:58.261435 12189 net.cpp:91] Creating Layer bn_conv4_3a
I0421 22:02:58.261445 12189 net.cpp:425] bn_conv4_3a <- conv4_3a
I0421 22:02:58.261458 12189 net.cpp:386] bn_conv4_3a -> conv4_3a (in-place)
I0421 22:02:58.261786 12189 net.cpp:141] Setting up bn_conv4_3a
I0421 22:02:58.261800 12189 net.cpp:148] Top shape: 256 64 8 8 (1048576)
I0421 22:02:58.261804 12189 net.cpp:156] Memory required for data: 1114639360
I0421 22:02:58.261816 12189 layer_factory.hpp:77] Creating layer scale_conv4_3a
I0421 22:02:58.261828 12189 net.cpp:91] Creating Layer scale_conv4_3a
I0421 22:02:58.261836 12189 net.cpp:425] scale_conv4_3a <- conv4_3a
I0421 22:02:58.261842 12189 net.cpp:386] scale_conv4_3a -> conv4_3a (in-place)
I0421 22:02:58.261896 12189 layer_factory.hpp:77] Creating layer scale_conv4_3a
I0421 22:02:58.262040 12189 net.cpp:141] Setting up scale_conv4_3a
I0421 22:02:58.262050 12189 net.cpp:148] Top shape: 256 64 8 8 (1048576)
I0421 22:02:58.262054 12189 net.cpp:156] Memory required for data: 1118833664
I0421 22:02:58.262063 12189 layer_factory.hpp:77] Creating layer conv4_3a_relu
I0421 22:02:58.262084 12189 net.cpp:91] Creating Layer conv4_3a_relu
I0421 22:02:58.262089 12189 net.cpp:425] conv4_3a_relu <- conv4_3a
I0421 22:02:58.262096 12189 net.cpp:386] conv4_3a_relu -> conv4_3a (in-place)
I0421 22:02:58.263070 12189 net.cpp:141] Setting up conv4_3a_relu
I0421 22:02:58.263113 12189 net.cpp:148] Top shape: 256 64 8 8 (1048576)
I0421 22:02:58.263119 12189 net.cpp:156] Memory required for data: 1123027968
I0421 22:02:58.263128 12189 layer_factory.hpp:77] Creating layer conv4_3b
I0421 22:02:58.263157 12189 net.cpp:91] Creating Layer conv4_3b
I0421 22:02:58.263166 12189 net.cpp:425] conv4_3b <- conv4_3a
I0421 22:02:58.263178 12189 net.cpp:399] conv4_3b -> conv4_3b
I0421 22:02:58.266695 12189 net.cpp:141] Setting up conv4_3b
I0421 22:02:58.266715 12189 net.cpp:148] Top shape: 256 64 8 8 (1048576)
I0421 22:02:58.266721 12189 net.cpp:156] Memory required for data: 1127222272
I0421 22:02:58.266731 12189 layer_factory.hpp:77] Creating layer bn_conv4_3b
I0421 22:02:58.266743 12189 net.cpp:91] Creating Layer bn_conv4_3b
I0421 22:02:58.266749 12189 net.cpp:425] bn_conv4_3b <- conv4_3b
I0421 22:02:58.266757 12189 net.cpp:386] bn_conv4_3b -> conv4_3b (in-place)
I0421 22:02:58.266999 12189 net.cpp:141] Setting up bn_conv4_3b
I0421 22:02:58.267009 12189 net.cpp:148] Top shape: 256 64 8 8 (1048576)
I0421 22:02:58.267014 12189 net.cpp:156] Memory required for data: 1131416576
I0421 22:02:58.267024 12189 layer_factory.hpp:77] Creating layer scale_conv4_3b
I0421 22:02:58.267033 12189 net.cpp:91] Creating Layer scale_conv4_3b
I0421 22:02:58.267038 12189 net.cpp:425] scale_conv4_3b <- conv4_3b
I0421 22:02:58.267046 12189 net.cpp:386] scale_conv4_3b -> conv4_3b (in-place)
I0421 22:02:58.267096 12189 layer_factory.hpp:77] Creating layer scale_conv4_3b
I0421 22:02:58.267235 12189 net.cpp:141] Setting up scale_conv4_3b
I0421 22:02:58.267246 12189 net.cpp:148] Top shape: 256 64 8 8 (1048576)
I0421 22:02:58.267249 12189 net.cpp:156] Memory required for data: 1135610880
I0421 22:02:58.267258 12189 layer_factory.hpp:77] Creating layer conv4_3
I0421 22:02:58.267267 12189 net.cpp:91] Creating Layer conv4_3
I0421 22:02:58.267273 12189 net.cpp:425] conv4_3 <- conv4_2_conv4_2_relu_0_split_1
I0421 22:02:58.267280 12189 net.cpp:425] conv4_3 <- conv3_sub_scale_conv3_sub_0_split_1
I0421 22:02:58.267287 12189 net.cpp:425] conv4_3 <- conv4_3b
I0421 22:02:58.267294 12189 net.cpp:399] conv4_3 -> conv4_3
I0421 22:02:58.267323 12189 net.cpp:141] Setting up conv4_3
I0421 22:02:58.267331 12189 net.cpp:148] Top shape: 256 64 8 8 (1048576)
I0421 22:02:58.267336 12189 net.cpp:156] Memory required for data: 1139805184
I0421 22:02:58.267341 12189 layer_factory.hpp:77] Creating layer conv4_3_relu
I0421 22:02:58.267349 12189 net.cpp:91] Creating Layer conv4_3_relu
I0421 22:02:58.267354 12189 net.cpp:425] conv4_3_relu <- conv4_3
I0421 22:02:58.267364 12189 net.cpp:386] conv4_3_relu -> conv4_3 (in-place)
I0421 22:02:58.267791 12189 net.cpp:141] Setting up conv4_3_relu
I0421 22:02:58.267803 12189 net.cpp:148] Top shape: 256 64 8 8 (1048576)
I0421 22:02:58.267808 12189 net.cpp:156] Memory required for data: 1143999488
I0421 22:02:58.267813 12189 layer_factory.hpp:77] Creating layer global_pool
I0421 22:02:58.267825 12189 net.cpp:91] Creating Layer global_pool
I0421 22:02:58.267832 12189 net.cpp:425] global_pool <- conv4_3
I0421 22:02:58.267839 12189 net.cpp:399] global_pool -> global_pool
I0421 22:02:58.269034 12189 net.cpp:141] Setting up global_pool
I0421 22:02:58.269050 12189 net.cpp:148] Top shape: 256 64 1 1 (16384)
I0421 22:02:58.269057 12189 net.cpp:156] Memory required for data: 1144065024
I0421 22:02:58.269062 12189 layer_factory.hpp:77] Creating layer ip
I0421 22:02:58.269079 12189 net.cpp:91] Creating Layer ip
I0421 22:02:58.269085 12189 net.cpp:425] ip <- global_pool
I0421 22:02:58.269093 12189 net.cpp:399] ip -> ip
I0421 22:02:58.269255 12189 net.cpp:141] Setting up ip
I0421 22:02:58.269268 12189 net.cpp:148] Top shape: 256 10 (2560)
I0421 22:02:58.269271 12189 net.cpp:156] Memory required for data: 1144075264
I0421 22:02:58.269280 12189 layer_factory.hpp:77] Creating layer ip_ip_0_split
I0421 22:02:58.269299 12189 net.cpp:91] Creating Layer ip_ip_0_split
I0421 22:02:58.269306 12189 net.cpp:425] ip_ip_0_split <- ip
I0421 22:02:58.269314 12189 net.cpp:399] ip_ip_0_split -> ip_ip_0_split_0
I0421 22:02:58.269322 12189 net.cpp:399] ip_ip_0_split -> ip_ip_0_split_1
I0421 22:02:58.269366 12189 net.cpp:141] Setting up ip_ip_0_split
I0421 22:02:58.269373 12189 net.cpp:148] Top shape: 256 10 (2560)
I0421 22:02:58.269379 12189 net.cpp:148] Top shape: 256 10 (2560)
I0421 22:02:58.269384 12189 net.cpp:156] Memory required for data: 1144095744
I0421 22:02:58.269389 12189 layer_factory.hpp:77] Creating layer accuracy
I0421 22:02:58.269403 12189 net.cpp:91] Creating Layer accuracy
I0421 22:02:58.269409 12189 net.cpp:425] accuracy <- ip_ip_0_split_0
I0421 22:02:58.269417 12189 net.cpp:425] accuracy <- label_cifar_1_split_0
I0421 22:02:58.269425 12189 net.cpp:399] accuracy -> accuracy
…
I0421 22:02:58.274127 12189 solver.cpp:181] Creating test net (#0) specified by net file: prototxt/ResNet-cifar.prototxt
I0421 22:02:58.274324 12189 net.cpp:313] The NetState phase (1) differed from the phase (0) specified by a rule in layer cifar
I0421 22:02:58.275012 12189 net.cpp:49] Initializing net from parameters: 
name: "ResNet-cifar"
state {
  phase: TEST
}
layer {
  name: "cifar"
  type: "Data"
  top: "data"
  top: "label"
  include {
    phase: TEST
  }
  transform_param {
    mean_file: "data/cifar10/mean.binaryproto"
  }
  data_param {
    source: "data/cifar10/cifar10_test_lmdb"
    batch_size: 100
    backend: LMDB
  }
}
layer {
  name: "conv1"
  type: "Convolution"
  bottom: "data"
  top: "conv1"
  param {
    lr_mult: 1
  }
  param {
    lr_mult: 2
  }
  convolution_param {
    num_output: 16
    pad: 1
    kernel_size: 3
    weight_filler {
      type: "msra"
    }
    bias_filler {
      type: "constant"
    }
  }
}
layer {
  name: "bn_conv1"
  type: "BatchNorm"
  bottom: "conv1"
  top: "conv1"
  param {
    lr_mult: 0
  }
  param {
    lr_mult: 0
  }
  param {
    lr_mult: 0
  }
}
layer {
  name: "scale_conv1"
  type: "Scale"
  bottom: "conv1"
  top: "conv1"
  scale_param {
    bias_term: true
  }
}
layer {
  name: "conv1_relu"
  type: "ReLU"
  bottom: "conv1"
  top: "conv1"
}
layer {
  name: "conv2_1a"
  type: "Convolution"
  bottom: "conv1"
  top: "conv2_1a"
  param {
    lr_mult: 1
  }
  param {
    lr_mult: 2
  }
  convolution_param {
    num_output: 16
    pad: 1
    kernel_size: 3
    stride: 1
    weight_filler {
      type: "msra"
    }
    bias_filler {
      type: "constant"
      value: 0
    }
  }
}
layer {
  name: "bn_conv2_1a"
  type: "BatchNorm"
  bottom: "conv2_1a"
  top: "conv2_1a"
  param {
    lr_mult: 0
  }
  param {
    lr_mult: 0
  }
  param {
    lr_mult: 0
  }
}
layer {
  name: "scale_conv2_1a"
  type: "Scale"
  bottom: "conv2_1a"
  top: "conv2_1a"
  scale_param {
    bias_term: true
  }
}
layer {
  name: "conv2_1a_relu"
  type: "ReLU"
  bottom: "conv2_1a"
  top: "conv2_1a"
}
layer {
  name: "conv2_1b"
  type: "Convolution"
  bottom: "conv2_1a"
  top: "conv2_1b"
  param {
    lr_mult: 1
  }
  param {
    lr_mult: 2
  }
  convolution_param {
    num_output: 16
    pad: 1
    kernel_size: 3
    stride: 1
    weight_filler {
      type: "msra"
    }
    bias_filler {
      type: "constant"
      value: 0
    }
  }
}
layer {
  name: "bn_conv2_1b"
  type: "BatchNorm"
  bottom: "conv2_1b"
  top: "conv2_1b"
  param {
    lr_mult: 0
  }
  param {
    lr_mult: 0
  }
  param {
    lr_mult: 0
  }
}
layer {
  name: "scale_conv2_1b"
  type: "Scale"
  bottom: "conv2_1b"
  top: "conv2_1b"
  scale_param {
    bias_term: true
  }
}
layer {
  name: "conv2_1"
  type: "Eltwise"
  bottom: "conv2_1b"
  bottom: "conv1"
  top: "conv2_1"
}
layer {
  name: "conv2_1_relu"
  type: "ReLU"
  bottom: "conv2_1"
  top: "conv2_1"
}
layer {
  name: "conv2_2a"
  type: "Convolution"
  bottom: "conv2_1"
  top: "conv2_2a"
  param {
    lr_mult: 1
  }
  param {
    lr_mult: 2
  }
  convolution_param {
    num_output: 16
    pad: 1
    kernel_size: 3
    stride: 1
    weight_filler {
      type: "msra"
    }
    bias_filler {
      type: "constant"
      value: 0
    }
  }
}
layer {
  name: "bn_conv2_2a"
  type: "BatchNorm"
  bottom: "conv2_2a"
  top: "conv2_2a"
  param {
    lr_mult: 0
  }
  param {
    lr_mult: 0
  }
  param {
    lr_mult: 0
  }
}
layer {
  name: "scale_conv2_2a"
  type: "Scale"
  bottom: "conv2_2a"
  top: "conv2_2a"
  scale_param {
    bias_term: true
  }
}
layer {
  name: "conv2_2a_relu"
  type: "ReLU"
  bottom: "conv2_2a"
  top: "conv2_2a"
}
layer {
  name: "conv2_2b"
  type: "Convolution"
  bottom: "conv2_2a"
  top: "conv2_2b"
  param {
    lr_mult: 1
  }
  param {
    lr_mult: 2
  }
  convolution_param {
    num_output: 16
    pad: 1
    kernel_size: 3
    stride: 1
    weight_filler {
      type: "msra"
    }
    bias_filler {
      type: "constant"
      value: 0
    }
  }
}
layer {
  name: "bn_conv2_2b"
  type: "BatchNorm"
  bottom: "conv2_2b"
  top: "conv2_2b"
  param {
    lr_mult: 0
  }
  param {
    lr_mult: 0
  }
  param {
    lr_mult: 0
  }
}
layer {
  name: "scale_conv2_2b"
  type: "Scale"
  bottom: "conv2_2b"
  top: "conv2_2b"
  scale_param {
    bias_term: true
  }
}
layer {
  name: "conv2_2"
  type: "Eltwise"
  bottom: "conv2_2b"
  bottom: "conv2_1"
  top: "conv2_2"
}
layer {
  name: "conv2_2_relu"
  type: "ReLU"
  bottom: "conv2_2"
  top: "conv2_2"
}
layer {
  name: "conv2_3a"
  type: "Convolution"
  bottom: "conv2_2"
  top: "conv2_3a"
  param {
    lr_mult: 1
  }
  param {
    lr_mult: 2
  }
  convolution_param {
    num_output: 16
    pad: 1
    kernel_size: 3
    stride: 1
    weight_filler {
      type: "msra"
    }
    bias_filler {
      type: "constant"
      value: 0
    }
  }
}
layer {
  name: "bn_conv2_3a"
  type: "BatchNorm"
  bottom: "conv2_3a"
  top: "conv2_3a"
  param {
    lr_mult: 0
  }
  param {
    lr_mult: 0
  }
  param {
    lr_mult: 0
  }
}
layer {
  name: "scale_conv2_3a"
  type: "Scale"
  bottom: "conv2_3a"
  top: "conv2_3a"
  scale_param {
    bias_term: true
  }
}
layer {
  name: "conv2_3a_relu"
  type: "ReLU"
  bottom: "conv2_3a"
  top: "conv2_3a"
}
layer {
  name: "conv2_3b"
  type: "Convolution"
  bottom: "conv2_3a"
  top: "conv2_3b"
  param {
    lr_mult: 1
  }
  param {
    lr_mult: 2
  }
  convolution_param {
    num_output: 16
    pad: 1
    kernel_size: 3
    stride: 1
    weight_filler {
      type: "msra"
    }
    bias_filler {
      type: "constant"
      value: 0
    }
  }
}
layer {
  name: "bn_conv2_3b"
  type: "BatchNorm"
  bottom: "conv2_3b"
  top: "conv2_3b"
  param {
    lr_mult: 0
  }
  param {
    lr_mult: 0
  }
  param {
    lr_mult: 0
  }
}
layer {
  name: "scale_conv2_3b"
  type: "Scale"
  bottom: "conv2_3b"
  top: "conv2_3b"
  scale_param {
    bias_term: true
  }
}
layer {
  name: "conv2_3"
  type: "Eltwise"
  bottom: "conv1"
  bottom: "conv2_3b"
  bottom: "conv2_2"
  top: "conv2_3"
}
layer {
  name: "conv2_3_relu"
  type: "ReLU"
  bottom: "conv2_3"
  top: "conv2_3"
}
layer {
  name: "conv2_sub"
  type: "Convolution"
  bottom: "conv2_3"
  top: "conv2_sub"
  param {
    lr_mult: 1
  }
  param {
    lr_mult: 2
  }
  convolution_param {
    num_output: 32
    kernel_size: 1
    stride: 2
    weight_filler {
      type: "msra"
    }
    bias_filler {
      type: "constant"
      value: 0
    }
  }
}
layer {
  name: "bn_conv2_sub"
  type: "BatchNorm"
  bottom: "conv2_sub"
  top: "conv2_sub"
  param {
    lr_mult: 0
  }
  param {
    lr_mult: 0
  }
  param {
    lr_mult: 0
  }
}
layer {
  name: "scale_conv2_sub"
  type: "Scale"
  bottom: "conv2_sub"
  top: "conv2_sub"
  scale_param {
    bias_term: true
  }
}
layer {
  name: "conv3_1a"
  type: "Convolution"
  bottom: "conv2_3"
  top: "conv3_1a"
  param {
    lr_mult: 1
  }
  param {
    lr_mult: 2
  }
  convolution_param {
    num_output: 32
    pad: 0
    kernel_size: 1
    stride: 2
    weight_filler {
      type: "msra"
    }
    bias_filler {
      type: "constant"
      value: 0
    }
  }
}
layer {
  name: "bn_conv3_1a"
  type: "BatchNorm"
  bottom: "conv3_1a"
  top: "conv3_1a"
  param {
    lr_mult: 0
  }
  param {
    lr_mult: 0
  }
  param {
    lr_mult: 0
  }
}
layer {
  name: "scale_conv3_1a"
  type: "Scale"
  bottom: "conv3_1a"
  top: "conv3_1a"
  scale_param {
    bias_term: true
  }
}
layer {
  name: "conv3_1a_relu"
  type: "ReLU"
  bottom: "conv3_1a"
  top: "conv3_1a"
}
layer {
  name: "conv3_1b"
  type: "Convolution"
  bottom: "conv3_1a"
  top: "conv3_1b"
  param {
    lr_mult: 1
  }
  param {
    lr_mult: 2
  }
  convolution_param {
    num_output: 32
    pad: 1
    kernel_size: 3
    stride: 1
    weight_filler {
      type: "msra"
    }
    bias_filler {
      type: "constant"
      value: 0
    }
  }
}
layer {
  name: "bn_conv3_1b"
  type: "BatchNorm"
  bottom: "conv3_1b"
  top: "conv3_1b"
  param {
    lr_mult: 0
  }
  param {
    lr_mult: 0
  }
  param {
    lr_mult: 0
  }
}
layer {
  name: "scale_conv3_1b"
  type: "Scale"
  bottom: "conv3_1b"
  top: "conv3_1b"
  scale_param {
    bias_term: true
  }
}
layer {
  name: "conv3_1"
  type: "Eltwise"
  bottom: "conv3_1b"
  bottom: "conv2_sub"
  top: "conv3_1"
}
layer {
  name: "conv3_1_relu"
  type: "ReLU"
  bottom: "conv3_1"
  top: "conv3_1"
}
layer {
  name: "conv3_2a"
  type: "Convolution"
  bottom: "conv3_1"
  top: "conv3_2a"
  param {
    lr_mult: 1
  }
  param {
    lr_mult: 2
  }
  convolution_param {
    num_output: 32
    pad: 1
    kernel_size: 3
    stride: 1
    weight_filler {
      type: "msra"
    }
    bias_filler {
      type: "constant"
      value: 0
    }
  }
}
layer {
  name: "bn_conv3_2a"
  type: "BatchNorm"
  bottom: "conv3_2a"
  top: "conv3_2a"
  param {
    lr_mult: 0
  }
  param {
    lr_mult: 0
  }
  param {
    lr_mult: 0
  }
}
layer {
  name: "scale_conv3_2a"
  type: "Scale"
  bottom: "conv3_2a"
  top: "conv3_2a"
  scale_param {
    bias_term: true
  }
}
layer {
  name: "conv3_2a_relu"
  type: "ReLU"
  bottom: "conv3_2a"
  top: "conv3_2a"
}
layer {
  name: "conv3_2b"
  type: "Convolution"
  bottom: "conv3_2a"
  top: "conv3_2b"
  param {
    lr_mult: 1
  }
  param {
    lr_mult: 2
  }
  convolution_param {
    num_output: 32
    pad: 1
    kernel_size: 3
    stride: 1
    weight_filler {
      type: "msra"
    }
    bias_filler {
      type: "constant"
      value: 0
    }
  }
}
layer {
  name: "bn_conv3_2b"
  type: "BatchNorm"
  bottom: "conv3_2b"
  top: "conv3_2b"
  param {
    lr_mult: 0
  }
  param {
    lr_mult: 0
  }
  param {
    lr_mult: 0
  }
}
layer {
  name: "scale_conv3_2b"
  type: "Scale"
  bottom: "conv3_2b"
  top: "conv3_2b"
  scale_param {
    bias_term: true
  }
}
layer {
  name: "conv3_2"
  type: "Eltwise"
  bottom: "conv3_2b"
  bottom: "conv3_1"
  top: "conv3_2"
}
layer {
  name: "conv3_2_relu"
  type: "ReLU"
  bottom: "conv3_2"
  top: "conv3_2"
}
layer {
  name: "conv3_3a"
  type: "Convolution"
  bottom: "conv3_2"
  top: "conv3_3a"
  param {
    lr_mult: 1
  }
  param {
    lr_mult: 2
  }
  convolution_param {
    num_output: 32
    pad: 1
    kernel_size: 3
    stride: 1
    weight_filler {
      type: "msra"
    }
    bias_filler {
      type: "constant"
      value: 0
    }
  }
}
layer {
  name: "bn_conv3_3a"
  type: "BatchNorm"
  bottom: "conv3_3a"
  top: "conv3_3a"
  param {
    lr_mult: 0
  }
  param {
    lr_mult: 0
  }
  param {
    lr_mult: 0
  }
}
layer {
  name: "scale_conv3_3a"
  type: "Scale"
  bottom: "conv3_3a"
  top: "conv3_3a"
  scale_param {
    bias_term: true
  }
}
layer {
  name: "conv3_3a_relu"
  type: "ReLU"
  bottom: "conv3_3a"
  top: "conv3_3a"
}
layer {
  name: "conv3_3b"
  type: "Convolution"
  bottom: "conv3_3a"
  top: "conv3_3b"
  param {
    lr_mult: 1
  }
  param {
    lr_mult: 2
  }
  convolution_param {
    num_output: 32
    pad: 1
    kernel_size: 3
    stride: 1
    weight_filler {
      type: "msra"
    }
    bias_filler {
      type: "constant"
      value: 0
    }
  }
}
layer {
  name: "bn_conv3_3b"
  type: "BatchNorm"
  bottom: "conv3_3b"
  top: "conv3_3b"
  param {
    lr_mult: 0
  }
  param {
    lr_mult: 0
  }
  param {
    lr_mult: 0
  }
}
layer {
  name: "scale_conv3_3b"
  type: "Scale"
  bottom: "conv3_3b"
  top: "conv3_3b"
  scale_param {
    bias_term: true
  }
}
layer {
  name: "conv3_3"
  type: "Eltwise"
  bottom: "conv3_3b"
  bottom: "conv2_sub"
  bottom: "conv3_2"
  top: "conv3_3"
}
layer {
  name: "conv3_3_relu"
  type: "ReLU"
  bottom: "conv3_3"
  top: "conv3_3"
}
layer {
  name: "conv3_sub"
  type: "Convolution"
  bottom: "conv3_3"
  top: "conv3_sub"
  param {
    lr_mult: 1
  }
  param {
    lr_mult: 2
  }
  convolution_param {
    num_output: 64
    kernel_size: 1
    stride: 2
    weight_filler {
      type: "msra"
    }
    bias_filler {
      type: "constant"
      value: 0
    }
  }
}
layer {
  name: "bn_conv3_sub"
  type: "BatchNorm"
  bottom: "conv3_sub"
  top: "conv3_sub"
  param {
    lr_mult: 0
  }
  param {
    lr_mult: 0
  }
  param {
    lr_mult: 0
  }
}
layer {
  name: "scale_conv3_sub"
  type: "Scale"
  bottom: "conv3_sub"
  top: "conv3_sub"
  scale_param {
    bias_term: true
  }
}
layer {
  name: "conv4_1a"
  type: "Convolution"
  bottom: "conv3_3"
  top: "conv4_1a"
  param {
    lr_mult: 1
  }
  param {
    lr_mult: 2
  }
  convolution_param {
    num_output: 64
    pad: 0
    kernel_size: 1
    stride: 2
    weight_filler {
      type: "msra"
    }
    bias_filler {
      type: "constant"
      value: 0
    }
  }
}
layer {
  name: "bn_conv4_1a"
  type: "BatchNorm"
  bottom: "conv4_1a"
  top: "conv4_1a"
  param {
    lr_mult: 0
  }
  param {
    lr_mult: 0
  }
  param {
    lr_mult: 0
  }
}
layer {
  name: "scale_conv4_1a"
  type: "Scale"
  bottom: "conv4_1a"
  top: "conv4_1a"
  scale_param {
    bias_term: true
  }
}
layer {
  name: "conv4_1a_relu"
  type: "ReLU"
  bottom: "conv4_1a"
  top: "conv4_1a"
}
layer {
  name: "conv4_1b"
  type: "Convolution"
  bottom: "conv4_1a"
  top: "conv4_1b"
  param {
    lr_mult: 1
  }
  param {
    lr_mult: 2
  }
  convolution_param {
    num_output: 64
    pad: 1
    kernel_size: 3
    stride: 1
    weight_filler {
      type: "msra"
    }
    bias_filler {
      type: "constant"
      value: 0
    }
  }
}
layer {
  name: "bn_conv4_1b"
  type: "BatchNorm"
  bottom: "conv4_1b"
  top: "conv4_1b"
  param {
    lr_mult: 0
  }
  param {
    lr_mult: 0
  }
  param {
    lr_mult: 0
  }
}
layer {
  name: "scale_conv4_1b"
  type: "Scale"
  bottom: "conv4_1b"
  top: "conv4_1b"
  scale_param {
    bias_term: true
  }
}
layer {
  name: "conv4_1"
  type: "Eltwise"
  bottom: "conv3_sub"
  bottom: "conv4_1b"
  top: "conv4_1"
}
layer {
  name: "conv4_1_relu"
  type: "ReLU"
  bottom: "conv4_1"
  top: "conv4_1"
}
layer {
  name: "conv4_2a"
  type: "Convolution"
  bottom: "conv4_1"
  top: "conv4_2a"
  param {
    lr_mult: 1
  }
  param {
    lr_mult: 2
  }
  convolution_param {
    num_output: 64
    pad: 1
    kernel_size: 3
    stride: 1
    weight_filler {
      type: "msra"
    }
    bias_filler {
      type: "constant"
      value: 0
    }
  }
}
layer {
  name: "bn_conv4_2a"
  type: "BatchNorm"
  bottom: "conv4_2a"
  top: "conv4_2a"
  param {
    lr_mult: 0
  }
  param {
    lr_mult: 0
  }
  param {
    lr_mult: 0
  }
}
layer {
  name: "scale_conv4_2a"
  type: "Scale"
  bottom: "conv4_2a"
  top: "conv4_2a"
  scale_param {
    bias_term: true
  }
}
layer {
  name: "conv4_2a_relu"
  type: "ReLU"
  bottom: "conv4_2a"
  top: "conv4_2a"
}
layer {
  name: "conv4_2b"
  type: "Convolution"
  bottom: "conv4_2a"
  top: "conv4_2b"
  param {
    lr_mult: 1
  }
  param {
    lr_mult: 2
  }
  convolution_param {
    num_output: 64
    pad: 1
    kernel_size: 3
    stride: 1
    weight_filler {
      type: "msra"
    }
    bias_filler {
      type: "constant"
      value: 0
    }
  }
}
layer {
  name: "bn_conv4_2b"
  type: "BatchNorm"
  bottom: "conv4_2b"
  top: "conv4_2b"
  param {
    lr_mult: 0
  }
  param {
    lr_mult: 0
  }
  param {
    lr_mult: 0
  }
}
layer {
  name: "scale_conv4_2b"
  type: "Scale"
  bottom: "conv4_2b"
  top: "conv4_2b"
  scale_param {
    bias_term: true
  }
}
layer {
  name: "conv4_2"
  type: "Eltwise"
  bottom: "conv4_1"
  bottom: "conv4_2b"
  top: "conv4_2"
}
layer {
  name: "conv4_2_relu"
  type: "ReLU"
  bottom: "conv4_2"
  top: "conv4_2"
}
layer {
  name: "conv4_3a"
  type: "Convolution"
  bottom: "conv4_2"
  top: "conv4_3a"
  param {
    lr_mult: 1
  }
  param {
    lr_mult: 2
  }
  convolution_param {
    num_output: 64
    pad: 1
    kernel_size: 3
    stride: 1
    weight_filler {
      type: "msra"
    }
    bias_filler {
      type: "constant"
      value: 0
    }
  }
}
layer {
  name: "bn_conv4_3a"
  type: "BatchNorm"
  bottom: "conv4_3a"
  top: "conv4_3a"
  param {
    lr_mult: 0
  }
  param {
    lr_mult: 0
  }
  param {
    lr_mult: 0
  }
}
layer {
  name: "scale_conv4_3a"
  type: "Scale"
  bottom: "conv4_3a"
  top: "conv4_3a"
  scale_param {
    bias_term: true
  }
}
layer {
  name: "conv4_3a_relu"
  type: "ReLU"
  bottom: "conv4_3a"
  top: "conv4_3a"
}
layer {
  name: "conv4_3b"
  type: "Convolution"
  bottom: "conv4_3a"
  top: "conv4_3b"
  param {
    lr_mult: 1
  }
  param {
    lr_mult: 2
  }
  convolution_param {
    num_output: 64
    pad: 1
    kernel_size: 3
    stride: 1
    weight_filler {
      type: "msra"
    }
    bias_filler {
      type: "constant"
      value: 0
    }
  }
}
layer {
  name: "bn_conv4_3b"
  type: "BatchNorm"
  bottom: "conv4_3b"
  top: "conv4_3b"
  param {
    lr_mult: 0
  }
  param {
    lr_mult: 0
  }
  param {
    lr_mult: 0
  }
}
layer {
  name: "scale_conv4_3b"
  type: "Scale"
  bottom: "conv4_3b"
  top: "conv4_3b"
  scale_param {
    bias_term: true
  }
}
layer {
  name: "conv4_3"
  type: "Eltwise"
  bottom: "conv4_2"
  bottom: "conv3_sub"
  bottom: "conv4_3b"
  top: "conv4_3"
}
layer {
  name: "conv4_3_relu"
  type: "ReLU"
  bottom: "conv4_3"
  top: "conv4_3"
}
layer {
  name: "global_pool"
  type: "Pooling"
  bottom: "conv4_3"
  top: "global_pool"
  pooling_param {
    pool: AVE
    kernel_size: 8
    stride: 8
  }
}
layer {
  name: "ip"
  type: "InnerProduct"
  bottom: "global_pool"
  top: "ip"
  inner_product_param {
    num_output: 10
  }
}
layer {
  name: "accuracy"
  type: "Accuracy"
  bottom: "ip"
  bottom: "label"
  top: "accuracy"
}
layer {
  name: "loss"
  type: "SoftmaxWithLoss"
  bottom: "ip"
  bottom: "label"
  top: "loss"
}
I0421 22:02:58.275612 12189 layer_factory.hpp:77] Creating layer cifar
I0421 22:02:58.275805 12189 net.cpp:91] Creating Layer cifar
I0421 22:02:58.275847 12189 net.cpp:399] cifar -> data
I0421 22:02:58.275861 12189 net.cpp:399] cifar -> label
I0421 22:02:58.275874 12189 data_transformer.cpp:25] Loading mean file from: data/cifar10/mean.binaryproto
I0421 22:02:58.277544 12218 db_lmdb.cpp:38] Opened lmdb data/cifar10/cifar10_test_lmdb
I0421 22:02:58.277778 12189 data_layer.cpp:41] output data size: 100,3,32,32
I0421 22:02:58.285567 12189 net.cpp:141] Setting up cifar
I0421 22:02:58.285594 12189 net.cpp:148] Top shape: 100 3 32 32 (307200)
I0421 22:02:58.285606 12189 net.cpp:148] Top shape: 100 (100)
I0421 22:02:58.285612 12189 net.cpp:156] Memory required for data: 1229200
I0421 22:02:58.285617 12189 layer_factory.hpp:77] Creating layer label_cifar_1_split
I0421 22:02:58.285634 12189 net.cpp:91] Creating Layer label_cifar_1_split
I0421 22:02:58.285640 12189 net.cpp:425] label_cifar_1_split <- label
I0421 22:02:58.285651 12189 net.cpp:399] label_cifar_1_split -> label_cifar_1_split_0
I0421 22:02:58.285667 12189 net.cpp:399] label_cifar_1_split -> label_cifar_1_split_1
I0421 22:02:58.285790 12189 net.cpp:141] Setting up label_cifar_1_split
I0421 22:02:58.285809 12189 net.cpp:148] Top shape: 100 (100)
I0421 22:02:58.285815 12189 net.cpp:148] Top shape: 100 (100)
I0421 22:02:58.285820 12189 net.cpp:156] Memory required for data: 1230000
I0421 22:02:58.285825 12189 layer_factory.hpp:77] Creating layer conv1
I0421 22:02:58.285858 12189 net.cpp:91] Creating Layer conv1
I0421 22:02:58.285864 12189 net.cpp:425] conv1 <- data
I0421 22:02:58.285872 12189 net.cpp:399] conv1 -> conv1
I0421 22:02:58.289119 12189 net.cpp:141] Setting up conv1
I0421 22:02:58.289162 12189 net.cpp:148] Top shape: 100 16 32 32 (1638400)
I0421 22:02:58.289177 12189 net.cpp:156] Memory required for data: 7783600
I0421 22:02:58.289191 12189 layer_factory.hpp:77] Creating layer bn_conv1
I0421 22:02:58.289214 12189 net.cpp:91] Creating Layer bn_conv1
I0421 22:02:58.289221 12189 net.cpp:425] bn_conv1 <- conv1
I0421 22:02:58.289228 12189 net.cpp:386] bn_conv1 -> conv1 (in-place)
I0421 22:02:58.289479 12189 net.cpp:141] Setting up bn_conv1
I0421 22:02:58.289489 12189 net.cpp:148] Top shape: 100 16 32 32 (1638400)
I0421 22:02:58.289494 12189 net.cpp:156] Memory required for data: 14337200
I0421 22:02:58.289510 12189 layer_factory.hpp:77] Creating layer scale_conv1
I0421 22:02:58.289520 12189 net.cpp:91] Creating Layer scale_conv1
I0421 22:02:58.289526 12189 net.cpp:425] scale_conv1 <- conv1
I0421 22:02:58.289533 12189 net.cpp:386] scale_conv1 -> conv1 (in-place)
I0421 22:02:58.289597 12189 layer_factory.hpp:77] Creating layer scale_conv1
I0421 22:02:58.289741 12189 net.cpp:141] Setting up scale_conv1
I0421 22:02:58.289760 12189 net.cpp:148] Top shape: 100 16 32 32 (1638400)
I0421 22:02:58.289765 12189 net.cpp:156] Memory required for data: 20890800
I0421 22:02:58.289774 12189 layer_factory.hpp:77] Creating layer conv1_relu
I0421 22:02:58.289789 12189 net.cpp:91] Creating Layer conv1_relu
I0421 22:02:58.289794 12189 net.cpp:425] conv1_relu <- conv1
I0421 22:02:58.289803 12189 net.cpp:386] conv1_relu -> conv1 (in-place)
I0421 22:02:58.290169 12189 net.cpp:141] Setting up conv1_relu
I0421 22:02:58.290186 12189 net.cpp:148] Top shape: 100 16 32 32 (1638400)
I0421 22:02:58.290197 12189 net.cpp:156] Memory required for data: 27444400
I0421 22:02:58.290212 12189 layer_factory.hpp:77] Creating layer conv1_conv1_relu_0_split
I0421 22:02:58.290225 12189 net.cpp:91] Creating Layer conv1_conv1_relu_0_split
I0421 22:02:58.290230 12189 net.cpp:425] conv1_conv1_relu_0_split <- conv1
I0421 22:02:58.290246 12189 net.cpp:399] conv1_conv1_relu_0_split -> conv1_conv1_relu_0_split_0
I0421 22:02:58.290256 12189 net.cpp:399] conv1_conv1_relu_0_split -> conv1_conv1_relu_0_split_1
I0421 22:02:58.290276 12189 net.cpp:399] conv1_conv1_relu_0_split -> conv1_conv1_relu_0_split_2
I0421 22:02:58.290346 12189 net.cpp:141] Setting up conv1_conv1_relu_0_split
I0421 22:02:58.290356 12189 net.cpp:148] Top shape: 100 16 32 32 (1638400)
I0421 22:02:58.290366 12189 net.cpp:148] Top shape: 100 16 32 32 (1638400)
I0421 22:02:58.290374 12189 net.cpp:148] Top shape: 100 16 32 32 (1638400)
I0421 22:02:58.290380 12189 net.cpp:156] Memory required for data: 47105200
I0421 22:02:58.290390 12189 layer_factory.hpp:77] Creating layer conv2_1a
I0421 22:02:58.290411 12189 net.cpp:91] Creating Layer conv2_1a
I0421 22:02:58.290419 12189 net.cpp:425] conv2_1a <- conv1_conv1_relu_0_split_0
I0421 22:02:58.290429 12189 net.cpp:399] conv2_1a -> conv2_1a
I0421 22:02:58.295092 12189 net.cpp:141] Setting up conv2_1a
I0421 22:02:58.295114 12189 net.cpp:148] Top shape: 100 16 32 32 (1638400)
I0421 22:02:58.295120 12189 net.cpp:156] Memory required for data: 53658800
I0421 22:02:58.295133 12189 layer_factory.hpp:77] Creating layer bn_conv2_1a
I0421 22:02:58.295150 12189 net.cpp:91] Creating Layer bn_conv2_1a
I0421 22:02:58.295156 12189 net.cpp:425] bn_conv2_1a <- conv2_1a
I0421 22:02:58.295166 12189 net.cpp:386] bn_conv2_1a -> conv2_1a (in-place)
I0421 22:02:58.295415 12189 net.cpp:141] Setting up bn_conv2_1a
I0421 22:02:58.295426 12189 net.cpp:148] Top shape: 100 16 32 32 (1638400)
I0421 22:02:58.295431 12189 net.cpp:156] Memory required for data: 60212400
I0421 22:02:58.295441 12189 layer_factory.hpp:77] Creating layer scale_conv2_1a
I0421 22:02:58.295462 12189 net.cpp:91] Creating Layer scale_conv2_1a
I0421 22:02:58.295469 12189 net.cpp:425] scale_conv2_1a <- conv2_1a
I0421 22:02:58.295477 12189 net.cpp:386] scale_conv2_1a -> conv2_1a (in-place)
I0421 22:02:58.295531 12189 layer_factory.hpp:77] Creating layer scale_conv2_1a
I0421 22:02:58.295678 12189 net.cpp:141] Setting up scale_conv2_1a
I0421 22:02:58.295688 12189 net.cpp:148] Top shape: 100 16 32 32 (1638400)
I0421 22:02:58.295694 12189 net.cpp:156] Memory required for data: 66766000
I0421 22:02:58.295702 12189 layer_factory.hpp:77] Creating layer conv2_1a_relu
I0421 22:02:58.295708 12189 net.cpp:91] Creating Layer conv2_1a_relu
I0421 22:02:58.295713 12189 net.cpp:425] conv2_1a_relu <- conv2_1a
I0421 22:02:58.295724 12189 net.cpp:386] conv2_1a_relu -> conv2_1a (in-place)
I0421 22:02:58.295953 12189 net.cpp:141] Setting up conv2_1a_relu
I0421 22:02:58.295977 12189 net.cpp:148] Top shape: 100 16 32 32 (1638400)
I0421 22:02:58.295982 12189 net.cpp:156] Memory required for data: 73319600
I0421 22:02:58.296001 12189 layer_factory.hpp:77] Creating layer conv2_1b
I0421 22:02:58.296015 12189 net.cpp:91] Creating Layer conv2_1b
I0421 22:02:58.296027 12189 net.cpp:425] conv2_1b <- conv2_1a
I0421 22:02:58.296041 12189 net.cpp:399] conv2_1b -> conv2_1b
I0421 22:02:58.300410 12189 net.cpp:141] Setting up conv2_1b
I0421 22:02:58.300431 12189 net.cpp:148] Top shape: 100 16 32 32 (1638400)
I0421 22:02:58.300437 12189 net.cpp:156] Memory required for data: 79873200
I0421 22:02:58.300446 12189 layer_factory.hpp:77] Creating layer bn_conv2_1b
I0421 22:02:58.300472 12189 net.cpp:91] Creating Layer bn_conv2_1b
I0421 22:02:58.300479 12189 net.cpp:425] bn_conv2_1b <- conv2_1b
I0421 22:02:58.300489 12189 net.cpp:386] bn_conv2_1b -> conv2_1b (in-place)
I0421 22:02:58.300746 12189 net.cpp:141] Setting up bn_conv2_1b
I0421 22:02:58.300757 12189 net.cpp:148] Top shape: 100 16 32 32 (1638400)
I0421 22:02:58.300763 12189 net.cpp:156] Memory required for data: 86426800
I0421 22:02:58.300789 12189 layer_factory.hpp:77] Creating layer scale_conv2_1b
I0421 22:02:58.300802 12189 net.cpp:91] Creating Layer scale_conv2_1b
I0421 22:02:58.300814 12189 net.cpp:425] scale_conv2_1b <- conv2_1b
I0421 22:02:58.300822 12189 net.cpp:386] scale_conv2_1b -> conv2_1b (in-place)
I0421 22:02:58.300876 12189 layer_factory.hpp:77] Creating layer scale_conv2_1b
I0421 22:02:58.301020 12189 net.cpp:141] Setting up scale_conv2_1b
I0421 22:02:58.301031 12189 net.cpp:148] Top shape: 100 16 32 32 (1638400)
I0421 22:02:58.301035 12189 net.cpp:156] Memory required for data: 92980400
I0421 22:02:58.301044 12189 layer_factory.hpp:77] Creating layer conv2_1
I0421 22:02:58.301054 12189 net.cpp:91] Creating Layer conv2_1
I0421 22:02:58.301059 12189 net.cpp:425] conv2_1 <- conv2_1b
I0421 22:02:58.301064 12189 net.cpp:425] conv2_1 <- conv1_conv1_relu_0_split_1
I0421 22:02:58.301072 12189 net.cpp:399] conv2_1 -> conv2_1
I0421 22:02:58.301105 12189 net.cpp:141] Setting up conv2_1
I0421 22:02:58.301122 12189 net.cpp:148] Top shape: 100 16 32 32 (1638400)
I0421 22:02:58.301133 12189 net.cpp:156] Memory required for data: 99534000
I0421 22:02:58.301139 12189 layer_factory.hpp:77] Creating layer conv2_1_relu
I0421 22:02:58.301156 12189 net.cpp:91] Creating Layer conv2_1_relu
I0421 22:02:58.301161 12189 net.cpp:425] conv2_1_relu <- conv2_1
I0421 22:02:58.301172 12189 net.cpp:386] conv2_1_relu -> conv2_1 (in-place)
I0421 22:02:58.301401 12189 net.cpp:141] Setting up conv2_1_relu
I0421 22:02:58.301414 12189 net.cpp:148] Top shape: 100 16 32 32 (1638400)
I0421 22:02:58.301419 12189 net.cpp:156] Memory required for data: 106087600
I0421 22:02:58.301424 12189 layer_factory.hpp:77] Creating layer conv2_1_conv2_1_relu_0_split
I0421 22:02:58.301434 12189 net.cpp:91] Creating Layer conv2_1_conv2_1_relu_0_split
I0421 22:02:58.301455 12189 net.cpp:425] conv2_1_conv2_1_relu_0_split <- conv2_1
I0421 22:02:58.301465 12189 net.cpp:399] conv2_1_conv2_1_relu_0_split -> conv2_1_conv2_1_relu_0_split_0
I0421 22:02:58.301475 12189 net.cpp:399] conv2_1_conv2_1_relu_0_split -> conv2_1_conv2_1_relu_0_split_1
I0421 22:02:58.301537 12189 net.cpp:141] Setting up conv2_1_conv2_1_relu_0_split
I0421 22:02:58.301548 12189 net.cpp:148] Top shape: 100 16 32 32 (1638400)
I0421 22:02:58.301553 12189 net.cpp:148] Top shape: 100 16 32 32 (1638400)
I0421 22:02:58.301558 12189 net.cpp:156] Memory required for data: 119194800
I0421 22:02:58.301563 12189 layer_factory.hpp:77] Creating layer conv2_2a
I0421 22:02:58.301581 12189 net.cpp:91] Creating Layer conv2_2a
I0421 22:02:58.301589 12189 net.cpp:425] conv2_2a <- conv2_1_conv2_1_relu_0_split_0
I0421 22:02:58.301596 12189 net.cpp:399] conv2_2a -> conv2_2a
I0421 22:02:58.305171 12189 net.cpp:141] Setting up conv2_2a
I0421 22:02:58.305191 12189 net.cpp:148] Top shape: 100 16 32 32 (1638400)
I0421 22:02:58.305197 12189 net.cpp:156] Memory required for data: 125748400
I0421 22:02:58.305205 12189 layer_factory.hpp:77] Creating layer bn_conv2_2a
I0421 22:02:58.305215 12189 net.cpp:91] Creating Layer bn_conv2_2a
I0421 22:02:58.305223 12189 net.cpp:425] bn_conv2_2a <- conv2_2a
I0421 22:02:58.305232 12189 net.cpp:386] bn_conv2_2a -> conv2_2a (in-place)
I0421 22:02:58.305476 12189 net.cpp:141] Setting up bn_conv2_2a
I0421 22:02:58.305492 12189 net.cpp:148] Top shape: 100 16 32 32 (1638400)
I0421 22:02:58.305497 12189 net.cpp:156] Memory required for data: 132302000
I0421 22:02:58.305506 12189 layer_factory.hpp:77] Creating layer scale_conv2_2a
I0421 22:02:58.305516 12189 net.cpp:91] Creating Layer scale_conv2_2a
I0421 22:02:58.305522 12189 net.cpp:425] scale_conv2_2a <- conv2_2a
I0421 22:02:58.305529 12189 net.cpp:386] scale_conv2_2a -> conv2_2a (in-place)
I0421 22:02:58.305580 12189 layer_factory.hpp:77] Creating layer scale_conv2_2a
I0421 22:02:58.305724 12189 net.cpp:141] Setting up scale_conv2_2a
I0421 22:02:58.305733 12189 net.cpp:148] Top shape: 100 16 32 32 (1638400)
I0421 22:02:58.305738 12189 net.cpp:156] Memory required for data: 138855600
I0421 22:02:58.305747 12189 layer_factory.hpp:77] Creating layer conv2_2a_relu
I0421 22:02:58.305755 12189 net.cpp:91] Creating Layer conv2_2a_relu
I0421 22:02:58.305760 12189 net.cpp:425] conv2_2a_relu <- conv2_2a
I0421 22:02:58.305768 12189 net.cpp:386] conv2_2a_relu -> conv2_2a (in-place)
I0421 22:02:58.306242 12189 net.cpp:141] Setting up conv2_2a_relu
I0421 22:02:58.306259 12189 net.cpp:148] Top shape: 100 16 32 32 (1638400)
I0421 22:02:58.306264 12189 net.cpp:156] Memory required for data: 145409200
I0421 22:02:58.306270 12189 layer_factory.hpp:77] Creating layer conv2_2b
I0421 22:02:58.306287 12189 net.cpp:91] Creating Layer conv2_2b
I0421 22:02:58.306293 12189 net.cpp:425] conv2_2b <- conv2_2a
I0421 22:02:58.306301 12189 net.cpp:399] conv2_2b -> conv2_2b
I0421 22:02:58.310072 12189 net.cpp:141] Setting up conv2_2b
I0421 22:02:58.310091 12189 net.cpp:148] Top shape: 100 16 32 32 (1638400)
I0421 22:02:58.310096 12189 net.cpp:156] Memory required for data: 151962800
I0421 22:02:58.310106 12189 layer_factory.hpp:77] Creating layer bn_conv2_2b
I0421 22:02:58.310117 12189 net.cpp:91] Creating Layer bn_conv2_2b
I0421 22:02:58.310129 12189 net.cpp:425] bn_conv2_2b <- conv2_2b
I0421 22:02:58.310137 12189 net.cpp:386] bn_conv2_2b -> conv2_2b (in-place)
I0421 22:02:58.310387 12189 net.cpp:141] Setting up bn_conv2_2b
I0421 22:02:58.310397 12189 net.cpp:148] Top shape: 100 16 32 32 (1638400)
I0421 22:02:58.310402 12189 net.cpp:156] Memory required for data: 158516400
I0421 22:02:58.310416 12189 layer_factory.hpp:77] Creating layer scale_conv2_2b
I0421 22:02:58.310430 12189 net.cpp:91] Creating Layer scale_conv2_2b
I0421 22:02:58.310436 12189 net.cpp:425] scale_conv2_2b <- conv2_2b
I0421 22:02:58.310442 12189 net.cpp:386] scale_conv2_2b -> conv2_2b (in-place)
I0421 22:02:58.310497 12189 layer_factory.hpp:77] Creating layer scale_conv2_2b
I0421 22:02:58.310639 12189 net.cpp:141] Setting up scale_conv2_2b
I0421 22:02:58.310649 12189 net.cpp:148] Top shape: 100 16 32 32 (1638400)
I0421 22:02:58.310653 12189 net.cpp:156] Memory required for data: 165070000
I0421 22:02:58.310662 12189 layer_factory.hpp:77] Creating layer conv2_2
I0421 22:02:58.310668 12189 net.cpp:91] Creating Layer conv2_2
I0421 22:02:58.310673 12189 net.cpp:425] conv2_2 <- conv2_2b
I0421 22:02:58.310679 12189 net.cpp:425] conv2_2 <- conv2_1_conv2_1_relu_0_split_1
I0421 22:02:58.310686 12189 net.cpp:399] conv2_2 -> conv2_2
I0421 22:02:58.310719 12189 net.cpp:141] Setting up conv2_2
I0421 22:02:58.310729 12189 net.cpp:148] Top shape: 100 16 32 32 (1638400)
I0421 22:02:58.310734 12189 net.cpp:156] Memory required for data: 171623600
I0421 22:02:58.310739 12189 layer_factory.hpp:77] Creating layer conv2_2_relu
I0421 22:02:58.310746 12189 net.cpp:91] Creating Layer conv2_2_relu
I0421 22:02:58.310751 12189 net.cpp:425] conv2_2_relu <- conv2_2
I0421 22:02:58.310757 12189 net.cpp:386] conv2_2_relu -> conv2_2 (in-place)
I0421 22:02:58.311246 12189 net.cpp:141] Setting up conv2_2_relu
I0421 22:02:58.311259 12189 net.cpp:148] Top shape: 100 16 32 32 (1638400)
I0421 22:02:58.311264 12189 net.cpp:156] Memory required for data: 178177200
I0421 22:02:58.311269 12189 layer_factory.hpp:77] Creating layer conv2_2_conv2_2_relu_0_split
I0421 22:02:58.311276 12189 net.cpp:91] Creating Layer conv2_2_conv2_2_relu_0_split
I0421 22:02:58.311283 12189 net.cpp:425] conv2_2_conv2_2_relu_0_split <- conv2_2
I0421 22:02:58.311291 12189 net.cpp:399] conv2_2_conv2_2_relu_0_split -> conv2_2_conv2_2_relu_0_split_0
I0421 22:02:58.311302 12189 net.cpp:399] conv2_2_conv2_2_relu_0_split -> conv2_2_conv2_2_relu_0_split_1
I0421 22:02:58.311357 12189 net.cpp:141] Setting up conv2_2_conv2_2_relu_0_split
I0421 22:02:58.311367 12189 net.cpp:148] Top shape: 100 16 32 32 (1638400)
I0421 22:02:58.311372 12189 net.cpp:148] Top shape: 100 16 32 32 (1638400)
I0421 22:02:58.311377 12189 net.cpp:156] Memory required for data: 191284400
I0421 22:02:58.311381 12189 layer_factory.hpp:77] Creating layer conv2_3a
I0421 22:02:58.311394 12189 net.cpp:91] Creating Layer conv2_3a
I0421 22:02:58.311400 12189 net.cpp:425] conv2_3a <- conv2_2_conv2_2_relu_0_split_0
I0421 22:02:58.311410 12189 net.cpp:399] conv2_3a -> conv2_3a
I0421 22:02:58.312994 12189 net.cpp:141] Setting up conv2_3a
I0421 22:02:58.313011 12189 net.cpp:148] Top shape: 100 16 32 32 (1638400)
I0421 22:02:58.313017 12189 net.cpp:156] Memory required for data: 197838000
I0421 22:02:58.313026 12189 layer_factory.hpp:77] Creating layer bn_conv2_3a
I0421 22:02:58.313037 12189 net.cpp:91] Creating Layer bn_conv2_3a
I0421 22:02:58.313043 12189 net.cpp:425] bn_conv2_3a <- conv2_3a
I0421 22:02:58.313051 12189 net.cpp:386] bn_conv2_3a -> conv2_3a (in-place)
I0421 22:02:58.313311 12189 net.cpp:141] Setting up bn_conv2_3a
I0421 22:02:58.313323 12189 net.cpp:148] Top shape: 100 16 32 32 (1638400)
I0421 22:02:58.313328 12189 net.cpp:156] Memory required for data: 204391600
I0421 22:02:58.313338 12189 layer_factory.hpp:77] Creating layer scale_conv2_3a
I0421 22:02:58.313346 12189 net.cpp:91] Creating Layer scale_conv2_3a
I0421 22:02:58.313351 12189 net.cpp:425] scale_conv2_3a <- conv2_3a
I0421 22:02:58.313361 12189 net.cpp:386] scale_conv2_3a -> conv2_3a (in-place)
I0421 22:02:58.313416 12189 layer_factory.hpp:77] Creating layer scale_conv2_3a
I0421 22:02:58.313558 12189 net.cpp:141] Setting up scale_conv2_3a
I0421 22:02:58.313568 12189 net.cpp:148] Top shape: 100 16 32 32 (1638400)
I0421 22:02:58.313572 12189 net.cpp:156] Memory required for data: 210945200
I0421 22:02:58.313581 12189 layer_factory.hpp:77] Creating layer conv2_3a_relu
I0421 22:02:58.313588 12189 net.cpp:91] Creating Layer conv2_3a_relu
I0421 22:02:58.313593 12189 net.cpp:425] conv2_3a_relu <- conv2_3a
I0421 22:02:58.313599 12189 net.cpp:386] conv2_3a_relu -> conv2_3a (in-place)
I0421 22:02:58.313814 12189 net.cpp:141] Setting up conv2_3a_relu
I0421 22:02:58.313827 12189 net.cpp:148] Top shape: 100 16 32 32 (1638400)
I0421 22:02:58.313832 12189 net.cpp:156] Memory required for data: 217498800
I0421 22:02:58.313838 12189 layer_factory.hpp:77] Creating layer conv2_3b
I0421 22:02:58.313851 12189 net.cpp:91] Creating Layer conv2_3b
I0421 22:02:58.313856 12189 net.cpp:425] conv2_3b <- conv2_3a
I0421 22:02:58.313868 12189 net.cpp:399] conv2_3b -> conv2_3b
I0421 22:02:58.317255 12189 net.cpp:141] Setting up conv2_3b
I0421 22:02:58.317273 12189 net.cpp:148] Top shape: 100 16 32 32 (1638400)
I0421 22:02:58.317279 12189 net.cpp:156] Memory required for data: 224052400
I0421 22:02:58.317288 12189 layer_factory.hpp:77] Creating layer bn_conv2_3b
I0421 22:02:58.317301 12189 net.cpp:91] Creating Layer bn_conv2_3b
I0421 22:02:58.317308 12189 net.cpp:425] bn_conv2_3b <- conv2_3b
I0421 22:02:58.317317 12189 net.cpp:386] bn_conv2_3b -> conv2_3b (in-place)
I0421 22:02:58.317571 12189 net.cpp:141] Setting up bn_conv2_3b
I0421 22:02:58.317581 12189 net.cpp:148] Top shape: 100 16 32 32 (1638400)
I0421 22:02:58.317585 12189 net.cpp:156] Memory required for data: 230606000
I0421 22:02:58.317595 12189 layer_factory.hpp:77] Creating layer scale_conv2_3b
I0421 22:02:58.317605 12189 net.cpp:91] Creating Layer scale_conv2_3b
I0421 22:02:58.317611 12189 net.cpp:425] scale_conv2_3b <- conv2_3b
I0421 22:02:58.317618 12189 net.cpp:386] scale_conv2_3b -> conv2_3b (in-place)
I0421 22:02:58.317670 12189 layer_factory.hpp:77] Creating layer scale_conv2_3b
I0421 22:02:58.317813 12189 net.cpp:141] Setting up scale_conv2_3b
I0421 22:02:58.317822 12189 net.cpp:148] Top shape: 100 16 32 32 (1638400)
I0421 22:02:58.317827 12189 net.cpp:156] Memory required for data: 237159600
I0421 22:02:58.317836 12189 layer_factory.hpp:77] Creating layer conv2_3
I0421 22:02:58.317842 12189 net.cpp:91] Creating Layer conv2_3
I0421 22:02:58.317847 12189 net.cpp:425] conv2_3 <- conv1_conv1_relu_0_split_2
I0421 22:02:58.317854 12189 net.cpp:425] conv2_3 <- conv2_3b
I0421 22:02:58.317860 12189 net.cpp:425] conv2_3 <- conv2_2_conv2_2_relu_0_split_1
I0421 22:02:58.317869 12189 net.cpp:399] conv2_3 -> conv2_3
I0421 22:02:58.317900 12189 net.cpp:141] Setting up conv2_3
I0421 22:02:58.317912 12189 net.cpp:148] Top shape: 100 16 32 32 (1638400)
I0421 22:02:58.317917 12189 net.cpp:156] Memory required for data: 243713200
I0421 22:02:58.317922 12189 layer_factory.hpp:77] Creating layer conv2_3_relu
I0421 22:02:58.317929 12189 net.cpp:91] Creating Layer conv2_3_relu
I0421 22:02:58.317934 12189 net.cpp:425] conv2_3_relu <- conv2_3
I0421 22:02:58.317940 12189 net.cpp:386] conv2_3_relu -> conv2_3 (in-place)
I0421 22:02:58.318445 12189 net.cpp:141] Setting up conv2_3_relu
I0421 22:02:58.318462 12189 net.cpp:148] Top shape: 100 16 32 32 (1638400)
I0421 22:02:58.318467 12189 net.cpp:156] Memory required for data: 250266800
I0421 22:02:58.318472 12189 layer_factory.hpp:77] Creating layer conv2_3_conv2_3_relu_0_split
I0421 22:02:58.318482 12189 net.cpp:91] Creating Layer conv2_3_conv2_3_relu_0_split
I0421 22:02:58.318488 12189 net.cpp:425] conv2_3_conv2_3_relu_0_split <- conv2_3
I0421 22:02:58.318496 12189 net.cpp:399] conv2_3_conv2_3_relu_0_split -> conv2_3_conv2_3_relu_0_split_0
I0421 22:02:58.318507 12189 net.cpp:399] conv2_3_conv2_3_relu_0_split -> conv2_3_conv2_3_relu_0_split_1
I0421 22:02:58.318564 12189 net.cpp:141] Setting up conv2_3_conv2_3_relu_0_split
I0421 22:02:58.318573 12189 net.cpp:148] Top shape: 100 16 32 32 (1638400)
I0421 22:02:58.318584 12189 net.cpp:148] Top shape: 100 16 32 32 (1638400)
I0421 22:02:58.318589 12189 net.cpp:156] Memory required for data: 263374000
I0421 22:02:58.318594 12189 layer_factory.hpp:77] Creating layer conv2_sub
I0421 22:02:58.318608 12189 net.cpp:91] Creating Layer conv2_sub
I0421 22:02:58.318614 12189 net.cpp:425] conv2_sub <- conv2_3_conv2_3_relu_0_split_0
I0421 22:02:58.318624 12189 net.cpp:399] conv2_sub -> conv2_sub
I0421 22:02:58.322142 12189 net.cpp:141] Setting up conv2_sub
I0421 22:02:58.322160 12189 net.cpp:148] Top shape: 100 32 16 16 (819200)
I0421 22:02:58.322166 12189 net.cpp:156] Memory required for data: 266650800
I0421 22:02:58.322175 12189 layer_factory.hpp:77] Creating layer bn_conv2_sub
I0421 22:02:58.322186 12189 net.cpp:91] Creating Layer bn_conv2_sub
I0421 22:02:58.322192 12189 net.cpp:425] bn_conv2_sub <- conv2_sub
I0421 22:02:58.322201 12189 net.cpp:386] bn_conv2_sub -> conv2_sub (in-place)
I0421 22:02:58.322446 12189 net.cpp:141] Setting up bn_conv2_sub
I0421 22:02:58.322458 12189 net.cpp:148] Top shape: 100 32 16 16 (819200)
I0421 22:02:58.322463 12189 net.cpp:156] Memory required for data: 269927600
I0421 22:02:58.322471 12189 layer_factory.hpp:77] Creating layer scale_conv2_sub
I0421 22:02:58.322480 12189 net.cpp:91] Creating Layer scale_conv2_sub
I0421 22:02:58.322485 12189 net.cpp:425] scale_conv2_sub <- conv2_sub
I0421 22:02:58.322494 12189 net.cpp:386] scale_conv2_sub -> conv2_sub (in-place)
I0421 22:02:58.322546 12189 layer_factory.hpp:77] Creating layer scale_conv2_sub
I0421 22:02:58.322687 12189 net.cpp:141] Setting up scale_conv2_sub
I0421 22:02:58.322696 12189 net.cpp:148] Top shape: 100 32 16 16 (819200)
I0421 22:02:58.322701 12189 net.cpp:156] Memory required for data: 273204400
I0421 22:02:58.322710 12189 layer_factory.hpp:77] Creating layer conv2_sub_scale_conv2_sub_0_split
I0421 22:02:58.322716 12189 net.cpp:91] Creating Layer conv2_sub_scale_conv2_sub_0_split
I0421 22:02:58.322721 12189 net.cpp:425] conv2_sub_scale_conv2_sub_0_split <- conv2_sub
I0421 22:02:58.322728 12189 net.cpp:399] conv2_sub_scale_conv2_sub_0_split -> conv2_sub_scale_conv2_sub_0_split_0
I0421 22:02:58.322738 12189 net.cpp:399] conv2_sub_scale_conv2_sub_0_split -> conv2_sub_scale_conv2_sub_0_split_1
I0421 22:02:58.322780 12189 net.cpp:141] Setting up conv2_sub_scale_conv2_sub_0_split
I0421 22:02:58.322788 12189 net.cpp:148] Top shape: 100 32 16 16 (819200)
I0421 22:02:58.322794 12189 net.cpp:148] Top shape: 100 32 16 16 (819200)
I0421 22:02:58.322799 12189 net.cpp:156] Memory required for data: 279758000
I0421 22:02:58.322803 12189 layer_factory.hpp:77] Creating layer conv3_1a
I0421 22:02:58.322818 12189 net.cpp:91] Creating Layer conv3_1a
I0421 22:02:58.322823 12189 net.cpp:425] conv3_1a <- conv2_3_conv2_3_relu_0_split_1
I0421 22:02:58.322831 12189 net.cpp:399] conv3_1a -> conv3_1a
I0421 22:02:58.325881 12189 net.cpp:141] Setting up conv3_1a
I0421 22:02:58.325899 12189 net.cpp:148] Top shape: 100 32 16 16 (819200)
I0421 22:02:58.325906 12189 net.cpp:156] Memory required for data: 283034800
I0421 22:02:58.325914 12189 layer_factory.hpp:77] Creating layer bn_conv3_1a
I0421 22:02:58.325925 12189 net.cpp:91] Creating Layer bn_conv3_1a
I0421 22:02:58.325932 12189 net.cpp:425] bn_conv3_1a <- conv3_1a
I0421 22:02:58.325939 12189 net.cpp:386] bn_conv3_1a -> conv3_1a (in-place)
I0421 22:02:58.326179 12189 net.cpp:141] Setting up bn_conv3_1a
I0421 22:02:58.326189 12189 net.cpp:148] Top shape: 100 32 16 16 (819200)
I0421 22:02:58.326195 12189 net.cpp:156] Memory required for data: 286311600
I0421 22:02:58.326203 12189 layer_factory.hpp:77] Creating layer scale_conv3_1a
I0421 22:02:58.326211 12189 net.cpp:91] Creating Layer scale_conv3_1a
I0421 22:02:58.326216 12189 net.cpp:425] scale_conv3_1a <- conv3_1a
I0421 22:02:58.326228 12189 net.cpp:386] scale_conv3_1a -> conv3_1a (in-place)
I0421 22:02:58.326278 12189 layer_factory.hpp:77] Creating layer scale_conv3_1a
I0421 22:02:58.326421 12189 net.cpp:141] Setting up scale_conv3_1a
I0421 22:02:58.326429 12189 net.cpp:148] Top shape: 100 32 16 16 (819200)
I0421 22:02:58.326439 12189 net.cpp:156] Memory required for data: 289588400
I0421 22:02:58.326448 12189 layer_factory.hpp:77] Creating layer conv3_1a_relu
I0421 22:02:58.326455 12189 net.cpp:91] Creating Layer conv3_1a_relu
I0421 22:02:58.326460 12189 net.cpp:425] conv3_1a_relu <- conv3_1a
I0421 22:02:58.326467 12189 net.cpp:386] conv3_1a_relu -> conv3_1a (in-place)
I0421 22:02:58.326966 12189 net.cpp:141] Setting up conv3_1a_relu
I0421 22:02:58.326982 12189 net.cpp:148] Top shape: 100 32 16 16 (819200)
I0421 22:02:58.326987 12189 net.cpp:156] Memory required for data: 292865200
I0421 22:02:58.326992 12189 layer_factory.hpp:77] Creating layer conv3_1b
I0421 22:02:58.327008 12189 net.cpp:91] Creating Layer conv3_1b
I0421 22:02:58.327013 12189 net.cpp:425] conv3_1b <- conv3_1a
I0421 22:02:58.327023 12189 net.cpp:399] conv3_1b -> conv3_1b
I0421 22:02:58.329718 12189 net.cpp:141] Setting up conv3_1b
I0421 22:02:58.329736 12189 net.cpp:148] Top shape: 100 32 16 16 (819200)
I0421 22:02:58.329742 12189 net.cpp:156] Memory required for data: 296142000
I0421 22:02:58.329762 12189 layer_factory.hpp:77] Creating layer bn_conv3_1b
I0421 22:02:58.329774 12189 net.cpp:91] Creating Layer bn_conv3_1b
I0421 22:02:58.329780 12189 net.cpp:425] bn_conv3_1b <- conv3_1b
I0421 22:02:58.329790 12189 net.cpp:386] bn_conv3_1b -> conv3_1b (in-place)
I0421 22:02:58.330035 12189 net.cpp:141] Setting up bn_conv3_1b
I0421 22:02:58.330045 12189 net.cpp:148] Top shape: 100 32 16 16 (819200)
I0421 22:02:58.330050 12189 net.cpp:156] Memory required for data: 299418800
I0421 22:02:58.330060 12189 layer_factory.hpp:77] Creating layer scale_conv3_1b
I0421 22:02:58.330068 12189 net.cpp:91] Creating Layer scale_conv3_1b
I0421 22:02:58.330073 12189 net.cpp:425] scale_conv3_1b <- conv3_1b
I0421 22:02:58.330082 12189 net.cpp:386] scale_conv3_1b -> conv3_1b (in-place)
I0421 22:02:58.330132 12189 layer_factory.hpp:77] Creating layer scale_conv3_1b
I0421 22:02:58.330279 12189 net.cpp:141] Setting up scale_conv3_1b
I0421 22:02:58.330288 12189 net.cpp:148] Top shape: 100 32 16 16 (819200)
I0421 22:02:58.330293 12189 net.cpp:156] Memory required for data: 302695600
I0421 22:02:58.330302 12189 layer_factory.hpp:77] Creating layer conv3_1
I0421 22:02:58.330308 12189 net.cpp:91] Creating Layer conv3_1
I0421 22:02:58.330313 12189 net.cpp:425] conv3_1 <- conv3_1b
I0421 22:02:58.330320 12189 net.cpp:425] conv3_1 <- conv2_sub_scale_conv2_sub_0_split_0
I0421 22:02:58.330328 12189 net.cpp:399] conv3_1 -> conv3_1
I0421 22:02:58.330355 12189 net.cpp:141] Setting up conv3_1
I0421 22:02:58.330363 12189 net.cpp:148] Top shape: 100 32 16 16 (819200)
I0421 22:02:58.330368 12189 net.cpp:156] Memory required for data: 305972400
I0421 22:02:58.330374 12189 layer_factory.hpp:77] Creating layer conv3_1_relu
I0421 22:02:58.330382 12189 net.cpp:91] Creating Layer conv3_1_relu
I0421 22:02:58.330387 12189 net.cpp:425] conv3_1_relu <- conv3_1
I0421 22:02:58.330394 12189 net.cpp:386] conv3_1_relu -> conv3_1 (in-place)
I0421 22:02:58.330600 12189 net.cpp:141] Setting up conv3_1_relu
I0421 22:02:58.330612 12189 net.cpp:148] Top shape: 100 32 16 16 (819200)
I0421 22:02:58.330617 12189 net.cpp:156] Memory required for data: 309249200
I0421 22:02:58.330623 12189 layer_factory.hpp:77] Creating layer conv3_1_conv3_1_relu_0_split
I0421 22:02:58.330631 12189 net.cpp:91] Creating Layer conv3_1_conv3_1_relu_0_split
I0421 22:02:58.330636 12189 net.cpp:425] conv3_1_conv3_1_relu_0_split <- conv3_1
I0421 22:02:58.330644 12189 net.cpp:399] conv3_1_conv3_1_relu_0_split -> conv3_1_conv3_1_relu_0_split_0
I0421 22:02:58.330654 12189 net.cpp:399] conv3_1_conv3_1_relu_0_split -> conv3_1_conv3_1_relu_0_split_1
I0421 22:02:58.330705 12189 net.cpp:141] Setting up conv3_1_conv3_1_relu_0_split
I0421 22:02:58.330716 12189 net.cpp:148] Top shape: 100 32 16 16 (819200)
I0421 22:02:58.330723 12189 net.cpp:148] Top shape: 100 32 16 16 (819200)
I0421 22:02:58.330727 12189 net.cpp:156] Memory required for data: 315802800
I0421 22:02:58.330732 12189 layer_factory.hpp:77] Creating layer conv3_2a
I0421 22:02:58.330751 12189 net.cpp:91] Creating Layer conv3_2a
I0421 22:02:58.330757 12189 net.cpp:425] conv3_2a <- conv3_1_conv3_1_relu_0_split_0
I0421 22:02:58.330766 12189 net.cpp:399] conv3_2a -> conv3_2a
I0421 22:02:58.334123 12189 net.cpp:141] Setting up conv3_2a
I0421 22:02:58.334142 12189 net.cpp:148] Top shape: 100 32 16 16 (819200)
I0421 22:02:58.334148 12189 net.cpp:156] Memory required for data: 319079600
I0421 22:02:58.334157 12189 layer_factory.hpp:77] Creating layer bn_conv3_2a
I0421 22:02:58.334170 12189 net.cpp:91] Creating Layer bn_conv3_2a
I0421 22:02:58.334177 12189 net.cpp:425] bn_conv3_2a <- conv3_2a
I0421 22:02:58.334185 12189 net.cpp:386] bn_conv3_2a -> conv3_2a (in-place)
I0421 22:02:58.334440 12189 net.cpp:141] Setting up bn_conv3_2a
I0421 22:02:58.334451 12189 net.cpp:148] Top shape: 100 32 16 16 (819200)
I0421 22:02:58.334455 12189 net.cpp:156] Memory required for data: 322356400
I0421 22:02:58.334465 12189 layer_factory.hpp:77] Creating layer scale_conv3_2a
I0421 22:02:58.334476 12189 net.cpp:91] Creating Layer scale_conv3_2a
I0421 22:02:58.334482 12189 net.cpp:425] scale_conv3_2a <- conv3_2a
I0421 22:02:58.334488 12189 net.cpp:386] scale_conv3_2a -> conv3_2a (in-place)
I0421 22:02:58.334543 12189 layer_factory.hpp:77] Creating layer scale_conv3_2a
I0421 22:02:58.334692 12189 net.cpp:141] Setting up scale_conv3_2a
I0421 22:02:58.334702 12189 net.cpp:148] Top shape: 100 32 16 16 (819200)
I0421 22:02:58.334707 12189 net.cpp:156] Memory required for data: 325633200
I0421 22:02:58.334714 12189 layer_factory.hpp:77] Creating layer conv3_2a_relu
I0421 22:02:58.334722 12189 net.cpp:91] Creating Layer conv3_2a_relu
I0421 22:02:58.334728 12189 net.cpp:425] conv3_2a_relu <- conv3_2a
I0421 22:02:58.334735 12189 net.cpp:386] conv3_2a_relu -> conv3_2a (in-place)
I0421 22:02:58.335198 12189 net.cpp:141] Setting up conv3_2a_relu
I0421 22:02:58.335214 12189 net.cpp:148] Top shape: 100 32 16 16 (819200)
I0421 22:02:58.335221 12189 net.cpp:156] Memory required for data: 328910000
I0421 22:02:58.335225 12189 layer_factory.hpp:77] Creating layer conv3_2b
I0421 22:02:58.335242 12189 net.cpp:91] Creating Layer conv3_2b
I0421 22:02:58.335247 12189 net.cpp:425] conv3_2b <- conv3_2a
I0421 22:02:58.335256 12189 net.cpp:399] conv3_2b -> conv3_2b
I0421 22:02:58.338992 12189 net.cpp:141] Setting up conv3_2b
I0421 22:02:58.339010 12189 net.cpp:148] Top shape: 100 32 16 16 (819200)
I0421 22:02:58.339016 12189 net.cpp:156] Memory required for data: 332186800
I0421 22:02:58.339025 12189 layer_factory.hpp:77] Creating layer bn_conv3_2b
I0421 22:02:58.339036 12189 net.cpp:91] Creating Layer bn_conv3_2b
I0421 22:02:58.339042 12189 net.cpp:425] bn_conv3_2b <- conv3_2b
I0421 22:02:58.339051 12189 net.cpp:386] bn_conv3_2b -> conv3_2b (in-place)
I0421 22:02:58.339304 12189 net.cpp:141] Setting up bn_conv3_2b
I0421 22:02:58.339314 12189 net.cpp:148] Top shape: 100 32 16 16 (819200)
I0421 22:02:58.339319 12189 net.cpp:156] Memory required for data: 335463600
I0421 22:02:58.339329 12189 layer_factory.hpp:77] Creating layer scale_conv3_2b
I0421 22:02:58.339337 12189 net.cpp:91] Creating Layer scale_conv3_2b
I0421 22:02:58.339342 12189 net.cpp:425] scale_conv3_2b <- conv3_2b
I0421 22:02:58.339351 12189 net.cpp:386] scale_conv3_2b -> conv3_2b (in-place)
I0421 22:02:58.339402 12189 layer_factory.hpp:77] Creating layer scale_conv3_2b
I0421 22:02:58.339552 12189 net.cpp:141] Setting up scale_conv3_2b
I0421 22:02:58.339561 12189 net.cpp:148] Top shape: 100 32 16 16 (819200)
I0421 22:02:58.339566 12189 net.cpp:156] Memory required for data: 338740400
I0421 22:02:58.339575 12189 layer_factory.hpp:77] Creating layer conv3_2
I0421 22:02:58.339581 12189 net.cpp:91] Creating Layer conv3_2
I0421 22:02:58.339586 12189 net.cpp:425] conv3_2 <- conv3_2b
I0421 22:02:58.339592 12189 net.cpp:425] conv3_2 <- conv3_1_conv3_1_relu_0_split_1
I0421 22:02:58.339601 12189 net.cpp:399] conv3_2 -> conv3_2
I0421 22:02:58.339628 12189 net.cpp:141] Setting up conv3_2
I0421 22:02:58.339637 12189 net.cpp:148] Top shape: 100 32 16 16 (819200)
I0421 22:02:58.339648 12189 net.cpp:156] Memory required for data: 342017200
I0421 22:02:58.339653 12189 layer_factory.hpp:77] Creating layer conv3_2_relu
I0421 22:02:58.339663 12189 net.cpp:91] Creating Layer conv3_2_relu
I0421 22:02:58.339669 12189 net.cpp:425] conv3_2_relu <- conv3_2
I0421 22:02:58.339675 12189 net.cpp:386] conv3_2_relu -> conv3_2 (in-place)
I0421 22:02:58.340085 12189 net.cpp:141] Setting up conv3_2_relu
I0421 22:02:58.340102 12189 net.cpp:148] Top shape: 100 32 16 16 (819200)
I0421 22:02:58.340108 12189 net.cpp:156] Memory required for data: 345294000
I0421 22:02:58.340114 12189 layer_factory.hpp:77] Creating layer conv3_2_conv3_2_relu_0_split
I0421 22:02:58.340122 12189 net.cpp:91] Creating Layer conv3_2_conv3_2_relu_0_split
I0421 22:02:58.340127 12189 net.cpp:425] conv3_2_conv3_2_relu_0_split <- conv3_2
I0421 22:02:58.340136 12189 net.cpp:399] conv3_2_conv3_2_relu_0_split -> conv3_2_conv3_2_relu_0_split_0
I0421 22:02:58.340144 12189 net.cpp:399] conv3_2_conv3_2_relu_0_split -> conv3_2_conv3_2_relu_0_split_1
I0421 22:02:58.340203 12189 net.cpp:141] Setting up conv3_2_conv3_2_relu_0_split
I0421 22:02:58.340212 12189 net.cpp:148] Top shape: 100 32 16 16 (819200)
I0421 22:02:58.340217 12189 net.cpp:148] Top shape: 100 32 16 16 (819200)
I0421 22:02:58.340222 12189 net.cpp:156] Memory required for data: 351847600
I0421 22:02:58.340227 12189 layer_factory.hpp:77] Creating layer conv3_3a
I0421 22:02:58.340240 12189 net.cpp:91] Creating Layer conv3_3a
I0421 22:02:58.340246 12189 net.cpp:425] conv3_3a <- conv3_2_conv3_2_relu_0_split_0
I0421 22:02:58.340257 12189 net.cpp:399] conv3_3a -> conv3_3a
I0421 22:02:58.343937 12189 net.cpp:141] Setting up conv3_3a
I0421 22:02:58.343955 12189 net.cpp:148] Top shape: 100 32 16 16 (819200)
I0421 22:02:58.343961 12189 net.cpp:156] Memory required for data: 355124400
I0421 22:02:58.343971 12189 layer_factory.hpp:77] Creating layer bn_conv3_3a
I0421 22:02:58.343981 12189 net.cpp:91] Creating Layer bn_conv3_3a
I0421 22:02:58.343987 12189 net.cpp:425] bn_conv3_3a <- conv3_3a
I0421 22:02:58.343996 12189 net.cpp:386] bn_conv3_3a -> conv3_3a (in-place)
I0421 22:02:58.344251 12189 net.cpp:141] Setting up bn_conv3_3a
I0421 22:02:58.344261 12189 net.cpp:148] Top shape: 100 32 16 16 (819200)
I0421 22:02:58.344265 12189 net.cpp:156] Memory required for data: 358401200
I0421 22:02:58.344275 12189 layer_factory.hpp:77] Creating layer scale_conv3_3a
I0421 22:02:58.344286 12189 net.cpp:91] Creating Layer scale_conv3_3a
I0421 22:02:58.344292 12189 net.cpp:425] scale_conv3_3a <- conv3_3a
I0421 22:02:58.344300 12189 net.cpp:386] scale_conv3_3a -> conv3_3a (in-place)
I0421 22:02:58.344353 12189 layer_factory.hpp:77] Creating layer scale_conv3_3a
I0421 22:02:58.344508 12189 net.cpp:141] Setting up scale_conv3_3a
I0421 22:02:58.344518 12189 net.cpp:148] Top shape: 100 32 16 16 (819200)
I0421 22:02:58.344523 12189 net.cpp:156] Memory required for data: 361678000
I0421 22:02:58.344532 12189 layer_factory.hpp:77] Creating layer conv3_3a_relu
I0421 22:02:58.344545 12189 net.cpp:91] Creating Layer conv3_3a_relu
I0421 22:02:58.344552 12189 net.cpp:425] conv3_3a_relu <- conv3_3a
I0421 22:02:58.344558 12189 net.cpp:386] conv3_3a_relu -> conv3_3a (in-place)
I0421 22:02:58.345011 12189 net.cpp:141] Setting up conv3_3a_relu
I0421 22:02:58.345024 12189 net.cpp:148] Top shape: 100 32 16 16 (819200)
I0421 22:02:58.345029 12189 net.cpp:156] Memory required for data: 364954800
I0421 22:02:58.345036 12189 layer_factory.hpp:77] Creating layer conv3_3b
I0421 22:02:58.345049 12189 net.cpp:91] Creating Layer conv3_3b
I0421 22:02:58.345055 12189 net.cpp:425] conv3_3b <- conv3_3a
I0421 22:02:58.345065 12189 net.cpp:399] conv3_3b -> conv3_3b
I0421 22:02:58.346761 12189 net.cpp:141] Setting up conv3_3b
I0421 22:02:58.346779 12189 net.cpp:148] Top shape: 100 32 16 16 (819200)
I0421 22:02:58.346786 12189 net.cpp:156] Memory required for data: 368231600
I0421 22:02:58.346794 12189 layer_factory.hpp:77] Creating layer bn_conv3_3b
I0421 22:02:58.346806 12189 net.cpp:91] Creating Layer bn_conv3_3b
I0421 22:02:58.346812 12189 net.cpp:425] bn_conv3_3b <- conv3_3b
I0421 22:02:58.346824 12189 net.cpp:386] bn_conv3_3b -> conv3_3b (in-place)
I0421 22:02:58.347084 12189 net.cpp:141] Setting up bn_conv3_3b
I0421 22:02:58.347095 12189 net.cpp:148] Top shape: 100 32 16 16 (819200)
I0421 22:02:58.347100 12189 net.cpp:156] Memory required for data: 371508400
I0421 22:02:58.347110 12189 layer_factory.hpp:77] Creating layer scale_conv3_3b
I0421 22:02:58.347117 12189 net.cpp:91] Creating Layer scale_conv3_3b
I0421 22:02:58.347122 12189 net.cpp:425] scale_conv3_3b <- conv3_3b
I0421 22:02:58.347129 12189 net.cpp:386] scale_conv3_3b -> conv3_3b (in-place)
I0421 22:02:58.347189 12189 layer_factory.hpp:77] Creating layer scale_conv3_3b
I0421 22:02:58.347347 12189 net.cpp:141] Setting up scale_conv3_3b
I0421 22:02:58.347357 12189 net.cpp:148] Top shape: 100 32 16 16 (819200)
I0421 22:02:58.347362 12189 net.cpp:156] Memory required for data: 374785200
I0421 22:02:58.347369 12189 layer_factory.hpp:77] Creating layer conv3_3
I0421 22:02:58.347378 12189 net.cpp:91] Creating Layer conv3_3
I0421 22:02:58.347383 12189 net.cpp:425] conv3_3 <- conv3_3b
I0421 22:02:58.347389 12189 net.cpp:425] conv3_3 <- conv2_sub_scale_conv2_sub_0_split_1
I0421 22:02:58.347394 12189 net.cpp:425] conv3_3 <- conv3_2_conv3_2_relu_0_split_1
I0421 22:02:58.347404 12189 net.cpp:399] conv3_3 -> conv3_3
I0421 22:02:58.347431 12189 net.cpp:141] Setting up conv3_3
I0421 22:02:58.347440 12189 net.cpp:148] Top shape: 100 32 16 16 (819200)
I0421 22:02:58.347445 12189 net.cpp:156] Memory required for data: 378062000
I0421 22:02:58.347450 12189 layer_factory.hpp:77] Creating layer conv3_3_relu
I0421 22:02:58.347456 12189 net.cpp:91] Creating Layer conv3_3_relu
I0421 22:02:58.347461 12189 net.cpp:425] conv3_3_relu <- conv3_3
I0421 22:02:58.347470 12189 net.cpp:386] conv3_3_relu -> conv3_3 (in-place)
I0421 22:02:58.347803 12189 net.cpp:141] Setting up conv3_3_relu
I0421 22:02:58.347820 12189 net.cpp:148] Top shape: 100 32 16 16 (819200)
I0421 22:02:58.347825 12189 net.cpp:156] Memory required for data: 381338800
I0421 22:02:58.347831 12189 layer_factory.hpp:77] Creating layer conv3_3_conv3_3_relu_0_split
I0421 22:02:58.347841 12189 net.cpp:91] Creating Layer conv3_3_conv3_3_relu_0_split
I0421 22:02:58.347846 12189 net.cpp:425] conv3_3_conv3_3_relu_0_split <- conv3_3
I0421 22:02:58.347854 12189 net.cpp:399] conv3_3_conv3_3_relu_0_split -> conv3_3_conv3_3_relu_0_split_0
I0421 22:02:58.347864 12189 net.cpp:399] conv3_3_conv3_3_relu_0_split -> conv3_3_conv3_3_relu_0_split_1
I0421 22:02:58.347923 12189 net.cpp:141] Setting up conv3_3_conv3_3_relu_0_split
I0421 22:02:58.347931 12189 net.cpp:148] Top shape: 100 32 16 16 (819200)
I0421 22:02:58.347937 12189 net.cpp:148] Top shape: 100 32 16 16 (819200)
I0421 22:02:58.347941 12189 net.cpp:156] Memory required for data: 387892400
I0421 22:02:58.347947 12189 layer_factory.hpp:77] Creating layer conv3_sub
I0421 22:02:58.347960 12189 net.cpp:91] Creating Layer conv3_sub
I0421 22:02:58.347965 12189 net.cpp:425] conv3_sub <- conv3_3_conv3_3_relu_0_split_0
I0421 22:02:58.347976 12189 net.cpp:399] conv3_sub -> conv3_sub
I0421 22:02:58.350981 12189 net.cpp:141] Setting up conv3_sub
I0421 22:02:58.351001 12189 net.cpp:148] Top shape: 100 64 8 8 (409600)
I0421 22:02:58.351006 12189 net.cpp:156] Memory required for data: 389530800
I0421 22:02:58.351014 12189 layer_factory.hpp:77] Creating layer bn_conv3_sub
I0421 22:02:58.351025 12189 net.cpp:91] Creating Layer bn_conv3_sub
I0421 22:02:58.351032 12189 net.cpp:425] bn_conv3_sub <- conv3_sub
I0421 22:02:58.351039 12189 net.cpp:386] bn_conv3_sub -> conv3_sub (in-place)
I0421 22:02:58.351305 12189 net.cpp:141] Setting up bn_conv3_sub
I0421 22:02:58.351315 12189 net.cpp:148] Top shape: 100 64 8 8 (409600)
I0421 22:02:58.351320 12189 net.cpp:156] Memory required for data: 391169200
I0421 22:02:58.351330 12189 layer_factory.hpp:77] Creating layer scale_conv3_sub
I0421 22:02:58.351338 12189 net.cpp:91] Creating Layer scale_conv3_sub
I0421 22:02:58.351343 12189 net.cpp:425] scale_conv3_sub <- conv3_sub
I0421 22:02:58.351351 12189 net.cpp:386] scale_conv3_sub -> conv3_sub (in-place)
I0421 22:02:58.351413 12189 layer_factory.hpp:77] Creating layer scale_conv3_sub
I0421 22:02:58.351567 12189 net.cpp:141] Setting up scale_conv3_sub
I0421 22:02:58.351577 12189 net.cpp:148] Top shape: 100 64 8 8 (409600)
I0421 22:02:58.351580 12189 net.cpp:156] Memory required for data: 392807600
I0421 22:02:58.351588 12189 layer_factory.hpp:77] Creating layer conv3_sub_scale_conv3_sub_0_split
I0421 22:02:58.351596 12189 net.cpp:91] Creating Layer conv3_sub_scale_conv3_sub_0_split
I0421 22:02:58.351601 12189 net.cpp:425] conv3_sub_scale_conv3_sub_0_split <- conv3_sub
I0421 22:02:58.351608 12189 net.cpp:399] conv3_sub_scale_conv3_sub_0_split -> conv3_sub_scale_conv3_sub_0_split_0
I0421 22:02:58.351619 12189 net.cpp:399] conv3_sub_scale_conv3_sub_0_split -> conv3_sub_scale_conv3_sub_0_split_1
I0421 22:02:58.351667 12189 net.cpp:141] Setting up conv3_sub_scale_conv3_sub_0_split
I0421 22:02:58.351676 12189 net.cpp:148] Top shape: 100 64 8 8 (409600)
I0421 22:02:58.351682 12189 net.cpp:148] Top shape: 100 64 8 8 (409600)
I0421 22:02:58.351686 12189 net.cpp:156] Memory required for data: 396084400
I0421 22:02:58.351691 12189 layer_factory.hpp:77] Creating layer conv4_1a
I0421 22:02:58.351706 12189 net.cpp:91] Creating Layer conv4_1a
I0421 22:02:58.351711 12189 net.cpp:425] conv4_1a <- conv3_3_conv3_3_relu_0_split_1
I0421 22:02:58.351719 12189 net.cpp:399] conv4_1a -> conv4_1a
I0421 22:02:58.354655 12189 net.cpp:141] Setting up conv4_1a
I0421 22:02:58.354674 12189 net.cpp:148] Top shape: 100 64 8 8 (409600)
I0421 22:02:58.354679 12189 net.cpp:156] Memory required for data: 397722800
I0421 22:02:58.354688 12189 layer_factory.hpp:77] Creating layer bn_conv4_1a
I0421 22:02:58.354701 12189 net.cpp:91] Creating Layer bn_conv4_1a
I0421 22:02:58.354707 12189 net.cpp:425] bn_conv4_1a <- conv4_1a
I0421 22:02:58.354714 12189 net.cpp:386] bn_conv4_1a -> conv4_1a (in-place)
I0421 22:02:58.354982 12189 net.cpp:141] Setting up bn_conv4_1a
I0421 22:02:58.354992 12189 net.cpp:148] Top shape: 100 64 8 8 (409600)
I0421 22:02:58.354997 12189 net.cpp:156] Memory required for data: 399361200
I0421 22:02:58.355007 12189 layer_factory.hpp:77] Creating layer scale_conv4_1a
I0421 22:02:58.355018 12189 net.cpp:91] Creating Layer scale_conv4_1a
I0421 22:02:58.355025 12189 net.cpp:425] scale_conv4_1a <- conv4_1a
I0421 22:02:58.355031 12189 net.cpp:386] scale_conv4_1a -> conv4_1a (in-place)
I0421 22:02:58.355087 12189 layer_factory.hpp:77] Creating layer scale_conv4_1a
I0421 22:02:58.355242 12189 net.cpp:141] Setting up scale_conv4_1a
I0421 22:02:58.355250 12189 net.cpp:148] Top shape: 100 64 8 8 (409600)
I0421 22:02:58.355255 12189 net.cpp:156] Memory required for data: 400999600
I0421 22:02:58.355263 12189 layer_factory.hpp:77] Creating layer conv4_1a_relu
I0421 22:02:58.355273 12189 net.cpp:91] Creating Layer conv4_1a_relu
I0421 22:02:58.355278 12189 net.cpp:425] conv4_1a_relu <- conv4_1a
I0421 22:02:58.355285 12189 net.cpp:386] conv4_1a_relu -> conv4_1a (in-place)
I0421 22:02:58.355736 12189 net.cpp:141] Setting up conv4_1a_relu
I0421 22:02:58.355751 12189 net.cpp:148] Top shape: 100 64 8 8 (409600)
I0421 22:02:58.355757 12189 net.cpp:156] Memory required for data: 402638000
I0421 22:02:58.355762 12189 layer_factory.hpp:77] Creating layer conv4_1b
I0421 22:02:58.355779 12189 net.cpp:91] Creating Layer conv4_1b
I0421 22:02:58.355785 12189 net.cpp:425] conv4_1b <- conv4_1a
I0421 22:02:58.355793 12189 net.cpp:399] conv4_1b -> conv4_1b
I0421 22:02:58.359530 12189 net.cpp:141] Setting up conv4_1b
I0421 22:02:58.359549 12189 net.cpp:148] Top shape: 100 64 8 8 (409600)
I0421 22:02:58.359555 12189 net.cpp:156] Memory required for data: 404276400
I0421 22:02:58.359563 12189 layer_factory.hpp:77] Creating layer bn_conv4_1b
I0421 22:02:58.359575 12189 net.cpp:91] Creating Layer bn_conv4_1b
I0421 22:02:58.359581 12189 net.cpp:425] bn_conv4_1b <- conv4_1b
I0421 22:02:58.359591 12189 net.cpp:386] bn_conv4_1b -> conv4_1b (in-place)
I0421 22:02:58.359860 12189 net.cpp:141] Setting up bn_conv4_1b
I0421 22:02:58.359870 12189 net.cpp:148] Top shape: 100 64 8 8 (409600)
I0421 22:02:58.359880 12189 net.cpp:156] Memory required for data: 405914800
I0421 22:02:58.359895 12189 layer_factory.hpp:77] Creating layer scale_conv4_1b
I0421 22:02:58.359905 12189 net.cpp:91] Creating Layer scale_conv4_1b
I0421 22:02:58.359910 12189 net.cpp:425] scale_conv4_1b <- conv4_1b
I0421 22:02:58.359917 12189 net.cpp:386] scale_conv4_1b -> conv4_1b (in-place)
I0421 22:02:58.359974 12189 layer_factory.hpp:77] Creating layer scale_conv4_1b
I0421 22:02:58.360131 12189 net.cpp:141] Setting up scale_conv4_1b
I0421 22:02:58.360141 12189 net.cpp:148] Top shape: 100 64 8 8 (409600)
I0421 22:02:58.360144 12189 net.cpp:156] Memory required for data: 407553200
I0421 22:02:58.360152 12189 layer_factory.hpp:77] Creating layer conv4_1
I0421 22:02:58.360162 12189 net.cpp:91] Creating Layer conv4_1
I0421 22:02:58.360169 12189 net.cpp:425] conv4_1 <- conv3_sub_scale_conv3_sub_0_split_0
I0421 22:02:58.360175 12189 net.cpp:425] conv4_1 <- conv4_1b
I0421 22:02:58.360183 12189 net.cpp:399] conv4_1 -> conv4_1
I0421 22:02:58.360216 12189 net.cpp:141] Setting up conv4_1
I0421 22:02:58.360225 12189 net.cpp:148] Top shape: 100 64 8 8 (409600)
I0421 22:02:58.360230 12189 net.cpp:156] Memory required for data: 409191600
I0421 22:02:58.360234 12189 layer_factory.hpp:77] Creating layer conv4_1_relu
I0421 22:02:58.360244 12189 net.cpp:91] Creating Layer conv4_1_relu
I0421 22:02:58.360249 12189 net.cpp:425] conv4_1_relu <- conv4_1
I0421 22:02:58.360256 12189 net.cpp:386] conv4_1_relu -> conv4_1 (in-place)
I0421 22:02:58.360617 12189 net.cpp:141] Setting up conv4_1_relu
I0421 22:02:58.360633 12189 net.cpp:148] Top shape: 100 64 8 8 (409600)
I0421 22:02:58.360638 12189 net.cpp:156] Memory required for data: 410830000
I0421 22:02:58.360644 12189 layer_factory.hpp:77] Creating layer conv4_1_conv4_1_relu_0_split
I0421 22:02:58.360652 12189 net.cpp:91] Creating Layer conv4_1_conv4_1_relu_0_split
I0421 22:02:58.360657 12189 net.cpp:425] conv4_1_conv4_1_relu_0_split <- conv4_1
I0421 22:02:58.360667 12189 net.cpp:399] conv4_1_conv4_1_relu_0_split -> conv4_1_conv4_1_relu_0_split_0
I0421 22:02:58.360677 12189 net.cpp:399] conv4_1_conv4_1_relu_0_split -> conv4_1_conv4_1_relu_0_split_1
I0421 22:02:58.360735 12189 net.cpp:141] Setting up conv4_1_conv4_1_relu_0_split
I0421 22:02:58.360746 12189 net.cpp:148] Top shape: 100 64 8 8 (409600)
I0421 22:02:58.360752 12189 net.cpp:148] Top shape: 100 64 8 8 (409600)
I0421 22:02:58.360757 12189 net.cpp:156] Memory required for data: 414106800
I0421 22:02:58.360762 12189 layer_factory.hpp:77] Creating layer conv4_2a
I0421 22:02:58.360776 12189 net.cpp:91] Creating Layer conv4_2a
I0421 22:02:58.360782 12189 net.cpp:425] conv4_2a <- conv4_1_conv4_1_relu_0_split_0
I0421 22:02:58.360790 12189 net.cpp:399] conv4_2a -> conv4_2a
I0421 22:02:58.370144 12189 net.cpp:141] Setting up conv4_2a
I0421 22:02:58.370206 12189 net.cpp:148] Top shape: 100 64 8 8 (409600)
I0421 22:02:58.370213 12189 net.cpp:156] Memory required for data: 415745200
I0421 22:02:58.370240 12189 layer_factory.hpp:77] Creating layer bn_conv4_2a
I0421 22:02:58.370286 12189 net.cpp:91] Creating Layer bn_conv4_2a
I0421 22:02:58.370319 12189 net.cpp:425] bn_conv4_2a <- conv4_2a
I0421 22:02:58.370332 12189 net.cpp:386] bn_conv4_2a -> conv4_2a (in-place)
I0421 22:02:58.370612 12189 net.cpp:141] Setting up bn_conv4_2a
I0421 22:02:58.370623 12189 net.cpp:148] Top shape: 100 64 8 8 (409600)
I0421 22:02:58.370628 12189 net.cpp:156] Memory required for data: 417383600
I0421 22:02:58.370638 12189 layer_factory.hpp:77] Creating layer scale_conv4_2a
I0421 22:02:58.370666 12189 net.cpp:91] Creating Layer scale_conv4_2a
I0421 22:02:58.370673 12189 net.cpp:425] scale_conv4_2a <- conv4_2a
I0421 22:02:58.370681 12189 net.cpp:386] scale_conv4_2a -> conv4_2a (in-place)
I0421 22:02:58.370743 12189 layer_factory.hpp:77] Creating layer scale_conv4_2a
I0421 22:02:58.370898 12189 net.cpp:141] Setting up scale_conv4_2a
I0421 22:02:58.370908 12189 net.cpp:148] Top shape: 100 64 8 8 (409600)
I0421 22:02:58.370913 12189 net.cpp:156] Memory required for data: 419022000
I0421 22:02:58.370928 12189 layer_factory.hpp:77] Creating layer conv4_2a_relu
I0421 22:02:58.370951 12189 net.cpp:91] Creating Layer conv4_2a_relu
I0421 22:02:58.370957 12189 net.cpp:425] conv4_2a_relu <- conv4_2a
I0421 22:02:58.370966 12189 net.cpp:386] conv4_2a_relu -> conv4_2a (in-place)
I0421 22:02:58.371182 12189 net.cpp:141] Setting up conv4_2a_relu
I0421 22:02:58.371196 12189 net.cpp:148] Top shape: 100 64 8 8 (409600)
I0421 22:02:58.371201 12189 net.cpp:156] Memory required for data: 420660400
I0421 22:02:58.371211 12189 layer_factory.hpp:77] Creating layer conv4_2b
I0421 22:02:58.371238 12189 net.cpp:91] Creating Layer conv4_2b
I0421 22:02:58.371245 12189 net.cpp:425] conv4_2b <- conv4_2a
I0421 22:02:58.371254 12189 net.cpp:399] conv4_2b -> conv4_2b
I0421 22:02:58.376214 12189 net.cpp:141] Setting up conv4_2b
I0421 22:02:58.376233 12189 net.cpp:148] Top shape: 100 64 8 8 (409600)
I0421 22:02:58.376240 12189 net.cpp:156] Memory required for data: 422298800
I0421 22:02:58.376248 12189 layer_factory.hpp:77] Creating layer bn_conv4_2b
I0421 22:02:58.376266 12189 net.cpp:91] Creating Layer bn_conv4_2b
I0421 22:02:58.376273 12189 net.cpp:425] bn_conv4_2b <- conv4_2b
I0421 22:02:58.376282 12189 net.cpp:386] bn_conv4_2b -> conv4_2b (in-place)
I0421 22:02:58.376549 12189 net.cpp:141] Setting up bn_conv4_2b
I0421 22:02:58.376559 12189 net.cpp:148] Top shape: 100 64 8 8 (409600)
I0421 22:02:58.376564 12189 net.cpp:156] Memory required for data: 423937200
I0421 22:02:58.376600 12189 layer_factory.hpp:77] Creating layer scale_conv4_2b
I0421 22:02:58.376616 12189 net.cpp:91] Creating Layer scale_conv4_2b
I0421 22:02:58.376622 12189 net.cpp:425] scale_conv4_2b <- conv4_2b
I0421 22:02:58.376629 12189 net.cpp:386] scale_conv4_2b -> conv4_2b (in-place)
I0421 22:02:58.376691 12189 layer_factory.hpp:77] Creating layer scale_conv4_2b
I0421 22:02:58.376852 12189 net.cpp:141] Setting up scale_conv4_2b
I0421 22:02:58.376862 12189 net.cpp:148] Top shape: 100 64 8 8 (409600)
I0421 22:02:58.376866 12189 net.cpp:156] Memory required for data: 425575600
I0421 22:02:58.376874 12189 layer_factory.hpp:77] Creating layer conv4_2
I0421 22:02:58.376895 12189 net.cpp:91] Creating Layer conv4_2
I0421 22:02:58.376902 12189 net.cpp:425] conv4_2 <- conv4_1_conv4_1_relu_0_split_1
I0421 22:02:58.376909 12189 net.cpp:425] conv4_2 <- conv4_2b
I0421 22:02:58.376916 12189 net.cpp:399] conv4_2 -> conv4_2
I0421 22:02:58.376955 12189 net.cpp:141] Setting up conv4_2
I0421 22:02:58.376963 12189 net.cpp:148] Top shape: 100 64 8 8 (409600)
I0421 22:02:58.376968 12189 net.cpp:156] Memory required for data: 427214000
I0421 22:02:58.376973 12189 layer_factory.hpp:77] Creating layer conv4_2_relu
I0421 22:02:58.376979 12189 net.cpp:91] Creating Layer conv4_2_relu
I0421 22:02:58.376984 12189 net.cpp:425] conv4_2_relu <- conv4_2
I0421 22:02:58.376993 12189 net.cpp:386] conv4_2_relu -> conv4_2 (in-place)
I0421 22:02:58.377354 12189 net.cpp:141] Setting up conv4_2_relu
I0421 22:02:58.377372 12189 net.cpp:148] Top shape: 100 64 8 8 (409600)
I0421 22:02:58.377378 12189 net.cpp:156] Memory required for data: 428852400
I0421 22:02:58.377383 12189 layer_factory.hpp:77] Creating layer conv4_2_conv4_2_relu_0_split
I0421 22:02:58.377391 12189 net.cpp:91] Creating Layer conv4_2_conv4_2_relu_0_split
I0421 22:02:58.377398 12189 net.cpp:425] conv4_2_conv4_2_relu_0_split <- conv4_2
I0421 22:02:58.377406 12189 net.cpp:399] conv4_2_conv4_2_relu_0_split -> conv4_2_conv4_2_relu_0_split_0
I0421 22:02:58.377418 12189 net.cpp:399] conv4_2_conv4_2_relu_0_split -> conv4_2_conv4_2_relu_0_split_1
I0421 22:02:58.377477 12189 net.cpp:141] Setting up conv4_2_conv4_2_relu_0_split
I0421 22:02:58.377487 12189 net.cpp:148] Top shape: 100 64 8 8 (409600)
I0421 22:02:58.377493 12189 net.cpp:148] Top shape: 100 64 8 8 (409600)
I0421 22:02:58.377497 12189 net.cpp:156] Memory required for data: 432129200
I0421 22:02:58.377502 12189 layer_factory.hpp:77] Creating layer conv4_3a
I0421 22:02:58.377524 12189 net.cpp:91] Creating Layer conv4_3a
I0421 22:02:58.377532 12189 net.cpp:425] conv4_3a <- conv4_2_conv4_2_relu_0_split_0
I0421 22:02:58.377547 12189 net.cpp:399] conv4_3a -> conv4_3a
I0421 22:02:58.380043 12189 net.cpp:141] Setting up conv4_3a
I0421 22:02:58.380060 12189 net.cpp:148] Top shape: 100 64 8 8 (409600)
I0421 22:02:58.380066 12189 net.cpp:156] Memory required for data: 433767600
I0421 22:02:58.380075 12189 layer_factory.hpp:77] Creating layer bn_conv4_3a
I0421 22:02:58.380100 12189 net.cpp:91] Creating Layer bn_conv4_3a
I0421 22:02:58.380110 12189 net.cpp:425] bn_conv4_3a <- conv4_3a
I0421 22:02:58.380117 12189 net.cpp:386] bn_conv4_3a -> conv4_3a (in-place)
I0421 22:02:58.380388 12189 net.cpp:141] Setting up bn_conv4_3a
I0421 22:02:58.380399 12189 net.cpp:148] Top shape: 100 64 8 8 (409600)
I0421 22:02:58.380404 12189 net.cpp:156] Memory required for data: 435406000
I0421 22:02:58.380414 12189 layer_factory.hpp:77] Creating layer scale_conv4_3a
I0421 22:02:58.380422 12189 net.cpp:91] Creating Layer scale_conv4_3a
I0421 22:02:58.380427 12189 net.cpp:425] scale_conv4_3a <- conv4_3a
I0421 22:02:58.380434 12189 net.cpp:386] scale_conv4_3a -> conv4_3a (in-place)
I0421 22:02:58.380492 12189 layer_factory.hpp:77] Creating layer scale_conv4_3a
I0421 22:02:58.380647 12189 net.cpp:141] Setting up scale_conv4_3a
I0421 22:02:58.380657 12189 net.cpp:148] Top shape: 100 64 8 8 (409600)
I0421 22:02:58.380661 12189 net.cpp:156] Memory required for data: 437044400
I0421 22:02:58.380669 12189 layer_factory.hpp:77] Creating layer conv4_3a_relu
I0421 22:02:58.380686 12189 net.cpp:91] Creating Layer conv4_3a_relu
I0421 22:02:58.380692 12189 net.cpp:425] conv4_3a_relu <- conv4_3a
I0421 22:02:58.380698 12189 net.cpp:386] conv4_3a_relu -> conv4_3a (in-place)
I0421 22:02:58.381033 12189 net.cpp:141] Setting up conv4_3a_relu
I0421 22:02:58.381050 12189 net.cpp:148] Top shape: 100 64 8 8 (409600)
I0421 22:02:58.381055 12189 net.cpp:156] Memory required for data: 438682800
I0421 22:02:58.381067 12189 layer_factory.hpp:77] Creating layer conv4_3b
I0421 22:02:58.381088 12189 net.cpp:91] Creating Layer conv4_3b
I0421 22:02:58.381095 12189 net.cpp:425] conv4_3b <- conv4_3a
I0421 22:02:58.381106 12189 net.cpp:399] conv4_3b -> conv4_3b
I0421 22:02:58.384560 12189 net.cpp:141] Setting up conv4_3b
I0421 22:02:58.384578 12189 net.cpp:148] Top shape: 100 64 8 8 (409600)
I0421 22:02:58.384583 12189 net.cpp:156] Memory required for data: 440321200
I0421 22:02:58.384593 12189 layer_factory.hpp:77] Creating layer bn_conv4_3b
I0421 22:02:58.384609 12189 net.cpp:91] Creating Layer bn_conv4_3b
I0421 22:02:58.384616 12189 net.cpp:425] bn_conv4_3b <- conv4_3b
I0421 22:02:58.384625 12189 net.cpp:386] bn_conv4_3b -> conv4_3b (in-place)
I0421 22:02:58.384902 12189 net.cpp:141] Setting up bn_conv4_3b
I0421 22:02:58.384912 12189 net.cpp:148] Top shape: 100 64 8 8 (409600)
I0421 22:02:58.384917 12189 net.cpp:156] Memory required for data: 441959600
I0421 22:02:58.384927 12189 layer_factory.hpp:77] Creating layer scale_conv4_3b
I0421 22:02:58.384939 12189 net.cpp:91] Creating Layer scale_conv4_3b
I0421 22:02:58.384945 12189 net.cpp:425] scale_conv4_3b <- conv4_3b
I0421 22:02:58.384953 12189 net.cpp:386] scale_conv4_3b -> conv4_3b (in-place)
I0421 22:02:58.385011 12189 layer_factory.hpp:77] Creating layer scale_conv4_3b
I0421 22:02:58.385179 12189 net.cpp:141] Setting up scale_conv4_3b
I0421 22:02:58.385190 12189 net.cpp:148] Top shape: 100 64 8 8 (409600)
I0421 22:02:58.385195 12189 net.cpp:156] Memory required for data: 443598000
I0421 22:02:58.385203 12189 layer_factory.hpp:77] Creating layer conv4_3
I0421 22:02:58.385216 12189 net.cpp:91] Creating Layer conv4_3
I0421 22:02:58.385223 12189 net.cpp:425] conv4_3 <- conv4_2_conv4_2_relu_0_split_1
I0421 22:02:58.385231 12189 net.cpp:425] conv4_3 <- conv3_sub_scale_conv3_sub_0_split_1
I0421 22:02:58.385236 12189 net.cpp:425] conv4_3 <- conv4_3b
I0421 22:02:58.385244 12189 net.cpp:399] conv4_3 -> conv4_3
I0421 22:02:58.385282 12189 net.cpp:141] Setting up conv4_3
I0421 22:02:58.385290 12189 net.cpp:148] Top shape: 100 64 8 8 (409600)
I0421 22:02:58.385294 12189 net.cpp:156] Memory required for data: 445236400
I0421 22:02:58.385305 12189 layer_factory.hpp:77] Creating layer conv4_3_relu
I0421 22:02:58.385314 12189 net.cpp:91] Creating Layer conv4_3_relu
I0421 22:02:58.385320 12189 net.cpp:425] conv4_3_relu <- conv4_3
I0421 22:02:58.385326 12189 net.cpp:386] conv4_3_relu -> conv4_3 (in-place)
I0421 22:02:58.385656 12189 net.cpp:141] Setting up conv4_3_relu
I0421 22:02:58.385669 12189 net.cpp:148] Top shape: 100 64 8 8 (409600)
I0421 22:02:58.385674 12189 net.cpp:156] Memory required for data: 446874800
I0421 22:02:58.385679 12189 layer_factory.hpp:77] Creating layer global_pool
I0421 22:02:58.385689 12189 net.cpp:91] Creating Layer global_pool
I0421 22:02:58.385694 12189 net.cpp:425] global_pool <- conv4_3
I0421 22:02:58.385702 12189 net.cpp:399] global_pool -> global_pool
I0421 22:02:58.386905 12189 net.cpp:141] Setting up global_pool
I0421 22:02:58.386922 12189 net.cpp:148] Top shape: 100 64 1 1 (6400)
I0421 22:02:58.386927 12189 net.cpp:156] Memory required for data: 446900400
I0421 22:02:58.386932 12189 layer_factory.hpp:77] Creating layer ip
I0421 22:02:58.386943 12189 net.cpp:91] Creating Layer ip
I0421 22:02:58.386950 12189 net.cpp:425] ip <- global_pool
I0421 22:02:58.386957 12189 net.cpp:399] ip -> ip
I0421 22:02:58.387162 12189 net.cpp:141] Setting up ip
I0421 22:02:58.387174 12189 net.cpp:148] Top shape: 100 10 (1000)
I0421 22:02:58.387179 12189 net.cpp:156] Memory required for data: 446904400
I0421 22:02:58.387187 12189 layer_factory.hpp:77] Creating layer ip_ip_0_split
I0421 22:02:58.387195 12189 net.cpp:91] Creating Layer ip_ip_0_split
I0421 22:02:58.387200 12189 net.cpp:425] ip_ip_0_split <- ip
I0421 22:02:58.387210 12189 net.cpp:399] ip_ip_0_split -> ip_ip_0_split_0
I0421 22:02:58.387220 12189 net.cpp:399] ip_ip_0_split -> ip_ip_0_split_1
I0421 22:02:58.387272 12189 net.cpp:141] Setting up ip_ip_0_split
I0421 22:02:58.387281 12189 net.cpp:148] Top shape: 100 10 (1000)
I0421 22:02:58.387287 12189 net.cpp:148] Top shape: 100 10 (1000)
I0421 22:02:58.387291 12189 net.cpp:156] Memory required for data: 446912400
I0421 22:02:58.387296 12189 layer_factory.hpp:77] Creating layer accuracy
I0421 22:02:58.387305 12189 net.cpp:91] Creating Layer accuracy
I0421 22:02:58.387311 12189 net.cpp:425] accuracy <- ip_ip_0_split_0
I0421 22:02:58.387317 12189 net.cpp:425] accuracy <- label_cifar_1_split_0
I0421 22:02:58.387329 12189 net.cpp:399] accuracy -> accuracy
…
