…
I0413 17:09:46.288483 27180 solver.cpp:91] Creating training net from net file: prototxt/DyResNet/ResNet-cifar0.prototxt
I0413 17:09:46.288990 27180 net.cpp:313] The NetState phase (0) differed from the phase (1) specified by a rule in layer cifar
I0413 17:09:46.289130 27180 net.cpp:49] Initializing net from parameters: 
name: "ResNet-cifar"
state {
  phase: TRAIN
}
layer {
  name: "cifar"
  type: "Data"
  top: "data"
  top: "label"
  include {
    phase: TRAIN
  }
  transform_param {
    mirror: true
    mean_file: "data/cifar10/mean.binaryproto"
  }
  data_param {
    source: "data/cifar10/cifar10_train_lmdb"
    batch_size: 256
    backend: LMDB
  }
}
layer {
  name: "conv1"
  type: "Convolution"
  bottom: "data"
  top: "conv1"
  param {
    lr_mult: 1
  }
  param {
    lr_mult: 2
  }
  convolution_param {
    num_output: 16
    pad: 1
    kernel_size: 3
    weight_filler {
      type: "msra"
    }
    bias_filler {
      type: "constant"
    }
  }
}
layer {
  name: "bn_conv1"
  type: "BatchNorm"
  bottom: "conv1"
  top: "conv1"
  param {
    lr_mult: 0
  }
  param {
    lr_mult: 0
  }
  param {
    lr_mult: 0
  }
}
layer {
  name: "scale_conv1"
  type: "Scale"
  bottom: "conv1"
  top: "conv1"
  scale_param {
    bias_term: true
  }
}
layer {
  name: "conv1_relu"
  type: "ReLU"
  bottom: "conv1"
  top: "conv1"
}
layer {
  name: "conv2_1a"
  type: "Convolution"
  bottom: "conv1"
  top: "conv2_1a"
  param {
    lr_mult: 1
  }
  param {
    lr_mult: 2
  }
  convolution_param {
    num_output: 16
    pad: 1
    kernel_size: 3
    stride: 1
    weight_filler {
      type: "msra"
    }
    bias_filler {
      type: "constant"
      value: 0
    }
  }
}
layer {
  name: "bn_conv2_1a"
  type: "BatchNorm"
  bottom: "conv2_1a"
  top: "conv2_1a"
  param {
    lr_mult: 0
  }
  param {
    lr_mult: 0
  }
  param {
    lr_mult: 0
  }
}
layer {
  name: "scale_conv2_1a"
  type: "Scale"
  bottom: "conv2_1a"
  top: "conv2_1a"
  scale_param {
    bias_term: true
  }
}
layer {
  name: "conv2_1a_relu"
  type: "ReLU"
  bottom: "conv2_1a"
  top: "conv2_1a"
}
layer {
  name: "conv2_1b"
  type: "Convolution"
  bottom: "conv2_1a"
  top: "conv2_1b"
  param {
    lr_mult: 1
  }
  param {
    lr_mult: 2
  }
  convolution_param {
    num_output: 16
    pad: 1
    kernel_size: 3
    stride: 1
    weight_filler {
      type: "msra"
    }
    bias_filler {
      type: "constant"
      value: 0
    }
  }
}
layer {
  name: "bn_conv2_1b"
  type: "BatchNorm"
  bottom: "conv2_1b"
  top: "conv2_1b"
  param {
    lr_mult: 0
  }
  param {
    lr_mult: 0
  }
  param {
    lr_mult: 0
  }
}
layer {
  name: "scale_conv2_1b"
  type: "Scale"
  bottom: "conv2_1b"
  top: "conv2_1b"
  scale_param {
    bias_term: true
  }
}
layer {
  name: "conv2_1"
  type: "Eltwise"
  bottom: "conv2_1b"
  bottom: "conv1"
  top: "conv2_1"
}
layer {
  name: "conv2_1_relu"
  type: "ReLU"
  bottom: "conv2_1"
  top: "conv2_1"
}
layer {
  name: "global_pool"
  type: "Pooling"
  bottom: "conv2_1"
  top: "global_pool"
  pooling_param {
    pool: AVE
    kernel_size: 8
    stride: 8
  }
}
layer {
  name: "ip"
  type: "InnerProduct"
  bottom: "global_pool"
  top: "ip"
  inner_product_param {
    num_output: 10
  }
}
layer {
  name: "accuracy"
  type: "Accuracy"
  bottom: "ip"
  bottom: "label"
  top: "accuracy"
}
layer {
  name: "loss"
  type: "SoftmaxWithLoss"
  bottom: "ip"
  bottom: "label"
  top: "loss"
}
I0413 17:09:46.289252 27180 layer_factory.hpp:77] Creating layer cifar
I0413 17:09:46.289870 27180 net.cpp:91] Creating Layer cifar
I0413 17:09:46.289886 27180 net.cpp:399] cifar -> data
I0413 17:09:46.289928 27180 net.cpp:399] cifar -> label
I0413 17:09:46.289950 27180 data_transformer.cpp:25] Loading mean file from: data/cifar10/mean.binaryproto
I0413 17:09:46.309381 27463 db_lmdb.cpp:38] Opened lmdb data/cifar10/cifar10_train_lmdb
I0413 17:09:46.343348 27180 data_layer.cpp:41] output data size: 256,3,32,32
I0413 17:09:46.355808 27180 net.cpp:141] Setting up cifar
I0413 17:09:46.355847 27180 net.cpp:148] Top shape: 256 3 32 32 (786432)
I0413 17:09:46.355856 27180 net.cpp:148] Top shape: 256 (256)
I0413 17:09:46.355861 27180 net.cpp:156] Memory required for data: 3146752
I0413 17:09:46.355872 27180 layer_factory.hpp:77] Creating layer label_cifar_1_split
I0413 17:09:46.355895 27180 net.cpp:91] Creating Layer label_cifar_1_split
I0413 17:09:46.355902 27180 net.cpp:425] label_cifar_1_split <- label
I0413 17:09:46.355917 27180 net.cpp:399] label_cifar_1_split -> label_cifar_1_split_0
I0413 17:09:46.355932 27180 net.cpp:399] label_cifar_1_split -> label_cifar_1_split_1
I0413 17:09:46.355983 27180 net.cpp:141] Setting up label_cifar_1_split
I0413 17:09:46.355993 27180 net.cpp:148] Top shape: 256 (256)
I0413 17:09:46.355999 27180 net.cpp:148] Top shape: 256 (256)
I0413 17:09:46.356004 27180 net.cpp:156] Memory required for data: 3148800
I0413 17:09:46.356010 27180 layer_factory.hpp:77] Creating layer conv1
I0413 17:09:46.356029 27180 net.cpp:91] Creating Layer conv1
I0413 17:09:46.356035 27180 net.cpp:425] conv1 <- data
I0413 17:09:46.356045 27180 net.cpp:399] conv1 -> conv1
I0413 17:09:46.673980 27180 net.cpp:141] Setting up conv1
I0413 17:09:46.674029 27180 net.cpp:148] Top shape: 256 16 32 32 (4194304)
I0413 17:09:46.674036 27180 net.cpp:156] Memory required for data: 19926016
I0413 17:09:46.674058 27180 layer_factory.hpp:77] Creating layer bn_conv1
I0413 17:09:46.674074 27180 net.cpp:91] Creating Layer bn_conv1
I0413 17:09:46.674082 27180 net.cpp:425] bn_conv1 <- conv1
I0413 17:09:46.674091 27180 net.cpp:386] bn_conv1 -> conv1 (in-place)
I0413 17:09:46.674288 27180 net.cpp:141] Setting up bn_conv1
I0413 17:09:46.674299 27180 net.cpp:148] Top shape: 256 16 32 32 (4194304)
I0413 17:09:46.674304 27180 net.cpp:156] Memory required for data: 36703232
I0413 17:09:46.674319 27180 layer_factory.hpp:77] Creating layer scale_conv1
I0413 17:09:46.674338 27180 net.cpp:91] Creating Layer scale_conv1
I0413 17:09:46.674345 27180 net.cpp:425] scale_conv1 <- conv1
I0413 17:09:46.674351 27180 net.cpp:386] scale_conv1 -> conv1 (in-place)
I0413 17:09:46.674392 27180 layer_factory.hpp:77] Creating layer scale_conv1
I0413 17:09:46.674515 27180 net.cpp:141] Setting up scale_conv1
I0413 17:09:46.674525 27180 net.cpp:148] Top shape: 256 16 32 32 (4194304)
I0413 17:09:46.674530 27180 net.cpp:156] Memory required for data: 53480448
I0413 17:09:46.674540 27180 layer_factory.hpp:77] Creating layer conv1_relu
I0413 17:09:46.674549 27180 net.cpp:91] Creating Layer conv1_relu
I0413 17:09:46.674554 27180 net.cpp:425] conv1_relu <- conv1
I0413 17:09:46.674562 27180 net.cpp:386] conv1_relu -> conv1 (in-place)
I0413 17:09:46.674983 27180 net.cpp:141] Setting up conv1_relu
I0413 17:09:46.675000 27180 net.cpp:148] Top shape: 256 16 32 32 (4194304)
I0413 17:09:46.675006 27180 net.cpp:156] Memory required for data: 70257664
I0413 17:09:46.675012 27180 layer_factory.hpp:77] Creating layer conv1_conv1_relu_0_split
I0413 17:09:46.675021 27180 net.cpp:91] Creating Layer conv1_conv1_relu_0_split
I0413 17:09:46.675027 27180 net.cpp:425] conv1_conv1_relu_0_split <- conv1
I0413 17:09:46.675035 27180 net.cpp:399] conv1_conv1_relu_0_split -> conv1_conv1_relu_0_split_0
I0413 17:09:46.675045 27180 net.cpp:399] conv1_conv1_relu_0_split -> conv1_conv1_relu_0_split_1
I0413 17:09:46.675089 27180 net.cpp:141] Setting up conv1_conv1_relu_0_split
I0413 17:09:46.675099 27180 net.cpp:148] Top shape: 256 16 32 32 (4194304)
I0413 17:09:46.675106 27180 net.cpp:148] Top shape: 256 16 32 32 (4194304)
I0413 17:09:46.675110 27180 net.cpp:156] Memory required for data: 103812096
I0413 17:09:46.675115 27180 layer_factory.hpp:77] Creating layer conv2_1a
I0413 17:09:46.675129 27180 net.cpp:91] Creating Layer conv2_1a
I0413 17:09:46.675135 27180 net.cpp:425] conv2_1a <- conv1_conv1_relu_0_split_0
I0413 17:09:46.675144 27180 net.cpp:399] conv2_1a -> conv2_1a
I0413 17:09:46.678889 27180 net.cpp:141] Setting up conv2_1a
I0413 17:09:46.678906 27180 net.cpp:148] Top shape: 256 16 32 32 (4194304)
I0413 17:09:46.678912 27180 net.cpp:156] Memory required for data: 120589312
I0413 17:09:46.678928 27180 layer_factory.hpp:77] Creating layer bn_conv2_1a
I0413 17:09:46.678941 27180 net.cpp:91] Creating Layer bn_conv2_1a
I0413 17:09:46.678946 27180 net.cpp:425] bn_conv2_1a <- conv2_1a
I0413 17:09:46.678957 27180 net.cpp:386] bn_conv2_1a -> conv2_1a (in-place)
I0413 17:09:46.679160 27180 net.cpp:141] Setting up bn_conv2_1a
I0413 17:09:46.679172 27180 net.cpp:148] Top shape: 256 16 32 32 (4194304)
I0413 17:09:46.679177 27180 net.cpp:156] Memory required for data: 137366528
I0413 17:09:46.679186 27180 layer_factory.hpp:77] Creating layer scale_conv2_1a
I0413 17:09:46.679196 27180 net.cpp:91] Creating Layer scale_conv2_1a
I0413 17:09:46.679201 27180 net.cpp:425] scale_conv2_1a <- conv2_1a
I0413 17:09:46.679208 27180 net.cpp:386] scale_conv2_1a -> conv2_1a (in-place)
I0413 17:09:46.679249 27180 layer_factory.hpp:77] Creating layer scale_conv2_1a
I0413 17:09:46.679369 27180 net.cpp:141] Setting up scale_conv2_1a
I0413 17:09:46.679380 27180 net.cpp:148] Top shape: 256 16 32 32 (4194304)
I0413 17:09:46.679385 27180 net.cpp:156] Memory required for data: 154143744
I0413 17:09:46.679394 27180 layer_factory.hpp:77] Creating layer conv2_1a_relu
I0413 17:09:46.679402 27180 net.cpp:91] Creating Layer conv2_1a_relu
I0413 17:09:46.679407 27180 net.cpp:425] conv2_1a_relu <- conv2_1a
I0413 17:09:46.679417 27180 net.cpp:386] conv2_1a_relu -> conv2_1a (in-place)
I0413 17:09:46.679934 27180 net.cpp:141] Setting up conv2_1a_relu
I0413 17:09:46.679950 27180 net.cpp:148] Top shape: 256 16 32 32 (4194304)
I0413 17:09:46.679955 27180 net.cpp:156] Memory required for data: 170920960
I0413 17:09:46.679961 27180 layer_factory.hpp:77] Creating layer conv2_1b
I0413 17:09:46.679976 27180 net.cpp:91] Creating Layer conv2_1b
I0413 17:09:46.679982 27180 net.cpp:425] conv2_1b <- conv2_1a
I0413 17:09:46.679993 27180 net.cpp:399] conv2_1b -> conv2_1b
I0413 17:09:46.683995 27180 net.cpp:141] Setting up conv2_1b
I0413 17:09:46.684013 27180 net.cpp:148] Top shape: 256 16 32 32 (4194304)
I0413 17:09:46.684020 27180 net.cpp:156] Memory required for data: 187698176
I0413 17:09:46.684028 27180 layer_factory.hpp:77] Creating layer bn_conv2_1b
I0413 17:09:46.684046 27180 net.cpp:91] Creating Layer bn_conv2_1b
I0413 17:09:46.684053 27180 net.cpp:425] bn_conv2_1b <- conv2_1b
I0413 17:09:46.684062 27180 net.cpp:386] bn_conv2_1b -> conv2_1b (in-place)
I0413 17:09:46.684262 27180 net.cpp:141] Setting up bn_conv2_1b
I0413 17:09:46.684273 27180 net.cpp:148] Top shape: 256 16 32 32 (4194304)
I0413 17:09:46.684278 27180 net.cpp:156] Memory required for data: 204475392
I0413 17:09:46.684291 27180 layer_factory.hpp:77] Creating layer scale_conv2_1b
I0413 17:09:46.684303 27180 net.cpp:91] Creating Layer scale_conv2_1b
I0413 17:09:46.684309 27180 net.cpp:425] scale_conv2_1b <- conv2_1b
I0413 17:09:46.684316 27180 net.cpp:386] scale_conv2_1b -> conv2_1b (in-place)
I0413 17:09:46.684356 27180 layer_factory.hpp:77] Creating layer scale_conv2_1b
I0413 17:09:46.684481 27180 net.cpp:141] Setting up scale_conv2_1b
I0413 17:09:46.684492 27180 net.cpp:148] Top shape: 256 16 32 32 (4194304)
I0413 17:09:46.684497 27180 net.cpp:156] Memory required for data: 221252608
I0413 17:09:46.684505 27180 layer_factory.hpp:77] Creating layer conv2_1
I0413 17:09:46.684514 27180 net.cpp:91] Creating Layer conv2_1
I0413 17:09:46.684520 27180 net.cpp:425] conv2_1 <- conv2_1b
I0413 17:09:46.684526 27180 net.cpp:425] conv2_1 <- conv1_conv1_relu_0_split_1
I0413 17:09:46.684533 27180 net.cpp:399] conv2_1 -> conv2_1
I0413 17:09:46.684569 27180 net.cpp:141] Setting up conv2_1
I0413 17:09:46.684581 27180 net.cpp:148] Top shape: 256 16 32 32 (4194304)
I0413 17:09:46.684587 27180 net.cpp:156] Memory required for data: 238029824
I0413 17:09:46.684592 27180 layer_factory.hpp:77] Creating layer conv2_1_relu
I0413 17:09:46.684598 27180 net.cpp:91] Creating Layer conv2_1_relu
I0413 17:09:46.684604 27180 net.cpp:425] conv2_1_relu <- conv2_1
I0413 17:09:46.684610 27180 net.cpp:386] conv2_1_relu -> conv2_1 (in-place)
I0413 17:09:46.685024 27180 net.cpp:141] Setting up conv2_1_relu
I0413 17:09:46.685036 27180 net.cpp:148] Top shape: 256 16 32 32 (4194304)
I0413 17:09:46.685041 27180 net.cpp:156] Memory required for data: 254807040
I0413 17:09:46.685047 27180 layer_factory.hpp:77] Creating layer global_pool
I0413 17:09:46.685060 27180 net.cpp:91] Creating Layer global_pool
I0413 17:09:46.685066 27180 net.cpp:425] global_pool <- conv2_1
I0413 17:09:46.685075 27180 net.cpp:399] global_pool -> global_pool
I0413 17:09:46.686177 27180 net.cpp:141] Setting up global_pool
I0413 17:09:46.686194 27180 net.cpp:148] Top shape: 256 16 4 4 (65536)
I0413 17:09:46.686200 27180 net.cpp:156] Memory required for data: 255069184
I0413 17:09:46.686205 27180 layer_factory.hpp:77] Creating layer ip
I0413 17:09:46.686223 27180 net.cpp:91] Creating Layer ip
I0413 17:09:46.686228 27180 net.cpp:425] ip <- global_pool
I0413 17:09:46.686238 27180 net.cpp:399] ip -> ip
I0413 17:09:46.686359 27180 net.cpp:141] Setting up ip
I0413 17:09:46.686372 27180 net.cpp:148] Top shape: 256 10 (2560)
I0413 17:09:46.686377 27180 net.cpp:156] Memory required for data: 255079424
I0413 17:09:46.686384 27180 layer_factory.hpp:77] Creating layer ip_ip_0_split
I0413 17:09:46.686395 27180 net.cpp:91] Creating Layer ip_ip_0_split
I0413 17:09:46.686400 27180 net.cpp:425] ip_ip_0_split <- ip
I0413 17:09:46.686408 27180 net.cpp:399] ip_ip_0_split -> ip_ip_0_split_0
I0413 17:09:46.686416 27180 net.cpp:399] ip_ip_0_split -> ip_ip_0_split_1
I0413 17:09:46.686455 27180 net.cpp:141] Setting up ip_ip_0_split
I0413 17:09:46.686463 27180 net.cpp:148] Top shape: 256 10 (2560)
I0413 17:09:46.686470 27180 net.cpp:148] Top shape: 256 10 (2560)
I0413 17:09:46.686475 27180 net.cpp:156] Memory required for data: 255099904
I0413 17:09:46.686480 27180 layer_factory.hpp:77] Creating layer accuracy
I0413 17:09:46.686491 27180 net.cpp:91] Creating Layer accuracy
I0413 17:09:46.686497 27180 net.cpp:425] accuracy <- ip_ip_0_split_0
I0413 17:09:46.686503 27180 net.cpp:425] accuracy <- label_cifar_1_split_0
I0413 17:09:46.686511 27180 net.cpp:399] accuracy -> accuracy
…
I0413 17:09:46.688114 27180 solver.cpp:181] Creating test net (#0) specified by net file: prototxt/DyResNet/ResNet-cifar0.prototxt
I0413 17:09:46.688159 27180 net.cpp:313] The NetState phase (1) differed from the phase (0) specified by a rule in layer cifar
I0413 17:09:46.688307 27180 net.cpp:49] Initializing net from parameters: 
name: "ResNet-cifar"
state {
  phase: TEST
}
layer {
  name: "cifar"
  type: "Data"
  top: "data"
  top: "label"
  include {
    phase: TEST
  }
  transform_param {
    mean_file: "data/cifar10/mean.binaryproto"
  }
  data_param {
    source: "data/cifar10/cifar10_test_lmdb"
    batch_size: 100
    backend: LMDB
  }
}
layer {
  name: "conv1"
  type: "Convolution"
  bottom: "data"
  top: "conv1"
  param {
    lr_mult: 1
  }
  param {
    lr_mult: 2
  }
  convolution_param {
    num_output: 16
    pad: 1
    kernel_size: 3
    weight_filler {
      type: "msra"
    }
    bias_filler {
      type: "constant"
    }
  }
}
layer {
  name: "bn_conv1"
  type: "BatchNorm"
  bottom: "conv1"
  top: "conv1"
  param {
    lr_mult: 0
  }
  param {
    lr_mult: 0
  }
  param {
    lr_mult: 0
  }
}
layer {
  name: "scale_conv1"
  type: "Scale"
  bottom: "conv1"
  top: "conv1"
  scale_param {
    bias_term: true
  }
}
layer {
  name: "conv1_relu"
  type: "ReLU"
  bottom: "conv1"
  top: "conv1"
}
layer {
  name: "conv2_1a"
  type: "Convolution"
  bottom: "conv1"
  top: "conv2_1a"
  param {
    lr_mult: 1
  }
  param {
    lr_mult: 2
  }
  convolution_param {
    num_output: 16
    pad: 1
    kernel_size: 3
    stride: 1
    weight_filler {
      type: "msra"
    }
    bias_filler {
      type: "constant"
      value: 0
    }
  }
}
layer {
  name: "bn_conv2_1a"
  type: "BatchNorm"
  bottom: "conv2_1a"
  top: "conv2_1a"
  param {
    lr_mult: 0
  }
  param {
    lr_mult: 0
  }
  param {
    lr_mult: 0
  }
}
layer {
  name: "scale_conv2_1a"
  type: "Scale"
  bottom: "conv2_1a"
  top: "conv2_1a"
  scale_param {
    bias_term: true
  }
}
layer {
  name: "conv2_1a_relu"
  type: "ReLU"
  bottom: "conv2_1a"
  top: "conv2_1a"
}
layer {
  name: "conv2_1b"
  type: "Convolution"
  bottom: "conv2_1a"
  top: "conv2_1b"
  param {
    lr_mult: 1
  }
  param {
    lr_mult: 2
  }
  convolution_param {
    num_output: 16
    pad: 1
    kernel_size: 3
    stride: 1
    weight_filler {
      type: "msra"
    }
    bias_filler {
      type: "constant"
      value: 0
    }
  }
}
layer {
  name: "bn_conv2_1b"
  type: "BatchNorm"
  bottom: "conv2_1b"
  top: "conv2_1b"
  param {
    lr_mult: 0
  }
  param {
    lr_mult: 0
  }
  param {
    lr_mult: 0
  }
}
layer {
  name: "scale_conv2_1b"
  type: "Scale"
  bottom: "conv2_1b"
  top: "conv2_1b"
  scale_param {
    bias_term: true
  }
}
layer {
  name: "conv2_1"
  type: "Eltwise"
  bottom: "conv2_1b"
  bottom: "conv1"
  top: "conv2_1"
}
layer {
  name: "conv2_1_relu"
  type: "ReLU"
  bottom: "conv2_1"
  top: "conv2_1"
}
layer {
  name: "global_pool"
  type: "Pooling"
  bottom: "conv2_1"
  top: "global_pool"
  pooling_param {
    pool: AVE
    kernel_size: 8
    stride: 8
  }
}
layer {
  name: "ip"
  type: "InnerProduct"
  bottom: "global_pool"
  top: "ip"
  inner_product_param {
    num_output: 10
  }
}
layer {
  name: "accuracy"
  type: "Accuracy"
  bottom: "ip"
  bottom: "label"
  top: "accuracy"
}
layer {
  name: "loss"
  type: "SoftmaxWithLoss"
  bottom: "ip"
  bottom: "label"
  top: "loss"
}
I0413 17:09:46.688422 27180 layer_factory.hpp:77] Creating layer cifar
I0413 17:09:46.688555 27180 net.cpp:91] Creating Layer cifar
I0413 17:09:46.688570 27180 net.cpp:399] cifar -> data
I0413 17:09:46.688581 27180 net.cpp:399] cifar -> label
I0413 17:09:46.688591 27180 data_transformer.cpp:25] Loading mean file from: data/cifar10/mean.binaryproto
I0413 17:09:46.690052 27469 db_lmdb.cpp:38] Opened lmdb data/cifar10/cifar10_test_lmdb
I0413 17:09:46.690222 27180 data_layer.cpp:41] output data size: 100,3,32,32
I0413 17:09:46.695634 27180 net.cpp:141] Setting up cifar
I0413 17:09:46.695657 27180 net.cpp:148] Top shape: 100 3 32 32 (307200)
I0413 17:09:46.695664 27180 net.cpp:148] Top shape: 100 (100)
I0413 17:09:46.695670 27180 net.cpp:156] Memory required for data: 1229200
I0413 17:09:46.695677 27180 layer_factory.hpp:77] Creating layer label_cifar_1_split
I0413 17:09:46.695686 27180 net.cpp:91] Creating Layer label_cifar_1_split
I0413 17:09:46.695693 27180 net.cpp:425] label_cifar_1_split <- label
I0413 17:09:46.695701 27180 net.cpp:399] label_cifar_1_split -> label_cifar_1_split_0
I0413 17:09:46.695751 27180 net.cpp:399] label_cifar_1_split -> label_cifar_1_split_1
I0413 17:09:46.695897 27180 net.cpp:141] Setting up label_cifar_1_split
I0413 17:09:46.695909 27180 net.cpp:148] Top shape: 100 (100)
I0413 17:09:46.695915 27180 net.cpp:148] Top shape: 100 (100)
I0413 17:09:46.695920 27180 net.cpp:156] Memory required for data: 1230000
I0413 17:09:46.695926 27180 layer_factory.hpp:77] Creating layer conv1
I0413 17:09:46.695942 27180 net.cpp:91] Creating Layer conv1
I0413 17:09:46.695950 27180 net.cpp:425] conv1 <- data
I0413 17:09:46.695960 27180 net.cpp:399] conv1 -> conv1
I0413 17:09:46.699184 27180 net.cpp:141] Setting up conv1
I0413 17:09:46.699204 27180 net.cpp:148] Top shape: 100 16 32 32 (1638400)
I0413 17:09:46.699211 27180 net.cpp:156] Memory required for data: 7783600
I0413 17:09:46.699224 27180 layer_factory.hpp:77] Creating layer bn_conv1
I0413 17:09:46.699236 27180 net.cpp:91] Creating Layer bn_conv1
I0413 17:09:46.699244 27180 net.cpp:425] bn_conv1 <- conv1
I0413 17:09:46.699250 27180 net.cpp:386] bn_conv1 -> conv1 (in-place)
I0413 17:09:46.700539 27180 net.cpp:141] Setting up bn_conv1
I0413 17:09:46.700552 27180 net.cpp:148] Top shape: 100 16 32 32 (1638400)
I0413 17:09:46.700568 27180 net.cpp:156] Memory required for data: 14337200
I0413 17:09:46.700582 27180 layer_factory.hpp:77] Creating layer scale_conv1
I0413 17:09:46.700593 27180 net.cpp:91] Creating Layer scale_conv1
I0413 17:09:46.700599 27180 net.cpp:425] scale_conv1 <- conv1
I0413 17:09:46.700606 27180 net.cpp:386] scale_conv1 -> conv1 (in-place)
I0413 17:09:46.700659 27180 layer_factory.hpp:77] Creating layer scale_conv1
I0413 17:09:46.700801 27180 net.cpp:141] Setting up scale_conv1
I0413 17:09:46.700814 27180 net.cpp:148] Top shape: 100 16 32 32 (1638400)
I0413 17:09:46.700819 27180 net.cpp:156] Memory required for data: 20890800
I0413 17:09:46.700827 27180 layer_factory.hpp:77] Creating layer conv1_relu
I0413 17:09:46.700834 27180 net.cpp:91] Creating Layer conv1_relu
I0413 17:09:46.700840 27180 net.cpp:425] conv1_relu <- conv1
I0413 17:09:46.700870 27180 net.cpp:386] conv1_relu -> conv1 (in-place)
I0413 17:09:46.701223 27180 net.cpp:141] Setting up conv1_relu
I0413 17:09:46.701241 27180 net.cpp:148] Top shape: 100 16 32 32 (1638400)
I0413 17:09:46.701247 27180 net.cpp:156] Memory required for data: 27444400
I0413 17:09:46.701253 27180 layer_factory.hpp:77] Creating layer conv1_conv1_relu_0_split
I0413 17:09:46.701263 27180 net.cpp:91] Creating Layer conv1_conv1_relu_0_split
I0413 17:09:46.701274 27180 net.cpp:425] conv1_conv1_relu_0_split <- conv1
I0413 17:09:46.701292 27180 net.cpp:399] conv1_conv1_relu_0_split -> conv1_conv1_relu_0_split_0
I0413 17:09:46.701303 27180 net.cpp:399] conv1_conv1_relu_0_split -> conv1_conv1_relu_0_split_1
I0413 17:09:46.701352 27180 net.cpp:141] Setting up conv1_conv1_relu_0_split
I0413 17:09:46.701366 27180 net.cpp:148] Top shape: 100 16 32 32 (1638400)
I0413 17:09:46.701375 27180 net.cpp:148] Top shape: 100 16 32 32 (1638400)
I0413 17:09:46.701380 27180 net.cpp:156] Memory required for data: 40551600
I0413 17:09:46.701385 27180 layer_factory.hpp:77] Creating layer conv2_1a
I0413 17:09:46.701397 27180 net.cpp:91] Creating Layer conv2_1a
I0413 17:09:46.701403 27180 net.cpp:425] conv2_1a <- conv1_conv1_relu_0_split_0
I0413 17:09:46.701427 27180 net.cpp:399] conv2_1a -> conv2_1a
I0413 17:09:46.703752 27180 net.cpp:141] Setting up conv2_1a
I0413 17:09:46.703773 27180 net.cpp:148] Top shape: 100 16 32 32 (1638400)
I0413 17:09:46.703779 27180 net.cpp:156] Memory required for data: 47105200
I0413 17:09:46.703793 27180 layer_factory.hpp:77] Creating layer bn_conv2_1a
I0413 17:09:46.703804 27180 net.cpp:91] Creating Layer bn_conv2_1a
I0413 17:09:46.703822 27180 net.cpp:425] bn_conv2_1a <- conv2_1a
I0413 17:09:46.703831 27180 net.cpp:386] bn_conv2_1a -> conv2_1a (in-place)
I0413 17:09:46.704047 27180 net.cpp:141] Setting up bn_conv2_1a
I0413 17:09:46.704059 27180 net.cpp:148] Top shape: 100 16 32 32 (1638400)
I0413 17:09:46.704073 27180 net.cpp:156] Memory required for data: 53658800
I0413 17:09:46.704084 27180 layer_factory.hpp:77] Creating layer scale_conv2_1a
I0413 17:09:46.704094 27180 net.cpp:91] Creating Layer scale_conv2_1a
I0413 17:09:46.704100 27180 net.cpp:425] scale_conv2_1a <- conv2_1a
I0413 17:09:46.704126 27180 net.cpp:386] scale_conv2_1a -> conv2_1a (in-place)
I0413 17:09:46.704177 27180 layer_factory.hpp:77] Creating layer scale_conv2_1a
I0413 17:09:46.704304 27180 net.cpp:141] Setting up scale_conv2_1a
I0413 17:09:46.704316 27180 net.cpp:148] Top shape: 100 16 32 32 (1638400)
I0413 17:09:46.704331 27180 net.cpp:156] Memory required for data: 60212400
I0413 17:09:46.704339 27180 layer_factory.hpp:77] Creating layer conv2_1a_relu
I0413 17:09:46.704347 27180 net.cpp:91] Creating Layer conv2_1a_relu
I0413 17:09:46.704352 27180 net.cpp:425] conv2_1a_relu <- conv2_1a
I0413 17:09:46.704360 27180 net.cpp:386] conv2_1a_relu -> conv2_1a (in-place)
I0413 17:09:46.704778 27180 net.cpp:141] Setting up conv2_1a_relu
I0413 17:09:46.704807 27180 net.cpp:148] Top shape: 100 16 32 32 (1638400)
I0413 17:09:46.704813 27180 net.cpp:156] Memory required for data: 66766000
I0413 17:09:46.704823 27180 layer_factory.hpp:77] Creating layer conv2_1b
I0413 17:09:46.704836 27180 net.cpp:91] Creating Layer conv2_1b
I0413 17:09:46.704851 27180 net.cpp:425] conv2_1b <- conv2_1a
I0413 17:09:46.704860 27180 net.cpp:399] conv2_1b -> conv2_1b
I0413 17:09:46.709403 27180 net.cpp:141] Setting up conv2_1b
I0413 17:09:46.709434 27180 net.cpp:148] Top shape: 100 16 32 32 (1638400)
I0413 17:09:46.709441 27180 net.cpp:156] Memory required for data: 73319600
I0413 17:09:46.709452 27180 layer_factory.hpp:77] Creating layer bn_conv2_1b
I0413 17:09:46.709463 27180 net.cpp:91] Creating Layer bn_conv2_1b
I0413 17:09:46.709470 27180 net.cpp:425] bn_conv2_1b <- conv2_1b
I0413 17:09:46.709480 27180 net.cpp:386] bn_conv2_1b -> conv2_1b (in-place)
I0413 17:09:46.709702 27180 net.cpp:141] Setting up bn_conv2_1b
I0413 17:09:46.709712 27180 net.cpp:148] Top shape: 100 16 32 32 (1638400)
I0413 17:09:46.709717 27180 net.cpp:156] Memory required for data: 79873200
I0413 17:09:46.709745 27180 layer_factory.hpp:77] Creating layer scale_conv2_1b
I0413 17:09:46.709755 27180 net.cpp:91] Creating Layer scale_conv2_1b
I0413 17:09:46.709761 27180 net.cpp:425] scale_conv2_1b <- conv2_1b
I0413 17:09:46.709769 27180 net.cpp:386] scale_conv2_1b -> conv2_1b (in-place)
I0413 17:09:46.709830 27180 layer_factory.hpp:77] Creating layer scale_conv2_1b
I0413 17:09:46.709955 27180 net.cpp:141] Setting up scale_conv2_1b
I0413 17:09:46.709966 27180 net.cpp:148] Top shape: 100 16 32 32 (1638400)
I0413 17:09:46.709972 27180 net.cpp:156] Memory required for data: 86426800
I0413 17:09:46.709996 27180 layer_factory.hpp:77] Creating layer conv2_1
I0413 17:09:46.710005 27180 net.cpp:91] Creating Layer conv2_1
I0413 17:09:46.710011 27180 net.cpp:425] conv2_1 <- conv2_1b
I0413 17:09:46.710037 27180 net.cpp:425] conv2_1 <- conv1_conv1_relu_0_split_1
I0413 17:09:46.710047 27180 net.cpp:399] conv2_1 -> conv2_1
I0413 17:09:46.710075 27180 net.cpp:141] Setting up conv2_1
I0413 17:09:46.710085 27180 net.cpp:148] Top shape: 100 16 32 32 (1638400)
I0413 17:09:46.710090 27180 net.cpp:156] Memory required for data: 92980400
I0413 17:09:46.710095 27180 layer_factory.hpp:77] Creating layer conv2_1_relu
I0413 17:09:46.710104 27180 net.cpp:91] Creating Layer conv2_1_relu
I0413 17:09:46.710111 27180 net.cpp:425] conv2_1_relu <- conv2_1
I0413 17:09:46.710117 27180 net.cpp:386] conv2_1_relu -> conv2_1 (in-place)
I0413 17:09:46.710322 27180 net.cpp:141] Setting up conv2_1_relu
I0413 17:09:46.710336 27180 net.cpp:148] Top shape: 100 16 32 32 (1638400)
I0413 17:09:46.710341 27180 net.cpp:156] Memory required for data: 99534000
I0413 17:09:46.710346 27180 layer_factory.hpp:77] Creating layer global_pool
I0413 17:09:46.710358 27180 net.cpp:91] Creating Layer global_pool
I0413 17:09:46.710364 27180 net.cpp:425] global_pool <- conv2_1
I0413 17:09:46.710382 27180 net.cpp:399] global_pool -> global_pool
I0413 17:09:46.722751 27180 net.cpp:141] Setting up global_pool
I0413 17:09:46.722775 27180 net.cpp:148] Top shape: 100 16 4 4 (25600)
I0413 17:09:46.722781 27180 net.cpp:156] Memory required for data: 99636400
I0413 17:09:46.722787 27180 layer_factory.hpp:77] Creating layer ip
I0413 17:09:46.722796 27180 net.cpp:91] Creating Layer ip
I0413 17:09:46.722802 27180 net.cpp:425] ip <- global_pool
I0413 17:09:46.722810 27180 net.cpp:399] ip -> ip
I0413 17:09:46.722960 27180 net.cpp:141] Setting up ip
I0413 17:09:46.722973 27180 net.cpp:148] Top shape: 100 10 (1000)
I0413 17:09:46.722978 27180 net.cpp:156] Memory required for data: 99640400
I0413 17:09:46.722987 27180 layer_factory.hpp:77] Creating layer ip_ip_0_split
I0413 17:09:46.722995 27180 net.cpp:91] Creating Layer ip_ip_0_split
I0413 17:09:46.723001 27180 net.cpp:425] ip_ip_0_split <- ip
I0413 17:09:46.723011 27180 net.cpp:399] ip_ip_0_split -> ip_ip_0_split_0
I0413 17:09:46.723019 27180 net.cpp:399] ip_ip_0_split -> ip_ip_0_split_1
I0413 17:09:46.724066 27180 net.cpp:141] Setting up ip_ip_0_split
I0413 17:09:46.724120 27180 net.cpp:148] Top shape: 100 10 (1000)
I0413 17:09:46.724134 27180 net.cpp:148] Top shape: 100 10 (1000)
I0413 17:09:46.724153 27180 net.cpp:156] Memory required for data: 99648400
I0413 17:09:46.724165 27180 layer_factory.hpp:77] Creating layer accuracy
I0413 17:09:46.724180 27180 net.cpp:91] Creating Layer accuracy
I0413 17:09:46.724194 27180 net.cpp:425] accuracy <- ip_ip_0_split_0
I0413 17:09:46.724207 27180 net.cpp:425] accuracy <- label_cifar_1_split_0
I0413 17:09:46.724226 27180 net.cpp:399] accuracy -> accuracy
…
I0413 17:14:19.279548  8324 net.cpp:313] The NetState phase (0) differed from the phase (1) specified by a rule in layer cifar
I0413 17:14:19.279698  8324 net.cpp:49] Initializing net from parameters: 
name: "ResNet-cifar"
state {
  phase: TRAIN
}
layer {
  name: "cifar"
  type: "Data"
  top: "data"
  top: "label"
  include {
    phase: TRAIN
  }
  transform_param {
    mirror: true
    mean_file: "/home/liangjiang/code/residual_network-dy/data/cifar10/mean.binaryproto"
  }
  data_param {
    source: "/home/liangjiang/code/residual_network-dy/data/cifar10/cifar10_train_lmdb"
    batch_size: 256
    backend: LMDB
  }
}
layer {
  name: "conv1"
  type: "Convolution"
  bottom: "data"
  top: "conv1"
  param {
    lr_mult: 1
  }
  param {
    lr_mult: 2
  }
  convolution_param {
    num_output: 16
    pad: 1
    kernel_size: 3
    weight_filler {
      type: "msra"
    }
    bias_filler {
      type: "constant"
    }
  }
}
layer {
  name: "bn_conv1"
  type: "BatchNorm"
  bottom: "conv1"
  top: "conv1"
  param {
    lr_mult: 0
  }
  param {
    lr_mult: 0
  }
  param {
    lr_mult: 0
  }
}
layer {
  name: "scale_conv1"
  type: "Scale"
  bottom: "conv1"
  top: "conv1"
  scale_param {
    bias_term: true
  }
}
layer {
  name: "conv1_relu"
  type: "ReLU"
  bottom: "conv1"
  top: "conv1"
}
layer {
  name: "conv2_1a"
  type: "Convolution"
  bottom: "conv1"
  top: "conv2_1a"
  param {
    lr_mult: 1
  }
  param {
    lr_mult: 2
  }
  convolution_param {
    num_output: 16
    pad: 1
    kernel_size: 3
    stride: 1
    weight_filler {
      type: "msra"
    }
    bias_filler {
      type: "constant"
      value: 0
    }
  }
}
layer {
  name: "bn_conv2_1a"
  type: "BatchNorm"
  bottom: "conv2_1a"
  top: "conv2_1a"
  param {
    lr_mult: 0
  }
  param {
    lr_mult: 0
  }
  param {
    lr_mult: 0
  }
}
layer {
  name: "scale_conv2_1a"
  type: "Scale"
  bottom: "conv2_1a"
  top: "conv2_1a"
  scale_param {
    bias_term: true
  }
}
layer {
  name: "conv2_1a_relu"
  type: "ReLU"
  bottom: "conv2_1a"
  top: "conv2_1a"
}
layer {
  name: "conv2_1b"
  type: "Convolution"
  bottom: "conv2_1a"
  top: "conv2_1b"
  param {
    lr_mult: 1
  }
  param {
    lr_mult: 2
  }
  convolution_param {
    num_output: 16
    pad: 1
    kernel_size: 3
    stride: 1
    weight_filler {
      type: "msra"
    }
    bias_filler {
      type: "constant"
      value: 0
    }
  }
}
layer {
  name: "bn_conv2_1b"
  type: "BatchNorm"
  bottom: "conv2_1b"
  top: "conv2_1b"
  param {
    lr_mult: 0
  }
  param {
    lr_mult: 0
  }
  param {
    lr_mult: 0
  }
}
layer {
  name: "scale_conv2_1b"
  type: "Scale"
  bottom: "conv2_1b"
  top: "conv2_1b"
  scale_param {
    bias_term: true
  }
}
layer {
  name: "conv2_1"
  type: "Eltwise"
  bottom: "conv2_1b"
  bottom: "conv1"
  top: "conv2_1"
}
layer {
  name: "conv2_1_relu"
  type: "ReLU"
  bottom: "conv2_1"
  top: "conv2_1"
}
layer {
  name: "conv2_2a"
  type: "Convolution"
  bottom: "conv2_1"
  top: "conv2_2a"
  param {
    lr_mult: 1
  }
  param {
    lr_mult: 2
  }
  convolution_param {
    num_output: 16
    pad: 1
    kernel_size: 3
    stride: 1
    weight_filler {
      type: "msra"
    }
    bias_filler {
      type: "constant"
      value: 0
    }
  }
}
layer {
  name: "bn_conv2_2a"
  type: "BatchNorm"
  bottom: "conv2_2a"
  top: "conv2_2a"
  param {
    lr_mult: 0
  }
  param {
    lr_mult: 0
  }
  param {
    lr_mult: 0
  }
}
layer {
  name: "scale_conv2_2a"
  type: "Scale"
  bottom: "conv2_2a"
  top: "conv2_2a"
  scale_param {
    bias_term: true
  }
}
layer {
  name: "conv2_2a_relu"
  type: "ReLU"
  bottom: "conv2_2a"
  top: "conv2_2a"
}
layer {
  name: "conv2_2b"
  type: "Convolution"
  bottom: "conv2_2a"
  top: "conv2_2b"
  param {
    lr_mult: 1
  }
  param {
    lr_mult: 2
  }
  convolution_param {
    num_output: 16
    pad: 1
    kernel_size: 3
    stride: 1
    weight_filler {
      type: "msra"
    }
    bias_filler {
      type: "constant"
      value: 0
    }
  }
}
layer {
  name: "bn_conv2_2b"
  type: "BatchNorm"
  bottom: "conv2_2b"
  top: "conv2_2b"
  param {
    lr_mult: 0
  }
  param {
    lr_mult: 0
  }
  param {
    lr_mult: 0
  }
}
layer {
  name: "scale_conv2_2b"
  type: "Scale"
  bottom: "conv2_2b"
  top: "conv2_2b"
  scale_param {
    bias_term: true
  }
}
layer {
  name: "conv2_2"
  type: "Eltwise"
  bottom: "conv2_2b"
  bottom: "conv2_1"
  top: "conv2_2"
}
layer {
  name: "conv2_2_relu"
  type: "ReLU"
  bottom: "conv2_2"
  top: "conv2_2"
}
layer {
  name: "global_pool"
  type: "Pooling"
  bottom: "conv2_2"
  top: "global_pool"
  pooling_param {
    pool: AVE
    kernel_size: 8
    stride: 8
  }
}
layer {
  name: "ip"
  type: "InnerProduct"
  bottom: "global_pool"
  top: "ip"
  inner_product_param {
    num_output: 10
  }
}
layer {
  name: "accuracy"
  type: "Accuracy"
  bottom: "ip"
  bottom: "label"
  top: "accuracy"
}
layer {
  name: "loss"
  type: "SoftmaxWithLoss"
  bottom: "ip"
  bottom: "label"
  top: "loss"
}
I0413 17:14:19.279821  8324 layer_factory.hpp:77] Creating layer cifar
I0413 17:14:19.280349  8324 net.cpp:91] Creating Layer cifar
I0413 17:14:19.280361  8324 net.cpp:399] cifar -> data
I0413 17:14:19.280376  8324 net.cpp:399] cifar -> label
I0413 17:14:19.280387  8324 data_transformer.cpp:25] Loading mean file from: /home/liangjiang/code/residual_network-dy/data/cifar10/mean.binaryproto
I0413 17:14:19.283963  8398 db_lmdb.cpp:38] Opened lmdb /home/liangjiang/code/residual_network-dy/data/cifar10/cifar10_train_lmdb
I0413 17:14:19.330890  8324 data_layer.cpp:41] output data size: 256,3,32,32
I0413 17:14:19.341454  8324 net.cpp:141] Setting up cifar
I0413 17:14:19.341480  8324 net.cpp:148] Top shape: 256 3 32 32 (786432)
I0413 17:14:19.341486  8324 net.cpp:148] Top shape: 256 (256)
I0413 17:14:19.341492  8324 net.cpp:156] Memory required for data: 3146752
I0413 17:14:19.341501  8324 layer_factory.hpp:77] Creating layer label_cifar_1_split
I0413 17:14:19.341519  8324 net.cpp:91] Creating Layer label_cifar_1_split
I0413 17:14:19.341526  8324 net.cpp:425] label_cifar_1_split <- label
I0413 17:14:19.341534  8324 net.cpp:399] label_cifar_1_split -> label_cifar_1_split_0
I0413 17:14:19.341547  8324 net.cpp:399] label_cifar_1_split -> label_cifar_1_split_1
I0413 17:14:19.341600  8324 net.cpp:141] Setting up label_cifar_1_split
I0413 17:14:19.341609  8324 net.cpp:148] Top shape: 256 (256)
I0413 17:14:19.341614  8324 net.cpp:148] Top shape: 256 (256)
I0413 17:14:19.341617  8324 net.cpp:156] Memory required for data: 3148800
I0413 17:14:19.341621  8324 layer_factory.hpp:77] Creating layer conv1
I0413 17:14:19.341636  8324 net.cpp:91] Creating Layer conv1
I0413 17:14:19.341641  8324 net.cpp:425] conv1 <- data
I0413 17:14:19.341650  8324 net.cpp:399] conv1 -> conv1
I0413 17:14:19.602823  8324 net.cpp:141] Setting up conv1
I0413 17:14:19.602870  8324 net.cpp:148] Top shape: 256 16 32 32 (4194304)
I0413 17:14:19.602876  8324 net.cpp:156] Memory required for data: 19926016
I0413 17:14:19.602895  8324 layer_factory.hpp:77] Creating layer bn_conv1
I0413 17:14:19.602910  8324 net.cpp:91] Creating Layer bn_conv1
I0413 17:14:19.602916  8324 net.cpp:425] bn_conv1 <- conv1
I0413 17:14:19.602923  8324 net.cpp:386] bn_conv1 -> conv1 (in-place)
I0413 17:14:19.603083  8324 net.cpp:141] Setting up bn_conv1
I0413 17:14:19.603092  8324 net.cpp:148] Top shape: 256 16 32 32 (4194304)
I0413 17:14:19.603096  8324 net.cpp:156] Memory required for data: 36703232
I0413 17:14:19.603108  8324 layer_factory.hpp:77] Creating layer scale_conv1
I0413 17:14:19.603119  8324 net.cpp:91] Creating Layer scale_conv1
I0413 17:14:19.603124  8324 net.cpp:425] scale_conv1 <- conv1
I0413 17:14:19.603129  8324 net.cpp:386] scale_conv1 -> conv1 (in-place)
I0413 17:14:19.603164  8324 layer_factory.hpp:77] Creating layer scale_conv1
I0413 17:14:19.603263  8324 net.cpp:141] Setting up scale_conv1
I0413 17:14:19.603271  8324 net.cpp:148] Top shape: 256 16 32 32 (4194304)
I0413 17:14:19.603276  8324 net.cpp:156] Memory required for data: 53480448
I0413 17:14:19.603293  8324 layer_factory.hpp:77] Creating layer conv1_relu
I0413 17:14:19.603302  8324 net.cpp:91] Creating Layer conv1_relu
I0413 17:14:19.603305  8324 net.cpp:425] conv1_relu <- conv1
I0413 17:14:19.603312  8324 net.cpp:386] conv1_relu -> conv1 (in-place)
I0413 17:14:19.603845  8324 net.cpp:141] Setting up conv1_relu
I0413 17:14:19.603859  8324 net.cpp:148] Top shape: 256 16 32 32 (4194304)
I0413 17:14:19.603864  8324 net.cpp:156] Memory required for data: 70257664
I0413 17:14:19.603869  8324 layer_factory.hpp:77] Creating layer conv1_conv1_relu_0_split
I0413 17:14:19.603878  8324 net.cpp:91] Creating Layer conv1_conv1_relu_0_split
I0413 17:14:19.603881  8324 net.cpp:425] conv1_conv1_relu_0_split <- conv1
I0413 17:14:19.603888  8324 net.cpp:399] conv1_conv1_relu_0_split -> conv1_conv1_relu_0_split_0
I0413 17:14:19.603896  8324 net.cpp:399] conv1_conv1_relu_0_split -> conv1_conv1_relu_0_split_1
I0413 17:14:19.603932  8324 net.cpp:141] Setting up conv1_conv1_relu_0_split
I0413 17:14:19.603940  8324 net.cpp:148] Top shape: 256 16 32 32 (4194304)
I0413 17:14:19.603945  8324 net.cpp:148] Top shape: 256 16 32 32 (4194304)
I0413 17:14:19.603948  8324 net.cpp:156] Memory required for data: 103812096
I0413 17:14:19.603952  8324 layer_factory.hpp:77] Creating layer conv2_1a
I0413 17:14:19.603965  8324 net.cpp:91] Creating Layer conv2_1a
I0413 17:14:19.603970  8324 net.cpp:425] conv2_1a <- conv1_conv1_relu_0_split_0
I0413 17:14:19.603976  8324 net.cpp:399] conv2_1a -> conv2_1a
I0413 17:14:19.607338  8324 net.cpp:141] Setting up conv2_1a
I0413 17:14:19.607354  8324 net.cpp:148] Top shape: 256 16 32 32 (4194304)
I0413 17:14:19.607359  8324 net.cpp:156] Memory required for data: 120589312
I0413 17:14:19.607369  8324 layer_factory.hpp:77] Creating layer bn_conv2_1a
I0413 17:14:19.607393  8324 net.cpp:91] Creating Layer bn_conv2_1a
I0413 17:14:19.607398  8324 net.cpp:425] bn_conv2_1a <- conv2_1a
I0413 17:14:19.607403  8324 net.cpp:386] bn_conv2_1a -> conv2_1a (in-place)
I0413 17:14:19.607589  8324 net.cpp:141] Setting up bn_conv2_1a
I0413 17:14:19.607597  8324 net.cpp:148] Top shape: 256 16 32 32 (4194304)
I0413 17:14:19.607601  8324 net.cpp:156] Memory required for data: 137366528
I0413 17:14:19.607610  8324 layer_factory.hpp:77] Creating layer scale_conv2_1a
I0413 17:14:19.607619  8324 net.cpp:91] Creating Layer scale_conv2_1a
I0413 17:14:19.607623  8324 net.cpp:425] scale_conv2_1a <- conv2_1a
I0413 17:14:19.607630  8324 net.cpp:386] scale_conv2_1a -> conv2_1a (in-place)
I0413 17:14:19.607664  8324 layer_factory.hpp:77] Creating layer scale_conv2_1a
I0413 17:14:19.607767  8324 net.cpp:141] Setting up scale_conv2_1a
I0413 17:14:19.607779  8324 net.cpp:148] Top shape: 256 16 32 32 (4194304)
I0413 17:14:19.607795  8324 net.cpp:156] Memory required for data: 154143744
I0413 17:14:19.607802  8324 layer_factory.hpp:77] Creating layer conv2_1a_relu
I0413 17:14:19.607808  8324 net.cpp:91] Creating Layer conv2_1a_relu
I0413 17:14:19.607812  8324 net.cpp:425] conv2_1a_relu <- conv2_1a
I0413 17:14:19.607817  8324 net.cpp:386] conv2_1a_relu -> conv2_1a (in-place)
I0413 17:14:19.609501  8324 net.cpp:141] Setting up conv2_1a_relu
I0413 17:14:19.609515  8324 net.cpp:148] Top shape: 256 16 32 32 (4194304)
I0413 17:14:19.609520  8324 net.cpp:156] Memory required for data: 170920960
I0413 17:14:19.609525  8324 layer_factory.hpp:77] Creating layer conv2_1b
I0413 17:14:19.609539  8324 net.cpp:91] Creating Layer conv2_1b
I0413 17:14:19.609544  8324 net.cpp:425] conv2_1b <- conv2_1a
I0413 17:14:19.609551  8324 net.cpp:399] conv2_1b -> conv2_1b
I0413 17:14:19.613183  8324 net.cpp:141] Setting up conv2_1b
I0413 17:14:19.613225  8324 net.cpp:148] Top shape: 256 16 32 32 (4194304)
I0413 17:14:19.613231  8324 net.cpp:156] Memory required for data: 187698176
I0413 17:14:19.613243  8324 layer_factory.hpp:77] Creating layer bn_conv2_1b
I0413 17:14:19.613260  8324 net.cpp:91] Creating Layer bn_conv2_1b
I0413 17:14:19.613266  8324 net.cpp:425] bn_conv2_1b <- conv2_1b
I0413 17:14:19.613276  8324 net.cpp:386] bn_conv2_1b -> conv2_1b (in-place)
I0413 17:14:19.613477  8324 net.cpp:141] Setting up bn_conv2_1b
I0413 17:14:19.613487  8324 net.cpp:148] Top shape: 256 16 32 32 (4194304)
I0413 17:14:19.613490  8324 net.cpp:156] Memory required for data: 204475392
I0413 17:14:19.613508  8324 layer_factory.hpp:77] Creating layer scale_conv2_1b
I0413 17:14:19.613518  8324 net.cpp:91] Creating Layer scale_conv2_1b
I0413 17:14:19.613534  8324 net.cpp:425] scale_conv2_1b <- conv2_1b
I0413 17:14:19.613540  8324 net.cpp:386] scale_conv2_1b -> conv2_1b (in-place)
I0413 17:14:19.613581  8324 layer_factory.hpp:77] Creating layer scale_conv2_1b
I0413 17:14:19.613687  8324 net.cpp:141] Setting up scale_conv2_1b
I0413 17:14:19.613697  8324 net.cpp:148] Top shape: 256 16 32 32 (4194304)
I0413 17:14:19.613700  8324 net.cpp:156] Memory required for data: 221252608
I0413 17:14:19.613708  8324 layer_factory.hpp:77] Creating layer conv2_1
I0413 17:14:19.613716  8324 net.cpp:91] Creating Layer conv2_1
I0413 17:14:19.613720  8324 net.cpp:425] conv2_1 <- conv2_1b
I0413 17:14:19.613726  8324 net.cpp:425] conv2_1 <- conv1_conv1_relu_0_split_1
I0413 17:14:19.613732  8324 net.cpp:399] conv2_1 -> conv2_1
I0413 17:14:19.613757  8324 net.cpp:141] Setting up conv2_1
I0413 17:14:19.613765  8324 net.cpp:148] Top shape: 256 16 32 32 (4194304)
I0413 17:14:19.613768  8324 net.cpp:156] Memory required for data: 238029824
I0413 17:14:19.613772  8324 layer_factory.hpp:77] Creating layer conv2_1_relu
I0413 17:14:19.613778  8324 net.cpp:91] Creating Layer conv2_1_relu
I0413 17:14:19.613782  8324 net.cpp:425] conv2_1_relu <- conv2_1
I0413 17:14:19.613790  8324 net.cpp:386] conv2_1_relu -> conv2_1 (in-place)
I0413 17:14:19.614140  8324 net.cpp:141] Setting up conv2_1_relu
I0413 17:14:19.614151  8324 net.cpp:148] Top shape: 256 16 32 32 (4194304)
I0413 17:14:19.614156  8324 net.cpp:156] Memory required for data: 254807040
I0413 17:14:19.614161  8324 layer_factory.hpp:77] Creating layer conv2_1_conv2_1_relu_0_split
I0413 17:14:19.614169  8324 net.cpp:91] Creating Layer conv2_1_conv2_1_relu_0_split
I0413 17:14:19.614174  8324 net.cpp:425] conv2_1_conv2_1_relu_0_split <- conv2_1
I0413 17:14:19.614181  8324 net.cpp:399] conv2_1_conv2_1_relu_0_split -> conv2_1_conv2_1_relu_0_split_0
I0413 17:14:19.614190  8324 net.cpp:399] conv2_1_conv2_1_relu_0_split -> conv2_1_conv2_1_relu_0_split_1
I0413 17:14:19.614228  8324 net.cpp:141] Setting up conv2_1_conv2_1_relu_0_split
I0413 17:14:19.614235  8324 net.cpp:148] Top shape: 256 16 32 32 (4194304)
I0413 17:14:19.614240  8324 net.cpp:148] Top shape: 256 16 32 32 (4194304)
I0413 17:14:19.614244  8324 net.cpp:156] Memory required for data: 288361472
I0413 17:14:19.614248  8324 layer_factory.hpp:77] Creating layer conv2_2a
I0413 17:14:19.614264  8324 net.cpp:91] Creating Layer conv2_2a
I0413 17:14:19.614267  8324 net.cpp:425] conv2_2a <- conv2_1_conv2_1_relu_0_split_0
I0413 17:14:19.614274  8324 net.cpp:399] conv2_2a -> conv2_2a
I0413 17:14:19.617655  8324 net.cpp:141] Setting up conv2_2a
I0413 17:14:19.617671  8324 net.cpp:148] Top shape: 256 16 32 32 (4194304)
I0413 17:14:19.617676  8324 net.cpp:156] Memory required for data: 305138688
I0413 17:14:19.617683  8324 layer_factory.hpp:77] Creating layer bn_conv2_2a
I0413 17:14:19.617693  8324 net.cpp:91] Creating Layer bn_conv2_2a
I0413 17:14:19.617697  8324 net.cpp:425] bn_conv2_2a <- conv2_2a
I0413 17:14:19.617705  8324 net.cpp:386] bn_conv2_2a -> conv2_2a (in-place)
I0413 17:14:19.617861  8324 net.cpp:141] Setting up bn_conv2_2a
I0413 17:14:19.617869  8324 net.cpp:148] Top shape: 256 16 32 32 (4194304)
I0413 17:14:19.617872  8324 net.cpp:156] Memory required for data: 321915904
I0413 17:14:19.617880  8324 layer_factory.hpp:77] Creating layer scale_conv2_2a
I0413 17:14:19.617889  8324 net.cpp:91] Creating Layer scale_conv2_2a
I0413 17:14:19.617893  8324 net.cpp:425] scale_conv2_2a <- conv2_2a
I0413 17:14:19.617898  8324 net.cpp:386] scale_conv2_2a -> conv2_2a (in-place)
I0413 17:14:19.617933  8324 layer_factory.hpp:77] Creating layer scale_conv2_2a
I0413 17:14:19.618027  8324 net.cpp:141] Setting up scale_conv2_2a
I0413 17:14:19.618041  8324 net.cpp:148] Top shape: 256 16 32 32 (4194304)
I0413 17:14:19.618046  8324 net.cpp:156] Memory required for data: 338693120
I0413 17:14:19.618052  8324 layer_factory.hpp:77] Creating layer conv2_2a_relu
I0413 17:14:19.618058  8324 net.cpp:91] Creating Layer conv2_2a_relu
I0413 17:14:19.618062  8324 net.cpp:425] conv2_2a_relu <- conv2_2a
I0413 17:14:19.618067  8324 net.cpp:386] conv2_2a_relu -> conv2_2a (in-place)
I0413 17:14:19.619842  8324 net.cpp:141] Setting up conv2_2a_relu
I0413 17:14:19.619854  8324 net.cpp:148] Top shape: 256 16 32 32 (4194304)
I0413 17:14:19.619858  8324 net.cpp:156] Memory required for data: 355470336
I0413 17:14:19.619863  8324 layer_factory.hpp:77] Creating layer conv2_2b
I0413 17:14:19.619874  8324 net.cpp:91] Creating Layer conv2_2b
I0413 17:14:19.619880  8324 net.cpp:425] conv2_2b <- conv2_2a
I0413 17:14:19.619887  8324 net.cpp:399] conv2_2b -> conv2_2b
I0413 17:14:19.623340  8324 net.cpp:141] Setting up conv2_2b
I0413 17:14:19.623355  8324 net.cpp:148] Top shape: 256 16 32 32 (4194304)
I0413 17:14:19.623359  8324 net.cpp:156] Memory required for data: 372247552
I0413 17:14:19.623366  8324 layer_factory.hpp:77] Creating layer bn_conv2_2b
I0413 17:14:19.623375  8324 net.cpp:91] Creating Layer bn_conv2_2b
I0413 17:14:19.623380  8324 net.cpp:425] bn_conv2_2b <- conv2_2b
I0413 17:14:19.623386  8324 net.cpp:386] bn_conv2_2b -> conv2_2b (in-place)
I0413 17:14:19.623546  8324 net.cpp:141] Setting up bn_conv2_2b
I0413 17:14:19.623554  8324 net.cpp:148] Top shape: 256 16 32 32 (4194304)
I0413 17:14:19.623558  8324 net.cpp:156] Memory required for data: 389024768
I0413 17:14:19.623572  8324 layer_factory.hpp:77] Creating layer scale_conv2_2b
I0413 17:14:19.623579  8324 net.cpp:91] Creating Layer scale_conv2_2b
I0413 17:14:19.623584  8324 net.cpp:425] scale_conv2_2b <- conv2_2b
I0413 17:14:19.623589  8324 net.cpp:386] scale_conv2_2b -> conv2_2b (in-place)
I0413 17:14:19.623620  8324 layer_factory.hpp:77] Creating layer scale_conv2_2b
I0413 17:14:19.623714  8324 net.cpp:141] Setting up scale_conv2_2b
I0413 17:14:19.623723  8324 net.cpp:148] Top shape: 256 16 32 32 (4194304)
I0413 17:14:19.623726  8324 net.cpp:156] Memory required for data: 405801984
I0413 17:14:19.623733  8324 layer_factory.hpp:77] Creating layer conv2_2
I0413 17:14:19.623740  8324 net.cpp:91] Creating Layer conv2_2
I0413 17:14:19.623744  8324 net.cpp:425] conv2_2 <- conv2_2b
I0413 17:14:19.623749  8324 net.cpp:425] conv2_2 <- conv2_1_conv2_1_relu_0_split_1
I0413 17:14:19.623754  8324 net.cpp:399] conv2_2 -> conv2_2
I0413 17:14:19.623777  8324 net.cpp:141] Setting up conv2_2
I0413 17:14:19.623783  8324 net.cpp:148] Top shape: 256 16 32 32 (4194304)
I0413 17:14:19.623787  8324 net.cpp:156] Memory required for data: 422579200
I0413 17:14:19.623791  8324 layer_factory.hpp:77] Creating layer conv2_2_relu
I0413 17:14:19.623796  8324 net.cpp:91] Creating Layer conv2_2_relu
I0413 17:14:19.623800  8324 net.cpp:425] conv2_2_relu <- conv2_2
I0413 17:14:19.623806  8324 net.cpp:386] conv2_2_relu -> conv2_2 (in-place)
I0413 17:14:19.624402  8324 net.cpp:141] Setting up conv2_2_relu
I0413 17:14:19.624414  8324 net.cpp:148] Top shape: 256 16 32 32 (4194304)
I0413 17:14:19.624418  8324 net.cpp:156] Memory required for data: 439356416
I0413 17:14:19.624423  8324 layer_factory.hpp:77] Creating layer global_pool
I0413 17:14:19.624434  8324 net.cpp:91] Creating Layer global_pool
I0413 17:14:19.624439  8324 net.cpp:425] global_pool <- conv2_2
I0413 17:14:19.624444  8324 net.cpp:399] global_pool -> global_pool
I0413 17:14:19.625555  8324 net.cpp:141] Setting up global_pool
I0413 17:14:19.625569  8324 net.cpp:148] Top shape: 256 16 4 4 (65536)
I0413 17:14:19.625573  8324 net.cpp:156] Memory required for data: 439618560
I0413 17:14:19.625577  8324 layer_factory.hpp:77] Creating layer ip
I0413 17:14:19.625586  8324 net.cpp:91] Creating Layer ip
I0413 17:14:19.625589  8324 net.cpp:425] ip <- global_pool
I0413 17:14:19.625596  8324 net.cpp:399] ip -> ip
I0413 17:14:19.625692  8324 net.cpp:141] Setting up ip
I0413 17:14:19.625700  8324 net.cpp:148] Top shape: 256 10 (2560)
I0413 17:14:19.625708  8324 net.cpp:156] Memory required for data: 439628800
I0413 17:14:19.625715  8324 layer_factory.hpp:77] Creating layer ip_ip_0_split
I0413 17:14:19.625722  8324 net.cpp:91] Creating Layer ip_ip_0_split
I0413 17:14:19.625726  8324 net.cpp:425] ip_ip_0_split <- ip
I0413 17:14:19.625732  8324 net.cpp:399] ip_ip_0_split -> ip_ip_0_split_0
I0413 17:14:19.625738  8324 net.cpp:399] ip_ip_0_split -> ip_ip_0_split_1
I0413 17:14:19.625768  8324 net.cpp:141] Setting up ip_ip_0_split
I0413 17:14:19.625774  8324 net.cpp:148] Top shape: 256 10 (2560)
I0413 17:14:19.625779  8324 net.cpp:148] Top shape: 256 10 (2560)
I0413 17:14:19.625783  8324 net.cpp:156] Memory required for data: 439649280
I0413 17:14:19.625787  8324 layer_factory.hpp:77] Creating layer accuracy
I0413 17:14:19.625797  8324 net.cpp:91] Creating Layer accuracy
I0413 17:14:19.625800  8324 net.cpp:425] accuracy <- ip_ip_0_split_0
I0413 17:14:19.625805  8324 net.cpp:425] accuracy <- label_cifar_1_split_0
I0413 17:14:19.625813  8324 net.cpp:399] accuracy -> accuracy
…
I0413 17:14:19.627579  8324 net.cpp:313] The NetState phase (1) differed from the phase (0) specified by a rule in layer cifar
I0413 17:14:19.627728  8324 net.cpp:49] Initializing net from parameters: 
name: "ResNet-cifar"
state {
  phase: TEST
}
layer {
  name: "cifar"
  type: "Data"
  top: "data"
  top: "label"
  include {
    phase: TEST
  }
  transform_param {
    mean_file: "/home/liangjiang/code/residual_network-dy/data/cifar10/mean.binaryproto"
  }
  data_param {
    source: "/home/liangjiang/code/residual_network-dy/data/cifar10/cifar10_test_lmdb"
    batch_size: 100
    backend: LMDB
  }
}
layer {
  name: "conv1"
  type: "Convolution"
  bottom: "data"
  top: "conv1"
  param {
    lr_mult: 1
  }
  param {
    lr_mult: 2
  }
  convolution_param {
    num_output: 16
    pad: 1
    kernel_size: 3
    weight_filler {
      type: "msra"
    }
    bias_filler {
      type: "constant"
    }
  }
}
layer {
  name: "bn_conv1"
  type: "BatchNorm"
  bottom: "conv1"
  top: "conv1"
  param {
    lr_mult: 0
  }
  param {
    lr_mult: 0
  }
  param {
    lr_mult: 0
  }
}
layer {
  name: "scale_conv1"
  type: "Scale"
  bottom: "conv1"
  top: "conv1"
  scale_param {
    bias_term: true
  }
}
layer {
  name: "conv1_relu"
  type: "ReLU"
  bottom: "conv1"
  top: "conv1"
}
layer {
  name: "conv2_1a"
  type: "Convolution"
  bottom: "conv1"
  top: "conv2_1a"
  param {
    lr_mult: 1
  }
  param {
    lr_mult: 2
  }
  convolution_param {
    num_output: 16
    pad: 1
    kernel_size: 3
    stride: 1
    weight_filler {
      type: "msra"
    }
    bias_filler {
      type: "constant"
      value: 0
    }
  }
}
layer {
  name: "bn_conv2_1a"
  type: "BatchNorm"
  bottom: "conv2_1a"
  top: "conv2_1a"
  param {
    lr_mult: 0
  }
  param {
    lr_mult: 0
  }
  param {
    lr_mult: 0
  }
}
layer {
  name: "scale_conv2_1a"
  type: "Scale"
  bottom: "conv2_1a"
  top: "conv2_1a"
  scale_param {
    bias_term: true
  }
}
layer {
  name: "conv2_1a_relu"
  type: "ReLU"
  bottom: "conv2_1a"
  top: "conv2_1a"
}
layer {
  name: "conv2_1b"
  type: "Convolution"
  bottom: "conv2_1a"
  top: "conv2_1b"
  param {
    lr_mult: 1
  }
  param {
    lr_mult: 2
  }
  convolution_param {
    num_output: 16
    pad: 1
    kernel_size: 3
    stride: 1
    weight_filler {
      type: "msra"
    }
    bias_filler {
      type: "constant"
      value: 0
    }
  }
}
layer {
  name: "bn_conv2_1b"
  type: "BatchNorm"
  bottom: "conv2_1b"
  top: "conv2_1b"
  param {
    lr_mult: 0
  }
  param {
    lr_mult: 0
  }
  param {
    lr_mult: 0
  }
}
layer {
  name: "scale_conv2_1b"
  type: "Scale"
  bottom: "conv2_1b"
  top: "conv2_1b"
  scale_param {
    bias_term: true
  }
}
layer {
  name: "conv2_1"
  type: "Eltwise"
  bottom: "conv2_1b"
  bottom: "conv1"
  top: "conv2_1"
}
layer {
  name: "conv2_1_relu"
  type: "ReLU"
  bottom: "conv2_1"
  top: "conv2_1"
}
layer {
  name: "conv2_2a"
  type: "Convolution"
  bottom: "conv2_1"
  top: "conv2_2a"
  param {
    lr_mult: 1
  }
  param {
    lr_mult: 2
  }
  convolution_param {
    num_output: 16
    pad: 1
    kernel_size: 3
    stride: 1
    weight_filler {
      type: "msra"
    }
    bias_filler {
      type: "constant"
      value: 0
    }
  }
}
layer {
  name: "bn_conv2_2a"
  type: "BatchNorm"
  bottom: "conv2_2a"
  top: "conv2_2a"
  param {
    lr_mult: 0
  }
  param {
    lr_mult: 0
  }
  param {
    lr_mult: 0
  }
}
layer {
  name: "scale_conv2_2a"
  type: "Scale"
  bottom: "conv2_2a"
  top: "conv2_2a"
  scale_param {
    bias_term: true
  }
}
layer {
  name: "conv2_2a_relu"
  type: "ReLU"
  bottom: "conv2_2a"
  top: "conv2_2a"
}
layer {
  name: "conv2_2b"
  type: "Convolution"
  bottom: "conv2_2a"
  top: "conv2_2b"
  param {
    lr_mult: 1
  }
  param {
    lr_mult: 2
  }
  convolution_param {
    num_output: 16
    pad: 1
    kernel_size: 3
    stride: 1
    weight_filler {
      type: "msra"
    }
    bias_filler {
      type: "constant"
      value: 0
    }
  }
}
layer {
  name: "bn_conv2_2b"
  type: "BatchNorm"
  bottom: "conv2_2b"
  top: "conv2_2b"
  param {
    lr_mult: 0
  }
  param {
    lr_mult: 0
  }
  param {
    lr_mult: 0
  }
}
layer {
  name: "scale_conv2_2b"
  type: "Scale"
  bottom: "conv2_2b"
  top: "conv2_2b"
  scale_param {
    bias_term: true
  }
}
layer {
  name: "conv2_2"
  type: "Eltwise"
  bottom: "conv2_2b"
  bottom: "conv2_1"
  top: "conv2_2"
}
layer {
  name: "conv2_2_relu"
  type: "ReLU"
  bottom: "conv2_2"
  top: "conv2_2"
}
layer {
  name: "global_pool"
  type: "Pooling"
  bottom: "conv2_2"
  top: "global_pool"
  pooling_param {
    pool: AVE
    kernel_size: 8
    stride: 8
  }
}
layer {
  name: "ip"
  type: "InnerProduct"
  bottom: "global_pool"
  top: "ip"
  inner_product_param {
    num_output: 10
  }
}
layer {
  name: "accuracy"
  type: "Accuracy"
  bottom: "ip"
  bottom: "label"
  top: "accuracy"
}
layer {
  name: "loss"
  type: "SoftmaxWithLoss"
  bottom: "ip"
  bottom: "label"
  top: "loss"
}
I0413 17:14:19.627846  8324 layer_factory.hpp:77] Creating layer cifar
I0413 17:14:19.628199  8324 net.cpp:91] Creating Layer cifar
I0413 17:14:19.628211  8324 net.cpp:399] cifar -> data
I0413 17:14:19.628221  8324 net.cpp:399] cifar -> label
I0413 17:14:19.628228  8324 data_transformer.cpp:25] Loading mean file from: /home/liangjiang/code/residual_network-dy/data/cifar10/mean.binaryproto
I0413 17:14:19.629640  8409 db_lmdb.cpp:38] Opened lmdb /home/liangjiang/code/residual_network-dy/data/cifar10/cifar10_test_lmdb
I0413 17:14:19.629793  8324 data_layer.cpp:41] output data size: 100,3,32,32
I0413 17:14:19.632693  8324 net.cpp:141] Setting up cifar
I0413 17:14:19.632709  8324 net.cpp:148] Top shape: 100 3 32 32 (307200)
I0413 17:14:19.632715  8324 net.cpp:148] Top shape: 100 (100)
I0413 17:14:19.632719  8324 net.cpp:156] Memory required for data: 1229200
I0413 17:14:19.632725  8324 layer_factory.hpp:77] Creating layer label_cifar_1_split
I0413 17:14:19.632732  8324 net.cpp:91] Creating Layer label_cifar_1_split
I0413 17:14:19.632737  8324 net.cpp:425] label_cifar_1_split <- label
I0413 17:14:19.632774  8324 net.cpp:399] label_cifar_1_split -> label_cifar_1_split_0
I0413 17:14:19.632786  8324 net.cpp:399] label_cifar_1_split -> label_cifar_1_split_1
I0413 17:14:19.632835  8324 net.cpp:141] Setting up label_cifar_1_split
I0413 17:14:19.632843  8324 net.cpp:148] Top shape: 100 (100)
I0413 17:14:19.632848  8324 net.cpp:148] Top shape: 100 (100)
I0413 17:14:19.632854  8324 net.cpp:156] Memory required for data: 1230000
I0413 17:14:19.632859  8324 layer_factory.hpp:77] Creating layer conv1
I0413 17:14:19.632884  8324 net.cpp:91] Creating Layer conv1
I0413 17:14:19.632890  8324 net.cpp:425] conv1 <- data
I0413 17:14:19.632897  8324 net.cpp:399] conv1 -> conv1
I0413 17:14:19.634300  8324 net.cpp:141] Setting up conv1
I0413 17:14:19.634317  8324 net.cpp:148] Top shape: 100 16 32 32 (1638400)
I0413 17:14:19.634321  8324 net.cpp:156] Memory required for data: 7783600
I0413 17:14:19.634335  8324 layer_factory.hpp:77] Creating layer bn_conv1
I0413 17:14:19.634342  8324 net.cpp:91] Creating Layer bn_conv1
I0413 17:14:19.634346  8324 net.cpp:425] bn_conv1 <- conv1
I0413 17:14:19.634354  8324 net.cpp:386] bn_conv1 -> conv1 (in-place)
I0413 17:14:19.634564  8324 net.cpp:141] Setting up bn_conv1
I0413 17:14:19.634574  8324 net.cpp:148] Top shape: 100 16 32 32 (1638400)
I0413 17:14:19.634578  8324 net.cpp:156] Memory required for data: 14337200
I0413 17:14:19.634590  8324 layer_factory.hpp:77] Creating layer scale_conv1
I0413 17:14:19.634603  8324 net.cpp:91] Creating Layer scale_conv1
I0413 17:14:19.634608  8324 net.cpp:425] scale_conv1 <- conv1
I0413 17:14:19.634616  8324 net.cpp:386] scale_conv1 -> conv1 (in-place)
I0413 17:14:19.634665  8324 layer_factory.hpp:77] Creating layer scale_conv1
I0413 17:14:19.635098  8324 net.cpp:141] Setting up scale_conv1
I0413 17:14:19.635112  8324 net.cpp:148] Top shape: 100 16 32 32 (1638400)
I0413 17:14:19.635115  8324 net.cpp:156] Memory required for data: 20890800
I0413 17:14:19.635128  8324 layer_factory.hpp:77] Creating layer conv1_relu
I0413 17:14:19.635134  8324 net.cpp:91] Creating Layer conv1_relu
I0413 17:14:19.635138  8324 net.cpp:425] conv1_relu <- conv1
I0413 17:14:19.635143  8324 net.cpp:386] conv1_relu -> conv1 (in-place)
I0413 17:14:19.635314  8324 net.cpp:141] Setting up conv1_relu
I0413 17:14:19.635325  8324 net.cpp:148] Top shape: 100 16 32 32 (1638400)
I0413 17:14:19.635329  8324 net.cpp:156] Memory required for data: 27444400
I0413 17:14:19.635334  8324 layer_factory.hpp:77] Creating layer conv1_conv1_relu_0_split
I0413 17:14:19.635340  8324 net.cpp:91] Creating Layer conv1_conv1_relu_0_split
I0413 17:14:19.635347  8324 net.cpp:425] conv1_conv1_relu_0_split <- conv1
I0413 17:14:19.635354  8324 net.cpp:399] conv1_conv1_relu_0_split -> conv1_conv1_relu_0_split_0
I0413 17:14:19.635361  8324 net.cpp:399] conv1_conv1_relu_0_split -> conv1_conv1_relu_0_split_1
I0413 17:14:19.635401  8324 net.cpp:141] Setting up conv1_conv1_relu_0_split
I0413 17:14:19.635408  8324 net.cpp:148] Top shape: 100 16 32 32 (1638400)
I0413 17:14:19.635413  8324 net.cpp:148] Top shape: 100 16 32 32 (1638400)
I0413 17:14:19.635417  8324 net.cpp:156] Memory required for data: 40551600
I0413 17:14:19.635428  8324 layer_factory.hpp:77] Creating layer conv2_1a
I0413 17:14:19.635439  8324 net.cpp:91] Creating Layer conv2_1a
I0413 17:14:19.635443  8324 net.cpp:425] conv2_1a <- conv1_conv1_relu_0_split_0
I0413 17:14:19.635452  8324 net.cpp:399] conv2_1a -> conv2_1a
I0413 17:14:19.637547  8324 net.cpp:141] Setting up conv2_1a
I0413 17:14:19.637563  8324 net.cpp:148] Top shape: 100 16 32 32 (1638400)
I0413 17:14:19.637568  8324 net.cpp:156] Memory required for data: 47105200
I0413 17:14:19.637578  8324 layer_factory.hpp:77] Creating layer bn_conv2_1a
I0413 17:14:19.637588  8324 net.cpp:91] Creating Layer bn_conv2_1a
I0413 17:14:19.637605  8324 net.cpp:425] bn_conv2_1a <- conv2_1a
I0413 17:14:19.637612  8324 net.cpp:386] bn_conv2_1a -> conv2_1a (in-place)
I0413 17:14:19.637791  8324 net.cpp:141] Setting up bn_conv2_1a
I0413 17:14:19.637799  8324 net.cpp:148] Top shape: 100 16 32 32 (1638400)
I0413 17:14:19.637804  8324 net.cpp:156] Memory required for data: 53658800
I0413 17:14:19.637811  8324 layer_factory.hpp:77] Creating layer scale_conv2_1a
I0413 17:14:19.637819  8324 net.cpp:91] Creating Layer scale_conv2_1a
I0413 17:14:19.637823  8324 net.cpp:425] scale_conv2_1a <- conv2_1a
I0413 17:14:19.637830  8324 net.cpp:386] scale_conv2_1a -> conv2_1a (in-place)
I0413 17:14:19.637867  8324 layer_factory.hpp:77] Creating layer scale_conv2_1a
I0413 17:14:19.637969  8324 net.cpp:141] Setting up scale_conv2_1a
I0413 17:14:19.637977  8324 net.cpp:148] Top shape: 100 16 32 32 (1638400)
I0413 17:14:19.637981  8324 net.cpp:156] Memory required for data: 60212400
I0413 17:14:19.637987  8324 layer_factory.hpp:77] Creating layer conv2_1a_relu
I0413 17:14:19.637994  8324 net.cpp:91] Creating Layer conv2_1a_relu
I0413 17:14:19.638005  8324 net.cpp:425] conv2_1a_relu <- conv2_1a
I0413 17:14:19.638015  8324 net.cpp:386] conv2_1a_relu -> conv2_1a (in-place)
I0413 17:14:19.638656  8324 net.cpp:141] Setting up conv2_1a_relu
I0413 17:14:19.638675  8324 net.cpp:148] Top shape: 100 16 32 32 (1638400)
I0413 17:14:19.638680  8324 net.cpp:156] Memory required for data: 66766000
I0413 17:14:19.638684  8324 layer_factory.hpp:77] Creating layer conv2_1b
I0413 17:14:19.638696  8324 net.cpp:91] Creating Layer conv2_1b
I0413 17:14:19.638701  8324 net.cpp:425] conv2_1b <- conv2_1a
I0413 17:14:19.638710  8324 net.cpp:399] conv2_1b -> conv2_1b
I0413 17:14:19.641530  8324 net.cpp:141] Setting up conv2_1b
I0413 17:14:19.641549  8324 net.cpp:148] Top shape: 100 16 32 32 (1638400)
I0413 17:14:19.641554  8324 net.cpp:156] Memory required for data: 73319600
I0413 17:14:19.641563  8324 layer_factory.hpp:77] Creating layer bn_conv2_1b
I0413 17:14:19.641574  8324 net.cpp:91] Creating Layer bn_conv2_1b
I0413 17:14:19.641582  8324 net.cpp:425] bn_conv2_1b <- conv2_1b
I0413 17:14:19.641588  8324 net.cpp:386] bn_conv2_1b -> conv2_1b (in-place)
I0413 17:14:19.641775  8324 net.cpp:141] Setting up bn_conv2_1b
I0413 17:14:19.641784  8324 net.cpp:148] Top shape: 100 16 32 32 (1638400)
I0413 17:14:19.641796  8324 net.cpp:156] Memory required for data: 79873200
I0413 17:14:19.641809  8324 layer_factory.hpp:77] Creating layer scale_conv2_1b
I0413 17:14:19.641818  8324 net.cpp:91] Creating Layer scale_conv2_1b
I0413 17:14:19.641821  8324 net.cpp:425] scale_conv2_1b <- conv2_1b
I0413 17:14:19.641827  8324 net.cpp:386] scale_conv2_1b -> conv2_1b (in-place)
I0413 17:14:19.641871  8324 layer_factory.hpp:77] Creating layer scale_conv2_1b
I0413 17:14:19.641980  8324 net.cpp:141] Setting up scale_conv2_1b
I0413 17:14:19.641989  8324 net.cpp:148] Top shape: 100 16 32 32 (1638400)
I0413 17:14:19.641993  8324 net.cpp:156] Memory required for data: 86426800
I0413 17:14:19.642000  8324 layer_factory.hpp:77] Creating layer conv2_1
I0413 17:14:19.642007  8324 net.cpp:91] Creating Layer conv2_1
I0413 17:14:19.642012  8324 net.cpp:425] conv2_1 <- conv2_1b
I0413 17:14:19.642024  8324 net.cpp:425] conv2_1 <- conv1_conv1_relu_0_split_1
I0413 17:14:19.642031  8324 net.cpp:399] conv2_1 -> conv2_1
I0413 17:14:19.642056  8324 net.cpp:141] Setting up conv2_1
I0413 17:14:19.642063  8324 net.cpp:148] Top shape: 100 16 32 32 (1638400)
I0413 17:14:19.642067  8324 net.cpp:156] Memory required for data: 92980400
I0413 17:14:19.642072  8324 layer_factory.hpp:77] Creating layer conv2_1_relu
I0413 17:14:19.642081  8324 net.cpp:91] Creating Layer conv2_1_relu
I0413 17:14:19.642084  8324 net.cpp:425] conv2_1_relu <- conv2_1
I0413 17:14:19.642091  8324 net.cpp:386] conv2_1_relu -> conv2_1 (in-place)
I0413 17:14:19.642547  8324 net.cpp:141] Setting up conv2_1_relu
I0413 17:14:19.642559  8324 net.cpp:148] Top shape: 100 16 32 32 (1638400)
I0413 17:14:19.642562  8324 net.cpp:156] Memory required for data: 99534000
I0413 17:14:19.642567  8324 layer_factory.hpp:77] Creating layer conv2_1_conv2_1_relu_0_split
I0413 17:14:19.642583  8324 net.cpp:91] Creating Layer conv2_1_conv2_1_relu_0_split
I0413 17:14:19.642588  8324 net.cpp:425] conv2_1_conv2_1_relu_0_split <- conv2_1
I0413 17:14:19.642595  8324 net.cpp:399] conv2_1_conv2_1_relu_0_split -> conv2_1_conv2_1_relu_0_split_0
I0413 17:14:19.642602  8324 net.cpp:399] conv2_1_conv2_1_relu_0_split -> conv2_1_conv2_1_relu_0_split_1
I0413 17:14:19.642643  8324 net.cpp:141] Setting up conv2_1_conv2_1_relu_0_split
I0413 17:14:19.642657  8324 net.cpp:148] Top shape: 100 16 32 32 (1638400)
I0413 17:14:19.642662  8324 net.cpp:148] Top shape: 100 16 32 32 (1638400)
I0413 17:14:19.642665  8324 net.cpp:156] Memory required for data: 112641200
I0413 17:14:19.642669  8324 layer_factory.hpp:77] Creating layer conv2_2a
I0413 17:14:19.642681  8324 net.cpp:91] Creating Layer conv2_2a
I0413 17:14:19.642690  8324 net.cpp:425] conv2_2a <- conv2_1_conv2_1_relu_0_split_0
I0413 17:14:19.642699  8324 net.cpp:399] conv2_2a -> conv2_2a
I0413 17:14:19.646330  8324 net.cpp:141] Setting up conv2_2a
I0413 17:14:19.646356  8324 net.cpp:148] Top shape: 100 16 32 32 (1638400)
I0413 17:14:19.646361  8324 net.cpp:156] Memory required for data: 119194800
I0413 17:14:19.646369  8324 layer_factory.hpp:77] Creating layer bn_conv2_2a
I0413 17:14:19.646379  8324 net.cpp:91] Creating Layer bn_conv2_2a
I0413 17:14:19.646385  8324 net.cpp:425] bn_conv2_2a <- conv2_2a
I0413 17:14:19.646391  8324 net.cpp:386] bn_conv2_2a -> conv2_2a (in-place)
I0413 17:14:19.646584  8324 net.cpp:141] Setting up bn_conv2_2a
I0413 17:14:19.646592  8324 net.cpp:148] Top shape: 100 16 32 32 (1638400)
I0413 17:14:19.646608  8324 net.cpp:156] Memory required for data: 125748400
I0413 17:14:19.646617  8324 layer_factory.hpp:77] Creating layer scale_conv2_2a
I0413 17:14:19.646625  8324 net.cpp:91] Creating Layer scale_conv2_2a
I0413 17:14:19.646633  8324 net.cpp:425] scale_conv2_2a <- conv2_2a
I0413 17:14:19.646641  8324 net.cpp:386] scale_conv2_2a -> conv2_2a (in-place)
I0413 17:14:19.646685  8324 layer_factory.hpp:77] Creating layer scale_conv2_2a
I0413 17:14:19.646792  8324 net.cpp:141] Setting up scale_conv2_2a
I0413 17:14:19.646801  8324 net.cpp:148] Top shape: 100 16 32 32 (1638400)
I0413 17:14:19.646806  8324 net.cpp:156] Memory required for data: 132302000
I0413 17:14:19.646812  8324 layer_factory.hpp:77] Creating layer conv2_2a_relu
I0413 17:14:19.646821  8324 net.cpp:91] Creating Layer conv2_2a_relu
I0413 17:14:19.646824  8324 net.cpp:425] conv2_2a_relu <- conv2_2a
I0413 17:14:19.646831  8324 net.cpp:386] conv2_2a_relu -> conv2_2a (in-place)
I0413 17:14:19.647004  8324 net.cpp:141] Setting up conv2_2a_relu
I0413 17:14:19.647023  8324 net.cpp:148] Top shape: 100 16 32 32 (1638400)
I0413 17:14:19.647027  8324 net.cpp:156] Memory required for data: 138855600
I0413 17:14:19.647032  8324 layer_factory.hpp:77] Creating layer conv2_2b
I0413 17:14:19.647047  8324 net.cpp:91] Creating Layer conv2_2b
I0413 17:14:19.647053  8324 net.cpp:425] conv2_2b <- conv2_2a
I0413 17:14:19.647059  8324 net.cpp:399] conv2_2b -> conv2_2b
I0413 17:14:19.649210  8324 net.cpp:141] Setting up conv2_2b
I0413 17:14:19.649230  8324 net.cpp:148] Top shape: 100 16 32 32 (1638400)
I0413 17:14:19.649235  8324 net.cpp:156] Memory required for data: 145409200
I0413 17:14:19.649251  8324 layer_factory.hpp:77] Creating layer bn_conv2_2b
I0413 17:14:19.649260  8324 net.cpp:91] Creating Layer bn_conv2_2b
I0413 17:14:19.649266  8324 net.cpp:425] bn_conv2_2b <- conv2_2b
I0413 17:14:19.649276  8324 net.cpp:386] bn_conv2_2b -> conv2_2b (in-place)
I0413 17:14:19.649484  8324 net.cpp:141] Setting up bn_conv2_2b
I0413 17:14:19.649495  8324 net.cpp:148] Top shape: 100 16 32 32 (1638400)
I0413 17:14:19.649505  8324 net.cpp:156] Memory required for data: 151962800
I0413 17:14:19.649519  8324 layer_factory.hpp:77] Creating layer scale_conv2_2b
I0413 17:14:19.649526  8324 net.cpp:91] Creating Layer scale_conv2_2b
I0413 17:14:19.649533  8324 net.cpp:425] scale_conv2_2b <- conv2_2b
I0413 17:14:19.649543  8324 net.cpp:386] scale_conv2_2b -> conv2_2b (in-place)
I0413 17:14:19.649586  8324 layer_factory.hpp:77] Creating layer scale_conv2_2b
I0413 17:14:19.649694  8324 net.cpp:141] Setting up scale_conv2_2b
I0413 17:14:19.649703  8324 net.cpp:148] Top shape: 100 16 32 32 (1638400)
I0413 17:14:19.649710  8324 net.cpp:156] Memory required for data: 158516400
I0413 17:14:19.649718  8324 layer_factory.hpp:77] Creating layer conv2_2
I0413 17:14:19.649725  8324 net.cpp:91] Creating Layer conv2_2
I0413 17:14:19.649729  8324 net.cpp:425] conv2_2 <- conv2_2b
I0413 17:14:19.649735  8324 net.cpp:425] conv2_2 <- conv2_1_conv2_1_relu_0_split_1
I0413 17:14:19.649741  8324 net.cpp:399] conv2_2 -> conv2_2
I0413 17:14:19.649767  8324 net.cpp:141] Setting up conv2_2
I0413 17:14:19.649775  8324 net.cpp:148] Top shape: 100 16 32 32 (1638400)
I0413 17:14:19.649780  8324 net.cpp:156] Memory required for data: 165070000
I0413 17:14:19.649786  8324 layer_factory.hpp:77] Creating layer conv2_2_relu
I0413 17:14:19.649797  8324 net.cpp:91] Creating Layer conv2_2_relu
I0413 17:14:19.649801  8324 net.cpp:425] conv2_2_relu <- conv2_2
I0413 17:14:19.649807  8324 net.cpp:386] conv2_2_relu -> conv2_2 (in-place)
I0413 17:14:19.650336  8324 net.cpp:141] Setting up conv2_2_relu
I0413 17:14:19.650349  8324 net.cpp:148] Top shape: 100 16 32 32 (1638400)
I0413 17:14:19.650354  8324 net.cpp:156] Memory required for data: 171623600
I0413 17:14:19.650359  8324 layer_factory.hpp:77] Creating layer global_pool
I0413 17:14:19.650369  8324 net.cpp:91] Creating Layer global_pool
I0413 17:14:19.650374  8324 net.cpp:425] global_pool <- conv2_2
I0413 17:14:19.650380  8324 net.cpp:399] global_pool -> global_pool
I0413 17:14:19.651458  8324 net.cpp:141] Setting up global_pool
I0413 17:14:19.651470  8324 net.cpp:148] Top shape: 100 16 4 4 (25600)
I0413 17:14:19.651474  8324 net.cpp:156] Memory required for data: 171726000
I0413 17:14:19.651479  8324 layer_factory.hpp:77] Creating layer ip
I0413 17:14:19.651486  8324 net.cpp:91] Creating Layer ip
I0413 17:14:19.651491  8324 net.cpp:425] ip <- global_pool
I0413 17:14:19.651499  8324 net.cpp:399] ip -> ip
I0413 17:14:19.651612  8324 net.cpp:141] Setting up ip
I0413 17:14:19.651619  8324 net.cpp:148] Top shape: 100 10 (1000)
I0413 17:14:19.651623  8324 net.cpp:156] Memory required for data: 171730000
I0413 17:14:19.651631  8324 layer_factory.hpp:77] Creating layer ip_ip_0_split
I0413 17:14:19.651638  8324 net.cpp:91] Creating Layer ip_ip_0_split
I0413 17:14:19.651641  8324 net.cpp:425] ip_ip_0_split <- ip
I0413 17:14:19.651649  8324 net.cpp:399] ip_ip_0_split -> ip_ip_0_split_0
I0413 17:14:19.651656  8324 net.cpp:399] ip_ip_0_split -> ip_ip_0_split_1
I0413 17:14:19.651691  8324 net.cpp:141] Setting up ip_ip_0_split
I0413 17:14:19.651700  8324 net.cpp:148] Top shape: 100 10 (1000)
I0413 17:14:19.651705  8324 net.cpp:148] Top shape: 100 10 (1000)
I0413 17:14:19.651708  8324 net.cpp:156] Memory required for data: 171738000
I0413 17:14:19.651712  8324 layer_factory.hpp:77] Creating layer accuracy
I0413 17:14:19.651720  8324 net.cpp:91] Creating Layer accuracy
I0413 17:14:19.651723  8324 net.cpp:425] accuracy <- ip_ip_0_split_0
I0413 17:14:19.651728  8324 net.cpp:425] accuracy <- label_cifar_1_split_0
I0413 17:14:19.651734  8324 net.cpp:399] accuracy -> accuracy
…
I0413 17:21:11.792722 28395 solver.cpp:91] Creating training net from net file: prototxt/DyResNet/ResNet-cifar2.prototxt
I0413 17:21:11.793638 28395 net.cpp:313] The NetState phase (0) differed from the phase (1) specified by a rule in layer cifar
I0413 17:21:11.793867 28395 net.cpp:49] Initializing net from parameters: 
name: "ResNet-cifar"
state {
  phase: TRAIN
}
layer {
  name: "cifar"
  type: "Data"
  top: "data"
  top: "label"
  include {
    phase: TRAIN
  }
  transform_param {
    mirror: true
    mean_file: "data/cifar10/mean.binaryproto"
  }
  data_param {
    source: "data/cifar10/cifar10_train_lmdb"
    batch_size: 256
    backend: LMDB
  }
}
layer {
  name: "conv1"
  type: "Convolution"
  bottom: "data"
  top: "conv1"
  param {
    lr_mult: 1
  }
  param {
    lr_mult: 2
  }
  convolution_param {
    num_output: 16
    pad: 1
    kernel_size: 3
    weight_filler {
      type: "msra"
    }
    bias_filler {
      type: "constant"
    }
  }
}
layer {
  name: "bn_conv1"
  type: "BatchNorm"
  bottom: "conv1"
  top: "conv1"
  param {
    lr_mult: 0
  }
  param {
    lr_mult: 0
  }
  param {
    lr_mult: 0
  }
}
layer {
  name: "scale_conv1"
  type: "Scale"
  bottom: "conv1"
  top: "conv1"
  scale_param {
    bias_term: true
  }
}
layer {
  name: "conv1_relu"
  type: "ReLU"
  bottom: "conv1"
  top: "conv1"
}
layer {
  name: "conv2_1a"
  type: "Convolution"
  bottom: "conv1"
  top: "conv2_1a"
  param {
    lr_mult: 1
  }
  param {
    lr_mult: 2
  }
  convolution_param {
    num_output: 16
    pad: 1
    kernel_size: 3
    stride: 1
    weight_filler {
      type: "msra"
    }
    bias_filler {
      type: "constant"
      value: 0
    }
  }
}
layer {
  name: "bn_conv2_1a"
  type: "BatchNorm"
  bottom: "conv2_1a"
  top: "conv2_1a"
  param {
    lr_mult: 0
  }
  param {
    lr_mult: 0
  }
  param {
    lr_mult: 0
  }
}
layer {
  name: "scale_conv2_1a"
  type: "Scale"
  bottom: "conv2_1a"
  top: "conv2_1a"
  scale_param {
    bias_term: true
  }
}
layer {
  name: "conv2_1a_relu"
  type: "ReLU"
  bottom: "conv2_1a"
  top: "conv2_1a"
}
layer {
  name: "conv2_1b"
  type: "Convolution"
  bottom: "conv2_1a"
  top: "conv2_1b"
  param {
    lr_mult: 1
  }
  param {
    lr_mult: 2
  }
  convolution_param {
    num_output: 16
    pad: 1
    kernel_size: 3
    stride: 1
    weight_filler {
      type: "msra"
    }
    bias_filler {
      type: "constant"
      value: 0
    }
  }
}
layer {
  name: "bn_conv2_1b"
  type: "BatchNorm"
  bottom: "conv2_1b"
  top: "conv2_1b"
  param {
    lr_mult: 0
  }
  param {
    lr_mult: 0
  }
  param {
    lr_mult: 0
  }
}
layer {
  name: "scale_conv2_1b"
  type: "Scale"
  bottom: "conv2_1b"
  top: "conv2_1b"
  scale_param {
    bias_term: true
  }
}
layer {
  name: "conv2_1"
  type: "Eltwise"
  bottom: "conv2_1b"
  bottom: "conv1"
  top: "conv2_1"
}
layer {
  name: "conv2_1_relu"
  type: "ReLU"
  bottom: "conv2_1"
  top: "conv2_1"
}
layer {
  name: "conv2_2a"
  type: "Convolution"
  bottom: "conv2_1"
  top: "conv2_2a"
  param {
    lr_mult: 1
  }
  param {
    lr_mult: 2
  }
  convolution_param {
    num_output: 16
    pad: 1
    kernel_size: 3
    stride: 1
    weight_filler {
      type: "msra"
    }
    bias_filler {
      type: "constant"
      value: 0
    }
  }
}
layer {
  name: "bn_conv2_2a"
  type: "BatchNorm"
  bottom: "conv2_2a"
  top: "conv2_2a"
  param {
    lr_mult: 0
  }
  param {
    lr_mult: 0
  }
  param {
    lr_mult: 0
  }
}
layer {
  name: "scale_conv2_2a"
  type: "Scale"
  bottom: "conv2_2a"
  top: "conv2_2a"
  scale_param {
    bias_term: true
  }
}
layer {
  name: "conv2_2a_relu"
  type: "ReLU"
  bottom: "conv2_2a"
  top: "conv2_2a"
}
layer {
  name: "conv2_2b"
  type: "Convolution"
  bottom: "conv2_2a"
  top: "conv2_2b"
  param {
    lr_mult: 1
  }
  param {
    lr_mult: 2
  }
  convolution_param {
    num_output: 16
    pad: 1
    kernel_size: 3
    stride: 1
    weight_filler {
      type: "msra"
    }
    bias_filler {
      type: "constant"
      value: 0
    }
  }
}
layer {
  name: "bn_conv2_2b"
  type: "BatchNorm"
  bottom: "conv2_2b"
  top: "conv2_2b"
  param {
    lr_mult: 0
  }
  param {
    lr_mult: 0
  }
  param {
    lr_mult: 0
  }
}
layer {
  name: "scale_conv2_2b"
  type: "Scale"
  bottom: "conv2_2b"
  top: "conv2_2b"
  scale_param {
    bias_term: true
  }
}
layer {
  name: "conv2_2"
  type: "Eltwise"
  bottom: "conv2_2b"
  bottom: "conv2_1"
  top: "conv2_2"
}
layer {
  name: "conv2_2_relu"
  type: "ReLU"
  bottom: "conv2_2"
  top: "conv2_2"
}
layer {
  name: "conv2_3a"
  type: "Convolution"
  bottom: "conv2_2"
  top: "conv2_3a"
  param {
    lr_mult: 1
  }
  param {
    lr_mult: 2
  }
  convolution_param {
    num_output: 16
    pad: 1
    kernel_size: 3
    stride: 1
    weight_filler {
      type: "msra"
    }
    bias_filler {
      type: "constant"
      value: 0
    }
  }
}
layer {
  name: "bn_conv2_3a"
  type: "BatchNorm"
  bottom: "conv2_3a"
  top: "conv2_3a"
  param {
    lr_mult: 0
  }
  param {
    lr_mult: 0
  }
  param {
    lr_mult: 0
  }
}
layer {
  name: "scale_conv2_3a"
  type: "Scale"
  bottom: "conv2_3a"
  top: "conv2_3a"
  scale_param {
    bias_term: true
  }
}
layer {
  name: "conv2_3a_relu"
  type: "ReLU"
  bottom: "conv2_3a"
  top: "conv2_3a"
}
layer {
  name: "conv2_3b"
  type: "Convolution"
  bottom: "conv2_3a"
  top: "conv2_3b"
  param {
    lr_mult: 1
  }
  param {
    lr_mult: 2
  }
  convolution_param {
    num_output: 16
    pad: 1
    kernel_size: 3
    stride: 1
    weight_filler {
      type: "msra"
    }
    bias_filler {
      type: "constant"
      value: 0
    }
  }
}
layer {
  name: "bn_conv2_3b"
  type: "BatchNorm"
  bottom: "conv2_3b"
  top: "conv2_3b"
  param {
    lr_mult: 0
  }
  param {
    lr_mult: 0
  }
  param {
    lr_mult: 0
  }
}
layer {
  name: "scale_conv2_3b"
  type: "Scale"
  bottom: "conv2_3b"
  top: "conv2_3b"
  scale_param {
    bias_term: true
  }
}
layer {
  name: "conv2_3"
  type: "Eltwise"
  bottom: "conv2_3b"
  bottom: "conv2_2"
  top: "conv2_3"
}
layer {
  name: "conv2_3_relu"
  type: "ReLU"
  bottom: "conv2_3"
  top: "conv2_3"
}
layer {
  name: "global_pool"
  type: "Pooling"
  bottom: "conv2_3"
  top: "global_pool"
  pooling_param {
    pool: AVE
    kernel_size: 8
    stride: 8
  }
}
layer {
  name: "ip"
  type: "InnerProduct"
  bottom: "global_pool"
  top: "ip"
  inner_product_param {
    num_output: 10
  }
}
layer {
  name: "accuracy"
  type: "Accuracy"
  bottom: "ip"
  bottom: "label"
  top: "accuracy"
}
layer {
  name: "loss"
  type: "SoftmaxWithLoss"
  bottom: "ip"
  bottom: "label"
  top: "loss"
}
I0413 17:21:11.794080 28395 layer_factory.hpp:77] Creating layer cifar
I0413 17:21:11.795074 28395 net.cpp:91] Creating Layer cifar
I0413 17:21:11.795091 28395 net.cpp:399] cifar -> data
I0413 17:21:11.795106 28395 net.cpp:399] cifar -> label
I0413 17:21:11.795120 28395 data_transformer.cpp:25] Loading mean file from: data/cifar10/mean.binaryproto
I0413 17:21:11.811081 28444 db_lmdb.cpp:38] Opened lmdb data/cifar10/cifar10_train_lmdb
I0413 17:21:11.838934 28395 data_layer.cpp:41] output data size: 256,3,32,32
I0413 17:21:11.850752 28395 net.cpp:141] Setting up cifar
I0413 17:21:11.850776 28395 net.cpp:148] Top shape: 256 3 32 32 (786432)
I0413 17:21:11.850785 28395 net.cpp:148] Top shape: 256 (256)
I0413 17:21:11.850790 28395 net.cpp:156] Memory required for data: 3146752
I0413 17:21:11.850800 28395 layer_factory.hpp:77] Creating layer label_cifar_1_split
I0413 17:21:11.850850 28395 net.cpp:91] Creating Layer label_cifar_1_split
I0413 17:21:11.850860 28395 net.cpp:425] label_cifar_1_split <- label
I0413 17:21:11.850870 28395 net.cpp:399] label_cifar_1_split -> label_cifar_1_split_0
I0413 17:21:11.850883 28395 net.cpp:399] label_cifar_1_split -> label_cifar_1_split_1
I0413 17:21:11.850935 28395 net.cpp:141] Setting up label_cifar_1_split
I0413 17:21:11.850945 28395 net.cpp:148] Top shape: 256 (256)
I0413 17:21:11.850951 28395 net.cpp:148] Top shape: 256 (256)
I0413 17:21:11.850956 28395 net.cpp:156] Memory required for data: 3148800
I0413 17:21:11.850961 28395 layer_factory.hpp:77] Creating layer conv1
I0413 17:21:11.850980 28395 net.cpp:91] Creating Layer conv1
I0413 17:21:11.850986 28395 net.cpp:425] conv1 <- data
I0413 17:21:11.850996 28395 net.cpp:399] conv1 -> conv1
I0413 17:21:12.128352 28395 net.cpp:141] Setting up conv1
I0413 17:21:12.128399 28395 net.cpp:148] Top shape: 256 16 32 32 (4194304)
I0413 17:21:12.128406 28395 net.cpp:156] Memory required for data: 19926016
I0413 17:21:12.128424 28395 layer_factory.hpp:77] Creating layer bn_conv1
I0413 17:21:12.128440 28395 net.cpp:91] Creating Layer bn_conv1
I0413 17:21:12.128445 28395 net.cpp:425] bn_conv1 <- conv1
I0413 17:21:12.128453 28395 net.cpp:386] bn_conv1 -> conv1 (in-place)
I0413 17:21:12.128607 28395 net.cpp:141] Setting up bn_conv1
I0413 17:21:12.128615 28395 net.cpp:148] Top shape: 256 16 32 32 (4194304)
I0413 17:21:12.128619 28395 net.cpp:156] Memory required for data: 36703232
I0413 17:21:12.128630 28395 layer_factory.hpp:77] Creating layer scale_conv1
I0413 17:21:12.128640 28395 net.cpp:91] Creating Layer scale_conv1
I0413 17:21:12.128645 28395 net.cpp:425] scale_conv1 <- conv1
I0413 17:21:12.128650 28395 net.cpp:386] scale_conv1 -> conv1 (in-place)
I0413 17:21:12.128684 28395 layer_factory.hpp:77] Creating layer scale_conv1
I0413 17:21:12.128777 28395 net.cpp:141] Setting up scale_conv1
I0413 17:21:12.128785 28395 net.cpp:148] Top shape: 256 16 32 32 (4194304)
I0413 17:21:12.128789 28395 net.cpp:156] Memory required for data: 53480448
I0413 17:21:12.128796 28395 layer_factory.hpp:77] Creating layer conv1_relu
I0413 17:21:12.128803 28395 net.cpp:91] Creating Layer conv1_relu
I0413 17:21:12.128808 28395 net.cpp:425] conv1_relu <- conv1
I0413 17:21:12.128813 28395 net.cpp:386] conv1_relu -> conv1 (in-place)
I0413 17:21:12.129380 28395 net.cpp:141] Setting up conv1_relu
I0413 17:21:12.129395 28395 net.cpp:148] Top shape: 256 16 32 32 (4194304)
I0413 17:21:12.129400 28395 net.cpp:156] Memory required for data: 70257664
I0413 17:21:12.129405 28395 layer_factory.hpp:77] Creating layer conv1_conv1_relu_0_split
I0413 17:21:12.129423 28395 net.cpp:91] Creating Layer conv1_conv1_relu_0_split
I0413 17:21:12.129428 28395 net.cpp:425] conv1_conv1_relu_0_split <- conv1
I0413 17:21:12.129436 28395 net.cpp:399] conv1_conv1_relu_0_split -> conv1_conv1_relu_0_split_0
I0413 17:21:12.129456 28395 net.cpp:399] conv1_conv1_relu_0_split -> conv1_conv1_relu_0_split_1
I0413 17:21:12.129500 28395 net.cpp:141] Setting up conv1_conv1_relu_0_split
I0413 17:21:12.129508 28395 net.cpp:148] Top shape: 256 16 32 32 (4194304)
I0413 17:21:12.129513 28395 net.cpp:148] Top shape: 256 16 32 32 (4194304)
I0413 17:21:12.129516 28395 net.cpp:156] Memory required for data: 103812096
I0413 17:21:12.129520 28395 layer_factory.hpp:77] Creating layer conv2_1a
I0413 17:21:12.129531 28395 net.cpp:91] Creating Layer conv2_1a
I0413 17:21:12.129536 28395 net.cpp:425] conv2_1a <- conv1_conv1_relu_0_split_0
I0413 17:21:12.129542 28395 net.cpp:399] conv2_1a -> conv2_1a
I0413 17:21:12.134385 28395 net.cpp:141] Setting up conv2_1a
I0413 17:21:12.134400 28395 net.cpp:148] Top shape: 256 16 32 32 (4194304)
I0413 17:21:12.134405 28395 net.cpp:156] Memory required for data: 120589312
I0413 17:21:12.134415 28395 layer_factory.hpp:77] Creating layer bn_conv2_1a
I0413 17:21:12.134423 28395 net.cpp:91] Creating Layer bn_conv2_1a
I0413 17:21:12.134428 28395 net.cpp:425] bn_conv2_1a <- conv2_1a
I0413 17:21:12.134433 28395 net.cpp:386] bn_conv2_1a -> conv2_1a (in-place)
I0413 17:21:12.134572 28395 net.cpp:141] Setting up bn_conv2_1a
I0413 17:21:12.134579 28395 net.cpp:148] Top shape: 256 16 32 32 (4194304)
I0413 17:21:12.134583 28395 net.cpp:156] Memory required for data: 137366528
I0413 17:21:12.134590 28395 layer_factory.hpp:77] Creating layer scale_conv2_1a
I0413 17:21:12.134598 28395 net.cpp:91] Creating Layer scale_conv2_1a
I0413 17:21:12.134601 28395 net.cpp:425] scale_conv2_1a <- conv2_1a
I0413 17:21:12.134606 28395 net.cpp:386] scale_conv2_1a -> conv2_1a (in-place)
I0413 17:21:12.134634 28395 layer_factory.hpp:77] Creating layer scale_conv2_1a
I0413 17:21:12.134716 28395 net.cpp:141] Setting up scale_conv2_1a
I0413 17:21:12.134723 28395 net.cpp:148] Top shape: 256 16 32 32 (4194304)
I0413 17:21:12.134727 28395 net.cpp:156] Memory required for data: 154143744
I0413 17:21:12.134733 28395 layer_factory.hpp:77] Creating layer conv2_1a_relu
I0413 17:21:12.134739 28395 net.cpp:91] Creating Layer conv2_1a_relu
I0413 17:21:12.134743 28395 net.cpp:425] conv2_1a_relu <- conv2_1a
I0413 17:21:12.134749 28395 net.cpp:386] conv2_1a_relu -> conv2_1a (in-place)
I0413 17:21:12.135452 28395 net.cpp:141] Setting up conv2_1a_relu
I0413 17:21:12.135465 28395 net.cpp:148] Top shape: 256 16 32 32 (4194304)
I0413 17:21:12.135469 28395 net.cpp:156] Memory required for data: 170920960
I0413 17:21:12.135474 28395 layer_factory.hpp:77] Creating layer conv2_1b
I0413 17:21:12.135484 28395 net.cpp:91] Creating Layer conv2_1b
I0413 17:21:12.135489 28395 net.cpp:425] conv2_1b <- conv2_1a
I0413 17:21:12.135495 28395 net.cpp:399] conv2_1b -> conv2_1b
I0413 17:21:12.138937 28395 net.cpp:141] Setting up conv2_1b
I0413 17:21:12.138952 28395 net.cpp:148] Top shape: 256 16 32 32 (4194304)
I0413 17:21:12.138957 28395 net.cpp:156] Memory required for data: 187698176
I0413 17:21:12.138964 28395 layer_factory.hpp:77] Creating layer bn_conv2_1b
I0413 17:21:12.138972 28395 net.cpp:91] Creating Layer bn_conv2_1b
I0413 17:21:12.138975 28395 net.cpp:425] bn_conv2_1b <- conv2_1b
I0413 17:21:12.138981 28395 net.cpp:386] bn_conv2_1b -> conv2_1b (in-place)
I0413 17:21:12.139118 28395 net.cpp:141] Setting up bn_conv2_1b
I0413 17:21:12.139127 28395 net.cpp:148] Top shape: 256 16 32 32 (4194304)
I0413 17:21:12.139129 28395 net.cpp:156] Memory required for data: 204475392
I0413 17:21:12.139140 28395 layer_factory.hpp:77] Creating layer scale_conv2_1b
I0413 17:21:12.139147 28395 net.cpp:91] Creating Layer scale_conv2_1b
I0413 17:21:12.139150 28395 net.cpp:425] scale_conv2_1b <- conv2_1b
I0413 17:21:12.139156 28395 net.cpp:386] scale_conv2_1b -> conv2_1b (in-place)
I0413 17:21:12.139184 28395 layer_factory.hpp:77] Creating layer scale_conv2_1b
I0413 17:21:12.139272 28395 net.cpp:141] Setting up scale_conv2_1b
I0413 17:21:12.139281 28395 net.cpp:148] Top shape: 256 16 32 32 (4194304)
I0413 17:21:12.139284 28395 net.cpp:156] Memory required for data: 221252608
I0413 17:21:12.139291 28395 layer_factory.hpp:77] Creating layer conv2_1
I0413 17:21:12.139297 28395 net.cpp:91] Creating Layer conv2_1
I0413 17:21:12.139302 28395 net.cpp:425] conv2_1 <- conv2_1b
I0413 17:21:12.139307 28395 net.cpp:425] conv2_1 <- conv1_conv1_relu_0_split_1
I0413 17:21:12.139312 28395 net.cpp:399] conv2_1 -> conv2_1
I0413 17:21:12.139333 28395 net.cpp:141] Setting up conv2_1
I0413 17:21:12.139340 28395 net.cpp:148] Top shape: 256 16 32 32 (4194304)
I0413 17:21:12.139344 28395 net.cpp:156] Memory required for data: 238029824
I0413 17:21:12.139348 28395 layer_factory.hpp:77] Creating layer conv2_1_relu
I0413 17:21:12.139353 28395 net.cpp:91] Creating Layer conv2_1_relu
I0413 17:21:12.139358 28395 net.cpp:425] conv2_1_relu <- conv2_1
I0413 17:21:12.139364 28395 net.cpp:386] conv2_1_relu -> conv2_1 (in-place)
I0413 17:21:12.140013 28395 net.cpp:141] Setting up conv2_1_relu
I0413 17:21:12.140023 28395 net.cpp:148] Top shape: 256 16 32 32 (4194304)
I0413 17:21:12.140027 28395 net.cpp:156] Memory required for data: 254807040
I0413 17:21:12.140032 28395 layer_factory.hpp:77] Creating layer conv2_1_conv2_1_relu_0_split
I0413 17:21:12.140038 28395 net.cpp:91] Creating Layer conv2_1_conv2_1_relu_0_split
I0413 17:21:12.140043 28395 net.cpp:425] conv2_1_conv2_1_relu_0_split <- conv2_1
I0413 17:21:12.140048 28395 net.cpp:399] conv2_1_conv2_1_relu_0_split -> conv2_1_conv2_1_relu_0_split_0
I0413 17:21:12.140055 28395 net.cpp:399] conv2_1_conv2_1_relu_0_split -> conv2_1_conv2_1_relu_0_split_1
I0413 17:21:12.140086 28395 net.cpp:141] Setting up conv2_1_conv2_1_relu_0_split
I0413 17:21:12.140092 28395 net.cpp:148] Top shape: 256 16 32 32 (4194304)
I0413 17:21:12.140097 28395 net.cpp:148] Top shape: 256 16 32 32 (4194304)
I0413 17:21:12.140100 28395 net.cpp:156] Memory required for data: 288361472
I0413 17:21:12.140105 28395 layer_factory.hpp:77] Creating layer conv2_2a
I0413 17:21:12.140113 28395 net.cpp:91] Creating Layer conv2_2a
I0413 17:21:12.140118 28395 net.cpp:425] conv2_2a <- conv2_1_conv2_1_relu_0_split_0
I0413 17:21:12.140125 28395 net.cpp:399] conv2_2a -> conv2_2a
I0413 17:21:12.143499 28395 net.cpp:141] Setting up conv2_2a
I0413 17:21:12.143515 28395 net.cpp:148] Top shape: 256 16 32 32 (4194304)
I0413 17:21:12.143519 28395 net.cpp:156] Memory required for data: 305138688
I0413 17:21:12.143527 28395 layer_factory.hpp:77] Creating layer bn_conv2_2a
I0413 17:21:12.143534 28395 net.cpp:91] Creating Layer bn_conv2_2a
I0413 17:21:12.143538 28395 net.cpp:425] bn_conv2_2a <- conv2_2a
I0413 17:21:12.143544 28395 net.cpp:386] bn_conv2_2a -> conv2_2a (in-place)
I0413 17:21:12.143684 28395 net.cpp:141] Setting up bn_conv2_2a
I0413 17:21:12.143692 28395 net.cpp:148] Top shape: 256 16 32 32 (4194304)
I0413 17:21:12.143697 28395 net.cpp:156] Memory required for data: 321915904
I0413 17:21:12.143703 28395 layer_factory.hpp:77] Creating layer scale_conv2_2a
I0413 17:21:12.143710 28395 net.cpp:91] Creating Layer scale_conv2_2a
I0413 17:21:12.143714 28395 net.cpp:425] scale_conv2_2a <- conv2_2a
I0413 17:21:12.143719 28395 net.cpp:386] scale_conv2_2a -> conv2_2a (in-place)
I0413 17:21:12.143748 28395 layer_factory.hpp:77] Creating layer scale_conv2_2a
I0413 17:21:12.143829 28395 net.cpp:141] Setting up scale_conv2_2a
I0413 17:21:12.143837 28395 net.cpp:148] Top shape: 256 16 32 32 (4194304)
I0413 17:21:12.143841 28395 net.cpp:156] Memory required for data: 338693120
I0413 17:21:12.143847 28395 layer_factory.hpp:77] Creating layer conv2_2a_relu
I0413 17:21:12.143853 28395 net.cpp:91] Creating Layer conv2_2a_relu
I0413 17:21:12.143857 28395 net.cpp:425] conv2_2a_relu <- conv2_2a
I0413 17:21:12.143862 28395 net.cpp:386] conv2_2a_relu -> conv2_2a (in-place)
I0413 17:21:12.145973 28395 net.cpp:141] Setting up conv2_2a_relu
I0413 17:21:12.145987 28395 net.cpp:148] Top shape: 256 16 32 32 (4194304)
I0413 17:21:12.145992 28395 net.cpp:156] Memory required for data: 355470336
I0413 17:21:12.146000 28395 layer_factory.hpp:77] Creating layer conv2_2b
I0413 17:21:12.146010 28395 net.cpp:91] Creating Layer conv2_2b
I0413 17:21:12.146015 28395 net.cpp:425] conv2_2b <- conv2_2a
I0413 17:21:12.146023 28395 net.cpp:399] conv2_2b -> conv2_2b
I0413 17:21:12.149507 28395 net.cpp:141] Setting up conv2_2b
I0413 17:21:12.149520 28395 net.cpp:148] Top shape: 256 16 32 32 (4194304)
I0413 17:21:12.149525 28395 net.cpp:156] Memory required for data: 372247552
I0413 17:21:12.149533 28395 layer_factory.hpp:77] Creating layer bn_conv2_2b
I0413 17:21:12.149540 28395 net.cpp:91] Creating Layer bn_conv2_2b
I0413 17:21:12.149545 28395 net.cpp:425] bn_conv2_2b <- conv2_2b
I0413 17:21:12.149551 28395 net.cpp:386] bn_conv2_2b -> conv2_2b (in-place)
I0413 17:21:12.149698 28395 net.cpp:141] Setting up bn_conv2_2b
I0413 17:21:12.149706 28395 net.cpp:148] Top shape: 256 16 32 32 (4194304)
I0413 17:21:12.149710 28395 net.cpp:156] Memory required for data: 389024768
I0413 17:21:12.149723 28395 layer_factory.hpp:77] Creating layer scale_conv2_2b
I0413 17:21:12.149729 28395 net.cpp:91] Creating Layer scale_conv2_2b
I0413 17:21:12.149734 28395 net.cpp:425] scale_conv2_2b <- conv2_2b
I0413 17:21:12.149739 28395 net.cpp:386] scale_conv2_2b -> conv2_2b (in-place)
I0413 17:21:12.149767 28395 layer_factory.hpp:77] Creating layer scale_conv2_2b
I0413 17:21:12.149849 28395 net.cpp:141] Setting up scale_conv2_2b
I0413 17:21:12.149857 28395 net.cpp:148] Top shape: 256 16 32 32 (4194304)
I0413 17:21:12.149860 28395 net.cpp:156] Memory required for data: 405801984
I0413 17:21:12.149866 28395 layer_factory.hpp:77] Creating layer conv2_2
I0413 17:21:12.149873 28395 net.cpp:91] Creating Layer conv2_2
I0413 17:21:12.149878 28395 net.cpp:425] conv2_2 <- conv2_2b
I0413 17:21:12.149883 28395 net.cpp:425] conv2_2 <- conv2_1_conv2_1_relu_0_split_1
I0413 17:21:12.149888 28395 net.cpp:399] conv2_2 -> conv2_2
I0413 17:21:12.149907 28395 net.cpp:141] Setting up conv2_2
I0413 17:21:12.149914 28395 net.cpp:148] Top shape: 256 16 32 32 (4194304)
I0413 17:21:12.149919 28395 net.cpp:156] Memory required for data: 422579200
I0413 17:21:12.149922 28395 layer_factory.hpp:77] Creating layer conv2_2_relu
I0413 17:21:12.149927 28395 net.cpp:91] Creating Layer conv2_2_relu
I0413 17:21:12.149931 28395 net.cpp:425] conv2_2_relu <- conv2_2
I0413 17:21:12.149937 28395 net.cpp:386] conv2_2_relu -> conv2_2 (in-place)
I0413 17:21:12.150562 28395 net.cpp:141] Setting up conv2_2_relu
I0413 17:21:12.150573 28395 net.cpp:148] Top shape: 256 16 32 32 (4194304)
I0413 17:21:12.150578 28395 net.cpp:156] Memory required for data: 439356416
I0413 17:21:12.150583 28395 layer_factory.hpp:77] Creating layer conv2_2_conv2_2_relu_0_split
I0413 17:21:12.150588 28395 net.cpp:91] Creating Layer conv2_2_conv2_2_relu_0_split
I0413 17:21:12.150593 28395 net.cpp:425] conv2_2_conv2_2_relu_0_split <- conv2_2
I0413 17:21:12.150599 28395 net.cpp:399] conv2_2_conv2_2_relu_0_split -> conv2_2_conv2_2_relu_0_split_0
I0413 17:21:12.150606 28395 net.cpp:399] conv2_2_conv2_2_relu_0_split -> conv2_2_conv2_2_relu_0_split_1
I0413 17:21:12.150640 28395 net.cpp:141] Setting up conv2_2_conv2_2_relu_0_split
I0413 17:21:12.150647 28395 net.cpp:148] Top shape: 256 16 32 32 (4194304)
I0413 17:21:12.150653 28395 net.cpp:148] Top shape: 256 16 32 32 (4194304)
I0413 17:21:12.150656 28395 net.cpp:156] Memory required for data: 472910848
I0413 17:21:12.150660 28395 layer_factory.hpp:77] Creating layer conv2_3a
I0413 17:21:12.150671 28395 net.cpp:91] Creating Layer conv2_3a
I0413 17:21:12.150674 28395 net.cpp:425] conv2_3a <- conv2_2_conv2_2_relu_0_split_0
I0413 17:21:12.150681 28395 net.cpp:399] conv2_3a -> conv2_3a
I0413 17:21:12.154080 28395 net.cpp:141] Setting up conv2_3a
I0413 17:21:12.154094 28395 net.cpp:148] Top shape: 256 16 32 32 (4194304)
I0413 17:21:12.154098 28395 net.cpp:156] Memory required for data: 489688064
I0413 17:21:12.154106 28395 layer_factory.hpp:77] Creating layer bn_conv2_3a
I0413 17:21:12.154114 28395 net.cpp:91] Creating Layer bn_conv2_3a
I0413 17:21:12.154122 28395 net.cpp:425] bn_conv2_3a <- conv2_3a
I0413 17:21:12.154130 28395 net.cpp:386] bn_conv2_3a -> conv2_3a (in-place)
I0413 17:21:12.154271 28395 net.cpp:141] Setting up bn_conv2_3a
I0413 17:21:12.154279 28395 net.cpp:148] Top shape: 256 16 32 32 (4194304)
I0413 17:21:12.154284 28395 net.cpp:156] Memory required for data: 506465280
I0413 17:21:12.154290 28395 layer_factory.hpp:77] Creating layer scale_conv2_3a
I0413 17:21:12.154297 28395 net.cpp:91] Creating Layer scale_conv2_3a
I0413 17:21:12.154301 28395 net.cpp:425] scale_conv2_3a <- conv2_3a
I0413 17:21:12.154307 28395 net.cpp:386] scale_conv2_3a -> conv2_3a (in-place)
I0413 17:21:12.154336 28395 layer_factory.hpp:77] Creating layer scale_conv2_3a
I0413 17:21:12.154420 28395 net.cpp:141] Setting up scale_conv2_3a
I0413 17:21:12.154428 28395 net.cpp:148] Top shape: 256 16 32 32 (4194304)
I0413 17:21:12.154431 28395 net.cpp:156] Memory required for data: 523242496
I0413 17:21:12.154438 28395 layer_factory.hpp:77] Creating layer conv2_3a_relu
I0413 17:21:12.154444 28395 net.cpp:91] Creating Layer conv2_3a_relu
I0413 17:21:12.154448 28395 net.cpp:425] conv2_3a_relu <- conv2_3a
I0413 17:21:12.154453 28395 net.cpp:386] conv2_3a_relu -> conv2_3a (in-place)
I0413 17:21:12.155145 28395 net.cpp:141] Setting up conv2_3a_relu
I0413 17:21:12.155155 28395 net.cpp:148] Top shape: 256 16 32 32 (4194304)
I0413 17:21:12.155159 28395 net.cpp:156] Memory required for data: 540019712
I0413 17:21:12.155164 28395 layer_factory.hpp:77] Creating layer conv2_3b
I0413 17:21:12.155174 28395 net.cpp:91] Creating Layer conv2_3b
I0413 17:21:12.155177 28395 net.cpp:425] conv2_3b <- conv2_3a
I0413 17:21:12.155184 28395 net.cpp:399] conv2_3b -> conv2_3b
I0413 17:21:12.159982 28395 net.cpp:141] Setting up conv2_3b
I0413 17:21:12.159996 28395 net.cpp:148] Top shape: 256 16 32 32 (4194304)
I0413 17:21:12.160001 28395 net.cpp:156] Memory required for data: 556796928
I0413 17:21:12.160008 28395 layer_factory.hpp:77] Creating layer bn_conv2_3b
I0413 17:21:12.160017 28395 net.cpp:91] Creating Layer bn_conv2_3b
I0413 17:21:12.160022 28395 net.cpp:425] bn_conv2_3b <- conv2_3b
I0413 17:21:12.160028 28395 net.cpp:386] bn_conv2_3b -> conv2_3b (in-place)
I0413 17:21:12.160174 28395 net.cpp:141] Setting up bn_conv2_3b
I0413 17:21:12.160182 28395 net.cpp:148] Top shape: 256 16 32 32 (4194304)
I0413 17:21:12.160186 28395 net.cpp:156] Memory required for data: 573574144
I0413 17:21:12.160193 28395 layer_factory.hpp:77] Creating layer scale_conv2_3b
I0413 17:21:12.160199 28395 net.cpp:91] Creating Layer scale_conv2_3b
I0413 17:21:12.160204 28395 net.cpp:425] scale_conv2_3b <- conv2_3b
I0413 17:21:12.160209 28395 net.cpp:386] scale_conv2_3b -> conv2_3b (in-place)
I0413 17:21:12.160238 28395 layer_factory.hpp:77] Creating layer scale_conv2_3b
I0413 17:21:12.160321 28395 net.cpp:141] Setting up scale_conv2_3b
I0413 17:21:12.160329 28395 net.cpp:148] Top shape: 256 16 32 32 (4194304)
I0413 17:21:12.160333 28395 net.cpp:156] Memory required for data: 590351360
I0413 17:21:12.160339 28395 layer_factory.hpp:77] Creating layer conv2_3
I0413 17:21:12.160346 28395 net.cpp:91] Creating Layer conv2_3
I0413 17:21:12.160351 28395 net.cpp:425] conv2_3 <- conv2_3b
I0413 17:21:12.160356 28395 net.cpp:425] conv2_3 <- conv2_2_conv2_2_relu_0_split_1
I0413 17:21:12.160361 28395 net.cpp:399] conv2_3 -> conv2_3
I0413 17:21:12.160380 28395 net.cpp:141] Setting up conv2_3
I0413 17:21:12.160387 28395 net.cpp:148] Top shape: 256 16 32 32 (4194304)
I0413 17:21:12.160392 28395 net.cpp:156] Memory required for data: 607128576
I0413 17:21:12.160394 28395 layer_factory.hpp:77] Creating layer conv2_3_relu
I0413 17:21:12.160400 28395 net.cpp:91] Creating Layer conv2_3_relu
I0413 17:21:12.160404 28395 net.cpp:425] conv2_3_relu <- conv2_3
I0413 17:21:12.160410 28395 net.cpp:386] conv2_3_relu -> conv2_3 (in-place)
I0413 17:21:12.161051 28395 net.cpp:141] Setting up conv2_3_relu
I0413 17:21:12.161064 28395 net.cpp:148] Top shape: 256 16 32 32 (4194304)
I0413 17:21:12.161068 28395 net.cpp:156] Memory required for data: 623905792
I0413 17:21:12.161077 28395 layer_factory.hpp:77] Creating layer global_pool
I0413 17:21:12.161087 28395 net.cpp:91] Creating Layer global_pool
I0413 17:21:12.161090 28395 net.cpp:425] global_pool <- conv2_3
I0413 17:21:12.161097 28395 net.cpp:399] global_pool -> global_pool
I0413 17:21:12.162196 28395 net.cpp:141] Setting up global_pool
I0413 17:21:12.162209 28395 net.cpp:148] Top shape: 256 16 4 4 (65536)
I0413 17:21:12.162212 28395 net.cpp:156] Memory required for data: 624167936
I0413 17:21:12.162216 28395 layer_factory.hpp:77] Creating layer ip
I0413 17:21:12.162225 28395 net.cpp:91] Creating Layer ip
I0413 17:21:12.162230 28395 net.cpp:425] ip <- global_pool
I0413 17:21:12.162235 28395 net.cpp:399] ip -> ip
I0413 17:21:12.162323 28395 net.cpp:141] Setting up ip
I0413 17:21:12.162331 28395 net.cpp:148] Top shape: 256 10 (2560)
I0413 17:21:12.162335 28395 net.cpp:156] Memory required for data: 624178176
I0413 17:21:12.162343 28395 layer_factory.hpp:77] Creating layer ip_ip_0_split
I0413 17:21:12.162348 28395 net.cpp:91] Creating Layer ip_ip_0_split
I0413 17:21:12.162353 28395 net.cpp:425] ip_ip_0_split <- ip
I0413 17:21:12.162358 28395 net.cpp:399] ip_ip_0_split -> ip_ip_0_split_0
I0413 17:21:12.162365 28395 net.cpp:399] ip_ip_0_split -> ip_ip_0_split_1
I0413 17:21:12.162391 28395 net.cpp:141] Setting up ip_ip_0_split
I0413 17:21:12.162398 28395 net.cpp:148] Top shape: 256 10 (2560)
I0413 17:21:12.162402 28395 net.cpp:148] Top shape: 256 10 (2560)
I0413 17:21:12.162406 28395 net.cpp:156] Memory required for data: 624198656
I0413 17:21:12.162410 28395 layer_factory.hpp:77] Creating layer accuracy
I0413 17:21:12.162421 28395 net.cpp:91] Creating Layer accuracy
I0413 17:21:12.162425 28395 net.cpp:425] accuracy <- ip_ip_0_split_0
I0413 17:21:12.162431 28395 net.cpp:425] accuracy <- label_cifar_1_split_0
I0413 17:21:12.162436 28395 net.cpp:399] accuracy -> accuracy
…
I0413 17:21:12.164366 28395 solver.cpp:181] Creating test net (#0) specified by net file: prototxt/DyResNet/ResNet-cifar2.prototxt
I0413 17:21:12.164419 28395 net.cpp:313] The NetState phase (1) differed from the phase (0) specified by a rule in layer cifar
I0413 17:21:12.164600 28395 net.cpp:49] Initializing net from parameters: 
name: "ResNet-cifar"
state {
  phase: TEST
}
layer {
  name: "cifar"
  type: "Data"
  top: "data"
  top: "label"
  include {
    phase: TEST
  }
  transform_param {
    mean_file: "data/cifar10/mean.binaryproto"
  }
  data_param {
    source: "data/cifar10/cifar10_test_lmdb"
    batch_size: 100
    backend: LMDB
  }
}
layer {
  name: "conv1"
  type: "Convolution"
  bottom: "data"
  top: "conv1"
  param {
    lr_mult: 1
  }
  param {
    lr_mult: 2
  }
  convolution_param {
    num_output: 16
    pad: 1
    kernel_size: 3
    weight_filler {
      type: "msra"
    }
    bias_filler {
      type: "constant"
    }
  }
}
layer {
  name: "bn_conv1"
  type: "BatchNorm"
  bottom: "conv1"
  top: "conv1"
  param {
    lr_mult: 0
  }
  param {
    lr_mult: 0
  }
  param {
    lr_mult: 0
  }
}
layer {
  name: "scale_conv1"
  type: "Scale"
  bottom: "conv1"
  top: "conv1"
  scale_param {
    bias_term: true
  }
}
layer {
  name: "conv1_relu"
  type: "ReLU"
  bottom: "conv1"
  top: "conv1"
}
layer {
  name: "conv2_1a"
  type: "Convolution"
  bottom: "conv1"
  top: "conv2_1a"
  param {
    lr_mult: 1
  }
  param {
    lr_mult: 2
  }
  convolution_param {
    num_output: 16
    pad: 1
    kernel_size: 3
    stride: 1
    weight_filler {
      type: "msra"
    }
    bias_filler {
      type: "constant"
      value: 0
    }
  }
}
layer {
  name: "bn_conv2_1a"
  type: "BatchNorm"
  bottom: "conv2_1a"
  top: "conv2_1a"
  param {
    lr_mult: 0
  }
  param {
    lr_mult: 0
  }
  param {
    lr_mult: 0
  }
}
layer {
  name: "scale_conv2_1a"
  type: "Scale"
  bottom: "conv2_1a"
  top: "conv2_1a"
  scale_param {
    bias_term: true
  }
}
layer {
  name: "conv2_1a_relu"
  type: "ReLU"
  bottom: "conv2_1a"
  top: "conv2_1a"
}
layer {
  name: "conv2_1b"
  type: "Convolution"
  bottom: "conv2_1a"
  top: "conv2_1b"
  param {
    lr_mult: 1
  }
  param {
    lr_mult: 2
  }
  convolution_param {
    num_output: 16
    pad: 1
    kernel_size: 3
    stride: 1
    weight_filler {
      type: "msra"
    }
    bias_filler {
      type: "constant"
      value: 0
    }
  }
}
layer {
  name: "bn_conv2_1b"
  type: "BatchNorm"
  bottom: "conv2_1b"
  top: "conv2_1b"
  param {
    lr_mult: 0
  }
  param {
    lr_mult: 0
  }
  param {
    lr_mult: 0
  }
}
layer {
  name: "scale_conv2_1b"
  type: "Scale"
  bottom: "conv2_1b"
  top: "conv2_1b"
  scale_param {
    bias_term: true
  }
}
layer {
  name: "conv2_1"
  type: "Eltwise"
  bottom: "conv2_1b"
  bottom: "conv1"
  top: "conv2_1"
}
layer {
  name: "conv2_1_relu"
  type: "ReLU"
  bottom: "conv2_1"
  top: "conv2_1"
}
layer {
  name: "conv2_2a"
  type: "Convolution"
  bottom: "conv2_1"
  top: "conv2_2a"
  param {
    lr_mult: 1
  }
  param {
    lr_mult: 2
  }
  convolution_param {
    num_output: 16
    pad: 1
    kernel_size: 3
    stride: 1
    weight_filler {
      type: "msra"
    }
    bias_filler {
      type: "constant"
      value: 0
    }
  }
}
layer {
  name: "bn_conv2_2a"
  type: "BatchNorm"
  bottom: "conv2_2a"
  top: "conv2_2a"
  param {
    lr_mult: 0
  }
  param {
    lr_mult: 0
  }
  param {
    lr_mult: 0
  }
}
layer {
  name: "scale_conv2_2a"
  type: "Scale"
  bottom: "conv2_2a"
  top: "conv2_2a"
  scale_param {
    bias_term: true
  }
}
layer {
  name: "conv2_2a_relu"
  type: "ReLU"
  bottom: "conv2_2a"
  top: "conv2_2a"
}
layer {
  name: "conv2_2b"
  type: "Convolution"
  bottom: "conv2_2a"
  top: "conv2_2b"
  param {
    lr_mult: 1
  }
  param {
    lr_mult: 2
  }
  convolution_param {
    num_output: 16
    pad: 1
    kernel_size: 3
    stride: 1
    weight_filler {
      type: "msra"
    }
    bias_filler {
      type: "constant"
      value: 0
    }
  }
}
layer {
  name: "bn_conv2_2b"
  type: "BatchNorm"
  bottom: "conv2_2b"
  top: "conv2_2b"
  param {
    lr_mult: 0
  }
  param {
    lr_mult: 0
  }
  param {
    lr_mult: 0
  }
}
layer {
  name: "scale_conv2_2b"
  type: "Scale"
  bottom: "conv2_2b"
  top: "conv2_2b"
  scale_param {
    bias_term: true
  }
}
layer {
  name: "conv2_2"
  type: "Eltwise"
  bottom: "conv2_2b"
  bottom: "conv2_1"
  top: "conv2_2"
}
layer {
  name: "conv2_2_relu"
  type: "ReLU"
  bottom: "conv2_2"
  top: "conv2_2"
}
layer {
  name: "conv2_3a"
  type: "Convolution"
  bottom: "conv2_2"
  top: "conv2_3a"
  param {
    lr_mult: 1
  }
  param {
    lr_mult: 2
  }
  convolution_param {
    num_output: 16
    pad: 1
    kernel_size: 3
    stride: 1
    weight_filler {
      type: "msra"
    }
    bias_filler {
      type: "constant"
      value: 0
    }
  }
}
layer {
  name: "bn_conv2_3a"
  type: "BatchNorm"
  bottom: "conv2_3a"
  top: "conv2_3a"
  param {
    lr_mult: 0
  }
  param {
    lr_mult: 0
  }
  param {
    lr_mult: 0
  }
}
layer {
  name: "scale_conv2_3a"
  type: "Scale"
  bottom: "conv2_3a"
  top: "conv2_3a"
  scale_param {
    bias_term: true
  }
}
layer {
  name: "conv2_3a_relu"
  type: "ReLU"
  bottom: "conv2_3a"
  top: "conv2_3a"
}
layer {
  name: "conv2_3b"
  type: "Convolution"
  bottom: "conv2_3a"
  top: "conv2_3b"
  param {
    lr_mult: 1
  }
  param {
    lr_mult: 2
  }
  convolution_param {
    num_output: 16
    pad: 1
    kernel_size: 3
    stride: 1
    weight_filler {
      type: "msra"
    }
    bias_filler {
      type: "constant"
      value: 0
    }
  }
}
layer {
  name: "bn_conv2_3b"
  type: "BatchNorm"
  bottom: "conv2_3b"
  top: "conv2_3b"
  param {
    lr_mult: 0
  }
  param {
    lr_mult: 0
  }
  param {
    lr_mult: 0
  }
}
layer {
  name: "scale_conv2_3b"
  type: "Scale"
  bottom: "conv2_3b"
  top: "conv2_3b"
  scale_param {
    bias_term: true
  }
}
layer {
  name: "conv2_3"
  type: "Eltwise"
  bottom: "conv2_3b"
  bottom: "conv2_2"
  top: "conv2_3"
}
layer {
  name: "conv2_3_relu"
  type: "ReLU"
  bottom: "conv2_3"
  top: "conv2_3"
}
layer {
  name: "global_pool"
  type: "Pooling"
  bottom: "conv2_3"
  top: "global_pool"
  pooling_param {
    pool: AVE
    kernel_size: 8
    stride: 8
  }
}
layer {
  name: "ip"
  type: "InnerProduct"
  bottom: "global_pool"
  top: "ip"
  inner_product_param {
    num_output: 10
  }
}
layer {
  name: "accuracy"
  type: "Accuracy"
  bottom: "ip"
  bottom: "label"
  top: "accuracy"
}
layer {
  name: "loss"
  type: "SoftmaxWithLoss"
  bottom: "ip"
  bottom: "label"
  top: "loss"
}
I0413 17:21:12.164744 28395 layer_factory.hpp:77] Creating layer cifar
I0413 17:21:12.164851 28395 net.cpp:91] Creating Layer cifar
I0413 17:21:12.164861 28395 net.cpp:399] cifar -> data
I0413 17:21:12.164871 28395 net.cpp:399] cifar -> label
I0413 17:21:12.164880 28395 data_transformer.cpp:25] Loading mean file from: data/cifar10/mean.binaryproto
I0413 17:21:12.166115 28460 db_lmdb.cpp:38] Opened lmdb data/cifar10/cifar10_test_lmdb
I0413 17:21:12.166251 28395 data_layer.cpp:41] output data size: 100,3,32,32
I0413 17:21:12.169011 28395 net.cpp:141] Setting up cifar
I0413 17:21:12.169039 28395 net.cpp:148] Top shape: 100 3 32 32 (307200)
I0413 17:21:12.169046 28395 net.cpp:148] Top shape: 100 (100)
I0413 17:21:12.169051 28395 net.cpp:156] Memory required for data: 1229200
I0413 17:21:12.169056 28395 layer_factory.hpp:77] Creating layer label_cifar_1_split
I0413 17:21:12.169064 28395 net.cpp:91] Creating Layer label_cifar_1_split
I0413 17:21:12.169070 28395 net.cpp:425] label_cifar_1_split <- label
I0413 17:21:12.169075 28395 net.cpp:399] label_cifar_1_split -> label_cifar_1_split_0
I0413 17:21:12.169085 28395 net.cpp:399] label_cifar_1_split -> label_cifar_1_split_1
I0413 17:21:12.169145 28395 net.cpp:141] Setting up label_cifar_1_split
I0413 17:21:12.169155 28395 net.cpp:148] Top shape: 100 (100)
I0413 17:21:12.169162 28395 net.cpp:148] Top shape: 100 (100)
I0413 17:21:12.169165 28395 net.cpp:156] Memory required for data: 1230000
I0413 17:21:12.169169 28395 layer_factory.hpp:77] Creating layer conv1
I0413 17:21:12.169181 28395 net.cpp:91] Creating Layer conv1
I0413 17:21:12.169186 28395 net.cpp:425] conv1 <- data
I0413 17:21:12.169195 28395 net.cpp:399] conv1 -> conv1
I0413 17:21:12.170553 28395 net.cpp:141] Setting up conv1
I0413 17:21:12.170569 28395 net.cpp:148] Top shape: 100 16 32 32 (1638400)
I0413 17:21:12.170574 28395 net.cpp:156] Memory required for data: 7783600
I0413 17:21:12.170586 28395 layer_factory.hpp:77] Creating layer bn_conv1
I0413 17:21:12.170595 28395 net.cpp:91] Creating Layer bn_conv1
I0413 17:21:12.170600 28395 net.cpp:425] bn_conv1 <- conv1
I0413 17:21:12.170608 28395 net.cpp:386] bn_conv1 -> conv1 (in-place)
I0413 17:21:12.170781 28395 net.cpp:141] Setting up bn_conv1
I0413 17:21:12.170789 28395 net.cpp:148] Top shape: 100 16 32 32 (1638400)
I0413 17:21:12.170794 28395 net.cpp:156] Memory required for data: 14337200
I0413 17:21:12.170806 28395 layer_factory.hpp:77] Creating layer scale_conv1
I0413 17:21:12.170814 28395 net.cpp:91] Creating Layer scale_conv1
I0413 17:21:12.170819 28395 net.cpp:425] scale_conv1 <- conv1
I0413 17:21:12.170825 28395 net.cpp:386] scale_conv1 -> conv1 (in-place)
I0413 17:21:12.170873 28395 layer_factory.hpp:77] Creating layer scale_conv1
I0413 17:21:12.170969 28395 net.cpp:141] Setting up scale_conv1
I0413 17:21:12.170977 28395 net.cpp:148] Top shape: 100 16 32 32 (1638400)
I0413 17:21:12.170981 28395 net.cpp:156] Memory required for data: 20890800
I0413 17:21:12.170989 28395 layer_factory.hpp:77] Creating layer conv1_relu
I0413 17:21:12.170995 28395 net.cpp:91] Creating Layer conv1_relu
I0413 17:21:12.171000 28395 net.cpp:425] conv1_relu <- conv1
I0413 17:21:12.171005 28395 net.cpp:386] conv1_relu -> conv1 (in-place)
I0413 17:21:12.171156 28395 net.cpp:141] Setting up conv1_relu
I0413 17:21:12.171166 28395 net.cpp:148] Top shape: 100 16 32 32 (1638400)
I0413 17:21:12.171171 28395 net.cpp:156] Memory required for data: 27444400
I0413 17:21:12.171175 28395 layer_factory.hpp:77] Creating layer conv1_conv1_relu_0_split
I0413 17:21:12.171186 28395 net.cpp:91] Creating Layer conv1_conv1_relu_0_split
I0413 17:21:12.171191 28395 net.cpp:425] conv1_conv1_relu_0_split <- conv1
I0413 17:21:12.171197 28395 net.cpp:399] conv1_conv1_relu_0_split -> conv1_conv1_relu_0_split_0
I0413 17:21:12.171205 28395 net.cpp:399] conv1_conv1_relu_0_split -> conv1_conv1_relu_0_split_1
I0413 17:21:12.171255 28395 net.cpp:141] Setting up conv1_conv1_relu_0_split
I0413 17:21:12.171263 28395 net.cpp:148] Top shape: 100 16 32 32 (1638400)
I0413 17:21:12.171268 28395 net.cpp:148] Top shape: 100 16 32 32 (1638400)
I0413 17:21:12.171272 28395 net.cpp:156] Memory required for data: 40551600
I0413 17:21:12.171277 28395 layer_factory.hpp:77] Creating layer conv2_1a
I0413 17:21:12.171288 28395 net.cpp:91] Creating Layer conv2_1a
I0413 17:21:12.171291 28395 net.cpp:425] conv2_1a <- conv1_conv1_relu_0_split_0
I0413 17:21:12.171299 28395 net.cpp:399] conv2_1a -> conv2_1a
I0413 17:21:12.173566 28395 net.cpp:141] Setting up conv2_1a
I0413 17:21:12.173588 28395 net.cpp:148] Top shape: 100 16 32 32 (1638400)
I0413 17:21:12.173593 28395 net.cpp:156] Memory required for data: 47105200
I0413 17:21:12.173604 28395 layer_factory.hpp:77] Creating layer bn_conv2_1a
I0413 17:21:12.173614 28395 net.cpp:91] Creating Layer bn_conv2_1a
I0413 17:21:12.173619 28395 net.cpp:425] bn_conv2_1a <- conv2_1a
I0413 17:21:12.173635 28395 net.cpp:386] bn_conv2_1a -> conv2_1a (in-place)
I0413 17:21:12.173807 28395 net.cpp:141] Setting up bn_conv2_1a
I0413 17:21:12.173816 28395 net.cpp:148] Top shape: 100 16 32 32 (1638400)
I0413 17:21:12.173838 28395 net.cpp:156] Memory required for data: 53658800
I0413 17:21:12.173846 28395 layer_factory.hpp:77] Creating layer scale_conv2_1a
I0413 17:21:12.173854 28395 net.cpp:91] Creating Layer scale_conv2_1a
I0413 17:21:12.173858 28395 net.cpp:425] scale_conv2_1a <- conv2_1a
I0413 17:21:12.173866 28395 net.cpp:386] scale_conv2_1a -> conv2_1a (in-place)
I0413 17:21:12.173904 28395 layer_factory.hpp:77] Creating layer scale_conv2_1a
I0413 17:21:12.174006 28395 net.cpp:141] Setting up scale_conv2_1a
I0413 17:21:12.174015 28395 net.cpp:148] Top shape: 100 16 32 32 (1638400)
I0413 17:21:12.174036 28395 net.cpp:156] Memory required for data: 60212400
I0413 17:21:12.174043 28395 layer_factory.hpp:77] Creating layer conv2_1a_relu
I0413 17:21:12.174049 28395 net.cpp:91] Creating Layer conv2_1a_relu
I0413 17:21:12.174053 28395 net.cpp:425] conv2_1a_relu <- conv2_1a
I0413 17:21:12.174059 28395 net.cpp:386] conv2_1a_relu -> conv2_1a (in-place)
I0413 17:21:12.174676 28395 net.cpp:141] Setting up conv2_1a_relu
I0413 17:21:12.174695 28395 net.cpp:148] Top shape: 100 16 32 32 (1638400)
I0413 17:21:12.174700 28395 net.cpp:156] Memory required for data: 66766000
I0413 17:21:12.174703 28395 layer_factory.hpp:77] Creating layer conv2_1b
I0413 17:21:12.174715 28395 net.cpp:91] Creating Layer conv2_1b
I0413 17:21:12.174720 28395 net.cpp:425] conv2_1b <- conv2_1a
I0413 17:21:12.174727 28395 net.cpp:399] conv2_1b -> conv2_1b
I0413 17:21:12.177285 28395 net.cpp:141] Setting up conv2_1b
I0413 17:21:12.177302 28395 net.cpp:148] Top shape: 100 16 32 32 (1638400)
I0413 17:21:12.177307 28395 net.cpp:156] Memory required for data: 73319600
I0413 17:21:12.177315 28395 layer_factory.hpp:77] Creating layer bn_conv2_1b
I0413 17:21:12.177325 28395 net.cpp:91] Creating Layer bn_conv2_1b
I0413 17:21:12.177330 28395 net.cpp:425] bn_conv2_1b <- conv2_1b
I0413 17:21:12.177337 28395 net.cpp:386] bn_conv2_1b -> conv2_1b (in-place)
I0413 17:21:12.177526 28395 net.cpp:141] Setting up bn_conv2_1b
I0413 17:21:12.177536 28395 net.cpp:148] Top shape: 100 16 32 32 (1638400)
I0413 17:21:12.177549 28395 net.cpp:156] Memory required for data: 79873200
I0413 17:21:12.177562 28395 layer_factory.hpp:77] Creating layer scale_conv2_1b
I0413 17:21:12.177570 28395 net.cpp:91] Creating Layer scale_conv2_1b
I0413 17:21:12.177575 28395 net.cpp:425] scale_conv2_1b <- conv2_1b
I0413 17:21:12.177582 28395 net.cpp:386] scale_conv2_1b -> conv2_1b (in-place)
I0413 17:21:12.177825 28395 layer_factory.hpp:77] Creating layer scale_conv2_1b
I0413 17:21:12.177947 28395 net.cpp:141] Setting up scale_conv2_1b
I0413 17:21:12.177961 28395 net.cpp:148] Top shape: 100 16 32 32 (1638400)
I0413 17:21:12.177976 28395 net.cpp:156] Memory required for data: 86426800
I0413 17:21:12.177984 28395 layer_factory.hpp:77] Creating layer conv2_1
I0413 17:21:12.177991 28395 net.cpp:91] Creating Layer conv2_1
I0413 17:21:12.177996 28395 net.cpp:425] conv2_1 <- conv2_1b
I0413 17:21:12.178002 28395 net.cpp:425] conv2_1 <- conv1_conv1_relu_0_split_1
I0413 17:21:12.178009 28395 net.cpp:399] conv2_1 -> conv2_1
I0413 17:21:12.178038 28395 net.cpp:141] Setting up conv2_1
I0413 17:21:12.178046 28395 net.cpp:148] Top shape: 100 16 32 32 (1638400)
I0413 17:21:12.178050 28395 net.cpp:156] Memory required for data: 92980400
I0413 17:21:12.178056 28395 layer_factory.hpp:77] Creating layer conv2_1_relu
I0413 17:21:12.178061 28395 net.cpp:91] Creating Layer conv2_1_relu
I0413 17:21:12.178066 28395 net.cpp:425] conv2_1_relu <- conv2_1
I0413 17:21:12.178073 28395 net.cpp:386] conv2_1_relu -> conv2_1 (in-place)
I0413 17:21:12.178351 28395 net.cpp:141] Setting up conv2_1_relu
I0413 17:21:12.178370 28395 net.cpp:148] Top shape: 100 16 32 32 (1638400)
I0413 17:21:12.178375 28395 net.cpp:156] Memory required for data: 99534000
I0413 17:21:12.178380 28395 layer_factory.hpp:77] Creating layer conv2_1_conv2_1_relu_0_split
I0413 17:21:12.178388 28395 net.cpp:91] Creating Layer conv2_1_conv2_1_relu_0_split
I0413 17:21:12.178393 28395 net.cpp:425] conv2_1_conv2_1_relu_0_split <- conv2_1
I0413 17:21:12.178400 28395 net.cpp:399] conv2_1_conv2_1_relu_0_split -> conv2_1_conv2_1_relu_0_split_0
I0413 17:21:12.178418 28395 net.cpp:399] conv2_1_conv2_1_relu_0_split -> conv2_1_conv2_1_relu_0_split_1
I0413 17:21:12.178458 28395 net.cpp:141] Setting up conv2_1_conv2_1_relu_0_split
I0413 17:21:12.178467 28395 net.cpp:148] Top shape: 100 16 32 32 (1638400)
I0413 17:21:12.178472 28395 net.cpp:148] Top shape: 100 16 32 32 (1638400)
I0413 17:21:12.178477 28395 net.cpp:156] Memory required for data: 112641200
I0413 17:21:12.178481 28395 layer_factory.hpp:77] Creating layer conv2_2a
I0413 17:21:12.178493 28395 net.cpp:91] Creating Layer conv2_2a
I0413 17:21:12.178498 28395 net.cpp:425] conv2_2a <- conv2_1_conv2_1_relu_0_split_0
I0413 17:21:12.178505 28395 net.cpp:399] conv2_2a -> conv2_2a
I0413 17:21:12.180789 28395 net.cpp:141] Setting up conv2_2a
I0413 17:21:12.180805 28395 net.cpp:148] Top shape: 100 16 32 32 (1638400)
I0413 17:21:12.180810 28395 net.cpp:156] Memory required for data: 119194800
I0413 17:21:12.180819 28395 layer_factory.hpp:77] Creating layer bn_conv2_2a
I0413 17:21:12.180827 28395 net.cpp:91] Creating Layer bn_conv2_2a
I0413 17:21:12.180835 28395 net.cpp:425] bn_conv2_2a <- conv2_2a
I0413 17:21:12.180850 28395 net.cpp:386] bn_conv2_2a -> conv2_2a (in-place)
I0413 17:21:12.181043 28395 net.cpp:141] Setting up bn_conv2_2a
I0413 17:21:12.181051 28395 net.cpp:148] Top shape: 100 16 32 32 (1638400)
I0413 17:21:12.181056 28395 net.cpp:156] Memory required for data: 125748400
I0413 17:21:12.181064 28395 layer_factory.hpp:77] Creating layer scale_conv2_2a
I0413 17:21:12.181072 28395 net.cpp:91] Creating Layer scale_conv2_2a
I0413 17:21:12.181077 28395 net.cpp:425] scale_conv2_2a <- conv2_2a
I0413 17:21:12.181102 28395 net.cpp:386] scale_conv2_2a -> conv2_2a (in-place)
I0413 17:21:12.181149 28395 layer_factory.hpp:77] Creating layer scale_conv2_2a
I0413 17:21:12.181264 28395 net.cpp:141] Setting up scale_conv2_2a
I0413 17:21:12.181273 28395 net.cpp:148] Top shape: 100 16 32 32 (1638400)
I0413 17:21:12.181278 28395 net.cpp:156] Memory required for data: 132302000
I0413 17:21:12.181285 28395 layer_factory.hpp:77] Creating layer conv2_2a_relu
I0413 17:21:12.181293 28395 net.cpp:91] Creating Layer conv2_2a_relu
I0413 17:21:12.181303 28395 net.cpp:425] conv2_2a_relu <- conv2_2a
I0413 17:21:12.181309 28395 net.cpp:386] conv2_2a_relu -> conv2_2a (in-place)
I0413 17:21:12.181838 28395 net.cpp:141] Setting up conv2_2a_relu
I0413 17:21:12.181849 28395 net.cpp:148] Top shape: 100 16 32 32 (1638400)
I0413 17:21:12.181861 28395 net.cpp:156] Memory required for data: 138855600
I0413 17:21:12.181866 28395 layer_factory.hpp:77] Creating layer conv2_2b
I0413 17:21:12.181877 28395 net.cpp:91] Creating Layer conv2_2b
I0413 17:21:12.181884 28395 net.cpp:425] conv2_2b <- conv2_2a
I0413 17:21:12.181890 28395 net.cpp:399] conv2_2b -> conv2_2b
I0413 17:21:12.185925 28395 net.cpp:141] Setting up conv2_2b
I0413 17:21:12.185941 28395 net.cpp:148] Top shape: 100 16 32 32 (1638400)
I0413 17:21:12.185946 28395 net.cpp:156] Memory required for data: 145409200
I0413 17:21:12.185956 28395 layer_factory.hpp:77] Creating layer bn_conv2_2b
I0413 17:21:12.185964 28395 net.cpp:91] Creating Layer bn_conv2_2b
I0413 17:21:12.185969 28395 net.cpp:425] bn_conv2_2b <- conv2_2b
I0413 17:21:12.185977 28395 net.cpp:386] bn_conv2_2b -> conv2_2b (in-place)
I0413 17:21:12.186159 28395 net.cpp:141] Setting up bn_conv2_2b
I0413 17:21:12.186177 28395 net.cpp:148] Top shape: 100 16 32 32 (1638400)
I0413 17:21:12.186182 28395 net.cpp:156] Memory required for data: 151962800
I0413 17:21:12.186195 28395 layer_factory.hpp:77] Creating layer scale_conv2_2b
I0413 17:21:12.186213 28395 net.cpp:91] Creating Layer scale_conv2_2b
I0413 17:21:12.186218 28395 net.cpp:425] scale_conv2_2b <- conv2_2b
I0413 17:21:12.186223 28395 net.cpp:386] scale_conv2_2b -> conv2_2b (in-place)
I0413 17:21:12.186265 28395 layer_factory.hpp:77] Creating layer scale_conv2_2b
I0413 17:21:12.186369 28395 net.cpp:141] Setting up scale_conv2_2b
I0413 17:21:12.186378 28395 net.cpp:148] Top shape: 100 16 32 32 (1638400)
I0413 17:21:12.186386 28395 net.cpp:156] Memory required for data: 158516400
I0413 17:21:12.186394 28395 layer_factory.hpp:77] Creating layer conv2_2
I0413 17:21:12.186401 28395 net.cpp:91] Creating Layer conv2_2
I0413 17:21:12.186406 28395 net.cpp:425] conv2_2 <- conv2_2b
I0413 17:21:12.186413 28395 net.cpp:425] conv2_2 <- conv2_1_conv2_1_relu_0_split_1
I0413 17:21:12.186419 28395 net.cpp:399] conv2_2 -> conv2_2
I0413 17:21:12.186444 28395 net.cpp:141] Setting up conv2_2
I0413 17:21:12.186451 28395 net.cpp:148] Top shape: 100 16 32 32 (1638400)
I0413 17:21:12.186461 28395 net.cpp:156] Memory required for data: 165070000
I0413 17:21:12.186465 28395 layer_factory.hpp:77] Creating layer conv2_2_relu
I0413 17:21:12.186472 28395 net.cpp:91] Creating Layer conv2_2_relu
I0413 17:21:12.186477 28395 net.cpp:425] conv2_2_relu <- conv2_2
I0413 17:21:12.186483 28395 net.cpp:386] conv2_2_relu -> conv2_2 (in-place)
I0413 17:21:12.186764 28395 net.cpp:141] Setting up conv2_2_relu
I0413 17:21:12.186780 28395 net.cpp:148] Top shape: 100 16 32 32 (1638400)
I0413 17:21:12.186785 28395 net.cpp:156] Memory required for data: 171623600
I0413 17:21:12.186790 28395 layer_factory.hpp:77] Creating layer conv2_2_conv2_2_relu_0_split
I0413 17:21:12.186797 28395 net.cpp:91] Creating Layer conv2_2_conv2_2_relu_0_split
I0413 17:21:12.186802 28395 net.cpp:425] conv2_2_conv2_2_relu_0_split <- conv2_2
I0413 17:21:12.186810 28395 net.cpp:399] conv2_2_conv2_2_relu_0_split -> conv2_2_conv2_2_relu_0_split_0
I0413 17:21:12.186826 28395 net.cpp:399] conv2_2_conv2_2_relu_0_split -> conv2_2_conv2_2_relu_0_split_1
I0413 17:21:12.186871 28395 net.cpp:141] Setting up conv2_2_conv2_2_relu_0_split
I0413 17:21:12.186879 28395 net.cpp:148] Top shape: 100 16 32 32 (1638400)
I0413 17:21:12.186887 28395 net.cpp:148] Top shape: 100 16 32 32 (1638400)
I0413 17:21:12.186890 28395 net.cpp:156] Memory required for data: 184730800
I0413 17:21:12.186895 28395 layer_factory.hpp:77] Creating layer conv2_3a
I0413 17:21:12.186907 28395 net.cpp:91] Creating Layer conv2_3a
I0413 17:21:12.186911 28395 net.cpp:425] conv2_3a <- conv2_2_conv2_2_relu_0_split_0
I0413 17:21:12.186920 28395 net.cpp:399] conv2_3a -> conv2_3a
I0413 17:21:12.189414 28395 net.cpp:141] Setting up conv2_3a
I0413 17:21:12.189430 28395 net.cpp:148] Top shape: 100 16 32 32 (1638400)
I0413 17:21:12.189435 28395 net.cpp:156] Memory required for data: 191284400
I0413 17:21:12.189443 28395 layer_factory.hpp:77] Creating layer bn_conv2_3a
I0413 17:21:12.189451 28395 net.cpp:91] Creating Layer bn_conv2_3a
I0413 17:21:12.189461 28395 net.cpp:425] bn_conv2_3a <- conv2_3a
I0413 17:21:12.189470 28395 net.cpp:386] bn_conv2_3a -> conv2_3a (in-place)
I0413 17:21:12.189648 28395 net.cpp:141] Setting up bn_conv2_3a
I0413 17:21:12.189657 28395 net.cpp:148] Top shape: 100 16 32 32 (1638400)
I0413 17:21:12.189661 28395 net.cpp:156] Memory required for data: 197838000
I0413 17:21:12.189669 28395 layer_factory.hpp:77] Creating layer scale_conv2_3a
I0413 17:21:12.189677 28395 net.cpp:91] Creating Layer scale_conv2_3a
I0413 17:21:12.189682 28395 net.cpp:425] scale_conv2_3a <- conv2_3a
I0413 17:21:12.189687 28395 net.cpp:386] scale_conv2_3a -> conv2_3a (in-place)
I0413 17:21:12.189726 28395 layer_factory.hpp:77] Creating layer scale_conv2_3a
I0413 17:21:12.189829 28395 net.cpp:141] Setting up scale_conv2_3a
I0413 17:21:12.189837 28395 net.cpp:148] Top shape: 100 16 32 32 (1638400)
I0413 17:21:12.189841 28395 net.cpp:156] Memory required for data: 204391600
I0413 17:21:12.189849 28395 layer_factory.hpp:77] Creating layer conv2_3a_relu
I0413 17:21:12.189856 28395 net.cpp:91] Creating Layer conv2_3a_relu
I0413 17:21:12.189860 28395 net.cpp:425] conv2_3a_relu <- conv2_3a
I0413 17:21:12.189867 28395 net.cpp:386] conv2_3a_relu -> conv2_3a (in-place)
I0413 17:21:12.190446 28395 net.cpp:141] Setting up conv2_3a_relu
I0413 17:21:12.190459 28395 net.cpp:148] Top shape: 100 16 32 32 (1638400)
I0413 17:21:12.190464 28395 net.cpp:156] Memory required for data: 210945200
I0413 17:21:12.190469 28395 layer_factory.hpp:77] Creating layer conv2_3b
I0413 17:21:12.190480 28395 net.cpp:91] Creating Layer conv2_3b
I0413 17:21:12.190485 28395 net.cpp:425] conv2_3b <- conv2_3a
I0413 17:21:12.190493 28395 net.cpp:399] conv2_3b -> conv2_3b
I0413 17:21:12.193521 28395 net.cpp:141] Setting up conv2_3b
I0413 17:21:12.193536 28395 net.cpp:148] Top shape: 100 16 32 32 (1638400)
I0413 17:21:12.193542 28395 net.cpp:156] Memory required for data: 217498800
I0413 17:21:12.193549 28395 layer_factory.hpp:77] Creating layer bn_conv2_3b
I0413 17:21:12.193560 28395 net.cpp:91] Creating Layer bn_conv2_3b
I0413 17:21:12.193565 28395 net.cpp:425] bn_conv2_3b <- conv2_3b
I0413 17:21:12.193572 28395 net.cpp:386] bn_conv2_3b -> conv2_3b (in-place)
I0413 17:21:12.193750 28395 net.cpp:141] Setting up bn_conv2_3b
I0413 17:21:12.193758 28395 net.cpp:148] Top shape: 100 16 32 32 (1638400)
I0413 17:21:12.193763 28395 net.cpp:156] Memory required for data: 224052400
I0413 17:21:12.193771 28395 layer_factory.hpp:77] Creating layer scale_conv2_3b
I0413 17:21:12.193778 28395 net.cpp:91] Creating Layer scale_conv2_3b
I0413 17:21:12.193783 28395 net.cpp:425] scale_conv2_3b <- conv2_3b
I0413 17:21:12.193789 28395 net.cpp:386] scale_conv2_3b -> conv2_3b (in-place)
I0413 17:21:12.193827 28395 layer_factory.hpp:77] Creating layer scale_conv2_3b
I0413 17:21:12.193933 28395 net.cpp:141] Setting up scale_conv2_3b
I0413 17:21:12.193940 28395 net.cpp:148] Top shape: 100 16 32 32 (1638400)
I0413 17:21:12.193944 28395 net.cpp:156] Memory required for data: 230606000
I0413 17:21:12.193951 28395 layer_factory.hpp:77] Creating layer conv2_3
I0413 17:21:12.193958 28395 net.cpp:91] Creating Layer conv2_3
I0413 17:21:12.193964 28395 net.cpp:425] conv2_3 <- conv2_3b
I0413 17:21:12.193969 28395 net.cpp:425] conv2_3 <- conv2_2_conv2_2_relu_0_split_1
I0413 17:21:12.193975 28395 net.cpp:399] conv2_3 -> conv2_3
I0413 17:21:12.194000 28395 net.cpp:141] Setting up conv2_3
I0413 17:21:12.194007 28395 net.cpp:148] Top shape: 100 16 32 32 (1638400)
I0413 17:21:12.194011 28395 net.cpp:156] Memory required for data: 237159600
I0413 17:21:12.194015 28395 layer_factory.hpp:77] Creating layer conv2_3_relu
I0413 17:21:12.194022 28395 net.cpp:91] Creating Layer conv2_3_relu
I0413 17:21:12.194026 28395 net.cpp:425] conv2_3_relu <- conv2_3
I0413 17:21:12.194033 28395 net.cpp:386] conv2_3_relu -> conv2_3 (in-place)
I0413 17:21:12.194200 28395 net.cpp:141] Setting up conv2_3_relu
I0413 17:21:12.194211 28395 net.cpp:148] Top shape: 100 16 32 32 (1638400)
I0413 17:21:12.194216 28395 net.cpp:156] Memory required for data: 243713200
I0413 17:21:12.194224 28395 layer_factory.hpp:77] Creating layer global_pool
I0413 17:21:12.194232 28395 net.cpp:91] Creating Layer global_pool
I0413 17:21:12.194236 28395 net.cpp:425] global_pool <- conv2_3
I0413 17:21:12.194244 28395 net.cpp:399] global_pool -> global_pool
I0413 17:21:12.195010 28395 net.cpp:141] Setting up global_pool
I0413 17:21:12.195024 28395 net.cpp:148] Top shape: 100 16 4 4 (25600)
I0413 17:21:12.195029 28395 net.cpp:156] Memory required for data: 243815600
I0413 17:21:12.195034 28395 layer_factory.hpp:77] Creating layer ip
I0413 17:21:12.195041 28395 net.cpp:91] Creating Layer ip
I0413 17:21:12.195046 28395 net.cpp:425] ip <- global_pool
I0413 17:21:12.195053 28395 net.cpp:399] ip -> ip
I0413 17:21:12.195159 28395 net.cpp:141] Setting up ip
I0413 17:21:12.195168 28395 net.cpp:148] Top shape: 100 10 (1000)
I0413 17:21:12.195171 28395 net.cpp:156] Memory required for data: 243819600
I0413 17:21:12.195179 28395 layer_factory.hpp:77] Creating layer ip_ip_0_split
I0413 17:21:12.195185 28395 net.cpp:91] Creating Layer ip_ip_0_split
I0413 17:21:12.195190 28395 net.cpp:425] ip_ip_0_split <- ip
I0413 17:21:12.195197 28395 net.cpp:399] ip_ip_0_split -> ip_ip_0_split_0
I0413 17:21:12.195204 28395 net.cpp:399] ip_ip_0_split -> ip_ip_0_split_1
I0413 17:21:12.195240 28395 net.cpp:141] Setting up ip_ip_0_split
I0413 17:21:12.195246 28395 net.cpp:148] Top shape: 100 10 (1000)
I0413 17:21:12.195251 28395 net.cpp:148] Top shape: 100 10 (1000)
I0413 17:21:12.195255 28395 net.cpp:156] Memory required for data: 243827600
I0413 17:21:12.195260 28395 layer_factory.hpp:77] Creating layer accuracy
I0413 17:21:12.195266 28395 net.cpp:91] Creating Layer accuracy
I0413 17:21:12.195271 28395 net.cpp:425] accuracy <- ip_ip_0_split_0
I0413 17:21:12.195276 28395 net.cpp:425] accuracy <- label_cifar_1_split_0
I0413 17:21:12.195282 28395 net.cpp:399] accuracy -> accuracy
…
I0413 17:30:20.323024 22640 solver.cpp:91] Creating training net from net file: prototxt/DyResNet/ResNet-cifar3.prototxt
I0413 17:30:20.324211 22640 net.cpp:313] The NetState phase (0) differed from the phase (1) specified by a rule in layer cifar
I0413 17:30:20.324530 22640 net.cpp:49] Initializing net from parameters: 
name: "ResNet-cifar"
state {
  phase: TRAIN
}
layer {
  name: "cifar"
  type: "Data"
  top: "data"
  top: "label"
  include {
    phase: TRAIN
  }
  transform_param {
    mirror: true
    mean_file: "data/cifar10/mean.binaryproto"
  }
  data_param {
    source: "data/cifar10/cifar10_train_lmdb"
    batch_size: 256
    backend: LMDB
  }
}
layer {
  name: "conv1"
  type: "Convolution"
  bottom: "data"
  top: "conv1"
  param {
    lr_mult: 1
  }
  param {
    lr_mult: 2
  }
  convolution_param {
    num_output: 16
    pad: 1
    kernel_size: 3
    weight_filler {
      type: "msra"
    }
    bias_filler {
      type: "constant"
    }
  }
}
layer {
  name: "bn_conv1"
  type: "BatchNorm"
  bottom: "conv1"
  top: "conv1"
  param {
    lr_mult: 0
  }
  param {
    lr_mult: 0
  }
  param {
    lr_mult: 0
  }
}
layer {
  name: "scale_conv1"
  type: "Scale"
  bottom: "conv1"
  top: "conv1"
  scale_param {
    bias_term: true
  }
}
layer {
  name: "conv1_relu"
  type: "ReLU"
  bottom: "conv1"
  top: "conv1"
}
layer {
  name: "conv2_1a"
  type: "Convolution"
  bottom: "conv1"
  top: "conv2_1a"
  param {
    lr_mult: 1
  }
  param {
    lr_mult: 2
  }
  convolution_param {
    num_output: 16
    pad: 1
    kernel_size: 3
    stride: 1
    weight_filler {
      type: "msra"
    }
    bias_filler {
      type: "constant"
      value: 0
    }
  }
}
layer {
  name: "bn_conv2_1a"
  type: "BatchNorm"
  bottom: "conv2_1a"
  top: "conv2_1a"
  param {
    lr_mult: 0
  }
  param {
    lr_mult: 0
  }
  param {
    lr_mult: 0
  }
}
layer {
  name: "scale_conv2_1a"
  type: "Scale"
  bottom: "conv2_1a"
  top: "conv2_1a"
  scale_param {
    bias_term: true
  }
}
layer {
  name: "conv2_1a_relu"
  type: "ReLU"
  bottom: "conv2_1a"
  top: "conv2_1a"
}
layer {
  name: "conv2_1b"
  type: "Convolution"
  bottom: "conv2_1a"
  top: "conv2_1b"
  param {
    lr_mult: 1
  }
  param {
    lr_mult: 2
  }
  convolution_param {
    num_output: 16
    pad: 1
    kernel_size: 3
    stride: 1
    weight_filler {
      type: "msra"
    }
    bias_filler {
      type: "constant"
      value: 0
    }
  }
}
layer {
  name: "bn_conv2_1b"
  type: "BatchNorm"
  bottom: "conv2_1b"
  top: "conv2_1b"
  param {
    lr_mult: 0
  }
  param {
    lr_mult: 0
  }
  param {
    lr_mult: 0
  }
}
layer {
  name: "scale_conv2_1b"
  type: "Scale"
  bottom: "conv2_1b"
  top: "conv2_1b"
  scale_param {
    bias_term: true
  }
}
layer {
  name: "conv2_1"
  type: "Eltwise"
  bottom: "conv2_1b"
  bottom: "conv1"
  top: "conv2_1"
}
layer {
  name: "conv2_1_relu"
  type: "ReLU"
  bottom: "conv2_1"
  top: "conv2_1"
}
layer {
  name: "conv2_2a"
  type: "Convolution"
  bottom: "conv2_1"
  top: "conv2_2a"
  param {
    lr_mult: 1
  }
  param {
    lr_mult: 2
  }
  convolution_param {
    num_output: 16
    pad: 1
    kernel_size: 3
    stride: 1
    weight_filler {
      type: "msra"
    }
    bias_filler {
      type: "constant"
      value: 0
    }
  }
}
layer {
  name: "bn_conv2_2a"
  type: "BatchNorm"
  bottom: "conv2_2a"
  top: "conv2_2a"
  param {
    lr_mult: 0
  }
  param {
    lr_mult: 0
  }
  param {
    lr_mult: 0
  }
}
layer {
  name: "scale_conv2_2a"
  type: "Scale"
  bottom: "conv2_2a"
  top: "conv2_2a"
  scale_param {
    bias_term: true
  }
}
layer {
  name: "conv2_2a_relu"
  type: "ReLU"
  bottom: "conv2_2a"
  top: "conv2_2a"
}
layer {
  name: "conv2_2b"
  type: "Convolution"
  bottom: "conv2_2a"
  top: "conv2_2b"
  param {
    lr_mult: 1
  }
  param {
    lr_mult: 2
  }
  convolution_param {
    num_output: 16
    pad: 1
    kernel_size: 3
    stride: 1
    weight_filler {
      type: "msra"
    }
    bias_filler {
      type: "constant"
      value: 0
    }
  }
}
layer {
  name: "bn_conv2_2b"
  type: "BatchNorm"
  bottom: "conv2_2b"
  top: "conv2_2b"
  param {
    lr_mult: 0
  }
  param {
    lr_mult: 0
  }
  param {
    lr_mult: 0
  }
}
layer {
  name: "scale_conv2_2b"
  type: "Scale"
  bottom: "conv2_2b"
  top: "conv2_2b"
  scale_param {
    bias_term: true
  }
}
layer {
  name: "conv2_2"
  type: "Eltwise"
  bottom: "conv2_2b"
  bottom: "conv2_1"
  top: "conv2_2"
}
layer {
  name: "conv2_2_relu"
  type: "ReLU"
  bottom: "conv2_2"
  top: "conv2_2"
}
layer {
  name: "conv2_3a"
  type: "Convolution"
  bottom: "conv2_2"
  top: "conv2_3a"
  param {
    lr_mult: 1
  }
  param {
    lr_mult: 2
  }
  convolution_param {
    num_output: 16
    pad: 1
    kernel_size: 3
    stride: 1
    weight_filler {
      type: "msra"
    }
    bias_filler {
      type: "constant"
      value: 0
    }
  }
}
layer {
  name: "bn_conv2_3a"
  type: "BatchNorm"
  bottom: "conv2_3a"
  top: "conv2_3a"
  param {
    lr_mult: 0
  }
  param {
    lr_mult: 0
  }
  param {
    lr_mult: 0
  }
}
layer {
  name: "scale_conv2_3a"
  type: "Scale"
  bottom: "conv2_3a"
  top: "conv2_3a"
  scale_param {
    bias_term: true
  }
}
layer {
  name: "conv2_3a_relu"
  type: "ReLU"
  bottom: "conv2_3a"
  top: "conv2_3a"
}
layer {
  name: "conv2_3b"
  type: "Convolution"
  bottom: "conv2_3a"
  top: "conv2_3b"
  param {
    lr_mult: 1
  }
  param {
    lr_mult: 2
  }
  convolution_param {
    num_output: 16
    pad: 1
    kernel_size: 3
    stride: 1
    weight_filler {
      type: "msra"
    }
    bias_filler {
      type: "constant"
      value: 0
    }
  }
}
layer {
  name: "bn_conv2_3b"
  type: "BatchNorm"
  bottom: "conv2_3b"
  top: "conv2_3b"
  param {
    lr_mult: 0
  }
  param {
    lr_mult: 0
  }
  param {
    lr_mult: 0
  }
}
layer {
  name: "scale_conv2_3b"
  type: "Scale"
  bottom: "conv2_3b"
  top: "conv2_3b"
  scale_param {
    bias_term: true
  }
}
layer {
  name: "conv2_3"
  type: "Eltwise"
  bottom: "conv2_3b"
  bottom: "conv2_2"
  top: "conv2_3"
}
layer {
  name: "conv2_3_relu"
  type: "ReLU"
  bottom: "conv2_3"
  top: "conv2_3"
}
layer {
  name: "conv2_sub"
  type: "Convolution"
  bottom: "conv2_3"
  top: "conv2_sub"
  param {
    lr_mult: 1
  }
  param {
    lr_mult: 2
  }
  convolution_param {
    num_output: 32
    kernel_size: 1
    stride: 2
    weight_filler {
      type: "msra"
    }
    bias_filler {
      type: "constant"
      value: 0
    }
  }
}
layer {
  name: "bn_conv2_sub"
  type: "BatchNorm"
  bottom: "conv2_sub"
  top: "conv2_sub"
  param {
    lr_mult: 0
  }
  param {
    lr_mult: 0
  }
  param {
    lr_mult: 0
  }
}
layer {
  name: "scale_conv2_sub"
  type: "Scale"
  bottom: "conv2_sub"
  top: "conv2_sub"
  scale_param {
    bias_term: true
  }
}
layer {
  name: "conv3_1a"
  type: "Convolution"
  bottom: "conv2_3"
  top: "conv3_1a"
  param {
    lr_mult: 1
  }
  param {
    lr_mult: 2
  }
  convolution_param {
    num_output: 32
    pad: 0
    kernel_size: 1
    stride: 2
    weight_filler {
      type: "msra"
    }
    bias_filler {
      type: "constant"
      value: 0
    }
  }
}
layer {
  name: "bn_conv3_1a"
  type: "BatchNorm"
  bottom: "conv3_1a"
  top: "conv3_1a"
  param {
    lr_mult: 0
  }
  param {
    lr_mult: 0
  }
  param {
    lr_mult: 0
  }
}
layer {
  name: "scale_conv3_1a"
  type: "Scale"
  bottom: "conv3_1a"
  top: "conv3_1a"
  scale_param {
    bias_term: true
  }
}
layer {
  name: "conv3_1a_relu"
  type: "ReLU"
  bottom: "conv3_1a"
  top: "conv3_1a"
}
layer {
  name: "conv3_1b"
  type: "Convolution"
  bottom: "conv3_1a"
  top: "conv3_1b"
  param {
    lr_mult: 1
  }
  param {
    lr_mult: 2
  }
  convolution_param {
    num_output: 32
    pad: 1
    kernel_size: 3
    stride: 1
    weight_filler {
      type: "msra"
    }
    bias_filler {
      type: "constant"
      value: 0
    }
  }
}
layer {
  name: "bn_conv3_1b"
  type: "BatchNorm"
  bottom: "conv3_1b"
  top: "conv3_1b"
  param {
    lr_mult: 0
  }
  param {
    lr_mult: 0
  }
  param {
    lr_mult: 0
  }
}
layer {
  name: "scale_conv3_1b"
  type: "Scale"
  bottom: "conv3_1b"
  top: "conv3_1b"
  scale_param {
    bias_term: true
  }
}
layer {
  name: "conv3_1"
  type: "Eltwise"
  bottom: "conv3_1b"
  bottom: "conv2_sub"
  top: "conv3_1"
}
layer {
  name: "conv3_1_relu"
  type: "ReLU"
  bottom: "conv3_1"
  top: "conv3_1"
}
layer {
  name: "global_pool"
  type: "Pooling"
  bottom: "conv3_1"
  top: "global_pool"
  pooling_param {
    pool: AVE
    kernel_size: 8
    stride: 8
  }
}
layer {
  name: "ip"
  type: "InnerProduct"
  bottom: "global_pool"
  top: "ip"
  inner_product_param {
    num_output: 10
  }
}
layer {
  name: "accuracy"
  type: "Accuracy"
  bottom: "ip"
  bottom: "label"
  top: "accuracy"
}
layer {
  name: "loss"
  type: "SoftmaxWithLoss"
  bottom: "ip"
  bottom: "label"
  top: "loss"
}
I0413 17:30:20.324792 22640 layer_factory.hpp:77] Creating layer cifar
I0413 17:30:20.325426 22640 net.cpp:91] Creating Layer cifar
I0413 17:30:20.325444 22640 net.cpp:399] cifar -> data
I0413 17:30:20.325461 22640 net.cpp:399] cifar -> label
I0413 17:30:20.325474 22640 data_transformer.cpp:25] Loading mean file from: data/cifar10/mean.binaryproto
I0413 17:30:20.328917 22690 db_lmdb.cpp:38] Opened lmdb data/cifar10/cifar10_train_lmdb
I0413 17:30:20.371645 22640 data_layer.cpp:41] output data size: 256,3,32,32
I0413 17:30:20.380692 22640 net.cpp:141] Setting up cifar
I0413 17:30:20.380728 22640 net.cpp:148] Top shape: 256 3 32 32 (786432)
I0413 17:30:20.380738 22640 net.cpp:148] Top shape: 256 (256)
I0413 17:30:20.380743 22640 net.cpp:156] Memory required for data: 3146752
I0413 17:30:20.380754 22640 layer_factory.hpp:77] Creating layer label_cifar_1_split
I0413 17:30:20.380779 22640 net.cpp:91] Creating Layer label_cifar_1_split
I0413 17:30:20.380786 22640 net.cpp:425] label_cifar_1_split <- label
I0413 17:30:20.380800 22640 net.cpp:399] label_cifar_1_split -> label_cifar_1_split_0
I0413 17:30:20.380817 22640 net.cpp:399] label_cifar_1_split -> label_cifar_1_split_1
I0413 17:30:20.380918 22640 net.cpp:141] Setting up label_cifar_1_split
I0413 17:30:20.380930 22640 net.cpp:148] Top shape: 256 (256)
I0413 17:30:20.380937 22640 net.cpp:148] Top shape: 256 (256)
I0413 17:30:20.380942 22640 net.cpp:156] Memory required for data: 3148800
I0413 17:30:20.380949 22640 layer_factory.hpp:77] Creating layer conv1
I0413 17:30:20.380967 22640 net.cpp:91] Creating Layer conv1
I0413 17:30:20.380973 22640 net.cpp:425] conv1 <- data
I0413 17:30:20.380985 22640 net.cpp:399] conv1 -> conv1
I0413 17:30:20.650936 22640 net.cpp:141] Setting up conv1
I0413 17:30:20.650980 22640 net.cpp:148] Top shape: 256 16 32 32 (4194304)
I0413 17:30:20.650986 22640 net.cpp:156] Memory required for data: 19926016
I0413 17:30:20.651006 22640 layer_factory.hpp:77] Creating layer bn_conv1
I0413 17:30:20.651022 22640 net.cpp:91] Creating Layer bn_conv1
I0413 17:30:20.651028 22640 net.cpp:425] bn_conv1 <- conv1
I0413 17:30:20.651037 22640 net.cpp:386] bn_conv1 -> conv1 (in-place)
I0413 17:30:20.651196 22640 net.cpp:141] Setting up bn_conv1
I0413 17:30:20.651206 22640 net.cpp:148] Top shape: 256 16 32 32 (4194304)
I0413 17:30:20.651209 22640 net.cpp:156] Memory required for data: 36703232
I0413 17:30:20.651222 22640 layer_factory.hpp:77] Creating layer scale_conv1
I0413 17:30:20.651234 22640 net.cpp:91] Creating Layer scale_conv1
I0413 17:30:20.651239 22640 net.cpp:425] scale_conv1 <- conv1
I0413 17:30:20.651245 22640 net.cpp:386] scale_conv1 -> conv1 (in-place)
I0413 17:30:20.651280 22640 layer_factory.hpp:77] Creating layer scale_conv1
I0413 17:30:20.651377 22640 net.cpp:141] Setting up scale_conv1
I0413 17:30:20.651386 22640 net.cpp:148] Top shape: 256 16 32 32 (4194304)
I0413 17:30:20.651391 22640 net.cpp:156] Memory required for data: 53480448
I0413 17:30:20.651398 22640 layer_factory.hpp:77] Creating layer conv1_relu
I0413 17:30:20.651407 22640 net.cpp:91] Creating Layer conv1_relu
I0413 17:30:20.651412 22640 net.cpp:425] conv1_relu <- conv1
I0413 17:30:20.651417 22640 net.cpp:386] conv1_relu -> conv1 (in-place)
I0413 17:30:20.651957 22640 net.cpp:141] Setting up conv1_relu
I0413 17:30:20.651970 22640 net.cpp:148] Top shape: 256 16 32 32 (4194304)
I0413 17:30:20.651975 22640 net.cpp:156] Memory required for data: 70257664
I0413 17:30:20.651981 22640 layer_factory.hpp:77] Creating layer conv1_conv1_relu_0_split
I0413 17:30:20.651989 22640 net.cpp:91] Creating Layer conv1_conv1_relu_0_split
I0413 17:30:20.651994 22640 net.cpp:425] conv1_conv1_relu_0_split <- conv1
I0413 17:30:20.652000 22640 net.cpp:399] conv1_conv1_relu_0_split -> conv1_conv1_relu_0_split_0
I0413 17:30:20.652009 22640 net.cpp:399] conv1_conv1_relu_0_split -> conv1_conv1_relu_0_split_1
I0413 17:30:20.652045 22640 net.cpp:141] Setting up conv1_conv1_relu_0_split
I0413 17:30:20.652052 22640 net.cpp:148] Top shape: 256 16 32 32 (4194304)
I0413 17:30:20.652057 22640 net.cpp:148] Top shape: 256 16 32 32 (4194304)
I0413 17:30:20.652062 22640 net.cpp:156] Memory required for data: 103812096
I0413 17:30:20.652066 22640 layer_factory.hpp:77] Creating layer conv2_1a
I0413 17:30:20.652079 22640 net.cpp:91] Creating Layer conv2_1a
I0413 17:30:20.652084 22640 net.cpp:425] conv2_1a <- conv1_conv1_relu_0_split_0
I0413 17:30:20.652101 22640 net.cpp:399] conv2_1a -> conv2_1a
I0413 17:30:20.653439 22640 net.cpp:141] Setting up conv2_1a
I0413 17:30:20.653455 22640 net.cpp:148] Top shape: 256 16 32 32 (4194304)
I0413 17:30:20.653461 22640 net.cpp:156] Memory required for data: 120589312
I0413 17:30:20.653471 22640 layer_factory.hpp:77] Creating layer bn_conv2_1a
I0413 17:30:20.653481 22640 net.cpp:91] Creating Layer bn_conv2_1a
I0413 17:30:20.653486 22640 net.cpp:425] bn_conv2_1a <- conv2_1a
I0413 17:30:20.653493 22640 net.cpp:386] bn_conv2_1a -> conv2_1a (in-place)
I0413 17:30:20.653640 22640 net.cpp:141] Setting up bn_conv2_1a
I0413 17:30:20.653647 22640 net.cpp:148] Top shape: 256 16 32 32 (4194304)
I0413 17:30:20.653651 22640 net.cpp:156] Memory required for data: 137366528
I0413 17:30:20.653661 22640 layer_factory.hpp:77] Creating layer scale_conv2_1a
I0413 17:30:20.653667 22640 net.cpp:91] Creating Layer scale_conv2_1a
I0413 17:30:20.653672 22640 net.cpp:425] scale_conv2_1a <- conv2_1a
I0413 17:30:20.653678 22640 net.cpp:386] scale_conv2_1a -> conv2_1a (in-place)
I0413 17:30:20.653707 22640 layer_factory.hpp:77] Creating layer scale_conv2_1a
I0413 17:30:20.653791 22640 net.cpp:141] Setting up scale_conv2_1a
I0413 17:30:20.653800 22640 net.cpp:148] Top shape: 256 16 32 32 (4194304)
I0413 17:30:20.653805 22640 net.cpp:156] Memory required for data: 154143744
I0413 17:30:20.653811 22640 layer_factory.hpp:77] Creating layer conv2_1a_relu
I0413 17:30:20.653818 22640 net.cpp:91] Creating Layer conv2_1a_relu
I0413 17:30:20.653822 22640 net.cpp:425] conv2_1a_relu <- conv2_1a
I0413 17:30:20.653828 22640 net.cpp:386] conv2_1a_relu -> conv2_1a (in-place)
I0413 17:30:20.654079 22640 net.cpp:141] Setting up conv2_1a_relu
I0413 17:30:20.654093 22640 net.cpp:148] Top shape: 256 16 32 32 (4194304)
I0413 17:30:20.654098 22640 net.cpp:156] Memory required for data: 170920960
I0413 17:30:20.654103 22640 layer_factory.hpp:77] Creating layer conv2_1b
I0413 17:30:20.654114 22640 net.cpp:91] Creating Layer conv2_1b
I0413 17:30:20.654119 22640 net.cpp:425] conv2_1b <- conv2_1a
I0413 17:30:20.654125 22640 net.cpp:399] conv2_1b -> conv2_1b
I0413 17:30:20.656949 22640 net.cpp:141] Setting up conv2_1b
I0413 17:30:20.656965 22640 net.cpp:148] Top shape: 256 16 32 32 (4194304)
I0413 17:30:20.656970 22640 net.cpp:156] Memory required for data: 187698176
I0413 17:30:20.656977 22640 layer_factory.hpp:77] Creating layer bn_conv2_1b
I0413 17:30:20.656985 22640 net.cpp:91] Creating Layer bn_conv2_1b
I0413 17:30:20.656991 22640 net.cpp:425] bn_conv2_1b <- conv2_1b
I0413 17:30:20.656997 22640 net.cpp:386] bn_conv2_1b -> conv2_1b (in-place)
I0413 17:30:20.657155 22640 net.cpp:141] Setting up bn_conv2_1b
I0413 17:30:20.657165 22640 net.cpp:148] Top shape: 256 16 32 32 (4194304)
I0413 17:30:20.657169 22640 net.cpp:156] Memory required for data: 204475392
I0413 17:30:20.657181 22640 layer_factory.hpp:77] Creating layer scale_conv2_1b
I0413 17:30:20.657188 22640 net.cpp:91] Creating Layer scale_conv2_1b
I0413 17:30:20.657192 22640 net.cpp:425] scale_conv2_1b <- conv2_1b
I0413 17:30:20.657198 22640 net.cpp:386] scale_conv2_1b -> conv2_1b (in-place)
I0413 17:30:20.657228 22640 layer_factory.hpp:77] Creating layer scale_conv2_1b
I0413 17:30:20.657315 22640 net.cpp:141] Setting up scale_conv2_1b
I0413 17:30:20.657323 22640 net.cpp:148] Top shape: 256 16 32 32 (4194304)
I0413 17:30:20.657328 22640 net.cpp:156] Memory required for data: 221252608
I0413 17:30:20.657335 22640 layer_factory.hpp:77] Creating layer conv2_1
I0413 17:30:20.657343 22640 net.cpp:91] Creating Layer conv2_1
I0413 17:30:20.657347 22640 net.cpp:425] conv2_1 <- conv2_1b
I0413 17:30:20.657353 22640 net.cpp:425] conv2_1 <- conv1_conv1_relu_0_split_1
I0413 17:30:20.657359 22640 net.cpp:399] conv2_1 -> conv2_1
I0413 17:30:20.657382 22640 net.cpp:141] Setting up conv2_1
I0413 17:30:20.657388 22640 net.cpp:148] Top shape: 256 16 32 32 (4194304)
I0413 17:30:20.657392 22640 net.cpp:156] Memory required for data: 238029824
I0413 17:30:20.657397 22640 layer_factory.hpp:77] Creating layer conv2_1_relu
I0413 17:30:20.657408 22640 net.cpp:91] Creating Layer conv2_1_relu
I0413 17:30:20.657413 22640 net.cpp:425] conv2_1_relu <- conv2_1
I0413 17:30:20.657419 22640 net.cpp:386] conv2_1_relu -> conv2_1 (in-place)
I0413 17:30:20.658040 22640 net.cpp:141] Setting up conv2_1_relu
I0413 17:30:20.658049 22640 net.cpp:148] Top shape: 256 16 32 32 (4194304)
I0413 17:30:20.658054 22640 net.cpp:156] Memory required for data: 254807040
I0413 17:30:20.658059 22640 layer_factory.hpp:77] Creating layer conv2_1_conv2_1_relu_0_split
I0413 17:30:20.658066 22640 net.cpp:91] Creating Layer conv2_1_conv2_1_relu_0_split
I0413 17:30:20.658071 22640 net.cpp:425] conv2_1_conv2_1_relu_0_split <- conv2_1
I0413 17:30:20.658077 22640 net.cpp:399] conv2_1_conv2_1_relu_0_split -> conv2_1_conv2_1_relu_0_split_0
I0413 17:30:20.658085 22640 net.cpp:399] conv2_1_conv2_1_relu_0_split -> conv2_1_conv2_1_relu_0_split_1
I0413 17:30:20.658118 22640 net.cpp:141] Setting up conv2_1_conv2_1_relu_0_split
I0413 17:30:20.658125 22640 net.cpp:148] Top shape: 256 16 32 32 (4194304)
I0413 17:30:20.658131 22640 net.cpp:148] Top shape: 256 16 32 32 (4194304)
I0413 17:30:20.658135 22640 net.cpp:156] Memory required for data: 288361472
I0413 17:30:20.658139 22640 layer_factory.hpp:77] Creating layer conv2_2a
I0413 17:30:20.658150 22640 net.cpp:91] Creating Layer conv2_2a
I0413 17:30:20.658155 22640 net.cpp:425] conv2_2a <- conv2_1_conv2_1_relu_0_split_0
I0413 17:30:20.658162 22640 net.cpp:399] conv2_2a -> conv2_2a
I0413 17:30:20.661568 22640 net.cpp:141] Setting up conv2_2a
I0413 17:30:20.661586 22640 net.cpp:148] Top shape: 256 16 32 32 (4194304)
I0413 17:30:20.661591 22640 net.cpp:156] Memory required for data: 305138688
I0413 17:30:20.661598 22640 layer_factory.hpp:77] Creating layer bn_conv2_2a
I0413 17:30:20.661607 22640 net.cpp:91] Creating Layer bn_conv2_2a
I0413 17:30:20.661612 22640 net.cpp:425] bn_conv2_2a <- conv2_2a
I0413 17:30:20.661618 22640 net.cpp:386] bn_conv2_2a -> conv2_2a (in-place)
I0413 17:30:20.661769 22640 net.cpp:141] Setting up bn_conv2_2a
I0413 17:30:20.661777 22640 net.cpp:148] Top shape: 256 16 32 32 (4194304)
I0413 17:30:20.661782 22640 net.cpp:156] Memory required for data: 321915904
I0413 17:30:20.661789 22640 layer_factory.hpp:77] Creating layer scale_conv2_2a
I0413 17:30:20.661798 22640 net.cpp:91] Creating Layer scale_conv2_2a
I0413 17:30:20.661801 22640 net.cpp:425] scale_conv2_2a <- conv2_2a
I0413 17:30:20.661808 22640 net.cpp:386] scale_conv2_2a -> conv2_2a (in-place)
I0413 17:30:20.661837 22640 layer_factory.hpp:77] Creating layer scale_conv2_2a
I0413 17:30:20.661923 22640 net.cpp:141] Setting up scale_conv2_2a
I0413 17:30:20.661931 22640 net.cpp:148] Top shape: 256 16 32 32 (4194304)
I0413 17:30:20.661936 22640 net.cpp:156] Memory required for data: 338693120
I0413 17:30:20.661942 22640 layer_factory.hpp:77] Creating layer conv2_2a_relu
I0413 17:30:20.661949 22640 net.cpp:91] Creating Layer conv2_2a_relu
I0413 17:30:20.661953 22640 net.cpp:425] conv2_2a_relu <- conv2_2a
I0413 17:30:20.661959 22640 net.cpp:386] conv2_2a_relu -> conv2_2a (in-place)
I0413 17:30:20.662634 22640 net.cpp:141] Setting up conv2_2a_relu
I0413 17:30:20.662648 22640 net.cpp:148] Top shape: 256 16 32 32 (4194304)
I0413 17:30:20.662653 22640 net.cpp:156] Memory required for data: 355470336
I0413 17:30:20.662658 22640 layer_factory.hpp:77] Creating layer conv2_2b
I0413 17:30:20.662668 22640 net.cpp:91] Creating Layer conv2_2b
I0413 17:30:20.662674 22640 net.cpp:425] conv2_2b <- conv2_2a
I0413 17:30:20.662681 22640 net.cpp:399] conv2_2b -> conv2_2b
I0413 17:30:20.666116 22640 net.cpp:141] Setting up conv2_2b
I0413 17:30:20.666131 22640 net.cpp:148] Top shape: 256 16 32 32 (4194304)
I0413 17:30:20.666136 22640 net.cpp:156] Memory required for data: 372247552
I0413 17:30:20.666144 22640 layer_factory.hpp:77] Creating layer bn_conv2_2b
I0413 17:30:20.666152 22640 net.cpp:91] Creating Layer bn_conv2_2b
I0413 17:30:20.666157 22640 net.cpp:425] bn_conv2_2b <- conv2_2b
I0413 17:30:20.666163 22640 net.cpp:386] bn_conv2_2b -> conv2_2b (in-place)
I0413 17:30:20.666319 22640 net.cpp:141] Setting up bn_conv2_2b
I0413 17:30:20.666327 22640 net.cpp:148] Top shape: 256 16 32 32 (4194304)
I0413 17:30:20.666332 22640 net.cpp:156] Memory required for data: 389024768
I0413 17:30:20.666344 22640 layer_factory.hpp:77] Creating layer scale_conv2_2b
I0413 17:30:20.666352 22640 net.cpp:91] Creating Layer scale_conv2_2b
I0413 17:30:20.666357 22640 net.cpp:425] scale_conv2_2b <- conv2_2b
I0413 17:30:20.666363 22640 net.cpp:386] scale_conv2_2b -> conv2_2b (in-place)
I0413 17:30:20.666393 22640 layer_factory.hpp:77] Creating layer scale_conv2_2b
I0413 17:30:20.666478 22640 net.cpp:141] Setting up scale_conv2_2b
I0413 17:30:20.666486 22640 net.cpp:148] Top shape: 256 16 32 32 (4194304)
I0413 17:30:20.666491 22640 net.cpp:156] Memory required for data: 405801984
…
I0413 18:38:59.485815 30343 layer_factory.hpp:77] Creating layer conv2_1
I0413 18:38:59.485822 30343 net.cpp:91] Creating Layer conv2_1
I0413 18:38:59.485827 30343 net.cpp:425] conv2_1 <- conv2_1b
I0413 18:38:59.485833 30343 net.cpp:425] conv2_1 <- conv1_conv1_relu_0_split_1
I0413 18:38:59.485842 30343 net.cpp:399] conv2_1 -> conv2_1
I0413 18:38:59.485884 30343 net.cpp:141] Setting up conv2_1
I0413 18:38:59.485893 30343 net.cpp:148] Top shape: 100 16 32 32 (1638400)
I0413 18:38:59.485898 30343 net.cpp:156] Memory required for data: 92980400
I0413 18:38:59.485903 30343 layer_factory.hpp:77] Creating layer conv2_1_relu
I0413 18:38:59.485913 30343 net.cpp:91] Creating Layer conv2_1_relu
I0413 18:38:59.485918 30343 net.cpp:425] conv2_1_relu <- conv2_1
I0413 18:38:59.485924 30343 net.cpp:386] conv2_1_relu -> conv2_1 (in-place)
I0413 18:38:59.486208 30343 net.cpp:141] Setting up conv2_1_relu
I0413 18:38:59.486222 30343 net.cpp:148] Top shape: 100 16 32 32 (1638400)
I0413 18:38:59.486227 30343 net.cpp:156] Memory required for data: 99534000
I0413 18:38:59.486232 30343 layer_factory.hpp:77] Creating layer conv2_1_conv2_1_relu_0_split
I0413 18:38:59.486243 30343 net.cpp:91] Creating Layer conv2_1_conv2_1_relu_0_split
I0413 18:38:59.486249 30343 net.cpp:425] conv2_1_conv2_1_relu_0_split <- conv2_1
I0413 18:38:59.486256 30343 net.cpp:399] conv2_1_conv2_1_relu_0_split -> conv2_1_conv2_1_relu_0_split_0
I0413 18:38:59.486266 30343 net.cpp:399] conv2_1_conv2_1_relu_0_split -> conv2_1_conv2_1_relu_0_split_1
I0413 18:38:59.486325 30343 net.cpp:141] Setting up conv2_1_conv2_1_relu_0_split
I0413 18:38:59.486335 30343 net.cpp:148] Top shape: 100 16 32 32 (1638400)
I0413 18:38:59.486341 30343 net.cpp:148] Top shape: 100 16 32 32 (1638400)
I0413 18:38:59.486346 30343 net.cpp:156] Memory required for data: 112641200
I0413 18:38:59.486351 30343 layer_factory.hpp:77] Creating layer conv2_2a
I0413 18:38:59.486364 30343 net.cpp:91] Creating Layer conv2_2a
I0413 18:38:59.486371 30343 net.cpp:425] conv2_2a <- conv2_1_conv2_1_relu_0_split_0
I0413 18:38:59.486380 30343 net.cpp:399] conv2_2a -> conv2_2a
I0413 18:38:59.489817 30343 net.cpp:141] Setting up conv2_2a
I0413 18:38:59.489845 30343 net.cpp:148] Top shape: 100 16 32 32 (1638400)
I0413 18:38:59.489850 30343 net.cpp:156] Memory required for data: 119194800
I0413 18:38:59.489859 30343 layer_factory.hpp:77] Creating layer bn_conv2_2a
I0413 18:38:59.489871 30343 net.cpp:91] Creating Layer bn_conv2_2a
I0413 18:38:59.489881 30343 net.cpp:425] bn_conv2_2a <- conv2_2a
I0413 18:38:59.489888 30343 net.cpp:386] bn_conv2_2a -> conv2_2a (in-place)
I0413 18:38:59.490137 30343 net.cpp:141] Setting up bn_conv2_2a
I0413 18:38:59.490154 30343 net.cpp:148] Top shape: 100 16 32 32 (1638400)
I0413 18:38:59.490159 30343 net.cpp:156] Memory required for data: 125748400
I0413 18:38:59.490170 30343 layer_factory.hpp:77] Creating layer scale_conv2_2a
I0413 18:38:59.490178 30343 net.cpp:91] Creating Layer scale_conv2_2a
I0413 18:38:59.490202 30343 net.cpp:425] scale_conv2_2a <- conv2_2a
I0413 18:38:59.490209 30343 net.cpp:386] scale_conv2_2a -> conv2_2a (in-place)
I0413 18:38:59.490267 30343 layer_factory.hpp:77] Creating layer scale_conv2_2a
I0413 18:38:59.490412 30343 net.cpp:141] Setting up scale_conv2_2a
I0413 18:38:59.490422 30343 net.cpp:148] Top shape: 100 16 32 32 (1638400)
I0413 18:38:59.490427 30343 net.cpp:156] Memory required for data: 132302000
I0413 18:38:59.490437 30343 layer_factory.hpp:77] Creating layer conv2_2a_relu
I0413 18:38:59.490443 30343 net.cpp:91] Creating Layer conv2_2a_relu
I0413 18:38:59.490448 30343 net.cpp:425] conv2_2a_relu <- conv2_2a
I0413 18:38:59.490460 30343 net.cpp:386] conv2_2a_relu -> conv2_2a (in-place)
I0413 18:38:59.490860 30343 net.cpp:141] Setting up conv2_2a_relu
I0413 18:38:59.490876 30343 net.cpp:148] Top shape: 100 16 32 32 (1638400)
I0413 18:38:59.490882 30343 net.cpp:156] Memory required for data: 138855600
I0413 18:38:59.490887 30343 layer_factory.hpp:77] Creating layer conv2_2b
I0413 18:38:59.490901 30343 net.cpp:91] Creating Layer conv2_2b
I0413 18:38:59.490912 30343 net.cpp:425] conv2_2b <- conv2_2a
I0413 18:38:59.490923 30343 net.cpp:399] conv2_2b -> conv2_2b
I0413 18:38:59.494437 30343 net.cpp:141] Setting up conv2_2b
I0413 18:38:59.494457 30343 net.cpp:148] Top shape: 100 16 32 32 (1638400)
I0413 18:38:59.494463 30343 net.cpp:156] Memory required for data: 145409200
I0413 18:38:59.494472 30343 layer_factory.hpp:77] Creating layer bn_conv2_2b
I0413 18:38:59.494482 30343 net.cpp:91] Creating Layer bn_conv2_2b
I0413 18:38:59.494488 30343 net.cpp:425] bn_conv2_2b <- conv2_2b
I0413 18:38:59.494496 30343 net.cpp:386] bn_conv2_2b -> conv2_2b (in-place)
I0413 18:38:59.494755 30343 net.cpp:141] Setting up bn_conv2_2b
I0413 18:38:59.494765 30343 net.cpp:148] Top shape: 100 16 32 32 (1638400)
I0413 18:38:59.494770 30343 net.cpp:156] Memory required for data: 151962800
I0413 18:38:59.494784 30343 layer_factory.hpp:77] Creating layer scale_conv2_2b
I0413 18:38:59.494794 30343 net.cpp:91] Creating Layer scale_conv2_2b
I0413 18:38:59.494801 30343 net.cpp:425] scale_conv2_2b <- conv2_2b
I0413 18:38:59.494807 30343 net.cpp:386] scale_conv2_2b -> conv2_2b (in-place)
I0413 18:38:59.494861 30343 layer_factory.hpp:77] Creating layer scale_conv2_2b
I0413 18:38:59.495003 30343 net.cpp:141] Setting up scale_conv2_2b
I0413 18:38:59.495013 30343 net.cpp:148] Top shape: 100 16 32 32 (1638400)
I0413 18:38:59.495018 30343 net.cpp:156] Memory required for data: 158516400
I0413 18:38:59.495026 30343 layer_factory.hpp:77] Creating layer conv2_2
I0413 18:38:59.495033 30343 net.cpp:91] Creating Layer conv2_2
I0413 18:38:59.495038 30343 net.cpp:425] conv2_2 <- conv2_2b
I0413 18:38:59.495044 30343 net.cpp:425] conv2_2 <- conv2_1_conv2_1_relu_0_split_1
I0413 18:38:59.495054 30343 net.cpp:399] conv2_2 -> conv2_2
I0413 18:38:59.495086 30343 net.cpp:141] Setting up conv2_2
I0413 18:38:59.495095 30343 net.cpp:148] Top shape: 100 16 32 32 (1638400)
I0413 18:38:59.495100 30343 net.cpp:156] Memory required for data: 165070000
I0413 18:38:59.495105 30343 layer_factory.hpp:77] Creating layer conv2_2_relu
I0413 18:38:59.495112 30343 net.cpp:91] Creating Layer conv2_2_relu
I0413 18:38:59.495117 30343 net.cpp:425] conv2_2_relu <- conv2_2
I0413 18:38:59.495123 30343 net.cpp:386] conv2_2_relu -> conv2_2 (in-place)
I0413 18:38:59.495581 30343 net.cpp:141] Setting up conv2_2_relu
I0413 18:38:59.495595 30343 net.cpp:148] Top shape: 100 16 32 32 (1638400)
I0413 18:38:59.495600 30343 net.cpp:156] Memory required for data: 171623600
I0413 18:38:59.495605 30343 layer_factory.hpp:77] Creating layer conv2_2_conv2_2_relu_0_split
I0413 18:38:59.495612 30343 net.cpp:91] Creating Layer conv2_2_conv2_2_relu_0_split
I0413 18:38:59.495617 30343 net.cpp:425] conv2_2_conv2_2_relu_0_split <- conv2_2
I0413 18:38:59.495630 30343 net.cpp:399] conv2_2_conv2_2_relu_0_split -> conv2_2_conv2_2_relu_0_split_0
I0413 18:38:59.495640 30343 net.cpp:399] conv2_2_conv2_2_relu_0_split -> conv2_2_conv2_2_relu_0_split_1
I0413 18:38:59.495697 30343 net.cpp:141] Setting up conv2_2_conv2_2_relu_0_split
I0413 18:38:59.495705 30343 net.cpp:148] Top shape: 100 16 32 32 (1638400)
I0413 18:38:59.495712 30343 net.cpp:148] Top shape: 100 16 32 32 (1638400)
I0413 18:38:59.495718 30343 net.cpp:156] Memory required for data: 184730800
I0413 18:38:59.495723 30343 layer_factory.hpp:77] Creating layer conv2_3a
I0413 18:38:59.495738 30343 net.cpp:91] Creating Layer conv2_3a
I0413 18:38:59.495743 30343 net.cpp:425] conv2_3a <- conv2_2_conv2_2_relu_0_split_0
I0413 18:38:59.495751 30343 net.cpp:399] conv2_3a -> conv2_3a
I0413 18:38:59.498029 30343 net.cpp:141] Setting up conv2_3a
I0413 18:38:59.498049 30343 net.cpp:148] Top shape: 100 16 32 32 (1638400)
I0413 18:38:59.498054 30343 net.cpp:156] Memory required for data: 191284400
I0413 18:38:59.498064 30343 layer_factory.hpp:77] Creating layer bn_conv2_3a
I0413 18:38:59.498073 30343 net.cpp:91] Creating Layer bn_conv2_3a
I0413 18:38:59.498080 30343 net.cpp:425] bn_conv2_3a <- conv2_3a
I0413 18:38:59.498090 30343 net.cpp:386] bn_conv2_3a -> conv2_3a (in-place)
I0413 18:38:59.498337 30343 net.cpp:141] Setting up bn_conv2_3a
I0413 18:38:59.498347 30343 net.cpp:148] Top shape: 100 16 32 32 (1638400)
I0413 18:38:59.498353 30343 net.cpp:156] Memory required for data: 197838000
I0413 18:38:59.498363 30343 layer_factory.hpp:77] Creating layer scale_conv2_3a
I0413 18:38:59.498373 30343 net.cpp:91] Creating Layer scale_conv2_3a
I0413 18:38:59.498378 30343 net.cpp:425] scale_conv2_3a <- conv2_3a
I0413 18:38:59.498384 30343 net.cpp:386] scale_conv2_3a -> conv2_3a (in-place)
I0413 18:38:59.498437 30343 layer_factory.hpp:77] Creating layer scale_conv2_3a
I0413 18:38:59.498579 30343 net.cpp:141] Setting up scale_conv2_3a
I0413 18:38:59.498589 30343 net.cpp:148] Top shape: 100 16 32 32 (1638400)
I0413 18:38:59.498594 30343 net.cpp:156] Memory required for data: 204391600
I0413 18:38:59.498602 30343 layer_factory.hpp:77] Creating layer conv2_3a_relu
I0413 18:38:59.498610 30343 net.cpp:91] Creating Layer conv2_3a_relu
I0413 18:38:59.498615 30343 net.cpp:425] conv2_3a_relu <- conv2_3a
I0413 18:38:59.498622 30343 net.cpp:386] conv2_3a_relu -> conv2_3a (in-place)
I0413 18:38:59.499008 30343 net.cpp:141] Setting up conv2_3a_relu
I0413 18:38:59.499020 30343 net.cpp:148] Top shape: 100 16 32 32 (1638400)
I0413 18:38:59.499025 30343 net.cpp:156] Memory required for data: 210945200
I0413 18:38:59.499030 30343 layer_factory.hpp:77] Creating layer conv2_3b
I0413 18:38:59.499043 30343 net.cpp:91] Creating Layer conv2_3b
I0413 18:38:59.499048 30343 net.cpp:425] conv2_3b <- conv2_3a
I0413 18:38:59.499058 30343 net.cpp:399] conv2_3b -> conv2_3b
I0413 18:38:59.502605 30343 net.cpp:141] Setting up conv2_3b
I0413 18:38:59.502624 30343 net.cpp:148] Top shape: 100 16 32 32 (1638400)
I0413 18:38:59.502630 30343 net.cpp:156] Memory required for data: 217498800
I0413 18:38:59.502640 30343 layer_factory.hpp:77] Creating layer bn_conv2_3b
I0413 18:38:59.502652 30343 net.cpp:91] Creating Layer bn_conv2_3b
I0413 18:38:59.502658 30343 net.cpp:425] bn_conv2_3b <- conv2_3b
I0413 18:38:59.502667 30343 net.cpp:386] bn_conv2_3b -> conv2_3b (in-place)
I0413 18:38:59.502912 30343 net.cpp:141] Setting up bn_conv2_3b
I0413 18:38:59.502921 30343 net.cpp:148] Top shape: 100 16 32 32 (1638400)
I0413 18:38:59.502926 30343 net.cpp:156] Memory required for data: 224052400
I0413 18:38:59.502936 30343 layer_factory.hpp:77] Creating layer scale_conv2_3b
I0413 18:38:59.502945 30343 net.cpp:91] Creating Layer scale_conv2_3b
I0413 18:38:59.502950 30343 net.cpp:425] scale_conv2_3b <- conv2_3b
I0413 18:38:59.502957 30343 net.cpp:386] scale_conv2_3b -> conv2_3b (in-place)
I0413 18:38:59.503008 30343 layer_factory.hpp:77] Creating layer scale_conv2_3b
I0413 18:38:59.503150 30343 net.cpp:141] Setting up scale_conv2_3b
I0413 18:38:59.503165 30343 net.cpp:148] Top shape: 100 16 32 32 (1638400)
I0413 18:38:59.503170 30343 net.cpp:156] Memory required for data: 230606000
I0413 18:38:59.503178 30343 layer_factory.hpp:77] Creating layer conv2_3
I0413 18:38:59.503187 30343 net.cpp:91] Creating Layer conv2_3
I0413 18:38:59.503192 30343 net.cpp:425] conv2_3 <- conv2_3b
I0413 18:38:59.503199 30343 net.cpp:425] conv2_3 <- conv2_2_conv2_2_relu_0_split_1
I0413 18:38:59.503206 30343 net.cpp:399] conv2_3 -> conv2_3
I0413 18:38:59.503240 30343 net.cpp:141] Setting up conv2_3
I0413 18:38:59.503249 30343 net.cpp:148] Top shape: 100 16 32 32 (1638400)
I0413 18:38:59.503254 30343 net.cpp:156] Memory required for data: 237159600
I0413 18:38:59.503259 30343 layer_factory.hpp:77] Creating layer conv2_3_relu
I0413 18:38:59.503267 30343 net.cpp:91] Creating Layer conv2_3_relu
I0413 18:38:59.503271 30343 net.cpp:425] conv2_3_relu <- conv2_3
I0413 18:38:59.503279 30343 net.cpp:386] conv2_3_relu -> conv2_3 (in-place)
I0413 18:38:59.503751 30343 net.cpp:141] Setting up conv2_3_relu
I0413 18:38:59.503767 30343 net.cpp:148] Top shape: 100 16 32 32 (1638400)
I0413 18:38:59.503772 30343 net.cpp:156] Memory required for data: 243713200
I0413 18:38:59.503777 30343 layer_factory.hpp:77] Creating layer conv2_3_conv2_3_relu_0_split
I0413 18:38:59.503785 30343 net.cpp:91] Creating Layer conv2_3_conv2_3_relu_0_split
I0413 18:38:59.503790 30343 net.cpp:425] conv2_3_conv2_3_relu_0_split <- conv2_3
I0413 18:38:59.503801 30343 net.cpp:399] conv2_3_conv2_3_relu_0_split -> conv2_3_conv2_3_relu_0_split_0
I0413 18:38:59.503811 30343 net.cpp:399] conv2_3_conv2_3_relu_0_split -> conv2_3_conv2_3_relu_0_split_1
I0413 18:38:59.503866 30343 net.cpp:141] Setting up conv2_3_conv2_3_relu_0_split
I0413 18:38:59.503877 30343 net.cpp:148] Top shape: 100 16 32 32 (1638400)
I0413 18:38:59.503883 30343 net.cpp:148] Top shape: 100 16 32 32 (1638400)
I0413 18:38:59.503887 30343 net.cpp:156] Memory required for data: 256820400
I0413 18:38:59.503892 30343 layer_factory.hpp:77] Creating layer conv2_sub
I0413 18:38:59.503906 30343 net.cpp:91] Creating Layer conv2_sub
I0413 18:38:59.503911 30343 net.cpp:425] conv2_sub <- conv2_3_conv2_3_relu_0_split_0
I0413 18:38:59.503921 30343 net.cpp:399] conv2_sub -> conv2_sub
I0413 18:38:59.507247 30343 net.cpp:141] Setting up conv2_sub
I0413 18:38:59.507266 30343 net.cpp:148] Top shape: 100 32 16 16 (819200)
I0413 18:38:59.507272 30343 net.cpp:156] Memory required for data: 260097200
I0413 18:38:59.507282 30343 layer_factory.hpp:77] Creating layer bn_conv2_sub
I0413 18:38:59.507292 30343 net.cpp:91] Creating Layer bn_conv2_sub
I0413 18:38:59.507298 30343 net.cpp:425] bn_conv2_sub <- conv2_sub
I0413 18:38:59.507308 30343 net.cpp:386] bn_conv2_sub -> conv2_sub (in-place)
I0413 18:38:59.507555 30343 net.cpp:141] Setting up bn_conv2_sub
I0413 18:38:59.507565 30343 net.cpp:148] Top shape: 100 32 16 16 (819200)
I0413 18:38:59.507570 30343 net.cpp:156] Memory required for data: 263374000
I0413 18:38:59.507580 30343 layer_factory.hpp:77] Creating layer scale_conv2_sub
I0413 18:38:59.507589 30343 net.cpp:91] Creating Layer scale_conv2_sub
I0413 18:38:59.507594 30343 net.cpp:425] scale_conv2_sub <- conv2_sub
I0413 18:38:59.507601 30343 net.cpp:386] scale_conv2_sub -> conv2_sub (in-place)
I0413 18:38:59.507654 30343 layer_factory.hpp:77] Creating layer scale_conv2_sub
I0413 18:38:59.507796 30343 net.cpp:141] Setting up scale_conv2_sub
I0413 18:38:59.507804 30343 net.cpp:148] Top shape: 100 32 16 16 (819200)
I0413 18:38:59.507809 30343 net.cpp:156] Memory required for data: 266650800
I0413 18:38:59.507817 30343 layer_factory.hpp:77] Creating layer conv3_1a
I0413 18:38:59.507829 30343 net.cpp:91] Creating Layer conv3_1a
I0413 18:38:59.507836 30343 net.cpp:425] conv3_1a <- conv2_3_conv2_3_relu_0_split_1
I0413 18:38:59.507845 30343 net.cpp:399] conv3_1a -> conv3_1a
I0413 18:38:59.510679 30343 net.cpp:141] Setting up conv3_1a
I0413 18:38:59.510699 30343 net.cpp:148] Top shape: 100 32 16 16 (819200)
I0413 18:38:59.510704 30343 net.cpp:156] Memory required for data: 269927600
I0413 18:38:59.510720 30343 layer_factory.hpp:77] Creating layer bn_conv3_1a
I0413 18:38:59.510728 30343 net.cpp:91] Creating Layer bn_conv3_1a
I0413 18:38:59.510735 30343 net.cpp:425] bn_conv3_1a <- conv3_1a
I0413 18:38:59.510743 30343 net.cpp:386] bn_conv3_1a -> conv3_1a (in-place)
I0413 18:38:59.510987 30343 net.cpp:141] Setting up bn_conv3_1a
I0413 18:38:59.510996 30343 net.cpp:148] Top shape: 100 32 16 16 (819200)
I0413 18:38:59.511001 30343 net.cpp:156] Memory required for data: 273204400
I0413 18:38:59.511011 30343 layer_factory.hpp:77] Creating layer scale_conv3_1a
I0413 18:38:59.511019 30343 net.cpp:91] Creating Layer scale_conv3_1a
I0413 18:38:59.511024 30343 net.cpp:425] scale_conv3_1a <- conv3_1a
I0413 18:38:59.511031 30343 net.cpp:386] scale_conv3_1a -> conv3_1a (in-place)
I0413 18:38:59.511085 30343 layer_factory.hpp:77] Creating layer scale_conv3_1a
I0413 18:38:59.511224 30343 net.cpp:141] Setting up scale_conv3_1a
I0413 18:38:59.511234 30343 net.cpp:148] Top shape: 100 32 16 16 (819200)
I0413 18:38:59.511239 30343 net.cpp:156] Memory required for data: 276481200
I0413 18:38:59.511246 30343 layer_factory.hpp:77] Creating layer conv3_1a_relu
I0413 18:38:59.511253 30343 net.cpp:91] Creating Layer conv3_1a_relu
I0413 18:38:59.511258 30343 net.cpp:425] conv3_1a_relu <- conv3_1a
I0413 18:38:59.511265 30343 net.cpp:386] conv3_1a_relu -> conv3_1a (in-place)
I0413 18:38:59.511734 30343 net.cpp:141] Setting up conv3_1a_relu
I0413 18:38:59.511749 30343 net.cpp:148] Top shape: 100 32 16 16 (819200)
I0413 18:38:59.511754 30343 net.cpp:156] Memory required for data: 279758000
I0413 18:38:59.511759 30343 layer_factory.hpp:77] Creating layer conv3_1b
I0413 18:38:59.511773 30343 net.cpp:91] Creating Layer conv3_1b
I0413 18:38:59.511780 30343 net.cpp:425] conv3_1b <- conv3_1a
I0413 18:38:59.511790 30343 net.cpp:399] conv3_1b -> conv3_1b
I0413 18:38:59.514199 30343 net.cpp:141] Setting up conv3_1b
I0413 18:38:59.514219 30343 net.cpp:148] Top shape: 100 32 16 16 (819200)
I0413 18:38:59.514225 30343 net.cpp:156] Memory required for data: 283034800
I0413 18:38:59.514245 30343 layer_factory.hpp:77] Creating layer bn_conv3_1b
I0413 18:38:59.514256 30343 net.cpp:91] Creating Layer bn_conv3_1b
I0413 18:38:59.514262 30343 net.cpp:425] bn_conv3_1b <- conv3_1b
I0413 18:38:59.514269 30343 net.cpp:386] bn_conv3_1b -> conv3_1b (in-place)
I0413 18:38:59.514518 30343 net.cpp:141] Setting up bn_conv3_1b
I0413 18:38:59.514528 30343 net.cpp:148] Top shape: 100 32 16 16 (819200)
I0413 18:38:59.514533 30343 net.cpp:156] Memory required for data: 286311600
I0413 18:38:59.514544 30343 layer_factory.hpp:77] Creating layer scale_conv3_1b
I0413 18:38:59.514551 30343 net.cpp:91] Creating Layer scale_conv3_1b
I0413 18:38:59.514556 30343 net.cpp:425] scale_conv3_1b <- conv3_1b
I0413 18:38:59.514565 30343 net.cpp:386] scale_conv3_1b -> conv3_1b (in-place)
I0413 18:38:59.514616 30343 layer_factory.hpp:77] Creating layer scale_conv3_1b
I0413 18:38:59.514760 30343 net.cpp:141] Setting up scale_conv3_1b
I0413 18:38:59.514770 30343 net.cpp:148] Top shape: 100 32 16 16 (819200)
I0413 18:38:59.514773 30343 net.cpp:156] Memory required for data: 289588400
I0413 18:38:59.514781 30343 layer_factory.hpp:77] Creating layer conv3_1
I0413 18:38:59.514789 30343 net.cpp:91] Creating Layer conv3_1
I0413 18:38:59.514793 30343 net.cpp:425] conv3_1 <- conv3_1b
I0413 18:38:59.514801 30343 net.cpp:425] conv3_1 <- conv2_sub
I0413 18:38:59.514807 30343 net.cpp:399] conv3_1 -> conv3_1
I0413 18:38:59.514837 30343 net.cpp:141] Setting up conv3_1
I0413 18:38:59.514845 30343 net.cpp:148] Top shape: 100 32 16 16 (819200)
I0413 18:38:59.514850 30343 net.cpp:156] Memory required for data: 292865200
I0413 18:38:59.514854 30343 layer_factory.hpp:77] Creating layer conv3_1_relu
I0413 18:38:59.514863 30343 net.cpp:91] Creating Layer conv3_1_relu
I0413 18:38:59.514868 30343 net.cpp:425] conv3_1_relu <- conv3_1
I0413 18:38:59.514875 30343 net.cpp:386] conv3_1_relu -> conv3_1 (in-place)
I0413 18:38:59.515151 30343 net.cpp:141] Setting up conv3_1_relu
I0413 18:38:59.515162 30343 net.cpp:148] Top shape: 100 32 16 16 (819200)
I0413 18:38:59.515172 30343 net.cpp:156] Memory required for data: 296142000
I0413 18:38:59.515178 30343 layer_factory.hpp:77] Creating layer conv3_1_conv3_1_relu_0_split
I0413 18:38:59.515187 30343 net.cpp:91] Creating Layer conv3_1_conv3_1_relu_0_split
I0413 18:38:59.515192 30343 net.cpp:425] conv3_1_conv3_1_relu_0_split <- conv3_1
I0413 18:38:59.515200 30343 net.cpp:399] conv3_1_conv3_1_relu_0_split -> conv3_1_conv3_1_relu_0_split_0
I0413 18:38:59.515211 30343 net.cpp:399] conv3_1_conv3_1_relu_0_split -> conv3_1_conv3_1_relu_0_split_1
I0413 18:38:59.515265 30343 net.cpp:141] Setting up conv3_1_conv3_1_relu_0_split
I0413 18:38:59.515274 30343 net.cpp:148] Top shape: 100 32 16 16 (819200)
I0413 18:38:59.515280 30343 net.cpp:148] Top shape: 100 32 16 16 (819200)
I0413 18:38:59.515285 30343 net.cpp:156] Memory required for data: 302695600
I0413 18:38:59.515290 30343 layer_factory.hpp:77] Creating layer conv3_2a
I0413 18:38:59.515302 30343 net.cpp:91] Creating Layer conv3_2a
I0413 18:38:59.515308 30343 net.cpp:425] conv3_2a <- conv3_1_conv3_1_relu_0_split_0
I0413 18:38:59.515319 30343 net.cpp:399] conv3_2a -> conv3_2a
I0413 18:38:59.518769 30343 net.cpp:141] Setting up conv3_2a
I0413 18:38:59.518786 30343 net.cpp:148] Top shape: 100 32 16 16 (819200)
I0413 18:38:59.518792 30343 net.cpp:156] Memory required for data: 305972400
I0413 18:38:59.518801 30343 layer_factory.hpp:77] Creating layer bn_conv3_2a
I0413 18:38:59.518812 30343 net.cpp:91] Creating Layer bn_conv3_2a
I0413 18:38:59.518818 30343 net.cpp:425] bn_conv3_2a <- conv3_2a
I0413 18:38:59.518828 30343 net.cpp:386] bn_conv3_2a -> conv3_2a (in-place)
I0413 18:38:59.519078 30343 net.cpp:141] Setting up bn_conv3_2a
I0413 18:38:59.519088 30343 net.cpp:148] Top shape: 100 32 16 16 (819200)
I0413 18:38:59.519091 30343 net.cpp:156] Memory required for data: 309249200
I0413 18:38:59.519101 30343 layer_factory.hpp:77] Creating layer scale_conv3_2a
I0413 18:38:59.519109 30343 net.cpp:91] Creating Layer scale_conv3_2a
I0413 18:38:59.519114 30343 net.cpp:425] scale_conv3_2a <- conv3_2a
I0413 18:38:59.519124 30343 net.cpp:386] scale_conv3_2a -> conv3_2a (in-place)
I0413 18:38:59.519176 30343 layer_factory.hpp:77] Creating layer scale_conv3_2a
I0413 18:38:59.519323 30343 net.cpp:141] Setting up scale_conv3_2a
I0413 18:38:59.519332 30343 net.cpp:148] Top shape: 100 32 16 16 (819200)
I0413 18:38:59.519337 30343 net.cpp:156] Memory required for data: 312526000
I0413 18:38:59.519345 30343 layer_factory.hpp:77] Creating layer conv3_2a_relu
I0413 18:38:59.519352 30343 net.cpp:91] Creating Layer conv3_2a_relu
I0413 18:38:59.519357 30343 net.cpp:425] conv3_2a_relu <- conv3_2a
I0413 18:38:59.519366 30343 net.cpp:386] conv3_2a_relu -> conv3_2a (in-place)
I0413 18:38:59.519816 30343 net.cpp:141] Setting up conv3_2a_relu
I0413 18:38:59.519832 30343 net.cpp:148] Top shape: 100 32 16 16 (819200)
I0413 18:38:59.519837 30343 net.cpp:156] Memory required for data: 315802800
I0413 18:38:59.519843 30343 layer_factory.hpp:77] Creating layer conv3_2b
I0413 18:38:59.519857 30343 net.cpp:91] Creating Layer conv3_2b
I0413 18:38:59.519863 30343 net.cpp:425] conv3_2b <- conv3_2a
I0413 18:38:59.519875 30343 net.cpp:399] conv3_2b -> conv3_2b
I0413 18:38:59.523403 30343 net.cpp:141] Setting up conv3_2b
I0413 18:38:59.523423 30343 net.cpp:148] Top shape: 100 32 16 16 (819200)
I0413 18:38:59.523428 30343 net.cpp:156] Memory required for data: 319079600
I0413 18:38:59.523437 30343 layer_factory.hpp:77] Creating layer bn_conv3_2b
I0413 18:38:59.523447 30343 net.cpp:91] Creating Layer bn_conv3_2b
I0413 18:38:59.523452 30343 net.cpp:425] bn_conv3_2b <- conv3_2b
I0413 18:38:59.523463 30343 net.cpp:386] bn_conv3_2b -> conv3_2b (in-place)
I0413 18:38:59.523717 30343 net.cpp:141] Setting up bn_conv3_2b
I0413 18:38:59.523727 30343 net.cpp:148] Top shape: 100 32 16 16 (819200)
I0413 18:38:59.523732 30343 net.cpp:156] Memory required for data: 322356400
I0413 18:38:59.523741 30343 layer_factory.hpp:77] Creating layer scale_conv3_2b
I0413 18:38:59.523749 30343 net.cpp:91] Creating Layer scale_conv3_2b
I0413 18:38:59.523759 30343 net.cpp:425] scale_conv3_2b <- conv3_2b
I0413 18:38:59.523767 30343 net.cpp:386] scale_conv3_2b -> conv3_2b (in-place)
I0413 18:38:59.523825 30343 layer_factory.hpp:77] Creating layer scale_conv3_2b
I0413 18:38:59.523974 30343 net.cpp:141] Setting up scale_conv3_2b
I0413 18:38:59.523984 30343 net.cpp:148] Top shape: 100 32 16 16 (819200)
I0413 18:38:59.523988 30343 net.cpp:156] Memory required for data: 325633200
I0413 18:38:59.523998 30343 layer_factory.hpp:77] Creating layer conv3_2
I0413 18:38:59.524006 30343 net.cpp:91] Creating Layer conv3_2
I0413 18:38:59.524011 30343 net.cpp:425] conv3_2 <- conv3_2b
I0413 18:38:59.524018 30343 net.cpp:425] conv3_2 <- conv3_1_conv3_1_relu_0_split_1
I0413 18:38:59.524025 30343 net.cpp:399] conv3_2 -> conv3_2
I0413 18:38:59.524052 30343 net.cpp:141] Setting up conv3_2
I0413 18:38:59.524060 30343 net.cpp:148] Top shape: 100 32 16 16 (819200)
I0413 18:38:59.524065 30343 net.cpp:156] Memory required for data: 328910000
I0413 18:38:59.524070 30343 layer_factory.hpp:77] Creating layer conv3_2_relu
I0413 18:38:59.524080 30343 net.cpp:91] Creating Layer conv3_2_relu
I0413 18:38:59.524085 30343 net.cpp:425] conv3_2_relu <- conv3_2
I0413 18:38:59.524091 30343 net.cpp:386] conv3_2_relu -> conv3_2 (in-place)
I0413 18:38:59.524433 30343 net.cpp:141] Setting up conv3_2_relu
I0413 18:38:59.524449 30343 net.cpp:148] Top shape: 100 32 16 16 (819200)
I0413 18:38:59.524454 30343 net.cpp:156] Memory required for data: 332186800
I0413 18:38:59.524461 30343 layer_factory.hpp:77] Creating layer conv3_2_conv3_2_relu_0_split
I0413 18:38:59.524468 30343 net.cpp:91] Creating Layer conv3_2_conv3_2_relu_0_split
I0413 18:38:59.524473 30343 net.cpp:425] conv3_2_conv3_2_relu_0_split <- conv3_2
I0413 18:38:59.524483 30343 net.cpp:399] conv3_2_conv3_2_relu_0_split -> conv3_2_conv3_2_relu_0_split_0
I0413 18:38:59.524493 30343 net.cpp:399] conv3_2_conv3_2_relu_0_split -> conv3_2_conv3_2_relu_0_split_1
I0413 18:38:59.524554 30343 net.cpp:141] Setting up conv3_2_conv3_2_relu_0_split
I0413 18:38:59.524562 30343 net.cpp:148] Top shape: 100 32 16 16 (819200)
I0413 18:38:59.524569 30343 net.cpp:148] Top shape: 100 32 16 16 (819200)
I0413 18:38:59.524574 30343 net.cpp:156] Memory required for data: 338740400
I0413 18:38:59.524579 30343 layer_factory.hpp:77] Creating layer conv3_3a
I0413 18:38:59.524591 30343 net.cpp:91] Creating Layer conv3_3a
I0413 18:38:59.524597 30343 net.cpp:425] conv3_3a <- conv3_2_conv3_2_relu_0_split_0
I0413 18:38:59.524607 30343 net.cpp:399] conv3_3a -> conv3_3a
I0413 18:38:59.527983 30343 net.cpp:141] Setting up conv3_3a
I0413 18:38:59.528002 30343 net.cpp:148] Top shape: 100 32 16 16 (819200)
I0413 18:38:59.528007 30343 net.cpp:156] Memory required for data: 342017200
I0413 18:38:59.528017 30343 layer_factory.hpp:77] Creating layer bn_conv3_3a
I0413 18:38:59.528028 30343 net.cpp:91] Creating Layer bn_conv3_3a
I0413 18:38:59.528034 30343 net.cpp:425] bn_conv3_3a <- conv3_3a
I0413 18:38:59.528043 30343 net.cpp:386] bn_conv3_3a -> conv3_3a (in-place)
I0413 18:38:59.528293 30343 net.cpp:141] Setting up bn_conv3_3a
I0413 18:38:59.528302 30343 net.cpp:148] Top shape: 100 32 16 16 (819200)
I0413 18:38:59.528307 30343 net.cpp:156] Memory required for data: 345294000
I0413 18:38:59.528317 30343 layer_factory.hpp:77] Creating layer scale_conv3_3a
I0413 18:38:59.528327 30343 net.cpp:91] Creating Layer scale_conv3_3a
I0413 18:38:59.528332 30343 net.cpp:425] scale_conv3_3a <- conv3_3a
I0413 18:38:59.528339 30343 net.cpp:386] scale_conv3_3a -> conv3_3a (in-place)
I0413 18:38:59.528398 30343 layer_factory.hpp:77] Creating layer scale_conv3_3a
I0413 18:38:59.528548 30343 net.cpp:141] Setting up scale_conv3_3a
I0413 18:38:59.528558 30343 net.cpp:148] Top shape: 100 32 16 16 (819200)
I0413 18:38:59.528563 30343 net.cpp:156] Memory required for data: 348570800
I0413 18:38:59.528570 30343 layer_factory.hpp:77] Creating layer conv3_3a_relu
I0413 18:38:59.528584 30343 net.cpp:91] Creating Layer conv3_3a_relu
I0413 18:38:59.528589 30343 net.cpp:425] conv3_3a_relu <- conv3_3a
I0413 18:38:59.528595 30343 net.cpp:386] conv3_3a_relu -> conv3_3a (in-place)
I0413 18:38:59.528983 30343 net.cpp:141] Setting up conv3_3a_relu
I0413 18:38:59.528996 30343 net.cpp:148] Top shape: 100 32 16 16 (819200)
I0413 18:38:59.529002 30343 net.cpp:156] Memory required for data: 351847600
I0413 18:38:59.529007 30343 layer_factory.hpp:77] Creating layer conv3_3b
I0413 18:38:59.529027 30343 net.cpp:91] Creating Layer conv3_3b
I0413 18:38:59.529034 30343 net.cpp:425] conv3_3b <- conv3_3a
I0413 18:38:59.529042 30343 net.cpp:399] conv3_3b -> conv3_3b
I0413 18:38:59.530618 30343 net.cpp:141] Setting up conv3_3b
I0413 18:38:59.530637 30343 net.cpp:148] Top shape: 100 32 16 16 (819200)
I0413 18:38:59.530642 30343 net.cpp:156] Memory required for data: 355124400
I0413 18:38:59.530652 30343 layer_factory.hpp:77] Creating layer bn_conv3_3b
I0413 18:38:59.530663 30343 net.cpp:91] Creating Layer bn_conv3_3b
I0413 18:38:59.530669 30343 net.cpp:425] bn_conv3_3b <- conv3_3b
I0413 18:38:59.530676 30343 net.cpp:386] bn_conv3_3b -> conv3_3b (in-place)
I0413 18:38:59.530930 30343 net.cpp:141] Setting up bn_conv3_3b
I0413 18:38:59.530938 30343 net.cpp:148] Top shape: 100 32 16 16 (819200)
I0413 18:38:59.530943 30343 net.cpp:156] Memory required for data: 358401200
I0413 18:38:59.530953 30343 layer_factory.hpp:77] Creating layer scale_conv3_3b
I0413 18:38:59.530963 30343 net.cpp:91] Creating Layer scale_conv3_3b
I0413 18:38:59.530968 30343 net.cpp:425] scale_conv3_3b <- conv3_3b
I0413 18:38:59.530975 30343 net.cpp:386] scale_conv3_3b -> conv3_3b (in-place)
I0413 18:38:59.531030 30343 layer_factory.hpp:77] Creating layer scale_conv3_3b
I0413 18:38:59.531185 30343 net.cpp:141] Setting up scale_conv3_3b
I0413 18:38:59.531194 30343 net.cpp:148] Top shape: 100 32 16 16 (819200)
I0413 18:38:59.531199 30343 net.cpp:156] Memory required for data: 361678000
I0413 18:38:59.531208 30343 layer_factory.hpp:77] Creating layer conv3_3
I0413 18:38:59.531216 30343 net.cpp:91] Creating Layer conv3_3
I0413 18:38:59.531221 30343 net.cpp:425] conv3_3 <- conv3_3b
I0413 18:38:59.531227 30343 net.cpp:425] conv3_3 <- conv3_2_conv3_2_relu_0_split_1
I0413 18:38:59.531236 30343 net.cpp:399] conv3_3 -> conv3_3
I0413 18:38:59.531263 30343 net.cpp:141] Setting up conv3_3
I0413 18:38:59.531272 30343 net.cpp:148] Top shape: 100 32 16 16 (819200)
I0413 18:38:59.531277 30343 net.cpp:156] Memory required for data: 364954800
I0413 18:38:59.531282 30343 layer_factory.hpp:77] Creating layer conv3_3_relu
I0413 18:38:59.531289 30343 net.cpp:91] Creating Layer conv3_3_relu
I0413 18:38:59.531294 30343 net.cpp:425] conv3_3_relu <- conv3_3
I0413 18:38:59.531302 30343 net.cpp:386] conv3_3_relu -> conv3_3 (in-place)
I0413 18:38:59.531646 30343 net.cpp:141] Setting up conv3_3_relu
I0413 18:38:59.531661 30343 net.cpp:148] Top shape: 100 32 16 16 (819200)
I0413 18:38:59.531666 30343 net.cpp:156] Memory required for data: 368231600
I0413 18:38:59.531671 30343 layer_factory.hpp:77] Creating layer conv3_3_conv3_3_relu_0_split
I0413 18:38:59.531678 30343 net.cpp:91] Creating Layer conv3_3_conv3_3_relu_0_split
I0413 18:38:59.531683 30343 net.cpp:425] conv3_3_conv3_3_relu_0_split <- conv3_3
I0413 18:38:59.531693 30343 net.cpp:399] conv3_3_conv3_3_relu_0_split -> conv3_3_conv3_3_relu_0_split_0
I0413 18:38:59.531703 30343 net.cpp:399] conv3_3_conv3_3_relu_0_split -> conv3_3_conv3_3_relu_0_split_1
I0413 18:38:59.531762 30343 net.cpp:141] Setting up conv3_3_conv3_3_relu_0_split
I0413 18:38:59.531771 30343 net.cpp:148] Top shape: 100 32 16 16 (819200)
I0413 18:38:59.531777 30343 net.cpp:148] Top shape: 100 32 16 16 (819200)
I0413 18:38:59.531782 30343 net.cpp:156] Memory required for data: 374785200
I0413 18:38:59.531787 30343 layer_factory.hpp:77] Creating layer conv3_sub
I0413 18:38:59.531800 30343 net.cpp:91] Creating Layer conv3_sub
I0413 18:38:59.531805 30343 net.cpp:425] conv3_sub <- conv3_3_conv3_3_relu_0_split_0
I0413 18:38:59.531813 30343 net.cpp:399] conv3_sub -> conv3_sub
I0413 18:38:59.535003 30343 net.cpp:141] Setting up conv3_sub
I0413 18:38:59.535022 30343 net.cpp:148] Top shape: 100 64 8 8 (409600)
I0413 18:38:59.535032 30343 net.cpp:156] Memory required for data: 376423600
I0413 18:38:59.535042 30343 layer_factory.hpp:77] Creating layer bn_conv3_sub
I0413 18:38:59.535053 30343 net.cpp:91] Creating Layer bn_conv3_sub
I0413 18:38:59.535058 30343 net.cpp:425] bn_conv3_sub <- conv3_sub
I0413 18:38:59.535066 30343 net.cpp:386] bn_conv3_sub -> conv3_sub (in-place)
I0413 18:38:59.535332 30343 net.cpp:141] Setting up bn_conv3_sub
I0413 18:38:59.535342 30343 net.cpp:148] Top shape: 100 64 8 8 (409600)
I0413 18:38:59.535347 30343 net.cpp:156] Memory required for data: 378062000
I0413 18:38:59.535357 30343 layer_factory.hpp:77] Creating layer scale_conv3_sub
I0413 18:38:59.535365 30343 net.cpp:91] Creating Layer scale_conv3_sub
I0413 18:38:59.535372 30343 net.cpp:425] scale_conv3_sub <- conv3_sub
I0413 18:38:59.535378 30343 net.cpp:386] scale_conv3_sub -> conv3_sub (in-place)
I0413 18:38:59.535437 30343 layer_factory.hpp:77] Creating layer scale_conv3_sub
I0413 18:38:59.535589 30343 net.cpp:141] Setting up scale_conv3_sub
I0413 18:38:59.535599 30343 net.cpp:148] Top shape: 100 64 8 8 (409600)
I0413 18:38:59.535604 30343 net.cpp:156] Memory required for data: 379700400
I0413 18:38:59.535612 30343 layer_factory.hpp:77] Creating layer conv4_1a
I0413 18:38:59.535626 30343 net.cpp:91] Creating Layer conv4_1a
I0413 18:38:59.535631 30343 net.cpp:425] conv4_1a <- conv3_3_conv3_3_relu_0_split_1
I0413 18:38:59.535640 30343 net.cpp:399] conv4_1a -> conv4_1a
I0413 18:38:59.538470 30343 net.cpp:141] Setting up conv4_1a
I0413 18:38:59.538488 30343 net.cpp:148] Top shape: 100 64 8 8 (409600)
I0413 18:38:59.538494 30343 net.cpp:156] Memory required for data: 381338800
I0413 18:38:59.538503 30343 layer_factory.hpp:77] Creating layer bn_conv4_1a
I0413 18:38:59.538514 30343 net.cpp:91] Creating Layer bn_conv4_1a
I0413 18:38:59.538521 30343 net.cpp:425] bn_conv4_1a <- conv4_1a
I0413 18:38:59.538527 30343 net.cpp:386] bn_conv4_1a -> conv4_1a (in-place)
I0413 18:38:59.538795 30343 net.cpp:141] Setting up bn_conv4_1a
I0413 18:38:59.538805 30343 net.cpp:148] Top shape: 100 64 8 8 (409600)
I0413 18:38:59.538810 30343 net.cpp:156] Memory required for data: 382977200
I0413 18:38:59.538820 30343 layer_factory.hpp:77] Creating layer scale_conv4_1a
I0413 18:38:59.538827 30343 net.cpp:91] Creating Layer scale_conv4_1a
I0413 18:38:59.538832 30343 net.cpp:425] scale_conv4_1a <- conv4_1a
I0413 18:38:59.538839 30343 net.cpp:386] scale_conv4_1a -> conv4_1a (in-place)
I0413 18:38:59.538897 30343 layer_factory.hpp:77] Creating layer scale_conv4_1a
I0413 18:38:59.539052 30343 net.cpp:141] Setting up scale_conv4_1a
I0413 18:38:59.539062 30343 net.cpp:148] Top shape: 100 64 8 8 (409600)
I0413 18:38:59.539067 30343 net.cpp:156] Memory required for data: 384615600
I0413 18:38:59.539075 30343 layer_factory.hpp:77] Creating layer conv4_1a_relu
I0413 18:38:59.539083 30343 net.cpp:91] Creating Layer conv4_1a_relu
I0413 18:38:59.539088 30343 net.cpp:425] conv4_1a_relu <- conv4_1a
I0413 18:38:59.539094 30343 net.cpp:386] conv4_1a_relu -> conv4_1a (in-place)
I0413 18:38:59.539466 30343 net.cpp:141] Setting up conv4_1a_relu
I0413 18:38:59.539482 30343 net.cpp:148] Top shape: 100 64 8 8 (409600)
I0413 18:38:59.539487 30343 net.cpp:156] Memory required for data: 386254000
I0413 18:38:59.539494 30343 layer_factory.hpp:77] Creating layer conv4_1b
I0413 18:38:59.539507 30343 net.cpp:91] Creating Layer conv4_1b
I0413 18:38:59.539513 30343 net.cpp:425] conv4_1b <- conv4_1a
I0413 18:38:59.539523 30343 net.cpp:399] conv4_1b -> conv4_1b
I0413 18:38:59.543006 30343 net.cpp:141] Setting up conv4_1b
I0413 18:38:59.543025 30343 net.cpp:148] Top shape: 100 64 8 8 (409600)
I0413 18:38:59.543030 30343 net.cpp:156] Memory required for data: 387892400
I0413 18:38:59.543038 30343 layer_factory.hpp:77] Creating layer bn_conv4_1b
I0413 18:38:59.543047 30343 net.cpp:91] Creating Layer bn_conv4_1b
I0413 18:38:59.543053 30343 net.cpp:425] bn_conv4_1b <- conv4_1b
I0413 18:38:59.543063 30343 net.cpp:386] bn_conv4_1b -> conv4_1b (in-place)
I0413 18:38:59.543328 30343 net.cpp:141] Setting up bn_conv4_1b
I0413 18:38:59.543345 30343 net.cpp:148] Top shape: 100 64 8 8 (409600)
I0413 18:38:59.543350 30343 net.cpp:156] Memory required for data: 389530800
I0413 18:38:59.543360 30343 layer_factory.hpp:77] Creating layer scale_conv4_1b
I0413 18:38:59.543368 30343 net.cpp:91] Creating Layer scale_conv4_1b
I0413 18:38:59.543375 30343 net.cpp:425] scale_conv4_1b <- conv4_1b
I0413 18:38:59.543383 30343 net.cpp:386] scale_conv4_1b -> conv4_1b (in-place)
I0413 18:38:59.543438 30343 layer_factory.hpp:77] Creating layer scale_conv4_1b
I0413 18:38:59.543593 30343 net.cpp:141] Setting up scale_conv4_1b
I0413 18:38:59.543602 30343 net.cpp:148] Top shape: 100 64 8 8 (409600)
I0413 18:38:59.543607 30343 net.cpp:156] Memory required for data: 391169200
I0413 18:38:59.543615 30343 layer_factory.hpp:77] Creating layer conv4_1
I0413 18:38:59.543624 30343 net.cpp:91] Creating Layer conv4_1
I0413 18:38:59.543629 30343 net.cpp:425] conv4_1 <- conv3_sub
I0413 18:38:59.543637 30343 net.cpp:425] conv4_1 <- conv4_1b
I0413 18:38:59.543643 30343 net.cpp:399] conv4_1 -> conv4_1
I0413 18:38:59.543678 30343 net.cpp:141] Setting up conv4_1
I0413 18:38:59.543687 30343 net.cpp:148] Top shape: 100 64 8 8 (409600)
I0413 18:38:59.543692 30343 net.cpp:156] Memory required for data: 392807600
I0413 18:38:59.543697 30343 layer_factory.hpp:77] Creating layer conv4_1_relu
I0413 18:38:59.543704 30343 net.cpp:91] Creating Layer conv4_1_relu
I0413 18:38:59.543709 30343 net.cpp:425] conv4_1_relu <- conv4_1
I0413 18:38:59.543717 30343 net.cpp:386] conv4_1_relu -> conv4_1 (in-place)
I0413 18:38:59.544086 30343 net.cpp:141] Setting up conv4_1_relu
I0413 18:38:59.544101 30343 net.cpp:148] Top shape: 100 64 8 8 (409600)
I0413 18:38:59.544106 30343 net.cpp:156] Memory required for data: 394446000
I0413 18:38:59.544112 30343 layer_factory.hpp:77] Creating layer conv4_1_conv4_1_relu_0_split
I0413 18:38:59.544121 30343 net.cpp:91] Creating Layer conv4_1_conv4_1_relu_0_split
I0413 18:38:59.544126 30343 net.cpp:425] conv4_1_conv4_1_relu_0_split <- conv4_1
I0413 18:38:59.544136 30343 net.cpp:399] conv4_1_conv4_1_relu_0_split -> conv4_1_conv4_1_relu_0_split_0
I0413 18:38:59.544145 30343 net.cpp:399] conv4_1_conv4_1_relu_0_split -> conv4_1_conv4_1_relu_0_split_1
I0413 18:38:59.544203 30343 net.cpp:141] Setting up conv4_1_conv4_1_relu_0_split
I0413 18:38:59.544211 30343 net.cpp:148] Top shape: 100 64 8 8 (409600)
I0413 18:38:59.544216 30343 net.cpp:148] Top shape: 100 64 8 8 (409600)
I0413 18:38:59.544221 30343 net.cpp:156] Memory required for data: 397722800
I0413 18:38:59.544226 30343 layer_factory.hpp:77] Creating layer conv4_2a
I0413 18:38:59.544241 30343 net.cpp:91] Creating Layer conv4_2a
I0413 18:38:59.544247 30343 net.cpp:425] conv4_2a <- conv4_1_conv4_1_relu_0_split_0
I0413 18:38:59.544255 30343 net.cpp:399] conv4_2a -> conv4_2a
I0413 18:38:59.546809 30343 net.cpp:141] Setting up conv4_2a
I0413 18:38:59.546829 30343 net.cpp:148] Top shape: 100 64 8 8 (409600)
I0413 18:38:59.546835 30343 net.cpp:156] Memory required for data: 399361200
I0413 18:38:59.546844 30343 layer_factory.hpp:77] Creating layer bn_conv4_2a
I0413 18:38:59.546854 30343 net.cpp:91] Creating Layer bn_conv4_2a
I0413 18:38:59.546859 30343 net.cpp:425] bn_conv4_2a <- conv4_2a
I0413 18:38:59.546869 30343 net.cpp:386] bn_conv4_2a -> conv4_2a (in-place)
I0413 18:38:59.547137 30343 net.cpp:141] Setting up bn_conv4_2a
I0413 18:38:59.547147 30343 net.cpp:148] Top shape: 100 64 8 8 (409600)
I0413 18:38:59.547152 30343 net.cpp:156] Memory required for data: 400999600
I0413 18:38:59.547160 30343 layer_factory.hpp:77] Creating layer scale_conv4_2a
I0413 18:38:59.547169 30343 net.cpp:91] Creating Layer scale_conv4_2a
I0413 18:38:59.547174 30343 net.cpp:425] scale_conv4_2a <- conv4_2a
I0413 18:38:59.547183 30343 net.cpp:386] scale_conv4_2a -> conv4_2a (in-place)
I0413 18:38:59.547238 30343 layer_factory.hpp:77] Creating layer scale_conv4_2a
I0413 18:38:59.547392 30343 net.cpp:141] Setting up scale_conv4_2a
I0413 18:38:59.547402 30343 net.cpp:148] Top shape: 100 64 8 8 (409600)
I0413 18:38:59.547406 30343 net.cpp:156] Memory required for data: 402638000
I0413 18:38:59.547420 30343 layer_factory.hpp:77] Creating layer conv4_2a_relu
I0413 18:38:59.547427 30343 net.cpp:91] Creating Layer conv4_2a_relu
I0413 18:38:59.547432 30343 net.cpp:425] conv4_2a_relu <- conv4_2a
I0413 18:38:59.547441 30343 net.cpp:386] conv4_2a_relu -> conv4_2a (in-place)
I0413 18:38:59.547654 30343 net.cpp:141] Setting up conv4_2a_relu
I0413 18:38:59.547667 30343 net.cpp:148] Top shape: 100 64 8 8 (409600)
I0413 18:38:59.547672 30343 net.cpp:156] Memory required for data: 404276400
I0413 18:38:59.547677 30343 layer_factory.hpp:77] Creating layer conv4_2b
I0413 18:38:59.547693 30343 net.cpp:91] Creating Layer conv4_2b
I0413 18:38:59.547700 30343 net.cpp:425] conv4_2b <- conv4_2a
I0413 18:38:59.547708 30343 net.cpp:399] conv4_2b -> conv4_2b
I0413 18:38:59.552268 30343 net.cpp:141] Setting up conv4_2b
I0413 18:38:59.552287 30343 net.cpp:148] Top shape: 100 64 8 8 (409600)
I0413 18:38:59.552294 30343 net.cpp:156] Memory required for data: 405914800
I0413 18:38:59.552302 30343 layer_factory.hpp:77] Creating layer bn_conv4_2b
I0413 18:38:59.552311 30343 net.cpp:91] Creating Layer bn_conv4_2b
I0413 18:38:59.552317 30343 net.cpp:425] bn_conv4_2b <- conv4_2b
I0413 18:38:59.552326 30343 net.cpp:386] bn_conv4_2b -> conv4_2b (in-place)
I0413 18:38:59.552592 30343 net.cpp:141] Setting up bn_conv4_2b
I0413 18:38:59.552602 30343 net.cpp:148] Top shape: 100 64 8 8 (409600)
I0413 18:38:59.552606 30343 net.cpp:156] Memory required for data: 407553200
I0413 18:38:59.552634 30343 layer_factory.hpp:77] Creating layer scale_conv4_2b
I0413 18:38:59.552645 30343 net.cpp:91] Creating Layer scale_conv4_2b
I0413 18:38:59.552650 30343 net.cpp:425] scale_conv4_2b <- conv4_2b
I0413 18:38:59.552657 30343 net.cpp:386] scale_conv4_2b -> conv4_2b (in-place)
I0413 18:38:59.552717 30343 layer_factory.hpp:77] Creating layer scale_conv4_2b
I0413 18:38:59.552870 30343 net.cpp:141] Setting up scale_conv4_2b
I0413 18:38:59.552880 30343 net.cpp:148] Top shape: 100 64 8 8 (409600)
I0413 18:38:59.552884 30343 net.cpp:156] Memory required for data: 409191600
I0413 18:38:59.552892 30343 layer_factory.hpp:77] Creating layer conv4_2
I0413 18:38:59.552901 30343 net.cpp:91] Creating Layer conv4_2
I0413 18:38:59.552906 30343 net.cpp:425] conv4_2 <- conv4_1_conv4_1_relu_0_split_1
I0413 18:38:59.552911 30343 net.cpp:425] conv4_2 <- conv4_2b
I0413 18:38:59.552918 30343 net.cpp:399] conv4_2 -> conv4_2
I0413 18:38:59.552956 30343 net.cpp:141] Setting up conv4_2
I0413 18:38:59.552966 30343 net.cpp:148] Top shape: 100 64 8 8 (409600)
I0413 18:38:59.552971 30343 net.cpp:156] Memory required for data: 410830000
I0413 18:38:59.552976 30343 layer_factory.hpp:77] Creating layer conv4_2_relu
I0413 18:38:59.552984 30343 net.cpp:91] Creating Layer conv4_2_relu
I0413 18:38:59.552990 30343 net.cpp:425] conv4_2_relu <- conv4_2
I0413 18:38:59.552997 30343 net.cpp:386] conv4_2_relu -> conv4_2 (in-place)
I0413 18:38:59.553356 30343 net.cpp:141] Setting up conv4_2_relu
I0413 18:38:59.553374 30343 net.cpp:148] Top shape: 100 64 8 8 (409600)
I0413 18:38:59.553380 30343 net.cpp:156] Memory required for data: 412468400
I0413 18:38:59.553385 30343 layer_factory.hpp:77] Creating layer conv4_2_conv4_2_relu_0_split
I0413 18:38:59.553395 30343 net.cpp:91] Creating Layer conv4_2_conv4_2_relu_0_split
I0413 18:38:59.553400 30343 net.cpp:425] conv4_2_conv4_2_relu_0_split <- conv4_2
I0413 18:38:59.553407 30343 net.cpp:399] conv4_2_conv4_2_relu_0_split -> conv4_2_conv4_2_relu_0_split_0
I0413 18:38:59.553417 30343 net.cpp:399] conv4_2_conv4_2_relu_0_split -> conv4_2_conv4_2_relu_0_split_1
I0413 18:38:59.553483 30343 net.cpp:141] Setting up conv4_2_conv4_2_relu_0_split
I0413 18:38:59.553493 30343 net.cpp:148] Top shape: 100 64 8 8 (409600)
I0413 18:38:59.553498 30343 net.cpp:148] Top shape: 100 64 8 8 (409600)
I0413 18:38:59.553503 30343 net.cpp:156] Memory required for data: 415745200
I0413 18:38:59.553508 30343 layer_factory.hpp:77] Creating layer conv4_3a
I0413 18:38:59.553521 30343 net.cpp:91] Creating Layer conv4_3a
I0413 18:38:59.553527 30343 net.cpp:425] conv4_3a <- conv4_2_conv4_2_relu_0_split_0
I0413 18:38:59.553542 30343 net.cpp:399] conv4_3a -> conv4_3a
I0413 18:38:59.556857 30343 net.cpp:141] Setting up conv4_3a
I0413 18:38:59.556875 30343 net.cpp:148] Top shape: 100 64 8 8 (409600)
I0413 18:38:59.556881 30343 net.cpp:156] Memory required for data: 417383600
I0413 18:38:59.556890 30343 layer_factory.hpp:77] Creating layer bn_conv4_3a
I0413 18:38:59.556901 30343 net.cpp:91] Creating Layer bn_conv4_3a
I0413 18:38:59.556907 30343 net.cpp:425] bn_conv4_3a <- conv4_3a
I0413 18:38:59.556915 30343 net.cpp:386] bn_conv4_3a -> conv4_3a (in-place)
I0413 18:38:59.557199 30343 net.cpp:141] Setting up bn_conv4_3a
I0413 18:38:59.557211 30343 net.cpp:148] Top shape: 100 64 8 8 (409600)
I0413 18:38:59.557216 30343 net.cpp:156] Memory required for data: 419022000
I0413 18:38:59.557226 30343 layer_factory.hpp:77] Creating layer scale_conv4_3a
I0413 18:38:59.557236 30343 net.cpp:91] Creating Layer scale_conv4_3a
I0413 18:38:59.557241 30343 net.cpp:425] scale_conv4_3a <- conv4_3a
I0413 18:38:59.557248 30343 net.cpp:386] scale_conv4_3a -> conv4_3a (in-place)
I0413 18:38:59.557307 30343 layer_factory.hpp:77] Creating layer scale_conv4_3a
I0413 18:38:59.557464 30343 net.cpp:141] Setting up scale_conv4_3a
I0413 18:38:59.557474 30343 net.cpp:148] Top shape: 100 64 8 8 (409600)
I0413 18:38:59.557479 30343 net.cpp:156] Memory required for data: 420660400
I0413 18:38:59.557487 30343 layer_factory.hpp:77] Creating layer conv4_3a_relu
I0413 18:38:59.557502 30343 net.cpp:91] Creating Layer conv4_3a_relu
I0413 18:38:59.557507 30343 net.cpp:425] conv4_3a_relu <- conv4_3a
I0413 18:38:59.557514 30343 net.cpp:386] conv4_3a_relu -> conv4_3a (in-place)
I0413 18:38:59.557858 30343 net.cpp:141] Setting up conv4_3a_relu
I0413 18:38:59.557874 30343 net.cpp:148] Top shape: 100 64 8 8 (409600)
I0413 18:38:59.557879 30343 net.cpp:156] Memory required for data: 422298800
I0413 18:38:59.557885 30343 layer_factory.hpp:77] Creating layer conv4_3b
I0413 18:38:59.557901 30343 net.cpp:91] Creating Layer conv4_3b
I0413 18:38:59.557909 30343 net.cpp:425] conv4_3b <- conv4_3a
I0413 18:38:59.557917 30343 net.cpp:399] conv4_3b -> conv4_3b
I0413 18:38:59.561403 30343 net.cpp:141] Setting up conv4_3b
I0413 18:38:59.561422 30343 net.cpp:148] Top shape: 100 64 8 8 (409600)
I0413 18:38:59.561427 30343 net.cpp:156] Memory required for data: 423937200
I0413 18:38:59.561437 30343 layer_factory.hpp:77] Creating layer bn_conv4_3b
I0413 18:38:59.561446 30343 net.cpp:91] Creating Layer bn_conv4_3b
I0413 18:38:59.561452 30343 net.cpp:425] bn_conv4_3b <- conv4_3b
I0413 18:38:59.561461 30343 net.cpp:386] bn_conv4_3b -> conv4_3b (in-place)
I0413 18:38:59.561733 30343 net.cpp:141] Setting up bn_conv4_3b
I0413 18:38:59.561743 30343 net.cpp:148] Top shape: 100 64 8 8 (409600)
I0413 18:38:59.561748 30343 net.cpp:156] Memory required for data: 425575600
I0413 18:38:59.561756 30343 layer_factory.hpp:77] Creating layer scale_conv4_3b
I0413 18:38:59.561764 30343 net.cpp:91] Creating Layer scale_conv4_3b
I0413 18:38:59.561770 30343 net.cpp:425] scale_conv4_3b <- conv4_3b
I0413 18:38:59.561779 30343 net.cpp:386] scale_conv4_3b -> conv4_3b (in-place)
I0413 18:38:59.561835 30343 layer_factory.hpp:77] Creating layer scale_conv4_3b
I0413 18:38:59.561995 30343 net.cpp:141] Setting up scale_conv4_3b
I0413 18:38:59.562005 30343 net.cpp:148] Top shape: 100 64 8 8 (409600)
I0413 18:38:59.562010 30343 net.cpp:156] Memory required for data: 427214000
I0413 18:38:59.562017 30343 layer_factory.hpp:77] Creating layer conv4_3
I0413 18:38:59.562024 30343 net.cpp:91] Creating Layer conv4_3
I0413 18:38:59.562031 30343 net.cpp:425] conv4_3 <- conv4_2_conv4_2_relu_0_split_1
I0413 18:38:59.562036 30343 net.cpp:425] conv4_3 <- conv4_3b
I0413 18:38:59.562046 30343 net.cpp:399] conv4_3 -> conv4_3
I0413 18:38:59.562083 30343 net.cpp:141] Setting up conv4_3
I0413 18:38:59.562091 30343 net.cpp:148] Top shape: 100 64 8 8 (409600)
I0413 18:38:59.562096 30343 net.cpp:156] Memory required for data: 428852400
I0413 18:38:59.562101 30343 layer_factory.hpp:77] Creating layer conv4_3_relu
I0413 18:38:59.562114 30343 net.cpp:91] Creating Layer conv4_3_relu
I0413 18:38:59.562119 30343 net.cpp:425] conv4_3_relu <- conv4_3
I0413 18:38:59.562125 30343 net.cpp:386] conv4_3_relu -> conv4_3 (in-place)
I0413 18:38:59.562340 30343 net.cpp:141] Setting up conv4_3_relu
I0413 18:38:59.562352 30343 net.cpp:148] Top shape: 100 64 8 8 (409600)
I0413 18:38:59.562357 30343 net.cpp:156] Memory required for data: 430490800
I0413 18:38:59.562362 30343 layer_factory.hpp:77] Creating layer global_pool
I0413 18:38:59.562373 30343 net.cpp:91] Creating Layer global_pool
I0413 18:38:59.562378 30343 net.cpp:425] global_pool <- conv4_3
I0413 18:38:59.562386 30343 net.cpp:399] global_pool -> global_pool
I0413 18:38:59.562754 30343 net.cpp:141] Setting up global_pool
I0413 18:38:59.562770 30343 net.cpp:148] Top shape: 100 64 1 1 (6400)
I0413 18:38:59.562775 30343 net.cpp:156] Memory required for data: 430516400
I0413 18:38:59.562780 30343 layer_factory.hpp:77] Creating layer ip
I0413 18:38:59.562793 30343 net.cpp:91] Creating Layer ip
I0413 18:38:59.562798 30343 net.cpp:425] ip <- global_pool
I0413 18:38:59.562805 30343 net.cpp:399] ip -> ip
I0413 18:38:59.562968 30343 net.cpp:141] Setting up ip
I0413 18:38:59.562979 30343 net.cpp:148] Top shape: 100 10 (1000)
I0413 18:38:59.562984 30343 net.cpp:156] Memory required for data: 430520400
I0413 18:38:59.562993 30343 layer_factory.hpp:77] Creating layer ip_ip_0_split
I0413 18:38:59.563001 30343 net.cpp:91] Creating Layer ip_ip_0_split
I0413 18:38:59.563006 30343 net.cpp:425] ip_ip_0_split <- ip
I0413 18:38:59.563014 30343 net.cpp:399] ip_ip_0_split -> ip_ip_0_split_0
I0413 18:38:59.563022 30343 net.cpp:399] ip_ip_0_split -> ip_ip_0_split_1
I0413 18:38:59.563077 30343 net.cpp:141] Setting up ip_ip_0_split
I0413 18:38:59.563086 30343 net.cpp:148] Top shape: 100 10 (1000)
I0413 18:38:59.563091 30343 net.cpp:148] Top shape: 100 10 (1000)
I0413 18:38:59.563097 30343 net.cpp:156] Memory required for data: 430528400
I0413 18:38:59.563102 30343 layer_factory.hpp:77] Creating layer accuracy
I0413 18:38:59.563109 30343 net.cpp:91] Creating Layer accuracy
I0413 18:38:59.563114 30343 net.cpp:425] accuracy <- ip_ip_0_split_0
I0413 18:38:59.563120 30343 net.cpp:425] accuracy <- label_cifar_1_split_0
I0413 18:38:59.563128 30343 net.cpp:399] accuracy -> accuracy
…
