…
I0421 14:00:40.154727  8582 solver.cpp:91] Creating training net from net file: prototxt/ResNet-cifar.prototxt
I0421 14:00:40.155964  8582 net.cpp:313] The NetState phase (0) differed from the phase (1) specified by a rule in layer cifar
I0421 14:00:40.157892  8582 net.cpp:49] Initializing net from parameters: 
name: "ResNet-cifar"
state {
  phase: TRAIN
}
layer {
  name: "cifar"
  type: "Data"
  top: "data"
  top: "label"
  include {
    phase: TRAIN
  }
  transform_param {
    mirror: true
    mean_file: "data/cifar10/mean.binaryproto"
  }
  data_param {
    source: "data/cifar10/cifar10_train_lmdb"
    batch_size: 256
    backend: LMDB
  }
}
layer {
  name: "conv1"
  type: "Convolution"
  bottom: "data"
  top: "conv1"
  param {
    lr_mult: 1
  }
  param {
    lr_mult: 2
  }
  convolution_param {
    num_output: 16
    pad: 1
    kernel_size: 3
    weight_filler {
      type: "msra"
    }
    bias_filler {
      type: "constant"
    }
  }
}
layer {
  name: "bn_conv1"
  type: "BatchNorm"
  bottom: "conv1"
  top: "conv1"
  param {
    lr_mult: 0
  }
  param {
    lr_mult: 0
  }
  param {
    lr_mult: 0
  }
}
layer {
  name: "scale_conv1"
  type: "Scale"
  bottom: "conv1"
  top: "conv1"
  scale_param {
    bias_term: true
  }
}
layer {
  name: "conv1_relu"
  type: "ReLU"
  bottom: "conv1"
  top: "conv1"
}
layer {
  name: "conv2_1a"
  type: "Convolution"
  bottom: "conv1"
  top: "conv2_1a"
  param {
    lr_mult: 1
  }
  param {
    lr_mult: 2
  }
  convolution_param {
    num_output: 16
    pad: 1
    kernel_size: 3
    stride: 1
    weight_filler {
      type: "msra"
    }
    bias_filler {
      type: "constant"
      value: 0
    }
  }
}
layer {
  name: "bn_conv2_1a"
  type: "BatchNorm"
  bottom: "conv2_1a"
  top: "conv2_1a"
  param {
    lr_mult: 0
  }
  param {
    lr_mult: 0
  }
  param {
    lr_mult: 0
  }
}
layer {
  name: "scale_conv2_1a"
  type: "Scale"
  bottom: "conv2_1a"
  top: "conv2_1a"
  scale_param {
    bias_term: true
  }
}
layer {
  name: "conv2_1a_relu"
  type: "ReLU"
  bottom: "conv2_1a"
  top: "conv2_1a"
}
layer {
  name: "conv2_1b"
  type: "Convolution"
  bottom: "conv2_1a"
  top: "conv2_1b"
  param {
    lr_mult: 1
  }
  param {
    lr_mult: 2
  }
  convolution_param {
    num_output: 16
    pad: 1
    kernel_size: 3
    stride: 1
    weight_filler {
      type: "msra"
    }
    bias_filler {
      type: "constant"
      value: 0
    }
  }
}
layer {
  name: "bn_conv2_1b"
  type: "BatchNorm"
  bottom: "conv2_1b"
  top: "conv2_1b"
  param {
    lr_mult: 0
  }
  param {
    lr_mult: 0
  }
  param {
    lr_mult: 0
  }
}
layer {
  name: "scale_conv2_1b"
  type: "Scale"
  bottom: "conv2_1b"
  top: "conv2_1b"
  scale_param {
    bias_term: true
  }
}
layer {
  name: "conv2_1"
  type: "Eltwise"
  bottom: "conv2_1b"
  bottom: "conv1"
  top: "conv2_1"
}
layer {
  name: "conv2_1_relu"
  type: "ReLU"
  bottom: "conv2_1"
  top: "conv2_1"
}
layer {
  name: "conv2_2a"
  type: "Convolution"
  bottom: "conv2_1"
  top: "conv2_2a"
  param {
    lr_mult: 1
  }
  param {
    lr_mult: 2
  }
  convolution_param {
    num_output: 16
    pad: 1
    kernel_size: 3
    stride: 1
    weight_filler {
      type: "msra"
    }
    bias_filler {
      type: "constant"
      value: 0
    }
  }
}
layer {
  name: "bn_conv2_2a"
  type: "BatchNorm"
  bottom: "conv2_2a"
  top: "conv2_2a"
  param {
    lr_mult: 0
  }
  param {
    lr_mult: 0
  }
  param {
    lr_mult: 0
  }
}
layer {
  name: "scale_conv2_2a"
  type: "Scale"
  bottom: "conv2_2a"
  top: "conv2_2a"
  scale_param {
    bias_term: true
  }
}
layer {
  name: "conv2_2a_relu"
  type: "ReLU"
  bottom: "conv2_2a"
  top: "conv2_2a"
}
layer {
  name: "conv2_2b"
  type: "Convolution"
  bottom: "conv2_2a"
  top: "conv2_2b"
  param {
    lr_mult: 1
  }
  param {
    lr_mult: 2
  }
  convolution_param {
    num_output: 16
    pad: 1
    kernel_size: 3
    stride: 1
    weight_filler {
      type: "msra"
    }
    bias_filler {
      type: "constant"
      value: 0
    }
  }
}
layer {
  name: "bn_conv2_2b"
  type: "BatchNorm"
  bottom: "conv2_2b"
  top: "conv2_2b"
  param {
    lr_mult: 0
  }
  param {
    lr_mult: 0
  }
  param {
    lr_mult: 0
  }
}
layer {
  name: "scale_conv2_2b"
  type: "Scale"
  bottom: "conv2_2b"
  top: "conv2_2b"
  scale_param {
    bias_term: true
  }
}
layer {
  name: "conv2_2"
  type: "Eltwise"
  bottom: "conv2_2b"
  bottom: "conv2_1"
  top: "conv2_2"
}
layer {
  name: "conv2_2_relu"
  type: "ReLU"
  bottom: "conv2_2"
  top: "conv2_2"
}
layer {
  name: "conv2_3a"
  type: "Convolution"
  bottom: "conv2_2"
  top: "conv2_3a"
  param {
    lr_mult: 1
  }
  param {
    lr_mult: 2
  }
  convolution_param {
    num_output: 16
    pad: 1
    kernel_size: 3
    stride: 1
    weight_filler {
      type: "msra"
    }
    bias_filler {
      type: "constant"
      value: 0
    }
  }
}
layer {
  name: "bn_conv2_3a"
  type: "BatchNorm"
  bottom: "conv2_3a"
  top: "conv2_3a"
  param {
    lr_mult: 0
  }
  param {
    lr_mult: 0
  }
  param {
    lr_mult: 0
  }
}
layer {
  name: "scale_conv2_3a"
  type: "Scale"
  bottom: "conv2_3a"
  top: "conv2_3a"
  scale_param {
    bias_term: true
  }
}
layer {
  name: "conv2_3a_relu"
  type: "ReLU"
  bottom: "conv2_3a"
  top: "conv2_3a"
}
layer {
  name: "conv2_3b"
  type: "Convolution"
  bottom: "conv2_3a"
  top: "conv2_3b"
  param {
    lr_mult: 1
  }
  param {
    lr_mult: 2
  }
  convolution_param {
    num_output: 16
    pad: 1
    kernel_size: 3
    stride: 1
    weight_filler {
      type: "msra"
    }
    bias_filler {
      type: "constant"
      value: 0
    }
  }
}
layer {
  name: "bn_conv2_3b"
  type: "BatchNorm"
  bottom: "conv2_3b"
  top: "conv2_3b"
  param {
    lr_mult: 0
  }
  param {
    lr_mult: 0
  }
  param {
    lr_mult: 0
  }
}
layer {
  name: "scale_conv2_3b"
  type: "Scale"
  bottom: "conv2_3b"
  top: "conv2_3b"
  scale_param {
    bias_term: true
  }
}
layer {
  name: "conv2_3"
  type: "Eltwise"
  bottom: "conv2_3b"
  bottom: "conv2_2"
  top: "conv2_3"
}
layer {
  name: "conv2_3_relu"
  type: "ReLU"
  bottom: "conv2_3"
  top: "conv2_3"
}
layer {
  name: "conv2_sub"
  type: "Convolution"
  bottom: "conv2_3"
  top: "conv2_sub"
  param {
    lr_mult: 1
  }
  param {
    lr_mult: 2
  }
  convolution_param {
    num_output: 32
    kernel_size: 1
    stride: 2
    weight_filler {
      type: "msra"
    }
    bias_filler {
      type: "constant"
      value: 0
    }
  }
}
layer {
  name: "bn_conv2_sub"
  type: "BatchNorm"
  bottom: "conv2_sub"
  top: "conv2_sub"
  param {
    lr_mult: 0
  }
  param {
    lr_mult: 0
  }
  param {
    lr_mult: 0
  }
}
layer {
  name: "scale_conv2_sub"
  type: "Scale"
  bottom: "conv2_sub"
  top: "conv2_sub"
  scale_param {
    bias_term: true
  }
}
layer {
  name: "conv3_1a"
  type: "Convolution"
  bottom: "conv2_3"
  top: "conv3_1a"
  param {
    lr_mult: 1
  }
  param {
    lr_mult: 2
  }
  convolution_param {
    num_output: 32
    pad: 0
    kernel_size: 1
    stride: 2
    weight_filler {
      type: "msra"
    }
    bias_filler {
      type: "constant"
      value: 0
    }
  }
}
layer {
  name: "bn_conv3_1a"
  type: "BatchNorm"
  bottom: "conv3_1a"
  top: "conv3_1a"
  param {
    lr_mult: 0
  }
  param {
    lr_mult: 0
  }
  param {
    lr_mult: 0
  }
}
layer {
  name: "scale_conv3_1a"
  type: "Scale"
  bottom: "conv3_1a"
  top: "conv3_1a"
  scale_param {
    bias_term: true
  }
}
layer {
  name: "conv3_1a_relu"
  type: "ReLU"
  bottom: "conv3_1a"
  top: "conv3_1a"
}
layer {
  name: "conv3_1b"
  type: "Convolution"
  bottom: "conv3_1a"
  top: "conv3_1b"
  param {
    lr_mult: 1
  }
  param {
    lr_mult: 2
  }
  convolution_param {
    num_output: 32
    pad: 1
    kernel_size: 3
    stride: 1
    weight_filler {
      type: "msra"
    }
    bias_filler {
      type: "constant"
      value: 0
    }
  }
}
layer {
  name: "bn_conv3_1b"
  type: "BatchNorm"
  bottom: "conv3_1b"
  top: "conv3_1b"
  param {
    lr_mult: 0
  }
  param {
    lr_mult: 0
  }
  param {
    lr_mult: 0
  }
}
layer {
  name: "scale_conv3_1b"
  type: "Scale"
  bottom: "conv3_1b"
  top: "conv3_1b"
  scale_param {
    bias_term: true
  }
}
layer {
  name: "conv3_1"
  type: "Eltwise"
  bottom: "conv3_1b"
  bottom: "conv2_sub"
  top: "conv3_1"
}
layer {
  name: "conv3_1_relu"
  type: "ReLU"
  bottom: "conv3_1"
  top: "conv3_1"
}
layer {
  name: "conv3_2a"
  type: "Convolution"
  bottom: "conv3_1"
  top: "conv3_2a"
  param {
    lr_mult: 1
  }
  param {
    lr_mult: 2
  }
  convolution_param {
    num_output: 32
    pad: 1
    kernel_size: 3
    stride: 1
    weight_filler {
      type: "msra"
    }
    bias_filler {
      type: "constant"
      value: 0
    }
  }
}
layer {
  name: "bn_conv3_2a"
  type: "BatchNorm"
  bottom: "conv3_2a"
  top: "conv3_2a"
  param {
    lr_mult: 0
  }
  param {
    lr_mult: 0
  }
  param {
    lr_mult: 0
  }
}
layer {
  name: "scale_conv3_2a"
  type: "Scale"
  bottom: "conv3_2a"
  top: "conv3_2a"
  scale_param {
    bias_term: true
  }
}
layer {
  name: "conv3_2a_relu"
  type: "ReLU"
  bottom: "conv3_2a"
  top: "conv3_2a"
}
layer {
  name: "conv3_2b"
  type: "Convolution"
  bottom: "conv3_2a"
  top: "conv3_2b"
  param {
    lr_mult: 1
  }
  param {
    lr_mult: 2
  }
  convolution_param {
    num_output: 32
    pad: 1
    kernel_size: 3
    stride: 1
    weight_filler {
      type: "msra"
    }
    bias_filler {
      type: "constant"
      value: 0
    }
  }
}
layer {
  name: "bn_conv3_2b"
  type: "BatchNorm"
  bottom: "conv3_2b"
  top: "conv3_2b"
  param {
    lr_mult: 0
  }
  param {
    lr_mult: 0
  }
  param {
    lr_mult: 0
  }
}
layer {
  name: "scale_conv3_2b"
  type: "Scale"
  bottom: "conv3_2b"
  top: "conv3_2b"
  scale_param {
    bias_term: true
  }
}
layer {
  name: "conv3_2"
  type: "Eltwise"
  bottom: "conv3_2b"
  bottom: "conv3_1"
  top: "conv3_2"
}
layer {
  name: "conv3_2_relu"
  type: "ReLU"
  bottom: "conv3_2"
  top: "conv3_2"
}
layer {
  name: "conv3_3a"
  type: "Convolution"
  bottom: "conv3_2"
  top: "conv3_3a"
  param {
    lr_mult: 1
  }
  param {
    lr_mult: 2
  }
  convolution_param {
    num_output: 32
    pad: 1
    kernel_size: 3
    stride: 1
    weight_filler {
      type: "msra"
    }
    bias_filler {
      type: "constant"
      value: 0
    }
  }
}
layer {
  name: "bn_conv3_3a"
  type: "BatchNorm"
  bottom: "conv3_3a"
  top: "conv3_3a"
  param {
    lr_mult: 0
  }
  param {
    lr_mult: 0
  }
  param {
    lr_mult: 0
  }
}
layer {
  name: "scale_conv3_3a"
  type: "Scale"
  bottom: "conv3_3a"
  top: "conv3_3a"
  scale_param {
    bias_term: true
  }
}
layer {
  name: "conv3_3a_relu"
  type: "ReLU"
  bottom: "conv3_3a"
  top: "conv3_3a"
}
layer {
  name: "conv3_3b"
  type: "Convolution"
  bottom: "conv3_3a"
  top: "conv3_3b"
  param {
    lr_mult: 1
  }
  param {
    lr_mult: 2
  }
  convolution_param {
    num_output: 32
    pad: 1
    kernel_size: 3
    stride: 1
    weight_filler {
      type: "msra"
    }
    bias_filler {
      type: "constant"
      value: 0
    }
  }
}
layer {
  name: "bn_conv3_3b"
  type: "BatchNorm"
  bottom: "conv3_3b"
  top: "conv3_3b"
  param {
    lr_mult: 0
  }
  param {
    lr_mult: 0
  }
  param {
    lr_mult: 0
  }
}
layer {
  name: "scale_conv3_3b"
  type: "Scale"
  bottom: "conv3_3b"
  top: "conv3_3b"
  scale_param {
    bias_term: true
  }
}
layer {
  name: "conv3_3"
  type: "Eltwise"
  bottom: "conv3_3b"
  bottom: "conv3_2"
  top: "conv3_3"
}
layer {
  name: "conv3_3_relu"
  type: "ReLU"
  bottom: "conv3_3"
  top: "conv3_3"
}
layer {
  name: "global_pool"
  type: "Pooling"
  bottom: "conv3_3"
  top: "global_pool"
  pooling_param {
    pool: AVE
    kernel_size: 8
    stride: 8
  }
}
layer {
  name: "ip"
  type: "InnerProduct"
  bottom: "global_pool"
  top: "ip"
  inner_product_param {
    num_output: 10
  }
}
layer {
  name: "accuracy"
  type: "Accuracy"
  bottom: "ip"
  bottom: "label"
  top: "accuracy"
}
layer {
  name: "loss"
  type: "SoftmaxWithLoss"
  bottom: "ip"
  bottom: "label"
  top: "loss"
}
I0421 14:00:40.158386  8582 layer_factory.hpp:77] Creating layer cifar
I0421 14:00:40.159137  8582 net.cpp:91] Creating Layer cifar
I0421 14:00:40.159185  8582 net.cpp:399] cifar -> data
I0421 14:00:40.159215  8582 net.cpp:399] cifar -> label
I0421 14:00:40.159230  8582 data_transformer.cpp:25] Loading mean file from: data/cifar10/mean.binaryproto
I0421 14:00:40.164928  8633 db_lmdb.cpp:38] Opened lmdb data/cifar10/cifar10_train_lmdb
I0421 14:00:40.172123  8582 data_layer.cpp:41] output data size: 256,3,32,32
I0421 14:00:40.177621  8582 net.cpp:141] Setting up cifar
I0421 14:00:40.177644  8582 net.cpp:148] Top shape: 256 3 32 32 (786432)
I0421 14:00:40.177650  8582 net.cpp:148] Top shape: 256 (256)
I0421 14:00:40.177654  8582 net.cpp:156] Memory required for data: 3146752
I0421 14:00:40.177662  8582 layer_factory.hpp:77] Creating layer label_cifar_1_split
I0421 14:00:40.177685  8582 net.cpp:91] Creating Layer label_cifar_1_split
I0421 14:00:40.177691  8582 net.cpp:425] label_cifar_1_split <- label
I0421 14:00:40.177700  8582 net.cpp:399] label_cifar_1_split -> label_cifar_1_split_0
I0421 14:00:40.177712  8582 net.cpp:399] label_cifar_1_split -> label_cifar_1_split_1
I0421 14:00:40.177769  8582 net.cpp:141] Setting up label_cifar_1_split
I0421 14:00:40.177778  8582 net.cpp:148] Top shape: 256 (256)
I0421 14:00:40.177783  8582 net.cpp:148] Top shape: 256 (256)
I0421 14:00:40.177786  8582 net.cpp:156] Memory required for data: 3148800
I0421 14:00:40.177790  8582 layer_factory.hpp:77] Creating layer conv1
I0421 14:00:40.177808  8582 net.cpp:91] Creating Layer conv1
I0421 14:00:40.177812  8582 net.cpp:425] conv1 <- data
I0421 14:00:40.177819  8582 net.cpp:399] conv1 -> conv1
I0421 14:00:40.336978  8582 net.cpp:141] Setting up conv1
I0421 14:00:40.337025  8582 net.cpp:148] Top shape: 256 16 32 32 (4194304)
I0421 14:00:40.337030  8582 net.cpp:156] Memory required for data: 19926016
I0421 14:00:40.337050  8582 layer_factory.hpp:77] Creating layer bn_conv1
I0421 14:00:40.337065  8582 net.cpp:91] Creating Layer bn_conv1
I0421 14:00:40.337071  8582 net.cpp:425] bn_conv1 <- conv1
I0421 14:00:40.337080  8582 net.cpp:386] bn_conv1 -> conv1 (in-place)
I0421 14:00:40.337270  8582 net.cpp:141] Setting up bn_conv1
I0421 14:00:40.337280  8582 net.cpp:148] Top shape: 256 16 32 32 (4194304)
I0421 14:00:40.337283  8582 net.cpp:156] Memory required for data: 36703232
I0421 14:00:40.337296  8582 layer_factory.hpp:77] Creating layer scale_conv1
I0421 14:00:40.337307  8582 net.cpp:91] Creating Layer scale_conv1
I0421 14:00:40.337311  8582 net.cpp:425] scale_conv1 <- conv1
I0421 14:00:40.337317  8582 net.cpp:386] scale_conv1 -> conv1 (in-place)
I0421 14:00:40.337352  8582 layer_factory.hpp:77] Creating layer scale_conv1
I0421 14:00:40.337450  8582 net.cpp:141] Setting up scale_conv1
I0421 14:00:40.337458  8582 net.cpp:148] Top shape: 256 16 32 32 (4194304)
I0421 14:00:40.337461  8582 net.cpp:156] Memory required for data: 53480448
I0421 14:00:40.337469  8582 layer_factory.hpp:77] Creating layer conv1_relu
I0421 14:00:40.337476  8582 net.cpp:91] Creating Layer conv1_relu
I0421 14:00:40.337481  8582 net.cpp:425] conv1_relu <- conv1
I0421 14:00:40.337497  8582 net.cpp:386] conv1_relu -> conv1 (in-place)
I0421 14:00:40.337738  8582 net.cpp:141] Setting up conv1_relu
I0421 14:00:40.337750  8582 net.cpp:148] Top shape: 256 16 32 32 (4194304)
I0421 14:00:40.337755  8582 net.cpp:156] Memory required for data: 70257664
I0421 14:00:40.337759  8582 layer_factory.hpp:77] Creating layer conv1_conv1_relu_0_split
I0421 14:00:40.337766  8582 net.cpp:91] Creating Layer conv1_conv1_relu_0_split
I0421 14:00:40.337770  8582 net.cpp:425] conv1_conv1_relu_0_split <- conv1
I0421 14:00:40.337776  8582 net.cpp:399] conv1_conv1_relu_0_split -> conv1_conv1_relu_0_split_0
I0421 14:00:40.337785  8582 net.cpp:399] conv1_conv1_relu_0_split -> conv1_conv1_relu_0_split_1
I0421 14:00:40.337817  8582 net.cpp:141] Setting up conv1_conv1_relu_0_split
I0421 14:00:40.337823  8582 net.cpp:148] Top shape: 256 16 32 32 (4194304)
I0421 14:00:40.337828  8582 net.cpp:148] Top shape: 256 16 32 32 (4194304)
I0421 14:00:40.337831  8582 net.cpp:156] Memory required for data: 103812096
I0421 14:00:40.337836  8582 layer_factory.hpp:77] Creating layer conv2_1a
I0421 14:00:40.337846  8582 net.cpp:91] Creating Layer conv2_1a
I0421 14:00:40.337851  8582 net.cpp:425] conv2_1a <- conv1_conv1_relu_0_split_0
I0421 14:00:40.337857  8582 net.cpp:399] conv2_1a -> conv2_1a
I0421 14:00:40.338621  8582 net.cpp:141] Setting up conv2_1a
I0421 14:00:40.338635  8582 net.cpp:148] Top shape: 256 16 32 32 (4194304)
I0421 14:00:40.338639  8582 net.cpp:156] Memory required for data: 120589312
I0421 14:00:40.338649  8582 layer_factory.hpp:77] Creating layer bn_conv2_1a
I0421 14:00:40.338659  8582 net.cpp:91] Creating Layer bn_conv2_1a
I0421 14:00:40.338663  8582 net.cpp:425] bn_conv2_1a <- conv2_1a
I0421 14:00:40.338670  8582 net.cpp:386] bn_conv2_1a -> conv2_1a (in-place)
I0421 14:00:40.338819  8582 net.cpp:141] Setting up bn_conv2_1a
I0421 14:00:40.338826  8582 net.cpp:148] Top shape: 256 16 32 32 (4194304)
I0421 14:00:40.338830  8582 net.cpp:156] Memory required for data: 137366528
I0421 14:00:40.338837  8582 layer_factory.hpp:77] Creating layer scale_conv2_1a
I0421 14:00:40.338845  8582 net.cpp:91] Creating Layer scale_conv2_1a
I0421 14:00:40.338848  8582 net.cpp:425] scale_conv2_1a <- conv2_1a
I0421 14:00:40.338853  8582 net.cpp:386] scale_conv2_1a -> conv2_1a (in-place)
I0421 14:00:40.338882  8582 layer_factory.hpp:77] Creating layer scale_conv2_1a
I0421 14:00:40.338973  8582 net.cpp:141] Setting up scale_conv2_1a
I0421 14:00:40.338980  8582 net.cpp:148] Top shape: 256 16 32 32 (4194304)
I0421 14:00:40.338984  8582 net.cpp:156] Memory required for data: 154143744
I0421 14:00:40.338990  8582 layer_factory.hpp:77] Creating layer conv2_1a_relu
I0421 14:00:40.338996  8582 net.cpp:91] Creating Layer conv2_1a_relu
I0421 14:00:40.338999  8582 net.cpp:425] conv2_1a_relu <- conv2_1a
I0421 14:00:40.339006  8582 net.cpp:386] conv2_1a_relu -> conv2_1a (in-place)
I0421 14:00:40.339246  8582 net.cpp:141] Setting up conv2_1a_relu
I0421 14:00:40.339257  8582 net.cpp:148] Top shape: 256 16 32 32 (4194304)
I0421 14:00:40.339262  8582 net.cpp:156] Memory required for data: 170920960
I0421 14:00:40.339267  8582 layer_factory.hpp:77] Creating layer conv2_1b
I0421 14:00:40.339277  8582 net.cpp:91] Creating Layer conv2_1b
I0421 14:00:40.339280  8582 net.cpp:425] conv2_1b <- conv2_1a
I0421 14:00:40.339288  8582 net.cpp:399] conv2_1b -> conv2_1b
I0421 14:00:40.340200  8582 net.cpp:141] Setting up conv2_1b
I0421 14:00:40.340215  8582 net.cpp:148] Top shape: 256 16 32 32 (4194304)
I0421 14:00:40.340219  8582 net.cpp:156] Memory required for data: 187698176
I0421 14:00:40.340226  8582 layer_factory.hpp:77] Creating layer bn_conv2_1b
I0421 14:00:40.340232  8582 net.cpp:91] Creating Layer bn_conv2_1b
I0421 14:00:40.340236  8582 net.cpp:425] bn_conv2_1b <- conv2_1b
I0421 14:00:40.340245  8582 net.cpp:386] bn_conv2_1b -> conv2_1b (in-place)
I0421 14:00:40.340395  8582 net.cpp:141] Setting up bn_conv2_1b
I0421 14:00:40.340402  8582 net.cpp:148] Top shape: 256 16 32 32 (4194304)
I0421 14:00:40.340406  8582 net.cpp:156] Memory required for data: 204475392
I0421 14:00:40.340416  8582 layer_factory.hpp:77] Creating layer scale_conv2_1b
I0421 14:00:40.340430  8582 net.cpp:91] Creating Layer scale_conv2_1b
I0421 14:00:40.340433  8582 net.cpp:425] scale_conv2_1b <- conv2_1b
I0421 14:00:40.340438  8582 net.cpp:386] scale_conv2_1b -> conv2_1b (in-place)
I0421 14:00:40.340467  8582 layer_factory.hpp:77] Creating layer scale_conv2_1b
I0421 14:00:40.340559  8582 net.cpp:141] Setting up scale_conv2_1b
I0421 14:00:40.340565  8582 net.cpp:148] Top shape: 256 16 32 32 (4194304)
I0421 14:00:40.340569  8582 net.cpp:156] Memory required for data: 221252608
I0421 14:00:40.340575  8582 layer_factory.hpp:77] Creating layer conv2_1
I0421 14:00:40.340581  8582 net.cpp:91] Creating Layer conv2_1
I0421 14:00:40.340585  8582 net.cpp:425] conv2_1 <- conv2_1b
I0421 14:00:40.340590  8582 net.cpp:425] conv2_1 <- conv1_conv1_relu_0_split_1
I0421 14:00:40.340595  8582 net.cpp:399] conv2_1 -> conv2_1
I0421 14:00:40.340617  8582 net.cpp:141] Setting up conv2_1
I0421 14:00:40.340625  8582 net.cpp:148] Top shape: 256 16 32 32 (4194304)
I0421 14:00:40.340627  8582 net.cpp:156] Memory required for data: 238029824
I0421 14:00:40.340631  8582 layer_factory.hpp:77] Creating layer conv2_1_relu
I0421 14:00:40.340637  8582 net.cpp:91] Creating Layer conv2_1_relu
I0421 14:00:40.340641  8582 net.cpp:425] conv2_1_relu <- conv2_1
I0421 14:00:40.340646  8582 net.cpp:386] conv2_1_relu -> conv2_1 (in-place)
I0421 14:00:40.340795  8582 net.cpp:141] Setting up conv2_1_relu
I0421 14:00:40.340806  8582 net.cpp:148] Top shape: 256 16 32 32 (4194304)
I0421 14:00:40.340809  8582 net.cpp:156] Memory required for data: 254807040
I0421 14:00:40.340812  8582 layer_factory.hpp:77] Creating layer conv2_1_conv2_1_relu_0_split
I0421 14:00:40.340821  8582 net.cpp:91] Creating Layer conv2_1_conv2_1_relu_0_split
I0421 14:00:40.340826  8582 net.cpp:425] conv2_1_conv2_1_relu_0_split <- conv2_1
I0421 14:00:40.340831  8582 net.cpp:399] conv2_1_conv2_1_relu_0_split -> conv2_1_conv2_1_relu_0_split_0
I0421 14:00:40.340837  8582 net.cpp:399] conv2_1_conv2_1_relu_0_split -> conv2_1_conv2_1_relu_0_split_1
I0421 14:00:40.340873  8582 net.cpp:141] Setting up conv2_1_conv2_1_relu_0_split
I0421 14:00:40.340879  8582 net.cpp:148] Top shape: 256 16 32 32 (4194304)
I0421 14:00:40.340884  8582 net.cpp:148] Top shape: 256 16 32 32 (4194304)
I0421 14:00:40.340888  8582 net.cpp:156] Memory required for data: 288361472
I0421 14:00:40.340890  8582 layer_factory.hpp:77] Creating layer conv2_2a
I0421 14:00:40.340901  8582 net.cpp:91] Creating Layer conv2_2a
I0421 14:00:40.340905  8582 net.cpp:425] conv2_2a <- conv2_1_conv2_1_relu_0_split_0
I0421 14:00:40.340915  8582 net.cpp:399] conv2_2a -> conv2_2a
I0421 14:00:40.341897  8582 net.cpp:141] Setting up conv2_2a
I0421 14:00:40.341910  8582 net.cpp:148] Top shape: 256 16 32 32 (4194304)
I0421 14:00:40.341915  8582 net.cpp:156] Memory required for data: 305138688
I0421 14:00:40.341922  8582 layer_factory.hpp:77] Creating layer bn_conv2_2a
I0421 14:00:40.341928  8582 net.cpp:91] Creating Layer bn_conv2_2a
I0421 14:00:40.341933  8582 net.cpp:425] bn_conv2_2a <- conv2_2a
I0421 14:00:40.341940  8582 net.cpp:386] bn_conv2_2a -> conv2_2a (in-place)
I0421 14:00:40.342097  8582 net.cpp:141] Setting up bn_conv2_2a
I0421 14:00:40.342103  8582 net.cpp:148] Top shape: 256 16 32 32 (4194304)
I0421 14:00:40.342108  8582 net.cpp:156] Memory required for data: 321915904
I0421 14:00:40.342114  8582 layer_factory.hpp:77] Creating layer scale_conv2_2a
I0421 14:00:40.342120  8582 net.cpp:91] Creating Layer scale_conv2_2a
I0421 14:00:40.342124  8582 net.cpp:425] scale_conv2_2a <- conv2_2a
I0421 14:00:40.342131  8582 net.cpp:386] scale_conv2_2a -> conv2_2a (in-place)
I0421 14:00:40.342160  8582 layer_factory.hpp:77] Creating layer scale_conv2_2a
I0421 14:00:40.342248  8582 net.cpp:141] Setting up scale_conv2_2a
I0421 14:00:40.342255  8582 net.cpp:148] Top shape: 256 16 32 32 (4194304)
I0421 14:00:40.342258  8582 net.cpp:156] Memory required for data: 338693120
I0421 14:00:40.342264  8582 layer_factory.hpp:77] Creating layer conv2_2a_relu
I0421 14:00:40.342272  8582 net.cpp:91] Creating Layer conv2_2a_relu
I0421 14:00:40.342279  8582 net.cpp:425] conv2_2a_relu <- conv2_2a
I0421 14:00:40.342284  8582 net.cpp:386] conv2_2a_relu -> conv2_2a (in-place)
I0421 14:00:40.342530  8582 net.cpp:141] Setting up conv2_2a_relu
I0421 14:00:40.342545  8582 net.cpp:148] Top shape: 256 16 32 32 (4194304)
I0421 14:00:40.342548  8582 net.cpp:156] Memory required for data: 355470336
I0421 14:00:40.342552  8582 layer_factory.hpp:77] Creating layer conv2_2b
I0421 14:00:40.342564  8582 net.cpp:91] Creating Layer conv2_2b
I0421 14:00:40.342568  8582 net.cpp:425] conv2_2b <- conv2_2a
I0421 14:00:40.342576  8582 net.cpp:399] conv2_2b -> conv2_2b
I0421 14:00:40.343367  8582 net.cpp:141] Setting up conv2_2b
I0421 14:00:40.343381  8582 net.cpp:148] Top shape: 256 16 32 32 (4194304)
I0421 14:00:40.343385  8582 net.cpp:156] Memory required for data: 372247552
I0421 14:00:40.343392  8582 layer_factory.hpp:77] Creating layer bn_conv2_2b
I0421 14:00:40.343402  8582 net.cpp:91] Creating Layer bn_conv2_2b
I0421 14:00:40.343406  8582 net.cpp:425] bn_conv2_2b <- conv2_2b
I0421 14:00:40.343412  8582 net.cpp:386] bn_conv2_2b -> conv2_2b (in-place)
I0421 14:00:40.343567  8582 net.cpp:141] Setting up bn_conv2_2b
I0421 14:00:40.343575  8582 net.cpp:148] Top shape: 256 16 32 32 (4194304)
I0421 14:00:40.343578  8582 net.cpp:156] Memory required for data: 389024768
I0421 14:00:40.343590  8582 layer_factory.hpp:77] Creating layer scale_conv2_2b
I0421 14:00:40.343597  8582 net.cpp:91] Creating Layer scale_conv2_2b
I0421 14:00:40.343601  8582 net.cpp:425] scale_conv2_2b <- conv2_2b
I0421 14:00:40.343606  8582 net.cpp:386] scale_conv2_2b -> conv2_2b (in-place)
I0421 14:00:40.343638  8582 layer_factory.hpp:77] Creating layer scale_conv2_2b
I0421 14:00:40.343729  8582 net.cpp:141] Setting up scale_conv2_2b
I0421 14:00:40.343735  8582 net.cpp:148] Top shape: 256 16 32 32 (4194304)
I0421 14:00:40.343739  8582 net.cpp:156] Memory required for data: 405801984
I0421 14:00:40.343745  8582 layer_factory.hpp:77] Creating layer conv2_2
I0421 14:00:40.343751  8582 net.cpp:91] Creating Layer conv2_2
I0421 14:00:40.343755  8582 net.cpp:425] conv2_2 <- conv2_2b
I0421 14:00:40.343760  8582 net.cpp:425] conv2_2 <- conv2_1_conv2_1_relu_0_split_1
I0421 14:00:40.343765  8582 net.cpp:399] conv2_2 -> conv2_2
I0421 14:00:40.343786  8582 net.cpp:141] Setting up conv2_2
I0421 14:00:40.343792  8582 net.cpp:148] Top shape: 256 16 32 32 (4194304)
I0421 14:00:40.343796  8582 net.cpp:156] Memory required for data: 422579200
I0421 14:00:40.343799  8582 layer_factory.hpp:77] Creating layer conv2_2_relu
I0421 14:00:40.343806  8582 net.cpp:91] Creating Layer conv2_2_relu
I0421 14:00:40.343809  8582 net.cpp:425] conv2_2_relu <- conv2_2
I0421 14:00:40.343814  8582 net.cpp:386] conv2_2_relu -> conv2_2 (in-place)
I0421 14:00:40.344058  8582 net.cpp:141] Setting up conv2_2_relu
I0421 14:00:40.344071  8582 net.cpp:148] Top shape: 256 16 32 32 (4194304)
I0421 14:00:40.344075  8582 net.cpp:156] Memory required for data: 439356416
I0421 14:00:40.344079  8582 layer_factory.hpp:77] Creating layer conv2_2_conv2_2_relu_0_split
I0421 14:00:40.344085  8582 net.cpp:91] Creating Layer conv2_2_conv2_2_relu_0_split
I0421 14:00:40.344089  8582 net.cpp:425] conv2_2_conv2_2_relu_0_split <- conv2_2
I0421 14:00:40.344094  8582 net.cpp:399] conv2_2_conv2_2_relu_0_split -> conv2_2_conv2_2_relu_0_split_0
I0421 14:00:40.344101  8582 net.cpp:399] conv2_2_conv2_2_relu_0_split -> conv2_2_conv2_2_relu_0_split_1
I0421 14:00:40.344140  8582 net.cpp:141] Setting up conv2_2_conv2_2_relu_0_split
I0421 14:00:40.344146  8582 net.cpp:148] Top shape: 256 16 32 32 (4194304)
I0421 14:00:40.344151  8582 net.cpp:148] Top shape: 256 16 32 32 (4194304)
I0421 14:00:40.344154  8582 net.cpp:156] Memory required for data: 472910848
I0421 14:00:40.344157  8582 layer_factory.hpp:77] Creating layer conv2_3a
I0421 14:00:40.344169  8582 net.cpp:91] Creating Layer conv2_3a
I0421 14:00:40.344173  8582 net.cpp:425] conv2_3a <- conv2_2_conv2_2_relu_0_split_0
I0421 14:00:40.344180  8582 net.cpp:399] conv2_3a -> conv2_3a
I0421 14:00:40.345064  8582 net.cpp:141] Setting up conv2_3a
I0421 14:00:40.345078  8582 net.cpp:148] Top shape: 256 16 32 32 (4194304)
I0421 14:00:40.345082  8582 net.cpp:156] Memory required for data: 489688064
I0421 14:00:40.345089  8582 layer_factory.hpp:77] Creating layer bn_conv2_3a
I0421 14:00:40.345100  8582 net.cpp:91] Creating Layer bn_conv2_3a
I0421 14:00:40.345104  8582 net.cpp:425] bn_conv2_3a <- conv2_3a
I0421 14:00:40.345141  8582 net.cpp:386] bn_conv2_3a -> conv2_3a (in-place)
I0421 14:00:40.345331  8582 net.cpp:141] Setting up bn_conv2_3a
I0421 14:00:40.345340  8582 net.cpp:148] Top shape: 256 16 32 32 (4194304)
I0421 14:00:40.345343  8582 net.cpp:156] Memory required for data: 506465280
I0421 14:00:40.345351  8582 layer_factory.hpp:77] Creating layer scale_conv2_3a
I0421 14:00:40.345360  8582 net.cpp:91] Creating Layer scale_conv2_3a
I0421 14:00:40.345365  8582 net.cpp:425] scale_conv2_3a <- conv2_3a
I0421 14:00:40.345371  8582 net.cpp:386] scale_conv2_3a -> conv2_3a (in-place)
I0421 14:00:40.345405  8582 layer_factory.hpp:77] Creating layer scale_conv2_3a
I0421 14:00:40.345536  8582 net.cpp:141] Setting up scale_conv2_3a
I0421 14:00:40.345543  8582 net.cpp:148] Top shape: 256 16 32 32 (4194304)
I0421 14:00:40.345547  8582 net.cpp:156] Memory required for data: 523242496
I0421 14:00:40.345553  8582 layer_factory.hpp:77] Creating layer conv2_3a_relu
I0421 14:00:40.345558  8582 net.cpp:91] Creating Layer conv2_3a_relu
I0421 14:00:40.345562  8582 net.cpp:425] conv2_3a_relu <- conv2_3a
I0421 14:00:40.345571  8582 net.cpp:386] conv2_3a_relu -> conv2_3a (in-place)
I0421 14:00:40.345717  8582 net.cpp:141] Setting up conv2_3a_relu
I0421 14:00:40.345727  8582 net.cpp:148] Top shape: 256 16 32 32 (4194304)
I0421 14:00:40.345731  8582 net.cpp:156] Memory required for data: 540019712
I0421 14:00:40.345736  8582 layer_factory.hpp:77] Creating layer conv2_3b
I0421 14:00:40.345746  8582 net.cpp:91] Creating Layer conv2_3b
I0421 14:00:40.345751  8582 net.cpp:425] conv2_3b <- conv2_3a
I0421 14:00:40.345757  8582 net.cpp:399] conv2_3b -> conv2_3b
I0421 14:00:40.346735  8582 net.cpp:141] Setting up conv2_3b
I0421 14:00:40.346750  8582 net.cpp:148] Top shape: 256 16 32 32 (4194304)
I0421 14:00:40.346753  8582 net.cpp:156] Memory required for data: 556796928
I0421 14:00:40.346760  8582 layer_factory.hpp:77] Creating layer bn_conv2_3b
I0421 14:00:40.346771  8582 net.cpp:91] Creating Layer bn_conv2_3b
I0421 14:00:40.346776  8582 net.cpp:425] bn_conv2_3b <- conv2_3b
I0421 14:00:40.346781  8582 net.cpp:386] bn_conv2_3b -> conv2_3b (in-place)
I0421 14:00:40.346940  8582 net.cpp:141] Setting up bn_conv2_3b
I0421 14:00:40.346947  8582 net.cpp:148] Top shape: 256 16 32 32 (4194304)
I0421 14:00:40.346951  8582 net.cpp:156] Memory required for data: 573574144
I0421 14:00:40.346957  8582 layer_factory.hpp:77] Creating layer scale_conv2_3b
I0421 14:00:40.346963  8582 net.cpp:91] Creating Layer scale_conv2_3b
I0421 14:00:40.346967  8582 net.cpp:425] scale_conv2_3b <- conv2_3b
I0421 14:00:40.346972  8582 net.cpp:386] scale_conv2_3b -> conv2_3b (in-place)
I0421 14:00:40.347005  8582 layer_factory.hpp:77] Creating layer scale_conv2_3b
I0421 14:00:40.347100  8582 net.cpp:141] Setting up scale_conv2_3b
I0421 14:00:40.347107  8582 net.cpp:148] Top shape: 256 16 32 32 (4194304)
I0421 14:00:40.347110  8582 net.cpp:156] Memory required for data: 590351360
I0421 14:00:40.347116  8582 layer_factory.hpp:77] Creating layer conv2_3
I0421 14:00:40.347122  8582 net.cpp:91] Creating Layer conv2_3
I0421 14:00:40.347126  8582 net.cpp:425] conv2_3 <- conv2_3b
I0421 14:00:40.347131  8582 net.cpp:425] conv2_3 <- conv2_2_conv2_2_relu_0_split_1
I0421 14:00:40.347137  8582 net.cpp:399] conv2_3 -> conv2_3
I0421 14:00:40.347158  8582 net.cpp:141] Setting up conv2_3
I0421 14:00:40.347164  8582 net.cpp:148] Top shape: 256 16 32 32 (4194304)
I0421 14:00:40.347168  8582 net.cpp:156] Memory required for data: 607128576
I0421 14:00:40.347172  8582 layer_factory.hpp:77] Creating layer conv2_3_relu
I0421 14:00:40.347178  8582 net.cpp:91] Creating Layer conv2_3_relu
I0421 14:00:40.347187  8582 net.cpp:425] conv2_3_relu <- conv2_3
I0421 14:00:40.347192  8582 net.cpp:386] conv2_3_relu -> conv2_3 (in-place)
I0421 14:00:40.347437  8582 net.cpp:141] Setting up conv2_3_relu
I0421 14:00:40.347450  8582 net.cpp:148] Top shape: 256 16 32 32 (4194304)
I0421 14:00:40.347455  8582 net.cpp:156] Memory required for data: 623905792
I0421 14:00:40.347458  8582 layer_factory.hpp:77] Creating layer conv2_3_conv2_3_relu_0_split
I0421 14:00:40.347466  8582 net.cpp:91] Creating Layer conv2_3_conv2_3_relu_0_split
I0421 14:00:40.347470  8582 net.cpp:425] conv2_3_conv2_3_relu_0_split <- conv2_3
I0421 14:00:40.347477  8582 net.cpp:399] conv2_3_conv2_3_relu_0_split -> conv2_3_conv2_3_relu_0_split_0
I0421 14:00:40.347486  8582 net.cpp:399] conv2_3_conv2_3_relu_0_split -> conv2_3_conv2_3_relu_0_split_1
I0421 14:00:40.347522  8582 net.cpp:141] Setting up conv2_3_conv2_3_relu_0_split
I0421 14:00:40.347528  8582 net.cpp:148] Top shape: 256 16 32 32 (4194304)
I0421 14:00:40.347532  8582 net.cpp:148] Top shape: 256 16 32 32 (4194304)
I0421 14:00:40.347535  8582 net.cpp:156] Memory required for data: 657460224
I0421 14:00:40.347539  8582 layer_factory.hpp:77] Creating layer conv2_sub
I0421 14:00:40.347549  8582 net.cpp:91] Creating Layer conv2_sub
I0421 14:00:40.347553  8582 net.cpp:425] conv2_sub <- conv2_3_conv2_3_relu_0_split_0
I0421 14:00:40.347561  8582 net.cpp:399] conv2_sub -> conv2_sub
I0421 14:00:40.348403  8582 net.cpp:141] Setting up conv2_sub
I0421 14:00:40.348417  8582 net.cpp:148] Top shape: 256 32 16 16 (2097152)
I0421 14:00:40.348422  8582 net.cpp:156] Memory required for data: 665848832
I0421 14:00:40.348428  8582 layer_factory.hpp:77] Creating layer bn_conv2_sub
I0421 14:00:40.348436  8582 net.cpp:91] Creating Layer bn_conv2_sub
I0421 14:00:40.348441  8582 net.cpp:425] bn_conv2_sub <- conv2_sub
I0421 14:00:40.348448  8582 net.cpp:386] bn_conv2_sub -> conv2_sub (in-place)
I0421 14:00:40.348608  8582 net.cpp:141] Setting up bn_conv2_sub
I0421 14:00:40.348615  8582 net.cpp:148] Top shape: 256 32 16 16 (2097152)
I0421 14:00:40.348619  8582 net.cpp:156] Memory required for data: 674237440
I0421 14:00:40.348626  8582 layer_factory.hpp:77] Creating layer scale_conv2_sub
I0421 14:00:40.348633  8582 net.cpp:91] Creating Layer scale_conv2_sub
I0421 14:00:40.348636  8582 net.cpp:425] scale_conv2_sub <- conv2_sub
I0421 14:00:40.348644  8582 net.cpp:386] scale_conv2_sub -> conv2_sub (in-place)
I0421 14:00:40.348672  8582 layer_factory.hpp:77] Creating layer scale_conv2_sub
I0421 14:00:40.348767  8582 net.cpp:141] Setting up scale_conv2_sub
I0421 14:00:40.348774  8582 net.cpp:148] Top shape: 256 32 16 16 (2097152)
I0421 14:00:40.348778  8582 net.cpp:156] Memory required for data: 682626048
I0421 14:00:40.348784  8582 layer_factory.hpp:77] Creating layer conv3_1a
I0421 14:00:40.348795  8582 net.cpp:91] Creating Layer conv3_1a
I0421 14:00:40.348799  8582 net.cpp:425] conv3_1a <- conv2_3_conv2_3_relu_0_split_1
I0421 14:00:40.348809  8582 net.cpp:399] conv3_1a -> conv3_1a
I0421 14:00:40.349716  8582 net.cpp:141] Setting up conv3_1a
I0421 14:00:40.349730  8582 net.cpp:148] Top shape: 256 32 16 16 (2097152)
I0421 14:00:40.349735  8582 net.cpp:156] Memory required for data: 691014656
I0421 14:00:40.349741  8582 layer_factory.hpp:77] Creating layer bn_conv3_1a
I0421 14:00:40.349750  8582 net.cpp:91] Creating Layer bn_conv3_1a
I0421 14:00:40.349755  8582 net.cpp:425] bn_conv3_1a <- conv3_1a
I0421 14:00:40.349761  8582 net.cpp:386] bn_conv3_1a -> conv3_1a (in-place)
I0421 14:00:40.349915  8582 net.cpp:141] Setting up bn_conv3_1a
I0421 14:00:40.349922  8582 net.cpp:148] Top shape: 256 32 16 16 (2097152)
I0421 14:00:40.349925  8582 net.cpp:156] Memory required for data: 699403264
I0421 14:00:40.349932  8582 layer_factory.hpp:77] Creating layer scale_conv3_1a
I0421 14:00:40.349938  8582 net.cpp:91] Creating Layer scale_conv3_1a
I0421 14:00:40.349942  8582 net.cpp:425] scale_conv3_1a <- conv3_1a
I0421 14:00:40.349949  8582 net.cpp:386] scale_conv3_1a -> conv3_1a (in-place)
I0421 14:00:40.349979  8582 layer_factory.hpp:77] Creating layer scale_conv3_1a
I0421 14:00:40.350077  8582 net.cpp:141] Setting up scale_conv3_1a
I0421 14:00:40.350086  8582 net.cpp:148] Top shape: 256 32 16 16 (2097152)
I0421 14:00:40.350090  8582 net.cpp:156] Memory required for data: 707791872
I0421 14:00:40.350096  8582 layer_factory.hpp:77] Creating layer conv3_1a_relu
I0421 14:00:40.350102  8582 net.cpp:91] Creating Layer conv3_1a_relu
I0421 14:00:40.350106  8582 net.cpp:425] conv3_1a_relu <- conv3_1a
I0421 14:00:40.350111  8582 net.cpp:386] conv3_1a_relu -> conv3_1a (in-place)
I0421 14:00:40.350356  8582 net.cpp:141] Setting up conv3_1a_relu
I0421 14:00:40.350370  8582 net.cpp:148] Top shape: 256 32 16 16 (2097152)
I0421 14:00:40.350374  8582 net.cpp:156] Memory required for data: 716180480
I0421 14:00:40.350378  8582 layer_factory.hpp:77] Creating layer conv3_1b
I0421 14:00:40.350390  8582 net.cpp:91] Creating Layer conv3_1b
I0421 14:00:40.350394  8582 net.cpp:425] conv3_1b <- conv3_1a
I0421 14:00:40.350401  8582 net.cpp:399] conv3_1b -> conv3_1b
I0421 14:00:40.351953  8582 net.cpp:141] Setting up conv3_1b
I0421 14:00:40.351968  8582 net.cpp:148] Top shape: 256 32 16 16 (2097152)
I0421 14:00:40.351971  8582 net.cpp:156] Memory required for data: 724569088
I0421 14:00:40.351987  8582 layer_factory.hpp:77] Creating layer bn_conv3_1b
I0421 14:00:40.351997  8582 net.cpp:91] Creating Layer bn_conv3_1b
I0421 14:00:40.352001  8582 net.cpp:425] bn_conv3_1b <- conv3_1b
I0421 14:00:40.352007  8582 net.cpp:386] bn_conv3_1b -> conv3_1b (in-place)
I0421 14:00:40.352165  8582 net.cpp:141] Setting up bn_conv3_1b
I0421 14:00:40.352172  8582 net.cpp:148] Top shape: 256 32 16 16 (2097152)
I0421 14:00:40.352176  8582 net.cpp:156] Memory required for data: 732957696
I0421 14:00:40.352185  8582 layer_factory.hpp:77] Creating layer scale_conv3_1b
I0421 14:00:40.352191  8582 net.cpp:91] Creating Layer scale_conv3_1b
I0421 14:00:40.352195  8582 net.cpp:425] scale_conv3_1b <- conv3_1b
I0421 14:00:40.352200  8582 net.cpp:386] scale_conv3_1b -> conv3_1b (in-place)
I0421 14:00:40.352232  8582 layer_factory.hpp:77] Creating layer scale_conv3_1b
I0421 14:00:40.352329  8582 net.cpp:141] Setting up scale_conv3_1b
I0421 14:00:40.352336  8582 net.cpp:148] Top shape: 256 32 16 16 (2097152)
I0421 14:00:40.352340  8582 net.cpp:156] Memory required for data: 741346304
I0421 14:00:40.352346  8582 layer_factory.hpp:77] Creating layer conv3_1
I0421 14:00:40.352354  8582 net.cpp:91] Creating Layer conv3_1
I0421 14:00:40.352356  8582 net.cpp:425] conv3_1 <- conv3_1b
I0421 14:00:40.352361  8582 net.cpp:425] conv3_1 <- conv2_sub
I0421 14:00:40.352366  8582 net.cpp:399] conv3_1 -> conv3_1
I0421 14:00:40.352385  8582 net.cpp:141] Setting up conv3_1
I0421 14:00:40.352392  8582 net.cpp:148] Top shape: 256 32 16 16 (2097152)
I0421 14:00:40.352396  8582 net.cpp:156] Memory required for data: 749734912
I0421 14:00:40.352399  8582 layer_factory.hpp:77] Creating layer conv3_1_relu
I0421 14:00:40.352404  8582 net.cpp:91] Creating Layer conv3_1_relu
I0421 14:00:40.352407  8582 net.cpp:425] conv3_1_relu <- conv3_1
I0421 14:00:40.352412  8582 net.cpp:386] conv3_1_relu -> conv3_1 (in-place)
I0421 14:00:40.352558  8582 net.cpp:141] Setting up conv3_1_relu
I0421 14:00:40.352567  8582 net.cpp:148] Top shape: 256 32 16 16 (2097152)
I0421 14:00:40.352571  8582 net.cpp:156] Memory required for data: 758123520
I0421 14:00:40.352576  8582 layer_factory.hpp:77] Creating layer conv3_1_conv3_1_relu_0_split
I0421 14:00:40.352581  8582 net.cpp:91] Creating Layer conv3_1_conv3_1_relu_0_split
I0421 14:00:40.352586  8582 net.cpp:425] conv3_1_conv3_1_relu_0_split <- conv3_1
I0421 14:00:40.352591  8582 net.cpp:399] conv3_1_conv3_1_relu_0_split -> conv3_1_conv3_1_relu_0_split_0
I0421 14:00:40.352598  8582 net.cpp:399] conv3_1_conv3_1_relu_0_split -> conv3_1_conv3_1_relu_0_split_1
I0421 14:00:40.352634  8582 net.cpp:141] Setting up conv3_1_conv3_1_relu_0_split
I0421 14:00:40.352640  8582 net.cpp:148] Top shape: 256 32 16 16 (2097152)
I0421 14:00:40.352644  8582 net.cpp:148] Top shape: 256 32 16 16 (2097152)
I0421 14:00:40.352648  8582 net.cpp:156] Memory required for data: 774900736
I0421 14:00:40.352655  8582 layer_factory.hpp:77] Creating layer conv3_2a
I0421 14:00:40.352665  8582 net.cpp:91] Creating Layer conv3_2a
I0421 14:00:40.352669  8582 net.cpp:425] conv3_2a <- conv3_1_conv3_1_relu_0_split_0
I0421 14:00:40.352677  8582 net.cpp:399] conv3_2a -> conv3_2a
I0421 14:00:40.353845  8582 net.cpp:141] Setting up conv3_2a
I0421 14:00:40.353862  8582 net.cpp:148] Top shape: 256 32 16 16 (2097152)
I0421 14:00:40.353865  8582 net.cpp:156] Memory required for data: 783289344
I0421 14:00:40.353873  8582 layer_factory.hpp:77] Creating layer bn_conv3_2a
I0421 14:00:40.353881  8582 net.cpp:91] Creating Layer bn_conv3_2a
I0421 14:00:40.353885  8582 net.cpp:425] bn_conv3_2a <- conv3_2a
I0421 14:00:40.353891  8582 net.cpp:386] bn_conv3_2a -> conv3_2a (in-place)
I0421 14:00:40.354051  8582 net.cpp:141] Setting up bn_conv3_2a
I0421 14:00:40.354058  8582 net.cpp:148] Top shape: 256 32 16 16 (2097152)
I0421 14:00:40.354063  8582 net.cpp:156] Memory required for data: 791677952
I0421 14:00:40.354069  8582 layer_factory.hpp:77] Creating layer scale_conv3_2a
I0421 14:00:40.354076  8582 net.cpp:91] Creating Layer scale_conv3_2a
I0421 14:00:40.354081  8582 net.cpp:425] scale_conv3_2a <- conv3_2a
I0421 14:00:40.354086  8582 net.cpp:386] scale_conv3_2a -> conv3_2a (in-place)
I0421 14:00:40.354117  8582 layer_factory.hpp:77] Creating layer scale_conv3_2a
I0421 14:00:40.354214  8582 net.cpp:141] Setting up scale_conv3_2a
I0421 14:00:40.354221  8582 net.cpp:148] Top shape: 256 32 16 16 (2097152)
I0421 14:00:40.354225  8582 net.cpp:156] Memory required for data: 800066560
I0421 14:00:40.354231  8582 layer_factory.hpp:77] Creating layer conv3_2a_relu
I0421 14:00:40.354236  8582 net.cpp:91] Creating Layer conv3_2a_relu
I0421 14:00:40.354240  8582 net.cpp:425] conv3_2a_relu <- conv3_2a
I0421 14:00:40.354248  8582 net.cpp:386] conv3_2a_relu -> conv3_2a (in-place)
I0421 14:00:40.354390  8582 net.cpp:141] Setting up conv3_2a_relu
I0421 14:00:40.354399  8582 net.cpp:148] Top shape: 256 32 16 16 (2097152)
I0421 14:00:40.354403  8582 net.cpp:156] Memory required for data: 808455168
I0421 14:00:40.354408  8582 layer_factory.hpp:77] Creating layer conv3_2b
I0421 14:00:40.354418  8582 net.cpp:91] Creating Layer conv3_2b
I0421 14:00:40.354423  8582 net.cpp:425] conv3_2b <- conv3_2a
I0421 14:00:40.354430  8582 net.cpp:399] conv3_2b -> conv3_2b
I0421 14:00:40.355515  8582 net.cpp:141] Setting up conv3_2b
I0421 14:00:40.355528  8582 net.cpp:148] Top shape: 256 32 16 16 (2097152)
I0421 14:00:40.355532  8582 net.cpp:156] Memory required for data: 816843776
I0421 14:00:40.355540  8582 layer_factory.hpp:77] Creating layer bn_conv3_2b
I0421 14:00:40.355547  8582 net.cpp:91] Creating Layer bn_conv3_2b
I0421 14:00:40.355552  8582 net.cpp:425] bn_conv3_2b <- conv3_2b
I0421 14:00:40.355557  8582 net.cpp:386] bn_conv3_2b -> conv3_2b (in-place)
I0421 14:00:40.355717  8582 net.cpp:141] Setting up bn_conv3_2b
I0421 14:00:40.355725  8582 net.cpp:148] Top shape: 256 32 16 16 (2097152)
I0421 14:00:40.355728  8582 net.cpp:156] Memory required for data: 825232384
I0421 14:00:40.355736  8582 layer_factory.hpp:77] Creating layer scale_conv3_2b
I0421 14:00:40.355741  8582 net.cpp:91] Creating Layer scale_conv3_2b
I0421 14:00:40.355746  8582 net.cpp:425] scale_conv3_2b <- conv3_2b
I0421 14:00:40.355751  8582 net.cpp:386] scale_conv3_2b -> conv3_2b (in-place)
I0421 14:00:40.355783  8582 layer_factory.hpp:77] Creating layer scale_conv3_2b
I0421 14:00:40.355880  8582 net.cpp:141] Setting up scale_conv3_2b
I0421 14:00:40.355886  8582 net.cpp:148] Top shape: 256 32 16 16 (2097152)
I0421 14:00:40.355890  8582 net.cpp:156] Memory required for data: 833620992
I0421 14:00:40.355895  8582 layer_factory.hpp:77] Creating layer conv3_2
I0421 14:00:40.355903  8582 net.cpp:91] Creating Layer conv3_2
I0421 14:00:40.355907  8582 net.cpp:425] conv3_2 <- conv3_2b
I0421 14:00:40.355911  8582 net.cpp:425] conv3_2 <- conv3_1_conv3_1_relu_0_split_1
I0421 14:00:40.355917  8582 net.cpp:399] conv3_2 -> conv3_2
I0421 14:00:40.355934  8582 net.cpp:141] Setting up conv3_2
I0421 14:00:40.355945  8582 net.cpp:148] Top shape: 256 32 16 16 (2097152)
I0421 14:00:40.355949  8582 net.cpp:156] Memory required for data: 842009600
I0421 14:00:40.355952  8582 layer_factory.hpp:77] Creating layer conv3_2_relu
I0421 14:00:40.355962  8582 net.cpp:91] Creating Layer conv3_2_relu
I0421 14:00:40.355965  8582 net.cpp:425] conv3_2_relu <- conv3_2
I0421 14:00:40.355970  8582 net.cpp:386] conv3_2_relu -> conv3_2 (in-place)
I0421 14:00:40.356230  8582 net.cpp:141] Setting up conv3_2_relu
I0421 14:00:40.356242  8582 net.cpp:148] Top shape: 256 32 16 16 (2097152)
I0421 14:00:40.356246  8582 net.cpp:156] Memory required for data: 850398208
I0421 14:00:40.356251  8582 layer_factory.hpp:77] Creating layer conv3_2_conv3_2_relu_0_split
I0421 14:00:40.356256  8582 net.cpp:91] Creating Layer conv3_2_conv3_2_relu_0_split
I0421 14:00:40.356261  8582 net.cpp:425] conv3_2_conv3_2_relu_0_split <- conv3_2
I0421 14:00:40.356268  8582 net.cpp:399] conv3_2_conv3_2_relu_0_split -> conv3_2_conv3_2_relu_0_split_0
I0421 14:00:40.356276  8582 net.cpp:399] conv3_2_conv3_2_relu_0_split -> conv3_2_conv3_2_relu_0_split_1
I0421 14:00:40.356319  8582 net.cpp:141] Setting up conv3_2_conv3_2_relu_0_split
I0421 14:00:40.356326  8582 net.cpp:148] Top shape: 256 32 16 16 (2097152)
I0421 14:00:40.356331  8582 net.cpp:148] Top shape: 256 32 16 16 (2097152)
I0421 14:00:40.356335  8582 net.cpp:156] Memory required for data: 867175424
I0421 14:00:40.356339  8582 layer_factory.hpp:77] Creating layer conv3_3a
I0421 14:00:40.356349  8582 net.cpp:91] Creating Layer conv3_3a
I0421 14:00:40.356354  8582 net.cpp:425] conv3_3a <- conv3_2_conv3_2_relu_0_split_0
I0421 14:00:40.356362  8582 net.cpp:399] conv3_3a -> conv3_3a
I0421 14:00:40.357549  8582 net.cpp:141] Setting up conv3_3a
I0421 14:00:40.357563  8582 net.cpp:148] Top shape: 256 32 16 16 (2097152)
I0421 14:00:40.357568  8582 net.cpp:156] Memory required for data: 875564032
I0421 14:00:40.357574  8582 layer_factory.hpp:77] Creating layer bn_conv3_3a
I0421 14:00:40.357583  8582 net.cpp:91] Creating Layer bn_conv3_3a
I0421 14:00:40.357588  8582 net.cpp:425] bn_conv3_3a <- conv3_3a
I0421 14:00:40.357594  8582 net.cpp:386] bn_conv3_3a -> conv3_3a (in-place)
I0421 14:00:40.357753  8582 net.cpp:141] Setting up bn_conv3_3a
I0421 14:00:40.357759  8582 net.cpp:148] Top shape: 256 32 16 16 (2097152)
I0421 14:00:40.357764  8582 net.cpp:156] Memory required for data: 883952640
I0421 14:00:40.357770  8582 layer_factory.hpp:77] Creating layer scale_conv3_3a
I0421 14:00:40.357779  8582 net.cpp:91] Creating Layer scale_conv3_3a
I0421 14:00:40.357784  8582 net.cpp:425] scale_conv3_3a <- conv3_3a
I0421 14:00:40.357789  8582 net.cpp:386] scale_conv3_3a -> conv3_3a (in-place)
I0421 14:00:40.357820  8582 layer_factory.hpp:77] Creating layer scale_conv3_3a
I0421 14:00:40.357915  8582 net.cpp:141] Setting up scale_conv3_3a
I0421 14:00:40.357923  8582 net.cpp:148] Top shape: 256 32 16 16 (2097152)
I0421 14:00:40.357925  8582 net.cpp:156] Memory required for data: 892341248
I0421 14:00:40.357931  8582 layer_factory.hpp:77] Creating layer conv3_3a_relu
I0421 14:00:40.357938  8582 net.cpp:91] Creating Layer conv3_3a_relu
I0421 14:00:40.357941  8582 net.cpp:425] conv3_3a_relu <- conv3_3a
I0421 14:00:40.357947  8582 net.cpp:386] conv3_3a_relu -> conv3_3a (in-place)
I0421 14:00:40.358096  8582 net.cpp:141] Setting up conv3_3a_relu
I0421 14:00:40.358106  8582 net.cpp:148] Top shape: 256 32 16 16 (2097152)
I0421 14:00:40.358110  8582 net.cpp:156] Memory required for data: 900729856
I0421 14:00:40.358114  8582 layer_factory.hpp:77] Creating layer conv3_3b
I0421 14:00:40.358130  8582 net.cpp:91] Creating Layer conv3_3b
I0421 14:00:40.358135  8582 net.cpp:425] conv3_3b <- conv3_3a
I0421 14:00:40.358142  8582 net.cpp:399] conv3_3b -> conv3_3b
I0421 14:00:40.359236  8582 net.cpp:141] Setting up conv3_3b
I0421 14:00:40.359249  8582 net.cpp:148] Top shape: 256 32 16 16 (2097152)
I0421 14:00:40.359253  8582 net.cpp:156] Memory required for data: 909118464
I0421 14:00:40.359261  8582 layer_factory.hpp:77] Creating layer bn_conv3_3b
I0421 14:00:40.359274  8582 net.cpp:91] Creating Layer bn_conv3_3b
I0421 14:00:40.359279  8582 net.cpp:425] bn_conv3_3b <- conv3_3b
I0421 14:00:40.359285  8582 net.cpp:386] bn_conv3_3b -> conv3_3b (in-place)
I0421 14:00:40.359448  8582 net.cpp:141] Setting up bn_conv3_3b
I0421 14:00:40.359455  8582 net.cpp:148] Top shape: 256 32 16 16 (2097152)
I0421 14:00:40.359459  8582 net.cpp:156] Memory required for data: 917507072
I0421 14:00:40.359467  8582 layer_factory.hpp:77] Creating layer scale_conv3_3b
I0421 14:00:40.359474  8582 net.cpp:91] Creating Layer scale_conv3_3b
I0421 14:00:40.359478  8582 net.cpp:425] scale_conv3_3b <- conv3_3b
I0421 14:00:40.359483  8582 net.cpp:386] scale_conv3_3b -> conv3_3b (in-place)
I0421 14:00:40.359515  8582 layer_factory.hpp:77] Creating layer scale_conv3_3b
I0421 14:00:40.359613  8582 net.cpp:141] Setting up scale_conv3_3b
I0421 14:00:40.359621  8582 net.cpp:148] Top shape: 256 32 16 16 (2097152)
I0421 14:00:40.359623  8582 net.cpp:156] Memory required for data: 925895680
I0421 14:00:40.359629  8582 layer_factory.hpp:77] Creating layer conv3_3
I0421 14:00:40.359635  8582 net.cpp:91] Creating Layer conv3_3
I0421 14:00:40.359639  8582 net.cpp:425] conv3_3 <- conv3_3b
I0421 14:00:40.359643  8582 net.cpp:425] conv3_3 <- conv3_2_conv3_2_relu_0_split_1
I0421 14:00:40.359650  8582 net.cpp:399] conv3_3 -> conv3_3
I0421 14:00:40.359668  8582 net.cpp:141] Setting up conv3_3
I0421 14:00:40.359676  8582 net.cpp:148] Top shape: 256 32 16 16 (2097152)
I0421 14:00:40.359680  8582 net.cpp:156] Memory required for data: 934284288
I0421 14:00:40.359683  8582 layer_factory.hpp:77] Creating layer conv3_3_relu
I0421 14:00:40.359689  8582 net.cpp:91] Creating Layer conv3_3_relu
I0421 14:00:40.359693  8582 net.cpp:425] conv3_3_relu <- conv3_3
I0421 14:00:40.359697  8582 net.cpp:386] conv3_3_relu -> conv3_3 (in-place)
I0421 14:00:40.359846  8582 net.cpp:141] Setting up conv3_3_relu
I0421 14:00:40.359856  8582 net.cpp:148] Top shape: 256 32 16 16 (2097152)
I0421 14:00:40.359859  8582 net.cpp:156] Memory required for data: 942672896
I0421 14:00:40.359863  8582 layer_factory.hpp:77] Creating layer global_pool
I0421 14:00:40.359870  8582 net.cpp:91] Creating Layer global_pool
I0421 14:00:40.359876  8582 net.cpp:425] global_pool <- conv3_3
I0421 14:00:40.359881  8582 net.cpp:399] global_pool -> global_pool
I0421 14:00:40.360237  8582 net.cpp:141] Setting up global_pool
I0421 14:00:40.360250  8582 net.cpp:148] Top shape: 256 32 2 2 (32768)
I0421 14:00:40.360255  8582 net.cpp:156] Memory required for data: 942803968
I0421 14:00:40.360258  8582 layer_factory.hpp:77] Creating layer ip
I0421 14:00:40.360267  8582 net.cpp:91] Creating Layer ip
I0421 14:00:40.360272  8582 net.cpp:425] ip <- global_pool
I0421 14:00:40.360277  8582 net.cpp:399] ip -> ip
I0421 14:00:40.360381  8582 net.cpp:141] Setting up ip
I0421 14:00:40.360389  8582 net.cpp:148] Top shape: 256 10 (2560)
I0421 14:00:40.360393  8582 net.cpp:156] Memory required for data: 942814208
I0421 14:00:40.360399  8582 layer_factory.hpp:77] Creating layer ip_ip_0_split
I0421 14:00:40.360405  8582 net.cpp:91] Creating Layer ip_ip_0_split
I0421 14:00:40.360409  8582 net.cpp:425] ip_ip_0_split <- ip
I0421 14:00:40.360414  8582 net.cpp:399] ip_ip_0_split -> ip_ip_0_split_0
I0421 14:00:40.360422  8582 net.cpp:399] ip_ip_0_split -> ip_ip_0_split_1
I0421 14:00:40.360452  8582 net.cpp:141] Setting up ip_ip_0_split
I0421 14:00:40.360458  8582 net.cpp:148] Top shape: 256 10 (2560)
I0421 14:00:40.360462  8582 net.cpp:148] Top shape: 256 10 (2560)
I0421 14:00:40.360466  8582 net.cpp:156] Memory required for data: 942834688
I0421 14:00:40.360469  8582 layer_factory.hpp:77] Creating layer accuracy
I0421 14:00:40.360479  8582 net.cpp:91] Creating Layer accuracy
I0421 14:00:40.360483  8582 net.cpp:425] accuracy <- ip_ip_0_split_0
I0421 14:00:40.360488  8582 net.cpp:425] accuracy <- label_cifar_1_split_0
I0421 14:00:40.360496  8582 net.cpp:399] accuracy -> accuracy
…
I0421 14:00:40.362669  8582 solver.cpp:181] Creating test net (#0) specified by net file: prototxt/ResNet-cifar.prototxt
I0421 14:00:40.362749  8582 net.cpp:313] The NetState phase (1) differed from the phase (0) specified by a rule in layer cifar
I0421 14:00:40.363102  8582 net.cpp:49] Initializing net from parameters: 
name: "ResNet-cifar"
state {
  phase: TEST
}
layer {
  name: "cifar"
  type: "Data"
  top: "data"
  top: "label"
  include {
    phase: TEST
  }
  transform_param {
    mean_file: "data/cifar10/mean.binaryproto"
  }
  data_param {
    source: "data/cifar10/cifar10_test_lmdb"
    batch_size: 100
    backend: LMDB
  }
}
layer {
  name: "conv1"
  type: "Convolution"
  bottom: "data"
  top: "conv1"
  param {
    lr_mult: 1
  }
  param {
    lr_mult: 2
  }
  convolution_param {
    num_output: 16
    pad: 1
    kernel_size: 3
    weight_filler {
      type: "msra"
    }
    bias_filler {
      type: "constant"
    }
  }
}
layer {
  name: "bn_conv1"
  type: "BatchNorm"
  bottom: "conv1"
  top: "conv1"
  param {
    lr_mult: 0
  }
  param {
    lr_mult: 0
  }
  param {
    lr_mult: 0
  }
}
layer {
  name: "scale_conv1"
  type: "Scale"
  bottom: "conv1"
  top: "conv1"
  scale_param {
    bias_term: true
  }
}
layer {
  name: "conv1_relu"
  type: "ReLU"
  bottom: "conv1"
  top: "conv1"
}
layer {
  name: "conv2_1a"
  type: "Convolution"
  bottom: "conv1"
  top: "conv2_1a"
  param {
    lr_mult: 1
  }
  param {
    lr_mult: 2
  }
  convolution_param {
    num_output: 16
    pad: 1
    kernel_size: 3
    stride: 1
    weight_filler {
      type: "msra"
    }
    bias_filler {
      type: "constant"
      value: 0
    }
  }
}
layer {
  name: "bn_conv2_1a"
  type: "BatchNorm"
  bottom: "conv2_1a"
  top: "conv2_1a"
  param {
    lr_mult: 0
  }
  param {
    lr_mult: 0
  }
  param {
    lr_mult: 0
  }
}
layer {
  name: "scale_conv2_1a"
  type: "Scale"
  bottom: "conv2_1a"
  top: "conv2_1a"
  scale_param {
    bias_term: true
  }
}
layer {
  name: "conv2_1a_relu"
  type: "ReLU"
  bottom: "conv2_1a"
  top: "conv2_1a"
}
layer {
  name: "conv2_1b"
  type: "Convolution"
  bottom: "conv2_1a"
  top: "conv2_1b"
  param {
    lr_mult: 1
  }
  param {
    lr_mult: 2
  }
  convolution_param {
    num_output: 16
    pad: 1
    kernel_size: 3
    stride: 1
    weight_filler {
      type: "msra"
    }
    bias_filler {
      type: "constant"
      value: 0
    }
  }
}
layer {
  name: "bn_conv2_1b"
  type: "BatchNorm"
  bottom: "conv2_1b"
  top: "conv2_1b"
  param {
    lr_mult: 0
  }
  param {
    lr_mult: 0
  }
  param {
    lr_mult: 0
  }
}
layer {
  name: "scale_conv2_1b"
  type: "Scale"
  bottom: "conv2_1b"
  top: "conv2_1b"
  scale_param {
    bias_term: true
  }
}
layer {
  name: "conv2_1"
  type: "Eltwise"
  bottom: "conv2_1b"
  bottom: "conv1"
  top: "conv2_1"
}
layer {
  name: "conv2_1_relu"
  type: "ReLU"
  bottom: "conv2_1"
  top: "conv2_1"
}
layer {
  name: "conv2_2a"
  type: "Convolution"
  bottom: "conv2_1"
  top: "conv2_2a"
  param {
    lr_mult: 1
  }
  param {
    lr_mult: 2
  }
  convolution_param {
    num_output: 16
    pad: 1
    kernel_size: 3
    stride: 1
    weight_filler {
      type: "msra"
    }
    bias_filler {
      type: "constant"
      value: 0
    }
  }
}
layer {
  name: "bn_conv2_2a"
  type: "BatchNorm"
  bottom: "conv2_2a"
  top: "conv2_2a"
  param {
    lr_mult: 0
  }
  param {
    lr_mult: 0
  }
  param {
    lr_mult: 0
  }
}
layer {
  name: "scale_conv2_2a"
  type: "Scale"
  bottom: "conv2_2a"
  top: "conv2_2a"
  scale_param {
    bias_term: true
  }
}
layer {
  name: "conv2_2a_relu"
  type: "ReLU"
  bottom: "conv2_2a"
  top: "conv2_2a"
}
layer {
  name: "conv2_2b"
  type: "Convolution"
  bottom: "conv2_2a"
  top: "conv2_2b"
  param {
    lr_mult: 1
  }
  param {
    lr_mult: 2
  }
  convolution_param {
    num_output: 16
    pad: 1
    kernel_size: 3
    stride: 1
    weight_filler {
      type: "msra"
    }
    bias_filler {
      type: "constant"
      value: 0
    }
  }
}
layer {
  name: "bn_conv2_2b"
  type: "BatchNorm"
  bottom: "conv2_2b"
  top: "conv2_2b"
  param {
    lr_mult: 0
  }
  param {
    lr_mult: 0
  }
  param {
    lr_mult: 0
  }
}
layer {
  name: "scale_conv2_2b"
  type: "Scale"
  bottom: "conv2_2b"
  top: "conv2_2b"
  scale_param {
    bias_term: true
  }
}
layer {
  name: "conv2_2"
  type: "Eltwise"
  bottom: "conv2_2b"
  bottom: "conv2_1"
  top: "conv2_2"
}
layer {
  name: "conv2_2_relu"
  type: "ReLU"
  bottom: "conv2_2"
  top: "conv2_2"
}
layer {
  name: "conv2_3a"
  type: "Convolution"
  bottom: "conv2_2"
  top: "conv2_3a"
  param {
    lr_mult: 1
  }
  param {
    lr_mult: 2
  }
  convolution_param {
    num_output: 16
    pad: 1
    kernel_size: 3
    stride: 1
    weight_filler {
      type: "msra"
    }
    bias_filler {
      type: "constant"
      value: 0
    }
  }
}
layer {
  name: "bn_conv2_3a"
  type: "BatchNorm"
  bottom: "conv2_3a"
  top: "conv2_3a"
  param {
    lr_mult: 0
  }
  param {
    lr_mult: 0
  }
  param {
    lr_mult: 0
  }
}
layer {
  name: "scale_conv2_3a"
  type: "Scale"
  bottom: "conv2_3a"
  top: "conv2_3a"
  scale_param {
    bias_term: true
  }
}
layer {
  name: "conv2_3a_relu"
  type: "ReLU"
  bottom: "conv2_3a"
  top: "conv2_3a"
}
layer {
  name: "conv2_3b"
  type: "Convolution"
  bottom: "conv2_3a"
  top: "conv2_3b"
  param {
    lr_mult: 1
  }
  param {
    lr_mult: 2
  }
  convolution_param {
    num_output: 16
    pad: 1
    kernel_size: 3
    stride: 1
    weight_filler {
      type: "msra"
    }
    bias_filler {
      type: "constant"
      value: 0
    }
  }
}
layer {
  name: "bn_conv2_3b"
  type: "BatchNorm"
  bottom: "conv2_3b"
  top: "conv2_3b"
  param {
    lr_mult: 0
  }
  param {
    lr_mult: 0
  }
  param {
    lr_mult: 0
  }
}
layer {
  name: "scale_conv2_3b"
  type: "Scale"
  bottom: "conv2_3b"
  top: "conv2_3b"
  scale_param {
    bias_term: true
  }
}
layer {
  name: "conv2_3"
  type: "Eltwise"
  bottom: "conv2_3b"
  bottom: "conv2_2"
  top: "conv2_3"
}
layer {
  name: "conv2_3_relu"
  type: "ReLU"
  bottom: "conv2_3"
  top: "conv2_3"
}
layer {
  name: "conv2_sub"
  type: "Convolution"
  bottom: "conv2_3"
  top: "conv2_sub"
  param {
    lr_mult: 1
  }
  param {
    lr_mult: 2
  }
  convolution_param {
    num_output: 32
    kernel_size: 1
    stride: 2
    weight_filler {
      type: "msra"
    }
    bias_filler {
      type: "constant"
      value: 0
    }
  }
}
layer {
  name: "bn_conv2_sub"
  type: "BatchNorm"
  bottom: "conv2_sub"
  top: "conv2_sub"
  param {
    lr_mult: 0
  }
  param {
    lr_mult: 0
  }
  param {
    lr_mult: 0
  }
}
layer {
  name: "scale_conv2_sub"
  type: "Scale"
  bottom: "conv2_sub"
  top: "conv2_sub"
  scale_param {
    bias_term: true
  }
}
layer {
  name: "conv3_1a"
  type: "Convolution"
  bottom: "conv2_3"
  top: "conv3_1a"
  param {
    lr_mult: 1
  }
  param {
    lr_mult: 2
  }
  convolution_param {
    num_output: 32
    pad: 0
    kernel_size: 1
    stride: 2
    weight_filler {
      type: "msra"
    }
    bias_filler {
      type: "constant"
      value: 0
    }
  }
}
layer {
  name: "bn_conv3_1a"
  type: "BatchNorm"
  bottom: "conv3_1a"
  top: "conv3_1a"
  param {
    lr_mult: 0
  }
  param {
    lr_mult: 0
  }
  param {
    lr_mult: 0
  }
}
layer {
  name: "scale_conv3_1a"
  type: "Scale"
  bottom: "conv3_1a"
  top: "conv3_1a"
  scale_param {
    bias_term: true
  }
}
layer {
  name: "conv3_1a_relu"
  type: "ReLU"
  bottom: "conv3_1a"
  top: "conv3_1a"
}
layer {
  name: "conv3_1b"
  type: "Convolution"
  bottom: "conv3_1a"
  top: "conv3_1b"
  param {
    lr_mult: 1
  }
  param {
    lr_mult: 2
  }
  convolution_param {
    num_output: 32
    pad: 1
    kernel_size: 3
    stride: 1
    weight_filler {
      type: "msra"
    }
    bias_filler {
      type: "constant"
      value: 0
    }
  }
}
layer {
  name: "bn_conv3_1b"
  type: "BatchNorm"
  bottom: "conv3_1b"
  top: "conv3_1b"
  param {
    lr_mult: 0
  }
  param {
    lr_mult: 0
  }
  param {
    lr_mult: 0
  }
}
layer {
  name: "scale_conv3_1b"
  type: "Scale"
  bottom: "conv3_1b"
  top: "conv3_1b"
  scale_param {
    bias_term: true
  }
}
layer {
  name: "conv3_1"
  type: "Eltwise"
  bottom: "conv3_1b"
  bottom: "conv2_sub"
  top: "conv3_1"
}
layer {
  name: "conv3_1_relu"
  type: "ReLU"
  bottom: "conv3_1"
  top: "conv3_1"
}
layer {
  name: "conv3_2a"
  type: "Convolution"
  bottom: "conv3_1"
  top: "conv3_2a"
  param {
    lr_mult: 1
  }
  param {
    lr_mult: 2
  }
  convolution_param {
    num_output: 32
    pad: 1
    kernel_size: 3
    stride: 1
    weight_filler {
      type: "msra"
    }
    bias_filler {
      type: "constant"
      value: 0
    }
  }
}
layer {
  name: "bn_conv3_2a"
  type: "BatchNorm"
  bottom: "conv3_2a"
  top: "conv3_2a"
  param {
    lr_mult: 0
  }
  param {
    lr_mult: 0
  }
  param {
    lr_mult: 0
  }
}
layer {
  name: "scale_conv3_2a"
  type: "Scale"
  bottom: "conv3_2a"
  top: "conv3_2a"
  scale_param {
    bias_term: true
  }
}
layer {
  name: "conv3_2a_relu"
  type: "ReLU"
  bottom: "conv3_2a"
  top: "conv3_2a"
}
layer {
  name: "conv3_2b"
  type: "Convolution"
  bottom: "conv3_2a"
  top: "conv3_2b"
  param {
    lr_mult: 1
  }
  param {
    lr_mult: 2
  }
  convolution_param {
    num_output: 32
    pad: 1
    kernel_size: 3
    stride: 1
    weight_filler {
      type: "msra"
    }
    bias_filler {
      type: "constant"
      value: 0
    }
  }
}
layer {
  name: "bn_conv3_2b"
  type: "BatchNorm"
  bottom: "conv3_2b"
  top: "conv3_2b"
  param {
    lr_mult: 0
  }
  param {
    lr_mult: 0
  }
  param {
    lr_mult: 0
  }
}
layer {
  name: "scale_conv3_2b"
  type: "Scale"
  bottom: "conv3_2b"
  top: "conv3_2b"
  scale_param {
    bias_term: true
  }
}
layer {
  name: "conv3_2"
  type: "Eltwise"
  bottom: "conv3_2b"
  bottom: "conv3_1"
  top: "conv3_2"
}
layer {
  name: "conv3_2_relu"
  type: "ReLU"
  bottom: "conv3_2"
  top: "conv3_2"
}
layer {
  name: "conv3_3a"
  type: "Convolution"
  bottom: "conv3_2"
  top: "conv3_3a"
  param {
    lr_mult: 1
  }
  param {
    lr_mult: 2
  }
  convolution_param {
    num_output: 32
    pad: 1
    kernel_size: 3
    stride: 1
    weight_filler {
      type: "msra"
    }
    bias_filler {
      type: "constant"
      value: 0
    }
  }
}
layer {
  name: "bn_conv3_3a"
  type: "BatchNorm"
  bottom: "conv3_3a"
  top: "conv3_3a"
  param {
    lr_mult: 0
  }
  param {
    lr_mult: 0
  }
  param {
    lr_mult: 0
  }
}
layer {
  name: "scale_conv3_3a"
  type: "Scale"
  bottom: "conv3_3a"
  top: "conv3_3a"
  scale_param {
    bias_term: true
  }
}
layer {
  name: "conv3_3a_relu"
  type: "ReLU"
  bottom: "conv3_3a"
  top: "conv3_3a"
}
layer {
  name: "conv3_3b"
  type: "Convolution"
  bottom: "conv3_3a"
  top: "conv3_3b"
  param {
    lr_mult: 1
  }
  param {
    lr_mult: 2
  }
  convolution_param {
    num_output: 32
    pad: 1
    kernel_size: 3
    stride: 1
    weight_filler {
      type: "msra"
    }
    bias_filler {
      type: "constant"
      value: 0
    }
  }
}
layer {
  name: "bn_conv3_3b"
  type: "BatchNorm"
  bottom: "conv3_3b"
  top: "conv3_3b"
  param {
    lr_mult: 0
  }
  param {
    lr_mult: 0
  }
  param {
    lr_mult: 0
  }
}
layer {
  name: "scale_conv3_3b"
  type: "Scale"
  bottom: "conv3_3b"
  top: "conv3_3b"
  scale_param {
    bias_term: true
  }
}
layer {
  name: "conv3_3"
  type: "Eltwise"
  bottom: "conv3_3b"
  bottom: "conv3_2"
  top: "conv3_3"
}
layer {
  name: "conv3_3_relu"
  type: "ReLU"
  bottom: "conv3_3"
  top: "conv3_3"
}
layer {
  name: "global_pool"
  type: "Pooling"
  bottom: "conv3_3"
  top: "global_pool"
  pooling_param {
    pool: AVE
    kernel_size: 8
    stride: 8
  }
}
layer {
  name: "ip"
  type: "InnerProduct"
  bottom: "global_pool"
  top: "ip"
  inner_product_param {
    num_output: 10
  }
}
layer {
  name: "accuracy"
  type: "Accuracy"
  bottom: "ip"
  bottom: "label"
  top: "accuracy"
}
layer {
  name: "loss"
  type: "SoftmaxWithLoss"
  bottom: "ip"
  bottom: "label"
  top: "loss"
}
I0421 14:00:40.363412  8582 layer_factory.hpp:77] Creating layer cifar
I0421 14:00:40.363569  8582 net.cpp:91] Creating Layer cifar
I0421 14:00:40.363580  8582 net.cpp:399] cifar -> data
I0421 14:00:40.363591  8582 net.cpp:399] cifar -> label
I0421 14:00:40.363601  8582 data_transformer.cpp:25] Loading mean file from: data/cifar10/mean.binaryproto
I0421 14:00:40.364686  8637 db_lmdb.cpp:38] Opened lmdb data/cifar10/cifar10_test_lmdb
I0421 14:00:40.364810  8582 data_layer.cpp:41] output data size: 100,3,32,32
I0421 14:00:40.367696  8582 net.cpp:141] Setting up cifar
I0421 14:00:40.367729  8582 net.cpp:148] Top shape: 100 3 32 32 (307200)
I0421 14:00:40.367735  8582 net.cpp:148] Top shape: 100 (100)
I0421 14:00:40.367739  8582 net.cpp:156] Memory required for data: 1229200
I0421 14:00:40.367748  8582 layer_factory.hpp:77] Creating layer label_cifar_1_split
I0421 14:00:40.367764  8582 net.cpp:91] Creating Layer label_cifar_1_split
I0421 14:00:40.367769  8582 net.cpp:425] label_cifar_1_split <- label
I0421 14:00:40.367779  8582 net.cpp:399] label_cifar_1_split -> label_cifar_1_split_0
I0421 14:00:40.367792  8582 net.cpp:399] label_cifar_1_split -> label_cifar_1_split_1
I0421 14:00:40.367872  8582 net.cpp:141] Setting up label_cifar_1_split
I0421 14:00:40.367882  8582 net.cpp:148] Top shape: 100 (100)
I0421 14:00:40.367887  8582 net.cpp:148] Top shape: 100 (100)
I0421 14:00:40.367890  8582 net.cpp:156] Memory required for data: 1230000
I0421 14:00:40.367894  8582 layer_factory.hpp:77] Creating layer conv1
I0421 14:00:40.367919  8582 net.cpp:91] Creating Layer conv1
I0421 14:00:40.367924  8582 net.cpp:425] conv1 <- data
I0421 14:00:40.367933  8582 net.cpp:399] conv1 -> conv1
I0421 14:00:40.369086  8582 net.cpp:141] Setting up conv1
I0421 14:00:40.369102  8582 net.cpp:148] Top shape: 100 16 32 32 (1638400)
I0421 14:00:40.369107  8582 net.cpp:156] Memory required for data: 7783600
I0421 14:00:40.369148  8582 layer_factory.hpp:77] Creating layer bn_conv1
I0421 14:00:40.369160  8582 net.cpp:91] Creating Layer bn_conv1
I0421 14:00:40.369166  8582 net.cpp:425] bn_conv1 <- conv1
I0421 14:00:40.369174  8582 net.cpp:386] bn_conv1 -> conv1 (in-place)
I0421 14:00:40.369412  8582 net.cpp:141] Setting up bn_conv1
I0421 14:00:40.369421  8582 net.cpp:148] Top shape: 100 16 32 32 (1638400)
I0421 14:00:40.369426  8582 net.cpp:156] Memory required for data: 14337200
I0421 14:00:40.369439  8582 layer_factory.hpp:77] Creating layer scale_conv1
I0421 14:00:40.369451  8582 net.cpp:91] Creating Layer scale_conv1
I0421 14:00:40.369467  8582 net.cpp:425] scale_conv1 <- conv1
I0421 14:00:40.369488  8582 net.cpp:386] scale_conv1 -> conv1 (in-place)
I0421 14:00:40.369565  8582 layer_factory.hpp:77] Creating layer scale_conv1
I0421 14:00:40.369678  8582 net.cpp:141] Setting up scale_conv1
I0421 14:00:40.369685  8582 net.cpp:148] Top shape: 100 16 32 32 (1638400)
I0421 14:00:40.369689  8582 net.cpp:156] Memory required for data: 20890800
I0421 14:00:40.369696  8582 layer_factory.hpp:77] Creating layer conv1_relu
I0421 14:00:40.369704  8582 net.cpp:91] Creating Layer conv1_relu
I0421 14:00:40.369709  8582 net.cpp:425] conv1_relu <- conv1
I0421 14:00:40.369714  8582 net.cpp:386] conv1_relu -> conv1 (in-place)
I0421 14:00:40.369976  8582 net.cpp:141] Setting up conv1_relu
I0421 14:00:40.369989  8582 net.cpp:148] Top shape: 100 16 32 32 (1638400)
I0421 14:00:40.369993  8582 net.cpp:156] Memory required for data: 27444400
I0421 14:00:40.369997  8582 layer_factory.hpp:77] Creating layer conv1_conv1_relu_0_split
I0421 14:00:40.370012  8582 net.cpp:91] Creating Layer conv1_conv1_relu_0_split
I0421 14:00:40.370015  8582 net.cpp:425] conv1_conv1_relu_0_split <- conv1
I0421 14:00:40.370021  8582 net.cpp:399] conv1_conv1_relu_0_split -> conv1_conv1_relu_0_split_0
I0421 14:00:40.370029  8582 net.cpp:399] conv1_conv1_relu_0_split -> conv1_conv1_relu_0_split_1
I0421 14:00:40.370070  8582 net.cpp:141] Setting up conv1_conv1_relu_0_split
I0421 14:00:40.370077  8582 net.cpp:148] Top shape: 100 16 32 32 (1638400)
I0421 14:00:40.370082  8582 net.cpp:148] Top shape: 100 16 32 32 (1638400)
I0421 14:00:40.370085  8582 net.cpp:156] Memory required for data: 40551600
I0421 14:00:40.370090  8582 layer_factory.hpp:77] Creating layer conv2_1a
I0421 14:00:40.370100  8582 net.cpp:91] Creating Layer conv2_1a
I0421 14:00:40.370105  8582 net.cpp:425] conv2_1a <- conv1_conv1_relu_0_split_0
I0421 14:00:40.370112  8582 net.cpp:399] conv2_1a -> conv2_1a
I0421 14:00:40.371047  8582 net.cpp:141] Setting up conv2_1a
I0421 14:00:40.371060  8582 net.cpp:148] Top shape: 100 16 32 32 (1638400)
I0421 14:00:40.371065  8582 net.cpp:156] Memory required for data: 47105200
I0421 14:00:40.371076  8582 layer_factory.hpp:77] Creating layer bn_conv2_1a
I0421 14:00:40.371084  8582 net.cpp:91] Creating Layer bn_conv2_1a
I0421 14:00:40.371089  8582 net.cpp:425] bn_conv2_1a <- conv2_1a
I0421 14:00:40.371105  8582 net.cpp:386] bn_conv2_1a -> conv2_1a (in-place)
I0421 14:00:40.371290  8582 net.cpp:141] Setting up bn_conv2_1a
I0421 14:00:40.371299  8582 net.cpp:148] Top shape: 100 16 32 32 (1638400)
I0421 14:00:40.371302  8582 net.cpp:156] Memory required for data: 53658800
I0421 14:00:40.371315  8582 layer_factory.hpp:77] Creating layer scale_conv2_1a
I0421 14:00:40.371322  8582 net.cpp:91] Creating Layer scale_conv2_1a
I0421 14:00:40.371326  8582 net.cpp:425] scale_conv2_1a <- conv2_1a
I0421 14:00:40.371331  8582 net.cpp:386] scale_conv2_1a -> conv2_1a (in-place)
I0421 14:00:40.371371  8582 layer_factory.hpp:77] Creating layer scale_conv2_1a
I0421 14:00:40.371471  8582 net.cpp:141] Setting up scale_conv2_1a
I0421 14:00:40.371484  8582 net.cpp:148] Top shape: 100 16 32 32 (1638400)
I0421 14:00:40.371487  8582 net.cpp:156] Memory required for data: 60212400
I0421 14:00:40.371495  8582 layer_factory.hpp:77] Creating layer conv2_1a_relu
I0421 14:00:40.371501  8582 net.cpp:91] Creating Layer conv2_1a_relu
I0421 14:00:40.371505  8582 net.cpp:425] conv2_1a_relu <- conv2_1a
I0421 14:00:40.371510  8582 net.cpp:386] conv2_1a_relu -> conv2_1a (in-place)
I0421 14:00:40.371670  8582 net.cpp:141] Setting up conv2_1a_relu
I0421 14:00:40.371680  8582 net.cpp:148] Top shape: 100 16 32 32 (1638400)
I0421 14:00:40.371693  8582 net.cpp:156] Memory required for data: 66766000
I0421 14:00:40.371697  8582 layer_factory.hpp:77] Creating layer conv2_1b
I0421 14:00:40.371708  8582 net.cpp:91] Creating Layer conv2_1b
I0421 14:00:40.371713  8582 net.cpp:425] conv2_1b <- conv2_1a
I0421 14:00:40.371721  8582 net.cpp:399] conv2_1b -> conv2_1b
I0421 14:00:40.372853  8582 net.cpp:141] Setting up conv2_1b
I0421 14:00:40.372870  8582 net.cpp:148] Top shape: 100 16 32 32 (1638400)
I0421 14:00:40.372875  8582 net.cpp:156] Memory required for data: 73319600
I0421 14:00:40.372882  8582 layer_factory.hpp:77] Creating layer bn_conv2_1b
I0421 14:00:40.372890  8582 net.cpp:91] Creating Layer bn_conv2_1b
I0421 14:00:40.372895  8582 net.cpp:425] bn_conv2_1b <- conv2_1b
I0421 14:00:40.372907  8582 net.cpp:386] bn_conv2_1b -> conv2_1b (in-place)
I0421 14:00:40.373087  8582 net.cpp:141] Setting up bn_conv2_1b
I0421 14:00:40.373095  8582 net.cpp:148] Top shape: 100 16 32 32 (1638400)
I0421 14:00:40.373100  8582 net.cpp:156] Memory required for data: 79873200
I0421 14:00:40.373147  8582 layer_factory.hpp:77] Creating layer scale_conv2_1b
I0421 14:00:40.373155  8582 net.cpp:91] Creating Layer scale_conv2_1b
I0421 14:00:40.373169  8582 net.cpp:425] scale_conv2_1b <- conv2_1b
I0421 14:00:40.373175  8582 net.cpp:386] scale_conv2_1b -> conv2_1b (in-place)
I0421 14:00:40.373224  8582 layer_factory.hpp:77] Creating layer scale_conv2_1b
I0421 14:00:40.373337  8582 net.cpp:141] Setting up scale_conv2_1b
I0421 14:00:40.373345  8582 net.cpp:148] Top shape: 100 16 32 32 (1638400)
I0421 14:00:40.373355  8582 net.cpp:156] Memory required for data: 86426800
I0421 14:00:40.373363  8582 layer_factory.hpp:77] Creating layer conv2_1
I0421 14:00:40.373371  8582 net.cpp:91] Creating Layer conv2_1
I0421 14:00:40.373375  8582 net.cpp:425] conv2_1 <- conv2_1b
I0421 14:00:40.373380  8582 net.cpp:425] conv2_1 <- conv1_conv1_relu_0_split_1
I0421 14:00:40.373395  8582 net.cpp:399] conv2_1 -> conv2_1
I0421 14:00:40.373425  8582 net.cpp:141] Setting up conv2_1
I0421 14:00:40.373432  8582 net.cpp:148] Top shape: 100 16 32 32 (1638400)
I0421 14:00:40.373436  8582 net.cpp:156] Memory required for data: 92980400
I0421 14:00:40.373440  8582 layer_factory.hpp:77] Creating layer conv2_1_relu
I0421 14:00:40.373457  8582 net.cpp:91] Creating Layer conv2_1_relu
I0421 14:00:40.373461  8582 net.cpp:425] conv2_1_relu <- conv2_1
I0421 14:00:40.373473  8582 net.cpp:386] conv2_1_relu -> conv2_1 (in-place)
I0421 14:00:40.373754  8582 net.cpp:141] Setting up conv2_1_relu
I0421 14:00:40.373769  8582 net.cpp:148] Top shape: 100 16 32 32 (1638400)
I0421 14:00:40.373774  8582 net.cpp:156] Memory required for data: 99534000
I0421 14:00:40.373777  8582 layer_factory.hpp:77] Creating layer conv2_1_conv2_1_relu_0_split
I0421 14:00:40.373787  8582 net.cpp:91] Creating Layer conv2_1_conv2_1_relu_0_split
I0421 14:00:40.373791  8582 net.cpp:425] conv2_1_conv2_1_relu_0_split <- conv2_1
I0421 14:00:40.373797  8582 net.cpp:399] conv2_1_conv2_1_relu_0_split -> conv2_1_conv2_1_relu_0_split_0
I0421 14:00:40.373805  8582 net.cpp:399] conv2_1_conv2_1_relu_0_split -> conv2_1_conv2_1_relu_0_split_1
I0421 14:00:40.373848  8582 net.cpp:141] Setting up conv2_1_conv2_1_relu_0_split
I0421 14:00:40.373860  8582 net.cpp:148] Top shape: 100 16 32 32 (1638400)
I0421 14:00:40.373865  8582 net.cpp:148] Top shape: 100 16 32 32 (1638400)
I0421 14:00:40.373868  8582 net.cpp:156] Memory required for data: 112641200
I0421 14:00:40.373872  8582 layer_factory.hpp:77] Creating layer conv2_2a
I0421 14:00:40.373888  8582 net.cpp:91] Creating Layer conv2_2a
I0421 14:00:40.373893  8582 net.cpp:425] conv2_2a <- conv2_1_conv2_1_relu_0_split_0
I0421 14:00:40.373905  8582 net.cpp:399] conv2_2a -> conv2_2a
I0421 14:00:40.374779  8582 net.cpp:141] Setting up conv2_2a
I0421 14:00:40.374796  8582 net.cpp:148] Top shape: 100 16 32 32 (1638400)
I0421 14:00:40.374800  8582 net.cpp:156] Memory required for data: 119194800
I0421 14:00:40.374807  8582 layer_factory.hpp:77] Creating layer bn_conv2_2a
I0421 14:00:40.374815  8582 net.cpp:91] Creating Layer bn_conv2_2a
I0421 14:00:40.374819  8582 net.cpp:425] bn_conv2_2a <- conv2_2a
I0421 14:00:40.374835  8582 net.cpp:386] bn_conv2_2a -> conv2_2a (in-place)
I0421 14:00:40.375018  8582 net.cpp:141] Setting up bn_conv2_2a
I0421 14:00:40.375027  8582 net.cpp:148] Top shape: 100 16 32 32 (1638400)
I0421 14:00:40.375030  8582 net.cpp:156] Memory required for data: 125748400
I0421 14:00:40.375037  8582 layer_factory.hpp:77] Creating layer scale_conv2_2a
I0421 14:00:40.375051  8582 net.cpp:91] Creating Layer scale_conv2_2a
I0421 14:00:40.375054  8582 net.cpp:425] scale_conv2_2a <- conv2_2a
I0421 14:00:40.375062  8582 net.cpp:386] scale_conv2_2a -> conv2_2a (in-place)
I0421 14:00:40.375102  8582 layer_factory.hpp:77] Creating layer scale_conv2_2a
I0421 14:00:40.375206  8582 net.cpp:141] Setting up scale_conv2_2a
I0421 14:00:40.375216  8582 net.cpp:148] Top shape: 100 16 32 32 (1638400)
I0421 14:00:40.375219  8582 net.cpp:156] Memory required for data: 132302000
I0421 14:00:40.375226  8582 layer_factory.hpp:77] Creating layer conv2_2a_relu
I0421 14:00:40.375231  8582 net.cpp:91] Creating Layer conv2_2a_relu
I0421 14:00:40.375234  8582 net.cpp:425] conv2_2a_relu <- conv2_2a
I0421 14:00:40.375239  8582 net.cpp:386] conv2_2a_relu -> conv2_2a (in-place)
I0421 14:00:40.375504  8582 net.cpp:141] Setting up conv2_2a_relu
I0421 14:00:40.375516  8582 net.cpp:148] Top shape: 100 16 32 32 (1638400)
I0421 14:00:40.375520  8582 net.cpp:156] Memory required for data: 138855600
I0421 14:00:40.375524  8582 layer_factory.hpp:77] Creating layer conv2_2b
I0421 14:00:40.375545  8582 net.cpp:91] Creating Layer conv2_2b
I0421 14:00:40.375550  8582 net.cpp:425] conv2_2b <- conv2_2a
I0421 14:00:40.375557  8582 net.cpp:399] conv2_2b -> conv2_2b
I0421 14:00:40.376736  8582 net.cpp:141] Setting up conv2_2b
I0421 14:00:40.376750  8582 net.cpp:148] Top shape: 100 16 32 32 (1638400)
I0421 14:00:40.376754  8582 net.cpp:156] Memory required for data: 145409200
I0421 14:00:40.376761  8582 layer_factory.hpp:77] Creating layer bn_conv2_2b
I0421 14:00:40.376772  8582 net.cpp:91] Creating Layer bn_conv2_2b
I0421 14:00:40.376777  8582 net.cpp:425] bn_conv2_2b <- conv2_2b
I0421 14:00:40.376782  8582 net.cpp:386] bn_conv2_2b -> conv2_2b (in-place)
I0421 14:00:40.376968  8582 net.cpp:141] Setting up bn_conv2_2b
I0421 14:00:40.376978  8582 net.cpp:148] Top shape: 100 16 32 32 (1638400)
I0421 14:00:40.376982  8582 net.cpp:156] Memory required for data: 151962800
I0421 14:00:40.376994  8582 layer_factory.hpp:77] Creating layer scale_conv2_2b
I0421 14:00:40.377002  8582 net.cpp:91] Creating Layer scale_conv2_2b
I0421 14:00:40.377007  8582 net.cpp:425] scale_conv2_2b <- conv2_2b
I0421 14:00:40.377012  8582 net.cpp:386] scale_conv2_2b -> conv2_2b (in-place)
I0421 14:00:40.377051  8582 layer_factory.hpp:77] Creating layer scale_conv2_2b
I0421 14:00:40.377192  8582 net.cpp:141] Setting up scale_conv2_2b
I0421 14:00:40.377202  8582 net.cpp:148] Top shape: 100 16 32 32 (1638400)
I0421 14:00:40.377213  8582 net.cpp:156] Memory required for data: 158516400
I0421 14:00:40.377219  8582 layer_factory.hpp:77] Creating layer conv2_2
I0421 14:00:40.377228  8582 net.cpp:91] Creating Layer conv2_2
I0421 14:00:40.377233  8582 net.cpp:425] conv2_2 <- conv2_2b
I0421 14:00:40.377238  8582 net.cpp:425] conv2_2 <- conv2_1_conv2_1_relu_0_split_1
I0421 14:00:40.377244  8582 net.cpp:399] conv2_2 -> conv2_2
I0421 14:00:40.377272  8582 net.cpp:141] Setting up conv2_2
I0421 14:00:40.377282  8582 net.cpp:148] Top shape: 100 16 32 32 (1638400)
I0421 14:00:40.377291  8582 net.cpp:156] Memory required for data: 165070000
I0421 14:00:40.377295  8582 layer_factory.hpp:77] Creating layer conv2_2_relu
I0421 14:00:40.377301  8582 net.cpp:91] Creating Layer conv2_2_relu
I0421 14:00:40.377305  8582 net.cpp:425] conv2_2_relu <- conv2_2
I0421 14:00:40.377312  8582 net.cpp:386] conv2_2_relu -> conv2_2 (in-place)
I0421 14:00:40.377516  8582 net.cpp:141] Setting up conv2_2_relu
I0421 14:00:40.377526  8582 net.cpp:148] Top shape: 100 16 32 32 (1638400)
I0421 14:00:40.377529  8582 net.cpp:156] Memory required for data: 171623600
I0421 14:00:40.377537  8582 layer_factory.hpp:77] Creating layer conv2_2_conv2_2_relu_0_split
I0421 14:00:40.377548  8582 net.cpp:91] Creating Layer conv2_2_conv2_2_relu_0_split
I0421 14:00:40.377552  8582 net.cpp:425] conv2_2_conv2_2_relu_0_split <- conv2_2
I0421 14:00:40.377559  8582 net.cpp:399] conv2_2_conv2_2_relu_0_split -> conv2_2_conv2_2_relu_0_split_0
I0421 14:00:40.377567  8582 net.cpp:399] conv2_2_conv2_2_relu_0_split -> conv2_2_conv2_2_relu_0_split_1
I0421 14:00:40.377607  8582 net.cpp:141] Setting up conv2_2_conv2_2_relu_0_split
I0421 14:00:40.377615  8582 net.cpp:148] Top shape: 100 16 32 32 (1638400)
I0421 14:00:40.377622  8582 net.cpp:148] Top shape: 100 16 32 32 (1638400)
I0421 14:00:40.377625  8582 net.cpp:156] Memory required for data: 184730800
I0421 14:00:40.377629  8582 layer_factory.hpp:77] Creating layer conv2_3a
I0421 14:00:40.377640  8582 net.cpp:91] Creating Layer conv2_3a
I0421 14:00:40.377650  8582 net.cpp:425] conv2_3a <- conv2_2_conv2_2_relu_0_split_0
I0421 14:00:40.377656  8582 net.cpp:399] conv2_3a -> conv2_3a
I0421 14:00:40.378603  8582 net.cpp:141] Setting up conv2_3a
I0421 14:00:40.378618  8582 net.cpp:148] Top shape: 100 16 32 32 (1638400)
I0421 14:00:40.378621  8582 net.cpp:156] Memory required for data: 191284400
I0421 14:00:40.378635  8582 layer_factory.hpp:77] Creating layer bn_conv2_3a
I0421 14:00:40.378644  8582 net.cpp:91] Creating Layer bn_conv2_3a
I0421 14:00:40.378648  8582 net.cpp:425] bn_conv2_3a <- conv2_3a
I0421 14:00:40.378654  8582 net.cpp:386] bn_conv2_3a -> conv2_3a (in-place)
I0421 14:00:40.378839  8582 net.cpp:141] Setting up bn_conv2_3a
I0421 14:00:40.378846  8582 net.cpp:148] Top shape: 100 16 32 32 (1638400)
I0421 14:00:40.378850  8582 net.cpp:156] Memory required for data: 197838000
I0421 14:00:40.378857  8582 layer_factory.hpp:77] Creating layer scale_conv2_3a
I0421 14:00:40.378864  8582 net.cpp:91] Creating Layer scale_conv2_3a
I0421 14:00:40.378868  8582 net.cpp:425] scale_conv2_3a <- conv2_3a
I0421 14:00:40.378880  8582 net.cpp:386] scale_conv2_3a -> conv2_3a (in-place)
I0421 14:00:40.378921  8582 layer_factory.hpp:77] Creating layer scale_conv2_3a
I0421 14:00:40.379027  8582 net.cpp:141] Setting up scale_conv2_3a
I0421 14:00:40.379034  8582 net.cpp:148] Top shape: 100 16 32 32 (1638400)
I0421 14:00:40.379039  8582 net.cpp:156] Memory required for data: 204391600
I0421 14:00:40.379045  8582 layer_factory.hpp:77] Creating layer conv2_3a_relu
I0421 14:00:40.379050  8582 net.cpp:91] Creating Layer conv2_3a_relu
I0421 14:00:40.379055  8582 net.cpp:425] conv2_3a_relu <- conv2_3a
I0421 14:00:40.379061  8582 net.cpp:386] conv2_3a_relu -> conv2_3a (in-place)
I0421 14:00:40.379405  8582 net.cpp:141] Setting up conv2_3a_relu
I0421 14:00:40.379417  8582 net.cpp:148] Top shape: 100 16 32 32 (1638400)
I0421 14:00:40.379426  8582 net.cpp:156] Memory required for data: 210945200
I0421 14:00:40.379431  8582 layer_factory.hpp:77] Creating layer conv2_3b
I0421 14:00:40.379442  8582 net.cpp:91] Creating Layer conv2_3b
I0421 14:00:40.379446  8582 net.cpp:425] conv2_3b <- conv2_3a
I0421 14:00:40.379456  8582 net.cpp:399] conv2_3b -> conv2_3b
I0421 14:00:40.380359  8582 net.cpp:141] Setting up conv2_3b
I0421 14:00:40.380373  8582 net.cpp:148] Top shape: 100 16 32 32 (1638400)
I0421 14:00:40.380376  8582 net.cpp:156] Memory required for data: 217498800
I0421 14:00:40.380384  8582 layer_factory.hpp:77] Creating layer bn_conv2_3b
I0421 14:00:40.380394  8582 net.cpp:91] Creating Layer bn_conv2_3b
I0421 14:00:40.380404  8582 net.cpp:425] bn_conv2_3b <- conv2_3b
I0421 14:00:40.380410  8582 net.cpp:386] bn_conv2_3b -> conv2_3b (in-place)
I0421 14:00:40.380596  8582 net.cpp:141] Setting up bn_conv2_3b
I0421 14:00:40.380604  8582 net.cpp:148] Top shape: 100 16 32 32 (1638400)
I0421 14:00:40.380609  8582 net.cpp:156] Memory required for data: 224052400
I0421 14:00:40.380615  8582 layer_factory.hpp:77] Creating layer scale_conv2_3b
I0421 14:00:40.380621  8582 net.cpp:91] Creating Layer scale_conv2_3b
I0421 14:00:40.380625  8582 net.cpp:425] scale_conv2_3b <- conv2_3b
I0421 14:00:40.380632  8582 net.cpp:386] scale_conv2_3b -> conv2_3b (in-place)
I0421 14:00:40.380671  8582 layer_factory.hpp:77] Creating layer scale_conv2_3b
I0421 14:00:40.380775  8582 net.cpp:141] Setting up scale_conv2_3b
I0421 14:00:40.380784  8582 net.cpp:148] Top shape: 100 16 32 32 (1638400)
I0421 14:00:40.380786  8582 net.cpp:156] Memory required for data: 230606000
I0421 14:00:40.380792  8582 layer_factory.hpp:77] Creating layer conv2_3
I0421 14:00:40.380798  8582 net.cpp:91] Creating Layer conv2_3
I0421 14:00:40.380801  8582 net.cpp:425] conv2_3 <- conv2_3b
I0421 14:00:40.380806  8582 net.cpp:425] conv2_3 <- conv2_2_conv2_2_relu_0_split_1
I0421 14:00:40.380811  8582 net.cpp:399] conv2_3 -> conv2_3
I0421 14:00:40.380836  8582 net.cpp:141] Setting up conv2_3
I0421 14:00:40.380842  8582 net.cpp:148] Top shape: 100 16 32 32 (1638400)
I0421 14:00:40.380847  8582 net.cpp:156] Memory required for data: 237159600
I0421 14:00:40.380851  8582 layer_factory.hpp:77] Creating layer conv2_3_relu
I0421 14:00:40.380856  8582 net.cpp:91] Creating Layer conv2_3_relu
I0421 14:00:40.380861  8582 net.cpp:425] conv2_3_relu <- conv2_3
I0421 14:00:40.380866  8582 net.cpp:386] conv2_3_relu -> conv2_3 (in-place)
I0421 14:00:40.381139  8582 net.cpp:141] Setting up conv2_3_relu
I0421 14:00:40.381153  8582 net.cpp:148] Top shape: 100 16 32 32 (1638400)
I0421 14:00:40.381157  8582 net.cpp:156] Memory required for data: 243713200
I0421 14:00:40.381162  8582 layer_factory.hpp:77] Creating layer conv2_3_conv2_3_relu_0_split
I0421 14:00:40.381168  8582 net.cpp:91] Creating Layer conv2_3_conv2_3_relu_0_split
I0421 14:00:40.381172  8582 net.cpp:425] conv2_3_conv2_3_relu_0_split <- conv2_3
I0421 14:00:40.381178  8582 net.cpp:399] conv2_3_conv2_3_relu_0_split -> conv2_3_conv2_3_relu_0_split_0
I0421 14:00:40.381188  8582 net.cpp:399] conv2_3_conv2_3_relu_0_split -> conv2_3_conv2_3_relu_0_split_1
I0421 14:00:40.381232  8582 net.cpp:141] Setting up conv2_3_conv2_3_relu_0_split
I0421 14:00:40.381238  8582 net.cpp:148] Top shape: 100 16 32 32 (1638400)
I0421 14:00:40.381243  8582 net.cpp:148] Top shape: 100 16 32 32 (1638400)
I0421 14:00:40.381247  8582 net.cpp:156] Memory required for data: 256820400
I0421 14:00:40.381250  8582 layer_factory.hpp:77] Creating layer conv2_sub
I0421 14:00:40.381263  8582 net.cpp:91] Creating Layer conv2_sub
I0421 14:00:40.381268  8582 net.cpp:425] conv2_sub <- conv2_3_conv2_3_relu_0_split_0
I0421 14:00:40.381274  8582 net.cpp:399] conv2_sub -> conv2_sub
I0421 14:00:40.382200  8582 net.cpp:141] Setting up conv2_sub
I0421 14:00:40.382215  8582 net.cpp:148] Top shape: 100 32 16 16 (819200)
I0421 14:00:40.382218  8582 net.cpp:156] Memory required for data: 260097200
I0421 14:00:40.382225  8582 layer_factory.hpp:77] Creating layer bn_conv2_sub
I0421 14:00:40.382233  8582 net.cpp:91] Creating Layer bn_conv2_sub
I0421 14:00:40.382237  8582 net.cpp:425] bn_conv2_sub <- conv2_sub
I0421 14:00:40.382243  8582 net.cpp:386] bn_conv2_sub -> conv2_sub (in-place)
I0421 14:00:40.382422  8582 net.cpp:141] Setting up bn_conv2_sub
I0421 14:00:40.382431  8582 net.cpp:148] Top shape: 100 32 16 16 (819200)
I0421 14:00:40.382434  8582 net.cpp:156] Memory required for data: 263374000
I0421 14:00:40.382441  8582 layer_factory.hpp:77] Creating layer scale_conv2_sub
I0421 14:00:40.382449  8582 net.cpp:91] Creating Layer scale_conv2_sub
I0421 14:00:40.382453  8582 net.cpp:425] scale_conv2_sub <- conv2_sub
I0421 14:00:40.382459  8582 net.cpp:386] scale_conv2_sub -> conv2_sub (in-place)
I0421 14:00:40.382503  8582 layer_factory.hpp:77] Creating layer scale_conv2_sub
I0421 14:00:40.382607  8582 net.cpp:141] Setting up scale_conv2_sub
I0421 14:00:40.382614  8582 net.cpp:148] Top shape: 100 32 16 16 (819200)
I0421 14:00:40.382617  8582 net.cpp:156] Memory required for data: 266650800
I0421 14:00:40.382623  8582 layer_factory.hpp:77] Creating layer conv3_1a
I0421 14:00:40.382635  8582 net.cpp:91] Creating Layer conv3_1a
I0421 14:00:40.382639  8582 net.cpp:425] conv3_1a <- conv2_3_conv2_3_relu_0_split_1
I0421 14:00:40.382645  8582 net.cpp:399] conv3_1a -> conv3_1a
I0421 14:00:40.383594  8582 net.cpp:141] Setting up conv3_1a
I0421 14:00:40.383607  8582 net.cpp:148] Top shape: 100 32 16 16 (819200)
I0421 14:00:40.383611  8582 net.cpp:156] Memory required for data: 269927600
I0421 14:00:40.383618  8582 layer_factory.hpp:77] Creating layer bn_conv3_1a
I0421 14:00:40.383626  8582 net.cpp:91] Creating Layer bn_conv3_1a
I0421 14:00:40.383631  8582 net.cpp:425] bn_conv3_1a <- conv3_1a
I0421 14:00:40.383636  8582 net.cpp:386] bn_conv3_1a -> conv3_1a (in-place)
I0421 14:00:40.383816  8582 net.cpp:141] Setting up bn_conv3_1a
I0421 14:00:40.383823  8582 net.cpp:148] Top shape: 100 32 16 16 (819200)
I0421 14:00:40.383827  8582 net.cpp:156] Memory required for data: 273204400
I0421 14:00:40.383834  8582 layer_factory.hpp:77] Creating layer scale_conv3_1a
I0421 14:00:40.383841  8582 net.cpp:91] Creating Layer scale_conv3_1a
I0421 14:00:40.383844  8582 net.cpp:425] scale_conv3_1a <- conv3_1a
I0421 14:00:40.383849  8582 net.cpp:386] scale_conv3_1a -> conv3_1a (in-place)
I0421 14:00:40.383889  8582 layer_factory.hpp:77] Creating layer scale_conv3_1a
I0421 14:00:40.383994  8582 net.cpp:141] Setting up scale_conv3_1a
I0421 14:00:40.384001  8582 net.cpp:148] Top shape: 100 32 16 16 (819200)
I0421 14:00:40.384006  8582 net.cpp:156] Memory required for data: 276481200
I0421 14:00:40.384011  8582 layer_factory.hpp:77] Creating layer conv3_1a_relu
I0421 14:00:40.384016  8582 net.cpp:91] Creating Layer conv3_1a_relu
I0421 14:00:40.384021  8582 net.cpp:425] conv3_1a_relu <- conv3_1a
I0421 14:00:40.384027  8582 net.cpp:386] conv3_1a_relu -> conv3_1a (in-place)
I0421 14:00:40.384179  8582 net.cpp:141] Setting up conv3_1a_relu
I0421 14:00:40.384189  8582 net.cpp:148] Top shape: 100 32 16 16 (819200)
I0421 14:00:40.384193  8582 net.cpp:156] Memory required for data: 279758000
I0421 14:00:40.384196  8582 layer_factory.hpp:77] Creating layer conv3_1b
I0421 14:00:40.384209  8582 net.cpp:91] Creating Layer conv3_1b
I0421 14:00:40.384213  8582 net.cpp:425] conv3_1b <- conv3_1a
I0421 14:00:40.384219  8582 net.cpp:399] conv3_1b -> conv3_1b
I0421 14:00:40.385401  8582 net.cpp:141] Setting up conv3_1b
I0421 14:00:40.385416  8582 net.cpp:148] Top shape: 100 32 16 16 (819200)
I0421 14:00:40.385421  8582 net.cpp:156] Memory required for data: 283034800
I0421 14:00:40.385447  8582 layer_factory.hpp:77] Creating layer bn_conv3_1b
I0421 14:00:40.385457  8582 net.cpp:91] Creating Layer bn_conv3_1b
I0421 14:00:40.385460  8582 net.cpp:425] bn_conv3_1b <- conv3_1b
I0421 14:00:40.385467  8582 net.cpp:386] bn_conv3_1b -> conv3_1b (in-place)
I0421 14:00:40.385658  8582 net.cpp:141] Setting up bn_conv3_1b
I0421 14:00:40.385665  8582 net.cpp:148] Top shape: 100 32 16 16 (819200)
I0421 14:00:40.385669  8582 net.cpp:156] Memory required for data: 286311600
I0421 14:00:40.385678  8582 layer_factory.hpp:77] Creating layer scale_conv3_1b
I0421 14:00:40.385685  8582 net.cpp:91] Creating Layer scale_conv3_1b
I0421 14:00:40.385689  8582 net.cpp:425] scale_conv3_1b <- conv3_1b
I0421 14:00:40.385695  8582 net.cpp:386] scale_conv3_1b -> conv3_1b (in-place)
I0421 14:00:40.385736  8582 layer_factory.hpp:77] Creating layer scale_conv3_1b
I0421 14:00:40.385864  8582 net.cpp:141] Setting up scale_conv3_1b
I0421 14:00:40.385871  8582 net.cpp:148] Top shape: 100 32 16 16 (819200)
I0421 14:00:40.385874  8582 net.cpp:156] Memory required for data: 289588400
I0421 14:00:40.385881  8582 layer_factory.hpp:77] Creating layer conv3_1
I0421 14:00:40.385890  8582 net.cpp:91] Creating Layer conv3_1
I0421 14:00:40.385897  8582 net.cpp:425] conv3_1 <- conv3_1b
I0421 14:00:40.385903  8582 net.cpp:425] conv3_1 <- conv2_sub
I0421 14:00:40.385908  8582 net.cpp:399] conv3_1 -> conv3_1
I0421 14:00:40.385932  8582 net.cpp:141] Setting up conv3_1
I0421 14:00:40.385939  8582 net.cpp:148] Top shape: 100 32 16 16 (819200)
I0421 14:00:40.385943  8582 net.cpp:156] Memory required for data: 292865200
I0421 14:00:40.385947  8582 layer_factory.hpp:77] Creating layer conv3_1_relu
I0421 14:00:40.385953  8582 net.cpp:91] Creating Layer conv3_1_relu
I0421 14:00:40.385957  8582 net.cpp:425] conv3_1_relu <- conv3_1
I0421 14:00:40.385964  8582 net.cpp:386] conv3_1_relu -> conv3_1 (in-place)
I0421 14:00:40.386137  8582 net.cpp:141] Setting up conv3_1_relu
I0421 14:00:40.386145  8582 net.cpp:148] Top shape: 100 32 16 16 (819200)
I0421 14:00:40.386152  8582 net.cpp:156] Memory required for data: 296142000
I0421 14:00:40.386157  8582 layer_factory.hpp:77] Creating layer conv3_1_conv3_1_relu_0_split
I0421 14:00:40.386163  8582 net.cpp:91] Creating Layer conv3_1_conv3_1_relu_0_split
I0421 14:00:40.386168  8582 net.cpp:425] conv3_1_conv3_1_relu_0_split <- conv3_1
I0421 14:00:40.386173  8582 net.cpp:399] conv3_1_conv3_1_relu_0_split -> conv3_1_conv3_1_relu_0_split_0
I0421 14:00:40.386180  8582 net.cpp:399] conv3_1_conv3_1_relu_0_split -> conv3_1_conv3_1_relu_0_split_1
I0421 14:00:40.386222  8582 net.cpp:141] Setting up conv3_1_conv3_1_relu_0_split
I0421 14:00:40.386229  8582 net.cpp:148] Top shape: 100 32 16 16 (819200)
I0421 14:00:40.386234  8582 net.cpp:148] Top shape: 100 32 16 16 (819200)
I0421 14:00:40.386237  8582 net.cpp:156] Memory required for data: 302695600
I0421 14:00:40.386241  8582 layer_factory.hpp:77] Creating layer conv3_2a
I0421 14:00:40.386253  8582 net.cpp:91] Creating Layer conv3_2a
I0421 14:00:40.386257  8582 net.cpp:425] conv3_2a <- conv3_1_conv3_1_relu_0_split_0
I0421 14:00:40.386265  8582 net.cpp:399] conv3_2a -> conv3_2a
I0421 14:00:40.387540  8582 net.cpp:141] Setting up conv3_2a
I0421 14:00:40.387555  8582 net.cpp:148] Top shape: 100 32 16 16 (819200)
I0421 14:00:40.387559  8582 net.cpp:156] Memory required for data: 305972400
I0421 14:00:40.387567  8582 layer_factory.hpp:77] Creating layer bn_conv3_2a
I0421 14:00:40.387575  8582 net.cpp:91] Creating Layer bn_conv3_2a
I0421 14:00:40.387580  8582 net.cpp:425] bn_conv3_2a <- conv3_2a
I0421 14:00:40.387588  8582 net.cpp:386] bn_conv3_2a -> conv3_2a (in-place)
I0421 14:00:40.387781  8582 net.cpp:141] Setting up bn_conv3_2a
I0421 14:00:40.387790  8582 net.cpp:148] Top shape: 100 32 16 16 (819200)
I0421 14:00:40.387794  8582 net.cpp:156] Memory required for data: 309249200
I0421 14:00:40.387801  8582 layer_factory.hpp:77] Creating layer scale_conv3_2a
I0421 14:00:40.387809  8582 net.cpp:91] Creating Layer scale_conv3_2a
I0421 14:00:40.387814  8582 net.cpp:425] scale_conv3_2a <- conv3_2a
I0421 14:00:40.387820  8582 net.cpp:386] scale_conv3_2a -> conv3_2a (in-place)
I0421 14:00:40.387863  8582 layer_factory.hpp:77] Creating layer scale_conv3_2a
I0421 14:00:40.387977  8582 net.cpp:141] Setting up scale_conv3_2a
I0421 14:00:40.387985  8582 net.cpp:148] Top shape: 100 32 16 16 (819200)
I0421 14:00:40.387989  8582 net.cpp:156] Memory required for data: 312526000
I0421 14:00:40.387995  8582 layer_factory.hpp:77] Creating layer conv3_2a_relu
I0421 14:00:40.388000  8582 net.cpp:91] Creating Layer conv3_2a_relu
I0421 14:00:40.388005  8582 net.cpp:425] conv3_2a_relu <- conv3_2a
I0421 14:00:40.388011  8582 net.cpp:386] conv3_2a_relu -> conv3_2a (in-place)
I0421 14:00:40.388275  8582 net.cpp:141] Setting up conv3_2a_relu
I0421 14:00:40.388288  8582 net.cpp:148] Top shape: 100 32 16 16 (819200)
I0421 14:00:40.388293  8582 net.cpp:156] Memory required for data: 315802800
I0421 14:00:40.388298  8582 layer_factory.hpp:77] Creating layer conv3_2b
I0421 14:00:40.388312  8582 net.cpp:91] Creating Layer conv3_2b
I0421 14:00:40.388317  8582 net.cpp:425] conv3_2b <- conv3_2a
I0421 14:00:40.388324  8582 net.cpp:399] conv3_2b -> conv3_2b
I0421 14:00:40.389603  8582 net.cpp:141] Setting up conv3_2b
I0421 14:00:40.389622  8582 net.cpp:148] Top shape: 100 32 16 16 (819200)
I0421 14:00:40.389627  8582 net.cpp:156] Memory required for data: 319079600
I0421 14:00:40.389636  8582 layer_factory.hpp:77] Creating layer bn_conv3_2b
I0421 14:00:40.389644  8582 net.cpp:91] Creating Layer bn_conv3_2b
I0421 14:00:40.389648  8582 net.cpp:425] bn_conv3_2b <- conv3_2b
I0421 14:00:40.389655  8582 net.cpp:386] bn_conv3_2b -> conv3_2b (in-place)
I0421 14:00:40.389861  8582 net.cpp:141] Setting up bn_conv3_2b
I0421 14:00:40.389868  8582 net.cpp:148] Top shape: 100 32 16 16 (819200)
I0421 14:00:40.389873  8582 net.cpp:156] Memory required for data: 322356400
I0421 14:00:40.389880  8582 layer_factory.hpp:77] Creating layer scale_conv3_2b
I0421 14:00:40.389889  8582 net.cpp:91] Creating Layer scale_conv3_2b
I0421 14:00:40.389892  8582 net.cpp:425] scale_conv3_2b <- conv3_2b
I0421 14:00:40.389899  8582 net.cpp:386] scale_conv3_2b -> conv3_2b (in-place)
I0421 14:00:40.389940  8582 layer_factory.hpp:77] Creating layer scale_conv3_2b
I0421 14:00:40.390055  8582 net.cpp:141] Setting up scale_conv3_2b
I0421 14:00:40.390064  8582 net.cpp:148] Top shape: 100 32 16 16 (819200)
I0421 14:00:40.390066  8582 net.cpp:156] Memory required for data: 325633200
I0421 14:00:40.390074  8582 layer_factory.hpp:77] Creating layer conv3_2
I0421 14:00:40.390079  8582 net.cpp:91] Creating Layer conv3_2
I0421 14:00:40.390084  8582 net.cpp:425] conv3_2 <- conv3_2b
I0421 14:00:40.390089  8582 net.cpp:425] conv3_2 <- conv3_1_conv3_1_relu_0_split_1
I0421 14:00:40.390095  8582 net.cpp:399] conv3_2 -> conv3_2
I0421 14:00:40.390116  8582 net.cpp:141] Setting up conv3_2
I0421 14:00:40.390122  8582 net.cpp:148] Top shape: 100 32 16 16 (819200)
I0421 14:00:40.390126  8582 net.cpp:156] Memory required for data: 328910000
I0421 14:00:40.390130  8582 layer_factory.hpp:77] Creating layer conv3_2_relu
I0421 14:00:40.390136  8582 net.cpp:91] Creating Layer conv3_2_relu
I0421 14:00:40.390139  8582 net.cpp:425] conv3_2_relu <- conv3_2
I0421 14:00:40.390147  8582 net.cpp:386] conv3_2_relu -> conv3_2 (in-place)
I0421 14:00:40.390307  8582 net.cpp:141] Setting up conv3_2_relu
I0421 14:00:40.390321  8582 net.cpp:148] Top shape: 100 32 16 16 (819200)
I0421 14:00:40.390324  8582 net.cpp:156] Memory required for data: 332186800
I0421 14:00:40.390328  8582 layer_factory.hpp:77] Creating layer conv3_2_conv3_2_relu_0_split
I0421 14:00:40.390334  8582 net.cpp:91] Creating Layer conv3_2_conv3_2_relu_0_split
I0421 14:00:40.390338  8582 net.cpp:425] conv3_2_conv3_2_relu_0_split <- conv3_2
I0421 14:00:40.390344  8582 net.cpp:399] conv3_2_conv3_2_relu_0_split -> conv3_2_conv3_2_relu_0_split_0
I0421 14:00:40.390352  8582 net.cpp:399] conv3_2_conv3_2_relu_0_split -> conv3_2_conv3_2_relu_0_split_1
I0421 14:00:40.390399  8582 net.cpp:141] Setting up conv3_2_conv3_2_relu_0_split
I0421 14:00:40.390406  8582 net.cpp:148] Top shape: 100 32 16 16 (819200)
I0421 14:00:40.390413  8582 net.cpp:148] Top shape: 100 32 16 16 (819200)
I0421 14:00:40.390416  8582 net.cpp:156] Memory required for data: 338740400
I0421 14:00:40.390420  8582 layer_factory.hpp:77] Creating layer conv3_3a
I0421 14:00:40.390431  8582 net.cpp:91] Creating Layer conv3_3a
I0421 14:00:40.390436  8582 net.cpp:425] conv3_3a <- conv3_2_conv3_2_relu_0_split_0
I0421 14:00:40.390442  8582 net.cpp:399] conv3_3a -> conv3_3a
I0421 14:00:40.391664  8582 net.cpp:141] Setting up conv3_3a
I0421 14:00:40.391677  8582 net.cpp:148] Top shape: 100 32 16 16 (819200)
I0421 14:00:40.391681  8582 net.cpp:156] Memory required for data: 342017200
I0421 14:00:40.391688  8582 layer_factory.hpp:77] Creating layer bn_conv3_3a
I0421 14:00:40.391697  8582 net.cpp:91] Creating Layer bn_conv3_3a
I0421 14:00:40.391702  8582 net.cpp:425] bn_conv3_3a <- conv3_3a
I0421 14:00:40.391708  8582 net.cpp:386] bn_conv3_3a -> conv3_3a (in-place)
I0421 14:00:40.391911  8582 net.cpp:141] Setting up bn_conv3_3a
I0421 14:00:40.391921  8582 net.cpp:148] Top shape: 100 32 16 16 (819200)
I0421 14:00:40.391924  8582 net.cpp:156] Memory required for data: 345294000
I0421 14:00:40.391937  8582 layer_factory.hpp:77] Creating layer scale_conv3_3a
I0421 14:00:40.391943  8582 net.cpp:91] Creating Layer scale_conv3_3a
I0421 14:00:40.391947  8582 net.cpp:425] scale_conv3_3a <- conv3_3a
I0421 14:00:40.391953  8582 net.cpp:386] scale_conv3_3a -> conv3_3a (in-place)
I0421 14:00:40.391998  8582 layer_factory.hpp:77] Creating layer scale_conv3_3a
I0421 14:00:40.392113  8582 net.cpp:141] Setting up scale_conv3_3a
I0421 14:00:40.392122  8582 net.cpp:148] Top shape: 100 32 16 16 (819200)
I0421 14:00:40.392125  8582 net.cpp:156] Memory required for data: 348570800
I0421 14:00:40.392132  8582 layer_factory.hpp:77] Creating layer conv3_3a_relu
I0421 14:00:40.392138  8582 net.cpp:91] Creating Layer conv3_3a_relu
I0421 14:00:40.392141  8582 net.cpp:425] conv3_3a_relu <- conv3_3a
I0421 14:00:40.392148  8582 net.cpp:386] conv3_3a_relu -> conv3_3a (in-place)
I0421 14:00:40.392308  8582 net.cpp:141] Setting up conv3_3a_relu
I0421 14:00:40.392318  8582 net.cpp:148] Top shape: 100 32 16 16 (819200)
I0421 14:00:40.392321  8582 net.cpp:156] Memory required for data: 351847600
I0421 14:00:40.392325  8582 layer_factory.hpp:77] Creating layer conv3_3b
I0421 14:00:40.392341  8582 net.cpp:91] Creating Layer conv3_3b
I0421 14:00:40.392346  8582 net.cpp:425] conv3_3b <- conv3_3a
I0421 14:00:40.392355  8582 net.cpp:399] conv3_3b -> conv3_3b
I0421 14:00:40.393615  8582 net.cpp:141] Setting up conv3_3b
I0421 14:00:40.393630  8582 net.cpp:148] Top shape: 100 32 16 16 (819200)
I0421 14:00:40.393635  8582 net.cpp:156] Memory required for data: 355124400
I0421 14:00:40.393642  8582 layer_factory.hpp:77] Creating layer bn_conv3_3b
I0421 14:00:40.393649  8582 net.cpp:91] Creating Layer bn_conv3_3b
I0421 14:00:40.393653  8582 net.cpp:425] bn_conv3_3b <- conv3_3b
I0421 14:00:40.393661  8582 net.cpp:386] bn_conv3_3b -> conv3_3b (in-place)
I0421 14:00:40.393856  8582 net.cpp:141] Setting up bn_conv3_3b
I0421 14:00:40.393863  8582 net.cpp:148] Top shape: 100 32 16 16 (819200)
I0421 14:00:40.393867  8582 net.cpp:156] Memory required for data: 358401200
I0421 14:00:40.393874  8582 layer_factory.hpp:77] Creating layer scale_conv3_3b
I0421 14:00:40.393882  8582 net.cpp:91] Creating Layer scale_conv3_3b
I0421 14:00:40.393885  8582 net.cpp:425] scale_conv3_3b <- conv3_3b
I0421 14:00:40.393890  8582 net.cpp:386] scale_conv3_3b -> conv3_3b (in-place)
I0421 14:00:40.393934  8582 layer_factory.hpp:77] Creating layer scale_conv3_3b
I0421 14:00:40.394050  8582 net.cpp:141] Setting up scale_conv3_3b
I0421 14:00:40.394060  8582 net.cpp:148] Top shape: 100 32 16 16 (819200)
I0421 14:00:40.394063  8582 net.cpp:156] Memory required for data: 361678000
I0421 14:00:40.394070  8582 layer_factory.hpp:77] Creating layer conv3_3
I0421 14:00:40.394076  8582 net.cpp:91] Creating Layer conv3_3
I0421 14:00:40.394080  8582 net.cpp:425] conv3_3 <- conv3_3b
I0421 14:00:40.394085  8582 net.cpp:425] conv3_3 <- conv3_2_conv3_2_relu_0_split_1
I0421 14:00:40.394090  8582 net.cpp:399] conv3_3 -> conv3_3
I0421 14:00:40.394114  8582 net.cpp:141] Setting up conv3_3
I0421 14:00:40.394121  8582 net.cpp:148] Top shape: 100 32 16 16 (819200)
I0421 14:00:40.394125  8582 net.cpp:156] Memory required for data: 364954800
I0421 14:00:40.394129  8582 layer_factory.hpp:77] Creating layer conv3_3_relu
I0421 14:00:40.394134  8582 net.cpp:91] Creating Layer conv3_3_relu
I0421 14:00:40.394139  8582 net.cpp:425] conv3_3_relu <- conv3_3
I0421 14:00:40.394145  8582 net.cpp:386] conv3_3_relu -> conv3_3 (in-place)
I0421 14:00:40.394503  8582 net.cpp:141] Setting up conv3_3_relu
I0421 14:00:40.394516  8582 net.cpp:148] Top shape: 100 32 16 16 (819200)
I0421 14:00:40.394520  8582 net.cpp:156] Memory required for data: 368231600
I0421 14:00:40.394526  8582 layer_factory.hpp:77] Creating layer global_pool
I0421 14:00:40.394532  8582 net.cpp:91] Creating Layer global_pool
I0421 14:00:40.394537  8582 net.cpp:425] global_pool <- conv3_3
I0421 14:00:40.394546  8582 net.cpp:399] global_pool -> global_pool
I0421 14:00:40.394742  8582 net.cpp:141] Setting up global_pool
I0421 14:00:40.394753  8582 net.cpp:148] Top shape: 100 32 2 2 (12800)
I0421 14:00:40.394762  8582 net.cpp:156] Memory required for data: 368282800
I0421 14:00:40.394765  8582 layer_factory.hpp:77] Creating layer ip
I0421 14:00:40.394775  8582 net.cpp:91] Creating Layer ip
I0421 14:00:40.394779  8582 net.cpp:425] ip <- global_pool
I0421 14:00:40.394785  8582 net.cpp:399] ip -> ip
I0421 14:00:40.394903  8582 net.cpp:141] Setting up ip
I0421 14:00:40.394912  8582 net.cpp:148] Top shape: 100 10 (1000)
I0421 14:00:40.394915  8582 net.cpp:156] Memory required for data: 368286800
I0421 14:00:40.394922  8582 layer_factory.hpp:77] Creating layer ip_ip_0_split
I0421 14:00:40.394930  8582 net.cpp:91] Creating Layer ip_ip_0_split
I0421 14:00:40.394934  8582 net.cpp:425] ip_ip_0_split <- ip
I0421 14:00:40.394940  8582 net.cpp:399] ip_ip_0_split -> ip_ip_0_split_0
I0421 14:00:40.394948  8582 net.cpp:399] ip_ip_0_split -> ip_ip_0_split_1
I0421 14:00:40.394987  8582 net.cpp:141] Setting up ip_ip_0_split
I0421 14:00:40.394994  8582 net.cpp:148] Top shape: 100 10 (1000)
I0421 14:00:40.394999  8582 net.cpp:148] Top shape: 100 10 (1000)
I0421 14:00:40.395002  8582 net.cpp:156] Memory required for data: 368294800
I0421 14:00:40.395006  8582 layer_factory.hpp:77] Creating layer accuracy
I0421 14:00:40.395012  8582 net.cpp:91] Creating Layer accuracy
I0421 14:00:40.395016  8582 net.cpp:425] accuracy <- ip_ip_0_split_0
I0421 14:00:40.395021  8582 net.cpp:425] accuracy <- label_cifar_1_split_0
I0421 14:00:40.395026  8582 net.cpp:399] accuracy -> accuracy
…
