…
I0412 22:47:19.290688  7331 solver.cpp:91] Creating training net from net file: prototxt/ResNet-cifar.prototxt
I0412 22:47:19.292511  7331 net.cpp:313] The NetState phase (0) differed from the phase (1) specified by a rule in layer cifar
I0412 22:47:19.292999  7331 net.cpp:49] Initializing net from parameters: 
name: "ResNet-cifar"
state {
  phase: TRAIN
}
layer {
  name: "cifar"
  type: "Data"
  top: "data"
  top: "label"
  include {
    phase: TRAIN
  }
  transform_param {
    mean_file: "data/cifar10/mean.binaryproto"
  }
  data_param {
    source: "data/cifar10/cifar10_train_lmdb"
    batch_size: 256
    backend: LMDB
  }
}
layer {
  name: "conv1"
  type: "Convolution"
  bottom: "data"
  top: "conv1"
  param {
    lr_mult: 1
  }
  param {
    lr_mult: 2
  }
  convolution_param {
    num_output: 16
    pad: 1
    kernel_size: 3
    weight_filler {
      type: "msra"
    }
    bias_filler {
      type: "constant"
    }
  }
}
layer {
  name: "bn_conv1"
  type: "BatchNorm"
  bottom: "conv1"
  top: "conv1"
  param {
    lr_mult: 0
  }
  param {
    lr_mult: 0
  }
  param {
    lr_mult: 0
  }
}
layer {
  name: "scale_conv1"
  type: "Scale"
  bottom: "conv1"
  top: "conv1"
  scale_param {
    bias_term: true
  }
}
layer {
  name: "conv1_relu"
  type: "ReLU"
  bottom: "conv1"
  top: "conv1"
}
layer {
  name: "conv2_1a"
  type: "Convolution"
  bottom: "conv1"
  top: "conv2_1a"
  param {
    lr_mult: 1
  }
  param {
    lr_mult: 2
  }
  convolution_param {
    num_output: 16
    pad: 1
    kernel_size: 3
    stride: 1
    weight_filler {
      type: "msra"
    }
    bias_filler {
      type: "constant"
      value: 0
    }
  }
}
layer {
  name: "bn_conv2_1a"
  type: "BatchNorm"
  bottom: "conv2_1a"
  top: "conv2_1a"
  param {
    lr_mult: 0
  }
  param {
    lr_mult: 0
  }
  param {
    lr_mult: 0
  }
}
layer {
  name: "scale_conv2_1a"
  type: "Scale"
  bottom: "conv2_1a"
  top: "conv2_1a"
  scale_param {
    bias_term: true
  }
}
layer {
  name: "conv2_1a_sum"
  type: "Eltwise"
  bottom: "conv2_1a"
  bottom: "conv1"
  top: "conv2_1a_sum"
}
layer {
  name: "conv2_1a_relu"
  type: "ReLU"
  bottom: "conv2_1a_sum"
  top: "conv2_1a_sum"
}
layer {
  name: "conv2_1b"
  type: "Convolution"
  bottom: "conv2_1a_sum"
  top: "conv2_1b"
  param {
    lr_mult: 1
  }
  param {
    lr_mult: 2
  }
  convolution_param {
    num_output: 16
    pad: 1
    kernel_size: 3
    stride: 1
    weight_filler {
      type: "msra"
    }
    bias_filler {
      type: "constant"
      value: 0
    }
  }
}
layer {
  name: "bn_conv2_1b"
  type: "BatchNorm"
  bottom: "conv2_1b"
  top: "conv2_1b"
  param {
    lr_mult: 0
  }
  param {
    lr_mult: 0
  }
  param {
    lr_mult: 0
  }
}
layer {
  name: "scale_conv2_1b"
  type: "Scale"
  bottom: "conv2_1b"
  top: "conv2_1b"
  scale_param {
    bias_term: true
  }
}
layer {
  name: "conv2_1"
  type: "Eltwise"
  bottom: "conv2_1b"
  bottom: "conv2_1a_sum"
  top: "conv2_1"
}
layer {
  name: "conv2_1_relu"
  type: "ReLU"
  bottom: "conv2_1"
  top: "conv2_1"
}
layer {
  name: "conv2_2a"
  type: "Convolution"
  bottom: "conv2_1"
  top: "conv2_2a"
  param {
    lr_mult: 1
  }
  param {
    lr_mult: 2
  }
  convolution_param {
    num_output: 16
    pad: 1
    kernel_size: 3
    stride: 1
    weight_filler {
      type: "msra"
    }
    bias_filler {
      type: "constant"
      value: 0
    }
  }
}
layer {
  name: "bn_conv2_2a"
  type: "BatchNorm"
  bottom: "conv2_2a"
  top: "conv2_2a"
  param {
    lr_mult: 0
  }
  param {
    lr_mult: 0
  }
  param {
    lr_mult: 0
  }
}
layer {
  name: "scale_conv2_2a"
  type: "Scale"
  bottom: "conv2_2a"
  top: "conv2_2a"
  scale_param {
    bias_term: true
  }
}
layer {
  name: "conv2_2a_sum"
  type: "Eltwise"
  bottom: "conv2_1"
  bottom: "conv2_2a"
  top: "conv2_2a_sum"
}
layer {
  name: "conv2_2a_relu"
  type: "ReLU"
  bottom: "conv2_2a_sum"
  top: "conv2_2a_sum"
}
layer {
  name: "conv2_2b"
  type: "Convolution"
  bottom: "conv2_2a_sum"
  top: "conv2_2b"
  param {
    lr_mult: 1
  }
  param {
    lr_mult: 2
  }
  convolution_param {
    num_output: 16
    pad: 1
    kernel_size: 3
    stride: 1
    weight_filler {
      type: "msra"
    }
    bias_filler {
      type: "constant"
      value: 0
    }
  }
}
layer {
  name: "bn_conv2_2b"
  type: "BatchNorm"
  bottom: "conv2_2b"
  top: "conv2_2b"
  param {
    lr_mult: 0
  }
  param {
    lr_mult: 0
  }
  param {
    lr_mult: 0
  }
}
layer {
  name: "scale_conv2_2b"
  type: "Scale"
  bottom: "conv2_2b"
  top: "conv2_2b"
  scale_param {
    bias_term: true
  }
}
layer {
  name: "conv2_2"
  type: "Eltwise"
  bottom: "conv2_2b"
  bottom: "conv2_2a_sum"
  top: "conv2_2"
}
layer {
  name: "conv2_2_relu"
  type: "ReLU"
  bottom: "conv2_2"
  top: "conv2_2"
}
layer {
  name: "conv2_3a"
  type: "Convolution"
  bottom: "conv2_2"
  top: "conv2_3a"
  param {
    lr_mult: 1
  }
  param {
    lr_mult: 2
  }
  convolution_param {
    num_output: 16
    pad: 1
    kernel_size: 3
    stride: 1
    weight_filler {
      type: "msra"
    }
    bias_filler {
      type: "constant"
      value: 0
    }
  }
}
layer {
  name: "bn_conv2_3a"
  type: "BatchNorm"
  bottom: "conv2_3a"
  top: "conv2_3a"
  param {
    lr_mult: 0
  }
  param {
    lr_mult: 0
  }
  param {
    lr_mult: 0
  }
}
layer {
  name: "scale_conv2_3a"
  type: "Scale"
  bottom: "conv2_3a"
  top: "conv2_3a"
  scale_param {
    bias_term: true
  }
}
layer {
  name: "conv2_3a_sum"
  type: "Eltwise"
  bottom: "conv2_2"
  bottom: "conv2_3a"
  top: "conv2_3a_sum"
}
layer {
  name: "conv2_3a_relu"
  type: "ReLU"
  bottom: "conv2_3a_sum"
  top: "conv2_3a_sum"
}
layer {
  name: "conv2_3b"
  type: "Convolution"
  bottom: "conv2_3a_sum"
  top: "conv2_3b"
  param {
    lr_mult: 1
  }
  param {
    lr_mult: 2
  }
  convolution_param {
    num_output: 16
    pad: 1
    kernel_size: 3
    stride: 1
    weight_filler {
      type: "msra"
    }
    bias_filler {
      type: "constant"
      value: 0
    }
  }
}
layer {
  name: "bn_conv2_3b"
  type: "BatchNorm"
  bottom: "conv2_3b"
  top: "conv2_3b"
  param {
    lr_mult: 0
  }
  param {
    lr_mult: 0
  }
  param {
    lr_mult: 0
  }
}
layer {
  name: "scale_conv2_3b"
  type: "Scale"
  bottom: "conv2_3b"
  top: "conv2_3b"
  scale_param {
    bias_term: true
  }
}
layer {
  name: "conv2_3"
  type: "Eltwise"
  bottom: "conv2_3a_sum"
  bottom: "conv2_3b"
  top: "conv2_3"
}
layer {
  name: "conv2_3_relu"
  type: "ReLU"
  bottom: "conv2_3"
  top: "conv2_3"
}
layer {
  name: "conv2_sub"
  type: "Convolution"
  bottom: "conv2_3"
  top: "conv2_sub"
  param {
    lr_mult: 1
  }
  param {
    lr_mult: 2
  }
  convolution_param {
    num_output: 32
    kernel_size: 1
    stride: 2
    weight_filler {
      type: "msra"
    }
    bias_filler {
      type: "constant"
      value: 0
    }
  }
}
layer {
  name: "bn_conv2_sub"
  type: "BatchNorm"
  bottom: "conv2_sub"
  top: "conv2_sub"
  param {
    lr_mult: 0
  }
  param {
    lr_mult: 0
  }
  param {
    lr_mult: 0
  }
}
layer {
  name: "scale_conv2_sub"
  type: "Scale"
  bottom: "conv2_sub"
  top: "conv2_sub"
  scale_param {
    bias_term: true
  }
}
layer {
  name: "conv3_1a"
  type: "Convolution"
  bottom: "conv2_3"
  top: "conv3_1a"
  param {
    lr_mult: 1
  }
  param {
    lr_mult: 2
  }
  convolution_param {
    num_output: 32
    pad: 0
    kernel_size: 1
    stride: 2
    weight_filler {
      type: "msra"
    }
    bias_filler {
      type: "constant"
      value: 0
    }
  }
}
layer {
  name: "bn_conv3_1a"
  type: "BatchNorm"
  bottom: "conv3_1a"
  top: "conv3_1a"
  param {
    lr_mult: 0
  }
  param {
    lr_mult: 0
  }
  param {
    lr_mult: 0
  }
}
layer {
  name: "scale_conv3_1a"
  type: "Scale"
  bottom: "conv3_1a"
  top: "conv3_1a"
  scale_param {
    bias_term: true
  }
}
layer {
  name: "conv3_1a_sum"
  type: "Eltwise"
  bottom: "conv3_1a"
  bottom: "conv2_sub"
  top: "conv3_1a_sum"
}
layer {
  name: "conv3_1a_relu"
  type: "ReLU"
  bottom: "conv3_1a_sum"
  top: "conv3_1a_sum"
}
layer {
  name: "conv3_1b"
  type: "Convolution"
  bottom: "conv3_1a_sum"
  top: "conv3_1b"
  param {
    lr_mult: 1
  }
  param {
    lr_mult: 2
  }
  convolution_param {
    num_output: 32
    pad: 1
    kernel_size: 3
    stride: 1
    weight_filler {
      type: "msra"
    }
    bias_filler {
      type: "constant"
      value: 0
    }
  }
}
layer {
  name: "bn_conv3_1b"
  type: "BatchNorm"
  bottom: "conv3_1b"
  top: "conv3_1b"
  param {
    lr_mult: 0
  }
  param {
    lr_mult: 0
  }
  param {
    lr_mult: 0
  }
}
layer {
  name: "scale_conv3_1b"
  type: "Scale"
  bottom: "conv3_1b"
  top: "conv3_1b"
  scale_param {
    bias_term: true
  }
}
layer {
  name: "conv3_1"
  type: "Eltwise"
  bottom: "conv3_1a_sum"
  bottom: "conv3_1b"
  top: "conv3_1"
}
layer {
  name: "conv3_1_relu"
  type: "ReLU"
  bottom: "conv3_1"
  top: "conv3_1"
}
layer {
  name: "conv3_2a"
  type: "Convolution"
  bottom: "conv3_1"
  top: "conv3_2a"
  param {
    lr_mult: 1
  }
  param {
    lr_mult: 2
  }
  convolution_param {
    num_output: 32
    pad: 1
    kernel_size: 3
    stride: 1
    weight_filler {
      type: "msra"
    }
    bias_filler {
      type: "constant"
      value: 0
    }
  }
}
layer {
  name: "bn_conv3_2a"
  type: "BatchNorm"
  bottom: "conv3_2a"
  top: "conv3_2a"
  param {
    lr_mult: 0
  }
  param {
    lr_mult: 0
  }
  param {
    lr_mult: 0
  }
}
layer {
  name: "scale_conv3_2a"
  type: "Scale"
  bottom: "conv3_2a"
  top: "conv3_2a"
  scale_param {
    bias_term: true
  }
}
layer {
  name: "conv3_2a_sum"
  type: "Eltwise"
  bottom: "conv3_1"
  bottom: "conv3_2a"
  top: "conv3_2a_sum"
}
layer {
  name: "conv3_2a_relu"
  type: "ReLU"
  bottom: "conv3_2a_sum"
  top: "conv3_2a_sum"
}
layer {
  name: "conv3_2b"
  type: "Convolution"
  bottom: "conv3_2a_sum"
  top: "conv3_2b"
  param {
    lr_mult: 1
  }
  param {
    lr_mult: 2
  }
  convolution_param {
    num_output: 32
    pad: 1
    kernel_size: 3
    stride: 1
    weight_filler {
      type: "msra"
    }
    bias_filler {
      type: "constant"
      value: 0
    }
  }
}
layer {
  name: "bn_conv3_2b"
  type: "BatchNorm"
  bottom: "conv3_2b"
  top: "conv3_2b"
  param {
    lr_mult: 0
  }
  param {
    lr_mult: 0
  }
  param {
    lr_mult: 0
  }
}
layer {
  name: "scale_conv3_2b"
  type: "Scale"
  bottom: "conv3_2b"
  top: "conv3_2b"
  scale_param {
    bias_term: true
  }
}
layer {
  name: "conv3_2"
  type: "Eltwise"
  bottom: "conv3_2a_sum"
  bottom: "conv3_2b"
  top: "conv3_2"
}
layer {
  name: "conv3_2_relu"
  type: "ReLU"
  bottom: "conv3_2"
  top: "conv3_2"
}
layer {
  name: "conv3_3a"
  type: "Convolution"
  bottom: "conv3_2"
  top: "conv3_3a"
  param {
    lr_mult: 1
  }
  param {
    lr_mult: 2
  }
  convolution_param {
    num_output: 32
    pad: 1
    kernel_size: 3
    stride: 1
    weight_filler {
      type: "msra"
    }
    bias_filler {
      type: "constant"
      value: 0
    }
  }
}
layer {
  name: "bn_conv3_3a"
  type: "BatchNorm"
  bottom: "conv3_3a"
  top: "conv3_3a"
  param {
    lr_mult: 0
  }
  param {
    lr_mult: 0
  }
  param {
    lr_mult: 0
  }
}
layer {
  name: "scale_conv3_3a"
  type: "Scale"
  bottom: "conv3_3a"
  top: "conv3_3a"
  scale_param {
    bias_term: true
  }
}
layer {
  name: "conv3_3a_sum"
  type: "Eltwise"
  bottom: "conv3_2"
  bottom: "conv3_3a"
  top: "conv3_3a_sum"
}
layer {
  name: "conv3_3a_relu"
  type: "ReLU"
  bottom: "conv3_3a_sum"
  top: "conv3_3a_sum"
}
layer {
  name: "conv3_3b"
  type: "Convolution"
  bottom: "conv3_3a_sum"
  top: "conv3_3b"
  param {
    lr_mult: 1
  }
  param {
    lr_mult: 2
  }
  convolution_param {
    num_output: 32
    pad: 1
    kernel_size: 3
    stride: 1
    weight_filler {
      type: "msra"
    }
    bias_filler {
      type: "constant"
      value: 0
    }
  }
}
layer {
  name: "bn_conv3_3b"
  type: "BatchNorm"
  bottom: "conv3_3b"
  top: "conv3_3b"
  param {
    lr_mult: 0
  }
  param {
    lr_mult: 0
  }
  param {
    lr_mult: 0
  }
}
layer {
  name: "scale_conv3_3b"
  type: "Scale"
  bottom: "conv3_3b"
  top: "conv3_3b"
  scale_param {
    bias_term: true
  }
}
layer {
  name: "conv3_3"
  type: "Eltwise"
  bottom: "conv3_3b"
  bottom: "conv3_3a_sum"
  top: "conv3_3"
}
layer {
  name: "conv3_3_relu"
  type: "ReLU"
  bottom: "conv3_3"
  top: "conv3_3"
}
layer {
  name: "conv3_sub"
  type: "Convolution"
  bottom: "conv3_3"
  top: "conv3_sub"
  param {
    lr_mult: 1
  }
  param {
    lr_mult: 2
  }
  convolution_param {
    num_output: 64
    kernel_size: 1
    stride: 2
    weight_filler {
      type: "msra"
    }
    bias_filler {
      type: "constant"
      value: 0
    }
  }
}
layer {
  name: "bn_conv3_sub"
  type: "BatchNorm"
  bottom: "conv3_sub"
  top: "conv3_sub"
  param {
    lr_mult: 0
  }
  param {
    lr_mult: 0
  }
  param {
    lr_mult: 0
  }
}
layer {
  name: "scale_conv3_sub"
  type: "Scale"
  bottom: "conv3_sub"
  top: "conv3_sub"
  scale_param {
    bias_term: true
  }
}
layer {
  name: "conv4_1a"
  type: "Convolution"
  bottom: "conv3_3"
  top: "conv4_1a"
  param {
    lr_mult: 1
  }
  param {
    lr_mult: 2
  }
  convolution_param {
    num_output: 64
    pad: 0
    kernel_size: 1
    stride: 2
    weight_filler {
      type: "msra"
    }
    bias_filler {
      type: "constant"
      value: 0
    }
  }
}
layer {
  name: "bn_conv4_1a"
  type: "BatchNorm"
  bottom: "conv4_1a"
  top: "conv4_1a"
  param {
    lr_mult: 0
  }
  param {
    lr_mult: 0
  }
  param {
    lr_mult: 0
  }
}
layer {
  name: "scale_conv4_1a"
  type: "Scale"
  bottom: "conv4_1a"
  top: "conv4_1a"
  scale_param {
    bias_term: true
  }
}
layer {
  name: "conv4_1a_sum"
  type: "Eltwise"
  bottom: "conv3_sub"
  bottom: "conv4_1a"
  top: "conv4_1a_sum"
}
layer {
  name: "conv4_1a_relu"
  type: "ReLU"
  bottom: "conv4_1a_sum"
  top: "conv4_1a_sum"
}
layer {
  name: "conv4_1b"
  type: "Convolution"
  bottom: "conv4_1a_sum"
  top: "conv4_1b"
  param {
    lr_mult: 1
  }
  param {
    lr_mult: 2
  }
  convolution_param {
    num_output: 64
    pad: 1
    kernel_size: 3
    stride: 1
    weight_filler {
      type: "msra"
    }
    bias_filler {
      type: "constant"
      value: 0
    }
  }
}
layer {
  name: "bn_conv4_1b"
  type: "BatchNorm"
  bottom: "conv4_1b"
  top: "conv4_1b"
  param {
    lr_mult: 0
  }
  param {
    lr_mult: 0
  }
  param {
    lr_mult: 0
  }
}
layer {
  name: "scale_conv4_1b"
  type: "Scale"
  bottom: "conv4_1b"
  top: "conv4_1b"
  scale_param {
    bias_term: true
  }
}
layer {
  name: "conv4_1"
  type: "Eltwise"
  bottom: "conv4_1a_sum"
  bottom: "conv4_1b"
  top: "conv4_1"
}
layer {
  name: "conv4_1_relu"
  type: "ReLU"
  bottom: "conv4_1"
  top: "conv4_1"
}
layer {
  name: "conv4_2a"
  type: "Convolution"
  bottom: "conv4_1"
  top: "conv4_2a"
  param {
    lr_mult: 1
  }
  param {
    lr_mult: 2
  }
  convolution_param {
    num_output: 64
    pad: 1
    kernel_size: 3
    stride: 1
    weight_filler {
      type: "msra"
    }
    bias_filler {
      type: "constant"
      value: 0
    }
  }
}
layer {
  name: "bn_conv4_2a"
  type: "BatchNorm"
  bottom: "conv4_2a"
  top: "conv4_2a"
  param {
    lr_mult: 0
  }
  param {
    lr_mult: 0
  }
  param {
    lr_mult: 0
  }
}
layer {
  name: "scale_conv4_2a"
  type: "Scale"
  bottom: "conv4_2a"
  top: "conv4_2a"
  scale_param {
    bias_term: true
  }
}
layer {
  name: "conv4_2a_sum"
  type: "Eltwise"
  bottom: "conv4_1"
  bottom: "conv4_2a"
  top: "conv4_2a_sum"
}
layer {
  name: "conv4_2a_relu"
  type: "ReLU"
  bottom: "conv4_2a_sum"
  top: "conv4_2a_sum"
}
layer {
  name: "conv4_2b"
  type: "Convolution"
  bottom: "conv4_2a_sum"
  top: "conv4_2b"
  param {
    lr_mult: 1
  }
  param {
    lr_mult: 2
  }
  convolution_param {
    num_output: 64
    pad: 1
    kernel_size: 3
    stride: 1
    weight_filler {
      type: "msra"
    }
    bias_filler {
      type: "constant"
      value: 0
    }
  }
}
layer {
  name: "bn_conv4_2b"
  type: "BatchNorm"
  bottom: "conv4_2b"
  top: "conv4_2b"
  param {
    lr_mult: 0
  }
  param {
    lr_mult: 0
  }
  param {
    lr_mult: 0
  }
}
layer {
  name: "scale_conv4_2b"
  type: "Scale"
  bottom: "conv4_2b"
  top: "conv4_2b"
  scale_param {
    bias_term: true
  }
}
layer {
  name: "conv4_2"
  type: "Eltwise"
  bottom: "conv4_2a_sum"
  bottom: "conv4_2b"
  top: "conv4_2"
}
layer {
  name: "conv4_2_relu"
  type: "ReLU"
  bottom: "conv4_2"
  top: "conv4_2"
}
layer {
  name: "conv4_3a"
  type: "Convolution"
  bottom: "conv4_2"
  top: "conv4_3a"
  param {
    lr_mult: 1
  }
  param {
    lr_mult: 2
  }
  convolution_param {
    num_output: 64
    pad: 1
    kernel_size: 3
    stride: 1
    weight_filler {
      type: "msra"
    }
    bias_filler {
      type: "constant"
      value: 0
    }
  }
}
layer {
  name: "bn_conv4_3a"
  type: "BatchNorm"
  bottom: "conv4_3a"
  top: "conv4_3a"
  param {
    lr_mult: 0
  }
  param {
    lr_mult: 0
  }
  param {
    lr_mult: 0
  }
}
layer {
  name: "scale_conv4_3a"
  type: "Scale"
  bottom: "conv4_3a"
  top: "conv4_3a"
  scale_param {
    bias_term: true
  }
}
layer {
  name: "conv4_3a_sum"
  type: "Eltwise"
  bottom: "conv4_2"
  bottom: "conv4_3a"
  top: "conv4_3a_sum"
}
layer {
  name: "conv4_3a_relu"
  type: "ReLU"
  bottom: "conv4_3a_sum"
  top: "conv4_3a_sum"
}
layer {
  name: "conv4_3b"
  type: "Convolution"
  bottom: "conv4_3a_sum"
  top: "conv4_3b"
  param {
    lr_mult: 1
  }
  param {
    lr_mult: 2
  }
  convolution_param {
    num_output: 64
    pad: 1
    kernel_size: 3
    stride: 1
    weight_filler {
      type: "msra"
    }
    bias_filler {
      type: "constant"
      value: 0
    }
  }
}
layer {
  name: "bn_conv4_3b"
  type: "BatchNorm"
  bottom: "conv4_3b"
  top: "conv4_3b"
  param {
    lr_mult: 0
  }
  param {
    lr_mult: 0
  }
  param {
    lr_mult: 0
  }
}
layer {
  name: "scale_conv4_3b"
  type: "Scale"
  bottom: "conv4_3b"
  top: "conv4_3b"
  scale_param {
    bias_term: true
  }
}
layer {
  name: "conv4_3"
  type: "Eltwise"
  bottom: "conv4_3a_sum"
  bottom: "conv4_3b"
  top: "conv4_3"
}
layer {
  name: "conv4_3_relu"
  type: "ReLU"
  bottom: "conv4_3"
  top: "conv4_3"
}
layer {
  name: "global_pool"
  type: "Pooling"
  bottom: "conv4_3"
  top: "global_pool"
  pooling_param {
    pool: AVE
    kernel_size: 8
    stride: 8
  }
}
layer {
  name: "ip"
  type: "InnerProduct"
  bottom: "global_pool"
  top: "ip"
  inner_product_param {
    num_output: 10
  }
}
layer {
  name: "accuracy"
  type: "Accuracy"
  bottom: "ip"
  bottom: "label"
  top: "accuracy"
}
layer {
  name: "loss"
  type: "SoftmaxWithLoss"
  bottom: "ip"
  bottom: "label"
  top: "loss"
}
I0412 22:47:19.293524  7331 layer_factory.hpp:77] Creating layer cifar
I0412 22:47:19.294384  7331 net.cpp:91] Creating Layer cifar
I0412 22:47:19.294399  7331 net.cpp:399] cifar -> data
I0412 22:47:19.294412  7331 net.cpp:399] cifar -> label
I0412 22:47:19.294423  7331 data_transformer.cpp:25] Loading mean file from: data/cifar10/mean.binaryproto
I0412 22:47:19.295615  7514 db_lmdb.cpp:38] Opened lmdb data/cifar10/cifar10_train_lmdb
I0412 22:47:19.305038  7331 data_layer.cpp:41] output data size: 256,3,32,32
I0412 22:47:19.310052  7331 net.cpp:141] Setting up cifar
I0412 22:47:19.310081  7331 net.cpp:148] Top shape: 256 3 32 32 (786432)
I0412 22:47:19.310088  7331 net.cpp:148] Top shape: 256 (256)
I0412 22:47:19.310092  7331 net.cpp:156] Memory required for data: 3146752
I0412 22:47:19.310107  7331 layer_factory.hpp:77] Creating layer label_cifar_1_split
I0412 22:47:19.310139  7331 net.cpp:91] Creating Layer label_cifar_1_split
I0412 22:47:19.310148  7331 net.cpp:425] label_cifar_1_split <- label
I0412 22:47:19.310156  7331 net.cpp:399] label_cifar_1_split -> label_cifar_1_split_0
I0412 22:47:19.310168  7331 net.cpp:399] label_cifar_1_split -> label_cifar_1_split_1
I0412 22:47:19.310245  7331 net.cpp:141] Setting up label_cifar_1_split
I0412 22:47:19.310253  7331 net.cpp:148] Top shape: 256 (256)
I0412 22:47:19.310258  7331 net.cpp:148] Top shape: 256 (256)
I0412 22:47:19.310262  7331 net.cpp:156] Memory required for data: 3148800
I0412 22:47:19.310266  7331 layer_factory.hpp:77] Creating layer conv1
I0412 22:47:19.310283  7331 net.cpp:91] Creating Layer conv1
I0412 22:47:19.310288  7331 net.cpp:425] conv1 <- data
I0412 22:47:19.310295  7331 net.cpp:399] conv1 -> conv1
I0412 22:47:19.490872  7331 net.cpp:141] Setting up conv1
I0412 22:47:19.490914  7331 net.cpp:148] Top shape: 256 16 32 32 (4194304)
I0412 22:47:19.490921  7331 net.cpp:156] Memory required for data: 19926016
I0412 22:47:19.490942  7331 layer_factory.hpp:77] Creating layer bn_conv1
I0412 22:47:19.490970  7331 net.cpp:91] Creating Layer bn_conv1
I0412 22:47:19.490977  7331 net.cpp:425] bn_conv1 <- conv1
I0412 22:47:19.490984  7331 net.cpp:386] bn_conv1 -> conv1 (in-place)
I0412 22:47:19.491137  7331 net.cpp:141] Setting up bn_conv1
I0412 22:47:19.491145  7331 net.cpp:148] Top shape: 256 16 32 32 (4194304)
I0412 22:47:19.491149  7331 net.cpp:156] Memory required for data: 36703232
I0412 22:47:19.491161  7331 layer_factory.hpp:77] Creating layer scale_conv1
I0412 22:47:19.491173  7331 net.cpp:91] Creating Layer scale_conv1
I0412 22:47:19.491178  7331 net.cpp:425] scale_conv1 <- conv1
I0412 22:47:19.491183  7331 net.cpp:386] scale_conv1 -> conv1 (in-place)
I0412 22:47:19.491216  7331 layer_factory.hpp:77] Creating layer scale_conv1
I0412 22:47:19.491308  7331 net.cpp:141] Setting up scale_conv1
I0412 22:47:19.491317  7331 net.cpp:148] Top shape: 256 16 32 32 (4194304)
I0412 22:47:19.491320  7331 net.cpp:156] Memory required for data: 53480448
I0412 22:47:19.491328  7331 layer_factory.hpp:77] Creating layer conv1_relu
I0412 22:47:19.491335  7331 net.cpp:91] Creating Layer conv1_relu
I0412 22:47:19.491339  7331 net.cpp:425] conv1_relu <- conv1
I0412 22:47:19.491345  7331 net.cpp:386] conv1_relu -> conv1 (in-place)
I0412 22:47:19.491631  7331 net.cpp:141] Setting up conv1_relu
I0412 22:47:19.491646  7331 net.cpp:148] Top shape: 256 16 32 32 (4194304)
I0412 22:47:19.491650  7331 net.cpp:156] Memory required for data: 70257664
I0412 22:47:19.491655  7331 layer_factory.hpp:77] Creating layer conv1_conv1_relu_0_split
I0412 22:47:19.491662  7331 net.cpp:91] Creating Layer conv1_conv1_relu_0_split
I0412 22:47:19.491667  7331 net.cpp:425] conv1_conv1_relu_0_split <- conv1
I0412 22:47:19.491673  7331 net.cpp:399] conv1_conv1_relu_0_split -> conv1_conv1_relu_0_split_0
I0412 22:47:19.491683  7331 net.cpp:399] conv1_conv1_relu_0_split -> conv1_conv1_relu_0_split_1
I0412 22:47:19.491716  7331 net.cpp:141] Setting up conv1_conv1_relu_0_split
I0412 22:47:19.491724  7331 net.cpp:148] Top shape: 256 16 32 32 (4194304)
I0412 22:47:19.491729  7331 net.cpp:148] Top shape: 256 16 32 32 (4194304)
I0412 22:47:19.491732  7331 net.cpp:156] Memory required for data: 103812096
I0412 22:47:19.491736  7331 layer_factory.hpp:77] Creating layer conv2_1a
I0412 22:47:19.491749  7331 net.cpp:91] Creating Layer conv2_1a
I0412 22:47:19.491753  7331 net.cpp:425] conv2_1a <- conv1_conv1_relu_0_split_0
I0412 22:47:19.491760  7331 net.cpp:399] conv2_1a -> conv2_1a
I0412 22:47:19.498064  7331 net.cpp:141] Setting up conv2_1a
I0412 22:47:19.498126  7331 net.cpp:148] Top shape: 256 16 32 32 (4194304)
I0412 22:47:19.498133  7331 net.cpp:156] Memory required for data: 120589312
I0412 22:47:19.498157  7331 layer_factory.hpp:77] Creating layer bn_conv2_1a
I0412 22:47:19.498177  7331 net.cpp:91] Creating Layer bn_conv2_1a
I0412 22:47:19.498195  7331 net.cpp:425] bn_conv2_1a <- conv2_1a
I0412 22:47:19.498209  7331 net.cpp:386] bn_conv2_1a -> conv2_1a (in-place)
I0412 22:47:19.498518  7331 net.cpp:141] Setting up bn_conv2_1a
I0412 22:47:19.498555  7331 net.cpp:148] Top shape: 256 16 32 32 (4194304)
I0412 22:47:19.498561  7331 net.cpp:156] Memory required for data: 137366528
I0412 22:47:19.498579  7331 layer_factory.hpp:77] Creating layer scale_conv2_1a
I0412 22:47:19.498595  7331 net.cpp:91] Creating Layer scale_conv2_1a
I0412 22:47:19.498605  7331 net.cpp:425] scale_conv2_1a <- conv2_1a
I0412 22:47:19.498615  7331 net.cpp:386] scale_conv2_1a -> conv2_1a (in-place)
I0412 22:47:19.498672  7331 layer_factory.hpp:77] Creating layer scale_conv2_1a
I0412 22:47:19.498801  7331 net.cpp:141] Setting up scale_conv2_1a
I0412 22:47:19.498813  7331 net.cpp:148] Top shape: 256 16 32 32 (4194304)
I0412 22:47:19.498819  7331 net.cpp:156] Memory required for data: 154143744
I0412 22:47:19.498828  7331 layer_factory.hpp:77] Creating layer conv2_1a_sum
I0412 22:47:19.498844  7331 net.cpp:91] Creating Layer conv2_1a_sum
I0412 22:47:19.498850  7331 net.cpp:425] conv2_1a_sum <- conv2_1a
I0412 22:47:19.498858  7331 net.cpp:425] conv2_1a_sum <- conv1_conv1_relu_0_split_1
I0412 22:47:19.498872  7331 net.cpp:399] conv2_1a_sum -> conv2_1a_sum
I0412 22:47:19.498960  7331 net.cpp:141] Setting up conv2_1a_sum
I0412 22:47:19.499016  7331 net.cpp:148] Top shape: 256 16 32 32 (4194304)
I0412 22:47:19.499028  7331 net.cpp:156] Memory required for data: 170920960
I0412 22:47:19.499037  7331 layer_factory.hpp:77] Creating layer conv2_1a_relu
I0412 22:47:19.499050  7331 net.cpp:91] Creating Layer conv2_1a_relu
I0412 22:47:19.499055  7331 net.cpp:425] conv2_1a_relu <- conv2_1a_sum
I0412 22:47:19.499068  7331 net.cpp:386] conv2_1a_relu -> conv2_1a_sum (in-place)
I0412 22:47:19.500475  7331 net.cpp:141] Setting up conv2_1a_relu
I0412 22:47:19.500531  7331 net.cpp:148] Top shape: 256 16 32 32 (4194304)
I0412 22:47:19.500537  7331 net.cpp:156] Memory required for data: 187698176
I0412 22:47:19.500546  7331 layer_factory.hpp:77] Creating layer conv2_1a_sum_conv2_1a_relu_0_split
I0412 22:47:19.500565  7331 net.cpp:91] Creating Layer conv2_1a_sum_conv2_1a_relu_0_split
I0412 22:47:19.500571  7331 net.cpp:425] conv2_1a_sum_conv2_1a_relu_0_split <- conv2_1a_sum
I0412 22:47:19.500581  7331 net.cpp:399] conv2_1a_sum_conv2_1a_relu_0_split -> conv2_1a_sum_conv2_1a_relu_0_split_0
I0412 22:47:19.500594  7331 net.cpp:399] conv2_1a_sum_conv2_1a_relu_0_split -> conv2_1a_sum_conv2_1a_relu_0_split_1
I0412 22:47:19.500653  7331 net.cpp:141] Setting up conv2_1a_sum_conv2_1a_relu_0_split
I0412 22:47:19.500660  7331 net.cpp:148] Top shape: 256 16 32 32 (4194304)
I0412 22:47:19.500665  7331 net.cpp:148] Top shape: 256 16 32 32 (4194304)
I0412 22:47:19.500669  7331 net.cpp:156] Memory required for data: 221252608
I0412 22:47:19.500674  7331 layer_factory.hpp:77] Creating layer conv2_1b
I0412 22:47:19.500691  7331 net.cpp:91] Creating Layer conv2_1b
I0412 22:47:19.500695  7331 net.cpp:425] conv2_1b <- conv2_1a_sum_conv2_1a_relu_0_split_0
I0412 22:47:19.500704  7331 net.cpp:399] conv2_1b -> conv2_1b
I0412 22:47:19.501869  7331 net.cpp:141] Setting up conv2_1b
I0412 22:47:19.501884  7331 net.cpp:148] Top shape: 256 16 32 32 (4194304)
I0412 22:47:19.501890  7331 net.cpp:156] Memory required for data: 238029824
I0412 22:47:19.501899  7331 layer_factory.hpp:77] Creating layer bn_conv2_1b
I0412 22:47:19.501910  7331 net.cpp:91] Creating Layer bn_conv2_1b
I0412 22:47:19.501915  7331 net.cpp:425] bn_conv2_1b <- conv2_1b
I0412 22:47:19.501924  7331 net.cpp:386] bn_conv2_1b -> conv2_1b (in-place)
I0412 22:47:19.502079  7331 net.cpp:141] Setting up bn_conv2_1b
I0412 22:47:19.502087  7331 net.cpp:148] Top shape: 256 16 32 32 (4194304)
I0412 22:47:19.502091  7331 net.cpp:156] Memory required for data: 254807040
I0412 22:47:19.502106  7331 layer_factory.hpp:77] Creating layer scale_conv2_1b
I0412 22:47:19.502116  7331 net.cpp:91] Creating Layer scale_conv2_1b
I0412 22:47:19.502120  7331 net.cpp:425] scale_conv2_1b <- conv2_1b
I0412 22:47:19.502135  7331 net.cpp:386] scale_conv2_1b -> conv2_1b (in-place)
I0412 22:47:19.502171  7331 layer_factory.hpp:77] Creating layer scale_conv2_1b
I0412 22:47:19.502282  7331 net.cpp:141] Setting up scale_conv2_1b
I0412 22:47:19.502290  7331 net.cpp:148] Top shape: 256 16 32 32 (4194304)
I0412 22:47:19.502295  7331 net.cpp:156] Memory required for data: 271584256
I0412 22:47:19.502302  7331 layer_factory.hpp:77] Creating layer conv2_1
I0412 22:47:19.502313  7331 net.cpp:91] Creating Layer conv2_1
I0412 22:47:19.502318  7331 net.cpp:425] conv2_1 <- conv2_1b
I0412 22:47:19.502324  7331 net.cpp:425] conv2_1 <- conv2_1a_sum_conv2_1a_relu_0_split_1
I0412 22:47:19.502331  7331 net.cpp:399] conv2_1 -> conv2_1
I0412 22:47:19.502356  7331 net.cpp:141] Setting up conv2_1
I0412 22:47:19.502362  7331 net.cpp:148] Top shape: 256 16 32 32 (4194304)
I0412 22:47:19.502367  7331 net.cpp:156] Memory required for data: 288361472
I0412 22:47:19.502372  7331 layer_factory.hpp:77] Creating layer conv2_1_relu
I0412 22:47:19.502378  7331 net.cpp:91] Creating Layer conv2_1_relu
I0412 22:47:19.502382  7331 net.cpp:425] conv2_1_relu <- conv2_1
I0412 22:47:19.502391  7331 net.cpp:386] conv2_1_relu -> conv2_1 (in-place)
I0412 22:47:19.502547  7331 net.cpp:141] Setting up conv2_1_relu
I0412 22:47:19.502557  7331 net.cpp:148] Top shape: 256 16 32 32 (4194304)
I0412 22:47:19.502562  7331 net.cpp:156] Memory required for data: 305138688
I0412 22:47:19.502567  7331 layer_factory.hpp:77] Creating layer conv2_1_conv2_1_relu_0_split
I0412 22:47:19.502573  7331 net.cpp:91] Creating Layer conv2_1_conv2_1_relu_0_split
I0412 22:47:19.502578  7331 net.cpp:425] conv2_1_conv2_1_relu_0_split <- conv2_1
I0412 22:47:19.502583  7331 net.cpp:399] conv2_1_conv2_1_relu_0_split -> conv2_1_conv2_1_relu_0_split_0
I0412 22:47:19.502601  7331 net.cpp:399] conv2_1_conv2_1_relu_0_split -> conv2_1_conv2_1_relu_0_split_1
I0412 22:47:19.502637  7331 net.cpp:141] Setting up conv2_1_conv2_1_relu_0_split
I0412 22:47:19.502645  7331 net.cpp:148] Top shape: 256 16 32 32 (4194304)
I0412 22:47:19.502650  7331 net.cpp:148] Top shape: 256 16 32 32 (4194304)
I0412 22:47:19.502652  7331 net.cpp:156] Memory required for data: 338693120
I0412 22:47:19.502656  7331 layer_factory.hpp:77] Creating layer conv2_2a
I0412 22:47:19.502668  7331 net.cpp:91] Creating Layer conv2_2a
I0412 22:47:19.502673  7331 net.cpp:425] conv2_2a <- conv2_1_conv2_1_relu_0_split_0
I0412 22:47:19.502681  7331 net.cpp:399] conv2_2a -> conv2_2a
I0412 22:47:19.503715  7331 net.cpp:141] Setting up conv2_2a
I0412 22:47:19.503728  7331 net.cpp:148] Top shape: 256 16 32 32 (4194304)
I0412 22:47:19.503733  7331 net.cpp:156] Memory required for data: 355470336
I0412 22:47:19.503741  7331 layer_factory.hpp:77] Creating layer bn_conv2_2a
I0412 22:47:19.503749  7331 net.cpp:91] Creating Layer bn_conv2_2a
I0412 22:47:19.503754  7331 net.cpp:425] bn_conv2_2a <- conv2_2a
I0412 22:47:19.503762  7331 net.cpp:386] bn_conv2_2a -> conv2_2a (in-place)
I0412 22:47:19.503916  7331 net.cpp:141] Setting up bn_conv2_2a
I0412 22:47:19.503924  7331 net.cpp:148] Top shape: 256 16 32 32 (4194304)
I0412 22:47:19.503928  7331 net.cpp:156] Memory required for data: 372247552
I0412 22:47:19.503936  7331 layer_factory.hpp:77] Creating layer scale_conv2_2a
I0412 22:47:19.503944  7331 net.cpp:91] Creating Layer scale_conv2_2a
I0412 22:47:19.503948  7331 net.cpp:425] scale_conv2_2a <- conv2_2a
I0412 22:47:19.503954  7331 net.cpp:386] scale_conv2_2a -> conv2_2a (in-place)
I0412 22:47:19.503983  7331 layer_factory.hpp:77] Creating layer scale_conv2_2a
I0412 22:47:19.504076  7331 net.cpp:141] Setting up scale_conv2_2a
I0412 22:47:19.504083  7331 net.cpp:148] Top shape: 256 16 32 32 (4194304)
I0412 22:47:19.504087  7331 net.cpp:156] Memory required for data: 389024768
I0412 22:47:19.504093  7331 layer_factory.hpp:77] Creating layer conv2_2a_sum
I0412 22:47:19.504099  7331 net.cpp:91] Creating Layer conv2_2a_sum
I0412 22:47:19.504103  7331 net.cpp:425] conv2_2a_sum <- conv2_1_conv2_1_relu_0_split_1
I0412 22:47:19.504109  7331 net.cpp:425] conv2_2a_sum <- conv2_2a
I0412 22:47:19.504118  7331 net.cpp:399] conv2_2a_sum -> conv2_2a_sum
I0412 22:47:19.504145  7331 net.cpp:141] Setting up conv2_2a_sum
I0412 22:47:19.504155  7331 net.cpp:148] Top shape: 256 16 32 32 (4194304)
I0412 22:47:19.504159  7331 net.cpp:156] Memory required for data: 405801984
I0412 22:47:19.504163  7331 layer_factory.hpp:77] Creating layer conv2_2a_relu
I0412 22:47:19.504169  7331 net.cpp:91] Creating Layer conv2_2a_relu
I0412 22:47:19.504173  7331 net.cpp:425] conv2_2a_relu <- conv2_2a_sum
I0412 22:47:19.504179  7331 net.cpp:386] conv2_2a_relu -> conv2_2a_sum (in-place)
I0412 22:47:19.504449  7331 net.cpp:141] Setting up conv2_2a_relu
I0412 22:47:19.504462  7331 net.cpp:148] Top shape: 256 16 32 32 (4194304)
I0412 22:47:19.504467  7331 net.cpp:156] Memory required for data: 422579200
I0412 22:47:19.504472  7331 layer_factory.hpp:77] Creating layer conv2_2a_sum_conv2_2a_relu_0_split
I0412 22:47:19.504477  7331 net.cpp:91] Creating Layer conv2_2a_sum_conv2_2a_relu_0_split
I0412 22:47:19.504482  7331 net.cpp:425] conv2_2a_sum_conv2_2a_relu_0_split <- conv2_2a_sum
I0412 22:47:19.504489  7331 net.cpp:399] conv2_2a_sum_conv2_2a_relu_0_split -> conv2_2a_sum_conv2_2a_relu_0_split_0
I0412 22:47:19.504498  7331 net.cpp:399] conv2_2a_sum_conv2_2a_relu_0_split -> conv2_2a_sum_conv2_2a_relu_0_split_1
I0412 22:47:19.504533  7331 net.cpp:141] Setting up conv2_2a_sum_conv2_2a_relu_0_split
I0412 22:47:19.504539  7331 net.cpp:148] Top shape: 256 16 32 32 (4194304)
I0412 22:47:19.504544  7331 net.cpp:148] Top shape: 256 16 32 32 (4194304)
I0412 22:47:19.504547  7331 net.cpp:156] Memory required for data: 456133632
I0412 22:47:19.504551  7331 layer_factory.hpp:77] Creating layer conv2_2b
I0412 22:47:19.504564  7331 net.cpp:91] Creating Layer conv2_2b
I0412 22:47:19.504568  7331 net.cpp:425] conv2_2b <- conv2_2a_sum_conv2_2a_relu_0_split_0
I0412 22:47:19.504575  7331 net.cpp:399] conv2_2b -> conv2_2b
I0412 22:47:19.505481  7331 net.cpp:141] Setting up conv2_2b
I0412 22:47:19.505496  7331 net.cpp:148] Top shape: 256 16 32 32 (4194304)
I0412 22:47:19.505501  7331 net.cpp:156] Memory required for data: 472910848
I0412 22:47:19.505509  7331 layer_factory.hpp:77] Creating layer bn_conv2_2b
I0412 22:47:19.505529  7331 net.cpp:91] Creating Layer bn_conv2_2b
I0412 22:47:19.505534  7331 net.cpp:425] bn_conv2_2b <- conv2_2b
I0412 22:47:19.505542  7331 net.cpp:386] bn_conv2_2b -> conv2_2b (in-place)
I0412 22:47:19.505697  7331 net.cpp:141] Setting up bn_conv2_2b
I0412 22:47:19.505705  7331 net.cpp:148] Top shape: 256 16 32 32 (4194304)
I0412 22:47:19.505709  7331 net.cpp:156] Memory required for data: 489688064
I0412 22:47:19.505722  7331 layer_factory.hpp:77] Creating layer scale_conv2_2b
I0412 22:47:19.505729  7331 net.cpp:91] Creating Layer scale_conv2_2b
I0412 22:47:19.505733  7331 net.cpp:425] scale_conv2_2b <- conv2_2b
I0412 22:47:19.505739  7331 net.cpp:386] scale_conv2_2b -> conv2_2b (in-place)
I0412 22:47:19.505771  7331 layer_factory.hpp:77] Creating layer scale_conv2_2b
I0412 22:47:19.505863  7331 net.cpp:141] Setting up scale_conv2_2b
I0412 22:47:19.505870  7331 net.cpp:148] Top shape: 256 16 32 32 (4194304)
I0412 22:47:19.505874  7331 net.cpp:156] Memory required for data: 506465280
I0412 22:47:19.505880  7331 layer_factory.hpp:77] Creating layer conv2_2
I0412 22:47:19.505887  7331 net.cpp:91] Creating Layer conv2_2
I0412 22:47:19.505892  7331 net.cpp:425] conv2_2 <- conv2_2b
I0412 22:47:19.505897  7331 net.cpp:425] conv2_2 <- conv2_2a_sum_conv2_2a_relu_0_split_1
I0412 22:47:19.505904  7331 net.cpp:399] conv2_2 -> conv2_2
I0412 22:47:19.505924  7331 net.cpp:141] Setting up conv2_2
I0412 22:47:19.505931  7331 net.cpp:148] Top shape: 256 16 32 32 (4194304)
I0412 22:47:19.505935  7331 net.cpp:156] Memory required for data: 523242496
I0412 22:47:19.505939  7331 layer_factory.hpp:77] Creating layer conv2_2_relu
I0412 22:47:19.505949  7331 net.cpp:91] Creating Layer conv2_2_relu
I0412 22:47:19.505954  7331 net.cpp:425] conv2_2_relu <- conv2_2
I0412 22:47:19.505959  7331 net.cpp:386] conv2_2_relu -> conv2_2 (in-place)
I0412 22:47:19.511132  7331 net.cpp:141] Setting up conv2_2_relu
I0412 22:47:19.511147  7331 net.cpp:148] Top shape: 256 16 32 32 (4194304)
I0412 22:47:19.511150  7331 net.cpp:156] Memory required for data: 540019712
I0412 22:47:19.511155  7331 layer_factory.hpp:77] Creating layer conv2_2_conv2_2_relu_0_split
I0412 22:47:19.511163  7331 net.cpp:91] Creating Layer conv2_2_conv2_2_relu_0_split
I0412 22:47:19.511168  7331 net.cpp:425] conv2_2_conv2_2_relu_0_split <- conv2_2
I0412 22:47:19.511176  7331 net.cpp:399] conv2_2_conv2_2_relu_0_split -> conv2_2_conv2_2_relu_0_split_0
I0412 22:47:19.511183  7331 net.cpp:399] conv2_2_conv2_2_relu_0_split -> conv2_2_conv2_2_relu_0_split_1
I0412 22:47:19.511230  7331 net.cpp:141] Setting up conv2_2_conv2_2_relu_0_split
I0412 22:47:19.511239  7331 net.cpp:148] Top shape: 256 16 32 32 (4194304)
I0412 22:47:19.511243  7331 net.cpp:148] Top shape: 256 16 32 32 (4194304)
I0412 22:47:19.511247  7331 net.cpp:156] Memory required for data: 573574144
I0412 22:47:19.511251  7331 layer_factory.hpp:77] Creating layer conv2_3a
I0412 22:47:19.511263  7331 net.cpp:91] Creating Layer conv2_3a
I0412 22:47:19.511268  7331 net.cpp:425] conv2_3a <- conv2_2_conv2_2_relu_0_split_0
I0412 22:47:19.511277  7331 net.cpp:399] conv2_3a -> conv2_3a
I0412 22:47:19.512390  7331 net.cpp:141] Setting up conv2_3a
I0412 22:47:19.512404  7331 net.cpp:148] Top shape: 256 16 32 32 (4194304)
I0412 22:47:19.512408  7331 net.cpp:156] Memory required for data: 590351360
I0412 22:47:19.512416  7331 layer_factory.hpp:77] Creating layer bn_conv2_3a
I0412 22:47:19.512428  7331 net.cpp:91] Creating Layer bn_conv2_3a
I0412 22:47:19.512433  7331 net.cpp:425] bn_conv2_3a <- conv2_3a
I0412 22:47:19.512440  7331 net.cpp:386] bn_conv2_3a -> conv2_3a (in-place)
I0412 22:47:19.512601  7331 net.cpp:141] Setting up bn_conv2_3a
I0412 22:47:19.512609  7331 net.cpp:148] Top shape: 256 16 32 32 (4194304)
I0412 22:47:19.512614  7331 net.cpp:156] Memory required for data: 607128576
I0412 22:47:19.512621  7331 layer_factory.hpp:77] Creating layer scale_conv2_3a
I0412 22:47:19.512629  7331 net.cpp:91] Creating Layer scale_conv2_3a
I0412 22:47:19.512632  7331 net.cpp:425] scale_conv2_3a <- conv2_3a
I0412 22:47:19.512639  7331 net.cpp:386] scale_conv2_3a -> conv2_3a (in-place)
I0412 22:47:19.512670  7331 layer_factory.hpp:77] Creating layer scale_conv2_3a
I0412 22:47:19.512763  7331 net.cpp:141] Setting up scale_conv2_3a
I0412 22:47:19.512769  7331 net.cpp:148] Top shape: 256 16 32 32 (4194304)
I0412 22:47:19.512773  7331 net.cpp:156] Memory required for data: 623905792
I0412 22:47:19.512780  7331 layer_factory.hpp:77] Creating layer conv2_3a_sum
I0412 22:47:19.512787  7331 net.cpp:91] Creating Layer conv2_3a_sum
I0412 22:47:19.512792  7331 net.cpp:425] conv2_3a_sum <- conv2_2_conv2_2_relu_0_split_1
I0412 22:47:19.512797  7331 net.cpp:425] conv2_3a_sum <- conv2_3a
I0412 22:47:19.512802  7331 net.cpp:399] conv2_3a_sum -> conv2_3a_sum
I0412 22:47:19.512825  7331 net.cpp:141] Setting up conv2_3a_sum
I0412 22:47:19.512831  7331 net.cpp:148] Top shape: 256 16 32 32 (4194304)
I0412 22:47:19.512835  7331 net.cpp:156] Memory required for data: 640683008
I0412 22:47:19.512840  7331 layer_factory.hpp:77] Creating layer conv2_3a_relu
I0412 22:47:19.512845  7331 net.cpp:91] Creating Layer conv2_3a_relu
I0412 22:47:19.512850  7331 net.cpp:425] conv2_3a_relu <- conv2_3a_sum
I0412 22:47:19.512856  7331 net.cpp:386] conv2_3a_relu -> conv2_3a_sum (in-place)
I0412 22:47:19.513005  7331 net.cpp:141] Setting up conv2_3a_relu
I0412 22:47:19.513015  7331 net.cpp:148] Top shape: 256 16 32 32 (4194304)
I0412 22:47:19.513020  7331 net.cpp:156] Memory required for data: 657460224
I0412 22:47:19.513023  7331 layer_factory.hpp:77] Creating layer conv2_3a_sum_conv2_3a_relu_0_split
I0412 22:47:19.513031  7331 net.cpp:91] Creating Layer conv2_3a_sum_conv2_3a_relu_0_split
I0412 22:47:19.513036  7331 net.cpp:425] conv2_3a_sum_conv2_3a_relu_0_split <- conv2_3a_sum
I0412 22:47:19.513041  7331 net.cpp:399] conv2_3a_sum_conv2_3a_relu_0_split -> conv2_3a_sum_conv2_3a_relu_0_split_0
I0412 22:47:19.513052  7331 net.cpp:399] conv2_3a_sum_conv2_3a_relu_0_split -> conv2_3a_sum_conv2_3a_relu_0_split_1
I0412 22:47:19.513089  7331 net.cpp:141] Setting up conv2_3a_sum_conv2_3a_relu_0_split
I0412 22:47:19.513095  7331 net.cpp:148] Top shape: 256 16 32 32 (4194304)
I0412 22:47:19.513100  7331 net.cpp:148] Top shape: 256 16 32 32 (4194304)
I0412 22:47:19.513104  7331 net.cpp:156] Memory required for data: 691014656
I0412 22:47:19.513108  7331 layer_factory.hpp:77] Creating layer conv2_3b
I0412 22:47:19.513137  7331 net.cpp:91] Creating Layer conv2_3b
I0412 22:47:19.513144  7331 net.cpp:425] conv2_3b <- conv2_3a_sum_conv2_3a_relu_0_split_0
I0412 22:47:19.513152  7331 net.cpp:399] conv2_3b -> conv2_3b
I0412 22:47:19.514511  7331 net.cpp:141] Setting up conv2_3b
I0412 22:47:19.514525  7331 net.cpp:148] Top shape: 256 16 32 32 (4194304)
I0412 22:47:19.514530  7331 net.cpp:156] Memory required for data: 707791872
I0412 22:47:19.514538  7331 layer_factory.hpp:77] Creating layer bn_conv2_3b
I0412 22:47:19.514546  7331 net.cpp:91] Creating Layer bn_conv2_3b
I0412 22:47:19.514551  7331 net.cpp:425] bn_conv2_3b <- conv2_3b
I0412 22:47:19.514559  7331 net.cpp:386] bn_conv2_3b -> conv2_3b (in-place)
I0412 22:47:19.514722  7331 net.cpp:141] Setting up bn_conv2_3b
I0412 22:47:19.514730  7331 net.cpp:148] Top shape: 256 16 32 32 (4194304)
I0412 22:47:19.514734  7331 net.cpp:156] Memory required for data: 724569088
I0412 22:47:19.514741  7331 layer_factory.hpp:77] Creating layer scale_conv2_3b
I0412 22:47:19.514750  7331 net.cpp:91] Creating Layer scale_conv2_3b
I0412 22:47:19.514755  7331 net.cpp:425] scale_conv2_3b <- conv2_3b
I0412 22:47:19.514760  7331 net.cpp:386] scale_conv2_3b -> conv2_3b (in-place)
I0412 22:47:19.514791  7331 layer_factory.hpp:77] Creating layer scale_conv2_3b
I0412 22:47:19.514885  7331 net.cpp:141] Setting up scale_conv2_3b
I0412 22:47:19.514892  7331 net.cpp:148] Top shape: 256 16 32 32 (4194304)
I0412 22:47:19.514896  7331 net.cpp:156] Memory required for data: 741346304
I0412 22:47:19.514902  7331 layer_factory.hpp:77] Creating layer conv2_3
I0412 22:47:19.514909  7331 net.cpp:91] Creating Layer conv2_3
I0412 22:47:19.514912  7331 net.cpp:425] conv2_3 <- conv2_3a_sum_conv2_3a_relu_0_split_1
I0412 22:47:19.514917  7331 net.cpp:425] conv2_3 <- conv2_3b
I0412 22:47:19.514925  7331 net.cpp:399] conv2_3 -> conv2_3
I0412 22:47:19.514945  7331 net.cpp:141] Setting up conv2_3
I0412 22:47:19.514955  7331 net.cpp:148] Top shape: 256 16 32 32 (4194304)
I0412 22:47:19.514958  7331 net.cpp:156] Memory required for data: 758123520
I0412 22:47:19.514962  7331 layer_factory.hpp:77] Creating layer conv2_3_relu
I0412 22:47:19.514967  7331 net.cpp:91] Creating Layer conv2_3_relu
I0412 22:47:19.514971  7331 net.cpp:425] conv2_3_relu <- conv2_3
I0412 22:47:19.514977  7331 net.cpp:386] conv2_3_relu -> conv2_3 (in-place)
I0412 22:47:19.515552  7331 net.cpp:141] Setting up conv2_3_relu
I0412 22:47:19.515581  7331 net.cpp:148] Top shape: 256 16 32 32 (4194304)
I0412 22:47:19.515588  7331 net.cpp:156] Memory required for data: 774900736
I0412 22:47:19.515594  7331 layer_factory.hpp:77] Creating layer conv2_3_conv2_3_relu_0_split
I0412 22:47:19.516962  7331 net.cpp:91] Creating Layer conv2_3_conv2_3_relu_0_split
I0412 22:47:19.516986  7331 net.cpp:425] conv2_3_conv2_3_relu_0_split <- conv2_3
I0412 22:47:19.517014  7331 net.cpp:399] conv2_3_conv2_3_relu_0_split -> conv2_3_conv2_3_relu_0_split_0
I0412 22:47:19.517055  7331 net.cpp:399] conv2_3_conv2_3_relu_0_split -> conv2_3_conv2_3_relu_0_split_1
I0412 22:47:19.517205  7331 net.cpp:141] Setting up conv2_3_conv2_3_relu_0_split
I0412 22:47:19.517221  7331 net.cpp:148] Top shape: 256 16 32 32 (4194304)
I0412 22:47:19.517227  7331 net.cpp:148] Top shape: 256 16 32 32 (4194304)
I0412 22:47:19.517232  7331 net.cpp:156] Memory required for data: 808455168
I0412 22:47:19.517241  7331 layer_factory.hpp:77] Creating layer conv2_sub
I0412 22:47:19.517266  7331 net.cpp:91] Creating Layer conv2_sub
I0412 22:47:19.517272  7331 net.cpp:425] conv2_sub <- conv2_3_conv2_3_relu_0_split_0
I0412 22:47:19.517282  7331 net.cpp:399] conv2_sub -> conv2_sub
I0412 22:47:19.523555  7331 net.cpp:141] Setting up conv2_sub
I0412 22:47:19.523609  7331 net.cpp:148] Top shape: 256 32 16 16 (2097152)
I0412 22:47:19.523617  7331 net.cpp:156] Memory required for data: 816843776
I0412 22:47:19.523633  7331 layer_factory.hpp:77] Creating layer bn_conv2_sub
I0412 22:47:19.523651  7331 net.cpp:91] Creating Layer bn_conv2_sub
I0412 22:47:19.523659  7331 net.cpp:425] bn_conv2_sub <- conv2_sub
I0412 22:47:19.523671  7331 net.cpp:386] bn_conv2_sub -> conv2_sub (in-place)
I0412 22:47:19.523897  7331 net.cpp:141] Setting up bn_conv2_sub
I0412 22:47:19.523917  7331 net.cpp:148] Top shape: 256 32 16 16 (2097152)
I0412 22:47:19.523922  7331 net.cpp:156] Memory required for data: 825232384
I0412 22:47:19.523931  7331 layer_factory.hpp:77] Creating layer scale_conv2_sub
I0412 22:47:19.523941  7331 net.cpp:91] Creating Layer scale_conv2_sub
I0412 22:47:19.523947  7331 net.cpp:425] scale_conv2_sub <- conv2_sub
I0412 22:47:19.523952  7331 net.cpp:386] scale_conv2_sub -> conv2_sub (in-place)
I0412 22:47:19.523994  7331 layer_factory.hpp:77] Creating layer scale_conv2_sub
I0412 22:47:19.524106  7331 net.cpp:141] Setting up scale_conv2_sub
I0412 22:47:19.524113  7331 net.cpp:148] Top shape: 256 32 16 16 (2097152)
I0412 22:47:19.524117  7331 net.cpp:156] Memory required for data: 833620992
I0412 22:47:19.524126  7331 layer_factory.hpp:77] Creating layer conv3_1a
I0412 22:47:19.524140  7331 net.cpp:91] Creating Layer conv3_1a
I0412 22:47:19.524145  7331 net.cpp:425] conv3_1a <- conv2_3_conv2_3_relu_0_split_1
I0412 22:47:19.524155  7331 net.cpp:399] conv3_1a -> conv3_1a
I0412 22:47:19.525197  7331 net.cpp:141] Setting up conv3_1a
I0412 22:47:19.525214  7331 net.cpp:148] Top shape: 256 32 16 16 (2097152)
I0412 22:47:19.525219  7331 net.cpp:156] Memory required for data: 842009600
I0412 22:47:19.525228  7331 layer_factory.hpp:77] Creating layer bn_conv3_1a
I0412 22:47:19.525235  7331 net.cpp:91] Creating Layer bn_conv3_1a
I0412 22:47:19.525241  7331 net.cpp:425] bn_conv3_1a <- conv3_1a
I0412 22:47:19.525249  7331 net.cpp:386] bn_conv3_1a -> conv3_1a (in-place)
I0412 22:47:19.525425  7331 net.cpp:141] Setting up bn_conv3_1a
I0412 22:47:19.525434  7331 net.cpp:148] Top shape: 256 32 16 16 (2097152)
I0412 22:47:19.525439  7331 net.cpp:156] Memory required for data: 850398208
I0412 22:47:19.525447  7331 layer_factory.hpp:77] Creating layer scale_conv3_1a
I0412 22:47:19.525454  7331 net.cpp:91] Creating Layer scale_conv3_1a
I0412 22:47:19.525460  7331 net.cpp:425] scale_conv3_1a <- conv3_1a
I0412 22:47:19.525465  7331 net.cpp:386] scale_conv3_1a -> conv3_1a (in-place)
I0412 22:47:19.525501  7331 layer_factory.hpp:77] Creating layer scale_conv3_1a
I0412 22:47:19.525610  7331 net.cpp:141] Setting up scale_conv3_1a
I0412 22:47:19.525619  7331 net.cpp:148] Top shape: 256 32 16 16 (2097152)
I0412 22:47:19.525622  7331 net.cpp:156] Memory required for data: 858786816
I0412 22:47:19.525629  7331 layer_factory.hpp:77] Creating layer conv3_1a_sum
I0412 22:47:19.525637  7331 net.cpp:91] Creating Layer conv3_1a_sum
I0412 22:47:19.525641  7331 net.cpp:425] conv3_1a_sum <- conv3_1a
I0412 22:47:19.525647  7331 net.cpp:425] conv3_1a_sum <- conv2_sub
I0412 22:47:19.525655  7331 net.cpp:399] conv3_1a_sum -> conv3_1a_sum
I0412 22:47:19.525676  7331 net.cpp:141] Setting up conv3_1a_sum
I0412 22:47:19.525682  7331 net.cpp:148] Top shape: 256 32 16 16 (2097152)
I0412 22:47:19.525686  7331 net.cpp:156] Memory required for data: 867175424
I0412 22:47:19.525691  7331 layer_factory.hpp:77] Creating layer conv3_1a_relu
I0412 22:47:19.525699  7331 net.cpp:91] Creating Layer conv3_1a_relu
I0412 22:47:19.525704  7331 net.cpp:425] conv3_1a_relu <- conv3_1a_sum
I0412 22:47:19.525710  7331 net.cpp:386] conv3_1a_relu -> conv3_1a_sum (in-place)
I0412 22:47:19.525966  7331 net.cpp:141] Setting up conv3_1a_relu
I0412 22:47:19.525979  7331 net.cpp:148] Top shape: 256 32 16 16 (2097152)
I0412 22:47:19.525985  7331 net.cpp:156] Memory required for data: 875564032
I0412 22:47:19.525990  7331 layer_factory.hpp:77] Creating layer conv3_1a_sum_conv3_1a_relu_0_split
I0412 22:47:19.526005  7331 net.cpp:91] Creating Layer conv3_1a_sum_conv3_1a_relu_0_split
I0412 22:47:19.526010  7331 net.cpp:425] conv3_1a_sum_conv3_1a_relu_0_split <- conv3_1a_sum
I0412 22:47:19.526016  7331 net.cpp:399] conv3_1a_sum_conv3_1a_relu_0_split -> conv3_1a_sum_conv3_1a_relu_0_split_0
I0412 22:47:19.526024  7331 net.cpp:399] conv3_1a_sum_conv3_1a_relu_0_split -> conv3_1a_sum_conv3_1a_relu_0_split_1
I0412 22:47:19.526065  7331 net.cpp:141] Setting up conv3_1a_sum_conv3_1a_relu_0_split
I0412 22:47:19.526072  7331 net.cpp:148] Top shape: 256 32 16 16 (2097152)
I0412 22:47:19.526077  7331 net.cpp:148] Top shape: 256 32 16 16 (2097152)
I0412 22:47:19.526082  7331 net.cpp:156] Memory required for data: 892341248
I0412 22:47:19.526087  7331 layer_factory.hpp:77] Creating layer conv3_1b
I0412 22:47:19.526098  7331 net.cpp:91] Creating Layer conv3_1b
I0412 22:47:19.526103  7331 net.cpp:425] conv3_1b <- conv3_1a_sum_conv3_1a_relu_0_split_0
I0412 22:47:19.526110  7331 net.cpp:399] conv3_1b -> conv3_1b
I0412 22:47:19.527786  7331 net.cpp:141] Setting up conv3_1b
I0412 22:47:19.527801  7331 net.cpp:148] Top shape: 256 32 16 16 (2097152)
I0412 22:47:19.527806  7331 net.cpp:156] Memory required for data: 900729856
I0412 22:47:19.527827  7331 layer_factory.hpp:77] Creating layer bn_conv3_1b
I0412 22:47:19.527837  7331 net.cpp:91] Creating Layer bn_conv3_1b
I0412 22:47:19.527842  7331 net.cpp:425] bn_conv3_1b <- conv3_1b
I0412 22:47:19.527848  7331 net.cpp:386] bn_conv3_1b -> conv3_1b (in-place)
I0412 22:47:19.528017  7331 net.cpp:141] Setting up bn_conv3_1b
I0412 22:47:19.528024  7331 net.cpp:148] Top shape: 256 32 16 16 (2097152)
I0412 22:47:19.528028  7331 net.cpp:156] Memory required for data: 909118464
I0412 22:47:19.528038  7331 layer_factory.hpp:77] Creating layer scale_conv3_1b
I0412 22:47:19.528045  7331 net.cpp:91] Creating Layer scale_conv3_1b
I0412 22:47:19.528050  7331 net.cpp:425] scale_conv3_1b <- conv3_1b
I0412 22:47:19.528056  7331 net.cpp:386] scale_conv3_1b -> conv3_1b (in-place)
I0412 22:47:19.528090  7331 layer_factory.hpp:77] Creating layer scale_conv3_1b
I0412 22:47:19.528192  7331 net.cpp:141] Setting up scale_conv3_1b
I0412 22:47:19.528198  7331 net.cpp:148] Top shape: 256 32 16 16 (2097152)
I0412 22:47:19.528203  7331 net.cpp:156] Memory required for data: 917507072
I0412 22:47:19.528209  7331 layer_factory.hpp:77] Creating layer conv3_1
I0412 22:47:19.528216  7331 net.cpp:91] Creating Layer conv3_1
I0412 22:47:19.528221  7331 net.cpp:425] conv3_1 <- conv3_1a_sum_conv3_1a_relu_0_split_1
I0412 22:47:19.528228  7331 net.cpp:425] conv3_1 <- conv3_1b
I0412 22:47:19.528237  7331 net.cpp:399] conv3_1 -> conv3_1
I0412 22:47:19.528256  7331 net.cpp:141] Setting up conv3_1
I0412 22:47:19.528264  7331 net.cpp:148] Top shape: 256 32 16 16 (2097152)
I0412 22:47:19.528270  7331 net.cpp:156] Memory required for data: 925895680
I0412 22:47:19.528273  7331 layer_factory.hpp:77] Creating layer conv3_1_relu
I0412 22:47:19.528280  7331 net.cpp:91] Creating Layer conv3_1_relu
I0412 22:47:19.528285  7331 net.cpp:425] conv3_1_relu <- conv3_1
I0412 22:47:19.528290  7331 net.cpp:386] conv3_1_relu -> conv3_1 (in-place)
I0412 22:47:19.528446  7331 net.cpp:141] Setting up conv3_1_relu
I0412 22:47:19.528456  7331 net.cpp:148] Top shape: 256 32 16 16 (2097152)
I0412 22:47:19.528460  7331 net.cpp:156] Memory required for data: 934284288
I0412 22:47:19.528465  7331 layer_factory.hpp:77] Creating layer conv3_1_conv3_1_relu_0_split
I0412 22:47:19.528471  7331 net.cpp:91] Creating Layer conv3_1_conv3_1_relu_0_split
I0412 22:47:19.528475  7331 net.cpp:425] conv3_1_conv3_1_relu_0_split <- conv3_1
I0412 22:47:19.528484  7331 net.cpp:399] conv3_1_conv3_1_relu_0_split -> conv3_1_conv3_1_relu_0_split_0
I0412 22:47:19.528491  7331 net.cpp:399] conv3_1_conv3_1_relu_0_split -> conv3_1_conv3_1_relu_0_split_1
I0412 22:47:19.528530  7331 net.cpp:141] Setting up conv3_1_conv3_1_relu_0_split
I0412 22:47:19.528537  7331 net.cpp:148] Top shape: 256 32 16 16 (2097152)
I0412 22:47:19.528542  7331 net.cpp:148] Top shape: 256 32 16 16 (2097152)
I0412 22:47:19.528551  7331 net.cpp:156] Memory required for data: 951061504
I0412 22:47:19.528555  7331 layer_factory.hpp:77] Creating layer conv3_2a
I0412 22:47:19.528568  7331 net.cpp:91] Creating Layer conv3_2a
I0412 22:47:19.528573  7331 net.cpp:425] conv3_2a <- conv3_1_conv3_1_relu_0_split_0
I0412 22:47:19.528581  7331 net.cpp:399] conv3_2a -> conv3_2a
I0412 22:47:19.529820  7331 net.cpp:141] Setting up conv3_2a
I0412 22:47:19.529836  7331 net.cpp:148] Top shape: 256 32 16 16 (2097152)
I0412 22:47:19.529841  7331 net.cpp:156] Memory required for data: 959450112
I0412 22:47:19.529850  7331 layer_factory.hpp:77] Creating layer bn_conv3_2a
I0412 22:47:19.529858  7331 net.cpp:91] Creating Layer bn_conv3_2a
I0412 22:47:19.529865  7331 net.cpp:425] bn_conv3_2a <- conv3_2a
I0412 22:47:19.529872  7331 net.cpp:386] bn_conv3_2a -> conv3_2a (in-place)
I0412 22:47:19.530099  7331 net.cpp:141] Setting up bn_conv3_2a
I0412 22:47:19.530107  7331 net.cpp:148] Top shape: 256 32 16 16 (2097152)
I0412 22:47:19.530112  7331 net.cpp:156] Memory required for data: 967838720
I0412 22:47:19.530122  7331 layer_factory.hpp:77] Creating layer scale_conv3_2a
I0412 22:47:19.530130  7331 net.cpp:91] Creating Layer scale_conv3_2a
I0412 22:47:19.530135  7331 net.cpp:425] scale_conv3_2a <- conv3_2a
I0412 22:47:19.530143  7331 net.cpp:386] scale_conv3_2a -> conv3_2a (in-place)
I0412 22:47:19.530176  7331 layer_factory.hpp:77] Creating layer scale_conv3_2a
I0412 22:47:19.530287  7331 net.cpp:141] Setting up scale_conv3_2a
I0412 22:47:19.530295  7331 net.cpp:148] Top shape: 256 32 16 16 (2097152)
I0412 22:47:19.530299  7331 net.cpp:156] Memory required for data: 976227328
I0412 22:47:19.530308  7331 layer_factory.hpp:77] Creating layer conv3_2a_sum
I0412 22:47:19.530313  7331 net.cpp:91] Creating Layer conv3_2a_sum
I0412 22:47:19.530318  7331 net.cpp:425] conv3_2a_sum <- conv3_1_conv3_1_relu_0_split_1
I0412 22:47:19.530324  7331 net.cpp:425] conv3_2a_sum <- conv3_2a
I0412 22:47:19.530333  7331 net.cpp:399] conv3_2a_sum -> conv3_2a_sum
I0412 22:47:19.530354  7331 net.cpp:141] Setting up conv3_2a_sum
I0412 22:47:19.530360  7331 net.cpp:148] Top shape: 256 32 16 16 (2097152)
I0412 22:47:19.530378  7331 net.cpp:156] Memory required for data: 984615936
I0412 22:47:19.530382  7331 layer_factory.hpp:77] Creating layer conv3_2a_relu
I0412 22:47:19.530401  7331 net.cpp:91] Creating Layer conv3_2a_relu
I0412 22:47:19.530406  7331 net.cpp:425] conv3_2a_relu <- conv3_2a_sum
I0412 22:47:19.530411  7331 net.cpp:386] conv3_2a_relu -> conv3_2a_sum (in-place)
I0412 22:47:19.530575  7331 net.cpp:141] Setting up conv3_2a_relu
I0412 22:47:19.530585  7331 net.cpp:148] Top shape: 256 32 16 16 (2097152)
I0412 22:47:19.530589  7331 net.cpp:156] Memory required for data: 993004544
I0412 22:47:19.530594  7331 layer_factory.hpp:77] Creating layer conv3_2a_sum_conv3_2a_relu_0_split
I0412 22:47:19.530601  7331 net.cpp:91] Creating Layer conv3_2a_sum_conv3_2a_relu_0_split
I0412 22:47:19.530606  7331 net.cpp:425] conv3_2a_sum_conv3_2a_relu_0_split <- conv3_2a_sum
I0412 22:47:19.530616  7331 net.cpp:399] conv3_2a_sum_conv3_2a_relu_0_split -> conv3_2a_sum_conv3_2a_relu_0_split_0
I0412 22:47:19.530623  7331 net.cpp:399] conv3_2a_sum_conv3_2a_relu_0_split -> conv3_2a_sum_conv3_2a_relu_0_split_1
I0412 22:47:19.530661  7331 net.cpp:141] Setting up conv3_2a_sum_conv3_2a_relu_0_split
I0412 22:47:19.530670  7331 net.cpp:148] Top shape: 256 32 16 16 (2097152)
I0412 22:47:19.530675  7331 net.cpp:148] Top shape: 256 32 16 16 (2097152)
I0412 22:47:19.530679  7331 net.cpp:156] Memory required for data: 1009781760
I0412 22:47:19.530684  7331 layer_factory.hpp:77] Creating layer conv3_2b
I0412 22:47:19.530704  7331 net.cpp:91] Creating Layer conv3_2b
I0412 22:47:19.530710  7331 net.cpp:425] conv3_2b <- conv3_2a_sum_conv3_2a_relu_0_split_0
I0412 22:47:19.530717  7331 net.cpp:399] conv3_2b -> conv3_2b
I0412 22:47:19.532552  7331 net.cpp:141] Setting up conv3_2b
I0412 22:47:19.532572  7331 net.cpp:148] Top shape: 256 32 16 16 (2097152)
I0412 22:47:19.532577  7331 net.cpp:156] Memory required for data: 1018170368
I0412 22:47:19.532595  7331 layer_factory.hpp:77] Creating layer bn_conv3_2b
I0412 22:47:19.532618  7331 net.cpp:91] Creating Layer bn_conv3_2b
I0412 22:47:19.532629  7331 net.cpp:425] bn_conv3_2b <- conv3_2b
I0412 22:47:19.532636  7331 net.cpp:386] bn_conv3_2b -> conv3_2b (in-place)
I0412 22:47:19.532878  7331 net.cpp:141] Setting up bn_conv3_2b
I0412 22:47:19.532887  7331 net.cpp:148] Top shape: 256 32 16 16 (2097152)
I0412 22:47:19.532891  7331 net.cpp:156] Memory required for data: 1026558976
I0412 22:47:19.532903  7331 layer_factory.hpp:77] Creating layer scale_conv3_2b
I0412 22:47:19.532912  7331 net.cpp:91] Creating Layer scale_conv3_2b
I0412 22:47:19.532922  7331 net.cpp:425] scale_conv3_2b <- conv3_2b
I0412 22:47:19.532929  7331 net.cpp:386] scale_conv3_2b -> conv3_2b (in-place)
I0412 22:47:19.532989  7331 layer_factory.hpp:77] Creating layer scale_conv3_2b
I0412 22:47:19.533141  7331 net.cpp:141] Setting up scale_conv3_2b
I0412 22:47:19.533151  7331 net.cpp:148] Top shape: 256 32 16 16 (2097152)
I0412 22:47:19.533155  7331 net.cpp:156] Memory required for data: 1034947584
I0412 22:47:19.533162  7331 layer_factory.hpp:77] Creating layer conv3_2
I0412 22:47:19.533169  7331 net.cpp:91] Creating Layer conv3_2
I0412 22:47:19.533174  7331 net.cpp:425] conv3_2 <- conv3_2a_sum_conv3_2a_relu_0_split_1
I0412 22:47:19.533179  7331 net.cpp:425] conv3_2 <- conv3_2b
I0412 22:47:19.533187  7331 net.cpp:399] conv3_2 -> conv3_2
I0412 22:47:19.533212  7331 net.cpp:141] Setting up conv3_2
I0412 22:47:19.533221  7331 net.cpp:148] Top shape: 256 32 16 16 (2097152)
I0412 22:47:19.533226  7331 net.cpp:156] Memory required for data: 1043336192
I0412 22:47:19.533236  7331 layer_factory.hpp:77] Creating layer conv3_2_relu
I0412 22:47:19.533241  7331 net.cpp:91] Creating Layer conv3_2_relu
I0412 22:47:19.533246  7331 net.cpp:425] conv3_2_relu <- conv3_2
I0412 22:47:19.533257  7331 net.cpp:386] conv3_2_relu -> conv3_2 (in-place)
I0412 22:47:19.533908  7331 net.cpp:141] Setting up conv3_2_relu
I0412 22:47:19.533922  7331 net.cpp:148] Top shape: 256 32 16 16 (2097152)
I0412 22:47:19.533926  7331 net.cpp:156] Memory required for data: 1051724800
I0412 22:47:19.533931  7331 layer_factory.hpp:77] Creating layer conv3_2_conv3_2_relu_0_split
I0412 22:47:19.533938  7331 net.cpp:91] Creating Layer conv3_2_conv3_2_relu_0_split
I0412 22:47:19.533943  7331 net.cpp:425] conv3_2_conv3_2_relu_0_split <- conv3_2
I0412 22:47:19.533951  7331 net.cpp:399] conv3_2_conv3_2_relu_0_split -> conv3_2_conv3_2_relu_0_split_0
I0412 22:47:19.533958  7331 net.cpp:399] conv3_2_conv3_2_relu_0_split -> conv3_2_conv3_2_relu_0_split_1
I0412 22:47:19.534018  7331 net.cpp:141] Setting up conv3_2_conv3_2_relu_0_split
I0412 22:47:19.534037  7331 net.cpp:148] Top shape: 256 32 16 16 (2097152)
I0412 22:47:19.534044  7331 net.cpp:148] Top shape: 256 32 16 16 (2097152)
I0412 22:47:19.534047  7331 net.cpp:156] Memory required for data: 1068502016
I0412 22:47:19.534057  7331 layer_factory.hpp:77] Creating layer conv3_3a
I0412 22:47:19.534076  7331 net.cpp:91] Creating Layer conv3_3a
I0412 22:47:19.534081  7331 net.cpp:425] conv3_3a <- conv3_2_conv3_2_relu_0_split_0
I0412 22:47:19.534090  7331 net.cpp:399] conv3_3a -> conv3_3a
I0412 22:47:19.536118  7331 net.cpp:141] Setting up conv3_3a
I0412 22:47:19.536137  7331 net.cpp:148] Top shape: 256 32 16 16 (2097152)
I0412 22:47:19.536142  7331 net.cpp:156] Memory required for data: 1076890624
I0412 22:47:19.536155  7331 layer_factory.hpp:77] Creating layer bn_conv3_3a
I0412 22:47:19.536164  7331 net.cpp:91] Creating Layer bn_conv3_3a
I0412 22:47:19.536170  7331 net.cpp:425] bn_conv3_3a <- conv3_3a
I0412 22:47:19.536176  7331 net.cpp:386] bn_conv3_3a -> conv3_3a (in-place)
I0412 22:47:19.536399  7331 net.cpp:141] Setting up bn_conv3_3a
I0412 22:47:19.536407  7331 net.cpp:148] Top shape: 256 32 16 16 (2097152)
I0412 22:47:19.536412  7331 net.cpp:156] Memory required for data: 1085279232
I0412 22:47:19.536424  7331 layer_factory.hpp:77] Creating layer scale_conv3_3a
I0412 22:47:19.536432  7331 net.cpp:91] Creating Layer scale_conv3_3a
I0412 22:47:19.536448  7331 net.cpp:425] scale_conv3_3a <- conv3_3a
I0412 22:47:19.536454  7331 net.cpp:386] scale_conv3_3a -> conv3_3a (in-place)
I0412 22:47:19.536509  7331 layer_factory.hpp:77] Creating layer scale_conv3_3a
I0412 22:47:19.536626  7331 net.cpp:141] Setting up scale_conv3_3a
I0412 22:47:19.536634  7331 net.cpp:148] Top shape: 256 32 16 16 (2097152)
I0412 22:47:19.536638  7331 net.cpp:156] Memory required for data: 1093667840
I0412 22:47:19.536648  7331 layer_factory.hpp:77] Creating layer conv3_3a_sum
I0412 22:47:19.536656  7331 net.cpp:91] Creating Layer conv3_3a_sum
I0412 22:47:19.536669  7331 net.cpp:425] conv3_3a_sum <- conv3_2_conv3_2_relu_0_split_1
I0412 22:47:19.536674  7331 net.cpp:425] conv3_3a_sum <- conv3_3a
I0412 22:47:19.536681  7331 net.cpp:399] conv3_3a_sum -> conv3_3a_sum
I0412 22:47:19.536710  7331 net.cpp:141] Setting up conv3_3a_sum
I0412 22:47:19.536716  7331 net.cpp:148] Top shape: 256 32 16 16 (2097152)
I0412 22:47:19.536720  7331 net.cpp:156] Memory required for data: 1102056448
I0412 22:47:19.536725  7331 layer_factory.hpp:77] Creating layer conv3_3a_relu
I0412 22:47:19.536739  7331 net.cpp:91] Creating Layer conv3_3a_relu
I0412 22:47:19.536744  7331 net.cpp:425] conv3_3a_relu <- conv3_3a_sum
I0412 22:47:19.536756  7331 net.cpp:386] conv3_3a_relu -> conv3_3a_sum (in-place)
I0412 22:47:19.536963  7331 net.cpp:141] Setting up conv3_3a_relu
I0412 22:47:19.536980  7331 net.cpp:148] Top shape: 256 32 16 16 (2097152)
I0412 22:47:19.536985  7331 net.cpp:156] Memory required for data: 1110445056
I0412 22:47:19.536990  7331 layer_factory.hpp:77] Creating layer conv3_3a_sum_conv3_3a_relu_0_split
I0412 22:47:19.537001  7331 net.cpp:91] Creating Layer conv3_3a_sum_conv3_3a_relu_0_split
I0412 22:47:19.537005  7331 net.cpp:425] conv3_3a_sum_conv3_3a_relu_0_split <- conv3_3a_sum
I0412 22:47:19.537011  7331 net.cpp:399] conv3_3a_sum_conv3_3a_relu_0_split -> conv3_3a_sum_conv3_3a_relu_0_split_0
I0412 22:47:19.537024  7331 net.cpp:399] conv3_3a_sum_conv3_3a_relu_0_split -> conv3_3a_sum_conv3_3a_relu_0_split_1
I0412 22:47:19.537073  7331 net.cpp:141] Setting up conv3_3a_sum_conv3_3a_relu_0_split
I0412 22:47:19.537081  7331 net.cpp:148] Top shape: 256 32 16 16 (2097152)
I0412 22:47:19.537091  7331 net.cpp:148] Top shape: 256 32 16 16 (2097152)
I0412 22:47:19.537094  7331 net.cpp:156] Memory required for data: 1127222272
I0412 22:47:19.537099  7331 layer_factory.hpp:77] Creating layer conv3_3b
I0412 22:47:19.537137  7331 net.cpp:91] Creating Layer conv3_3b
I0412 22:47:19.537144  7331 net.cpp:425] conv3_3b <- conv3_3a_sum_conv3_3a_relu_0_split_0
I0412 22:47:19.537161  7331 net.cpp:399] conv3_3b -> conv3_3b
I0412 22:47:19.539170  7331 net.cpp:141] Setting up conv3_3b
I0412 22:47:19.539183  7331 net.cpp:148] Top shape: 256 32 16 16 (2097152)
I0412 22:47:19.539188  7331 net.cpp:156] Memory required for data: 1135610880
I0412 22:47:19.539196  7331 layer_factory.hpp:77] Creating layer bn_conv3_3b
I0412 22:47:19.539209  7331 net.cpp:91] Creating Layer bn_conv3_3b
I0412 22:47:19.539216  7331 net.cpp:425] bn_conv3_3b <- conv3_3b
I0412 22:47:19.539222  7331 net.cpp:386] bn_conv3_3b -> conv3_3b (in-place)
I0412 22:47:19.539458  7331 net.cpp:141] Setting up bn_conv3_3b
I0412 22:47:19.539465  7331 net.cpp:148] Top shape: 256 32 16 16 (2097152)
I0412 22:47:19.539475  7331 net.cpp:156] Memory required for data: 1143999488
I0412 22:47:19.539484  7331 layer_factory.hpp:77] Creating layer scale_conv3_3b
I0412 22:47:19.539499  7331 net.cpp:91] Creating Layer scale_conv3_3b
I0412 22:47:19.539504  7331 net.cpp:425] scale_conv3_3b <- conv3_3b
I0412 22:47:19.539510  7331 net.cpp:386] scale_conv3_3b -> conv3_3b (in-place)
I0412 22:47:19.539554  7331 layer_factory.hpp:77] Creating layer scale_conv3_3b
I0412 22:47:19.539669  7331 net.cpp:141] Setting up scale_conv3_3b
I0412 22:47:19.539685  7331 net.cpp:148] Top shape: 256 32 16 16 (2097152)
I0412 22:47:19.539688  7331 net.cpp:156] Memory required for data: 1152388096
I0412 22:47:19.539700  7331 layer_factory.hpp:77] Creating layer conv3_3
I0412 22:47:19.539710  7331 net.cpp:91] Creating Layer conv3_3
I0412 22:47:19.539719  7331 net.cpp:425] conv3_3 <- conv3_3b
I0412 22:47:19.539726  7331 net.cpp:425] conv3_3 <- conv3_3a_sum_conv3_3a_relu_0_split_1
I0412 22:47:19.539736  7331 net.cpp:399] conv3_3 -> conv3_3
I0412 22:47:19.539770  7331 net.cpp:141] Setting up conv3_3
I0412 22:47:19.539778  7331 net.cpp:148] Top shape: 256 32 16 16 (2097152)
I0412 22:47:19.539788  7331 net.cpp:156] Memory required for data: 1160776704
I0412 22:47:19.539793  7331 layer_factory.hpp:77] Creating layer conv3_3_relu
I0412 22:47:19.539799  7331 net.cpp:91] Creating Layer conv3_3_relu
I0412 22:47:19.539811  7331 net.cpp:425] conv3_3_relu <- conv3_3
I0412 22:47:19.539818  7331 net.cpp:386] conv3_3_relu -> conv3_3 (in-place)
I0412 22:47:19.540047  7331 net.cpp:141] Setting up conv3_3_relu
I0412 22:47:19.540062  7331 net.cpp:148] Top shape: 256 32 16 16 (2097152)
I0412 22:47:19.540067  7331 net.cpp:156] Memory required for data: 1169165312
I0412 22:47:19.540076  7331 layer_factory.hpp:77] Creating layer conv3_3_conv3_3_relu_0_split
I0412 22:47:19.540082  7331 net.cpp:91] Creating Layer conv3_3_conv3_3_relu_0_split
I0412 22:47:19.540087  7331 net.cpp:425] conv3_3_conv3_3_relu_0_split <- conv3_3
I0412 22:47:19.540101  7331 net.cpp:399] conv3_3_conv3_3_relu_0_split -> conv3_3_conv3_3_relu_0_split_0
I0412 22:47:19.540108  7331 net.cpp:399] conv3_3_conv3_3_relu_0_split -> conv3_3_conv3_3_relu_0_split_1
I0412 22:47:19.540158  7331 net.cpp:141] Setting up conv3_3_conv3_3_relu_0_split
I0412 22:47:19.540172  7331 net.cpp:148] Top shape: 256 32 16 16 (2097152)
I0412 22:47:19.540177  7331 net.cpp:148] Top shape: 256 32 16 16 (2097152)
I0412 22:47:19.540185  7331 net.cpp:156] Memory required for data: 1185942528
I0412 22:47:19.540189  7331 layer_factory.hpp:77] Creating layer conv3_sub
I0412 22:47:19.540210  7331 net.cpp:91] Creating Layer conv3_sub
I0412 22:47:19.540215  7331 net.cpp:425] conv3_sub <- conv3_3_conv3_3_relu_0_split_0
I0412 22:47:19.540221  7331 net.cpp:399] conv3_sub -> conv3_sub
I0412 22:47:19.542203  7331 net.cpp:141] Setting up conv3_sub
I0412 22:47:19.542218  7331 net.cpp:148] Top shape: 256 64 8 8 (1048576)
I0412 22:47:19.542224  7331 net.cpp:156] Memory required for data: 1190136832
I0412 22:47:19.542232  7331 layer_factory.hpp:77] Creating layer bn_conv3_sub
I0412 22:47:19.542249  7331 net.cpp:91] Creating Layer bn_conv3_sub
I0412 22:47:19.542254  7331 net.cpp:425] bn_conv3_sub <- conv3_sub
I0412 22:47:19.542261  7331 net.cpp:386] bn_conv3_sub -> conv3_sub (in-place)
I0412 22:47:19.542507  7331 net.cpp:141] Setting up bn_conv3_sub
I0412 22:47:19.542515  7331 net.cpp:148] Top shape: 256 64 8 8 (1048576)
I0412 22:47:19.542520  7331 net.cpp:156] Memory required for data: 1194331136
I0412 22:47:19.542532  7331 layer_factory.hpp:77] Creating layer scale_conv3_sub
I0412 22:47:19.542539  7331 net.cpp:91] Creating Layer scale_conv3_sub
I0412 22:47:19.542544  7331 net.cpp:425] scale_conv3_sub <- conv3_sub
I0412 22:47:19.542556  7331 net.cpp:386] scale_conv3_sub -> conv3_sub (in-place)
I0412 22:47:19.542593  7331 layer_factory.hpp:77] Creating layer scale_conv3_sub
I0412 22:47:19.542724  7331 net.cpp:141] Setting up scale_conv3_sub
I0412 22:47:19.542737  7331 net.cpp:148] Top shape: 256 64 8 8 (1048576)
I0412 22:47:19.542742  7331 net.cpp:156] Memory required for data: 1198525440
I0412 22:47:19.542753  7331 layer_factory.hpp:77] Creating layer conv4_1a
I0412 22:47:19.542764  7331 net.cpp:91] Creating Layer conv4_1a
I0412 22:47:19.542774  7331 net.cpp:425] conv4_1a <- conv3_3_conv3_3_relu_0_split_1
I0412 22:47:19.542783  7331 net.cpp:399] conv4_1a -> conv4_1a
I0412 22:47:19.544471  7331 net.cpp:141] Setting up conv4_1a
I0412 22:47:19.544484  7331 net.cpp:148] Top shape: 256 64 8 8 (1048576)
I0412 22:47:19.544489  7331 net.cpp:156] Memory required for data: 1202719744
I0412 22:47:19.544497  7331 layer_factory.hpp:77] Creating layer bn_conv4_1a
I0412 22:47:19.544512  7331 net.cpp:91] Creating Layer bn_conv4_1a
I0412 22:47:19.544517  7331 net.cpp:425] bn_conv4_1a <- conv4_1a
I0412 22:47:19.544534  7331 net.cpp:386] bn_conv4_1a -> conv4_1a (in-place)
I0412 22:47:19.544809  7331 net.cpp:141] Setting up bn_conv4_1a
I0412 22:47:19.544817  7331 net.cpp:148] Top shape: 256 64 8 8 (1048576)
I0412 22:47:19.544822  7331 net.cpp:156] Memory required for data: 1206914048
I0412 22:47:19.544829  7331 layer_factory.hpp:77] Creating layer scale_conv4_1a
I0412 22:47:19.544838  7331 net.cpp:91] Creating Layer scale_conv4_1a
I0412 22:47:19.544843  7331 net.cpp:425] scale_conv4_1a <- conv4_1a
I0412 22:47:19.544849  7331 net.cpp:386] scale_conv4_1a -> conv4_1a (in-place)
I0412 22:47:19.544890  7331 layer_factory.hpp:77] Creating layer scale_conv4_1a
I0412 22:47:19.545040  7331 net.cpp:141] Setting up scale_conv4_1a
I0412 22:47:19.545048  7331 net.cpp:148] Top shape: 256 64 8 8 (1048576)
I0412 22:47:19.545056  7331 net.cpp:156] Memory required for data: 1211108352
I0412 22:47:19.545063  7331 layer_factory.hpp:77] Creating layer conv4_1a_sum
I0412 22:47:19.545078  7331 net.cpp:91] Creating Layer conv4_1a_sum
I0412 22:47:19.545081  7331 net.cpp:425] conv4_1a_sum <- conv3_sub
I0412 22:47:19.545088  7331 net.cpp:425] conv4_1a_sum <- conv4_1a
I0412 22:47:19.545104  7331 net.cpp:399] conv4_1a_sum -> conv4_1a_sum
I0412 22:47:19.545150  7331 net.cpp:141] Setting up conv4_1a_sum
I0412 22:47:19.545166  7331 net.cpp:148] Top shape: 256 64 8 8 (1048576)
I0412 22:47:19.545169  7331 net.cpp:156] Memory required for data: 1215302656
I0412 22:47:19.545174  7331 layer_factory.hpp:77] Creating layer conv4_1a_relu
I0412 22:47:19.545188  7331 net.cpp:91] Creating Layer conv4_1a_relu
I0412 22:47:19.545193  7331 net.cpp:425] conv4_1a_relu <- conv4_1a_sum
I0412 22:47:19.545202  7331 net.cpp:386] conv4_1a_relu -> conv4_1a_sum (in-place)
I0412 22:47:19.545779  7331 net.cpp:141] Setting up conv4_1a_relu
I0412 22:47:19.545799  7331 net.cpp:148] Top shape: 256 64 8 8 (1048576)
I0412 22:47:19.545809  7331 net.cpp:156] Memory required for data: 1219496960
I0412 22:47:19.545814  7331 layer_factory.hpp:77] Creating layer conv4_1a_sum_conv4_1a_relu_0_split
I0412 22:47:19.545820  7331 net.cpp:91] Creating Layer conv4_1a_sum_conv4_1a_relu_0_split
I0412 22:47:19.545836  7331 net.cpp:425] conv4_1a_sum_conv4_1a_relu_0_split <- conv4_1a_sum
I0412 22:47:19.545845  7331 net.cpp:399] conv4_1a_sum_conv4_1a_relu_0_split -> conv4_1a_sum_conv4_1a_relu_0_split_0
I0412 22:47:19.545861  7331 net.cpp:399] conv4_1a_sum_conv4_1a_relu_0_split -> conv4_1a_sum_conv4_1a_relu_0_split_1
I0412 22:47:19.545924  7331 net.cpp:141] Setting up conv4_1a_sum_conv4_1a_relu_0_split
I0412 22:47:19.545933  7331 net.cpp:148] Top shape: 256 64 8 8 (1048576)
I0412 22:47:19.545943  7331 net.cpp:148] Top shape: 256 64 8 8 (1048576)
I0412 22:47:19.545946  7331 net.cpp:156] Memory required for data: 1227885568
I0412 22:47:19.545951  7331 layer_factory.hpp:77] Creating layer conv4_1b
I0412 22:47:19.545964  7331 net.cpp:91] Creating Layer conv4_1b
I0412 22:47:19.545969  7331 net.cpp:425] conv4_1b <- conv4_1a_sum_conv4_1a_relu_0_split_0
I0412 22:47:19.545976  7331 net.cpp:399] conv4_1b -> conv4_1b
I0412 22:47:19.549254  7331 net.cpp:141] Setting up conv4_1b
I0412 22:47:19.549273  7331 net.cpp:148] Top shape: 256 64 8 8 (1048576)
I0412 22:47:19.549278  7331 net.cpp:156] Memory required for data: 1232079872
I0412 22:47:19.549286  7331 layer_factory.hpp:77] Creating layer bn_conv4_1b
I0412 22:47:19.549295  7331 net.cpp:91] Creating Layer bn_conv4_1b
I0412 22:47:19.549300  7331 net.cpp:425] bn_conv4_1b <- conv4_1b
I0412 22:47:19.549309  7331 net.cpp:386] bn_conv4_1b -> conv4_1b (in-place)
I0412 22:47:19.549513  7331 net.cpp:141] Setting up bn_conv4_1b
I0412 22:47:19.549521  7331 net.cpp:148] Top shape: 256 64 8 8 (1048576)
I0412 22:47:19.549525  7331 net.cpp:156] Memory required for data: 1236274176
I0412 22:47:19.549533  7331 layer_factory.hpp:77] Creating layer scale_conv4_1b
I0412 22:47:19.549540  7331 net.cpp:91] Creating Layer scale_conv4_1b
I0412 22:47:19.549546  7331 net.cpp:425] scale_conv4_1b <- conv4_1b
I0412 22:47:19.549552  7331 net.cpp:386] scale_conv4_1b -> conv4_1b (in-place)
I0412 22:47:19.549592  7331 layer_factory.hpp:77] Creating layer scale_conv4_1b
I0412 22:47:19.549705  7331 net.cpp:141] Setting up scale_conv4_1b
I0412 22:47:19.549713  7331 net.cpp:148] Top shape: 256 64 8 8 (1048576)
I0412 22:47:19.549717  7331 net.cpp:156] Memory required for data: 1240468480
I0412 22:47:19.549724  7331 layer_factory.hpp:77] Creating layer conv4_1
I0412 22:47:19.549731  7331 net.cpp:91] Creating Layer conv4_1
I0412 22:47:19.549736  7331 net.cpp:425] conv4_1 <- conv4_1a_sum_conv4_1a_relu_0_split_1
I0412 22:47:19.549741  7331 net.cpp:425] conv4_1 <- conv4_1b
I0412 22:47:19.549747  7331 net.cpp:399] conv4_1 -> conv4_1
I0412 22:47:19.549769  7331 net.cpp:141] Setting up conv4_1
I0412 22:47:19.549777  7331 net.cpp:148] Top shape: 256 64 8 8 (1048576)
I0412 22:47:19.549782  7331 net.cpp:156] Memory required for data: 1244662784
I0412 22:47:19.549785  7331 layer_factory.hpp:77] Creating layer conv4_1_relu
I0412 22:47:19.549792  7331 net.cpp:91] Creating Layer conv4_1_relu
I0412 22:47:19.549798  7331 net.cpp:425] conv4_1_relu <- conv4_1
I0412 22:47:19.549803  7331 net.cpp:386] conv4_1_relu -> conv4_1 (in-place)
I0412 22:47:19.550066  7331 net.cpp:141] Setting up conv4_1_relu
I0412 22:47:19.550079  7331 net.cpp:148] Top shape: 256 64 8 8 (1048576)
I0412 22:47:19.550084  7331 net.cpp:156] Memory required for data: 1248857088
I0412 22:47:19.550088  7331 layer_factory.hpp:77] Creating layer conv4_1_conv4_1_relu_0_split
I0412 22:47:19.550096  7331 net.cpp:91] Creating Layer conv4_1_conv4_1_relu_0_split
I0412 22:47:19.550101  7331 net.cpp:425] conv4_1_conv4_1_relu_0_split <- conv4_1
I0412 22:47:19.550108  7331 net.cpp:399] conv4_1_conv4_1_relu_0_split -> conv4_1_conv4_1_relu_0_split_0
I0412 22:47:19.550117  7331 net.cpp:399] conv4_1_conv4_1_relu_0_split -> conv4_1_conv4_1_relu_0_split_1
I0412 22:47:19.550166  7331 net.cpp:141] Setting up conv4_1_conv4_1_relu_0_split
I0412 22:47:19.550173  7331 net.cpp:148] Top shape: 256 64 8 8 (1048576)
I0412 22:47:19.550181  7331 net.cpp:148] Top shape: 256 64 8 8 (1048576)
I0412 22:47:19.550185  7331 net.cpp:156] Memory required for data: 1257245696
I0412 22:47:19.550189  7331 layer_factory.hpp:77] Creating layer conv4_2a
I0412 22:47:19.550201  7331 net.cpp:91] Creating Layer conv4_2a
I0412 22:47:19.550206  7331 net.cpp:425] conv4_2a <- conv4_1_conv4_1_relu_0_split_0
I0412 22:47:19.550214  7331 net.cpp:399] conv4_2a -> conv4_2a
I0412 22:47:19.552180  7331 net.cpp:141] Setting up conv4_2a
I0412 22:47:19.552193  7331 net.cpp:148] Top shape: 256 64 8 8 (1048576)
I0412 22:47:19.552198  7331 net.cpp:156] Memory required for data: 1261440000
I0412 22:47:19.552206  7331 layer_factory.hpp:77] Creating layer bn_conv4_2a
I0412 22:47:19.552214  7331 net.cpp:91] Creating Layer bn_conv4_2a
I0412 22:47:19.552219  7331 net.cpp:425] bn_conv4_2a <- conv4_2a
I0412 22:47:19.552227  7331 net.cpp:386] bn_conv4_2a -> conv4_2a (in-place)
I0412 22:47:19.552434  7331 net.cpp:141] Setting up bn_conv4_2a
I0412 22:47:19.552443  7331 net.cpp:148] Top shape: 256 64 8 8 (1048576)
I0412 22:47:19.552448  7331 net.cpp:156] Memory required for data: 1265634304
I0412 22:47:19.552455  7331 layer_factory.hpp:77] Creating layer scale_conv4_2a
I0412 22:47:19.552464  7331 net.cpp:91] Creating Layer scale_conv4_2a
I0412 22:47:19.552467  7331 net.cpp:425] scale_conv4_2a <- conv4_2a
I0412 22:47:19.552475  7331 net.cpp:386] scale_conv4_2a -> conv4_2a (in-place)
I0412 22:47:19.552512  7331 layer_factory.hpp:77] Creating layer scale_conv4_2a
I0412 22:47:19.552637  7331 net.cpp:141] Setting up scale_conv4_2a
I0412 22:47:19.552645  7331 net.cpp:148] Top shape: 256 64 8 8 (1048576)
I0412 22:47:19.552649  7331 net.cpp:156] Memory required for data: 1269828608
I0412 22:47:19.552656  7331 layer_factory.hpp:77] Creating layer conv4_2a_sum
I0412 22:47:19.552662  7331 net.cpp:91] Creating Layer conv4_2a_sum
I0412 22:47:19.552667  7331 net.cpp:425] conv4_2a_sum <- conv4_1_conv4_1_relu_0_split_1
I0412 22:47:19.552672  7331 net.cpp:425] conv4_2a_sum <- conv4_2a
I0412 22:47:19.552680  7331 net.cpp:399] conv4_2a_sum -> conv4_2a_sum
I0412 22:47:19.552706  7331 net.cpp:141] Setting up conv4_2a_sum
I0412 22:47:19.552713  7331 net.cpp:148] Top shape: 256 64 8 8 (1048576)
I0412 22:47:19.552717  7331 net.cpp:156] Memory required for data: 1274022912
I0412 22:47:19.552721  7331 layer_factory.hpp:77] Creating layer conv4_2a_relu
I0412 22:47:19.552731  7331 net.cpp:91] Creating Layer conv4_2a_relu
I0412 22:47:19.552736  7331 net.cpp:425] conv4_2a_relu <- conv4_2a_sum
I0412 22:47:19.552742  7331 net.cpp:386] conv4_2a_relu -> conv4_2a_sum (in-place)
I0412 22:47:19.552904  7331 net.cpp:141] Setting up conv4_2a_relu
I0412 22:47:19.552916  7331 net.cpp:148] Top shape: 256 64 8 8 (1048576)
I0412 22:47:19.552919  7331 net.cpp:156] Memory required for data: 1278217216
I0412 22:47:19.552924  7331 layer_factory.hpp:77] Creating layer conv4_2a_sum_conv4_2a_relu_0_split
I0412 22:47:19.552930  7331 net.cpp:91] Creating Layer conv4_2a_sum_conv4_2a_relu_0_split
I0412 22:47:19.552935  7331 net.cpp:425] conv4_2a_sum_conv4_2a_relu_0_split <- conv4_2a_sum
I0412 22:47:19.552942  7331 net.cpp:399] conv4_2a_sum_conv4_2a_relu_0_split -> conv4_2a_sum_conv4_2a_relu_0_split_0
I0412 22:47:19.552950  7331 net.cpp:399] conv4_2a_sum_conv4_2a_relu_0_split -> conv4_2a_sum_conv4_2a_relu_0_split_1
I0412 22:47:19.552990  7331 net.cpp:141] Setting up conv4_2a_sum_conv4_2a_relu_0_split
I0412 22:47:19.552999  7331 net.cpp:148] Top shape: 256 64 8 8 (1048576)
I0412 22:47:19.553004  7331 net.cpp:148] Top shape: 256 64 8 8 (1048576)
I0412 22:47:19.553009  7331 net.cpp:156] Memory required for data: 1286605824
I0412 22:47:19.553012  7331 layer_factory.hpp:77] Creating layer conv4_2b
I0412 22:47:19.553026  7331 net.cpp:91] Creating Layer conv4_2b
I0412 22:47:19.553032  7331 net.cpp:425] conv4_2b <- conv4_2a_sum_conv4_2a_relu_0_split_0
I0412 22:47:19.553040  7331 net.cpp:399] conv4_2b -> conv4_2b
I0412 22:47:19.555085  7331 net.cpp:141] Setting up conv4_2b
I0412 22:47:19.555100  7331 net.cpp:148] Top shape: 256 64 8 8 (1048576)
I0412 22:47:19.555105  7331 net.cpp:156] Memory required for data: 1290800128
I0412 22:47:19.555112  7331 layer_factory.hpp:77] Creating layer bn_conv4_2b
I0412 22:47:19.555121  7331 net.cpp:91] Creating Layer bn_conv4_2b
I0412 22:47:19.555127  7331 net.cpp:425] bn_conv4_2b <- conv4_2b
I0412 22:47:19.555135  7331 net.cpp:386] bn_conv4_2b -> conv4_2b (in-place)
I0412 22:47:19.555322  7331 net.cpp:141] Setting up bn_conv4_2b
I0412 22:47:19.555331  7331 net.cpp:148] Top shape: 256 64 8 8 (1048576)
I0412 22:47:19.555335  7331 net.cpp:156] Memory required for data: 1294994432
I0412 22:47:19.555361  7331 layer_factory.hpp:77] Creating layer scale_conv4_2b
I0412 22:47:19.555369  7331 net.cpp:91] Creating Layer scale_conv4_2b
I0412 22:47:19.555374  7331 net.cpp:425] scale_conv4_2b <- conv4_2b
I0412 22:47:19.555380  7331 net.cpp:386] scale_conv4_2b -> conv4_2b (in-place)
I0412 22:47:19.555418  7331 layer_factory.hpp:77] Creating layer scale_conv4_2b
I0412 22:47:19.555528  7331 net.cpp:141] Setting up scale_conv4_2b
I0412 22:47:19.555536  7331 net.cpp:148] Top shape: 256 64 8 8 (1048576)
I0412 22:47:19.555541  7331 net.cpp:156] Memory required for data: 1299188736
I0412 22:47:19.555547  7331 layer_factory.hpp:77] Creating layer conv4_2
I0412 22:47:19.555553  7331 net.cpp:91] Creating Layer conv4_2
I0412 22:47:19.555558  7331 net.cpp:425] conv4_2 <- conv4_2a_sum_conv4_2a_relu_0_split_1
I0412 22:47:19.555563  7331 net.cpp:425] conv4_2 <- conv4_2b
I0412 22:47:19.555572  7331 net.cpp:399] conv4_2 -> conv4_2
I0412 22:47:19.555591  7331 net.cpp:141] Setting up conv4_2
I0412 22:47:19.555603  7331 net.cpp:148] Top shape: 256 64 8 8 (1048576)
I0412 22:47:19.555606  7331 net.cpp:156] Memory required for data: 1303383040
I0412 22:47:19.555611  7331 layer_factory.hpp:77] Creating layer conv4_2_relu
I0412 22:47:19.555618  7331 net.cpp:91] Creating Layer conv4_2_relu
I0412 22:47:19.555621  7331 net.cpp:425] conv4_2_relu <- conv4_2
I0412 22:47:19.555627  7331 net.cpp:386] conv4_2_relu -> conv4_2 (in-place)
I0412 22:47:19.555893  7331 net.cpp:141] Setting up conv4_2_relu
I0412 22:47:19.555907  7331 net.cpp:148] Top shape: 256 64 8 8 (1048576)
I0412 22:47:19.555915  7331 net.cpp:156] Memory required for data: 1307577344
I0412 22:47:19.555920  7331 layer_factory.hpp:77] Creating layer conv4_2_conv4_2_relu_0_split
I0412 22:47:19.555927  7331 net.cpp:91] Creating Layer conv4_2_conv4_2_relu_0_split
I0412 22:47:19.555932  7331 net.cpp:425] conv4_2_conv4_2_relu_0_split <- conv4_2
I0412 22:47:19.555938  7331 net.cpp:399] conv4_2_conv4_2_relu_0_split -> conv4_2_conv4_2_relu_0_split_0
I0412 22:47:19.555946  7331 net.cpp:399] conv4_2_conv4_2_relu_0_split -> conv4_2_conv4_2_relu_0_split_1
I0412 22:47:19.555991  7331 net.cpp:141] Setting up conv4_2_conv4_2_relu_0_split
I0412 22:47:19.555999  7331 net.cpp:148] Top shape: 256 64 8 8 (1048576)
I0412 22:47:19.556005  7331 net.cpp:148] Top shape: 256 64 8 8 (1048576)
I0412 22:47:19.556008  7331 net.cpp:156] Memory required for data: 1315965952
I0412 22:47:19.556012  7331 layer_factory.hpp:77] Creating layer conv4_3a
I0412 22:47:19.556025  7331 net.cpp:91] Creating Layer conv4_3a
I0412 22:47:19.556030  7331 net.cpp:425] conv4_3a <- conv4_2_conv4_2_relu_0_split_0
I0412 22:47:19.556037  7331 net.cpp:399] conv4_3a -> conv4_3a
I0412 22:47:19.557956  7331 net.cpp:141] Setting up conv4_3a
I0412 22:47:19.557971  7331 net.cpp:148] Top shape: 256 64 8 8 (1048576)
I0412 22:47:19.557976  7331 net.cpp:156] Memory required for data: 1320160256
I0412 22:47:19.557984  7331 layer_factory.hpp:77] Creating layer bn_conv4_3a
I0412 22:47:19.557993  7331 net.cpp:91] Creating Layer bn_conv4_3a
I0412 22:47:19.557999  7331 net.cpp:425] bn_conv4_3a <- conv4_3a
I0412 22:47:19.558006  7331 net.cpp:386] bn_conv4_3a -> conv4_3a (in-place)
I0412 22:47:19.558197  7331 net.cpp:141] Setting up bn_conv4_3a
I0412 22:47:19.558205  7331 net.cpp:148] Top shape: 256 64 8 8 (1048576)
I0412 22:47:19.558209  7331 net.cpp:156] Memory required for data: 1324354560
I0412 22:47:19.558218  7331 layer_factory.hpp:77] Creating layer scale_conv4_3a
I0412 22:47:19.558228  7331 net.cpp:91] Creating Layer scale_conv4_3a
I0412 22:47:19.558231  7331 net.cpp:425] scale_conv4_3a <- conv4_3a
I0412 22:47:19.558238  7331 net.cpp:386] scale_conv4_3a -> conv4_3a (in-place)
I0412 22:47:19.558275  7331 layer_factory.hpp:77] Creating layer scale_conv4_3a
I0412 22:47:19.558385  7331 net.cpp:141] Setting up scale_conv4_3a
I0412 22:47:19.558393  7331 net.cpp:148] Top shape: 256 64 8 8 (1048576)
I0412 22:47:19.558398  7331 net.cpp:156] Memory required for data: 1328548864
I0412 22:47:19.558404  7331 layer_factory.hpp:77] Creating layer conv4_3a_sum
I0412 22:47:19.558413  7331 net.cpp:91] Creating Layer conv4_3a_sum
I0412 22:47:19.558418  7331 net.cpp:425] conv4_3a_sum <- conv4_2_conv4_2_relu_0_split_1
I0412 22:47:19.558424  7331 net.cpp:425] conv4_3a_sum <- conv4_3a
I0412 22:47:19.558430  7331 net.cpp:399] conv4_3a_sum -> conv4_3a_sum
I0412 22:47:19.558452  7331 net.cpp:141] Setting up conv4_3a_sum
I0412 22:47:19.558459  7331 net.cpp:148] Top shape: 256 64 8 8 (1048576)
I0412 22:47:19.558464  7331 net.cpp:156] Memory required for data: 1332743168
I0412 22:47:19.558467  7331 layer_factory.hpp:77] Creating layer conv4_3a_relu
I0412 22:47:19.558475  7331 net.cpp:91] Creating Layer conv4_3a_relu
I0412 22:47:19.558478  7331 net.cpp:425] conv4_3a_relu <- conv4_3a_sum
I0412 22:47:19.558485  7331 net.cpp:386] conv4_3a_relu -> conv4_3a_sum (in-place)
I0412 22:47:19.558748  7331 net.cpp:141] Setting up conv4_3a_relu
I0412 22:47:19.558761  7331 net.cpp:148] Top shape: 256 64 8 8 (1048576)
I0412 22:47:19.558766  7331 net.cpp:156] Memory required for data: 1336937472
I0412 22:47:19.558771  7331 layer_factory.hpp:77] Creating layer conv4_3a_sum_conv4_3a_relu_0_split
I0412 22:47:19.558779  7331 net.cpp:91] Creating Layer conv4_3a_sum_conv4_3a_relu_0_split
I0412 22:47:19.558782  7331 net.cpp:425] conv4_3a_sum_conv4_3a_relu_0_split <- conv4_3a_sum
I0412 22:47:19.558791  7331 net.cpp:399] conv4_3a_sum_conv4_3a_relu_0_split -> conv4_3a_sum_conv4_3a_relu_0_split_0
I0412 22:47:19.558799  7331 net.cpp:399] conv4_3a_sum_conv4_3a_relu_0_split -> conv4_3a_sum_conv4_3a_relu_0_split_1
I0412 22:47:19.558846  7331 net.cpp:141] Setting up conv4_3a_sum_conv4_3a_relu_0_split
I0412 22:47:19.558853  7331 net.cpp:148] Top shape: 256 64 8 8 (1048576)
I0412 22:47:19.558859  7331 net.cpp:148] Top shape: 256 64 8 8 (1048576)
I0412 22:47:19.558863  7331 net.cpp:156] Memory required for data: 1345326080
I0412 22:47:19.558867  7331 layer_factory.hpp:77] Creating layer conv4_3b
I0412 22:47:19.558881  7331 net.cpp:91] Creating Layer conv4_3b
I0412 22:47:19.558886  7331 net.cpp:425] conv4_3b <- conv4_3a_sum_conv4_3a_relu_0_split_0
I0412 22:47:19.558892  7331 net.cpp:399] conv4_3b -> conv4_3b
I0412 22:47:19.560876  7331 net.cpp:141] Setting up conv4_3b
I0412 22:47:19.560891  7331 net.cpp:148] Top shape: 256 64 8 8 (1048576)
I0412 22:47:19.560897  7331 net.cpp:156] Memory required for data: 1349520384
I0412 22:47:19.560905  7331 layer_factory.hpp:77] Creating layer bn_conv4_3b
I0412 22:47:19.560912  7331 net.cpp:91] Creating Layer bn_conv4_3b
I0412 22:47:19.560917  7331 net.cpp:425] bn_conv4_3b <- conv4_3b
I0412 22:47:19.560926  7331 net.cpp:386] bn_conv4_3b -> conv4_3b (in-place)
I0412 22:47:19.561138  7331 net.cpp:141] Setting up bn_conv4_3b
I0412 22:47:19.561148  7331 net.cpp:148] Top shape: 256 64 8 8 (1048576)
I0412 22:47:19.561153  7331 net.cpp:156] Memory required for data: 1353714688
I0412 22:47:19.561162  7331 layer_factory.hpp:77] Creating layer scale_conv4_3b
I0412 22:47:19.561169  7331 net.cpp:91] Creating Layer scale_conv4_3b
I0412 22:47:19.561174  7331 net.cpp:425] scale_conv4_3b <- conv4_3b
I0412 22:47:19.561182  7331 net.cpp:386] scale_conv4_3b -> conv4_3b (in-place)
I0412 22:47:19.561218  7331 layer_factory.hpp:77] Creating layer scale_conv4_3b
I0412 22:47:19.561337  7331 net.cpp:141] Setting up scale_conv4_3b
I0412 22:47:19.561345  7331 net.cpp:148] Top shape: 256 64 8 8 (1048576)
I0412 22:47:19.561350  7331 net.cpp:156] Memory required for data: 1357908992
I0412 22:47:19.561357  7331 layer_factory.hpp:77] Creating layer conv4_3
I0412 22:47:19.561363  7331 net.cpp:91] Creating Layer conv4_3
I0412 22:47:19.561368  7331 net.cpp:425] conv4_3 <- conv4_3a_sum_conv4_3a_relu_0_split_1
I0412 22:47:19.561374  7331 net.cpp:425] conv4_3 <- conv4_3b
I0412 22:47:19.561380  7331 net.cpp:399] conv4_3 -> conv4_3
I0412 22:47:19.561405  7331 net.cpp:141] Setting up conv4_3
I0412 22:47:19.561414  7331 net.cpp:148] Top shape: 256 64 8 8 (1048576)
I0412 22:47:19.561417  7331 net.cpp:156] Memory required for data: 1362103296
I0412 22:47:19.561422  7331 layer_factory.hpp:77] Creating layer conv4_3_relu
I0412 22:47:19.561429  7331 net.cpp:91] Creating Layer conv4_3_relu
I0412 22:47:19.561436  7331 net.cpp:425] conv4_3_relu <- conv4_3
I0412 22:47:19.561442  7331 net.cpp:386] conv4_3_relu -> conv4_3 (in-place)
I0412 22:47:19.561617  7331 net.cpp:141] Setting up conv4_3_relu
I0412 22:47:19.561627  7331 net.cpp:148] Top shape: 256 64 8 8 (1048576)
I0412 22:47:19.561632  7331 net.cpp:156] Memory required for data: 1366297600
I0412 22:47:19.561636  7331 layer_factory.hpp:77] Creating layer global_pool
I0412 22:47:19.561646  7331 net.cpp:91] Creating Layer global_pool
I0412 22:47:19.561651  7331 net.cpp:425] global_pool <- conv4_3
I0412 22:47:19.561658  7331 net.cpp:399] global_pool -> global_pool
I0412 22:47:19.561955  7331 net.cpp:141] Setting up global_pool
I0412 22:47:19.561969  7331 net.cpp:148] Top shape: 256 64 1 1 (16384)
I0412 22:47:19.561974  7331 net.cpp:156] Memory required for data: 1366363136
I0412 22:47:19.561978  7331 layer_factory.hpp:77] Creating layer ip
I0412 22:47:19.561987  7331 net.cpp:91] Creating Layer ip
I0412 22:47:19.561992  7331 net.cpp:425] ip <- global_pool
I0412 22:47:19.562000  7331 net.cpp:399] ip -> ip
I0412 22:47:19.562116  7331 net.cpp:141] Setting up ip
I0412 22:47:19.562124  7331 net.cpp:148] Top shape: 256 10 (2560)
I0412 22:47:19.562129  7331 net.cpp:156] Memory required for data: 1366373376
I0412 22:47:19.562135  7331 layer_factory.hpp:77] Creating layer ip_ip_0_split
I0412 22:47:19.562144  7331 net.cpp:91] Creating Layer ip_ip_0_split
I0412 22:47:19.562150  7331 net.cpp:425] ip_ip_0_split <- ip
I0412 22:47:19.562160  7331 net.cpp:399] ip_ip_0_split -> ip_ip_0_split_0
I0412 22:47:19.562170  7331 net.cpp:399] ip_ip_0_split -> ip_ip_0_split_1
I0412 22:47:19.562202  7331 net.cpp:141] Setting up ip_ip_0_split
I0412 22:47:19.562209  7331 net.cpp:148] Top shape: 256 10 (2560)
I0412 22:47:19.562214  7331 net.cpp:148] Top shape: 256 10 (2560)
I0412 22:47:19.562218  7331 net.cpp:156] Memory required for data: 1366393856
I0412 22:47:19.562223  7331 layer_factory.hpp:77] Creating layer accuracy
I0412 22:47:19.562234  7331 net.cpp:91] Creating Layer accuracy
I0412 22:47:19.562238  7331 net.cpp:425] accuracy <- ip_ip_0_split_0
I0412 22:47:19.562244  7331 net.cpp:425] accuracy <- label_cifar_1_split_0
I0412 22:47:19.562252  7331 net.cpp:399] accuracy -> accuracy
…
I0412 22:47:19.565526  7331 solver.cpp:181] Creating test net (#0) specified by net file: prototxt/ResNet-cifar.prototxt
I0412 22:47:19.565651  7331 net.cpp:313] The NetState phase (1) differed from the phase (0) specified by a rule in layer cifar
I0412 22:47:19.566160  7331 net.cpp:49] Initializing net from parameters: 
name: "ResNet-cifar"
state {
  phase: TEST
}
layer {
  name: "cifar"
  type: "Data"
  top: "data"
  top: "label"
  include {
    phase: TEST
  }
  transform_param {
    mean_file: "data/cifar10/mean.binaryproto"
  }
  data_param {
    source: "data/cifar10/cifar10_test_lmdb"
    batch_size: 100
    backend: LMDB
  }
}
layer {
  name: "conv1"
  type: "Convolution"
  bottom: "data"
  top: "conv1"
  param {
    lr_mult: 1
  }
  param {
    lr_mult: 2
  }
  convolution_param {
    num_output: 16
    pad: 1
    kernel_size: 3
    weight_filler {
      type: "msra"
    }
    bias_filler {
      type: "constant"
    }
  }
}
layer {
  name: "bn_conv1"
  type: "BatchNorm"
  bottom: "conv1"
  top: "conv1"
  param {
    lr_mult: 0
  }
  param {
    lr_mult: 0
  }
  param {
    lr_mult: 0
  }
}
layer {
  name: "scale_conv1"
  type: "Scale"
  bottom: "conv1"
  top: "conv1"
  scale_param {
    bias_term: true
  }
}
layer {
  name: "conv1_relu"
  type: "ReLU"
  bottom: "conv1"
  top: "conv1"
}
layer {
  name: "conv2_1a"
  type: "Convolution"
  bottom: "conv1"
  top: "conv2_1a"
  param {
    lr_mult: 1
  }
  param {
    lr_mult: 2
  }
  convolution_param {
    num_output: 16
    pad: 1
    kernel_size: 3
    stride: 1
    weight_filler {
      type: "msra"
    }
    bias_filler {
      type: "constant"
      value: 0
    }
  }
}
layer {
  name: "bn_conv2_1a"
  type: "BatchNorm"
  bottom: "conv2_1a"
  top: "conv2_1a"
  param {
    lr_mult: 0
  }
  param {
    lr_mult: 0
  }
  param {
    lr_mult: 0
  }
}
layer {
  name: "scale_conv2_1a"
  type: "Scale"
  bottom: "conv2_1a"
  top: "conv2_1a"
  scale_param {
    bias_term: true
  }
}
layer {
  name: "conv2_1a_sum"
  type: "Eltwise"
  bottom: "conv2_1a"
  bottom: "conv1"
  top: "conv2_1a_sum"
}
layer {
  name: "conv2_1a_relu"
  type: "ReLU"
  bottom: "conv2_1a_sum"
  top: "conv2_1a_sum"
}
layer {
  name: "conv2_1b"
  type: "Convolution"
  bottom: "conv2_1a_sum"
  top: "conv2_1b"
  param {
    lr_mult: 1
  }
  param {
    lr_mult: 2
  }
  convolution_param {
    num_output: 16
    pad: 1
    kernel_size: 3
    stride: 1
    weight_filler {
      type: "msra"
    }
    bias_filler {
      type: "constant"
      value: 0
    }
  }
}
layer {
  name: "bn_conv2_1b"
  type: "BatchNorm"
  bottom: "conv2_1b"
  top: "conv2_1b"
  param {
    lr_mult: 0
  }
  param {
    lr_mult: 0
  }
  param {
    lr_mult: 0
  }
}
layer {
  name: "scale_conv2_1b"
  type: "Scale"
  bottom: "conv2_1b"
  top: "conv2_1b"
  scale_param {
    bias_term: true
  }
}
layer {
  name: "conv2_1"
  type: "Eltwise"
  bottom: "conv2_1b"
  bottom: "conv2_1a_sum"
  top: "conv2_1"
}
layer {
  name: "conv2_1_relu"
  type: "ReLU"
  bottom: "conv2_1"
  top: "conv2_1"
}
layer {
  name: "conv2_2a"
  type: "Convolution"
  bottom: "conv2_1"
  top: "conv2_2a"
  param {
    lr_mult: 1
  }
  param {
    lr_mult: 2
  }
  convolution_param {
    num_output: 16
    pad: 1
    kernel_size: 3
    stride: 1
    weight_filler {
      type: "msra"
    }
    bias_filler {
      type: "constant"
      value: 0
    }
  }
}
layer {
  name: "bn_conv2_2a"
  type: "BatchNorm"
  bottom: "conv2_2a"
  top: "conv2_2a"
  param {
    lr_mult: 0
  }
  param {
    lr_mult: 0
  }
  param {
    lr_mult: 0
  }
}
layer {
  name: "scale_conv2_2a"
  type: "Scale"
  bottom: "conv2_2a"
  top: "conv2_2a"
  scale_param {
    bias_term: true
  }
}
layer {
  name: "conv2_2a_sum"
  type: "Eltwise"
  bottom: "conv2_1"
  bottom: "conv2_2a"
  top: "conv2_2a_sum"
}
layer {
  name: "conv2_2a_relu"
  type: "ReLU"
  bottom: "conv2_2a_sum"
  top: "conv2_2a_sum"
}
layer {
  name: "conv2_2b"
  type: "Convolution"
  bottom: "conv2_2a_sum"
  top: "conv2_2b"
  param {
    lr_mult: 1
  }
  param {
    lr_mult: 2
  }
  convolution_param {
    num_output: 16
    pad: 1
    kernel_size: 3
    stride: 1
    weight_filler {
      type: "msra"
    }
    bias_filler {
      type: "constant"
      value: 0
    }
  }
}
layer {
  name: "bn_conv2_2b"
  type: "BatchNorm"
  bottom: "conv2_2b"
  top: "conv2_2b"
  param {
    lr_mult: 0
  }
  param {
    lr_mult: 0
  }
  param {
    lr_mult: 0
  }
}
layer {
  name: "scale_conv2_2b"
  type: "Scale"
  bottom: "conv2_2b"
  top: "conv2_2b"
  scale_param {
    bias_term: true
  }
}
layer {
  name: "conv2_2"
  type: "Eltwise"
  bottom: "conv2_2b"
  bottom: "conv2_2a_sum"
  top: "conv2_2"
}
layer {
  name: "conv2_2_relu"
  type: "ReLU"
  bottom: "conv2_2"
  top: "conv2_2"
}
layer {
  name: "conv2_3a"
  type: "Convolution"
  bottom: "conv2_2"
  top: "conv2_3a"
  param {
    lr_mult: 1
  }
  param {
    lr_mult: 2
  }
  convolution_param {
    num_output: 16
    pad: 1
    kernel_size: 3
    stride: 1
    weight_filler {
      type: "msra"
    }
    bias_filler {
      type: "constant"
      value: 0
    }
  }
}
layer {
  name: "bn_conv2_3a"
  type: "BatchNorm"
  bottom: "conv2_3a"
  top: "conv2_3a"
  param {
    lr_mult: 0
  }
  param {
    lr_mult: 0
  }
  param {
    lr_mult: 0
  }
}
layer {
  name: "scale_conv2_3a"
  type: "Scale"
  bottom: "conv2_3a"
  top: "conv2_3a"
  scale_param {
    bias_term: true
  }
}
layer {
  name: "conv2_3a_sum"
  type: "Eltwise"
  bottom: "conv2_2"
  bottom: "conv2_3a"
  top: "conv2_3a_sum"
}
layer {
  name: "conv2_3a_relu"
  type: "ReLU"
  bottom: "conv2_3a_sum"
  top: "conv2_3a_sum"
}
layer {
  name: "conv2_3b"
  type: "Convolution"
  bottom: "conv2_3a_sum"
  top: "conv2_3b"
  param {
    lr_mult: 1
  }
  param {
    lr_mult: 2
  }
  convolution_param {
    num_output: 16
    pad: 1
    kernel_size: 3
    stride: 1
    weight_filler {
      type: "msra"
    }
    bias_filler {
      type: "constant"
      value: 0
    }
  }
}
layer {
  name: "bn_conv2_3b"
  type: "BatchNorm"
  bottom: "conv2_3b"
  top: "conv2_3b"
  param {
    lr_mult: 0
  }
  param {
    lr_mult: 0
  }
  param {
    lr_mult: 0
  }
}
layer {
  name: "scale_conv2_3b"
  type: "Scale"
  bottom: "conv2_3b"
  top: "conv2_3b"
  scale_param {
    bias_term: true
  }
}
layer {
  name: "conv2_3"
  type: "Eltwise"
  bottom: "conv2_3a_sum"
  bottom: "conv2_3b"
  top: "conv2_3"
}
layer {
  name: "conv2_3_relu"
  type: "ReLU"
  bottom: "conv2_3"
  top: "conv2_3"
}
layer {
  name: "conv2_sub"
  type: "Convolution"
  bottom: "conv2_3"
  top: "conv2_sub"
  param {
    lr_mult: 1
  }
  param {
    lr_mult: 2
  }
  convolution_param {
    num_output: 32
    kernel_size: 1
    stride: 2
    weight_filler {
      type: "msra"
    }
    bias_filler {
      type: "constant"
      value: 0
    }
  }
}
layer {
  name: "bn_conv2_sub"
  type: "BatchNorm"
  bottom: "conv2_sub"
  top: "conv2_sub"
  param {
    lr_mult: 0
  }
  param {
    lr_mult: 0
  }
  param {
    lr_mult: 0
  }
}
layer {
  name: "scale_conv2_sub"
  type: "Scale"
  bottom: "conv2_sub"
  top: "conv2_sub"
  scale_param {
    bias_term: true
  }
}
layer {
  name: "conv3_1a"
  type: "Convolution"
  bottom: "conv2_3"
  top: "conv3_1a"
  param {
    lr_mult: 1
  }
  param {
    lr_mult: 2
  }
  convolution_param {
    num_output: 32
    pad: 0
    kernel_size: 1
    stride: 2
    weight_filler {
      type: "msra"
    }
    bias_filler {
      type: "constant"
      value: 0
    }
  }
}
layer {
  name: "bn_conv3_1a"
  type: "BatchNorm"
  bottom: "conv3_1a"
  top: "conv3_1a"
  param {
    lr_mult: 0
  }
  param {
    lr_mult: 0
  }
  param {
    lr_mult: 0
  }
}
layer {
  name: "scale_conv3_1a"
  type: "Scale"
  bottom: "conv3_1a"
  top: "conv3_1a"
  scale_param {
    bias_term: true
  }
}
layer {
  name: "conv3_1a_sum"
  type: "Eltwise"
  bottom: "conv3_1a"
  bottom: "conv2_sub"
  top: "conv3_1a_sum"
}
layer {
  name: "conv3_1a_relu"
  type: "ReLU"
  bottom: "conv3_1a_sum"
  top: "conv3_1a_sum"
}
layer {
  name: "conv3_1b"
  type: "Convolution"
  bottom: "conv3_1a_sum"
  top: "conv3_1b"
  param {
    lr_mult: 1
  }
  param {
    lr_mult: 2
  }
  convolution_param {
    num_output: 32
    pad: 1
    kernel_size: 3
    stride: 1
    weight_filler {
      type: "msra"
    }
    bias_filler {
      type: "constant"
      value: 0
    }
  }
}
layer {
  name: "bn_conv3_1b"
  type: "BatchNorm"
  bottom: "conv3_1b"
  top: "conv3_1b"
  param {
    lr_mult: 0
  }
  param {
    lr_mult: 0
  }
  param {
    lr_mult: 0
  }
}
layer {
  name: "scale_conv3_1b"
  type: "Scale"
  bottom: "conv3_1b"
  top: "conv3_1b"
  scale_param {
    bias_term: true
  }
}
layer {
  name: "conv3_1"
  type: "Eltwise"
  bottom: "conv3_1a_sum"
  bottom: "conv3_1b"
  top: "conv3_1"
}
layer {
  name: "conv3_1_relu"
  type: "ReLU"
  bottom: "conv3_1"
  top: "conv3_1"
}
layer {
  name: "conv3_2a"
  type: "Convolution"
  bottom: "conv3_1"
  top: "conv3_2a"
  param {
    lr_mult: 1
  }
  param {
    lr_mult: 2
  }
  convolution_param {
    num_output: 32
    pad: 1
    kernel_size: 3
    stride: 1
    weight_filler {
      type: "msra"
    }
    bias_filler {
      type: "constant"
      value: 0
    }
  }
}
layer {
  name: "bn_conv3_2a"
  type: "BatchNorm"
  bottom: "conv3_2a"
  top: "conv3_2a"
  param {
    lr_mult: 0
  }
  param {
    lr_mult: 0
  }
  param {
    lr_mult: 0
  }
}
layer {
  name: "scale_conv3_2a"
  type: "Scale"
  bottom: "conv3_2a"
  top: "conv3_2a"
  scale_param {
    bias_term: true
  }
}
layer {
  name: "conv3_2a_sum"
  type: "Eltwise"
  bottom: "conv3_1"
  bottom: "conv3_2a"
  top: "conv3_2a_sum"
}
layer {
  name: "conv3_2a_relu"
  type: "ReLU"
  bottom: "conv3_2a_sum"
  top: "conv3_2a_sum"
}
layer {
  name: "conv3_2b"
  type: "Convolution"
  bottom: "conv3_2a_sum"
  top: "conv3_2b"
  param {
    lr_mult: 1
  }
  param {
    lr_mult: 2
  }
  convolution_param {
    num_output: 32
    pad: 1
    kernel_size: 3
    stride: 1
    weight_filler {
      type: "msra"
    }
    bias_filler {
      type: "constant"
      value: 0
    }
  }
}
layer {
  name: "bn_conv3_2b"
  type: "BatchNorm"
  bottom: "conv3_2b"
  top: "conv3_2b"
  param {
    lr_mult: 0
  }
  param {
    lr_mult: 0
  }
  param {
    lr_mult: 0
  }
}
layer {
  name: "scale_conv3_2b"
  type: "Scale"
  bottom: "conv3_2b"
  top: "conv3_2b"
  scale_param {
    bias_term: true
  }
}
layer {
  name: "conv3_2"
  type: "Eltwise"
  bottom: "conv3_2a_sum"
  bottom: "conv3_2b"
  top: "conv3_2"
}
layer {
  name: "conv3_2_relu"
  type: "ReLU"
  bottom: "conv3_2"
  top: "conv3_2"
}
layer {
  name: "conv3_3a"
  type: "Convolution"
  bottom: "conv3_2"
  top: "conv3_3a"
  param {
    lr_mult: 1
  }
  param {
    lr_mult: 2
  }
  convolution_param {
    num_output: 32
    pad: 1
    kernel_size: 3
    stride: 1
    weight_filler {
      type: "msra"
    }
    bias_filler {
      type: "constant"
      value: 0
    }
  }
}
layer {
  name: "bn_conv3_3a"
  type: "BatchNorm"
  bottom: "conv3_3a"
  top: "conv3_3a"
  param {
    lr_mult: 0
  }
  param {
    lr_mult: 0
  }
  param {
    lr_mult: 0
  }
}
layer {
  name: "scale_conv3_3a"
  type: "Scale"
  bottom: "conv3_3a"
  top: "conv3_3a"
  scale_param {
    bias_term: true
  }
}
layer {
  name: "conv3_3a_sum"
  type: "Eltwise"
  bottom: "conv3_2"
  bottom: "conv3_3a"
  top: "conv3_3a_sum"
}
layer {
  name: "conv3_3a_relu"
  type: "ReLU"
  bottom: "conv3_3a_sum"
  top: "conv3_3a_sum"
}
layer {
  name: "conv3_3b"
  type: "Convolution"
  bottom: "conv3_3a_sum"
  top: "conv3_3b"
  param {
    lr_mult: 1
  }
  param {
    lr_mult: 2
  }
  convolution_param {
    num_output: 32
    pad: 1
    kernel_size: 3
    stride: 1
    weight_filler {
      type: "msra"
    }
    bias_filler {
      type: "constant"
      value: 0
    }
  }
}
layer {
  name: "bn_conv3_3b"
  type: "BatchNorm"
  bottom: "conv3_3b"
  top: "conv3_3b"
  param {
    lr_mult: 0
  }
  param {
    lr_mult: 0
  }
  param {
    lr_mult: 0
  }
}
layer {
  name: "scale_conv3_3b"
  type: "Scale"
  bottom: "conv3_3b"
  top: "conv3_3b"
  scale_param {
    bias_term: true
  }
}
layer {
  name: "conv3_3"
  type: "Eltwise"
  bottom: "conv3_3b"
  bottom: "conv3_3a_sum"
  top: "conv3_3"
}
layer {
  name: "conv3_3_relu"
  type: "ReLU"
  bottom: "conv3_3"
  top: "conv3_3"
}
layer {
  name: "conv3_sub"
  type: "Convolution"
  bottom: "conv3_3"
  top: "conv3_sub"
  param {
    lr_mult: 1
  }
  param {
    lr_mult: 2
  }
  convolution_param {
    num_output: 64
    kernel_size: 1
    stride: 2
    weight_filler {
      type: "msra"
    }
    bias_filler {
      type: "constant"
      value: 0
    }
  }
}
layer {
  name: "bn_conv3_sub"
  type: "BatchNorm"
  bottom: "conv3_sub"
  top: "conv3_sub"
  param {
    lr_mult: 0
  }
  param {
    lr_mult: 0
  }
  param {
    lr_mult: 0
  }
}
layer {
  name: "scale_conv3_sub"
  type: "Scale"
  bottom: "conv3_sub"
  top: "conv3_sub"
  scale_param {
    bias_term: true
  }
}
layer {
  name: "conv4_1a"
  type: "Convolution"
  bottom: "conv3_3"
  top: "conv4_1a"
  param {
    lr_mult: 1
  }
  param {
    lr_mult: 2
  }
  convolution_param {
    num_output: 64
    pad: 0
    kernel_size: 1
    stride: 2
    weight_filler {
      type: "msra"
    }
    bias_filler {
      type: "constant"
      value: 0
    }
  }
}
layer {
  name: "bn_conv4_1a"
  type: "BatchNorm"
  bottom: "conv4_1a"
  top: "conv4_1a"
  param {
    lr_mult: 0
  }
  param {
    lr_mult: 0
  }
  param {
    lr_mult: 0
  }
}
layer {
  name: "scale_conv4_1a"
  type: "Scale"
  bottom: "conv4_1a"
  top: "conv4_1a"
  scale_param {
    bias_term: true
  }
}
layer {
  name: "conv4_1a_sum"
  type: "Eltwise"
  bottom: "conv3_sub"
  bottom: "conv4_1a"
  top: "conv4_1a_sum"
}
layer {
  name: "conv4_1a_relu"
  type: "ReLU"
  bottom: "conv4_1a_sum"
  top: "conv4_1a_sum"
}
layer {
  name: "conv4_1b"
  type: "Convolution"
  bottom: "conv4_1a_sum"
  top: "conv4_1b"
  param {
    lr_mult: 1
  }
  param {
    lr_mult: 2
  }
  convolution_param {
    num_output: 64
    pad: 1
    kernel_size: 3
    stride: 1
    weight_filler {
      type: "msra"
    }
    bias_filler {
      type: "constant"
      value: 0
    }
  }
}
layer {
  name: "bn_conv4_1b"
  type: "BatchNorm"
  bottom: "conv4_1b"
  top: "conv4_1b"
  param {
    lr_mult: 0
  }
  param {
    lr_mult: 0
  }
  param {
    lr_mult: 0
  }
}
layer {
  name: "scale_conv4_1b"
  type: "Scale"
  bottom: "conv4_1b"
  top: "conv4_1b"
  scale_param {
    bias_term: true
  }
}
layer {
  name: "conv4_1"
  type: "Eltwise"
  bottom: "conv4_1a_sum"
  bottom: "conv4_1b"
  top: "conv4_1"
}
layer {
  name: "conv4_1_relu"
  type: "ReLU"
  bottom: "conv4_1"
  top: "conv4_1"
}
layer {
  name: "conv4_2a"
  type: "Convolution"
  bottom: "conv4_1"
  top: "conv4_2a"
  param {
    lr_mult: 1
  }
  param {
    lr_mult: 2
  }
  convolution_param {
    num_output: 64
    pad: 1
    kernel_size: 3
    stride: 1
    weight_filler {
      type: "msra"
    }
    bias_filler {
      type: "constant"
      value: 0
    }
  }
}
layer {
  name: "bn_conv4_2a"
  type: "BatchNorm"
  bottom: "conv4_2a"
  top: "conv4_2a"
  param {
    lr_mult: 0
  }
  param {
    lr_mult: 0
  }
  param {
    lr_mult: 0
  }
}
layer {
  name: "scale_conv4_2a"
  type: "Scale"
  bottom: "conv4_2a"
  top: "conv4_2a"
  scale_param {
    bias_term: true
  }
}
layer {
  name: "conv4_2a_sum"
  type: "Eltwise"
  bottom: "conv4_1"
  bottom: "conv4_2a"
  top: "conv4_2a_sum"
}
layer {
  name: "conv4_2a_relu"
  type: "ReLU"
  bottom: "conv4_2a_sum"
  top: "conv4_2a_sum"
}
layer {
  name: "conv4_2b"
  type: "Convolution"
  bottom: "conv4_2a_sum"
  top: "conv4_2b"
  param {
    lr_mult: 1
  }
  param {
    lr_mult: 2
  }
  convolution_param {
    num_output: 64
    pad: 1
    kernel_size: 3
    stride: 1
    weight_filler {
      type: "msra"
    }
    bias_filler {
      type: "constant"
      value: 0
    }
  }
}
layer {
  name: "bn_conv4_2b"
  type: "BatchNorm"
  bottom: "conv4_2b"
  top: "conv4_2b"
  param {
    lr_mult: 0
  }
  param {
    lr_mult: 0
  }
  param {
    lr_mult: 0
  }
}
layer {
  name: "scale_conv4_2b"
  type: "Scale"
  bottom: "conv4_2b"
  top: "conv4_2b"
  scale_param {
    bias_term: true
  }
}
layer {
  name: "conv4_2"
  type: "Eltwise"
  bottom: "conv4_2a_sum"
  bottom: "conv4_2b"
  top: "conv4_2"
}
layer {
  name: "conv4_2_relu"
  type: "ReLU"
  bottom: "conv4_2"
  top: "conv4_2"
}
layer {
  name: "conv4_3a"
  type: "Convolution"
  bottom: "conv4_2"
  top: "conv4_3a"
  param {
    lr_mult: 1
  }
  param {
    lr_mult: 2
  }
  convolution_param {
    num_output: 64
    pad: 1
    kernel_size: 3
    stride: 1
    weight_filler {
      type: "msra"
    }
    bias_filler {
      type: "constant"
      value: 0
    }
  }
}
layer {
  name: "bn_conv4_3a"
  type: "BatchNorm"
  bottom: "conv4_3a"
  top: "conv4_3a"
  param {
    lr_mult: 0
  }
  param {
    lr_mult: 0
  }
  param {
    lr_mult: 0
  }
}
layer {
  name: "scale_conv4_3a"
  type: "Scale"
  bottom: "conv4_3a"
  top: "conv4_3a"
  scale_param {
    bias_term: true
  }
}
layer {
  name: "conv4_3a_sum"
  type: "Eltwise"
  bottom: "conv4_2"
  bottom: "conv4_3a"
  top: "conv4_3a_sum"
}
layer {
  name: "conv4_3a_relu"
  type: "ReLU"
  bottom: "conv4_3a_sum"
  top: "conv4_3a_sum"
}
layer {
  name: "conv4_3b"
  type: "Convolution"
  bottom: "conv4_3a_sum"
  top: "conv4_3b"
  param {
    lr_mult: 1
  }
  param {
    lr_mult: 2
  }
  convolution_param {
    num_output: 64
    pad: 1
    kernel_size: 3
    stride: 1
    weight_filler {
      type: "msra"
    }
    bias_filler {
      type: "constant"
      value: 0
    }
  }
}
layer {
  name: "bn_conv4_3b"
  type: "BatchNorm"
  bottom: "conv4_3b"
  top: "conv4_3b"
  param {
    lr_mult: 0
  }
  param {
    lr_mult: 0
  }
  param {
    lr_mult: 0
  }
}
layer {
  name: "scale_conv4_3b"
  type: "Scale"
  bottom: "conv4_3b"
  top: "conv4_3b"
  scale_param {
    bias_term: true
  }
}
layer {
  name: "conv4_3"
  type: "Eltwise"
  bottom: "conv4_3a_sum"
  bottom: "conv4_3b"
  top: "conv4_3"
}
layer {
  name: "conv4_3_relu"
  type: "ReLU"
  bottom: "conv4_3"
  top: "conv4_3"
}
layer {
  name: "global_pool"
  type: "Pooling"
  bottom: "conv4_3"
  top: "global_pool"
  pooling_param {
    pool: AVE
    kernel_size: 8
    stride: 8
  }
}
layer {
  name: "ip"
  type: "InnerProduct"
  bottom: "global_pool"
  top: "ip"
  inner_product_param {
    num_output: 10
  }
}
layer {
  name: "accuracy"
  type: "Accuracy"
  bottom: "ip"
  bottom: "label"
  top: "accuracy"
}
layer {
  name: "loss"
  type: "SoftmaxWithLoss"
  bottom: "ip"
  bottom: "label"
  top: "loss"
}
I0412 22:47:19.566596  7331 layer_factory.hpp:77] Creating layer cifar
I0412 22:47:19.566726  7331 net.cpp:91] Creating Layer cifar
I0412 22:47:19.566738  7331 net.cpp:399] cifar -> data
I0412 22:47:19.566748  7331 net.cpp:399] cifar -> label
I0412 22:47:19.566758  7331 data_transformer.cpp:25] Loading mean file from: data/cifar10/mean.binaryproto
I0412 22:47:19.567698  7558 db_lmdb.cpp:38] Opened lmdb data/cifar10/cifar10_test_lmdb
I0412 22:47:19.567842  7331 data_layer.cpp:41] output data size: 100,3,32,32
I0412 22:47:19.570642  7331 net.cpp:141] Setting up cifar
I0412 22:47:19.570660  7331 net.cpp:148] Top shape: 100 3 32 32 (307200)
I0412 22:47:19.570667  7331 net.cpp:148] Top shape: 100 (100)
I0412 22:47:19.570672  7331 net.cpp:156] Memory required for data: 1229200
I0412 22:47:19.570678  7331 layer_factory.hpp:77] Creating layer label_cifar_1_split
I0412 22:47:19.570689  7331 net.cpp:91] Creating Layer label_cifar_1_split
I0412 22:47:19.570694  7331 net.cpp:425] label_cifar_1_split <- label
I0412 22:47:19.570703  7331 net.cpp:399] label_cifar_1_split -> label_cifar_1_split_0
I0412 22:47:19.570715  7331 net.cpp:399] label_cifar_1_split -> label_cifar_1_split_1
I0412 22:47:19.570772  7331 net.cpp:141] Setting up label_cifar_1_split
I0412 22:47:19.570781  7331 net.cpp:148] Top shape: 100 (100)
I0412 22:47:19.570786  7331 net.cpp:148] Top shape: 100 (100)
I0412 22:47:19.570791  7331 net.cpp:156] Memory required for data: 1230000
I0412 22:47:19.570796  7331 layer_factory.hpp:77] Creating layer conv1
I0412 22:47:19.570808  7331 net.cpp:91] Creating Layer conv1
I0412 22:47:19.570813  7331 net.cpp:425] conv1 <- data
I0412 22:47:19.570822  7331 net.cpp:399] conv1 -> conv1
I0412 22:47:19.572223  7331 net.cpp:141] Setting up conv1
I0412 22:47:19.572239  7331 net.cpp:148] Top shape: 100 16 32 32 (1638400)
I0412 22:47:19.572245  7331 net.cpp:156] Memory required for data: 7783600
I0412 22:47:19.572257  7331 layer_factory.hpp:77] Creating layer bn_conv1
I0412 22:47:19.572273  7331 net.cpp:91] Creating Layer bn_conv1
I0412 22:47:19.572279  7331 net.cpp:425] bn_conv1 <- conv1
I0412 22:47:19.572285  7331 net.cpp:386] bn_conv1 -> conv1 (in-place)
I0412 22:47:19.572492  7331 net.cpp:141] Setting up bn_conv1
I0412 22:47:19.572502  7331 net.cpp:148] Top shape: 100 16 32 32 (1638400)
I0412 22:47:19.572507  7331 net.cpp:156] Memory required for data: 14337200
I0412 22:47:19.572518  7331 layer_factory.hpp:77] Creating layer scale_conv1
I0412 22:47:19.572530  7331 net.cpp:91] Creating Layer scale_conv1
I0412 22:47:19.572535  7331 net.cpp:425] scale_conv1 <- conv1
I0412 22:47:19.572540  7331 net.cpp:386] scale_conv1 -> conv1 (in-place)
I0412 22:47:19.572618  7331 layer_factory.hpp:77] Creating layer scale_conv1
I0412 22:47:19.572883  7331 net.cpp:141] Setting up scale_conv1
I0412 22:47:19.572904  7331 net.cpp:148] Top shape: 100 16 32 32 (1638400)
I0412 22:47:19.572909  7331 net.cpp:156] Memory required for data: 20890800
I0412 22:47:19.572917  7331 layer_factory.hpp:77] Creating layer conv1_relu
I0412 22:47:19.572923  7331 net.cpp:91] Creating Layer conv1_relu
I0412 22:47:19.572937  7331 net.cpp:425] conv1_relu <- conv1
I0412 22:47:19.572945  7331 net.cpp:386] conv1_relu -> conv1 (in-place)
I0412 22:47:19.573266  7331 net.cpp:141] Setting up conv1_relu
I0412 22:47:19.573282  7331 net.cpp:148] Top shape: 100 16 32 32 (1638400)
I0412 22:47:19.573294  7331 net.cpp:156] Memory required for data: 27444400
I0412 22:47:19.573299  7331 layer_factory.hpp:77] Creating layer conv1_conv1_relu_0_split
I0412 22:47:19.573308  7331 net.cpp:91] Creating Layer conv1_conv1_relu_0_split
I0412 22:47:19.573313  7331 net.cpp:425] conv1_conv1_relu_0_split <- conv1
I0412 22:47:19.573320  7331 net.cpp:399] conv1_conv1_relu_0_split -> conv1_conv1_relu_0_split_0
I0412 22:47:19.573333  7331 net.cpp:399] conv1_conv1_relu_0_split -> conv1_conv1_relu_0_split_1
I0412 22:47:19.573385  7331 net.cpp:141] Setting up conv1_conv1_relu_0_split
I0412 22:47:19.573395  7331 net.cpp:148] Top shape: 100 16 32 32 (1638400)
I0412 22:47:19.573400  7331 net.cpp:148] Top shape: 100 16 32 32 (1638400)
I0412 22:47:19.573407  7331 net.cpp:156] Memory required for data: 40551600
I0412 22:47:19.573417  7331 layer_factory.hpp:77] Creating layer conv2_1a
I0412 22:47:19.573429  7331 net.cpp:91] Creating Layer conv2_1a
I0412 22:47:19.573436  7331 net.cpp:425] conv2_1a <- conv1_conv1_relu_0_split_0
I0412 22:47:19.573444  7331 net.cpp:399] conv2_1a -> conv2_1a
I0412 22:47:19.574542  7331 net.cpp:141] Setting up conv2_1a
I0412 22:47:19.574558  7331 net.cpp:148] Top shape: 100 16 32 32 (1638400)
I0412 22:47:19.574564  7331 net.cpp:156] Memory required for data: 47105200
I0412 22:47:19.574575  7331 layer_factory.hpp:77] Creating layer bn_conv2_1a
I0412 22:47:19.574584  7331 net.cpp:91] Creating Layer bn_conv2_1a
I0412 22:47:19.574589  7331 net.cpp:425] bn_conv2_1a <- conv2_1a
I0412 22:47:19.574611  7331 net.cpp:386] bn_conv2_1a -> conv2_1a (in-place)
I0412 22:47:19.574837  7331 net.cpp:141] Setting up bn_conv2_1a
I0412 22:47:19.574847  7331 net.cpp:148] Top shape: 100 16 32 32 (1638400)
I0412 22:47:19.574851  7331 net.cpp:156] Memory required for data: 53658800
I0412 22:47:19.574864  7331 layer_factory.hpp:77] Creating layer scale_conv2_1a
I0412 22:47:19.574872  7331 net.cpp:91] Creating Layer scale_conv2_1a
I0412 22:47:19.574877  7331 net.cpp:425] scale_conv2_1a <- conv2_1a
I0412 22:47:19.574883  7331 net.cpp:386] scale_conv2_1a -> conv2_1a (in-place)
I0412 22:47:19.574928  7331 layer_factory.hpp:77] Creating layer scale_conv2_1a
I0412 22:47:19.575062  7331 net.cpp:141] Setting up scale_conv2_1a
I0412 22:47:19.575069  7331 net.cpp:148] Top shape: 100 16 32 32 (1638400)
I0412 22:47:19.575074  7331 net.cpp:156] Memory required for data: 60212400
I0412 22:47:19.575081  7331 layer_factory.hpp:77] Creating layer conv2_1a_sum
I0412 22:47:19.575089  7331 net.cpp:91] Creating Layer conv2_1a_sum
I0412 22:47:19.575098  7331 net.cpp:425] conv2_1a_sum <- conv2_1a
I0412 22:47:19.575104  7331 net.cpp:425] conv2_1a_sum <- conv1_conv1_relu_0_split_1
I0412 22:47:19.575115  7331 net.cpp:399] conv2_1a_sum -> conv2_1a_sum
I0412 22:47:19.575146  7331 net.cpp:141] Setting up conv2_1a_sum
I0412 22:47:19.575155  7331 net.cpp:148] Top shape: 100 16 32 32 (1638400)
I0412 22:47:19.575160  7331 net.cpp:156] Memory required for data: 66766000
I0412 22:47:19.575165  7331 layer_factory.hpp:77] Creating layer conv2_1a_relu
I0412 22:47:19.575171  7331 net.cpp:91] Creating Layer conv2_1a_relu
I0412 22:47:19.575176  7331 net.cpp:425] conv2_1a_relu <- conv2_1a_sum
I0412 22:47:19.575183  7331 net.cpp:386] conv2_1a_relu -> conv2_1a_sum (in-place)
I0412 22:47:19.575366  7331 net.cpp:141] Setting up conv2_1a_relu
I0412 22:47:19.575377  7331 net.cpp:148] Top shape: 100 16 32 32 (1638400)
I0412 22:47:19.575382  7331 net.cpp:156] Memory required for data: 73319600
I0412 22:47:19.575387  7331 layer_factory.hpp:77] Creating layer conv2_1a_sum_conv2_1a_relu_0_split
I0412 22:47:19.575395  7331 net.cpp:91] Creating Layer conv2_1a_sum_conv2_1a_relu_0_split
I0412 22:47:19.575400  7331 net.cpp:425] conv2_1a_sum_conv2_1a_relu_0_split <- conv2_1a_sum
I0412 22:47:19.575407  7331 net.cpp:399] conv2_1a_sum_conv2_1a_relu_0_split -> conv2_1a_sum_conv2_1a_relu_0_split_0
I0412 22:47:19.575414  7331 net.cpp:399] conv2_1a_sum_conv2_1a_relu_0_split -> conv2_1a_sum_conv2_1a_relu_0_split_1
I0412 22:47:19.575461  7331 net.cpp:141] Setting up conv2_1a_sum_conv2_1a_relu_0_split
I0412 22:47:19.575469  7331 net.cpp:148] Top shape: 100 16 32 32 (1638400)
I0412 22:47:19.575474  7331 net.cpp:148] Top shape: 100 16 32 32 (1638400)
I0412 22:47:19.575479  7331 net.cpp:156] Memory required for data: 86426800
I0412 22:47:19.575484  7331 layer_factory.hpp:77] Creating layer conv2_1b
I0412 22:47:19.575495  7331 net.cpp:91] Creating Layer conv2_1b
I0412 22:47:19.575500  7331 net.cpp:425] conv2_1b <- conv2_1a_sum_conv2_1a_relu_0_split_0
I0412 22:47:19.575521  7331 net.cpp:399] conv2_1b -> conv2_1b
I0412 22:47:19.576608  7331 net.cpp:141] Setting up conv2_1b
I0412 22:47:19.576629  7331 net.cpp:148] Top shape: 100 16 32 32 (1638400)
I0412 22:47:19.576635  7331 net.cpp:156] Memory required for data: 92980400
I0412 22:47:19.576643  7331 layer_factory.hpp:77] Creating layer bn_conv2_1b
I0412 22:47:19.576652  7331 net.cpp:91] Creating Layer bn_conv2_1b
I0412 22:47:19.576656  7331 net.cpp:425] bn_conv2_1b <- conv2_1b
I0412 22:47:19.576665  7331 net.cpp:386] bn_conv2_1b -> conv2_1b (in-place)
I0412 22:47:19.576910  7331 net.cpp:141] Setting up bn_conv2_1b
I0412 22:47:19.576920  7331 net.cpp:148] Top shape: 100 16 32 32 (1638400)
I0412 22:47:19.576923  7331 net.cpp:156] Memory required for data: 99534000
I0412 22:47:19.576936  7331 layer_factory.hpp:77] Creating layer scale_conv2_1b
I0412 22:47:19.576944  7331 net.cpp:91] Creating Layer scale_conv2_1b
I0412 22:47:19.576948  7331 net.cpp:425] scale_conv2_1b <- conv2_1b
I0412 22:47:19.576957  7331 net.cpp:386] scale_conv2_1b -> conv2_1b (in-place)
I0412 22:47:19.577080  7331 layer_factory.hpp:77] Creating layer scale_conv2_1b
I0412 22:47:19.577229  7331 net.cpp:141] Setting up scale_conv2_1b
I0412 22:47:19.577241  7331 net.cpp:148] Top shape: 100 16 32 32 (1638400)
I0412 22:47:19.577246  7331 net.cpp:156] Memory required for data: 106087600
I0412 22:47:19.577255  7331 layer_factory.hpp:77] Creating layer conv2_1
I0412 22:47:19.577262  7331 net.cpp:91] Creating Layer conv2_1
I0412 22:47:19.577267  7331 net.cpp:425] conv2_1 <- conv2_1b
I0412 22:47:19.577273  7331 net.cpp:425] conv2_1 <- conv2_1a_sum_conv2_1a_relu_0_split_1
I0412 22:47:19.577280  7331 net.cpp:399] conv2_1 -> conv2_1
I0412 22:47:19.577311  7331 net.cpp:141] Setting up conv2_1
I0412 22:47:19.577321  7331 net.cpp:148] Top shape: 100 16 32 32 (1638400)
I0412 22:47:19.577325  7331 net.cpp:156] Memory required for data: 112641200
I0412 22:47:19.577330  7331 layer_factory.hpp:77] Creating layer conv2_1_relu
I0412 22:47:19.577337  7331 net.cpp:91] Creating Layer conv2_1_relu
I0412 22:47:19.577342  7331 net.cpp:425] conv2_1_relu <- conv2_1
I0412 22:47:19.577347  7331 net.cpp:386] conv2_1_relu -> conv2_1 (in-place)
I0412 22:47:19.577548  7331 net.cpp:141] Setting up conv2_1_relu
I0412 22:47:19.577560  7331 net.cpp:148] Top shape: 100 16 32 32 (1638400)
I0412 22:47:19.577565  7331 net.cpp:156] Memory required for data: 119194800
I0412 22:47:19.577581  7331 layer_factory.hpp:77] Creating layer conv2_1_conv2_1_relu_0_split
I0412 22:47:19.577589  7331 net.cpp:91] Creating Layer conv2_1_conv2_1_relu_0_split
I0412 22:47:19.577595  7331 net.cpp:425] conv2_1_conv2_1_relu_0_split <- conv2_1
I0412 22:47:19.577601  7331 net.cpp:399] conv2_1_conv2_1_relu_0_split -> conv2_1_conv2_1_relu_0_split_0
I0412 22:47:19.577610  7331 net.cpp:399] conv2_1_conv2_1_relu_0_split -> conv2_1_conv2_1_relu_0_split_1
I0412 22:47:19.577661  7331 net.cpp:141] Setting up conv2_1_conv2_1_relu_0_split
I0412 22:47:19.577669  7331 net.cpp:148] Top shape: 100 16 32 32 (1638400)
I0412 22:47:19.577674  7331 net.cpp:148] Top shape: 100 16 32 32 (1638400)
I0412 22:47:19.577678  7331 net.cpp:156] Memory required for data: 132302000
I0412 22:47:19.577683  7331 layer_factory.hpp:77] Creating layer conv2_2a
I0412 22:47:19.577700  7331 net.cpp:91] Creating Layer conv2_2a
I0412 22:47:19.577707  7331 net.cpp:425] conv2_2a <- conv2_1_conv2_1_relu_0_split_0
I0412 22:47:19.577715  7331 net.cpp:399] conv2_2a -> conv2_2a
I0412 22:47:19.578799  7331 net.cpp:141] Setting up conv2_2a
I0412 22:47:19.578814  7331 net.cpp:148] Top shape: 100 16 32 32 (1638400)
I0412 22:47:19.578819  7331 net.cpp:156] Memory required for data: 138855600
I0412 22:47:19.578827  7331 layer_factory.hpp:77] Creating layer bn_conv2_2a
I0412 22:47:19.578851  7331 net.cpp:91] Creating Layer bn_conv2_2a
I0412 22:47:19.578857  7331 net.cpp:425] bn_conv2_2a <- conv2_2a
I0412 22:47:19.578866  7331 net.cpp:386] bn_conv2_2a -> conv2_2a (in-place)
I0412 22:47:19.579085  7331 net.cpp:141] Setting up bn_conv2_2a
I0412 22:47:19.579094  7331 net.cpp:148] Top shape: 100 16 32 32 (1638400)
I0412 22:47:19.579098  7331 net.cpp:156] Memory required for data: 145409200
I0412 22:47:19.579108  7331 layer_factory.hpp:77] Creating layer scale_conv2_2a
I0412 22:47:19.579115  7331 net.cpp:91] Creating Layer scale_conv2_2a
I0412 22:47:19.579121  7331 net.cpp:425] scale_conv2_2a <- conv2_2a
I0412 22:47:19.579129  7331 net.cpp:386] scale_conv2_2a -> conv2_2a (in-place)
I0412 22:47:19.579183  7331 layer_factory.hpp:77] Creating layer scale_conv2_2a
I0412 22:47:19.579308  7331 net.cpp:141] Setting up scale_conv2_2a
I0412 22:47:19.579318  7331 net.cpp:148] Top shape: 100 16 32 32 (1638400)
I0412 22:47:19.579322  7331 net.cpp:156] Memory required for data: 151962800
I0412 22:47:19.579330  7331 layer_factory.hpp:77] Creating layer conv2_2a_sum
I0412 22:47:19.579336  7331 net.cpp:91] Creating Layer conv2_2a_sum
I0412 22:47:19.579341  7331 net.cpp:425] conv2_2a_sum <- conv2_1_conv2_1_relu_0_split_1
I0412 22:47:19.579347  7331 net.cpp:425] conv2_2a_sum <- conv2_2a
I0412 22:47:19.579354  7331 net.cpp:399] conv2_2a_sum -> conv2_2a_sum
I0412 22:47:19.579385  7331 net.cpp:141] Setting up conv2_2a_sum
I0412 22:47:19.579392  7331 net.cpp:148] Top shape: 100 16 32 32 (1638400)
I0412 22:47:19.579397  7331 net.cpp:156] Memory required for data: 158516400
I0412 22:47:19.579402  7331 layer_factory.hpp:77] Creating layer conv2_2a_relu
I0412 22:47:19.579416  7331 net.cpp:91] Creating Layer conv2_2a_relu
I0412 22:47:19.579421  7331 net.cpp:425] conv2_2a_relu <- conv2_2a_sum
I0412 22:47:19.579427  7331 net.cpp:386] conv2_2a_relu -> conv2_2a_sum (in-place)
I0412 22:47:19.579721  7331 net.cpp:141] Setting up conv2_2a_relu
I0412 22:47:19.579735  7331 net.cpp:148] Top shape: 100 16 32 32 (1638400)
I0412 22:47:19.579744  7331 net.cpp:156] Memory required for data: 165070000
I0412 22:47:19.579749  7331 layer_factory.hpp:77] Creating layer conv2_2a_sum_conv2_2a_relu_0_split
I0412 22:47:19.579756  7331 net.cpp:91] Creating Layer conv2_2a_sum_conv2_2a_relu_0_split
I0412 22:47:19.579761  7331 net.cpp:425] conv2_2a_sum_conv2_2a_relu_0_split <- conv2_2a_sum
I0412 22:47:19.579768  7331 net.cpp:399] conv2_2a_sum_conv2_2a_relu_0_split -> conv2_2a_sum_conv2_2a_relu_0_split_0
I0412 22:47:19.579780  7331 net.cpp:399] conv2_2a_sum_conv2_2a_relu_0_split -> conv2_2a_sum_conv2_2a_relu_0_split_1
I0412 22:47:19.579838  7331 net.cpp:141] Setting up conv2_2a_sum_conv2_2a_relu_0_split
I0412 22:47:19.579846  7331 net.cpp:148] Top shape: 100 16 32 32 (1638400)
I0412 22:47:19.579851  7331 net.cpp:148] Top shape: 100 16 32 32 (1638400)
I0412 22:47:19.579856  7331 net.cpp:156] Memory required for data: 178177200
I0412 22:47:19.579866  7331 layer_factory.hpp:77] Creating layer conv2_2b
I0412 22:47:19.579879  7331 net.cpp:91] Creating Layer conv2_2b
I0412 22:47:19.579885  7331 net.cpp:425] conv2_2b <- conv2_2a_sum_conv2_2a_relu_0_split_0
I0412 22:47:19.579892  7331 net.cpp:399] conv2_2b -> conv2_2b
I0412 22:47:19.581017  7331 net.cpp:141] Setting up conv2_2b
I0412 22:47:19.581033  7331 net.cpp:148] Top shape: 100 16 32 32 (1638400)
I0412 22:47:19.581039  7331 net.cpp:156] Memory required for data: 184730800
I0412 22:47:19.581048  7331 layer_factory.hpp:77] Creating layer bn_conv2_2b
I0412 22:47:19.581056  7331 net.cpp:91] Creating Layer bn_conv2_2b
I0412 22:47:19.581063  7331 net.cpp:425] bn_conv2_2b <- conv2_2b
I0412 22:47:19.581069  7331 net.cpp:386] bn_conv2_2b -> conv2_2b (in-place)
I0412 22:47:19.581375  7331 net.cpp:141] Setting up bn_conv2_2b
I0412 22:47:19.581388  7331 net.cpp:148] Top shape: 100 16 32 32 (1638400)
I0412 22:47:19.581398  7331 net.cpp:156] Memory required for data: 191284400
I0412 22:47:19.581414  7331 layer_factory.hpp:77] Creating layer scale_conv2_2b
I0412 22:47:19.581423  7331 net.cpp:91] Creating Layer scale_conv2_2b
I0412 22:47:19.581428  7331 net.cpp:425] scale_conv2_2b <- conv2_2b
I0412 22:47:19.581439  7331 net.cpp:386] scale_conv2_2b -> conv2_2b (in-place)
I0412 22:47:19.581499  7331 layer_factory.hpp:77] Creating layer scale_conv2_2b
I0412 22:47:19.581627  7331 net.cpp:141] Setting up scale_conv2_2b
I0412 22:47:19.581636  7331 net.cpp:148] Top shape: 100 16 32 32 (1638400)
I0412 22:47:19.581640  7331 net.cpp:156] Memory required for data: 197838000
I0412 22:47:19.581648  7331 layer_factory.hpp:77] Creating layer conv2_2
I0412 22:47:19.581656  7331 net.cpp:91] Creating Layer conv2_2
I0412 22:47:19.581665  7331 net.cpp:425] conv2_2 <- conv2_2b
I0412 22:47:19.581671  7331 net.cpp:425] conv2_2 <- conv2_2a_sum_conv2_2a_relu_0_split_1
I0412 22:47:19.581677  7331 net.cpp:399] conv2_2 -> conv2_2
I0412 22:47:19.581708  7331 net.cpp:141] Setting up conv2_2
I0412 22:47:19.581715  7331 net.cpp:148] Top shape: 100 16 32 32 (1638400)
I0412 22:47:19.581720  7331 net.cpp:156] Memory required for data: 204391600
I0412 22:47:19.581725  7331 layer_factory.hpp:77] Creating layer conv2_2_relu
I0412 22:47:19.581730  7331 net.cpp:91] Creating Layer conv2_2_relu
I0412 22:47:19.581735  7331 net.cpp:425] conv2_2_relu <- conv2_2
I0412 22:47:19.581745  7331 net.cpp:386] conv2_2_relu -> conv2_2 (in-place)
I0412 22:47:19.581925  7331 net.cpp:141] Setting up conv2_2_relu
I0412 22:47:19.581943  7331 net.cpp:148] Top shape: 100 16 32 32 (1638400)
I0412 22:47:19.581948  7331 net.cpp:156] Memory required for data: 210945200
I0412 22:47:19.581953  7331 layer_factory.hpp:77] Creating layer conv2_2_conv2_2_relu_0_split
I0412 22:47:19.581961  7331 net.cpp:91] Creating Layer conv2_2_conv2_2_relu_0_split
I0412 22:47:19.581966  7331 net.cpp:425] conv2_2_conv2_2_relu_0_split <- conv2_2
I0412 22:47:19.581977  7331 net.cpp:399] conv2_2_conv2_2_relu_0_split -> conv2_2_conv2_2_relu_0_split_0
I0412 22:47:19.581985  7331 net.cpp:399] conv2_2_conv2_2_relu_0_split -> conv2_2_conv2_2_relu_0_split_1
I0412 22:47:19.582031  7331 net.cpp:141] Setting up conv2_2_conv2_2_relu_0_split
I0412 22:47:19.582039  7331 net.cpp:148] Top shape: 100 16 32 32 (1638400)
I0412 22:47:19.582051  7331 net.cpp:148] Top shape: 100 16 32 32 (1638400)
I0412 22:47:19.582054  7331 net.cpp:156] Memory required for data: 224052400
I0412 22:47:19.582059  7331 layer_factory.hpp:77] Creating layer conv2_3a
I0412 22:47:19.582072  7331 net.cpp:91] Creating Layer conv2_3a
I0412 22:47:19.582077  7331 net.cpp:425] conv2_3a <- conv2_2_conv2_2_relu_0_split_0
I0412 22:47:19.582090  7331 net.cpp:399] conv2_3a -> conv2_3a
I0412 22:47:19.583178  7331 net.cpp:141] Setting up conv2_3a
I0412 22:47:19.583194  7331 net.cpp:148] Top shape: 100 16 32 32 (1638400)
I0412 22:47:19.583204  7331 net.cpp:156] Memory required for data: 230606000
I0412 22:47:19.583211  7331 layer_factory.hpp:77] Creating layer bn_conv2_3a
I0412 22:47:19.583225  7331 net.cpp:91] Creating Layer bn_conv2_3a
I0412 22:47:19.583230  7331 net.cpp:425] bn_conv2_3a <- conv2_3a
I0412 22:47:19.583240  7331 net.cpp:386] bn_conv2_3a -> conv2_3a (in-place)
I0412 22:47:19.583469  7331 net.cpp:141] Setting up bn_conv2_3a
I0412 22:47:19.583479  7331 net.cpp:148] Top shape: 100 16 32 32 (1638400)
I0412 22:47:19.583483  7331 net.cpp:156] Memory required for data: 237159600
I0412 22:47:19.583492  7331 layer_factory.hpp:77] Creating layer scale_conv2_3a
I0412 22:47:19.583500  7331 net.cpp:91] Creating Layer scale_conv2_3a
I0412 22:47:19.583511  7331 net.cpp:425] scale_conv2_3a <- conv2_3a
I0412 22:47:19.583519  7331 net.cpp:386] scale_conv2_3a -> conv2_3a (in-place)
I0412 22:47:19.583565  7331 layer_factory.hpp:77] Creating layer scale_conv2_3a
I0412 22:47:19.583690  7331 net.cpp:141] Setting up scale_conv2_3a
I0412 22:47:19.583700  7331 net.cpp:148] Top shape: 100 16 32 32 (1638400)
I0412 22:47:19.583705  7331 net.cpp:156] Memory required for data: 243713200
I0412 22:47:19.583712  7331 layer_factory.hpp:77] Creating layer conv2_3a_sum
I0412 22:47:19.583719  7331 net.cpp:91] Creating Layer conv2_3a_sum
I0412 22:47:19.583724  7331 net.cpp:425] conv2_3a_sum <- conv2_2_conv2_2_relu_0_split_1
I0412 22:47:19.583730  7331 net.cpp:425] conv2_3a_sum <- conv2_3a
I0412 22:47:19.583737  7331 net.cpp:399] conv2_3a_sum -> conv2_3a_sum
I0412 22:47:19.583765  7331 net.cpp:141] Setting up conv2_3a_sum
I0412 22:47:19.583773  7331 net.cpp:148] Top shape: 100 16 32 32 (1638400)
I0412 22:47:19.583777  7331 net.cpp:156] Memory required for data: 250266800
I0412 22:47:19.583782  7331 layer_factory.hpp:77] Creating layer conv2_3a_relu
I0412 22:47:19.583788  7331 net.cpp:91] Creating Layer conv2_3a_relu
I0412 22:47:19.583793  7331 net.cpp:425] conv2_3a_relu <- conv2_3a_sum
I0412 22:47:19.583801  7331 net.cpp:386] conv2_3a_relu -> conv2_3a_sum (in-place)
I0412 22:47:19.583981  7331 net.cpp:141] Setting up conv2_3a_relu
I0412 22:47:19.583999  7331 net.cpp:148] Top shape: 100 16 32 32 (1638400)
I0412 22:47:19.584004  7331 net.cpp:156] Memory required for data: 256820400
I0412 22:47:19.584009  7331 layer_factory.hpp:77] Creating layer conv2_3a_sum_conv2_3a_relu_0_split
I0412 22:47:19.584017  7331 net.cpp:91] Creating Layer conv2_3a_sum_conv2_3a_relu_0_split
I0412 22:47:19.584022  7331 net.cpp:425] conv2_3a_sum_conv2_3a_relu_0_split <- conv2_3a_sum
I0412 22:47:19.584030  7331 net.cpp:399] conv2_3a_sum_conv2_3a_relu_0_split -> conv2_3a_sum_conv2_3a_relu_0_split_0
I0412 22:47:19.584038  7331 net.cpp:399] conv2_3a_sum_conv2_3a_relu_0_split -> conv2_3a_sum_conv2_3a_relu_0_split_1
I0412 22:47:19.584085  7331 net.cpp:141] Setting up conv2_3a_sum_conv2_3a_relu_0_split
I0412 22:47:19.584092  7331 net.cpp:148] Top shape: 100 16 32 32 (1638400)
I0412 22:47:19.584110  7331 net.cpp:148] Top shape: 100 16 32 32 (1638400)
I0412 22:47:19.584115  7331 net.cpp:156] Memory required for data: 269927600
I0412 22:47:19.584118  7331 layer_factory.hpp:77] Creating layer conv2_3b
I0412 22:47:19.584128  7331 net.cpp:91] Creating Layer conv2_3b
I0412 22:47:19.584134  7331 net.cpp:425] conv2_3b <- conv2_3a_sum_conv2_3a_relu_0_split_0
I0412 22:47:19.584148  7331 net.cpp:399] conv2_3b -> conv2_3b
I0412 22:47:19.585296  7331 net.cpp:141] Setting up conv2_3b
I0412 22:47:19.585312  7331 net.cpp:148] Top shape: 100 16 32 32 (1638400)
I0412 22:47:19.585319  7331 net.cpp:156] Memory required for data: 276481200
I0412 22:47:19.585326  7331 layer_factory.hpp:77] Creating layer bn_conv2_3b
I0412 22:47:19.585337  7331 net.cpp:91] Creating Layer bn_conv2_3b
I0412 22:47:19.585342  7331 net.cpp:425] bn_conv2_3b <- conv2_3b
I0412 22:47:19.585350  7331 net.cpp:386] bn_conv2_3b -> conv2_3b (in-place)
I0412 22:47:19.585598  7331 net.cpp:141] Setting up bn_conv2_3b
I0412 22:47:19.585608  7331 net.cpp:148] Top shape: 100 16 32 32 (1638400)
I0412 22:47:19.585613  7331 net.cpp:156] Memory required for data: 283034800
I0412 22:47:19.585621  7331 layer_factory.hpp:77] Creating layer scale_conv2_3b
I0412 22:47:19.585629  7331 net.cpp:91] Creating Layer scale_conv2_3b
I0412 22:47:19.585633  7331 net.cpp:425] scale_conv2_3b <- conv2_3b
I0412 22:47:19.585643  7331 net.cpp:386] scale_conv2_3b -> conv2_3b (in-place)
I0412 22:47:19.585685  7331 layer_factory.hpp:77] Creating layer scale_conv2_3b
I0412 22:47:19.585810  7331 net.cpp:141] Setting up scale_conv2_3b
I0412 22:47:19.585820  7331 net.cpp:148] Top shape: 100 16 32 32 (1638400)
I0412 22:47:19.585825  7331 net.cpp:156] Memory required for data: 289588400
I0412 22:47:19.585832  7331 layer_factory.hpp:77] Creating layer conv2_3
I0412 22:47:19.585839  7331 net.cpp:91] Creating Layer conv2_3
I0412 22:47:19.585844  7331 net.cpp:425] conv2_3 <- conv2_3a_sum_conv2_3a_relu_0_split_1
I0412 22:47:19.585850  7331 net.cpp:425] conv2_3 <- conv2_3b
I0412 22:47:19.585856  7331 net.cpp:399] conv2_3 -> conv2_3
I0412 22:47:19.585885  7331 net.cpp:141] Setting up conv2_3
I0412 22:47:19.585892  7331 net.cpp:148] Top shape: 100 16 32 32 (1638400)
I0412 22:47:19.585897  7331 net.cpp:156] Memory required for data: 296142000
I0412 22:47:19.585901  7331 layer_factory.hpp:77] Creating layer conv2_3_relu
I0412 22:47:19.585909  7331 net.cpp:91] Creating Layer conv2_3_relu
I0412 22:47:19.585914  7331 net.cpp:425] conv2_3_relu <- conv2_3
I0412 22:47:19.585921  7331 net.cpp:386] conv2_3_relu -> conv2_3 (in-place)
I0412 22:47:19.586307  7331 net.cpp:141] Setting up conv2_3_relu
I0412 22:47:19.586320  7331 net.cpp:148] Top shape: 100 16 32 32 (1638400)
I0412 22:47:19.586325  7331 net.cpp:156] Memory required for data: 302695600
I0412 22:47:19.586330  7331 layer_factory.hpp:77] Creating layer conv2_3_conv2_3_relu_0_split
I0412 22:47:19.586338  7331 net.cpp:91] Creating Layer conv2_3_conv2_3_relu_0_split
I0412 22:47:19.586344  7331 net.cpp:425] conv2_3_conv2_3_relu_0_split <- conv2_3
I0412 22:47:19.586351  7331 net.cpp:399] conv2_3_conv2_3_relu_0_split -> conv2_3_conv2_3_relu_0_split_0
I0412 22:47:19.586360  7331 net.cpp:399] conv2_3_conv2_3_relu_0_split -> conv2_3_conv2_3_relu_0_split_1
I0412 22:47:19.586410  7331 net.cpp:141] Setting up conv2_3_conv2_3_relu_0_split
I0412 22:47:19.586418  7331 net.cpp:148] Top shape: 100 16 32 32 (1638400)
I0412 22:47:19.586424  7331 net.cpp:148] Top shape: 100 16 32 32 (1638400)
I0412 22:47:19.586428  7331 net.cpp:156] Memory required for data: 315802800
I0412 22:47:19.586433  7331 layer_factory.hpp:77] Creating layer conv2_sub
I0412 22:47:19.586444  7331 net.cpp:91] Creating Layer conv2_sub
I0412 22:47:19.586450  7331 net.cpp:425] conv2_sub <- conv2_3_conv2_3_relu_0_split_0
I0412 22:47:19.586457  7331 net.cpp:399] conv2_sub -> conv2_sub
I0412 22:47:19.587517  7331 net.cpp:141] Setting up conv2_sub
I0412 22:47:19.587532  7331 net.cpp:148] Top shape: 100 32 16 16 (819200)
I0412 22:47:19.587538  7331 net.cpp:156] Memory required for data: 319079600
I0412 22:47:19.587546  7331 layer_factory.hpp:77] Creating layer bn_conv2_sub
I0412 22:47:19.587554  7331 net.cpp:91] Creating Layer bn_conv2_sub
I0412 22:47:19.587560  7331 net.cpp:425] bn_conv2_sub <- conv2_sub
I0412 22:47:19.587568  7331 net.cpp:386] bn_conv2_sub -> conv2_sub (in-place)
I0412 22:47:19.587785  7331 net.cpp:141] Setting up bn_conv2_sub
I0412 22:47:19.587793  7331 net.cpp:148] Top shape: 100 32 16 16 (819200)
I0412 22:47:19.587797  7331 net.cpp:156] Memory required for data: 322356400
I0412 22:47:19.587806  7331 layer_factory.hpp:77] Creating layer scale_conv2_sub
I0412 22:47:19.587813  7331 net.cpp:91] Creating Layer scale_conv2_sub
I0412 22:47:19.587818  7331 net.cpp:425] scale_conv2_sub <- conv2_sub
I0412 22:47:19.587826  7331 net.cpp:386] scale_conv2_sub -> conv2_sub (in-place)
I0412 22:47:19.587872  7331 layer_factory.hpp:77] Creating layer scale_conv2_sub
I0412 22:47:19.587997  7331 net.cpp:141] Setting up scale_conv2_sub
I0412 22:47:19.588012  7331 net.cpp:148] Top shape: 100 32 16 16 (819200)
I0412 22:47:19.588017  7331 net.cpp:156] Memory required for data: 325633200
I0412 22:47:19.588024  7331 layer_factory.hpp:77] Creating layer conv3_1a
I0412 22:47:19.588037  7331 net.cpp:91] Creating Layer conv3_1a
I0412 22:47:19.588043  7331 net.cpp:425] conv3_1a <- conv2_3_conv2_3_relu_0_split_1
I0412 22:47:19.588050  7331 net.cpp:399] conv3_1a -> conv3_1a
I0412 22:47:19.589028  7331 net.cpp:141] Setting up conv3_1a
I0412 22:47:19.589046  7331 net.cpp:148] Top shape: 100 32 16 16 (819200)
I0412 22:47:19.589052  7331 net.cpp:156] Memory required for data: 328910000
I0412 22:47:19.589061  7331 layer_factory.hpp:77] Creating layer bn_conv3_1a
I0412 22:47:19.589068  7331 net.cpp:91] Creating Layer bn_conv3_1a
I0412 22:47:19.589073  7331 net.cpp:425] bn_conv3_1a <- conv3_1a
I0412 22:47:19.589082  7331 net.cpp:386] bn_conv3_1a -> conv3_1a (in-place)
I0412 22:47:19.589323  7331 net.cpp:141] Setting up bn_conv3_1a
I0412 22:47:19.589332  7331 net.cpp:148] Top shape: 100 32 16 16 (819200)
I0412 22:47:19.589337  7331 net.cpp:156] Memory required for data: 332186800
I0412 22:47:19.589346  7331 layer_factory.hpp:77] Creating layer scale_conv3_1a
I0412 22:47:19.589354  7331 net.cpp:91] Creating Layer scale_conv3_1a
I0412 22:47:19.589359  7331 net.cpp:425] scale_conv3_1a <- conv3_1a
I0412 22:47:19.589365  7331 net.cpp:386] scale_conv3_1a -> conv3_1a (in-place)
I0412 22:47:19.589413  7331 layer_factory.hpp:77] Creating layer scale_conv3_1a
I0412 22:47:19.589551  7331 net.cpp:141] Setting up scale_conv3_1a
I0412 22:47:19.589560  7331 net.cpp:148] Top shape: 100 32 16 16 (819200)
I0412 22:47:19.589565  7331 net.cpp:156] Memory required for data: 335463600
I0412 22:47:19.589571  7331 layer_factory.hpp:77] Creating layer conv3_1a_sum
I0412 22:47:19.589582  7331 net.cpp:91] Creating Layer conv3_1a_sum
I0412 22:47:19.589588  7331 net.cpp:425] conv3_1a_sum <- conv3_1a
I0412 22:47:19.589593  7331 net.cpp:425] conv3_1a_sum <- conv2_sub
I0412 22:47:19.589601  7331 net.cpp:399] conv3_1a_sum -> conv3_1a_sum
I0412 22:47:19.589623  7331 net.cpp:141] Setting up conv3_1a_sum
I0412 22:47:19.589630  7331 net.cpp:148] Top shape: 100 32 16 16 (819200)
I0412 22:47:19.589634  7331 net.cpp:156] Memory required for data: 338740400
I0412 22:47:19.589639  7331 layer_factory.hpp:77] Creating layer conv3_1a_relu
I0412 22:47:19.589648  7331 net.cpp:91] Creating Layer conv3_1a_relu
I0412 22:47:19.589653  7331 net.cpp:425] conv3_1a_relu <- conv3_1a_sum
I0412 22:47:19.589658  7331 net.cpp:386] conv3_1a_relu -> conv3_1a_sum (in-place)
I0412 22:47:19.589946  7331 net.cpp:141] Setting up conv3_1a_relu
I0412 22:47:19.589961  7331 net.cpp:148] Top shape: 100 32 16 16 (819200)
I0412 22:47:19.589965  7331 net.cpp:156] Memory required for data: 342017200
I0412 22:47:19.589970  7331 layer_factory.hpp:77] Creating layer conv3_1a_sum_conv3_1a_relu_0_split
I0412 22:47:19.589979  7331 net.cpp:91] Creating Layer conv3_1a_sum_conv3_1a_relu_0_split
I0412 22:47:19.589984  7331 net.cpp:425] conv3_1a_sum_conv3_1a_relu_0_split <- conv3_1a_sum
I0412 22:47:19.589993  7331 net.cpp:399] conv3_1a_sum_conv3_1a_relu_0_split -> conv3_1a_sum_conv3_1a_relu_0_split_0
I0412 22:47:19.590001  7331 net.cpp:399] conv3_1a_sum_conv3_1a_relu_0_split -> conv3_1a_sum_conv3_1a_relu_0_split_1
I0412 22:47:19.590049  7331 net.cpp:141] Setting up conv3_1a_sum_conv3_1a_relu_0_split
I0412 22:47:19.590057  7331 net.cpp:148] Top shape: 100 32 16 16 (819200)
I0412 22:47:19.590064  7331 net.cpp:148] Top shape: 100 32 16 16 (819200)
I0412 22:47:19.590067  7331 net.cpp:156] Memory required for data: 348570800
I0412 22:47:19.590072  7331 layer_factory.hpp:77] Creating layer conv3_1b
I0412 22:47:19.590085  7331 net.cpp:91] Creating Layer conv3_1b
I0412 22:47:19.590090  7331 net.cpp:425] conv3_1b <- conv3_1a_sum_conv3_1a_relu_0_split_0
I0412 22:47:19.590098  7331 net.cpp:399] conv3_1b -> conv3_1b
I0412 22:47:19.591413  7331 net.cpp:141] Setting up conv3_1b
I0412 22:47:19.591428  7331 net.cpp:148] Top shape: 100 32 16 16 (819200)
I0412 22:47:19.591434  7331 net.cpp:156] Memory required for data: 351847600
I0412 22:47:19.591456  7331 layer_factory.hpp:77] Creating layer bn_conv3_1b
I0412 22:47:19.591467  7331 net.cpp:91] Creating Layer bn_conv3_1b
I0412 22:47:19.591472  7331 net.cpp:425] bn_conv3_1b <- conv3_1b
I0412 22:47:19.591480  7331 net.cpp:386] bn_conv3_1b -> conv3_1b (in-place)
I0412 22:47:19.591698  7331 net.cpp:141] Setting up bn_conv3_1b
I0412 22:47:19.591707  7331 net.cpp:148] Top shape: 100 32 16 16 (819200)
I0412 22:47:19.591712  7331 net.cpp:156] Memory required for data: 355124400
I0412 22:47:19.591722  7331 layer_factory.hpp:77] Creating layer scale_conv3_1b
I0412 22:47:19.591728  7331 net.cpp:91] Creating Layer scale_conv3_1b
I0412 22:47:19.591733  7331 net.cpp:425] scale_conv3_1b <- conv3_1b
I0412 22:47:19.591742  7331 net.cpp:386] scale_conv3_1b -> conv3_1b (in-place)
I0412 22:47:19.591789  7331 layer_factory.hpp:77] Creating layer scale_conv3_1b
I0412 22:47:19.591917  7331 net.cpp:141] Setting up scale_conv3_1b
I0412 22:47:19.591925  7331 net.cpp:148] Top shape: 100 32 16 16 (819200)
I0412 22:47:19.591929  7331 net.cpp:156] Memory required for data: 358401200
I0412 22:47:19.591938  7331 layer_factory.hpp:77] Creating layer conv3_1
I0412 22:47:19.591944  7331 net.cpp:91] Creating Layer conv3_1
I0412 22:47:19.591949  7331 net.cpp:425] conv3_1 <- conv3_1a_sum_conv3_1a_relu_0_split_1
I0412 22:47:19.591954  7331 net.cpp:425] conv3_1 <- conv3_1b
I0412 22:47:19.591961  7331 net.cpp:399] conv3_1 -> conv3_1
I0412 22:47:19.591985  7331 net.cpp:141] Setting up conv3_1
I0412 22:47:19.591994  7331 net.cpp:148] Top shape: 100 32 16 16 (819200)
I0412 22:47:19.591997  7331 net.cpp:156] Memory required for data: 361678000
I0412 22:47:19.592002  7331 layer_factory.hpp:77] Creating layer conv3_1_relu
I0412 22:47:19.592008  7331 net.cpp:91] Creating Layer conv3_1_relu
I0412 22:47:19.592015  7331 net.cpp:425] conv3_1_relu <- conv3_1
I0412 22:47:19.592020  7331 net.cpp:386] conv3_1_relu -> conv3_1 (in-place)
I0412 22:47:19.592195  7331 net.cpp:141] Setting up conv3_1_relu
I0412 22:47:19.592205  7331 net.cpp:148] Top shape: 100 32 16 16 (819200)
I0412 22:47:19.592209  7331 net.cpp:156] Memory required for data: 364954800
I0412 22:47:19.592214  7331 layer_factory.hpp:77] Creating layer conv3_1_conv3_1_relu_0_split
I0412 22:47:19.592222  7331 net.cpp:91] Creating Layer conv3_1_conv3_1_relu_0_split
I0412 22:47:19.592228  7331 net.cpp:425] conv3_1_conv3_1_relu_0_split <- conv3_1
I0412 22:47:19.592234  7331 net.cpp:399] conv3_1_conv3_1_relu_0_split -> conv3_1_conv3_1_relu_0_split_0
I0412 22:47:19.592243  7331 net.cpp:399] conv3_1_conv3_1_relu_0_split -> conv3_1_conv3_1_relu_0_split_1
I0412 22:47:19.592290  7331 net.cpp:141] Setting up conv3_1_conv3_1_relu_0_split
I0412 22:47:19.592298  7331 net.cpp:148] Top shape: 100 32 16 16 (819200)
I0412 22:47:19.592303  7331 net.cpp:148] Top shape: 100 32 16 16 (819200)
I0412 22:47:19.592308  7331 net.cpp:156] Memory required for data: 371508400
I0412 22:47:19.592313  7331 layer_factory.hpp:77] Creating layer conv3_2a
I0412 22:47:19.592324  7331 net.cpp:91] Creating Layer conv3_2a
I0412 22:47:19.592329  7331 net.cpp:425] conv3_2a <- conv3_1_conv3_1_relu_0_split_0
I0412 22:47:19.592337  7331 net.cpp:399] conv3_2a -> conv3_2a
I0412 22:47:19.593693  7331 net.cpp:141] Setting up conv3_2a
I0412 22:47:19.593709  7331 net.cpp:148] Top shape: 100 32 16 16 (819200)
I0412 22:47:19.593715  7331 net.cpp:156] Memory required for data: 374785200
I0412 22:47:19.593724  7331 layer_factory.hpp:77] Creating layer bn_conv3_2a
I0412 22:47:19.593734  7331 net.cpp:91] Creating Layer bn_conv3_2a
I0412 22:47:19.593739  7331 net.cpp:425] bn_conv3_2a <- conv3_2a
I0412 22:47:19.593745  7331 net.cpp:386] bn_conv3_2a -> conv3_2a (in-place)
I0412 22:47:19.593966  7331 net.cpp:141] Setting up bn_conv3_2a
I0412 22:47:19.593974  7331 net.cpp:148] Top shape: 100 32 16 16 (819200)
I0412 22:47:19.593978  7331 net.cpp:156] Memory required for data: 378062000
I0412 22:47:19.593987  7331 layer_factory.hpp:77] Creating layer scale_conv3_2a
I0412 22:47:19.593994  7331 net.cpp:91] Creating Layer scale_conv3_2a
I0412 22:47:19.594004  7331 net.cpp:425] scale_conv3_2a <- conv3_2a
I0412 22:47:19.594013  7331 net.cpp:386] scale_conv3_2a -> conv3_2a (in-place)
I0412 22:47:19.594058  7331 layer_factory.hpp:77] Creating layer scale_conv3_2a
I0412 22:47:19.594185  7331 net.cpp:141] Setting up scale_conv3_2a
I0412 22:47:19.594194  7331 net.cpp:148] Top shape: 100 32 16 16 (819200)
I0412 22:47:19.594198  7331 net.cpp:156] Memory required for data: 381338800
I0412 22:47:19.594205  7331 layer_factory.hpp:77] Creating layer conv3_2a_sum
I0412 22:47:19.594213  7331 net.cpp:91] Creating Layer conv3_2a_sum
I0412 22:47:19.594218  7331 net.cpp:425] conv3_2a_sum <- conv3_1_conv3_1_relu_0_split_1
I0412 22:47:19.594223  7331 net.cpp:425] conv3_2a_sum <- conv3_2a
I0412 22:47:19.594231  7331 net.cpp:399] conv3_2a_sum -> conv3_2a_sum
I0412 22:47:19.594255  7331 net.cpp:141] Setting up conv3_2a_sum
I0412 22:47:19.594262  7331 net.cpp:148] Top shape: 100 32 16 16 (819200)
I0412 22:47:19.594267  7331 net.cpp:156] Memory required for data: 384615600
I0412 22:47:19.594271  7331 layer_factory.hpp:77] Creating layer conv3_2a_relu
I0412 22:47:19.594282  7331 net.cpp:91] Creating Layer conv3_2a_relu
I0412 22:47:19.594286  7331 net.cpp:425] conv3_2a_relu <- conv3_2a_sum
I0412 22:47:19.594292  7331 net.cpp:386] conv3_2a_relu -> conv3_2a_sum (in-place)
I0412 22:47:19.594580  7331 net.cpp:141] Setting up conv3_2a_relu
I0412 22:47:19.594594  7331 net.cpp:148] Top shape: 100 32 16 16 (819200)
I0412 22:47:19.594600  7331 net.cpp:156] Memory required for data: 387892400
I0412 22:47:19.594605  7331 layer_factory.hpp:77] Creating layer conv3_2a_sum_conv3_2a_relu_0_split
I0412 22:47:19.594614  7331 net.cpp:91] Creating Layer conv3_2a_sum_conv3_2a_relu_0_split
I0412 22:47:19.594619  7331 net.cpp:425] conv3_2a_sum_conv3_2a_relu_0_split <- conv3_2a_sum
I0412 22:47:19.594625  7331 net.cpp:399] conv3_2a_sum_conv3_2a_relu_0_split -> conv3_2a_sum_conv3_2a_relu_0_split_0
I0412 22:47:19.594633  7331 net.cpp:399] conv3_2a_sum_conv3_2a_relu_0_split -> conv3_2a_sum_conv3_2a_relu_0_split_1
I0412 22:47:19.594691  7331 net.cpp:141] Setting up conv3_2a_sum_conv3_2a_relu_0_split
I0412 22:47:19.594699  7331 net.cpp:148] Top shape: 100 32 16 16 (819200)
I0412 22:47:19.594705  7331 net.cpp:148] Top shape: 100 32 16 16 (819200)
I0412 22:47:19.594709  7331 net.cpp:156] Memory required for data: 394446000
I0412 22:47:19.594714  7331 layer_factory.hpp:77] Creating layer conv3_2b
I0412 22:47:19.594732  7331 net.cpp:91] Creating Layer conv3_2b
I0412 22:47:19.594738  7331 net.cpp:425] conv3_2b <- conv3_2a_sum_conv3_2a_relu_0_split_0
I0412 22:47:19.594745  7331 net.cpp:399] conv3_2b -> conv3_2b
I0412 22:47:19.595959  7331 net.cpp:141] Setting up conv3_2b
I0412 22:47:19.595974  7331 net.cpp:148] Top shape: 100 32 16 16 (819200)
I0412 22:47:19.595979  7331 net.cpp:156] Memory required for data: 397722800
I0412 22:47:19.595988  7331 layer_factory.hpp:77] Creating layer bn_conv3_2b
I0412 22:47:19.595999  7331 net.cpp:91] Creating Layer bn_conv3_2b
I0412 22:47:19.596004  7331 net.cpp:425] bn_conv3_2b <- conv3_2b
I0412 22:47:19.596012  7331 net.cpp:386] bn_conv3_2b -> conv3_2b (in-place)
I0412 22:47:19.596230  7331 net.cpp:141] Setting up bn_conv3_2b
I0412 22:47:19.596238  7331 net.cpp:148] Top shape: 100 32 16 16 (819200)
I0412 22:47:19.596242  7331 net.cpp:156] Memory required for data: 400999600
I0412 22:47:19.596251  7331 layer_factory.hpp:77] Creating layer scale_conv3_2b
I0412 22:47:19.596261  7331 net.cpp:91] Creating Layer scale_conv3_2b
I0412 22:47:19.596266  7331 net.cpp:425] scale_conv3_2b <- conv3_2b
I0412 22:47:19.596271  7331 net.cpp:386] scale_conv3_2b -> conv3_2b (in-place)
I0412 22:47:19.596318  7331 layer_factory.hpp:77] Creating layer scale_conv3_2b
I0412 22:47:19.596448  7331 net.cpp:141] Setting up scale_conv3_2b
I0412 22:47:19.596457  7331 net.cpp:148] Top shape: 100 32 16 16 (819200)
I0412 22:47:19.596460  7331 net.cpp:156] Memory required for data: 404276400
I0412 22:47:19.596468  7331 layer_factory.hpp:77] Creating layer conv3_2
I0412 22:47:19.596483  7331 net.cpp:91] Creating Layer conv3_2
I0412 22:47:19.596489  7331 net.cpp:425] conv3_2 <- conv3_2a_sum_conv3_2a_relu_0_split_1
I0412 22:47:19.596495  7331 net.cpp:425] conv3_2 <- conv3_2b
I0412 22:47:19.596501  7331 net.cpp:399] conv3_2 -> conv3_2
I0412 22:47:19.596527  7331 net.cpp:141] Setting up conv3_2
I0412 22:47:19.596535  7331 net.cpp:148] Top shape: 100 32 16 16 (819200)
I0412 22:47:19.596539  7331 net.cpp:156] Memory required for data: 407553200
I0412 22:47:19.596544  7331 layer_factory.hpp:77] Creating layer conv3_2_relu
I0412 22:47:19.596550  7331 net.cpp:91] Creating Layer conv3_2_relu
I0412 22:47:19.596555  7331 net.cpp:425] conv3_2_relu <- conv3_2
I0412 22:47:19.596561  7331 net.cpp:386] conv3_2_relu -> conv3_2 (in-place)
I0412 22:47:19.596848  7331 net.cpp:141] Setting up conv3_2_relu
I0412 22:47:19.596863  7331 net.cpp:148] Top shape: 100 32 16 16 (819200)
I0412 22:47:19.596868  7331 net.cpp:156] Memory required for data: 410830000
I0412 22:47:19.596873  7331 layer_factory.hpp:77] Creating layer conv3_2_conv3_2_relu_0_split
I0412 22:47:19.596879  7331 net.cpp:91] Creating Layer conv3_2_conv3_2_relu_0_split
I0412 22:47:19.596884  7331 net.cpp:425] conv3_2_conv3_2_relu_0_split <- conv3_2
I0412 22:47:19.596891  7331 net.cpp:399] conv3_2_conv3_2_relu_0_split -> conv3_2_conv3_2_relu_0_split_0
I0412 22:47:19.596902  7331 net.cpp:399] conv3_2_conv3_2_relu_0_split -> conv3_2_conv3_2_relu_0_split_1
I0412 22:47:19.596951  7331 net.cpp:141] Setting up conv3_2_conv3_2_relu_0_split
I0412 22:47:19.596958  7331 net.cpp:148] Top shape: 100 32 16 16 (819200)
I0412 22:47:19.596964  7331 net.cpp:148] Top shape: 100 32 16 16 (819200)
I0412 22:47:19.596968  7331 net.cpp:156] Memory required for data: 417383600
I0412 22:47:19.596972  7331 layer_factory.hpp:77] Creating layer conv3_3a
I0412 22:47:19.596987  7331 net.cpp:91] Creating Layer conv3_3a
I0412 22:47:19.596992  7331 net.cpp:425] conv3_3a <- conv3_2_conv3_2_relu_0_split_0
I0412 22:47:19.597000  7331 net.cpp:399] conv3_3a -> conv3_3a
I0412 22:47:19.598361  7331 net.cpp:141] Setting up conv3_3a
I0412 22:47:19.598377  7331 net.cpp:148] Top shape: 100 32 16 16 (819200)
I0412 22:47:19.598382  7331 net.cpp:156] Memory required for data: 420660400
I0412 22:47:19.598390  7331 layer_factory.hpp:77] Creating layer bn_conv3_3a
I0412 22:47:19.598400  7331 net.cpp:91] Creating Layer bn_conv3_3a
I0412 22:47:19.598405  7331 net.cpp:425] bn_conv3_3a <- conv3_3a
I0412 22:47:19.598412  7331 net.cpp:386] bn_conv3_3a -> conv3_3a (in-place)
I0412 22:47:19.598634  7331 net.cpp:141] Setting up bn_conv3_3a
I0412 22:47:19.598644  7331 net.cpp:148] Top shape: 100 32 16 16 (819200)
I0412 22:47:19.598647  7331 net.cpp:156] Memory required for data: 423937200
I0412 22:47:19.598656  7331 layer_factory.hpp:77] Creating layer scale_conv3_3a
I0412 22:47:19.598664  7331 net.cpp:91] Creating Layer scale_conv3_3a
I0412 22:47:19.598669  7331 net.cpp:425] scale_conv3_3a <- conv3_3a
I0412 22:47:19.598675  7331 net.cpp:386] scale_conv3_3a -> conv3_3a (in-place)
I0412 22:47:19.598726  7331 layer_factory.hpp:77] Creating layer scale_conv3_3a
I0412 22:47:19.598855  7331 net.cpp:141] Setting up scale_conv3_3a
I0412 22:47:19.598862  7331 net.cpp:148] Top shape: 100 32 16 16 (819200)
I0412 22:47:19.598867  7331 net.cpp:156] Memory required for data: 427214000
I0412 22:47:19.598875  7331 layer_factory.hpp:77] Creating layer conv3_3a_sum
I0412 22:47:19.598881  7331 net.cpp:91] Creating Layer conv3_3a_sum
I0412 22:47:19.598888  7331 net.cpp:425] conv3_3a_sum <- conv3_2_conv3_2_relu_0_split_1
I0412 22:47:19.598894  7331 net.cpp:425] conv3_3a_sum <- conv3_3a
I0412 22:47:19.598901  7331 net.cpp:399] conv3_3a_sum -> conv3_3a_sum
I0412 22:47:19.598924  7331 net.cpp:141] Setting up conv3_3a_sum
I0412 22:47:19.598932  7331 net.cpp:148] Top shape: 100 32 16 16 (819200)
I0412 22:47:19.598935  7331 net.cpp:156] Memory required for data: 430490800
I0412 22:47:19.598940  7331 layer_factory.hpp:77] Creating layer conv3_3a_relu
I0412 22:47:19.598948  7331 net.cpp:91] Creating Layer conv3_3a_relu
I0412 22:47:19.598954  7331 net.cpp:425] conv3_3a_relu <- conv3_3a_sum
I0412 22:47:19.598964  7331 net.cpp:386] conv3_3a_relu -> conv3_3a_sum (in-place)
I0412 22:47:19.599149  7331 net.cpp:141] Setting up conv3_3a_relu
I0412 22:47:19.599159  7331 net.cpp:148] Top shape: 100 32 16 16 (819200)
I0412 22:47:19.599164  7331 net.cpp:156] Memory required for data: 433767600
I0412 22:47:19.599169  7331 layer_factory.hpp:77] Creating layer conv3_3a_sum_conv3_3a_relu_0_split
I0412 22:47:19.599175  7331 net.cpp:91] Creating Layer conv3_3a_sum_conv3_3a_relu_0_split
I0412 22:47:19.599180  7331 net.cpp:425] conv3_3a_sum_conv3_3a_relu_0_split <- conv3_3a_sum
I0412 22:47:19.599189  7331 net.cpp:399] conv3_3a_sum_conv3_3a_relu_0_split -> conv3_3a_sum_conv3_3a_relu_0_split_0
I0412 22:47:19.599197  7331 net.cpp:399] conv3_3a_sum_conv3_3a_relu_0_split -> conv3_3a_sum_conv3_3a_relu_0_split_1
I0412 22:47:19.599244  7331 net.cpp:141] Setting up conv3_3a_sum_conv3_3a_relu_0_split
I0412 22:47:19.599251  7331 net.cpp:148] Top shape: 100 32 16 16 (819200)
I0412 22:47:19.599256  7331 net.cpp:148] Top shape: 100 32 16 16 (819200)
I0412 22:47:19.599261  7331 net.cpp:156] Memory required for data: 440321200
I0412 22:47:19.599266  7331 layer_factory.hpp:77] Creating layer conv3_3b
I0412 22:47:19.599279  7331 net.cpp:91] Creating Layer conv3_3b
I0412 22:47:19.599284  7331 net.cpp:425] conv3_3b <- conv3_3a_sum_conv3_3a_relu_0_split_0
I0412 22:47:19.599292  7331 net.cpp:399] conv3_3b -> conv3_3b
I0412 22:47:19.600622  7331 net.cpp:141] Setting up conv3_3b
I0412 22:47:19.600638  7331 net.cpp:148] Top shape: 100 32 16 16 (819200)
I0412 22:47:19.600643  7331 net.cpp:156] Memory required for data: 443598000
I0412 22:47:19.600651  7331 layer_factory.hpp:77] Creating layer bn_conv3_3b
I0412 22:47:19.600661  7331 net.cpp:91] Creating Layer bn_conv3_3b
I0412 22:47:19.600666  7331 net.cpp:425] bn_conv3_3b <- conv3_3b
I0412 22:47:19.600673  7331 net.cpp:386] bn_conv3_3b -> conv3_3b (in-place)
I0412 22:47:19.600898  7331 net.cpp:141] Setting up bn_conv3_3b
I0412 22:47:19.600908  7331 net.cpp:148] Top shape: 100 32 16 16 (819200)
I0412 22:47:19.600911  7331 net.cpp:156] Memory required for data: 446874800
I0412 22:47:19.600920  7331 layer_factory.hpp:77] Creating layer scale_conv3_3b
I0412 22:47:19.600929  7331 net.cpp:91] Creating Layer scale_conv3_3b
I0412 22:47:19.600934  7331 net.cpp:425] scale_conv3_3b <- conv3_3b
I0412 22:47:19.600941  7331 net.cpp:386] scale_conv3_3b -> conv3_3b (in-place)
I0412 22:47:19.600989  7331 layer_factory.hpp:77] Creating layer scale_conv3_3b
I0412 22:47:19.601136  7331 net.cpp:141] Setting up scale_conv3_3b
I0412 22:47:19.601146  7331 net.cpp:148] Top shape: 100 32 16 16 (819200)
I0412 22:47:19.601151  7331 net.cpp:156] Memory required for data: 450151600
I0412 22:47:19.601160  7331 layer_factory.hpp:77] Creating layer conv3_3
I0412 22:47:19.601168  7331 net.cpp:91] Creating Layer conv3_3
I0412 22:47:19.601173  7331 net.cpp:425] conv3_3 <- conv3_3b
I0412 22:47:19.601179  7331 net.cpp:425] conv3_3 <- conv3_3a_sum_conv3_3a_relu_0_split_1
I0412 22:47:19.601188  7331 net.cpp:399] conv3_3 -> conv3_3
I0412 22:47:19.601213  7331 net.cpp:141] Setting up conv3_3
I0412 22:47:19.601222  7331 net.cpp:148] Top shape: 100 32 16 16 (819200)
I0412 22:47:19.601225  7331 net.cpp:156] Memory required for data: 453428400
I0412 22:47:19.601230  7331 layer_factory.hpp:77] Creating layer conv3_3_relu
I0412 22:47:19.601238  7331 net.cpp:91] Creating Layer conv3_3_relu
I0412 22:47:19.601243  7331 net.cpp:425] conv3_3_relu <- conv3_3
I0412 22:47:19.601250  7331 net.cpp:386] conv3_3_relu -> conv3_3 (in-place)
I0412 22:47:19.601553  7331 net.cpp:141] Setting up conv3_3_relu
I0412 22:47:19.601567  7331 net.cpp:148] Top shape: 100 32 16 16 (819200)
I0412 22:47:19.601572  7331 net.cpp:156] Memory required for data: 456705200
I0412 22:47:19.601577  7331 layer_factory.hpp:77] Creating layer conv3_3_conv3_3_relu_0_split
I0412 22:47:19.601584  7331 net.cpp:91] Creating Layer conv3_3_conv3_3_relu_0_split
I0412 22:47:19.601589  7331 net.cpp:425] conv3_3_conv3_3_relu_0_split <- conv3_3
I0412 22:47:19.601603  7331 net.cpp:399] conv3_3_conv3_3_relu_0_split -> conv3_3_conv3_3_relu_0_split_0
I0412 22:47:19.601611  7331 net.cpp:399] conv3_3_conv3_3_relu_0_split -> conv3_3_conv3_3_relu_0_split_1
I0412 22:47:19.601663  7331 net.cpp:141] Setting up conv3_3_conv3_3_relu_0_split
I0412 22:47:19.601670  7331 net.cpp:148] Top shape: 100 32 16 16 (819200)
I0412 22:47:19.601676  7331 net.cpp:148] Top shape: 100 32 16 16 (819200)
I0412 22:47:19.601680  7331 net.cpp:156] Memory required for data: 463258800
I0412 22:47:19.601686  7331 layer_factory.hpp:77] Creating layer conv3_sub
I0412 22:47:19.601697  7331 net.cpp:91] Creating Layer conv3_sub
I0412 22:47:19.601702  7331 net.cpp:425] conv3_sub <- conv3_3_conv3_3_relu_0_split_0
I0412 22:47:19.601711  7331 net.cpp:399] conv3_sub -> conv3_sub
I0412 22:47:19.602728  7331 net.cpp:141] Setting up conv3_sub
I0412 22:47:19.602743  7331 net.cpp:148] Top shape: 100 64 8 8 (409600)
I0412 22:47:19.602748  7331 net.cpp:156] Memory required for data: 464897200
I0412 22:47:19.602756  7331 layer_factory.hpp:77] Creating layer bn_conv3_sub
I0412 22:47:19.602766  7331 net.cpp:91] Creating Layer bn_conv3_sub
I0412 22:47:19.602772  7331 net.cpp:425] bn_conv3_sub <- conv3_sub
I0412 22:47:19.602779  7331 net.cpp:386] bn_conv3_sub -> conv3_sub (in-place)
I0412 22:47:19.603010  7331 net.cpp:141] Setting up bn_conv3_sub
I0412 22:47:19.603019  7331 net.cpp:148] Top shape: 100 64 8 8 (409600)
I0412 22:47:19.603024  7331 net.cpp:156] Memory required for data: 466535600
I0412 22:47:19.603032  7331 layer_factory.hpp:77] Creating layer scale_conv3_sub
I0412 22:47:19.603039  7331 net.cpp:91] Creating Layer scale_conv3_sub
I0412 22:47:19.603044  7331 net.cpp:425] scale_conv3_sub <- conv3_sub
I0412 22:47:19.603050  7331 net.cpp:386] scale_conv3_sub -> conv3_sub (in-place)
I0412 22:47:19.603101  7331 layer_factory.hpp:77] Creating layer scale_conv3_sub
I0412 22:47:19.603237  7331 net.cpp:141] Setting up scale_conv3_sub
I0412 22:47:19.603245  7331 net.cpp:148] Top shape: 100 64 8 8 (409600)
I0412 22:47:19.603250  7331 net.cpp:156] Memory required for data: 468174000
I0412 22:47:19.603257  7331 layer_factory.hpp:77] Creating layer conv4_1a
I0412 22:47:19.603271  7331 net.cpp:91] Creating Layer conv4_1a
I0412 22:47:19.603278  7331 net.cpp:425] conv4_1a <- conv3_3_conv3_3_relu_0_split_1
I0412 22:47:19.603287  7331 net.cpp:399] conv4_1a -> conv4_1a
I0412 22:47:19.604508  7331 net.cpp:141] Setting up conv4_1a
I0412 22:47:19.604523  7331 net.cpp:148] Top shape: 100 64 8 8 (409600)
I0412 22:47:19.604528  7331 net.cpp:156] Memory required for data: 469812400
I0412 22:47:19.604537  7331 layer_factory.hpp:77] Creating layer bn_conv4_1a
I0412 22:47:19.604547  7331 net.cpp:91] Creating Layer bn_conv4_1a
I0412 22:47:19.604552  7331 net.cpp:425] bn_conv4_1a <- conv4_1a
I0412 22:47:19.604559  7331 net.cpp:386] bn_conv4_1a -> conv4_1a (in-place)
I0412 22:47:19.604789  7331 net.cpp:141] Setting up bn_conv4_1a
I0412 22:47:19.604796  7331 net.cpp:148] Top shape: 100 64 8 8 (409600)
I0412 22:47:19.604801  7331 net.cpp:156] Memory required for data: 471450800
I0412 22:47:19.604810  7331 layer_factory.hpp:77] Creating layer scale_conv4_1a
I0412 22:47:19.604817  7331 net.cpp:91] Creating Layer scale_conv4_1a
I0412 22:47:19.604822  7331 net.cpp:425] scale_conv4_1a <- conv4_1a
I0412 22:47:19.604828  7331 net.cpp:386] scale_conv4_1a -> conv4_1a (in-place)
I0412 22:47:19.604878  7331 layer_factory.hpp:77] Creating layer scale_conv4_1a
I0412 22:47:19.605012  7331 net.cpp:141] Setting up scale_conv4_1a
I0412 22:47:19.605020  7331 net.cpp:148] Top shape: 100 64 8 8 (409600)
I0412 22:47:19.605025  7331 net.cpp:156] Memory required for data: 473089200
I0412 22:47:19.605032  7331 layer_factory.hpp:77] Creating layer conv4_1a_sum
I0412 22:47:19.605038  7331 net.cpp:91] Creating Layer conv4_1a_sum
I0412 22:47:19.605043  7331 net.cpp:425] conv4_1a_sum <- conv3_sub
I0412 22:47:19.605049  7331 net.cpp:425] conv4_1a_sum <- conv4_1a
I0412 22:47:19.605056  7331 net.cpp:399] conv4_1a_sum -> conv4_1a_sum
I0412 22:47:19.605088  7331 net.cpp:141] Setting up conv4_1a_sum
I0412 22:47:19.605103  7331 net.cpp:148] Top shape: 100 64 8 8 (409600)
I0412 22:47:19.605108  7331 net.cpp:156] Memory required for data: 474727600
I0412 22:47:19.605130  7331 layer_factory.hpp:77] Creating layer conv4_1a_relu
I0412 22:47:19.605137  7331 net.cpp:91] Creating Layer conv4_1a_relu
I0412 22:47:19.605144  7331 net.cpp:425] conv4_1a_relu <- conv4_1a_sum
I0412 22:47:19.605149  7331 net.cpp:386] conv4_1a_relu -> conv4_1a_sum (in-place)
I0412 22:47:19.605489  7331 net.cpp:141] Setting up conv4_1a_relu
I0412 22:47:19.605515  7331 net.cpp:148] Top shape: 100 64 8 8 (409600)
I0412 22:47:19.605520  7331 net.cpp:156] Memory required for data: 476366000
I0412 22:47:19.605525  7331 layer_factory.hpp:77] Creating layer conv4_1a_sum_conv4_1a_relu_0_split
I0412 22:47:19.605538  7331 net.cpp:91] Creating Layer conv4_1a_sum_conv4_1a_relu_0_split
I0412 22:47:19.605543  7331 net.cpp:425] conv4_1a_sum_conv4_1a_relu_0_split <- conv4_1a_sum
I0412 22:47:19.605551  7331 net.cpp:399] conv4_1a_sum_conv4_1a_relu_0_split -> conv4_1a_sum_conv4_1a_relu_0_split_0
I0412 22:47:19.605558  7331 net.cpp:399] conv4_1a_sum_conv4_1a_relu_0_split -> conv4_1a_sum_conv4_1a_relu_0_split_1
I0412 22:47:19.605610  7331 net.cpp:141] Setting up conv4_1a_sum_conv4_1a_relu_0_split
I0412 22:47:19.605618  7331 net.cpp:148] Top shape: 100 64 8 8 (409600)
I0412 22:47:19.605623  7331 net.cpp:148] Top shape: 100 64 8 8 (409600)
I0412 22:47:19.605628  7331 net.cpp:156] Memory required for data: 479642800
I0412 22:47:19.605633  7331 layer_factory.hpp:77] Creating layer conv4_1b
I0412 22:47:19.605645  7331 net.cpp:91] Creating Layer conv4_1b
I0412 22:47:19.605650  7331 net.cpp:425] conv4_1b <- conv4_1a_sum_conv4_1a_relu_0_split_0
I0412 22:47:19.605659  7331 net.cpp:399] conv4_1b -> conv4_1b
I0412 22:47:19.607750  7331 net.cpp:141] Setting up conv4_1b
I0412 22:47:19.607765  7331 net.cpp:148] Top shape: 100 64 8 8 (409600)
I0412 22:47:19.607771  7331 net.cpp:156] Memory required for data: 481281200
I0412 22:47:19.607779  7331 layer_factory.hpp:77] Creating layer bn_conv4_1b
I0412 22:47:19.607789  7331 net.cpp:91] Creating Layer bn_conv4_1b
I0412 22:47:19.607795  7331 net.cpp:425] bn_conv4_1b <- conv4_1b
I0412 22:47:19.607802  7331 net.cpp:386] bn_conv4_1b -> conv4_1b (in-place)
I0412 22:47:19.608032  7331 net.cpp:141] Setting up bn_conv4_1b
I0412 22:47:19.608042  7331 net.cpp:148] Top shape: 100 64 8 8 (409600)
I0412 22:47:19.608047  7331 net.cpp:156] Memory required for data: 482919600
I0412 22:47:19.608055  7331 layer_factory.hpp:77] Creating layer scale_conv4_1b
I0412 22:47:19.608064  7331 net.cpp:91] Creating Layer scale_conv4_1b
I0412 22:47:19.608070  7331 net.cpp:425] scale_conv4_1b <- conv4_1b
I0412 22:47:19.608077  7331 net.cpp:386] scale_conv4_1b -> conv4_1b (in-place)
I0412 22:47:19.608125  7331 layer_factory.hpp:77] Creating layer scale_conv4_1b
I0412 22:47:19.608258  7331 net.cpp:141] Setting up scale_conv4_1b
I0412 22:47:19.608266  7331 net.cpp:148] Top shape: 100 64 8 8 (409600)
I0412 22:47:19.608271  7331 net.cpp:156] Memory required for data: 484558000
I0412 22:47:19.608278  7331 layer_factory.hpp:77] Creating layer conv4_1
I0412 22:47:19.608289  7331 net.cpp:91] Creating Layer conv4_1
I0412 22:47:19.608294  7331 net.cpp:425] conv4_1 <- conv4_1a_sum_conv4_1a_relu_0_split_1
I0412 22:47:19.608299  7331 net.cpp:425] conv4_1 <- conv4_1b
I0412 22:47:19.608306  7331 net.cpp:399] conv4_1 -> conv4_1
I0412 22:47:19.608336  7331 net.cpp:141] Setting up conv4_1
I0412 22:47:19.608345  7331 net.cpp:148] Top shape: 100 64 8 8 (409600)
I0412 22:47:19.608350  7331 net.cpp:156] Memory required for data: 486196400
I0412 22:47:19.608355  7331 layer_factory.hpp:77] Creating layer conv4_1_relu
I0412 22:47:19.608361  7331 net.cpp:91] Creating Layer conv4_1_relu
I0412 22:47:19.608366  7331 net.cpp:425] conv4_1_relu <- conv4_1
I0412 22:47:19.608373  7331 net.cpp:386] conv4_1_relu -> conv4_1 (in-place)
I0412 22:47:19.608659  7331 net.cpp:141] Setting up conv4_1_relu
I0412 22:47:19.608672  7331 net.cpp:148] Top shape: 100 64 8 8 (409600)
I0412 22:47:19.608677  7331 net.cpp:156] Memory required for data: 487834800
I0412 22:47:19.608686  7331 layer_factory.hpp:77] Creating layer conv4_1_conv4_1_relu_0_split
I0412 22:47:19.608696  7331 net.cpp:91] Creating Layer conv4_1_conv4_1_relu_0_split
I0412 22:47:19.608701  7331 net.cpp:425] conv4_1_conv4_1_relu_0_split <- conv4_1
I0412 22:47:19.608710  7331 net.cpp:399] conv4_1_conv4_1_relu_0_split -> conv4_1_conv4_1_relu_0_split_0
I0412 22:47:19.608717  7331 net.cpp:399] conv4_1_conv4_1_relu_0_split -> conv4_1_conv4_1_relu_0_split_1
I0412 22:47:19.608775  7331 net.cpp:141] Setting up conv4_1_conv4_1_relu_0_split
I0412 22:47:19.608783  7331 net.cpp:148] Top shape: 100 64 8 8 (409600)
I0412 22:47:19.608789  7331 net.cpp:148] Top shape: 100 64 8 8 (409600)
I0412 22:47:19.608794  7331 net.cpp:156] Memory required for data: 491111600
I0412 22:47:19.608798  7331 layer_factory.hpp:77] Creating layer conv4_2a
I0412 22:47:19.608811  7331 net.cpp:91] Creating Layer conv4_2a
I0412 22:47:19.608816  7331 net.cpp:425] conv4_2a <- conv4_1_conv4_1_relu_0_split_0
I0412 22:47:19.608826  7331 net.cpp:399] conv4_2a -> conv4_2a
I0412 22:47:19.611057  7331 net.cpp:141] Setting up conv4_2a
I0412 22:47:19.611073  7331 net.cpp:148] Top shape: 100 64 8 8 (409600)
I0412 22:47:19.611078  7331 net.cpp:156] Memory required for data: 492750000
I0412 22:47:19.611086  7331 layer_factory.hpp:77] Creating layer bn_conv4_2a
I0412 22:47:19.611096  7331 net.cpp:91] Creating Layer bn_conv4_2a
I0412 22:47:19.611101  7331 net.cpp:425] bn_conv4_2a <- conv4_2a
I0412 22:47:19.611109  7331 net.cpp:386] bn_conv4_2a -> conv4_2a (in-place)
I0412 22:47:19.611335  7331 net.cpp:141] Setting up bn_conv4_2a
I0412 22:47:19.611345  7331 net.cpp:148] Top shape: 100 64 8 8 (409600)
I0412 22:47:19.611348  7331 net.cpp:156] Memory required for data: 494388400
I0412 22:47:19.611357  7331 layer_factory.hpp:77] Creating layer scale_conv4_2a
I0412 22:47:19.611364  7331 net.cpp:91] Creating Layer scale_conv4_2a
I0412 22:47:19.611369  7331 net.cpp:425] scale_conv4_2a <- conv4_2a
I0412 22:47:19.611376  7331 net.cpp:386] scale_conv4_2a -> conv4_2a (in-place)
I0412 22:47:19.611425  7331 layer_factory.hpp:77] Creating layer scale_conv4_2a
I0412 22:47:19.611562  7331 net.cpp:141] Setting up scale_conv4_2a
I0412 22:47:19.611570  7331 net.cpp:148] Top shape: 100 64 8 8 (409600)
I0412 22:47:19.611575  7331 net.cpp:156] Memory required for data: 496026800
I0412 22:47:19.611582  7331 layer_factory.hpp:77] Creating layer conv4_2a_sum
I0412 22:47:19.611590  7331 net.cpp:91] Creating Layer conv4_2a_sum
I0412 22:47:19.611595  7331 net.cpp:425] conv4_2a_sum <- conv4_1_conv4_1_relu_0_split_1
I0412 22:47:19.611601  7331 net.cpp:425] conv4_2a_sum <- conv4_2a
I0412 22:47:19.611608  7331 net.cpp:399] conv4_2a_sum -> conv4_2a_sum
I0412 22:47:19.611642  7331 net.cpp:141] Setting up conv4_2a_sum
I0412 22:47:19.611650  7331 net.cpp:148] Top shape: 100 64 8 8 (409600)
I0412 22:47:19.611655  7331 net.cpp:156] Memory required for data: 497665200
I0412 22:47:19.611660  7331 layer_factory.hpp:77] Creating layer conv4_2a_relu
I0412 22:47:19.611666  7331 net.cpp:91] Creating Layer conv4_2a_relu
I0412 22:47:19.611671  7331 net.cpp:425] conv4_2a_relu <- conv4_2a_sum
I0412 22:47:19.611678  7331 net.cpp:386] conv4_2a_relu -> conv4_2a_sum (in-place)
I0412 22:47:19.611861  7331 net.cpp:141] Setting up conv4_2a_relu
I0412 22:47:19.611872  7331 net.cpp:148] Top shape: 100 64 8 8 (409600)
I0412 22:47:19.611876  7331 net.cpp:156] Memory required for data: 499303600
I0412 22:47:19.611881  7331 layer_factory.hpp:77] Creating layer conv4_2a_sum_conv4_2a_relu_0_split
I0412 22:47:19.611889  7331 net.cpp:91] Creating Layer conv4_2a_sum_conv4_2a_relu_0_split
I0412 22:47:19.611896  7331 net.cpp:425] conv4_2a_sum_conv4_2a_relu_0_split <- conv4_2a_sum
I0412 22:47:19.611901  7331 net.cpp:399] conv4_2a_sum_conv4_2a_relu_0_split -> conv4_2a_sum_conv4_2a_relu_0_split_0
I0412 22:47:19.611909  7331 net.cpp:399] conv4_2a_sum_conv4_2a_relu_0_split -> conv4_2a_sum_conv4_2a_relu_0_split_1
I0412 22:47:19.611958  7331 net.cpp:141] Setting up conv4_2a_sum_conv4_2a_relu_0_split
I0412 22:47:19.611970  7331 net.cpp:148] Top shape: 100 64 8 8 (409600)
I0412 22:47:19.611976  7331 net.cpp:148] Top shape: 100 64 8 8 (409600)
I0412 22:47:19.611980  7331 net.cpp:156] Memory required for data: 502580400
I0412 22:47:19.611985  7331 layer_factory.hpp:77] Creating layer conv4_2b
I0412 22:47:19.611997  7331 net.cpp:91] Creating Layer conv4_2b
I0412 22:47:19.612002  7331 net.cpp:425] conv4_2b <- conv4_2a_sum_conv4_2a_relu_0_split_0
I0412 22:47:19.612012  7331 net.cpp:399] conv4_2b -> conv4_2b
I0412 22:47:19.614727  7331 net.cpp:141] Setting up conv4_2b
I0412 22:47:19.614743  7331 net.cpp:148] Top shape: 100 64 8 8 (409600)
I0412 22:47:19.614749  7331 net.cpp:156] Memory required for data: 504218800
I0412 22:47:19.614758  7331 layer_factory.hpp:77] Creating layer bn_conv4_2b
I0412 22:47:19.614768  7331 net.cpp:91] Creating Layer bn_conv4_2b
I0412 22:47:19.614773  7331 net.cpp:425] bn_conv4_2b <- conv4_2b
I0412 22:47:19.614780  7331 net.cpp:386] bn_conv4_2b -> conv4_2b (in-place)
I0412 22:47:19.615012  7331 net.cpp:141] Setting up bn_conv4_2b
I0412 22:47:19.615021  7331 net.cpp:148] Top shape: 100 64 8 8 (409600)
I0412 22:47:19.615026  7331 net.cpp:156] Memory required for data: 505857200
I0412 22:47:19.615052  7331 layer_factory.hpp:77] Creating layer scale_conv4_2b
I0412 22:47:19.615061  7331 net.cpp:91] Creating Layer scale_conv4_2b
I0412 22:47:19.615067  7331 net.cpp:425] scale_conv4_2b <- conv4_2b
I0412 22:47:19.615072  7331 net.cpp:386] scale_conv4_2b -> conv4_2b (in-place)
I0412 22:47:19.615125  7331 layer_factory.hpp:77] Creating layer scale_conv4_2b
I0412 22:47:19.615262  7331 net.cpp:141] Setting up scale_conv4_2b
I0412 22:47:19.615270  7331 net.cpp:148] Top shape: 100 64 8 8 (409600)
I0412 22:47:19.615274  7331 net.cpp:156] Memory required for data: 507495600
I0412 22:47:19.615283  7331 layer_factory.hpp:77] Creating layer conv4_2
I0412 22:47:19.615288  7331 net.cpp:91] Creating Layer conv4_2
I0412 22:47:19.615294  7331 net.cpp:425] conv4_2 <- conv4_2a_sum_conv4_2a_relu_0_split_1
I0412 22:47:19.615300  7331 net.cpp:425] conv4_2 <- conv4_2b
I0412 22:47:19.615306  7331 net.cpp:399] conv4_2 -> conv4_2
I0412 22:47:19.615335  7331 net.cpp:141] Setting up conv4_2
I0412 22:47:19.615344  7331 net.cpp:148] Top shape: 100 64 8 8 (409600)
I0412 22:47:19.615348  7331 net.cpp:156] Memory required for data: 509134000
I0412 22:47:19.615352  7331 layer_factory.hpp:77] Creating layer conv4_2_relu
I0412 22:47:19.615361  7331 net.cpp:91] Creating Layer conv4_2_relu
I0412 22:47:19.615366  7331 net.cpp:425] conv4_2_relu <- conv4_2
I0412 22:47:19.615373  7331 net.cpp:386] conv4_2_relu -> conv4_2 (in-place)
I0412 22:47:19.615675  7331 net.cpp:141] Setting up conv4_2_relu
I0412 22:47:19.615689  7331 net.cpp:148] Top shape: 100 64 8 8 (409600)
I0412 22:47:19.615694  7331 net.cpp:156] Memory required for data: 510772400
I0412 22:47:19.615700  7331 layer_factory.hpp:77] Creating layer conv4_2_conv4_2_relu_0_split
I0412 22:47:19.615706  7331 net.cpp:91] Creating Layer conv4_2_conv4_2_relu_0_split
I0412 22:47:19.615712  7331 net.cpp:425] conv4_2_conv4_2_relu_0_split <- conv4_2
I0412 22:47:19.615721  7331 net.cpp:399] conv4_2_conv4_2_relu_0_split -> conv4_2_conv4_2_relu_0_split_0
I0412 22:47:19.615731  7331 net.cpp:399] conv4_2_conv4_2_relu_0_split -> conv4_2_conv4_2_relu_0_split_1
I0412 22:47:19.615780  7331 net.cpp:141] Setting up conv4_2_conv4_2_relu_0_split
I0412 22:47:19.615790  7331 net.cpp:148] Top shape: 100 64 8 8 (409600)
I0412 22:47:19.615795  7331 net.cpp:148] Top shape: 100 64 8 8 (409600)
I0412 22:47:19.615800  7331 net.cpp:156] Memory required for data: 514049200
I0412 22:47:19.615804  7331 layer_factory.hpp:77] Creating layer conv4_3a
I0412 22:47:19.615818  7331 net.cpp:91] Creating Layer conv4_3a
I0412 22:47:19.615823  7331 net.cpp:425] conv4_3a <- conv4_2_conv4_2_relu_0_split_0
I0412 22:47:19.615830  7331 net.cpp:399] conv4_3a -> conv4_3a
I0412 22:47:19.617974  7331 net.cpp:141] Setting up conv4_3a
I0412 22:47:19.617990  7331 net.cpp:148] Top shape: 100 64 8 8 (409600)
I0412 22:47:19.617995  7331 net.cpp:156] Memory required for data: 515687600
I0412 22:47:19.618007  7331 layer_factory.hpp:77] Creating layer bn_conv4_3a
I0412 22:47:19.618018  7331 net.cpp:91] Creating Layer bn_conv4_3a
I0412 22:47:19.618023  7331 net.cpp:425] bn_conv4_3a <- conv4_3a
I0412 22:47:19.618031  7331 net.cpp:386] bn_conv4_3a -> conv4_3a (in-place)
I0412 22:47:19.618269  7331 net.cpp:141] Setting up bn_conv4_3a
I0412 22:47:19.618279  7331 net.cpp:148] Top shape: 100 64 8 8 (409600)
I0412 22:47:19.618283  7331 net.cpp:156] Memory required for data: 517326000
I0412 22:47:19.618293  7331 layer_factory.hpp:77] Creating layer scale_conv4_3a
I0412 22:47:19.618299  7331 net.cpp:91] Creating Layer scale_conv4_3a
I0412 22:47:19.618304  7331 net.cpp:425] scale_conv4_3a <- conv4_3a
I0412 22:47:19.618311  7331 net.cpp:386] scale_conv4_3a -> conv4_3a (in-place)
I0412 22:47:19.618363  7331 layer_factory.hpp:77] Creating layer scale_conv4_3a
I0412 22:47:19.618499  7331 net.cpp:141] Setting up scale_conv4_3a
I0412 22:47:19.618506  7331 net.cpp:148] Top shape: 100 64 8 8 (409600)
I0412 22:47:19.618511  7331 net.cpp:156] Memory required for data: 518964400
I0412 22:47:19.618518  7331 layer_factory.hpp:77] Creating layer conv4_3a_sum
I0412 22:47:19.618525  7331 net.cpp:91] Creating Layer conv4_3a_sum
I0412 22:47:19.618530  7331 net.cpp:425] conv4_3a_sum <- conv4_2_conv4_2_relu_0_split_1
I0412 22:47:19.618536  7331 net.cpp:425] conv4_3a_sum <- conv4_3a
I0412 22:47:19.618546  7331 net.cpp:399] conv4_3a_sum -> conv4_3a_sum
I0412 22:47:19.618574  7331 net.cpp:141] Setting up conv4_3a_sum
I0412 22:47:19.618584  7331 net.cpp:148] Top shape: 100 64 8 8 (409600)
I0412 22:47:19.618588  7331 net.cpp:156] Memory required for data: 520602800
I0412 22:47:19.618593  7331 layer_factory.hpp:77] Creating layer conv4_3a_relu
I0412 22:47:19.618599  7331 net.cpp:91] Creating Layer conv4_3a_relu
I0412 22:47:19.618604  7331 net.cpp:425] conv4_3a_relu <- conv4_3a_sum
I0412 22:47:19.618610  7331 net.cpp:386] conv4_3a_relu -> conv4_3a_sum (in-place)
I0412 22:47:19.618904  7331 net.cpp:141] Setting up conv4_3a_relu
I0412 22:47:19.618918  7331 net.cpp:148] Top shape: 100 64 8 8 (409600)
I0412 22:47:19.618923  7331 net.cpp:156] Memory required for data: 522241200
I0412 22:47:19.618928  7331 layer_factory.hpp:77] Creating layer conv4_3a_sum_conv4_3a_relu_0_split
I0412 22:47:19.618935  7331 net.cpp:91] Creating Layer conv4_3a_sum_conv4_3a_relu_0_split
I0412 22:47:19.618942  7331 net.cpp:425] conv4_3a_sum_conv4_3a_relu_0_split <- conv4_3a_sum
I0412 22:47:19.618947  7331 net.cpp:399] conv4_3a_sum_conv4_3a_relu_0_split -> conv4_3a_sum_conv4_3a_relu_0_split_0
I0412 22:47:19.618957  7331 net.cpp:399] conv4_3a_sum_conv4_3a_relu_0_split -> conv4_3a_sum_conv4_3a_relu_0_split_1
I0412 22:47:19.619009  7331 net.cpp:141] Setting up conv4_3a_sum_conv4_3a_relu_0_split
I0412 22:47:19.619016  7331 net.cpp:148] Top shape: 100 64 8 8 (409600)
I0412 22:47:19.619021  7331 net.cpp:148] Top shape: 100 64 8 8 (409600)
I0412 22:47:19.619026  7331 net.cpp:156] Memory required for data: 525518000
I0412 22:47:19.619030  7331 layer_factory.hpp:77] Creating layer conv4_3b
I0412 22:47:19.619043  7331 net.cpp:91] Creating Layer conv4_3b
I0412 22:47:19.619050  7331 net.cpp:425] conv4_3b <- conv4_3a_sum_conv4_3a_relu_0_split_0
I0412 22:47:19.619057  7331 net.cpp:399] conv4_3b -> conv4_3b
I0412 22:47:19.621302  7331 net.cpp:141] Setting up conv4_3b
I0412 22:47:19.621318  7331 net.cpp:148] Top shape: 100 64 8 8 (409600)
I0412 22:47:19.621325  7331 net.cpp:156] Memory required for data: 527156400
I0412 22:47:19.621332  7331 layer_factory.hpp:77] Creating layer bn_conv4_3b
I0412 22:47:19.621342  7331 net.cpp:91] Creating Layer bn_conv4_3b
I0412 22:47:19.621348  7331 net.cpp:425] bn_conv4_3b <- conv4_3b
I0412 22:47:19.621356  7331 net.cpp:386] bn_conv4_3b -> conv4_3b (in-place)
I0412 22:47:19.621608  7331 net.cpp:141] Setting up bn_conv4_3b
I0412 22:47:19.621616  7331 net.cpp:148] Top shape: 100 64 8 8 (409600)
I0412 22:47:19.621621  7331 net.cpp:156] Memory required for data: 528794800
I0412 22:47:19.621630  7331 layer_factory.hpp:77] Creating layer scale_conv4_3b
I0412 22:47:19.621641  7331 net.cpp:91] Creating Layer scale_conv4_3b
I0412 22:47:19.621647  7331 net.cpp:425] scale_conv4_3b <- conv4_3b
I0412 22:47:19.621654  7331 net.cpp:386] scale_conv4_3b -> conv4_3b (in-place)
I0412 22:47:19.621706  7331 layer_factory.hpp:77] Creating layer scale_conv4_3b
I0412 22:47:19.621845  7331 net.cpp:141] Setting up scale_conv4_3b
I0412 22:47:19.621855  7331 net.cpp:148] Top shape: 100 64 8 8 (409600)
I0412 22:47:19.621858  7331 net.cpp:156] Memory required for data: 530433200
I0412 22:47:19.621866  7331 layer_factory.hpp:77] Creating layer conv4_3
I0412 22:47:19.621872  7331 net.cpp:91] Creating Layer conv4_3
I0412 22:47:19.621878  7331 net.cpp:425] conv4_3 <- conv4_3a_sum_conv4_3a_relu_0_split_1
I0412 22:47:19.621883  7331 net.cpp:425] conv4_3 <- conv4_3b
I0412 22:47:19.621891  7331 net.cpp:399] conv4_3 -> conv4_3
I0412 22:47:19.621922  7331 net.cpp:141] Setting up conv4_3
I0412 22:47:19.621932  7331 net.cpp:148] Top shape: 100 64 8 8 (409600)
I0412 22:47:19.621935  7331 net.cpp:156] Memory required for data: 532071600
I0412 22:47:19.621940  7331 layer_factory.hpp:77] Creating layer conv4_3_relu
I0412 22:47:19.621947  7331 net.cpp:91] Creating Layer conv4_3_relu
I0412 22:47:19.621951  7331 net.cpp:425] conv4_3_relu <- conv4_3
I0412 22:47:19.621958  7331 net.cpp:386] conv4_3_relu -> conv4_3 (in-place)
I0412 22:47:19.622141  7331 net.cpp:141] Setting up conv4_3_relu
I0412 22:47:19.622151  7331 net.cpp:148] Top shape: 100 64 8 8 (409600)
I0412 22:47:19.622156  7331 net.cpp:156] Memory required for data: 533710000
I0412 22:47:19.622161  7331 layer_factory.hpp:77] Creating layer global_pool
I0412 22:47:19.622170  7331 net.cpp:91] Creating Layer global_pool
I0412 22:47:19.622174  7331 net.cpp:425] global_pool <- conv4_3
I0412 22:47:19.622185  7331 net.cpp:399] global_pool -> global_pool
I0412 22:47:19.622504  7331 net.cpp:141] Setting up global_pool
I0412 22:47:19.622519  7331 net.cpp:148] Top shape: 100 64 1 1 (6400)
I0412 22:47:19.622524  7331 net.cpp:156] Memory required for data: 533735600
I0412 22:47:19.622529  7331 layer_factory.hpp:77] Creating layer ip
I0412 22:47:19.622539  7331 net.cpp:91] Creating Layer ip
I0412 22:47:19.622545  7331 net.cpp:425] ip <- global_pool
I0412 22:47:19.622551  7331 net.cpp:399] ip -> ip
I0412 22:47:19.622691  7331 net.cpp:141] Setting up ip
I0412 22:47:19.622700  7331 net.cpp:148] Top shape: 100 10 (1000)
I0412 22:47:19.622704  7331 net.cpp:156] Memory required for data: 533739600
I0412 22:47:19.622712  7331 layer_factory.hpp:77] Creating layer ip_ip_0_split
I0412 22:47:19.622720  7331 net.cpp:91] Creating Layer ip_ip_0_split
I0412 22:47:19.622725  7331 net.cpp:425] ip_ip_0_split <- ip
I0412 22:47:19.622733  7331 net.cpp:399] ip_ip_0_split -> ip_ip_0_split_0
I0412 22:47:19.622741  7331 net.cpp:399] ip_ip_0_split -> ip_ip_0_split_1
I0412 22:47:19.622787  7331 net.cpp:141] Setting up ip_ip_0_split
I0412 22:47:19.622797  7331 net.cpp:148] Top shape: 100 10 (1000)
I0412 22:47:19.622802  7331 net.cpp:148] Top shape: 100 10 (1000)
I0412 22:47:19.622807  7331 net.cpp:156] Memory required for data: 533747600
I0412 22:47:19.622812  7331 layer_factory.hpp:77] Creating layer accuracy
I0412 22:47:19.622818  7331 net.cpp:91] Creating Layer accuracy
I0412 22:47:19.622823  7331 net.cpp:425] accuracy <- ip_ip_0_split_0
I0412 22:47:19.622829  7331 net.cpp:425] accuracy <- label_cifar_1_split_0
I0412 22:47:19.622835  7331 net.cpp:399] accuracy -> accuracy
…
