…
I0422 14:07:50.801635  1287 solver.cpp:91] Creating training net from net file: prototxt/ResNet-cifar.prototxt
I0422 14:07:50.803558  1287 net.cpp:313] The NetState phase (0) differed from the phase (1) specified by a rule in layer cifar
I0422 14:07:50.804061  1287 net.cpp:49] Initializing net from parameters: 
name: "ResNet-cifar"
state {
  phase: TRAIN
}
layer {
  name: "cifar"
  type: "Data"
  top: "data"
  top: "label"
  include {
    phase: TRAIN
  }
  transform_param {
    mirror: true
    mean_file: "data/cifar10/mean.binaryproto"
  }
  data_param {
    source: "data/cifar10/cifar10_train_lmdb"
    batch_size: 256
    backend: LMDB
  }
}
layer {
  name: "conv1"
  type: "Convolution"
  bottom: "data"
  top: "conv1"
  param {
    lr_mult: 1
  }
  param {
    lr_mult: 2
  }
  convolution_param {
    num_output: 16
    pad: 1
    kernel_size: 3
    weight_filler {
      type: "msra"
    }
    bias_filler {
      type: "constant"
    }
  }
}
layer {
  name: "bn_conv1"
  type: "BatchNorm"
  bottom: "conv1"
  top: "conv1"
  param {
    lr_mult: 0
  }
  param {
    lr_mult: 0
  }
  param {
    lr_mult: 0
  }
}
layer {
  name: "scale_conv1"
  type: "Scale"
  bottom: "conv1"
  top: "conv1"
  scale_param {
    bias_term: true
  }
}
layer {
  name: "conv1_relu"
  type: "ReLU"
  bottom: "conv1"
  top: "conv1"
}
layer {
  name: "conv2_1a"
  type: "Convolution"
  bottom: "conv1"
  top: "conv2_1a"
  param {
    lr_mult: 1
  }
  param {
    lr_mult: 2
  }
  convolution_param {
    num_output: 16
    pad: 1
    kernel_size: 3
    stride: 1
    weight_filler {
      type: "msra"
    }
    bias_filler {
      type: "constant"
      value: 0
    }
  }
}
layer {
  name: "bn_conv2_1a"
  type: "BatchNorm"
  bottom: "conv2_1a"
  top: "conv2_1a"
  param {
    lr_mult: 0
  }
  param {
    lr_mult: 0
  }
  param {
    lr_mult: 0
  }
}
layer {
  name: "scale_conv2_1a"
  type: "Scale"
  bottom: "conv2_1a"
  top: "conv2_1a"
  scale_param {
    bias_term: true
  }
}
layer {
  name: "conv2_1a_relu"
  type: "ReLU"
  bottom: "conv2_1a"
  top: "conv2_1a"
}
layer {
  name: "conv2_1b"
  type: "Convolution"
  bottom: "conv2_1a"
  top: "conv2_1b"
  param {
    lr_mult: 1
  }
  param {
    lr_mult: 2
  }
  convolution_param {
    num_output: 16
    pad: 1
    kernel_size: 3
    stride: 1
    weight_filler {
      type: "msra"
    }
    bias_filler {
      type: "constant"
      value: 0
    }
  }
}
layer {
  name: "bn_conv2_1b"
  type: "BatchNorm"
  bottom: "conv2_1b"
  top: "conv2_1b"
  param {
    lr_mult: 0
  }
  param {
    lr_mult: 0
  }
  param {
    lr_mult: 0
  }
}
layer {
  name: "scale_conv2_1b"
  type: "Scale"
  bottom: "conv2_1b"
  top: "conv2_1b"
  scale_param {
    bias_term: true
  }
}
layer {
  name: "conv2_1"
  type: "Eltwise"
  bottom: "conv2_1b"
  bottom: "conv1"
  top: "conv2_1"
}
layer {
  name: "conv2_1_relu"
  type: "ReLU"
  bottom: "conv2_1"
  top: "conv2_1"
}
layer {
  name: "conv2_2a"
  type: "Convolution"
  bottom: "conv2_1"
  top: "conv2_2a"
  param {
    lr_mult: 1
  }
  param {
    lr_mult: 2
  }
  convolution_param {
    num_output: 16
    pad: 1
    kernel_size: 3
    stride: 1
    weight_filler {
      type: "msra"
    }
    bias_filler {
      type: "constant"
      value: 0
    }
  }
}
layer {
  name: "bn_conv2_2a"
  type: "BatchNorm"
  bottom: "conv2_2a"
  top: "conv2_2a"
  param {
    lr_mult: 0
  }
  param {
    lr_mult: 0
  }
  param {
    lr_mult: 0
  }
}
layer {
  name: "scale_conv2_2a"
  type: "Scale"
  bottom: "conv2_2a"
  top: "conv2_2a"
  scale_param {
    bias_term: true
  }
}
layer {
  name: "conv2_2a_relu"
  type: "ReLU"
  bottom: "conv2_2a"
  top: "conv2_2a"
}
layer {
  name: "conv2_2b"
  type: "Convolution"
  bottom: "conv2_2a"
  top: "conv2_2b"
  param {
    lr_mult: 1
  }
  param {
    lr_mult: 2
  }
  convolution_param {
    num_output: 16
    pad: 1
    kernel_size: 3
    stride: 1
    weight_filler {
      type: "msra"
    }
    bias_filler {
      type: "constant"
      value: 0
    }
  }
}
layer {
  name: "bn_conv2_2b"
  type: "BatchNorm"
  bottom: "conv2_2b"
  top: "conv2_2b"
  param {
    lr_mult: 0
  }
  param {
    lr_mult: 0
  }
  param {
    lr_mult: 0
  }
}
layer {
  name: "scale_conv2_2b"
  type: "Scale"
  bottom: "conv2_2b"
  top: "conv2_2b"
  scale_param {
    bias_term: true
  }
}
layer {
  name: "conv2_2"
  type: "Eltwise"
  bottom: "conv2_2b"
  bottom: "conv2_1"
  bottom: "conv1"
  top: "conv2_2"
}
layer {
  name: "conv2_2_relu"
  type: "ReLU"
  bottom: "conv2_2"
  top: "conv2_2"
}
layer {
  name: "conv2_3a"
  type: "Convolution"
  bottom: "conv2_2"
  top: "conv2_3a"
  param {
    lr_mult: 1
  }
  param {
    lr_mult: 2
  }
  convolution_param {
    num_output: 16
    pad: 1
    kernel_size: 3
    stride: 1
    weight_filler {
      type: "msra"
    }
    bias_filler {
      type: "constant"
      value: 0
    }
  }
}
layer {
  name: "bn_conv2_3a"
  type: "BatchNorm"
  bottom: "conv2_3a"
  top: "conv2_3a"
  param {
    lr_mult: 0
  }
  param {
    lr_mult: 0
  }
  param {
    lr_mult: 0
  }
}
layer {
  name: "scale_conv2_3a"
  type: "Scale"
  bottom: "conv2_3a"
  top: "conv2_3a"
  scale_param {
    bias_term: true
  }
}
layer {
  name: "conv2_3a_relu"
  type: "ReLU"
  bottom: "conv2_3a"
  top: "conv2_3a"
}
layer {
  name: "conv2_3b"
  type: "Convolution"
  bottom: "conv2_3a"
  top: "conv2_3b"
  param {
    lr_mult: 1
  }
  param {
    lr_mult: 2
  }
  convolution_param {
    num_output: 16
    pad: 1
    kernel_size: 3
    stride: 1
    weight_filler {
      type: "msra"
    }
    bias_filler {
      type: "constant"
      value: 0
    }
  }
}
layer {
  name: "bn_conv2_3b"
  type: "BatchNorm"
  bottom: "conv2_3b"
  top: "conv2_3b"
  param {
    lr_mult: 0
  }
  param {
    lr_mult: 0
  }
  param {
    lr_mult: 0
  }
}
layer {
  name: "scale_conv2_3b"
  type: "Scale"
  bottom: "conv2_3b"
  top: "conv2_3b"
  scale_param {
    bias_term: true
  }
}
layer {
  name: "conv2_3"
  type: "Eltwise"
  bottom: "conv1"
  bottom: "conv2_3b"
  bottom: "conv2_2"
  top: "conv2_3"
}
layer {
  name: "conv2_3_relu"
  type: "ReLU"
  bottom: "conv2_3"
  top: "conv2_3"
}
layer {
  name: "conv2_sub"
  type: "Convolution"
  bottom: "conv2_3"
  top: "conv2_sub"
  param {
    lr_mult: 1
  }
  param {
    lr_mult: 2
  }
  convolution_param {
    num_output: 32
    kernel_size: 1
    stride: 2
    weight_filler {
      type: "msra"
    }
    bias_filler {
      type: "constant"
      value: 0
    }
  }
}
layer {
  name: "bn_conv2_sub"
  type: "BatchNorm"
  bottom: "conv2_sub"
  top: "conv2_sub"
  param {
    lr_mult: 0
  }
  param {
    lr_mult: 0
  }
  param {
    lr_mult: 0
  }
}
layer {
  name: "scale_conv2_sub"
  type: "Scale"
  bottom: "conv2_sub"
  top: "conv2_sub"
  scale_param {
    bias_term: true
  }
}
layer {
  name: "conv3_1a"
  type: "Convolution"
  bottom: "conv2_3"
  top: "conv3_1a"
  param {
    lr_mult: 1
  }
  param {
    lr_mult: 2
  }
  convolution_param {
    num_output: 32
    pad: 0
    kernel_size: 1
    stride: 2
    weight_filler {
      type: "msra"
    }
    bias_filler {
      type: "constant"
      value: 0
    }
  }
}
layer {
  name: "bn_conv3_1a"
  type: "BatchNorm"
  bottom: "conv3_1a"
  top: "conv3_1a"
  param {
    lr_mult: 0
  }
  param {
    lr_mult: 0
  }
  param {
    lr_mult: 0
  }
}
layer {
  name: "scale_conv3_1a"
  type: "Scale"
  bottom: "conv3_1a"
  top: "conv3_1a"
  scale_param {
    bias_term: true
  }
}
layer {
  name: "conv3_1a_relu"
  type: "ReLU"
  bottom: "conv3_1a"
  top: "conv3_1a"
}
layer {
  name: "conv3_1b"
  type: "Convolution"
  bottom: "conv3_1a"
  top: "conv3_1b"
  param {
    lr_mult: 1
  }
  param {
    lr_mult: 2
  }
  convolution_param {
    num_output: 32
    pad: 1
    kernel_size: 3
    stride: 1
    weight_filler {
      type: "msra"
    }
    bias_filler {
      type: "constant"
      value: 0
    }
  }
}
layer {
  name: "bn_conv3_1b"
  type: "BatchNorm"
  bottom: "conv3_1b"
  top: "conv3_1b"
  param {
    lr_mult: 0
  }
  param {
    lr_mult: 0
  }
  param {
    lr_mult: 0
  }
}
layer {
  name: "scale_conv3_1b"
  type: "Scale"
  bottom: "conv3_1b"
  top: "conv3_1b"
  scale_param {
    bias_term: true
  }
}
layer {
  name: "conv3_1"
  type: "Eltwise"
  bottom: "conv3_1b"
  bottom: "conv2_sub"
  top: "conv3_1"
}
layer {
  name: "conv3_1_relu"
  type: "ReLU"
  bottom: "conv3_1"
  top: "conv3_1"
}
layer {
  name: "conv3_2a"
  type: "Convolution"
  bottom: "conv3_1"
  top: "conv3_2a"
  param {
    lr_mult: 1
  }
  param {
    lr_mult: 2
  }
  convolution_param {
    num_output: 32
    pad: 1
    kernel_size: 3
    stride: 1
    weight_filler {
      type: "msra"
    }
    bias_filler {
      type: "constant"
      value: 0
    }
  }
}
layer {
  name: "bn_conv3_2a"
  type: "BatchNorm"
  bottom: "conv3_2a"
  top: "conv3_2a"
  param {
    lr_mult: 0
  }
  param {
    lr_mult: 0
  }
  param {
    lr_mult: 0
  }
}
layer {
  name: "scale_conv3_2a"
  type: "Scale"
  bottom: "conv3_2a"
  top: "conv3_2a"
  scale_param {
    bias_term: true
  }
}
layer {
  name: "conv3_2a_relu"
  type: "ReLU"
  bottom: "conv3_2a"
  top: "conv3_2a"
}
layer {
  name: "conv3_2b"
  type: "Convolution"
  bottom: "conv3_2a"
  top: "conv3_2b"
  param {
    lr_mult: 1
  }
  param {
    lr_mult: 2
  }
  convolution_param {
    num_output: 32
    pad: 1
    kernel_size: 3
    stride: 1
    weight_filler {
      type: "msra"
    }
    bias_filler {
      type: "constant"
      value: 0
    }
  }
}
layer {
  name: "bn_conv3_2b"
  type: "BatchNorm"
  bottom: "conv3_2b"
  top: "conv3_2b"
  param {
    lr_mult: 0
  }
  param {
    lr_mult: 0
  }
  param {
    lr_mult: 0
  }
}
layer {
  name: "scale_conv3_2b"
  type: "Scale"
  bottom: "conv3_2b"
  top: "conv3_2b"
  scale_param {
    bias_term: true
  }
}
layer {
  name: "conv3_2"
  type: "Eltwise"
  bottom: "conv3_2b"
  bottom: "conv2_sub"
  bottom: "conv3_1"
  top: "conv3_2"
}
layer {
  name: "conv3_2_relu"
  type: "ReLU"
  bottom: "conv3_2"
  top: "conv3_2"
}
layer {
  name: "conv3_3a"
  type: "Convolution"
  bottom: "conv3_2"
  top: "conv3_3a"
  param {
    lr_mult: 1
  }
  param {
    lr_mult: 2
  }
  convolution_param {
    num_output: 32
    pad: 1
    kernel_size: 3
    stride: 1
    weight_filler {
      type: "msra"
    }
    bias_filler {
      type: "constant"
      value: 0
    }
  }
}
layer {
  name: "bn_conv3_3a"
  type: "BatchNorm"
  bottom: "conv3_3a"
  top: "conv3_3a"
  param {
    lr_mult: 0
  }
  param {
    lr_mult: 0
  }
  param {
    lr_mult: 0
  }
}
layer {
  name: "scale_conv3_3a"
  type: "Scale"
  bottom: "conv3_3a"
  top: "conv3_3a"
  scale_param {
    bias_term: true
  }
}
layer {
  name: "conv3_3a_relu"
  type: "ReLU"
  bottom: "conv3_3a"
  top: "conv3_3a"
}
layer {
  name: "conv3_3b"
  type: "Convolution"
  bottom: "conv3_3a"
  top: "conv3_3b"
  param {
    lr_mult: 1
  }
  param {
    lr_mult: 2
  }
  convolution_param {
    num_output: 32
    pad: 1
    kernel_size: 3
    stride: 1
    weight_filler {
      type: "msra"
    }
    bias_filler {
      type: "constant"
      value: 0
    }
  }
}
layer {
  name: "bn_conv3_3b"
  type: "BatchNorm"
  bottom: "conv3_3b"
  top: "conv3_3b"
  param {
    lr_mult: 0
  }
  param {
    lr_mult: 0
  }
  param {
    lr_mult: 0
  }
}
layer {
  name: "scale_conv3_3b"
  type: "Scale"
  bottom: "conv3_3b"
  top: "conv3_3b"
  scale_param {
    bias_term: true
  }
}
layer {
  name: "conv3_3"
  type: "Eltwise"
  bottom: "conv3_3b"
  bottom: "conv2_sub"
  bottom: "conv3_2"
  top: "conv3_3"
}
layer {
  name: "conv3_3_relu"
  type: "ReLU"
  bottom: "conv3_3"
  top: "conv3_3"
}
layer {
  name: "conv3_sub"
  type: "Convolution"
  bottom: "conv3_3"
  top: "conv3_sub"
  param {
    lr_mult: 1
  }
  param {
    lr_mult: 2
  }
  convolution_param {
    num_output: 64
    kernel_size: 1
    stride: 2
    weight_filler {
      type: "msra"
    }
    bias_filler {
      type: "constant"
      value: 0
    }
  }
}
layer {
  name: "bn_conv3_sub"
  type: "BatchNorm"
  bottom: "conv3_sub"
  top: "conv3_sub"
  param {
    lr_mult: 0
  }
  param {
    lr_mult: 0
  }
  param {
    lr_mult: 0
  }
}
layer {
  name: "scale_conv3_sub"
  type: "Scale"
  bottom: "conv3_sub"
  top: "conv3_sub"
  scale_param {
    bias_term: true
  }
}
layer {
  name: "conv4_1a"
  type: "Convolution"
  bottom: "conv3_3"
  top: "conv4_1a"
  param {
    lr_mult: 1
  }
  param {
    lr_mult: 2
  }
  convolution_param {
    num_output: 64
    pad: 0
    kernel_size: 1
    stride: 2
    weight_filler {
      type: "msra"
    }
    bias_filler {
      type: "constant"
      value: 0
    }
  }
}
layer {
  name: "bn_conv4_1a"
  type: "BatchNorm"
  bottom: "conv4_1a"
  top: "conv4_1a"
  param {
    lr_mult: 0
  }
  param {
    lr_mult: 0
  }
  param {
    lr_mult: 0
  }
}
layer {
  name: "scale_conv4_1a"
  type: "Scale"
  bottom: "conv4_1a"
  top: "conv4_1a"
  scale_param {
    bias_term: true
  }
}
layer {
  name: "conv4_1a_relu"
  type: "ReLU"
  bottom: "conv4_1a"
  top: "conv4_1a"
}
layer {
  name: "conv4_1b"
  type: "Convolution"
  bottom: "conv4_1a"
  top: "conv4_1b"
  param {
    lr_mult: 1
  }
  param {
    lr_mult: 2
  }
  convolution_param {
    num_output: 64
    pad: 1
    kernel_size: 3
    stride: 1
    weight_filler {
      type: "msra"
    }
    bias_filler {
      type: "constant"
      value: 0
    }
  }
}
layer {
  name: "bn_conv4_1b"
  type: "BatchNorm"
  bottom: "conv4_1b"
  top: "conv4_1b"
  param {
    lr_mult: 0
  }
  param {
    lr_mult: 0
  }
  param {
    lr_mult: 0
  }
}
layer {
  name: "scale_conv4_1b"
  type: "Scale"
  bottom: "conv4_1b"
  top: "conv4_1b"
  scale_param {
    bias_term: true
  }
}
layer {
  name: "conv4_1"
  type: "Eltwise"
  bottom: "conv3_sub"
  bottom: "conv4_1b"
  top: "conv4_1"
}
layer {
  name: "conv4_1_relu"
  type: "ReLU"
  bottom: "conv4_1"
  top: "conv4_1"
}
layer {
  name: "conv4_2a"
  type: "Convolution"
  bottom: "conv4_1"
  top: "conv4_2a"
  param {
    lr_mult: 1
  }
  param {
    lr_mult: 2
  }
  convolution_param {
    num_output: 64
    pad: 1
    kernel_size: 3
    stride: 1
    weight_filler {
      type: "msra"
    }
    bias_filler {
      type: "constant"
      value: 0
    }
  }
}
layer {
  name: "bn_conv4_2a"
  type: "BatchNorm"
  bottom: "conv4_2a"
  top: "conv4_2a"
  param {
    lr_mult: 0
  }
  param {
    lr_mult: 0
  }
  param {
    lr_mult: 0
  }
}
layer {
  name: "scale_conv4_2a"
  type: "Scale"
  bottom: "conv4_2a"
  top: "conv4_2a"
  scale_param {
    bias_term: true
  }
}
layer {
  name: "conv4_2a_relu"
  type: "ReLU"
  bottom: "conv4_2a"
  top: "conv4_2a"
}
layer {
  name: "conv4_2b"
  type: "Convolution"
  bottom: "conv4_2a"
  top: "conv4_2b"
  param {
    lr_mult: 1
  }
  param {
    lr_mult: 2
  }
  convolution_param {
    num_output: 64
    pad: 1
    kernel_size: 3
    stride: 1
    weight_filler {
      type: "msra"
    }
    bias_filler {
      type: "constant"
      value: 0
    }
  }
}
layer {
  name: "bn_conv4_2b"
  type: "BatchNorm"
  bottom: "conv4_2b"
  top: "conv4_2b"
  param {
    lr_mult: 0
  }
  param {
    lr_mult: 0
  }
  param {
    lr_mult: 0
  }
}
layer {
  name: "scale_conv4_2b"
  type: "Scale"
  bottom: "conv4_2b"
  top: "conv4_2b"
  scale_param {
    bias_term: true
  }
}
layer {
  name: "conv4_2"
  type: "Eltwise"
  bottom: "conv4_1"
  bottom: "conv3_sub"
  bottom: "conv4_2b"
  top: "conv4_2"
}
layer {
  name: "conv4_2_relu"
  type: "ReLU"
  bottom: "conv4_2"
  top: "conv4_2"
}
layer {
  name: "conv4_3a"
  type: "Convolution"
  bottom: "conv4_2"
  top: "conv4_3a"
  param {
    lr_mult: 1
  }
  param {
    lr_mult: 2
  }
  convolution_param {
    num_output: 64
    pad: 1
    kernel_size: 3
    stride: 1
    weight_filler {
      type: "msra"
    }
    bias_filler {
      type: "constant"
      value: 0
    }
  }
}
layer {
  name: "bn_conv4_3a"
  type: "BatchNorm"
  bottom: "conv4_3a"
  top: "conv4_3a"
  param {
    lr_mult: 0
  }
  param {
    lr_mult: 0
  }
  param {
    lr_mult: 0
  }
}
layer {
  name: "scale_conv4_3a"
  type: "Scale"
  bottom: "conv4_3a"
  top: "conv4_3a"
  scale_param {
    bias_term: true
  }
}
layer {
  name: "conv4_3a_relu"
  type: "ReLU"
  bottom: "conv4_3a"
  top: "conv4_3a"
}
layer {
  name: "conv4_3b"
  type: "Convolution"
  bottom: "conv4_3a"
  top: "conv4_3b"
  param {
    lr_mult: 1
  }
  param {
    lr_mult: 2
  }
  convolution_param {
    num_output: 64
    pad: 1
    kernel_size: 3
    stride: 1
    weight_filler {
      type: "msra"
    }
    bias_filler {
      type: "constant"
      value: 0
    }
  }
}
layer {
  name: "bn_conv4_3b"
  type: "BatchNorm"
  bottom: "conv4_3b"
  top: "conv4_3b"
  param {
    lr_mult: 0
  }
  param {
    lr_mult: 0
  }
  param {
    lr_mult: 0
  }
}
layer {
  name: "scale_conv4_3b"
  type: "Scale"
  bottom: "conv4_3b"
  top: "conv4_3b"
  scale_param {
    bias_term: true
  }
}
layer {
  name: "conv4_3"
  type: "Eltwise"
  bottom: "conv4_2"
  bottom: "conv3_sub"
  bottom: "conv4_3b"
  top: "conv4_3"
}
layer {
  name: "conv4_3_relu"
  type: "ReLU"
  bottom: "conv4_3"
  top: "conv4_3"
}
layer {
  name: "global_pool"
  type: "Pooling"
  bottom: "conv4_3"
  top: "global_pool"
  pooling_param {
    pool: AVE
    kernel_size: 8
    stride: 8
  }
}
layer {
  name: "ip"
  type: "InnerProduct"
  bottom: "global_pool"
  top: "ip"
  inner_product_param {
    num_output: 10
  }
}
layer {
  name: "accuracy"
  type: "Accuracy"
  bottom: "ip"
  bottom: "label"
  top: "accuracy"
}
layer {
  name: "loss"
  type: "SoftmaxWithLoss"
  bottom: "ip"
  bottom: "label"
  top: "loss"
}
I0422 14:07:50.804473  1287 layer_factory.hpp:77] Creating layer cifar
I0422 14:07:50.804999  1287 net.cpp:91] Creating Layer cifar
I0422 14:07:50.805014  1287 net.cpp:399] cifar -> data
I0422 14:07:50.805027  1287 net.cpp:399] cifar -> label
I0422 14:07:50.805078  1287 data_transformer.cpp:25] Loading mean file from: data/cifar10/mean.binaryproto
I0422 14:07:50.807386  1305 db_lmdb.cpp:38] Opened lmdb data/cifar10/cifar10_train_lmdb
I0422 14:07:50.827599  1287 data_layer.cpp:41] output data size: 256,3,32,32
I0422 14:07:50.833179  1287 net.cpp:141] Setting up cifar
I0422 14:07:50.833204  1287 net.cpp:148] Top shape: 256 3 32 32 (786432)
I0422 14:07:50.833210  1287 net.cpp:148] Top shape: 256 (256)
I0422 14:07:50.833215  1287 net.cpp:156] Memory required for data: 3146752
I0422 14:07:50.833223  1287 layer_factory.hpp:77] Creating layer label_cifar_1_split
I0422 14:07:50.833257  1287 net.cpp:91] Creating Layer label_cifar_1_split
I0422 14:07:50.833266  1287 net.cpp:425] label_cifar_1_split <- label
I0422 14:07:50.833274  1287 net.cpp:399] label_cifar_1_split -> label_cifar_1_split_0
I0422 14:07:50.833287  1287 net.cpp:399] label_cifar_1_split -> label_cifar_1_split_1
I0422 14:07:50.833345  1287 net.cpp:141] Setting up label_cifar_1_split
I0422 14:07:50.833354  1287 net.cpp:148] Top shape: 256 (256)
I0422 14:07:50.833359  1287 net.cpp:148] Top shape: 256 (256)
I0422 14:07:50.833364  1287 net.cpp:156] Memory required for data: 3148800
I0422 14:07:50.833369  1287 layer_factory.hpp:77] Creating layer conv1
I0422 14:07:50.833386  1287 net.cpp:91] Creating Layer conv1
I0422 14:07:50.833392  1287 net.cpp:425] conv1 <- data
I0422 14:07:50.833400  1287 net.cpp:399] conv1 -> conv1
I0422 14:07:51.106825  1287 net.cpp:141] Setting up conv1
I0422 14:07:51.106876  1287 net.cpp:148] Top shape: 256 16 32 32 (4194304)
I0422 14:07:51.106891  1287 net.cpp:156] Memory required for data: 19926016
I0422 14:07:51.106914  1287 layer_factory.hpp:77] Creating layer bn_conv1
I0422 14:07:51.106931  1287 net.cpp:91] Creating Layer bn_conv1
I0422 14:07:51.106938  1287 net.cpp:425] bn_conv1 <- conv1
I0422 14:07:51.106950  1287 net.cpp:386] bn_conv1 -> conv1 (in-place)
I0422 14:07:51.107153  1287 net.cpp:141] Setting up bn_conv1
I0422 14:07:51.107164  1287 net.cpp:148] Top shape: 256 16 32 32 (4194304)
I0422 14:07:51.107169  1287 net.cpp:156] Memory required for data: 36703232
I0422 14:07:51.107185  1287 layer_factory.hpp:77] Creating layer scale_conv1
I0422 14:07:51.107199  1287 net.cpp:91] Creating Layer scale_conv1
I0422 14:07:51.107205  1287 net.cpp:425] scale_conv1 <- conv1
I0422 14:07:51.107213  1287 net.cpp:386] scale_conv1 -> conv1 (in-place)
I0422 14:07:51.107256  1287 layer_factory.hpp:77] Creating layer scale_conv1
I0422 14:07:51.107368  1287 net.cpp:141] Setting up scale_conv1
I0422 14:07:51.107379  1287 net.cpp:148] Top shape: 256 16 32 32 (4194304)
I0422 14:07:51.107384  1287 net.cpp:156] Memory required for data: 53480448
I0422 14:07:51.107394  1287 layer_factory.hpp:77] Creating layer conv1_relu
I0422 14:07:51.107403  1287 net.cpp:91] Creating Layer conv1_relu
I0422 14:07:51.107409  1287 net.cpp:425] conv1_relu <- conv1
I0422 14:07:51.107416  1287 net.cpp:386] conv1_relu -> conv1 (in-place)
I0422 14:07:51.107724  1287 net.cpp:141] Setting up conv1_relu
I0422 14:07:51.107741  1287 net.cpp:148] Top shape: 256 16 32 32 (4194304)
I0422 14:07:51.107746  1287 net.cpp:156] Memory required for data: 70257664
I0422 14:07:51.107753  1287 layer_factory.hpp:77] Creating layer conv1_conv1_relu_0_split
I0422 14:07:51.107763  1287 net.cpp:91] Creating Layer conv1_conv1_relu_0_split
I0422 14:07:51.107767  1287 net.cpp:425] conv1_conv1_relu_0_split <- conv1
I0422 14:07:51.107776  1287 net.cpp:399] conv1_conv1_relu_0_split -> conv1_conv1_relu_0_split_0
I0422 14:07:51.107787  1287 net.cpp:399] conv1_conv1_relu_0_split -> conv1_conv1_relu_0_split_1
I0422 14:07:51.107797  1287 net.cpp:399] conv1_conv1_relu_0_split -> conv1_conv1_relu_0_split_2
I0422 14:07:51.107806  1287 net.cpp:399] conv1_conv1_relu_0_split -> conv1_conv1_relu_0_split_3
I0422 14:07:51.107875  1287 net.cpp:141] Setting up conv1_conv1_relu_0_split
I0422 14:07:51.107884  1287 net.cpp:148] Top shape: 256 16 32 32 (4194304)
I0422 14:07:51.107892  1287 net.cpp:148] Top shape: 256 16 32 32 (4194304)
I0422 14:07:51.107897  1287 net.cpp:148] Top shape: 256 16 32 32 (4194304)
I0422 14:07:51.107903  1287 net.cpp:148] Top shape: 256 16 32 32 (4194304)
I0422 14:07:51.107908  1287 net.cpp:156] Memory required for data: 137366528
I0422 14:07:51.107914  1287 layer_factory.hpp:77] Creating layer conv2_1a
I0422 14:07:51.107928  1287 net.cpp:91] Creating Layer conv2_1a
I0422 14:07:51.107934  1287 net.cpp:425] conv2_1a <- conv1_conv1_relu_0_split_0
I0422 14:07:51.107944  1287 net.cpp:399] conv2_1a -> conv2_1a
I0422 14:07:51.108912  1287 net.cpp:141] Setting up conv2_1a
I0422 14:07:51.108932  1287 net.cpp:148] Top shape: 256 16 32 32 (4194304)
I0422 14:07:51.108937  1287 net.cpp:156] Memory required for data: 154143744
I0422 14:07:51.108950  1287 layer_factory.hpp:77] Creating layer bn_conv2_1a
I0422 14:07:51.108963  1287 net.cpp:91] Creating Layer bn_conv2_1a
I0422 14:07:51.108968  1287 net.cpp:425] bn_conv2_1a <- conv2_1a
I0422 14:07:51.108976  1287 net.cpp:386] bn_conv2_1a -> conv2_1a (in-place)
I0422 14:07:51.109175  1287 net.cpp:141] Setting up bn_conv2_1a
I0422 14:07:51.109189  1287 net.cpp:148] Top shape: 256 16 32 32 (4194304)
I0422 14:07:51.109194  1287 net.cpp:156] Memory required for data: 170920960
I0422 14:07:51.109205  1287 layer_factory.hpp:77] Creating layer scale_conv2_1a
I0422 14:07:51.109215  1287 net.cpp:91] Creating Layer scale_conv2_1a
I0422 14:07:51.109220  1287 net.cpp:425] scale_conv2_1a <- conv2_1a
I0422 14:07:51.109228  1287 net.cpp:386] scale_conv2_1a -> conv2_1a (in-place)
I0422 14:07:51.109267  1287 layer_factory.hpp:77] Creating layer scale_conv2_1a
I0422 14:07:51.109382  1287 net.cpp:141] Setting up scale_conv2_1a
I0422 14:07:51.109395  1287 net.cpp:148] Top shape: 256 16 32 32 (4194304)
I0422 14:07:51.109400  1287 net.cpp:156] Memory required for data: 187698176
I0422 14:07:51.109408  1287 layer_factory.hpp:77] Creating layer conv2_1a_relu
I0422 14:07:51.109416  1287 net.cpp:91] Creating Layer conv2_1a_relu
I0422 14:07:51.109422  1287 net.cpp:425] conv2_1a_relu <- conv2_1a
I0422 14:07:51.109429  1287 net.cpp:386] conv2_1a_relu -> conv2_1a (in-place)
I0422 14:07:51.109732  1287 net.cpp:141] Setting up conv2_1a_relu
I0422 14:07:51.109750  1287 net.cpp:148] Top shape: 256 16 32 32 (4194304)
I0422 14:07:51.109755  1287 net.cpp:156] Memory required for data: 204475392
I0422 14:07:51.109761  1287 layer_factory.hpp:77] Creating layer conv2_1b
I0422 14:07:51.109774  1287 net.cpp:91] Creating Layer conv2_1b
I0422 14:07:51.109781  1287 net.cpp:425] conv2_1b <- conv2_1a
I0422 14:07:51.109791  1287 net.cpp:399] conv2_1b -> conv2_1b
I0422 14:07:51.110906  1287 net.cpp:141] Setting up conv2_1b
I0422 14:07:51.110926  1287 net.cpp:148] Top shape: 256 16 32 32 (4194304)
I0422 14:07:51.110932  1287 net.cpp:156] Memory required for data: 221252608
I0422 14:07:51.110942  1287 layer_factory.hpp:77] Creating layer bn_conv2_1b
I0422 14:07:51.110952  1287 net.cpp:91] Creating Layer bn_conv2_1b
I0422 14:07:51.110959  1287 net.cpp:425] bn_conv2_1b <- conv2_1b
I0422 14:07:51.110971  1287 net.cpp:386] bn_conv2_1b -> conv2_1b (in-place)
I0422 14:07:51.111176  1287 net.cpp:141] Setting up bn_conv2_1b
I0422 14:07:51.111187  1287 net.cpp:148] Top shape: 256 16 32 32 (4194304)
I0422 14:07:51.111193  1287 net.cpp:156] Memory required for data: 238029824
I0422 14:07:51.111208  1287 layer_factory.hpp:77] Creating layer scale_conv2_1b
I0422 14:07:51.111217  1287 net.cpp:91] Creating Layer scale_conv2_1b
I0422 14:07:51.111222  1287 net.cpp:425] scale_conv2_1b <- conv2_1b
I0422 14:07:51.111235  1287 net.cpp:386] scale_conv2_1b -> conv2_1b (in-place)
I0422 14:07:51.111276  1287 layer_factory.hpp:77] Creating layer scale_conv2_1b
I0422 14:07:51.111399  1287 net.cpp:141] Setting up scale_conv2_1b
I0422 14:07:51.111413  1287 net.cpp:148] Top shape: 256 16 32 32 (4194304)
I0422 14:07:51.111418  1287 net.cpp:156] Memory required for data: 254807040
I0422 14:07:51.111426  1287 layer_factory.hpp:77] Creating layer conv2_1
I0422 14:07:51.111441  1287 net.cpp:91] Creating Layer conv2_1
I0422 14:07:51.111448  1287 net.cpp:425] conv2_1 <- conv2_1b
I0422 14:07:51.111454  1287 net.cpp:425] conv2_1 <- conv1_conv1_relu_0_split_1
I0422 14:07:51.111462  1287 net.cpp:399] conv2_1 -> conv2_1
I0422 14:07:51.111493  1287 net.cpp:141] Setting up conv2_1
I0422 14:07:51.111503  1287 net.cpp:148] Top shape: 256 16 32 32 (4194304)
I0422 14:07:51.111508  1287 net.cpp:156] Memory required for data: 271584256
I0422 14:07:51.111515  1287 layer_factory.hpp:77] Creating layer conv2_1_relu
I0422 14:07:51.111522  1287 net.cpp:91] Creating Layer conv2_1_relu
I0422 14:07:51.111527  1287 net.cpp:425] conv2_1_relu <- conv2_1
I0422 14:07:51.111536  1287 net.cpp:386] conv2_1_relu -> conv2_1 (in-place)
I0422 14:07:51.111732  1287 net.cpp:141] Setting up conv2_1_relu
I0422 14:07:51.111745  1287 net.cpp:148] Top shape: 256 16 32 32 (4194304)
I0422 14:07:51.111750  1287 net.cpp:156] Memory required for data: 288361472
I0422 14:07:51.111757  1287 layer_factory.hpp:77] Creating layer conv2_1_conv2_1_relu_0_split
I0422 14:07:51.111768  1287 net.cpp:91] Creating Layer conv2_1_conv2_1_relu_0_split
I0422 14:07:51.111773  1287 net.cpp:425] conv2_1_conv2_1_relu_0_split <- conv2_1
I0422 14:07:51.111783  1287 net.cpp:399] conv2_1_conv2_1_relu_0_split -> conv2_1_conv2_1_relu_0_split_0
I0422 14:07:51.111793  1287 net.cpp:399] conv2_1_conv2_1_relu_0_split -> conv2_1_conv2_1_relu_0_split_1
I0422 14:07:51.111840  1287 net.cpp:141] Setting up conv2_1_conv2_1_relu_0_split
I0422 14:07:51.111851  1287 net.cpp:148] Top shape: 256 16 32 32 (4194304)
I0422 14:07:51.111857  1287 net.cpp:148] Top shape: 256 16 32 32 (4194304)
I0422 14:07:51.111862  1287 net.cpp:156] Memory required for data: 321915904
I0422 14:07:51.111874  1287 layer_factory.hpp:77] Creating layer conv2_2a
I0422 14:07:51.111891  1287 net.cpp:91] Creating Layer conv2_2a
I0422 14:07:51.111897  1287 net.cpp:425] conv2_2a <- conv2_1_conv2_1_relu_0_split_0
I0422 14:07:51.111907  1287 net.cpp:399] conv2_2a -> conv2_2a
I0422 14:07:51.114562  1287 net.cpp:141] Setting up conv2_2a
I0422 14:07:51.114583  1287 net.cpp:148] Top shape: 256 16 32 32 (4194304)
I0422 14:07:51.114590  1287 net.cpp:156] Memory required for data: 338693120
I0422 14:07:51.114600  1287 layer_factory.hpp:77] Creating layer bn_conv2_2a
I0422 14:07:51.114610  1287 net.cpp:91] Creating Layer bn_conv2_2a
I0422 14:07:51.114616  1287 net.cpp:425] bn_conv2_2a <- conv2_2a
I0422 14:07:51.114627  1287 net.cpp:386] bn_conv2_2a -> conv2_2a (in-place)
I0422 14:07:51.114856  1287 net.cpp:141] Setting up bn_conv2_2a
I0422 14:07:51.114868  1287 net.cpp:148] Top shape: 256 16 32 32 (4194304)
I0422 14:07:51.114873  1287 net.cpp:156] Memory required for data: 355470336
I0422 14:07:51.114884  1287 layer_factory.hpp:77] Creating layer scale_conv2_2a
I0422 14:07:51.114894  1287 net.cpp:91] Creating Layer scale_conv2_2a
I0422 14:07:51.114899  1287 net.cpp:425] scale_conv2_2a <- conv2_2a
I0422 14:07:51.114907  1287 net.cpp:386] scale_conv2_2a -> conv2_2a (in-place)
I0422 14:07:51.114951  1287 layer_factory.hpp:77] Creating layer scale_conv2_2a
I0422 14:07:51.115077  1287 net.cpp:141] Setting up scale_conv2_2a
I0422 14:07:51.115087  1287 net.cpp:148] Top shape: 256 16 32 32 (4194304)
I0422 14:07:51.115092  1287 net.cpp:156] Memory required for data: 372247552
I0422 14:07:51.115106  1287 layer_factory.hpp:77] Creating layer conv2_2a_relu
I0422 14:07:51.115115  1287 net.cpp:91] Creating Layer conv2_2a_relu
I0422 14:07:51.115120  1287 net.cpp:425] conv2_2a_relu <- conv2_2a
I0422 14:07:51.115129  1287 net.cpp:386] conv2_2a_relu -> conv2_2a (in-place)
I0422 14:07:51.115798  1287 net.cpp:141] Setting up conv2_2a_relu
I0422 14:07:51.115814  1287 net.cpp:148] Top shape: 256 16 32 32 (4194304)
I0422 14:07:51.115820  1287 net.cpp:156] Memory required for data: 389024768
I0422 14:07:51.115826  1287 layer_factory.hpp:77] Creating layer conv2_2b
I0422 14:07:51.115841  1287 net.cpp:91] Creating Layer conv2_2b
I0422 14:07:51.115847  1287 net.cpp:425] conv2_2b <- conv2_2a
I0422 14:07:51.115859  1287 net.cpp:399] conv2_2b -> conv2_2b
I0422 14:07:51.116971  1287 net.cpp:141] Setting up conv2_2b
I0422 14:07:51.116989  1287 net.cpp:148] Top shape: 256 16 32 32 (4194304)
I0422 14:07:51.116996  1287 net.cpp:156] Memory required for data: 405801984
I0422 14:07:51.117005  1287 layer_factory.hpp:77] Creating layer bn_conv2_2b
I0422 14:07:51.117017  1287 net.cpp:91] Creating Layer bn_conv2_2b
I0422 14:07:51.117022  1287 net.cpp:425] bn_conv2_2b <- conv2_2b
I0422 14:07:51.117032  1287 net.cpp:386] bn_conv2_2b -> conv2_2b (in-place)
I0422 14:07:51.117264  1287 net.cpp:141] Setting up bn_conv2_2b
I0422 14:07:51.117276  1287 net.cpp:148] Top shape: 256 16 32 32 (4194304)
I0422 14:07:51.117281  1287 net.cpp:156] Memory required for data: 422579200
I0422 14:07:51.117297  1287 layer_factory.hpp:77] Creating layer scale_conv2_2b
I0422 14:07:51.117310  1287 net.cpp:91] Creating Layer scale_conv2_2b
I0422 14:07:51.117316  1287 net.cpp:425] scale_conv2_2b <- conv2_2b
I0422 14:07:51.117323  1287 net.cpp:386] scale_conv2_2b -> conv2_2b (in-place)
I0422 14:07:51.117367  1287 layer_factory.hpp:77] Creating layer scale_conv2_2b
I0422 14:07:51.117492  1287 net.cpp:141] Setting up scale_conv2_2b
I0422 14:07:51.117506  1287 net.cpp:148] Top shape: 256 16 32 32 (4194304)
I0422 14:07:51.117511  1287 net.cpp:156] Memory required for data: 439356416
I0422 14:07:51.117519  1287 layer_factory.hpp:77] Creating layer conv2_2
I0422 14:07:51.117527  1287 net.cpp:91] Creating Layer conv2_2
I0422 14:07:51.117533  1287 net.cpp:425] conv2_2 <- conv2_2b
I0422 14:07:51.117539  1287 net.cpp:425] conv2_2 <- conv2_1_conv2_1_relu_0_split_1
I0422 14:07:51.117547  1287 net.cpp:425] conv2_2 <- conv1_conv1_relu_0_split_2
I0422 14:07:51.117559  1287 net.cpp:399] conv2_2 -> conv2_2
I0422 14:07:51.117595  1287 net.cpp:141] Setting up conv2_2
I0422 14:07:51.117605  1287 net.cpp:148] Top shape: 256 16 32 32 (4194304)
I0422 14:07:51.117612  1287 net.cpp:156] Memory required for data: 456133632
I0422 14:07:51.117619  1287 layer_factory.hpp:77] Creating layer conv2_2_relu
I0422 14:07:51.117626  1287 net.cpp:91] Creating Layer conv2_2_relu
I0422 14:07:51.117631  1287 net.cpp:425] conv2_2_relu <- conv2_2
I0422 14:07:51.117640  1287 net.cpp:386] conv2_2_relu -> conv2_2 (in-place)
I0422 14:07:51.118305  1287 net.cpp:141] Setting up conv2_2_relu
I0422 14:07:51.118322  1287 net.cpp:148] Top shape: 256 16 32 32 (4194304)
I0422 14:07:51.118327  1287 net.cpp:156] Memory required for data: 472910848
I0422 14:07:51.118333  1287 layer_factory.hpp:77] Creating layer conv2_2_conv2_2_relu_0_split
I0422 14:07:51.118342  1287 net.cpp:91] Creating Layer conv2_2_conv2_2_relu_0_split
I0422 14:07:51.118347  1287 net.cpp:425] conv2_2_conv2_2_relu_0_split <- conv2_2
I0422 14:07:51.118356  1287 net.cpp:399] conv2_2_conv2_2_relu_0_split -> conv2_2_conv2_2_relu_0_split_0
I0422 14:07:51.118366  1287 net.cpp:399] conv2_2_conv2_2_relu_0_split -> conv2_2_conv2_2_relu_0_split_1
I0422 14:07:51.118417  1287 net.cpp:141] Setting up conv2_2_conv2_2_relu_0_split
I0422 14:07:51.118427  1287 net.cpp:148] Top shape: 256 16 32 32 (4194304)
I0422 14:07:51.118433  1287 net.cpp:148] Top shape: 256 16 32 32 (4194304)
I0422 14:07:51.118438  1287 net.cpp:156] Memory required for data: 506465280
I0422 14:07:51.118443  1287 layer_factory.hpp:77] Creating layer conv2_3a
I0422 14:07:51.118460  1287 net.cpp:91] Creating Layer conv2_3a
I0422 14:07:51.118468  1287 net.cpp:425] conv2_3a <- conv2_2_conv2_2_relu_0_split_0
I0422 14:07:51.118476  1287 net.cpp:399] conv2_3a -> conv2_3a
I0422 14:07:51.122789  1287 net.cpp:141] Setting up conv2_3a
I0422 14:07:51.122808  1287 net.cpp:148] Top shape: 256 16 32 32 (4194304)
I0422 14:07:51.122814  1287 net.cpp:156] Memory required for data: 523242496
I0422 14:07:51.122824  1287 layer_factory.hpp:77] Creating layer bn_conv2_3a
I0422 14:07:51.122836  1287 net.cpp:91] Creating Layer bn_conv2_3a
I0422 14:07:51.122843  1287 net.cpp:425] bn_conv2_3a <- conv2_3a
I0422 14:07:51.122853  1287 net.cpp:386] bn_conv2_3a -> conv2_3a (in-place)
I0422 14:07:51.123062  1287 net.cpp:141] Setting up bn_conv2_3a
I0422 14:07:51.123073  1287 net.cpp:148] Top shape: 256 16 32 32 (4194304)
I0422 14:07:51.123078  1287 net.cpp:156] Memory required for data: 540019712
I0422 14:07:51.123090  1287 layer_factory.hpp:77] Creating layer scale_conv2_3a
I0422 14:07:51.123100  1287 net.cpp:91] Creating Layer scale_conv2_3a
I0422 14:07:51.123106  1287 net.cpp:425] scale_conv2_3a <- conv2_3a
I0422 14:07:51.123114  1287 net.cpp:386] scale_conv2_3a -> conv2_3a (in-place)
I0422 14:07:51.123155  1287 layer_factory.hpp:77] Creating layer scale_conv2_3a
I0422 14:07:51.123284  1287 net.cpp:141] Setting up scale_conv2_3a
I0422 14:07:51.123296  1287 net.cpp:148] Top shape: 256 16 32 32 (4194304)
I0422 14:07:51.123301  1287 net.cpp:156] Memory required for data: 556796928
I0422 14:07:51.123308  1287 layer_factory.hpp:77] Creating layer conv2_3a_relu
I0422 14:07:51.123317  1287 net.cpp:91] Creating Layer conv2_3a_relu
I0422 14:07:51.123322  1287 net.cpp:425] conv2_3a_relu <- conv2_3a
I0422 14:07:51.123329  1287 net.cpp:386] conv2_3a_relu -> conv2_3a (in-place)
I0422 14:07:51.123679  1287 net.cpp:141] Setting up conv2_3a_relu
I0422 14:07:51.123694  1287 net.cpp:148] Top shape: 256 16 32 32 (4194304)
I0422 14:07:51.123700  1287 net.cpp:156] Memory required for data: 573574144
I0422 14:07:51.123706  1287 layer_factory.hpp:77] Creating layer conv2_3b
I0422 14:07:51.123721  1287 net.cpp:91] Creating Layer conv2_3b
I0422 14:07:51.123728  1287 net.cpp:425] conv2_3b <- conv2_3a
I0422 14:07:51.123738  1287 net.cpp:399] conv2_3b -> conv2_3b
I0422 14:07:51.125036  1287 net.cpp:141] Setting up conv2_3b
I0422 14:07:51.125057  1287 net.cpp:148] Top shape: 256 16 32 32 (4194304)
I0422 14:07:51.125063  1287 net.cpp:156] Memory required for data: 590351360
I0422 14:07:51.125077  1287 layer_factory.hpp:77] Creating layer bn_conv2_3b
I0422 14:07:51.125092  1287 net.cpp:91] Creating Layer bn_conv2_3b
I0422 14:07:51.125099  1287 net.cpp:425] bn_conv2_3b <- conv2_3b
I0422 14:07:51.125108  1287 net.cpp:386] bn_conv2_3b -> conv2_3b (in-place)
I0422 14:07:51.125336  1287 net.cpp:141] Setting up bn_conv2_3b
I0422 14:07:51.125347  1287 net.cpp:148] Top shape: 256 16 32 32 (4194304)
I0422 14:07:51.125352  1287 net.cpp:156] Memory required for data: 607128576
I0422 14:07:51.125363  1287 layer_factory.hpp:77] Creating layer scale_conv2_3b
I0422 14:07:51.125372  1287 net.cpp:91] Creating Layer scale_conv2_3b
I0422 14:07:51.125378  1287 net.cpp:425] scale_conv2_3b <- conv2_3b
I0422 14:07:51.125386  1287 net.cpp:386] scale_conv2_3b -> conv2_3b (in-place)
I0422 14:07:51.125433  1287 layer_factory.hpp:77] Creating layer scale_conv2_3b
I0422 14:07:51.125561  1287 net.cpp:141] Setting up scale_conv2_3b
I0422 14:07:51.125572  1287 net.cpp:148] Top shape: 256 16 32 32 (4194304)
I0422 14:07:51.125576  1287 net.cpp:156] Memory required for data: 623905792
I0422 14:07:51.125586  1287 layer_factory.hpp:77] Creating layer conv2_3
I0422 14:07:51.125597  1287 net.cpp:91] Creating Layer conv2_3
I0422 14:07:51.125602  1287 net.cpp:425] conv2_3 <- conv1_conv1_relu_0_split_3
I0422 14:07:51.125608  1287 net.cpp:425] conv2_3 <- conv2_3b
I0422 14:07:51.125615  1287 net.cpp:425] conv2_3 <- conv2_2_conv2_2_relu_0_split_1
I0422 14:07:51.125623  1287 net.cpp:399] conv2_3 -> conv2_3
I0422 14:07:51.125654  1287 net.cpp:141] Setting up conv2_3
I0422 14:07:51.125663  1287 net.cpp:148] Top shape: 256 16 32 32 (4194304)
I0422 14:07:51.125669  1287 net.cpp:156] Memory required for data: 640683008
I0422 14:07:51.125674  1287 layer_factory.hpp:77] Creating layer conv2_3_relu
I0422 14:07:51.125682  1287 net.cpp:91] Creating Layer conv2_3_relu
I0422 14:07:51.125689  1287 net.cpp:425] conv2_3_relu <- conv2_3
I0422 14:07:51.125700  1287 net.cpp:386] conv2_3_relu -> conv2_3 (in-place)
I0422 14:07:51.126022  1287 net.cpp:141] Setting up conv2_3_relu
I0422 14:07:51.126039  1287 net.cpp:148] Top shape: 256 16 32 32 (4194304)
I0422 14:07:51.126044  1287 net.cpp:156] Memory required for data: 657460224
I0422 14:07:51.126050  1287 layer_factory.hpp:77] Creating layer conv2_3_conv2_3_relu_0_split
I0422 14:07:51.126061  1287 net.cpp:91] Creating Layer conv2_3_conv2_3_relu_0_split
I0422 14:07:51.126067  1287 net.cpp:425] conv2_3_conv2_3_relu_0_split <- conv2_3
I0422 14:07:51.126075  1287 net.cpp:399] conv2_3_conv2_3_relu_0_split -> conv2_3_conv2_3_relu_0_split_0
I0422 14:07:51.126087  1287 net.cpp:399] conv2_3_conv2_3_relu_0_split -> conv2_3_conv2_3_relu_0_split_1
I0422 14:07:51.126137  1287 net.cpp:141] Setting up conv2_3_conv2_3_relu_0_split
I0422 14:07:51.126147  1287 net.cpp:148] Top shape: 256 16 32 32 (4194304)
I0422 14:07:51.126152  1287 net.cpp:148] Top shape: 256 16 32 32 (4194304)
I0422 14:07:51.126157  1287 net.cpp:156] Memory required for data: 691014656
I0422 14:07:51.126163  1287 layer_factory.hpp:77] Creating layer conv2_sub
I0422 14:07:51.126178  1287 net.cpp:91] Creating Layer conv2_sub
I0422 14:07:51.126183  1287 net.cpp:425] conv2_sub <- conv2_3_conv2_3_relu_0_split_0
I0422 14:07:51.126194  1287 net.cpp:399] conv2_sub -> conv2_sub
I0422 14:07:51.127306  1287 net.cpp:141] Setting up conv2_sub
I0422 14:07:51.127324  1287 net.cpp:148] Top shape: 256 32 16 16 (2097152)
I0422 14:07:51.127331  1287 net.cpp:156] Memory required for data: 699403264
I0422 14:07:51.127341  1287 layer_factory.hpp:77] Creating layer bn_conv2_sub
I0422 14:07:51.127352  1287 net.cpp:91] Creating Layer bn_conv2_sub
I0422 14:07:51.127359  1287 net.cpp:425] bn_conv2_sub <- conv2_sub
I0422 14:07:51.127367  1287 net.cpp:386] bn_conv2_sub -> conv2_sub (in-place)
I0422 14:07:51.127580  1287 net.cpp:141] Setting up bn_conv2_sub
I0422 14:07:51.127591  1287 net.cpp:148] Top shape: 256 32 16 16 (2097152)
I0422 14:07:51.127596  1287 net.cpp:156] Memory required for data: 707791872
I0422 14:07:51.127607  1287 layer_factory.hpp:77] Creating layer scale_conv2_sub
I0422 14:07:51.127622  1287 net.cpp:91] Creating Layer scale_conv2_sub
I0422 14:07:51.127629  1287 net.cpp:425] scale_conv2_sub <- conv2_sub
I0422 14:07:51.127640  1287 net.cpp:386] scale_conv2_sub -> conv2_sub (in-place)
I0422 14:07:51.127681  1287 layer_factory.hpp:77] Creating layer scale_conv2_sub
I0422 14:07:51.127804  1287 net.cpp:141] Setting up scale_conv2_sub
I0422 14:07:51.127816  1287 net.cpp:148] Top shape: 256 32 16 16 (2097152)
I0422 14:07:51.127821  1287 net.cpp:156] Memory required for data: 716180480
I0422 14:07:51.127830  1287 layer_factory.hpp:77] Creating layer conv2_sub_scale_conv2_sub_0_split
I0422 14:07:51.127838  1287 net.cpp:91] Creating Layer conv2_sub_scale_conv2_sub_0_split
I0422 14:07:51.127845  1287 net.cpp:425] conv2_sub_scale_conv2_sub_0_split <- conv2_sub
I0422 14:07:51.127851  1287 net.cpp:399] conv2_sub_scale_conv2_sub_0_split -> conv2_sub_scale_conv2_sub_0_split_0
I0422 14:07:51.127861  1287 net.cpp:399] conv2_sub_scale_conv2_sub_0_split -> conv2_sub_scale_conv2_sub_0_split_1
I0422 14:07:51.127876  1287 net.cpp:399] conv2_sub_scale_conv2_sub_0_split -> conv2_sub_scale_conv2_sub_0_split_2
I0422 14:07:51.127931  1287 net.cpp:141] Setting up conv2_sub_scale_conv2_sub_0_split
I0422 14:07:51.127941  1287 net.cpp:148] Top shape: 256 32 16 16 (2097152)
I0422 14:07:51.127948  1287 net.cpp:148] Top shape: 256 32 16 16 (2097152)
I0422 14:07:51.127954  1287 net.cpp:148] Top shape: 256 32 16 16 (2097152)
I0422 14:07:51.127959  1287 net.cpp:156] Memory required for data: 741346304
I0422 14:07:51.127964  1287 layer_factory.hpp:77] Creating layer conv3_1a
I0422 14:07:51.127976  1287 net.cpp:91] Creating Layer conv3_1a
I0422 14:07:51.127984  1287 net.cpp:425] conv3_1a <- conv2_3_conv2_3_relu_0_split_1
I0422 14:07:51.127995  1287 net.cpp:399] conv3_1a -> conv3_1a
I0422 14:07:51.129094  1287 net.cpp:141] Setting up conv3_1a
I0422 14:07:51.129127  1287 net.cpp:148] Top shape: 256 32 16 16 (2097152)
I0422 14:07:51.129135  1287 net.cpp:156] Memory required for data: 749734912
I0422 14:07:51.129145  1287 layer_factory.hpp:77] Creating layer bn_conv3_1a
I0422 14:07:51.129155  1287 net.cpp:91] Creating Layer bn_conv3_1a
I0422 14:07:51.129161  1287 net.cpp:425] bn_conv3_1a <- conv3_1a
I0422 14:07:51.129173  1287 net.cpp:386] bn_conv3_1a -> conv3_1a (in-place)
I0422 14:07:51.129385  1287 net.cpp:141] Setting up bn_conv3_1a
I0422 14:07:51.129396  1287 net.cpp:148] Top shape: 256 32 16 16 (2097152)
I0422 14:07:51.129401  1287 net.cpp:156] Memory required for data: 758123520
I0422 14:07:51.129411  1287 layer_factory.hpp:77] Creating layer scale_conv3_1a
I0422 14:07:51.129420  1287 net.cpp:91] Creating Layer scale_conv3_1a
I0422 14:07:51.129426  1287 net.cpp:425] scale_conv3_1a <- conv3_1a
I0422 14:07:51.129434  1287 net.cpp:386] scale_conv3_1a -> conv3_1a (in-place)
I0422 14:07:51.129477  1287 layer_factory.hpp:77] Creating layer scale_conv3_1a
I0422 14:07:51.129603  1287 net.cpp:141] Setting up scale_conv3_1a
I0422 14:07:51.129613  1287 net.cpp:148] Top shape: 256 32 16 16 (2097152)
I0422 14:07:51.129618  1287 net.cpp:156] Memory required for data: 766512128
I0422 14:07:51.129626  1287 layer_factory.hpp:77] Creating layer conv3_1a_relu
I0422 14:07:51.129636  1287 net.cpp:91] Creating Layer conv3_1a_relu
I0422 14:07:51.129640  1287 net.cpp:425] conv3_1a_relu <- conv3_1a
I0422 14:07:51.129649  1287 net.cpp:386] conv3_1a_relu -> conv3_1a (in-place)
I0422 14:07:51.129967  1287 net.cpp:141] Setting up conv3_1a_relu
I0422 14:07:51.129983  1287 net.cpp:148] Top shape: 256 32 16 16 (2097152)
I0422 14:07:51.129989  1287 net.cpp:156] Memory required for data: 774900736
I0422 14:07:51.129995  1287 layer_factory.hpp:77] Creating layer conv3_1b
I0422 14:07:51.130010  1287 net.cpp:91] Creating Layer conv3_1b
I0422 14:07:51.130017  1287 net.cpp:425] conv3_1b <- conv3_1a
I0422 14:07:51.130028  1287 net.cpp:399] conv3_1b -> conv3_1b
I0422 14:07:51.132009  1287 net.cpp:141] Setting up conv3_1b
I0422 14:07:51.132027  1287 net.cpp:148] Top shape: 256 32 16 16 (2097152)
I0422 14:07:51.132033  1287 net.cpp:156] Memory required for data: 783289344
I0422 14:07:51.132061  1287 layer_factory.hpp:77] Creating layer bn_conv3_1b
I0422 14:07:51.132074  1287 net.cpp:91] Creating Layer bn_conv3_1b
I0422 14:07:51.132081  1287 net.cpp:425] bn_conv3_1b <- conv3_1b
I0422 14:07:51.132091  1287 net.cpp:386] bn_conv3_1b -> conv3_1b (in-place)
I0422 14:07:51.132303  1287 net.cpp:141] Setting up bn_conv3_1b
I0422 14:07:51.132314  1287 net.cpp:148] Top shape: 256 32 16 16 (2097152)
I0422 14:07:51.132319  1287 net.cpp:156] Memory required for data: 791677952
I0422 14:07:51.132330  1287 layer_factory.hpp:77] Creating layer scale_conv3_1b
I0422 14:07:51.132344  1287 net.cpp:91] Creating Layer scale_conv3_1b
I0422 14:07:51.132350  1287 net.cpp:425] scale_conv3_1b <- conv3_1b
I0422 14:07:51.132359  1287 net.cpp:386] scale_conv3_1b -> conv3_1b (in-place)
I0422 14:07:51.132401  1287 layer_factory.hpp:77] Creating layer scale_conv3_1b
I0422 14:07:51.132529  1287 net.cpp:141] Setting up scale_conv3_1b
I0422 14:07:51.132539  1287 net.cpp:148] Top shape: 256 32 16 16 (2097152)
I0422 14:07:51.132544  1287 net.cpp:156] Memory required for data: 800066560
I0422 14:07:51.132553  1287 layer_factory.hpp:77] Creating layer conv3_1
I0422 14:07:51.132561  1287 net.cpp:91] Creating Layer conv3_1
I0422 14:07:51.132567  1287 net.cpp:425] conv3_1 <- conv3_1b
I0422 14:07:51.132573  1287 net.cpp:425] conv3_1 <- conv2_sub_scale_conv2_sub_0_split_0
I0422 14:07:51.132585  1287 net.cpp:399] conv3_1 -> conv3_1
I0422 14:07:51.132609  1287 net.cpp:141] Setting up conv3_1
I0422 14:07:51.132618  1287 net.cpp:148] Top shape: 256 32 16 16 (2097152)
I0422 14:07:51.132623  1287 net.cpp:156] Memory required for data: 808455168
I0422 14:07:51.132629  1287 layer_factory.hpp:77] Creating layer conv3_1_relu
I0422 14:07:51.132639  1287 net.cpp:91] Creating Layer conv3_1_relu
I0422 14:07:51.132645  1287 net.cpp:425] conv3_1_relu <- conv3_1
I0422 14:07:51.132652  1287 net.cpp:386] conv3_1_relu -> conv3_1 (in-place)
I0422 14:07:51.132851  1287 net.cpp:141] Setting up conv3_1_relu
I0422 14:07:51.132865  1287 net.cpp:148] Top shape: 256 32 16 16 (2097152)
I0422 14:07:51.132870  1287 net.cpp:156] Memory required for data: 816843776
I0422 14:07:51.132875  1287 layer_factory.hpp:77] Creating layer conv3_1_conv3_1_relu_0_split
I0422 14:07:51.132885  1287 net.cpp:91] Creating Layer conv3_1_conv3_1_relu_0_split
I0422 14:07:51.132891  1287 net.cpp:425] conv3_1_conv3_1_relu_0_split <- conv3_1
I0422 14:07:51.132899  1287 net.cpp:399] conv3_1_conv3_1_relu_0_split -> conv3_1_conv3_1_relu_0_split_0
I0422 14:07:51.132911  1287 net.cpp:399] conv3_1_conv3_1_relu_0_split -> conv3_1_conv3_1_relu_0_split_1
I0422 14:07:51.132964  1287 net.cpp:141] Setting up conv3_1_conv3_1_relu_0_split
I0422 14:07:51.132974  1287 net.cpp:148] Top shape: 256 32 16 16 (2097152)
I0422 14:07:51.132982  1287 net.cpp:148] Top shape: 256 32 16 16 (2097152)
I0422 14:07:51.132987  1287 net.cpp:156] Memory required for data: 833620992
I0422 14:07:51.132992  1287 layer_factory.hpp:77] Creating layer conv3_2a
I0422 14:07:51.133008  1287 net.cpp:91] Creating Layer conv3_2a
I0422 14:07:51.133014  1287 net.cpp:425] conv3_2a <- conv3_1_conv3_1_relu_0_split_0
I0422 14:07:51.133024  1287 net.cpp:399] conv3_2a -> conv3_2a
I0422 14:07:51.134490  1287 net.cpp:141] Setting up conv3_2a
I0422 14:07:51.134508  1287 net.cpp:148] Top shape: 256 32 16 16 (2097152)
I0422 14:07:51.134515  1287 net.cpp:156] Memory required for data: 842009600
I0422 14:07:51.134524  1287 layer_factory.hpp:77] Creating layer bn_conv3_2a
I0422 14:07:51.134538  1287 net.cpp:91] Creating Layer bn_conv3_2a
I0422 14:07:51.134546  1287 net.cpp:425] bn_conv3_2a <- conv3_2a
I0422 14:07:51.134554  1287 net.cpp:386] bn_conv3_2a -> conv3_2a (in-place)
I0422 14:07:51.134769  1287 net.cpp:141] Setting up bn_conv3_2a
I0422 14:07:51.134780  1287 net.cpp:148] Top shape: 256 32 16 16 (2097152)
I0422 14:07:51.134785  1287 net.cpp:156] Memory required for data: 850398208
I0422 14:07:51.134796  1287 layer_factory.hpp:77] Creating layer scale_conv3_2a
I0422 14:07:51.134807  1287 net.cpp:91] Creating Layer scale_conv3_2a
I0422 14:07:51.134819  1287 net.cpp:425] scale_conv3_2a <- conv3_2a
I0422 14:07:51.134827  1287 net.cpp:386] scale_conv3_2a -> conv3_2a (in-place)
I0422 14:07:51.134873  1287 layer_factory.hpp:77] Creating layer scale_conv3_2a
I0422 14:07:51.135002  1287 net.cpp:141] Setting up scale_conv3_2a
I0422 14:07:51.135013  1287 net.cpp:148] Top shape: 256 32 16 16 (2097152)
I0422 14:07:51.135018  1287 net.cpp:156] Memory required for data: 858786816
I0422 14:07:51.135027  1287 layer_factory.hpp:77] Creating layer conv3_2a_relu
I0422 14:07:51.135035  1287 net.cpp:91] Creating Layer conv3_2a_relu
I0422 14:07:51.135041  1287 net.cpp:425] conv3_2a_relu <- conv3_2a
I0422 14:07:51.135051  1287 net.cpp:386] conv3_2a_relu -> conv3_2a (in-place)
I0422 14:07:51.135246  1287 net.cpp:141] Setting up conv3_2a_relu
I0422 14:07:51.135262  1287 net.cpp:148] Top shape: 256 32 16 16 (2097152)
I0422 14:07:51.135267  1287 net.cpp:156] Memory required for data: 867175424
I0422 14:07:51.135272  1287 layer_factory.hpp:77] Creating layer conv3_2b
I0422 14:07:51.135289  1287 net.cpp:91] Creating Layer conv3_2b
I0422 14:07:51.135296  1287 net.cpp:425] conv3_2b <- conv3_2a
I0422 14:07:51.135305  1287 net.cpp:399] conv3_2b -> conv3_2b
I0422 14:07:51.136754  1287 net.cpp:141] Setting up conv3_2b
I0422 14:07:51.136772  1287 net.cpp:148] Top shape: 256 32 16 16 (2097152)
I0422 14:07:51.136777  1287 net.cpp:156] Memory required for data: 875564032
I0422 14:07:51.136787  1287 layer_factory.hpp:77] Creating layer bn_conv3_2b
I0422 14:07:51.136798  1287 net.cpp:91] Creating Layer bn_conv3_2b
I0422 14:07:51.136804  1287 net.cpp:425] bn_conv3_2b <- conv3_2b
I0422 14:07:51.136814  1287 net.cpp:386] bn_conv3_2b -> conv3_2b (in-place)
I0422 14:07:51.137029  1287 net.cpp:141] Setting up bn_conv3_2b
I0422 14:07:51.137040  1287 net.cpp:148] Top shape: 256 32 16 16 (2097152)
I0422 14:07:51.137045  1287 net.cpp:156] Memory required for data: 883952640
I0422 14:07:51.137056  1287 layer_factory.hpp:77] Creating layer scale_conv3_2b
I0422 14:07:51.137066  1287 net.cpp:91] Creating Layer scale_conv3_2b
I0422 14:07:51.137071  1287 net.cpp:425] scale_conv3_2b <- conv3_2b
I0422 14:07:51.137079  1287 net.cpp:386] scale_conv3_2b -> conv3_2b (in-place)
I0422 14:07:51.137130  1287 layer_factory.hpp:77] Creating layer scale_conv3_2b
I0422 14:07:51.137264  1287 net.cpp:141] Setting up scale_conv3_2b
I0422 14:07:51.137274  1287 net.cpp:148] Top shape: 256 32 16 16 (2097152)
I0422 14:07:51.137279  1287 net.cpp:156] Memory required for data: 892341248
I0422 14:07:51.137289  1287 layer_factory.hpp:77] Creating layer conv3_2
I0422 14:07:51.137298  1287 net.cpp:91] Creating Layer conv3_2
I0422 14:07:51.137305  1287 net.cpp:425] conv3_2 <- conv3_2b
I0422 14:07:51.137311  1287 net.cpp:425] conv3_2 <- conv2_sub_scale_conv2_sub_0_split_1
I0422 14:07:51.137318  1287 net.cpp:425] conv3_2 <- conv3_1_conv3_1_relu_0_split_1
I0422 14:07:51.137326  1287 net.cpp:399] conv3_2 -> conv3_2
I0422 14:07:51.137351  1287 net.cpp:141] Setting up conv3_2
I0422 14:07:51.137361  1287 net.cpp:148] Top shape: 256 32 16 16 (2097152)
I0422 14:07:51.137365  1287 net.cpp:156] Memory required for data: 900729856
I0422 14:07:51.137370  1287 layer_factory.hpp:77] Creating layer conv3_2_relu
I0422 14:07:51.137380  1287 net.cpp:91] Creating Layer conv3_2_relu
I0422 14:07:51.137387  1287 net.cpp:425] conv3_2_relu <- conv3_2
I0422 14:07:51.137393  1287 net.cpp:386] conv3_2_relu -> conv3_2 (in-place)
I0422 14:07:51.137717  1287 net.cpp:141] Setting up conv3_2_relu
I0422 14:07:51.137733  1287 net.cpp:148] Top shape: 256 32 16 16 (2097152)
I0422 14:07:51.137738  1287 net.cpp:156] Memory required for data: 909118464
I0422 14:07:51.137744  1287 layer_factory.hpp:77] Creating layer conv3_2_conv3_2_relu_0_split
I0422 14:07:51.137754  1287 net.cpp:91] Creating Layer conv3_2_conv3_2_relu_0_split
I0422 14:07:51.137760  1287 net.cpp:425] conv3_2_conv3_2_relu_0_split <- conv3_2
I0422 14:07:51.137771  1287 net.cpp:399] conv3_2_conv3_2_relu_0_split -> conv3_2_conv3_2_relu_0_split_0
I0422 14:07:51.137781  1287 net.cpp:399] conv3_2_conv3_2_relu_0_split -> conv3_2_conv3_2_relu_0_split_1
I0422 14:07:51.137837  1287 net.cpp:141] Setting up conv3_2_conv3_2_relu_0_split
I0422 14:07:51.137847  1287 net.cpp:148] Top shape: 256 32 16 16 (2097152)
I0422 14:07:51.137853  1287 net.cpp:148] Top shape: 256 32 16 16 (2097152)
I0422 14:07:51.137858  1287 net.cpp:156] Memory required for data: 925895680
I0422 14:07:51.137864  1287 layer_factory.hpp:77] Creating layer conv3_3a
I0422 14:07:51.137881  1287 net.cpp:91] Creating Layer conv3_3a
I0422 14:07:51.137887  1287 net.cpp:425] conv3_3a <- conv3_2_conv3_2_relu_0_split_0
I0422 14:07:51.137899  1287 net.cpp:399] conv3_3a -> conv3_3a
I0422 14:07:51.139356  1287 net.cpp:141] Setting up conv3_3a
I0422 14:07:51.139374  1287 net.cpp:148] Top shape: 256 32 16 16 (2097152)
I0422 14:07:51.139380  1287 net.cpp:156] Memory required for data: 934284288
I0422 14:07:51.139390  1287 layer_factory.hpp:77] Creating layer bn_conv3_3a
I0422 14:07:51.139402  1287 net.cpp:91] Creating Layer bn_conv3_3a
I0422 14:07:51.139408  1287 net.cpp:425] bn_conv3_3a <- conv3_3a
I0422 14:07:51.139420  1287 net.cpp:386] bn_conv3_3a -> conv3_3a (in-place)
I0422 14:07:51.139636  1287 net.cpp:141] Setting up bn_conv3_3a
I0422 14:07:51.139647  1287 net.cpp:148] Top shape: 256 32 16 16 (2097152)
I0422 14:07:51.139653  1287 net.cpp:156] Memory required for data: 942672896
I0422 14:07:51.139663  1287 layer_factory.hpp:77] Creating layer scale_conv3_3a
I0422 14:07:51.139673  1287 net.cpp:91] Creating Layer scale_conv3_3a
I0422 14:07:51.139679  1287 net.cpp:425] scale_conv3_3a <- conv3_3a
I0422 14:07:51.139688  1287 net.cpp:386] scale_conv3_3a -> conv3_3a (in-place)
I0422 14:07:51.139732  1287 layer_factory.hpp:77] Creating layer scale_conv3_3a
I0422 14:07:51.139863  1287 net.cpp:141] Setting up scale_conv3_3a
I0422 14:07:51.139873  1287 net.cpp:148] Top shape: 256 32 16 16 (2097152)
I0422 14:07:51.139878  1287 net.cpp:156] Memory required for data: 951061504
I0422 14:07:51.139886  1287 layer_factory.hpp:77] Creating layer conv3_3a_relu
I0422 14:07:51.139901  1287 net.cpp:91] Creating Layer conv3_3a_relu
I0422 14:07:51.139909  1287 net.cpp:425] conv3_3a_relu <- conv3_3a
I0422 14:07:51.139915  1287 net.cpp:386] conv3_3a_relu -> conv3_3a (in-place)
I0422 14:07:51.140115  1287 net.cpp:141] Setting up conv3_3a_relu
I0422 14:07:51.140128  1287 net.cpp:148] Top shape: 256 32 16 16 (2097152)
I0422 14:07:51.140133  1287 net.cpp:156] Memory required for data: 959450112
I0422 14:07:51.140139  1287 layer_factory.hpp:77] Creating layer conv3_3b
I0422 14:07:51.140156  1287 net.cpp:91] Creating Layer conv3_3b
I0422 14:07:51.140163  1287 net.cpp:425] conv3_3b <- conv3_3a
I0422 14:07:51.140174  1287 net.cpp:399] conv3_3b -> conv3_3b
I0422 14:07:51.142526  1287 net.cpp:141] Setting up conv3_3b
I0422 14:07:51.142546  1287 net.cpp:148] Top shape: 256 32 16 16 (2097152)
I0422 14:07:51.142552  1287 net.cpp:156] Memory required for data: 967838720
I0422 14:07:51.142562  1287 layer_factory.hpp:77] Creating layer bn_conv3_3b
I0422 14:07:51.142575  1287 net.cpp:91] Creating Layer bn_conv3_3b
I0422 14:07:51.142581  1287 net.cpp:425] bn_conv3_3b <- conv3_3b
I0422 14:07:51.142590  1287 net.cpp:386] bn_conv3_3b -> conv3_3b (in-place)
I0422 14:07:51.142809  1287 net.cpp:141] Setting up bn_conv3_3b
I0422 14:07:51.142820  1287 net.cpp:148] Top shape: 256 32 16 16 (2097152)
I0422 14:07:51.142825  1287 net.cpp:156] Memory required for data: 976227328
I0422 14:07:51.142837  1287 layer_factory.hpp:77] Creating layer scale_conv3_3b
I0422 14:07:51.142846  1287 net.cpp:91] Creating Layer scale_conv3_3b
I0422 14:07:51.142851  1287 net.cpp:425] scale_conv3_3b <- conv3_3b
I0422 14:07:51.142861  1287 net.cpp:386] scale_conv3_3b -> conv3_3b (in-place)
I0422 14:07:51.142904  1287 layer_factory.hpp:77] Creating layer scale_conv3_3b
I0422 14:07:51.143033  1287 net.cpp:141] Setting up scale_conv3_3b
I0422 14:07:51.143043  1287 net.cpp:148] Top shape: 256 32 16 16 (2097152)
I0422 14:07:51.143049  1287 net.cpp:156] Memory required for data: 984615936
I0422 14:07:51.143057  1287 layer_factory.hpp:77] Creating layer conv3_3
I0422 14:07:51.143070  1287 net.cpp:91] Creating Layer conv3_3
I0422 14:07:51.143077  1287 net.cpp:425] conv3_3 <- conv3_3b
I0422 14:07:51.143085  1287 net.cpp:425] conv3_3 <- conv2_sub_scale_conv2_sub_0_split_2
I0422 14:07:51.143091  1287 net.cpp:425] conv3_3 <- conv3_2_conv3_2_relu_0_split_1
I0422 14:07:51.143100  1287 net.cpp:399] conv3_3 -> conv3_3
I0422 14:07:51.143128  1287 net.cpp:141] Setting up conv3_3
I0422 14:07:51.143138  1287 net.cpp:148] Top shape: 256 32 16 16 (2097152)
I0422 14:07:51.143143  1287 net.cpp:156] Memory required for data: 993004544
I0422 14:07:51.143148  1287 layer_factory.hpp:77] Creating layer conv3_3_relu
I0422 14:07:51.143157  1287 net.cpp:91] Creating Layer conv3_3_relu
I0422 14:07:51.143162  1287 net.cpp:425] conv3_3_relu <- conv3_3
I0422 14:07:51.143172  1287 net.cpp:386] conv3_3_relu -> conv3_3 (in-place)
I0422 14:07:51.143373  1287 net.cpp:141] Setting up conv3_3_relu
I0422 14:07:51.143386  1287 net.cpp:148] Top shape: 256 32 16 16 (2097152)
I0422 14:07:51.143391  1287 net.cpp:156] Memory required for data: 1001393152
I0422 14:07:51.143398  1287 layer_factory.hpp:77] Creating layer conv3_3_conv3_3_relu_0_split
I0422 14:07:51.143407  1287 net.cpp:91] Creating Layer conv3_3_conv3_3_relu_0_split
I0422 14:07:51.143414  1287 net.cpp:425] conv3_3_conv3_3_relu_0_split <- conv3_3
I0422 14:07:51.143421  1287 net.cpp:399] conv3_3_conv3_3_relu_0_split -> conv3_3_conv3_3_relu_0_split_0
I0422 14:07:51.143431  1287 net.cpp:399] conv3_3_conv3_3_relu_0_split -> conv3_3_conv3_3_relu_0_split_1
I0422 14:07:51.143482  1287 net.cpp:141] Setting up conv3_3_conv3_3_relu_0_split
I0422 14:07:51.143491  1287 net.cpp:148] Top shape: 256 32 16 16 (2097152)
I0422 14:07:51.143497  1287 net.cpp:148] Top shape: 256 32 16 16 (2097152)
I0422 14:07:51.143502  1287 net.cpp:156] Memory required for data: 1018170368
I0422 14:07:51.143508  1287 layer_factory.hpp:77] Creating layer conv3_sub
I0422 14:07:51.143522  1287 net.cpp:91] Creating Layer conv3_sub
I0422 14:07:51.143528  1287 net.cpp:425] conv3_sub <- conv3_3_conv3_3_relu_0_split_0
I0422 14:07:51.143540  1287 net.cpp:399] conv3_sub -> conv3_sub
I0422 14:07:51.144887  1287 net.cpp:141] Setting up conv3_sub
I0422 14:07:51.144906  1287 net.cpp:148] Top shape: 256 64 8 8 (1048576)
I0422 14:07:51.144912  1287 net.cpp:156] Memory required for data: 1022364672
I0422 14:07:51.144922  1287 layer_factory.hpp:77] Creating layer bn_conv3_sub
I0422 14:07:51.144934  1287 net.cpp:91] Creating Layer bn_conv3_sub
I0422 14:07:51.144940  1287 net.cpp:425] bn_conv3_sub <- conv3_sub
I0422 14:07:51.144949  1287 net.cpp:386] bn_conv3_sub -> conv3_sub (in-place)
I0422 14:07:51.145187  1287 net.cpp:141] Setting up bn_conv3_sub
I0422 14:07:51.145200  1287 net.cpp:148] Top shape: 256 64 8 8 (1048576)
I0422 14:07:51.145205  1287 net.cpp:156] Memory required for data: 1026558976
I0422 14:07:51.145216  1287 layer_factory.hpp:77] Creating layer scale_conv3_sub
I0422 14:07:51.145226  1287 net.cpp:91] Creating Layer scale_conv3_sub
I0422 14:07:51.145231  1287 net.cpp:425] scale_conv3_sub <- conv3_sub
I0422 14:07:51.145239  1287 net.cpp:386] scale_conv3_sub -> conv3_sub (in-place)
I0422 14:07:51.145285  1287 layer_factory.hpp:77] Creating layer scale_conv3_sub
I0422 14:07:51.145422  1287 net.cpp:141] Setting up scale_conv3_sub
I0422 14:07:51.145433  1287 net.cpp:148] Top shape: 256 64 8 8 (1048576)
I0422 14:07:51.145437  1287 net.cpp:156] Memory required for data: 1030753280
I0422 14:07:51.145447  1287 layer_factory.hpp:77] Creating layer conv3_sub_scale_conv3_sub_0_split
I0422 14:07:51.145457  1287 net.cpp:91] Creating Layer conv3_sub_scale_conv3_sub_0_split
I0422 14:07:51.145462  1287 net.cpp:425] conv3_sub_scale_conv3_sub_0_split <- conv3_sub
I0422 14:07:51.145470  1287 net.cpp:399] conv3_sub_scale_conv3_sub_0_split -> conv3_sub_scale_conv3_sub_0_split_0
I0422 14:07:51.145480  1287 net.cpp:399] conv3_sub_scale_conv3_sub_0_split -> conv3_sub_scale_conv3_sub_0_split_1
I0422 14:07:51.145490  1287 net.cpp:399] conv3_sub_scale_conv3_sub_0_split -> conv3_sub_scale_conv3_sub_0_split_2
I0422 14:07:51.145550  1287 net.cpp:141] Setting up conv3_sub_scale_conv3_sub_0_split
I0422 14:07:51.145561  1287 net.cpp:148] Top shape: 256 64 8 8 (1048576)
I0422 14:07:51.145567  1287 net.cpp:148] Top shape: 256 64 8 8 (1048576)
I0422 14:07:51.145573  1287 net.cpp:148] Top shape: 256 64 8 8 (1048576)
I0422 14:07:51.145578  1287 net.cpp:156] Memory required for data: 1043336192
I0422 14:07:51.145583  1287 layer_factory.hpp:77] Creating layer conv4_1a
I0422 14:07:51.145598  1287 net.cpp:91] Creating Layer conv4_1a
I0422 14:07:51.145604  1287 net.cpp:425] conv4_1a <- conv3_3_conv3_3_relu_0_split_1
I0422 14:07:51.145614  1287 net.cpp:399] conv4_1a -> conv4_1a
I0422 14:07:51.146818  1287 net.cpp:141] Setting up conv4_1a
I0422 14:07:51.146839  1287 net.cpp:148] Top shape: 256 64 8 8 (1048576)
I0422 14:07:51.146845  1287 net.cpp:156] Memory required for data: 1047530496
I0422 14:07:51.146854  1287 layer_factory.hpp:77] Creating layer bn_conv4_1a
I0422 14:07:51.146865  1287 net.cpp:91] Creating Layer bn_conv4_1a
I0422 14:07:51.146872  1287 net.cpp:425] bn_conv4_1a <- conv4_1a
I0422 14:07:51.146883  1287 net.cpp:386] bn_conv4_1a -> conv4_1a (in-place)
I0422 14:07:51.147116  1287 net.cpp:141] Setting up bn_conv4_1a
I0422 14:07:51.147128  1287 net.cpp:148] Top shape: 256 64 8 8 (1048576)
I0422 14:07:51.147133  1287 net.cpp:156] Memory required for data: 1051724800
I0422 14:07:51.147145  1287 layer_factory.hpp:77] Creating layer scale_conv4_1a
I0422 14:07:51.147153  1287 net.cpp:91] Creating Layer scale_conv4_1a
I0422 14:07:51.147159  1287 net.cpp:425] scale_conv4_1a <- conv4_1a
I0422 14:07:51.147169  1287 net.cpp:386] scale_conv4_1a -> conv4_1a (in-place)
I0422 14:07:51.147214  1287 layer_factory.hpp:77] Creating layer scale_conv4_1a
I0422 14:07:51.147352  1287 net.cpp:141] Setting up scale_conv4_1a
I0422 14:07:51.147362  1287 net.cpp:148] Top shape: 256 64 8 8 (1048576)
I0422 14:07:51.147367  1287 net.cpp:156] Memory required for data: 1055919104
I0422 14:07:51.147377  1287 layer_factory.hpp:77] Creating layer conv4_1a_relu
I0422 14:07:51.147384  1287 net.cpp:91] Creating Layer conv4_1a_relu
I0422 14:07:51.147390  1287 net.cpp:425] conv4_1a_relu <- conv4_1a
I0422 14:07:51.147397  1287 net.cpp:386] conv4_1a_relu -> conv4_1a (in-place)
I0422 14:07:51.147734  1287 net.cpp:141] Setting up conv4_1a_relu
I0422 14:07:51.147752  1287 net.cpp:148] Top shape: 256 64 8 8 (1048576)
I0422 14:07:51.147756  1287 net.cpp:156] Memory required for data: 1060113408
I0422 14:07:51.147763  1287 layer_factory.hpp:77] Creating layer conv4_1b
I0422 14:07:51.147778  1287 net.cpp:91] Creating Layer conv4_1b
I0422 14:07:51.147784  1287 net.cpp:425] conv4_1b <- conv4_1a
I0422 14:07:51.147795  1287 net.cpp:399] conv4_1b -> conv4_1b
I0422 14:07:51.151937  1287 net.cpp:141] Setting up conv4_1b
I0422 14:07:51.151957  1287 net.cpp:148] Top shape: 256 64 8 8 (1048576)
I0422 14:07:51.151963  1287 net.cpp:156] Memory required for data: 1064307712
I0422 14:07:51.151976  1287 layer_factory.hpp:77] Creating layer bn_conv4_1b
I0422 14:07:51.151989  1287 net.cpp:91] Creating Layer bn_conv4_1b
I0422 14:07:51.151995  1287 net.cpp:425] bn_conv4_1b <- conv4_1b
I0422 14:07:51.152005  1287 net.cpp:386] bn_conv4_1b -> conv4_1b (in-place)
I0422 14:07:51.152251  1287 net.cpp:141] Setting up bn_conv4_1b
I0422 14:07:51.152261  1287 net.cpp:148] Top shape: 256 64 8 8 (1048576)
I0422 14:07:51.152266  1287 net.cpp:156] Memory required for data: 1068502016
I0422 14:07:51.152276  1287 layer_factory.hpp:77] Creating layer scale_conv4_1b
I0422 14:07:51.152288  1287 net.cpp:91] Creating Layer scale_conv4_1b
I0422 14:07:51.152293  1287 net.cpp:425] scale_conv4_1b <- conv4_1b
I0422 14:07:51.152302  1287 net.cpp:386] scale_conv4_1b -> conv4_1b (in-place)
I0422 14:07:51.152348  1287 layer_factory.hpp:77] Creating layer scale_conv4_1b
I0422 14:07:51.152485  1287 net.cpp:141] Setting up scale_conv4_1b
I0422 14:07:51.152496  1287 net.cpp:148] Top shape: 256 64 8 8 (1048576)
I0422 14:07:51.152501  1287 net.cpp:156] Memory required for data: 1072696320
I0422 14:07:51.152509  1287 layer_factory.hpp:77] Creating layer conv4_1
I0422 14:07:51.152525  1287 net.cpp:91] Creating Layer conv4_1
I0422 14:07:51.152532  1287 net.cpp:425] conv4_1 <- conv3_sub_scale_conv3_sub_0_split_0
I0422 14:07:51.152539  1287 net.cpp:425] conv4_1 <- conv4_1b
I0422 14:07:51.152549  1287 net.cpp:399] conv4_1 -> conv4_1
I0422 14:07:51.152576  1287 net.cpp:141] Setting up conv4_1
I0422 14:07:51.152586  1287 net.cpp:148] Top shape: 256 64 8 8 (1048576)
I0422 14:07:51.152591  1287 net.cpp:156] Memory required for data: 1076890624
I0422 14:07:51.152597  1287 layer_factory.hpp:77] Creating layer conv4_1_relu
I0422 14:07:51.152604  1287 net.cpp:91] Creating Layer conv4_1_relu
I0422 14:07:51.152611  1287 net.cpp:425] conv4_1_relu <- conv4_1
I0422 14:07:51.152619  1287 net.cpp:386] conv4_1_relu -> conv4_1 (in-place)
I0422 14:07:51.152959  1287 net.cpp:141] Setting up conv4_1_relu
I0422 14:07:51.152976  1287 net.cpp:148] Top shape: 256 64 8 8 (1048576)
I0422 14:07:51.152982  1287 net.cpp:156] Memory required for data: 1081084928
I0422 14:07:51.152987  1287 layer_factory.hpp:77] Creating layer conv4_1_conv4_1_relu_0_split
I0422 14:07:51.152997  1287 net.cpp:91] Creating Layer conv4_1_conv4_1_relu_0_split
I0422 14:07:51.153002  1287 net.cpp:425] conv4_1_conv4_1_relu_0_split <- conv4_1
I0422 14:07:51.153012  1287 net.cpp:399] conv4_1_conv4_1_relu_0_split -> conv4_1_conv4_1_relu_0_split_0
I0422 14:07:51.153023  1287 net.cpp:399] conv4_1_conv4_1_relu_0_split -> conv4_1_conv4_1_relu_0_split_1
I0422 14:07:51.153075  1287 net.cpp:141] Setting up conv4_1_conv4_1_relu_0_split
I0422 14:07:51.153091  1287 net.cpp:148] Top shape: 256 64 8 8 (1048576)
I0422 14:07:51.153098  1287 net.cpp:148] Top shape: 256 64 8 8 (1048576)
I0422 14:07:51.153102  1287 net.cpp:156] Memory required for data: 1089473536
I0422 14:07:51.153108  1287 layer_factory.hpp:77] Creating layer conv4_2a
I0422 14:07:51.153133  1287 net.cpp:91] Creating Layer conv4_2a
I0422 14:07:51.153139  1287 net.cpp:425] conv4_2a <- conv4_1_conv4_1_relu_0_split_0
I0422 14:07:51.153149  1287 net.cpp:399] conv4_2a -> conv4_2a
I0422 14:07:51.157701  1287 net.cpp:141] Setting up conv4_2a
I0422 14:07:51.157721  1287 net.cpp:148] Top shape: 256 64 8 8 (1048576)
I0422 14:07:51.157727  1287 net.cpp:156] Memory required for data: 1093667840
I0422 14:07:51.157737  1287 layer_factory.hpp:77] Creating layer bn_conv4_2a
I0422 14:07:51.157747  1287 net.cpp:91] Creating Layer bn_conv4_2a
I0422 14:07:51.157753  1287 net.cpp:425] bn_conv4_2a <- conv4_2a
I0422 14:07:51.157764  1287 net.cpp:386] bn_conv4_2a -> conv4_2a (in-place)
I0422 14:07:51.158004  1287 net.cpp:141] Setting up bn_conv4_2a
I0422 14:07:51.158016  1287 net.cpp:148] Top shape: 256 64 8 8 (1048576)
I0422 14:07:51.158021  1287 net.cpp:156] Memory required for data: 1097862144
I0422 14:07:51.158031  1287 layer_factory.hpp:77] Creating layer scale_conv4_2a
I0422 14:07:51.158041  1287 net.cpp:91] Creating Layer scale_conv4_2a
I0422 14:07:51.158046  1287 net.cpp:425] scale_conv4_2a <- conv4_2a
I0422 14:07:51.158056  1287 net.cpp:386] scale_conv4_2a -> conv4_2a (in-place)
I0422 14:07:51.158102  1287 layer_factory.hpp:77] Creating layer scale_conv4_2a
I0422 14:07:51.158242  1287 net.cpp:141] Setting up scale_conv4_2a
I0422 14:07:51.158253  1287 net.cpp:148] Top shape: 256 64 8 8 (1048576)
I0422 14:07:51.158258  1287 net.cpp:156] Memory required for data: 1102056448
I0422 14:07:51.158267  1287 layer_factory.hpp:77] Creating layer conv4_2a_relu
I0422 14:07:51.158275  1287 net.cpp:91] Creating Layer conv4_2a_relu
I0422 14:07:51.158282  1287 net.cpp:425] conv4_2a_relu <- conv4_2a
I0422 14:07:51.158291  1287 net.cpp:386] conv4_2a_relu -> conv4_2a (in-place)
I0422 14:07:51.158923  1287 net.cpp:141] Setting up conv4_2a_relu
I0422 14:07:51.158941  1287 net.cpp:148] Top shape: 256 64 8 8 (1048576)
I0422 14:07:51.158946  1287 net.cpp:156] Memory required for data: 1106250752
I0422 14:07:51.158951  1287 layer_factory.hpp:77] Creating layer conv4_2b
I0422 14:07:51.158967  1287 net.cpp:91] Creating Layer conv4_2b
I0422 14:07:51.158973  1287 net.cpp:425] conv4_2b <- conv4_2a
I0422 14:07:51.158987  1287 net.cpp:399] conv4_2b -> conv4_2b
I0422 14:07:51.161533  1287 net.cpp:141] Setting up conv4_2b
I0422 14:07:51.161552  1287 net.cpp:148] Top shape: 256 64 8 8 (1048576)
I0422 14:07:51.161559  1287 net.cpp:156] Memory required for data: 1110445056
I0422 14:07:51.161568  1287 layer_factory.hpp:77] Creating layer bn_conv4_2b
I0422 14:07:51.161581  1287 net.cpp:91] Creating Layer bn_conv4_2b
I0422 14:07:51.161587  1287 net.cpp:425] bn_conv4_2b <- conv4_2b
I0422 14:07:51.161597  1287 net.cpp:386] bn_conv4_2b -> conv4_2b (in-place)
I0422 14:07:51.161835  1287 net.cpp:141] Setting up bn_conv4_2b
I0422 14:07:51.161847  1287 net.cpp:148] Top shape: 256 64 8 8 (1048576)
I0422 14:07:51.161852  1287 net.cpp:156] Memory required for data: 1114639360
I0422 14:07:51.161880  1287 layer_factory.hpp:77] Creating layer scale_conv4_2b
I0422 14:07:51.161890  1287 net.cpp:91] Creating Layer scale_conv4_2b
I0422 14:07:51.161897  1287 net.cpp:425] scale_conv4_2b <- conv4_2b
I0422 14:07:51.161906  1287 net.cpp:386] scale_conv4_2b -> conv4_2b (in-place)
I0422 14:07:51.161953  1287 layer_factory.hpp:77] Creating layer scale_conv4_2b
I0422 14:07:51.162096  1287 net.cpp:141] Setting up scale_conv4_2b
I0422 14:07:51.162107  1287 net.cpp:148] Top shape: 256 64 8 8 (1048576)
I0422 14:07:51.162112  1287 net.cpp:156] Memory required for data: 1118833664
I0422 14:07:51.162120  1287 layer_factory.hpp:77] Creating layer conv4_2
I0422 14:07:51.162129  1287 net.cpp:91] Creating Layer conv4_2
I0422 14:07:51.162135  1287 net.cpp:425] conv4_2 <- conv4_1_conv4_1_relu_0_split_1
I0422 14:07:51.162142  1287 net.cpp:425] conv4_2 <- conv3_sub_scale_conv3_sub_0_split_1
I0422 14:07:51.162149  1287 net.cpp:425] conv4_2 <- conv4_2b
I0422 14:07:51.162159  1287 net.cpp:399] conv4_2 -> conv4_2
I0422 14:07:51.162186  1287 net.cpp:141] Setting up conv4_2
I0422 14:07:51.162195  1287 net.cpp:148] Top shape: 256 64 8 8 (1048576)
I0422 14:07:51.162200  1287 net.cpp:156] Memory required for data: 1123027968
I0422 14:07:51.162205  1287 layer_factory.hpp:77] Creating layer conv4_2_relu
I0422 14:07:51.162216  1287 net.cpp:91] Creating Layer conv4_2_relu
I0422 14:07:51.162221  1287 net.cpp:425] conv4_2_relu <- conv4_2
I0422 14:07:51.162228  1287 net.cpp:386] conv4_2_relu -> conv4_2 (in-place)
I0422 14:07:51.162556  1287 net.cpp:141] Setting up conv4_2_relu
I0422 14:07:51.162574  1287 net.cpp:148] Top shape: 256 64 8 8 (1048576)
I0422 14:07:51.162580  1287 net.cpp:156] Memory required for data: 1127222272
I0422 14:07:51.162586  1287 layer_factory.hpp:77] Creating layer conv4_2_conv4_2_relu_0_split
I0422 14:07:51.162595  1287 net.cpp:91] Creating Layer conv4_2_conv4_2_relu_0_split
I0422 14:07:51.162601  1287 net.cpp:425] conv4_2_conv4_2_relu_0_split <- conv4_2
I0422 14:07:51.162609  1287 net.cpp:399] conv4_2_conv4_2_relu_0_split -> conv4_2_conv4_2_relu_0_split_0
I0422 14:07:51.162621  1287 net.cpp:399] conv4_2_conv4_2_relu_0_split -> conv4_2_conv4_2_relu_0_split_1
I0422 14:07:51.162675  1287 net.cpp:141] Setting up conv4_2_conv4_2_relu_0_split
I0422 14:07:51.162685  1287 net.cpp:148] Top shape: 256 64 8 8 (1048576)
I0422 14:07:51.162691  1287 net.cpp:148] Top shape: 256 64 8 8 (1048576)
I0422 14:07:51.162696  1287 net.cpp:156] Memory required for data: 1135610880
I0422 14:07:51.162701  1287 layer_factory.hpp:77] Creating layer conv4_3a
I0422 14:07:51.162717  1287 net.cpp:91] Creating Layer conv4_3a
I0422 14:07:51.162724  1287 net.cpp:425] conv4_3a <- conv4_2_conv4_2_relu_0_split_0
I0422 14:07:51.162736  1287 net.cpp:399] conv4_3a -> conv4_3a
I0422 14:07:51.165169  1287 net.cpp:141] Setting up conv4_3a
I0422 14:07:51.165201  1287 net.cpp:148] Top shape: 256 64 8 8 (1048576)
I0422 14:07:51.165206  1287 net.cpp:156] Memory required for data: 1139805184
I0422 14:07:51.165216  1287 layer_factory.hpp:77] Creating layer bn_conv4_3a
I0422 14:07:51.165230  1287 net.cpp:91] Creating Layer bn_conv4_3a
I0422 14:07:51.165235  1287 net.cpp:425] bn_conv4_3a <- conv4_3a
I0422 14:07:51.165243  1287 net.cpp:386] bn_conv4_3a -> conv4_3a (in-place)
I0422 14:07:51.165504  1287 net.cpp:141] Setting up bn_conv4_3a
I0422 14:07:51.165520  1287 net.cpp:148] Top shape: 256 64 8 8 (1048576)
I0422 14:07:51.165526  1287 net.cpp:156] Memory required for data: 1143999488
I0422 14:07:51.165537  1287 layer_factory.hpp:77] Creating layer scale_conv4_3a
I0422 14:07:51.165549  1287 net.cpp:91] Creating Layer scale_conv4_3a
I0422 14:07:51.165555  1287 net.cpp:425] scale_conv4_3a <- conv4_3a
I0422 14:07:51.165563  1287 net.cpp:386] scale_conv4_3a -> conv4_3a (in-place)
I0422 14:07:51.165611  1287 layer_factory.hpp:77] Creating layer scale_conv4_3a
I0422 14:07:51.165753  1287 net.cpp:141] Setting up scale_conv4_3a
I0422 14:07:51.165763  1287 net.cpp:148] Top shape: 256 64 8 8 (1048576)
I0422 14:07:51.165768  1287 net.cpp:156] Memory required for data: 1148193792
I0422 14:07:51.165777  1287 layer_factory.hpp:77] Creating layer conv4_3a_relu
I0422 14:07:51.165786  1287 net.cpp:91] Creating Layer conv4_3a_relu
I0422 14:07:51.165791  1287 net.cpp:425] conv4_3a_relu <- conv4_3a
I0422 14:07:51.165801  1287 net.cpp:386] conv4_3a_relu -> conv4_3a (in-place)
I0422 14:07:51.166131  1287 net.cpp:141] Setting up conv4_3a_relu
I0422 14:07:51.166146  1287 net.cpp:148] Top shape: 256 64 8 8 (1048576)
I0422 14:07:51.166152  1287 net.cpp:156] Memory required for data: 1152388096
I0422 14:07:51.166157  1287 layer_factory.hpp:77] Creating layer conv4_3b
I0422 14:07:51.166174  1287 net.cpp:91] Creating Layer conv4_3b
I0422 14:07:51.166182  1287 net.cpp:425] conv4_3b <- conv4_3a
I0422 14:07:51.166191  1287 net.cpp:399] conv4_3b -> conv4_3b
I0422 14:07:51.168736  1287 net.cpp:141] Setting up conv4_3b
I0422 14:07:51.168754  1287 net.cpp:148] Top shape: 256 64 8 8 (1048576)
I0422 14:07:51.168761  1287 net.cpp:156] Memory required for data: 1156582400
I0422 14:07:51.168771  1287 layer_factory.hpp:77] Creating layer bn_conv4_3b
I0422 14:07:51.168783  1287 net.cpp:91] Creating Layer bn_conv4_3b
I0422 14:07:51.168789  1287 net.cpp:425] bn_conv4_3b <- conv4_3b
I0422 14:07:51.168797  1287 net.cpp:386] bn_conv4_3b -> conv4_3b (in-place)
I0422 14:07:51.169039  1287 net.cpp:141] Setting up bn_conv4_3b
I0422 14:07:51.169049  1287 net.cpp:148] Top shape: 256 64 8 8 (1048576)
I0422 14:07:51.169054  1287 net.cpp:156] Memory required for data: 1160776704
I0422 14:07:51.169065  1287 layer_factory.hpp:77] Creating layer scale_conv4_3b
I0422 14:07:51.169075  1287 net.cpp:91] Creating Layer scale_conv4_3b
I0422 14:07:51.169080  1287 net.cpp:425] scale_conv4_3b <- conv4_3b
I0422 14:07:51.169088  1287 net.cpp:386] scale_conv4_3b -> conv4_3b (in-place)
I0422 14:07:51.169150  1287 layer_factory.hpp:77] Creating layer scale_conv4_3b
I0422 14:07:51.169294  1287 net.cpp:141] Setting up scale_conv4_3b
I0422 14:07:51.169306  1287 net.cpp:148] Top shape: 256 64 8 8 (1048576)
I0422 14:07:51.169311  1287 net.cpp:156] Memory required for data: 1164971008
I0422 14:07:51.169319  1287 layer_factory.hpp:77] Creating layer conv4_3
I0422 14:07:51.169329  1287 net.cpp:91] Creating Layer conv4_3
I0422 14:07:51.169335  1287 net.cpp:425] conv4_3 <- conv4_2_conv4_2_relu_0_split_1
I0422 14:07:51.169342  1287 net.cpp:425] conv4_3 <- conv3_sub_scale_conv3_sub_0_split_2
I0422 14:07:51.169349  1287 net.cpp:425] conv4_3 <- conv4_3b
I0422 14:07:51.169358  1287 net.cpp:399] conv4_3 -> conv4_3
I0422 14:07:51.169384  1287 net.cpp:141] Setting up conv4_3
I0422 14:07:51.169394  1287 net.cpp:148] Top shape: 256 64 8 8 (1048576)
I0422 14:07:51.169399  1287 net.cpp:156] Memory required for data: 1169165312
I0422 14:07:51.169404  1287 layer_factory.hpp:77] Creating layer conv4_3_relu
I0422 14:07:51.169415  1287 net.cpp:91] Creating Layer conv4_3_relu
I0422 14:07:51.169421  1287 net.cpp:425] conv4_3_relu <- conv4_3
I0422 14:07:51.169430  1287 net.cpp:386] conv4_3_relu -> conv4_3 (in-place)
I0422 14:07:51.169638  1287 net.cpp:141] Setting up conv4_3_relu
I0422 14:07:51.169652  1287 net.cpp:148] Top shape: 256 64 8 8 (1048576)
I0422 14:07:51.169657  1287 net.cpp:156] Memory required for data: 1173359616
I0422 14:07:51.169663  1287 layer_factory.hpp:77] Creating layer global_pool
I0422 14:07:51.169678  1287 net.cpp:91] Creating Layer global_pool
I0422 14:07:51.169684  1287 net.cpp:425] global_pool <- conv4_3
I0422 14:07:51.169694  1287 net.cpp:399] global_pool -> global_pool
I0422 14:07:51.170048  1287 net.cpp:141] Setting up global_pool
I0422 14:07:51.170064  1287 net.cpp:148] Top shape: 256 64 1 1 (16384)
I0422 14:07:51.170073  1287 net.cpp:156] Memory required for data: 1173425152
I0422 14:07:51.170078  1287 layer_factory.hpp:77] Creating layer ip
I0422 14:07:51.170094  1287 net.cpp:91] Creating Layer ip
I0422 14:07:51.170100  1287 net.cpp:425] ip <- global_pool
I0422 14:07:51.170109  1287 net.cpp:399] ip -> ip
I0422 14:07:51.170250  1287 net.cpp:141] Setting up ip
I0422 14:07:51.170261  1287 net.cpp:148] Top shape: 256 10 (2560)
I0422 14:07:51.170266  1287 net.cpp:156] Memory required for data: 1173435392
I0422 14:07:51.170275  1287 layer_factory.hpp:77] Creating layer ip_ip_0_split
I0422 14:07:51.170284  1287 net.cpp:91] Creating Layer ip_ip_0_split
I0422 14:07:51.170289  1287 net.cpp:425] ip_ip_0_split <- ip
I0422 14:07:51.170300  1287 net.cpp:399] ip_ip_0_split -> ip_ip_0_split_0
I0422 14:07:51.170310  1287 net.cpp:399] ip_ip_0_split -> ip_ip_0_split_1
I0422 14:07:51.170351  1287 net.cpp:141] Setting up ip_ip_0_split
I0422 14:07:51.170361  1287 net.cpp:148] Top shape: 256 10 (2560)
I0422 14:07:51.170367  1287 net.cpp:148] Top shape: 256 10 (2560)
I0422 14:07:51.170372  1287 net.cpp:156] Memory required for data: 1173455872
I0422 14:07:51.170377  1287 layer_factory.hpp:77] Creating layer accuracy
I0422 14:07:51.170392  1287 net.cpp:91] Creating Layer accuracy
I0422 14:07:51.170397  1287 net.cpp:425] accuracy <- ip_ip_0_split_0
I0422 14:07:51.170404  1287 net.cpp:425] accuracy <- label_cifar_1_split_0
I0422 14:07:51.170413  1287 net.cpp:399] accuracy -> accuracy
…
I0422 14:07:51.174085  1287 solver.cpp:181] Creating test net (#0) specified by net file: prototxt/ResNet-cifar.prototxt
I0422 14:07:51.174232  1287 net.cpp:313] The NetState phase (1) differed from the phase (0) specified by a rule in layer cifar
I0422 14:07:51.174808  1287 net.cpp:49] Initializing net from parameters: 
name: "ResNet-cifar"
state {
  phase: TEST
}
layer {
  name: "cifar"
  type: "Data"
  top: "data"
  top: "label"
  include {
    phase: TEST
  }
  transform_param {
    mean_file: "data/cifar10/mean.binaryproto"
  }
  data_param {
    source: "data/cifar10/cifar10_test_lmdb"
    batch_size: 100
    backend: LMDB
  }
}
layer {
  name: "conv1"
  type: "Convolution"
  bottom: "data"
  top: "conv1"
  param {
    lr_mult: 1
  }
  param {
    lr_mult: 2
  }
  convolution_param {
    num_output: 16
    pad: 1
    kernel_size: 3
    weight_filler {
      type: "msra"
    }
    bias_filler {
      type: "constant"
    }
  }
}
layer {
  name: "bn_conv1"
  type: "BatchNorm"
  bottom: "conv1"
  top: "conv1"
  param {
    lr_mult: 0
  }
  param {
    lr_mult: 0
  }
  param {
    lr_mult: 0
  }
}
layer {
  name: "scale_conv1"
  type: "Scale"
  bottom: "conv1"
  top: "conv1"
  scale_param {
    bias_term: true
  }
}
layer {
  name: "conv1_relu"
  type: "ReLU"
  bottom: "conv1"
  top: "conv1"
}
layer {
  name: "conv2_1a"
  type: "Convolution"
  bottom: "conv1"
  top: "conv2_1a"
  param {
    lr_mult: 1
  }
  param {
    lr_mult: 2
  }
  convolution_param {
    num_output: 16
    pad: 1
    kernel_size: 3
    stride: 1
    weight_filler {
      type: "msra"
    }
    bias_filler {
      type: "constant"
      value: 0
    }
  }
}
layer {
  name: "bn_conv2_1a"
  type: "BatchNorm"
  bottom: "conv2_1a"
  top: "conv2_1a"
  param {
    lr_mult: 0
  }
  param {
    lr_mult: 0
  }
  param {
    lr_mult: 0
  }
}
layer {
  name: "scale_conv2_1a"
  type: "Scale"
  bottom: "conv2_1a"
  top: "conv2_1a"
  scale_param {
    bias_term: true
  }
}
layer {
  name: "conv2_1a_relu"
  type: "ReLU"
  bottom: "conv2_1a"
  top: "conv2_1a"
}
layer {
  name: "conv2_1b"
  type: "Convolution"
  bottom: "conv2_1a"
  top: "conv2_1b"
  param {
    lr_mult: 1
  }
  param {
    lr_mult: 2
  }
  convolution_param {
    num_output: 16
    pad: 1
    kernel_size: 3
    stride: 1
    weight_filler {
      type: "msra"
    }
    bias_filler {
      type: "constant"
      value: 0
    }
  }
}
layer {
  name: "bn_conv2_1b"
  type: "BatchNorm"
  bottom: "conv2_1b"
  top: "conv2_1b"
  param {
    lr_mult: 0
  }
  param {
    lr_mult: 0
  }
  param {
    lr_mult: 0
  }
}
layer {
  name: "scale_conv2_1b"
  type: "Scale"
  bottom: "conv2_1b"
  top: "conv2_1b"
  scale_param {
    bias_term: true
  }
}
layer {
  name: "conv2_1"
  type: "Eltwise"
  bottom: "conv2_1b"
  bottom: "conv1"
  top: "conv2_1"
}
layer {
  name: "conv2_1_relu"
  type: "ReLU"
  bottom: "conv2_1"
  top: "conv2_1"
}
layer {
  name: "conv2_2a"
  type: "Convolution"
  bottom: "conv2_1"
  top: "conv2_2a"
  param {
    lr_mult: 1
  }
  param {
    lr_mult: 2
  }
  convolution_param {
    num_output: 16
    pad: 1
    kernel_size: 3
    stride: 1
    weight_filler {
      type: "msra"
    }
    bias_filler {
      type: "constant"
      value: 0
    }
  }
}
layer {
  name: "bn_conv2_2a"
  type: "BatchNorm"
  bottom: "conv2_2a"
  top: "conv2_2a"
  param {
    lr_mult: 0
  }
  param {
    lr_mult: 0
  }
  param {
    lr_mult: 0
  }
}
layer {
  name: "scale_conv2_2a"
  type: "Scale"
  bottom: "conv2_2a"
  top: "conv2_2a"
  scale_param {
    bias_term: true
  }
}
layer {
  name: "conv2_2a_relu"
  type: "ReLU"
  bottom: "conv2_2a"
  top: "conv2_2a"
}
layer {
  name: "conv2_2b"
  type: "Convolution"
  bottom: "conv2_2a"
  top: "conv2_2b"
  param {
    lr_mult: 1
  }
  param {
    lr_mult: 2
  }
  convolution_param {
    num_output: 16
    pad: 1
    kernel_size: 3
    stride: 1
    weight_filler {
      type: "msra"
    }
    bias_filler {
      type: "constant"
      value: 0
    }
  }
}
layer {
  name: "bn_conv2_2b"
  type: "BatchNorm"
  bottom: "conv2_2b"
  top: "conv2_2b"
  param {
    lr_mult: 0
  }
  param {
    lr_mult: 0
  }
  param {
    lr_mult: 0
  }
}
layer {
  name: "scale_conv2_2b"
  type: "Scale"
  bottom: "conv2_2b"
  top: "conv2_2b"
  scale_param {
    bias_term: true
  }
}
layer {
  name: "conv2_2"
  type: "Eltwise"
  bottom: "conv2_2b"
  bottom: "conv2_1"
  bottom: "conv1"
  top: "conv2_2"
}
layer {
  name: "conv2_2_relu"
  type: "ReLU"
  bottom: "conv2_2"
  top: "conv2_2"
}
layer {
  name: "conv2_3a"
  type: "Convolution"
  bottom: "conv2_2"
  top: "conv2_3a"
  param {
    lr_mult: 1
  }
  param {
    lr_mult: 2
  }
  convolution_param {
    num_output: 16
    pad: 1
    kernel_size: 3
    stride: 1
    weight_filler {
      type: "msra"
    }
    bias_filler {
      type: "constant"
      value: 0
    }
  }
}
layer {
  name: "bn_conv2_3a"
  type: "BatchNorm"
  bottom: "conv2_3a"
  top: "conv2_3a"
  param {
    lr_mult: 0
  }
  param {
    lr_mult: 0
  }
  param {
    lr_mult: 0
  }
}
layer {
  name: "scale_conv2_3a"
  type: "Scale"
  bottom: "conv2_3a"
  top: "conv2_3a"
  scale_param {
    bias_term: true
  }
}
layer {
  name: "conv2_3a_relu"
  type: "ReLU"
  bottom: "conv2_3a"
  top: "conv2_3a"
}
layer {
  name: "conv2_3b"
  type: "Convolution"
  bottom: "conv2_3a"
  top: "conv2_3b"
  param {
    lr_mult: 1
  }
  param {
    lr_mult: 2
  }
  convolution_param {
    num_output: 16
    pad: 1
    kernel_size: 3
    stride: 1
    weight_filler {
      type: "msra"
    }
    bias_filler {
      type: "constant"
      value: 0
    }
  }
}
layer {
  name: "bn_conv2_3b"
  type: "BatchNorm"
  bottom: "conv2_3b"
  top: "conv2_3b"
  param {
    lr_mult: 0
  }
  param {
    lr_mult: 0
  }
  param {
    lr_mult: 0
  }
}
layer {
  name: "scale_conv2_3b"
  type: "Scale"
  bottom: "conv2_3b"
  top: "conv2_3b"
  scale_param {
    bias_term: true
  }
}
layer {
  name: "conv2_3"
  type: "Eltwise"
  bottom: "conv1"
  bottom: "conv2_3b"
  bottom: "conv2_2"
  top: "conv2_3"
}
layer {
  name: "conv2_3_relu"
  type: "ReLU"
  bottom: "conv2_3"
  top: "conv2_3"
}
layer {
  name: "conv2_sub"
  type: "Convolution"
  bottom: "conv2_3"
  top: "conv2_sub"
  param {
    lr_mult: 1
  }
  param {
    lr_mult: 2
  }
  convolution_param {
    num_output: 32
    kernel_size: 1
    stride: 2
    weight_filler {
      type: "msra"
    }
    bias_filler {
      type: "constant"
      value: 0
    }
  }
}
layer {
  name: "bn_conv2_sub"
  type: "BatchNorm"
  bottom: "conv2_sub"
  top: "conv2_sub"
  param {
    lr_mult: 0
  }
  param {
    lr_mult: 0
  }
  param {
    lr_mult: 0
  }
}
layer {
  name: "scale_conv2_sub"
  type: "Scale"
  bottom: "conv2_sub"
  top: "conv2_sub"
  scale_param {
    bias_term: true
  }
}
layer {
  name: "conv3_1a"
  type: "Convolution"
  bottom: "conv2_3"
  top: "conv3_1a"
  param {
    lr_mult: 1
  }
  param {
    lr_mult: 2
  }
  convolution_param {
    num_output: 32
    pad: 0
    kernel_size: 1
    stride: 2
    weight_filler {
      type: "msra"
    }
    bias_filler {
      type: "constant"
      value: 0
    }
  }
}
layer {
  name: "bn_conv3_1a"
  type: "BatchNorm"
  bottom: "conv3_1a"
  top: "conv3_1a"
  param {
    lr_mult: 0
  }
  param {
    lr_mult: 0
  }
  param {
    lr_mult: 0
  }
}
layer {
  name: "scale_conv3_1a"
  type: "Scale"
  bottom: "conv3_1a"
  top: "conv3_1a"
  scale_param {
    bias_term: true
  }
}
layer {
  name: "conv3_1a_relu"
  type: "ReLU"
  bottom: "conv3_1a"
  top: "conv3_1a"
}
layer {
  name: "conv3_1b"
  type: "Convolution"
  bottom: "conv3_1a"
  top: "conv3_1b"
  param {
    lr_mult: 1
  }
  param {
    lr_mult: 2
  }
  convolution_param {
    num_output: 32
    pad: 1
    kernel_size: 3
    stride: 1
    weight_filler {
      type: "msra"
    }
    bias_filler {
      type: "constant"
      value: 0
    }
  }
}
layer {
  name: "bn_conv3_1b"
  type: "BatchNorm"
  bottom: "conv3_1b"
  top: "conv3_1b"
  param {
    lr_mult: 0
  }
  param {
    lr_mult: 0
  }
  param {
    lr_mult: 0
  }
}
layer {
  name: "scale_conv3_1b"
  type: "Scale"
  bottom: "conv3_1b"
  top: "conv3_1b"
  scale_param {
    bias_term: true
  }
}
layer {
  name: "conv3_1"
  type: "Eltwise"
  bottom: "conv3_1b"
  bottom: "conv2_sub"
  top: "conv3_1"
}
layer {
  name: "conv3_1_relu"
  type: "ReLU"
  bottom: "conv3_1"
  top: "conv3_1"
}
layer {
  name: "conv3_2a"
  type: "Convolution"
  bottom: "conv3_1"
  top: "conv3_2a"
  param {
    lr_mult: 1
  }
  param {
    lr_mult: 2
  }
  convolution_param {
    num_output: 32
    pad: 1
    kernel_size: 3
    stride: 1
    weight_filler {
      type: "msra"
    }
    bias_filler {
      type: "constant"
      value: 0
    }
  }
}
layer {
  name: "bn_conv3_2a"
  type: "BatchNorm"
  bottom: "conv3_2a"
  top: "conv3_2a"
  param {
    lr_mult: 0
  }
  param {
    lr_mult: 0
  }
  param {
    lr_mult: 0
  }
}
layer {
  name: "scale_conv3_2a"
  type: "Scale"
  bottom: "conv3_2a"
  top: "conv3_2a"
  scale_param {
    bias_term: true
  }
}
layer {
  name: "conv3_2a_relu"
  type: "ReLU"
  bottom: "conv3_2a"
  top: "conv3_2a"
}
layer {
  name: "conv3_2b"
  type: "Convolution"
  bottom: "conv3_2a"
  top: "conv3_2b"
  param {
    lr_mult: 1
  }
  param {
    lr_mult: 2
  }
  convolution_param {
    num_output: 32
    pad: 1
    kernel_size: 3
    stride: 1
    weight_filler {
      type: "msra"
    }
    bias_filler {
      type: "constant"
      value: 0
    }
  }
}
layer {
  name: "bn_conv3_2b"
  type: "BatchNorm"
  bottom: "conv3_2b"
  top: "conv3_2b"
  param {
    lr_mult: 0
  }
  param {
    lr_mult: 0
  }
  param {
    lr_mult: 0
  }
}
layer {
  name: "scale_conv3_2b"
  type: "Scale"
  bottom: "conv3_2b"
  top: "conv3_2b"
  scale_param {
    bias_term: true
  }
}
layer {
  name: "conv3_2"
  type: "Eltwise"
  bottom: "conv3_2b"
  bottom: "conv2_sub"
  bottom: "conv3_1"
  top: "conv3_2"
}
layer {
  name: "conv3_2_relu"
  type: "ReLU"
  bottom: "conv3_2"
  top: "conv3_2"
}
layer {
  name: "conv3_3a"
  type: "Convolution"
  bottom: "conv3_2"
  top: "conv3_3a"
  param {
    lr_mult: 1
  }
  param {
    lr_mult: 2
  }
  convolution_param {
    num_output: 32
    pad: 1
    kernel_size: 3
    stride: 1
    weight_filler {
      type: "msra"
    }
    bias_filler {
      type: "constant"
      value: 0
    }
  }
}
layer {
  name: "bn_conv3_3a"
  type: "BatchNorm"
  bottom: "conv3_3a"
  top: "conv3_3a"
  param {
    lr_mult: 0
  }
  param {
    lr_mult: 0
  }
  param {
    lr_mult: 0
  }
}
layer {
  name: "scale_conv3_3a"
  type: "Scale"
  bottom: "conv3_3a"
  top: "conv3_3a"
  scale_param {
    bias_term: true
  }
}
layer {
  name: "conv3_3a_relu"
  type: "ReLU"
  bottom: "conv3_3a"
  top: "conv3_3a"
}
layer {
  name: "conv3_3b"
  type: "Convolution"
  bottom: "conv3_3a"
  top: "conv3_3b"
  param {
    lr_mult: 1
  }
  param {
    lr_mult: 2
  }
  convolution_param {
    num_output: 32
    pad: 1
    kernel_size: 3
    stride: 1
    weight_filler {
      type: "msra"
    }
    bias_filler {
      type: "constant"
      value: 0
    }
  }
}
layer {
  name: "bn_conv3_3b"
  type: "BatchNorm"
  bottom: "conv3_3b"
  top: "conv3_3b"
  param {
    lr_mult: 0
  }
  param {
    lr_mult: 0
  }
  param {
    lr_mult: 0
  }
}
layer {
  name: "scale_conv3_3b"
  type: "Scale"
  bottom: "conv3_3b"
  top: "conv3_3b"
  scale_param {
    bias_term: true
  }
}
layer {
  name: "conv3_3"
  type: "Eltwise"
  bottom: "conv3_3b"
  bottom: "conv2_sub"
  bottom: "conv3_2"
  top: "conv3_3"
}
layer {
  name: "conv3_3_relu"
  type: "ReLU"
  bottom: "conv3_3"
  top: "conv3_3"
}
layer {
  name: "conv3_sub"
  type: "Convolution"
  bottom: "conv3_3"
  top: "conv3_sub"
  param {
    lr_mult: 1
  }
  param {
    lr_mult: 2
  }
  convolution_param {
    num_output: 64
    kernel_size: 1
    stride: 2
    weight_filler {
      type: "msra"
    }
    bias_filler {
      type: "constant"
      value: 0
    }
  }
}
layer {
  name: "bn_conv3_sub"
  type: "BatchNorm"
  bottom: "conv3_sub"
  top: "conv3_sub"
  param {
    lr_mult: 0
  }
  param {
    lr_mult: 0
  }
  param {
    lr_mult: 0
  }
}
layer {
  name: "scale_conv3_sub"
  type: "Scale"
  bottom: "conv3_sub"
  top: "conv3_sub"
  scale_param {
    bias_term: true
  }
}
layer {
  name: "conv4_1a"
  type: "Convolution"
  bottom: "conv3_3"
  top: "conv4_1a"
  param {
    lr_mult: 1
  }
  param {
    lr_mult: 2
  }
  convolution_param {
    num_output: 64
    pad: 0
    kernel_size: 1
    stride: 2
    weight_filler {
      type: "msra"
    }
    bias_filler {
      type: "constant"
      value: 0
    }
  }
}
layer {
  name: "bn_conv4_1a"
  type: "BatchNorm"
  bottom: "conv4_1a"
  top: "conv4_1a"
  param {
    lr_mult: 0
  }
  param {
    lr_mult: 0
  }
  param {
    lr_mult: 0
  }
}
layer {
  name: "scale_conv4_1a"
  type: "Scale"
  bottom: "conv4_1a"
  top: "conv4_1a"
  scale_param {
    bias_term: true
  }
}
layer {
  name: "conv4_1a_relu"
  type: "ReLU"
  bottom: "conv4_1a"
  top: "conv4_1a"
}
layer {
  name: "conv4_1b"
  type: "Convolution"
  bottom: "conv4_1a"
  top: "conv4_1b"
  param {
    lr_mult: 1
  }
  param {
    lr_mult: 2
  }
  convolution_param {
    num_output: 64
    pad: 1
    kernel_size: 3
    stride: 1
    weight_filler {
      type: "msra"
    }
    bias_filler {
      type: "constant"
      value: 0
    }
  }
}
layer {
  name: "bn_conv4_1b"
  type: "BatchNorm"
  bottom: "conv4_1b"
  top: "conv4_1b"
  param {
    lr_mult: 0
  }
  param {
    lr_mult: 0
  }
  param {
    lr_mult: 0
  }
}
layer {
  name: "scale_conv4_1b"
  type: "Scale"
  bottom: "conv4_1b"
  top: "conv4_1b"
  scale_param {
    bias_term: true
  }
}
layer {
  name: "conv4_1"
  type: "Eltwise"
  bottom: "conv3_sub"
  bottom: "conv4_1b"
  top: "conv4_1"
}
layer {
  name: "conv4_1_relu"
  type: "ReLU"
  bottom: "conv4_1"
  top: "conv4_1"
}
layer {
  name: "conv4_2a"
  type: "Convolution"
  bottom: "conv4_1"
  top: "conv4_2a"
  param {
    lr_mult: 1
  }
  param {
    lr_mult: 2
  }
  convolution_param {
    num_output: 64
    pad: 1
    kernel_size: 3
    stride: 1
    weight_filler {
      type: "msra"
    }
    bias_filler {
      type: "constant"
      value: 0
    }
  }
}
layer {
  name: "bn_conv4_2a"
  type: "BatchNorm"
  bottom: "conv4_2a"
  top: "conv4_2a"
  param {
    lr_mult: 0
  }
  param {
    lr_mult: 0
  }
  param {
    lr_mult: 0
  }
}
layer {
  name: "scale_conv4_2a"
  type: "Scale"
  bottom: "conv4_2a"
  top: "conv4_2a"
  scale_param {
    bias_term: true
  }
}
layer {
  name: "conv4_2a_relu"
  type: "ReLU"
  bottom: "conv4_2a"
  top: "conv4_2a"
}
layer {
  name: "conv4_2b"
  type: "Convolution"
  bottom: "conv4_2a"
  top: "conv4_2b"
  param {
    lr_mult: 1
  }
  param {
    lr_mult: 2
  }
  convolution_param {
    num_output: 64
    pad: 1
    kernel_size: 3
    stride: 1
    weight_filler {
      type: "msra"
    }
    bias_filler {
      type: "constant"
      value: 0
    }
  }
}
layer {
  name: "bn_conv4_2b"
  type: "BatchNorm"
  bottom: "conv4_2b"
  top: "conv4_2b"
  param {
    lr_mult: 0
  }
  param {
    lr_mult: 0
  }
  param {
    lr_mult: 0
  }
}
layer {
  name: "scale_conv4_2b"
  type: "Scale"
  bottom: "conv4_2b"
  top: "conv4_2b"
  scale_param {
    bias_term: true
  }
}
layer {
  name: "conv4_2"
  type: "Eltwise"
  bottom: "conv4_1"
  bottom: "conv3_sub"
  bottom: "conv4_2b"
  top: "conv4_2"
}
layer {
  name: "conv4_2_relu"
  type: "ReLU"
  bottom: "conv4_2"
  top: "conv4_2"
}
layer {
  name: "conv4_3a"
  type: "Convolution"
  bottom: "conv4_2"
  top: "conv4_3a"
  param {
    lr_mult: 1
  }
  param {
    lr_mult: 2
  }
  convolution_param {
    num_output: 64
    pad: 1
    kernel_size: 3
    stride: 1
    weight_filler {
      type: "msra"
    }
    bias_filler {
      type: "constant"
      value: 0
    }
  }
}
layer {
  name: "bn_conv4_3a"
  type: "BatchNorm"
  bottom: "conv4_3a"
  top: "conv4_3a"
  param {
    lr_mult: 0
  }
  param {
    lr_mult: 0
  }
  param {
    lr_mult: 0
  }
}
layer {
  name: "scale_conv4_3a"
  type: "Scale"
  bottom: "conv4_3a"
  top: "conv4_3a"
  scale_param {
    bias_term: true
  }
}
layer {
  name: "conv4_3a_relu"
  type: "ReLU"
  bottom: "conv4_3a"
  top: "conv4_3a"
}
layer {
  name: "conv4_3b"
  type: "Convolution"
  bottom: "conv4_3a"
  top: "conv4_3b"
  param {
    lr_mult: 1
  }
  param {
    lr_mult: 2
  }
  convolution_param {
    num_output: 64
    pad: 1
    kernel_size: 3
    stride: 1
    weight_filler {
      type: "msra"
    }
    bias_filler {
      type: "constant"
      value: 0
    }
  }
}
layer {
  name: "bn_conv4_3b"
  type: "BatchNorm"
  bottom: "conv4_3b"
  top: "conv4_3b"
  param {
    lr_mult: 0
  }
  param {
    lr_mult: 0
  }
  param {
    lr_mult: 0
  }
}
layer {
  name: "scale_conv4_3b"
  type: "Scale"
  bottom: "conv4_3b"
  top: "conv4_3b"
  scale_param {
    bias_term: true
  }
}
layer {
  name: "conv4_3"
  type: "Eltwise"
  bottom: "conv4_2"
  bottom: "conv3_sub"
  bottom: "conv4_3b"
  top: "conv4_3"
}
layer {
  name: "conv4_3_relu"
  type: "ReLU"
  bottom: "conv4_3"
  top: "conv4_3"
}
layer {
  name: "global_pool"
  type: "Pooling"
  bottom: "conv4_3"
  top: "global_pool"
  pooling_param {
    pool: AVE
    kernel_size: 8
    stride: 8
  }
}
layer {
  name: "ip"
  type: "InnerProduct"
  bottom: "global_pool"
  top: "ip"
  inner_product_param {
    num_output: 10
  }
}
layer {
  name: "accuracy"
  type: "Accuracy"
  bottom: "ip"
  bottom: "label"
  top: "accuracy"
}
layer {
  name: "loss"
  type: "SoftmaxWithLoss"
  bottom: "ip"
  bottom: "label"
  top: "loss"
}
I0422 14:07:51.175287  1287 layer_factory.hpp:77] Creating layer cifar
I0422 14:07:51.175824  1287 net.cpp:91] Creating Layer cifar
I0422 14:07:51.175837  1287 net.cpp:399] cifar -> data
I0422 14:07:51.175851  1287 net.cpp:399] cifar -> label
I0422 14:07:51.175864  1287 data_transformer.cpp:25] Loading mean file from: data/cifar10/mean.binaryproto
I0422 14:07:51.177352  1314 db_lmdb.cpp:38] Opened lmdb data/cifar10/cifar10_test_lmdb
I0422 14:07:51.177567  1287 data_layer.cpp:41] output data size: 100,3,32,32
I0422 14:07:51.181015  1287 net.cpp:141] Setting up cifar
I0422 14:07:51.181040  1287 net.cpp:148] Top shape: 100 3 32 32 (307200)
I0422 14:07:51.181047  1287 net.cpp:148] Top shape: 100 (100)
I0422 14:07:51.181052  1287 net.cpp:156] Memory required for data: 1229200
I0422 14:07:51.181058  1287 layer_factory.hpp:77] Creating layer label_cifar_1_split
I0422 14:07:51.181069  1287 net.cpp:91] Creating Layer label_cifar_1_split
I0422 14:07:51.181076  1287 net.cpp:425] label_cifar_1_split <- label
I0422 14:07:51.181089  1287 net.cpp:399] label_cifar_1_split -> label_cifar_1_split_0
I0422 14:07:51.181102  1287 net.cpp:399] label_cifar_1_split -> label_cifar_1_split_1
I0422 14:07:51.181287  1287 net.cpp:141] Setting up label_cifar_1_split
I0422 14:07:51.181303  1287 net.cpp:148] Top shape: 100 (100)
I0422 14:07:51.181310  1287 net.cpp:148] Top shape: 100 (100)
I0422 14:07:51.181315  1287 net.cpp:156] Memory required for data: 1230000
I0422 14:07:51.181320  1287 layer_factory.hpp:77] Creating layer conv1
I0422 14:07:51.181336  1287 net.cpp:91] Creating Layer conv1
I0422 14:07:51.181342  1287 net.cpp:425] conv1 <- data
I0422 14:07:51.181351  1287 net.cpp:399] conv1 -> conv1
I0422 14:07:51.183162  1287 net.cpp:141] Setting up conv1
I0422 14:07:51.183185  1287 net.cpp:148] Top shape: 100 16 32 32 (1638400)
I0422 14:07:51.183192  1287 net.cpp:156] Memory required for data: 7783600
I0422 14:07:51.183205  1287 layer_factory.hpp:77] Creating layer bn_conv1
I0422 14:07:51.183228  1287 net.cpp:91] Creating Layer bn_conv1
I0422 14:07:51.183234  1287 net.cpp:425] bn_conv1 <- conv1
I0422 14:07:51.183243  1287 net.cpp:386] bn_conv1 -> conv1 (in-place)
I0422 14:07:51.183490  1287 net.cpp:141] Setting up bn_conv1
I0422 14:07:51.183501  1287 net.cpp:148] Top shape: 100 16 32 32 (1638400)
I0422 14:07:51.183506  1287 net.cpp:156] Memory required for data: 14337200
I0422 14:07:51.183521  1287 layer_factory.hpp:77] Creating layer scale_conv1
I0422 14:07:51.183532  1287 net.cpp:91] Creating Layer scale_conv1
I0422 14:07:51.183538  1287 net.cpp:425] scale_conv1 <- conv1
I0422 14:07:51.183545  1287 net.cpp:386] scale_conv1 -> conv1 (in-place)
I0422 14:07:51.183621  1287 layer_factory.hpp:77] Creating layer scale_conv1
I0422 14:07:51.183769  1287 net.cpp:141] Setting up scale_conv1
I0422 14:07:51.183781  1287 net.cpp:148] Top shape: 100 16 32 32 (1638400)
I0422 14:07:51.183795  1287 net.cpp:156] Memory required for data: 20890800
I0422 14:07:51.183804  1287 layer_factory.hpp:77] Creating layer conv1_relu
I0422 14:07:51.183812  1287 net.cpp:91] Creating Layer conv1_relu
I0422 14:07:51.183817  1287 net.cpp:425] conv1_relu <- conv1
I0422 14:07:51.183840  1287 net.cpp:386] conv1_relu -> conv1 (in-place)
I0422 14:07:51.184197  1287 net.cpp:141] Setting up conv1_relu
I0422 14:07:51.184214  1287 net.cpp:148] Top shape: 100 16 32 32 (1638400)
I0422 14:07:51.184219  1287 net.cpp:156] Memory required for data: 27444400
I0422 14:07:51.184231  1287 layer_factory.hpp:77] Creating layer conv1_conv1_relu_0_split
I0422 14:07:51.184248  1287 net.cpp:91] Creating Layer conv1_conv1_relu_0_split
I0422 14:07:51.184254  1287 net.cpp:425] conv1_conv1_relu_0_split <- conv1
I0422 14:07:51.184262  1287 net.cpp:399] conv1_conv1_relu_0_split -> conv1_conv1_relu_0_split_0
I0422 14:07:51.184273  1287 net.cpp:399] conv1_conv1_relu_0_split -> conv1_conv1_relu_0_split_1
I0422 14:07:51.184288  1287 net.cpp:399] conv1_conv1_relu_0_split -> conv1_conv1_relu_0_split_2
I0422 14:07:51.184298  1287 net.cpp:399] conv1_conv1_relu_0_split -> conv1_conv1_relu_0_split_3
I0422 14:07:51.184389  1287 net.cpp:141] Setting up conv1_conv1_relu_0_split
I0422 14:07:51.184404  1287 net.cpp:148] Top shape: 100 16 32 32 (1638400)
I0422 14:07:51.184411  1287 net.cpp:148] Top shape: 100 16 32 32 (1638400)
I0422 14:07:51.184417  1287 net.cpp:148] Top shape: 100 16 32 32 (1638400)
I0422 14:07:51.184422  1287 net.cpp:148] Top shape: 100 16 32 32 (1638400)
I0422 14:07:51.184427  1287 net.cpp:156] Memory required for data: 53658800
I0422 14:07:51.184437  1287 layer_factory.hpp:77] Creating layer conv2_1a
I0422 14:07:51.184451  1287 net.cpp:91] Creating Layer conv2_1a
I0422 14:07:51.184458  1287 net.cpp:425] conv2_1a <- conv1_conv1_relu_0_split_0
I0422 14:07:51.184468  1287 net.cpp:399] conv2_1a -> conv2_1a
I0422 14:07:51.186549  1287 net.cpp:141] Setting up conv2_1a
I0422 14:07:51.186569  1287 net.cpp:148] Top shape: 100 16 32 32 (1638400)
I0422 14:07:51.186576  1287 net.cpp:156] Memory required for data: 60212400
I0422 14:07:51.186589  1287 layer_factory.hpp:77] Creating layer bn_conv2_1a
I0422 14:07:51.186604  1287 net.cpp:91] Creating Layer bn_conv2_1a
I0422 14:07:51.186611  1287 net.cpp:425] bn_conv2_1a <- conv2_1a
I0422 14:07:51.186621  1287 net.cpp:386] bn_conv2_1a -> conv2_1a (in-place)
I0422 14:07:51.186883  1287 net.cpp:141] Setting up bn_conv2_1a
I0422 14:07:51.186895  1287 net.cpp:148] Top shape: 100 16 32 32 (1638400)
I0422 14:07:51.186900  1287 net.cpp:156] Memory required for data: 66766000
I0422 14:07:51.186913  1287 layer_factory.hpp:77] Creating layer scale_conv2_1a
I0422 14:07:51.186923  1287 net.cpp:91] Creating Layer scale_conv2_1a
I0422 14:07:51.186929  1287 net.cpp:425] scale_conv2_1a <- conv2_1a
I0422 14:07:51.186936  1287 net.cpp:386] scale_conv2_1a -> conv2_1a (in-place)
I0422 14:07:51.186992  1287 layer_factory.hpp:77] Creating layer scale_conv2_1a
I0422 14:07:51.187165  1287 net.cpp:141] Setting up scale_conv2_1a
I0422 14:07:51.187178  1287 net.cpp:148] Top shape: 100 16 32 32 (1638400)
I0422 14:07:51.187183  1287 net.cpp:156] Memory required for data: 73319600
I0422 14:07:51.187192  1287 layer_factory.hpp:77] Creating layer conv2_1a_relu
I0422 14:07:51.187201  1287 net.cpp:91] Creating Layer conv2_1a_relu
I0422 14:07:51.187206  1287 net.cpp:425] conv2_1a_relu <- conv2_1a
I0422 14:07:51.187214  1287 net.cpp:386] conv2_1a_relu -> conv2_1a (in-place)
I0422 14:07:51.188066  1287 net.cpp:141] Setting up conv2_1a_relu
I0422 14:07:51.188081  1287 net.cpp:148] Top shape: 100 16 32 32 (1638400)
I0422 14:07:51.188087  1287 net.cpp:156] Memory required for data: 79873200
I0422 14:07:51.188092  1287 layer_factory.hpp:77] Creating layer conv2_1b
I0422 14:07:51.188110  1287 net.cpp:91] Creating Layer conv2_1b
I0422 14:07:51.188117  1287 net.cpp:425] conv2_1b <- conv2_1a
I0422 14:07:51.188128  1287 net.cpp:399] conv2_1b -> conv2_1b
I0422 14:07:51.189430  1287 net.cpp:141] Setting up conv2_1b
I0422 14:07:51.189450  1287 net.cpp:148] Top shape: 100 16 32 32 (1638400)
I0422 14:07:51.189457  1287 net.cpp:156] Memory required for data: 86426800
I0422 14:07:51.189466  1287 layer_factory.hpp:77] Creating layer bn_conv2_1b
I0422 14:07:51.189478  1287 net.cpp:91] Creating Layer bn_conv2_1b
I0422 14:07:51.189489  1287 net.cpp:425] bn_conv2_1b <- conv2_1b
I0422 14:07:51.189502  1287 net.cpp:386] bn_conv2_1b -> conv2_1b (in-place)
I0422 14:07:51.189760  1287 net.cpp:141] Setting up bn_conv2_1b
I0422 14:07:51.189771  1287 net.cpp:148] Top shape: 100 16 32 32 (1638400)
I0422 14:07:51.189782  1287 net.cpp:156] Memory required for data: 92980400
I0422 14:07:51.189798  1287 layer_factory.hpp:77] Creating layer scale_conv2_1b
I0422 14:07:51.189810  1287 net.cpp:91] Creating Layer scale_conv2_1b
I0422 14:07:51.189816  1287 net.cpp:425] scale_conv2_1b <- conv2_1b
I0422 14:07:51.189828  1287 net.cpp:386] scale_conv2_1b -> conv2_1b (in-place)
I0422 14:07:51.189885  1287 layer_factory.hpp:77] Creating layer scale_conv2_1b
I0422 14:07:51.190033  1287 net.cpp:141] Setting up scale_conv2_1b
I0422 14:07:51.190045  1287 net.cpp:148] Top shape: 100 16 32 32 (1638400)
I0422 14:07:51.190062  1287 net.cpp:156] Memory required for data: 99534000
I0422 14:07:51.190071  1287 layer_factory.hpp:77] Creating layer conv2_1
I0422 14:07:51.190083  1287 net.cpp:91] Creating Layer conv2_1
I0422 14:07:51.190091  1287 net.cpp:425] conv2_1 <- conv2_1b
I0422 14:07:51.190102  1287 net.cpp:425] conv2_1 <- conv1_conv1_relu_0_split_1
I0422 14:07:51.190110  1287 net.cpp:399] conv2_1 -> conv2_1
I0422 14:07:51.190148  1287 net.cpp:141] Setting up conv2_1
I0422 14:07:51.190158  1287 net.cpp:148] Top shape: 100 16 32 32 (1638400)
I0422 14:07:51.190163  1287 net.cpp:156] Memory required for data: 106087600
I0422 14:07:51.190168  1287 layer_factory.hpp:77] Creating layer conv2_1_relu
I0422 14:07:51.190176  1287 net.cpp:91] Creating Layer conv2_1_relu
I0422 14:07:51.190182  1287 net.cpp:425] conv2_1_relu <- conv2_1
I0422 14:07:51.190191  1287 net.cpp:386] conv2_1_relu -> conv2_1 (in-place)
I0422 14:07:51.190523  1287 net.cpp:141] Setting up conv2_1_relu
I0422 14:07:51.190538  1287 net.cpp:148] Top shape: 100 16 32 32 (1638400)
I0422 14:07:51.190553  1287 net.cpp:156] Memory required for data: 112641200
I0422 14:07:51.190559  1287 layer_factory.hpp:77] Creating layer conv2_1_conv2_1_relu_0_split
I0422 14:07:51.190569  1287 net.cpp:91] Creating Layer conv2_1_conv2_1_relu_0_split
I0422 14:07:51.190575  1287 net.cpp:425] conv2_1_conv2_1_relu_0_split <- conv2_1
I0422 14:07:51.190590  1287 net.cpp:399] conv2_1_conv2_1_relu_0_split -> conv2_1_conv2_1_relu_0_split_0
I0422 14:07:51.190603  1287 net.cpp:399] conv2_1_conv2_1_relu_0_split -> conv2_1_conv2_1_relu_0_split_1
I0422 14:07:51.190657  1287 net.cpp:141] Setting up conv2_1_conv2_1_relu_0_split
I0422 14:07:51.190670  1287 net.cpp:148] Top shape: 100 16 32 32 (1638400)
I0422 14:07:51.190678  1287 net.cpp:148] Top shape: 100 16 32 32 (1638400)
I0422 14:07:51.190682  1287 net.cpp:156] Memory required for data: 125748400
I0422 14:07:51.190688  1287 layer_factory.hpp:77] Creating layer conv2_2a
I0422 14:07:51.190703  1287 net.cpp:91] Creating Layer conv2_2a
I0422 14:07:51.190711  1287 net.cpp:425] conv2_2a <- conv2_1_conv2_1_relu_0_split_0
I0422 14:07:51.190724  1287 net.cpp:399] conv2_2a -> conv2_2a
I0422 14:07:51.196040  1287 net.cpp:141] Setting up conv2_2a
I0422 14:07:51.196063  1287 net.cpp:148] Top shape: 100 16 32 32 (1638400)
I0422 14:07:51.196069  1287 net.cpp:156] Memory required for data: 132302000
I0422 14:07:51.196079  1287 layer_factory.hpp:77] Creating layer bn_conv2_2a
I0422 14:07:51.196090  1287 net.cpp:91] Creating Layer bn_conv2_2a
I0422 14:07:51.196097  1287 net.cpp:425] bn_conv2_2a <- conv2_2a
I0422 14:07:51.196107  1287 net.cpp:386] bn_conv2_2a -> conv2_2a (in-place)
I0422 14:07:51.196368  1287 net.cpp:141] Setting up bn_conv2_2a
I0422 14:07:51.196380  1287 net.cpp:148] Top shape: 100 16 32 32 (1638400)
I0422 14:07:51.196385  1287 net.cpp:156] Memory required for data: 138855600
I0422 14:07:51.196398  1287 layer_factory.hpp:77] Creating layer scale_conv2_2a
I0422 14:07:51.196409  1287 net.cpp:91] Creating Layer scale_conv2_2a
I0422 14:07:51.196415  1287 net.cpp:425] scale_conv2_2a <- conv2_2a
I0422 14:07:51.196424  1287 net.cpp:386] scale_conv2_2a -> conv2_2a (in-place)
I0422 14:07:51.196481  1287 layer_factory.hpp:77] Creating layer scale_conv2_2a
I0422 14:07:51.196632  1287 net.cpp:141] Setting up scale_conv2_2a
I0422 14:07:51.196645  1287 net.cpp:148] Top shape: 100 16 32 32 (1638400)
I0422 14:07:51.196660  1287 net.cpp:156] Memory required for data: 145409200
I0422 14:07:51.196676  1287 layer_factory.hpp:77] Creating layer conv2_2a_relu
I0422 14:07:51.196684  1287 net.cpp:91] Creating Layer conv2_2a_relu
I0422 14:07:51.196697  1287 net.cpp:425] conv2_2a_relu <- conv2_2a
I0422 14:07:51.196707  1287 net.cpp:386] conv2_2a_relu -> conv2_2a (in-place)
I0422 14:07:51.197059  1287 net.cpp:141] Setting up conv2_2a_relu
I0422 14:07:51.197077  1287 net.cpp:148] Top shape: 100 16 32 32 (1638400)
I0422 14:07:51.197082  1287 net.cpp:156] Memory required for data: 151962800
I0422 14:07:51.197093  1287 layer_factory.hpp:77] Creating layer conv2_2b
I0422 14:07:51.197116  1287 net.cpp:91] Creating Layer conv2_2b
I0422 14:07:51.197125  1287 net.cpp:425] conv2_2b <- conv2_2a
I0422 14:07:51.197135  1287 net.cpp:399] conv2_2b -> conv2_2b
I0422 14:07:51.198429  1287 net.cpp:141] Setting up conv2_2b
I0422 14:07:51.198448  1287 net.cpp:148] Top shape: 100 16 32 32 (1638400)
I0422 14:07:51.198454  1287 net.cpp:156] Memory required for data: 158516400
I0422 14:07:51.198463  1287 layer_factory.hpp:77] Creating layer bn_conv2_2b
I0422 14:07:51.198475  1287 net.cpp:91] Creating Layer bn_conv2_2b
I0422 14:07:51.198485  1287 net.cpp:425] bn_conv2_2b <- conv2_2b
I0422 14:07:51.198494  1287 net.cpp:386] bn_conv2_2b -> conv2_2b (in-place)
I0422 14:07:51.198748  1287 net.cpp:141] Setting up bn_conv2_2b
I0422 14:07:51.198760  1287 net.cpp:148] Top shape: 100 16 32 32 (1638400)
I0422 14:07:51.198765  1287 net.cpp:156] Memory required for data: 165070000
I0422 14:07:51.198781  1287 layer_factory.hpp:77] Creating layer scale_conv2_2b
I0422 14:07:51.198796  1287 net.cpp:91] Creating Layer scale_conv2_2b
I0422 14:07:51.198803  1287 net.cpp:425] scale_conv2_2b <- conv2_2b
I0422 14:07:51.198817  1287 net.cpp:386] scale_conv2_2b -> conv2_2b (in-place)
I0422 14:07:51.198878  1287 layer_factory.hpp:77] Creating layer scale_conv2_2b
I0422 14:07:51.199024  1287 net.cpp:141] Setting up scale_conv2_2b
I0422 14:07:51.199036  1287 net.cpp:148] Top shape: 100 16 32 32 (1638400)
I0422 14:07:51.199045  1287 net.cpp:156] Memory required for data: 171623600
I0422 14:07:51.199066  1287 layer_factory.hpp:77] Creating layer conv2_2
I0422 14:07:51.199074  1287 net.cpp:91] Creating Layer conv2_2
I0422 14:07:51.199080  1287 net.cpp:425] conv2_2 <- conv2_2b
I0422 14:07:51.199087  1287 net.cpp:425] conv2_2 <- conv2_1_conv2_1_relu_0_split_1
I0422 14:07:51.199095  1287 net.cpp:425] conv2_2 <- conv1_conv1_relu_0_split_2
I0422 14:07:51.199102  1287 net.cpp:399] conv2_2 -> conv2_2
I0422 14:07:51.199141  1287 net.cpp:141] Setting up conv2_2
I0422 14:07:51.199154  1287 net.cpp:148] Top shape: 100 16 32 32 (1638400)
I0422 14:07:51.199159  1287 net.cpp:156] Memory required for data: 178177200
I0422 14:07:51.199164  1287 layer_factory.hpp:77] Creating layer conv2_2_relu
I0422 14:07:51.199172  1287 net.cpp:91] Creating Layer conv2_2_relu
I0422 14:07:51.199177  1287 net.cpp:425] conv2_2_relu <- conv2_2
I0422 14:07:51.199184  1287 net.cpp:386] conv2_2_relu -> conv2_2 (in-place)
I0422 14:07:51.199412  1287 net.cpp:141] Setting up conv2_2_relu
I0422 14:07:51.199427  1287 net.cpp:148] Top shape: 100 16 32 32 (1638400)
I0422 14:07:51.199442  1287 net.cpp:156] Memory required for data: 184730800
I0422 14:07:51.199448  1287 layer_factory.hpp:77] Creating layer conv2_2_conv2_2_relu_0_split
I0422 14:07:51.199458  1287 net.cpp:91] Creating Layer conv2_2_conv2_2_relu_0_split
I0422 14:07:51.199466  1287 net.cpp:425] conv2_2_conv2_2_relu_0_split <- conv2_2
I0422 14:07:51.199475  1287 net.cpp:399] conv2_2_conv2_2_relu_0_split -> conv2_2_conv2_2_relu_0_split_0
I0422 14:07:51.199484  1287 net.cpp:399] conv2_2_conv2_2_relu_0_split -> conv2_2_conv2_2_relu_0_split_1
I0422 14:07:51.199547  1287 net.cpp:141] Setting up conv2_2_conv2_2_relu_0_split
I0422 14:07:51.199558  1287 net.cpp:148] Top shape: 100 16 32 32 (1638400)
I0422 14:07:51.199563  1287 net.cpp:148] Top shape: 100 16 32 32 (1638400)
I0422 14:07:51.199568  1287 net.cpp:156] Memory required for data: 197838000
I0422 14:07:51.199573  1287 layer_factory.hpp:77] Creating layer conv2_3a
I0422 14:07:51.199587  1287 net.cpp:91] Creating Layer conv2_3a
I0422 14:07:51.199599  1287 net.cpp:425] conv2_3a <- conv2_2_conv2_2_relu_0_split_0
I0422 14:07:51.199611  1287 net.cpp:399] conv2_3a -> conv2_3a
I0422 14:07:51.200891  1287 net.cpp:141] Setting up conv2_3a
I0422 14:07:51.200908  1287 net.cpp:148] Top shape: 100 16 32 32 (1638400)
I0422 14:07:51.200914  1287 net.cpp:156] Memory required for data: 204391600
I0422 14:07:51.200924  1287 layer_factory.hpp:77] Creating layer bn_conv2_3a
I0422 14:07:51.200935  1287 net.cpp:91] Creating Layer bn_conv2_3a
I0422 14:07:51.200942  1287 net.cpp:425] bn_conv2_3a <- conv2_3a
I0422 14:07:51.200949  1287 net.cpp:386] bn_conv2_3a -> conv2_3a (in-place)
I0422 14:07:51.201213  1287 net.cpp:141] Setting up bn_conv2_3a
I0422 14:07:51.201226  1287 net.cpp:148] Top shape: 100 16 32 32 (1638400)
I0422 14:07:51.201231  1287 net.cpp:156] Memory required for data: 210945200
I0422 14:07:51.201241  1287 layer_factory.hpp:77] Creating layer scale_conv2_3a
I0422 14:07:51.201251  1287 net.cpp:91] Creating Layer scale_conv2_3a
I0422 14:07:51.201256  1287 net.cpp:425] scale_conv2_3a <- conv2_3a
I0422 14:07:51.201266  1287 net.cpp:386] scale_conv2_3a -> conv2_3a (in-place)
I0422 14:07:51.201318  1287 layer_factory.hpp:77] Creating layer scale_conv2_3a
I0422 14:07:51.201472  1287 net.cpp:141] Setting up scale_conv2_3a
I0422 14:07:51.201484  1287 net.cpp:148] Top shape: 100 16 32 32 (1638400)
I0422 14:07:51.201489  1287 net.cpp:156] Memory required for data: 217498800
I0422 14:07:51.201498  1287 layer_factory.hpp:77] Creating layer conv2_3a_relu
I0422 14:07:51.201506  1287 net.cpp:91] Creating Layer conv2_3a_relu
I0422 14:07:51.201511  1287 net.cpp:425] conv2_3a_relu <- conv2_3a
I0422 14:07:51.201519  1287 net.cpp:386] conv2_3a_relu -> conv2_3a (in-place)
I0422 14:07:51.201736  1287 net.cpp:141] Setting up conv2_3a_relu
I0422 14:07:51.201750  1287 net.cpp:148] Top shape: 100 16 32 32 (1638400)
I0422 14:07:51.201756  1287 net.cpp:156] Memory required for data: 224052400
I0422 14:07:51.201761  1287 layer_factory.hpp:77] Creating layer conv2_3b
I0422 14:07:51.201774  1287 net.cpp:91] Creating Layer conv2_3b
I0422 14:07:51.201781  1287 net.cpp:425] conv2_3b <- conv2_3a
I0422 14:07:51.201792  1287 net.cpp:399] conv2_3b -> conv2_3b
I0422 14:07:51.203066  1287 net.cpp:141] Setting up conv2_3b
I0422 14:07:51.203085  1287 net.cpp:148] Top shape: 100 16 32 32 (1638400)
I0422 14:07:51.203091  1287 net.cpp:156] Memory required for data: 230606000
I0422 14:07:51.203100  1287 layer_factory.hpp:77] Creating layer bn_conv2_3b
I0422 14:07:51.203116  1287 net.cpp:91] Creating Layer bn_conv2_3b
I0422 14:07:51.203122  1287 net.cpp:425] bn_conv2_3b <- conv2_3b
I0422 14:07:51.203131  1287 net.cpp:386] bn_conv2_3b -> conv2_3b (in-place)
I0422 14:07:51.203387  1287 net.cpp:141] Setting up bn_conv2_3b
I0422 14:07:51.203397  1287 net.cpp:148] Top shape: 100 16 32 32 (1638400)
I0422 14:07:51.203402  1287 net.cpp:156] Memory required for data: 237159600
I0422 14:07:51.203413  1287 layer_factory.hpp:77] Creating layer scale_conv2_3b
I0422 14:07:51.203421  1287 net.cpp:91] Creating Layer scale_conv2_3b
I0422 14:07:51.203428  1287 net.cpp:425] scale_conv2_3b <- conv2_3b
I0422 14:07:51.203436  1287 net.cpp:386] scale_conv2_3b -> conv2_3b (in-place)
I0422 14:07:51.203491  1287 layer_factory.hpp:77] Creating layer scale_conv2_3b
I0422 14:07:51.203641  1287 net.cpp:141] Setting up scale_conv2_3b
I0422 14:07:51.203652  1287 net.cpp:148] Top shape: 100 16 32 32 (1638400)
I0422 14:07:51.203657  1287 net.cpp:156] Memory required for data: 243713200
I0422 14:07:51.203666  1287 layer_factory.hpp:77] Creating layer conv2_3
I0422 14:07:51.203675  1287 net.cpp:91] Creating Layer conv2_3
I0422 14:07:51.203680  1287 net.cpp:425] conv2_3 <- conv1_conv1_relu_0_split_3
I0422 14:07:51.203686  1287 net.cpp:425] conv2_3 <- conv2_3b
I0422 14:07:51.203692  1287 net.cpp:425] conv2_3 <- conv2_2_conv2_2_relu_0_split_1
I0422 14:07:51.203701  1287 net.cpp:399] conv2_3 -> conv2_3
I0422 14:07:51.203735  1287 net.cpp:141] Setting up conv2_3
I0422 14:07:51.203747  1287 net.cpp:148] Top shape: 100 16 32 32 (1638400)
I0422 14:07:51.203758  1287 net.cpp:156] Memory required for data: 250266800
I0422 14:07:51.203764  1287 layer_factory.hpp:77] Creating layer conv2_3_relu
I0422 14:07:51.203771  1287 net.cpp:91] Creating Layer conv2_3_relu
I0422 14:07:51.203778  1287 net.cpp:425] conv2_3_relu <- conv2_3
I0422 14:07:51.203784  1287 net.cpp:386] conv2_3_relu -> conv2_3 (in-place)
I0422 14:07:51.204233  1287 net.cpp:141] Setting up conv2_3_relu
I0422 14:07:51.204251  1287 net.cpp:148] Top shape: 100 16 32 32 (1638400)
I0422 14:07:51.204257  1287 net.cpp:156] Memory required for data: 256820400
I0422 14:07:51.204262  1287 layer_factory.hpp:77] Creating layer conv2_3_conv2_3_relu_0_split
I0422 14:07:51.204272  1287 net.cpp:91] Creating Layer conv2_3_conv2_3_relu_0_split
I0422 14:07:51.204278  1287 net.cpp:425] conv2_3_conv2_3_relu_0_split <- conv2_3
I0422 14:07:51.204287  1287 net.cpp:399] conv2_3_conv2_3_relu_0_split -> conv2_3_conv2_3_relu_0_split_0
I0422 14:07:51.204296  1287 net.cpp:399] conv2_3_conv2_3_relu_0_split -> conv2_3_conv2_3_relu_0_split_1
I0422 14:07:51.204356  1287 net.cpp:141] Setting up conv2_3_conv2_3_relu_0_split
I0422 14:07:51.204366  1287 net.cpp:148] Top shape: 100 16 32 32 (1638400)
I0422 14:07:51.204372  1287 net.cpp:148] Top shape: 100 16 32 32 (1638400)
I0422 14:07:51.204377  1287 net.cpp:156] Memory required for data: 269927600
I0422 14:07:51.204383  1287 layer_factory.hpp:77] Creating layer conv2_sub
I0422 14:07:51.204396  1287 net.cpp:91] Creating Layer conv2_sub
I0422 14:07:51.204402  1287 net.cpp:425] conv2_sub <- conv2_3_conv2_3_relu_0_split_0
I0422 14:07:51.204413  1287 net.cpp:399] conv2_sub -> conv2_sub
I0422 14:07:51.205657  1287 net.cpp:141] Setting up conv2_sub
I0422 14:07:51.205675  1287 net.cpp:148] Top shape: 100 32 16 16 (819200)
I0422 14:07:51.205682  1287 net.cpp:156] Memory required for data: 273204400
I0422 14:07:51.205692  1287 layer_factory.hpp:77] Creating layer bn_conv2_sub
I0422 14:07:51.205703  1287 net.cpp:91] Creating Layer bn_conv2_sub
I0422 14:07:51.205708  1287 net.cpp:425] bn_conv2_sub <- conv2_sub
I0422 14:07:51.205718  1287 net.cpp:386] bn_conv2_sub -> conv2_sub (in-place)
I0422 14:07:51.205968  1287 net.cpp:141] Setting up bn_conv2_sub
I0422 14:07:51.205979  1287 net.cpp:148] Top shape: 100 32 16 16 (819200)
I0422 14:07:51.205984  1287 net.cpp:156] Memory required for data: 276481200
I0422 14:07:51.205996  1287 layer_factory.hpp:77] Creating layer scale_conv2_sub
I0422 14:07:51.206004  1287 net.cpp:91] Creating Layer scale_conv2_sub
I0422 14:07:51.206010  1287 net.cpp:425] scale_conv2_sub <- conv2_sub
I0422 14:07:51.206020  1287 net.cpp:386] scale_conv2_sub -> conv2_sub (in-place)
I0422 14:07:51.206074  1287 layer_factory.hpp:77] Creating layer scale_conv2_sub
I0422 14:07:51.206220  1287 net.cpp:141] Setting up scale_conv2_sub
I0422 14:07:51.206233  1287 net.cpp:148] Top shape: 100 32 16 16 (819200)
I0422 14:07:51.206236  1287 net.cpp:156] Memory required for data: 279758000
I0422 14:07:51.206245  1287 layer_factory.hpp:77] Creating layer conv2_sub_scale_conv2_sub_0_split
I0422 14:07:51.206254  1287 net.cpp:91] Creating Layer conv2_sub_scale_conv2_sub_0_split
I0422 14:07:51.206259  1287 net.cpp:425] conv2_sub_scale_conv2_sub_0_split <- conv2_sub
I0422 14:07:51.206266  1287 net.cpp:399] conv2_sub_scale_conv2_sub_0_split -> conv2_sub_scale_conv2_sub_0_split_0
I0422 14:07:51.206280  1287 net.cpp:399] conv2_sub_scale_conv2_sub_0_split -> conv2_sub_scale_conv2_sub_0_split_1
I0422 14:07:51.206290  1287 net.cpp:399] conv2_sub_scale_conv2_sub_0_split -> conv2_sub_scale_conv2_sub_0_split_2
I0422 14:07:51.206351  1287 net.cpp:141] Setting up conv2_sub_scale_conv2_sub_0_split
I0422 14:07:51.206360  1287 net.cpp:148] Top shape: 100 32 16 16 (819200)
I0422 14:07:51.206367  1287 net.cpp:148] Top shape: 100 32 16 16 (819200)
I0422 14:07:51.206372  1287 net.cpp:148] Top shape: 100 32 16 16 (819200)
I0422 14:07:51.206377  1287 net.cpp:156] Memory required for data: 289588400
I0422 14:07:51.206382  1287 layer_factory.hpp:77] Creating layer conv3_1a
I0422 14:07:51.206393  1287 net.cpp:91] Creating Layer conv3_1a
I0422 14:07:51.206404  1287 net.cpp:425] conv3_1a <- conv2_3_conv2_3_relu_0_split_1
I0422 14:07:51.206416  1287 net.cpp:399] conv3_1a -> conv3_1a
I0422 14:07:51.207571  1287 net.cpp:141] Setting up conv3_1a
I0422 14:07:51.207589  1287 net.cpp:148] Top shape: 100 32 16 16 (819200)
I0422 14:07:51.207595  1287 net.cpp:156] Memory required for data: 292865200
I0422 14:07:51.207604  1287 layer_factory.hpp:77] Creating layer bn_conv3_1a
I0422 14:07:51.207615  1287 net.cpp:91] Creating Layer bn_conv3_1a
I0422 14:07:51.207623  1287 net.cpp:425] bn_conv3_1a <- conv3_1a
I0422 14:07:51.207630  1287 net.cpp:386] bn_conv3_1a -> conv3_1a (in-place)
I0422 14:07:51.207876  1287 net.cpp:141] Setting up bn_conv3_1a
I0422 14:07:51.207888  1287 net.cpp:148] Top shape: 100 32 16 16 (819200)
I0422 14:07:51.207893  1287 net.cpp:156] Memory required for data: 296142000
I0422 14:07:51.207903  1287 layer_factory.hpp:77] Creating layer scale_conv3_1a
I0422 14:07:51.207914  1287 net.cpp:91] Creating Layer scale_conv3_1a
I0422 14:07:51.207921  1287 net.cpp:425] scale_conv3_1a <- conv3_1a
I0422 14:07:51.207928  1287 net.cpp:386] scale_conv3_1a -> conv3_1a (in-place)
I0422 14:07:51.207983  1287 layer_factory.hpp:77] Creating layer scale_conv3_1a
I0422 14:07:51.208130  1287 net.cpp:141] Setting up scale_conv3_1a
I0422 14:07:51.208140  1287 net.cpp:148] Top shape: 100 32 16 16 (819200)
I0422 14:07:51.208145  1287 net.cpp:156] Memory required for data: 299418800
I0422 14:07:51.208154  1287 layer_factory.hpp:77] Creating layer conv3_1a_relu
I0422 14:07:51.208164  1287 net.cpp:91] Creating Layer conv3_1a_relu
I0422 14:07:51.208169  1287 net.cpp:425] conv3_1a_relu <- conv3_1a
I0422 14:07:51.208176  1287 net.cpp:386] conv3_1a_relu -> conv3_1a (in-place)
I0422 14:07:51.208519  1287 net.cpp:141] Setting up conv3_1a_relu
I0422 14:07:51.208539  1287 net.cpp:148] Top shape: 100 32 16 16 (819200)
I0422 14:07:51.208544  1287 net.cpp:156] Memory required for data: 302695600
I0422 14:07:51.208550  1287 layer_factory.hpp:77] Creating layer conv3_1b
I0422 14:07:51.208564  1287 net.cpp:91] Creating Layer conv3_1b
I0422 14:07:51.208570  1287 net.cpp:425] conv3_1b <- conv3_1a
I0422 14:07:51.208580  1287 net.cpp:399] conv3_1b -> conv3_1b
I0422 14:07:51.210140  1287 net.cpp:141] Setting up conv3_1b
I0422 14:07:51.210161  1287 net.cpp:148] Top shape: 100 32 16 16 (819200)
I0422 14:07:51.210167  1287 net.cpp:156] Memory required for data: 305972400
I0422 14:07:51.210188  1287 layer_factory.hpp:77] Creating layer bn_conv3_1b
I0422 14:07:51.210198  1287 net.cpp:91] Creating Layer bn_conv3_1b
I0422 14:07:51.210204  1287 net.cpp:425] bn_conv3_1b <- conv3_1b
I0422 14:07:51.210213  1287 net.cpp:386] bn_conv3_1b -> conv3_1b (in-place)
I0422 14:07:51.210465  1287 net.cpp:141] Setting up bn_conv3_1b
I0422 14:07:51.210477  1287 net.cpp:148] Top shape: 100 32 16 16 (819200)
I0422 14:07:51.210482  1287 net.cpp:156] Memory required for data: 309249200
I0422 14:07:51.210494  1287 layer_factory.hpp:77] Creating layer scale_conv3_1b
I0422 14:07:51.210502  1287 net.cpp:91] Creating Layer scale_conv3_1b
I0422 14:07:51.210508  1287 net.cpp:425] scale_conv3_1b <- conv3_1b
I0422 14:07:51.210515  1287 net.cpp:386] scale_conv3_1b -> conv3_1b (in-place)
I0422 14:07:51.210572  1287 layer_factory.hpp:77] Creating layer scale_conv3_1b
I0422 14:07:51.210721  1287 net.cpp:141] Setting up scale_conv3_1b
I0422 14:07:51.210732  1287 net.cpp:148] Top shape: 100 32 16 16 (819200)
I0422 14:07:51.210736  1287 net.cpp:156] Memory required for data: 312526000
I0422 14:07:51.210746  1287 layer_factory.hpp:77] Creating layer conv3_1
I0422 14:07:51.210753  1287 net.cpp:91] Creating Layer conv3_1
I0422 14:07:51.210758  1287 net.cpp:425] conv3_1 <- conv3_1b
I0422 14:07:51.210765  1287 net.cpp:425] conv3_1 <- conv2_sub_scale_conv2_sub_0_split_0
I0422 14:07:51.210775  1287 net.cpp:399] conv3_1 -> conv3_1
I0422 14:07:51.210803  1287 net.cpp:141] Setting up conv3_1
I0422 14:07:51.210813  1287 net.cpp:148] Top shape: 100 32 16 16 (819200)
I0422 14:07:51.210819  1287 net.cpp:156] Memory required for data: 315802800
I0422 14:07:51.210829  1287 layer_factory.hpp:77] Creating layer conv3_1_relu
I0422 14:07:51.210837  1287 net.cpp:91] Creating Layer conv3_1_relu
I0422 14:07:51.210844  1287 net.cpp:425] conv3_1_relu <- conv3_1
I0422 14:07:51.210853  1287 net.cpp:386] conv3_1_relu -> conv3_1 (in-place)
I0422 14:07:51.211062  1287 net.cpp:141] Setting up conv3_1_relu
I0422 14:07:51.211076  1287 net.cpp:148] Top shape: 100 32 16 16 (819200)
I0422 14:07:51.211081  1287 net.cpp:156] Memory required for data: 319079600
I0422 14:07:51.211086  1287 layer_factory.hpp:77] Creating layer conv3_1_conv3_1_relu_0_split
I0422 14:07:51.211094  1287 net.cpp:91] Creating Layer conv3_1_conv3_1_relu_0_split
I0422 14:07:51.211099  1287 net.cpp:425] conv3_1_conv3_1_relu_0_split <- conv3_1
I0422 14:07:51.211107  1287 net.cpp:399] conv3_1_conv3_1_relu_0_split -> conv3_1_conv3_1_relu_0_split_0
I0422 14:07:51.211119  1287 net.cpp:399] conv3_1_conv3_1_relu_0_split -> conv3_1_conv3_1_relu_0_split_1
I0422 14:07:51.211179  1287 net.cpp:141] Setting up conv3_1_conv3_1_relu_0_split
I0422 14:07:51.211189  1287 net.cpp:148] Top shape: 100 32 16 16 (819200)
I0422 14:07:51.211199  1287 net.cpp:148] Top shape: 100 32 16 16 (819200)
I0422 14:07:51.211204  1287 net.cpp:156] Memory required for data: 325633200
I0422 14:07:51.211208  1287 layer_factory.hpp:77] Creating layer conv3_2a
I0422 14:07:51.211222  1287 net.cpp:91] Creating Layer conv3_2a
I0422 14:07:51.211228  1287 net.cpp:425] conv3_2a <- conv3_1_conv3_1_relu_0_split_0
I0422 14:07:51.211239  1287 net.cpp:399] conv3_2a -> conv3_2a
I0422 14:07:51.213554  1287 net.cpp:141] Setting up conv3_2a
I0422 14:07:51.213574  1287 net.cpp:148] Top shape: 100 32 16 16 (819200)
I0422 14:07:51.213580  1287 net.cpp:156] Memory required for data: 328910000
I0422 14:07:51.213589  1287 layer_factory.hpp:77] Creating layer bn_conv3_2a
I0422 14:07:51.213599  1287 net.cpp:91] Creating Layer bn_conv3_2a
I0422 14:07:51.213605  1287 net.cpp:425] bn_conv3_2a <- conv3_2a
I0422 14:07:51.213616  1287 net.cpp:386] bn_conv3_2a -> conv3_2a (in-place)
I0422 14:07:51.213879  1287 net.cpp:141] Setting up bn_conv3_2a
I0422 14:07:51.213891  1287 net.cpp:148] Top shape: 100 32 16 16 (819200)
I0422 14:07:51.213896  1287 net.cpp:156] Memory required for data: 332186800
I0422 14:07:51.213907  1287 layer_factory.hpp:77] Creating layer scale_conv3_2a
I0422 14:07:51.213917  1287 net.cpp:91] Creating Layer scale_conv3_2a
I0422 14:07:51.213922  1287 net.cpp:425] scale_conv3_2a <- conv3_2a
I0422 14:07:51.213929  1287 net.cpp:386] scale_conv3_2a -> conv3_2a (in-place)
I0422 14:07:51.213987  1287 layer_factory.hpp:77] Creating layer scale_conv3_2a
I0422 14:07:51.214138  1287 net.cpp:141] Setting up scale_conv3_2a
I0422 14:07:51.214150  1287 net.cpp:148] Top shape: 100 32 16 16 (819200)
I0422 14:07:51.214155  1287 net.cpp:156] Memory required for data: 335463600
I0422 14:07:51.214164  1287 layer_factory.hpp:77] Creating layer conv3_2a_relu
I0422 14:07:51.214171  1287 net.cpp:91] Creating Layer conv3_2a_relu
I0422 14:07:51.214177  1287 net.cpp:425] conv3_2a_relu <- conv3_2a
I0422 14:07:51.214184  1287 net.cpp:386] conv3_2a_relu -> conv3_2a (in-place)
I0422 14:07:51.214519  1287 net.cpp:141] Setting up conv3_2a_relu
I0422 14:07:51.214541  1287 net.cpp:148] Top shape: 100 32 16 16 (819200)
I0422 14:07:51.214546  1287 net.cpp:156] Memory required for data: 338740400
I0422 14:07:51.214552  1287 layer_factory.hpp:77] Creating layer conv3_2b
I0422 14:07:51.214566  1287 net.cpp:91] Creating Layer conv3_2b
I0422 14:07:51.214573  1287 net.cpp:425] conv3_2b <- conv3_2a
I0422 14:07:51.214582  1287 net.cpp:399] conv3_2b -> conv3_2b
I0422 14:07:51.216014  1287 net.cpp:141] Setting up conv3_2b
I0422 14:07:51.216032  1287 net.cpp:148] Top shape: 100 32 16 16 (819200)
I0422 14:07:51.216038  1287 net.cpp:156] Memory required for data: 342017200
I0422 14:07:51.216048  1287 layer_factory.hpp:77] Creating layer bn_conv3_2b
I0422 14:07:51.216058  1287 net.cpp:91] Creating Layer bn_conv3_2b
I0422 14:07:51.216064  1287 net.cpp:425] bn_conv3_2b <- conv3_2b
I0422 14:07:51.216078  1287 net.cpp:386] bn_conv3_2b -> conv3_2b (in-place)
I0422 14:07:51.216334  1287 net.cpp:141] Setting up bn_conv3_2b
I0422 14:07:51.216346  1287 net.cpp:148] Top shape: 100 32 16 16 (819200)
I0422 14:07:51.216351  1287 net.cpp:156] Memory required for data: 345294000
I0422 14:07:51.216361  1287 layer_factory.hpp:77] Creating layer scale_conv3_2b
I0422 14:07:51.216370  1287 net.cpp:91] Creating Layer scale_conv3_2b
I0422 14:07:51.216375  1287 net.cpp:425] scale_conv3_2b <- conv3_2b
I0422 14:07:51.216383  1287 net.cpp:386] scale_conv3_2b -> conv3_2b (in-place)
I0422 14:07:51.216440  1287 layer_factory.hpp:77] Creating layer scale_conv3_2b
I0422 14:07:51.216593  1287 net.cpp:141] Setting up scale_conv3_2b
I0422 14:07:51.216603  1287 net.cpp:148] Top shape: 100 32 16 16 (819200)
I0422 14:07:51.216609  1287 net.cpp:156] Memory required for data: 348570800
I0422 14:07:51.216617  1287 layer_factory.hpp:77] Creating layer conv3_2
I0422 14:07:51.216625  1287 net.cpp:91] Creating Layer conv3_2
I0422 14:07:51.216630  1287 net.cpp:425] conv3_2 <- conv3_2b
I0422 14:07:51.216637  1287 net.cpp:425] conv3_2 <- conv2_sub_scale_conv2_sub_0_split_1
I0422 14:07:51.216645  1287 net.cpp:425] conv3_2 <- conv3_1_conv3_1_relu_0_split_1
I0422 14:07:51.216655  1287 net.cpp:399] conv3_2 -> conv3_2
I0422 14:07:51.216682  1287 net.cpp:141] Setting up conv3_2
I0422 14:07:51.216692  1287 net.cpp:148] Top shape: 100 32 16 16 (819200)
I0422 14:07:51.216697  1287 net.cpp:156] Memory required for data: 351847600
I0422 14:07:51.216702  1287 layer_factory.hpp:77] Creating layer conv3_2_relu
I0422 14:07:51.216709  1287 net.cpp:91] Creating Layer conv3_2_relu
I0422 14:07:51.216716  1287 net.cpp:425] conv3_2_relu <- conv3_2
I0422 14:07:51.216724  1287 net.cpp:386] conv3_2_relu -> conv3_2 (in-place)
I0422 14:07:51.217062  1287 net.cpp:141] Setting up conv3_2_relu
I0422 14:07:51.217079  1287 net.cpp:148] Top shape: 100 32 16 16 (819200)
I0422 14:07:51.217084  1287 net.cpp:156] Memory required for data: 355124400
I0422 14:07:51.217090  1287 layer_factory.hpp:77] Creating layer conv3_2_conv3_2_relu_0_split
I0422 14:07:51.217100  1287 net.cpp:91] Creating Layer conv3_2_conv3_2_relu_0_split
I0422 14:07:51.217106  1287 net.cpp:425] conv3_2_conv3_2_relu_0_split <- conv3_2
I0422 14:07:51.217121  1287 net.cpp:399] conv3_2_conv3_2_relu_0_split -> conv3_2_conv3_2_relu_0_split_0
I0422 14:07:51.217133  1287 net.cpp:399] conv3_2_conv3_2_relu_0_split -> conv3_2_conv3_2_relu_0_split_1
I0422 14:07:51.217197  1287 net.cpp:141] Setting up conv3_2_conv3_2_relu_0_split
I0422 14:07:51.217208  1287 net.cpp:148] Top shape: 100 32 16 16 (819200)
I0422 14:07:51.217214  1287 net.cpp:148] Top shape: 100 32 16 16 (819200)
I0422 14:07:51.217218  1287 net.cpp:156] Memory required for data: 361678000
I0422 14:07:51.217224  1287 layer_factory.hpp:77] Creating layer conv3_3a
I0422 14:07:51.217237  1287 net.cpp:91] Creating Layer conv3_3a
I0422 14:07:51.217243  1287 net.cpp:425] conv3_3a <- conv3_2_conv3_2_relu_0_split_0
I0422 14:07:51.217254  1287 net.cpp:399] conv3_3a -> conv3_3a
I0422 14:07:51.218822  1287 net.cpp:141] Setting up conv3_3a
I0422 14:07:51.218840  1287 net.cpp:148] Top shape: 100 32 16 16 (819200)
I0422 14:07:51.218847  1287 net.cpp:156] Memory required for data: 364954800
I0422 14:07:51.218855  1287 layer_factory.hpp:77] Creating layer bn_conv3_3a
I0422 14:07:51.218868  1287 net.cpp:91] Creating Layer bn_conv3_3a
I0422 14:07:51.218873  1287 net.cpp:425] bn_conv3_3a <- conv3_3a
I0422 14:07:51.218881  1287 net.cpp:386] bn_conv3_3a -> conv3_3a (in-place)
I0422 14:07:51.219141  1287 net.cpp:141] Setting up bn_conv3_3a
I0422 14:07:51.219152  1287 net.cpp:148] Top shape: 100 32 16 16 (819200)
I0422 14:07:51.219157  1287 net.cpp:156] Memory required for data: 368231600
I0422 14:07:51.219168  1287 layer_factory.hpp:77] Creating layer scale_conv3_3a
I0422 14:07:51.219177  1287 net.cpp:91] Creating Layer scale_conv3_3a
I0422 14:07:51.219183  1287 net.cpp:425] scale_conv3_3a <- conv3_3a
I0422 14:07:51.219190  1287 net.cpp:386] scale_conv3_3a -> conv3_3a (in-place)
I0422 14:07:51.219256  1287 layer_factory.hpp:77] Creating layer scale_conv3_3a
I0422 14:07:51.219410  1287 net.cpp:141] Setting up scale_conv3_3a
I0422 14:07:51.219421  1287 net.cpp:148] Top shape: 100 32 16 16 (819200)
I0422 14:07:51.219426  1287 net.cpp:156] Memory required for data: 371508400
I0422 14:07:51.219435  1287 layer_factory.hpp:77] Creating layer conv3_3a_relu
I0422 14:07:51.219450  1287 net.cpp:91] Creating Layer conv3_3a_relu
I0422 14:07:51.219456  1287 net.cpp:425] conv3_3a_relu <- conv3_3a
I0422 14:07:51.219465  1287 net.cpp:386] conv3_3a_relu -> conv3_3a (in-place)
I0422 14:07:51.219679  1287 net.cpp:141] Setting up conv3_3a_relu
I0422 14:07:51.219693  1287 net.cpp:148] Top shape: 100 32 16 16 (819200)
I0422 14:07:51.219698  1287 net.cpp:156] Memory required for data: 374785200
I0422 14:07:51.219704  1287 layer_factory.hpp:77] Creating layer conv3_3b
I0422 14:07:51.219719  1287 net.cpp:91] Creating Layer conv3_3b
I0422 14:07:51.219725  1287 net.cpp:425] conv3_3b <- conv3_3a
I0422 14:07:51.219735  1287 net.cpp:399] conv3_3b -> conv3_3b
I0422 14:07:51.221321  1287 net.cpp:141] Setting up conv3_3b
I0422 14:07:51.221340  1287 net.cpp:148] Top shape: 100 32 16 16 (819200)
I0422 14:07:51.221346  1287 net.cpp:156] Memory required for data: 378062000
I0422 14:07:51.221356  1287 layer_factory.hpp:77] Creating layer bn_conv3_3b
I0422 14:07:51.221369  1287 net.cpp:91] Creating Layer bn_conv3_3b
I0422 14:07:51.221375  1287 net.cpp:425] bn_conv3_3b <- conv3_3b
I0422 14:07:51.221384  1287 net.cpp:386] bn_conv3_3b -> conv3_3b (in-place)
I0422 14:07:51.221639  1287 net.cpp:141] Setting up bn_conv3_3b
I0422 14:07:51.221652  1287 net.cpp:148] Top shape: 100 32 16 16 (819200)
I0422 14:07:51.221657  1287 net.cpp:156] Memory required for data: 381338800
I0422 14:07:51.221667  1287 layer_factory.hpp:77] Creating layer scale_conv3_3b
I0422 14:07:51.221675  1287 net.cpp:91] Creating Layer scale_conv3_3b
I0422 14:07:51.221681  1287 net.cpp:425] scale_conv3_3b <- conv3_3b
I0422 14:07:51.221694  1287 net.cpp:386] scale_conv3_3b -> conv3_3b (in-place)
I0422 14:07:51.221750  1287 layer_factory.hpp:77] Creating layer scale_conv3_3b
I0422 14:07:51.221901  1287 net.cpp:141] Setting up scale_conv3_3b
I0422 14:07:51.221912  1287 net.cpp:148] Top shape: 100 32 16 16 (819200)
I0422 14:07:51.221917  1287 net.cpp:156] Memory required for data: 384615600
I0422 14:07:51.221925  1287 layer_factory.hpp:77] Creating layer conv3_3
I0422 14:07:51.221933  1287 net.cpp:91] Creating Layer conv3_3
I0422 14:07:51.221940  1287 net.cpp:425] conv3_3 <- conv3_3b
I0422 14:07:51.221946  1287 net.cpp:425] conv3_3 <- conv2_sub_scale_conv2_sub_0_split_2
I0422 14:07:51.221952  1287 net.cpp:425] conv3_3 <- conv3_2_conv3_2_relu_0_split_1
I0422 14:07:51.221962  1287 net.cpp:399] conv3_3 -> conv3_3
I0422 14:07:51.221992  1287 net.cpp:141] Setting up conv3_3
I0422 14:07:51.222002  1287 net.cpp:148] Top shape: 100 32 16 16 (819200)
I0422 14:07:51.222007  1287 net.cpp:156] Memory required for data: 387892400
I0422 14:07:51.222012  1287 layer_factory.hpp:77] Creating layer conv3_3_relu
I0422 14:07:51.222023  1287 net.cpp:91] Creating Layer conv3_3_relu
I0422 14:07:51.222028  1287 net.cpp:425] conv3_3_relu <- conv3_3
I0422 14:07:51.222035  1287 net.cpp:386] conv3_3_relu -> conv3_3 (in-place)
I0422 14:07:51.222462  1287 net.cpp:141] Setting up conv3_3_relu
I0422 14:07:51.222479  1287 net.cpp:148] Top shape: 100 32 16 16 (819200)
I0422 14:07:51.222486  1287 net.cpp:156] Memory required for data: 391169200
I0422 14:07:51.222491  1287 layer_factory.hpp:77] Creating layer conv3_3_conv3_3_relu_0_split
I0422 14:07:51.222501  1287 net.cpp:91] Creating Layer conv3_3_conv3_3_relu_0_split
I0422 14:07:51.222507  1287 net.cpp:425] conv3_3_conv3_3_relu_0_split <- conv3_3
I0422 14:07:51.222515  1287 net.cpp:399] conv3_3_conv3_3_relu_0_split -> conv3_3_conv3_3_relu_0_split_0
I0422 14:07:51.222525  1287 net.cpp:399] conv3_3_conv3_3_relu_0_split -> conv3_3_conv3_3_relu_0_split_1
I0422 14:07:51.222584  1287 net.cpp:141] Setting up conv3_3_conv3_3_relu_0_split
I0422 14:07:51.222595  1287 net.cpp:148] Top shape: 100 32 16 16 (819200)
I0422 14:07:51.222606  1287 net.cpp:148] Top shape: 100 32 16 16 (819200)
I0422 14:07:51.222612  1287 net.cpp:156] Memory required for data: 397722800
I0422 14:07:51.222617  1287 layer_factory.hpp:77] Creating layer conv3_sub
I0422 14:07:51.222633  1287 net.cpp:91] Creating Layer conv3_sub
I0422 14:07:51.222640  1287 net.cpp:425] conv3_sub <- conv3_3_conv3_3_relu_0_split_0
I0422 14:07:51.222651  1287 net.cpp:399] conv3_sub -> conv3_sub
I0422 14:07:51.225100  1287 net.cpp:141] Setting up conv3_sub
I0422 14:07:51.225122  1287 net.cpp:148] Top shape: 100 64 8 8 (409600)
I0422 14:07:51.225129  1287 net.cpp:156] Memory required for data: 399361200
I0422 14:07:51.225139  1287 layer_factory.hpp:77] Creating layer bn_conv3_sub
I0422 14:07:51.225152  1287 net.cpp:91] Creating Layer bn_conv3_sub
I0422 14:07:51.225158  1287 net.cpp:425] bn_conv3_sub <- conv3_sub
I0422 14:07:51.225175  1287 net.cpp:386] bn_conv3_sub -> conv3_sub (in-place)
I0422 14:07:51.225448  1287 net.cpp:141] Setting up bn_conv3_sub
I0422 14:07:51.225460  1287 net.cpp:148] Top shape: 100 64 8 8 (409600)
I0422 14:07:51.225464  1287 net.cpp:156] Memory required for data: 400999600
I0422 14:07:51.225476  1287 layer_factory.hpp:77] Creating layer scale_conv3_sub
I0422 14:07:51.225486  1287 net.cpp:91] Creating Layer scale_conv3_sub
I0422 14:07:51.225492  1287 net.cpp:425] scale_conv3_sub <- conv3_sub
I0422 14:07:51.225500  1287 net.cpp:386] scale_conv3_sub -> conv3_sub (in-place)
I0422 14:07:51.225559  1287 layer_factory.hpp:77] Creating layer scale_conv3_sub
I0422 14:07:51.225723  1287 net.cpp:141] Setting up scale_conv3_sub
I0422 14:07:51.225733  1287 net.cpp:148] Top shape: 100 64 8 8 (409600)
I0422 14:07:51.225739  1287 net.cpp:156] Memory required for data: 402638000
I0422 14:07:51.225747  1287 layer_factory.hpp:77] Creating layer conv3_sub_scale_conv3_sub_0_split
I0422 14:07:51.225755  1287 net.cpp:91] Creating Layer conv3_sub_scale_conv3_sub_0_split
I0422 14:07:51.225761  1287 net.cpp:425] conv3_sub_scale_conv3_sub_0_split <- conv3_sub
I0422 14:07:51.225770  1287 net.cpp:399] conv3_sub_scale_conv3_sub_0_split -> conv3_sub_scale_conv3_sub_0_split_0
I0422 14:07:51.225787  1287 net.cpp:399] conv3_sub_scale_conv3_sub_0_split -> conv3_sub_scale_conv3_sub_0_split_1
I0422 14:07:51.225796  1287 net.cpp:399] conv3_sub_scale_conv3_sub_0_split -> conv3_sub_scale_conv3_sub_0_split_2
I0422 14:07:51.225862  1287 net.cpp:141] Setting up conv3_sub_scale_conv3_sub_0_split
I0422 14:07:51.225872  1287 net.cpp:148] Top shape: 100 64 8 8 (409600)
I0422 14:07:51.225878  1287 net.cpp:148] Top shape: 100 64 8 8 (409600)
I0422 14:07:51.225883  1287 net.cpp:148] Top shape: 100 64 8 8 (409600)
I0422 14:07:51.225888  1287 net.cpp:156] Memory required for data: 407553200
I0422 14:07:51.225893  1287 layer_factory.hpp:77] Creating layer conv4_1a
I0422 14:07:51.225909  1287 net.cpp:91] Creating Layer conv4_1a
I0422 14:07:51.225916  1287 net.cpp:425] conv4_1a <- conv3_3_conv3_3_relu_0_split_1
I0422 14:07:51.225925  1287 net.cpp:399] conv4_1a -> conv4_1a
I0422 14:07:51.229666  1287 net.cpp:141] Setting up conv4_1a
I0422 14:07:51.229686  1287 net.cpp:148] Top shape: 100 64 8 8 (409600)
I0422 14:07:51.229691  1287 net.cpp:156] Memory required for data: 409191600
I0422 14:07:51.229701  1287 layer_factory.hpp:77] Creating layer bn_conv4_1a
I0422 14:07:51.229714  1287 net.cpp:91] Creating Layer bn_conv4_1a
I0422 14:07:51.229720  1287 net.cpp:425] bn_conv4_1a <- conv4_1a
I0422 14:07:51.229728  1287 net.cpp:386] bn_conv4_1a -> conv4_1a (in-place)
I0422 14:07:51.229997  1287 net.cpp:141] Setting up bn_conv4_1a
I0422 14:07:51.230010  1287 net.cpp:148] Top shape: 100 64 8 8 (409600)
I0422 14:07:51.230015  1287 net.cpp:156] Memory required for data: 410830000
I0422 14:07:51.230025  1287 layer_factory.hpp:77] Creating layer scale_conv4_1a
I0422 14:07:51.230036  1287 net.cpp:91] Creating Layer scale_conv4_1a
I0422 14:07:51.230042  1287 net.cpp:425] scale_conv4_1a <- conv4_1a
I0422 14:07:51.230051  1287 net.cpp:386] scale_conv4_1a -> conv4_1a (in-place)
I0422 14:07:51.230118  1287 layer_factory.hpp:77] Creating layer scale_conv4_1a
I0422 14:07:51.230279  1287 net.cpp:141] Setting up scale_conv4_1a
I0422 14:07:51.230290  1287 net.cpp:148] Top shape: 100 64 8 8 (409600)
I0422 14:07:51.230295  1287 net.cpp:156] Memory required for data: 412468400
I0422 14:07:51.230304  1287 layer_factory.hpp:77] Creating layer conv4_1a_relu
I0422 14:07:51.230314  1287 net.cpp:91] Creating Layer conv4_1a_relu
I0422 14:07:51.230320  1287 net.cpp:425] conv4_1a_relu <- conv4_1a
I0422 14:07:51.230327  1287 net.cpp:386] conv4_1a_relu -> conv4_1a (in-place)
I0422 14:07:51.230887  1287 net.cpp:141] Setting up conv4_1a_relu
I0422 14:07:51.230904  1287 net.cpp:148] Top shape: 100 64 8 8 (409600)
I0422 14:07:51.230911  1287 net.cpp:156] Memory required for data: 414106800
I0422 14:07:51.230916  1287 layer_factory.hpp:77] Creating layer conv4_1b
I0422 14:07:51.230933  1287 net.cpp:91] Creating Layer conv4_1b
I0422 14:07:51.230939  1287 net.cpp:425] conv4_1b <- conv4_1a
I0422 14:07:51.230949  1287 net.cpp:399] conv4_1b -> conv4_1b
I0422 14:07:51.233460  1287 net.cpp:141] Setting up conv4_1b
I0422 14:07:51.233479  1287 net.cpp:148] Top shape: 100 64 8 8 (409600)
I0422 14:07:51.233485  1287 net.cpp:156] Memory required for data: 415745200
I0422 14:07:51.233494  1287 layer_factory.hpp:77] Creating layer bn_conv4_1b
I0422 14:07:51.233507  1287 net.cpp:91] Creating Layer bn_conv4_1b
I0422 14:07:51.233513  1287 net.cpp:425] bn_conv4_1b <- conv4_1b
I0422 14:07:51.233522  1287 net.cpp:386] bn_conv4_1b -> conv4_1b (in-place)
I0422 14:07:51.233793  1287 net.cpp:141] Setting up bn_conv4_1b
I0422 14:07:51.233803  1287 net.cpp:148] Top shape: 100 64 8 8 (409600)
I0422 14:07:51.233808  1287 net.cpp:156] Memory required for data: 417383600
I0422 14:07:51.233819  1287 layer_factory.hpp:77] Creating layer scale_conv4_1b
I0422 14:07:51.233834  1287 net.cpp:91] Creating Layer scale_conv4_1b
I0422 14:07:51.233839  1287 net.cpp:425] scale_conv4_1b <- conv4_1b
I0422 14:07:51.233847  1287 net.cpp:386] scale_conv4_1b -> conv4_1b (in-place)
I0422 14:07:51.233906  1287 layer_factory.hpp:77] Creating layer scale_conv4_1b
I0422 14:07:51.234071  1287 net.cpp:141] Setting up scale_conv4_1b
I0422 14:07:51.234082  1287 net.cpp:148] Top shape: 100 64 8 8 (409600)
I0422 14:07:51.234087  1287 net.cpp:156] Memory required for data: 419022000
I0422 14:07:51.234096  1287 layer_factory.hpp:77] Creating layer conv4_1
I0422 14:07:51.234103  1287 net.cpp:91] Creating Layer conv4_1
I0422 14:07:51.234109  1287 net.cpp:425] conv4_1 <- conv3_sub_scale_conv3_sub_0_split_0
I0422 14:07:51.234118  1287 net.cpp:425] conv4_1 <- conv4_1b
I0422 14:07:51.234127  1287 net.cpp:399] conv4_1 -> conv4_1
I0422 14:07:51.234163  1287 net.cpp:141] Setting up conv4_1
I0422 14:07:51.234172  1287 net.cpp:148] Top shape: 100 64 8 8 (409600)
I0422 14:07:51.234177  1287 net.cpp:156] Memory required for data: 420660400
I0422 14:07:51.234182  1287 layer_factory.hpp:77] Creating layer conv4_1_relu
I0422 14:07:51.234192  1287 net.cpp:91] Creating Layer conv4_1_relu
I0422 14:07:51.234199  1287 net.cpp:425] conv4_1_relu <- conv4_1
I0422 14:07:51.234205  1287 net.cpp:386] conv4_1_relu -> conv4_1 (in-place)
I0422 14:07:51.234552  1287 net.cpp:141] Setting up conv4_1_relu
I0422 14:07:51.234570  1287 net.cpp:148] Top shape: 100 64 8 8 (409600)
I0422 14:07:51.234575  1287 net.cpp:156] Memory required for data: 422298800
I0422 14:07:51.234581  1287 layer_factory.hpp:77] Creating layer conv4_1_conv4_1_relu_0_split
I0422 14:07:51.234591  1287 net.cpp:91] Creating Layer conv4_1_conv4_1_relu_0_split
I0422 14:07:51.234596  1287 net.cpp:425] conv4_1_conv4_1_relu_0_split <- conv4_1
I0422 14:07:51.234606  1287 net.cpp:399] conv4_1_conv4_1_relu_0_split -> conv4_1_conv4_1_relu_0_split_0
I0422 14:07:51.234617  1287 net.cpp:399] conv4_1_conv4_1_relu_0_split -> conv4_1_conv4_1_relu_0_split_1
I0422 14:07:51.234678  1287 net.cpp:141] Setting up conv4_1_conv4_1_relu_0_split
I0422 14:07:51.234690  1287 net.cpp:148] Top shape: 100 64 8 8 (409600)
I0422 14:07:51.234696  1287 net.cpp:148] Top shape: 100 64 8 8 (409600)
I0422 14:07:51.234706  1287 net.cpp:156] Memory required for data: 425575600
I0422 14:07:51.234712  1287 layer_factory.hpp:77] Creating layer conv4_2a
I0422 14:07:51.234729  1287 net.cpp:91] Creating Layer conv4_2a
I0422 14:07:51.234735  1287 net.cpp:425] conv4_2a <- conv4_1_conv4_1_relu_0_split_0
I0422 14:07:51.234745  1287 net.cpp:399] conv4_2a -> conv4_2a
I0422 14:07:51.237365  1287 net.cpp:141] Setting up conv4_2a
I0422 14:07:51.237385  1287 net.cpp:148] Top shape: 100 64 8 8 (409600)
I0422 14:07:51.237391  1287 net.cpp:156] Memory required for data: 427214000
I0422 14:07:51.237401  1287 layer_factory.hpp:77] Creating layer bn_conv4_2a
I0422 14:07:51.237413  1287 net.cpp:91] Creating Layer bn_conv4_2a
I0422 14:07:51.237421  1287 net.cpp:425] bn_conv4_2a <- conv4_2a
I0422 14:07:51.237431  1287 net.cpp:386] bn_conv4_2a -> conv4_2a (in-place)
I0422 14:07:51.237699  1287 net.cpp:141] Setting up bn_conv4_2a
I0422 14:07:51.237711  1287 net.cpp:148] Top shape: 100 64 8 8 (409600)
I0422 14:07:51.237716  1287 net.cpp:156] Memory required for data: 428852400
I0422 14:07:51.237726  1287 layer_factory.hpp:77] Creating layer scale_conv4_2a
I0422 14:07:51.237738  1287 net.cpp:91] Creating Layer scale_conv4_2a
I0422 14:07:51.237745  1287 net.cpp:425] scale_conv4_2a <- conv4_2a
I0422 14:07:51.237752  1287 net.cpp:386] scale_conv4_2a -> conv4_2a (in-place)
I0422 14:07:51.237812  1287 layer_factory.hpp:77] Creating layer scale_conv4_2a
I0422 14:07:51.237974  1287 net.cpp:141] Setting up scale_conv4_2a
I0422 14:07:51.237985  1287 net.cpp:148] Top shape: 100 64 8 8 (409600)
I0422 14:07:51.237990  1287 net.cpp:156] Memory required for data: 430490800
I0422 14:07:51.237998  1287 layer_factory.hpp:77] Creating layer conv4_2a_relu
I0422 14:07:51.238008  1287 net.cpp:91] Creating Layer conv4_2a_relu
I0422 14:07:51.238013  1287 net.cpp:425] conv4_2a_relu <- conv4_2a
I0422 14:07:51.238023  1287 net.cpp:386] conv4_2a_relu -> conv4_2a (in-place)
I0422 14:07:51.238236  1287 net.cpp:141] Setting up conv4_2a_relu
I0422 14:07:51.238250  1287 net.cpp:148] Top shape: 100 64 8 8 (409600)
I0422 14:07:51.238255  1287 net.cpp:156] Memory required for data: 432129200
I0422 14:07:51.238260  1287 layer_factory.hpp:77] Creating layer conv4_2b
I0422 14:07:51.238277  1287 net.cpp:91] Creating Layer conv4_2b
I0422 14:07:51.238284  1287 net.cpp:425] conv4_2b <- conv4_2a
I0422 14:07:51.238293  1287 net.cpp:399] conv4_2b -> conv4_2b
I0422 14:07:51.241444  1287 net.cpp:141] Setting up conv4_2b
I0422 14:07:51.241464  1287 net.cpp:148] Top shape: 100 64 8 8 (409600)
I0422 14:07:51.241471  1287 net.cpp:156] Memory required for data: 433767600
I0422 14:07:51.241480  1287 layer_factory.hpp:77] Creating layer bn_conv4_2b
I0422 14:07:51.241493  1287 net.cpp:91] Creating Layer bn_conv4_2b
I0422 14:07:51.241500  1287 net.cpp:425] bn_conv4_2b <- conv4_2b
I0422 14:07:51.241516  1287 net.cpp:386] bn_conv4_2b -> conv4_2b (in-place)
I0422 14:07:51.241796  1287 net.cpp:141] Setting up bn_conv4_2b
I0422 14:07:51.241806  1287 net.cpp:148] Top shape: 100 64 8 8 (409600)
I0422 14:07:51.241811  1287 net.cpp:156] Memory required for data: 435406000
I0422 14:07:51.241852  1287 layer_factory.hpp:77] Creating layer scale_conv4_2b
I0422 14:07:51.241863  1287 net.cpp:91] Creating Layer scale_conv4_2b
I0422 14:07:51.241869  1287 net.cpp:425] scale_conv4_2b <- conv4_2b
I0422 14:07:51.241878  1287 net.cpp:386] scale_conv4_2b -> conv4_2b (in-place)
I0422 14:07:51.241940  1287 layer_factory.hpp:77] Creating layer scale_conv4_2b
I0422 14:07:51.242099  1287 net.cpp:141] Setting up scale_conv4_2b
I0422 14:07:51.242110  1287 net.cpp:148] Top shape: 100 64 8 8 (409600)
I0422 14:07:51.242115  1287 net.cpp:156] Memory required for data: 437044400
I0422 14:07:51.242123  1287 layer_factory.hpp:77] Creating layer conv4_2
I0422 14:07:51.242133  1287 net.cpp:91] Creating Layer conv4_2
I0422 14:07:51.242139  1287 net.cpp:425] conv4_2 <- conv4_1_conv4_1_relu_0_split_1
I0422 14:07:51.242147  1287 net.cpp:425] conv4_2 <- conv3_sub_scale_conv3_sub_0_split_1
I0422 14:07:51.242154  1287 net.cpp:425] conv4_2 <- conv4_2b
I0422 14:07:51.242166  1287 net.cpp:399] conv4_2 -> conv4_2
I0422 14:07:51.242207  1287 net.cpp:141] Setting up conv4_2
I0422 14:07:51.242216  1287 net.cpp:148] Top shape: 100 64 8 8 (409600)
I0422 14:07:51.242223  1287 net.cpp:156] Memory required for data: 438682800
I0422 14:07:51.242228  1287 layer_factory.hpp:77] Creating layer conv4_2_relu
I0422 14:07:51.242235  1287 net.cpp:91] Creating Layer conv4_2_relu
I0422 14:07:51.242241  1287 net.cpp:425] conv4_2_relu <- conv4_2
I0422 14:07:51.242251  1287 net.cpp:386] conv4_2_relu -> conv4_2 (in-place)
I0422 14:07:51.242599  1287 net.cpp:141] Setting up conv4_2_relu
I0422 14:07:51.242615  1287 net.cpp:148] Top shape: 100 64 8 8 (409600)
I0422 14:07:51.242620  1287 net.cpp:156] Memory required for data: 440321200
I0422 14:07:51.242626  1287 layer_factory.hpp:77] Creating layer conv4_2_conv4_2_relu_0_split
I0422 14:07:51.242635  1287 net.cpp:91] Creating Layer conv4_2_conv4_2_relu_0_split
I0422 14:07:51.242641  1287 net.cpp:425] conv4_2_conv4_2_relu_0_split <- conv4_2
I0422 14:07:51.242651  1287 net.cpp:399] conv4_2_conv4_2_relu_0_split -> conv4_2_conv4_2_relu_0_split_0
I0422 14:07:51.242662  1287 net.cpp:399] conv4_2_conv4_2_relu_0_split -> conv4_2_conv4_2_relu_0_split_1
I0422 14:07:51.242723  1287 net.cpp:141] Setting up conv4_2_conv4_2_relu_0_split
I0422 14:07:51.242740  1287 net.cpp:148] Top shape: 100 64 8 8 (409600)
I0422 14:07:51.242746  1287 net.cpp:148] Top shape: 100 64 8 8 (409600)
I0422 14:07:51.242751  1287 net.cpp:156] Memory required for data: 443598000
I0422 14:07:51.242758  1287 layer_factory.hpp:77] Creating layer conv4_3a
I0422 14:07:51.242771  1287 net.cpp:91] Creating Layer conv4_3a
I0422 14:07:51.242779  1287 net.cpp:425] conv4_3a <- conv4_2_conv4_2_relu_0_split_0
I0422 14:07:51.242787  1287 net.cpp:399] conv4_3a -> conv4_3a
I0422 14:07:51.245275  1287 net.cpp:141] Setting up conv4_3a
I0422 14:07:51.245293  1287 net.cpp:148] Top shape: 100 64 8 8 (409600)
I0422 14:07:51.245299  1287 net.cpp:156] Memory required for data: 445236400
I0422 14:07:51.245309  1287 layer_factory.hpp:77] Creating layer bn_conv4_3a
I0422 14:07:51.245321  1287 net.cpp:91] Creating Layer bn_conv4_3a
I0422 14:07:51.245327  1287 net.cpp:425] bn_conv4_3a <- conv4_3a
I0422 14:07:51.245337  1287 net.cpp:386] bn_conv4_3a -> conv4_3a (in-place)
I0422 14:07:51.245615  1287 net.cpp:141] Setting up bn_conv4_3a
I0422 14:07:51.245626  1287 net.cpp:148] Top shape: 100 64 8 8 (409600)
I0422 14:07:51.245631  1287 net.cpp:156] Memory required for data: 446874800
I0422 14:07:51.245642  1287 layer_factory.hpp:77] Creating layer scale_conv4_3a
I0422 14:07:51.245652  1287 net.cpp:91] Creating Layer scale_conv4_3a
I0422 14:07:51.245657  1287 net.cpp:425] scale_conv4_3a <- conv4_3a
I0422 14:07:51.245666  1287 net.cpp:386] scale_conv4_3a -> conv4_3a (in-place)
I0422 14:07:51.245726  1287 layer_factory.hpp:77] Creating layer scale_conv4_3a
I0422 14:07:51.245885  1287 net.cpp:141] Setting up scale_conv4_3a
I0422 14:07:51.245896  1287 net.cpp:148] Top shape: 100 64 8 8 (409600)
I0422 14:07:51.245901  1287 net.cpp:156] Memory required for data: 448513200
I0422 14:07:51.245910  1287 layer_factory.hpp:77] Creating layer conv4_3a_relu
I0422 14:07:51.245920  1287 net.cpp:91] Creating Layer conv4_3a_relu
I0422 14:07:51.245926  1287 net.cpp:425] conv4_3a_relu <- conv4_3a
I0422 14:07:51.245934  1287 net.cpp:386] conv4_3a_relu -> conv4_3a (in-place)
I0422 14:07:51.246270  1287 net.cpp:141] Setting up conv4_3a_relu
I0422 14:07:51.246286  1287 net.cpp:148] Top shape: 100 64 8 8 (409600)
I0422 14:07:51.246291  1287 net.cpp:156] Memory required for data: 450151600
I0422 14:07:51.246297  1287 layer_factory.hpp:77] Creating layer conv4_3b
I0422 14:07:51.246314  1287 net.cpp:91] Creating Layer conv4_3b
I0422 14:07:51.246320  1287 net.cpp:425] conv4_3b <- conv4_3a
I0422 14:07:51.246330  1287 net.cpp:399] conv4_3b -> conv4_3b
I0422 14:07:51.249086  1287 net.cpp:141] Setting up conv4_3b
I0422 14:07:51.249105  1287 net.cpp:148] Top shape: 100 64 8 8 (409600)
I0422 14:07:51.249116  1287 net.cpp:156] Memory required for data: 451790000
I0422 14:07:51.249132  1287 layer_factory.hpp:77] Creating layer bn_conv4_3b
I0422 14:07:51.249145  1287 net.cpp:91] Creating Layer bn_conv4_3b
I0422 14:07:51.249152  1287 net.cpp:425] bn_conv4_3b <- conv4_3b
I0422 14:07:51.249162  1287 net.cpp:386] bn_conv4_3b -> conv4_3b (in-place)
I0422 14:07:51.249441  1287 net.cpp:141] Setting up bn_conv4_3b
I0422 14:07:51.249452  1287 net.cpp:148] Top shape: 100 64 8 8 (409600)
I0422 14:07:51.249457  1287 net.cpp:156] Memory required for data: 453428400
I0422 14:07:51.249469  1287 layer_factory.hpp:77] Creating layer scale_conv4_3b
I0422 14:07:51.249482  1287 net.cpp:91] Creating Layer scale_conv4_3b
I0422 14:07:51.249488  1287 net.cpp:425] scale_conv4_3b <- conv4_3b
I0422 14:07:51.249496  1287 net.cpp:386] scale_conv4_3b -> conv4_3b (in-place)
I0422 14:07:51.249560  1287 layer_factory.hpp:77] Creating layer scale_conv4_3b
I0422 14:07:51.249727  1287 net.cpp:141] Setting up scale_conv4_3b
I0422 14:07:51.249738  1287 net.cpp:148] Top shape: 100 64 8 8 (409600)
I0422 14:07:51.249743  1287 net.cpp:156] Memory required for data: 455066800
I0422 14:07:51.249752  1287 layer_factory.hpp:77] Creating layer conv4_3
I0422 14:07:51.249761  1287 net.cpp:91] Creating Layer conv4_3
I0422 14:07:51.249768  1287 net.cpp:425] conv4_3 <- conv4_2_conv4_2_relu_0_split_1
I0422 14:07:51.249774  1287 net.cpp:425] conv4_3 <- conv3_sub_scale_conv3_sub_0_split_2
I0422 14:07:51.249781  1287 net.cpp:425] conv4_3 <- conv4_3b
I0422 14:07:51.249791  1287 net.cpp:399] conv4_3 -> conv4_3
I0422 14:07:51.249827  1287 net.cpp:141] Setting up conv4_3
I0422 14:07:51.249837  1287 net.cpp:148] Top shape: 100 64 8 8 (409600)
I0422 14:07:51.249842  1287 net.cpp:156] Memory required for data: 456705200
I0422 14:07:51.249848  1287 layer_factory.hpp:77] Creating layer conv4_3_relu
I0422 14:07:51.249858  1287 net.cpp:91] Creating Layer conv4_3_relu
I0422 14:07:51.249864  1287 net.cpp:425] conv4_3_relu <- conv4_3
I0422 14:07:51.249871  1287 net.cpp:386] conv4_3_relu -> conv4_3 (in-place)
I0422 14:07:51.250082  1287 net.cpp:141] Setting up conv4_3_relu
I0422 14:07:51.250095  1287 net.cpp:148] Top shape: 100 64 8 8 (409600)
I0422 14:07:51.250100  1287 net.cpp:156] Memory required for data: 458343600
I0422 14:07:51.250105  1287 layer_factory.hpp:77] Creating layer global_pool
I0422 14:07:51.250115  1287 net.cpp:91] Creating Layer global_pool
I0422 14:07:51.250121  1287 net.cpp:425] global_pool <- conv4_3
I0422 14:07:51.250131  1287 net.cpp:399] global_pool -> global_pool
I0422 14:07:51.250506  1287 net.cpp:141] Setting up global_pool
I0422 14:07:51.250524  1287 net.cpp:148] Top shape: 100 64 1 1 (6400)
I0422 14:07:51.250530  1287 net.cpp:156] Memory required for data: 458369200
I0422 14:07:51.250535  1287 layer_factory.hpp:77] Creating layer ip
I0422 14:07:51.250547  1287 net.cpp:91] Creating Layer ip
I0422 14:07:51.250553  1287 net.cpp:425] ip <- global_pool
I0422 14:07:51.250561  1287 net.cpp:399] ip -> ip
I0422 14:07:51.250728  1287 net.cpp:141] Setting up ip
I0422 14:07:51.250741  1287 net.cpp:148] Top shape: 100 10 (1000)
I0422 14:07:51.250746  1287 net.cpp:156] Memory required for data: 458373200
I0422 14:07:51.250754  1287 layer_factory.hpp:77] Creating layer ip_ip_0_split
I0422 14:07:51.250762  1287 net.cpp:91] Creating Layer ip_ip_0_split
I0422 14:07:51.250768  1287 net.cpp:425] ip_ip_0_split <- ip
I0422 14:07:51.250778  1287 net.cpp:399] ip_ip_0_split -> ip_ip_0_split_0
I0422 14:07:51.250788  1287 net.cpp:399] ip_ip_0_split -> ip_ip_0_split_1
I0422 14:07:51.250844  1287 net.cpp:141] Setting up ip_ip_0_split
I0422 14:07:51.250854  1287 net.cpp:148] Top shape: 100 10 (1000)
I0422 14:07:51.250859  1287 net.cpp:148] Top shape: 100 10 (1000)
I0422 14:07:51.250864  1287 net.cpp:156] Memory required for data: 458381200
I0422 14:07:51.250869  1287 layer_factory.hpp:77] Creating layer accuracy
I0422 14:07:51.250880  1287 net.cpp:91] Creating Layer accuracy
I0422 14:07:51.250885  1287 net.cpp:425] accuracy <- ip_ip_0_split_0
I0422 14:07:51.250892  1287 net.cpp:425] accuracy <- label_cifar_1_split_0
I0422 14:07:51.250908  1287 net.cpp:399] accuracy -> accuracy
…
