…
I0423 12:49:56.281281  8978 solver.cpp:91] Creating training net from net file: prototxt/ResNet-cifar.prototxt
I0423 12:49:56.283177  8978 net.cpp:313] The NetState phase (0) differed from the phase (1) specified by a rule in layer cifar
I0423 12:49:56.283663  8978 net.cpp:49] Initializing net from parameters: 
name: "ResNet-cifar"
state {
  phase: TRAIN
}
layer {
  name: "cifar"
  type: "Data"
  top: "data"
  top: "label"
  include {
    phase: TRAIN
  }
  transform_param {
    mirror: true
    mean_file: "data/cifar10/mean.binaryproto"
  }
  data_param {
    source: "data/cifar10/cifar10_train_lmdb"
    batch_size: 256
    backend: LMDB
  }
}
layer {
  name: "conv1"
  type: "Convolution"
  bottom: "data"
  top: "conv1"
  param {
    lr_mult: 1
  }
  param {
    lr_mult: 2
  }
  convolution_param {
    num_output: 16
    pad: 1
    kernel_size: 3
    weight_filler {
      type: "msra"
    }
    bias_filler {
      type: "constant"
    }
  }
}
layer {
  name: "bn_conv1"
  type: "BatchNorm"
  bottom: "conv1"
  top: "conv1"
  param {
    lr_mult: 0
  }
  param {
    lr_mult: 0
  }
  param {
    lr_mult: 0
  }
}
layer {
  name: "scale_conv1"
  type: "Scale"
  bottom: "conv1"
  top: "conv1"
  scale_param {
    bias_term: true
  }
}
layer {
  name: "conv1_relu"
  type: "ReLU"
  bottom: "conv1"
  top: "conv1"
}
layer {
  name: "conv1_sub"
  type: "Scale"
  bottom: "conv1"
  top: "conv1_sub"
  param {
    lr_mult: 1
  }
  param {
    lr_mult: 2
  }
  scale_param {
    bias_term: true
  }
}
layer {
  name: "conv2_1a"
  type: "Convolution"
  bottom: "conv1"
  top: "conv2_1a"
  param {
    lr_mult: 1
  }
  param {
    lr_mult: 2
  }
  convolution_param {
    num_output: 16
    pad: 1
    kernel_size: 3
    stride: 1
    weight_filler {
      type: "msra"
    }
    bias_filler {
      type: "constant"
      value: 0
    }
  }
}
layer {
  name: "bn_conv2_1a"
  type: "BatchNorm"
  bottom: "conv2_1a"
  top: "conv2_1a"
  param {
    lr_mult: 0
  }
  param {
    lr_mult: 0
  }
  param {
    lr_mult: 0
  }
}
layer {
  name: "scale_conv2_1a"
  type: "Scale"
  bottom: "conv2_1a"
  top: "conv2_1a"
  scale_param {
    bias_term: true
  }
}
layer {
  name: "conv2_1a_relu"
  type: "ReLU"
  bottom: "conv2_1a"
  top: "conv2_1a"
}
layer {
  name: "conv2_1b"
  type: "Convolution"
  bottom: "conv2_1a"
  top: "conv2_1b"
  param {
    lr_mult: 1
  }
  param {
    lr_mult: 2
  }
  convolution_param {
    num_output: 16
    pad: 1
    kernel_size: 3
    stride: 1
    weight_filler {
      type: "msra"
    }
    bias_filler {
      type: "constant"
      value: 0
    }
  }
}
layer {
  name: "bn_conv2_1b"
  type: "BatchNorm"
  bottom: "conv2_1b"
  top: "conv2_1b"
  param {
    lr_mult: 0
  }
  param {
    lr_mult: 0
  }
  param {
    lr_mult: 0
  }
}
layer {
  name: "scale_conv2_1b"
  type: "Scale"
  bottom: "conv2_1b"
  top: "conv2_1b"
  scale_param {
    bias_term: true
  }
}
layer {
  name: "conv2_1"
  type: "Eltwise"
  bottom: "conv2_1b"
  bottom: "conv1"
  top: "conv2_1"
}
layer {
  name: "conv2_1_relu"
  type: "ReLU"
  bottom: "conv2_1"
  top: "conv2_1"
}
layer {
  name: "conv2_2a"
  type: "Convolution"
  bottom: "conv2_1"
  top: "conv2_2a"
  param {
    lr_mult: 1
  }
  param {
    lr_mult: 2
  }
  convolution_param {
    num_output: 16
    pad: 1
    kernel_size: 3
    stride: 1
    weight_filler {
      type: "msra"
    }
    bias_filler {
      type: "constant"
      value: 0
    }
  }
}
layer {
  name: "bn_conv2_2a"
  type: "BatchNorm"
  bottom: "conv2_2a"
  top: "conv2_2a"
  param {
    lr_mult: 0
  }
  param {
    lr_mult: 0
  }
  param {
    lr_mult: 0
  }
}
layer {
  name: "scale_conv2_2a"
  type: "Scale"
  bottom: "conv2_2a"
  top: "conv2_2a"
  scale_param {
    bias_term: true
  }
}
layer {
  name: "conv2_2a_relu"
  type: "ReLU"
  bottom: "conv2_2a"
  top: "conv2_2a"
}
layer {
  name: "conv2_2b"
  type: "Convolution"
  bottom: "conv2_2a"
  top: "conv2_2b"
  param {
    lr_mult: 1
  }
  param {
    lr_mult: 2
  }
  convolution_param {
    num_output: 16
    pad: 1
    kernel_size: 3
    stride: 1
    weight_filler {
      type: "msra"
    }
    bias_filler {
      type: "constant"
      value: 0
    }
  }
}
layer {
  name: "bn_conv2_2b"
  type: "BatchNorm"
  bottom: "conv2_2b"
  top: "conv2_2b"
  param {
    lr_mult: 0
  }
  param {
    lr_mult: 0
  }
  param {
    lr_mult: 0
  }
}
layer {
  name: "scale_conv2_2b"
  type: "Scale"
  bottom: "conv2_2b"
  top: "conv2_2b"
  scale_param {
    bias_term: true
  }
}
layer {
  name: "conv2_2"
  type: "Eltwise"
  bottom: "conv2_2b"
  bottom: "conv2_1"
  bottom: "conv1_sub"
  top: "conv2_2"
}
layer {
  name: "conv2_2_relu"
  type: "ReLU"
  bottom: "conv2_2"
  top: "conv2_2"
}
layer {
  name: "conv2_3a"
  type: "Convolution"
  bottom: "conv2_2"
  top: "conv2_3a"
  param {
    lr_mult: 1
  }
  param {
    lr_mult: 2
  }
  convolution_param {
    num_output: 16
    pad: 1
    kernel_size: 3
    stride: 1
    weight_filler {
      type: "msra"
    }
    bias_filler {
      type: "constant"
      value: 0
    }
  }
}
layer {
  name: "bn_conv2_3a"
  type: "BatchNorm"
  bottom: "conv2_3a"
  top: "conv2_3a"
  param {
    lr_mult: 0
  }
  param {
    lr_mult: 0
  }
  param {
    lr_mult: 0
  }
}
layer {
  name: "scale_conv2_3a"
  type: "Scale"
  bottom: "conv2_3a"
  top: "conv2_3a"
  scale_param {
    bias_term: true
  }
}
layer {
  name: "conv2_3a_relu"
  type: "ReLU"
  bottom: "conv2_3a"
  top: "conv2_3a"
}
layer {
  name: "conv2_3b"
  type: "Convolution"
  bottom: "conv2_3a"
  top: "conv2_3b"
  param {
    lr_mult: 1
  }
  param {
    lr_mult: 2
  }
  convolution_param {
    num_output: 16
    pad: 1
    kernel_size: 3
    stride: 1
    weight_filler {
      type: "msra"
    }
    bias_filler {
      type: "constant"
      value: 0
    }
  }
}
layer {
  name: "bn_conv2_3b"
  type: "BatchNorm"
  bottom: "conv2_3b"
  top: "conv2_3b"
  param {
    lr_mult: 0
  }
  param {
    lr_mult: 0
  }
  param {
    lr_mult: 0
  }
}
layer {
  name: "scale_conv2_3b"
  type: "Scale"
  bottom: "conv2_3b"
  top: "conv2_3b"
  scale_param {
    bias_term: true
  }
}
layer {
  name: "conv2_3"
  type: "Eltwise"
  bottom: "conv1"
  bottom: "conv2_3b"
  bottom: "conv2_2"
  top: "conv2_3"
}
layer {
  name: "conv2_3_relu"
  type: "ReLU"
  bottom: "conv2_3"
  top: "conv2_3"
}
layer {
  name: "conv2_sub"
  type: "Convolution"
  bottom: "conv2_3"
  top: "conv2_sub"
  param {
    lr_mult: 1
  }
  param {
    lr_mult: 2
  }
  convolution_param {
    num_output: 32
    kernel_size: 1
    stride: 2
    weight_filler {
      type: "msra"
    }
    bias_filler {
      type: "constant"
      value: 0
    }
  }
}
layer {
  name: "bn_conv2_sub"
  type: "BatchNorm"
  bottom: "conv2_sub"
  top: "conv2_sub"
  param {
    lr_mult: 0
  }
  param {
    lr_mult: 0
  }
  param {
    lr_mult: 0
  }
}
layer {
  name: "scale_conv2_sub"
  type: "Scale"
  bottom: "conv2_sub"
  top: "conv2_sub"
  scale_param {
    bias_term: true
  }
}
layer {
  name: "conv3_1a"
  type: "Convolution"
  bottom: "conv2_3"
  top: "conv3_1a"
  param {
    lr_mult: 1
  }
  param {
    lr_mult: 2
  }
  convolution_param {
    num_output: 32
    pad: 0
    kernel_size: 1
    stride: 2
    weight_filler {
      type: "msra"
    }
    bias_filler {
      type: "constant"
      value: 0
    }
  }
}
layer {
  name: "bn_conv3_1a"
  type: "BatchNorm"
  bottom: "conv3_1a"
  top: "conv3_1a"
  param {
    lr_mult: 0
  }
  param {
    lr_mult: 0
  }
  param {
    lr_mult: 0
  }
}
layer {
  name: "scale_conv3_1a"
  type: "Scale"
  bottom: "conv3_1a"
  top: "conv3_1a"
  scale_param {
    bias_term: true
  }
}
layer {
  name: "conv3_1a_relu"
  type: "ReLU"
  bottom: "conv3_1a"
  top: "conv3_1a"
}
layer {
  name: "conv3_1b"
  type: "Convolution"
  bottom: "conv3_1a"
  top: "conv3_1b"
  param {
    lr_mult: 1
  }
  param {
    lr_mult: 2
  }
  convolution_param {
    num_output: 32
    pad: 1
    kernel_size: 3
    stride: 1
    weight_filler {
      type: "msra"
    }
    bias_filler {
      type: "constant"
      value: 0
    }
  }
}
layer {
  name: "bn_conv3_1b"
  type: "BatchNorm"
  bottom: "conv3_1b"
  top: "conv3_1b"
  param {
    lr_mult: 0
  }
  param {
    lr_mult: 0
  }
  param {
    lr_mult: 0
  }
}
layer {
  name: "scale_conv3_1b"
  type: "Scale"
  bottom: "conv3_1b"
  top: "conv3_1b"
  scale_param {
    bias_term: true
  }
}
layer {
  name: "conv3_1"
  type: "Eltwise"
  bottom: "conv3_1b"
  bottom: "conv2_sub"
  top: "conv3_1"
}
layer {
  name: "conv3_1_relu"
  type: "ReLU"
  bottom: "conv3_1"
  top: "conv3_1"
}
layer {
  name: "conv3_2a"
  type: "Convolution"
  bottom: "conv3_1"
  top: "conv3_2a"
  param {
    lr_mult: 1
  }
  param {
    lr_mult: 2
  }
  convolution_param {
    num_output: 32
    pad: 1
    kernel_size: 3
    stride: 1
    weight_filler {
      type: "msra"
    }
    bias_filler {
      type: "constant"
      value: 0
    }
  }
}
layer {
  name: "bn_conv3_2a"
  type: "BatchNorm"
  bottom: "conv3_2a"
  top: "conv3_2a"
  param {
    lr_mult: 0
  }
  param {
    lr_mult: 0
  }
  param {
    lr_mult: 0
  }
}
layer {
  name: "scale_conv3_2a"
  type: "Scale"
  bottom: "conv3_2a"
  top: "conv3_2a"
  scale_param {
    bias_term: true
  }
}
layer {
  name: "conv3_2a_relu"
  type: "ReLU"
  bottom: "conv3_2a"
  top: "conv3_2a"
}
layer {
  name: "conv3_2b"
  type: "Convolution"
  bottom: "conv3_2a"
  top: "conv3_2b"
  param {
    lr_mult: 1
  }
  param {
    lr_mult: 2
  }
  convolution_param {
    num_output: 32
    pad: 1
    kernel_size: 3
    stride: 1
    weight_filler {
      type: "msra"
    }
    bias_filler {
      type: "constant"
      value: 0
    }
  }
}
layer {
  name: "bn_conv3_2b"
  type: "BatchNorm"
  bottom: "conv3_2b"
  top: "conv3_2b"
  param {
    lr_mult: 0
  }
  param {
    lr_mult: 0
  }
  param {
    lr_mult: 0
  }
}
layer {
  name: "scale_conv3_2b"
  type: "Scale"
  bottom: "conv3_2b"
  top: "conv3_2b"
  scale_param {
    bias_term: true
  }
}
layer {
  name: "conv3_2"
  type: "Eltwise"
  bottom: "conv3_2b"
  bottom: "conv2_sub"
  bottom: "conv3_1"
  top: "conv3_2"
}
layer {
  name: "conv3_2_relu"
  type: "ReLU"
  bottom: "conv3_2"
  top: "conv3_2"
}
layer {
  name: "conv3_3a"
  type: "Convolution"
  bottom: "conv3_2"
  top: "conv3_3a"
  param {
    lr_mult: 1
  }
  param {
    lr_mult: 2
  }
  convolution_param {
    num_output: 32
    pad: 1
    kernel_size: 3
    stride: 1
    weight_filler {
      type: "msra"
    }
    bias_filler {
      type: "constant"
      value: 0
    }
  }
}
layer {
  name: "bn_conv3_3a"
  type: "BatchNorm"
  bottom: "conv3_3a"
  top: "conv3_3a"
  param {
    lr_mult: 0
  }
  param {
    lr_mult: 0
  }
  param {
    lr_mult: 0
  }
}
layer {
  name: "scale_conv3_3a"
  type: "Scale"
  bottom: "conv3_3a"
  top: "conv3_3a"
  scale_param {
    bias_term: true
  }
}
layer {
  name: "conv3_3a_relu"
  type: "ReLU"
  bottom: "conv3_3a"
  top: "conv3_3a"
}
layer {
  name: "conv3_3b"
  type: "Convolution"
  bottom: "conv3_3a"
  top: "conv3_3b"
  param {
    lr_mult: 1
  }
  param {
    lr_mult: 2
  }
  convolution_param {
    num_output: 32
    pad: 1
    kernel_size: 3
    stride: 1
    weight_filler {
      type: "msra"
    }
    bias_filler {
      type: "constant"
      value: 0
    }
  }
}
layer {
  name: "bn_conv3_3b"
  type: "BatchNorm"
  bottom: "conv3_3b"
  top: "conv3_3b"
  param {
    lr_mult: 0
  }
  param {
    lr_mult: 0
  }
  param {
    lr_mult: 0
  }
}
layer {
  name: "scale_conv3_3b"
  type: "Scale"
  bottom: "conv3_3b"
  top: "conv3_3b"
  scale_param {
    bias_term: true
  }
}
layer {
  name: "conv3_3"
  type: "Eltwise"
  bottom: "conv3_3b"
  bottom: "conv2_sub"
  bottom: "conv3_2"
  top: "conv3_3"
}
layer {
  name: "conv3_3_relu"
  type: "ReLU"
  bottom: "conv3_3"
  top: "conv3_3"
}
layer {
  name: "conv3_sub"
  type: "Convolution"
  bottom: "conv3_3"
  top: "conv3_sub"
  param {
    lr_mult: 1
  }
  param {
    lr_mult: 2
  }
  convolution_param {
    num_output: 64
    kernel_size: 1
    stride: 2
    weight_filler {
      type: "msra"
    }
    bias_filler {
      type: "constant"
      value: 0
    }
  }
}
layer {
  name: "bn_conv3_sub"
  type: "BatchNorm"
  bottom: "conv3_sub"
  top: "conv3_sub"
  param {
    lr_mult: 0
  }
  param {
    lr_mult: 0
  }
  param {
    lr_mult: 0
  }
}
layer {
  name: "scale_conv3_sub"
  type: "Scale"
  bottom: "conv3_sub"
  top: "conv3_sub"
  scale_param {
    bias_term: true
  }
}
layer {
  name: "conv4_1a"
  type: "Convolution"
  bottom: "conv3_3"
  top: "conv4_1a"
  param {
    lr_mult: 1
  }
  param {
    lr_mult: 2
  }
  convolution_param {
    num_output: 64
    pad: 0
    kernel_size: 1
    stride: 2
    weight_filler {
      type: "msra"
    }
    bias_filler {
      type: "constant"
      value: 0
    }
  }
}
layer {
  name: "bn_conv4_1a"
  type: "BatchNorm"
  bottom: "conv4_1a"
  top: "conv4_1a"
  param {
    lr_mult: 0
  }
  param {
    lr_mult: 0
  }
  param {
    lr_mult: 0
  }
}
layer {
  name: "scale_conv4_1a"
  type: "Scale"
  bottom: "conv4_1a"
  top: "conv4_1a"
  scale_param {
    bias_term: true
  }
}
layer {
  name: "conv4_1a_relu"
  type: "ReLU"
  bottom: "conv4_1a"
  top: "conv4_1a"
}
layer {
  name: "conv4_1b"
  type: "Convolution"
  bottom: "conv4_1a"
  top: "conv4_1b"
  param {
    lr_mult: 1
  }
  param {
    lr_mult: 2
  }
  convolution_param {
    num_output: 64
    pad: 1
    kernel_size: 3
    stride: 1
    weight_filler {
      type: "msra"
    }
    bias_filler {
      type: "constant"
      value: 0
    }
  }
}
layer {
  name: "bn_conv4_1b"
  type: "BatchNorm"
  bottom: "conv4_1b"
  top: "conv4_1b"
  param {
    lr_mult: 0
  }
  param {
    lr_mult: 0
  }
  param {
    lr_mult: 0
  }
}
layer {
  name: "scale_conv4_1b"
  type: "Scale"
  bottom: "conv4_1b"
  top: "conv4_1b"
  scale_param {
    bias_term: true
  }
}
layer {
  name: "conv4_1"
  type: "Eltwise"
  bottom: "conv3_sub"
  bottom: "conv4_1b"
  top: "conv4_1"
}
layer {
  name: "conv4_1_relu"
  type: "ReLU"
  bottom: "conv4_1"
  top: "conv4_1"
}
layer {
  name: "conv4_2a"
  type: "Convolution"
  bottom: "conv4_1"
  top: "conv4_2a"
  param {
    lr_mult: 1
  }
  param {
    lr_mult: 2
  }
  convolution_param {
    num_output: 64
    pad: 1
    kernel_size: 3
    stride: 1
    weight_filler {
      type: "msra"
    }
    bias_filler {
      type: "constant"
      value: 0
    }
  }
}
layer {
  name: "bn_conv4_2a"
  type: "BatchNorm"
  bottom: "conv4_2a"
  top: "conv4_2a"
  param {
    lr_mult: 0
  }
  param {
    lr_mult: 0
  }
  param {
    lr_mult: 0
  }
}
layer {
  name: "scale_conv4_2a"
  type: "Scale"
  bottom: "conv4_2a"
  top: "conv4_2a"
  scale_param {
    bias_term: true
  }
}
layer {
  name: "conv4_2a_relu"
  type: "ReLU"
  bottom: "conv4_2a"
  top: "conv4_2a"
}
layer {
  name: "conv4_2b"
  type: "Convolution"
  bottom: "conv4_2a"
  top: "conv4_2b"
  param {
    lr_mult: 1
  }
  param {
    lr_mult: 2
  }
  convolution_param {
    num_output: 64
    pad: 1
    kernel_size: 3
    stride: 1
    weight_filler {
      type: "msra"
    }
    bias_filler {
      type: "constant"
      value: 0
    }
  }
}
layer {
  name: "bn_conv4_2b"
  type: "BatchNorm"
  bottom: "conv4_2b"
  top: "conv4_2b"
  param {
    lr_mult: 0
  }
  param {
    lr_mult: 0
  }
  param {
    lr_mult: 0
  }
}
layer {
  name: "scale_conv4_2b"
  type: "Scale"
  bottom: "conv4_2b"
  top: "conv4_2b"
  scale_param {
    bias_term: true
  }
}
layer {
  name: "conv4_2"
  type: "Eltwise"
  bottom: "conv4_1"
  bottom: "conv3_sub"
  bottom: "conv4_2b"
  top: "conv4_2"
}
layer {
  name: "conv4_2_relu"
  type: "ReLU"
  bottom: "conv4_2"
  top: "conv4_2"
}
layer {
  name: "conv4_3a"
  type: "Convolution"
  bottom: "conv4_2"
  top: "conv4_3a"
  param {
    lr_mult: 1
  }
  param {
    lr_mult: 2
  }
  convolution_param {
    num_output: 64
    pad: 1
    kernel_size: 3
    stride: 1
    weight_filler {
      type: "msra"
    }
    bias_filler {
      type: "constant"
      value: 0
    }
  }
}
layer {
  name: "bn_conv4_3a"
  type: "BatchNorm"
  bottom: "conv4_3a"
  top: "conv4_3a"
  param {
    lr_mult: 0
  }
  param {
    lr_mult: 0
  }
  param {
    lr_mult: 0
  }
}
layer {
  name: "scale_conv4_3a"
  type: "Scale"
  bottom: "conv4_3a"
  top: "conv4_3a"
  scale_param {
    bias_term: true
  }
}
layer {
  name: "conv4_3a_relu"
  type: "ReLU"
  bottom: "conv4_3a"
  top: "conv4_3a"
}
layer {
  name: "conv4_3b"
  type: "Convolution"
  bottom: "conv4_3a"
  top: "conv4_3b"
  param {
    lr_mult: 1
  }
  param {
    lr_mult: 2
  }
  convolution_param {
    num_output: 64
    pad: 1
    kernel_size: 3
    stride: 1
    weight_filler {
      type: "msra"
    }
    bias_filler {
      type: "constant"
      value: 0
    }
  }
}
layer {
  name: "bn_conv4_3b"
  type: "BatchNorm"
  bottom: "conv4_3b"
  top: "conv4_3b"
  param {
    lr_mult: 0
  }
  param {
    lr_mult: 0
  }
  param {
    lr_mult: 0
  }
}
layer {
  name: "scale_conv4_3b"
  type: "Scale"
  bottom: "conv4_3b"
  top: "conv4_3b"
  scale_param {
    bias_term: true
  }
}
layer {
  name: "conv4_3"
  type: "Eltwise"
  bottom: "conv4_2"
  bottom: "conv3_sub"
  bottom: "conv4_3b"
  top: "conv4_3"
}
layer {
  name: "conv4_3_relu"
  type: "ReLU"
  bottom: "conv4_3"
  top: "conv4_3"
}
layer {
  name: "global_pool"
  type: "Pooling"
  bottom: "conv4_3"
  top: "global_pool"
  pooling_param {
    pool: AVE
    kernel_size: 8
    stride: 8
  }
}
layer {
  name: "ip"
  type: "InnerProduct"
  bottom: "global_pool"
  top: "ip"
  inner_product_param {
    num_output: 10
  }
}
layer {
  name: "accuracy"
  type: "Accuracy"
  bottom: "ip"
  bottom: "label"
  top: "accuracy"
}
layer {
  name: "loss"
  type: "SoftmaxWithLoss"
  bottom: "ip"
  bottom: "label"
  top: "loss"
}
I0423 12:49:56.284070  8978 layer_factory.hpp:77] Creating layer cifar
I0423 12:49:56.284592  8978 net.cpp:91] Creating Layer cifar
I0423 12:49:56.284606  8978 net.cpp:399] cifar -> data
I0423 12:49:56.284621  8978 net.cpp:399] cifar -> label
I0423 12:49:56.284663  8978 data_transformer.cpp:25] Loading mean file from: data/cifar10/mean.binaryproto
I0423 12:49:56.287217  9013 db_lmdb.cpp:38] Opened lmdb data/cifar10/cifar10_train_lmdb
I0423 12:49:56.296460  8978 data_layer.cpp:41] output data size: 256,3,32,32
I0423 12:49:56.301770  8978 net.cpp:141] Setting up cifar
I0423 12:49:56.301800  8978 net.cpp:148] Top shape: 256 3 32 32 (786432)
I0423 12:49:56.301806  8978 net.cpp:148] Top shape: 256 (256)
I0423 12:49:56.301811  8978 net.cpp:156] Memory required for data: 3146752
I0423 12:49:56.301821  8978 layer_factory.hpp:77] Creating layer label_cifar_1_split
I0423 12:49:56.301846  8978 net.cpp:91] Creating Layer label_cifar_1_split
I0423 12:49:56.301853  8978 net.cpp:425] label_cifar_1_split <- label
I0423 12:49:56.301864  8978 net.cpp:399] label_cifar_1_split -> label_cifar_1_split_0
I0423 12:49:56.301877  8978 net.cpp:399] label_cifar_1_split -> label_cifar_1_split_1
I0423 12:49:56.301961  8978 net.cpp:141] Setting up label_cifar_1_split
I0423 12:49:56.301971  8978 net.cpp:148] Top shape: 256 (256)
I0423 12:49:56.301976  8978 net.cpp:148] Top shape: 256 (256)
I0423 12:49:56.301980  8978 net.cpp:156] Memory required for data: 3148800
I0423 12:49:56.301985  8978 layer_factory.hpp:77] Creating layer conv1
I0423 12:49:56.302005  8978 net.cpp:91] Creating Layer conv1
I0423 12:49:56.302014  8978 net.cpp:425] conv1 <- data
I0423 12:49:56.302022  8978 net.cpp:399] conv1 -> conv1
I0423 12:49:56.502885  8978 net.cpp:141] Setting up conv1
I0423 12:49:56.502934  8978 net.cpp:148] Top shape: 256 16 32 32 (4194304)
I0423 12:49:56.502940  8978 net.cpp:156] Memory required for data: 19926016
I0423 12:49:56.502961  8978 layer_factory.hpp:77] Creating layer bn_conv1
I0423 12:49:56.502975  8978 net.cpp:91] Creating Layer bn_conv1
I0423 12:49:56.502982  8978 net.cpp:425] bn_conv1 <- conv1
I0423 12:49:56.502990  8978 net.cpp:386] bn_conv1 -> conv1 (in-place)
I0423 12:49:56.503141  8978 net.cpp:141] Setting up bn_conv1
I0423 12:49:56.503150  8978 net.cpp:148] Top shape: 256 16 32 32 (4194304)
I0423 12:49:56.503154  8978 net.cpp:156] Memory required for data: 36703232
I0423 12:49:56.503165  8978 layer_factory.hpp:77] Creating layer scale_conv1
I0423 12:49:56.503176  8978 net.cpp:91] Creating Layer scale_conv1
I0423 12:49:56.503180  8978 net.cpp:425] scale_conv1 <- conv1
I0423 12:49:56.503185  8978 net.cpp:386] scale_conv1 -> conv1 (in-place)
I0423 12:49:56.503218  8978 layer_factory.hpp:77] Creating layer scale_conv1
I0423 12:49:56.503304  8978 net.cpp:141] Setting up scale_conv1
I0423 12:49:56.503311  8978 net.cpp:148] Top shape: 256 16 32 32 (4194304)
I0423 12:49:56.503315  8978 net.cpp:156] Memory required for data: 53480448
I0423 12:49:56.503322  8978 layer_factory.hpp:77] Creating layer conv1_relu
I0423 12:49:56.503329  8978 net.cpp:91] Creating Layer conv1_relu
I0423 12:49:56.503334  8978 net.cpp:425] conv1_relu <- conv1
I0423 12:49:56.503339  8978 net.cpp:386] conv1_relu -> conv1 (in-place)
I0423 12:49:56.503578  8978 net.cpp:141] Setting up conv1_relu
I0423 12:49:56.503592  8978 net.cpp:148] Top shape: 256 16 32 32 (4194304)
I0423 12:49:56.503597  8978 net.cpp:156] Memory required for data: 70257664
I0423 12:49:56.503602  8978 layer_factory.hpp:77] Creating layer conv1_conv1_relu_0_split
I0423 12:49:56.503608  8978 net.cpp:91] Creating Layer conv1_conv1_relu_0_split
I0423 12:49:56.503612  8978 net.cpp:425] conv1_conv1_relu_0_split <- conv1
I0423 12:49:56.503618  8978 net.cpp:399] conv1_conv1_relu_0_split -> conv1_conv1_relu_0_split_0
I0423 12:49:56.503626  8978 net.cpp:399] conv1_conv1_relu_0_split -> conv1_conv1_relu_0_split_1
I0423 12:49:56.503633  8978 net.cpp:399] conv1_conv1_relu_0_split -> conv1_conv1_relu_0_split_2
I0423 12:49:56.503639  8978 net.cpp:399] conv1_conv1_relu_0_split -> conv1_conv1_relu_0_split_3
I0423 12:49:56.503692  8978 net.cpp:141] Setting up conv1_conv1_relu_0_split
I0423 12:49:56.503700  8978 net.cpp:148] Top shape: 256 16 32 32 (4194304)
I0423 12:49:56.503705  8978 net.cpp:148] Top shape: 256 16 32 32 (4194304)
I0423 12:49:56.503708  8978 net.cpp:148] Top shape: 256 16 32 32 (4194304)
I0423 12:49:56.503713  8978 net.cpp:148] Top shape: 256 16 32 32 (4194304)
I0423 12:49:56.503717  8978 net.cpp:156] Memory required for data: 137366528
I0423 12:49:56.503721  8978 layer_factory.hpp:77] Creating layer conv1_sub
I0423 12:49:56.503727  8978 net.cpp:91] Creating Layer conv1_sub
I0423 12:49:56.503731  8978 net.cpp:425] conv1_sub <- conv1_conv1_relu_0_split_0
I0423 12:49:56.503737  8978 net.cpp:399] conv1_sub -> conv1_sub
I0423 12:49:56.503772  8978 layer_factory.hpp:77] Creating layer conv1_sub
I0423 12:49:56.503854  8978 net.cpp:141] Setting up conv1_sub
I0423 12:49:56.503861  8978 net.cpp:148] Top shape: 256 16 32 32 (4194304)
I0423 12:49:56.503865  8978 net.cpp:156] Memory required for data: 154143744
I0423 12:49:56.503875  8978 layer_factory.hpp:77] Creating layer conv2_1a
I0423 12:49:56.503887  8978 net.cpp:91] Creating Layer conv2_1a
I0423 12:49:56.503891  8978 net.cpp:425] conv2_1a <- conv1_conv1_relu_0_split_1
I0423 12:49:56.503898  8978 net.cpp:399] conv2_1a -> conv2_1a
I0423 12:49:56.504628  8978 net.cpp:141] Setting up conv2_1a
I0423 12:49:56.504643  8978 net.cpp:148] Top shape: 256 16 32 32 (4194304)
I0423 12:49:56.504648  8978 net.cpp:156] Memory required for data: 170920960
I0423 12:49:56.504655  8978 layer_factory.hpp:77] Creating layer bn_conv2_1a
I0423 12:49:56.504662  8978 net.cpp:91] Creating Layer bn_conv2_1a
I0423 12:49:56.504675  8978 net.cpp:425] bn_conv2_1a <- conv2_1a
I0423 12:49:56.504681  8978 net.cpp:386] bn_conv2_1a -> conv2_1a (in-place)
I0423 12:49:56.504824  8978 net.cpp:141] Setting up bn_conv2_1a
I0423 12:49:56.504832  8978 net.cpp:148] Top shape: 256 16 32 32 (4194304)
I0423 12:49:56.504837  8978 net.cpp:156] Memory required for data: 187698176
I0423 12:49:56.504843  8978 layer_factory.hpp:77] Creating layer scale_conv2_1a
I0423 12:49:56.504850  8978 net.cpp:91] Creating Layer scale_conv2_1a
I0423 12:49:56.504854  8978 net.cpp:425] scale_conv2_1a <- conv2_1a
I0423 12:49:56.504859  8978 net.cpp:386] scale_conv2_1a -> conv2_1a (in-place)
I0423 12:49:56.504889  8978 layer_factory.hpp:77] Creating layer scale_conv2_1a
I0423 12:49:56.504971  8978 net.cpp:141] Setting up scale_conv2_1a
I0423 12:49:56.504979  8978 net.cpp:148] Top shape: 256 16 32 32 (4194304)
I0423 12:49:56.504983  8978 net.cpp:156] Memory required for data: 204475392
I0423 12:49:56.504989  8978 layer_factory.hpp:77] Creating layer conv2_1a_relu
I0423 12:49:56.504995  8978 net.cpp:91] Creating Layer conv2_1a_relu
I0423 12:49:56.504999  8978 net.cpp:425] conv2_1a_relu <- conv2_1a
I0423 12:49:56.505004  8978 net.cpp:386] conv2_1a_relu -> conv2_1a (in-place)
I0423 12:49:56.505264  8978 net.cpp:141] Setting up conv2_1a_relu
I0423 12:49:56.505277  8978 net.cpp:148] Top shape: 256 16 32 32 (4194304)
I0423 12:49:56.505282  8978 net.cpp:156] Memory required for data: 221252608
I0423 12:49:56.505287  8978 layer_factory.hpp:77] Creating layer conv2_1b
I0423 12:49:56.505297  8978 net.cpp:91] Creating Layer conv2_1b
I0423 12:49:56.505302  8978 net.cpp:425] conv2_1b <- conv2_1a
I0423 12:49:56.505308  8978 net.cpp:399] conv2_1b -> conv2_1b
I0423 12:49:56.506150  8978 net.cpp:141] Setting up conv2_1b
I0423 12:49:56.506165  8978 net.cpp:148] Top shape: 256 16 32 32 (4194304)
I0423 12:49:56.506168  8978 net.cpp:156] Memory required for data: 238029824
I0423 12:49:56.506180  8978 layer_factory.hpp:77] Creating layer bn_conv2_1b
I0423 12:49:56.506186  8978 net.cpp:91] Creating Layer bn_conv2_1b
I0423 12:49:56.506191  8978 net.cpp:425] bn_conv2_1b <- conv2_1b
I0423 12:49:56.506197  8978 net.cpp:386] bn_conv2_1b -> conv2_1b (in-place)
I0423 12:49:56.506343  8978 net.cpp:141] Setting up bn_conv2_1b
I0423 12:49:56.506351  8978 net.cpp:148] Top shape: 256 16 32 32 (4194304)
I0423 12:49:56.506356  8978 net.cpp:156] Memory required for data: 254807040
I0423 12:49:56.506362  8978 layer_factory.hpp:77] Creating layer scale_conv2_1b
I0423 12:49:56.506368  8978 net.cpp:91] Creating Layer scale_conv2_1b
I0423 12:49:56.506373  8978 net.cpp:425] scale_conv2_1b <- conv2_1b
I0423 12:49:56.506378  8978 net.cpp:386] scale_conv2_1b -> conv2_1b (in-place)
I0423 12:49:56.506407  8978 layer_factory.hpp:77] Creating layer scale_conv2_1b
I0423 12:49:56.506489  8978 net.cpp:141] Setting up scale_conv2_1b
I0423 12:49:56.506496  8978 net.cpp:148] Top shape: 256 16 32 32 (4194304)
I0423 12:49:56.506500  8978 net.cpp:156] Memory required for data: 271584256
I0423 12:49:56.506506  8978 layer_factory.hpp:77] Creating layer conv2_1
I0423 12:49:56.506513  8978 net.cpp:91] Creating Layer conv2_1
I0423 12:49:56.506517  8978 net.cpp:425] conv2_1 <- conv2_1b
I0423 12:49:56.506522  8978 net.cpp:425] conv2_1 <- conv1_conv1_relu_0_split_2
I0423 12:49:56.506528  8978 net.cpp:399] conv2_1 -> conv2_1
I0423 12:49:56.506549  8978 net.cpp:141] Setting up conv2_1
I0423 12:49:56.506556  8978 net.cpp:148] Top shape: 256 16 32 32 (4194304)
I0423 12:49:56.506561  8978 net.cpp:156] Memory required for data: 288361472
I0423 12:49:56.506563  8978 layer_factory.hpp:77] Creating layer conv2_1_relu
I0423 12:49:56.506572  8978 net.cpp:91] Creating Layer conv2_1_relu
I0423 12:49:56.506575  8978 net.cpp:425] conv2_1_relu <- conv2_1
I0423 12:49:56.506580  8978 net.cpp:386] conv2_1_relu -> conv2_1 (in-place)
I0423 12:49:56.506726  8978 net.cpp:141] Setting up conv2_1_relu
I0423 12:49:56.506736  8978 net.cpp:148] Top shape: 256 16 32 32 (4194304)
I0423 12:49:56.506739  8978 net.cpp:156] Memory required for data: 305138688
I0423 12:49:56.506748  8978 layer_factory.hpp:77] Creating layer conv2_1_conv2_1_relu_0_split
I0423 12:49:56.506754  8978 net.cpp:91] Creating Layer conv2_1_conv2_1_relu_0_split
I0423 12:49:56.506758  8978 net.cpp:425] conv2_1_conv2_1_relu_0_split <- conv2_1
I0423 12:49:56.506763  8978 net.cpp:399] conv2_1_conv2_1_relu_0_split -> conv2_1_conv2_1_relu_0_split_0
I0423 12:49:56.506770  8978 net.cpp:399] conv2_1_conv2_1_relu_0_split -> conv2_1_conv2_1_relu_0_split_1
I0423 12:49:56.506804  8978 net.cpp:141] Setting up conv2_1_conv2_1_relu_0_split
I0423 12:49:56.506810  8978 net.cpp:148] Top shape: 256 16 32 32 (4194304)
I0423 12:49:56.506815  8978 net.cpp:148] Top shape: 256 16 32 32 (4194304)
I0423 12:49:56.506819  8978 net.cpp:156] Memory required for data: 338693120
I0423 12:49:56.506822  8978 layer_factory.hpp:77] Creating layer conv2_2a
I0423 12:49:56.506831  8978 net.cpp:91] Creating Layer conv2_2a
I0423 12:49:56.506835  8978 net.cpp:425] conv2_2a <- conv2_1_conv2_1_relu_0_split_0
I0423 12:49:56.506841  8978 net.cpp:399] conv2_2a -> conv2_2a
I0423 12:49:56.507769  8978 net.cpp:141] Setting up conv2_2a
I0423 12:49:56.507783  8978 net.cpp:148] Top shape: 256 16 32 32 (4194304)
I0423 12:49:56.507788  8978 net.cpp:156] Memory required for data: 355470336
I0423 12:49:56.507796  8978 layer_factory.hpp:77] Creating layer bn_conv2_2a
I0423 12:49:56.507803  8978 net.cpp:91] Creating Layer bn_conv2_2a
I0423 12:49:56.507808  8978 net.cpp:425] bn_conv2_2a <- conv2_2a
I0423 12:49:56.507815  8978 net.cpp:386] bn_conv2_2a -> conv2_2a (in-place)
I0423 12:49:56.507974  8978 net.cpp:141] Setting up bn_conv2_2a
I0423 12:49:56.507982  8978 net.cpp:148] Top shape: 256 16 32 32 (4194304)
I0423 12:49:56.507985  8978 net.cpp:156] Memory required for data: 372247552
I0423 12:49:56.507992  8978 layer_factory.hpp:77] Creating layer scale_conv2_2a
I0423 12:49:56.508002  8978 net.cpp:91] Creating Layer scale_conv2_2a
I0423 12:49:56.508005  8978 net.cpp:425] scale_conv2_2a <- conv2_2a
I0423 12:49:56.508010  8978 net.cpp:386] scale_conv2_2a -> conv2_2a (in-place)
I0423 12:49:56.508041  8978 layer_factory.hpp:77] Creating layer scale_conv2_2a
I0423 12:49:56.508136  8978 net.cpp:141] Setting up scale_conv2_2a
I0423 12:49:56.508144  8978 net.cpp:148] Top shape: 256 16 32 32 (4194304)
I0423 12:49:56.508148  8978 net.cpp:156] Memory required for data: 389024768
I0423 12:49:56.508154  8978 layer_factory.hpp:77] Creating layer conv2_2a_relu
I0423 12:49:56.508160  8978 net.cpp:91] Creating Layer conv2_2a_relu
I0423 12:49:56.508163  8978 net.cpp:425] conv2_2a_relu <- conv2_2a
I0423 12:49:56.508168  8978 net.cpp:386] conv2_2a_relu -> conv2_2a (in-place)
I0423 12:49:56.508417  8978 net.cpp:141] Setting up conv2_2a_relu
I0423 12:49:56.508430  8978 net.cpp:148] Top shape: 256 16 32 32 (4194304)
I0423 12:49:56.508435  8978 net.cpp:156] Memory required for data: 405801984
I0423 12:49:56.508438  8978 layer_factory.hpp:77] Creating layer conv2_2b
I0423 12:49:56.508450  8978 net.cpp:91] Creating Layer conv2_2b
I0423 12:49:56.508456  8978 net.cpp:425] conv2_2b <- conv2_2a
I0423 12:49:56.508463  8978 net.cpp:399] conv2_2b -> conv2_2b
I0423 12:49:56.509310  8978 net.cpp:141] Setting up conv2_2b
I0423 12:49:56.509325  8978 net.cpp:148] Top shape: 256 16 32 32 (4194304)
I0423 12:49:56.509330  8978 net.cpp:156] Memory required for data: 422579200
I0423 12:49:56.509337  8978 layer_factory.hpp:77] Creating layer bn_conv2_2b
I0423 12:49:56.509349  8978 net.cpp:91] Creating Layer bn_conv2_2b
I0423 12:49:56.509354  8978 net.cpp:425] bn_conv2_2b <- conv2_2b
I0423 12:49:56.509362  8978 net.cpp:386] bn_conv2_2b -> conv2_2b (in-place)
I0423 12:49:56.509534  8978 net.cpp:141] Setting up bn_conv2_2b
I0423 12:49:56.509542  8978 net.cpp:148] Top shape: 256 16 32 32 (4194304)
I0423 12:49:56.509546  8978 net.cpp:156] Memory required for data: 439356416
I0423 12:49:56.509558  8978 layer_factory.hpp:77] Creating layer scale_conv2_2b
I0423 12:49:56.509565  8978 net.cpp:91] Creating Layer scale_conv2_2b
I0423 12:49:56.509569  8978 net.cpp:425] scale_conv2_2b <- conv2_2b
I0423 12:49:56.509578  8978 net.cpp:386] scale_conv2_2b -> conv2_2b (in-place)
I0423 12:49:56.509613  8978 layer_factory.hpp:77] Creating layer scale_conv2_2b
I0423 12:49:56.509708  8978 net.cpp:141] Setting up scale_conv2_2b
I0423 12:49:56.509716  8978 net.cpp:148] Top shape: 256 16 32 32 (4194304)
I0423 12:49:56.509721  8978 net.cpp:156] Memory required for data: 456133632
I0423 12:49:56.509727  8978 layer_factory.hpp:77] Creating layer conv2_2
I0423 12:49:56.509733  8978 net.cpp:91] Creating Layer conv2_2
I0423 12:49:56.509737  8978 net.cpp:425] conv2_2 <- conv2_2b
I0423 12:49:56.509742  8978 net.cpp:425] conv2_2 <- conv2_1_conv2_1_relu_0_split_1
I0423 12:49:56.509747  8978 net.cpp:425] conv2_2 <- conv1_sub
I0423 12:49:56.509752  8978 net.cpp:399] conv2_2 -> conv2_2
I0423 12:49:56.509775  8978 net.cpp:141] Setting up conv2_2
I0423 12:49:56.509783  8978 net.cpp:148] Top shape: 256 16 32 32 (4194304)
I0423 12:49:56.509785  8978 net.cpp:156] Memory required for data: 472910848
I0423 12:49:56.509789  8978 layer_factory.hpp:77] Creating layer conv2_2_relu
I0423 12:49:56.509795  8978 net.cpp:91] Creating Layer conv2_2_relu
I0423 12:49:56.509799  8978 net.cpp:425] conv2_2_relu <- conv2_2
I0423 12:49:56.509805  8978 net.cpp:386] conv2_2_relu -> conv2_2 (in-place)
I0423 12:49:56.510054  8978 net.cpp:141] Setting up conv2_2_relu
I0423 12:49:56.510067  8978 net.cpp:148] Top shape: 256 16 32 32 (4194304)
I0423 12:49:56.510071  8978 net.cpp:156] Memory required for data: 489688064
I0423 12:49:56.510076  8978 layer_factory.hpp:77] Creating layer conv2_2_conv2_2_relu_0_split
I0423 12:49:56.510082  8978 net.cpp:91] Creating Layer conv2_2_conv2_2_relu_0_split
I0423 12:49:56.510087  8978 net.cpp:425] conv2_2_conv2_2_relu_0_split <- conv2_2
I0423 12:49:56.510092  8978 net.cpp:399] conv2_2_conv2_2_relu_0_split -> conv2_2_conv2_2_relu_0_split_0
I0423 12:49:56.510102  8978 net.cpp:399] conv2_2_conv2_2_relu_0_split -> conv2_2_conv2_2_relu_0_split_1
I0423 12:49:56.510138  8978 net.cpp:141] Setting up conv2_2_conv2_2_relu_0_split
I0423 12:49:56.510144  8978 net.cpp:148] Top shape: 256 16 32 32 (4194304)
I0423 12:49:56.510149  8978 net.cpp:148] Top shape: 256 16 32 32 (4194304)
I0423 12:49:56.510152  8978 net.cpp:156] Memory required for data: 523242496
I0423 12:49:56.510155  8978 layer_factory.hpp:77] Creating layer conv2_3a
I0423 12:49:56.510165  8978 net.cpp:91] Creating Layer conv2_3a
I0423 12:49:56.510170  8978 net.cpp:425] conv2_3a <- conv2_2_conv2_2_relu_0_split_0
I0423 12:49:56.510177  8978 net.cpp:399] conv2_3a -> conv2_3a
I0423 12:49:56.511072  8978 net.cpp:141] Setting up conv2_3a
I0423 12:49:56.511086  8978 net.cpp:148] Top shape: 256 16 32 32 (4194304)
I0423 12:49:56.511090  8978 net.cpp:156] Memory required for data: 540019712
I0423 12:49:56.511097  8978 layer_factory.hpp:77] Creating layer bn_conv2_3a
I0423 12:49:56.511106  8978 net.cpp:91] Creating Layer bn_conv2_3a
I0423 12:49:56.511111  8978 net.cpp:425] bn_conv2_3a <- conv2_3a
I0423 12:49:56.511116  8978 net.cpp:386] bn_conv2_3a -> conv2_3a (in-place)
I0423 12:49:56.511276  8978 net.cpp:141] Setting up bn_conv2_3a
I0423 12:49:56.511283  8978 net.cpp:148] Top shape: 256 16 32 32 (4194304)
I0423 12:49:56.511287  8978 net.cpp:156] Memory required for data: 556796928
I0423 12:49:56.511294  8978 layer_factory.hpp:77] Creating layer scale_conv2_3a
I0423 12:49:56.511301  8978 net.cpp:91] Creating Layer scale_conv2_3a
I0423 12:49:56.511304  8978 net.cpp:425] scale_conv2_3a <- conv2_3a
I0423 12:49:56.511310  8978 net.cpp:386] scale_conv2_3a -> conv2_3a (in-place)
I0423 12:49:56.511343  8978 layer_factory.hpp:77] Creating layer scale_conv2_3a
I0423 12:49:56.511437  8978 net.cpp:141] Setting up scale_conv2_3a
I0423 12:49:56.511445  8978 net.cpp:148] Top shape: 256 16 32 32 (4194304)
I0423 12:49:56.511450  8978 net.cpp:156] Memory required for data: 573574144
I0423 12:49:56.511456  8978 layer_factory.hpp:77] Creating layer conv2_3a_relu
I0423 12:49:56.511462  8978 net.cpp:91] Creating Layer conv2_3a_relu
I0423 12:49:56.511466  8978 net.cpp:425] conv2_3a_relu <- conv2_3a
I0423 12:49:56.511476  8978 net.cpp:386] conv2_3a_relu -> conv2_3a (in-place)
I0423 12:49:56.511632  8978 net.cpp:141] Setting up conv2_3a_relu
I0423 12:49:56.511642  8978 net.cpp:148] Top shape: 256 16 32 32 (4194304)
I0423 12:49:56.511646  8978 net.cpp:156] Memory required for data: 590351360
I0423 12:49:56.511651  8978 layer_factory.hpp:77] Creating layer conv2_3b
I0423 12:49:56.511663  8978 net.cpp:91] Creating Layer conv2_3b
I0423 12:49:56.511668  8978 net.cpp:425] conv2_3b <- conv2_3a
I0423 12:49:56.511674  8978 net.cpp:399] conv2_3b -> conv2_3b
I0423 12:49:56.512715  8978 net.cpp:141] Setting up conv2_3b
I0423 12:49:56.512729  8978 net.cpp:148] Top shape: 256 16 32 32 (4194304)
I0423 12:49:56.512733  8978 net.cpp:156] Memory required for data: 607128576
I0423 12:49:56.512740  8978 layer_factory.hpp:77] Creating layer bn_conv2_3b
I0423 12:49:56.512749  8978 net.cpp:91] Creating Layer bn_conv2_3b
I0423 12:49:56.512754  8978 net.cpp:425] bn_conv2_3b <- conv2_3b
I0423 12:49:56.512759  8978 net.cpp:386] bn_conv2_3b -> conv2_3b (in-place)
I0423 12:49:56.512926  8978 net.cpp:141] Setting up bn_conv2_3b
I0423 12:49:56.512933  8978 net.cpp:148] Top shape: 256 16 32 32 (4194304)
I0423 12:49:56.512938  8978 net.cpp:156] Memory required for data: 623905792
I0423 12:49:56.512944  8978 layer_factory.hpp:77] Creating layer scale_conv2_3b
I0423 12:49:56.512950  8978 net.cpp:91] Creating Layer scale_conv2_3b
I0423 12:49:56.512954  8978 net.cpp:425] scale_conv2_3b <- conv2_3b
I0423 12:49:56.512961  8978 net.cpp:386] scale_conv2_3b -> conv2_3b (in-place)
I0423 12:49:56.512992  8978 layer_factory.hpp:77] Creating layer scale_conv2_3b
I0423 12:49:56.513092  8978 net.cpp:141] Setting up scale_conv2_3b
I0423 12:49:56.513103  8978 net.cpp:148] Top shape: 256 16 32 32 (4194304)
I0423 12:49:56.513108  8978 net.cpp:156] Memory required for data: 640683008
I0423 12:49:56.513133  8978 layer_factory.hpp:77] Creating layer conv2_3
I0423 12:49:56.513151  8978 net.cpp:91] Creating Layer conv2_3
I0423 12:49:56.513155  8978 net.cpp:425] conv2_3 <- conv1_conv1_relu_0_split_3
I0423 12:49:56.513161  8978 net.cpp:425] conv2_3 <- conv2_3b
I0423 12:49:56.513166  8978 net.cpp:425] conv2_3 <- conv2_2_conv2_2_relu_0_split_1
I0423 12:49:56.513171  8978 net.cpp:399] conv2_3 -> conv2_3
I0423 12:49:56.513200  8978 net.cpp:141] Setting up conv2_3
I0423 12:49:56.513206  8978 net.cpp:148] Top shape: 256 16 32 32 (4194304)
I0423 12:49:56.513211  8978 net.cpp:156] Memory required for data: 657460224
I0423 12:49:56.513214  8978 layer_factory.hpp:77] Creating layer conv2_3_relu
I0423 12:49:56.513221  8978 net.cpp:91] Creating Layer conv2_3_relu
I0423 12:49:56.513226  8978 net.cpp:425] conv2_3_relu <- conv2_3
I0423 12:49:56.513232  8978 net.cpp:386] conv2_3_relu -> conv2_3 (in-place)
I0423 12:49:56.513519  8978 net.cpp:141] Setting up conv2_3_relu
I0423 12:49:56.513532  8978 net.cpp:148] Top shape: 256 16 32 32 (4194304)
I0423 12:49:56.513536  8978 net.cpp:156] Memory required for data: 674237440
I0423 12:49:56.513540  8978 layer_factory.hpp:77] Creating layer conv2_3_conv2_3_relu_0_split
I0423 12:49:56.513546  8978 net.cpp:91] Creating Layer conv2_3_conv2_3_relu_0_split
I0423 12:49:56.513550  8978 net.cpp:425] conv2_3_conv2_3_relu_0_split <- conv2_3
I0423 12:49:56.513556  8978 net.cpp:399] conv2_3_conv2_3_relu_0_split -> conv2_3_conv2_3_relu_0_split_0
I0423 12:49:56.513562  8978 net.cpp:399] conv2_3_conv2_3_relu_0_split -> conv2_3_conv2_3_relu_0_split_1
I0423 12:49:56.513600  8978 net.cpp:141] Setting up conv2_3_conv2_3_relu_0_split
I0423 12:49:56.513607  8978 net.cpp:148] Top shape: 256 16 32 32 (4194304)
I0423 12:49:56.513612  8978 net.cpp:148] Top shape: 256 16 32 32 (4194304)
I0423 12:49:56.513615  8978 net.cpp:156] Memory required for data: 707791872
I0423 12:49:56.513618  8978 layer_factory.hpp:77] Creating layer conv2_sub
I0423 12:49:56.513628  8978 net.cpp:91] Creating Layer conv2_sub
I0423 12:49:56.513633  8978 net.cpp:425] conv2_sub <- conv2_3_conv2_3_relu_0_split_0
I0423 12:49:56.513641  8978 net.cpp:399] conv2_sub -> conv2_sub
I0423 12:49:56.514503  8978 net.cpp:141] Setting up conv2_sub
I0423 12:49:56.514520  8978 net.cpp:148] Top shape: 256 32 16 16 (2097152)
I0423 12:49:56.514525  8978 net.cpp:156] Memory required for data: 716180480
I0423 12:49:56.514533  8978 layer_factory.hpp:77] Creating layer bn_conv2_sub
I0423 12:49:56.514541  8978 net.cpp:91] Creating Layer bn_conv2_sub
I0423 12:49:56.514545  8978 net.cpp:425] bn_conv2_sub <- conv2_sub
I0423 12:49:56.514551  8978 net.cpp:386] bn_conv2_sub -> conv2_sub (in-place)
I0423 12:49:56.514711  8978 net.cpp:141] Setting up bn_conv2_sub
I0423 12:49:56.514719  8978 net.cpp:148] Top shape: 256 32 16 16 (2097152)
I0423 12:49:56.514722  8978 net.cpp:156] Memory required for data: 724569088
I0423 12:49:56.514729  8978 layer_factory.hpp:77] Creating layer scale_conv2_sub
I0423 12:49:56.514737  8978 net.cpp:91] Creating Layer scale_conv2_sub
I0423 12:49:56.514741  8978 net.cpp:425] scale_conv2_sub <- conv2_sub
I0423 12:49:56.514746  8978 net.cpp:386] scale_conv2_sub -> conv2_sub (in-place)
I0423 12:49:56.514777  8978 layer_factory.hpp:77] Creating layer scale_conv2_sub
I0423 12:49:56.514875  8978 net.cpp:141] Setting up scale_conv2_sub
I0423 12:49:56.514883  8978 net.cpp:148] Top shape: 256 32 16 16 (2097152)
I0423 12:49:56.514886  8978 net.cpp:156] Memory required for data: 732957696
I0423 12:49:56.514894  8978 layer_factory.hpp:77] Creating layer conv2_sub_scale_conv2_sub_0_split
I0423 12:49:56.514900  8978 net.cpp:91] Creating Layer conv2_sub_scale_conv2_sub_0_split
I0423 12:49:56.514904  8978 net.cpp:425] conv2_sub_scale_conv2_sub_0_split <- conv2_sub
I0423 12:49:56.514909  8978 net.cpp:399] conv2_sub_scale_conv2_sub_0_split -> conv2_sub_scale_conv2_sub_0_split_0
I0423 12:49:56.514915  8978 net.cpp:399] conv2_sub_scale_conv2_sub_0_split -> conv2_sub_scale_conv2_sub_0_split_1
I0423 12:49:56.514924  8978 net.cpp:399] conv2_sub_scale_conv2_sub_0_split -> conv2_sub_scale_conv2_sub_0_split_2
I0423 12:49:56.514961  8978 net.cpp:141] Setting up conv2_sub_scale_conv2_sub_0_split
I0423 12:49:56.514966  8978 net.cpp:148] Top shape: 256 32 16 16 (2097152)
I0423 12:49:56.514971  8978 net.cpp:148] Top shape: 256 32 16 16 (2097152)
I0423 12:49:56.514976  8978 net.cpp:148] Top shape: 256 32 16 16 (2097152)
I0423 12:49:56.514978  8978 net.cpp:156] Memory required for data: 758123520
I0423 12:49:56.514982  8978 layer_factory.hpp:77] Creating layer conv3_1a
I0423 12:49:56.514992  8978 net.cpp:91] Creating Layer conv3_1a
I0423 12:49:56.514997  8978 net.cpp:425] conv3_1a <- conv2_3_conv2_3_relu_0_split_1
I0423 12:49:56.515002  8978 net.cpp:399] conv3_1a -> conv3_1a
I0423 12:49:56.515856  8978 net.cpp:141] Setting up conv3_1a
I0423 12:49:56.515871  8978 net.cpp:148] Top shape: 256 32 16 16 (2097152)
I0423 12:49:56.515875  8978 net.cpp:156] Memory required for data: 766512128
I0423 12:49:56.515882  8978 layer_factory.hpp:77] Creating layer bn_conv3_1a
I0423 12:49:56.515890  8978 net.cpp:91] Creating Layer bn_conv3_1a
I0423 12:49:56.515895  8978 net.cpp:425] bn_conv3_1a <- conv3_1a
I0423 12:49:56.515902  8978 net.cpp:386] bn_conv3_1a -> conv3_1a (in-place)
I0423 12:49:56.516060  8978 net.cpp:141] Setting up bn_conv3_1a
I0423 12:49:56.516068  8978 net.cpp:148] Top shape: 256 32 16 16 (2097152)
I0423 12:49:56.516072  8978 net.cpp:156] Memory required for data: 774900736
I0423 12:49:56.516078  8978 layer_factory.hpp:77] Creating layer scale_conv3_1a
I0423 12:49:56.516084  8978 net.cpp:91] Creating Layer scale_conv3_1a
I0423 12:49:56.516089  8978 net.cpp:425] scale_conv3_1a <- conv3_1a
I0423 12:49:56.516095  8978 net.cpp:386] scale_conv3_1a -> conv3_1a (in-place)
I0423 12:49:56.516125  8978 layer_factory.hpp:77] Creating layer scale_conv3_1a
I0423 12:49:56.516221  8978 net.cpp:141] Setting up scale_conv3_1a
I0423 12:49:56.516228  8978 net.cpp:148] Top shape: 256 32 16 16 (2097152)
I0423 12:49:56.516232  8978 net.cpp:156] Memory required for data: 783289344
I0423 12:49:56.516247  8978 layer_factory.hpp:77] Creating layer conv3_1a_relu
I0423 12:49:56.516253  8978 net.cpp:91] Creating Layer conv3_1a_relu
I0423 12:49:56.516258  8978 net.cpp:425] conv3_1a_relu <- conv3_1a
I0423 12:49:56.516266  8978 net.cpp:386] conv3_1a_relu -> conv3_1a (in-place)
I0423 12:49:56.516516  8978 net.cpp:141] Setting up conv3_1a_relu
I0423 12:49:56.516530  8978 net.cpp:148] Top shape: 256 32 16 16 (2097152)
I0423 12:49:56.516533  8978 net.cpp:156] Memory required for data: 791677952
I0423 12:49:56.516537  8978 layer_factory.hpp:77] Creating layer conv3_1b
I0423 12:49:56.516549  8978 net.cpp:91] Creating Layer conv3_1b
I0423 12:49:56.516553  8978 net.cpp:425] conv3_1b <- conv3_1a
I0423 12:49:56.516566  8978 net.cpp:399] conv3_1b -> conv3_1b
I0423 12:49:56.518179  8978 net.cpp:141] Setting up conv3_1b
I0423 12:49:56.518194  8978 net.cpp:148] Top shape: 256 32 16 16 (2097152)
I0423 12:49:56.518199  8978 net.cpp:156] Memory required for data: 800066560
I0423 12:49:56.518206  8978 layer_factory.hpp:77] Creating layer bn_conv3_1b
I0423 12:49:56.518215  8978 net.cpp:91] Creating Layer bn_conv3_1b
I0423 12:49:56.518219  8978 net.cpp:425] bn_conv3_1b <- conv3_1b
I0423 12:49:56.518225  8978 net.cpp:386] bn_conv3_1b -> conv3_1b (in-place)
I0423 12:49:56.518393  8978 net.cpp:141] Setting up bn_conv3_1b
I0423 12:49:56.518401  8978 net.cpp:148] Top shape: 256 32 16 16 (2097152)
I0423 12:49:56.518405  8978 net.cpp:156] Memory required for data: 808455168
I0423 12:49:56.518412  8978 layer_factory.hpp:77] Creating layer scale_conv3_1b
I0423 12:49:56.518419  8978 net.cpp:91] Creating Layer scale_conv3_1b
I0423 12:49:56.518424  8978 net.cpp:425] scale_conv3_1b <- conv3_1b
I0423 12:49:56.518429  8978 net.cpp:386] scale_conv3_1b -> conv3_1b (in-place)
I0423 12:49:56.518461  8978 layer_factory.hpp:77] Creating layer scale_conv3_1b
I0423 12:49:56.518558  8978 net.cpp:141] Setting up scale_conv3_1b
I0423 12:49:56.518565  8978 net.cpp:148] Top shape: 256 32 16 16 (2097152)
I0423 12:49:56.518568  8978 net.cpp:156] Memory required for data: 816843776
I0423 12:49:56.518575  8978 layer_factory.hpp:77] Creating layer conv3_1
I0423 12:49:56.518582  8978 net.cpp:91] Creating Layer conv3_1
I0423 12:49:56.518586  8978 net.cpp:425] conv3_1 <- conv3_1b
I0423 12:49:56.518591  8978 net.cpp:425] conv3_1 <- conv2_sub_scale_conv2_sub_0_split_0
I0423 12:49:56.518597  8978 net.cpp:399] conv3_1 -> conv3_1
I0423 12:49:56.518616  8978 net.cpp:141] Setting up conv3_1
I0423 12:49:56.518622  8978 net.cpp:148] Top shape: 256 32 16 16 (2097152)
I0423 12:49:56.518626  8978 net.cpp:156] Memory required for data: 825232384
I0423 12:49:56.518630  8978 layer_factory.hpp:77] Creating layer conv3_1_relu
I0423 12:49:56.518635  8978 net.cpp:91] Creating Layer conv3_1_relu
I0423 12:49:56.518640  8978 net.cpp:425] conv3_1_relu <- conv3_1
I0423 12:49:56.518646  8978 net.cpp:386] conv3_1_relu -> conv3_1 (in-place)
I0423 12:49:56.518795  8978 net.cpp:141] Setting up conv3_1_relu
I0423 12:49:56.518807  8978 net.cpp:148] Top shape: 256 32 16 16 (2097152)
I0423 12:49:56.518811  8978 net.cpp:156] Memory required for data: 833620992
I0423 12:49:56.518815  8978 layer_factory.hpp:77] Creating layer conv3_1_conv3_1_relu_0_split
I0423 12:49:56.518821  8978 net.cpp:91] Creating Layer conv3_1_conv3_1_relu_0_split
I0423 12:49:56.518824  8978 net.cpp:425] conv3_1_conv3_1_relu_0_split <- conv3_1
I0423 12:49:56.518829  8978 net.cpp:399] conv3_1_conv3_1_relu_0_split -> conv3_1_conv3_1_relu_0_split_0
I0423 12:49:56.518841  8978 net.cpp:399] conv3_1_conv3_1_relu_0_split -> conv3_1_conv3_1_relu_0_split_1
I0423 12:49:56.518877  8978 net.cpp:141] Setting up conv3_1_conv3_1_relu_0_split
I0423 12:49:56.518883  8978 net.cpp:148] Top shape: 256 32 16 16 (2097152)
I0423 12:49:56.518888  8978 net.cpp:148] Top shape: 256 32 16 16 (2097152)
I0423 12:49:56.518892  8978 net.cpp:156] Memory required for data: 850398208
I0423 12:49:56.518895  8978 layer_factory.hpp:77] Creating layer conv3_2a
I0423 12:49:56.518906  8978 net.cpp:91] Creating Layer conv3_2a
I0423 12:49:56.518911  8978 net.cpp:425] conv3_2a <- conv3_1_conv3_1_relu_0_split_0
I0423 12:49:56.518918  8978 net.cpp:399] conv3_2a -> conv3_2a
I0423 12:49:56.520020  8978 net.cpp:141] Setting up conv3_2a
I0423 12:49:56.520036  8978 net.cpp:148] Top shape: 256 32 16 16 (2097152)
I0423 12:49:56.520045  8978 net.cpp:156] Memory required for data: 858786816
I0423 12:49:56.520052  8978 layer_factory.hpp:77] Creating layer bn_conv3_2a
I0423 12:49:56.520059  8978 net.cpp:91] Creating Layer bn_conv3_2a
I0423 12:49:56.520063  8978 net.cpp:425] bn_conv3_2a <- conv3_2a
I0423 12:49:56.520071  8978 net.cpp:386] bn_conv3_2a -> conv3_2a (in-place)
I0423 12:49:56.520234  8978 net.cpp:141] Setting up bn_conv3_2a
I0423 12:49:56.520242  8978 net.cpp:148] Top shape: 256 32 16 16 (2097152)
I0423 12:49:56.520246  8978 net.cpp:156] Memory required for data: 867175424
I0423 12:49:56.520253  8978 layer_factory.hpp:77] Creating layer scale_conv3_2a
I0423 12:49:56.520259  8978 net.cpp:91] Creating Layer scale_conv3_2a
I0423 12:49:56.520263  8978 net.cpp:425] scale_conv3_2a <- conv3_2a
I0423 12:49:56.520268  8978 net.cpp:386] scale_conv3_2a -> conv3_2a (in-place)
I0423 12:49:56.520300  8978 layer_factory.hpp:77] Creating layer scale_conv3_2a
I0423 12:49:56.520395  8978 net.cpp:141] Setting up scale_conv3_2a
I0423 12:49:56.520403  8978 net.cpp:148] Top shape: 256 32 16 16 (2097152)
I0423 12:49:56.520406  8978 net.cpp:156] Memory required for data: 875564032
I0423 12:49:56.520413  8978 layer_factory.hpp:77] Creating layer conv3_2a_relu
I0423 12:49:56.520418  8978 net.cpp:91] Creating Layer conv3_2a_relu
I0423 12:49:56.520422  8978 net.cpp:425] conv3_2a_relu <- conv3_2a
I0423 12:49:56.520428  8978 net.cpp:386] conv3_2a_relu -> conv3_2a (in-place)
I0423 12:49:56.520584  8978 net.cpp:141] Setting up conv3_2a_relu
I0423 12:49:56.520594  8978 net.cpp:148] Top shape: 256 32 16 16 (2097152)
I0423 12:49:56.520598  8978 net.cpp:156] Memory required for data: 883952640
I0423 12:49:56.520602  8978 layer_factory.hpp:77] Creating layer conv3_2b
I0423 12:49:56.520614  8978 net.cpp:91] Creating Layer conv3_2b
I0423 12:49:56.520618  8978 net.cpp:425] conv3_2b <- conv3_2a
I0423 12:49:56.520625  8978 net.cpp:399] conv3_2b -> conv3_2b
I0423 12:49:56.521785  8978 net.cpp:141] Setting up conv3_2b
I0423 12:49:56.521800  8978 net.cpp:148] Top shape: 256 32 16 16 (2097152)
I0423 12:49:56.521805  8978 net.cpp:156] Memory required for data: 892341248
I0423 12:49:56.521811  8978 layer_factory.hpp:77] Creating layer bn_conv3_2b
I0423 12:49:56.521819  8978 net.cpp:91] Creating Layer bn_conv3_2b
I0423 12:49:56.521826  8978 net.cpp:425] bn_conv3_2b <- conv3_2b
I0423 12:49:56.521831  8978 net.cpp:386] bn_conv3_2b -> conv3_2b (in-place)
I0423 12:49:56.521997  8978 net.cpp:141] Setting up bn_conv3_2b
I0423 12:49:56.522004  8978 net.cpp:148] Top shape: 256 32 16 16 (2097152)
I0423 12:49:56.522008  8978 net.cpp:156] Memory required for data: 900729856
I0423 12:49:56.522016  8978 layer_factory.hpp:77] Creating layer scale_conv3_2b
I0423 12:49:56.522023  8978 net.cpp:91] Creating Layer scale_conv3_2b
I0423 12:49:56.522027  8978 net.cpp:425] scale_conv3_2b <- conv3_2b
I0423 12:49:56.522032  8978 net.cpp:386] scale_conv3_2b -> conv3_2b (in-place)
I0423 12:49:56.522064  8978 layer_factory.hpp:77] Creating layer scale_conv3_2b
I0423 12:49:56.522164  8978 net.cpp:141] Setting up scale_conv3_2b
I0423 12:49:56.522171  8978 net.cpp:148] Top shape: 256 32 16 16 (2097152)
I0423 12:49:56.522176  8978 net.cpp:156] Memory required for data: 909118464
I0423 12:49:56.522181  8978 layer_factory.hpp:77] Creating layer conv3_2
I0423 12:49:56.522187  8978 net.cpp:91] Creating Layer conv3_2
I0423 12:49:56.522192  8978 net.cpp:425] conv3_2 <- conv3_2b
I0423 12:49:56.522197  8978 net.cpp:425] conv3_2 <- conv2_sub_scale_conv2_sub_0_split_1
I0423 12:49:56.522202  8978 net.cpp:425] conv3_2 <- conv3_1_conv3_1_relu_0_split_1
I0423 12:49:56.522207  8978 net.cpp:399] conv3_2 -> conv3_2
I0423 12:49:56.522227  8978 net.cpp:141] Setting up conv3_2
I0423 12:49:56.522234  8978 net.cpp:148] Top shape: 256 32 16 16 (2097152)
I0423 12:49:56.522238  8978 net.cpp:156] Memory required for data: 917507072
I0423 12:49:56.522243  8978 layer_factory.hpp:77] Creating layer conv3_2_relu
I0423 12:49:56.522248  8978 net.cpp:91] Creating Layer conv3_2_relu
I0423 12:49:56.522255  8978 net.cpp:425] conv3_2_relu <- conv3_2
I0423 12:49:56.522260  8978 net.cpp:386] conv3_2_relu -> conv3_2 (in-place)
I0423 12:49:56.522511  8978 net.cpp:141] Setting up conv3_2_relu
I0423 12:49:56.522526  8978 net.cpp:148] Top shape: 256 32 16 16 (2097152)
I0423 12:49:56.522529  8978 net.cpp:156] Memory required for data: 925895680
I0423 12:49:56.522533  8978 layer_factory.hpp:77] Creating layer conv3_2_conv3_2_relu_0_split
I0423 12:49:56.522541  8978 net.cpp:91] Creating Layer conv3_2_conv3_2_relu_0_split
I0423 12:49:56.522544  8978 net.cpp:425] conv3_2_conv3_2_relu_0_split <- conv3_2
I0423 12:49:56.522549  8978 net.cpp:399] conv3_2_conv3_2_relu_0_split -> conv3_2_conv3_2_relu_0_split_0
I0423 12:49:56.522557  8978 net.cpp:399] conv3_2_conv3_2_relu_0_split -> conv3_2_conv3_2_relu_0_split_1
I0423 12:49:56.522598  8978 net.cpp:141] Setting up conv3_2_conv3_2_relu_0_split
I0423 12:49:56.522605  8978 net.cpp:148] Top shape: 256 32 16 16 (2097152)
I0423 12:49:56.522609  8978 net.cpp:148] Top shape: 256 32 16 16 (2097152)
I0423 12:49:56.522614  8978 net.cpp:156] Memory required for data: 942672896
I0423 12:49:56.522616  8978 layer_factory.hpp:77] Creating layer conv3_3a
I0423 12:49:56.522626  8978 net.cpp:91] Creating Layer conv3_3a
I0423 12:49:56.522631  8978 net.cpp:425] conv3_3a <- conv3_2_conv3_2_relu_0_split_0
I0423 12:49:56.522639  8978 net.cpp:399] conv3_3a -> conv3_3a
I0423 12:49:56.523751  8978 net.cpp:141] Setting up conv3_3a
I0423 12:49:56.523764  8978 net.cpp:148] Top shape: 256 32 16 16 (2097152)
I0423 12:49:56.523768  8978 net.cpp:156] Memory required for data: 951061504
I0423 12:49:56.523775  8978 layer_factory.hpp:77] Creating layer bn_conv3_3a
I0423 12:49:56.523784  8978 net.cpp:91] Creating Layer bn_conv3_3a
I0423 12:49:56.523788  8978 net.cpp:425] bn_conv3_3a <- conv3_3a
I0423 12:49:56.523794  8978 net.cpp:386] bn_conv3_3a -> conv3_3a (in-place)
I0423 12:49:56.523962  8978 net.cpp:141] Setting up bn_conv3_3a
I0423 12:49:56.523970  8978 net.cpp:148] Top shape: 256 32 16 16 (2097152)
I0423 12:49:56.523974  8978 net.cpp:156] Memory required for data: 959450112
I0423 12:49:56.523983  8978 layer_factory.hpp:77] Creating layer scale_conv3_3a
I0423 12:49:56.523993  8978 net.cpp:91] Creating Layer scale_conv3_3a
I0423 12:49:56.523996  8978 net.cpp:425] scale_conv3_3a <- conv3_3a
I0423 12:49:56.524004  8978 net.cpp:386] scale_conv3_3a -> conv3_3a (in-place)
I0423 12:49:56.524039  8978 layer_factory.hpp:77] Creating layer scale_conv3_3a
I0423 12:49:56.524135  8978 net.cpp:141] Setting up scale_conv3_3a
I0423 12:49:56.524143  8978 net.cpp:148] Top shape: 256 32 16 16 (2097152)
I0423 12:49:56.524147  8978 net.cpp:156] Memory required for data: 967838720
I0423 12:49:56.524153  8978 layer_factory.hpp:77] Creating layer conv3_3a_relu
I0423 12:49:56.524161  8978 net.cpp:91] Creating Layer conv3_3a_relu
I0423 12:49:56.524164  8978 net.cpp:425] conv3_3a_relu <- conv3_3a
I0423 12:49:56.524169  8978 net.cpp:386] conv3_3a_relu -> conv3_3a (in-place)
I0423 12:49:56.524318  8978 net.cpp:141] Setting up conv3_3a_relu
I0423 12:49:56.524330  8978 net.cpp:148] Top shape: 256 32 16 16 (2097152)
I0423 12:49:56.524334  8978 net.cpp:156] Memory required for data: 976227328
I0423 12:49:56.524338  8978 layer_factory.hpp:77] Creating layer conv3_3b
I0423 12:49:56.524348  8978 net.cpp:91] Creating Layer conv3_3b
I0423 12:49:56.524353  8978 net.cpp:425] conv3_3b <- conv3_3a
I0423 12:49:56.524359  8978 net.cpp:399] conv3_3b -> conv3_3b
I0423 12:49:56.525527  8978 net.cpp:141] Setting up conv3_3b
I0423 12:49:56.525542  8978 net.cpp:148] Top shape: 256 32 16 16 (2097152)
I0423 12:49:56.525547  8978 net.cpp:156] Memory required for data: 984615936
I0423 12:49:56.525553  8978 layer_factory.hpp:77] Creating layer bn_conv3_3b
I0423 12:49:56.525563  8978 net.cpp:91] Creating Layer bn_conv3_3b
I0423 12:49:56.525566  8978 net.cpp:425] bn_conv3_3b <- conv3_3b
I0423 12:49:56.525573  8978 net.cpp:386] bn_conv3_3b -> conv3_3b (in-place)
I0423 12:49:56.525738  8978 net.cpp:141] Setting up bn_conv3_3b
I0423 12:49:56.525746  8978 net.cpp:148] Top shape: 256 32 16 16 (2097152)
I0423 12:49:56.525754  8978 net.cpp:156] Memory required for data: 993004544
I0423 12:49:56.525763  8978 layer_factory.hpp:77] Creating layer scale_conv3_3b
I0423 12:49:56.525770  8978 net.cpp:91] Creating Layer scale_conv3_3b
I0423 12:49:56.525774  8978 net.cpp:425] scale_conv3_3b <- conv3_3b
I0423 12:49:56.525779  8978 net.cpp:386] scale_conv3_3b -> conv3_3b (in-place)
I0423 12:49:56.525815  8978 layer_factory.hpp:77] Creating layer scale_conv3_3b
I0423 12:49:56.525914  8978 net.cpp:141] Setting up scale_conv3_3b
I0423 12:49:56.525921  8978 net.cpp:148] Top shape: 256 32 16 16 (2097152)
I0423 12:49:56.525925  8978 net.cpp:156] Memory required for data: 1001393152
I0423 12:49:56.525931  8978 layer_factory.hpp:77] Creating layer conv3_3
I0423 12:49:56.525938  8978 net.cpp:91] Creating Layer conv3_3
I0423 12:49:56.525943  8978 net.cpp:425] conv3_3 <- conv3_3b
I0423 12:49:56.525948  8978 net.cpp:425] conv3_3 <- conv2_sub_scale_conv2_sub_0_split_2
I0423 12:49:56.525952  8978 net.cpp:425] conv3_3 <- conv3_2_conv3_2_relu_0_split_1
I0423 12:49:56.525957  8978 net.cpp:399] conv3_3 -> conv3_3
I0423 12:49:56.525979  8978 net.cpp:141] Setting up conv3_3
I0423 12:49:56.525985  8978 net.cpp:148] Top shape: 256 32 16 16 (2097152)
I0423 12:49:56.525988  8978 net.cpp:156] Memory required for data: 1009781760
I0423 12:49:56.525992  8978 layer_factory.hpp:77] Creating layer conv3_3_relu
I0423 12:49:56.525997  8978 net.cpp:91] Creating Layer conv3_3_relu
I0423 12:49:56.526001  8978 net.cpp:425] conv3_3_relu <- conv3_3
I0423 12:49:56.526006  8978 net.cpp:386] conv3_3_relu -> conv3_3 (in-place)
I0423 12:49:56.526160  8978 net.cpp:141] Setting up conv3_3_relu
I0423 12:49:56.526170  8978 net.cpp:148] Top shape: 256 32 16 16 (2097152)
I0423 12:49:56.526173  8978 net.cpp:156] Memory required for data: 1018170368
I0423 12:49:56.526178  8978 layer_factory.hpp:77] Creating layer conv3_3_conv3_3_relu_0_split
I0423 12:49:56.526185  8978 net.cpp:91] Creating Layer conv3_3_conv3_3_relu_0_split
I0423 12:49:56.526190  8978 net.cpp:425] conv3_3_conv3_3_relu_0_split <- conv3_3
I0423 12:49:56.526195  8978 net.cpp:399] conv3_3_conv3_3_relu_0_split -> conv3_3_conv3_3_relu_0_split_0
I0423 12:49:56.526201  8978 net.cpp:399] conv3_3_conv3_3_relu_0_split -> conv3_3_conv3_3_relu_0_split_1
I0423 12:49:56.526240  8978 net.cpp:141] Setting up conv3_3_conv3_3_relu_0_split
I0423 12:49:56.526247  8978 net.cpp:148] Top shape: 256 32 16 16 (2097152)
I0423 12:49:56.526252  8978 net.cpp:148] Top shape: 256 32 16 16 (2097152)
I0423 12:49:56.526255  8978 net.cpp:156] Memory required for data: 1034947584
I0423 12:49:56.526258  8978 layer_factory.hpp:77] Creating layer conv3_sub
I0423 12:49:56.526269  8978 net.cpp:91] Creating Layer conv3_sub
I0423 12:49:56.526273  8978 net.cpp:425] conv3_sub <- conv3_3_conv3_3_relu_0_split_0
I0423 12:49:56.526280  8978 net.cpp:399] conv3_sub -> conv3_sub
I0423 12:49:56.527360  8978 net.cpp:141] Setting up conv3_sub
I0423 12:49:56.527374  8978 net.cpp:148] Top shape: 256 64 8 8 (1048576)
I0423 12:49:56.527379  8978 net.cpp:156] Memory required for data: 1039141888
I0423 12:49:56.527385  8978 layer_factory.hpp:77] Creating layer bn_conv3_sub
I0423 12:49:56.527392  8978 net.cpp:91] Creating Layer bn_conv3_sub
I0423 12:49:56.527397  8978 net.cpp:425] bn_conv3_sub <- conv3_sub
I0423 12:49:56.527405  8978 net.cpp:386] bn_conv3_sub -> conv3_sub (in-place)
I0423 12:49:56.527576  8978 net.cpp:141] Setting up bn_conv3_sub
I0423 12:49:56.527585  8978 net.cpp:148] Top shape: 256 64 8 8 (1048576)
I0423 12:49:56.527587  8978 net.cpp:156] Memory required for data: 1043336192
I0423 12:49:56.527595  8978 layer_factory.hpp:77] Creating layer scale_conv3_sub
I0423 12:49:56.527601  8978 net.cpp:91] Creating Layer scale_conv3_sub
I0423 12:49:56.527606  8978 net.cpp:425] scale_conv3_sub <- conv3_sub
I0423 12:49:56.527612  8978 net.cpp:386] scale_conv3_sub -> conv3_sub (in-place)
I0423 12:49:56.527644  8978 layer_factory.hpp:77] Creating layer scale_conv3_sub
I0423 12:49:56.527750  8978 net.cpp:141] Setting up scale_conv3_sub
I0423 12:49:56.527761  8978 net.cpp:148] Top shape: 256 64 8 8 (1048576)
I0423 12:49:56.527765  8978 net.cpp:156] Memory required for data: 1047530496
I0423 12:49:56.527772  8978 layer_factory.hpp:77] Creating layer conv3_sub_scale_conv3_sub_0_split
I0423 12:49:56.527778  8978 net.cpp:91] Creating Layer conv3_sub_scale_conv3_sub_0_split
I0423 12:49:56.527781  8978 net.cpp:425] conv3_sub_scale_conv3_sub_0_split <- conv3_sub
I0423 12:49:56.527788  8978 net.cpp:399] conv3_sub_scale_conv3_sub_0_split -> conv3_sub_scale_conv3_sub_0_split_0
I0423 12:49:56.527796  8978 net.cpp:399] conv3_sub_scale_conv3_sub_0_split -> conv3_sub_scale_conv3_sub_0_split_1
I0423 12:49:56.527802  8978 net.cpp:399] conv3_sub_scale_conv3_sub_0_split -> conv3_sub_scale_conv3_sub_0_split_2
I0423 12:49:56.527843  8978 net.cpp:141] Setting up conv3_sub_scale_conv3_sub_0_split
I0423 12:49:56.527849  8978 net.cpp:148] Top shape: 256 64 8 8 (1048576)
I0423 12:49:56.527854  8978 net.cpp:148] Top shape: 256 64 8 8 (1048576)
I0423 12:49:56.527858  8978 net.cpp:148] Top shape: 256 64 8 8 (1048576)
I0423 12:49:56.527861  8978 net.cpp:156] Memory required for data: 1060113408
I0423 12:49:56.527865  8978 layer_factory.hpp:77] Creating layer conv4_1a
I0423 12:49:56.527874  8978 net.cpp:91] Creating Layer conv4_1a
I0423 12:49:56.527878  8978 net.cpp:425] conv4_1a <- conv3_3_conv3_3_relu_0_split_1
I0423 12:49:56.527886  8978 net.cpp:399] conv4_1a -> conv4_1a
I0423 12:49:56.528815  8978 net.cpp:141] Setting up conv4_1a
I0423 12:49:56.528830  8978 net.cpp:148] Top shape: 256 64 8 8 (1048576)
I0423 12:49:56.528833  8978 net.cpp:156] Memory required for data: 1064307712
I0423 12:49:56.528841  8978 layer_factory.hpp:77] Creating layer bn_conv4_1a
I0423 12:49:56.528849  8978 net.cpp:91] Creating Layer bn_conv4_1a
I0423 12:49:56.528854  8978 net.cpp:425] bn_conv4_1a <- conv4_1a
I0423 12:49:56.528861  8978 net.cpp:386] bn_conv4_1a -> conv4_1a (in-place)
I0423 12:49:56.529038  8978 net.cpp:141] Setting up bn_conv4_1a
I0423 12:49:56.529047  8978 net.cpp:148] Top shape: 256 64 8 8 (1048576)
I0423 12:49:56.529052  8978 net.cpp:156] Memory required for data: 1068502016
I0423 12:49:56.529058  8978 layer_factory.hpp:77] Creating layer scale_conv4_1a
I0423 12:49:56.529067  8978 net.cpp:91] Creating Layer scale_conv4_1a
I0423 12:49:56.529070  8978 net.cpp:425] scale_conv4_1a <- conv4_1a
I0423 12:49:56.529077  8978 net.cpp:386] scale_conv4_1a -> conv4_1a (in-place)
I0423 12:49:56.529116  8978 layer_factory.hpp:77] Creating layer scale_conv4_1a
I0423 12:49:56.529243  8978 net.cpp:141] Setting up scale_conv4_1a
I0423 12:49:56.529252  8978 net.cpp:148] Top shape: 256 64 8 8 (1048576)
I0423 12:49:56.529255  8978 net.cpp:156] Memory required for data: 1072696320
I0423 12:49:56.529261  8978 layer_factory.hpp:77] Creating layer conv4_1a_relu
I0423 12:49:56.529270  8978 net.cpp:91] Creating Layer conv4_1a_relu
I0423 12:49:56.529274  8978 net.cpp:425] conv4_1a_relu <- conv4_1a
I0423 12:49:56.529279  8978 net.cpp:386] conv4_1a_relu -> conv4_1a (in-place)
I0423 12:49:56.529548  8978 net.cpp:141] Setting up conv4_1a_relu
I0423 12:49:56.529561  8978 net.cpp:148] Top shape: 256 64 8 8 (1048576)
I0423 12:49:56.529566  8978 net.cpp:156] Memory required for data: 1076890624
I0423 12:49:56.529569  8978 layer_factory.hpp:77] Creating layer conv4_1b
I0423 12:49:56.529582  8978 net.cpp:91] Creating Layer conv4_1b
I0423 12:49:56.529587  8978 net.cpp:425] conv4_1b <- conv4_1a
I0423 12:49:56.529593  8978 net.cpp:399] conv4_1b -> conv4_1b
I0423 12:49:56.531813  8978 net.cpp:141] Setting up conv4_1b
I0423 12:49:56.531828  8978 net.cpp:148] Top shape: 256 64 8 8 (1048576)
I0423 12:49:56.531832  8978 net.cpp:156] Memory required for data: 1081084928
I0423 12:49:56.531839  8978 layer_factory.hpp:77] Creating layer bn_conv4_1b
I0423 12:49:56.531850  8978 net.cpp:91] Creating Layer bn_conv4_1b
I0423 12:49:56.531855  8978 net.cpp:425] bn_conv4_1b <- conv4_1b
I0423 12:49:56.531862  8978 net.cpp:386] bn_conv4_1b -> conv4_1b (in-place)
I0423 12:49:56.532038  8978 net.cpp:141] Setting up bn_conv4_1b
I0423 12:49:56.532047  8978 net.cpp:148] Top shape: 256 64 8 8 (1048576)
I0423 12:49:56.532053  8978 net.cpp:156] Memory required for data: 1085279232
I0423 12:49:56.532061  8978 layer_factory.hpp:77] Creating layer scale_conv4_1b
I0423 12:49:56.532068  8978 net.cpp:91] Creating Layer scale_conv4_1b
I0423 12:49:56.532073  8978 net.cpp:425] scale_conv4_1b <- conv4_1b
I0423 12:49:56.532078  8978 net.cpp:386] scale_conv4_1b -> conv4_1b (in-place)
I0423 12:49:56.532115  8978 layer_factory.hpp:77] Creating layer scale_conv4_1b
I0423 12:49:56.532218  8978 net.cpp:141] Setting up scale_conv4_1b
I0423 12:49:56.532227  8978 net.cpp:148] Top shape: 256 64 8 8 (1048576)
I0423 12:49:56.532232  8978 net.cpp:156] Memory required for data: 1089473536
I0423 12:49:56.532238  8978 layer_factory.hpp:77] Creating layer conv4_1
I0423 12:49:56.532243  8978 net.cpp:91] Creating Layer conv4_1
I0423 12:49:56.532248  8978 net.cpp:425] conv4_1 <- conv3_sub_scale_conv3_sub_0_split_0
I0423 12:49:56.532253  8978 net.cpp:425] conv4_1 <- conv4_1b
I0423 12:49:56.532258  8978 net.cpp:399] conv4_1 -> conv4_1
I0423 12:49:56.532279  8978 net.cpp:141] Setting up conv4_1
I0423 12:49:56.532285  8978 net.cpp:148] Top shape: 256 64 8 8 (1048576)
I0423 12:49:56.532289  8978 net.cpp:156] Memory required for data: 1093667840
I0423 12:49:56.532292  8978 layer_factory.hpp:77] Creating layer conv4_1_relu
I0423 12:49:56.532297  8978 net.cpp:91] Creating Layer conv4_1_relu
I0423 12:49:56.532301  8978 net.cpp:425] conv4_1_relu <- conv4_1
I0423 12:49:56.532307  8978 net.cpp:386] conv4_1_relu -> conv4_1 (in-place)
I0423 12:49:56.532563  8978 net.cpp:141] Setting up conv4_1_relu
I0423 12:49:56.532577  8978 net.cpp:148] Top shape: 256 64 8 8 (1048576)
I0423 12:49:56.532580  8978 net.cpp:156] Memory required for data: 1097862144
I0423 12:49:56.532584  8978 layer_factory.hpp:77] Creating layer conv4_1_conv4_1_relu_0_split
I0423 12:49:56.532590  8978 net.cpp:91] Creating Layer conv4_1_conv4_1_relu_0_split
I0423 12:49:56.532595  8978 net.cpp:425] conv4_1_conv4_1_relu_0_split <- conv4_1
I0423 12:49:56.532603  8978 net.cpp:399] conv4_1_conv4_1_relu_0_split -> conv4_1_conv4_1_relu_0_split_0
I0423 12:49:56.532609  8978 net.cpp:399] conv4_1_conv4_1_relu_0_split -> conv4_1_conv4_1_relu_0_split_1
I0423 12:49:56.532649  8978 net.cpp:141] Setting up conv4_1_conv4_1_relu_0_split
I0423 12:49:56.532657  8978 net.cpp:148] Top shape: 256 64 8 8 (1048576)
I0423 12:49:56.532662  8978 net.cpp:148] Top shape: 256 64 8 8 (1048576)
I0423 12:49:56.532665  8978 net.cpp:156] Memory required for data: 1106250752
I0423 12:49:56.532670  8978 layer_factory.hpp:77] Creating layer conv4_2a
I0423 12:49:56.532680  8978 net.cpp:91] Creating Layer conv4_2a
I0423 12:49:56.532685  8978 net.cpp:425] conv4_2a <- conv4_1_conv4_1_relu_0_split_0
I0423 12:49:56.532691  8978 net.cpp:399] conv4_2a -> conv4_2a
I0423 12:49:56.534610  8978 net.cpp:141] Setting up conv4_2a
I0423 12:49:56.534626  8978 net.cpp:148] Top shape: 256 64 8 8 (1048576)
I0423 12:49:56.534629  8978 net.cpp:156] Memory required for data: 1110445056
I0423 12:49:56.534636  8978 layer_factory.hpp:77] Creating layer bn_conv4_2a
I0423 12:49:56.534646  8978 net.cpp:91] Creating Layer bn_conv4_2a
I0423 12:49:56.534651  8978 net.cpp:425] bn_conv4_2a <- conv4_2a
I0423 12:49:56.534659  8978 net.cpp:386] bn_conv4_2a -> conv4_2a (in-place)
I0423 12:49:56.534839  8978 net.cpp:141] Setting up bn_conv4_2a
I0423 12:49:56.534847  8978 net.cpp:148] Top shape: 256 64 8 8 (1048576)
I0423 12:49:56.534850  8978 net.cpp:156] Memory required for data: 1114639360
I0423 12:49:56.534857  8978 layer_factory.hpp:77] Creating layer scale_conv4_2a
I0423 12:49:56.534864  8978 net.cpp:91] Creating Layer scale_conv4_2a
I0423 12:49:56.534868  8978 net.cpp:425] scale_conv4_2a <- conv4_2a
I0423 12:49:56.534873  8978 net.cpp:386] scale_conv4_2a -> conv4_2a (in-place)
I0423 12:49:56.534909  8978 layer_factory.hpp:77] Creating layer scale_conv4_2a
I0423 12:49:56.535017  8978 net.cpp:141] Setting up scale_conv4_2a
I0423 12:49:56.535024  8978 net.cpp:148] Top shape: 256 64 8 8 (1048576)
I0423 12:49:56.535027  8978 net.cpp:156] Memory required for data: 1118833664
I0423 12:49:56.535039  8978 layer_factory.hpp:77] Creating layer conv4_2a_relu
I0423 12:49:56.535045  8978 net.cpp:91] Creating Layer conv4_2a_relu
I0423 12:49:56.535049  8978 net.cpp:425] conv4_2a_relu <- conv4_2a
I0423 12:49:56.535055  8978 net.cpp:386] conv4_2a_relu -> conv4_2a (in-place)
I0423 12:49:56.535212  8978 net.cpp:141] Setting up conv4_2a_relu
I0423 12:49:56.535223  8978 net.cpp:148] Top shape: 256 64 8 8 (1048576)
I0423 12:49:56.535228  8978 net.cpp:156] Memory required for data: 1123027968
I0423 12:49:56.535231  8978 layer_factory.hpp:77] Creating layer conv4_2b
I0423 12:49:56.535243  8978 net.cpp:91] Creating Layer conv4_2b
I0423 12:49:56.535248  8978 net.cpp:425] conv4_2b <- conv4_2a
I0423 12:49:56.535254  8978 net.cpp:399] conv4_2b -> conv4_2b
I0423 12:49:56.537181  8978 net.cpp:141] Setting up conv4_2b
I0423 12:49:56.537196  8978 net.cpp:148] Top shape: 256 64 8 8 (1048576)
I0423 12:49:56.537201  8978 net.cpp:156] Memory required for data: 1127222272
I0423 12:49:56.537230  8978 layer_factory.hpp:77] Creating layer bn_conv4_2b
I0423 12:49:56.537237  8978 net.cpp:91] Creating Layer bn_conv4_2b
I0423 12:49:56.537242  8978 net.cpp:425] bn_conv4_2b <- conv4_2b
I0423 12:49:56.537250  8978 net.cpp:386] bn_conv4_2b -> conv4_2b (in-place)
I0423 12:49:56.537453  8978 net.cpp:141] Setting up bn_conv4_2b
I0423 12:49:56.537461  8978 net.cpp:148] Top shape: 256 64 8 8 (1048576)
I0423 12:49:56.537464  8978 net.cpp:156] Memory required for data: 1131416576
I0423 12:49:56.537473  8978 layer_factory.hpp:77] Creating layer scale_conv4_2b
I0423 12:49:56.537479  8978 net.cpp:91] Creating Layer scale_conv4_2b
I0423 12:49:56.537483  8978 net.cpp:425] scale_conv4_2b <- conv4_2b
I0423 12:49:56.537489  8978 net.cpp:386] scale_conv4_2b -> conv4_2b (in-place)
I0423 12:49:56.537524  8978 layer_factory.hpp:77] Creating layer scale_conv4_2b
I0423 12:49:56.537633  8978 net.cpp:141] Setting up scale_conv4_2b
I0423 12:49:56.537642  8978 net.cpp:148] Top shape: 256 64 8 8 (1048576)
I0423 12:49:56.537644  8978 net.cpp:156] Memory required for data: 1135610880
I0423 12:49:56.537652  8978 layer_factory.hpp:77] Creating layer conv4_2
I0423 12:49:56.537657  8978 net.cpp:91] Creating Layer conv4_2
I0423 12:49:56.537660  8978 net.cpp:425] conv4_2 <- conv4_1_conv4_1_relu_0_split_1
I0423 12:49:56.537665  8978 net.cpp:425] conv4_2 <- conv3_sub_scale_conv3_sub_0_split_1
I0423 12:49:56.537669  8978 net.cpp:425] conv4_2 <- conv4_2b
I0423 12:49:56.537677  8978 net.cpp:399] conv4_2 -> conv4_2
I0423 12:49:56.537696  8978 net.cpp:141] Setting up conv4_2
I0423 12:49:56.537703  8978 net.cpp:148] Top shape: 256 64 8 8 (1048576)
I0423 12:49:56.537706  8978 net.cpp:156] Memory required for data: 1139805184
I0423 12:49:56.537709  8978 layer_factory.hpp:77] Creating layer conv4_2_relu
I0423 12:49:56.537714  8978 net.cpp:91] Creating Layer conv4_2_relu
I0423 12:49:56.537719  8978 net.cpp:425] conv4_2_relu <- conv4_2
I0423 12:49:56.537725  8978 net.cpp:386] conv4_2_relu -> conv4_2 (in-place)
I0423 12:49:56.537977  8978 net.cpp:141] Setting up conv4_2_relu
I0423 12:49:56.537991  8978 net.cpp:148] Top shape: 256 64 8 8 (1048576)
I0423 12:49:56.537994  8978 net.cpp:156] Memory required for data: 1143999488
I0423 12:49:56.537998  8978 layer_factory.hpp:77] Creating layer conv4_2_conv4_2_relu_0_split
I0423 12:49:56.538004  8978 net.cpp:91] Creating Layer conv4_2_conv4_2_relu_0_split
I0423 12:49:56.538008  8978 net.cpp:425] conv4_2_conv4_2_relu_0_split <- conv4_2
I0423 12:49:56.538017  8978 net.cpp:399] conv4_2_conv4_2_relu_0_split -> conv4_2_conv4_2_relu_0_split_0
I0423 12:49:56.538023  8978 net.cpp:399] conv4_2_conv4_2_relu_0_split -> conv4_2_conv4_2_relu_0_split_1
I0423 12:49:56.538066  8978 net.cpp:141] Setting up conv4_2_conv4_2_relu_0_split
I0423 12:49:56.538074  8978 net.cpp:148] Top shape: 256 64 8 8 (1048576)
I0423 12:49:56.538077  8978 net.cpp:148] Top shape: 256 64 8 8 (1048576)
I0423 12:49:56.538081  8978 net.cpp:156] Memory required for data: 1152388096
I0423 12:49:56.538085  8978 layer_factory.hpp:77] Creating layer conv4_3a
I0423 12:49:56.538100  8978 net.cpp:91] Creating Layer conv4_3a
I0423 12:49:56.538105  8978 net.cpp:425] conv4_3a <- conv4_2_conv4_2_relu_0_split_0
I0423 12:49:56.538112  8978 net.cpp:399] conv4_3a -> conv4_3a
I0423 12:49:56.539887  8978 net.cpp:141] Setting up conv4_3a
I0423 12:49:56.539901  8978 net.cpp:148] Top shape: 256 64 8 8 (1048576)
I0423 12:49:56.539906  8978 net.cpp:156] Memory required for data: 1156582400
I0423 12:49:56.539912  8978 layer_factory.hpp:77] Creating layer bn_conv4_3a
I0423 12:49:56.539923  8978 net.cpp:91] Creating Layer bn_conv4_3a
I0423 12:49:56.539927  8978 net.cpp:425] bn_conv4_3a <- conv4_3a
I0423 12:49:56.539933  8978 net.cpp:386] bn_conv4_3a -> conv4_3a (in-place)
I0423 12:49:56.540117  8978 net.cpp:141] Setting up bn_conv4_3a
I0423 12:49:56.540125  8978 net.cpp:148] Top shape: 256 64 8 8 (1048576)
I0423 12:49:56.540129  8978 net.cpp:156] Memory required for data: 1160776704
I0423 12:49:56.540137  8978 layer_factory.hpp:77] Creating layer scale_conv4_3a
I0423 12:49:56.540143  8978 net.cpp:91] Creating Layer scale_conv4_3a
I0423 12:49:56.540146  8978 net.cpp:425] scale_conv4_3a <- conv4_3a
I0423 12:49:56.540151  8978 net.cpp:386] scale_conv4_3a -> conv4_3a (in-place)
I0423 12:49:56.540187  8978 layer_factory.hpp:77] Creating layer scale_conv4_3a
I0423 12:49:56.540293  8978 net.cpp:141] Setting up scale_conv4_3a
I0423 12:49:56.540302  8978 net.cpp:148] Top shape: 256 64 8 8 (1048576)
I0423 12:49:56.540305  8978 net.cpp:156] Memory required for data: 1164971008
I0423 12:49:56.540312  8978 layer_factory.hpp:77] Creating layer conv4_3a_relu
I0423 12:49:56.540316  8978 net.cpp:91] Creating Layer conv4_3a_relu
I0423 12:49:56.540320  8978 net.cpp:425] conv4_3a_relu <- conv4_3a
I0423 12:49:56.540326  8978 net.cpp:386] conv4_3a_relu -> conv4_3a (in-place)
I0423 12:49:56.540580  8978 net.cpp:141] Setting up conv4_3a_relu
I0423 12:49:56.540592  8978 net.cpp:148] Top shape: 256 64 8 8 (1048576)
I0423 12:49:56.540596  8978 net.cpp:156] Memory required for data: 1169165312
I0423 12:49:56.540601  8978 layer_factory.hpp:77] Creating layer conv4_3b
I0423 12:49:56.540611  8978 net.cpp:91] Creating Layer conv4_3b
I0423 12:49:56.540616  8978 net.cpp:425] conv4_3b <- conv4_3a
I0423 12:49:56.540624  8978 net.cpp:399] conv4_3b -> conv4_3b
I0423 12:49:56.542587  8978 net.cpp:141] Setting up conv4_3b
I0423 12:49:56.542603  8978 net.cpp:148] Top shape: 256 64 8 8 (1048576)
I0423 12:49:56.542608  8978 net.cpp:156] Memory required for data: 1173359616
I0423 12:49:56.542614  8978 layer_factory.hpp:77] Creating layer bn_conv4_3b
I0423 12:49:56.542621  8978 net.cpp:91] Creating Layer bn_conv4_3b
I0423 12:49:56.542625  8978 net.cpp:425] bn_conv4_3b <- conv4_3b
I0423 12:49:56.542632  8978 net.cpp:386] bn_conv4_3b -> conv4_3b (in-place)
I0423 12:49:56.542811  8978 net.cpp:141] Setting up bn_conv4_3b
I0423 12:49:56.542819  8978 net.cpp:148] Top shape: 256 64 8 8 (1048576)
I0423 12:49:56.542824  8978 net.cpp:156] Memory required for data: 1177553920
I0423 12:49:56.542830  8978 layer_factory.hpp:77] Creating layer scale_conv4_3b
I0423 12:49:56.542836  8978 net.cpp:91] Creating Layer scale_conv4_3b
I0423 12:49:56.542840  8978 net.cpp:425] scale_conv4_3b <- conv4_3b
I0423 12:49:56.542846  8978 net.cpp:386] scale_conv4_3b -> conv4_3b (in-place)
I0423 12:49:56.542881  8978 layer_factory.hpp:77] Creating layer scale_conv4_3b
I0423 12:49:56.542986  8978 net.cpp:141] Setting up scale_conv4_3b
I0423 12:49:56.542994  8978 net.cpp:148] Top shape: 256 64 8 8 (1048576)
I0423 12:49:56.542999  8978 net.cpp:156] Memory required for data: 1181748224
I0423 12:49:56.543004  8978 layer_factory.hpp:77] Creating layer conv4_3
I0423 12:49:56.543010  8978 net.cpp:91] Creating Layer conv4_3
I0423 12:49:56.543015  8978 net.cpp:425] conv4_3 <- conv4_2_conv4_2_relu_0_split_1
I0423 12:49:56.543020  8978 net.cpp:425] conv4_3 <- conv3_sub_scale_conv3_sub_0_split_2
I0423 12:49:56.543023  8978 net.cpp:425] conv4_3 <- conv4_3b
I0423 12:49:56.543030  8978 net.cpp:399] conv4_3 -> conv4_3
I0423 12:49:56.543051  8978 net.cpp:141] Setting up conv4_3
I0423 12:49:56.543062  8978 net.cpp:148] Top shape: 256 64 8 8 (1048576)
I0423 12:49:56.543066  8978 net.cpp:156] Memory required for data: 1185942528
I0423 12:49:56.543071  8978 layer_factory.hpp:77] Creating layer conv4_3_relu
I0423 12:49:56.543076  8978 net.cpp:91] Creating Layer conv4_3_relu
I0423 12:49:56.543081  8978 net.cpp:425] conv4_3_relu <- conv4_3
I0423 12:49:56.543086  8978 net.cpp:386] conv4_3_relu -> conv4_3 (in-place)
I0423 12:49:56.543242  8978 net.cpp:141] Setting up conv4_3_relu
I0423 12:49:56.543253  8978 net.cpp:148] Top shape: 256 64 8 8 (1048576)
I0423 12:49:56.543257  8978 net.cpp:156] Memory required for data: 1190136832
I0423 12:49:56.543262  8978 layer_factory.hpp:77] Creating layer global_pool
I0423 12:49:56.543268  8978 net.cpp:91] Creating Layer global_pool
I0423 12:49:56.543272  8978 net.cpp:425] global_pool <- conv4_3
I0423 12:49:56.543279  8978 net.cpp:399] global_pool -> global_pool
I0423 12:49:56.543560  8978 net.cpp:141] Setting up global_pool
I0423 12:49:56.543573  8978 net.cpp:148] Top shape: 256 64 1 1 (16384)
I0423 12:49:56.543577  8978 net.cpp:156] Memory required for data: 1190202368
I0423 12:49:56.543582  8978 layer_factory.hpp:77] Creating layer ip
I0423 12:49:56.543591  8978 net.cpp:91] Creating Layer ip
I0423 12:49:56.543596  8978 net.cpp:425] ip <- global_pool
I0423 12:49:56.543601  8978 net.cpp:399] ip -> ip
I0423 12:49:56.543746  8978 net.cpp:141] Setting up ip
I0423 12:49:56.543754  8978 net.cpp:148] Top shape: 256 10 (2560)
I0423 12:49:56.543758  8978 net.cpp:156] Memory required for data: 1190212608
I0423 12:49:56.543766  8978 layer_factory.hpp:77] Creating layer ip_ip_0_split
I0423 12:49:56.543772  8978 net.cpp:91] Creating Layer ip_ip_0_split
I0423 12:49:56.543776  8978 net.cpp:425] ip_ip_0_split <- ip
I0423 12:49:56.543784  8978 net.cpp:399] ip_ip_0_split -> ip_ip_0_split_0
I0423 12:49:56.543792  8978 net.cpp:399] ip_ip_0_split -> ip_ip_0_split_1
I0423 12:49:56.543836  8978 net.cpp:141] Setting up ip_ip_0_split
I0423 12:49:56.543843  8978 net.cpp:148] Top shape: 256 10 (2560)
I0423 12:49:56.543849  8978 net.cpp:148] Top shape: 256 10 (2560)
I0423 12:49:56.543853  8978 net.cpp:156] Memory required for data: 1190233088
I0423 12:49:56.543858  8978 layer_factory.hpp:77] Creating layer accuracy
I0423 12:49:56.543864  8978 net.cpp:91] Creating Layer accuracy
I0423 12:49:56.543869  8978 net.cpp:425] accuracy <- ip_ip_0_split_0
I0423 12:49:56.543874  8978 net.cpp:425] accuracy <- label_cifar_1_split_0
I0423 12:49:56.543891  8978 net.cpp:399] accuracy -> accuracy
…
I0423 12:49:56.546785  8978 solver.cpp:181] Creating test net (#0) specified by net file: prototxt/ResNet-cifar.prototxt
I0423 12:49:56.546900  8978 net.cpp:313] The NetState phase (1) differed from the phase (0) specified by a rule in layer cifar
I0423 12:49:56.547340  8978 net.cpp:49] Initializing net from parameters: 
name: "ResNet-cifar"
state {
  phase: TEST
}
layer {
  name: "cifar"
  type: "Data"
  top: "data"
  top: "label"
  include {
    phase: TEST
  }
  transform_param {
    mean_file: "data/cifar10/mean.binaryproto"
  }
  data_param {
    source: "data/cifar10/cifar10_test_lmdb"
    batch_size: 100
    backend: LMDB
  }
}
layer {
  name: "conv1"
  type: "Convolution"
  bottom: "data"
  top: "conv1"
  param {
    lr_mult: 1
  }
  param {
    lr_mult: 2
  }
  convolution_param {
    num_output: 16
    pad: 1
    kernel_size: 3
    weight_filler {
      type: "msra"
    }
    bias_filler {
      type: "constant"
    }
  }
}
layer {
  name: "bn_conv1"
  type: "BatchNorm"
  bottom: "conv1"
  top: "conv1"
  param {
    lr_mult: 0
  }
  param {
    lr_mult: 0
  }
  param {
    lr_mult: 0
  }
}
layer {
  name: "scale_conv1"
  type: "Scale"
  bottom: "conv1"
  top: "conv1"
  scale_param {
    bias_term: true
  }
}
layer {
  name: "conv1_relu"
  type: "ReLU"
  bottom: "conv1"
  top: "conv1"
}
layer {
  name: "conv1_sub"
  type: "Scale"
  bottom: "conv1"
  top: "conv1_sub"
  param {
    lr_mult: 1
  }
  param {
    lr_mult: 2
  }
  scale_param {
    bias_term: true
  }
}
layer {
  name: "conv2_1a"
  type: "Convolution"
  bottom: "conv1"
  top: "conv2_1a"
  param {
    lr_mult: 1
  }
  param {
    lr_mult: 2
  }
  convolution_param {
    num_output: 16
    pad: 1
    kernel_size: 3
    stride: 1
    weight_filler {
      type: "msra"
    }
    bias_filler {
      type: "constant"
      value: 0
    }
  }
}
layer {
  name: "bn_conv2_1a"
  type: "BatchNorm"
  bottom: "conv2_1a"
  top: "conv2_1a"
  param {
    lr_mult: 0
  }
  param {
    lr_mult: 0
  }
  param {
    lr_mult: 0
  }
}
layer {
  name: "scale_conv2_1a"
  type: "Scale"
  bottom: "conv2_1a"
  top: "conv2_1a"
  scale_param {
    bias_term: true
  }
}
layer {
  name: "conv2_1a_relu"
  type: "ReLU"
  bottom: "conv2_1a"
  top: "conv2_1a"
}
layer {
  name: "conv2_1b"
  type: "Convolution"
  bottom: "conv2_1a"
  top: "conv2_1b"
  param {
    lr_mult: 1
  }
  param {
    lr_mult: 2
  }
  convolution_param {
    num_output: 16
    pad: 1
    kernel_size: 3
    stride: 1
    weight_filler {
      type: "msra"
    }
    bias_filler {
      type: "constant"
      value: 0
    }
  }
}
layer {
  name: "bn_conv2_1b"
  type: "BatchNorm"
  bottom: "conv2_1b"
  top: "conv2_1b"
  param {
    lr_mult: 0
  }
  param {
    lr_mult: 0
  }
  param {
    lr_mult: 0
  }
}
layer {
  name: "scale_conv2_1b"
  type: "Scale"
  bottom: "conv2_1b"
  top: "conv2_1b"
  scale_param {
    bias_term: true
  }
}
layer {
  name: "conv2_1"
  type: "Eltwise"
  bottom: "conv2_1b"
  bottom: "conv1"
  top: "conv2_1"
}
layer {
  name: "conv2_1_relu"
  type: "ReLU"
  bottom: "conv2_1"
  top: "conv2_1"
}
layer {
  name: "conv2_2a"
  type: "Convolution"
  bottom: "conv2_1"
  top: "conv2_2a"
  param {
    lr_mult: 1
  }
  param {
    lr_mult: 2
  }
  convolution_param {
    num_output: 16
    pad: 1
    kernel_size: 3
    stride: 1
    weight_filler {
      type: "msra"
    }
    bias_filler {
      type: "constant"
      value: 0
    }
  }
}
layer {
  name: "bn_conv2_2a"
  type: "BatchNorm"
  bottom: "conv2_2a"
  top: "conv2_2a"
  param {
    lr_mult: 0
  }
  param {
    lr_mult: 0
  }
  param {
    lr_mult: 0
  }
}
layer {
  name: "scale_conv2_2a"
  type: "Scale"
  bottom: "conv2_2a"
  top: "conv2_2a"
  scale_param {
    bias_term: true
  }
}
layer {
  name: "conv2_2a_relu"
  type: "ReLU"
  bottom: "conv2_2a"
  top: "conv2_2a"
}
layer {
  name: "conv2_2b"
  type: "Convolution"
  bottom: "conv2_2a"
  top: "conv2_2b"
  param {
    lr_mult: 1
  }
  param {
    lr_mult: 2
  }
  convolution_param {
    num_output: 16
    pad: 1
    kernel_size: 3
    stride: 1
    weight_filler {
      type: "msra"
    }
    bias_filler {
      type: "constant"
      value: 0
    }
  }
}
layer {
  name: "bn_conv2_2b"
  type: "BatchNorm"
  bottom: "conv2_2b"
  top: "conv2_2b"
  param {
    lr_mult: 0
  }
  param {
    lr_mult: 0
  }
  param {
    lr_mult: 0
  }
}
layer {
  name: "scale_conv2_2b"
  type: "Scale"
  bottom: "conv2_2b"
  top: "conv2_2b"
  scale_param {
    bias_term: true
  }
}
layer {
  name: "conv2_2"
  type: "Eltwise"
  bottom: "conv2_2b"
  bottom: "conv2_1"
  bottom: "conv1_sub"
  top: "conv2_2"
}
layer {
  name: "conv2_2_relu"
  type: "ReLU"
  bottom: "conv2_2"
  top: "conv2_2"
}
layer {
  name: "conv2_3a"
  type: "Convolution"
  bottom: "conv2_2"
  top: "conv2_3a"
  param {
    lr_mult: 1
  }
  param {
    lr_mult: 2
  }
  convolution_param {
    num_output: 16
    pad: 1
    kernel_size: 3
    stride: 1
    weight_filler {
      type: "msra"
    }
    bias_filler {
      type: "constant"
      value: 0
    }
  }
}
layer {
  name: "bn_conv2_3a"
  type: "BatchNorm"
  bottom: "conv2_3a"
  top: "conv2_3a"
  param {
    lr_mult: 0
  }
  param {
    lr_mult: 0
  }
  param {
    lr_mult: 0
  }
}
layer {
  name: "scale_conv2_3a"
  type: "Scale"
  bottom: "conv2_3a"
  top: "conv2_3a"
  scale_param {
    bias_term: true
  }
}
layer {
  name: "conv2_3a_relu"
  type: "ReLU"
  bottom: "conv2_3a"
  top: "conv2_3a"
}
layer {
  name: "conv2_3b"
  type: "Convolution"
  bottom: "conv2_3a"
  top: "conv2_3b"
  param {
    lr_mult: 1
  }
  param {
    lr_mult: 2
  }
  convolution_param {
    num_output: 16
    pad: 1
    kernel_size: 3
    stride: 1
    weight_filler {
      type: "msra"
    }
    bias_filler {
      type: "constant"
      value: 0
    }
  }
}
layer {
  name: "bn_conv2_3b"
  type: "BatchNorm"
  bottom: "conv2_3b"
  top: "conv2_3b"
  param {
    lr_mult: 0
  }
  param {
    lr_mult: 0
  }
  param {
    lr_mult: 0
  }
}
layer {
  name: "scale_conv2_3b"
  type: "Scale"
  bottom: "conv2_3b"
  top: "conv2_3b"
  scale_param {
    bias_term: true
  }
}
layer {
  name: "conv2_3"
  type: "Eltwise"
  bottom: "conv1"
  bottom: "conv2_3b"
  bottom: "conv2_2"
  top: "conv2_3"
}
layer {
  name: "conv2_3_relu"
  type: "ReLU"
  bottom: "conv2_3"
  top: "conv2_3"
}
layer {
  name: "conv2_sub"
  type: "Convolution"
  bottom: "conv2_3"
  top: "conv2_sub"
  param {
    lr_mult: 1
  }
  param {
    lr_mult: 2
  }
  convolution_param {
    num_output: 32
    kernel_size: 1
    stride: 2
    weight_filler {
      type: "msra"
    }
    bias_filler {
      type: "constant"
      value: 0
    }
  }
}
layer {
  name: "bn_conv2_sub"
  type: "BatchNorm"
  bottom: "conv2_sub"
  top: "conv2_sub"
  param {
    lr_mult: 0
  }
  param {
    lr_mult: 0
  }
  param {
    lr_mult: 0
  }
}
layer {
  name: "scale_conv2_sub"
  type: "Scale"
  bottom: "conv2_sub"
  top: "conv2_sub"
  scale_param {
    bias_term: true
  }
}
layer {
  name: "conv3_1a"
  type: "Convolution"
  bottom: "conv2_3"
  top: "conv3_1a"
  param {
    lr_mult: 1
  }
  param {
    lr_mult: 2
  }
  convolution_param {
    num_output: 32
    pad: 0
    kernel_size: 1
    stride: 2
    weight_filler {
      type: "msra"
    }
    bias_filler {
      type: "constant"
      value: 0
    }
  }
}
layer {
  name: "bn_conv3_1a"
  type: "BatchNorm"
  bottom: "conv3_1a"
  top: "conv3_1a"
  param {
    lr_mult: 0
  }
  param {
    lr_mult: 0
  }
  param {
    lr_mult: 0
  }
}
layer {
  name: "scale_conv3_1a"
  type: "Scale"
  bottom: "conv3_1a"
  top: "conv3_1a"
  scale_param {
    bias_term: true
  }
}
layer {
  name: "conv3_1a_relu"
  type: "ReLU"
  bottom: "conv3_1a"
  top: "conv3_1a"
}
layer {
  name: "conv3_1b"
  type: "Convolution"
  bottom: "conv3_1a"
  top: "conv3_1b"
  param {
    lr_mult: 1
  }
  param {
    lr_mult: 2
  }
  convolution_param {
    num_output: 32
    pad: 1
    kernel_size: 3
    stride: 1
    weight_filler {
      type: "msra"
    }
    bias_filler {
      type: "constant"
      value: 0
    }
  }
}
layer {
  name: "bn_conv3_1b"
  type: "BatchNorm"
  bottom: "conv3_1b"
  top: "conv3_1b"
  param {
    lr_mult: 0
  }
  param {
    lr_mult: 0
  }
  param {
    lr_mult: 0
  }
}
layer {
  name: "scale_conv3_1b"
  type: "Scale"
  bottom: "conv3_1b"
  top: "conv3_1b"
  scale_param {
    bias_term: true
  }
}
layer {
  name: "conv3_1"
  type: "Eltwise"
  bottom: "conv3_1b"
  bottom: "conv2_sub"
  top: "conv3_1"
}
layer {
  name: "conv3_1_relu"
  type: "ReLU"
  bottom: "conv3_1"
  top: "conv3_1"
}
layer {
  name: "conv3_2a"
  type: "Convolution"
  bottom: "conv3_1"
  top: "conv3_2a"
  param {
    lr_mult: 1
  }
  param {
    lr_mult: 2
  }
  convolution_param {
    num_output: 32
    pad: 1
    kernel_size: 3
    stride: 1
    weight_filler {
      type: "msra"
    }
    bias_filler {
      type: "constant"
      value: 0
    }
  }
}
layer {
  name: "bn_conv3_2a"
  type: "BatchNorm"
  bottom: "conv3_2a"
  top: "conv3_2a"
  param {
    lr_mult: 0
  }
  param {
    lr_mult: 0
  }
  param {
    lr_mult: 0
  }
}
layer {
  name: "scale_conv3_2a"
  type: "Scale"
  bottom: "conv3_2a"
  top: "conv3_2a"
  scale_param {
    bias_term: true
  }
}
layer {
  name: "conv3_2a_relu"
  type: "ReLU"
  bottom: "conv3_2a"
  top: "conv3_2a"
}
layer {
  name: "conv3_2b"
  type: "Convolution"
  bottom: "conv3_2a"
  top: "conv3_2b"
  param {
    lr_mult: 1
  }
  param {
    lr_mult: 2
  }
  convolution_param {
    num_output: 32
    pad: 1
    kernel_size: 3
    stride: 1
    weight_filler {
      type: "msra"
    }
    bias_filler {
      type: "constant"
      value: 0
    }
  }
}
layer {
  name: "bn_conv3_2b"
  type: "BatchNorm"
  bottom: "conv3_2b"
  top: "conv3_2b"
  param {
    lr_mult: 0
  }
  param {
    lr_mult: 0
  }
  param {
    lr_mult: 0
  }
}
layer {
  name: "scale_conv3_2b"
  type: "Scale"
  bottom: "conv3_2b"
  top: "conv3_2b"
  scale_param {
    bias_term: true
  }
}
layer {
  name: "conv3_2"
  type: "Eltwise"
  bottom: "conv3_2b"
  bottom: "conv2_sub"
  bottom: "conv3_1"
  top: "conv3_2"
}
layer {
  name: "conv3_2_relu"
  type: "ReLU"
  bottom: "conv3_2"
  top: "conv3_2"
}
layer {
  name: "conv3_3a"
  type: "Convolution"
  bottom: "conv3_2"
  top: "conv3_3a"
  param {
    lr_mult: 1
  }
  param {
    lr_mult: 2
  }
  convolution_param {
    num_output: 32
    pad: 1
    kernel_size: 3
    stride: 1
    weight_filler {
      type: "msra"
    }
    bias_filler {
      type: "constant"
      value: 0
    }
  }
}
layer {
  name: "bn_conv3_3a"
  type: "BatchNorm"
  bottom: "conv3_3a"
  top: "conv3_3a"
  param {
    lr_mult: 0
  }
  param {
    lr_mult: 0
  }
  param {
    lr_mult: 0
  }
}
layer {
  name: "scale_conv3_3a"
  type: "Scale"
  bottom: "conv3_3a"
  top: "conv3_3a"
  scale_param {
    bias_term: true
  }
}
layer {
  name: "conv3_3a_relu"
  type: "ReLU"
  bottom: "conv3_3a"
  top: "conv3_3a"
}
layer {
  name: "conv3_3b"
  type: "Convolution"
  bottom: "conv3_3a"
  top: "conv3_3b"
  param {
    lr_mult: 1
  }
  param {
    lr_mult: 2
  }
  convolution_param {
    num_output: 32
    pad: 1
    kernel_size: 3
    stride: 1
    weight_filler {
      type: "msra"
    }
    bias_filler {
      type: "constant"
      value: 0
    }
  }
}
layer {
  name: "bn_conv3_3b"
  type: "BatchNorm"
  bottom: "conv3_3b"
  top: "conv3_3b"
  param {
    lr_mult: 0
  }
  param {
    lr_mult: 0
  }
  param {
    lr_mult: 0
  }
}
layer {
  name: "scale_conv3_3b"
  type: "Scale"
  bottom: "conv3_3b"
  top: "conv3_3b"
  scale_param {
    bias_term: true
  }
}
layer {
  name: "conv3_3"
  type: "Eltwise"
  bottom: "conv3_3b"
  bottom: "conv2_sub"
  bottom: "conv3_2"
  top: "conv3_3"
}
layer {
  name: "conv3_3_relu"
  type: "ReLU"
  bottom: "conv3_3"
  top: "conv3_3"
}
layer {
  name: "conv3_sub"
  type: "Convolution"
  bottom: "conv3_3"
  top: "conv3_sub"
  param {
    lr_mult: 1
  }
  param {
    lr_mult: 2
  }
  convolution_param {
    num_output: 64
    kernel_size: 1
    stride: 2
    weight_filler {
      type: "msra"
    }
    bias_filler {
      type: "constant"
      value: 0
    }
  }
}
layer {
  name: "bn_conv3_sub"
  type: "BatchNorm"
  bottom: "conv3_sub"
  top: "conv3_sub"
  param {
    lr_mult: 0
  }
  param {
    lr_mult: 0
  }
  param {
    lr_mult: 0
  }
}
layer {
  name: "scale_conv3_sub"
  type: "Scale"
  bottom: "conv3_sub"
  top: "conv3_sub"
  scale_param {
    bias_term: true
  }
}
layer {
  name: "conv4_1a"
  type: "Convolution"
  bottom: "conv3_3"
  top: "conv4_1a"
  param {
    lr_mult: 1
  }
  param {
    lr_mult: 2
  }
  convolution_param {
    num_output: 64
    pad: 0
    kernel_size: 1
    stride: 2
    weight_filler {
      type: "msra"
    }
    bias_filler {
      type: "constant"
      value: 0
    }
  }
}
layer {
  name: "bn_conv4_1a"
  type: "BatchNorm"
  bottom: "conv4_1a"
  top: "conv4_1a"
  param {
    lr_mult: 0
  }
  param {
    lr_mult: 0
  }
  param {
    lr_mult: 0
  }
}
layer {
  name: "scale_conv4_1a"
  type: "Scale"
  bottom: "conv4_1a"
  top: "conv4_1a"
  scale_param {
    bias_term: true
  }
}
layer {
  name: "conv4_1a_relu"
  type: "ReLU"
  bottom: "conv4_1a"
  top: "conv4_1a"
}
layer {
  name: "conv4_1b"
  type: "Convolution"
  bottom: "conv4_1a"
  top: "conv4_1b"
  param {
    lr_mult: 1
  }
  param {
    lr_mult: 2
  }
  convolution_param {
    num_output: 64
    pad: 1
    kernel_size: 3
    stride: 1
    weight_filler {
      type: "msra"
    }
    bias_filler {
      type: "constant"
      value: 0
    }
  }
}
layer {
  name: "bn_conv4_1b"
  type: "BatchNorm"
  bottom: "conv4_1b"
  top: "conv4_1b"
  param {
    lr_mult: 0
  }
  param {
    lr_mult: 0
  }
  param {
    lr_mult: 0
  }
}
layer {
  name: "scale_conv4_1b"
  type: "Scale"
  bottom: "conv4_1b"
  top: "conv4_1b"
  scale_param {
    bias_term: true
  }
}
layer {
  name: "conv4_1"
  type: "Eltwise"
  bottom: "conv3_sub"
  bottom: "conv4_1b"
  top: "conv4_1"
}
layer {
  name: "conv4_1_relu"
  type: "ReLU"
  bottom: "conv4_1"
  top: "conv4_1"
}
layer {
  name: "conv4_2a"
  type: "Convolution"
  bottom: "conv4_1"
  top: "conv4_2a"
  param {
    lr_mult: 1
  }
  param {
    lr_mult: 2
  }
  convolution_param {
    num_output: 64
    pad: 1
    kernel_size: 3
    stride: 1
    weight_filler {
      type: "msra"
    }
    bias_filler {
      type: "constant"
      value: 0
    }
  }
}
layer {
  name: "bn_conv4_2a"
  type: "BatchNorm"
  bottom: "conv4_2a"
  top: "conv4_2a"
  param {
    lr_mult: 0
  }
  param {
    lr_mult: 0
  }
  param {
    lr_mult: 0
  }
}
layer {
  name: "scale_conv4_2a"
  type: "Scale"
  bottom: "conv4_2a"
  top: "conv4_2a"
  scale_param {
    bias_term: true
  }
}
layer {
  name: "conv4_2a_relu"
  type: "ReLU"
  bottom: "conv4_2a"
  top: "conv4_2a"
}
layer {
  name: "conv4_2b"
  type: "Convolution"
  bottom: "conv4_2a"
  top: "conv4_2b"
  param {
    lr_mult: 1
  }
  param {
    lr_mult: 2
  }
  convolution_param {
    num_output: 64
    pad: 1
    kernel_size: 3
    stride: 1
    weight_filler {
      type: "msra"
    }
    bias_filler {
      type: "constant"
      value: 0
    }
  }
}
layer {
  name: "bn_conv4_2b"
  type: "BatchNorm"
  bottom: "conv4_2b"
  top: "conv4_2b"
  param {
    lr_mult: 0
  }
  param {
    lr_mult: 0
  }
  param {
    lr_mult: 0
  }
}
layer {
  name: "scale_conv4_2b"
  type: "Scale"
  bottom: "conv4_2b"
  top: "conv4_2b"
  scale_param {
    bias_term: true
  }
}
layer {
  name: "conv4_2"
  type: "Eltwise"
  bottom: "conv4_1"
  bottom: "conv3_sub"
  bottom: "conv4_2b"
  top: "conv4_2"
}
layer {
  name: "conv4_2_relu"
  type: "ReLU"
  bottom: "conv4_2"
  top: "conv4_2"
}
layer {
  name: "conv4_3a"
  type: "Convolution"
  bottom: "conv4_2"
  top: "conv4_3a"
  param {
    lr_mult: 1
  }
  param {
    lr_mult: 2
  }
  convolution_param {
    num_output: 64
    pad: 1
    kernel_size: 3
    stride: 1
    weight_filler {
      type: "msra"
    }
    bias_filler {
      type: "constant"
      value: 0
    }
  }
}
layer {
  name: "bn_conv4_3a"
  type: "BatchNorm"
  bottom: "conv4_3a"
  top: "conv4_3a"
  param {
    lr_mult: 0
  }
  param {
    lr_mult: 0
  }
  param {
    lr_mult: 0
  }
}
layer {
  name: "scale_conv4_3a"
  type: "Scale"
  bottom: "conv4_3a"
  top: "conv4_3a"
  scale_param {
    bias_term: true
  }
}
layer {
  name: "conv4_3a_relu"
  type: "ReLU"
  bottom: "conv4_3a"
  top: "conv4_3a"
}
layer {
  name: "conv4_3b"
  type: "Convolution"
  bottom: "conv4_3a"
  top: "conv4_3b"
  param {
    lr_mult: 1
  }
  param {
    lr_mult: 2
  }
  convolution_param {
    num_output: 64
    pad: 1
    kernel_size: 3
    stride: 1
    weight_filler {
      type: "msra"
    }
    bias_filler {
      type: "constant"
      value: 0
    }
  }
}
layer {
  name: "bn_conv4_3b"
  type: "BatchNorm"
  bottom: "conv4_3b"
  top: "conv4_3b"
  param {
    lr_mult: 0
  }
  param {
    lr_mult: 0
  }
  param {
    lr_mult: 0
  }
}
layer {
  name: "scale_conv4_3b"
  type: "Scale"
  bottom: "conv4_3b"
  top: "conv4_3b"
  scale_param {
    bias_term: true
  }
}
layer {
  name: "conv4_3"
  type: "Eltwise"
  bottom: "conv4_2"
  bottom: "conv3_sub"
  bottom: "conv4_3b"
  top: "conv4_3"
}
layer {
  name: "conv4_3_relu"
  type: "ReLU"
  bottom: "conv4_3"
  top: "conv4_3"
}
layer {
  name: "global_pool"
  type: "Pooling"
  bottom: "conv4_3"
  top: "global_pool"
  pooling_param {
    pool: AVE
    kernel_size: 8
    stride: 8
  }
}
layer {
  name: "ip"
  type: "InnerProduct"
  bottom: "global_pool"
  top: "ip"
  inner_product_param {
    num_output: 10
  }
}
layer {
  name: "accuracy"
  type: "Accuracy"
  bottom: "ip"
  bottom: "label"
  top: "accuracy"
}
layer {
  name: "loss"
  type: "SoftmaxWithLoss"
  bottom: "ip"
  bottom: "label"
  top: "loss"
}
I0423 12:49:56.547710  8978 layer_factory.hpp:77] Creating layer cifar
I0423 12:49:56.548189  8978 net.cpp:91] Creating Layer cifar
I0423 12:49:56.548202  8978 net.cpp:399] cifar -> data
I0423 12:49:56.548212  8978 net.cpp:399] cifar -> label
I0423 12:49:56.548220  8978 data_transformer.cpp:25] Loading mean file from: data/cifar10/mean.binaryproto
I0423 12:49:56.549597  9018 db_lmdb.cpp:38] Opened lmdb data/cifar10/cifar10_test_lmdb
I0423 12:49:56.549747  8978 data_layer.cpp:41] output data size: 100,3,32,32
I0423 12:49:56.552345  8978 net.cpp:141] Setting up cifar
I0423 12:49:56.552362  8978 net.cpp:148] Top shape: 100 3 32 32 (307200)
I0423 12:49:56.552367  8978 net.cpp:148] Top shape: 100 (100)
I0423 12:49:56.552371  8978 net.cpp:156] Memory required for data: 1229200
I0423 12:49:56.552376  8978 layer_factory.hpp:77] Creating layer label_cifar_1_split
I0423 12:49:56.552400  8978 net.cpp:91] Creating Layer label_cifar_1_split
I0423 12:49:56.552407  8978 net.cpp:425] label_cifar_1_split <- label
I0423 12:49:56.552414  8978 net.cpp:399] label_cifar_1_split -> label_cifar_1_split_0
I0423 12:49:56.552436  8978 net.cpp:399] label_cifar_1_split -> label_cifar_1_split_1
I0423 12:49:56.552510  8978 net.cpp:141] Setting up label_cifar_1_split
I0423 12:49:56.552520  8978 net.cpp:148] Top shape: 100 (100)
I0423 12:49:56.552525  8978 net.cpp:148] Top shape: 100 (100)
I0423 12:49:56.552530  8978 net.cpp:156] Memory required for data: 1230000
I0423 12:49:56.552533  8978 layer_factory.hpp:77] Creating layer conv1
I0423 12:49:56.552546  8978 net.cpp:91] Creating Layer conv1
I0423 12:49:56.552549  8978 net.cpp:425] conv1 <- data
I0423 12:49:56.552564  8978 net.cpp:399] conv1 -> conv1
I0423 12:49:56.553982  8978 net.cpp:141] Setting up conv1
I0423 12:49:56.553998  8978 net.cpp:148] Top shape: 100 16 32 32 (1638400)
I0423 12:49:56.554003  8978 net.cpp:156] Memory required for data: 7783600
I0423 12:49:56.554014  8978 layer_factory.hpp:77] Creating layer bn_conv1
I0423 12:49:56.554023  8978 net.cpp:91] Creating Layer bn_conv1
I0423 12:49:56.554026  8978 net.cpp:425] bn_conv1 <- conv1
I0423 12:49:56.554033  8978 net.cpp:386] bn_conv1 -> conv1 (in-place)
I0423 12:49:56.554337  8978 net.cpp:141] Setting up bn_conv1
I0423 12:49:56.554347  8978 net.cpp:148] Top shape: 100 16 32 32 (1638400)
I0423 12:49:56.554358  8978 net.cpp:156] Memory required for data: 14337200
I0423 12:49:56.554369  8978 layer_factory.hpp:77] Creating layer scale_conv1
I0423 12:49:56.554383  8978 net.cpp:91] Creating Layer scale_conv1
I0423 12:49:56.554386  8978 net.cpp:425] scale_conv1 <- conv1
I0423 12:49:56.554394  8978 net.cpp:386] scale_conv1 -> conv1 (in-place)
I0423 12:49:56.554528  8978 layer_factory.hpp:77] Creating layer scale_conv1
I0423 12:49:56.554643  8978 net.cpp:141] Setting up scale_conv1
I0423 12:49:56.554652  8978 net.cpp:148] Top shape: 100 16 32 32 (1638400)
I0423 12:49:56.554656  8978 net.cpp:156] Memory required for data: 20890800
I0423 12:49:56.554663  8978 layer_factory.hpp:77] Creating layer conv1_relu
I0423 12:49:56.554669  8978 net.cpp:91] Creating Layer conv1_relu
I0423 12:49:56.554673  8978 net.cpp:425] conv1_relu <- conv1
I0423 12:49:56.554678  8978 net.cpp:386] conv1_relu -> conv1 (in-place)
I0423 12:49:56.554970  8978 net.cpp:141] Setting up conv1_relu
I0423 12:49:56.554983  8978 net.cpp:148] Top shape: 100 16 32 32 (1638400)
I0423 12:49:56.554989  8978 net.cpp:156] Memory required for data: 27444400
I0423 12:49:56.555003  8978 layer_factory.hpp:77] Creating layer conv1_conv1_relu_0_split
I0423 12:49:56.555009  8978 net.cpp:91] Creating Layer conv1_conv1_relu_0_split
I0423 12:49:56.555013  8978 net.cpp:425] conv1_conv1_relu_0_split <- conv1
I0423 12:49:56.555022  8978 net.cpp:399] conv1_conv1_relu_0_split -> conv1_conv1_relu_0_split_0
I0423 12:49:56.555029  8978 net.cpp:399] conv1_conv1_relu_0_split -> conv1_conv1_relu_0_split_1
I0423 12:49:56.555042  8978 net.cpp:399] conv1_conv1_relu_0_split -> conv1_conv1_relu_0_split_2
I0423 12:49:56.555048  8978 net.cpp:399] conv1_conv1_relu_0_split -> conv1_conv1_relu_0_split_3
I0423 12:49:56.555117  8978 net.cpp:141] Setting up conv1_conv1_relu_0_split
I0423 12:49:56.555125  8978 net.cpp:148] Top shape: 100 16 32 32 (1638400)
I0423 12:49:56.555131  8978 net.cpp:148] Top shape: 100 16 32 32 (1638400)
I0423 12:49:56.555135  8978 net.cpp:148] Top shape: 100 16 32 32 (1638400)
I0423 12:49:56.555153  8978 net.cpp:148] Top shape: 100 16 32 32 (1638400)
I0423 12:49:56.555157  8978 net.cpp:156] Memory required for data: 53658800
I0423 12:49:56.555161  8978 layer_factory.hpp:77] Creating layer conv1_sub
I0423 12:49:56.555167  8978 net.cpp:91] Creating Layer conv1_sub
I0423 12:49:56.555171  8978 net.cpp:425] conv1_sub <- conv1_conv1_relu_0_split_0
I0423 12:49:56.555181  8978 net.cpp:399] conv1_sub -> conv1_sub
I0423 12:49:56.555227  8978 layer_factory.hpp:77] Creating layer conv1_sub
I0423 12:49:56.555337  8978 net.cpp:141] Setting up conv1_sub
I0423 12:49:56.555346  8978 net.cpp:148] Top shape: 100 16 32 32 (1638400)
I0423 12:49:56.555351  8978 net.cpp:156] Memory required for data: 60212400
I0423 12:49:56.555359  8978 layer_factory.hpp:77] Creating layer conv2_1a
I0423 12:49:56.555369  8978 net.cpp:91] Creating Layer conv2_1a
I0423 12:49:56.555373  8978 net.cpp:425] conv2_1a <- conv1_conv1_relu_0_split_1
I0423 12:49:56.555382  8978 net.cpp:399] conv2_1a -> conv2_1a
I0423 12:49:56.556361  8978 net.cpp:141] Setting up conv2_1a
I0423 12:49:56.556376  8978 net.cpp:148] Top shape: 100 16 32 32 (1638400)
I0423 12:49:56.556380  8978 net.cpp:156] Memory required for data: 66766000
I0423 12:49:56.556387  8978 layer_factory.hpp:77] Creating layer bn_conv2_1a
I0423 12:49:56.556402  8978 net.cpp:91] Creating Layer bn_conv2_1a
I0423 12:49:56.556406  8978 net.cpp:425] bn_conv2_1a <- conv2_1a
I0423 12:49:56.556412  8978 net.cpp:386] bn_conv2_1a -> conv2_1a (in-place)
I0423 12:49:56.556609  8978 net.cpp:141] Setting up bn_conv2_1a
I0423 12:49:56.556617  8978 net.cpp:148] Top shape: 100 16 32 32 (1638400)
I0423 12:49:56.556625  8978 net.cpp:156] Memory required for data: 73319600
I0423 12:49:56.556643  8978 layer_factory.hpp:77] Creating layer scale_conv2_1a
I0423 12:49:56.556648  8978 net.cpp:91] Creating Layer scale_conv2_1a
I0423 12:49:56.556653  8978 net.cpp:425] scale_conv2_1a <- conv2_1a
I0423 12:49:56.556658  8978 net.cpp:386] scale_conv2_1a -> conv2_1a (in-place)
I0423 12:49:56.556702  8978 layer_factory.hpp:77] Creating layer scale_conv2_1a
I0423 12:49:56.556819  8978 net.cpp:141] Setting up scale_conv2_1a
I0423 12:49:56.556840  8978 net.cpp:148] Top shape: 100 16 32 32 (1638400)
I0423 12:49:56.556844  8978 net.cpp:156] Memory required for data: 79873200
I0423 12:49:56.556850  8978 layer_factory.hpp:77] Creating layer conv2_1a_relu
I0423 12:49:56.556856  8978 net.cpp:91] Creating Layer conv2_1a_relu
I0423 12:49:56.556864  8978 net.cpp:425] conv2_1a_relu <- conv2_1a
I0423 12:49:56.556877  8978 net.cpp:386] conv2_1a_relu -> conv2_1a (in-place)
I0423 12:49:56.557051  8978 net.cpp:141] Setting up conv2_1a_relu
I0423 12:49:56.557075  8978 net.cpp:148] Top shape: 100 16 32 32 (1638400)
I0423 12:49:56.557078  8978 net.cpp:156] Memory required for data: 86426800
I0423 12:49:56.557082  8978 layer_factory.hpp:77] Creating layer conv2_1b
I0423 12:49:56.557095  8978 net.cpp:91] Creating Layer conv2_1b
I0423 12:49:56.557099  8978 net.cpp:425] conv2_1b <- conv2_1a
I0423 12:49:56.557131  8978 net.cpp:399] conv2_1b -> conv2_1b
I0423 12:49:56.558167  8978 net.cpp:141] Setting up conv2_1b
I0423 12:49:56.558182  8978 net.cpp:148] Top shape: 100 16 32 32 (1638400)
I0423 12:49:56.558187  8978 net.cpp:156] Memory required for data: 92980400
I0423 12:49:56.558203  8978 layer_factory.hpp:77] Creating layer bn_conv2_1b
I0423 12:49:56.558212  8978 net.cpp:91] Creating Layer bn_conv2_1b
I0423 12:49:56.558215  8978 net.cpp:425] bn_conv2_1b <- conv2_1b
I0423 12:49:56.558221  8978 net.cpp:386] bn_conv2_1b -> conv2_1b (in-place)
I0423 12:49:56.558429  8978 net.cpp:141] Setting up bn_conv2_1b
I0423 12:49:56.558437  8978 net.cpp:148] Top shape: 100 16 32 32 (1638400)
I0423 12:49:56.558441  8978 net.cpp:156] Memory required for data: 99534000
I0423 12:49:56.558449  8978 layer_factory.hpp:77] Creating layer scale_conv2_1b
I0423 12:49:56.558454  8978 net.cpp:91] Creating Layer scale_conv2_1b
I0423 12:49:56.558459  8978 net.cpp:425] scale_conv2_1b <- conv2_1b
I0423 12:49:56.558465  8978 net.cpp:386] scale_conv2_1b -> conv2_1b (in-place)
I0423 12:49:56.558508  8978 layer_factory.hpp:77] Creating layer scale_conv2_1b
I0423 12:49:56.558629  8978 net.cpp:141] Setting up scale_conv2_1b
I0423 12:49:56.558637  8978 net.cpp:148] Top shape: 100 16 32 32 (1638400)
I0423 12:49:56.558641  8978 net.cpp:156] Memory required for data: 106087600
I0423 12:49:56.558647  8978 layer_factory.hpp:77] Creating layer conv2_1
I0423 12:49:56.558655  8978 net.cpp:91] Creating Layer conv2_1
I0423 12:49:56.558657  8978 net.cpp:425] conv2_1 <- conv2_1b
I0423 12:49:56.558662  8978 net.cpp:425] conv2_1 <- conv1_conv1_relu_0_split_2
I0423 12:49:56.558670  8978 net.cpp:399] conv2_1 -> conv2_1
I0423 12:49:56.558784  8978 net.cpp:141] Setting up conv2_1
I0423 12:49:56.558792  8978 net.cpp:148] Top shape: 100 16 32 32 (1638400)
I0423 12:49:56.558796  8978 net.cpp:156] Memory required for data: 112641200
I0423 12:49:56.558800  8978 layer_factory.hpp:77] Creating layer conv2_1_relu
I0423 12:49:56.558809  8978 net.cpp:91] Creating Layer conv2_1_relu
I0423 12:49:56.558814  8978 net.cpp:425] conv2_1_relu <- conv2_1
I0423 12:49:56.558820  8978 net.cpp:386] conv2_1_relu -> conv2_1 (in-place)
I0423 12:49:56.558989  8978 net.cpp:141] Setting up conv2_1_relu
I0423 12:49:56.559000  8978 net.cpp:148] Top shape: 100 16 32 32 (1638400)
I0423 12:49:56.559003  8978 net.cpp:156] Memory required for data: 119194800
I0423 12:49:56.559007  8978 layer_factory.hpp:77] Creating layer conv2_1_conv2_1_relu_0_split
I0423 12:49:56.559015  8978 net.cpp:91] Creating Layer conv2_1_conv2_1_relu_0_split
I0423 12:49:56.559018  8978 net.cpp:425] conv2_1_conv2_1_relu_0_split <- conv2_1
I0423 12:49:56.559036  8978 net.cpp:399] conv2_1_conv2_1_relu_0_split -> conv2_1_conv2_1_relu_0_split_0
I0423 12:49:56.559049  8978 net.cpp:399] conv2_1_conv2_1_relu_0_split -> conv2_1_conv2_1_relu_0_split_1
I0423 12:49:56.559094  8978 net.cpp:141] Setting up conv2_1_conv2_1_relu_0_split
I0423 12:49:56.559103  8978 net.cpp:148] Top shape: 100 16 32 32 (1638400)
I0423 12:49:56.559106  8978 net.cpp:148] Top shape: 100 16 32 32 (1638400)
I0423 12:49:56.559110  8978 net.cpp:156] Memory required for data: 132302000
I0423 12:49:56.559118  8978 layer_factory.hpp:77] Creating layer conv2_2a
I0423 12:49:56.559139  8978 net.cpp:91] Creating Layer conv2_2a
I0423 12:49:56.559144  8978 net.cpp:425] conv2_2a <- conv2_1_conv2_1_relu_0_split_0
I0423 12:49:56.559154  8978 net.cpp:399] conv2_2a -> conv2_2a
I0423 12:49:56.560145  8978 net.cpp:141] Setting up conv2_2a
I0423 12:49:56.560163  8978 net.cpp:148] Top shape: 100 16 32 32 (1638400)
I0423 12:49:56.560168  8978 net.cpp:156] Memory required for data: 138855600
I0423 12:49:56.560174  8978 layer_factory.hpp:77] Creating layer bn_conv2_2a
I0423 12:49:56.560183  8978 net.cpp:91] Creating Layer bn_conv2_2a
I0423 12:49:56.560187  8978 net.cpp:425] bn_conv2_2a <- conv2_2a
I0423 12:49:56.560194  8978 net.cpp:386] bn_conv2_2a -> conv2_2a (in-place)
I0423 12:49:56.560397  8978 net.cpp:141] Setting up bn_conv2_2a
I0423 12:49:56.560406  8978 net.cpp:148] Top shape: 100 16 32 32 (1638400)
I0423 12:49:56.560410  8978 net.cpp:156] Memory required for data: 145409200
I0423 12:49:56.560418  8978 layer_factory.hpp:77] Creating layer scale_conv2_2a
I0423 12:49:56.560425  8978 net.cpp:91] Creating Layer scale_conv2_2a
I0423 12:49:56.560430  8978 net.cpp:425] scale_conv2_2a <- conv2_2a
I0423 12:49:56.560434  8978 net.cpp:386] scale_conv2_2a -> conv2_2a (in-place)
I0423 12:49:56.560478  8978 layer_factory.hpp:77] Creating layer scale_conv2_2a
I0423 12:49:56.560590  8978 net.cpp:141] Setting up scale_conv2_2a
I0423 12:49:56.560602  8978 net.cpp:148] Top shape: 100 16 32 32 (1638400)
I0423 12:49:56.560609  8978 net.cpp:156] Memory required for data: 151962800
I0423 12:49:56.560616  8978 layer_factory.hpp:77] Creating layer conv2_2a_relu
I0423 12:49:56.560622  8978 net.cpp:91] Creating Layer conv2_2a_relu
I0423 12:49:56.560626  8978 net.cpp:425] conv2_2a_relu <- conv2_2a
I0423 12:49:56.560632  8978 net.cpp:386] conv2_2a_relu -> conv2_2a (in-place)
I0423 12:49:56.560899  8978 net.cpp:141] Setting up conv2_2a_relu
I0423 12:49:56.560915  8978 net.cpp:148] Top shape: 100 16 32 32 (1638400)
I0423 12:49:56.560922  8978 net.cpp:156] Memory required for data: 158516400
I0423 12:49:56.560935  8978 layer_factory.hpp:77] Creating layer conv2_2b
I0423 12:49:56.560946  8978 net.cpp:91] Creating Layer conv2_2b
I0423 12:49:56.560951  8978 net.cpp:425] conv2_2b <- conv2_2a
I0423 12:49:56.560959  8978 net.cpp:399] conv2_2b -> conv2_2b
I0423 12:49:56.562019  8978 net.cpp:141] Setting up conv2_2b
I0423 12:49:56.562036  8978 net.cpp:148] Top shape: 100 16 32 32 (1638400)
I0423 12:49:56.562039  8978 net.cpp:156] Memory required for data: 165070000
I0423 12:49:56.562047  8978 layer_factory.hpp:77] Creating layer bn_conv2_2b
I0423 12:49:56.562069  8978 net.cpp:91] Creating Layer bn_conv2_2b
I0423 12:49:56.562074  8978 net.cpp:425] bn_conv2_2b <- conv2_2b
I0423 12:49:56.562080  8978 net.cpp:386] bn_conv2_2b -> conv2_2b (in-place)
I0423 12:49:56.562276  8978 net.cpp:141] Setting up bn_conv2_2b
I0423 12:49:56.562284  8978 net.cpp:148] Top shape: 100 16 32 32 (1638400)
I0423 12:49:56.562288  8978 net.cpp:156] Memory required for data: 171623600
I0423 12:49:56.562301  8978 layer_factory.hpp:77] Creating layer scale_conv2_2b
I0423 12:49:56.562322  8978 net.cpp:91] Creating Layer scale_conv2_2b
I0423 12:49:56.562326  8978 net.cpp:425] scale_conv2_2b <- conv2_2b
I0423 12:49:56.562331  8978 net.cpp:386] scale_conv2_2b -> conv2_2b (in-place)
I0423 12:49:56.562377  8978 layer_factory.hpp:77] Creating layer scale_conv2_2b
I0423 12:49:56.562494  8978 net.cpp:141] Setting up scale_conv2_2b
I0423 12:49:56.562506  8978 net.cpp:148] Top shape: 100 16 32 32 (1638400)
I0423 12:49:56.562513  8978 net.cpp:156] Memory required for data: 178177200
I0423 12:49:56.562520  8978 layer_factory.hpp:77] Creating layer conv2_2
I0423 12:49:56.562530  8978 net.cpp:91] Creating Layer conv2_2
I0423 12:49:56.562533  8978 net.cpp:425] conv2_2 <- conv2_2b
I0423 12:49:56.562538  8978 net.cpp:425] conv2_2 <- conv2_1_conv2_1_relu_0_split_1
I0423 12:49:56.562543  8978 net.cpp:425] conv2_2 <- conv1_sub
I0423 12:49:56.562548  8978 net.cpp:399] conv2_2 -> conv2_2
I0423 12:49:56.562577  8978 net.cpp:141] Setting up conv2_2
I0423 12:49:56.562588  8978 net.cpp:148] Top shape: 100 16 32 32 (1638400)
I0423 12:49:56.562602  8978 net.cpp:156] Memory required for data: 184730800
I0423 12:49:56.562605  8978 layer_factory.hpp:77] Creating layer conv2_2_relu
I0423 12:49:56.562611  8978 net.cpp:91] Creating Layer conv2_2_relu
I0423 12:49:56.562614  8978 net.cpp:425] conv2_2_relu <- conv2_2
I0423 12:49:56.562623  8978 net.cpp:386] conv2_2_relu -> conv2_2 (in-place)
I0423 12:49:56.562798  8978 net.cpp:141] Setting up conv2_2_relu
I0423 12:49:56.562808  8978 net.cpp:148] Top shape: 100 16 32 32 (1638400)
I0423 12:49:56.562813  8978 net.cpp:156] Memory required for data: 191284400
I0423 12:49:56.562818  8978 layer_factory.hpp:77] Creating layer conv2_2_conv2_2_relu_0_split
I0423 12:49:56.562822  8978 net.cpp:91] Creating Layer conv2_2_conv2_2_relu_0_split
I0423 12:49:56.562826  8978 net.cpp:425] conv2_2_conv2_2_relu_0_split <- conv2_2
I0423 12:49:56.562834  8978 net.cpp:399] conv2_2_conv2_2_relu_0_split -> conv2_2_conv2_2_relu_0_split_0
I0423 12:49:56.562840  8978 net.cpp:399] conv2_2_conv2_2_relu_0_split -> conv2_2_conv2_2_relu_0_split_1
I0423 12:49:56.562969  8978 net.cpp:141] Setting up conv2_2_conv2_2_relu_0_split
I0423 12:49:56.562978  8978 net.cpp:148] Top shape: 100 16 32 32 (1638400)
I0423 12:49:56.562983  8978 net.cpp:148] Top shape: 100 16 32 32 (1638400)
I0423 12:49:56.562986  8978 net.cpp:156] Memory required for data: 204391600
I0423 12:49:56.562990  8978 layer_factory.hpp:77] Creating layer conv2_3a
I0423 12:49:56.563002  8978 net.cpp:91] Creating Layer conv2_3a
I0423 12:49:56.563007  8978 net.cpp:425] conv2_3a <- conv2_2_conv2_2_relu_0_split_0
I0423 12:49:56.563014  8978 net.cpp:399] conv2_3a -> conv2_3a
I0423 12:49:56.564004  8978 net.cpp:141] Setting up conv2_3a
I0423 12:49:56.564023  8978 net.cpp:148] Top shape: 100 16 32 32 (1638400)
I0423 12:49:56.564036  8978 net.cpp:156] Memory required for data: 210945200
I0423 12:49:56.564043  8978 layer_factory.hpp:77] Creating layer bn_conv2_3a
I0423 12:49:56.564052  8978 net.cpp:91] Creating Layer bn_conv2_3a
I0423 12:49:56.564057  8978 net.cpp:425] bn_conv2_3a <- conv2_3a
I0423 12:49:56.564067  8978 net.cpp:386] bn_conv2_3a -> conv2_3a (in-place)
I0423 12:49:56.564262  8978 net.cpp:141] Setting up bn_conv2_3a
I0423 12:49:56.564270  8978 net.cpp:148] Top shape: 100 16 32 32 (1638400)
I0423 12:49:56.564275  8978 net.cpp:156] Memory required for data: 217498800
I0423 12:49:56.564282  8978 layer_factory.hpp:77] Creating layer scale_conv2_3a
I0423 12:49:56.564294  8978 net.cpp:91] Creating Layer scale_conv2_3a
I0423 12:49:56.564299  8978 net.cpp:425] scale_conv2_3a <- conv2_3a
I0423 12:49:56.564304  8978 net.cpp:386] scale_conv2_3a -> conv2_3a (in-place)
I0423 12:49:56.564347  8978 layer_factory.hpp:77] Creating layer scale_conv2_3a
I0423 12:49:56.564460  8978 net.cpp:141] Setting up scale_conv2_3a
I0423 12:49:56.564468  8978 net.cpp:148] Top shape: 100 16 32 32 (1638400)
I0423 12:49:56.564473  8978 net.cpp:156] Memory required for data: 224052400
I0423 12:49:56.564481  8978 layer_factory.hpp:77] Creating layer conv2_3a_relu
I0423 12:49:56.564487  8978 net.cpp:91] Creating Layer conv2_3a_relu
I0423 12:49:56.564491  8978 net.cpp:425] conv2_3a_relu <- conv2_3a
I0423 12:49:56.564497  8978 net.cpp:386] conv2_3a_relu -> conv2_3a (in-place)
I0423 12:49:56.564661  8978 net.cpp:141] Setting up conv2_3a_relu
I0423 12:49:56.564672  8978 net.cpp:148] Top shape: 100 16 32 32 (1638400)
I0423 12:49:56.564677  8978 net.cpp:156] Memory required for data: 230606000
I0423 12:49:56.564679  8978 layer_factory.hpp:77] Creating layer conv2_3b
I0423 12:49:56.564694  8978 net.cpp:91] Creating Layer conv2_3b
I0423 12:49:56.564704  8978 net.cpp:425] conv2_3b <- conv2_3a
I0423 12:49:56.564714  8978 net.cpp:399] conv2_3b -> conv2_3b
I0423 12:49:56.565917  8978 net.cpp:141] Setting up conv2_3b
I0423 12:49:56.565935  8978 net.cpp:148] Top shape: 100 16 32 32 (1638400)
I0423 12:49:56.565940  8978 net.cpp:156] Memory required for data: 237159600
I0423 12:49:56.565948  8978 layer_factory.hpp:77] Creating layer bn_conv2_3b
I0423 12:49:56.565963  8978 net.cpp:91] Creating Layer bn_conv2_3b
I0423 12:49:56.565979  8978 net.cpp:425] bn_conv2_3b <- conv2_3b
I0423 12:49:56.565985  8978 net.cpp:386] bn_conv2_3b -> conv2_3b (in-place)
I0423 12:49:56.566210  8978 net.cpp:141] Setting up bn_conv2_3b
I0423 12:49:56.566220  8978 net.cpp:148] Top shape: 100 16 32 32 (1638400)
I0423 12:49:56.566222  8978 net.cpp:156] Memory required for data: 243713200
I0423 12:49:56.566231  8978 layer_factory.hpp:77] Creating layer scale_conv2_3b
I0423 12:49:56.566238  8978 net.cpp:91] Creating Layer scale_conv2_3b
I0423 12:49:56.566243  8978 net.cpp:425] scale_conv2_3b <- conv2_3b
I0423 12:49:56.566248  8978 net.cpp:386] scale_conv2_3b -> conv2_3b (in-place)
I0423 12:49:56.566290  8978 layer_factory.hpp:77] Creating layer scale_conv2_3b
I0423 12:49:56.566406  8978 net.cpp:141] Setting up scale_conv2_3b
I0423 12:49:56.566413  8978 net.cpp:148] Top shape: 100 16 32 32 (1638400)
I0423 12:49:56.566419  8978 net.cpp:156] Memory required for data: 250266800
I0423 12:49:56.566434  8978 layer_factory.hpp:77] Creating layer conv2_3
I0423 12:49:56.566442  8978 net.cpp:91] Creating Layer conv2_3
I0423 12:49:56.566445  8978 net.cpp:425] conv2_3 <- conv1_conv1_relu_0_split_3
I0423 12:49:56.566450  8978 net.cpp:425] conv2_3 <- conv2_3b
I0423 12:49:56.566455  8978 net.cpp:425] conv2_3 <- conv2_2_conv2_2_relu_0_split_1
I0423 12:49:56.566464  8978 net.cpp:399] conv2_3 -> conv2_3
I0423 12:49:56.566495  8978 net.cpp:141] Setting up conv2_3
I0423 12:49:56.566503  8978 net.cpp:148] Top shape: 100 16 32 32 (1638400)
I0423 12:49:56.566509  8978 net.cpp:156] Memory required for data: 256820400
I0423 12:49:56.566514  8978 layer_factory.hpp:77] Creating layer conv2_3_relu
I0423 12:49:56.566519  8978 net.cpp:91] Creating Layer conv2_3_relu
I0423 12:49:56.566524  8978 net.cpp:425] conv2_3_relu <- conv2_3
I0423 12:49:56.566530  8978 net.cpp:386] conv2_3_relu -> conv2_3 (in-place)
I0423 12:49:56.566912  8978 net.cpp:141] Setting up conv2_3_relu
I0423 12:49:56.566926  8978 net.cpp:148] Top shape: 100 16 32 32 (1638400)
I0423 12:49:56.566931  8978 net.cpp:156] Memory required for data: 263374000
I0423 12:49:56.566936  8978 layer_factory.hpp:77] Creating layer conv2_3_conv2_3_relu_0_split
I0423 12:49:56.566942  8978 net.cpp:91] Creating Layer conv2_3_conv2_3_relu_0_split
I0423 12:49:56.566946  8978 net.cpp:425] conv2_3_conv2_3_relu_0_split <- conv2_3
I0423 12:49:56.566954  8978 net.cpp:399] conv2_3_conv2_3_relu_0_split -> conv2_3_conv2_3_relu_0_split_0
I0423 12:49:56.566962  8978 net.cpp:399] conv2_3_conv2_3_relu_0_split -> conv2_3_conv2_3_relu_0_split_1
I0423 12:49:56.567010  8978 net.cpp:141] Setting up conv2_3_conv2_3_relu_0_split
I0423 12:49:56.567018  8978 net.cpp:148] Top shape: 100 16 32 32 (1638400)
I0423 12:49:56.567023  8978 net.cpp:148] Top shape: 100 16 32 32 (1638400)
I0423 12:49:56.567028  8978 net.cpp:156] Memory required for data: 276481200
I0423 12:49:56.567030  8978 layer_factory.hpp:77] Creating layer conv2_sub
I0423 12:49:56.567041  8978 net.cpp:91] Creating Layer conv2_sub
I0423 12:49:56.567045  8978 net.cpp:425] conv2_sub <- conv2_3_conv2_3_relu_0_split_0
I0423 12:49:56.567065  8978 net.cpp:399] conv2_sub -> conv2_sub
I0423 12:49:56.568089  8978 net.cpp:141] Setting up conv2_sub
I0423 12:49:56.568104  8978 net.cpp:148] Top shape: 100 32 16 16 (819200)
I0423 12:49:56.568109  8978 net.cpp:156] Memory required for data: 279758000
I0423 12:49:56.568115  8978 layer_factory.hpp:77] Creating layer bn_conv2_sub
I0423 12:49:56.568125  8978 net.cpp:91] Creating Layer bn_conv2_sub
I0423 12:49:56.568130  8978 net.cpp:425] bn_conv2_sub <- conv2_sub
I0423 12:49:56.568136  8978 net.cpp:386] bn_conv2_sub -> conv2_sub (in-place)
I0423 12:49:56.568347  8978 net.cpp:141] Setting up bn_conv2_sub
I0423 12:49:56.568356  8978 net.cpp:148] Top shape: 100 32 16 16 (819200)
I0423 12:49:56.568359  8978 net.cpp:156] Memory required for data: 283034800
I0423 12:49:56.568367  8978 layer_factory.hpp:77] Creating layer scale_conv2_sub
I0423 12:49:56.568375  8978 net.cpp:91] Creating Layer scale_conv2_sub
I0423 12:49:56.568384  8978 net.cpp:425] scale_conv2_sub <- conv2_sub
I0423 12:49:56.568390  8978 net.cpp:386] scale_conv2_sub -> conv2_sub (in-place)
I0423 12:49:56.568435  8978 layer_factory.hpp:77] Creating layer scale_conv2_sub
I0423 12:49:56.568577  8978 net.cpp:141] Setting up scale_conv2_sub
I0423 12:49:56.568584  8978 net.cpp:148] Top shape: 100 32 16 16 (819200)
I0423 12:49:56.568588  8978 net.cpp:156] Memory required for data: 286311600
I0423 12:49:56.568594  8978 layer_factory.hpp:77] Creating layer conv2_sub_scale_conv2_sub_0_split
I0423 12:49:56.568603  8978 net.cpp:91] Creating Layer conv2_sub_scale_conv2_sub_0_split
I0423 12:49:56.568606  8978 net.cpp:425] conv2_sub_scale_conv2_sub_0_split <- conv2_sub
I0423 12:49:56.568613  8978 net.cpp:399] conv2_sub_scale_conv2_sub_0_split -> conv2_sub_scale_conv2_sub_0_split_0
I0423 12:49:56.568619  8978 net.cpp:399] conv2_sub_scale_conv2_sub_0_split -> conv2_sub_scale_conv2_sub_0_split_1
I0423 12:49:56.568626  8978 net.cpp:399] conv2_sub_scale_conv2_sub_0_split -> conv2_sub_scale_conv2_sub_0_split_2
I0423 12:49:56.568675  8978 net.cpp:141] Setting up conv2_sub_scale_conv2_sub_0_split
I0423 12:49:56.568682  8978 net.cpp:148] Top shape: 100 32 16 16 (819200)
I0423 12:49:56.568687  8978 net.cpp:148] Top shape: 100 32 16 16 (819200)
I0423 12:49:56.568691  8978 net.cpp:148] Top shape: 100 32 16 16 (819200)
I0423 12:49:56.568696  8978 net.cpp:156] Memory required for data: 296142000
I0423 12:49:56.568699  8978 layer_factory.hpp:77] Creating layer conv3_1a
I0423 12:49:56.568709  8978 net.cpp:91] Creating Layer conv3_1a
I0423 12:49:56.568713  8978 net.cpp:425] conv3_1a <- conv2_3_conv2_3_relu_0_split_1
I0423 12:49:56.568720  8978 net.cpp:399] conv3_1a -> conv3_1a
I0423 12:49:56.569682  8978 net.cpp:141] Setting up conv3_1a
I0423 12:49:56.569700  8978 net.cpp:148] Top shape: 100 32 16 16 (819200)
I0423 12:49:56.569705  8978 net.cpp:156] Memory required for data: 299418800
I0423 12:49:56.569711  8978 layer_factory.hpp:77] Creating layer bn_conv3_1a
I0423 12:49:56.569718  8978 net.cpp:91] Creating Layer bn_conv3_1a
I0423 12:49:56.569722  8978 net.cpp:425] bn_conv3_1a <- conv3_1a
I0423 12:49:56.569730  8978 net.cpp:386] bn_conv3_1a -> conv3_1a (in-place)
I0423 12:49:56.569918  8978 net.cpp:141] Setting up bn_conv3_1a
I0423 12:49:56.569926  8978 net.cpp:148] Top shape: 100 32 16 16 (819200)
I0423 12:49:56.569929  8978 net.cpp:156] Memory required for data: 302695600
I0423 12:49:56.569937  8978 layer_factory.hpp:77] Creating layer scale_conv3_1a
I0423 12:49:56.569943  8978 net.cpp:91] Creating Layer scale_conv3_1a
I0423 12:49:56.569947  8978 net.cpp:425] scale_conv3_1a <- conv3_1a
I0423 12:49:56.569952  8978 net.cpp:386] scale_conv3_1a -> conv3_1a (in-place)
I0423 12:49:56.569996  8978 layer_factory.hpp:77] Creating layer scale_conv3_1a
I0423 12:49:56.570114  8978 net.cpp:141] Setting up scale_conv3_1a
I0423 12:49:56.570123  8978 net.cpp:148] Top shape: 100 32 16 16 (819200)
I0423 12:49:56.570127  8978 net.cpp:156] Memory required for data: 305972400
I0423 12:49:56.570142  8978 layer_factory.hpp:77] Creating layer conv3_1a_relu
I0423 12:49:56.570150  8978 net.cpp:91] Creating Layer conv3_1a_relu
I0423 12:49:56.570154  8978 net.cpp:425] conv3_1a_relu <- conv3_1a
I0423 12:49:56.570159  8978 net.cpp:386] conv3_1a_relu -> conv3_1a (in-place)
I0423 12:49:56.570425  8978 net.cpp:141] Setting up conv3_1a_relu
I0423 12:49:56.570439  8978 net.cpp:148] Top shape: 100 32 16 16 (819200)
I0423 12:49:56.570443  8978 net.cpp:156] Memory required for data: 309249200
I0423 12:49:56.570447  8978 layer_factory.hpp:77] Creating layer conv3_1b
I0423 12:49:56.570458  8978 net.cpp:91] Creating Layer conv3_1b
I0423 12:49:56.570463  8978 net.cpp:425] conv3_1b <- conv3_1a
I0423 12:49:56.570472  8978 net.cpp:399] conv3_1b -> conv3_1b
I0423 12:49:56.571655  8978 net.cpp:141] Setting up conv3_1b
I0423 12:49:56.571669  8978 net.cpp:148] Top shape: 100 32 16 16 (819200)
I0423 12:49:56.571673  8978 net.cpp:156] Memory required for data: 312526000
I0423 12:49:56.571681  8978 layer_factory.hpp:77] Creating layer bn_conv3_1b
I0423 12:49:56.571693  8978 net.cpp:91] Creating Layer bn_conv3_1b
I0423 12:49:56.571698  8978 net.cpp:425] bn_conv3_1b <- conv3_1b
I0423 12:49:56.571704  8978 net.cpp:386] bn_conv3_1b -> conv3_1b (in-place)
I0423 12:49:56.571894  8978 net.cpp:141] Setting up bn_conv3_1b
I0423 12:49:56.571902  8978 net.cpp:148] Top shape: 100 32 16 16 (819200)
I0423 12:49:56.571907  8978 net.cpp:156] Memory required for data: 315802800
I0423 12:49:56.571913  8978 layer_factory.hpp:77] Creating layer scale_conv3_1b
I0423 12:49:56.571920  8978 net.cpp:91] Creating Layer scale_conv3_1b
I0423 12:49:56.571924  8978 net.cpp:425] scale_conv3_1b <- conv3_1b
I0423 12:49:56.571929  8978 net.cpp:386] scale_conv3_1b -> conv3_1b (in-place)
I0423 12:49:56.571970  8978 layer_factory.hpp:77] Creating layer scale_conv3_1b
I0423 12:49:56.572085  8978 net.cpp:141] Setting up scale_conv3_1b
I0423 12:49:56.572094  8978 net.cpp:148] Top shape: 100 32 16 16 (819200)
I0423 12:49:56.572098  8978 net.cpp:156] Memory required for data: 319079600
I0423 12:49:56.572104  8978 layer_factory.hpp:77] Creating layer conv3_1
I0423 12:49:56.572110  8978 net.cpp:91] Creating Layer conv3_1
I0423 12:49:56.572114  8978 net.cpp:425] conv3_1 <- conv3_1b
I0423 12:49:56.572119  8978 net.cpp:425] conv3_1 <- conv2_sub_scale_conv2_sub_0_split_0
I0423 12:49:56.572124  8978 net.cpp:399] conv3_1 -> conv3_1
I0423 12:49:56.572147  8978 net.cpp:141] Setting up conv3_1
I0423 12:49:56.572154  8978 net.cpp:148] Top shape: 100 32 16 16 (819200)
I0423 12:49:56.572157  8978 net.cpp:156] Memory required for data: 322356400
I0423 12:49:56.572161  8978 layer_factory.hpp:77] Creating layer conv3_1_relu
I0423 12:49:56.572167  8978 net.cpp:91] Creating Layer conv3_1_relu
I0423 12:49:56.572170  8978 net.cpp:425] conv3_1_relu <- conv3_1
I0423 12:49:56.572177  8978 net.cpp:386] conv3_1_relu -> conv3_1 (in-place)
I0423 12:49:56.572335  8978 net.cpp:141] Setting up conv3_1_relu
I0423 12:49:56.572345  8978 net.cpp:148] Top shape: 100 32 16 16 (819200)
I0423 12:49:56.572348  8978 net.cpp:156] Memory required for data: 325633200
I0423 12:49:56.572352  8978 layer_factory.hpp:77] Creating layer conv3_1_conv3_1_relu_0_split
I0423 12:49:56.572361  8978 net.cpp:91] Creating Layer conv3_1_conv3_1_relu_0_split
I0423 12:49:56.572366  8978 net.cpp:425] conv3_1_conv3_1_relu_0_split <- conv3_1
I0423 12:49:56.572371  8978 net.cpp:399] conv3_1_conv3_1_relu_0_split -> conv3_1_conv3_1_relu_0_split_0
I0423 12:49:56.572382  8978 net.cpp:399] conv3_1_conv3_1_relu_0_split -> conv3_1_conv3_1_relu_0_split_1
I0423 12:49:56.572425  8978 net.cpp:141] Setting up conv3_1_conv3_1_relu_0_split
I0423 12:49:56.572434  8978 net.cpp:148] Top shape: 100 32 16 16 (819200)
I0423 12:49:56.572438  8978 net.cpp:148] Top shape: 100 32 16 16 (819200)
I0423 12:49:56.572443  8978 net.cpp:156] Memory required for data: 332186800
I0423 12:49:56.572445  8978 layer_factory.hpp:77] Creating layer conv3_2a
I0423 12:49:56.572456  8978 net.cpp:91] Creating Layer conv3_2a
I0423 12:49:56.572460  8978 net.cpp:425] conv3_2a <- conv3_1_conv3_1_relu_0_split_0
I0423 12:49:56.572468  8978 net.cpp:399] conv3_2a -> conv3_2a
I0423 12:49:56.573693  8978 net.cpp:141] Setting up conv3_2a
I0423 12:49:56.573707  8978 net.cpp:148] Top shape: 100 32 16 16 (819200)
I0423 12:49:56.573712  8978 net.cpp:156] Memory required for data: 335463600
I0423 12:49:56.573719  8978 layer_factory.hpp:77] Creating layer bn_conv3_2a
I0423 12:49:56.573727  8978 net.cpp:91] Creating Layer bn_conv3_2a
I0423 12:49:56.573732  8978 net.cpp:425] bn_conv3_2a <- conv3_2a
I0423 12:49:56.573740  8978 net.cpp:386] bn_conv3_2a -> conv3_2a (in-place)
I0423 12:49:56.573932  8978 net.cpp:141] Setting up bn_conv3_2a
I0423 12:49:56.573940  8978 net.cpp:148] Top shape: 100 32 16 16 (819200)
I0423 12:49:56.573943  8978 net.cpp:156] Memory required for data: 338740400
I0423 12:49:56.573951  8978 layer_factory.hpp:77] Creating layer scale_conv3_2a
I0423 12:49:56.573959  8978 net.cpp:91] Creating Layer scale_conv3_2a
I0423 12:49:56.573963  8978 net.cpp:425] scale_conv3_2a <- conv3_2a
I0423 12:49:56.573973  8978 net.cpp:386] scale_conv3_2a -> conv3_2a (in-place)
I0423 12:49:56.574017  8978 layer_factory.hpp:77] Creating layer scale_conv3_2a
I0423 12:49:56.574133  8978 net.cpp:141] Setting up scale_conv3_2a
I0423 12:49:56.574142  8978 net.cpp:148] Top shape: 100 32 16 16 (819200)
I0423 12:49:56.574146  8978 net.cpp:156] Memory required for data: 342017200
I0423 12:49:56.574152  8978 layer_factory.hpp:77] Creating layer conv3_2a_relu
I0423 12:49:56.574157  8978 net.cpp:91] Creating Layer conv3_2a_relu
I0423 12:49:56.574162  8978 net.cpp:425] conv3_2a_relu <- conv3_2a
I0423 12:49:56.574168  8978 net.cpp:386] conv3_2a_relu -> conv3_2a (in-place)
I0423 12:49:56.574434  8978 net.cpp:141] Setting up conv3_2a_relu
I0423 12:49:56.574446  8978 net.cpp:148] Top shape: 100 32 16 16 (819200)
I0423 12:49:56.574450  8978 net.cpp:156] Memory required for data: 345294000
I0423 12:49:56.574455  8978 layer_factory.hpp:77] Creating layer conv3_2b
I0423 12:49:56.574466  8978 net.cpp:91] Creating Layer conv3_2b
I0423 12:49:56.574472  8978 net.cpp:425] conv3_2b <- conv3_2a
I0423 12:49:56.574479  8978 net.cpp:399] conv3_2b -> conv3_2b
I0423 12:49:56.575572  8978 net.cpp:141] Setting up conv3_2b
I0423 12:49:56.575585  8978 net.cpp:148] Top shape: 100 32 16 16 (819200)
I0423 12:49:56.575590  8978 net.cpp:156] Memory required for data: 348570800
I0423 12:49:56.575598  8978 layer_factory.hpp:77] Creating layer bn_conv3_2b
I0423 12:49:56.575604  8978 net.cpp:91] Creating Layer bn_conv3_2b
I0423 12:49:56.575608  8978 net.cpp:425] bn_conv3_2b <- conv3_2b
I0423 12:49:56.575616  8978 net.cpp:386] bn_conv3_2b -> conv3_2b (in-place)
I0423 12:49:56.575811  8978 net.cpp:141] Setting up bn_conv3_2b
I0423 12:49:56.575819  8978 net.cpp:148] Top shape: 100 32 16 16 (819200)
I0423 12:49:56.575822  8978 net.cpp:156] Memory required for data: 351847600
I0423 12:49:56.575830  8978 layer_factory.hpp:77] Creating layer scale_conv3_2b
I0423 12:49:56.575836  8978 net.cpp:91] Creating Layer scale_conv3_2b
I0423 12:49:56.575840  8978 net.cpp:425] scale_conv3_2b <- conv3_2b
I0423 12:49:56.575845  8978 net.cpp:386] scale_conv3_2b -> conv3_2b (in-place)
I0423 12:49:56.575891  8978 layer_factory.hpp:77] Creating layer scale_conv3_2b
I0423 12:49:56.576007  8978 net.cpp:141] Setting up scale_conv3_2b
I0423 12:49:56.576016  8978 net.cpp:148] Top shape: 100 32 16 16 (819200)
I0423 12:49:56.576020  8978 net.cpp:156] Memory required for data: 355124400
I0423 12:49:56.576026  8978 layer_factory.hpp:77] Creating layer conv3_2
I0423 12:49:56.576032  8978 net.cpp:91] Creating Layer conv3_2
I0423 12:49:56.576036  8978 net.cpp:425] conv3_2 <- conv3_2b
I0423 12:49:56.576040  8978 net.cpp:425] conv3_2 <- conv2_sub_scale_conv2_sub_0_split_1
I0423 12:49:56.576045  8978 net.cpp:425] conv3_2 <- conv3_1_conv3_1_relu_0_split_1
I0423 12:49:56.576050  8978 net.cpp:399] conv3_2 -> conv3_2
I0423 12:49:56.576086  8978 net.cpp:141] Setting up conv3_2
I0423 12:49:56.576093  8978 net.cpp:148] Top shape: 100 32 16 16 (819200)
I0423 12:49:56.576097  8978 net.cpp:156] Memory required for data: 358401200
I0423 12:49:56.576102  8978 layer_factory.hpp:77] Creating layer conv3_2_relu
I0423 12:49:56.576107  8978 net.cpp:91] Creating Layer conv3_2_relu
I0423 12:49:56.576112  8978 net.cpp:425] conv3_2_relu <- conv3_2
I0423 12:49:56.576120  8978 net.cpp:386] conv3_2_relu -> conv3_2 (in-place)
I0423 12:49:56.576400  8978 net.cpp:141] Setting up conv3_2_relu
I0423 12:49:56.576413  8978 net.cpp:148] Top shape: 100 32 16 16 (819200)
I0423 12:49:56.576417  8978 net.cpp:156] Memory required for data: 361678000
I0423 12:49:56.576422  8978 layer_factory.hpp:77] Creating layer conv3_2_conv3_2_relu_0_split
I0423 12:49:56.576428  8978 net.cpp:91] Creating Layer conv3_2_conv3_2_relu_0_split
I0423 12:49:56.576433  8978 net.cpp:425] conv3_2_conv3_2_relu_0_split <- conv3_2
I0423 12:49:56.576441  8978 net.cpp:399] conv3_2_conv3_2_relu_0_split -> conv3_2_conv3_2_relu_0_split_0
I0423 12:49:56.576448  8978 net.cpp:399] conv3_2_conv3_2_relu_0_split -> conv3_2_conv3_2_relu_0_split_1
I0423 12:49:56.576508  8978 net.cpp:141] Setting up conv3_2_conv3_2_relu_0_split
I0423 12:49:56.576521  8978 net.cpp:148] Top shape: 100 32 16 16 (819200)
I0423 12:49:56.576526  8978 net.cpp:148] Top shape: 100 32 16 16 (819200)
I0423 12:49:56.576530  8978 net.cpp:156] Memory required for data: 368231600
I0423 12:49:56.576534  8978 layer_factory.hpp:77] Creating layer conv3_3a
I0423 12:49:56.576545  8978 net.cpp:91] Creating Layer conv3_3a
I0423 12:49:56.576550  8978 net.cpp:425] conv3_3a <- conv3_2_conv3_2_relu_0_split_0
I0423 12:49:56.576557  8978 net.cpp:399] conv3_3a -> conv3_3a
I0423 12:49:56.577924  8978 net.cpp:141] Setting up conv3_3a
I0423 12:49:56.577939  8978 net.cpp:148] Top shape: 100 32 16 16 (819200)
I0423 12:49:56.577942  8978 net.cpp:156] Memory required for data: 371508400
I0423 12:49:56.577950  8978 layer_factory.hpp:77] Creating layer bn_conv3_3a
I0423 12:49:56.577958  8978 net.cpp:91] Creating Layer bn_conv3_3a
I0423 12:49:56.577962  8978 net.cpp:425] bn_conv3_3a <- conv3_3a
I0423 12:49:56.577970  8978 net.cpp:386] bn_conv3_3a -> conv3_3a (in-place)
I0423 12:49:56.578164  8978 net.cpp:141] Setting up bn_conv3_3a
I0423 12:49:56.578172  8978 net.cpp:148] Top shape: 100 32 16 16 (819200)
I0423 12:49:56.578176  8978 net.cpp:156] Memory required for data: 374785200
I0423 12:49:56.578182  8978 layer_factory.hpp:77] Creating layer scale_conv3_3a
I0423 12:49:56.578196  8978 net.cpp:91] Creating Layer scale_conv3_3a
I0423 12:49:56.578199  8978 net.cpp:425] scale_conv3_3a <- conv3_3a
I0423 12:49:56.578205  8978 net.cpp:386] scale_conv3_3a -> conv3_3a (in-place)
I0423 12:49:56.578250  8978 layer_factory.hpp:77] Creating layer scale_conv3_3a
I0423 12:49:56.578367  8978 net.cpp:141] Setting up scale_conv3_3a
I0423 12:49:56.578375  8978 net.cpp:148] Top shape: 100 32 16 16 (819200)
I0423 12:49:56.578378  8978 net.cpp:156] Memory required for data: 378062000
I0423 12:49:56.578385  8978 layer_factory.hpp:77] Creating layer conv3_3a_relu
I0423 12:49:56.578392  8978 net.cpp:91] Creating Layer conv3_3a_relu
I0423 12:49:56.578395  8978 net.cpp:425] conv3_3a_relu <- conv3_3a
I0423 12:49:56.578402  8978 net.cpp:386] conv3_3a_relu -> conv3_3a (in-place)
I0423 12:49:56.578567  8978 net.cpp:141] Setting up conv3_3a_relu
I0423 12:49:56.578577  8978 net.cpp:148] Top shape: 100 32 16 16 (819200)
I0423 12:49:56.578582  8978 net.cpp:156] Memory required for data: 381338800
I0423 12:49:56.578585  8978 layer_factory.hpp:77] Creating layer conv3_3b
I0423 12:49:56.578598  8978 net.cpp:91] Creating Layer conv3_3b
I0423 12:49:56.578601  8978 net.cpp:425] conv3_3b <- conv3_3a
I0423 12:49:56.578608  8978 net.cpp:399] conv3_3b -> conv3_3b
I0423 12:49:56.579814  8978 net.cpp:141] Setting up conv3_3b
I0423 12:49:56.579828  8978 net.cpp:148] Top shape: 100 32 16 16 (819200)
I0423 12:49:56.579833  8978 net.cpp:156] Memory required for data: 384615600
I0423 12:49:56.579839  8978 layer_factory.hpp:77] Creating layer bn_conv3_3b
I0423 12:49:56.579849  8978 net.cpp:91] Creating Layer bn_conv3_3b
I0423 12:49:56.579854  8978 net.cpp:425] bn_conv3_3b <- conv3_3b
I0423 12:49:56.579859  8978 net.cpp:386] bn_conv3_3b -> conv3_3b (in-place)
I0423 12:49:56.580052  8978 net.cpp:141] Setting up bn_conv3_3b
I0423 12:49:56.580060  8978 net.cpp:148] Top shape: 100 32 16 16 (819200)
I0423 12:49:56.580065  8978 net.cpp:156] Memory required for data: 387892400
I0423 12:49:56.580071  8978 layer_factory.hpp:77] Creating layer scale_conv3_3b
I0423 12:49:56.580080  8978 net.cpp:91] Creating Layer scale_conv3_3b
I0423 12:49:56.580083  8978 net.cpp:425] scale_conv3_3b <- conv3_3b
I0423 12:49:56.580088  8978 net.cpp:386] scale_conv3_3b -> conv3_3b (in-place)
I0423 12:49:56.580132  8978 layer_factory.hpp:77] Creating layer scale_conv3_3b
I0423 12:49:56.580247  8978 net.cpp:141] Setting up scale_conv3_3b
I0423 12:49:56.580255  8978 net.cpp:148] Top shape: 100 32 16 16 (819200)
I0423 12:49:56.580260  8978 net.cpp:156] Memory required for data: 391169200
I0423 12:49:56.580265  8978 layer_factory.hpp:77] Creating layer conv3_3
I0423 12:49:56.580272  8978 net.cpp:91] Creating Layer conv3_3
I0423 12:49:56.580276  8978 net.cpp:425] conv3_3 <- conv3_3b
I0423 12:49:56.580286  8978 net.cpp:425] conv3_3 <- conv2_sub_scale_conv2_sub_0_split_2
I0423 12:49:56.580291  8978 net.cpp:425] conv3_3 <- conv3_2_conv3_2_relu_0_split_1
I0423 12:49:56.580296  8978 net.cpp:399] conv3_3 -> conv3_3
I0423 12:49:56.580320  8978 net.cpp:141] Setting up conv3_3
I0423 12:49:56.580327  8978 net.cpp:148] Top shape: 100 32 16 16 (819200)
I0423 12:49:56.580332  8978 net.cpp:156] Memory required for data: 394446000
I0423 12:49:56.580334  8978 layer_factory.hpp:77] Creating layer conv3_3_relu
I0423 12:49:56.580340  8978 net.cpp:91] Creating Layer conv3_3_relu
I0423 12:49:56.580343  8978 net.cpp:425] conv3_3_relu <- conv3_3
I0423 12:49:56.580348  8978 net.cpp:386] conv3_3_relu -> conv3_3 (in-place)
I0423 12:49:56.580613  8978 net.cpp:141] Setting up conv3_3_relu
I0423 12:49:56.580626  8978 net.cpp:148] Top shape: 100 32 16 16 (819200)
I0423 12:49:56.580631  8978 net.cpp:156] Memory required for data: 397722800
I0423 12:49:56.580634  8978 layer_factory.hpp:77] Creating layer conv3_3_conv3_3_relu_0_split
I0423 12:49:56.580641  8978 net.cpp:91] Creating Layer conv3_3_conv3_3_relu_0_split
I0423 12:49:56.580644  8978 net.cpp:425] conv3_3_conv3_3_relu_0_split <- conv3_3
I0423 12:49:56.580653  8978 net.cpp:399] conv3_3_conv3_3_relu_0_split -> conv3_3_conv3_3_relu_0_split_0
I0423 12:49:56.580660  8978 net.cpp:399] conv3_3_conv3_3_relu_0_split -> conv3_3_conv3_3_relu_0_split_1
I0423 12:49:56.580704  8978 net.cpp:141] Setting up conv3_3_conv3_3_relu_0_split
I0423 12:49:56.580713  8978 net.cpp:148] Top shape: 100 32 16 16 (819200)
I0423 12:49:56.580716  8978 net.cpp:148] Top shape: 100 32 16 16 (819200)
I0423 12:49:56.580720  8978 net.cpp:156] Memory required for data: 404276400
I0423 12:49:56.580724  8978 layer_factory.hpp:77] Creating layer conv3_sub
I0423 12:49:56.580735  8978 net.cpp:91] Creating Layer conv3_sub
I0423 12:49:56.580739  8978 net.cpp:425] conv3_sub <- conv3_3_conv3_3_relu_0_split_0
I0423 12:49:56.580745  8978 net.cpp:399] conv3_sub -> conv3_sub
I0423 12:49:56.581708  8978 net.cpp:141] Setting up conv3_sub
I0423 12:49:56.581723  8978 net.cpp:148] Top shape: 100 64 8 8 (409600)
I0423 12:49:56.581727  8978 net.cpp:156] Memory required for data: 405914800
I0423 12:49:56.581734  8978 layer_factory.hpp:77] Creating layer bn_conv3_sub
I0423 12:49:56.581743  8978 net.cpp:91] Creating Layer bn_conv3_sub
I0423 12:49:56.581748  8978 net.cpp:425] bn_conv3_sub <- conv3_sub
I0423 12:49:56.581753  8978 net.cpp:386] bn_conv3_sub -> conv3_sub (in-place)
I0423 12:49:56.581957  8978 net.cpp:141] Setting up bn_conv3_sub
I0423 12:49:56.581965  8978 net.cpp:148] Top shape: 100 64 8 8 (409600)
I0423 12:49:56.581969  8978 net.cpp:156] Memory required for data: 407553200
I0423 12:49:56.581976  8978 layer_factory.hpp:77] Creating layer scale_conv3_sub
I0423 12:49:56.581982  8978 net.cpp:91] Creating Layer scale_conv3_sub
I0423 12:49:56.581986  8978 net.cpp:425] scale_conv3_sub <- conv3_sub
I0423 12:49:56.581992  8978 net.cpp:386] scale_conv3_sub -> conv3_sub (in-place)
I0423 12:49:56.582038  8978 layer_factory.hpp:77] Creating layer scale_conv3_sub
I0423 12:49:56.582156  8978 net.cpp:141] Setting up scale_conv3_sub
I0423 12:49:56.582165  8978 net.cpp:148] Top shape: 100 64 8 8 (409600)
I0423 12:49:56.582168  8978 net.cpp:156] Memory required for data: 409191600
I0423 12:49:56.582175  8978 layer_factory.hpp:77] Creating layer conv3_sub_scale_conv3_sub_0_split
I0423 12:49:56.582181  8978 net.cpp:91] Creating Layer conv3_sub_scale_conv3_sub_0_split
I0423 12:49:56.582186  8978 net.cpp:425] conv3_sub_scale_conv3_sub_0_split <- conv3_sub
I0423 12:49:56.582191  8978 net.cpp:399] conv3_sub_scale_conv3_sub_0_split -> conv3_sub_scale_conv3_sub_0_split_0
I0423 12:49:56.582198  8978 net.cpp:399] conv3_sub_scale_conv3_sub_0_split -> conv3_sub_scale_conv3_sub_0_split_1
I0423 12:49:56.582204  8978 net.cpp:399] conv3_sub_scale_conv3_sub_0_split -> conv3_sub_scale_conv3_sub_0_split_2
I0423 12:49:56.582257  8978 net.cpp:141] Setting up conv3_sub_scale_conv3_sub_0_split
I0423 12:49:56.582263  8978 net.cpp:148] Top shape: 100 64 8 8 (409600)
I0423 12:49:56.582272  8978 net.cpp:148] Top shape: 100 64 8 8 (409600)
I0423 12:49:56.582276  8978 net.cpp:148] Top shape: 100 64 8 8 (409600)
I0423 12:49:56.582279  8978 net.cpp:156] Memory required for data: 414106800
I0423 12:49:56.582283  8978 layer_factory.hpp:77] Creating layer conv4_1a
I0423 12:49:56.582293  8978 net.cpp:91] Creating Layer conv4_1a
I0423 12:49:56.582298  8978 net.cpp:425] conv4_1a <- conv3_3_conv3_3_relu_0_split_1
I0423 12:49:56.582304  8978 net.cpp:399] conv4_1a -> conv4_1a
I0423 12:49:56.583430  8978 net.cpp:141] Setting up conv4_1a
I0423 12:49:56.583443  8978 net.cpp:148] Top shape: 100 64 8 8 (409600)
I0423 12:49:56.583447  8978 net.cpp:156] Memory required for data: 415745200
I0423 12:49:56.583454  8978 layer_factory.hpp:77] Creating layer bn_conv4_1a
I0423 12:49:56.583466  8978 net.cpp:91] Creating Layer bn_conv4_1a
I0423 12:49:56.583470  8978 net.cpp:425] bn_conv4_1a <- conv4_1a
I0423 12:49:56.583477  8978 net.cpp:386] bn_conv4_1a -> conv4_1a (in-place)
I0423 12:49:56.583681  8978 net.cpp:141] Setting up bn_conv4_1a
I0423 12:49:56.583689  8978 net.cpp:148] Top shape: 100 64 8 8 (409600)
I0423 12:49:56.583693  8978 net.cpp:156] Memory required for data: 417383600
I0423 12:49:56.583700  8978 layer_factory.hpp:77] Creating layer scale_conv4_1a
I0423 12:49:56.583706  8978 net.cpp:91] Creating Layer scale_conv4_1a
I0423 12:49:56.583710  8978 net.cpp:425] scale_conv4_1a <- conv4_1a
I0423 12:49:56.583716  8978 net.cpp:386] scale_conv4_1a -> conv4_1a (in-place)
I0423 12:49:56.583761  8978 layer_factory.hpp:77] Creating layer scale_conv4_1a
I0423 12:49:56.583883  8978 net.cpp:141] Setting up scale_conv4_1a
I0423 12:49:56.583889  8978 net.cpp:148] Top shape: 100 64 8 8 (409600)
I0423 12:49:56.583894  8978 net.cpp:156] Memory required for data: 419022000
I0423 12:49:56.583899  8978 layer_factory.hpp:77] Creating layer conv4_1a_relu
I0423 12:49:56.583906  8978 net.cpp:91] Creating Layer conv4_1a_relu
I0423 12:49:56.583911  8978 net.cpp:425] conv4_1a_relu <- conv4_1a
I0423 12:49:56.583915  8978 net.cpp:386] conv4_1a_relu -> conv4_1a (in-place)
I0423 12:49:56.584190  8978 net.cpp:141] Setting up conv4_1a_relu
I0423 12:49:56.584203  8978 net.cpp:148] Top shape: 100 64 8 8 (409600)
I0423 12:49:56.584208  8978 net.cpp:156] Memory required for data: 420660400
I0423 12:49:56.584211  8978 layer_factory.hpp:77] Creating layer conv4_1b
I0423 12:49:56.584223  8978 net.cpp:91] Creating Layer conv4_1b
I0423 12:49:56.584228  8978 net.cpp:425] conv4_1b <- conv4_1a
I0423 12:49:56.584239  8978 net.cpp:399] conv4_1b -> conv4_1b
I0423 12:49:56.586189  8978 net.cpp:141] Setting up conv4_1b
I0423 12:49:56.586205  8978 net.cpp:148] Top shape: 100 64 8 8 (409600)
I0423 12:49:56.586208  8978 net.cpp:156] Memory required for data: 422298800
I0423 12:49:56.586215  8978 layer_factory.hpp:77] Creating layer bn_conv4_1b
I0423 12:49:56.586225  8978 net.cpp:91] Creating Layer bn_conv4_1b
I0423 12:49:56.586228  8978 net.cpp:425] bn_conv4_1b <- conv4_1b
I0423 12:49:56.586235  8978 net.cpp:386] bn_conv4_1b -> conv4_1b (in-place)
I0423 12:49:56.586447  8978 net.cpp:141] Setting up bn_conv4_1b
I0423 12:49:56.586454  8978 net.cpp:148] Top shape: 100 64 8 8 (409600)
I0423 12:49:56.586458  8978 net.cpp:156] Memory required for data: 423937200
I0423 12:49:56.586465  8978 layer_factory.hpp:77] Creating layer scale_conv4_1b
I0423 12:49:56.586472  8978 net.cpp:91] Creating Layer scale_conv4_1b
I0423 12:49:56.586477  8978 net.cpp:425] scale_conv4_1b <- conv4_1b
I0423 12:49:56.586482  8978 net.cpp:386] scale_conv4_1b -> conv4_1b (in-place)
I0423 12:49:56.586527  8978 layer_factory.hpp:77] Creating layer scale_conv4_1b
I0423 12:49:56.586648  8978 net.cpp:141] Setting up scale_conv4_1b
I0423 12:49:56.586657  8978 net.cpp:148] Top shape: 100 64 8 8 (409600)
I0423 12:49:56.586659  8978 net.cpp:156] Memory required for data: 425575600
I0423 12:49:56.586665  8978 layer_factory.hpp:77] Creating layer conv4_1
I0423 12:49:56.586671  8978 net.cpp:91] Creating Layer conv4_1
I0423 12:49:56.586675  8978 net.cpp:425] conv4_1 <- conv3_sub_scale_conv3_sub_0_split_0
I0423 12:49:56.586684  8978 net.cpp:425] conv4_1 <- conv4_1b
I0423 12:49:56.586689  8978 net.cpp:399] conv4_1 -> conv4_1
I0423 12:49:56.586719  8978 net.cpp:141] Setting up conv4_1
I0423 12:49:56.586726  8978 net.cpp:148] Top shape: 100 64 8 8 (409600)
I0423 12:49:56.586730  8978 net.cpp:156] Memory required for data: 427214000
I0423 12:49:56.586733  8978 layer_factory.hpp:77] Creating layer conv4_1_relu
I0423 12:49:56.586740  8978 net.cpp:91] Creating Layer conv4_1_relu
I0423 12:49:56.586745  8978 net.cpp:425] conv4_1_relu <- conv4_1
I0423 12:49:56.586750  8978 net.cpp:386] conv4_1_relu -> conv4_1 (in-place)
I0423 12:49:56.587015  8978 net.cpp:141] Setting up conv4_1_relu
I0423 12:49:56.587030  8978 net.cpp:148] Top shape: 100 64 8 8 (409600)
I0423 12:49:56.587034  8978 net.cpp:156] Memory required for data: 428852400
I0423 12:49:56.587038  8978 layer_factory.hpp:77] Creating layer conv4_1_conv4_1_relu_0_split
I0423 12:49:56.587044  8978 net.cpp:91] Creating Layer conv4_1_conv4_1_relu_0_split
I0423 12:49:56.587049  8978 net.cpp:425] conv4_1_conv4_1_relu_0_split <- conv4_1
I0423 12:49:56.587054  8978 net.cpp:399] conv4_1_conv4_1_relu_0_split -> conv4_1_conv4_1_relu_0_split_0
I0423 12:49:56.587060  8978 net.cpp:399] conv4_1_conv4_1_relu_0_split -> conv4_1_conv4_1_relu_0_split_1
I0423 12:49:56.587107  8978 net.cpp:141] Setting up conv4_1_conv4_1_relu_0_split
I0423 12:49:56.587116  8978 net.cpp:148] Top shape: 100 64 8 8 (409600)
I0423 12:49:56.587119  8978 net.cpp:148] Top shape: 100 64 8 8 (409600)
I0423 12:49:56.587123  8978 net.cpp:156] Memory required for data: 432129200
I0423 12:49:56.587126  8978 layer_factory.hpp:77] Creating layer conv4_2a
I0423 12:49:56.587137  8978 net.cpp:91] Creating Layer conv4_2a
I0423 12:49:56.587141  8978 net.cpp:425] conv4_2a <- conv4_1_conv4_1_relu_0_split_0
I0423 12:49:56.587149  8978 net.cpp:399] conv4_2a -> conv4_2a
I0423 12:49:56.589108  8978 net.cpp:141] Setting up conv4_2a
I0423 12:49:56.589138  8978 net.cpp:148] Top shape: 100 64 8 8 (409600)
I0423 12:49:56.589143  8978 net.cpp:156] Memory required for data: 433767600
I0423 12:49:56.589150  8978 layer_factory.hpp:77] Creating layer bn_conv4_2a
I0423 12:49:56.589161  8978 net.cpp:91] Creating Layer bn_conv4_2a
I0423 12:49:56.589166  8978 net.cpp:425] bn_conv4_2a <- conv4_2a
I0423 12:49:56.589172  8978 net.cpp:386] bn_conv4_2a -> conv4_2a (in-place)
I0423 12:49:56.589398  8978 net.cpp:141] Setting up bn_conv4_2a
I0423 12:49:56.589406  8978 net.cpp:148] Top shape: 100 64 8 8 (409600)
I0423 12:49:56.589411  8978 net.cpp:156] Memory required for data: 435406000
I0423 12:49:56.589418  8978 layer_factory.hpp:77] Creating layer scale_conv4_2a
I0423 12:49:56.589426  8978 net.cpp:91] Creating Layer scale_conv4_2a
I0423 12:49:56.589440  8978 net.cpp:425] scale_conv4_2a <- conv4_2a
I0423 12:49:56.589445  8978 net.cpp:386] scale_conv4_2a -> conv4_2a (in-place)
I0423 12:49:56.589493  8978 layer_factory.hpp:77] Creating layer scale_conv4_2a
I0423 12:49:56.589614  8978 net.cpp:141] Setting up scale_conv4_2a
I0423 12:49:56.589622  8978 net.cpp:148] Top shape: 100 64 8 8 (409600)
I0423 12:49:56.589625  8978 net.cpp:156] Memory required for data: 437044400
I0423 12:49:56.589632  8978 layer_factory.hpp:77] Creating layer conv4_2a_relu
I0423 12:49:56.589637  8978 net.cpp:91] Creating Layer conv4_2a_relu
I0423 12:49:56.589642  8978 net.cpp:425] conv4_2a_relu <- conv4_2a
I0423 12:49:56.589646  8978 net.cpp:386] conv4_2a_relu -> conv4_2a (in-place)
I0423 12:49:56.589812  8978 net.cpp:141] Setting up conv4_2a_relu
I0423 12:49:56.589823  8978 net.cpp:148] Top shape: 100 64 8 8 (409600)
I0423 12:49:56.589825  8978 net.cpp:156] Memory required for data: 438682800
I0423 12:49:56.589830  8978 layer_factory.hpp:77] Creating layer conv4_2b
I0423 12:49:56.589840  8978 net.cpp:91] Creating Layer conv4_2b
I0423 12:49:56.589844  8978 net.cpp:425] conv4_2b <- conv4_2a
I0423 12:49:56.589853  8978 net.cpp:399] conv4_2b -> conv4_2b
I0423 12:49:56.592398  8978 net.cpp:141] Setting up conv4_2b
I0423 12:49:56.592414  8978 net.cpp:148] Top shape: 100 64 8 8 (409600)
I0423 12:49:56.592423  8978 net.cpp:156] Memory required for data: 440321200
I0423 12:49:56.592454  8978 layer_factory.hpp:77] Creating layer bn_conv4_2b
I0423 12:49:56.592463  8978 net.cpp:91] Creating Layer bn_conv4_2b
I0423 12:49:56.592468  8978 net.cpp:425] bn_conv4_2b <- conv4_2b
I0423 12:49:56.592474  8978 net.cpp:386] bn_conv4_2b -> conv4_2b (in-place)
I0423 12:49:56.592694  8978 net.cpp:141] Setting up bn_conv4_2b
I0423 12:49:56.592702  8978 net.cpp:148] Top shape: 100 64 8 8 (409600)
I0423 12:49:56.592707  8978 net.cpp:156] Memory required for data: 441959600
I0423 12:49:56.592716  8978 layer_factory.hpp:77] Creating layer scale_conv4_2b
I0423 12:49:56.592723  8978 net.cpp:91] Creating Layer scale_conv4_2b
I0423 12:49:56.592727  8978 net.cpp:425] scale_conv4_2b <- conv4_2b
I0423 12:49:56.592732  8978 net.cpp:386] scale_conv4_2b -> conv4_2b (in-place)
I0423 12:49:56.592780  8978 layer_factory.hpp:77] Creating layer scale_conv4_2b
I0423 12:49:56.592910  8978 net.cpp:141] Setting up scale_conv4_2b
I0423 12:49:56.592918  8978 net.cpp:148] Top shape: 100 64 8 8 (409600)
I0423 12:49:56.592921  8978 net.cpp:156] Memory required for data: 443598000
I0423 12:49:56.592928  8978 layer_factory.hpp:77] Creating layer conv4_2
I0423 12:49:56.592934  8978 net.cpp:91] Creating Layer conv4_2
I0423 12:49:56.592939  8978 net.cpp:425] conv4_2 <- conv4_1_conv4_1_relu_0_split_1
I0423 12:49:56.592947  8978 net.cpp:425] conv4_2 <- conv3_sub_scale_conv3_sub_0_split_1
I0423 12:49:56.592950  8978 net.cpp:425] conv4_2 <- conv4_2b
I0423 12:49:56.592957  8978 net.cpp:399] conv4_2 -> conv4_2
I0423 12:49:56.592984  8978 net.cpp:141] Setting up conv4_2
I0423 12:49:56.592993  8978 net.cpp:148] Top shape: 100 64 8 8 (409600)
I0423 12:49:56.592995  8978 net.cpp:156] Memory required for data: 445236400
I0423 12:49:56.592999  8978 layer_factory.hpp:77] Creating layer conv4_2_relu
I0423 12:49:56.593010  8978 net.cpp:91] Creating Layer conv4_2_relu
I0423 12:49:56.593014  8978 net.cpp:425] conv4_2_relu <- conv4_2
I0423 12:49:56.593020  8978 net.cpp:386] conv4_2_relu -> conv4_2 (in-place)
I0423 12:49:56.593336  8978 net.cpp:141] Setting up conv4_2_relu
I0423 12:49:56.593351  8978 net.cpp:148] Top shape: 100 64 8 8 (409600)
I0423 12:49:56.593355  8978 net.cpp:156] Memory required for data: 446874800
I0423 12:49:56.593360  8978 layer_factory.hpp:77] Creating layer conv4_2_conv4_2_relu_0_split
I0423 12:49:56.593367  8978 net.cpp:91] Creating Layer conv4_2_conv4_2_relu_0_split
I0423 12:49:56.593371  8978 net.cpp:425] conv4_2_conv4_2_relu_0_split <- conv4_2
I0423 12:49:56.593379  8978 net.cpp:399] conv4_2_conv4_2_relu_0_split -> conv4_2_conv4_2_relu_0_split_0
I0423 12:49:56.593389  8978 net.cpp:399] conv4_2_conv4_2_relu_0_split -> conv4_2_conv4_2_relu_0_split_1
I0423 12:49:56.593454  8978 net.cpp:141] Setting up conv4_2_conv4_2_relu_0_split
I0423 12:49:56.593463  8978 net.cpp:148] Top shape: 100 64 8 8 (409600)
I0423 12:49:56.593480  8978 net.cpp:148] Top shape: 100 64 8 8 (409600)
I0423 12:49:56.593483  8978 net.cpp:156] Memory required for data: 450151600
I0423 12:49:56.593487  8978 layer_factory.hpp:77] Creating layer conv4_3a
I0423 12:49:56.593499  8978 net.cpp:91] Creating Layer conv4_3a
I0423 12:49:56.593504  8978 net.cpp:425] conv4_3a <- conv4_2_conv4_2_relu_0_split_0
I0423 12:49:56.593510  8978 net.cpp:399] conv4_3a -> conv4_3a
I0423 12:49:56.595569  8978 net.cpp:141] Setting up conv4_3a
I0423 12:49:56.595590  8978 net.cpp:148] Top shape: 100 64 8 8 (409600)
I0423 12:49:56.595594  8978 net.cpp:156] Memory required for data: 451790000
I0423 12:49:56.595603  8978 layer_factory.hpp:77] Creating layer bn_conv4_3a
I0423 12:49:56.595614  8978 net.cpp:91] Creating Layer bn_conv4_3a
I0423 12:49:56.595620  8978 net.cpp:425] bn_conv4_3a <- conv4_3a
I0423 12:49:56.595626  8978 net.cpp:386] bn_conv4_3a -> conv4_3a (in-place)
I0423 12:49:56.595859  8978 net.cpp:141] Setting up bn_conv4_3a
I0423 12:49:56.595867  8978 net.cpp:148] Top shape: 100 64 8 8 (409600)
I0423 12:49:56.595871  8978 net.cpp:156] Memory required for data: 453428400
I0423 12:49:56.595887  8978 layer_factory.hpp:77] Creating layer scale_conv4_3a
I0423 12:49:56.595896  8978 net.cpp:91] Creating Layer scale_conv4_3a
I0423 12:49:56.595901  8978 net.cpp:425] scale_conv4_3a <- conv4_3a
I0423 12:49:56.595906  8978 net.cpp:386] scale_conv4_3a -> conv4_3a (in-place)
I0423 12:49:56.595966  8978 layer_factory.hpp:77] Creating layer scale_conv4_3a
I0423 12:49:56.596107  8978 net.cpp:141] Setting up scale_conv4_3a
I0423 12:49:56.596117  8978 net.cpp:148] Top shape: 100 64 8 8 (409600)
I0423 12:49:56.596120  8978 net.cpp:156] Memory required for data: 455066800
I0423 12:49:56.596128  8978 layer_factory.hpp:77] Creating layer conv4_3a_relu
I0423 12:49:56.596135  8978 net.cpp:91] Creating Layer conv4_3a_relu
I0423 12:49:56.596139  8978 net.cpp:425] conv4_3a_relu <- conv4_3a
I0423 12:49:56.596144  8978 net.cpp:386] conv4_3a_relu -> conv4_3a (in-place)
I0423 12:49:56.596441  8978 net.cpp:141] Setting up conv4_3a_relu
I0423 12:49:56.596456  8978 net.cpp:148] Top shape: 100 64 8 8 (409600)
I0423 12:49:56.596460  8978 net.cpp:156] Memory required for data: 456705200
I0423 12:49:56.596464  8978 layer_factory.hpp:77] Creating layer conv4_3b
I0423 12:49:56.596477  8978 net.cpp:91] Creating Layer conv4_3b
I0423 12:49:56.596483  8978 net.cpp:425] conv4_3b <- conv4_3a
I0423 12:49:56.596492  8978 net.cpp:399] conv4_3b -> conv4_3b
I0423 12:49:56.598672  8978 net.cpp:141] Setting up conv4_3b
I0423 12:49:56.598687  8978 net.cpp:148] Top shape: 100 64 8 8 (409600)
I0423 12:49:56.598691  8978 net.cpp:156] Memory required for data: 458343600
I0423 12:49:56.598700  8978 layer_factory.hpp:77] Creating layer bn_conv4_3b
I0423 12:49:56.598711  8978 net.cpp:91] Creating Layer bn_conv4_3b
I0423 12:49:56.598716  8978 net.cpp:425] bn_conv4_3b <- conv4_3b
I0423 12:49:56.598721  8978 net.cpp:386] bn_conv4_3b -> conv4_3b (in-place)
I0423 12:49:56.598944  8978 net.cpp:141] Setting up bn_conv4_3b
I0423 12:49:56.598953  8978 net.cpp:148] Top shape: 100 64 8 8 (409600)
I0423 12:49:56.598956  8978 net.cpp:156] Memory required for data: 459982000
I0423 12:49:56.598964  8978 layer_factory.hpp:77] Creating layer scale_conv4_3b
I0423 12:49:56.598970  8978 net.cpp:91] Creating Layer scale_conv4_3b
I0423 12:49:56.598975  8978 net.cpp:425] scale_conv4_3b <- conv4_3b
I0423 12:49:56.598980  8978 net.cpp:386] scale_conv4_3b -> conv4_3b (in-place)
I0423 12:49:56.599030  8978 layer_factory.hpp:77] Creating layer scale_conv4_3b
I0423 12:49:56.599161  8978 net.cpp:141] Setting up scale_conv4_3b
I0423 12:49:56.599171  8978 net.cpp:148] Top shape: 100 64 8 8 (409600)
I0423 12:49:56.599175  8978 net.cpp:156] Memory required for data: 461620400
I0423 12:49:56.599181  8978 layer_factory.hpp:77] Creating layer conv4_3
I0423 12:49:56.599189  8978 net.cpp:91] Creating Layer conv4_3
I0423 12:49:56.599194  8978 net.cpp:425] conv4_3 <- conv4_2_conv4_2_relu_0_split_1
I0423 12:49:56.599198  8978 net.cpp:425] conv4_3 <- conv3_sub_scale_conv3_sub_0_split_2
I0423 12:49:56.599203  8978 net.cpp:425] conv4_3 <- conv4_3b
I0423 12:49:56.599210  8978 net.cpp:399] conv4_3 -> conv4_3
I0423 12:49:56.599241  8978 net.cpp:141] Setting up conv4_3
I0423 12:49:56.599248  8978 net.cpp:148] Top shape: 100 64 8 8 (409600)
I0423 12:49:56.599252  8978 net.cpp:156] Memory required for data: 463258800
I0423 12:49:56.599256  8978 layer_factory.hpp:77] Creating layer conv4_3_relu
I0423 12:49:56.599262  8978 net.cpp:91] Creating Layer conv4_3_relu
I0423 12:49:56.599268  8978 net.cpp:425] conv4_3_relu <- conv4_3
I0423 12:49:56.599273  8978 net.cpp:386] conv4_3_relu -> conv4_3 (in-place)
I0423 12:49:56.599448  8978 net.cpp:141] Setting up conv4_3_relu
I0423 12:49:56.599459  8978 net.cpp:148] Top shape: 100 64 8 8 (409600)
I0423 12:49:56.599463  8978 net.cpp:156] Memory required for data: 464897200
I0423 12:49:56.599467  8978 layer_factory.hpp:77] Creating layer global_pool
I0423 12:49:56.599477  8978 net.cpp:91] Creating Layer global_pool
I0423 12:49:56.599481  8978 net.cpp:425] global_pool <- conv4_3
I0423 12:49:56.599488  8978 net.cpp:399] global_pool -> global_pool
I0423 12:49:56.599804  8978 net.cpp:141] Setting up global_pool
I0423 12:49:56.599818  8978 net.cpp:148] Top shape: 100 64 1 1 (6400)
I0423 12:49:56.599822  8978 net.cpp:156] Memory required for data: 464922800
I0423 12:49:56.599827  8978 layer_factory.hpp:77] Creating layer ip
I0423 12:49:56.599834  8978 net.cpp:91] Creating Layer ip
I0423 12:49:56.599839  8978 net.cpp:425] ip <- global_pool
I0423 12:49:56.599849  8978 net.cpp:399] ip -> ip
I0423 12:49:56.599988  8978 net.cpp:141] Setting up ip
I0423 12:49:56.599997  8978 net.cpp:148] Top shape: 100 10 (1000)
I0423 12:49:56.600000  8978 net.cpp:156] Memory required for data: 464926800
I0423 12:49:56.600008  8978 layer_factory.hpp:77] Creating layer ip_ip_0_split
I0423 12:49:56.600016  8978 net.cpp:91] Creating Layer ip_ip_0_split
I0423 12:49:56.600021  8978 net.cpp:425] ip_ip_0_split <- ip
I0423 12:49:56.600026  8978 net.cpp:399] ip_ip_0_split -> ip_ip_0_split_0
I0423 12:49:56.600035  8978 net.cpp:399] ip_ip_0_split -> ip_ip_0_split_1
I0423 12:49:56.600090  8978 net.cpp:141] Setting up ip_ip_0_split
I0423 12:49:56.600097  8978 net.cpp:148] Top shape: 100 10 (1000)
I0423 12:49:56.600103  8978 net.cpp:148] Top shape: 100 10 (1000)
I0423 12:49:56.600106  8978 net.cpp:156] Memory required for data: 464934800
I0423 12:49:56.600111  8978 layer_factory.hpp:77] Creating layer accuracy
I0423 12:49:56.600117  8978 net.cpp:91] Creating Layer accuracy
I0423 12:49:56.600121  8978 net.cpp:425] accuracy <- ip_ip_0_split_0
I0423 12:49:56.600126  8978 net.cpp:425] accuracy <- label_cifar_1_split_0
I0423 12:49:56.600134  8978 net.cpp:399] accuracy -> accuracy
…
