…
I0411 11:10:58.227443  3301 net.cpp:313] The NetState phase (0) differed from the phase (1) specified by a rule in layer cifar
I0411 11:10:58.227674  3301 net.cpp:49] Initializing net from parameters: 
name: "ResNet-cifar"
state {
  phase: TRAIN
}
layer {
  name: "cifar"
  type: "Data"
  top: "data"
  top: "label"
  include {
    phase: TRAIN
  }
  transform_param {
    mean_file: "/home/liangjiang/code/residual_network/data/cifar10/mean.binaryproto"
  }
  data_param {
    source: "/home/liangjiang/code/residual_network/data/cifar10/cifar10_train_lmdb"
    batch_size: 128
    backend: LMDB
  }
}
layer {
  name: "conv1"
  type: "Convolution"
  bottom: "data"
  top: "conv1"
  param {
    lr_mult: 1
  }
  param {
    lr_mult: 2
  }
  convolution_param {
    num_output: 8
    pad: 1
    kernel_size: 3
    weight_filler {
      type: "msra"
    }
    bias_filler {
      type: "constant"
    }
  }
}
layer {
  name: "bn_conv1"
  type: "BatchNorm"
  bottom: "conv1"
  top: "conv1"
  param {
    lr_mult: 0
  }
  param {
    lr_mult: 0
  }
  param {
    lr_mult: 0
  }
}
layer {
  name: "scale_conv1"
  type: "Scale"
  bottom: "conv1"
  top: "conv1"
  scale_param {
    bias_term: true
  }
}
layer {
  name: "conv1_relu"
  type: "ReLU"
  bottom: "conv1"
  top: "conv1"
}
layer {
  name: "conv2_1a"
  type: "Convolution"
  bottom: "conv1"
  top: "conv2_1a"
  param {
    lr_mult: 1
  }
  param {
    lr_mult: 2
  }
  convolution_param {
    num_output: 8
    pad: 1
    kernel_size: 3
    stride: 1
    weight_filler {
      type: "msra"
    }
    bias_filler {
      type: "constant"
      value: 0
    }
  }
}
layer {
  name: "bn_conv2_1a"
  type: "BatchNorm"
  bottom: "conv2_1a"
  top: "conv2_1a"
  param {
    lr_mult: 0
  }
  param {
    lr_mult: 0
  }
  param {
    lr_mult: 0
  }
}
layer {
  name: "scale_conv2_1a"
  type: "Scale"
  bottom: "conv2_1a"
  top: "conv2_1a"
  scale_param {
    bias_term: true
  }
}
layer {
  name: "conv2_1a_relu"
  type: "ReLU"
  bottom: "conv2_1a"
  top: "conv2_1a"
}
layer {
  name: "conv2_1b"
  type: "Convolution"
  bottom: "conv2_1a"
  top: "conv2_1b"
  param {
    lr_mult: 1
  }
  param {
    lr_mult: 2
  }
  convolution_param {
    num_output: 8
    pad: 1
    kernel_size: 3
    stride: 1
    weight_filler {
      type: "msra"
    }
    bias_filler {
      type: "constant"
      value: 0
    }
  }
}
layer {
  name: "bn_conv2_1b"
  type: "BatchNorm"
  bottom: "conv2_1b"
  top: "conv2_1b"
  param {
    lr_mult: 0
  }
  param {
    lr_mult: 0
  }
  param {
    lr_mult: 0
  }
}
layer {
  name: "scale_conv2_1b"
  type: "Scale"
  bottom: "conv2_1b"
  top: "conv2_1b"
  scale_param {
    bias_term: true
  }
}
layer {
  name: "conv2_1b_relu"
  type: "ReLU"
  bottom: "conv2_1b"
  top: "conv2_1b"
}
layer {
  name: "conv2_sub"
  type: "Convolution"
  bottom: "conv2_1b"
  top: "conv2_sub"
  param {
    lr_mult: 1
  }
  param {
    lr_mult: 2
  }
  convolution_param {
    num_output: 32
    kernel_size: 1
    stride: 2
    weight_filler {
      type: "msra"
    }
    bias_filler {
      type: "constant"
      value: 0
    }
  }
}
layer {
  name: "bn_conv2_sub"
  type: "BatchNorm"
  bottom: "conv2_sub"
  top: "conv2_sub"
  param {
    lr_mult: 0
  }
  param {
    lr_mult: 0
  }
  param {
    lr_mult: 0
  }
}
layer {
  name: "scale_conv2_sub"
  type: "Scale"
  bottom: "conv2_sub"
  top: "conv2_sub"
  scale_param {
    bias_term: true
  }
}
layer {
  name: "conv3_in"
  type: "Eltwise"
  bottom: "conv2_1b"
  bottom: "conv1"
  top: "conv3_in"
}
layer {
  name: "conv3_1a"
  type: "Convolution"
  bottom: "conv3_in"
  top: "conv3_1a"
  param {
    lr_mult: 1
  }
  param {
    lr_mult: 2
  }
  convolution_param {
    num_output: 32
    pad: 0
    kernel_size: 1
    stride: 2
    weight_filler {
      type: "msra"
    }
    bias_filler {
      type: "constant"
      value: 0
    }
  }
}
layer {
  name: "bn_conv3_1a"
  type: "BatchNorm"
  bottom: "conv3_1a"
  top: "conv3_1a"
  param {
    lr_mult: 0
  }
  param {
    lr_mult: 0
  }
  param {
    lr_mult: 0
  }
}
layer {
  name: "scale_conv3_1a"
  type: "Scale"
  bottom: "conv3_1a"
  top: "conv3_1a"
  scale_param {
    bias_term: true
  }
}
layer {
  name: "conv3_1a_relu"
  type: "ReLU"
  bottom: "conv3_1a"
  top: "conv3_1a"
}
layer {
  name: "conv3_1b"
  type: "Convolution"
  bottom: "conv3_1a"
  top: "conv3_1b"
  param {
    lr_mult: 1
  }
  param {
    lr_mult: 2
  }
  convolution_param {
    num_output: 32
    pad: 1
    kernel_size: 3
    stride: 1
    weight_filler {
      type: "msra"
    }
    bias_filler {
      type: "constant"
      value: 0
    }
  }
}
layer {
  name: "bn_conv3_1b"
  type: "BatchNorm"
  bottom: "conv3_1b"
  top: "conv3_1b"
  param {
    lr_mult: 0
  }
  param {
    lr_mult: 0
  }
  param {
    lr_mult: 0
  }
}
layer {
  name: "scale_conv3_1b"
  type: "Scale"
  bottom: "conv3_1b"
  top: "conv3_1b"
  scale_param {
    bias_term: true
  }
}
layer {
  name: "conv3_1b_relu"
  type: "ReLU"
  bottom: "conv3_1b"
  top: "conv3_1b"
}
layer {
  name: "conv3_sub"
  type: "Convolution"
  bottom: "conv3_1b"
  top: "conv3_sub"
  param {
    lr_mult: 1
  }
  param {
    lr_mult: 2
  }
  convolution_param {
    num_output: 128
    kernel_size: 1
    stride: 2
    weight_filler {
      type: "msra"
    }
    bias_filler {
      type: "constant"
      value: 0
    }
  }
}
layer {
  name: "bn_conv3_sub"
  type: "BatchNorm"
  bottom: "conv3_sub"
  top: "conv3_sub"
  param {
    lr_mult: 0
  }
  param {
    lr_mult: 0
  }
  param {
    lr_mult: 0
  }
}
layer {
  name: "scale_conv3_sub"
  type: "Scale"
  bottom: "conv3_sub"
  top: "conv3_sub"
  scale_param {
    bias_term: true
  }
}
layer {
  name: "conv4_in"
  type: "Eltwise"
  bottom: "conv2_sub"
  bottom: "conv3_1b"
  top: "conv4_in"
}
layer {
  name: "conv4_1a"
  type: "Convolution"
  bottom: "conv4_in"
  top: "conv4_1a"
  param {
    lr_mult: 1
  }
  param {
    lr_mult: 2
  }
  convolution_param {
    num_output: 128
    pad: 0
    kernel_size: 1
    stride: 2
    weight_filler {
      type: "msra"
    }
    bias_filler {
      type: "constant"
      value: 0
    }
  }
}
layer {
  name: "bn_conv4_1a"
  type: "BatchNorm"
  bottom: "conv4_1a"
  top: "conv4_1a"
  param {
    lr_mult: 0
  }
  param {
    lr_mult: 0
  }
  param {
    lr_mult: 0
  }
}
layer {
  name: "scale_conv4_1a"
  type: "Scale"
  bottom: "conv4_1a"
  top: "conv4_1a"
  scale_param {
    bias_term: true
  }
}
layer {
  name: "conv4_1a_relu"
  type: "ReLU"
  bottom: "conv4_1a"
  top: "conv4_1a"
}
layer {
  name: "conv4_1b"
  type: "Convolution"
  bottom: "conv4_1a"
  top: "conv4_1b"
  param {
    lr_mult: 1
  }
  param {
    lr_mult: 2
  }
  convolution_param {
    num_output: 128
    pad: 1
    kernel_size: 3
    stride: 1
    weight_filler {
      type: "msra"
    }
    bias_filler {
      type: "constant"
      value: 0
    }
  }
}
layer {
  name: "bn_conv4_1b"
  type: "BatchNorm"
  bottom: "conv4_1b"
  top: "conv4_1b"
  param {
    lr_mult: 0
  }
  param {
    lr_mult: 0
  }
  param {
    lr_mult: 0
  }
}
layer {
  name: "scale_conv4_1b"
  type: "Scale"
  bottom: "conv4_1b"
  top: "conv4_1b"
  scale_param {
    bias_term: true
  }
}
layer {
  name: "conv4_1b_relu"
  type: "ReLU"
  bottom: "conv4_1b"
  top: "conv4_1b"
}
layer {
  name: "global_in"
  type: "Eltwise"
  bottom: "conv4_1b"
  bottom: "conv3_sub"
  top: "global_in"
}
layer {
  name: "global_pool"
  type: "Pooling"
  bottom: "global_in"
  top: "global_pool"
  pooling_param {
    pool: AVE
    kernel_size: 8
    stride: 8
  }
}
layer {
  name: "ip"
  type: "InnerProduct"
  bottom: "global_pool"
  top: "ip"
  inner_product_param {
    num_output: 10
  }
}
layer {
  name: "accuracy"
  type: "Accuracy"
  bottom: "ip"
  bottom: "label"
  top: "accuracy"
}
layer {
  name: "loss"
  type: "SoftmaxWithLoss"
  bottom: "ip"
  bottom: "label"
  top: "loss"
}
I0411 11:10:58.227890  3301 layer_factory.hpp:77] Creating layer cifar
I0411 11:10:58.228373  3301 net.cpp:91] Creating Layer cifar
I0411 11:10:58.228390  3301 net.cpp:399] cifar -> data
I0411 11:10:58.228404  3301 net.cpp:399] cifar -> label
I0411 11:10:58.228421  3301 data_transformer.cpp:25] Loading mean file from: /home/liangjiang/code/residual_network/data/cifar10/mean.binaryproto
I0411 11:10:58.240471  3619 db_lmdb.cpp:38] Opened lmdb /home/liangjiang/code/residual_network/data/cifar10/cifar10_train_lmdb
I0411 11:10:58.300221  3301 data_layer.cpp:41] output data size: 128,3,32,32
I0411 11:10:58.318356  3301 net.cpp:141] Setting up cifar
I0411 11:10:58.318418  3301 net.cpp:148] Top shape: 128 3 32 32 (393216)
I0411 11:10:58.318424  3301 net.cpp:148] Top shape: 128 (128)
I0411 11:10:58.318429  3301 net.cpp:156] Memory required for data: 1573376
I0411 11:10:58.318445  3301 layer_factory.hpp:77] Creating layer label_cifar_1_split
I0411 11:10:58.318485  3301 net.cpp:91] Creating Layer label_cifar_1_split
I0411 11:10:58.318490  3301 net.cpp:425] label_cifar_1_split <- label
I0411 11:10:58.318506  3301 net.cpp:399] label_cifar_1_split -> label_cifar_1_split_0
I0411 11:10:58.318517  3301 net.cpp:399] label_cifar_1_split -> label_cifar_1_split_1
I0411 11:10:58.318617  3301 net.cpp:141] Setting up label_cifar_1_split
I0411 11:10:58.318634  3301 net.cpp:148] Top shape: 128 (128)
I0411 11:10:58.318639  3301 net.cpp:148] Top shape: 128 (128)
I0411 11:10:58.318642  3301 net.cpp:156] Memory required for data: 1574400
I0411 11:10:58.318652  3301 layer_factory.hpp:77] Creating layer conv1
I0411 11:10:58.318675  3301 net.cpp:91] Creating Layer conv1
I0411 11:10:58.318680  3301 net.cpp:425] conv1 <- data
I0411 11:10:58.318688  3301 net.cpp:399] conv1 -> conv1
I0411 11:10:58.604450  3301 net.cpp:141] Setting up conv1
I0411 11:10:58.605845  3301 net.cpp:148] Top shape: 128 8 32 32 (1048576)
I0411 11:10:58.605860  3301 net.cpp:156] Memory required for data: 5768704
I0411 11:10:58.605885  3301 layer_factory.hpp:77] Creating layer bn_conv1
I0411 11:10:58.605904  3301 net.cpp:91] Creating Layer bn_conv1
I0411 11:10:58.605912  3301 net.cpp:425] bn_conv1 <- conv1
I0411 11:10:58.605923  3301 net.cpp:386] bn_conv1 -> conv1 (in-place)
I0411 11:10:58.606243  3301 net.cpp:141] Setting up bn_conv1
I0411 11:10:58.606282  3301 net.cpp:148] Top shape: 128 8 32 32 (1048576)
I0411 11:10:58.606309  3301 net.cpp:156] Memory required for data: 9963008
I0411 11:10:58.606361  3301 layer_factory.hpp:77] Creating layer scale_conv1
I0411 11:10:58.606386  3301 net.cpp:91] Creating Layer scale_conv1
I0411 11:10:58.606405  3301 net.cpp:425] scale_conv1 <- conv1
I0411 11:10:58.606444  3301 net.cpp:386] scale_conv1 -> conv1 (in-place)
I0411 11:10:58.606577  3301 layer_factory.hpp:77] Creating layer scale_conv1
I0411 11:10:58.606758  3301 net.cpp:141] Setting up scale_conv1
I0411 11:10:58.606771  3301 net.cpp:148] Top shape: 128 8 32 32 (1048576)
I0411 11:10:58.606776  3301 net.cpp:156] Memory required for data: 14157312
I0411 11:10:58.606798  3301 layer_factory.hpp:77] Creating layer conv1_relu
I0411 11:10:58.606808  3301 net.cpp:91] Creating Layer conv1_relu
I0411 11:10:58.606813  3301 net.cpp:425] conv1_relu <- conv1
I0411 11:10:58.606822  3301 net.cpp:386] conv1_relu -> conv1 (in-place)
I0411 11:10:58.608522  3301 net.cpp:141] Setting up conv1_relu
I0411 11:10:58.608572  3301 net.cpp:148] Top shape: 128 8 32 32 (1048576)
I0411 11:10:58.608578  3301 net.cpp:156] Memory required for data: 18351616
I0411 11:10:58.608587  3301 layer_factory.hpp:77] Creating layer conv1_conv1_relu_0_split
I0411 11:10:58.608600  3301 net.cpp:91] Creating Layer conv1_conv1_relu_0_split
I0411 11:10:58.608606  3301 net.cpp:425] conv1_conv1_relu_0_split <- conv1
I0411 11:10:58.608618  3301 net.cpp:399] conv1_conv1_relu_0_split -> conv1_conv1_relu_0_split_0
I0411 11:10:58.608628  3301 net.cpp:399] conv1_conv1_relu_0_split -> conv1_conv1_relu_0_split_1
I0411 11:10:58.608683  3301 net.cpp:141] Setting up conv1_conv1_relu_0_split
I0411 11:10:58.608691  3301 net.cpp:148] Top shape: 128 8 32 32 (1048576)
I0411 11:10:58.608696  3301 net.cpp:148] Top shape: 128 8 32 32 (1048576)
I0411 11:10:58.608701  3301 net.cpp:156] Memory required for data: 26740224
I0411 11:10:58.608705  3301 layer_factory.hpp:77] Creating layer conv2_1a
I0411 11:10:58.608721  3301 net.cpp:91] Creating Layer conv2_1a
I0411 11:10:58.608726  3301 net.cpp:425] conv2_1a <- conv1_conv1_relu_0_split_0
I0411 11:10:58.608733  3301 net.cpp:399] conv2_1a -> conv2_1a
I0411 11:10:58.611503  3301 net.cpp:141] Setting up conv2_1a
I0411 11:10:58.611518  3301 net.cpp:148] Top shape: 128 8 32 32 (1048576)
I0411 11:10:58.611523  3301 net.cpp:156] Memory required for data: 30934528
I0411 11:10:58.611538  3301 layer_factory.hpp:77] Creating layer bn_conv2_1a
I0411 11:10:58.611551  3301 net.cpp:91] Creating Layer bn_conv2_1a
I0411 11:10:58.611555  3301 net.cpp:425] bn_conv2_1a <- conv2_1a
I0411 11:10:58.611563  3301 net.cpp:386] bn_conv2_1a -> conv2_1a (in-place)
I0411 11:10:58.611716  3301 net.cpp:141] Setting up bn_conv2_1a
I0411 11:10:58.611724  3301 net.cpp:148] Top shape: 128 8 32 32 (1048576)
I0411 11:10:58.611729  3301 net.cpp:156] Memory required for data: 35128832
I0411 11:10:58.611737  3301 layer_factory.hpp:77] Creating layer scale_conv2_1a
I0411 11:10:58.611745  3301 net.cpp:91] Creating Layer scale_conv2_1a
I0411 11:10:58.611750  3301 net.cpp:425] scale_conv2_1a <- conv2_1a
I0411 11:10:58.611757  3301 net.cpp:386] scale_conv2_1a -> conv2_1a (in-place)
I0411 11:10:58.611789  3301 layer_factory.hpp:77] Creating layer scale_conv2_1a
I0411 11:10:58.611879  3301 net.cpp:141] Setting up scale_conv2_1a
I0411 11:10:58.611888  3301 net.cpp:148] Top shape: 128 8 32 32 (1048576)
I0411 11:10:58.611892  3301 net.cpp:156] Memory required for data: 39323136
I0411 11:10:58.611899  3301 layer_factory.hpp:77] Creating layer conv2_1a_relu
I0411 11:10:58.611907  3301 net.cpp:91] Creating Layer conv2_1a_relu
I0411 11:10:58.611912  3301 net.cpp:425] conv2_1a_relu <- conv2_1a
I0411 11:10:58.611917  3301 net.cpp:386] conv2_1a_relu -> conv2_1a (in-place)
I0411 11:10:58.613636  3301 net.cpp:141] Setting up conv2_1a_relu
I0411 11:10:58.613651  3301 net.cpp:148] Top shape: 128 8 32 32 (1048576)
I0411 11:10:58.613656  3301 net.cpp:156] Memory required for data: 43517440
I0411 11:10:58.613661  3301 layer_factory.hpp:77] Creating layer conv2_1b
I0411 11:10:58.613672  3301 net.cpp:91] Creating Layer conv2_1b
I0411 11:10:58.613677  3301 net.cpp:425] conv2_1b <- conv2_1a
I0411 11:10:58.613687  3301 net.cpp:399] conv2_1b -> conv2_1b
I0411 11:10:58.620671  3301 net.cpp:141] Setting up conv2_1b
I0411 11:10:58.620687  3301 net.cpp:148] Top shape: 128 8 32 32 (1048576)
I0411 11:10:58.620692  3301 net.cpp:156] Memory required for data: 47711744
I0411 11:10:58.620698  3301 layer_factory.hpp:77] Creating layer bn_conv2_1b
I0411 11:10:58.620708  3301 net.cpp:91] Creating Layer bn_conv2_1b
I0411 11:10:58.620717  3301 net.cpp:425] bn_conv2_1b <- conv2_1b
I0411 11:10:58.620724  3301 net.cpp:386] bn_conv2_1b -> conv2_1b (in-place)
I0411 11:10:58.620964  3301 net.cpp:141] Setting up bn_conv2_1b
I0411 11:10:58.620980  3301 net.cpp:148] Top shape: 128 8 32 32 (1048576)
I0411 11:10:58.620983  3301 net.cpp:156] Memory required for data: 51906048
I0411 11:10:58.621001  3301 layer_factory.hpp:77] Creating layer scale_conv2_1b
I0411 11:10:58.621012  3301 net.cpp:91] Creating Layer scale_conv2_1b
I0411 11:10:58.621016  3301 net.cpp:425] scale_conv2_1b <- conv2_1b
I0411 11:10:58.621022  3301 net.cpp:386] scale_conv2_1b -> conv2_1b (in-place)
I0411 11:10:58.621062  3301 layer_factory.hpp:77] Creating layer scale_conv2_1b
I0411 11:10:58.621203  3301 net.cpp:141] Setting up scale_conv2_1b
I0411 11:10:58.621222  3301 net.cpp:148] Top shape: 128 8 32 32 (1048576)
I0411 11:10:58.621225  3301 net.cpp:156] Memory required for data: 56100352
I0411 11:10:58.621232  3301 layer_factory.hpp:77] Creating layer conv2_1b_relu
I0411 11:10:58.621246  3301 net.cpp:91] Creating Layer conv2_1b_relu
I0411 11:10:58.621250  3301 net.cpp:425] conv2_1b_relu <- conv2_1b
I0411 11:10:58.621263  3301 net.cpp:386] conv2_1b_relu -> conv2_1b (in-place)
I0411 11:10:58.622783  3301 net.cpp:141] Setting up conv2_1b_relu
I0411 11:10:58.622799  3301 net.cpp:148] Top shape: 128 8 32 32 (1048576)
I0411 11:10:58.622803  3301 net.cpp:156] Memory required for data: 60294656
I0411 11:10:58.622812  3301 layer_factory.hpp:77] Creating layer conv2_1b_conv2_1b_relu_0_split
I0411 11:10:58.622818  3301 net.cpp:91] Creating Layer conv2_1b_conv2_1b_relu_0_split
I0411 11:10:58.622823  3301 net.cpp:425] conv2_1b_conv2_1b_relu_0_split <- conv2_1b
I0411 11:10:58.622836  3301 net.cpp:399] conv2_1b_conv2_1b_relu_0_split -> conv2_1b_conv2_1b_relu_0_split_0
I0411 11:10:58.622843  3301 net.cpp:399] conv2_1b_conv2_1b_relu_0_split -> conv2_1b_conv2_1b_relu_0_split_1
I0411 11:10:58.622903  3301 net.cpp:141] Setting up conv2_1b_conv2_1b_relu_0_split
I0411 11:10:58.622910  3301 net.cpp:148] Top shape: 128 8 32 32 (1048576)
I0411 11:10:58.622915  3301 net.cpp:148] Top shape: 128 8 32 32 (1048576)
I0411 11:10:58.622920  3301 net.cpp:156] Memory required for data: 68683264
I0411 11:10:58.622925  3301 layer_factory.hpp:77] Creating layer conv2_sub
I0411 11:10:58.622939  3301 net.cpp:91] Creating Layer conv2_sub
I0411 11:10:58.622944  3301 net.cpp:425] conv2_sub <- conv2_1b_conv2_1b_relu_0_split_0
I0411 11:10:58.622951  3301 net.cpp:399] conv2_sub -> conv2_sub
I0411 11:10:58.630193  3301 net.cpp:141] Setting up conv2_sub
I0411 11:10:58.630214  3301 net.cpp:148] Top shape: 128 32 16 16 (1048576)
I0411 11:10:58.630219  3301 net.cpp:156] Memory required for data: 72877568
I0411 11:10:58.630228  3301 layer_factory.hpp:77] Creating layer bn_conv2_sub
I0411 11:10:58.630239  3301 net.cpp:91] Creating Layer bn_conv2_sub
I0411 11:10:58.630244  3301 net.cpp:425] bn_conv2_sub <- conv2_sub
I0411 11:10:58.630259  3301 net.cpp:386] bn_conv2_sub -> conv2_sub (in-place)
I0411 11:10:58.630480  3301 net.cpp:141] Setting up bn_conv2_sub
I0411 11:10:58.630487  3301 net.cpp:148] Top shape: 128 32 16 16 (1048576)
I0411 11:10:58.630491  3301 net.cpp:156] Memory required for data: 77071872
I0411 11:10:58.630499  3301 layer_factory.hpp:77] Creating layer scale_conv2_sub
I0411 11:10:58.630506  3301 net.cpp:91] Creating Layer scale_conv2_sub
I0411 11:10:58.630511  3301 net.cpp:425] scale_conv2_sub <- conv2_sub
I0411 11:10:58.630522  3301 net.cpp:386] scale_conv2_sub -> conv2_sub (in-place)
I0411 11:10:58.630565  3301 layer_factory.hpp:77] Creating layer scale_conv2_sub
I0411 11:10:58.630700  3301 net.cpp:141] Setting up scale_conv2_sub
I0411 11:10:58.630708  3301 net.cpp:148] Top shape: 128 32 16 16 (1048576)
I0411 11:10:58.630717  3301 net.cpp:156] Memory required for data: 81266176
I0411 11:10:58.630723  3301 layer_factory.hpp:77] Creating layer conv3_in
I0411 11:10:58.630733  3301 net.cpp:91] Creating Layer conv3_in
I0411 11:10:58.630741  3301 net.cpp:425] conv3_in <- conv2_1b_conv2_1b_relu_0_split_1
I0411 11:10:58.630746  3301 net.cpp:425] conv3_in <- conv1_conv1_relu_0_split_1
I0411 11:10:58.630753  3301 net.cpp:399] conv3_in -> conv3_in
I0411 11:10:58.630807  3301 net.cpp:141] Setting up conv3_in
I0411 11:10:58.630815  3301 net.cpp:148] Top shape: 128 8 32 32 (1048576)
I0411 11:10:58.630820  3301 net.cpp:156] Memory required for data: 85460480
I0411 11:10:58.630831  3301 layer_factory.hpp:77] Creating layer conv3_1a
I0411 11:10:58.630843  3301 net.cpp:91] Creating Layer conv3_1a
I0411 11:10:58.630848  3301 net.cpp:425] conv3_1a <- conv3_in
I0411 11:10:58.630856  3301 net.cpp:399] conv3_1a -> conv3_1a
I0411 11:10:58.634042  3301 net.cpp:141] Setting up conv3_1a
I0411 11:10:58.634059  3301 net.cpp:148] Top shape: 128 32 16 16 (1048576)
I0411 11:10:58.634064  3301 net.cpp:156] Memory required for data: 89654784
I0411 11:10:58.634073  3301 layer_factory.hpp:77] Creating layer bn_conv3_1a
I0411 11:10:58.634079  3301 net.cpp:91] Creating Layer bn_conv3_1a
I0411 11:10:58.634084  3301 net.cpp:425] bn_conv3_1a <- conv3_1a
I0411 11:10:58.634095  3301 net.cpp:386] bn_conv3_1a -> conv3_1a (in-place)
I0411 11:10:58.634258  3301 net.cpp:141] Setting up bn_conv3_1a
I0411 11:10:58.634266  3301 net.cpp:148] Top shape: 128 32 16 16 (1048576)
I0411 11:10:58.634270  3301 net.cpp:156] Memory required for data: 93849088
I0411 11:10:58.634282  3301 layer_factory.hpp:77] Creating layer scale_conv3_1a
I0411 11:10:58.634290  3301 net.cpp:91] Creating Layer scale_conv3_1a
I0411 11:10:58.634295  3301 net.cpp:425] scale_conv3_1a <- conv3_1a
I0411 11:10:58.634300  3301 net.cpp:386] scale_conv3_1a -> conv3_1a (in-place)
I0411 11:10:58.634331  3301 layer_factory.hpp:77] Creating layer scale_conv3_1a
I0411 11:10:58.634443  3301 net.cpp:141] Setting up scale_conv3_1a
I0411 11:10:58.634450  3301 net.cpp:148] Top shape: 128 32 16 16 (1048576)
I0411 11:10:58.634454  3301 net.cpp:156] Memory required for data: 98043392
I0411 11:10:58.634461  3301 layer_factory.hpp:77] Creating layer conv3_1a_relu
I0411 11:10:58.634469  3301 net.cpp:91] Creating Layer conv3_1a_relu
I0411 11:10:58.634472  3301 net.cpp:425] conv3_1a_relu <- conv3_1a
I0411 11:10:58.634479  3301 net.cpp:386] conv3_1a_relu -> conv3_1a (in-place)
I0411 11:10:58.635179  3301 net.cpp:141] Setting up conv3_1a_relu
I0411 11:10:58.635190  3301 net.cpp:148] Top shape: 128 32 16 16 (1048576)
I0411 11:10:58.635193  3301 net.cpp:156] Memory required for data: 102237696
I0411 11:10:58.635198  3301 layer_factory.hpp:77] Creating layer conv3_1b
I0411 11:10:58.635210  3301 net.cpp:91] Creating Layer conv3_1b
I0411 11:10:58.635213  3301 net.cpp:425] conv3_1b <- conv3_1a
I0411 11:10:58.635222  3301 net.cpp:399] conv3_1b -> conv3_1b
I0411 11:10:58.638981  3301 net.cpp:141] Setting up conv3_1b
I0411 11:10:58.638998  3301 net.cpp:148] Top shape: 128 32 16 16 (1048576)
I0411 11:10:58.639003  3301 net.cpp:156] Memory required for data: 106432000
I0411 11:10:58.639010  3301 layer_factory.hpp:77] Creating layer bn_conv3_1b
I0411 11:10:58.639019  3301 net.cpp:91] Creating Layer bn_conv3_1b
I0411 11:10:58.639025  3301 net.cpp:425] bn_conv3_1b <- conv3_1b
I0411 11:10:58.639032  3301 net.cpp:386] bn_conv3_1b -> conv3_1b (in-place)
I0411 11:10:58.639196  3301 net.cpp:141] Setting up bn_conv3_1b
I0411 11:10:58.639204  3301 net.cpp:148] Top shape: 128 32 16 16 (1048576)
I0411 11:10:58.639209  3301 net.cpp:156] Memory required for data: 110626304
I0411 11:10:58.639216  3301 layer_factory.hpp:77] Creating layer scale_conv3_1b
I0411 11:10:58.639225  3301 net.cpp:91] Creating Layer scale_conv3_1b
I0411 11:10:58.639230  3301 net.cpp:425] scale_conv3_1b <- conv3_1b
I0411 11:10:58.639235  3301 net.cpp:386] scale_conv3_1b -> conv3_1b (in-place)
I0411 11:10:58.639266  3301 layer_factory.hpp:77] Creating layer scale_conv3_1b
I0411 11:10:58.639370  3301 net.cpp:141] Setting up scale_conv3_1b
I0411 11:10:58.639379  3301 net.cpp:148] Top shape: 128 32 16 16 (1048576)
I0411 11:10:58.639382  3301 net.cpp:156] Memory required for data: 114820608
I0411 11:10:58.639389  3301 layer_factory.hpp:77] Creating layer conv3_1b_relu
I0411 11:10:58.639395  3301 net.cpp:91] Creating Layer conv3_1b_relu
I0411 11:10:58.639400  3301 net.cpp:425] conv3_1b_relu <- conv3_1b
I0411 11:10:58.639410  3301 net.cpp:386] conv3_1b_relu -> conv3_1b (in-place)
I0411 11:10:58.640544  3301 net.cpp:141] Setting up conv3_1b_relu
I0411 11:10:58.640558  3301 net.cpp:148] Top shape: 128 32 16 16 (1048576)
I0411 11:10:58.640563  3301 net.cpp:156] Memory required for data: 119014912
I0411 11:10:58.640566  3301 layer_factory.hpp:77] Creating layer conv3_1b_conv3_1b_relu_0_split
I0411 11:10:58.640573  3301 net.cpp:91] Creating Layer conv3_1b_conv3_1b_relu_0_split
I0411 11:10:58.640578  3301 net.cpp:425] conv3_1b_conv3_1b_relu_0_split <- conv3_1b
I0411 11:10:58.640586  3301 net.cpp:399] conv3_1b_conv3_1b_relu_0_split -> conv3_1b_conv3_1b_relu_0_split_0
I0411 11:10:58.640594  3301 net.cpp:399] conv3_1b_conv3_1b_relu_0_split -> conv3_1b_conv3_1b_relu_0_split_1
I0411 11:10:58.640630  3301 net.cpp:141] Setting up conv3_1b_conv3_1b_relu_0_split
I0411 11:10:58.640637  3301 net.cpp:148] Top shape: 128 32 16 16 (1048576)
I0411 11:10:58.640645  3301 net.cpp:148] Top shape: 128 32 16 16 (1048576)
I0411 11:10:58.640650  3301 net.cpp:156] Memory required for data: 127403520
I0411 11:10:58.640653  3301 layer_factory.hpp:77] Creating layer conv3_sub
I0411 11:10:58.640664  3301 net.cpp:91] Creating Layer conv3_sub
I0411 11:10:58.640669  3301 net.cpp:425] conv3_sub <- conv3_1b_conv3_1b_relu_0_split_0
I0411 11:10:58.640676  3301 net.cpp:399] conv3_sub -> conv3_sub
I0411 11:10:58.645128  3301 net.cpp:141] Setting up conv3_sub
I0411 11:10:58.645144  3301 net.cpp:148] Top shape: 128 128 8 8 (1048576)
I0411 11:10:58.645149  3301 net.cpp:156] Memory required for data: 131597824
I0411 11:10:58.645158  3301 layer_factory.hpp:77] Creating layer bn_conv3_sub
I0411 11:10:58.645166  3301 net.cpp:91] Creating Layer bn_conv3_sub
I0411 11:10:58.645172  3301 net.cpp:425] bn_conv3_sub <- conv3_sub
I0411 11:10:58.645179  3301 net.cpp:386] bn_conv3_sub -> conv3_sub (in-place)
I0411 11:10:58.645352  3301 net.cpp:141] Setting up bn_conv3_sub
I0411 11:10:58.645361  3301 net.cpp:148] Top shape: 128 128 8 8 (1048576)
I0411 11:10:58.645365  3301 net.cpp:156] Memory required for data: 135792128
I0411 11:10:58.645373  3301 layer_factory.hpp:77] Creating layer scale_conv3_sub
I0411 11:10:58.645381  3301 net.cpp:91] Creating Layer scale_conv3_sub
I0411 11:10:58.645385  3301 net.cpp:425] scale_conv3_sub <- conv3_sub
I0411 11:10:58.645391  3301 net.cpp:386] scale_conv3_sub -> conv3_sub (in-place)
I0411 11:10:58.645427  3301 layer_factory.hpp:77] Creating layer scale_conv3_sub
I0411 11:10:58.645534  3301 net.cpp:141] Setting up scale_conv3_sub
I0411 11:10:58.645541  3301 net.cpp:148] Top shape: 128 128 8 8 (1048576)
I0411 11:10:58.645545  3301 net.cpp:156] Memory required for data: 139986432
I0411 11:10:58.645553  3301 layer_factory.hpp:77] Creating layer conv4_in
I0411 11:10:58.645563  3301 net.cpp:91] Creating Layer conv4_in
I0411 11:10:58.645568  3301 net.cpp:425] conv4_in <- conv2_sub
I0411 11:10:58.645575  3301 net.cpp:425] conv4_in <- conv3_1b_conv3_1b_relu_0_split_1
I0411 11:10:58.645583  3301 net.cpp:399] conv4_in -> conv4_in
I0411 11:10:58.645603  3301 net.cpp:141] Setting up conv4_in
I0411 11:10:58.645612  3301 net.cpp:148] Top shape: 128 32 16 16 (1048576)
I0411 11:10:58.645615  3301 net.cpp:156] Memory required for data: 144180736
I0411 11:10:58.645619  3301 layer_factory.hpp:77] Creating layer conv4_1a
I0411 11:10:58.645632  3301 net.cpp:91] Creating Layer conv4_1a
I0411 11:10:58.645638  3301 net.cpp:425] conv4_1a <- conv4_in
I0411 11:10:58.645645  3301 net.cpp:399] conv4_1a -> conv4_1a
I0411 11:10:58.650463  3301 net.cpp:141] Setting up conv4_1a
I0411 11:10:58.650478  3301 net.cpp:148] Top shape: 128 128 8 8 (1048576)
I0411 11:10:58.650483  3301 net.cpp:156] Memory required for data: 148375040
I0411 11:10:58.650491  3301 layer_factory.hpp:77] Creating layer bn_conv4_1a
I0411 11:10:58.650501  3301 net.cpp:91] Creating Layer bn_conv4_1a
I0411 11:10:58.650506  3301 net.cpp:425] bn_conv4_1a <- conv4_1a
I0411 11:10:58.650512  3301 net.cpp:386] bn_conv4_1a -> conv4_1a (in-place)
I0411 11:10:58.650687  3301 net.cpp:141] Setting up bn_conv4_1a
I0411 11:10:58.650696  3301 net.cpp:148] Top shape: 128 128 8 8 (1048576)
I0411 11:10:58.650703  3301 net.cpp:156] Memory required for data: 152569344
I0411 11:10:58.650714  3301 layer_factory.hpp:77] Creating layer scale_conv4_1a
I0411 11:10:58.650722  3301 net.cpp:91] Creating Layer scale_conv4_1a
I0411 11:10:58.650727  3301 net.cpp:425] scale_conv4_1a <- conv4_1a
I0411 11:10:58.650732  3301 net.cpp:386] scale_conv4_1a -> conv4_1a (in-place)
I0411 11:10:58.650768  3301 layer_factory.hpp:77] Creating layer scale_conv4_1a
I0411 11:10:58.650866  3301 net.cpp:141] Setting up scale_conv4_1a
I0411 11:10:58.650873  3301 net.cpp:148] Top shape: 128 128 8 8 (1048576)
I0411 11:10:58.650877  3301 net.cpp:156] Memory required for data: 156763648
I0411 11:10:58.650884  3301 layer_factory.hpp:77] Creating layer conv4_1a_relu
I0411 11:10:58.650890  3301 net.cpp:91] Creating Layer conv4_1a_relu
I0411 11:10:58.650895  3301 net.cpp:425] conv4_1a_relu <- conv4_1a
I0411 11:10:58.650902  3301 net.cpp:386] conv4_1a_relu -> conv4_1a (in-place)
I0411 11:10:58.652084  3301 net.cpp:141] Setting up conv4_1a_relu
I0411 11:10:58.652098  3301 net.cpp:148] Top shape: 128 128 8 8 (1048576)
I0411 11:10:58.652103  3301 net.cpp:156] Memory required for data: 160957952
I0411 11:10:58.652107  3301 layer_factory.hpp:77] Creating layer conv4_1b
I0411 11:10:58.652122  3301 net.cpp:91] Creating Layer conv4_1b
I0411 11:10:58.652127  3301 net.cpp:425] conv4_1b <- conv4_1a
I0411 11:10:58.652134  3301 net.cpp:399] conv4_1b -> conv4_1b
I0411 11:10:58.659431  3301 net.cpp:141] Setting up conv4_1b
I0411 11:10:58.659448  3301 net.cpp:148] Top shape: 128 128 8 8 (1048576)
I0411 11:10:58.659453  3301 net.cpp:156] Memory required for data: 165152256
I0411 11:10:58.659461  3301 layer_factory.hpp:77] Creating layer bn_conv4_1b
I0411 11:10:58.659471  3301 net.cpp:91] Creating Layer bn_conv4_1b
I0411 11:10:58.659476  3301 net.cpp:425] bn_conv4_1b <- conv4_1b
I0411 11:10:58.659482  3301 net.cpp:386] bn_conv4_1b -> conv4_1b (in-place)
I0411 11:10:58.659654  3301 net.cpp:141] Setting up bn_conv4_1b
I0411 11:10:58.659662  3301 net.cpp:148] Top shape: 128 128 8 8 (1048576)
I0411 11:10:58.659667  3301 net.cpp:156] Memory required for data: 169346560
I0411 11:10:58.659675  3301 layer_factory.hpp:77] Creating layer scale_conv4_1b
I0411 11:10:58.659682  3301 net.cpp:91] Creating Layer scale_conv4_1b
I0411 11:10:58.659687  3301 net.cpp:425] scale_conv4_1b <- conv4_1b
I0411 11:10:58.659693  3301 net.cpp:386] scale_conv4_1b -> conv4_1b (in-place)
I0411 11:10:58.659728  3301 layer_factory.hpp:77] Creating layer scale_conv4_1b
I0411 11:10:58.659826  3301 net.cpp:141] Setting up scale_conv4_1b
I0411 11:10:58.659834  3301 net.cpp:148] Top shape: 128 128 8 8 (1048576)
I0411 11:10:58.659838  3301 net.cpp:156] Memory required for data: 173540864
I0411 11:10:58.659845  3301 layer_factory.hpp:77] Creating layer conv4_1b_relu
I0411 11:10:58.659853  3301 net.cpp:91] Creating Layer conv4_1b_relu
I0411 11:10:58.659857  3301 net.cpp:425] conv4_1b_relu <- conv4_1b
I0411 11:10:58.659863  3301 net.cpp:386] conv4_1b_relu -> conv4_1b (in-place)
I0411 11:10:58.660528  3301 net.cpp:141] Setting up conv4_1b_relu
I0411 11:10:58.660538  3301 net.cpp:148] Top shape: 128 128 8 8 (1048576)
I0411 11:10:58.660543  3301 net.cpp:156] Memory required for data: 177735168
I0411 11:10:58.660547  3301 layer_factory.hpp:77] Creating layer global_in
I0411 11:10:58.660554  3301 net.cpp:91] Creating Layer global_in
I0411 11:10:58.660558  3301 net.cpp:425] global_in <- conv4_1b
I0411 11:10:58.660564  3301 net.cpp:425] global_in <- conv3_sub
I0411 11:10:58.660572  3301 net.cpp:399] global_in -> global_in
I0411 11:10:58.660594  3301 net.cpp:141] Setting up global_in
I0411 11:10:58.660603  3301 net.cpp:148] Top shape: 128 128 8 8 (1048576)
I0411 11:10:58.660606  3301 net.cpp:156] Memory required for data: 181929472
I0411 11:10:58.660610  3301 layer_factory.hpp:77] Creating layer global_pool
I0411 11:10:58.660619  3301 net.cpp:91] Creating Layer global_pool
I0411 11:10:58.660624  3301 net.cpp:425] global_pool <- global_in
I0411 11:10:58.660629  3301 net.cpp:399] global_pool -> global_pool
I0411 11:10:58.661731  3301 net.cpp:141] Setting up global_pool
I0411 11:10:58.661746  3301 net.cpp:148] Top shape: 128 128 1 1 (16384)
I0411 11:10:58.661749  3301 net.cpp:156] Memory required for data: 181995008
I0411 11:10:58.661754  3301 layer_factory.hpp:77] Creating layer ip
I0411 11:10:58.661768  3301 net.cpp:91] Creating Layer ip
I0411 11:10:58.661773  3301 net.cpp:425] ip <- global_pool
I0411 11:10:58.661780  3301 net.cpp:399] ip -> ip
I0411 11:10:58.661888  3301 net.cpp:141] Setting up ip
I0411 11:10:58.661896  3301 net.cpp:148] Top shape: 128 10 (1280)
I0411 11:10:58.661900  3301 net.cpp:156] Memory required for data: 182000128
I0411 11:10:58.661917  3301 layer_factory.hpp:77] Creating layer ip_ip_0_split
I0411 11:10:58.661926  3301 net.cpp:91] Creating Layer ip_ip_0_split
I0411 11:10:58.661931  3301 net.cpp:425] ip_ip_0_split <- ip
I0411 11:10:58.661937  3301 net.cpp:399] ip_ip_0_split -> ip_ip_0_split_0
I0411 11:10:58.661947  3301 net.cpp:399] ip_ip_0_split -> ip_ip_0_split_1
I0411 11:10:58.661978  3301 net.cpp:141] Setting up ip_ip_0_split
I0411 11:10:58.661985  3301 net.cpp:148] Top shape: 128 10 (1280)
I0411 11:10:58.661990  3301 net.cpp:148] Top shape: 128 10 (1280)
I0411 11:10:58.661994  3301 net.cpp:156] Memory required for data: 182010368
I0411 11:10:58.661998  3301 layer_factory.hpp:77] Creating layer accuracy
I0411 11:10:58.662010  3301 net.cpp:91] Creating Layer accuracy
I0411 11:10:58.662014  3301 net.cpp:425] accuracy <- ip_ip_0_split_0
I0411 11:10:58.662020  3301 net.cpp:425] accuracy <- label_cifar_1_split_0
I0411 11:10:58.662025  3301 net.cpp:399] accuracy -> accuracy
…
I0411 11:10:58.664281  3301 net.cpp:313] The NetState phase (1) differed from the phase (0) specified by a rule in layer cifar
I0411 11:10:58.664511  3301 net.cpp:49] Initializing net from parameters: 
name: "ResNet-cifar"
state {
  phase: TEST
}
layer {
  name: "cifar"
  type: "Data"
  top: "data"
  top: "label"
  include {
    phase: TEST
  }
  transform_param {
    mean_file: "/home/liangjiang/code/residual_network/data/cifar10/mean.binaryproto"
  }
  data_param {
    source: "/home/liangjiang/code/residual_network/data/cifar10/cifar10_test_lmdb"
    batch_size: 32
    backend: LMDB
  }
}
layer {
  name: "conv1"
  type: "Convolution"
  bottom: "data"
  top: "conv1"
  param {
    lr_mult: 1
  }
  param {
    lr_mult: 2
  }
  convolution_param {
    num_output: 8
    pad: 1
    kernel_size: 3
    weight_filler {
      type: "msra"
    }
    bias_filler {
      type: "constant"
    }
  }
}
layer {
  name: "bn_conv1"
  type: "BatchNorm"
  bottom: "conv1"
  top: "conv1"
  param {
    lr_mult: 0
  }
  param {
    lr_mult: 0
  }
  param {
    lr_mult: 0
  }
}
layer {
  name: "scale_conv1"
  type: "Scale"
  bottom: "conv1"
  top: "conv1"
  scale_param {
    bias_term: true
  }
}
layer {
  name: "conv1_relu"
  type: "ReLU"
  bottom: "conv1"
  top: "conv1"
}
layer {
  name: "conv2_1a"
  type: "Convolution"
  bottom: "conv1"
  top: "conv2_1a"
  param {
    lr_mult: 1
  }
  param {
    lr_mult: 2
  }
  convolution_param {
    num_output: 8
    pad: 1
    kernel_size: 3
    stride: 1
    weight_filler {
      type: "msra"
    }
    bias_filler {
      type: "constant"
      value: 0
    }
  }
}
layer {
  name: "bn_conv2_1a"
  type: "BatchNorm"
  bottom: "conv2_1a"
  top: "conv2_1a"
  param {
    lr_mult: 0
  }
  param {
    lr_mult: 0
  }
  param {
    lr_mult: 0
  }
}
layer {
  name: "scale_conv2_1a"
  type: "Scale"
  bottom: "conv2_1a"
  top: "conv2_1a"
  scale_param {
    bias_term: true
  }
}
layer {
  name: "conv2_1a_relu"
  type: "ReLU"
  bottom: "conv2_1a"
  top: "conv2_1a"
}
layer {
  name: "conv2_1b"
  type: "Convolution"
  bottom: "conv2_1a"
  top: "conv2_1b"
  param {
    lr_mult: 1
  }
  param {
    lr_mult: 2
  }
  convolution_param {
    num_output: 8
    pad: 1
    kernel_size: 3
    stride: 1
    weight_filler {
      type: "msra"
    }
    bias_filler {
      type: "constant"
      value: 0
    }
  }
}
layer {
  name: "bn_conv2_1b"
  type: "BatchNorm"
  bottom: "conv2_1b"
  top: "conv2_1b"
  param {
    lr_mult: 0
  }
  param {
    lr_mult: 0
  }
  param {
    lr_mult: 0
  }
}
layer {
  name: "scale_conv2_1b"
  type: "Scale"
  bottom: "conv2_1b"
  top: "conv2_1b"
  scale_param {
    bias_term: true
  }
}
layer {
  name: "conv2_1b_relu"
  type: "ReLU"
  bottom: "conv2_1b"
  top: "conv2_1b"
}
layer {
  name: "conv2_sub"
  type: "Convolution"
  bottom: "conv2_1b"
  top: "conv2_sub"
  param {
    lr_mult: 1
  }
  param {
    lr_mult: 2
  }
  convolution_param {
    num_output: 32
    kernel_size: 1
    stride: 2
    weight_filler {
      type: "msra"
    }
    bias_filler {
      type: "constant"
      value: 0
    }
  }
}
layer {
  name: "bn_conv2_sub"
  type: "BatchNorm"
  bottom: "conv2_sub"
  top: "conv2_sub"
  param {
    lr_mult: 0
  }
  param {
    lr_mult: 0
  }
  param {
    lr_mult: 0
  }
}
layer {
  name: "scale_conv2_sub"
  type: "Scale"
  bottom: "conv2_sub"
  top: "conv2_sub"
  scale_param {
    bias_term: true
  }
}
layer {
  name: "conv3_in"
  type: "Eltwise"
  bottom: "conv2_1b"
  bottom: "conv1"
  top: "conv3_in"
}
layer {
  name: "conv3_1a"
  type: "Convolution"
  bottom: "conv3_in"
  top: "conv3_1a"
  param {
    lr_mult: 1
  }
  param {
    lr_mult: 2
  }
  convolution_param {
    num_output: 32
    pad: 0
    kernel_size: 1
    stride: 2
    weight_filler {
      type: "msra"
    }
    bias_filler {
      type: "constant"
      value: 0
    }
  }
}
layer {
  name: "bn_conv3_1a"
  type: "BatchNorm"
  bottom: "conv3_1a"
  top: "conv3_1a"
  param {
    lr_mult: 0
  }
  param {
    lr_mult: 0
  }
  param {
    lr_mult: 0
  }
}
layer {
  name: "scale_conv3_1a"
  type: "Scale"
  bottom: "conv3_1a"
  top: "conv3_1a"
  scale_param {
    bias_term: true
  }
}
layer {
  name: "conv3_1a_relu"
  type: "ReLU"
  bottom: "conv3_1a"
  top: "conv3_1a"
}
layer {
  name: "conv3_1b"
  type: "Convolution"
  bottom: "conv3_1a"
  top: "conv3_1b"
  param {
    lr_mult: 1
  }
  param {
    lr_mult: 2
  }
  convolution_param {
    num_output: 32
    pad: 1
    kernel_size: 3
    stride: 1
    weight_filler {
      type: "msra"
    }
    bias_filler {
      type: "constant"
      value: 0
    }
  }
}
layer {
  name: "bn_conv3_1b"
  type: "BatchNorm"
  bottom: "conv3_1b"
  top: "conv3_1b"
  param {
    lr_mult: 0
  }
  param {
    lr_mult: 0
  }
  param {
    lr_mult: 0
  }
}
layer {
  name: "scale_conv3_1b"
  type: "Scale"
  bottom: "conv3_1b"
  top: "conv3_1b"
  scale_param {
    bias_term: true
  }
}
layer {
  name: "conv3_1b_relu"
  type: "ReLU"
  bottom: "conv3_1b"
  top: "conv3_1b"
}
layer {
  name: "conv3_sub"
  type: "Convolution"
  bottom: "conv3_1b"
  top: "conv3_sub"
  param {
    lr_mult: 1
  }
  param {
    lr_mult: 2
  }
  convolution_param {
    num_output: 128
    kernel_size: 1
    stride: 2
    weight_filler {
      type: "msra"
    }
    bias_filler {
      type: "constant"
      value: 0
    }
  }
}
layer {
  name: "bn_conv3_sub"
  type: "BatchNorm"
  bottom: "conv3_sub"
  top: "conv3_sub"
  param {
    lr_mult: 0
  }
  param {
    lr_mult: 0
  }
  param {
    lr_mult: 0
  }
}
layer {
  name: "scale_conv3_sub"
  type: "Scale"
  bottom: "conv3_sub"
  top: "conv3_sub"
  scale_param {
    bias_term: true
  }
}
layer {
  name: "conv4_in"
  type: "Eltwise"
  bottom: "conv2_sub"
  bottom: "conv3_1b"
  top: "conv4_in"
}
layer {
  name: "conv4_1a"
  type: "Convolution"
  bottom: "conv4_in"
  top: "conv4_1a"
  param {
    lr_mult: 1
  }
  param {
    lr_mult: 2
  }
  convolution_param {
    num_output: 128
    pad: 0
    kernel_size: 1
    stride: 2
    weight_filler {
      type: "msra"
    }
    bias_filler {
      type: "constant"
      value: 0
    }
  }
}
layer {
  name: "bn_conv4_1a"
  type: "BatchNorm"
  bottom: "conv4_1a"
  top: "conv4_1a"
  param {
    lr_mult: 0
  }
  param {
    lr_mult: 0
  }
  param {
    lr_mult: 0
  }
}
layer {
  name: "scale_conv4_1a"
  type: "Scale"
  bottom: "conv4_1a"
  top: "conv4_1a"
  scale_param {
    bias_term: true
  }
}
layer {
  name: "conv4_1a_relu"
  type: "ReLU"
  bottom: "conv4_1a"
  top: "conv4_1a"
}
layer {
  name: "conv4_1b"
  type: "Convolution"
  bottom: "conv4_1a"
  top: "conv4_1b"
  param {
    lr_mult: 1
  }
  param {
    lr_mult: 2
  }
  convolution_param {
    num_output: 128
    pad: 1
    kernel_size: 3
    stride: 1
    weight_filler {
      type: "msra"
    }
    bias_filler {
      type: "constant"
      value: 0
    }
  }
}
layer {
  name: "bn_conv4_1b"
  type: "BatchNorm"
  bottom: "conv4_1b"
  top: "conv4_1b"
  param {
    lr_mult: 0
  }
  param {
    lr_mult: 0
  }
  param {
    lr_mult: 0
  }
}
layer {
  name: "scale_conv4_1b"
  type: "Scale"
  bottom: "conv4_1b"
  top: "conv4_1b"
  scale_param {
    bias_term: true
  }
}
layer {
  name: "conv4_1b_relu"
  type: "ReLU"
  bottom: "conv4_1b"
  top: "conv4_1b"
}
layer {
  name: "global_in"
  type: "Eltwise"
  bottom: "conv4_1b"
  bottom: "conv3_sub"
  top: "global_in"
}
layer {
  name: "global_pool"
  type: "Pooling"
  bottom: "global_in"
  top: "global_pool"
  pooling_param {
    pool: AVE
    kernel_size: 8
    stride: 8
  }
}
layer {
  name: "ip"
  type: "InnerProduct"
  bottom: "global_pool"
  top: "ip"
  inner_product_param {
    num_output: 10
  }
}
layer {
  name: "accuracy"
  type: "Accuracy"
  bottom: "ip"
  bottom: "label"
  top: "accuracy"
}
layer {
  name: "loss"
  type: "SoftmaxWithLoss"
  bottom: "ip"
  bottom: "label"
  top: "loss"
}
I0411 11:10:58.664695  3301 layer_factory.hpp:77] Creating layer cifar
I0411 11:10:58.665144  3301 net.cpp:91] Creating Layer cifar
I0411 11:10:58.665168  3301 net.cpp:399] cifar -> data
I0411 11:10:58.665180  3301 net.cpp:399] cifar -> label
I0411 11:10:58.665190  3301 data_transformer.cpp:25] Loading mean file from: /home/liangjiang/code/residual_network/data/cifar10/mean.binaryproto
I0411 11:10:58.666126  3626 db_lmdb.cpp:38] Opened lmdb /home/liangjiang/code/residual_network/data/cifar10/cifar10_test_lmdb
I0411 11:10:58.666249  3301 data_layer.cpp:41] output data size: 32,3,32,32
I0411 11:10:58.675146  3301 net.cpp:141] Setting up cifar
I0411 11:10:58.675163  3301 net.cpp:148] Top shape: 32 3 32 32 (98304)
I0411 11:10:58.675170  3301 net.cpp:148] Top shape: 32 (32)
I0411 11:10:58.675174  3301 net.cpp:156] Memory required for data: 393344
I0411 11:10:58.675179  3301 layer_factory.hpp:77] Creating layer label_cifar_1_split
I0411 11:10:58.675187  3301 net.cpp:91] Creating Layer label_cifar_1_split
I0411 11:10:58.675192  3301 net.cpp:425] label_cifar_1_split <- label
I0411 11:10:58.675199  3301 net.cpp:399] label_cifar_1_split -> label_cifar_1_split_0
I0411 11:10:58.675207  3301 net.cpp:399] label_cifar_1_split -> label_cifar_1_split_1
I0411 11:10:58.675259  3301 net.cpp:141] Setting up label_cifar_1_split
I0411 11:10:58.675271  3301 net.cpp:148] Top shape: 32 (32)
I0411 11:10:58.675276  3301 net.cpp:148] Top shape: 32 (32)
I0411 11:10:58.675279  3301 net.cpp:156] Memory required for data: 393600
I0411 11:10:58.675284  3301 layer_factory.hpp:77] Creating layer conv1
I0411 11:10:58.675295  3301 net.cpp:91] Creating Layer conv1
I0411 11:10:58.675300  3301 net.cpp:425] conv1 <- data
I0411 11:10:58.675307  3301 net.cpp:399] conv1 -> conv1
I0411 11:10:58.684168  3301 net.cpp:141] Setting up conv1
I0411 11:10:58.684190  3301 net.cpp:148] Top shape: 32 8 32 32 (262144)
I0411 11:10:58.684198  3301 net.cpp:156] Memory required for data: 1442176
I0411 11:10:58.684211  3301 layer_factory.hpp:77] Creating layer bn_conv1
I0411 11:10:58.684221  3301 net.cpp:91] Creating Layer bn_conv1
I0411 11:10:58.684226  3301 net.cpp:425] bn_conv1 <- conv1
I0411 11:10:58.684233  3301 net.cpp:386] bn_conv1 -> conv1 (in-place)
I0411 11:10:58.684422  3301 net.cpp:141] Setting up bn_conv1
I0411 11:10:58.684433  3301 net.cpp:148] Top shape: 32 8 32 32 (262144)
I0411 11:10:58.684444  3301 net.cpp:156] Memory required for data: 2490752
I0411 11:10:58.684456  3301 layer_factory.hpp:77] Creating layer scale_conv1
I0411 11:10:58.684465  3301 net.cpp:91] Creating Layer scale_conv1
I0411 11:10:58.684478  3301 net.cpp:425] scale_conv1 <- conv1
I0411 11:10:58.684485  3301 net.cpp:386] scale_conv1 -> conv1 (in-place)
I0411 11:10:58.684527  3301 layer_factory.hpp:77] Creating layer scale_conv1
I0411 11:10:58.684635  3301 net.cpp:141] Setting up scale_conv1
I0411 11:10:58.684655  3301 net.cpp:148] Top shape: 32 8 32 32 (262144)
I0411 11:10:58.684659  3301 net.cpp:156] Memory required for data: 3539328
I0411 11:10:58.684666  3301 layer_factory.hpp:77] Creating layer conv1_relu
I0411 11:10:58.684681  3301 net.cpp:91] Creating Layer conv1_relu
I0411 11:10:58.684686  3301 net.cpp:425] conv1_relu <- conv1
I0411 11:10:58.684692  3301 net.cpp:386] conv1_relu -> conv1 (in-place)
I0411 11:10:58.684973  3301 net.cpp:141] Setting up conv1_relu
I0411 11:10:58.684988  3301 net.cpp:148] Top shape: 32 8 32 32 (262144)
I0411 11:10:58.684993  3301 net.cpp:156] Memory required for data: 4587904
I0411 11:10:58.684998  3301 layer_factory.hpp:77] Creating layer conv1_conv1_relu_0_split
I0411 11:10:58.685005  3301 net.cpp:91] Creating Layer conv1_conv1_relu_0_split
I0411 11:10:58.685009  3301 net.cpp:425] conv1_conv1_relu_0_split <- conv1
I0411 11:10:58.685029  3301 net.cpp:399] conv1_conv1_relu_0_split -> conv1_conv1_relu_0_split_0
I0411 11:10:58.685039  3301 net.cpp:399] conv1_conv1_relu_0_split -> conv1_conv1_relu_0_split_1
I0411 11:10:58.685081  3301 net.cpp:141] Setting up conv1_conv1_relu_0_split
I0411 11:10:58.685089  3301 net.cpp:148] Top shape: 32 8 32 32 (262144)
I0411 11:10:58.685094  3301 net.cpp:148] Top shape: 32 8 32 32 (262144)
I0411 11:10:58.685099  3301 net.cpp:156] Memory required for data: 6685056
I0411 11:10:58.685137  3301 layer_factory.hpp:77] Creating layer conv2_1a
I0411 11:10:58.685149  3301 net.cpp:91] Creating Layer conv2_1a
I0411 11:10:58.685155  3301 net.cpp:425] conv2_1a <- conv1_conv1_relu_0_split_0
I0411 11:10:58.685169  3301 net.cpp:399] conv2_1a -> conv2_1a
I0411 11:10:58.690877  3301 net.cpp:141] Setting up conv2_1a
I0411 11:10:58.690893  3301 net.cpp:148] Top shape: 32 8 32 32 (262144)
I0411 11:10:58.690898  3301 net.cpp:156] Memory required for data: 7733632
I0411 11:10:58.690909  3301 layer_factory.hpp:77] Creating layer bn_conv2_1a
I0411 11:10:58.690919  3301 net.cpp:91] Creating Layer bn_conv2_1a
I0411 11:10:58.690924  3301 net.cpp:425] bn_conv2_1a <- conv2_1a
I0411 11:10:58.690932  3301 net.cpp:386] bn_conv2_1a -> conv2_1a (in-place)
I0411 11:10:58.693094  3301 net.cpp:141] Setting up bn_conv2_1a
I0411 11:10:58.693130  3301 net.cpp:148] Top shape: 32 8 32 32 (262144)
I0411 11:10:58.693146  3301 net.cpp:156] Memory required for data: 8782208
I0411 11:10:58.693156  3301 layer_factory.hpp:77] Creating layer scale_conv2_1a
I0411 11:10:58.693164  3301 net.cpp:91] Creating Layer scale_conv2_1a
I0411 11:10:58.693169  3301 net.cpp:425] scale_conv2_1a <- conv2_1a
I0411 11:10:58.693176  3301 net.cpp:386] scale_conv2_1a -> conv2_1a (in-place)
I0411 11:10:58.693224  3301 layer_factory.hpp:77] Creating layer scale_conv2_1a
I0411 11:10:58.693334  3301 net.cpp:141] Setting up scale_conv2_1a
I0411 11:10:58.693343  3301 net.cpp:148] Top shape: 32 8 32 32 (262144)
I0411 11:10:58.693347  3301 net.cpp:156] Memory required for data: 9830784
I0411 11:10:58.693356  3301 layer_factory.hpp:77] Creating layer conv2_1a_relu
I0411 11:10:58.693362  3301 net.cpp:91] Creating Layer conv2_1a_relu
I0411 11:10:58.693378  3301 net.cpp:425] conv2_1a_relu <- conv2_1a
I0411 11:10:58.693385  3301 net.cpp:386] conv2_1a_relu -> conv2_1a (in-place)
I0411 11:10:58.693581  3301 net.cpp:141] Setting up conv2_1a_relu
I0411 11:10:58.693593  3301 net.cpp:148] Top shape: 32 8 32 32 (262144)
I0411 11:10:58.693598  3301 net.cpp:156] Memory required for data: 10879360
I0411 11:10:58.693603  3301 layer_factory.hpp:77] Creating layer conv2_1b
I0411 11:10:58.693614  3301 net.cpp:91] Creating Layer conv2_1b
I0411 11:10:58.693619  3301 net.cpp:425] conv2_1b <- conv2_1a
I0411 11:10:58.693627  3301 net.cpp:399] conv2_1b -> conv2_1b
I0411 11:10:58.696785  3301 net.cpp:141] Setting up conv2_1b
I0411 11:10:58.696802  3301 net.cpp:148] Top shape: 32 8 32 32 (262144)
I0411 11:10:58.696807  3301 net.cpp:156] Memory required for data: 11927936
I0411 11:10:58.696815  3301 layer_factory.hpp:77] Creating layer bn_conv2_1b
I0411 11:10:58.696822  3301 net.cpp:91] Creating Layer bn_conv2_1b
I0411 11:10:58.696827  3301 net.cpp:425] bn_conv2_1b <- conv2_1b
I0411 11:10:58.696836  3301 net.cpp:386] bn_conv2_1b -> conv2_1b (in-place)
I0411 11:10:58.697022  3301 net.cpp:141] Setting up bn_conv2_1b
I0411 11:10:58.697031  3301 net.cpp:148] Top shape: 32 8 32 32 (262144)
I0411 11:10:58.697034  3301 net.cpp:156] Memory required for data: 12976512
I0411 11:10:58.697046  3301 layer_factory.hpp:77] Creating layer scale_conv2_1b
I0411 11:10:58.697053  3301 net.cpp:91] Creating Layer scale_conv2_1b
I0411 11:10:58.697057  3301 net.cpp:425] scale_conv2_1b <- conv2_1b
I0411 11:10:58.697065  3301 net.cpp:386] scale_conv2_1b -> conv2_1b (in-place)
I0411 11:10:58.697108  3301 layer_factory.hpp:77] Creating layer scale_conv2_1b
I0411 11:10:58.697247  3301 net.cpp:141] Setting up scale_conv2_1b
I0411 11:10:58.697255  3301 net.cpp:148] Top shape: 32 8 32 32 (262144)
I0411 11:10:58.697260  3301 net.cpp:156] Memory required for data: 14025088
I0411 11:10:58.697268  3301 layer_factory.hpp:77] Creating layer conv2_1b_relu
I0411 11:10:58.697274  3301 net.cpp:91] Creating Layer conv2_1b_relu
I0411 11:10:58.697278  3301 net.cpp:425] conv2_1b_relu <- conv2_1b
I0411 11:10:58.697284  3301 net.cpp:386] conv2_1b_relu -> conv2_1b (in-place)
I0411 11:10:58.697921  3301 net.cpp:141] Setting up conv2_1b_relu
I0411 11:10:58.697932  3301 net.cpp:148] Top shape: 32 8 32 32 (262144)
I0411 11:10:58.697937  3301 net.cpp:156] Memory required for data: 15073664
I0411 11:10:58.697942  3301 layer_factory.hpp:77] Creating layer conv2_1b_conv2_1b_relu_0_split
I0411 11:10:58.697948  3301 net.cpp:91] Creating Layer conv2_1b_conv2_1b_relu_0_split
I0411 11:10:58.697952  3301 net.cpp:425] conv2_1b_conv2_1b_relu_0_split <- conv2_1b
I0411 11:10:58.697958  3301 net.cpp:399] conv2_1b_conv2_1b_relu_0_split -> conv2_1b_conv2_1b_relu_0_split_0
I0411 11:10:58.697967  3301 net.cpp:399] conv2_1b_conv2_1b_relu_0_split -> conv2_1b_conv2_1b_relu_0_split_1
I0411 11:10:58.698010  3301 net.cpp:141] Setting up conv2_1b_conv2_1b_relu_0_split
I0411 11:10:58.698017  3301 net.cpp:148] Top shape: 32 8 32 32 (262144)
I0411 11:10:58.698022  3301 net.cpp:148] Top shape: 32 8 32 32 (262144)
I0411 11:10:58.698026  3301 net.cpp:156] Memory required for data: 17170816
I0411 11:10:58.698030  3301 layer_factory.hpp:77] Creating layer conv2_sub
I0411 11:10:58.698043  3301 net.cpp:91] Creating Layer conv2_sub
I0411 11:10:58.698048  3301 net.cpp:425] conv2_sub <- conv2_1b_conv2_1b_relu_0_split_0
I0411 11:10:58.698055  3301 net.cpp:399] conv2_sub -> conv2_sub
I0411 11:10:58.702947  3301 net.cpp:141] Setting up conv2_sub
I0411 11:10:58.702963  3301 net.cpp:148] Top shape: 32 32 16 16 (262144)
I0411 11:10:58.702968  3301 net.cpp:156] Memory required for data: 18219392
I0411 11:10:58.702976  3301 layer_factory.hpp:77] Creating layer bn_conv2_sub
I0411 11:10:58.702986  3301 net.cpp:91] Creating Layer bn_conv2_sub
I0411 11:10:58.702991  3301 net.cpp:425] bn_conv2_sub <- conv2_sub
I0411 11:10:58.702997  3301 net.cpp:386] bn_conv2_sub -> conv2_sub (in-place)
I0411 11:10:58.703181  3301 net.cpp:141] Setting up bn_conv2_sub
I0411 11:10:58.703192  3301 net.cpp:148] Top shape: 32 32 16 16 (262144)
I0411 11:10:58.703197  3301 net.cpp:156] Memory required for data: 19267968
I0411 11:10:58.703204  3301 layer_factory.hpp:77] Creating layer scale_conv2_sub
I0411 11:10:58.703212  3301 net.cpp:91] Creating Layer scale_conv2_sub
I0411 11:10:58.703217  3301 net.cpp:425] scale_conv2_sub <- conv2_sub
I0411 11:10:58.703222  3301 net.cpp:386] scale_conv2_sub -> conv2_sub (in-place)
I0411 11:10:58.703263  3301 layer_factory.hpp:77] Creating layer scale_conv2_sub
I0411 11:10:58.703371  3301 net.cpp:141] Setting up scale_conv2_sub
I0411 11:10:58.703378  3301 net.cpp:148] Top shape: 32 32 16 16 (262144)
I0411 11:10:58.703382  3301 net.cpp:156] Memory required for data: 20316544
I0411 11:10:58.703389  3301 layer_factory.hpp:77] Creating layer conv3_in
I0411 11:10:58.703394  3301 net.cpp:91] Creating Layer conv3_in
I0411 11:10:58.703399  3301 net.cpp:425] conv3_in <- conv2_1b_conv2_1b_relu_0_split_1
I0411 11:10:58.703405  3301 net.cpp:425] conv3_in <- conv1_conv1_relu_0_split_1
I0411 11:10:58.703413  3301 net.cpp:399] conv3_in -> conv3_in
I0411 11:10:58.703433  3301 net.cpp:141] Setting up conv3_in
I0411 11:10:58.703439  3301 net.cpp:148] Top shape: 32 8 32 32 (262144)
I0411 11:10:58.703444  3301 net.cpp:156] Memory required for data: 21365120
I0411 11:10:58.703447  3301 layer_factory.hpp:77] Creating layer conv3_1a
I0411 11:10:58.703459  3301 net.cpp:91] Creating Layer conv3_1a
I0411 11:10:58.703464  3301 net.cpp:425] conv3_1a <- conv3_in
I0411 11:10:58.703470  3301 net.cpp:399] conv3_1a -> conv3_1a
I0411 11:10:58.709588  3301 net.cpp:141] Setting up conv3_1a
I0411 11:10:58.709604  3301 net.cpp:148] Top shape: 32 32 16 16 (262144)
I0411 11:10:58.709609  3301 net.cpp:156] Memory required for data: 22413696
I0411 11:10:58.709615  3301 layer_factory.hpp:77] Creating layer bn_conv3_1a
I0411 11:10:58.709624  3301 net.cpp:91] Creating Layer bn_conv3_1a
I0411 11:10:58.709628  3301 net.cpp:425] bn_conv3_1a <- conv3_1a
I0411 11:10:58.709637  3301 net.cpp:386] bn_conv3_1a -> conv3_1a (in-place)
I0411 11:10:58.709820  3301 net.cpp:141] Setting up bn_conv3_1a
I0411 11:10:58.709828  3301 net.cpp:148] Top shape: 32 32 16 16 (262144)
I0411 11:10:58.709832  3301 net.cpp:156] Memory required for data: 23462272
I0411 11:10:58.709844  3301 layer_factory.hpp:77] Creating layer scale_conv3_1a
I0411 11:10:58.709853  3301 net.cpp:91] Creating Layer scale_conv3_1a
I0411 11:10:58.709858  3301 net.cpp:425] scale_conv3_1a <- conv3_1a
I0411 11:10:58.709863  3301 net.cpp:386] scale_conv3_1a -> conv3_1a (in-place)
I0411 11:10:58.709904  3301 layer_factory.hpp:77] Creating layer scale_conv3_1a
I0411 11:10:58.710011  3301 net.cpp:141] Setting up scale_conv3_1a
I0411 11:10:58.710018  3301 net.cpp:148] Top shape: 32 32 16 16 (262144)
I0411 11:10:58.710022  3301 net.cpp:156] Memory required for data: 24510848
I0411 11:10:58.710029  3301 layer_factory.hpp:77] Creating layer conv3_1a_relu
I0411 11:10:58.710036  3301 net.cpp:91] Creating Layer conv3_1a_relu
I0411 11:10:58.710041  3301 net.cpp:425] conv3_1a_relu <- conv3_1a
I0411 11:10:58.710047  3301 net.cpp:386] conv3_1a_relu -> conv3_1a (in-place)
I0411 11:10:58.710321  3301 net.cpp:141] Setting up conv3_1a_relu
I0411 11:10:58.710335  3301 net.cpp:148] Top shape: 32 32 16 16 (262144)
I0411 11:10:58.710340  3301 net.cpp:156] Memory required for data: 25559424
I0411 11:10:58.710345  3301 layer_factory.hpp:77] Creating layer conv3_1b
I0411 11:10:58.710357  3301 net.cpp:91] Creating Layer conv3_1b
I0411 11:10:58.710362  3301 net.cpp:425] conv3_1b <- conv3_1a
I0411 11:10:58.710369  3301 net.cpp:399] conv3_1b -> conv3_1b
I0411 11:10:58.712703  3301 net.cpp:141] Setting up conv3_1b
I0411 11:10:58.712718  3301 net.cpp:148] Top shape: 32 32 16 16 (262144)
I0411 11:10:58.712723  3301 net.cpp:156] Memory required for data: 26608000
I0411 11:10:58.712730  3301 layer_factory.hpp:77] Creating layer bn_conv3_1b
I0411 11:10:58.712739  3301 net.cpp:91] Creating Layer bn_conv3_1b
I0411 11:10:58.712745  3301 net.cpp:425] bn_conv3_1b <- conv3_1b
I0411 11:10:58.712757  3301 net.cpp:386] bn_conv3_1b -> conv3_1b (in-place)
I0411 11:10:58.712941  3301 net.cpp:141] Setting up bn_conv3_1b
I0411 11:10:58.712950  3301 net.cpp:148] Top shape: 32 32 16 16 (262144)
I0411 11:10:58.712954  3301 net.cpp:156] Memory required for data: 27656576
I0411 11:10:58.712962  3301 layer_factory.hpp:77] Creating layer scale_conv3_1b
I0411 11:10:58.712970  3301 net.cpp:91] Creating Layer scale_conv3_1b
I0411 11:10:58.712975  3301 net.cpp:425] scale_conv3_1b <- conv3_1b
I0411 11:10:58.712981  3301 net.cpp:386] scale_conv3_1b -> conv3_1b (in-place)
I0411 11:10:58.713022  3301 layer_factory.hpp:77] Creating layer scale_conv3_1b
I0411 11:10:58.713148  3301 net.cpp:141] Setting up scale_conv3_1b
I0411 11:10:58.713158  3301 net.cpp:148] Top shape: 32 32 16 16 (262144)
I0411 11:10:58.713162  3301 net.cpp:156] Memory required for data: 28705152
I0411 11:10:58.713170  3301 layer_factory.hpp:77] Creating layer conv3_1b_relu
I0411 11:10:58.713176  3301 net.cpp:91] Creating Layer conv3_1b_relu
I0411 11:10:58.713181  3301 net.cpp:425] conv3_1b_relu <- conv3_1b
I0411 11:10:58.713187  3301 net.cpp:386] conv3_1b_relu -> conv3_1b (in-place)
I0411 11:10:58.713479  3301 net.cpp:141] Setting up conv3_1b_relu
I0411 11:10:58.713491  3301 net.cpp:148] Top shape: 32 32 16 16 (262144)
I0411 11:10:58.713496  3301 net.cpp:156] Memory required for data: 29753728
I0411 11:10:58.713501  3301 layer_factory.hpp:77] Creating layer conv3_1b_conv3_1b_relu_0_split
I0411 11:10:58.713507  3301 net.cpp:91] Creating Layer conv3_1b_conv3_1b_relu_0_split
I0411 11:10:58.713511  3301 net.cpp:425] conv3_1b_conv3_1b_relu_0_split <- conv3_1b
I0411 11:10:58.713520  3301 net.cpp:399] conv3_1b_conv3_1b_relu_0_split -> conv3_1b_conv3_1b_relu_0_split_0
I0411 11:10:58.713528  3301 net.cpp:399] conv3_1b_conv3_1b_relu_0_split -> conv3_1b_conv3_1b_relu_0_split_1
I0411 11:10:58.713568  3301 net.cpp:141] Setting up conv3_1b_conv3_1b_relu_0_split
I0411 11:10:58.713577  3301 net.cpp:148] Top shape: 32 32 16 16 (262144)
I0411 11:10:58.713582  3301 net.cpp:148] Top shape: 32 32 16 16 (262144)
I0411 11:10:58.713587  3301 net.cpp:156] Memory required for data: 31850880
I0411 11:10:58.713590  3301 layer_factory.hpp:77] Creating layer conv3_sub
I0411 11:10:58.713600  3301 net.cpp:91] Creating Layer conv3_sub
I0411 11:10:58.713605  3301 net.cpp:425] conv3_sub <- conv3_1b_conv3_1b_relu_0_split_0
I0411 11:10:58.713614  3301 net.cpp:399] conv3_sub -> conv3_sub
I0411 11:10:58.714984  3301 net.cpp:141] Setting up conv3_sub
I0411 11:10:58.715001  3301 net.cpp:148] Top shape: 32 128 8 8 (262144)
I0411 11:10:58.715006  3301 net.cpp:156] Memory required for data: 32899456
I0411 11:10:58.715013  3301 layer_factory.hpp:77] Creating layer bn_conv3_sub
I0411 11:10:58.715021  3301 net.cpp:91] Creating Layer bn_conv3_sub
I0411 11:10:58.715026  3301 net.cpp:425] bn_conv3_sub <- conv3_sub
I0411 11:10:58.715034  3301 net.cpp:386] bn_conv3_sub -> conv3_sub (in-place)
I0411 11:10:58.715217  3301 net.cpp:141] Setting up bn_conv3_sub
I0411 11:10:58.715225  3301 net.cpp:148] Top shape: 32 128 8 8 (262144)
I0411 11:10:58.715229  3301 net.cpp:156] Memory required for data: 33948032
I0411 11:10:58.715237  3301 layer_factory.hpp:77] Creating layer scale_conv3_sub
I0411 11:10:58.715245  3301 net.cpp:91] Creating Layer scale_conv3_sub
I0411 11:10:58.715248  3301 net.cpp:425] scale_conv3_sub <- conv3_sub
I0411 11:10:58.715255  3301 net.cpp:386] scale_conv3_sub -> conv3_sub (in-place)
I0411 11:10:58.715294  3301 layer_factory.hpp:77] Creating layer scale_conv3_sub
I0411 11:10:58.715417  3301 net.cpp:141] Setting up scale_conv3_sub
I0411 11:10:58.715425  3301 net.cpp:148] Top shape: 32 128 8 8 (262144)
I0411 11:10:58.715430  3301 net.cpp:156] Memory required for data: 34996608
I0411 11:10:58.715436  3301 layer_factory.hpp:77] Creating layer conv4_in
I0411 11:10:58.715446  3301 net.cpp:91] Creating Layer conv4_in
I0411 11:10:58.715451  3301 net.cpp:425] conv4_in <- conv2_sub
I0411 11:10:58.715456  3301 net.cpp:425] conv4_in <- conv3_1b_conv3_1b_relu_0_split_1
I0411 11:10:58.715463  3301 net.cpp:399] conv4_in -> conv4_in
I0411 11:10:58.715495  3301 net.cpp:141] Setting up conv4_in
I0411 11:10:58.715503  3301 net.cpp:148] Top shape: 32 32 16 16 (262144)
I0411 11:10:58.715508  3301 net.cpp:156] Memory required for data: 36045184
I0411 11:10:58.715512  3301 layer_factory.hpp:77] Creating layer conv4_1a
I0411 11:10:58.715523  3301 net.cpp:91] Creating Layer conv4_1a
I0411 11:10:58.715528  3301 net.cpp:425] conv4_1a <- conv4_in
I0411 11:10:58.715538  3301 net.cpp:399] conv4_1a -> conv4_1a
I0411 11:10:58.718459  3301 net.cpp:141] Setting up conv4_1a
I0411 11:10:58.718478  3301 net.cpp:148] Top shape: 32 128 8 8 (262144)
I0411 11:10:58.718482  3301 net.cpp:156] Memory required for data: 37093760
I0411 11:10:58.718490  3301 layer_factory.hpp:77] Creating layer bn_conv4_1a
I0411 11:10:58.718502  3301 net.cpp:91] Creating Layer bn_conv4_1a
I0411 11:10:58.718508  3301 net.cpp:425] bn_conv4_1a <- conv4_1a
I0411 11:10:58.718515  3301 net.cpp:386] bn_conv4_1a -> conv4_1a (in-place)
I0411 11:10:58.718708  3301 net.cpp:141] Setting up bn_conv4_1a
I0411 11:10:58.718715  3301 net.cpp:148] Top shape: 32 128 8 8 (262144)
I0411 11:10:58.718720  3301 net.cpp:156] Memory required for data: 38142336
I0411 11:10:58.718729  3301 layer_factory.hpp:77] Creating layer scale_conv4_1a
I0411 11:10:58.718737  3301 net.cpp:91] Creating Layer scale_conv4_1a
I0411 11:10:58.718742  3301 net.cpp:425] scale_conv4_1a <- conv4_1a
I0411 11:10:58.718749  3301 net.cpp:386] scale_conv4_1a -> conv4_1a (in-place)
I0411 11:10:58.718791  3301 layer_factory.hpp:77] Creating layer scale_conv4_1a
I0411 11:10:58.718899  3301 net.cpp:141] Setting up scale_conv4_1a
I0411 11:10:58.718907  3301 net.cpp:148] Top shape: 32 128 8 8 (262144)
I0411 11:10:58.718912  3301 net.cpp:156] Memory required for data: 39190912
I0411 11:10:58.718919  3301 layer_factory.hpp:77] Creating layer conv4_1a_relu
I0411 11:10:58.718924  3301 net.cpp:91] Creating Layer conv4_1a_relu
I0411 11:10:58.718930  3301 net.cpp:425] conv4_1a_relu <- conv4_1a
I0411 11:10:58.718936  3301 net.cpp:386] conv4_1a_relu -> conv4_1a (in-place)
I0411 11:10:58.720026  3301 net.cpp:141] Setting up conv4_1a_relu
I0411 11:10:58.720041  3301 net.cpp:148] Top shape: 32 128 8 8 (262144)
I0411 11:10:58.720044  3301 net.cpp:156] Memory required for data: 40239488
I0411 11:10:58.720049  3301 layer_factory.hpp:77] Creating layer conv4_1b
I0411 11:10:58.720062  3301 net.cpp:91] Creating Layer conv4_1b
I0411 11:10:58.720067  3301 net.cpp:425] conv4_1b <- conv4_1a
I0411 11:10:58.720077  3301 net.cpp:399] conv4_1b -> conv4_1b
I0411 11:10:58.729531  3301 net.cpp:141] Setting up conv4_1b
I0411 11:10:58.729578  3301 net.cpp:148] Top shape: 32 128 8 8 (262144)
I0411 11:10:58.729583  3301 net.cpp:156] Memory required for data: 41288064
I0411 11:10:58.729591  3301 layer_factory.hpp:77] Creating layer bn_conv4_1b
I0411 11:10:58.729621  3301 net.cpp:91] Creating Layer bn_conv4_1b
I0411 11:10:58.729631  3301 net.cpp:425] bn_conv4_1b <- conv4_1b
I0411 11:10:58.729640  3301 net.cpp:386] bn_conv4_1b -> conv4_1b (in-place)
I0411 11:10:58.729846  3301 net.cpp:141] Setting up bn_conv4_1b
I0411 11:10:58.729856  3301 net.cpp:148] Top shape: 32 128 8 8 (262144)
I0411 11:10:58.729859  3301 net.cpp:156] Memory required for data: 42336640
I0411 11:10:58.729868  3301 layer_factory.hpp:77] Creating layer scale_conv4_1b
I0411 11:10:58.729890  3301 net.cpp:91] Creating Layer scale_conv4_1b
I0411 11:10:58.729895  3301 net.cpp:425] scale_conv4_1b <- conv4_1b
I0411 11:10:58.729902  3301 net.cpp:386] scale_conv4_1b -> conv4_1b (in-place)
I0411 11:10:58.729949  3301 layer_factory.hpp:77] Creating layer scale_conv4_1b
I0411 11:10:58.730063  3301 net.cpp:141] Setting up scale_conv4_1b
I0411 11:10:58.730072  3301 net.cpp:148] Top shape: 32 128 8 8 (262144)
I0411 11:10:58.730075  3301 net.cpp:156] Memory required for data: 43385216
I0411 11:10:58.730084  3301 layer_factory.hpp:77] Creating layer conv4_1b_relu
I0411 11:10:58.730094  3301 net.cpp:91] Creating Layer conv4_1b_relu
I0411 11:10:58.730100  3301 net.cpp:425] conv4_1b_relu <- conv4_1b
I0411 11:10:58.730111  3301 net.cpp:386] conv4_1b_relu -> conv4_1b (in-place)
I0411 11:10:58.730996  3301 net.cpp:141] Setting up conv4_1b_relu
I0411 11:10:58.731009  3301 net.cpp:148] Top shape: 32 128 8 8 (262144)
I0411 11:10:58.731012  3301 net.cpp:156] Memory required for data: 44433792
I0411 11:10:58.731017  3301 layer_factory.hpp:77] Creating layer global_in
I0411 11:10:58.731026  3301 net.cpp:91] Creating Layer global_in
I0411 11:10:58.731031  3301 net.cpp:425] global_in <- conv4_1b
I0411 11:10:58.731037  3301 net.cpp:425] global_in <- conv3_sub
I0411 11:10:58.731045  3301 net.cpp:399] global_in -> global_in
I0411 11:10:58.731076  3301 net.cpp:141] Setting up global_in
I0411 11:10:58.731084  3301 net.cpp:148] Top shape: 32 128 8 8 (262144)
I0411 11:10:58.731088  3301 net.cpp:156] Memory required for data: 45482368
I0411 11:10:58.731092  3301 layer_factory.hpp:77] Creating layer global_pool
I0411 11:10:58.731102  3301 net.cpp:91] Creating Layer global_pool
I0411 11:10:58.731107  3301 net.cpp:425] global_pool <- global_in
I0411 11:10:58.731113  3301 net.cpp:399] global_pool -> global_pool
I0411 11:10:58.732192  3301 net.cpp:141] Setting up global_pool
I0411 11:10:58.732209  3301 net.cpp:148] Top shape: 32 128 1 1 (4096)
I0411 11:10:58.732214  3301 net.cpp:156] Memory required for data: 45498752
I0411 11:10:58.732218  3301 layer_factory.hpp:77] Creating layer ip
I0411 11:10:58.732233  3301 net.cpp:91] Creating Layer ip
I0411 11:10:58.732237  3301 net.cpp:425] ip <- global_pool
I0411 11:10:58.732244  3301 net.cpp:399] ip -> ip
I0411 11:10:58.732370  3301 net.cpp:141] Setting up ip
I0411 11:10:58.732379  3301 net.cpp:148] Top shape: 32 10 (320)
I0411 11:10:58.732383  3301 net.cpp:156] Memory required for data: 45500032
I0411 11:10:58.732401  3301 layer_factory.hpp:77] Creating layer ip_ip_0_split
I0411 11:10:58.732409  3301 net.cpp:91] Creating Layer ip_ip_0_split
I0411 11:10:58.732414  3301 net.cpp:425] ip_ip_0_split <- ip
I0411 11:10:58.732421  3301 net.cpp:399] ip_ip_0_split -> ip_ip_0_split_0
I0411 11:10:58.732429  3301 net.cpp:399] ip_ip_0_split -> ip_ip_0_split_1
I0411 11:10:58.732470  3301 net.cpp:141] Setting up ip_ip_0_split
I0411 11:10:58.732476  3301 net.cpp:148] Top shape: 32 10 (320)
I0411 11:10:58.732482  3301 net.cpp:148] Top shape: 32 10 (320)
I0411 11:10:58.732486  3301 net.cpp:156] Memory required for data: 45502592
I0411 11:10:58.732491  3301 layer_factory.hpp:77] Creating layer accuracy
I0411 11:10:58.732502  3301 net.cpp:91] Creating Layer accuracy
I0411 11:10:58.732507  3301 net.cpp:425] accuracy <- ip_ip_0_split_0
I0411 11:10:58.732513  3301 net.cpp:425] accuracy <- label_cifar_1_split_0
I0411 11:10:58.732520  3301 net.cpp:399] accuracy -> accuracy
…
