…
I0412 22:48:42.368419 11691 solver.cpp:91] Creating training net from net file: prototxt/ResNet-cifar.prototxt
I0412 22:48:42.370203 11691 net.cpp:313] The NetState phase (0) differed from the phase (1) specified by a rule in layer cifar
I0412 22:48:42.370658 11691 net.cpp:49] Initializing net from parameters: 
name: "ResNet-cifar"
state {
  phase: TRAIN
}
layer {
  name: "cifar"
  type: "Data"
  top: "data"
  top: "label"
  include {
    phase: TRAIN
  }
  transform_param {
    mirror: true
    mean_file: "data/cifar10/mean.binaryproto"
  }
  data_param {
    source: "data/cifar10/cifar10_train_lmdb"
    batch_size: 256
    backend: LMDB
  }
}
layer {
  name: "conv1"
  type: "Convolution"
  bottom: "data"
  top: "conv1"
  param {
    lr_mult: 1
  }
  param {
    lr_mult: 2
  }
  convolution_param {
    num_output: 16
    pad: 1
    kernel_size: 3
    weight_filler {
      type: "msra"
    }
    bias_filler {
      type: "constant"
    }
  }
}
layer {
  name: "bn_conv1"
  type: "BatchNorm"
  bottom: "conv1"
  top: "conv1"
  param {
    lr_mult: 0
  }
  param {
    lr_mult: 0
  }
  param {
    lr_mult: 0
  }
}
layer {
  name: "scale_conv1"
  type: "Scale"
  bottom: "conv1"
  top: "conv1"
  scale_param {
    bias_term: true
  }
}
layer {
  name: "conv1_relu"
  type: "ReLU"
  bottom: "conv1"
  top: "conv1"
}
layer {
  name: "conv2_1a"
  type: "Convolution"
  bottom: "conv1"
  top: "conv2_1a"
  param {
    lr_mult: 1
  }
  param {
    lr_mult: 2
  }
  convolution_param {
    num_output: 16
    pad: 1
    kernel_size: 3
    stride: 1
    weight_filler {
      type: "msra"
    }
    bias_filler {
      type: "constant"
      value: 0
    }
  }
}
layer {
  name: "bn_conv2_1a"
  type: "BatchNorm"
  bottom: "conv2_1a"
  top: "conv2_1a"
  param {
    lr_mult: 0
  }
  param {
    lr_mult: 0
  }
  param {
    lr_mult: 0
  }
}
layer {
  name: "scale_conv2_1a"
  type: "Scale"
  bottom: "conv2_1a"
  top: "conv2_1a"
  scale_param {
    bias_term: true
  }
}
layer {
  name: "conv2_1a_relu"
  type: "ReLU"
  bottom: "conv2_1a"
  top: "conv2_1a"
}
layer {
  name: "conv2_1b"
  type: "Convolution"
  bottom: "conv2_1a"
  top: "conv2_1b"
  param {
    lr_mult: 1
  }
  param {
    lr_mult: 2
  }
  convolution_param {
    num_output: 16
    pad: 1
    kernel_size: 3
    stride: 1
    weight_filler {
      type: "msra"
    }
    bias_filler {
      type: "constant"
      value: 0
    }
  }
}
layer {
  name: "bn_conv2_1b"
  type: "BatchNorm"
  bottom: "conv2_1b"
  top: "conv2_1b"
  param {
    lr_mult: 0
  }
  param {
    lr_mult: 0
  }
  param {
    lr_mult: 0
  }
}
layer {
  name: "scale_conv2_1b"
  type: "Scale"
  bottom: "conv2_1b"
  top: "conv2_1b"
  scale_param {
    bias_term: true
  }
}
layer {
  name: "conv2_1"
  type: "Eltwise"
  bottom: "conv2_1b"
  bottom: "conv1"
  top: "conv2_1"
}
layer {
  name: "conv2_1_relu"
  type: "ReLU"
  bottom: "conv2_1"
  top: "conv2_1"
}
layer {
  name: "conv2_2a"
  type: "Convolution"
  bottom: "conv2_1"
  top: "conv2_2a"
  param {
    lr_mult: 1
  }
  param {
    lr_mult: 2
  }
  convolution_param {
    num_output: 16
    pad: 1
    kernel_size: 3
    stride: 1
    weight_filler {
      type: "msra"
    }
    bias_filler {
      type: "constant"
      value: 0
    }
  }
}
layer {
  name: "bn_conv2_2a"
  type: "BatchNorm"
  bottom: "conv2_2a"
  top: "conv2_2a"
  param {
    lr_mult: 0
  }
  param {
    lr_mult: 0
  }
  param {
    lr_mult: 0
  }
}
layer {
  name: "scale_conv2_2a"
  type: "Scale"
  bottom: "conv2_2a"
  top: "conv2_2a"
  scale_param {
    bias_term: true
  }
}
layer {
  name: "conv2_2a_relu"
  type: "ReLU"
  bottom: "conv2_2a"
  top: "conv2_2a"
}
layer {
  name: "conv2_2b"
  type: "Convolution"
  bottom: "conv2_2a"
  top: "conv2_2b"
  param {
    lr_mult: 1
  }
  param {
    lr_mult: 2
  }
  convolution_param {
    num_output: 16
    pad: 1
    kernel_size: 3
    stride: 1
    weight_filler {
      type: "msra"
    }
    bias_filler {
      type: "constant"
      value: 0
    }
  }
}
layer {
  name: "bn_conv2_2b"
  type: "BatchNorm"
  bottom: "conv2_2b"
  top: "conv2_2b"
  param {
    lr_mult: 0
  }
  param {
    lr_mult: 0
  }
  param {
    lr_mult: 0
  }
}
layer {
  name: "scale_conv2_2b"
  type: "Scale"
  bottom: "conv2_2b"
  top: "conv2_2b"
  scale_param {
    bias_term: true
  }
}
layer {
  name: "conv2_2"
  type: "Eltwise"
  bottom: "conv2_2b"
  bottom: "conv2_1"
  top: "conv2_2"
}
layer {
  name: "conv2_2_relu"
  type: "ReLU"
  bottom: "conv2_2"
  top: "conv2_2"
}
layer {
  name: "conv2_3a"
  type: "Convolution"
  bottom: "conv2_2"
  top: "conv2_3a"
  param {
    lr_mult: 1
  }
  param {
    lr_mult: 2
  }
  convolution_param {
    num_output: 16
    pad: 1
    kernel_size: 3
    stride: 1
    weight_filler {
      type: "msra"
    }
    bias_filler {
      type: "constant"
      value: 0
    }
  }
}
layer {
  name: "bn_conv2_3a"
  type: "BatchNorm"
  bottom: "conv2_3a"
  top: "conv2_3a"
  param {
    lr_mult: 0
  }
  param {
    lr_mult: 0
  }
  param {
    lr_mult: 0
  }
}
layer {
  name: "scale_conv2_3a"
  type: "Scale"
  bottom: "conv2_3a"
  top: "conv2_3a"
  scale_param {
    bias_term: true
  }
}
layer {
  name: "conv2_3a_relu"
  type: "ReLU"
  bottom: "conv2_3a"
  top: "conv2_3a"
}
layer {
  name: "conv2_3b"
  type: "Convolution"
  bottom: "conv2_3a"
  top: "conv2_3b"
  param {
    lr_mult: 1
  }
  param {
    lr_mult: 2
  }
  convolution_param {
    num_output: 16
    pad: 1
    kernel_size: 3
    stride: 1
    weight_filler {
      type: "msra"
    }
    bias_filler {
      type: "constant"
      value: 0
    }
  }
}
layer {
  name: "bn_conv2_3b"
  type: "BatchNorm"
  bottom: "conv2_3b"
  top: "conv2_3b"
  param {
    lr_mult: 0
  }
  param {
    lr_mult: 0
  }
  param {
    lr_mult: 0
  }
}
layer {
  name: "scale_conv2_3b"
  type: "Scale"
  bottom: "conv2_3b"
  top: "conv2_3b"
  scale_param {
    bias_term: true
  }
}
layer {
  name: "conv2_3"
  type: "Eltwise"
  bottom: "conv2_3b"
  bottom: "conv2_2"
  top: "conv2_3"
}
layer {
  name: "conv2_3_relu"
  type: "ReLU"
  bottom: "conv2_3"
  top: "conv2_3"
}
layer {
  name: "conv2_sub"
  type: "Convolution"
  bottom: "conv2_3"
  top: "conv2_sub"
  param {
    lr_mult: 1
  }
  param {
    lr_mult: 2
  }
  convolution_param {
    num_output: 32
    kernel_size: 1
    stride: 2
    weight_filler {
      type: "msra"
    }
    bias_filler {
      type: "constant"
      value: 0
    }
  }
}
layer {
  name: "bn_conv2_sub"
  type: "BatchNorm"
  bottom: "conv2_sub"
  top: "conv2_sub"
  param {
    lr_mult: 0
  }
  param {
    lr_mult: 0
  }
  param {
    lr_mult: 0
  }
}
layer {
  name: "scale_conv2_sub"
  type: "Scale"
  bottom: "conv2_sub"
  top: "conv2_sub"
  scale_param {
    bias_term: true
  }
}
layer {
  name: "conv3_1a"
  type: "Convolution"
  bottom: "conv2_3"
  top: "conv3_1a"
  param {
    lr_mult: 1
  }
  param {
    lr_mult: 2
  }
  convolution_param {
    num_output: 32
    pad: 0
    kernel_size: 1
    stride: 2
    weight_filler {
      type: "msra"
    }
    bias_filler {
      type: "constant"
      value: 0
    }
  }
}
layer {
  name: "bn_conv3_1a"
  type: "BatchNorm"
  bottom: "conv3_1a"
  top: "conv3_1a"
  param {
    lr_mult: 0
  }
  param {
    lr_mult: 0
  }
  param {
    lr_mult: 0
  }
}
layer {
  name: "scale_conv3_1a"
  type: "Scale"
  bottom: "conv3_1a"
  top: "conv3_1a"
  scale_param {
    bias_term: true
  }
}
layer {
  name: "conv3_1a_relu"
  type: "ReLU"
  bottom: "conv3_1a"
  top: "conv3_1a"
}
layer {
  name: "conv3_1b"
  type: "Convolution"
  bottom: "conv3_1a"
  top: "conv3_1b"
  param {
    lr_mult: 1
  }
  param {
    lr_mult: 2
  }
  convolution_param {
    num_output: 32
    pad: 1
    kernel_size: 3
    stride: 1
    weight_filler {
      type: "msra"
    }
    bias_filler {
      type: "constant"
      value: 0
    }
  }
}
layer {
  name: "bn_conv3_1b"
  type: "BatchNorm"
  bottom: "conv3_1b"
  top: "conv3_1b"
  param {
    lr_mult: 0
  }
  param {
    lr_mult: 0
  }
  param {
    lr_mult: 0
  }
}
layer {
  name: "scale_conv3_1b"
  type: "Scale"
  bottom: "conv3_1b"
  top: "conv3_1b"
  scale_param {
    bias_term: true
  }
}
layer {
  name: "conv3_1"
  type: "Eltwise"
  bottom: "conv3_1b"
  bottom: "conv2_sub"
  top: "conv3_1"
}
layer {
  name: "conv3_1_relu"
  type: "ReLU"
  bottom: "conv3_1"
  top: "conv3_1"
}
layer {
  name: "conv3_2a"
  type: "Convolution"
  bottom: "conv3_1"
  top: "conv3_2a"
  param {
    lr_mult: 1
  }
  param {
    lr_mult: 2
  }
  convolution_param {
    num_output: 32
    pad: 1
    kernel_size: 3
    stride: 1
    weight_filler {
      type: "msra"
    }
    bias_filler {
      type: "constant"
      value: 0
    }
  }
}
layer {
  name: "bn_conv3_2a"
  type: "BatchNorm"
  bottom: "conv3_2a"
  top: "conv3_2a"
  param {
    lr_mult: 0
  }
  param {
    lr_mult: 0
  }
  param {
    lr_mult: 0
  }
}
layer {
  name: "scale_conv3_2a"
  type: "Scale"
  bottom: "conv3_2a"
  top: "conv3_2a"
  scale_param {
    bias_term: true
  }
}
layer {
  name: "conv3_2a_relu"
  type: "ReLU"
  bottom: "conv3_2a"
  top: "conv3_2a"
}
layer {
  name: "conv3_2b"
  type: "Convolution"
  bottom: "conv3_2a"
  top: "conv3_2b"
  param {
    lr_mult: 1
  }
  param {
    lr_mult: 2
  }
  convolution_param {
    num_output: 32
    pad: 1
    kernel_size: 3
    stride: 1
    weight_filler {
      type: "msra"
    }
    bias_filler {
      type: "constant"
      value: 0
    }
  }
}
layer {
  name: "bn_conv3_2b"
  type: "BatchNorm"
  bottom: "conv3_2b"
  top: "conv3_2b"
  param {
    lr_mult: 0
  }
  param {
    lr_mult: 0
  }
  param {
    lr_mult: 0
  }
}
layer {
  name: "scale_conv3_2b"
  type: "Scale"
  bottom: "conv3_2b"
  top: "conv3_2b"
  scale_param {
    bias_term: true
  }
}
layer {
  name: "conv3_2"
  type: "Eltwise"
  bottom: "conv3_2b"
  bottom: "conv3_1"
  top: "conv3_2"
}
layer {
  name: "conv3_2_relu"
  type: "ReLU"
  bottom: "conv3_2"
  top: "conv3_2"
}
layer {
  name: "conv3_3a"
  type: "Convolution"
  bottom: "conv3_2"
  top: "conv3_3a"
  param {
    lr_mult: 1
  }
  param {
    lr_mult: 2
  }
  convolution_param {
    num_output: 32
    pad: 1
    kernel_size: 3
    stride: 1
    weight_filler {
      type: "msra"
    }
    bias_filler {
      type: "constant"
      value: 0
    }
  }
}
layer {
  name: "bn_conv3_3a"
  type: "BatchNorm"
  bottom: "conv3_3a"
  top: "conv3_3a"
  param {
    lr_mult: 0
  }
  param {
    lr_mult: 0
  }
  param {
    lr_mult: 0
  }
}
layer {
  name: "scale_conv3_3a"
  type: "Scale"
  bottom: "conv3_3a"
  top: "conv3_3a"
  scale_param {
    bias_term: true
  }
}
layer {
  name: "conv3_3a_relu"
  type: "ReLU"
  bottom: "conv3_3a"
  top: "conv3_3a"
}
layer {
  name: "conv3_3b"
  type: "Convolution"
  bottom: "conv3_3a"
  top: "conv3_3b"
  param {
    lr_mult: 1
  }
  param {
    lr_mult: 2
  }
  convolution_param {
    num_output: 32
    pad: 1
    kernel_size: 3
    stride: 1
    weight_filler {
      type: "msra"
    }
    bias_filler {
      type: "constant"
      value: 0
    }
  }
}
layer {
  name: "bn_conv3_3b"
  type: "BatchNorm"
  bottom: "conv3_3b"
  top: "conv3_3b"
  param {
    lr_mult: 0
  }
  param {
    lr_mult: 0
  }
  param {
    lr_mult: 0
  }
}
layer {
  name: "scale_conv3_3b"
  type: "Scale"
  bottom: "conv3_3b"
  top: "conv3_3b"
  scale_param {
    bias_term: true
  }
}
layer {
  name: "conv3_3"
  type: "Eltwise"
  bottom: "conv3_3b"
  bottom: "conv3_2"
  top: "conv3_3"
}
layer {
  name: "conv3_3_relu"
  type: "ReLU"
  bottom: "conv3_3"
  top: "conv3_3"
}
layer {
  name: "conv3_sub"
  type: "Convolution"
  bottom: "conv3_3"
  top: "conv3_sub"
  param {
    lr_mult: 1
  }
  param {
    lr_mult: 2
  }
  convolution_param {
    num_output: 64
    kernel_size: 1
    stride: 2
    weight_filler {
      type: "msra"
    }
    bias_filler {
      type: "constant"
      value: 0
    }
  }
}
layer {
  name: "bn_conv3_sub"
  type: "BatchNorm"
  bottom: "conv3_sub"
  top: "conv3_sub"
  param {
    lr_mult: 0
  }
  param {
    lr_mult: 0
  }
  param {
    lr_mult: 0
  }
}
layer {
  name: "scale_conv3_sub"
  type: "Scale"
  bottom: "conv3_sub"
  top: "conv3_sub"
  scale_param {
    bias_term: true
  }
}
layer {
  name: "conv4_1a"
  type: "Convolution"
  bottom: "conv3_3"
  top: "conv4_1a"
  param {
    lr_mult: 1
  }
  param {
    lr_mult: 2
  }
  convolution_param {
    num_output: 64
    pad: 0
    kernel_size: 1
    stride: 2
    weight_filler {
      type: "msra"
    }
    bias_filler {
      type: "constant"
      value: 0
    }
  }
}
layer {
  name: "bn_conv4_1a"
  type: "BatchNorm"
  bottom: "conv4_1a"
  top: "conv4_1a"
  param {
    lr_mult: 0
  }
  param {
    lr_mult: 0
  }
  param {
    lr_mult: 0
  }
}
layer {
  name: "scale_conv4_1a"
  type: "Scale"
  bottom: "conv4_1a"
  top: "conv4_1a"
  scale_param {
    bias_term: true
  }
}
layer {
  name: "conv4_1a_relu"
  type: "ReLU"
  bottom: "conv4_1a"
  top: "conv4_1a"
}
layer {
  name: "conv4_1b"
  type: "Convolution"
  bottom: "conv4_1a"
  top: "conv4_1b"
  param {
    lr_mult: 1
  }
  param {
    lr_mult: 2
  }
  convolution_param {
    num_output: 64
    pad: 1
    kernel_size: 3
    stride: 1
    weight_filler {
      type: "msra"
    }
    bias_filler {
      type: "constant"
      value: 0
    }
  }
}
layer {
  name: "bn_conv4_1b"
  type: "BatchNorm"
  bottom: "conv4_1b"
  top: "conv4_1b"
  param {
    lr_mult: 0
  }
  param {
    lr_mult: 0
  }
  param {
    lr_mult: 0
  }
}
layer {
  name: "scale_conv4_1b"
  type: "Scale"
  bottom: "conv4_1b"
  top: "conv4_1b"
  scale_param {
    bias_term: true
  }
}
layer {
  name: "conv4_1"
  type: "Eltwise"
  bottom: "conv3_sub"
  bottom: "conv4_1b"
  top: "conv4_1"
}
layer {
  name: "conv4_1_relu"
  type: "ReLU"
  bottom: "conv4_1"
  top: "conv4_1"
}
layer {
  name: "conv4_2a"
  type: "Convolution"
  bottom: "conv4_1"
  top: "conv4_2a"
  param {
    lr_mult: 1
  }
  param {
    lr_mult: 2
  }
  convolution_param {
    num_output: 64
    pad: 1
    kernel_size: 3
    stride: 1
    weight_filler {
      type: "msra"
    }
    bias_filler {
      type: "constant"
      value: 0
    }
  }
}
layer {
  name: "bn_conv4_2a"
  type: "BatchNorm"
  bottom: "conv4_2a"
  top: "conv4_2a"
  param {
    lr_mult: 0
  }
  param {
    lr_mult: 0
  }
  param {
    lr_mult: 0
  }
}
layer {
  name: "scale_conv4_2a"
  type: "Scale"
  bottom: "conv4_2a"
  top: "conv4_2a"
  scale_param {
    bias_term: true
  }
}
layer {
  name: "conv4_2a_relu"
  type: "ReLU"
  bottom: "conv4_2a"
  top: "conv4_2a"
}
layer {
  name: "conv4_2b"
  type: "Convolution"
  bottom: "conv4_2a"
  top: "conv4_2b"
  param {
    lr_mult: 1
  }
  param {
    lr_mult: 2
  }
  convolution_param {
    num_output: 64
    pad: 1
    kernel_size: 3
    stride: 1
    weight_filler {
      type: "msra"
    }
    bias_filler {
      type: "constant"
      value: 0
    }
  }
}
layer {
  name: "bn_conv4_2b"
  type: "BatchNorm"
  bottom: "conv4_2b"
  top: "conv4_2b"
  param {
    lr_mult: 0
  }
  param {
    lr_mult: 0
  }
  param {
    lr_mult: 0
  }
}
layer {
  name: "scale_conv4_2b"
  type: "Scale"
  bottom: "conv4_2b"
  top: "conv4_2b"
  scale_param {
    bias_term: true
  }
}
layer {
  name: "conv4_2"
  type: "Eltwise"
  bottom: "conv4_1"
  bottom: "conv4_2b"
  top: "conv4_2"
}
layer {
  name: "conv4_2_relu"
  type: "ReLU"
  bottom: "conv4_2"
  top: "conv4_2"
}
layer {
  name: "conv4_3a"
  type: "Convolution"
  bottom: "conv4_2"
  top: "conv4_3a"
  param {
    lr_mult: 1
  }
  param {
    lr_mult: 2
  }
  convolution_param {
    num_output: 64
    pad: 1
    kernel_size: 3
    stride: 1
    weight_filler {
      type: "msra"
    }
    bias_filler {
      type: "constant"
      value: 0
    }
  }
}
layer {
  name: "bn_conv4_3a"
  type: "BatchNorm"
  bottom: "conv4_3a"
  top: "conv4_3a"
  param {
    lr_mult: 0
  }
  param {
    lr_mult: 0
  }
  param {
    lr_mult: 0
  }
}
layer {
  name: "scale_conv4_3a"
  type: "Scale"
  bottom: "conv4_3a"
  top: "conv4_3a"
  scale_param {
    bias_term: true
  }
}
layer {
  name: "conv4_3a_relu"
  type: "ReLU"
  bottom: "conv4_3a"
  top: "conv4_3a"
}
layer {
  name: "conv4_3b"
  type: "Convolution"
  bottom: "conv4_3a"
  top: "conv4_3b"
  param {
    lr_mult: 1
  }
  param {
    lr_mult: 2
  }
  convolution_param {
    num_output: 64
    pad: 1
    kernel_size: 3
    stride: 1
    weight_filler {
      type: "msra"
    }
    bias_filler {
      type: "constant"
      value: 0
    }
  }
}
layer {
  name: "bn_conv4_3b"
  type: "BatchNorm"
  bottom: "conv4_3b"
  top: "conv4_3b"
  param {
    lr_mult: 0
  }
  param {
    lr_mult: 0
  }
  param {
    lr_mult: 0
  }
}
layer {
  name: "scale_conv4_3b"
  type: "Scale"
  bottom: "conv4_3b"
  top: "conv4_3b"
  scale_param {
    bias_term: true
  }
}
layer {
  name: "conv4_3"
  type: "Eltwise"
  bottom: "conv4_2"
  bottom: "conv4_3b"
  top: "conv4_3"
}
layer {
  name: "conv4_3_relu"
  type: "ReLU"
  bottom: "conv4_3"
  top: "conv4_3"
}
layer {
  name: "global_pool"
  type: "Pooling"
  bottom: "conv4_3"
  top: "global_pool"
  pooling_param {
    pool: AVE
    kernel_size: 8
    stride: 8
  }
}
layer {
  name: "ip"
  type: "InnerProduct"
  bottom: "global_pool"
  top: "ip"
  inner_product_param {
    num_output: 10
  }
}
layer {
  name: "accuracy"
  type: "Accuracy"
  bottom: "ip"
  bottom: "label"
  top: "accuracy"
}
layer {
  name: "loss"
  type: "SoftmaxWithLoss"
  bottom: "ip"
  bottom: "label"
  top: "loss"
}
I0412 22:48:42.371021 11691 layer_factory.hpp:77] Creating layer cifar
I0412 22:48:42.371510 11691 net.cpp:91] Creating Layer cifar
I0412 22:48:42.371525 11691 net.cpp:399] cifar -> data
I0412 22:48:42.371536 11691 net.cpp:399] cifar -> label
I0412 22:48:42.371558 11691 data_transformer.cpp:25] Loading mean file from: data/cifar10/mean.binaryproto
I0412 22:48:42.381892 11756 db_lmdb.cpp:38] Opened lmdb data/cifar10/cifar10_train_lmdb
I0412 22:48:42.438321 11691 data_layer.cpp:41] output data size: 256,3,32,32
I0412 22:48:42.446277 11691 net.cpp:141] Setting up cifar
I0412 22:48:42.446303 11691 net.cpp:148] Top shape: 256 3 32 32 (786432)
I0412 22:48:42.446310 11691 net.cpp:148] Top shape: 256 (256)
I0412 22:48:42.446315 11691 net.cpp:156] Memory required for data: 3146752
I0412 22:48:42.446322 11691 layer_factory.hpp:77] Creating layer label_cifar_1_split
I0412 22:48:42.446349 11691 net.cpp:91] Creating Layer label_cifar_1_split
I0412 22:48:42.446357 11691 net.cpp:425] label_cifar_1_split <- label
I0412 22:48:42.446364 11691 net.cpp:399] label_cifar_1_split -> label_cifar_1_split_0
I0412 22:48:42.446377 11691 net.cpp:399] label_cifar_1_split -> label_cifar_1_split_1
I0412 22:48:42.446414 11691 net.cpp:141] Setting up label_cifar_1_split
I0412 22:48:42.446422 11691 net.cpp:148] Top shape: 256 (256)
I0412 22:48:42.446427 11691 net.cpp:148] Top shape: 256 (256)
I0412 22:48:42.446431 11691 net.cpp:156] Memory required for data: 3148800
I0412 22:48:42.446435 11691 layer_factory.hpp:77] Creating layer conv1
I0412 22:48:42.446451 11691 net.cpp:91] Creating Layer conv1
I0412 22:48:42.446456 11691 net.cpp:425] conv1 <- data
I0412 22:48:42.446463 11691 net.cpp:399] conv1 -> conv1
I0412 22:48:42.723786 11691 net.cpp:141] Setting up conv1
I0412 22:48:42.723831 11691 net.cpp:148] Top shape: 256 16 32 32 (4194304)
I0412 22:48:42.723837 11691 net.cpp:156] Memory required for data: 19926016
I0412 22:48:42.723865 11691 layer_factory.hpp:77] Creating layer bn_conv1
I0412 22:48:42.723880 11691 net.cpp:91] Creating Layer bn_conv1
I0412 22:48:42.723886 11691 net.cpp:425] bn_conv1 <- conv1
I0412 22:48:42.723893 11691 net.cpp:386] bn_conv1 -> conv1 (in-place)
I0412 22:48:42.724077 11691 net.cpp:141] Setting up bn_conv1
I0412 22:48:42.724086 11691 net.cpp:148] Top shape: 256 16 32 32 (4194304)
I0412 22:48:42.724092 11691 net.cpp:156] Memory required for data: 36703232
I0412 22:48:42.724103 11691 layer_factory.hpp:77] Creating layer scale_conv1
I0412 22:48:42.724114 11691 net.cpp:91] Creating Layer scale_conv1
I0412 22:48:42.724118 11691 net.cpp:425] scale_conv1 <- conv1
I0412 22:48:42.724124 11691 net.cpp:386] scale_conv1 -> conv1 (in-place)
I0412 22:48:42.724162 11691 layer_factory.hpp:77] Creating layer scale_conv1
I0412 22:48:42.724262 11691 net.cpp:141] Setting up scale_conv1
I0412 22:48:42.724272 11691 net.cpp:148] Top shape: 256 16 32 32 (4194304)
I0412 22:48:42.724275 11691 net.cpp:156] Memory required for data: 53480448
I0412 22:48:42.724284 11691 layer_factory.hpp:77] Creating layer conv1_relu
I0412 22:48:42.724290 11691 net.cpp:91] Creating Layer conv1_relu
I0412 22:48:42.724295 11691 net.cpp:425] conv1_relu <- conv1
I0412 22:48:42.724301 11691 net.cpp:386] conv1_relu -> conv1 (in-place)
I0412 22:48:42.724860 11691 net.cpp:141] Setting up conv1_relu
I0412 22:48:42.724874 11691 net.cpp:148] Top shape: 256 16 32 32 (4194304)
I0412 22:48:42.724879 11691 net.cpp:156] Memory required for data: 70257664
I0412 22:48:42.724884 11691 layer_factory.hpp:77] Creating layer conv1_conv1_relu_0_split
I0412 22:48:42.724891 11691 net.cpp:91] Creating Layer conv1_conv1_relu_0_split
I0412 22:48:42.724895 11691 net.cpp:425] conv1_conv1_relu_0_split <- conv1
I0412 22:48:42.724902 11691 net.cpp:399] conv1_conv1_relu_0_split -> conv1_conv1_relu_0_split_0
I0412 22:48:42.724911 11691 net.cpp:399] conv1_conv1_relu_0_split -> conv1_conv1_relu_0_split_1
I0412 22:48:42.724948 11691 net.cpp:141] Setting up conv1_conv1_relu_0_split
I0412 22:48:42.724956 11691 net.cpp:148] Top shape: 256 16 32 32 (4194304)
I0412 22:48:42.724962 11691 net.cpp:148] Top shape: 256 16 32 32 (4194304)
I0412 22:48:42.724967 11691 net.cpp:156] Memory required for data: 103812096
I0412 22:48:42.724970 11691 layer_factory.hpp:77] Creating layer conv2_1a
I0412 22:48:42.724983 11691 net.cpp:91] Creating Layer conv2_1a
I0412 22:48:42.724987 11691 net.cpp:425] conv2_1a <- conv1_conv1_relu_0_split_0
I0412 22:48:42.724994 11691 net.cpp:399] conv2_1a -> conv2_1a
I0412 22:48:42.729619 11691 net.cpp:141] Setting up conv2_1a
I0412 22:48:42.729635 11691 net.cpp:148] Top shape: 256 16 32 32 (4194304)
I0412 22:48:42.729640 11691 net.cpp:156] Memory required for data: 120589312
I0412 22:48:42.729650 11691 layer_factory.hpp:77] Creating layer bn_conv2_1a
I0412 22:48:42.729660 11691 net.cpp:91] Creating Layer bn_conv2_1a
I0412 22:48:42.729665 11691 net.cpp:425] bn_conv2_1a <- conv2_1a
I0412 22:48:42.729671 11691 net.cpp:386] bn_conv2_1a -> conv2_1a (in-place)
I0412 22:48:42.729823 11691 net.cpp:141] Setting up bn_conv2_1a
I0412 22:48:42.729831 11691 net.cpp:148] Top shape: 256 16 32 32 (4194304)
I0412 22:48:42.729836 11691 net.cpp:156] Memory required for data: 137366528
I0412 22:48:42.729845 11691 layer_factory.hpp:77] Creating layer scale_conv2_1a
I0412 22:48:42.729851 11691 net.cpp:91] Creating Layer scale_conv2_1a
I0412 22:48:42.729856 11691 net.cpp:425] scale_conv2_1a <- conv2_1a
I0412 22:48:42.729861 11691 net.cpp:386] scale_conv2_1a -> conv2_1a (in-place)
I0412 22:48:42.729892 11691 layer_factory.hpp:77] Creating layer scale_conv2_1a
I0412 22:48:42.729981 11691 net.cpp:141] Setting up scale_conv2_1a
I0412 22:48:42.729990 11691 net.cpp:148] Top shape: 256 16 32 32 (4194304)
I0412 22:48:42.729993 11691 net.cpp:156] Memory required for data: 154143744
I0412 22:48:42.730000 11691 layer_factory.hpp:77] Creating layer conv2_1a_relu
I0412 22:48:42.730006 11691 net.cpp:91] Creating Layer conv2_1a_relu
I0412 22:48:42.730011 11691 net.cpp:425] conv2_1a_relu <- conv2_1a
I0412 22:48:42.730023 11691 net.cpp:386] conv2_1a_relu -> conv2_1a (in-place)
I0412 22:48:42.731797 11691 net.cpp:141] Setting up conv2_1a_relu
I0412 22:48:42.731812 11691 net.cpp:148] Top shape: 256 16 32 32 (4194304)
I0412 22:48:42.731817 11691 net.cpp:156] Memory required for data: 170920960
I0412 22:48:42.731822 11691 layer_factory.hpp:77] Creating layer conv2_1b
I0412 22:48:42.731833 11691 net.cpp:91] Creating Layer conv2_1b
I0412 22:48:42.731838 11691 net.cpp:425] conv2_1b <- conv2_1a
I0412 22:48:42.731847 11691 net.cpp:399] conv2_1b -> conv2_1b
I0412 22:48:42.738606 11691 net.cpp:141] Setting up conv2_1b
I0412 22:48:42.738621 11691 net.cpp:148] Top shape: 256 16 32 32 (4194304)
I0412 22:48:42.738626 11691 net.cpp:156] Memory required for data: 187698176
I0412 22:48:42.738633 11691 layer_factory.hpp:77] Creating layer bn_conv2_1b
I0412 22:48:42.738642 11691 net.cpp:91] Creating Layer bn_conv2_1b
I0412 22:48:42.738646 11691 net.cpp:425] bn_conv2_1b <- conv2_1b
I0412 22:48:42.738653 11691 net.cpp:386] bn_conv2_1b -> conv2_1b (in-place)
I0412 22:48:42.738802 11691 net.cpp:141] Setting up bn_conv2_1b
I0412 22:48:42.738811 11691 net.cpp:148] Top shape: 256 16 32 32 (4194304)
I0412 22:48:42.738814 11691 net.cpp:156] Memory required for data: 204475392
I0412 22:48:42.738826 11691 layer_factory.hpp:77] Creating layer scale_conv2_1b
I0412 22:48:42.738832 11691 net.cpp:91] Creating Layer scale_conv2_1b
I0412 22:48:42.738837 11691 net.cpp:425] scale_conv2_1b <- conv2_1b
I0412 22:48:42.738842 11691 net.cpp:386] scale_conv2_1b -> conv2_1b (in-place)
I0412 22:48:42.738872 11691 layer_factory.hpp:77] Creating layer scale_conv2_1b
I0412 22:48:42.738977 11691 net.cpp:141] Setting up scale_conv2_1b
I0412 22:48:42.738984 11691 net.cpp:148] Top shape: 256 16 32 32 (4194304)
I0412 22:48:42.738989 11691 net.cpp:156] Memory required for data: 221252608
I0412 22:48:42.738996 11691 layer_factory.hpp:77] Creating layer conv2_1
I0412 22:48:42.739011 11691 net.cpp:91] Creating Layer conv2_1
I0412 22:48:42.739015 11691 net.cpp:425] conv2_1 <- conv2_1b
I0412 22:48:42.739022 11691 net.cpp:425] conv2_1 <- conv1_conv1_relu_0_split_1
I0412 22:48:42.739027 11691 net.cpp:399] conv2_1 -> conv2_1
I0412 22:48:42.739053 11691 net.cpp:141] Setting up conv2_1
I0412 22:48:42.739060 11691 net.cpp:148] Top shape: 256 16 32 32 (4194304)
I0412 22:48:42.739064 11691 net.cpp:156] Memory required for data: 238029824
I0412 22:48:42.739068 11691 layer_factory.hpp:77] Creating layer conv2_1_relu
I0412 22:48:42.739075 11691 net.cpp:91] Creating Layer conv2_1_relu
I0412 22:48:42.739079 11691 net.cpp:425] conv2_1_relu <- conv2_1
I0412 22:48:42.739085 11691 net.cpp:386] conv2_1_relu -> conv2_1 (in-place)
I0412 22:48:42.740764 11691 net.cpp:141] Setting up conv2_1_relu
I0412 22:48:42.740777 11691 net.cpp:148] Top shape: 256 16 32 32 (4194304)
I0412 22:48:42.740780 11691 net.cpp:156] Memory required for data: 254807040
I0412 22:48:42.740785 11691 layer_factory.hpp:77] Creating layer conv2_1_conv2_1_relu_0_split
I0412 22:48:42.740794 11691 net.cpp:91] Creating Layer conv2_1_conv2_1_relu_0_split
I0412 22:48:42.740798 11691 net.cpp:425] conv2_1_conv2_1_relu_0_split <- conv2_1
I0412 22:48:42.740804 11691 net.cpp:399] conv2_1_conv2_1_relu_0_split -> conv2_1_conv2_1_relu_0_split_0
I0412 22:48:42.740813 11691 net.cpp:399] conv2_1_conv2_1_relu_0_split -> conv2_1_conv2_1_relu_0_split_1
I0412 22:48:42.740849 11691 net.cpp:141] Setting up conv2_1_conv2_1_relu_0_split
I0412 22:48:42.740855 11691 net.cpp:148] Top shape: 256 16 32 32 (4194304)
I0412 22:48:42.740860 11691 net.cpp:148] Top shape: 256 16 32 32 (4194304)
I0412 22:48:42.740864 11691 net.cpp:156] Memory required for data: 288361472
I0412 22:48:42.740869 11691 layer_factory.hpp:77] Creating layer conv2_2a
I0412 22:48:42.740878 11691 net.cpp:91] Creating Layer conv2_2a
I0412 22:48:42.740883 11691 net.cpp:425] conv2_2a <- conv2_1_conv2_1_relu_0_split_0
I0412 22:48:42.740890 11691 net.cpp:399] conv2_2a -> conv2_2a
I0412 22:48:42.745829 11691 net.cpp:141] Setting up conv2_2a
I0412 22:48:42.745843 11691 net.cpp:148] Top shape: 256 16 32 32 (4194304)
I0412 22:48:42.745853 11691 net.cpp:156] Memory required for data: 305138688
I0412 22:48:42.745862 11691 layer_factory.hpp:77] Creating layer bn_conv2_2a
I0412 22:48:42.745869 11691 net.cpp:91] Creating Layer bn_conv2_2a
I0412 22:48:42.745873 11691 net.cpp:425] bn_conv2_2a <- conv2_2a
I0412 22:48:42.745882 11691 net.cpp:386] bn_conv2_2a -> conv2_2a (in-place)
I0412 22:48:42.746031 11691 net.cpp:141] Setting up bn_conv2_2a
I0412 22:48:42.746039 11691 net.cpp:148] Top shape: 256 16 32 32 (4194304)
I0412 22:48:42.746043 11691 net.cpp:156] Memory required for data: 321915904
I0412 22:48:42.746052 11691 layer_factory.hpp:77] Creating layer scale_conv2_2a
I0412 22:48:42.746058 11691 net.cpp:91] Creating Layer scale_conv2_2a
I0412 22:48:42.746062 11691 net.cpp:425] scale_conv2_2a <- conv2_2a
I0412 22:48:42.746068 11691 net.cpp:386] scale_conv2_2a -> conv2_2a (in-place)
I0412 22:48:42.746098 11691 layer_factory.hpp:77] Creating layer scale_conv2_2a
I0412 22:48:42.746189 11691 net.cpp:141] Setting up scale_conv2_2a
I0412 22:48:42.746197 11691 net.cpp:148] Top shape: 256 16 32 32 (4194304)
I0412 22:48:42.746201 11691 net.cpp:156] Memory required for data: 338693120
I0412 22:48:42.746207 11691 layer_factory.hpp:77] Creating layer conv2_2a_relu
I0412 22:48:42.746214 11691 net.cpp:91] Creating Layer conv2_2a_relu
I0412 22:48:42.746218 11691 net.cpp:425] conv2_2a_relu <- conv2_2a
I0412 22:48:42.746223 11691 net.cpp:386] conv2_2a_relu -> conv2_2a (in-place)
I0412 22:48:42.746949 11691 net.cpp:141] Setting up conv2_2a_relu
I0412 22:48:42.746963 11691 net.cpp:148] Top shape: 256 16 32 32 (4194304)
I0412 22:48:42.746966 11691 net.cpp:156] Memory required for data: 355470336
I0412 22:48:42.746970 11691 layer_factory.hpp:77] Creating layer conv2_2b
I0412 22:48:42.746983 11691 net.cpp:91] Creating Layer conv2_2b
I0412 22:48:42.746987 11691 net.cpp:425] conv2_2b <- conv2_2a
I0412 22:48:42.746994 11691 net.cpp:399] conv2_2b -> conv2_2b
I0412 22:48:42.750489 11691 net.cpp:141] Setting up conv2_2b
I0412 22:48:42.750504 11691 net.cpp:148] Top shape: 256 16 32 32 (4194304)
I0412 22:48:42.750509 11691 net.cpp:156] Memory required for data: 372247552
I0412 22:48:42.750516 11691 layer_factory.hpp:77] Creating layer bn_conv2_2b
I0412 22:48:42.750524 11691 net.cpp:91] Creating Layer bn_conv2_2b
I0412 22:48:42.750529 11691 net.cpp:425] bn_conv2_2b <- conv2_2b
I0412 22:48:42.750535 11691 net.cpp:386] bn_conv2_2b -> conv2_2b (in-place)
I0412 22:48:42.750690 11691 net.cpp:141] Setting up bn_conv2_2b
I0412 22:48:42.750699 11691 net.cpp:148] Top shape: 256 16 32 32 (4194304)
I0412 22:48:42.750701 11691 net.cpp:156] Memory required for data: 389024768
I0412 22:48:42.750715 11691 layer_factory.hpp:77] Creating layer scale_conv2_2b
I0412 22:48:42.750721 11691 net.cpp:91] Creating Layer scale_conv2_2b
I0412 22:48:42.750725 11691 net.cpp:425] scale_conv2_2b <- conv2_2b
I0412 22:48:42.750731 11691 net.cpp:386] scale_conv2_2b -> conv2_2b (in-place)
I0412 22:48:42.750761 11691 layer_factory.hpp:77] Creating layer scale_conv2_2b
I0412 22:48:42.750850 11691 net.cpp:141] Setting up scale_conv2_2b
I0412 22:48:42.750859 11691 net.cpp:148] Top shape: 256 16 32 32 (4194304)
I0412 22:48:42.750862 11691 net.cpp:156] Memory required for data: 405801984
I0412 22:48:42.750869 11691 layer_factory.hpp:77] Creating layer conv2_2
I0412 22:48:42.750875 11691 net.cpp:91] Creating Layer conv2_2
I0412 22:48:42.750880 11691 net.cpp:425] conv2_2 <- conv2_2b
I0412 22:48:42.750885 11691 net.cpp:425] conv2_2 <- conv2_1_conv2_1_relu_0_split_1
I0412 22:48:42.750891 11691 net.cpp:399] conv2_2 -> conv2_2
I0412 22:48:42.750912 11691 net.cpp:141] Setting up conv2_2
I0412 22:48:42.750919 11691 net.cpp:148] Top shape: 256 16 32 32 (4194304)
I0412 22:48:42.750923 11691 net.cpp:156] Memory required for data: 422579200
I0412 22:48:42.750926 11691 layer_factory.hpp:77] Creating layer conv2_2_relu
I0412 22:48:42.750933 11691 net.cpp:91] Creating Layer conv2_2_relu
I0412 22:48:42.750937 11691 net.cpp:425] conv2_2_relu <- conv2_2
I0412 22:48:42.750943 11691 net.cpp:386] conv2_2_relu -> conv2_2 (in-place)
I0412 22:48:42.751196 11691 net.cpp:141] Setting up conv2_2_relu
I0412 22:48:42.751209 11691 net.cpp:148] Top shape: 256 16 32 32 (4194304)
I0412 22:48:42.751214 11691 net.cpp:156] Memory required for data: 439356416
I0412 22:48:42.751219 11691 layer_factory.hpp:77] Creating layer conv2_2_conv2_2_relu_0_split
I0412 22:48:42.751225 11691 net.cpp:91] Creating Layer conv2_2_conv2_2_relu_0_split
I0412 22:48:42.751230 11691 net.cpp:425] conv2_2_conv2_2_relu_0_split <- conv2_2
I0412 22:48:42.751236 11691 net.cpp:399] conv2_2_conv2_2_relu_0_split -> conv2_2_conv2_2_relu_0_split_0
I0412 22:48:42.751245 11691 net.cpp:399] conv2_2_conv2_2_relu_0_split -> conv2_2_conv2_2_relu_0_split_1
I0412 22:48:42.751282 11691 net.cpp:141] Setting up conv2_2_conv2_2_relu_0_split
I0412 22:48:42.751289 11691 net.cpp:148] Top shape: 256 16 32 32 (4194304)
I0412 22:48:42.751296 11691 net.cpp:148] Top shape: 256 16 32 32 (4194304)
I0412 22:48:42.751299 11691 net.cpp:156] Memory required for data: 472910848
I0412 22:48:42.751303 11691 layer_factory.hpp:77] Creating layer conv2_3a
I0412 22:48:42.751313 11691 net.cpp:91] Creating Layer conv2_3a
I0412 22:48:42.751318 11691 net.cpp:425] conv2_3a <- conv2_2_conv2_2_relu_0_split_0
I0412 22:48:42.751325 11691 net.cpp:399] conv2_3a -> conv2_3a
I0412 22:48:42.754354 11691 net.cpp:141] Setting up conv2_3a
I0412 22:48:42.754369 11691 net.cpp:148] Top shape: 256 16 32 32 (4194304)
I0412 22:48:42.754374 11691 net.cpp:156] Memory required for data: 489688064
I0412 22:48:42.754381 11691 layer_factory.hpp:77] Creating layer bn_conv2_3a
I0412 22:48:42.754390 11691 net.cpp:91] Creating Layer bn_conv2_3a
I0412 22:48:42.754393 11691 net.cpp:425] bn_conv2_3a <- conv2_3a
I0412 22:48:42.754400 11691 net.cpp:386] bn_conv2_3a -> conv2_3a (in-place)
I0412 22:48:42.754554 11691 net.cpp:141] Setting up bn_conv2_3a
I0412 22:48:42.754561 11691 net.cpp:148] Top shape: 256 16 32 32 (4194304)
I0412 22:48:42.754565 11691 net.cpp:156] Memory required for data: 506465280
I0412 22:48:42.754572 11691 layer_factory.hpp:77] Creating layer scale_conv2_3a
I0412 22:48:42.754580 11691 net.cpp:91] Creating Layer scale_conv2_3a
I0412 22:48:42.754583 11691 net.cpp:425] scale_conv2_3a <- conv2_3a
I0412 22:48:42.754590 11691 net.cpp:386] scale_conv2_3a -> conv2_3a (in-place)
I0412 22:48:42.754621 11691 layer_factory.hpp:77] Creating layer scale_conv2_3a
I0412 22:48:42.754711 11691 net.cpp:141] Setting up scale_conv2_3a
I0412 22:48:42.754719 11691 net.cpp:148] Top shape: 256 16 32 32 (4194304)
I0412 22:48:42.754724 11691 net.cpp:156] Memory required for data: 523242496
I0412 22:48:42.754730 11691 layer_factory.hpp:77] Creating layer conv2_3a_relu
I0412 22:48:42.754736 11691 net.cpp:91] Creating Layer conv2_3a_relu
I0412 22:48:42.754741 11691 net.cpp:425] conv2_3a_relu <- conv2_3a
I0412 22:48:42.754747 11691 net.cpp:386] conv2_3a_relu -> conv2_3a (in-place)
I0412 22:48:42.755494 11691 net.cpp:141] Setting up conv2_3a_relu
I0412 22:48:42.755504 11691 net.cpp:148] Top shape: 256 16 32 32 (4194304)
I0412 22:48:42.755508 11691 net.cpp:156] Memory required for data: 540019712
I0412 22:48:42.755512 11691 layer_factory.hpp:77] Creating layer conv2_3b
I0412 22:48:42.755523 11691 net.cpp:91] Creating Layer conv2_3b
I0412 22:48:42.755527 11691 net.cpp:425] conv2_3b <- conv2_3a
I0412 22:48:42.755535 11691 net.cpp:399] conv2_3b -> conv2_3b
I0412 22:48:42.761263 11691 net.cpp:141] Setting up conv2_3b
I0412 22:48:42.761278 11691 net.cpp:148] Top shape: 256 16 32 32 (4194304)
I0412 22:48:42.761296 11691 net.cpp:156] Memory required for data: 556796928
I0412 22:48:42.761319 11691 layer_factory.hpp:77] Creating layer bn_conv2_3b
I0412 22:48:42.761332 11691 net.cpp:91] Creating Layer bn_conv2_3b
I0412 22:48:42.761337 11691 net.cpp:425] bn_conv2_3b <- conv2_3b
I0412 22:48:42.761345 11691 net.cpp:386] bn_conv2_3b -> conv2_3b (in-place)
I0412 22:48:42.761539 11691 net.cpp:141] Setting up bn_conv2_3b
I0412 22:48:42.761549 11691 net.cpp:148] Top shape: 256 16 32 32 (4194304)
I0412 22:48:42.761554 11691 net.cpp:156] Memory required for data: 573574144
I0412 22:48:42.761575 11691 layer_factory.hpp:77] Creating layer scale_conv2_3b
I0412 22:48:42.761584 11691 net.cpp:91] Creating Layer scale_conv2_3b
I0412 22:48:42.761600 11691 net.cpp:425] scale_conv2_3b <- conv2_3b
I0412 22:48:42.761607 11691 net.cpp:386] scale_conv2_3b -> conv2_3b (in-place)
I0412 22:48:42.761662 11691 layer_factory.hpp:77] Creating layer scale_conv2_3b
I0412 22:48:42.761757 11691 net.cpp:141] Setting up scale_conv2_3b
I0412 22:48:42.761765 11691 net.cpp:148] Top shape: 256 16 32 32 (4194304)
I0412 22:48:42.761770 11691 net.cpp:156] Memory required for data: 590351360
I0412 22:48:42.761775 11691 layer_factory.hpp:77] Creating layer conv2_3
I0412 22:48:42.761781 11691 net.cpp:91] Creating Layer conv2_3
I0412 22:48:42.761785 11691 net.cpp:425] conv2_3 <- conv2_3b
I0412 22:48:42.761791 11691 net.cpp:425] conv2_3 <- conv2_2_conv2_2_relu_0_split_1
I0412 22:48:42.761797 11691 net.cpp:399] conv2_3 -> conv2_3
I0412 22:48:42.761819 11691 net.cpp:141] Setting up conv2_3
I0412 22:48:42.761826 11691 net.cpp:148] Top shape: 256 16 32 32 (4194304)
I0412 22:48:42.761831 11691 net.cpp:156] Memory required for data: 607128576
I0412 22:48:42.761834 11691 layer_factory.hpp:77] Creating layer conv2_3_relu
I0412 22:48:42.761840 11691 net.cpp:91] Creating Layer conv2_3_relu
I0412 22:48:42.761844 11691 net.cpp:425] conv2_3_relu <- conv2_3
I0412 22:48:42.761849 11691 net.cpp:386] conv2_3_relu -> conv2_3 (in-place)
I0412 22:48:42.763416 11691 net.cpp:141] Setting up conv2_3_relu
I0412 22:48:42.763428 11691 net.cpp:148] Top shape: 256 16 32 32 (4194304)
I0412 22:48:42.763432 11691 net.cpp:156] Memory required for data: 623905792
I0412 22:48:42.763437 11691 layer_factory.hpp:77] Creating layer conv2_3_conv2_3_relu_0_split
I0412 22:48:42.763444 11691 net.cpp:91] Creating Layer conv2_3_conv2_3_relu_0_split
I0412 22:48:42.763448 11691 net.cpp:425] conv2_3_conv2_3_relu_0_split <- conv2_3
I0412 22:48:42.763455 11691 net.cpp:399] conv2_3_conv2_3_relu_0_split -> conv2_3_conv2_3_relu_0_split_0
I0412 22:48:42.763463 11691 net.cpp:399] conv2_3_conv2_3_relu_0_split -> conv2_3_conv2_3_relu_0_split_1
I0412 22:48:42.763500 11691 net.cpp:141] Setting up conv2_3_conv2_3_relu_0_split
I0412 22:48:42.763507 11691 net.cpp:148] Top shape: 256 16 32 32 (4194304)
I0412 22:48:42.763512 11691 net.cpp:148] Top shape: 256 16 32 32 (4194304)
I0412 22:48:42.763515 11691 net.cpp:156] Memory required for data: 657460224
I0412 22:48:42.763520 11691 layer_factory.hpp:77] Creating layer conv2_sub
I0412 22:48:42.763530 11691 net.cpp:91] Creating Layer conv2_sub
I0412 22:48:42.763535 11691 net.cpp:425] conv2_sub <- conv2_3_conv2_3_relu_0_split_0
I0412 22:48:42.763542 11691 net.cpp:399] conv2_sub -> conv2_sub
I0412 22:48:42.783871 11691 net.cpp:141] Setting up conv2_sub
I0412 22:48:42.783890 11691 net.cpp:148] Top shape: 256 32 16 16 (2097152)
I0412 22:48:42.783895 11691 net.cpp:156] Memory required for data: 665848832
I0412 22:48:42.783903 11691 layer_factory.hpp:77] Creating layer bn_conv2_sub
I0412 22:48:42.783912 11691 net.cpp:91] Creating Layer bn_conv2_sub
I0412 22:48:42.783917 11691 net.cpp:425] bn_conv2_sub <- conv2_sub
I0412 22:48:42.783924 11691 net.cpp:386] bn_conv2_sub -> conv2_sub (in-place)
I0412 22:48:42.784097 11691 net.cpp:141] Setting up bn_conv2_sub
I0412 22:48:42.784106 11691 net.cpp:148] Top shape: 256 32 16 16 (2097152)
I0412 22:48:42.784109 11691 net.cpp:156] Memory required for data: 674237440
I0412 22:48:42.784117 11691 layer_factory.hpp:77] Creating layer scale_conv2_sub
I0412 22:48:42.784124 11691 net.cpp:91] Creating Layer scale_conv2_sub
I0412 22:48:42.784128 11691 net.cpp:425] scale_conv2_sub <- conv2_sub
I0412 22:48:42.784134 11691 net.cpp:386] scale_conv2_sub -> conv2_sub (in-place)
I0412 22:48:42.784167 11691 layer_factory.hpp:77] Creating layer scale_conv2_sub
I0412 22:48:42.784260 11691 net.cpp:141] Setting up scale_conv2_sub
I0412 22:48:42.784267 11691 net.cpp:148] Top shape: 256 32 16 16 (2097152)
I0412 22:48:42.784271 11691 net.cpp:156] Memory required for data: 682626048
I0412 22:48:42.784278 11691 layer_factory.hpp:77] Creating layer conv3_1a
I0412 22:48:42.784294 11691 net.cpp:91] Creating Layer conv3_1a
I0412 22:48:42.784299 11691 net.cpp:425] conv3_1a <- conv2_3_conv2_3_relu_0_split_1
I0412 22:48:42.784307 11691 net.cpp:399] conv3_1a -> conv3_1a
I0412 22:48:42.791018 11691 net.cpp:141] Setting up conv3_1a
I0412 22:48:42.791036 11691 net.cpp:148] Top shape: 256 32 16 16 (2097152)
I0412 22:48:42.791041 11691 net.cpp:156] Memory required for data: 691014656
I0412 22:48:42.791049 11691 layer_factory.hpp:77] Creating layer bn_conv3_1a
I0412 22:48:42.791057 11691 net.cpp:91] Creating Layer bn_conv3_1a
I0412 22:48:42.791062 11691 net.cpp:425] bn_conv3_1a <- conv3_1a
I0412 22:48:42.791069 11691 net.cpp:386] bn_conv3_1a -> conv3_1a (in-place)
I0412 22:48:42.791227 11691 net.cpp:141] Setting up bn_conv3_1a
I0412 22:48:42.791235 11691 net.cpp:148] Top shape: 256 32 16 16 (2097152)
I0412 22:48:42.791239 11691 net.cpp:156] Memory required for data: 699403264
I0412 22:48:42.791246 11691 layer_factory.hpp:77] Creating layer scale_conv3_1a
I0412 22:48:42.791254 11691 net.cpp:91] Creating Layer scale_conv3_1a
I0412 22:48:42.791259 11691 net.cpp:425] scale_conv3_1a <- conv3_1a
I0412 22:48:42.791265 11691 net.cpp:386] scale_conv3_1a -> conv3_1a (in-place)
I0412 22:48:42.791296 11691 layer_factory.hpp:77] Creating layer scale_conv3_1a
I0412 22:48:42.791388 11691 net.cpp:141] Setting up scale_conv3_1a
I0412 22:48:42.791396 11691 net.cpp:148] Top shape: 256 32 16 16 (2097152)
I0412 22:48:42.791400 11691 net.cpp:156] Memory required for data: 707791872
I0412 22:48:42.791406 11691 layer_factory.hpp:77] Creating layer conv3_1a_relu
I0412 22:48:42.791412 11691 net.cpp:91] Creating Layer conv3_1a_relu
I0412 22:48:42.791416 11691 net.cpp:425] conv3_1a_relu <- conv3_1a
I0412 22:48:42.791422 11691 net.cpp:386] conv3_1a_relu -> conv3_1a (in-place)
I0412 22:48:42.794791 11691 net.cpp:141] Setting up conv3_1a_relu
I0412 22:48:42.794809 11691 net.cpp:148] Top shape: 256 32 16 16 (2097152)
I0412 22:48:42.794814 11691 net.cpp:156] Memory required for data: 716180480
I0412 22:48:42.794819 11691 layer_factory.hpp:77] Creating layer conv3_1b
I0412 22:48:42.794831 11691 net.cpp:91] Creating Layer conv3_1b
I0412 22:48:42.794837 11691 net.cpp:425] conv3_1b <- conv3_1a
I0412 22:48:42.794849 11691 net.cpp:399] conv3_1b -> conv3_1b
I0412 22:48:42.802563 11691 net.cpp:141] Setting up conv3_1b
I0412 22:48:42.802618 11691 net.cpp:148] Top shape: 256 32 16 16 (2097152)
I0412 22:48:42.802623 11691 net.cpp:156] Memory required for data: 724569088
I0412 22:48:42.802654 11691 layer_factory.hpp:77] Creating layer bn_conv3_1b
I0412 22:48:42.802670 11691 net.cpp:91] Creating Layer bn_conv3_1b
I0412 22:48:42.802677 11691 net.cpp:425] bn_conv3_1b <- conv3_1b
I0412 22:48:42.802687 11691 net.cpp:386] bn_conv3_1b -> conv3_1b (in-place)
I0412 22:48:42.802892 11691 net.cpp:141] Setting up bn_conv3_1b
I0412 22:48:42.802902 11691 net.cpp:148] Top shape: 256 32 16 16 (2097152)
I0412 22:48:42.802907 11691 net.cpp:156] Memory required for data: 732957696
I0412 22:48:42.802917 11691 layer_factory.hpp:77] Creating layer scale_conv3_1b
I0412 22:48:42.802927 11691 net.cpp:91] Creating Layer scale_conv3_1b
I0412 22:48:42.802932 11691 net.cpp:425] scale_conv3_1b <- conv3_1b
I0412 22:48:42.802939 11691 net.cpp:386] scale_conv3_1b -> conv3_1b (in-place)
I0412 22:48:42.802983 11691 layer_factory.hpp:77] Creating layer scale_conv3_1b
I0412 22:48:42.803105 11691 net.cpp:141] Setting up scale_conv3_1b
I0412 22:48:42.803118 11691 net.cpp:148] Top shape: 256 32 16 16 (2097152)
I0412 22:48:42.803125 11691 net.cpp:156] Memory required for data: 741346304
I0412 22:48:42.803139 11691 layer_factory.hpp:77] Creating layer conv3_1
I0412 22:48:42.803155 11691 net.cpp:91] Creating Layer conv3_1
I0412 22:48:42.803164 11691 net.cpp:425] conv3_1 <- conv3_1b
I0412 22:48:42.803175 11691 net.cpp:425] conv3_1 <- conv2_sub
I0412 22:48:42.803197 11691 net.cpp:399] conv3_1 -> conv3_1
I0412 22:48:42.803287 11691 net.cpp:141] Setting up conv3_1
I0412 22:48:42.803313 11691 net.cpp:148] Top shape: 256 32 16 16 (2097152)
I0412 22:48:42.803323 11691 net.cpp:156] Memory required for data: 749734912
I0412 22:48:42.803356 11691 layer_factory.hpp:77] Creating layer conv3_1_relu
I0412 22:48:42.803390 11691 net.cpp:91] Creating Layer conv3_1_relu
I0412 22:48:42.803405 11691 net.cpp:425] conv3_1_relu <- conv3_1
I0412 22:48:42.803416 11691 net.cpp:386] conv3_1_relu -> conv3_1 (in-place)
I0412 22:48:42.803831 11691 net.cpp:141] Setting up conv3_1_relu
I0412 22:48:42.803881 11691 net.cpp:148] Top shape: 256 32 16 16 (2097152)
I0412 22:48:42.803887 11691 net.cpp:156] Memory required for data: 758123520
I0412 22:48:42.803894 11691 layer_factory.hpp:77] Creating layer conv3_1_conv3_1_relu_0_split
I0412 22:48:42.803907 11691 net.cpp:91] Creating Layer conv3_1_conv3_1_relu_0_split
I0412 22:48:42.803913 11691 net.cpp:425] conv3_1_conv3_1_relu_0_split <- conv3_1
I0412 22:48:42.803925 11691 net.cpp:399] conv3_1_conv3_1_relu_0_split -> conv3_1_conv3_1_relu_0_split_0
I0412 22:48:42.803948 11691 net.cpp:399] conv3_1_conv3_1_relu_0_split -> conv3_1_conv3_1_relu_0_split_1
I0412 22:48:42.804016 11691 net.cpp:141] Setting up conv3_1_conv3_1_relu_0_split
I0412 22:48:42.804024 11691 net.cpp:148] Top shape: 256 32 16 16 (2097152)
I0412 22:48:42.804029 11691 net.cpp:148] Top shape: 256 32 16 16 (2097152)
I0412 22:48:42.804033 11691 net.cpp:156] Memory required for data: 774900736
I0412 22:48:42.804039 11691 layer_factory.hpp:77] Creating layer conv3_2a
I0412 22:48:42.804054 11691 net.cpp:91] Creating Layer conv3_2a
I0412 22:48:42.804059 11691 net.cpp:425] conv3_2a <- conv3_1_conv3_1_relu_0_split_0
I0412 22:48:42.804067 11691 net.cpp:399] conv3_2a -> conv3_2a
I0412 22:48:42.809077 11691 net.cpp:141] Setting up conv3_2a
I0412 22:48:42.809137 11691 net.cpp:148] Top shape: 256 32 16 16 (2097152)
I0412 22:48:42.809144 11691 net.cpp:156] Memory required for data: 783289344
I0412 22:48:42.809162 11691 layer_factory.hpp:77] Creating layer bn_conv3_2a
I0412 22:48:42.809176 11691 net.cpp:91] Creating Layer bn_conv3_2a
I0412 22:48:42.809183 11691 net.cpp:425] bn_conv3_2a <- conv3_2a
I0412 22:48:42.809192 11691 net.cpp:386] bn_conv3_2a -> conv3_2a (in-place)
I0412 22:48:42.809370 11691 net.cpp:141] Setting up bn_conv3_2a
I0412 22:48:42.809378 11691 net.cpp:148] Top shape: 256 32 16 16 (2097152)
I0412 22:48:42.809383 11691 net.cpp:156] Memory required for data: 791677952
I0412 22:48:42.809391 11691 layer_factory.hpp:77] Creating layer scale_conv3_2a
I0412 22:48:42.809401 11691 net.cpp:91] Creating Layer scale_conv3_2a
I0412 22:48:42.809406 11691 net.cpp:425] scale_conv3_2a <- conv3_2a
I0412 22:48:42.809412 11691 net.cpp:386] scale_conv3_2a -> conv3_2a (in-place)
I0412 22:48:42.809448 11691 layer_factory.hpp:77] Creating layer scale_conv3_2a
I0412 22:48:42.809558 11691 net.cpp:141] Setting up scale_conv3_2a
I0412 22:48:42.809566 11691 net.cpp:148] Top shape: 256 32 16 16 (2097152)
I0412 22:48:42.809571 11691 net.cpp:156] Memory required for data: 800066560
I0412 22:48:42.809577 11691 layer_factory.hpp:77] Creating layer conv3_2a_relu
I0412 22:48:42.809586 11691 net.cpp:91] Creating Layer conv3_2a_relu
I0412 22:48:42.809589 11691 net.cpp:425] conv3_2a_relu <- conv3_2a
I0412 22:48:42.809595 11691 net.cpp:386] conv3_2a_relu -> conv3_2a (in-place)
I0412 22:48:42.810111 11691 net.cpp:141] Setting up conv3_2a_relu
I0412 22:48:42.810122 11691 net.cpp:148] Top shape: 256 32 16 16 (2097152)
I0412 22:48:42.810125 11691 net.cpp:156] Memory required for data: 808455168
I0412 22:48:42.810130 11691 layer_factory.hpp:77] Creating layer conv3_2b
I0412 22:48:42.810143 11691 net.cpp:91] Creating Layer conv3_2b
I0412 22:48:42.810148 11691 net.cpp:425] conv3_2b <- conv3_2a
I0412 22:48:42.810155 11691 net.cpp:399] conv3_2b -> conv3_2b
I0412 22:48:42.816247 11691 net.cpp:141] Setting up conv3_2b
I0412 22:48:42.816263 11691 net.cpp:148] Top shape: 256 32 16 16 (2097152)
I0412 22:48:42.816267 11691 net.cpp:156] Memory required for data: 816843776
I0412 22:48:42.816275 11691 layer_factory.hpp:77] Creating layer bn_conv3_2b
I0412 22:48:42.816283 11691 net.cpp:91] Creating Layer bn_conv3_2b
I0412 22:48:42.816288 11691 net.cpp:425] bn_conv3_2b <- conv3_2b
I0412 22:48:42.816303 11691 net.cpp:386] bn_conv3_2b -> conv3_2b (in-place)
I0412 22:48:42.816467 11691 net.cpp:141] Setting up bn_conv3_2b
I0412 22:48:42.816473 11691 net.cpp:148] Top shape: 256 32 16 16 (2097152)
I0412 22:48:42.816478 11691 net.cpp:156] Memory required for data: 825232384
I0412 22:48:42.816485 11691 layer_factory.hpp:77] Creating layer scale_conv3_2b
I0412 22:48:42.816493 11691 net.cpp:91] Creating Layer scale_conv3_2b
I0412 22:48:42.816496 11691 net.cpp:425] scale_conv3_2b <- conv3_2b
I0412 22:48:42.816503 11691 net.cpp:386] scale_conv3_2b -> conv3_2b (in-place)
I0412 22:48:42.816534 11691 layer_factory.hpp:77] Creating layer scale_conv3_2b
I0412 22:48:42.816628 11691 net.cpp:141] Setting up scale_conv3_2b
I0412 22:48:42.816635 11691 net.cpp:148] Top shape: 256 32 16 16 (2097152)
I0412 22:48:42.816639 11691 net.cpp:156] Memory required for data: 833620992
I0412 22:48:42.816647 11691 layer_factory.hpp:77] Creating layer conv3_2
I0412 22:48:42.816653 11691 net.cpp:91] Creating Layer conv3_2
I0412 22:48:42.816658 11691 net.cpp:425] conv3_2 <- conv3_2b
I0412 22:48:42.816663 11691 net.cpp:425] conv3_2 <- conv3_1_conv3_1_relu_0_split_1
I0412 22:48:42.816669 11691 net.cpp:399] conv3_2 -> conv3_2
I0412 22:48:42.816689 11691 net.cpp:141] Setting up conv3_2
I0412 22:48:42.816695 11691 net.cpp:148] Top shape: 256 32 16 16 (2097152)
I0412 22:48:42.816699 11691 net.cpp:156] Memory required for data: 842009600
I0412 22:48:42.816704 11691 layer_factory.hpp:77] Creating layer conv3_2_relu
I0412 22:48:42.816709 11691 net.cpp:91] Creating Layer conv3_2_relu
I0412 22:48:42.816714 11691 net.cpp:425] conv3_2_relu <- conv3_2
I0412 22:48:42.816720 11691 net.cpp:386] conv3_2_relu -> conv3_2 (in-place)
I0412 22:48:42.817559 11691 net.cpp:141] Setting up conv3_2_relu
I0412 22:48:42.817572 11691 net.cpp:148] Top shape: 256 32 16 16 (2097152)
I0412 22:48:42.817577 11691 net.cpp:156] Memory required for data: 850398208
I0412 22:48:42.817582 11691 layer_factory.hpp:77] Creating layer conv3_2_conv3_2_relu_0_split
I0412 22:48:42.817589 11691 net.cpp:91] Creating Layer conv3_2_conv3_2_relu_0_split
I0412 22:48:42.817594 11691 net.cpp:425] conv3_2_conv3_2_relu_0_split <- conv3_2
I0412 22:48:42.817601 11691 net.cpp:399] conv3_2_conv3_2_relu_0_split -> conv3_2_conv3_2_relu_0_split_0
I0412 22:48:42.817610 11691 net.cpp:399] conv3_2_conv3_2_relu_0_split -> conv3_2_conv3_2_relu_0_split_1
I0412 22:48:42.817652 11691 net.cpp:141] Setting up conv3_2_conv3_2_relu_0_split
I0412 22:48:42.817661 11691 net.cpp:148] Top shape: 256 32 16 16 (2097152)
I0412 22:48:42.817667 11691 net.cpp:148] Top shape: 256 32 16 16 (2097152)
I0412 22:48:42.817669 11691 net.cpp:156] Memory required for data: 867175424
I0412 22:48:42.817674 11691 layer_factory.hpp:77] Creating layer conv3_3a
I0412 22:48:42.817685 11691 net.cpp:91] Creating Layer conv3_3a
I0412 22:48:42.817690 11691 net.cpp:425] conv3_3a <- conv3_2_conv3_2_relu_0_split_0
I0412 22:48:42.817698 11691 net.cpp:399] conv3_3a -> conv3_3a
I0412 22:48:42.826264 11691 net.cpp:141] Setting up conv3_3a
I0412 22:48:42.826323 11691 net.cpp:148] Top shape: 256 32 16 16 (2097152)
I0412 22:48:42.826329 11691 net.cpp:156] Memory required for data: 875564032
I0412 22:48:42.826344 11691 layer_factory.hpp:77] Creating layer bn_conv3_3a
I0412 22:48:42.826359 11691 net.cpp:91] Creating Layer bn_conv3_3a
I0412 22:48:42.826365 11691 net.cpp:425] bn_conv3_3a <- conv3_3a
I0412 22:48:42.826376 11691 net.cpp:386] bn_conv3_3a -> conv3_3a (in-place)
I0412 22:48:42.826572 11691 net.cpp:141] Setting up bn_conv3_3a
I0412 22:48:42.826581 11691 net.cpp:148] Top shape: 256 32 16 16 (2097152)
I0412 22:48:42.826586 11691 net.cpp:156] Memory required for data: 883952640
I0412 22:48:42.826596 11691 layer_factory.hpp:77] Creating layer scale_conv3_3a
I0412 22:48:42.826606 11691 net.cpp:91] Creating Layer scale_conv3_3a
I0412 22:48:42.826611 11691 net.cpp:425] scale_conv3_3a <- conv3_3a
I0412 22:48:42.826619 11691 net.cpp:386] scale_conv3_3a -> conv3_3a (in-place)
I0412 22:48:42.826661 11691 layer_factory.hpp:77] Creating layer scale_conv3_3a
I0412 22:48:42.826866 11691 net.cpp:141] Setting up scale_conv3_3a
I0412 22:48:42.826903 11691 net.cpp:148] Top shape: 256 32 16 16 (2097152)
I0412 22:48:42.826912 11691 net.cpp:156] Memory required for data: 892341248
I0412 22:48:42.826930 11691 layer_factory.hpp:77] Creating layer conv3_3a_relu
I0412 22:48:42.826943 11691 net.cpp:91] Creating Layer conv3_3a_relu
I0412 22:48:42.826953 11691 net.cpp:425] conv3_3a_relu <- conv3_3a
I0412 22:48:42.826984 11691 net.cpp:386] conv3_3a_relu -> conv3_3a (in-place)
I0412 22:48:42.827401 11691 net.cpp:141] Setting up conv3_3a_relu
I0412 22:48:42.827443 11691 net.cpp:148] Top shape: 256 32 16 16 (2097152)
I0412 22:48:42.827450 11691 net.cpp:156] Memory required for data: 900729856
I0412 22:48:42.827457 11691 layer_factory.hpp:77] Creating layer conv3_3b
I0412 22:48:42.827502 11691 net.cpp:91] Creating Layer conv3_3b
I0412 22:48:42.827508 11691 net.cpp:425] conv3_3b <- conv3_3a
I0412 22:48:42.827519 11691 net.cpp:399] conv3_3b -> conv3_3b
I0412 22:48:42.833425 11691 net.cpp:141] Setting up conv3_3b
I0412 22:48:42.833474 11691 net.cpp:148] Top shape: 256 32 16 16 (2097152)
I0412 22:48:42.833479 11691 net.cpp:156] Memory required for data: 909118464
I0412 22:48:42.833493 11691 layer_factory.hpp:77] Creating layer bn_conv3_3b
I0412 22:48:42.833508 11691 net.cpp:91] Creating Layer bn_conv3_3b
I0412 22:48:42.833513 11691 net.cpp:425] bn_conv3_3b <- conv3_3b
I0412 22:48:42.833521 11691 net.cpp:386] bn_conv3_3b -> conv3_3b (in-place)
I0412 22:48:42.833685 11691 net.cpp:141] Setting up bn_conv3_3b
I0412 22:48:42.833693 11691 net.cpp:148] Top shape: 256 32 16 16 (2097152)
I0412 22:48:42.833698 11691 net.cpp:156] Memory required for data: 917507072
I0412 22:48:42.833706 11691 layer_factory.hpp:77] Creating layer scale_conv3_3b
I0412 22:48:42.833715 11691 net.cpp:91] Creating Layer scale_conv3_3b
I0412 22:48:42.833719 11691 net.cpp:425] scale_conv3_3b <- conv3_3b
I0412 22:48:42.833725 11691 net.cpp:386] scale_conv3_3b -> conv3_3b (in-place)
I0412 22:48:42.833761 11691 layer_factory.hpp:77] Creating layer scale_conv3_3b
I0412 22:48:42.833858 11691 net.cpp:141] Setting up scale_conv3_3b
I0412 22:48:42.833866 11691 net.cpp:148] Top shape: 256 32 16 16 (2097152)
I0412 22:48:42.833870 11691 net.cpp:156] Memory required for data: 925895680
I0412 22:48:42.833876 11691 layer_factory.hpp:77] Creating layer conv3_3
I0412 22:48:42.833884 11691 net.cpp:91] Creating Layer conv3_3
I0412 22:48:42.833889 11691 net.cpp:425] conv3_3 <- conv3_3b
I0412 22:48:42.833894 11691 net.cpp:425] conv3_3 <- conv3_2_conv3_2_relu_0_split_1
I0412 22:48:42.833900 11691 net.cpp:399] conv3_3 -> conv3_3
I0412 22:48:42.833921 11691 net.cpp:141] Setting up conv3_3
I0412 22:48:42.833928 11691 net.cpp:148] Top shape: 256 32 16 16 (2097152)
I0412 22:48:42.833932 11691 net.cpp:156] Memory required for data: 934284288
I0412 22:48:42.833936 11691 layer_factory.hpp:77] Creating layer conv3_3_relu
I0412 22:48:42.833943 11691 net.cpp:91] Creating Layer conv3_3_relu
I0412 22:48:42.833947 11691 net.cpp:425] conv3_3_relu <- conv3_3
I0412 22:48:42.833953 11691 net.cpp:386] conv3_3_relu -> conv3_3 (in-place)
I0412 22:48:42.835500 11691 net.cpp:141] Setting up conv3_3_relu
I0412 22:48:42.835510 11691 net.cpp:148] Top shape: 256 32 16 16 (2097152)
I0412 22:48:42.835515 11691 net.cpp:156] Memory required for data: 942672896
I0412 22:48:42.835520 11691 layer_factory.hpp:77] Creating layer conv3_3_conv3_3_relu_0_split
I0412 22:48:42.835526 11691 net.cpp:91] Creating Layer conv3_3_conv3_3_relu_0_split
I0412 22:48:42.835530 11691 net.cpp:425] conv3_3_conv3_3_relu_0_split <- conv3_3
I0412 22:48:42.835537 11691 net.cpp:399] conv3_3_conv3_3_relu_0_split -> conv3_3_conv3_3_relu_0_split_0
I0412 22:48:42.835544 11691 net.cpp:399] conv3_3_conv3_3_relu_0_split -> conv3_3_conv3_3_relu_0_split_1
I0412 22:48:42.835582 11691 net.cpp:141] Setting up conv3_3_conv3_3_relu_0_split
I0412 22:48:42.835589 11691 net.cpp:148] Top shape: 256 32 16 16 (2097152)
I0412 22:48:42.835594 11691 net.cpp:148] Top shape: 256 32 16 16 (2097152)
I0412 22:48:42.835597 11691 net.cpp:156] Memory required for data: 959450112
I0412 22:48:42.835608 11691 layer_factory.hpp:77] Creating layer conv3_sub
I0412 22:48:42.835623 11691 net.cpp:91] Creating Layer conv3_sub
I0412 22:48:42.835626 11691 net.cpp:425] conv3_sub <- conv3_3_conv3_3_relu_0_split_0
I0412 22:48:42.835633 11691 net.cpp:399] conv3_sub -> conv3_sub
I0412 22:48:42.841359 11691 net.cpp:141] Setting up conv3_sub
I0412 22:48:42.841380 11691 net.cpp:148] Top shape: 256 64 8 8 (1048576)
I0412 22:48:42.841393 11691 net.cpp:156] Memory required for data: 963644416
I0412 22:48:42.841400 11691 layer_factory.hpp:77] Creating layer bn_conv3_sub
I0412 22:48:42.841421 11691 net.cpp:91] Creating Layer bn_conv3_sub
I0412 22:48:42.841425 11691 net.cpp:425] bn_conv3_sub <- conv3_sub
I0412 22:48:42.841439 11691 net.cpp:386] bn_conv3_sub -> conv3_sub (in-place)
I0412 22:48:42.841640 11691 net.cpp:141] Setting up bn_conv3_sub
I0412 22:48:42.841653 11691 net.cpp:148] Top shape: 256 64 8 8 (1048576)
I0412 22:48:42.841657 11691 net.cpp:156] Memory required for data: 967838720
I0412 22:48:42.841670 11691 layer_factory.hpp:77] Creating layer scale_conv3_sub
I0412 22:48:42.841676 11691 net.cpp:91] Creating Layer scale_conv3_sub
I0412 22:48:42.841681 11691 net.cpp:425] scale_conv3_sub <- conv3_sub
I0412 22:48:42.841692 11691 net.cpp:386] scale_conv3_sub -> conv3_sub (in-place)
I0412 22:48:42.841737 11691 layer_factory.hpp:77] Creating layer scale_conv3_sub
I0412 22:48:42.841892 11691 net.cpp:141] Setting up scale_conv3_sub
I0412 22:48:42.841900 11691 net.cpp:148] Top shape: 256 64 8 8 (1048576)
I0412 22:48:42.841904 11691 net.cpp:156] Memory required for data: 972033024
I0412 22:48:42.841910 11691 layer_factory.hpp:77] Creating layer conv4_1a
I0412 22:48:42.841922 11691 net.cpp:91] Creating Layer conv4_1a
I0412 22:48:42.841925 11691 net.cpp:425] conv4_1a <- conv3_3_conv3_3_relu_0_split_1
I0412 22:48:42.841933 11691 net.cpp:399] conv4_1a -> conv4_1a
I0412 22:48:42.844264 11691 net.cpp:141] Setting up conv4_1a
I0412 22:48:42.844285 11691 net.cpp:148] Top shape: 256 64 8 8 (1048576)
I0412 22:48:42.844290 11691 net.cpp:156] Memory required for data: 976227328
I0412 22:48:42.844301 11691 layer_factory.hpp:77] Creating layer bn_conv4_1a
I0412 22:48:42.844310 11691 net.cpp:91] Creating Layer bn_conv4_1a
I0412 22:48:42.844319 11691 net.cpp:425] bn_conv4_1a <- conv4_1a
I0412 22:48:42.844326 11691 net.cpp:386] bn_conv4_1a -> conv4_1a (in-place)
I0412 22:48:42.844544 11691 net.cpp:141] Setting up bn_conv4_1a
I0412 22:48:42.844552 11691 net.cpp:148] Top shape: 256 64 8 8 (1048576)
I0412 22:48:42.844557 11691 net.cpp:156] Memory required for data: 980421632
I0412 22:48:42.844563 11691 layer_factory.hpp:77] Creating layer scale_conv4_1a
I0412 22:48:42.844570 11691 net.cpp:91] Creating Layer scale_conv4_1a
I0412 22:48:42.844574 11691 net.cpp:425] scale_conv4_1a <- conv4_1a
I0412 22:48:42.844580 11691 net.cpp:386] scale_conv4_1a -> conv4_1a (in-place)
I0412 22:48:42.844622 11691 layer_factory.hpp:77] Creating layer scale_conv4_1a
I0412 22:48:42.844753 11691 net.cpp:141] Setting up scale_conv4_1a
I0412 22:48:42.844769 11691 net.cpp:148] Top shape: 256 64 8 8 (1048576)
I0412 22:48:42.844772 11691 net.cpp:156] Memory required for data: 984615936
I0412 22:48:42.844785 11691 layer_factory.hpp:77] Creating layer conv4_1a_relu
I0412 22:48:42.844791 11691 net.cpp:91] Creating Layer conv4_1a_relu
I0412 22:48:42.844795 11691 net.cpp:425] conv4_1a_relu <- conv4_1a
I0412 22:48:42.844807 11691 net.cpp:386] conv4_1a_relu -> conv4_1a (in-place)
I0412 22:48:42.845350 11691 net.cpp:141] Setting up conv4_1a_relu
I0412 22:48:42.845368 11691 net.cpp:148] Top shape: 256 64 8 8 (1048576)
I0412 22:48:42.845373 11691 net.cpp:156] Memory required for data: 988810240
I0412 22:48:42.845377 11691 layer_factory.hpp:77] Creating layer conv4_1b
I0412 22:48:42.845396 11691 net.cpp:91] Creating Layer conv4_1b
I0412 22:48:42.845401 11691 net.cpp:425] conv4_1b <- conv4_1a
I0412 22:48:42.845422 11691 net.cpp:399] conv4_1b -> conv4_1b
I0412 22:48:42.851295 11691 net.cpp:141] Setting up conv4_1b
I0412 22:48:42.851327 11691 net.cpp:148] Top shape: 256 64 8 8 (1048576)
I0412 22:48:42.851332 11691 net.cpp:156] Memory required for data: 993004544
I0412 22:48:42.851339 11691 layer_factory.hpp:77] Creating layer bn_conv4_1b
I0412 22:48:42.851347 11691 net.cpp:91] Creating Layer bn_conv4_1b
I0412 22:48:42.851352 11691 net.cpp:425] bn_conv4_1b <- conv4_1b
I0412 22:48:42.851358 11691 net.cpp:386] bn_conv4_1b -> conv4_1b (in-place)
I0412 22:48:42.851542 11691 net.cpp:141] Setting up bn_conv4_1b
I0412 22:48:42.851555 11691 net.cpp:148] Top shape: 256 64 8 8 (1048576)
I0412 22:48:42.851559 11691 net.cpp:156] Memory required for data: 997198848
I0412 22:48:42.851572 11691 layer_factory.hpp:77] Creating layer scale_conv4_1b
I0412 22:48:42.851579 11691 net.cpp:91] Creating Layer scale_conv4_1b
I0412 22:48:42.851583 11691 net.cpp:425] scale_conv4_1b <- conv4_1b
I0412 22:48:42.851594 11691 net.cpp:386] scale_conv4_1b -> conv4_1b (in-place)
I0412 22:48:42.851642 11691 layer_factory.hpp:77] Creating layer scale_conv4_1b
I0412 22:48:42.851759 11691 net.cpp:141] Setting up scale_conv4_1b
I0412 22:48:42.851766 11691 net.cpp:148] Top shape: 256 64 8 8 (1048576)
I0412 22:48:42.851770 11691 net.cpp:156] Memory required for data: 1001393152
I0412 22:48:42.851780 11691 layer_factory.hpp:77] Creating layer conv4_1
I0412 22:48:42.851786 11691 net.cpp:91] Creating Layer conv4_1
I0412 22:48:42.851791 11691 net.cpp:425] conv4_1 <- conv3_sub
I0412 22:48:42.851801 11691 net.cpp:425] conv4_1 <- conv4_1b
I0412 22:48:42.851807 11691 net.cpp:399] conv4_1 -> conv4_1
I0412 22:48:42.851831 11691 net.cpp:141] Setting up conv4_1
I0412 22:48:42.851843 11691 net.cpp:148] Top shape: 256 64 8 8 (1048576)
I0412 22:48:42.851847 11691 net.cpp:156] Memory required for data: 1005587456
I0412 22:48:42.851851 11691 layer_factory.hpp:77] Creating layer conv4_1_relu
I0412 22:48:42.851862 11691 net.cpp:91] Creating Layer conv4_1_relu
I0412 22:48:42.851866 11691 net.cpp:425] conv4_1_relu <- conv4_1
I0412 22:48:42.851872 11691 net.cpp:386] conv4_1_relu -> conv4_1 (in-place)
I0412 22:48:42.853391 11691 net.cpp:141] Setting up conv4_1_relu
I0412 22:48:42.853420 11691 net.cpp:148] Top shape: 256 64 8 8 (1048576)
I0412 22:48:42.853425 11691 net.cpp:156] Memory required for data: 1009781760
I0412 22:48:42.853430 11691 layer_factory.hpp:77] Creating layer conv4_1_conv4_1_relu_0_split
I0412 22:48:42.853442 11691 net.cpp:91] Creating Layer conv4_1_conv4_1_relu_0_split
I0412 22:48:42.853447 11691 net.cpp:425] conv4_1_conv4_1_relu_0_split <- conv4_1
I0412 22:48:42.853454 11691 net.cpp:399] conv4_1_conv4_1_relu_0_split -> conv4_1_conv4_1_relu_0_split_0
I0412 22:48:42.853468 11691 net.cpp:399] conv4_1_conv4_1_relu_0_split -> conv4_1_conv4_1_relu_0_split_1
I0412 22:48:42.853541 11691 net.cpp:141] Setting up conv4_1_conv4_1_relu_0_split
I0412 22:48:42.853554 11691 net.cpp:148] Top shape: 256 64 8 8 (1048576)
I0412 22:48:42.853559 11691 net.cpp:148] Top shape: 256 64 8 8 (1048576)
I0412 22:48:42.853562 11691 net.cpp:156] Memory required for data: 1018170368
I0412 22:48:42.853574 11691 layer_factory.hpp:77] Creating layer conv4_2a
I0412 22:48:42.853584 11691 net.cpp:91] Creating Layer conv4_2a
I0412 22:48:42.853588 11691 net.cpp:425] conv4_2a <- conv4_1_conv4_1_relu_0_split_0
I0412 22:48:42.853595 11691 net.cpp:399] conv4_2a -> conv4_2a
I0412 22:48:42.860213 11691 net.cpp:141] Setting up conv4_2a
I0412 22:48:42.860227 11691 net.cpp:148] Top shape: 256 64 8 8 (1048576)
I0412 22:48:42.860232 11691 net.cpp:156] Memory required for data: 1022364672
I0412 22:48:42.860239 11691 layer_factory.hpp:77] Creating layer bn_conv4_2a
I0412 22:48:42.860247 11691 net.cpp:91] Creating Layer bn_conv4_2a
I0412 22:48:42.860251 11691 net.cpp:425] bn_conv4_2a <- conv4_2a
I0412 22:48:42.860257 11691 net.cpp:386] bn_conv4_2a -> conv4_2a (in-place)
I0412 22:48:42.860424 11691 net.cpp:141] Setting up bn_conv4_2a
I0412 22:48:42.860431 11691 net.cpp:148] Top shape: 256 64 8 8 (1048576)
I0412 22:48:42.860435 11691 net.cpp:156] Memory required for data: 1026558976
I0412 22:48:42.860443 11691 layer_factory.hpp:77] Creating layer scale_conv4_2a
I0412 22:48:42.860455 11691 net.cpp:91] Creating Layer scale_conv4_2a
I0412 22:48:42.860460 11691 net.cpp:425] scale_conv4_2a <- conv4_2a
I0412 22:48:42.860466 11691 net.cpp:386] scale_conv4_2a -> conv4_2a (in-place)
I0412 22:48:42.860499 11691 layer_factory.hpp:77] Creating layer scale_conv4_2a
I0412 22:48:42.860599 11691 net.cpp:141] Setting up scale_conv4_2a
I0412 22:48:42.860607 11691 net.cpp:148] Top shape: 256 64 8 8 (1048576)
I0412 22:48:42.860611 11691 net.cpp:156] Memory required for data: 1030753280
I0412 22:48:42.860617 11691 layer_factory.hpp:77] Creating layer conv4_2a_relu
I0412 22:48:42.860625 11691 net.cpp:91] Creating Layer conv4_2a_relu
I0412 22:48:42.860628 11691 net.cpp:425] conv4_2a_relu <- conv4_2a
I0412 22:48:42.860635 11691 net.cpp:386] conv4_2a_relu -> conv4_2a (in-place)
I0412 22:48:42.862354 11691 net.cpp:141] Setting up conv4_2a_relu
I0412 22:48:42.862365 11691 net.cpp:148] Top shape: 256 64 8 8 (1048576)
I0412 22:48:42.862370 11691 net.cpp:156] Memory required for data: 1034947584
I0412 22:48:42.862375 11691 layer_factory.hpp:77] Creating layer conv4_2b
I0412 22:48:42.862385 11691 net.cpp:91] Creating Layer conv4_2b
I0412 22:48:42.862390 11691 net.cpp:425] conv4_2b <- conv4_2a
I0412 22:48:42.862396 11691 net.cpp:399] conv4_2b -> conv4_2b
I0412 22:48:42.870523 11691 net.cpp:141] Setting up conv4_2b
I0412 22:48:42.870543 11691 net.cpp:148] Top shape: 256 64 8 8 (1048576)
I0412 22:48:42.870548 11691 net.cpp:156] Memory required for data: 1039141888
I0412 22:48:42.870556 11691 layer_factory.hpp:77] Creating layer bn_conv4_2b
I0412 22:48:42.870569 11691 net.cpp:91] Creating Layer bn_conv4_2b
I0412 22:48:42.870579 11691 net.cpp:425] bn_conv4_2b <- conv4_2b
I0412 22:48:42.870586 11691 net.cpp:386] bn_conv4_2b -> conv4_2b (in-place)
I0412 22:48:42.870784 11691 net.cpp:141] Setting up bn_conv4_2b
I0412 22:48:42.870791 11691 net.cpp:148] Top shape: 256 64 8 8 (1048576)
I0412 22:48:42.870795 11691 net.cpp:156] Memory required for data: 1043336192
I0412 22:48:42.870829 11691 layer_factory.hpp:77] Creating layer scale_conv4_2b
I0412 22:48:42.870838 11691 net.cpp:91] Creating Layer scale_conv4_2b
I0412 22:48:42.870843 11691 net.cpp:425] scale_conv4_2b <- conv4_2b
I0412 22:48:42.870849 11691 net.cpp:386] scale_conv4_2b -> conv4_2b (in-place)
I0412 22:48:42.870885 11691 layer_factory.hpp:77] Creating layer scale_conv4_2b
I0412 22:48:42.870985 11691 net.cpp:141] Setting up scale_conv4_2b
I0412 22:48:42.870993 11691 net.cpp:148] Top shape: 256 64 8 8 (1048576)
I0412 22:48:42.870997 11691 net.cpp:156] Memory required for data: 1047530496
I0412 22:48:42.871004 11691 layer_factory.hpp:77] Creating layer conv4_2
I0412 22:48:42.871012 11691 net.cpp:91] Creating Layer conv4_2
I0412 22:48:42.871017 11691 net.cpp:425] conv4_2 <- conv4_1_conv4_1_relu_0_split_1
I0412 22:48:42.871022 11691 net.cpp:425] conv4_2 <- conv4_2b
I0412 22:48:42.871029 11691 net.cpp:399] conv4_2 -> conv4_2
I0412 22:48:42.871048 11691 net.cpp:141] Setting up conv4_2
I0412 22:48:42.871055 11691 net.cpp:148] Top shape: 256 64 8 8 (1048576)
I0412 22:48:42.871059 11691 net.cpp:156] Memory required for data: 1051724800
I0412 22:48:42.871063 11691 layer_factory.hpp:77] Creating layer conv4_2_relu
I0412 22:48:42.871070 11691 net.cpp:91] Creating Layer conv4_2_relu
I0412 22:48:42.871074 11691 net.cpp:425] conv4_2_relu <- conv4_2
I0412 22:48:42.871080 11691 net.cpp:386] conv4_2_relu -> conv4_2 (in-place)
I0412 22:48:42.871379 11691 net.cpp:141] Setting up conv4_2_relu
I0412 22:48:42.871392 11691 net.cpp:148] Top shape: 256 64 8 8 (1048576)
I0412 22:48:42.871397 11691 net.cpp:156] Memory required for data: 1055919104
I0412 22:48:42.871402 11691 layer_factory.hpp:77] Creating layer conv4_2_conv4_2_relu_0_split
I0412 22:48:42.871408 11691 net.cpp:91] Creating Layer conv4_2_conv4_2_relu_0_split
I0412 22:48:42.871413 11691 net.cpp:425] conv4_2_conv4_2_relu_0_split <- conv4_2
I0412 22:48:42.871419 11691 net.cpp:399] conv4_2_conv4_2_relu_0_split -> conv4_2_conv4_2_relu_0_split_0
I0412 22:48:42.871428 11691 net.cpp:399] conv4_2_conv4_2_relu_0_split -> conv4_2_conv4_2_relu_0_split_1
I0412 22:48:42.871470 11691 net.cpp:141] Setting up conv4_2_conv4_2_relu_0_split
I0412 22:48:42.871479 11691 net.cpp:148] Top shape: 256 64 8 8 (1048576)
I0412 22:48:42.871484 11691 net.cpp:148] Top shape: 256 64 8 8 (1048576)
I0412 22:48:42.871487 11691 net.cpp:156] Memory required for data: 1064307712
I0412 22:48:42.871492 11691 layer_factory.hpp:77] Creating layer conv4_3a
I0412 22:48:42.871503 11691 net.cpp:91] Creating Layer conv4_3a
I0412 22:48:42.871508 11691 net.cpp:425] conv4_3a <- conv4_2_conv4_2_relu_0_split_0
I0412 22:48:42.871515 11691 net.cpp:399] conv4_3a -> conv4_3a
I0412 22:48:42.874615 11691 net.cpp:141] Setting up conv4_3a
I0412 22:48:42.874630 11691 net.cpp:148] Top shape: 256 64 8 8 (1048576)
I0412 22:48:42.874634 11691 net.cpp:156] Memory required for data: 1068502016
I0412 22:48:42.874642 11691 layer_factory.hpp:77] Creating layer bn_conv4_3a
I0412 22:48:42.874650 11691 net.cpp:91] Creating Layer bn_conv4_3a
I0412 22:48:42.874655 11691 net.cpp:425] bn_conv4_3a <- conv4_3a
I0412 22:48:42.874662 11691 net.cpp:386] bn_conv4_3a -> conv4_3a (in-place)
I0412 22:48:42.874828 11691 net.cpp:141] Setting up bn_conv4_3a
I0412 22:48:42.874835 11691 net.cpp:148] Top shape: 256 64 8 8 (1048576)
I0412 22:48:42.874840 11691 net.cpp:156] Memory required for data: 1072696320
I0412 22:48:42.874847 11691 layer_factory.hpp:77] Creating layer scale_conv4_3a
I0412 22:48:42.874855 11691 net.cpp:91] Creating Layer scale_conv4_3a
I0412 22:48:42.874858 11691 net.cpp:425] scale_conv4_3a <- conv4_3a
I0412 22:48:42.874864 11691 net.cpp:386] scale_conv4_3a -> conv4_3a (in-place)
I0412 22:48:42.874897 11691 layer_factory.hpp:77] Creating layer scale_conv4_3a
I0412 22:48:42.874999 11691 net.cpp:141] Setting up scale_conv4_3a
I0412 22:48:42.875006 11691 net.cpp:148] Top shape: 256 64 8 8 (1048576)
I0412 22:48:42.875010 11691 net.cpp:156] Memory required for data: 1076890624
I0412 22:48:42.875016 11691 layer_factory.hpp:77] Creating layer conv4_3a_relu
I0412 22:48:42.875023 11691 net.cpp:91] Creating Layer conv4_3a_relu
I0412 22:48:42.875027 11691 net.cpp:425] conv4_3a_relu <- conv4_3a
I0412 22:48:42.875033 11691 net.cpp:386] conv4_3a_relu -> conv4_3a (in-place)
I0412 22:48:42.875282 11691 net.cpp:141] Setting up conv4_3a_relu
I0412 22:48:42.875293 11691 net.cpp:148] Top shape: 256 64 8 8 (1048576)
I0412 22:48:42.875298 11691 net.cpp:156] Memory required for data: 1081084928
I0412 22:48:42.875303 11691 layer_factory.hpp:77] Creating layer conv4_3b
I0412 22:48:42.875315 11691 net.cpp:91] Creating Layer conv4_3b
I0412 22:48:42.875320 11691 net.cpp:425] conv4_3b <- conv4_3a
I0412 22:48:42.875329 11691 net.cpp:399] conv4_3b -> conv4_3b
I0412 22:48:42.879757 11691 net.cpp:141] Setting up conv4_3b
I0412 22:48:42.879772 11691 net.cpp:148] Top shape: 256 64 8 8 (1048576)
I0412 22:48:42.879776 11691 net.cpp:156] Memory required for data: 1085279232
I0412 22:48:42.879783 11691 layer_factory.hpp:77] Creating layer bn_conv4_3b
I0412 22:48:42.879792 11691 net.cpp:91] Creating Layer bn_conv4_3b
I0412 22:48:42.879796 11691 net.cpp:425] bn_conv4_3b <- conv4_3b
I0412 22:48:42.879803 11691 net.cpp:386] bn_conv4_3b -> conv4_3b (in-place)
I0412 22:48:42.879971 11691 net.cpp:141] Setting up bn_conv4_3b
I0412 22:48:42.879979 11691 net.cpp:148] Top shape: 256 64 8 8 (1048576)
I0412 22:48:42.879983 11691 net.cpp:156] Memory required for data: 1089473536
I0412 22:48:42.879990 11691 layer_factory.hpp:77] Creating layer scale_conv4_3b
I0412 22:48:42.879997 11691 net.cpp:91] Creating Layer scale_conv4_3b
I0412 22:48:42.880002 11691 net.cpp:425] scale_conv4_3b <- conv4_3b
I0412 22:48:42.880007 11691 net.cpp:386] scale_conv4_3b -> conv4_3b (in-place)
I0412 22:48:42.880041 11691 layer_factory.hpp:77] Creating layer scale_conv4_3b
I0412 22:48:42.880143 11691 net.cpp:141] Setting up scale_conv4_3b
I0412 22:48:42.880151 11691 net.cpp:148] Top shape: 256 64 8 8 (1048576)
I0412 22:48:42.880154 11691 net.cpp:156] Memory required for data: 1093667840
I0412 22:48:42.880162 11691 layer_factory.hpp:77] Creating layer conv4_3
I0412 22:48:42.880174 11691 net.cpp:91] Creating Layer conv4_3
I0412 22:48:42.880179 11691 net.cpp:425] conv4_3 <- conv4_2_conv4_2_relu_0_split_1
I0412 22:48:42.880184 11691 net.cpp:425] conv4_3 <- conv4_3b
I0412 22:48:42.880192 11691 net.cpp:399] conv4_3 -> conv4_3
I0412 22:48:42.880213 11691 net.cpp:141] Setting up conv4_3
I0412 22:48:42.880219 11691 net.cpp:148] Top shape: 256 64 8 8 (1048576)
I0412 22:48:42.880223 11691 net.cpp:156] Memory required for data: 1097862144
I0412 22:48:42.880228 11691 layer_factory.hpp:77] Creating layer conv4_3_relu
I0412 22:48:42.880234 11691 net.cpp:91] Creating Layer conv4_3_relu
I0412 22:48:42.880239 11691 net.cpp:425] conv4_3_relu <- conv4_3
I0412 22:48:42.880244 11691 net.cpp:386] conv4_3_relu -> conv4_3 (in-place)
I0412 22:48:42.881918 11691 net.cpp:141] Setting up conv4_3_relu
I0412 22:48:42.881929 11691 net.cpp:148] Top shape: 256 64 8 8 (1048576)
I0412 22:48:42.881933 11691 net.cpp:156] Memory required for data: 1102056448
I0412 22:48:42.881937 11691 layer_factory.hpp:77] Creating layer global_pool
I0412 22:48:42.881947 11691 net.cpp:91] Creating Layer global_pool
I0412 22:48:42.881950 11691 net.cpp:425] global_pool <- conv4_3
I0412 22:48:42.881956 11691 net.cpp:399] global_pool -> global_pool
I0412 22:48:42.884204 11691 net.cpp:141] Setting up global_pool
I0412 22:48:42.884217 11691 net.cpp:148] Top shape: 256 64 1 1 (16384)
I0412 22:48:42.884222 11691 net.cpp:156] Memory required for data: 1102121984
I0412 22:48:42.884227 11691 layer_factory.hpp:77] Creating layer ip
I0412 22:48:42.884241 11691 net.cpp:91] Creating Layer ip
I0412 22:48:42.884246 11691 net.cpp:425] ip <- global_pool
I0412 22:48:42.884253 11691 net.cpp:399] ip -> ip
I0412 22:48:42.884373 11691 net.cpp:141] Setting up ip
I0412 22:48:42.884382 11691 net.cpp:148] Top shape: 256 10 (2560)
I0412 22:48:42.884385 11691 net.cpp:156] Memory required for data: 1102132224
I0412 22:48:42.884393 11691 layer_factory.hpp:77] Creating layer ip_ip_0_split
I0412 22:48:42.884400 11691 net.cpp:91] Creating Layer ip_ip_0_split
I0412 22:48:42.884405 11691 net.cpp:425] ip_ip_0_split <- ip
I0412 22:48:42.884410 11691 net.cpp:399] ip_ip_0_split -> ip_ip_0_split_0
I0412 22:48:42.884418 11691 net.cpp:399] ip_ip_0_split -> ip_ip_0_split_1
I0412 22:48:42.884449 11691 net.cpp:141] Setting up ip_ip_0_split
I0412 22:48:42.884455 11691 net.cpp:148] Top shape: 256 10 (2560)
I0412 22:48:42.884460 11691 net.cpp:148] Top shape: 256 10 (2560)
I0412 22:48:42.884464 11691 net.cpp:156] Memory required for data: 1102152704
I0412 22:48:42.884467 11691 layer_factory.hpp:77] Creating layer accuracy
I0412 22:48:42.884479 11691 net.cpp:91] Creating Layer accuracy
I0412 22:48:42.884482 11691 net.cpp:425] accuracy <- ip_ip_0_split_0
I0412 22:48:42.884488 11691 net.cpp:425] accuracy <- label_cifar_1_split_0
I0412 22:48:42.884495 11691 net.cpp:399] accuracy -> accuracy
…
I0412 22:48:42.889092 11691 solver.cpp:181] Creating test net (#0) specified by net file: prototxt/ResNet-cifar.prototxt
I0412 22:48:42.889235 11691 net.cpp:313] The NetState phase (1) differed from the phase (0) specified by a rule in layer cifar
I0412 22:48:42.889695 11691 net.cpp:49] Initializing net from parameters: 
name: "ResNet-cifar"
state {
  phase: TEST
}
layer {
  name: "cifar"
  type: "Data"
  top: "data"
  top: "label"
  include {
    phase: TEST
  }
  transform_param {
    mean_file: "data/cifar10/mean.binaryproto"
  }
  data_param {
    source: "data/cifar10/cifar10_test_lmdb"
    batch_size: 100
    backend: LMDB
  }
}
layer {
  name: "conv1"
  type: "Convolution"
  bottom: "data"
  top: "conv1"
  param {
    lr_mult: 1
  }
  param {
    lr_mult: 2
  }
  convolution_param {
    num_output: 16
    pad: 1
    kernel_size: 3
    weight_filler {
      type: "msra"
    }
    bias_filler {
      type: "constant"
    }
  }
}
layer {
  name: "bn_conv1"
  type: "BatchNorm"
  bottom: "conv1"
  top: "conv1"
  param {
    lr_mult: 0
  }
  param {
    lr_mult: 0
  }
  param {
    lr_mult: 0
  }
}
layer {
  name: "scale_conv1"
  type: "Scale"
  bottom: "conv1"
  top: "conv1"
  scale_param {
    bias_term: true
  }
}
layer {
  name: "conv1_relu"
  type: "ReLU"
  bottom: "conv1"
  top: "conv1"
}
layer {
  name: "conv2_1a"
  type: "Convolution"
  bottom: "conv1"
  top: "conv2_1a"
  param {
    lr_mult: 1
  }
  param {
    lr_mult: 2
  }
  convolution_param {
    num_output: 16
    pad: 1
    kernel_size: 3
    stride: 1
    weight_filler {
      type: "msra"
    }
    bias_filler {
      type: "constant"
      value: 0
    }
  }
}
layer {
  name: "bn_conv2_1a"
  type: "BatchNorm"
  bottom: "conv2_1a"
  top: "conv2_1a"
  param {
    lr_mult: 0
  }
  param {
    lr_mult: 0
  }
  param {
    lr_mult: 0
  }
}
layer {
  name: "scale_conv2_1a"
  type: "Scale"
  bottom: "conv2_1a"
  top: "conv2_1a"
  scale_param {
    bias_term: true
  }
}
layer {
  name: "conv2_1a_relu"
  type: "ReLU"
  bottom: "conv2_1a"
  top: "conv2_1a"
}
layer {
  name: "conv2_1b"
  type: "Convolution"
  bottom: "conv2_1a"
  top: "conv2_1b"
  param {
    lr_mult: 1
  }
  param {
    lr_mult: 2
  }
  convolution_param {
    num_output: 16
    pad: 1
    kernel_size: 3
    stride: 1
    weight_filler {
      type: "msra"
    }
    bias_filler {
      type: "constant"
      value: 0
    }
  }
}
layer {
  name: "bn_conv2_1b"
  type: "BatchNorm"
  bottom: "conv2_1b"
  top: "conv2_1b"
  param {
    lr_mult: 0
  }
  param {
    lr_mult: 0
  }
  param {
    lr_mult: 0
  }
}
layer {
  name: "scale_conv2_1b"
  type: "Scale"
  bottom: "conv2_1b"
  top: "conv2_1b"
  scale_param {
    bias_term: true
  }
}
layer {
  name: "conv2_1"
  type: "Eltwise"
  bottom: "conv2_1b"
  bottom: "conv1"
  top: "conv2_1"
}
layer {
  name: "conv2_1_relu"
  type: "ReLU"
  bottom: "conv2_1"
  top: "conv2_1"
}
layer {
  name: "conv2_2a"
  type: "Convolution"
  bottom: "conv2_1"
  top: "conv2_2a"
  param {
    lr_mult: 1
  }
  param {
    lr_mult: 2
  }
  convolution_param {
    num_output: 16
    pad: 1
    kernel_size: 3
    stride: 1
    weight_filler {
      type: "msra"
    }
    bias_filler {
      type: "constant"
      value: 0
    }
  }
}
layer {
  name: "bn_conv2_2a"
  type: "BatchNorm"
  bottom: "conv2_2a"
  top: "conv2_2a"
  param {
    lr_mult: 0
  }
  param {
    lr_mult: 0
  }
  param {
    lr_mult: 0
  }
}
layer {
  name: "scale_conv2_2a"
  type: "Scale"
  bottom: "conv2_2a"
  top: "conv2_2a"
  scale_param {
    bias_term: true
  }
}
layer {
  name: "conv2_2a_relu"
  type: "ReLU"
  bottom: "conv2_2a"
  top: "conv2_2a"
}
layer {
  name: "conv2_2b"
  type: "Convolution"
  bottom: "conv2_2a"
  top: "conv2_2b"
  param {
    lr_mult: 1
  }
  param {
    lr_mult: 2
  }
  convolution_param {
    num_output: 16
    pad: 1
    kernel_size: 3
    stride: 1
    weight_filler {
      type: "msra"
    }
    bias_filler {
      type: "constant"
      value: 0
    }
  }
}
layer {
  name: "bn_conv2_2b"
  type: "BatchNorm"
  bottom: "conv2_2b"
  top: "conv2_2b"
  param {
    lr_mult: 0
  }
  param {
    lr_mult: 0
  }
  param {
    lr_mult: 0
  }
}
layer {
  name: "scale_conv2_2b"
  type: "Scale"
  bottom: "conv2_2b"
  top: "conv2_2b"
  scale_param {
    bias_term: true
  }
}
layer {
  name: "conv2_2"
  type: "Eltwise"
  bottom: "conv2_2b"
  bottom: "conv2_1"
  top: "conv2_2"
}
layer {
  name: "conv2_2_relu"
  type: "ReLU"
  bottom: "conv2_2"
  top: "conv2_2"
}
layer {
  name: "conv2_3a"
  type: "Convolution"
  bottom: "conv2_2"
  top: "conv2_3a"
  param {
    lr_mult: 1
  }
  param {
    lr_mult: 2
  }
  convolution_param {
    num_output: 16
    pad: 1
    kernel_size: 3
    stride: 1
    weight_filler {
      type: "msra"
    }
    bias_filler {
      type: "constant"
      value: 0
    }
  }
}
layer {
  name: "bn_conv2_3a"
  type: "BatchNorm"
  bottom: "conv2_3a"
  top: "conv2_3a"
  param {
    lr_mult: 0
  }
  param {
    lr_mult: 0
  }
  param {
    lr_mult: 0
  }
}
layer {
  name: "scale_conv2_3a"
  type: "Scale"
  bottom: "conv2_3a"
  top: "conv2_3a"
  scale_param {
    bias_term: true
  }
}
layer {
  name: "conv2_3a_relu"
  type: "ReLU"
  bottom: "conv2_3a"
  top: "conv2_3a"
}
layer {
  name: "conv2_3b"
  type: "Convolution"
  bottom: "conv2_3a"
  top: "conv2_3b"
  param {
    lr_mult: 1
  }
  param {
    lr_mult: 2
  }
  convolution_param {
    num_output: 16
    pad: 1
    kernel_size: 3
    stride: 1
    weight_filler {
      type: "msra"
    }
    bias_filler {
      type: "constant"
      value: 0
    }
  }
}
layer {
  name: "bn_conv2_3b"
  type: "BatchNorm"
  bottom: "conv2_3b"
  top: "conv2_3b"
  param {
    lr_mult: 0
  }
  param {
    lr_mult: 0
  }
  param {
    lr_mult: 0
  }
}
layer {
  name: "scale_conv2_3b"
  type: "Scale"
  bottom: "conv2_3b"
  top: "conv2_3b"
  scale_param {
    bias_term: true
  }
}
layer {
  name: "conv2_3"
  type: "Eltwise"
  bottom: "conv2_3b"
  bottom: "conv2_2"
  top: "conv2_3"
}
layer {
  name: "conv2_3_relu"
  type: "ReLU"
  bottom: "conv2_3"
  top: "conv2_3"
}
layer {
  name: "conv2_sub"
  type: "Convolution"
  bottom: "conv2_3"
  top: "conv2_sub"
  param {
    lr_mult: 1
  }
  param {
    lr_mult: 2
  }
  convolution_param {
    num_output: 32
    kernel_size: 1
    stride: 2
    weight_filler {
      type: "msra"
    }
    bias_filler {
      type: "constant"
      value: 0
    }
  }
}
layer {
  name: "bn_conv2_sub"
  type: "BatchNorm"
  bottom: "conv2_sub"
  top: "conv2_sub"
  param {
    lr_mult: 0
  }
  param {
    lr_mult: 0
  }
  param {
    lr_mult: 0
  }
}
layer {
  name: "scale_conv2_sub"
  type: "Scale"
  bottom: "conv2_sub"
  top: "conv2_sub"
  scale_param {
    bias_term: true
  }
}
layer {
  name: "conv3_1a"
  type: "Convolution"
  bottom: "conv2_3"
  top: "conv3_1a"
  param {
    lr_mult: 1
  }
  param {
    lr_mult: 2
  }
  convolution_param {
    num_output: 32
    pad: 0
    kernel_size: 1
    stride: 2
    weight_filler {
      type: "msra"
    }
    bias_filler {
      type: "constant"
      value: 0
    }
  }
}
layer {
  name: "bn_conv3_1a"
  type: "BatchNorm"
  bottom: "conv3_1a"
  top: "conv3_1a"
  param {
    lr_mult: 0
  }
  param {
    lr_mult: 0
  }
  param {
    lr_mult: 0
  }
}
layer {
  name: "scale_conv3_1a"
  type: "Scale"
  bottom: "conv3_1a"
  top: "conv3_1a"
  scale_param {
    bias_term: true
  }
}
layer {
  name: "conv3_1a_relu"
  type: "ReLU"
  bottom: "conv3_1a"
  top: "conv3_1a"
}
layer {
  name: "conv3_1b"
  type: "Convolution"
  bottom: "conv3_1a"
  top: "conv3_1b"
  param {
    lr_mult: 1
  }
  param {
    lr_mult: 2
  }
  convolution_param {
    num_output: 32
    pad: 1
    kernel_size: 3
    stride: 1
    weight_filler {
      type: "msra"
    }
    bias_filler {
      type: "constant"
      value: 0
    }
  }
}
layer {
  name: "bn_conv3_1b"
  type: "BatchNorm"
  bottom: "conv3_1b"
  top: "conv3_1b"
  param {
    lr_mult: 0
  }
  param {
    lr_mult: 0
  }
  param {
    lr_mult: 0
  }
}
layer {
  name: "scale_conv3_1b"
  type: "Scale"
  bottom: "conv3_1b"
  top: "conv3_1b"
  scale_param {
    bias_term: true
  }
}
layer {
  name: "conv3_1"
  type: "Eltwise"
  bottom: "conv3_1b"
  bottom: "conv2_sub"
  top: "conv3_1"
}
layer {
  name: "conv3_1_relu"
  type: "ReLU"
  bottom: "conv3_1"
  top: "conv3_1"
}
layer {
  name: "conv3_2a"
  type: "Convolution"
  bottom: "conv3_1"
  top: "conv3_2a"
  param {
    lr_mult: 1
  }
  param {
    lr_mult: 2
  }
  convolution_param {
    num_output: 32
    pad: 1
    kernel_size: 3
    stride: 1
    weight_filler {
      type: "msra"
    }
    bias_filler {
      type: "constant"
      value: 0
    }
  }
}
layer {
  name: "bn_conv3_2a"
  type: "BatchNorm"
  bottom: "conv3_2a"
  top: "conv3_2a"
  param {
    lr_mult: 0
  }
  param {
    lr_mult: 0
  }
  param {
    lr_mult: 0
  }
}
layer {
  name: "scale_conv3_2a"
  type: "Scale"
  bottom: "conv3_2a"
  top: "conv3_2a"
  scale_param {
    bias_term: true
  }
}
layer {
  name: "conv3_2a_relu"
  type: "ReLU"
  bottom: "conv3_2a"
  top: "conv3_2a"
}
layer {
  name: "conv3_2b"
  type: "Convolution"
  bottom: "conv3_2a"
  top: "conv3_2b"
  param {
    lr_mult: 1
  }
  param {
    lr_mult: 2
  }
  convolution_param {
    num_output: 32
    pad: 1
    kernel_size: 3
    stride: 1
    weight_filler {
      type: "msra"
    }
    bias_filler {
      type: "constant"
      value: 0
    }
  }
}
layer {
  name: "bn_conv3_2b"
  type: "BatchNorm"
  bottom: "conv3_2b"
  top: "conv3_2b"
  param {
    lr_mult: 0
  }
  param {
    lr_mult: 0
  }
  param {
    lr_mult: 0
  }
}
layer {
  name: "scale_conv3_2b"
  type: "Scale"
  bottom: "conv3_2b"
  top: "conv3_2b"
  scale_param {
    bias_term: true
  }
}
layer {
  name: "conv3_2"
  type: "Eltwise"
  bottom: "conv3_2b"
  bottom: "conv3_1"
  top: "conv3_2"
}
layer {
  name: "conv3_2_relu"
  type: "ReLU"
  bottom: "conv3_2"
  top: "conv3_2"
}
layer {
  name: "conv3_3a"
  type: "Convolution"
  bottom: "conv3_2"
  top: "conv3_3a"
  param {
    lr_mult: 1
  }
  param {
    lr_mult: 2
  }
  convolution_param {
    num_output: 32
    pad: 1
    kernel_size: 3
    stride: 1
    weight_filler {
      type: "msra"
    }
    bias_filler {
      type: "constant"
      value: 0
    }
  }
}
layer {
  name: "bn_conv3_3a"
  type: "BatchNorm"
  bottom: "conv3_3a"
  top: "conv3_3a"
  param {
    lr_mult: 0
  }
  param {
    lr_mult: 0
  }
  param {
    lr_mult: 0
  }
}
layer {
  name: "scale_conv3_3a"
  type: "Scale"
  bottom: "conv3_3a"
  top: "conv3_3a"
  scale_param {
    bias_term: true
  }
}
layer {
  name: "conv3_3a_relu"
  type: "ReLU"
  bottom: "conv3_3a"
  top: "conv3_3a"
}
layer {
  name: "conv3_3b"
  type: "Convolution"
  bottom: "conv3_3a"
  top: "conv3_3b"
  param {
    lr_mult: 1
  }
  param {
    lr_mult: 2
  }
  convolution_param {
    num_output: 32
    pad: 1
    kernel_size: 3
    stride: 1
    weight_filler {
      type: "msra"
    }
    bias_filler {
      type: "constant"
      value: 0
    }
  }
}
layer {
  name: "bn_conv3_3b"
  type: "BatchNorm"
  bottom: "conv3_3b"
  top: "conv3_3b"
  param {
    lr_mult: 0
  }
  param {
    lr_mult: 0
  }
  param {
    lr_mult: 0
  }
}
layer {
  name: "scale_conv3_3b"
  type: "Scale"
  bottom: "conv3_3b"
  top: "conv3_3b"
  scale_param {
    bias_term: true
  }
}
layer {
  name: "conv3_3"
  type: "Eltwise"
  bottom: "conv3_3b"
  bottom: "conv3_2"
  top: "conv3_3"
}
layer {
  name: "conv3_3_relu"
  type: "ReLU"
  bottom: "conv3_3"
  top: "conv3_3"
}
layer {
  name: "conv3_sub"
  type: "Convolution"
  bottom: "conv3_3"
  top: "conv3_sub"
  param {
    lr_mult: 1
  }
  param {
    lr_mult: 2
  }
  convolution_param {
    num_output: 64
    kernel_size: 1
    stride: 2
    weight_filler {
      type: "msra"
    }
    bias_filler {
      type: "constant"
      value: 0
    }
  }
}
layer {
  name: "bn_conv3_sub"
  type: "BatchNorm"
  bottom: "conv3_sub"
  top: "conv3_sub"
  param {
    lr_mult: 0
  }
  param {
    lr_mult: 0
  }
  param {
    lr_mult: 0
  }
}
layer {
  name: "scale_conv3_sub"
  type: "Scale"
  bottom: "conv3_sub"
  top: "conv3_sub"
  scale_param {
    bias_term: true
  }
}
layer {
  name: "conv4_1a"
  type: "Convolution"
  bottom: "conv3_3"
  top: "conv4_1a"
  param {
    lr_mult: 1
  }
  param {
    lr_mult: 2
  }
  convolution_param {
    num_output: 64
    pad: 0
    kernel_size: 1
    stride: 2
    weight_filler {
      type: "msra"
    }
    bias_filler {
      type: "constant"
      value: 0
    }
  }
}
layer {
  name: "bn_conv4_1a"
  type: "BatchNorm"
  bottom: "conv4_1a"
  top: "conv4_1a"
  param {
    lr_mult: 0
  }
  param {
    lr_mult: 0
  }
  param {
    lr_mult: 0
  }
}
layer {
  name: "scale_conv4_1a"
  type: "Scale"
  bottom: "conv4_1a"
  top: "conv4_1a"
  scale_param {
    bias_term: true
  }
}
layer {
  name: "conv4_1a_relu"
  type: "ReLU"
  bottom: "conv4_1a"
  top: "conv4_1a"
}
layer {
  name: "conv4_1b"
  type: "Convolution"
  bottom: "conv4_1a"
  top: "conv4_1b"
  param {
    lr_mult: 1
  }
  param {
    lr_mult: 2
  }
  convolution_param {
    num_output: 64
    pad: 1
    kernel_size: 3
    stride: 1
    weight_filler {
      type: "msra"
    }
    bias_filler {
      type: "constant"
      value: 0
    }
  }
}
layer {
  name: "bn_conv4_1b"
  type: "BatchNorm"
  bottom: "conv4_1b"
  top: "conv4_1b"
  param {
    lr_mult: 0
  }
  param {
    lr_mult: 0
  }
  param {
    lr_mult: 0
  }
}
layer {
  name: "scale_conv4_1b"
  type: "Scale"
  bottom: "conv4_1b"
  top: "conv4_1b"
  scale_param {
    bias_term: true
  }
}
layer {
  name: "conv4_1"
  type: "Eltwise"
  bottom: "conv3_sub"
  bottom: "conv4_1b"
  top: "conv4_1"
}
layer {
  name: "conv4_1_relu"
  type: "ReLU"
  bottom: "conv4_1"
  top: "conv4_1"
}
layer {
  name: "conv4_2a"
  type: "Convolution"
  bottom: "conv4_1"
  top: "conv4_2a"
  param {
    lr_mult: 1
  }
  param {
    lr_mult: 2
  }
  convolution_param {
    num_output: 64
    pad: 1
    kernel_size: 3
    stride: 1
    weight_filler {
      type: "msra"
    }
    bias_filler {
      type: "constant"
      value: 0
    }
  }
}
layer {
  name: "bn_conv4_2a"
  type: "BatchNorm"
  bottom: "conv4_2a"
  top: "conv4_2a"
  param {
    lr_mult: 0
  }
  param {
    lr_mult: 0
  }
  param {
    lr_mult: 0
  }
}
layer {
  name: "scale_conv4_2a"
  type: "Scale"
  bottom: "conv4_2a"
  top: "conv4_2a"
  scale_param {
    bias_term: true
  }
}
layer {
  name: "conv4_2a_relu"
  type: "ReLU"
  bottom: "conv4_2a"
  top: "conv4_2a"
}
layer {
  name: "conv4_2b"
  type: "Convolution"
  bottom: "conv4_2a"
  top: "conv4_2b"
  param {
    lr_mult: 1
  }
  param {
    lr_mult: 2
  }
  convolution_param {
    num_output: 64
    pad: 1
    kernel_size: 3
    stride: 1
    weight_filler {
      type: "msra"
    }
    bias_filler {
      type: "constant"
      value: 0
    }
  }
}
layer {
  name: "bn_conv4_2b"
  type: "BatchNorm"
  bottom: "conv4_2b"
  top: "conv4_2b"
  param {
    lr_mult: 0
  }
  param {
    lr_mult: 0
  }
  param {
    lr_mult: 0
  }
}
layer {
  name: "scale_conv4_2b"
  type: "Scale"
  bottom: "conv4_2b"
  top: "conv4_2b"
  scale_param {
    bias_term: true
  }
}
layer {
  name: "conv4_2"
  type: "Eltwise"
  bottom: "conv4_1"
  bottom: "conv4_2b"
  top: "conv4_2"
}
layer {
  name: "conv4_2_relu"
  type: "ReLU"
  bottom: "conv4_2"
  top: "conv4_2"
}
layer {
  name: "conv4_3a"
  type: "Convolution"
  bottom: "conv4_2"
  top: "conv4_3a"
  param {
    lr_mult: 1
  }
  param {
    lr_mult: 2
  }
  convolution_param {
    num_output: 64
    pad: 1
    kernel_size: 3
    stride: 1
    weight_filler {
      type: "msra"
    }
    bias_filler {
      type: "constant"
      value: 0
    }
  }
}
layer {
  name: "bn_conv4_3a"
  type: "BatchNorm"
  bottom: "conv4_3a"
  top: "conv4_3a"
  param {
    lr_mult: 0
  }
  param {
    lr_mult: 0
  }
  param {
    lr_mult: 0
  }
}
layer {
  name: "scale_conv4_3a"
  type: "Scale"
  bottom: "conv4_3a"
  top: "conv4_3a"
  scale_param {
    bias_term: true
  }
}
layer {
  name: "conv4_3a_relu"
  type: "ReLU"
  bottom: "conv4_3a"
  top: "conv4_3a"
}
layer {
  name: "conv4_3b"
  type: "Convolution"
  bottom: "conv4_3a"
  top: "conv4_3b"
  param {
    lr_mult: 1
  }
  param {
    lr_mult: 2
  }
  convolution_param {
    num_output: 64
    pad: 1
    kernel_size: 3
    stride: 1
    weight_filler {
      type: "msra"
    }
    bias_filler {
      type: "constant"
      value: 0
    }
  }
}
layer {
  name: "bn_conv4_3b"
  type: "BatchNorm"
  bottom: "conv4_3b"
  top: "conv4_3b"
  param {
    lr_mult: 0
  }
  param {
    lr_mult: 0
  }
  param {
    lr_mult: 0
  }
}
layer {
  name: "scale_conv4_3b"
  type: "Scale"
  bottom: "conv4_3b"
  top: "conv4_3b"
  scale_param {
    bias_term: true
  }
}
layer {
  name: "conv4_3"
  type: "Eltwise"
  bottom: "conv4_2"
  bottom: "conv4_3b"
  top: "conv4_3"
}
layer {
  name: "conv4_3_relu"
  type: "ReLU"
  bottom: "conv4_3"
  top: "conv4_3"
}
layer {
  name: "global_pool"
  type: "Pooling"
  bottom: "conv4_3"
  top: "global_pool"
  pooling_param {
    pool: AVE
    kernel_size: 8
    stride: 8
  }
}
layer {
  name: "ip"
  type: "InnerProduct"
  bottom: "global_pool"
  top: "ip"
  inner_product_param {
    num_output: 10
  }
}
layer {
  name: "accuracy"
  type: "Accuracy"
  bottom: "ip"
  bottom: "label"
  top: "accuracy"
}
layer {
  name: "loss"
  type: "SoftmaxWithLoss"
  bottom: "ip"
  bottom: "label"
  top: "loss"
}
I0412 22:48:42.890029 11691 layer_factory.hpp:77] Creating layer cifar
I0412 22:48:42.890487 11691 net.cpp:91] Creating Layer cifar
I0412 22:48:42.890497 11691 net.cpp:399] cifar -> data
I0412 22:48:42.890506 11691 net.cpp:399] cifar -> label
I0412 22:48:42.890517 11691 data_transformer.cpp:25] Loading mean file from: data/cifar10/mean.binaryproto
I0412 22:48:42.891399 11770 db_lmdb.cpp:38] Opened lmdb data/cifar10/cifar10_test_lmdb
I0412 22:48:42.891501 11691 data_layer.cpp:41] output data size: 100,3,32,32
I0412 22:48:42.900043 11691 net.cpp:141] Setting up cifar
I0412 22:48:42.900060 11691 net.cpp:148] Top shape: 100 3 32 32 (307200)
I0412 22:48:42.900066 11691 net.cpp:148] Top shape: 100 (100)
I0412 22:48:42.900071 11691 net.cpp:156] Memory required for data: 1229200
I0412 22:48:42.900076 11691 layer_factory.hpp:77] Creating layer label_cifar_1_split
I0412 22:48:42.900084 11691 net.cpp:91] Creating Layer label_cifar_1_split
I0412 22:48:42.900089 11691 net.cpp:425] label_cifar_1_split <- label
I0412 22:48:42.900096 11691 net.cpp:399] label_cifar_1_split -> label_cifar_1_split_0
I0412 22:48:42.900105 11691 net.cpp:399] label_cifar_1_split -> label_cifar_1_split_1
I0412 22:48:42.900197 11691 net.cpp:141] Setting up label_cifar_1_split
I0412 22:48:42.900207 11691 net.cpp:148] Top shape: 100 (100)
I0412 22:48:42.900212 11691 net.cpp:148] Top shape: 100 (100)
I0412 22:48:42.900215 11691 net.cpp:156] Memory required for data: 1230000
I0412 22:48:42.900219 11691 layer_factory.hpp:77] Creating layer conv1
I0412 22:48:42.900231 11691 net.cpp:91] Creating Layer conv1
I0412 22:48:42.900235 11691 net.cpp:425] conv1 <- data
I0412 22:48:42.900243 11691 net.cpp:399] conv1 -> conv1
I0412 22:48:42.906249 11691 net.cpp:141] Setting up conv1
I0412 22:48:42.906268 11691 net.cpp:148] Top shape: 100 16 32 32 (1638400)
I0412 22:48:42.906273 11691 net.cpp:156] Memory required for data: 7783600
I0412 22:48:42.906286 11691 layer_factory.hpp:77] Creating layer bn_conv1
I0412 22:48:42.906296 11691 net.cpp:91] Creating Layer bn_conv1
I0412 22:48:42.906304 11691 net.cpp:425] bn_conv1 <- conv1
I0412 22:48:42.906319 11691 net.cpp:386] bn_conv1 -> conv1 (in-place)
I0412 22:48:42.906510 11691 net.cpp:141] Setting up bn_conv1
I0412 22:48:42.906522 11691 net.cpp:148] Top shape: 100 16 32 32 (1638400)
I0412 22:48:42.906525 11691 net.cpp:156] Memory required for data: 14337200
I0412 22:48:42.906538 11691 layer_factory.hpp:77] Creating layer scale_conv1
I0412 22:48:42.906553 11691 net.cpp:91] Creating Layer scale_conv1
I0412 22:48:42.906558 11691 net.cpp:425] scale_conv1 <- conv1
I0412 22:48:42.906563 11691 net.cpp:386] scale_conv1 -> conv1 (in-place)
I0412 22:48:42.906605 11691 layer_factory.hpp:77] Creating layer scale_conv1
I0412 22:48:42.906719 11691 net.cpp:141] Setting up scale_conv1
I0412 22:48:42.906728 11691 net.cpp:148] Top shape: 100 16 32 32 (1638400)
I0412 22:48:42.906735 11691 net.cpp:156] Memory required for data: 20890800
I0412 22:48:42.906744 11691 layer_factory.hpp:77] Creating layer conv1_relu
I0412 22:48:42.906750 11691 net.cpp:91] Creating Layer conv1_relu
I0412 22:48:42.906756 11691 net.cpp:425] conv1_relu <- conv1
I0412 22:48:42.906764 11691 net.cpp:386] conv1_relu -> conv1 (in-place)
I0412 22:48:42.907038 11691 net.cpp:141] Setting up conv1_relu
I0412 22:48:42.907054 11691 net.cpp:148] Top shape: 100 16 32 32 (1638400)
I0412 22:48:42.907058 11691 net.cpp:156] Memory required for data: 27444400
I0412 22:48:42.907063 11691 layer_factory.hpp:77] Creating layer conv1_conv1_relu_0_split
I0412 22:48:42.907078 11691 net.cpp:91] Creating Layer conv1_conv1_relu_0_split
I0412 22:48:42.907083 11691 net.cpp:425] conv1_conv1_relu_0_split <- conv1
I0412 22:48:42.907090 11691 net.cpp:399] conv1_conv1_relu_0_split -> conv1_conv1_relu_0_split_0
I0412 22:48:42.907099 11691 net.cpp:399] conv1_conv1_relu_0_split -> conv1_conv1_relu_0_split_1
I0412 22:48:42.907143 11691 net.cpp:141] Setting up conv1_conv1_relu_0_split
I0412 22:48:42.907152 11691 net.cpp:148] Top shape: 100 16 32 32 (1638400)
I0412 22:48:42.907157 11691 net.cpp:148] Top shape: 100 16 32 32 (1638400)
I0412 22:48:42.907161 11691 net.cpp:156] Memory required for data: 40551600
I0412 22:48:42.907166 11691 layer_factory.hpp:77] Creating layer conv2_1a
I0412 22:48:42.907176 11691 net.cpp:91] Creating Layer conv2_1a
I0412 22:48:42.907181 11691 net.cpp:425] conv2_1a <- conv1_conv1_relu_0_split_0
I0412 22:48:42.907188 11691 net.cpp:399] conv2_1a -> conv2_1a
I0412 22:48:42.910722 11691 net.cpp:141] Setting up conv2_1a
I0412 22:48:42.910739 11691 net.cpp:148] Top shape: 100 16 32 32 (1638400)
I0412 22:48:42.910745 11691 net.cpp:156] Memory required for data: 47105200
I0412 22:48:42.910756 11691 layer_factory.hpp:77] Creating layer bn_conv2_1a
I0412 22:48:42.910766 11691 net.cpp:91] Creating Layer bn_conv2_1a
I0412 22:48:42.910771 11691 net.cpp:425] bn_conv2_1a <- conv2_1a
I0412 22:48:42.910778 11691 net.cpp:386] bn_conv2_1a -> conv2_1a (in-place)
I0412 22:48:42.910965 11691 net.cpp:141] Setting up bn_conv2_1a
I0412 22:48:42.910974 11691 net.cpp:148] Top shape: 100 16 32 32 (1638400)
I0412 22:48:42.910979 11691 net.cpp:156] Memory required for data: 53658800
I0412 22:48:42.910987 11691 layer_factory.hpp:77] Creating layer scale_conv2_1a
I0412 22:48:42.910995 11691 net.cpp:91] Creating Layer scale_conv2_1a
I0412 22:48:42.911002 11691 net.cpp:425] scale_conv2_1a <- conv2_1a
I0412 22:48:42.911010 11691 net.cpp:386] scale_conv2_1a -> conv2_1a (in-place)
I0412 22:48:42.911051 11691 layer_factory.hpp:77] Creating layer scale_conv2_1a
I0412 22:48:42.911159 11691 net.cpp:141] Setting up scale_conv2_1a
I0412 22:48:42.911167 11691 net.cpp:148] Top shape: 100 16 32 32 (1638400)
I0412 22:48:42.911171 11691 net.cpp:156] Memory required for data: 60212400
I0412 22:48:42.911181 11691 layer_factory.hpp:77] Creating layer conv2_1a_relu
I0412 22:48:42.911187 11691 net.cpp:91] Creating Layer conv2_1a_relu
I0412 22:48:42.911192 11691 net.cpp:425] conv2_1a_relu <- conv2_1a
I0412 22:48:42.911198 11691 net.cpp:386] conv2_1a_relu -> conv2_1a (in-place)
I0412 22:48:42.911841 11691 net.cpp:141] Setting up conv2_1a_relu
I0412 22:48:42.911854 11691 net.cpp:148] Top shape: 100 16 32 32 (1638400)
I0412 22:48:42.911859 11691 net.cpp:156] Memory required for data: 66766000
I0412 22:48:42.911862 11691 layer_factory.hpp:77] Creating layer conv2_1b
I0412 22:48:42.911873 11691 net.cpp:91] Creating Layer conv2_1b
I0412 22:48:42.911878 11691 net.cpp:425] conv2_1b <- conv2_1a
I0412 22:48:42.911886 11691 net.cpp:399] conv2_1b -> conv2_1b
I0412 22:48:42.916604 11691 net.cpp:141] Setting up conv2_1b
I0412 22:48:42.916623 11691 net.cpp:148] Top shape: 100 16 32 32 (1638400)
I0412 22:48:42.916628 11691 net.cpp:156] Memory required for data: 73319600
I0412 22:48:42.916636 11691 layer_factory.hpp:77] Creating layer bn_conv2_1b
I0412 22:48:42.916651 11691 net.cpp:91] Creating Layer bn_conv2_1b
I0412 22:48:42.916656 11691 net.cpp:425] bn_conv2_1b <- conv2_1b
I0412 22:48:42.916663 11691 net.cpp:386] bn_conv2_1b -> conv2_1b (in-place)
I0412 22:48:42.916853 11691 net.cpp:141] Setting up bn_conv2_1b
I0412 22:48:42.916862 11691 net.cpp:148] Top shape: 100 16 32 32 (1638400)
I0412 22:48:42.916867 11691 net.cpp:156] Memory required for data: 79873200
I0412 22:48:42.916878 11691 layer_factory.hpp:77] Creating layer scale_conv2_1b
I0412 22:48:42.916887 11691 net.cpp:91] Creating Layer scale_conv2_1b
I0412 22:48:42.916890 11691 net.cpp:425] scale_conv2_1b <- conv2_1b
I0412 22:48:42.916896 11691 net.cpp:386] scale_conv2_1b -> conv2_1b (in-place)
I0412 22:48:42.916937 11691 layer_factory.hpp:77] Creating layer scale_conv2_1b
I0412 22:48:42.917048 11691 net.cpp:141] Setting up scale_conv2_1b
I0412 22:48:42.917057 11691 net.cpp:148] Top shape: 100 16 32 32 (1638400)
I0412 22:48:42.917060 11691 net.cpp:156] Memory required for data: 86426800
I0412 22:48:42.917068 11691 layer_factory.hpp:77] Creating layer conv2_1
I0412 22:48:42.917074 11691 net.cpp:91] Creating Layer conv2_1
I0412 22:48:42.917078 11691 net.cpp:425] conv2_1 <- conv2_1b
I0412 22:48:42.917084 11691 net.cpp:425] conv2_1 <- conv1_conv1_relu_0_split_1
I0412 22:48:42.917090 11691 net.cpp:399] conv2_1 -> conv2_1
I0412 22:48:42.917134 11691 net.cpp:141] Setting up conv2_1
I0412 22:48:42.917141 11691 net.cpp:148] Top shape: 100 16 32 32 (1638400)
I0412 22:48:42.917146 11691 net.cpp:156] Memory required for data: 92980400
I0412 22:48:42.917150 11691 layer_factory.hpp:77] Creating layer conv2_1_relu
I0412 22:48:42.917156 11691 net.cpp:91] Creating Layer conv2_1_relu
I0412 22:48:42.917161 11691 net.cpp:425] conv2_1_relu <- conv2_1
I0412 22:48:42.917167 11691 net.cpp:386] conv2_1_relu -> conv2_1 (in-place)
I0412 22:48:42.918735 11691 net.cpp:141] Setting up conv2_1_relu
I0412 22:48:42.918745 11691 net.cpp:148] Top shape: 100 16 32 32 (1638400)
I0412 22:48:42.918751 11691 net.cpp:156] Memory required for data: 99534000
I0412 22:48:42.918754 11691 layer_factory.hpp:77] Creating layer conv2_1_conv2_1_relu_0_split
I0412 22:48:42.918763 11691 net.cpp:91] Creating Layer conv2_1_conv2_1_relu_0_split
I0412 22:48:42.918767 11691 net.cpp:425] conv2_1_conv2_1_relu_0_split <- conv2_1
I0412 22:48:42.918774 11691 net.cpp:399] conv2_1_conv2_1_relu_0_split -> conv2_1_conv2_1_relu_0_split_0
I0412 22:48:42.918782 11691 net.cpp:399] conv2_1_conv2_1_relu_0_split -> conv2_1_conv2_1_relu_0_split_1
I0412 22:48:42.918823 11691 net.cpp:141] Setting up conv2_1_conv2_1_relu_0_split
I0412 22:48:42.918830 11691 net.cpp:148] Top shape: 100 16 32 32 (1638400)
I0412 22:48:42.918835 11691 net.cpp:148] Top shape: 100 16 32 32 (1638400)
I0412 22:48:42.918839 11691 net.cpp:156] Memory required for data: 112641200
I0412 22:48:42.918843 11691 layer_factory.hpp:77] Creating layer conv2_2a
I0412 22:48:42.918854 11691 net.cpp:91] Creating Layer conv2_2a
I0412 22:48:42.918859 11691 net.cpp:425] conv2_2a <- conv2_1_conv2_1_relu_0_split_0
I0412 22:48:42.918866 11691 net.cpp:399] conv2_2a -> conv2_2a
I0412 22:48:42.925637 11691 net.cpp:141] Setting up conv2_2a
I0412 22:48:42.925652 11691 net.cpp:148] Top shape: 100 16 32 32 (1638400)
I0412 22:48:42.925657 11691 net.cpp:156] Memory required for data: 119194800
I0412 22:48:42.925664 11691 layer_factory.hpp:77] Creating layer bn_conv2_2a
I0412 22:48:42.925673 11691 net.cpp:91] Creating Layer bn_conv2_2a
I0412 22:48:42.925678 11691 net.cpp:425] bn_conv2_2a <- conv2_2a
I0412 22:48:42.925684 11691 net.cpp:386] bn_conv2_2a -> conv2_2a (in-place)
I0412 22:48:42.925869 11691 net.cpp:141] Setting up bn_conv2_2a
I0412 22:48:42.925879 11691 net.cpp:148] Top shape: 100 16 32 32 (1638400)
I0412 22:48:42.925882 11691 net.cpp:156] Memory required for data: 125748400
I0412 22:48:42.925889 11691 layer_factory.hpp:77] Creating layer scale_conv2_2a
I0412 22:48:42.925897 11691 net.cpp:91] Creating Layer scale_conv2_2a
I0412 22:48:42.925901 11691 net.cpp:425] scale_conv2_2a <- conv2_2a
I0412 22:48:42.925912 11691 net.cpp:386] scale_conv2_2a -> conv2_2a (in-place)
I0412 22:48:42.925954 11691 layer_factory.hpp:77] Creating layer scale_conv2_2a
I0412 22:48:42.926064 11691 net.cpp:141] Setting up scale_conv2_2a
I0412 22:48:42.926074 11691 net.cpp:148] Top shape: 100 16 32 32 (1638400)
I0412 22:48:42.926077 11691 net.cpp:156] Memory required for data: 132302000
I0412 22:48:42.926084 11691 layer_factory.hpp:77] Creating layer conv2_2a_relu
I0412 22:48:42.926090 11691 net.cpp:91] Creating Layer conv2_2a_relu
I0412 22:48:42.926095 11691 net.cpp:425] conv2_2a_relu <- conv2_2a
I0412 22:48:42.926101 11691 net.cpp:386] conv2_2a_relu -> conv2_2a (in-place)
I0412 22:48:42.927774 11691 net.cpp:141] Setting up conv2_2a_relu
I0412 22:48:42.927788 11691 net.cpp:148] Top shape: 100 16 32 32 (1638400)
I0412 22:48:42.927793 11691 net.cpp:156] Memory required for data: 138855600
I0412 22:48:42.927796 11691 layer_factory.hpp:77] Creating layer conv2_2b
I0412 22:48:42.927809 11691 net.cpp:91] Creating Layer conv2_2b
I0412 22:48:42.927814 11691 net.cpp:425] conv2_2b <- conv2_2a
I0412 22:48:42.927821 11691 net.cpp:399] conv2_2b -> conv2_2b
I0412 22:48:42.934556 11691 net.cpp:141] Setting up conv2_2b
I0412 22:48:42.934571 11691 net.cpp:148] Top shape: 100 16 32 32 (1638400)
I0412 22:48:42.934576 11691 net.cpp:156] Memory required for data: 145409200
I0412 22:48:42.934584 11691 layer_factory.hpp:77] Creating layer bn_conv2_2b
I0412 22:48:42.934592 11691 net.cpp:91] Creating Layer bn_conv2_2b
I0412 22:48:42.934597 11691 net.cpp:425] bn_conv2_2b <- conv2_2b
I0412 22:48:42.934604 11691 net.cpp:386] bn_conv2_2b -> conv2_2b (in-place)
I0412 22:48:42.934790 11691 net.cpp:141] Setting up bn_conv2_2b
I0412 22:48:42.934798 11691 net.cpp:148] Top shape: 100 16 32 32 (1638400)
I0412 22:48:42.934803 11691 net.cpp:156] Memory required for data: 151962800
I0412 22:48:42.934815 11691 layer_factory.hpp:77] Creating layer scale_conv2_2b
I0412 22:48:42.934823 11691 net.cpp:91] Creating Layer scale_conv2_2b
I0412 22:48:42.934828 11691 net.cpp:425] scale_conv2_2b <- conv2_2b
I0412 22:48:42.934834 11691 net.cpp:386] scale_conv2_2b -> conv2_2b (in-place)
I0412 22:48:42.934873 11691 layer_factory.hpp:77] Creating layer scale_conv2_2b
I0412 22:48:42.934983 11691 net.cpp:141] Setting up scale_conv2_2b
I0412 22:48:42.934990 11691 net.cpp:148] Top shape: 100 16 32 32 (1638400)
I0412 22:48:42.934994 11691 net.cpp:156] Memory required for data: 158516400
I0412 22:48:42.935001 11691 layer_factory.hpp:77] Creating layer conv2_2
I0412 22:48:42.935009 11691 net.cpp:91] Creating Layer conv2_2
I0412 22:48:42.935012 11691 net.cpp:425] conv2_2 <- conv2_2b
I0412 22:48:42.935019 11691 net.cpp:425] conv2_2 <- conv2_1_conv2_1_relu_0_split_1
I0412 22:48:42.935024 11691 net.cpp:399] conv2_2 -> conv2_2
I0412 22:48:42.935050 11691 net.cpp:141] Setting up conv2_2
I0412 22:48:42.935057 11691 net.cpp:148] Top shape: 100 16 32 32 (1638400)
I0412 22:48:42.935061 11691 net.cpp:156] Memory required for data: 165070000
I0412 22:48:42.935065 11691 layer_factory.hpp:77] Creating layer conv2_2_relu
I0412 22:48:42.935071 11691 net.cpp:91] Creating Layer conv2_2_relu
I0412 22:48:42.935075 11691 net.cpp:425] conv2_2_relu <- conv2_2
I0412 22:48:42.935081 11691 net.cpp:386] conv2_2_relu -> conv2_2 (in-place)
I0412 22:48:42.936707 11691 net.cpp:141] Setting up conv2_2_relu
I0412 22:48:42.936717 11691 net.cpp:148] Top shape: 100 16 32 32 (1638400)
I0412 22:48:42.936722 11691 net.cpp:156] Memory required for data: 171623600
I0412 22:48:42.936727 11691 layer_factory.hpp:77] Creating layer conv2_2_conv2_2_relu_0_split
I0412 22:48:42.936733 11691 net.cpp:91] Creating Layer conv2_2_conv2_2_relu_0_split
I0412 22:48:42.936738 11691 net.cpp:425] conv2_2_conv2_2_relu_0_split <- conv2_2
I0412 22:48:42.936744 11691 net.cpp:399] conv2_2_conv2_2_relu_0_split -> conv2_2_conv2_2_relu_0_split_0
I0412 22:48:42.936751 11691 net.cpp:399] conv2_2_conv2_2_relu_0_split -> conv2_2_conv2_2_relu_0_split_1
I0412 22:48:42.936794 11691 net.cpp:141] Setting up conv2_2_conv2_2_relu_0_split
I0412 22:48:42.936801 11691 net.cpp:148] Top shape: 100 16 32 32 (1638400)
I0412 22:48:42.936812 11691 net.cpp:148] Top shape: 100 16 32 32 (1638400)
I0412 22:48:42.936816 11691 net.cpp:156] Memory required for data: 184730800
I0412 22:48:42.936820 11691 layer_factory.hpp:77] Creating layer conv2_3a
I0412 22:48:42.936831 11691 net.cpp:91] Creating Layer conv2_3a
I0412 22:48:42.936836 11691 net.cpp:425] conv2_3a <- conv2_2_conv2_2_relu_0_split_0
I0412 22:48:42.936844 11691 net.cpp:399] conv2_3a -> conv2_3a
I0412 22:48:42.941306 11691 net.cpp:141] Setting up conv2_3a
I0412 22:48:42.941321 11691 net.cpp:148] Top shape: 100 16 32 32 (1638400)
I0412 22:48:42.941328 11691 net.cpp:156] Memory required for data: 191284400
I0412 22:48:42.941334 11691 layer_factory.hpp:77] Creating layer bn_conv2_3a
I0412 22:48:42.941344 11691 net.cpp:91] Creating Layer bn_conv2_3a
I0412 22:48:42.941349 11691 net.cpp:425] bn_conv2_3a <- conv2_3a
I0412 22:48:42.941355 11691 net.cpp:386] bn_conv2_3a -> conv2_3a (in-place)
I0412 22:48:42.941561 11691 net.cpp:141] Setting up bn_conv2_3a
I0412 22:48:42.941570 11691 net.cpp:148] Top shape: 100 16 32 32 (1638400)
I0412 22:48:42.941575 11691 net.cpp:156] Memory required for data: 197838000
I0412 22:48:42.941582 11691 layer_factory.hpp:77] Creating layer scale_conv2_3a
I0412 22:48:42.941589 11691 net.cpp:91] Creating Layer scale_conv2_3a
I0412 22:48:42.941593 11691 net.cpp:425] scale_conv2_3a <- conv2_3a
I0412 22:48:42.941601 11691 net.cpp:386] scale_conv2_3a -> conv2_3a (in-place)
I0412 22:48:42.941640 11691 layer_factory.hpp:77] Creating layer scale_conv2_3a
I0412 22:48:42.941751 11691 net.cpp:141] Setting up scale_conv2_3a
I0412 22:48:42.941758 11691 net.cpp:148] Top shape: 100 16 32 32 (1638400)
I0412 22:48:42.941762 11691 net.cpp:156] Memory required for data: 204391600
I0412 22:48:42.941769 11691 layer_factory.hpp:77] Creating layer conv2_3a_relu
I0412 22:48:42.941776 11691 net.cpp:91] Creating Layer conv2_3a_relu
I0412 22:48:42.941781 11691 net.cpp:425] conv2_3a_relu <- conv2_3a
I0412 22:48:42.941787 11691 net.cpp:386] conv2_3a_relu -> conv2_3a (in-place)
I0412 22:48:42.942447 11691 net.cpp:141] Setting up conv2_3a_relu
I0412 22:48:42.942457 11691 net.cpp:148] Top shape: 100 16 32 32 (1638400)
I0412 22:48:42.942461 11691 net.cpp:156] Memory required for data: 210945200
I0412 22:48:42.942466 11691 layer_factory.hpp:77] Creating layer conv2_3b
I0412 22:48:42.942476 11691 net.cpp:91] Creating Layer conv2_3b
I0412 22:48:42.942481 11691 net.cpp:425] conv2_3b <- conv2_3a
I0412 22:48:42.942489 11691 net.cpp:399] conv2_3b -> conv2_3b
I0412 22:48:42.945394 11691 net.cpp:141] Setting up conv2_3b
I0412 22:48:42.945410 11691 net.cpp:148] Top shape: 100 16 32 32 (1638400)
I0412 22:48:42.945415 11691 net.cpp:156] Memory required for data: 217498800
I0412 22:48:42.945421 11691 layer_factory.hpp:77] Creating layer bn_conv2_3b
I0412 22:48:42.945432 11691 net.cpp:91] Creating Layer bn_conv2_3b
I0412 22:48:42.945437 11691 net.cpp:425] bn_conv2_3b <- conv2_3b
I0412 22:48:42.945446 11691 net.cpp:386] bn_conv2_3b -> conv2_3b (in-place)
I0412 22:48:42.945643 11691 net.cpp:141] Setting up bn_conv2_3b
I0412 22:48:42.945652 11691 net.cpp:148] Top shape: 100 16 32 32 (1638400)
I0412 22:48:42.945657 11691 net.cpp:156] Memory required for data: 224052400
I0412 22:48:42.945664 11691 layer_factory.hpp:77] Creating layer scale_conv2_3b
I0412 22:48:42.945670 11691 net.cpp:91] Creating Layer scale_conv2_3b
I0412 22:48:42.945675 11691 net.cpp:425] scale_conv2_3b <- conv2_3b
I0412 22:48:42.945682 11691 net.cpp:386] scale_conv2_3b -> conv2_3b (in-place)
I0412 22:48:42.945721 11691 layer_factory.hpp:77] Creating layer scale_conv2_3b
I0412 22:48:42.945832 11691 net.cpp:141] Setting up scale_conv2_3b
I0412 22:48:42.945839 11691 net.cpp:148] Top shape: 100 16 32 32 (1638400)
I0412 22:48:42.945843 11691 net.cpp:156] Memory required for data: 230606000
I0412 22:48:42.945850 11691 layer_factory.hpp:77] Creating layer conv2_3
I0412 22:48:42.945858 11691 net.cpp:91] Creating Layer conv2_3
I0412 22:48:42.945861 11691 net.cpp:425] conv2_3 <- conv2_3b
I0412 22:48:42.945868 11691 net.cpp:425] conv2_3 <- conv2_2_conv2_2_relu_0_split_1
I0412 22:48:42.945878 11691 net.cpp:399] conv2_3 -> conv2_3
I0412 22:48:42.945905 11691 net.cpp:141] Setting up conv2_3
I0412 22:48:42.945914 11691 net.cpp:148] Top shape: 100 16 32 32 (1638400)
I0412 22:48:42.945917 11691 net.cpp:156] Memory required for data: 237159600
I0412 22:48:42.945921 11691 layer_factory.hpp:77] Creating layer conv2_3_relu
I0412 22:48:42.945929 11691 net.cpp:91] Creating Layer conv2_3_relu
I0412 22:48:42.945932 11691 net.cpp:425] conv2_3_relu <- conv2_3
I0412 22:48:42.945938 11691 net.cpp:386] conv2_3_relu -> conv2_3 (in-place)
I0412 22:48:42.946565 11691 net.cpp:141] Setting up conv2_3_relu
I0412 22:48:42.946578 11691 net.cpp:148] Top shape: 100 16 32 32 (1638400)
I0412 22:48:42.946583 11691 net.cpp:156] Memory required for data: 243713200
I0412 22:48:42.946588 11691 layer_factory.hpp:77] Creating layer conv2_3_conv2_3_relu_0_split
I0412 22:48:42.946594 11691 net.cpp:91] Creating Layer conv2_3_conv2_3_relu_0_split
I0412 22:48:42.946599 11691 net.cpp:425] conv2_3_conv2_3_relu_0_split <- conv2_3
I0412 22:48:42.946606 11691 net.cpp:399] conv2_3_conv2_3_relu_0_split -> conv2_3_conv2_3_relu_0_split_0
I0412 22:48:42.946615 11691 net.cpp:399] conv2_3_conv2_3_relu_0_split -> conv2_3_conv2_3_relu_0_split_1
I0412 22:48:42.946658 11691 net.cpp:141] Setting up conv2_3_conv2_3_relu_0_split
I0412 22:48:42.946666 11691 net.cpp:148] Top shape: 100 16 32 32 (1638400)
I0412 22:48:42.946671 11691 net.cpp:148] Top shape: 100 16 32 32 (1638400)
I0412 22:48:42.946674 11691 net.cpp:156] Memory required for data: 256820400
I0412 22:48:42.946679 11691 layer_factory.hpp:77] Creating layer conv2_sub
I0412 22:48:42.946689 11691 net.cpp:91] Creating Layer conv2_sub
I0412 22:48:42.946694 11691 net.cpp:425] conv2_sub <- conv2_3_conv2_3_relu_0_split_0
I0412 22:48:42.946702 11691 net.cpp:399] conv2_sub -> conv2_sub
I0412 22:48:42.950130 11691 net.cpp:141] Setting up conv2_sub
I0412 22:48:42.950145 11691 net.cpp:148] Top shape: 100 32 16 16 (819200)
I0412 22:48:42.950150 11691 net.cpp:156] Memory required for data: 260097200
I0412 22:48:42.950157 11691 layer_factory.hpp:77] Creating layer bn_conv2_sub
I0412 22:48:42.950166 11691 net.cpp:91] Creating Layer bn_conv2_sub
I0412 22:48:42.950171 11691 net.cpp:425] bn_conv2_sub <- conv2_sub
I0412 22:48:42.950178 11691 net.cpp:386] bn_conv2_sub -> conv2_sub (in-place)
I0412 22:48:42.950364 11691 net.cpp:141] Setting up bn_conv2_sub
I0412 22:48:42.950372 11691 net.cpp:148] Top shape: 100 32 16 16 (819200)
I0412 22:48:42.950376 11691 net.cpp:156] Memory required for data: 263374000
I0412 22:48:42.950384 11691 layer_factory.hpp:77] Creating layer scale_conv2_sub
I0412 22:48:42.950392 11691 net.cpp:91] Creating Layer scale_conv2_sub
I0412 22:48:42.950395 11691 net.cpp:425] scale_conv2_sub <- conv2_sub
I0412 22:48:42.950402 11691 net.cpp:386] scale_conv2_sub -> conv2_sub (in-place)
I0412 22:48:42.950443 11691 layer_factory.hpp:77] Creating layer scale_conv2_sub
I0412 22:48:42.950553 11691 net.cpp:141] Setting up scale_conv2_sub
I0412 22:48:42.950562 11691 net.cpp:148] Top shape: 100 32 16 16 (819200)
I0412 22:48:42.950565 11691 net.cpp:156] Memory required for data: 266650800
I0412 22:48:42.950572 11691 layer_factory.hpp:77] Creating layer conv3_1a
I0412 22:48:42.950583 11691 net.cpp:91] Creating Layer conv3_1a
I0412 22:48:42.950587 11691 net.cpp:425] conv3_1a <- conv2_3_conv2_3_relu_0_split_1
I0412 22:48:42.950594 11691 net.cpp:399] conv3_1a -> conv3_1a
I0412 22:48:42.956895 11691 net.cpp:141] Setting up conv3_1a
I0412 22:48:42.956910 11691 net.cpp:148] Top shape: 100 32 16 16 (819200)
I0412 22:48:42.956915 11691 net.cpp:156] Memory required for data: 269927600
I0412 22:48:42.956923 11691 layer_factory.hpp:77] Creating layer bn_conv3_1a
I0412 22:48:42.956931 11691 net.cpp:91] Creating Layer bn_conv3_1a
I0412 22:48:42.956935 11691 net.cpp:425] bn_conv3_1a <- conv3_1a
I0412 22:48:42.956943 11691 net.cpp:386] bn_conv3_1a -> conv3_1a (in-place)
I0412 22:48:42.957147 11691 net.cpp:141] Setting up bn_conv3_1a
I0412 22:48:42.957157 11691 net.cpp:148] Top shape: 100 32 16 16 (819200)
I0412 22:48:42.957166 11691 net.cpp:156] Memory required for data: 273204400
I0412 22:48:42.957175 11691 layer_factory.hpp:77] Creating layer scale_conv3_1a
I0412 22:48:42.957183 11691 net.cpp:91] Creating Layer scale_conv3_1a
I0412 22:48:42.957187 11691 net.cpp:425] scale_conv3_1a <- conv3_1a
I0412 22:48:42.957195 11691 net.cpp:386] scale_conv3_1a -> conv3_1a (in-place)
I0412 22:48:42.957237 11691 layer_factory.hpp:77] Creating layer scale_conv3_1a
I0412 22:48:42.957351 11691 net.cpp:141] Setting up scale_conv3_1a
I0412 22:48:42.957360 11691 net.cpp:148] Top shape: 100 32 16 16 (819200)
I0412 22:48:42.957365 11691 net.cpp:156] Memory required for data: 276481200
I0412 22:48:42.957371 11691 layer_factory.hpp:77] Creating layer conv3_1a_relu
I0412 22:48:42.957377 11691 net.cpp:91] Creating Layer conv3_1a_relu
I0412 22:48:42.957381 11691 net.cpp:425] conv3_1a_relu <- conv3_1a
I0412 22:48:42.957387 11691 net.cpp:386] conv3_1a_relu -> conv3_1a (in-place)
I0412 22:48:42.959035 11691 net.cpp:141] Setting up conv3_1a_relu
I0412 22:48:42.959048 11691 net.cpp:148] Top shape: 100 32 16 16 (819200)
I0412 22:48:42.959053 11691 net.cpp:156] Memory required for data: 279758000
I0412 22:48:42.959059 11691 layer_factory.hpp:77] Creating layer conv3_1b
I0412 22:48:42.959069 11691 net.cpp:91] Creating Layer conv3_1b
I0412 22:48:42.959074 11691 net.cpp:425] conv3_1b <- conv3_1a
I0412 22:48:42.959082 11691 net.cpp:399] conv3_1b -> conv3_1b
I0412 22:48:42.966119 11691 net.cpp:141] Setting up conv3_1b
I0412 22:48:42.966133 11691 net.cpp:148] Top shape: 100 32 16 16 (819200)
I0412 22:48:42.966138 11691 net.cpp:156] Memory required for data: 283034800
I0412 22:48:42.966155 11691 layer_factory.hpp:77] Creating layer bn_conv3_1b
I0412 22:48:42.966162 11691 net.cpp:91] Creating Layer bn_conv3_1b
I0412 22:48:42.966167 11691 net.cpp:425] bn_conv3_1b <- conv3_1b
I0412 22:48:42.966173 11691 net.cpp:386] bn_conv3_1b -> conv3_1b (in-place)
I0412 22:48:42.966361 11691 net.cpp:141] Setting up bn_conv3_1b
I0412 22:48:42.966368 11691 net.cpp:148] Top shape: 100 32 16 16 (819200)
I0412 22:48:42.966372 11691 net.cpp:156] Memory required for data: 286311600
I0412 22:48:42.966380 11691 layer_factory.hpp:77] Creating layer scale_conv3_1b
I0412 22:48:42.966387 11691 net.cpp:91] Creating Layer scale_conv3_1b
I0412 22:48:42.966392 11691 net.cpp:425] scale_conv3_1b <- conv3_1b
I0412 22:48:42.966398 11691 net.cpp:386] scale_conv3_1b -> conv3_1b (in-place)
I0412 22:48:42.966439 11691 layer_factory.hpp:77] Creating layer scale_conv3_1b
I0412 22:48:42.966552 11691 net.cpp:141] Setting up scale_conv3_1b
I0412 22:48:42.966559 11691 net.cpp:148] Top shape: 100 32 16 16 (819200)
I0412 22:48:42.966563 11691 net.cpp:156] Memory required for data: 289588400
I0412 22:48:42.966570 11691 layer_factory.hpp:77] Creating layer conv3_1
I0412 22:48:42.966577 11691 net.cpp:91] Creating Layer conv3_1
I0412 22:48:42.966580 11691 net.cpp:425] conv3_1 <- conv3_1b
I0412 22:48:42.966586 11691 net.cpp:425] conv3_1 <- conv2_sub
I0412 22:48:42.966593 11691 net.cpp:399] conv3_1 -> conv3_1
I0412 22:48:42.966614 11691 net.cpp:141] Setting up conv3_1
I0412 22:48:42.966621 11691 net.cpp:148] Top shape: 100 32 16 16 (819200)
I0412 22:48:42.966625 11691 net.cpp:156] Memory required for data: 292865200
I0412 22:48:42.966629 11691 layer_factory.hpp:77] Creating layer conv3_1_relu
I0412 22:48:42.966636 11691 net.cpp:91] Creating Layer conv3_1_relu
I0412 22:48:42.966640 11691 net.cpp:425] conv3_1_relu <- conv3_1
I0412 22:48:42.966646 11691 net.cpp:386] conv3_1_relu -> conv3_1 (in-place)
I0412 22:48:42.968232 11691 net.cpp:141] Setting up conv3_1_relu
I0412 22:48:42.968243 11691 net.cpp:148] Top shape: 100 32 16 16 (819200)
I0412 22:48:42.968248 11691 net.cpp:156] Memory required for data: 296142000
I0412 22:48:42.968252 11691 layer_factory.hpp:77] Creating layer conv3_1_conv3_1_relu_0_split
I0412 22:48:42.968258 11691 net.cpp:91] Creating Layer conv3_1_conv3_1_relu_0_split
I0412 22:48:42.968263 11691 net.cpp:425] conv3_1_conv3_1_relu_0_split <- conv3_1
I0412 22:48:42.968271 11691 net.cpp:399] conv3_1_conv3_1_relu_0_split -> conv3_1_conv3_1_relu_0_split_0
I0412 22:48:42.968283 11691 net.cpp:399] conv3_1_conv3_1_relu_0_split -> conv3_1_conv3_1_relu_0_split_1
I0412 22:48:42.968327 11691 net.cpp:141] Setting up conv3_1_conv3_1_relu_0_split
I0412 22:48:42.968333 11691 net.cpp:148] Top shape: 100 32 16 16 (819200)
I0412 22:48:42.968338 11691 net.cpp:148] Top shape: 100 32 16 16 (819200)
I0412 22:48:42.968343 11691 net.cpp:156] Memory required for data: 302695600
I0412 22:48:42.968346 11691 layer_factory.hpp:77] Creating layer conv3_2a
I0412 22:48:42.968358 11691 net.cpp:91] Creating Layer conv3_2a
I0412 22:48:42.968361 11691 net.cpp:425] conv3_2a <- conv3_1_conv3_1_relu_0_split_0
I0412 22:48:42.968369 11691 net.cpp:399] conv3_2a -> conv3_2a
I0412 22:48:42.975142 11691 net.cpp:141] Setting up conv3_2a
I0412 22:48:42.975157 11691 net.cpp:148] Top shape: 100 32 16 16 (819200)
I0412 22:48:42.975163 11691 net.cpp:156] Memory required for data: 305972400
I0412 22:48:42.975172 11691 layer_factory.hpp:77] Creating layer bn_conv3_2a
I0412 22:48:42.975178 11691 net.cpp:91] Creating Layer bn_conv3_2a
I0412 22:48:42.975183 11691 net.cpp:425] bn_conv3_2a <- conv3_2a
I0412 22:48:42.975190 11691 net.cpp:386] bn_conv3_2a -> conv3_2a (in-place)
I0412 22:48:42.975396 11691 net.cpp:141] Setting up bn_conv3_2a
I0412 22:48:42.975405 11691 net.cpp:148] Top shape: 100 32 16 16 (819200)
I0412 22:48:42.975409 11691 net.cpp:156] Memory required for data: 309249200
I0412 22:48:42.975417 11691 layer_factory.hpp:77] Creating layer scale_conv3_2a
I0412 22:48:42.975425 11691 net.cpp:91] Creating Layer scale_conv3_2a
I0412 22:48:42.975428 11691 net.cpp:425] scale_conv3_2a <- conv3_2a
I0412 22:48:42.975435 11691 net.cpp:386] scale_conv3_2a -> conv3_2a (in-place)
I0412 22:48:42.975477 11691 layer_factory.hpp:77] Creating layer scale_conv3_2a
I0412 22:48:42.975594 11691 net.cpp:141] Setting up scale_conv3_2a
I0412 22:48:42.975601 11691 net.cpp:148] Top shape: 100 32 16 16 (819200)
I0412 22:48:42.975605 11691 net.cpp:156] Memory required for data: 312526000
I0412 22:48:42.975612 11691 layer_factory.hpp:77] Creating layer conv3_2a_relu
I0412 22:48:42.975618 11691 net.cpp:91] Creating Layer conv3_2a_relu
I0412 22:48:42.975623 11691 net.cpp:425] conv3_2a_relu <- conv3_2a
I0412 22:48:42.975630 11691 net.cpp:386] conv3_2a_relu -> conv3_2a (in-place)
I0412 22:48:42.977265 11691 net.cpp:141] Setting up conv3_2a_relu
I0412 22:48:42.977279 11691 net.cpp:148] Top shape: 100 32 16 16 (819200)
I0412 22:48:42.977284 11691 net.cpp:156] Memory required for data: 315802800
I0412 22:48:42.977288 11691 layer_factory.hpp:77] Creating layer conv3_2b
I0412 22:48:42.977301 11691 net.cpp:91] Creating Layer conv3_2b
I0412 22:48:42.977308 11691 net.cpp:425] conv3_2b <- conv3_2a
I0412 22:48:42.977316 11691 net.cpp:399] conv3_2b -> conv3_2b
I0412 22:48:42.983157 11691 net.cpp:141] Setting up conv3_2b
I0412 22:48:42.983172 11691 net.cpp:148] Top shape: 100 32 16 16 (819200)
I0412 22:48:42.983177 11691 net.cpp:156] Memory required for data: 319079600
I0412 22:48:42.983185 11691 layer_factory.hpp:77] Creating layer bn_conv3_2b
I0412 22:48:42.983193 11691 net.cpp:91] Creating Layer bn_conv3_2b
I0412 22:48:42.983198 11691 net.cpp:425] bn_conv3_2b <- conv3_2b
I0412 22:48:42.983204 11691 net.cpp:386] bn_conv3_2b -> conv3_2b (in-place)
I0412 22:48:42.983417 11691 net.cpp:141] Setting up bn_conv3_2b
I0412 22:48:42.983424 11691 net.cpp:148] Top shape: 100 32 16 16 (819200)
I0412 22:48:42.983429 11691 net.cpp:156] Memory required for data: 322356400
I0412 22:48:42.983436 11691 layer_factory.hpp:77] Creating layer scale_conv3_2b
I0412 22:48:42.983445 11691 net.cpp:91] Creating Layer scale_conv3_2b
I0412 22:48:42.983449 11691 net.cpp:425] scale_conv3_2b <- conv3_2b
I0412 22:48:42.983455 11691 net.cpp:386] scale_conv3_2b -> conv3_2b (in-place)
I0412 22:48:42.983500 11691 layer_factory.hpp:77] Creating layer scale_conv3_2b
I0412 22:48:42.983619 11691 net.cpp:141] Setting up scale_conv3_2b
I0412 22:48:42.983628 11691 net.cpp:148] Top shape: 100 32 16 16 (819200)
I0412 22:48:42.983636 11691 net.cpp:156] Memory required for data: 325633200
I0412 22:48:42.983644 11691 layer_factory.hpp:77] Creating layer conv3_2
I0412 22:48:42.983651 11691 net.cpp:91] Creating Layer conv3_2
I0412 22:48:42.983655 11691 net.cpp:425] conv3_2 <- conv3_2b
I0412 22:48:42.983660 11691 net.cpp:425] conv3_2 <- conv3_1_conv3_1_relu_0_split_1
I0412 22:48:42.983667 11691 net.cpp:399] conv3_2 -> conv3_2
I0412 22:48:42.983701 11691 net.cpp:141] Setting up conv3_2
I0412 22:48:42.983710 11691 net.cpp:148] Top shape: 100 32 16 16 (819200)
I0412 22:48:42.983713 11691 net.cpp:156] Memory required for data: 328910000
I0412 22:48:42.983717 11691 layer_factory.hpp:77] Creating layer conv3_2_relu
I0412 22:48:42.983722 11691 net.cpp:91] Creating Layer conv3_2_relu
I0412 22:48:42.983727 11691 net.cpp:425] conv3_2_relu <- conv3_2
I0412 22:48:42.983733 11691 net.cpp:386] conv3_2_relu -> conv3_2 (in-place)
I0412 22:48:42.984228 11691 net.cpp:141] Setting up conv3_2_relu
I0412 22:48:42.984242 11691 net.cpp:148] Top shape: 100 32 16 16 (819200)
I0412 22:48:42.984246 11691 net.cpp:156] Memory required for data: 332186800
I0412 22:48:42.984251 11691 layer_factory.hpp:77] Creating layer conv3_2_conv3_2_relu_0_split
I0412 22:48:42.984268 11691 net.cpp:91] Creating Layer conv3_2_conv3_2_relu_0_split
I0412 22:48:42.984273 11691 net.cpp:425] conv3_2_conv3_2_relu_0_split <- conv3_2
I0412 22:48:42.984282 11691 net.cpp:399] conv3_2_conv3_2_relu_0_split -> conv3_2_conv3_2_relu_0_split_0
I0412 22:48:42.984289 11691 net.cpp:399] conv3_2_conv3_2_relu_0_split -> conv3_2_conv3_2_relu_0_split_1
I0412 22:48:42.984336 11691 net.cpp:141] Setting up conv3_2_conv3_2_relu_0_split
I0412 22:48:42.984344 11691 net.cpp:148] Top shape: 100 32 16 16 (819200)
I0412 22:48:42.984350 11691 net.cpp:148] Top shape: 100 32 16 16 (819200)
I0412 22:48:42.984354 11691 net.cpp:156] Memory required for data: 338740400
I0412 22:48:42.984359 11691 layer_factory.hpp:77] Creating layer conv3_3a
I0412 22:48:42.984369 11691 net.cpp:91] Creating Layer conv3_3a
I0412 22:48:42.984374 11691 net.cpp:425] conv3_3a <- conv3_2_conv3_2_relu_0_split_0
I0412 22:48:42.984381 11691 net.cpp:399] conv3_3a -> conv3_3a
I0412 22:48:42.988373 11691 net.cpp:141] Setting up conv3_3a
I0412 22:48:42.988389 11691 net.cpp:148] Top shape: 100 32 16 16 (819200)
I0412 22:48:42.988392 11691 net.cpp:156] Memory required for data: 342017200
I0412 22:48:42.988400 11691 layer_factory.hpp:77] Creating layer bn_conv3_3a
I0412 22:48:42.988409 11691 net.cpp:91] Creating Layer bn_conv3_3a
I0412 22:48:42.988415 11691 net.cpp:425] bn_conv3_3a <- conv3_3a
I0412 22:48:42.988421 11691 net.cpp:386] bn_conv3_3a -> conv3_3a (in-place)
I0412 22:48:42.988622 11691 net.cpp:141] Setting up bn_conv3_3a
I0412 22:48:42.988631 11691 net.cpp:148] Top shape: 100 32 16 16 (819200)
I0412 22:48:42.988634 11691 net.cpp:156] Memory required for data: 345294000
I0412 22:48:42.988642 11691 layer_factory.hpp:77] Creating layer scale_conv3_3a
I0412 22:48:42.988649 11691 net.cpp:91] Creating Layer scale_conv3_3a
I0412 22:48:42.988653 11691 net.cpp:425] scale_conv3_3a <- conv3_3a
I0412 22:48:42.988661 11691 net.cpp:386] scale_conv3_3a -> conv3_3a (in-place)
I0412 22:48:42.988703 11691 layer_factory.hpp:77] Creating layer scale_conv3_3a
I0412 22:48:42.988818 11691 net.cpp:141] Setting up scale_conv3_3a
I0412 22:48:42.988827 11691 net.cpp:148] Top shape: 100 32 16 16 (819200)
I0412 22:48:42.988831 11691 net.cpp:156] Memory required for data: 348570800
I0412 22:48:42.988838 11691 layer_factory.hpp:77] Creating layer conv3_3a_relu
I0412 22:48:42.988844 11691 net.cpp:91] Creating Layer conv3_3a_relu
I0412 22:48:42.988848 11691 net.cpp:425] conv3_3a_relu <- conv3_3a
I0412 22:48:42.988853 11691 net.cpp:386] conv3_3a_relu -> conv3_3a (in-place)
I0412 22:48:42.989449 11691 net.cpp:141] Setting up conv3_3a_relu
I0412 22:48:42.989461 11691 net.cpp:148] Top shape: 100 32 16 16 (819200)
I0412 22:48:42.989465 11691 net.cpp:156] Memory required for data: 351847600
I0412 22:48:42.989470 11691 layer_factory.hpp:77] Creating layer conv3_3b
I0412 22:48:42.989497 11691 net.cpp:91] Creating Layer conv3_3b
I0412 22:48:42.989507 11691 net.cpp:425] conv3_3b <- conv3_3a
I0412 22:48:42.989516 11691 net.cpp:399] conv3_3b -> conv3_3b
I0412 22:48:42.994174 11691 net.cpp:141] Setting up conv3_3b
I0412 22:48:42.994189 11691 net.cpp:148] Top shape: 100 32 16 16 (819200)
I0412 22:48:42.994194 11691 net.cpp:156] Memory required for data: 355124400
I0412 22:48:42.994202 11691 layer_factory.hpp:77] Creating layer bn_conv3_3b
I0412 22:48:42.994211 11691 net.cpp:91] Creating Layer bn_conv3_3b
I0412 22:48:42.994216 11691 net.cpp:425] bn_conv3_3b <- conv3_3b
I0412 22:48:42.994223 11691 net.cpp:386] bn_conv3_3b -> conv3_3b (in-place)
I0412 22:48:42.994434 11691 net.cpp:141] Setting up bn_conv3_3b
I0412 22:48:42.994442 11691 net.cpp:148] Top shape: 100 32 16 16 (819200)
I0412 22:48:42.994446 11691 net.cpp:156] Memory required for data: 358401200
I0412 22:48:42.994454 11691 layer_factory.hpp:77] Creating layer scale_conv3_3b
I0412 22:48:42.994460 11691 net.cpp:91] Creating Layer scale_conv3_3b
I0412 22:48:42.994465 11691 net.cpp:425] scale_conv3_3b <- conv3_3b
I0412 22:48:42.994472 11691 net.cpp:386] scale_conv3_3b -> conv3_3b (in-place)
I0412 22:48:42.994513 11691 layer_factory.hpp:77] Creating layer scale_conv3_3b
I0412 22:48:42.994629 11691 net.cpp:141] Setting up scale_conv3_3b
I0412 22:48:42.994637 11691 net.cpp:148] Top shape: 100 32 16 16 (819200)
I0412 22:48:42.994642 11691 net.cpp:156] Memory required for data: 361678000
I0412 22:48:42.994648 11691 layer_factory.hpp:77] Creating layer conv3_3
I0412 22:48:42.994654 11691 net.cpp:91] Creating Layer conv3_3
I0412 22:48:42.994658 11691 net.cpp:425] conv3_3 <- conv3_3b
I0412 22:48:42.994663 11691 net.cpp:425] conv3_3 <- conv3_2_conv3_2_relu_0_split_1
I0412 22:48:42.994670 11691 net.cpp:399] conv3_3 -> conv3_3
I0412 22:48:42.994693 11691 net.cpp:141] Setting up conv3_3
I0412 22:48:42.994699 11691 net.cpp:148] Top shape: 100 32 16 16 (819200)
I0412 22:48:42.994704 11691 net.cpp:156] Memory required for data: 364954800
I0412 22:48:42.994707 11691 layer_factory.hpp:77] Creating layer conv3_3_relu
I0412 22:48:42.994714 11691 net.cpp:91] Creating Layer conv3_3_relu
I0412 22:48:42.994719 11691 net.cpp:425] conv3_3_relu <- conv3_3
I0412 22:48:42.994724 11691 net.cpp:386] conv3_3_relu -> conv3_3 (in-place)
I0412 22:48:42.996307 11691 net.cpp:141] Setting up conv3_3_relu
I0412 22:48:42.996320 11691 net.cpp:148] Top shape: 100 32 16 16 (819200)
I0412 22:48:42.996325 11691 net.cpp:156] Memory required for data: 368231600
I0412 22:48:42.996330 11691 layer_factory.hpp:77] Creating layer conv3_3_conv3_3_relu_0_split
I0412 22:48:42.996337 11691 net.cpp:91] Creating Layer conv3_3_conv3_3_relu_0_split
I0412 22:48:42.996341 11691 net.cpp:425] conv3_3_conv3_3_relu_0_split <- conv3_3
I0412 22:48:42.996347 11691 net.cpp:399] conv3_3_conv3_3_relu_0_split -> conv3_3_conv3_3_relu_0_split_0
I0412 22:48:42.996356 11691 net.cpp:399] conv3_3_conv3_3_relu_0_split -> conv3_3_conv3_3_relu_0_split_1
I0412 22:48:42.996402 11691 net.cpp:141] Setting up conv3_3_conv3_3_relu_0_split
I0412 22:48:42.996409 11691 net.cpp:148] Top shape: 100 32 16 16 (819200)
I0412 22:48:42.996413 11691 net.cpp:148] Top shape: 100 32 16 16 (819200)
I0412 22:48:42.996417 11691 net.cpp:156] Memory required for data: 374785200
I0412 22:48:42.996422 11691 layer_factory.hpp:77] Creating layer conv3_sub
I0412 22:48:42.996433 11691 net.cpp:91] Creating Layer conv3_sub
I0412 22:48:42.996438 11691 net.cpp:425] conv3_sub <- conv3_3_conv3_3_relu_0_split_0
I0412 22:48:42.996446 11691 net.cpp:399] conv3_sub -> conv3_sub
I0412 22:48:43.003103 11691 net.cpp:141] Setting up conv3_sub
I0412 22:48:43.003118 11691 net.cpp:148] Top shape: 100 64 8 8 (409600)
I0412 22:48:43.003121 11691 net.cpp:156] Memory required for data: 376423600
I0412 22:48:43.003129 11691 layer_factory.hpp:77] Creating layer bn_conv3_sub
I0412 22:48:43.003137 11691 net.cpp:91] Creating Layer bn_conv3_sub
I0412 22:48:43.003142 11691 net.cpp:425] bn_conv3_sub <- conv3_sub
I0412 22:48:43.003150 11691 net.cpp:386] bn_conv3_sub -> conv3_sub (in-place)
I0412 22:48:43.003357 11691 net.cpp:141] Setting up bn_conv3_sub
I0412 22:48:43.003366 11691 net.cpp:148] Top shape: 100 64 8 8 (409600)
I0412 22:48:43.003371 11691 net.cpp:156] Memory required for data: 378062000
I0412 22:48:43.003378 11691 layer_factory.hpp:77] Creating layer scale_conv3_sub
I0412 22:48:43.003386 11691 net.cpp:91] Creating Layer scale_conv3_sub
I0412 22:48:43.003391 11691 net.cpp:425] scale_conv3_sub <- conv3_sub
I0412 22:48:43.003396 11691 net.cpp:386] scale_conv3_sub -> conv3_sub (in-place)
I0412 22:48:43.003440 11691 layer_factory.hpp:77] Creating layer scale_conv3_sub
I0412 22:48:43.003562 11691 net.cpp:141] Setting up scale_conv3_sub
I0412 22:48:43.003571 11691 net.cpp:148] Top shape: 100 64 8 8 (409600)
I0412 22:48:43.003574 11691 net.cpp:156] Memory required for data: 379700400
I0412 22:48:43.003582 11691 layer_factory.hpp:77] Creating layer conv4_1a
I0412 22:48:43.003592 11691 net.cpp:91] Creating Layer conv4_1a
I0412 22:48:43.003597 11691 net.cpp:425] conv4_1a <- conv3_3_conv3_3_relu_0_split_1
I0412 22:48:43.003605 11691 net.cpp:399] conv4_1a -> conv4_1a
I0412 22:48:43.010051 11691 net.cpp:141] Setting up conv4_1a
I0412 22:48:43.010067 11691 net.cpp:148] Top shape: 100 64 8 8 (409600)
I0412 22:48:43.010072 11691 net.cpp:156] Memory required for data: 381338800
I0412 22:48:43.010079 11691 layer_factory.hpp:77] Creating layer bn_conv4_1a
I0412 22:48:43.010089 11691 net.cpp:91] Creating Layer bn_conv4_1a
I0412 22:48:43.010104 11691 net.cpp:425] bn_conv4_1a <- conv4_1a
I0412 22:48:43.010113 11691 net.cpp:386] bn_conv4_1a -> conv4_1a (in-place)
I0412 22:48:43.010316 11691 net.cpp:141] Setting up bn_conv4_1a
I0412 22:48:43.010325 11691 net.cpp:148] Top shape: 100 64 8 8 (409600)
I0412 22:48:43.010329 11691 net.cpp:156] Memory required for data: 382977200
I0412 22:48:43.010337 11691 layer_factory.hpp:77] Creating layer scale_conv4_1a
I0412 22:48:43.010345 11691 net.cpp:91] Creating Layer scale_conv4_1a
I0412 22:48:43.010350 11691 net.cpp:425] scale_conv4_1a <- conv4_1a
I0412 22:48:43.010356 11691 net.cpp:386] scale_conv4_1a -> conv4_1a (in-place)
I0412 22:48:43.010401 11691 layer_factory.hpp:77] Creating layer scale_conv4_1a
I0412 22:48:43.010520 11691 net.cpp:141] Setting up scale_conv4_1a
I0412 22:48:43.010529 11691 net.cpp:148] Top shape: 100 64 8 8 (409600)
I0412 22:48:43.010532 11691 net.cpp:156] Memory required for data: 384615600
I0412 22:48:43.010540 11691 layer_factory.hpp:77] Creating layer conv4_1a_relu
I0412 22:48:43.010545 11691 net.cpp:91] Creating Layer conv4_1a_relu
I0412 22:48:43.010550 11691 net.cpp:425] conv4_1a_relu <- conv4_1a
I0412 22:48:43.010555 11691 net.cpp:386] conv4_1a_relu -> conv4_1a (in-place)
I0412 22:48:43.012166 11691 net.cpp:141] Setting up conv4_1a_relu
I0412 22:48:43.012178 11691 net.cpp:148] Top shape: 100 64 8 8 (409600)
I0412 22:48:43.012183 11691 net.cpp:156] Memory required for data: 386254000
I0412 22:48:43.012187 11691 layer_factory.hpp:77] Creating layer conv4_1b
I0412 22:48:43.012199 11691 net.cpp:91] Creating Layer conv4_1b
I0412 22:48:43.012204 11691 net.cpp:425] conv4_1b <- conv4_1a
I0412 22:48:43.012213 11691 net.cpp:399] conv4_1b -> conv4_1b
I0412 22:48:43.019445 11691 net.cpp:141] Setting up conv4_1b
I0412 22:48:43.019461 11691 net.cpp:148] Top shape: 100 64 8 8 (409600)
I0412 22:48:43.019466 11691 net.cpp:156] Memory required for data: 387892400
I0412 22:48:43.019474 11691 layer_factory.hpp:77] Creating layer bn_conv4_1b
I0412 22:48:43.019482 11691 net.cpp:91] Creating Layer bn_conv4_1b
I0412 22:48:43.019489 11691 net.cpp:425] bn_conv4_1b <- conv4_1b
I0412 22:48:43.019495 11691 net.cpp:386] bn_conv4_1b -> conv4_1b (in-place)
I0412 22:48:43.019706 11691 net.cpp:141] Setting up bn_conv4_1b
I0412 22:48:43.019713 11691 net.cpp:148] Top shape: 100 64 8 8 (409600)
I0412 22:48:43.019717 11691 net.cpp:156] Memory required for data: 389530800
I0412 22:48:43.019726 11691 layer_factory.hpp:77] Creating layer scale_conv4_1b
I0412 22:48:43.019732 11691 net.cpp:91] Creating Layer scale_conv4_1b
I0412 22:48:43.019737 11691 net.cpp:425] scale_conv4_1b <- conv4_1b
I0412 22:48:43.019747 11691 net.cpp:386] scale_conv4_1b -> conv4_1b (in-place)
I0412 22:48:43.019795 11691 layer_factory.hpp:77] Creating layer scale_conv4_1b
I0412 22:48:43.019920 11691 net.cpp:141] Setting up scale_conv4_1b
I0412 22:48:43.019930 11691 net.cpp:148] Top shape: 100 64 8 8 (409600)
I0412 22:48:43.019934 11691 net.cpp:156] Memory required for data: 391169200
I0412 22:48:43.019942 11691 layer_factory.hpp:77] Creating layer conv4_1
I0412 22:48:43.019948 11691 net.cpp:91] Creating Layer conv4_1
I0412 22:48:43.019953 11691 net.cpp:425] conv4_1 <- conv3_sub
I0412 22:48:43.019958 11691 net.cpp:425] conv4_1 <- conv4_1b
I0412 22:48:43.019963 11691 net.cpp:399] conv4_1 -> conv4_1
I0412 22:48:43.019991 11691 net.cpp:141] Setting up conv4_1
I0412 22:48:43.019999 11691 net.cpp:148] Top shape: 100 64 8 8 (409600)
I0412 22:48:43.020004 11691 net.cpp:156] Memory required for data: 392807600
I0412 22:48:43.020007 11691 layer_factory.hpp:77] Creating layer conv4_1_relu
I0412 22:48:43.020015 11691 net.cpp:91] Creating Layer conv4_1_relu
I0412 22:48:43.020020 11691 net.cpp:425] conv4_1_relu <- conv4_1
I0412 22:48:43.020025 11691 net.cpp:386] conv4_1_relu -> conv4_1 (in-place)
I0412 22:48:43.021697 11691 net.cpp:141] Setting up conv4_1_relu
I0412 22:48:43.021713 11691 net.cpp:148] Top shape: 100 64 8 8 (409600)
I0412 22:48:43.021721 11691 net.cpp:156] Memory required for data: 394446000
I0412 22:48:43.021729 11691 layer_factory.hpp:77] Creating layer conv4_1_conv4_1_relu_0_split
I0412 22:48:43.021742 11691 net.cpp:91] Creating Layer conv4_1_conv4_1_relu_0_split
I0412 22:48:43.021751 11691 net.cpp:425] conv4_1_conv4_1_relu_0_split <- conv4_1
I0412 22:48:43.021762 11691 net.cpp:399] conv4_1_conv4_1_relu_0_split -> conv4_1_conv4_1_relu_0_split_0
I0412 22:48:43.021773 11691 net.cpp:399] conv4_1_conv4_1_relu_0_split -> conv4_1_conv4_1_relu_0_split_1
I0412 22:48:43.021838 11691 net.cpp:141] Setting up conv4_1_conv4_1_relu_0_split
I0412 22:48:43.021849 11691 net.cpp:148] Top shape: 100 64 8 8 (409600)
I0412 22:48:43.021855 11691 net.cpp:148] Top shape: 100 64 8 8 (409600)
I0412 22:48:43.021859 11691 net.cpp:156] Memory required for data: 397722800
I0412 22:48:43.021864 11691 layer_factory.hpp:77] Creating layer conv4_2a
I0412 22:48:43.021877 11691 net.cpp:91] Creating Layer conv4_2a
I0412 22:48:43.021883 11691 net.cpp:425] conv4_2a <- conv4_1_conv4_1_relu_0_split_0
I0412 22:48:43.021893 11691 net.cpp:399] conv4_2a -> conv4_2a
I0412 22:48:43.026341 11691 net.cpp:141] Setting up conv4_2a
I0412 22:48:43.026357 11691 net.cpp:148] Top shape: 100 64 8 8 (409600)
I0412 22:48:43.026362 11691 net.cpp:156] Memory required for data: 399361200
I0412 22:48:43.026371 11691 layer_factory.hpp:77] Creating layer bn_conv4_2a
I0412 22:48:43.026379 11691 net.cpp:91] Creating Layer bn_conv4_2a
I0412 22:48:43.026384 11691 net.cpp:425] bn_conv4_2a <- conv4_2a
I0412 22:48:43.026391 11691 net.cpp:386] bn_conv4_2a -> conv4_2a (in-place)
I0412 22:48:43.026604 11691 net.cpp:141] Setting up bn_conv4_2a
I0412 22:48:43.026613 11691 net.cpp:148] Top shape: 100 64 8 8 (409600)
I0412 22:48:43.026618 11691 net.cpp:156] Memory required for data: 400999600
I0412 22:48:43.026626 11691 layer_factory.hpp:77] Creating layer scale_conv4_2a
I0412 22:48:43.026633 11691 net.cpp:91] Creating Layer scale_conv4_2a
I0412 22:48:43.026638 11691 net.cpp:425] scale_conv4_2a <- conv4_2a
I0412 22:48:43.026644 11691 net.cpp:386] scale_conv4_2a -> conv4_2a (in-place)
I0412 22:48:43.026692 11691 layer_factory.hpp:77] Creating layer scale_conv4_2a
I0412 22:48:43.026816 11691 net.cpp:141] Setting up scale_conv4_2a
I0412 22:48:43.026825 11691 net.cpp:148] Top shape: 100 64 8 8 (409600)
I0412 22:48:43.026829 11691 net.cpp:156] Memory required for data: 402638000
I0412 22:48:43.026836 11691 layer_factory.hpp:77] Creating layer conv4_2a_relu
I0412 22:48:43.026844 11691 net.cpp:91] Creating Layer conv4_2a_relu
I0412 22:48:43.026849 11691 net.cpp:425] conv4_2a_relu <- conv4_2a
I0412 22:48:43.026854 11691 net.cpp:386] conv4_2a_relu -> conv4_2a (in-place)
I0412 22:48:43.027883 11691 net.cpp:141] Setting up conv4_2a_relu
I0412 22:48:43.027897 11691 net.cpp:148] Top shape: 100 64 8 8 (409600)
I0412 22:48:43.027901 11691 net.cpp:156] Memory required for data: 404276400
I0412 22:48:43.027906 11691 layer_factory.hpp:77] Creating layer conv4_2b
I0412 22:48:43.027918 11691 net.cpp:91] Creating Layer conv4_2b
I0412 22:48:43.027923 11691 net.cpp:425] conv4_2b <- conv4_2a
I0412 22:48:43.027932 11691 net.cpp:399] conv4_2b -> conv4_2b
I0412 22:48:43.031533 11691 net.cpp:141] Setting up conv4_2b
I0412 22:48:43.031549 11691 net.cpp:148] Top shape: 100 64 8 8 (409600)
I0412 22:48:43.031554 11691 net.cpp:156] Memory required for data: 405914800
I0412 22:48:43.031563 11691 layer_factory.hpp:77] Creating layer bn_conv4_2b
I0412 22:48:43.031574 11691 net.cpp:91] Creating Layer bn_conv4_2b
I0412 22:48:43.031579 11691 net.cpp:425] bn_conv4_2b <- conv4_2b
I0412 22:48:43.031585 11691 net.cpp:386] bn_conv4_2b -> conv4_2b (in-place)
I0412 22:48:43.031812 11691 net.cpp:141] Setting up bn_conv4_2b
I0412 22:48:43.031821 11691 net.cpp:148] Top shape: 100 64 8 8 (409600)
I0412 22:48:43.031826 11691 net.cpp:156] Memory required for data: 407553200
I0412 22:48:43.031862 11691 layer_factory.hpp:77] Creating layer scale_conv4_2b
I0412 22:48:43.031870 11691 net.cpp:91] Creating Layer scale_conv4_2b
I0412 22:48:43.031874 11691 net.cpp:425] scale_conv4_2b <- conv4_2b
I0412 22:48:43.031882 11691 net.cpp:386] scale_conv4_2b -> conv4_2b (in-place)
I0412 22:48:43.031931 11691 layer_factory.hpp:77] Creating layer scale_conv4_2b
I0412 22:48:43.032061 11691 net.cpp:141] Setting up scale_conv4_2b
I0412 22:48:43.032070 11691 net.cpp:148] Top shape: 100 64 8 8 (409600)
I0412 22:48:43.032075 11691 net.cpp:156] Memory required for data: 409191600
I0412 22:48:43.032083 11691 layer_factory.hpp:77] Creating layer conv4_2
I0412 22:48:43.032088 11691 net.cpp:91] Creating Layer conv4_2
I0412 22:48:43.032094 11691 net.cpp:425] conv4_2 <- conv4_1_conv4_1_relu_0_split_1
I0412 22:48:43.032099 11691 net.cpp:425] conv4_2 <- conv4_2b
I0412 22:48:43.032105 11691 net.cpp:399] conv4_2 -> conv4_2
I0412 22:48:43.032135 11691 net.cpp:141] Setting up conv4_2
I0412 22:48:43.032142 11691 net.cpp:148] Top shape: 100 64 8 8 (409600)
I0412 22:48:43.032146 11691 net.cpp:156] Memory required for data: 410830000
I0412 22:48:43.032163 11691 layer_factory.hpp:77] Creating layer conv4_2_relu
I0412 22:48:43.032173 11691 net.cpp:91] Creating Layer conv4_2_relu
I0412 22:48:43.032178 11691 net.cpp:425] conv4_2_relu <- conv4_2
I0412 22:48:43.032184 11691 net.cpp:386] conv4_2_relu -> conv4_2 (in-place)
I0412 22:48:43.032595 11691 net.cpp:141] Setting up conv4_2_relu
I0412 22:48:43.032609 11691 net.cpp:148] Top shape: 100 64 8 8 (409600)
I0412 22:48:43.032613 11691 net.cpp:156] Memory required for data: 412468400
I0412 22:48:43.032618 11691 layer_factory.hpp:77] Creating layer conv4_2_conv4_2_relu_0_split
I0412 22:48:43.032627 11691 net.cpp:91] Creating Layer conv4_2_conv4_2_relu_0_split
I0412 22:48:43.032632 11691 net.cpp:425] conv4_2_conv4_2_relu_0_split <- conv4_2
I0412 22:48:43.032639 11691 net.cpp:399] conv4_2_conv4_2_relu_0_split -> conv4_2_conv4_2_relu_0_split_0
I0412 22:48:43.032649 11691 net.cpp:399] conv4_2_conv4_2_relu_0_split -> conv4_2_conv4_2_relu_0_split_1
I0412 22:48:43.032696 11691 net.cpp:141] Setting up conv4_2_conv4_2_relu_0_split
I0412 22:48:43.032703 11691 net.cpp:148] Top shape: 100 64 8 8 (409600)
I0412 22:48:43.032709 11691 net.cpp:148] Top shape: 100 64 8 8 (409600)
I0412 22:48:43.032713 11691 net.cpp:156] Memory required for data: 415745200
I0412 22:48:43.032717 11691 layer_factory.hpp:77] Creating layer conv4_3a
I0412 22:48:43.032729 11691 net.cpp:91] Creating Layer conv4_3a
I0412 22:48:43.032734 11691 net.cpp:425] conv4_3a <- conv4_2_conv4_2_relu_0_split_0
I0412 22:48:43.032742 11691 net.cpp:399] conv4_3a -> conv4_3a
I0412 22:48:43.040060 11691 net.cpp:141] Setting up conv4_3a
I0412 22:48:43.040076 11691 net.cpp:148] Top shape: 100 64 8 8 (409600)
I0412 22:48:43.040081 11691 net.cpp:156] Memory required for data: 417383600
I0412 22:48:43.040088 11691 layer_factory.hpp:77] Creating layer bn_conv4_3a
I0412 22:48:43.040102 11691 net.cpp:91] Creating Layer bn_conv4_3a
I0412 22:48:43.040107 11691 net.cpp:425] bn_conv4_3a <- conv4_3a
I0412 22:48:43.040113 11691 net.cpp:386] bn_conv4_3a -> conv4_3a (in-place)
I0412 22:48:43.040372 11691 net.cpp:141] Setting up bn_conv4_3a
I0412 22:48:43.040383 11691 net.cpp:148] Top shape: 100 64 8 8 (409600)
I0412 22:48:43.040388 11691 net.cpp:156] Memory required for data: 419022000
I0412 22:48:43.040397 11691 layer_factory.hpp:77] Creating layer scale_conv4_3a
I0412 22:48:43.040405 11691 net.cpp:91] Creating Layer scale_conv4_3a
I0412 22:48:43.040410 11691 net.cpp:425] scale_conv4_3a <- conv4_3a
I0412 22:48:43.040417 11691 net.cpp:386] scale_conv4_3a -> conv4_3a (in-place)
I0412 22:48:43.040470 11691 layer_factory.hpp:77] Creating layer scale_conv4_3a
I0412 22:48:43.040618 11691 net.cpp:141] Setting up scale_conv4_3a
I0412 22:48:43.040627 11691 net.cpp:148] Top shape: 100 64 8 8 (409600)
I0412 22:48:43.040630 11691 net.cpp:156] Memory required for data: 420660400
I0412 22:48:43.040637 11691 layer_factory.hpp:77] Creating layer conv4_3a_relu
I0412 22:48:43.040643 11691 net.cpp:91] Creating Layer conv4_3a_relu
I0412 22:48:43.040647 11691 net.cpp:425] conv4_3a_relu <- conv4_3a
I0412 22:48:43.040652 11691 net.cpp:386] conv4_3a_relu -> conv4_3a (in-place)
I0412 22:48:43.042212 11691 net.cpp:141] Setting up conv4_3a_relu
I0412 22:48:43.042227 11691 net.cpp:148] Top shape: 100 64 8 8 (409600)
I0412 22:48:43.042230 11691 net.cpp:156] Memory required for data: 422298800
I0412 22:48:43.042234 11691 layer_factory.hpp:77] Creating layer conv4_3b
I0412 22:48:43.042246 11691 net.cpp:91] Creating Layer conv4_3b
I0412 22:48:43.042251 11691 net.cpp:425] conv4_3b <- conv4_3a
I0412 22:48:43.042260 11691 net.cpp:399] conv4_3b -> conv4_3b
I0412 22:48:43.049213 11691 net.cpp:141] Setting up conv4_3b
I0412 22:48:43.049228 11691 net.cpp:148] Top shape: 100 64 8 8 (409600)
I0412 22:48:43.049233 11691 net.cpp:156] Memory required for data: 423937200
I0412 22:48:43.049242 11691 layer_factory.hpp:77] Creating layer bn_conv4_3b
I0412 22:48:43.049252 11691 net.cpp:91] Creating Layer bn_conv4_3b
I0412 22:48:43.049257 11691 net.cpp:425] bn_conv4_3b <- conv4_3b
I0412 22:48:43.049263 11691 net.cpp:386] bn_conv4_3b -> conv4_3b (in-place)
I0412 22:48:43.049484 11691 net.cpp:141] Setting up bn_conv4_3b
I0412 22:48:43.049494 11691 net.cpp:148] Top shape: 100 64 8 8 (409600)
I0412 22:48:43.049496 11691 net.cpp:156] Memory required for data: 425575600
I0412 22:48:43.049504 11691 layer_factory.hpp:77] Creating layer scale_conv4_3b
I0412 22:48:43.049510 11691 net.cpp:91] Creating Layer scale_conv4_3b
I0412 22:48:43.049515 11691 net.cpp:425] scale_conv4_3b <- conv4_3b
I0412 22:48:43.049520 11691 net.cpp:386] scale_conv4_3b -> conv4_3b (in-place)
I0412 22:48:43.049564 11691 layer_factory.hpp:77] Creating layer scale_conv4_3b
I0412 22:48:43.049684 11691 net.cpp:141] Setting up scale_conv4_3b
I0412 22:48:43.049691 11691 net.cpp:148] Top shape: 100 64 8 8 (409600)
I0412 22:48:43.049695 11691 net.cpp:156] Memory required for data: 427214000
I0412 22:48:43.049702 11691 layer_factory.hpp:77] Creating layer conv4_3
I0412 22:48:43.049710 11691 net.cpp:91] Creating Layer conv4_3
I0412 22:48:43.049713 11691 net.cpp:425] conv4_3 <- conv4_2_conv4_2_relu_0_split_1
I0412 22:48:43.049718 11691 net.cpp:425] conv4_3 <- conv4_3b
I0412 22:48:43.049724 11691 net.cpp:399] conv4_3 -> conv4_3
I0412 22:48:43.049752 11691 net.cpp:141] Setting up conv4_3
I0412 22:48:43.049759 11691 net.cpp:148] Top shape: 100 64 8 8 (409600)
I0412 22:48:43.049763 11691 net.cpp:156] Memory required for data: 428852400
I0412 22:48:43.049767 11691 layer_factory.hpp:77] Creating layer conv4_3_relu
I0412 22:48:43.049773 11691 net.cpp:91] Creating Layer conv4_3_relu
I0412 22:48:43.049777 11691 net.cpp:425] conv4_3_relu <- conv4_3
I0412 22:48:43.049782 11691 net.cpp:386] conv4_3_relu -> conv4_3 (in-place)
I0412 22:48:43.051302 11691 net.cpp:141] Setting up conv4_3_relu
I0412 22:48:43.051311 11691 net.cpp:148] Top shape: 100 64 8 8 (409600)
I0412 22:48:43.051316 11691 net.cpp:156] Memory required for data: 430490800
I0412 22:48:43.051323 11691 layer_factory.hpp:77] Creating layer global_pool
I0412 22:48:43.051333 11691 net.cpp:91] Creating Layer global_pool
I0412 22:48:43.051338 11691 net.cpp:425] global_pool <- conv4_3
I0412 22:48:43.051343 11691 net.cpp:399] global_pool -> global_pool
I0412 22:48:43.053570 11691 net.cpp:141] Setting up global_pool
I0412 22:48:43.053585 11691 net.cpp:148] Top shape: 100 64 1 1 (6400)
I0412 22:48:43.053589 11691 net.cpp:156] Memory required for data: 430516400
I0412 22:48:43.053594 11691 layer_factory.hpp:77] Creating layer ip
I0412 22:48:43.053602 11691 net.cpp:91] Creating Layer ip
I0412 22:48:43.053607 11691 net.cpp:425] ip <- global_pool
I0412 22:48:43.053614 11691 net.cpp:399] ip -> ip
I0412 22:48:43.053746 11691 net.cpp:141] Setting up ip
I0412 22:48:43.053755 11691 net.cpp:148] Top shape: 100 10 (1000)
I0412 22:48:43.053760 11691 net.cpp:156] Memory required for data: 430520400
I0412 22:48:43.053767 11691 layer_factory.hpp:77] Creating layer ip_ip_0_split
I0412 22:48:43.053786 11691 net.cpp:91] Creating Layer ip_ip_0_split
I0412 22:48:43.053791 11691 net.cpp:425] ip_ip_0_split <- ip
I0412 22:48:43.053797 11691 net.cpp:399] ip_ip_0_split -> ip_ip_0_split_0
I0412 22:48:43.053814 11691 net.cpp:399] ip_ip_0_split -> ip_ip_0_split_1
I0412 22:48:43.053860 11691 net.cpp:141] Setting up ip_ip_0_split
I0412 22:48:43.053869 11691 net.cpp:148] Top shape: 100 10 (1000)
I0412 22:48:43.053874 11691 net.cpp:148] Top shape: 100 10 (1000)
I0412 22:48:43.053877 11691 net.cpp:156] Memory required for data: 430528400
I0412 22:48:43.053881 11691 layer_factory.hpp:77] Creating layer accuracy
I0412 22:48:43.053889 11691 net.cpp:91] Creating Layer accuracy
I0412 22:48:43.053892 11691 net.cpp:425] accuracy <- ip_ip_0_split_0
I0412 22:48:43.053897 11691 net.cpp:425] accuracy <- label_cifar_1_split_0
I0412 22:48:43.053906 11691 net.cpp:399] accuracy -> accuracy
…
